SAC/checkpoints/Pendulum-v1/01_best_agent.pth (torch, 214247 bytes, 17 tensors)

log_alpha f8 []
-1.5219405755821147
00000000: 224a 695c de59 f8bf

actor.0.weight f4 [128, 3]
0.16964105 -0.2384397 0.020948233 0.060838953 0.39013404 0.094873965 0.18894158 0.20048967
0.19396326 0.13976292 0.1998818 0.16073483 -0.16769724 -0.22086231 -0.14642222 -0.06863519
-0.30581746 -0.08037942 0.010892893 0.2198028 -0.09267033 -0.062408462 -0.037238885 -0.22368407
-0.16423912 -0.09828843 0.06860816 0.1437235 0.016865758 -0.19674596 0.09606323 0.13361098
-0.16826269 0.16044898 0.02367369 0.06611379 -0.101354815 0.34879494 0.14142632 0.056554306
0.21400073 -0.021135626 0.053707276 0.20293847 0.061666206 0.07628445 -0.1957242 -0.049018167
0.062898606 -0.13442269 -0.10622129 -0.115179986 0.33077228 0.02013721 -0.07052951 -0.41621688
-0.08720661 -0.16777392 0.26003516 0.030736802 -0.109388344 0.5264532 0.2068741 0.16031553
0.28660432 0.0730576 -0.008573385 0.14645414 0.21654713 -0.2883742 -0.34031695 -0.089681886
-0.24580882 -0.120740324 -0.11415013 -0.089318015 -0.18861234 -0.042545777 0.17674738 0.117391765
0.07015615 -0.002619558 -0.12255734 -0.18375894 0.21376638 -0.4071256 -0.07978518 -0.17592186
-0.02420006 0.19591846 -0.0019345969 0.33626434 -0.0898448 0.10441735 -0.25205994 -0.16762906
-0.11335841 0.57610685 0.14550163 -0.16432491 0.5760222 0.057950933 -0.041442268 0.050939556
0.19545671 -0.07120133 0.4390216 0.15992214 0.056655943 0.09465892 -0.1363577 0.0171928
0.12004573 -0.12440362 -0.015841482 -0.17579114 0.21332106 0.059029642 -0.16409019 -0.18707839
0.17031309 0.34709823 0.14585355 0.019241963 0.31188565 0.14770223 0.09709114 0.095042415
-0.19391775 0.14437161 -0.25701612 -0.08479698 -0.0017667094 -0.29343584 0.063607685 0.013086957
-0.2654823 0.036181256 0.23583262 0.30628392 0.094419055 0.0075218054 0.30611977 -0.097763464
0.22067036 0.40253145 0.10309564 -0.07950396 0.49135953 0.15859208 0.18008105 -0.20701155
0.031786256 0.21593681 -0.39411682 -0.07806737 -0.038265437 -0.08461528 0.10255722 0.14770141
-0.020093152 -0.17655414 -0.23269483 -0.30392548 -0.23378149 -0.24746633 -0.026562044 0.056646116
-0.08909475 0.0020736572 0.18943483 0.32992572 0.036119796 0.0013787685 0.034789328 -0.33511168
-0.1290026 -0.16030551 -0.4494638 0.051238902 0.118325986 -0.25477284 -0.05063928 -0.20208225
-0.11447518 0.020996707 -0.21559444 0.2791472 0.09318637 0.055997524 0.23882426 0.06543573
-0.09487382 -0.24865639 -0.19259559 -0.1718957 0.24010703 -0.027689865 -0.016540857 0.43345734
0.14726466 0.13512836 -0.3151303 -0.06363868 -0.21833482 -0.27674443 -0.19888432 -0.021916838
-0.16485421 0.19405334 0.10983707 0.23309964 -0.12639606 0.21556674 -0.00069143565 -0.1587675
-0.0071314718 0.28433007 0.18183781 -0.22196676 0.22138706 -0.0049221385 0.19688442 0.04155574
-0.20278057 -0.10333507 -0.49857318 -0.10142151 0.26139513 0.1003535 0.028136231 0.05042019
-0.090999566 0.21899024 0.062480636 -0.17553154 0.0996511 -0.01982445 0.02743714 -0.06765493
0.030203907 0.1344884 0.13644135 -0.045645244 0.17315106 -0.14775436 -0.0078021195 0.076476835
-0.10129095 0.09866962 -0.239919 -0.0460942 0.2254237 -0.43373352 -0.09115647 -0.2566994
00000000: 62b6 2d3e 8929 74be a19b ab3c 4432 793d
00000010: a6bf c73e 484d c23d e779 413e 2a4d 4d3e
00000020: 4e9e 463e 031e 0f3e d1ad 4c3e ac97 243e
00000030: d3b8 2bbe bb29 62be b5ef 15be 9b90 8cbd
00000040: 1b94 9cbe f79d a4bd 1b78 323c fc13 613e
00000050: f1c9 bdbd 04a0 7fbd cd87 18bd 700d 65be
00000060: 4d2e 28be 724b c9bd 6f82 8c3d 412c 133e
00000070: 0f2a 8a3c c677 49be ccbc c43d 51d1 083e
00000080: 0e4d 2cbe bd4c 243e 54ef c13c ab66 873d
00000090: 1d93 cfbd 4095 b23e 10d2 103e 7da5 673d
000000a0: 0223 5b3e 9f24 adbc 29fc 5b3d 1acf 4f3e
000000b0: b495 7c3d 063b 9c3d ed6b 48be 46c7 48bd
000000c0: fcd0 803d 1aa6 09be 8c8a d9bd 7ce3 ebbd
000000d0: fc5a a93e caf6 a43c c771 90bd 611a d5be
000000e0: 6199 b2bd edcc 2bbe 5423 853e bfcb fb3c
000000f0: ff06 e0bd a3c5 063f ced6 533e c129 243e
00000100: cdbd 923e 399f 953d 6277 0cbc 13f8 153e
00000110: 88be 5d3e c8a5 93be 063e aebe 23ab b7bd
00000120: 4fb5 7bbe b446 f7bd 8bc7 e9bd 5dec b6bd
00000130: 9823 41be 7b44 2ebd 44fd 343e 186b f03d
00000140: 07ae 8f3d e4ac 2bbb 58ff fabd 4e2b 3cbe
00000150: 93e5 5a3e c472 d0be 6a66 a3bd dc24 34be
00000160: 343f c6bc d99e 483e 4d92 fdba d72a ac3e
00000170: 8d00 b8bd c3d8 d53d 000e 81be f4a6 2bbe
00000180: 7428 e8bd bd7b 133f 61fe 143e ca44 28be
00000190: 3176 133f f55d 6d3d 5ebf 29bd ffa5 503d
000001a0: ce25 483e 01d2 91bd 70c7 e03e a1c2 233e
000001b0: 1010 683d 89dc c13d 5aa1 0bbe ead7 8c3c
000001c0: 89da f53d 53c7 febd ffc5 81bc 9802 34be
000001d0: d670 5a3e 11c9 713d 4207 28be 7a91 3fbe
000001e0: 8e66 2e3e dcb6 b13e a25a 153e 52a1 9d3c
000001f0: 7aaf 9f3e 413f 173e b8d7 c63d 99a5 c23d
00000200: 6092 46be 27d6 133e 9e97 83be 0aaa adbd
00000210: ee90 e7ba 393d 96be bf44 823d ad6a 563c
00000220: 4ced 87be cc32 143d 1b7e 713e 3fd1 9c3e
00000230: c75e c13d 7a79 f63b bbbb 9c3e 3638 c8bd
00000240: 69f7 613e 9a18 ce3e cf23 d33d f9d2 a2bd
00000250: 7a93 fb3e f665 223e 2b67 383e d6fa 53be
00000260: 4e32 023d 8a1e 5d3e aec9 c9be c9e1 9fbd
00000270: 38bc 1cbd c74a adbd 8509 d23d 0a3f 173e
00000280: 659a a4bc 9cca 34be 8e47 6ebe 1f9c 9bbe
00000290: 6a64 6fbe d067 7dbe a598 d9bc c205 683d
000002a0: 4f77 b6bd 32e6 073b 34fb 413e 06ec a83e
000002b0: 5af2 133d cbb7 b43a 417f 0e3d c293 abbe
000002c0: 4219 04be 2127 24be 1f20 e6be e2df 513d
000002d0: e554 f23d 9671 82be 226b 4fbd a6ee 4ebe
000002e0: f771 eabd 4901 ac3c cac4 5cbe 62ec 8e3e
000002f0: 7fd8 be3d a95d 653d 598e 743e 2b03 863d
00000300: 354d c2bd c89f 7ebe c737 45be 6d05 30be
00000310: 9ede 753e dbd5 e2bc b180 87bc 1fee dd3e
00000320: 8ccc 163e 175f 0a3e c258 a1be ff54 82bd
00000330: 2a93 5fbe 72b1 8dbe 55a8 4bbe f18a b3bc
00000340: 8bcf 28be ebb5 463e 42f2 e03d acb1 6e3e
00000350: f86d 01be 87bd 5c3e 7641 35ba f393 22be
00000360: 1faf e9bb b693 913e b133 3a3e 414b 63be
00000370: 4ab3 623e e449 a1bb 129c 493e 5a36 2a3d
00000380: b6a5 4fbe 56a1 d3bd fc44 ffbe 15b6 cfbd
00000390: 95d5 853e 2386 cd3d f47d e63c 6785 4e3d
000003a0: fb5d babd fa3e 603e b2eb 7f3d 8abe 33be
000003b0: e015 cc3d e366 a2bc dac3 e03c ab8e 8abd
000003c0: 2f6e f73c 54b7 093e 48b7 0b3e 82f6 3abd
000003d0: 834e 313e eb4c 17be eca8 ffbb e39f 9c3d
000003e0: a171 cfbd 4c13 ca3d 54ad 75be 46cd 3cbd
000003f0: 78d5 663e 5212 debe 3eb0 babd 1b6e 83be

actor.0.bias f4 [128]
0.03795113 -0.026837341 -0.071699485 0.10077892 -0.023797339 -0.031921133 0.030412525 -0.046043016
0.018345485 -0.11866742 0.07836868 0.15542607 -0.09206882 0.078163326 0.025975944 0.071812876
0.11428592 0.0655956 0.02323354 0.052809466 -0.090697624 -0.051656976 0.08835085 0.037748974
0.01684849 0.0046516303 -0.18991624 0.021883694 0.02588954 0.014379948 -0.029438265 0.05072269
-0.094201244 0.08870278 0.003242028 -0.06515127 -0.0045674024 -0.034056067 0.024248311 -0.06703952
0.012524347 0.029198065 -0.0022281366 0.13345683 0.03845519 -0.05579115 0.006280572 0.06768994
-0.06403373 -0.07951016 0.10698335 0.016209895 -0.056515146 -0.07052204 0.03917922 -0.07793136
-0.041722074 0.13374649 0.081577346 0.07715237 0.005782238 0.018486768 0.029396607 0.027112493
-0.033014238 -0.007956188 -0.014326113 0.017476998 -0.020680204 -0.01404905 0.05581331 -7.0489473e-06
0.028204171 0.10921084 -0.0056898748 -0.030773949 0.107917346 -0.06307709 0.040833108 -0.03473101
-0.01782747 -0.111683115 0.0007937853 0.01674832 -0.011228209 -0.0034059607 0.07927718 0.011388212
-0.018817306 -0.061101362 -0.011910803 0.0667136 -0.029976383 0.024665877 -0.0075047584 0.013896573
0.036935 0.018016493 0.05754278 -0.009590316 0.012389925 0.15265764 0.04548277 0.072474174
0.077593595 -0.052718993 -0.0021071099 0.005914686 0.035213057 -0.02490985 0.06464514 -0.044200692
-0.025775434 0.029586282 -0.11319823 0.017662207 -0.0294686 -0.06265993 0.024067346 0.02330201
-0.018156288 -0.02097488 0.006725126 -0.09931145 0.10147931 0.0066226986 0.10652407 0.03733923
00000000: a572 1b3d fcd9 dbbc 2ed7 92bd 2e65 ce3d
00000010: a3f2 c2bc bcbf 02bd b023 f93c 9a97 3cbd
00000020: 4549 963c e807 f3bd c27f a03d 0328 1f3e
00000030: 948e bcbd 1814 a03d 81cb d43c a112 933d
00000040: bd0e ea3d fc56 863d 4454 be3c bd4e 583d
00000050: adbf b9bd 4496 53bd 4af1 b43d ab9e 1a3d
00000060: d805 8a3c b46c 983b 6779 42be 6f45 b33c
00000070: 4d16 d43c e099 6b3c 8428 f1bc 98c2 4f3d
00000080: 95ec c0bd cea9 b53d 3478 543b 076e 85bd
00000090: 26aa 95bb 607e 0bbd 65a4 c63c 044c 89bd
000000a0: eb32 4d3c c830 ef3c ee05 12bb e8a8 083e
000000b0: 3083 1d3d 4385 64bd 42cd cd3b 06a1 8a3d
000000c0: 1e24 83bd 39d6 a2bd 161a db3d 9dca 843c
000000d0: 6d7c 67bd dc6d 90bd 647a 203d 7a9a 9fbd
000000e0: c4e4 2abd d7f4 083e 0612 a73d 1002 9e3d
000000f0: ee78 bd3b 9071 973c 27d1 f03c 051b de3c
00000100: f039 07bd ac5a 02bc 13b8 6abc ec2b 8f3c
00000110: 8869 a9bc fd2d 66bc 7f9c 643d ff85 ecb6
00000120: 6f0c e73c efa9 df3d 2172 babb a619 fcbc
00000130: c503 dd3d 902e 81bd 9e40 273d 1b42 0ebd
00000140: ea0a 92bc 1eba e4bd 0816 503a c633 893c
00000150: 86f6 37bc 8a36 5fbb 135c a23d a095 3a3c
00000160: c026 9abc 6c45 7abd 8725 43bc 24a1 883d
00000170: 0891 f5bc 1810 ca3c 7aea f5bb 74ae 633c
00000180: 2849 173d 5397 933c fab1 6b3d b320 1dbc
00000190: 1dff 4a3c 4952 1c3e 244c 3a3d 576d 943d
000001a0: 64e9 9e3d dfef 57bd 7017 0abb fbcf c13b
000001b0: 913b 103d be0f ccbc ac64 843d c90b 35bd
000001c0: 0127 d3bc ee5e f23c 79d4 e7bd 55b0 903c
000001d0: 2268 f1bc d953 80bd e228 c53c dbe3 be3c
000001e0: 7fbc 94bc 83d3 abbc 725e dc3b cd63 cbbd
000001f0: 62d4 cf3d 3903 d93b 4b29 da3d 05f1 183d

actor.2.weight f4 [128, 128]
0.12449371 -0.18467325 -0.16658817 -0.1798946 -0.0018203461 -0.12283865 -0.08427008 -0.15935318
-0.035201207 0.1289152 0.17748898 0.014875474 0.007127133 0.0061392295 -0.050874807 0.14112374
0.012488001 -0.083054714 -0.09108895 -0.043815468 0.1804534 -0.057935722 0.07172973 -0.120968916
0.019430839 -0.059601564 -0.2827527 -0.017683033 0.12125776 0.19200207 -0.17608641 0.14003773
-0.016674727 0.15268722 -0.08979798 0.17771281 0.080229886 -0.1166668 0.038687363 0.14954337
-0.10688217 0.154845 -0.11029263 -0.08678705 -0.05954692 0.1265589 -0.2098231 0.022819022
-0.18167461 0.14362954 -0.025858859 0.20298468 0.101438105 0.057645928 0.06632696 0.13198149
-0.044299826 0.01477481 -0.11882809 0.011656976 -0.03576391 0.014892719 0.051841218 -0.12331301
-0.14919682 -0.02931155 0.13023402 -0.070312105 -0.11307096 0.0886706 -0.067758486 0.21116355
-0.037488192 0.09073742 0.16878653 -0.26210263 0.06955489 -0.09404729 -0.07605296 -0.037465982
-0.071177974 0.0128136985 0.036130317 -0.0062756273 0.049342953 -0.057266977 0.09071248 0.06656759
0.02604772 0.12430699 0.15049483 -0.20425007 -0.09052796 0.086742945 -0.007846232 0.081274934
0.009251012 0.047558952 -0.17342103 0.09520855 -0.25983256 -0.028250193 -0.028414344 0.10948987
-0.08441761 -0.061051376 0.07758588 0.038688995 0.13811629 0.072190985 0.059743505 0.085704155
-0.09246443 0.005982682 -0.10899127 -0.00841085 -0.03994633 -0.15383323 -0.15277511 -0.02115059
0.060334884 0.12119699 -0.04990952 0.09540753 -0.021952128 -0.18196434 -0.022965288 0.08119335
-0.11707012 -0.107123874 0.030735854 0.08023514 -0.13692828 -0.5711341 0.044378284 -0.20156509
0.13738327 -0.13089488 0.1652975 -0.047638528 -0.07507011 0.0726636 -0.102165565 0.032976758
-0.07632014 0.11052473 -0.3442186 0.18531275 0.17619409 -0.19023412 0.15138161 0.038274195
-0.11145306 -0.17148907 -0.2730821 -0.32929227 0.068525195 0.019431507 -0.031410616 0.14902003
0.10355249 -0.00583795 0.15383488 -0.020351974 -0.1558597 -0.34974515 -0.10485159 -0.14463796
-0.14362256 0.016071504 -0.13398814 -0.039917946 -0.20341517 -0.00089844177 -0.1620741 0.18430443
0.019242313 -0.07577388 -0.06078994 0.13434134 0.025863538 -0.1411659 -0.20767227 0.21340607
0.020720903 -0.21077526 -0.9069439 -0.16188142 -0.047923326 0.10337529 0.18556117 -0.0074395216
-0.24537873 -0.06481495 0.15515833 0.17594653 -0.22201853 -0.009880422 -0.3006657 -0.102828786
-0.0073906914 0.07609733 -0.080462925 -0.38463867 -0.07263642 -0.16922154 0.16747929 -0.12881875
-0.06298032 -0.10944786 -0.0458285 -0.010635301 0.091295384 0.03595711 -0.034737818 0.110383
-0.09039505 0.017077403 -0.023777802 0.12595356 -0.007964006 0.15896428 0.081632294 0.11507221
0.050113138 0.045527253 -0.344061 0.15401778 -0.32847148 -0.0753786 0.15703999 0.18022174
-0.13920534 0.16738741 0.14062804 0.051579203 0.08229019 0.082251966 0.041708667 0.08371631
-0.43835106 0.18478782 -0.13797407 -0.15104479 -0.31016925 -0.0861445 0.029869003 -0.3930574
-0.029834256 -0.038097903 -0.047526293 0.16171555 -0.08872869 -0.5486562 -0.21725097 0.07201636
00000000: 8ff6 fe3d fc1a 3dbe 1796 2abe 4a36 38be
00000010: ae98 eeba d592 fbbd cb95 acbd 7b2d 23be
00000020: 242f 10bd 5902 043e acbf 353e 43b8 733c
00000030: ba8a e93b 972b c93b 1a62 50bd be82 103e
00000040: 799a 4c3c 9718 aabd d88c babd d977 33bd
00000050: c7c8 383e 024e 6dbd 09e7 923d 8dbe f7bd
00000060: 6c2d 9f3c c520 74bd f6c4 90be 02dc 90bc
00000070: fd55 f83d 319c 443e ff4f 34be 0d66 0f3e
00000080: 7099 88bc 0a5a 1c3e 01e8 b7bd 59fa 353e
00000090: 914f a43d 01ef eebd a476 1e3d e621 193e
000000a0: 0ae5 dabd b08f 1e3e 1ae1 e1bd 69bd b1bd
000000b0: 79e7 73bd a898 013e dedb 56be f5ee ba3c
000000c0: e908 3abe 9f13 133e f5d5 d3bc 37db 4f3e
000000d0: c8be cf3d 231e 6c3d 6ed6 873d 2826 073e
000000e0: bc73 35bd 0b12 723c 245c f3bd e7fc 3e3c
000000f0: 2d7d 12bd 9700 743c 7557 543d 888b fcbd
00000100: 0dc7 18be c71e f0bc 115c 053e cbff 8fbd
00000110: bf91 e7bd ee98 b53d f6c4 8abd 423b 583e
00000120: 388d 19bd 8ad4 b93d 60d6 2c3e 5132 86be
00000130: cb72 8e3d de9b c0bd a7c1 9bbd ee75 19bd
00000140: c2c5 91bd 8cf0 513c 62fd 133d c7a3 cdbb
00000150: d61b 4a3d c790 6abd 77c7 b93d 9754 883d
00000160: 0762 d53c aa94 fe3d 511b 1a3e ee26 51be
00000170: b966 b9bd 49a6 b13d 7b8d 00bc 7973 a63d
00000180: 8e91 173c 2dcd 423d 4895 31be b3fc c23d
00000190: c608 85be f36c e7bc 33c5 e8bc 3a3c e03d
000001a0: 24e3 acbd 0211 7abd 59e5 9e3d 5a78 1e3d
000001b0: 5b6e 0d3e ded8 933d 9bb5 743d a985 af3d
000001c0: fe5d bdbd 600a c43b d136 dfbd a9cd 09bc
000001d0: c39e 23bd 7586 1dbe 1471 1cbe 0144 adbc
000001e0: b621 773d 2136 f83d ed6d 4cbd 0665 c33d
000001f0: f3d4 b3bc dc54 3abe b321 bcbc b348 a63d
00000200: 76c2 efbd c363 dbbd c2c9 fb3c 5252 a43d
00000210: ed36 0cbe d835 12bf 01c6 353d 1467 4ebe
00000220: 33ae 0c3e 4f09 06be bf43 293e 9e20 43bd
00000230: 5cbe 99bd a7d0 943d 2e3c d1bd a312 073d
00000240: bc4d 9cbd ca5a e23d 6c3d b0be a0c2 3d3e
00000250: 396c 343e bccc 42be c803 1b3e 67c5 1c3d
00000260: 8041 e4bd d59a 2fbe 6bd1 8bbe ff98 a8be
00000270: f056 8c3d d32e 9f3c 6ba8 00bd b598 183e
00000280: 5413 d43d 464c bfbb e486 1d3e 2fb9 a6bc
00000290: af99 1fbe cc11 b3be 6ebc d6bd f91b 14be
000002a0: cb11 13be 63a8 833c 3034 09be 0081 23bd
000002b0: 114c 50be 6885 6bba c1f6 25be 4dba 3c3e
000002c0: 0ea2 9d3c 562f 9bbd dffe 78bd c790 093e
000002d0: c5df d33c cb8d 10be 0aa8 54be 1f87 5a3e
000002e0: e2be a93c 78d5 57be 7a2d 68bf 3ec4 25be
000002f0: 404b 44bd 6db6 d33d bf03 3e3e 3bc7 f3bb
00000300: 9044 7bbe b3bd 84bd d3e1 1e3e 542b 343e
00000310: d358 63be 7ee1 21bc dbf0 99be e697 d2bd
00000320: 9d2d f2bb ebd8 9b3d bfc9 a4bd 5cef c4be
00000330: 67c2 94bd 6948 2dbe b17f 2b3e 10e9 03be
00000340: d3fb 80bd 3326 e0bd aab6 3bbd af3f 2ebc
00000350: 13f9 ba3d c347 133d 3e49 0ebd 7b10 e23d
00000360: 0a21 b9bd e9e5 8b3c aac9 c2bc f8f9 003e
00000370: 767b 02bc 88c7 223e d52e a73d fbaa eb3d
00000380: 6f43 4d3d c97a 3a3d c328 b0be d6b6 1d3e
00000390: 6a2d a8be 1860 9abd 17cf 203e 0c8c 383e
000003a0: d88b 0ebe 9b67 2b3e cc00 103e b744 533d
000003b0: c287 a83d b873 a83d b5d6 2a3d 7573 ab3d
000003c0: 8d6f e0be 0539 3d3e 1349 0dbe 7cab 1abe
000003d0: 81ce 9ebe 876c b0bd d7af f43c d23e c9be
000003e0: f866 f4bc 8c0c 1cbd eeaa 42bd c398 253e
000003f0: 63b7 b5bd bc74 0cbf 0a77 5ebe 507d 933d

actor.2.bias f4 [128]
0.016791122 0.05780911 -0.007975312 0.118958965 0.05772318 0.011858223 0.059738696 -0.005383186
0.0553252 -0.12692013 0.05421755 0.06146993 0.050690975 0.014125502 0.027520046 0.043084808
0.01408621 -0.025509624 0.036620203 0.052068867 0.036613546 0.063692056 0.03346702 0.043003097
0.034653984 0.083759785 0.024947384 -0.0947996 0.019538736 -0.067602225 -0.050821602 0.0808247
0.065206 0.04431884 0.044998758 0.0 0.041414563 0.087110445 0.07981617 0.07250259
-0.07530319 0.043002825 0.05747032 0.04815177 0.021050824 -0.019621618 -0.036871564 0.058639236
0.041457172 0.019531129 0.020005772 0.054678153 -0.021177642 0.077742584 0.022261979 -0.015162535
0.008189508 0.022263067 0.0052898973 -0.018603772 0.04474569 0.02342121 -0.046030477 0.07856641
-0.06711183 0.056625046 0.009131189 -0.10469429 0.07592818 0.07283172 0.018568859 0.020259103
0.011125479 0.06060321 0.042447224 0.08679902 0.007916251 0.04233334 -0.088925906 0.008072495
0.060737424 -0.023410024 -0.016836606 -0.05850363 -0.017831929 0.073879465 -0.0009647398 0.04673558
0.036151994 -0.019740589 -0.06734668 0.013114343 0.064332105 0.031184403 0.032377355 0.022078937
-0.031692665 -0.012590551 -0.014426655 0.016653234 0.0126569085 0.0046990486 0.02751549 -0.046437327
0.04439975 0.051533177 0.015074573 0.050830867 -0.007915699 0.018959805 0.045877308 0.0021890316
0.066796176 0.028754763 -0.007960614 0.036728106 0.05618777 0.047695417 0.089175366 0.017164074
-0.026328912 0.025290532 -0.02951886 0.050453115 0.024936179 0.018108325 0.05645412 0.027701398
00000000: 898d 893c 3fc9 6c3d e2aa 02bc c2a0 f33d
00000010: 246f 6c3d fe48 423c 90b0 743d 7065 b0bb
00000020: ad9c 623d 5af7 01be 3913 5e3d e5c7 7b3d
00000030: 57a1 4f3d a66e 673c b871 e13c b279 303d
00000040: d9c9 663c 8ff9 d0bc 11ff 153d 2a46 553d
00000050: 16f8 153d fb70 823d b714 093d 0424 303d
00000060: 56f1 0d3d 408a ab3d 755e cc3c 4b26 c2bd
00000070: b30f a03c 0973 8abd 502a 50bd 6c87 a53d
00000080: b98a 853d ac87 353d 9e50 383d 0000 0000
00000090: 51a2 293d f666 b23d a976 a33d 3d7c 943d
000000a0: 8f38 9abd bb23 303d 0066 6b3d ca3a 453d
000000b0: c772 ac3c 84bd a0bc a306 17bd b22f 703d
000000c0: ffce 293d bfff 9f3c 25e3 a33c 33f6 5f3d
000000d0: bc7c adbc 8137 9f3d c15e b63c 486c 78bc
000000e0: 492d 063c 0961 b63c e056 ad3b f066 98bc
000000f0: 4247 373d d6dd bf3c 748a 3cbd 6de7 a03d
00000100: ed71 89bd aaef 673d fc9a 153c f669 d6bd
00000110: 3c80 9b3d cc28 953d b81d 983c 6bf6 a53c
00000120: a447 363c 123b 783d 24dd 2d3d afc3 b13d
00000130: 2ab3 013c b965 2d3d c91e b6bd 8042 043c
00000140: cec7 783d 61c6 bfbc ecec 89bc 81a1 6fbd
00000150: 4414 92bc 1e4e 973d 98e6 7cba cf6d 3f3d
00000160: 1d14 143d 04b7 a1bc 0eed 89bd 8bdd 563c
00000170: 8dc0 833d 6f76 ff3c 1e9e 043d e3de b43c
00000180: 2bd0 01bd 9948 4ebc c75d 6cbc 5d6c 883c
00000190: ec5e 4f3c 7afa 993b 2a68 e13c 1135 3ebd
000001a0: 83dc 353d 7414 533d 58fb 763c 0734 503d
000001b0: d9b0 01bc 9851 9b3c d8e9 3b3d db75 0f3b
000001c0: 6fcc 883d 1c8f eb3c 3c6d 02bc 3670 163d
000001d0: 2625 663d 455c 433d 93a1 b63d ac9b 8c3c
000001e0: bbaf d7bc 172e cf3c 89d1 f1bc eda7 4e3d
000001f0: f546 cc3c e957 943c 6f3c 673d 0bee e23c

actor.4.weight f4 [2, 128]
0.26320347 0.5409231 0.20099945 0.27303624 0.4050009 -0.14338063 0.33521587 -0.18056117
0.0011625878 0.313601 -0.17142555 -0.25943288 -0.31504184 -0.3144097 -0.40578327 0.36318526
-0.24987334 -0.06912396 -0.39962655 0.5534475 0.018103324 0.14017352 -0.16590591 0.32508197
0.20960754 0.47994313 0.13473289 0.0132494345 0.19881135 -0.02994042 0.008890076 -0.36011076
0.20097372 0.50231105 -0.0273406 -0.07699503 -0.11925164 0.42183185 0.0075292285 -0.35440758
0.2142493 0.25897178 -0.1667041 0.13556191 0.33750588 0.0070392797 -0.024781154 -0.10139547
-0.11156998 -0.21128324 0.16680539 0.18566811 0.24297518 -0.014125552 -0.32552242 -0.17912658
0.4999839 -0.587363 0.13995166 -0.18342033 -0.255286 0.35941818 -0.033617955 0.14656252
-0.08520356 0.1983449 -0.38186118 -0.056996953 0.10932343 0.19500552 -0.21520934 0.37919137
-0.20163532 -0.0829292 -0.22350186 0.12773384 0.52985555 0.20461461 0.363853 0.13167855
0.0017143062 -0.31384397 -0.122064486 -0.0034294056 -0.24731074 0.5000157 -0.14601845 -0.15649286
-0.10118818 -0.15866528 0.3485295 -0.4579766 -0.4794973 -0.30630332 -0.17032577 -0.1714387
0.14258957 0.21734475 0.13760714 -0.18036036 -0.1500087 0.25148317 -0.19002864 -0.20484294
0.4043557 -0.14429852 0.111682534 -0.52439046 -0.16844274 0.20342268 -0.2630683 -0.21727428
0.08327513 0.3526607 0.05544605 -0.40336362 0.21522084 -0.08340295 0.12184442 0.2615852
-0.16997997 -0.14832547 -0.31318784 0.29218945 -0.26088554 -0.46753109 -0.524604 0.5073256
0.09920307 0.04171942 0.15254258 -0.15853214 0.08079889 0.047621917 0.20578456 -0.023362398
-0.08831351 0.2953471 -0.23152056 -0.13130988 -0.011322579 0.22150457 0.08653026 -0.07290682
0.18993108 0.19601077 -0.1128827 0.10712487 -0.26859874 -0.15696017 -0.11400073 -0.11644663
-0.05021472 0.2429702 0.09593429 0.2580744 -0.116163805 0.15314442 0.17258956 -0.08739874
-0.17379507 0.02971311 -0.061545942 0.054002803 -0.1706232 -0.08213275 -0.30384278 -0.033243123
0.22076821 -0.21382256 -0.2364597 -0.17522106 0.13165961 0.17153834 0.06499567 -0.07636524
-0.15339758 0.181116 0.030261854 0.044334818 0.076543815 -0.17133819 0.18171775 0.15951627
-0.023928614 -0.13322954 0.066374905 0.14535269 -0.16425021 0.010512338 0.060968727 -0.20606469
0.13621874 -0.18211207 -0.06728031 0.32596713 -0.14565782 -0.12451019 0.16002545 0.13419561
0.114783525 -0.23248154 -0.009809515 -0.12907574 -0.09199083 -0.16021559 0.12917235 0.027643116
-0.089428894 -0.05785417 0.16810036 0.18573861 0.13591091 0.14497955 -0.11205351 -0.23053768
-0.04999297 0.15422624 0.14393908 -0.14573038 0.17235027 0.17138043 -0.051903185 -0.049254466
0.22125614 0.18725441 0.2024802 -0.14349356 -0.13233583 0.23430431 0.010348228 -0.044637147
0.060531713 -0.11084882 -0.06385148 -0.10744572 -0.07462709 -0.16467597 -0.1925778 0.034905422
-0.23913728 0.2546454 -0.15592955 -0.01720746 -0.0966252 -0.13306059 -0.041553624 0.102813244
0.045886166 -0.07804508 0.08560111 -0.13159028 -0.020970725 -0.07467148 -0.025222935 0.18064396
00000000: 9bc2 863e f079 0a3f cdd2 4d3e 68cb 8b3e
00000010: 475c cf3e 5fd2 12be 6aa1 ab3e 07e5 38be
00000020: f961 983a 4f90 a03e 2e8a 2fbe 63d4 84be
00000030: 2a4d a1be 4ffa a0be d3c2 cfbe 6bf3 b93e
00000040: ccde 7fbe dd90 8dbd da9b ccbe bcae 0d3f
00000050: 6c4d 943c a689 0f3e 3de3 29be 2571 a63e
00000060: 5ca3 563e 1bbb f53e 6bf7 093e 2814 593c
00000070: 3495 4b3e 9d45 f5bc aea7 113c 7060 b8be
00000080: 0ecc 4d3e 7597 003f 65f9 dfbc 92af 9dbd
00000090: 343a f4bd 58fa d73e bfb7 f63b e974 b5be
000000a0: 2b64 5b3e f397 843e 7bb4 2abe bed0 0a3e
000000b0: 92cd ac3e c2a9 e63b d901 cbbc 6ea8 cfbd
000000c0: cd7e e4bd a25a 58be 08cf 2a3e c81f 3e3e
000000d0: 7cce 783e dc6e 67bc e0aa a6be f56c 37be
000000e0: e4fd ff3e 6c5d 16bf 7d4f 0f3e 8ad2 3bbe
000000f0: d9b4 82be a905 b83e fbb2 09bd 7c14 163e
00000100: 347f aebd ed1a 4b3e 4f83 c3be a375 69bd
00000110: f6e4 df3d 87af 473e d65f 5cbe 5f25 c23e
00000120: 7d79 4ebe c9d6 a9bd acdd 64be a9cc 023e
00000130: 9da4 073f 7e86 513e f14a ba3e bed6 063e
00000140: 92b2 e03a 28b0 a0be f2fc f9bd e1bf 60bb
00000150: 073f 7dbe 0701 003f dc85 15be aa3f 20be
00000160: c03b cfbd 2779 22be 7572 b23e e97b eabe
00000170: ac80 f5be cad3 9cbe e169 2ebe a08d 2fbe
00000180: 0003 123e 9f8f 5e3e e3e8 0c3e 63b0 38be
00000190: e19b 19be 67c2 803e de96 42be 59c2 51be
000001a0: b607 cf3e fec2 13be d0b9 e43d 743e 06bf
000001b0: 417c 2cbe 094e 503e e3b0 86be 267d 5ebe
000001c0: 278c aa3d f18f b43e 661b 633d ad85 cebe
000001d0: da62 5c3e 2acf aabd 9189 f93d 7fee 853e
000001e0: 3b0f 2ebe a2e2 17be 285a a0be db99 953e
000001f0: ca92 85be 3c60 efbe 734c 06bf 17e0 013f
00000200: fb2a cb3d fce1 2a3d 1f34 1c3e 4056 22be
00000210: e379 a53d 330f 433d 30b9 523e 8062 bfbc
00000220: b7dd b4bd bc37 973e ba13 6dbe 1976 06be
00000230: 5782 39bc 18d2 623e c736 b13d 2c50 95bd
00000240: 4b7d 423e 0cb7 483e 0c2f e7bd 4964 db3d
00000250: c685 89be 2bba 20be 3779 e9bd 927b eebd
00000260: f3ad 4dbd 2ecd 783e 3279 c43d 5422 843e
00000270: 4ae7 edbd e4d1 1c3e 51bb 303e 1cfe b2bd
00000280: 56f7 31be e868 f33c 9917 7cbd 0b32 5d3d
00000290: d9b7 2ebe 3735 a8bd 4891 9bbe f129 08bd
000002a0: 1011 623e 4df4 5abe 7e22 72be 266d 33be
000002b0: c7d1 063e bfa7 2f3e 731c 853d 6165 9cbd
000002c0: 4114 1dbe 7976 393e b5e7 f73c 6d98 353d
000002d0: 01c3 9c3d 4773 2fbe 3814 3a3e 3c58 233e
000002e0: f105 c4bc 536d 08be 91ef 873d 56d7 143e
000002f0: 3531 28be f13b 2c3c 58ba 793d 9f02 53be
00000300: ed7c 0b3e 967b 3abe 42ca 89bd 2ae5 a63e
00000310: 5327 15be 33ff febd b6dd 233e 936a 093e
00000320: a013 eb3d a40f 6ebe 17b8 20bc 6e2c 04be
00000330: b065 bcbd 8e0f 24be c245 043e d173 e23c
00000340: 7f26 b7bd 7ff8 6cbd 8022 2c3e 4332 3e3e
00000350: 3b2c 0b3e 8575 143e 507c e5bd 1212 6cbe
00000360: 6ec5 4cbd 7ced 1d3e c464 133e 583a 15be
00000370: 977c 303e 5a7e 2f3e 6f98 54bd 0dbf 49bd
00000380: f890 623e 9fbf 3f3e f856 4f3e faef 12be
00000390: 0b83 07be 78ed 6f3e 9d8b 293c 71d5 36bd
000003a0: 1af0 773d b504 e3bd 91c4 82bd 800c dcbd
000003b0: 16d6 98bd d1a0 28be 1d33 45be fdf8 0e3d
000003c0: 67e0 74be e260 823e ffab 1fbe a9f6 8cbc
000003d0: 6fe3 c5bd 0941 08be 2234 2abd c08f d23d
000003e0: 22f3 3b3d 19d6 9fbd a24f af3d 9abf 06be
000003f0: ccca abbc 5ced 98bd 54a0 cebc bbfa 383e

actor.4.bias f4 [2]
-0.0013508223 -0.079189144
00000000: 130e b1ba eb2d a2bd

q1.0.weight f4 [128, 4]
0.0021623403 0.15033115 0.1962762 0.075206816 -0.33082452 0.14058056 0.08789713 0.035823874
-0.30329373 0.48632094 0.10786366 0.0794377 -0.39336064 -0.110268936 -0.0982134 -0.0211003
0.8397987 0.21746366 0.0028884478 -0.023222378 -0.20822005 0.74164814 0.104319364 0.026882382
-0.36888418 0.35709783 0.11378871 0.0691325 -0.37819692 0.18127191 0.10734367 0.037800428
-0.18410546 0.19742094 0.16700086 0.040571477 -0.31306282 -0.3145153 -0.10475906 -0.029414164
-0.1114401 -0.1687989 0.18376985 0.27837586 0.2541923 -0.052490644 -0.2575176 -0.12256677
-0.22722262 -0.77740335 -0.1839649 -0.08421222 -0.26285326 0.6393399 0.35167408 -0.16459818
-0.3780503 0.1928068 0.10368878 0.02563198 -0.30430022 -0.66150564 -0.13696072 -0.059191942
-0.15833049 -0.16407084 0.2030609 -0.06253907 -0.24333468 -0.690745 -0.16168162 0.03335367
-0.30600408 -0.05364459 -0.07861813 0.01213094 -0.28251657 0.7249791 0.12863748 0.05422925
0.79169744 0.29175362 -0.12587151 -0.046658207 -0.31225082 -0.6733532 -0.18436794 0.03806521
-0.34867394 0.12471893 0.09066828 0.04047698 -0.26261836 0.73590153 0.15127693 0.07184707
-0.35568184 0.8579439 0.16243197 0.039914336 -0.37059557 -0.0743866 -0.09094901 -0.036335595
-0.38756746 -0.36835822 -0.129853 -0.036476288 -0.28078327 -0.37465346 -0.09979394 -0.13081488
-0.3254344 0.5393024 0.13440469 0.0876086 -0.36298802 0.878343 0.17427361 0.05617085
-0.07610495 -0.6823166 0.009695311 -0.07085266 -0.31561986 0.15110455 0.08836298 0.036789455
-0.16172417 0.8900902 0.21340087 0.048173115 -0.40707296 0.26322463 0.11788762 0.045528643
-0.24970534 -0.6098625 -0.14521351 -0.039402135 0.19320722 0.1601324 -0.26136953 0.043489713
-0.34422386 -0.17919628 -0.0939562 -0.05796024 -0.37400532 -0.34803697 -0.11726055 -0.110884525
-0.26599398 0.1990513 0.09036566 -0.02349759 -0.34992975 0.21475972 0.10108504 0.03956708
0.122634575 -0.062192854 0.16207755 0.23839785 -0.28652856 -0.7849153 -0.16266583 -0.07466993
-0.24529687 -0.8373161 -0.20074546 -0.07841628 -0.22902952 0.6134526 0.20074183 -0.18697396
-0.2991842 -0.2697064 -0.37873963 -0.06462152 -0.26456782 0.6642028 0.11054166 0.06619731
-0.012249822 0.3200508 0.29766276 -0.0033777342 0.8794508 -0.67065835 -0.014393905 0.03779589
0.36545265 -0.15583347 0.17896798 0.030153867 -0.24737316 0.5969814 0.100761525 0.06402581
-0.041310348 0.46118048 0.28642645 -0.120100416 -0.33329543 0.22169752 0.09617003 0.09331484
0.2579971 0.60821384 -0.16350399 -0.098814785 -0.32506913 -0.043512613 -0.07780964 -0.017985329
-0.37900984 0.79623497 0.18792735 0.1456833 -0.2702486 -0.04391528 0.068419255 -0.07155855
-0.026007194 0.11002112 -0.21658233 -0.015178089 -0.019413212 0.19737704 0.030739233 0.40529326
-0.27901742 0.37851626 0.094497114 0.007028818 -0.09885314 0.7426832 0.15968646 0.079023376
-0.20780097 0.53745013 0.08467248 0.0032337632 -0.04673159 0.17664373 -0.19988133 -0.03819132
-0.2591535 0.4991515 -0.097141385 -0.014328399 -0.053052966 -0.72175753 -0.02281336 0.12220731
00000000: 0db6 0d3b 69f0 193e a1fc 483e 0806 9a3d
00000010: d561 a9be 5af4 0f3e 6903 b43d 0ebc 123d
00000020: 5149 9bbe 0fff f83e 9fe7 dc3d 3cb0 a23d
00000030: 9166 c9be aed4 e1bd 1b24 c9bd 89da acbc
00000040: 0cfd 563f cbae 5e3e 1d4c 3d3b db3c bebc
00000050: a337 55be a7dc 3d3f 64a5 d53d 7138 dc3c
00000060: 63de bcbe 87d5 b63e 0e0a e93d 5795 8d3d
00000070: 07a3 c1be 589f 393e 00d7 db3d 9fd4 1a3d
00000080: 2486 3cbe b728 4a3e 4602 2b3e 472e 263d
00000090: c549 a0be 2608 a1be eb8b d6bd f9f5 f0bc
000000a0: b53a e4bd 9ed9 2cbe 2a2e 3c3e 4887 8e3e
000000b0: 7e25 823e 6e00 57bd 59d9 83be 4904 fbbd
000000c0: 0cad 68be e803 47bf 4b61 3cbe 7577 acbd
000000d0: b494 86be c8ab 233f a00e b43e 6d8c 28be
000000e0: cf8f c1be 256f 453e c85a d43d 28fa d13c
000000f0: 3dcd 9bbe 6f58 29bf 6e3f 0cbe 4073 72bd
00000100: 6321 22be 3002 28be 32ef 4f3e 7c14 80bd
00000110: ba2c 79be aad4 30bf de8f 25be dc9d 083d
00000120: 91ac 9cbe 6eba 5bbd 8b02 a1bd dac0 463c
00000130: 03a6 90be 3b98 393f 8bb9 033e 7d1f 5e3d
00000140: afac 4a3f bb60 953e 76e4 00be ad1c 3fbd
00000150: 57df 9fbe e060 2cbf f3ca 3cbe 44ea 1b3d
00000160: 6485 b2be a36c ff3d 4bb0 b93d 31cb 253d
00000170: ea75 86be 0b64 3c3f 57e8 1a3e 8e24 933d
00000180: ee1b b6be 36a2 5b3f 9154 263e 377d 233d
00000190: b4be bdbe 0058 98bd 7943 babd a2d4 14bd
000001a0: 3e6f c6be 7399 bcbe 2ff8 04be 2968 15bd
000001b0: d3c2 8fbe 94d2 bfbe c460 ccbd 56f4 05be
000001c0: 569f a6be b90f 0a3f 62a1 093e 236c b33d
000001d0: 91d9 b9be 16db 603f c874 323e 6813 663d
000001e0: e9dc 9bbd 4dac 2ebf 15d9 1e3c 331b 91bd
000001f0: ed98 a1be 27bb 1a3e a6f7 b43d 8ab0 163d
00000200: 059b 25be f4dc 633f c285 5a3e 2c51 453d
00000210: de6b d0be 61c5 863e 116f f13d 3e7c 3a3d
00000220: c2b2 7fbe f31f 1cbf dab2 14be 2264 21bd
00000230: 1dd8 453e bff9 233e 3ad2 85be 4522 323d
00000240: 1c3e b0be 3b7f 37be 1c6c c0bd b767 6dbd
00000250: a07d bfbe e731 b2be 4d26 f0bd 6d17 e3bd
00000260: 5d30 88be 1bd4 4b3e a211 b93d 057e c0bc
00000270: fe29 b3be f9e9 5b3e ac05 cf3d 1711 223d
00000280: d627 fb3d efbd 7ebd a8f7 253e 911e 743e
00000290: dfb3 92be 36f0 48bf df91 26be 8cec 98bd
000002a0: 1a2f 7bbe 595a 56bf 3890 4dbe b798 a0bd
000002b0: b786 6abe 3b0b 1d3f 448f 4d3e 1a76 3fbe
000002c0: ac2e 99be f516 8abe 29ea c1be 4a58 84bd
000002d0: 6f75 87be 3209 2a3f aa63 e23d 7592 873d
000002e0: 7ab3 48bc b3dd a33e 4167 983e fa5c 5dbb
000002f0: b023 613f 44b0 2bbf 6ad4 6bbc ddcf 1a3d
00000300: 9c1c bb3e cf92 1fbe 6243 373e 3e05 f73c
00000310: 644f 7dbe c6d3 183f 0f5c ce3d f71f 833d
00000320: 0a35 29bd d91f ec3e 7da6 923e 35f7 f5bd
00000330: b3a5 aabe ad04 633e cbf4 c43d da1b bf3d
00000340: 3218 843e e7b3 1b3f 976d 27be 685f cabd
00000350: 766f a6be 483a 32bd a95a 9fbd f855 93bc
00000360: 940d c2be 0ed6 4b3f 0770 403e 012e 153e
00000370: 065e 8abe 82e0 33bd 651f 8c3d 4a8d 92bd
00000380: 0a0d d5bc c152 e13d c2c7 5dbe 85ad 78bc
00000390: 7508 9fbc 351d 4a3e d8d0 fb3c 9982 cf3e
000003a0: 5fdb 8ebe e2cc c13e b487 c13d 0052 e63b
000003b0: 8473 cabd 7c20 3e3f d984 233e 02d7 a13d
000003c0: c7c9 54be 5596 093f c468 ad3d 8bed 533b
000003d0: a069 3fbd 18e2 343e b1ad 4cbe 806e 1cbd
000003e0: c4af 84be c990 ff3e 10f2 c6bd a9c1 6abc
000003f0: 114e 59bd 1ac5 38bf 15e3 babc d347 fa3d

q1.0.bias f4 [128]
-0.037707396 0.322807 0.23111773 0.39960307 0.2748159 0.21543758 0.31849667 0.37016138
-0.09996196 0.2684594 0.026594693 0.097072855 0.1342489 0.071032695 0.35132524 0.19896355
-0.092670105 0.18302715 0.342912 0.16839537 -0.045808747 0.21355543 0.35210952 0.13008375
0.19922787 0.37829587 0.33709803 0.2504389 0.23985928 0.19405673 0.31055215 0.3076181
0.002718633 0.37332404 0.15036502 -0.06481512 0.34054866 0.34520328 0.30928642 0.32382154
-0.18562509 0.19187523 0.16231242 0.22944784 0.2562991 0.17652015 -0.09247747 0.0803025
-0.009312059 0.16248944 -0.102603786 0.33797887 0.06901018 0.3377358 0.27635202 0.3030413
-0.1791217 -0.017100045 0.19406828 0.013853537 0.13704985 -0.23275547 0.2631655 0.33525512
0.4063583 -0.19160533 0.22887789 0.15841663 0.3342941 0.2078912 -0.017035803 -0.19379352
0.327795 0.33420628 0.24861643 0.2613045 0.34530383 0.17448321 0.40798503 0.30988923
0.40493464 0.22018838 0.13506041 -0.11850906 0.28046787 0.08382848 -0.040670566 0.21884756
-0.008969152 0.11883958 0.353593 -0.113002434 0.2599956 0.09653875 0.10754789 0.076127246
0.23658636 0.004776804 0.10276593 0.40580148 -0.13810784 0.25705442 0.3294498 0.07262791
0.2619411 0.1116944 0.35717818 0.28453788 0.30215296 0.09457127 0.37480584 0.2779613
0.36013833 0.12958907 0.21826848 0.3336469 0.36510092 -0.10309065 0.3639803 -0.09888711
0.26098153 0.34689975 -0.12516573 0.3134176 0.20052159 0.28946412 0.3106596 0.05823197
00000000: 1273 1abd f646 a53e 20aa 6c3e c698 cc3e
00000010: abb4 8c3e ab9b 5c3e ff11 a33e cb85 bd3e
00000020: dbb8 ccbd 8373 893e 1ddd d93c 22ce c63d
00000030: 8b78 093e 9779 913d e7e0 b33e 1abd 4b3e
00000040: d3c9 bdbd 786b 3b3e 2992 af3e d66f 2c3e
00000050: f4a1 3bbd 46ae 5a3e b347 b43e ad34 053e
00000060: 6402 4c3e ffaf c13e 1d98 ac3e 8739 803e
00000070: ac9d 753e cfb6 463e b100 9f3e 1f80 9d3e
00000080: 182b 323b 5424 bf3e 4af9 193e cabd 84bd
00000090: 655c ae3e 7cbe b03e ca5a 9e3e f0cb a53e
000000a0: 8114 3ebe f17a 443e 3a35 263e 60f4 6a3e
000000b0: a339 833e b3c1 343e d464 bdbd a375 a43d
000000c0: 9b91 18bc a263 263e ef21 d2bd 910b ad3e
000000d0: 3655 8d3d b5eb ac3e 037e 8d3e 3b28 9b3e
000000e0: ae6b 37be 6515 8cbc d6b9 463e f2f9 623c
000000f0: cc56 0c3e 7357 6ebe a1bd 863e 8fa6 ab3e
00000100: 320e d03e 3034 44be f75e 6a3e f837 223e
00000110: 9928 ab3e 6ee1 543e ab8e 8bbc cf71 46be
00000120: bfd4 a73e 161d ab3e 4e95 7e3e b4c9 853e
00000130: aacb b03e baab 323e 6ae3 d03e cda9 9e3e
00000140: 9853 cf3e 1079 613e 474d 0a3e e1b4 f2bd
00000150: 7c99 8f3e 44ae ab3d 2e96 26bd 9319 603e
00000160: 5af3 12bc 2a62 f33d 240a b53e d26d e7bd
00000170: 251e 853e 1cb6 c53d 1142 dc3d 9ae8 9b3d
00000180: b243 723e bc86 9c3b f276 d23d 36c5 cf3e
00000190: 246c 0dbe a39c 833e a5ad a83e f1bd 943d
000001a0: 251d 863e 09c0 e43d 0fe0 b63e f3ae 913e
000001b0: cbb3 9a3e 95ae c13d 8de6 bf3e f250 8e3e
000001c0: 0d64 b83e ffb2 043e c681 5f3e c4d3 aa3e
000001d0: 82ee ba3e 3121 d3bd a05b ba3e 5385 cabd
000001e0: 5f9f 853e d89c b13e 722b 00be 4678 a03e
000001f0: 8855 4d3e a434 943e c60e 9f3e a584 6e3d

q1.2.weight f4 [128, 128]
-0.04320576 0.34350562 0.18495892 0.1655146 0.62390894 0.1441652 0.15676875 0.079070255
-0.31081557 0.25146767 0.019515252 -0.12821425 0.008237143 -0.114167966 0.37806505 0.3765906
-0.2617525 0.31515294 0.235215 0.12090672 0.502453 0.11602332 0.19221033 0.16580151
0.21463859 0.27454925 0.116435446 0.27719367 0.08079839 0.38293046 0.29605684 0.12443743
-0.028557511 0.2553432 0.21495876 -0.1475482 0.2199508 0.074334055 0.24883766 0.12859909
-0.030718837 0.06191754 0.046319418 0.20069546 0.12564945 0.34356946 0.018811496 0.5486845
-0.008689974 0.25480333 0.16229327 0.08861265 -0.3103576 0.27173728 0.24392103 0.2099047
-0.20647082 0.017263059 0.2931915 0.32813177 0.12410264 -0.21435866 0.16632877 0.20469163
0.16654041 -0.13048561 0.14488341 0.13709149 0.24412383 0.34492627 -0.021152671 -0.17023234
0.11014096 0.22265938 0.37367958 0.22049506 0.012967827 0.18878898 0.25681645 0.14222328
0.00560603 0.3297805 0.44545442 -0.0036738724 0.29761326 0.102640666 -0.1381456 -0.0028946484
0.15359798 0.36134037 0.2312495 0.17055996 0.17112033 0.40180314 0.20230071 0.0459231
0.56189257 0.21501243 0.04778985 0.139461 0.0807928 0.36037832 0.22928576 0.60605645
0.15035903 -0.3234489 0.15521704 0.12070554 0.15781075 0.5021884 0.059638128 0.317866
0.16859514 0.09572343 0.04245068 0.11025373 0.2703352 -0.08989637 0.101796634 -0.05409754
0.12365753 0.19026859 -0.04984907 0.09319341 0.33674023 0.14443848 0.068286 0.017442292
-0.05470122 0.091475375 0.12532903 0.2533626 0.6054868 0.3031805 0.10665133 0.21974625
-0.08839096 0.112433694 0.045270428 -0.14969246 0.2869305 0.1201483 0.1393486 0.32691294
-0.20144787 0.2624305 0.43172607 0.28517365 0.47241879 0.081425786 0.25965706 0.06652436
0.2863432 0.07472378 0.31992245 0.17316115 0.11374702 0.17895973 0.0607707 0.113228805
-0.033080537 0.12597695 0.18604362 0.031736303 0.10077173 0.07846125 0.26602378 0.14857116
-0.2591684 0.076104045 0.08388737 0.17305131 0.14457062 0.3919567 0.12071838 0.5409498
-0.22799842 0.099523984 -0.08220457 0.16012952 -0.23412836 0.26425207 0.07107334 0.11571579
-0.0043369224 -0.08642393 0.25401652 0.21866395 0.28496507 -0.13373971 0.22055976 0.12060885
0.19651891 0.046758935 0.09445828 0.3569428 0.14904231 0.08238562 -0.018589273 -0.17352179
0.14901766 0.3018483 0.340162 0.36946175 0.00090865773 0.33096483 0.28626493 0.19369173
0.099902034 0.11368335 0.16037071 -0.15895878 0.30518898 0.29482207 -0.0018778893 0.19110647
0.13250157 0.25339696 0.17268139 0.012228001 0.07443984 0.09856755 0.18748726 0.12721209
0.48642662 0.331803 0.23033391 0.080781385 -0.18955839 0.43434104 0.18314563 0.45392
0.3128618 -0.28839105 0.058054116 0.19673231 0.08737642 0.7251139 0.035808783 0.21031597
0.2852139 -0.05688861 -0.036007047 0.07318581 0.069215685 -0.17478141 0.28182995 0.110984094
0.1932965 0.03749707 0.042931736 0.17849973 0.16137148 0.024329176 0.26530275 -0.06668364
00000000: 86f8 30bd f8df af3e df65 3d3e a97c 293e
00000010: 7fb8 1f3f 0ba0 133e fd87 203e 96ef a13d
00000020: 3823 9fbe 5fc0 803e 73de 9f3c 994a 03be
00000030: 15f5 063c e5d0 e9bd be91 c13e 7cd0 c03e
00000040: 6c04 86be ba5b a13e 33dc 703e f19d f73d
00000050: c3a0 003f a29d ed3d c9d2 443e dfc7 293e
00000060: 38ca 5b3e b891 8c3e b575 ee3d 54ec 8d3e
00000070: a079 a53d 760f c43e c394 973e 0dd9 fe3d
00000080: 71f1 e9bc 58bc 823e 261e 5c3e e016 17be
00000090: c83a 613e 743c 983d 4dcf 7e3e 7baf 033e
000000a0: 12a6 fbbc 3f9d 7d3d 6eb9 3d3d 1c83 4d3e
000000b0: 40aa 003e 56e8 af3e 911a 9a3c 9676 0c3f
000000c0: 6560 0ebc 9575 823e 3530 263e 8d7a b53d
000000d0: 31e7 9ebe 2621 8b3e 6fc6 793e 42f1 563e
000000e0: 166d 53be 426b 8d3c 321d 963e e300 a83e
000000f0: 8629 fe3d d680 5bbe 1752 2a3e af9a 513e
00000100: 9289 2a3e 059e 05be 515c 143e b661 0c3e
00000110: 99fb 793e 2d9a b03e 5e48 adbc 6351 2ebe
00000120: 9591 e13d d200 643e ee52 bf3e 75c9 613e
00000130: 0277 543c e651 413e 727d 833e fba2 113e
00000140: cab2 b73b fdd8 a83e 9a12 e43e 5ac5 70bb
00000150: c460 983e 4535 d23d 0a76 0dbe 24b4 3dbb
00000160: ca48 1d3e 9b01 b93e abcc 6c3e 45a7 2e3e
00000170: 2b3a 2f3e 24b9 cd3e eb27 4f3e dc19 3c3d
00000180: 31d8 0f3f 382c 5c3e 4abf 433d ddce 0e3e
00000190: b276 a53d 8283 b83e e3c9 6a3e 8426 1b3f
000001a0: b8f7 193e 189b a5be 37f1 1e3e 7734 f73d
000001b0: 2499 213e 6b8f 003f 1c47 743d 55bf a23e
000001c0: 34a4 2c3e a50a c43d c4e0 2d3d b5cc e13d
000001d0: 6069 8a3e 971b b8bd c17a d03d 6295 5dbd
000001e0: 2940 fd3d c5d5 423e 8a2e 4cbd 30dc be3d
000001f0: 3769 ac3e aee7 133e 88d9 8b3d 23e3 8e3c
00000200: 630e 60bd 7157 bb3d 4156 003e beb8 813e
00000210: 2f01 1b3f 793a 9b3e 036c da3d 2905 613e
00000220: 5206 b5bd a343 e63d 7c6d 393d fb48 19be
00000230: 8ee8 923e 5010 f63d 66b1 0e3e 2261 a73e
00000240: 5a48 4ebe 4a5d 863e 330b dd3e 4802 923e
00000250: e0e0 f13e 90c2 a63d c5f1 843e ec3d 883d
00000260: 939b 923e c808 993d e0cc a33e 2851 313e
00000270: 33f4 e83d 3841 373e b3ea 783d 81e4 e73d
00000280: 757f 07bd 1a00 013e 3882 3e3e edfd 013d
00000290: 6961 ce3d 4bb0 a03d 4534 883e 0a23 183e
000002a0: b8b1 84be 70dc 9b3d 24cd ab3d 5d34 313e
000002b0: 520a 143e 8cae c83e 333b f73d b07b 0a3f
000002c0: 6b78 69be 3bd3 cb3d df5a a8bd fef8 233e
000002d0: 58bf 6fbe 0c4c 873e e68e 913d 66fc ec3d
000002e0: be1c 8ebb 08ff b0bd 740e 823e 71e9 5f3e
000002f0: f1e6 913e 10f3 08be 6bda 613e c601 f73d
00000300: 413c 493e 4c86 3f3d 5873 c13d 35c1 b63e
00000310: 8c9e 183e cbb9 a83d 8848 98bc b2af 31be
00000320: 1698 183e dc8b 9a3e b729 ae3e 172a bd3e
00000330: fd32 6e3a 3974 a93e 5191 923e 2057 463e
00000340: 7099 cc3d d1d2 e83d 3838 243e 17c6 22be
00000350: bb41 9c3e ebf2 963e 8223 f6ba 6ab1 433e
00000360: 7eae 073e 3fbd 813e 64d3 303e f457 483c
00000370: ea73 983d c9dd c93d a9fc 3f3e e343 023e
00000380: e90c f93e 15e2 a93e a7dc 6b3e b670 a53d
00000390: 981b 42be f361 de3e 878a 3b3e 3468 e83e
000003a0: 6c2f a03e fea7 93be 27ca 6d3d 3274 493e
000003b0: 69f2 b23d 11a1 393f 3bac 123d 125d 573e
000003c0: 8e07 923e 0804 69bd 207c 13bd 71e2 953d
000003d0: f4c0 8d3d e6f9 32be 044c 903e a14b e33d
000003e0: 85ef 453e 8796 193d 30d9 2f3d a2c8 363e
000003f0: 913e 253e fb4d c73c c3d5 873e 6f91 88bd

q1.2.bias f4 [128]
0.24504912 0.22799093 -0.015345752 0.30698398 0.29852584 0.29063106 -0.021255663 0.19592421
-0.06404647 0.21632768 -0.001544741 0.24533284 0.77656776 -0.017238462 0.00037622466 -0.012056317
-0.01605319 0.22610596 -0.020249018 0.32751176 -0.057288893 0.20692994 -0.013627335 0.19138576
0.2095467 0.19568624 0.23129387 0.20448788 -0.01735265 0.21032335 0.22878954 0.22047241
0.28496465 0.2807715 -0.06328857 -0.0069430107 -0.011638829 0.21214084 0.20018218 0.07230184
0.23962833 0.21977971 -0.07070406 -0.033700705 0.09736205 0.22057478 0.18805644 -0.024363821
0.32048517 0.20194069 0.19043936 0.5525723 0.20863692 -0.02837072 -0.040145468 0.2912718
-0.06455587 0.21664935 0.26685745 0.2040481 -0.013731894 0.21009257 -0.03921936 0.21536551
0.19905254 -0.07295119 0.24784632 0.22319704 -0.042349894 -0.07619384 0.19796768 -0.020830374
0.21892415 -0.00910304 0.018937867 -0.019081458 -0.014703273 -0.07788634 -0.14826718 -0.0645601
0.69063616 -0.06118243 -0.0103806835 0.5462802 -0.016674656 -0.05454426 0.18878593 0.23122174
-0.017157478 -0.12713715 -0.013314588 0.23608895 0.18515173 -0.007088619 0.038573302 -0.015095389
0.18995136 0.21523918 -0.023692342 0.22142245 -0.012812209 0.25117517 0.14587888 0.27521288
0.23841721 0.28251347 0.2017997 0.20188372 0.24342217 -0.04973626 -0.081776574 0.41283286
-0.123493835 0.013788768 0.32604936 -0.00932334 0.006499053 0.2192461 0.2063896 0.19026957
-0.006566552 0.20337825 -0.087673396 0.219693 0.25718638 -0.02976366 -0.07282394 0.21174382
00000000: 28ee 7a3e 7476 693e c06c 7bbc 012d 9d3e
00000010: 61d8 983e 98cd 943e 5b20 aebc 5ba0 483e
00000020: cc2a 83bd 0185 5d3e e878 caba 8838 7b3e
00000030: 25cd 463f ad37 8dbc 0540 c539 dc87 45bc
00000040: fb81 83bc 5288 673e 45e1 a5bc 9faf a73e
00000050: c2a7 6abd 71e5 533e 3045 5fbc a1fa 433e
00000060: 6993 563e f961 483e 4dd8 6c3e 4565 513e
00000070: 2527 8ebc 015f 573e ce47 6a3e 85c3 613e
00000080: e3e6 913e 48c1 8f3e 709d 81bd 3282 e3bb
00000090: c9b0 3ebc 733b 593e 8ffc 4c3e fd12 943d
000000a0: 2161 753e ef0d 613e 4acd 90bd c009 0abd
000000b0: c165 c73d 5bde 613e de91 403e a396 c7bc
000000c0: a216 a43e 8ac9 4e3e 8902 433e 6175 0d3f
000000d0: eba4 553e b669 e8bc 936f 24bd 9421 953e
000000e0: de35 84bd 54d9 5d3e 8aa1 883e fcf1 503e
000000f0: bdfb 60bc 8222 573e 7ba4 20bd c788 5c3e
00000100: 6ed4 4b3e 6f67 95bd 6dcb 7d3e c48d 643e
00000110: 1577 2dbd 840b 9cbd 0ab8 4a3e 76a4 aabc
00000120: a72d 603e eb24 15bc 9623 9b3c b850 9cbc
00000130: ffe5 70bc e082 9fbd 5ad3 17be 1638 84bd
00000140: 88cd 303f 6d9a 7abd be13 2abc 05d9 0b3f
00000150: 4a99 88bc cd69 5fbd 1951 413e 64c5 6c3e
00000160: d78d 8cbc 3e30 02be 6e25 5abc 4dc1 713e
00000170: 6a98 3d3e a547 e8bb 0aff 1d3d a752 77bc
00000180: 9c82 423e a967 5c3e 7116 c2bc 91bc 623e
00000190: 4dea 51bc 089a 803e 4661 153e b4e8 8c3e
000001a0: a423 743e 9ba5 903e 95a4 4e3e 9bba 4e3e
000001b0: a943 793e 40b8 4bbd 7a7a a7bd d45e d33e
000001c0: 56ea fcbd 49ea 613c f1ef a63e ecc0 18bc
000001d0: 02f6 d43b 0d82 603e cc57 533e 07d6 423e
000001e0: 3b2c d7bb 6342 503e 1c8e b3bd 34f7 603e
000001f0: efad 833e ebd2 f3bc b824 95bd 5fd3 583e

q1.4.weight f4 [1, 128]
-0.4023865 -0.4465198 0.05207369 -0.517912 -0.5278053 -0.27183235 0.10216108 -0.4081533
0.46938294 -0.4076232 0.005340468 -0.3831406 2.2341657 0.067661494 0.39455912 0.43520486
0.44607037 -0.45350304 0.14285894 -0.3394525 0.60237193 -0.30225104 0.16993901 -0.39594176
-0.4412928 -0.32826924 -0.2624194 -0.34198293 0.06570004 -0.41865614 -0.40241513 -0.34561002
-0.43756178 -0.2939389 0.5889753 0.20209877 0.0649163 -0.4129048 -0.3006535 0.6617456
-0.30159768 -0.4523782 0.8152661 0.5803099 0.6642025 -0.35672548 -0.42841318 0.5497502
-0.504782 -0.36534986 -0.43007016 2.0519598 -0.32888234 0.44555303 0.79357994 -0.39338642
0.4471775 -0.29525062 -0.2698816 -0.4818143 0.1166573 -0.4254369 0.47006926 -0.25740552
-0.33497795 0.5313929 -0.4191712 -0.4287744 0.44078866 0.49572065 -0.4164921 0.5100228
-0.34435356 0.5271024 0.48908865 0.49203485 0.5134187 0.49653512 0.6984183 0.47865435
2.1960332 0.66569763 0.13023652 1.8739407 0.49950537 0.43998936 -0.46414 -0.43691108
0.43696108 0.6502008 0.058409553 -0.28204864 -0.43329692 0.5098513 0.35825738 0.17199789
-0.37064227 -0.38650087 0.43153062 -0.46602654 0.51124394 -0.32637116 -0.48050603 -0.3243927
-0.30596945 -0.39529645 -0.44710606 -0.44910824 -0.2743465 0.40758964 0.6589236 1.425897
0.92251563 0.50647455 -0.46730044 0.55261695 0.43877065 -0.4262954 -0.42306185 -0.32948583
0.17612305 -0.30031437 0.5075255 -0.375746 -0.32266822 0.037121136 0.43920106 -0.38754672
00000000: 9a05 cebe 3e9e e4be 394b 553d e195 04bf
00000010: 401e 07bf 9c2d 8bbe d439 d13d 78f9 d0be
00000020: f652 f03e fdb3 d0be 18ff ae3b 012b c4be
00000030: 92fc 0e40 1c92 8a3d a703 ca3e 2cd3 de3e
00000040: 5663 e43e 8d31 e8be 9d49 123e b8cc adbe
00000050: 0c35 1a3f a6c0 9abe 7e04 2e3e e1b8 cabe
00000060: 21f1 e1be e812 a8be d65b 86be 6318 afbe
00000070: be8d 863d 195a d6be 5b09 cebe ccf3 b0be
00000080: 1908 e0be 297f 96be 16c7 163f fbf2 4e3e
00000090: d6f2 843d 4268 d3be 41ef 99be 2968 293f
000000a0: 036b 9abe 1e9e e7be 47b5 503f 318f 143f
000000b0: 2d09 2a3f b9a4 b6be f958 dbbe 6ebc 0c3f
000000c0: 6539 01bf 230f bbbe 2832 dcbe 4f53 0340
000000d0: 4463 a8be 871f e43e 0e28 4b3f f269 c9be
000000e0: 73f4 e43e 172b 97be ec2d 8abe 5db0 f6be
000000f0: 06ea ee3d ded2 d9be ebac f03e a8ca 83be
00000100: 3b82 abbe 5d09 083f 9c9d d6be 5188 dbbe
00000110: 0daf e13e 19cf fd3e 743e d5be db90 023f
00000120: 1c4f b0be 2ff0 063f d469 fa3e feeb fb3e
00000130: 686f 033f da39 fe3e 8bcb 323f 2f12 f53e
00000140: cf8b 0c40 296b 2a3f b95c 053e 4add ef3f
00000150: 2bbf ff3e 4946 e13e c2a3 edbe cfb2 dfbe
00000160: 5db9 df3e 8f73 263f db3e 6f3d ae68 90be
00000170: 18d9 ddbe 9d85 023f 836d b73e 3720 303e
00000180: d3c4 bdbe 71e3 c5be 95f1 dc3e 089b eebe
00000190: e2e0 023f 1f1a a7be e304 f6be cd16 a6be
000001a0: 07a8 9cbe 4c64 cabe 16eb e4be 84f1 e5be
000001b0: 2577 8cbe 97af d03e 38af 283f cb83 b63f
000001c0: fc29 6c3f 51a8 013f 0142 efbe 4e78 0d3f
000001d0: 8ca6 e03e 6443 dabe 909b d8be 5eb2 a8be
000001e0: 9a59 343e cec2 99be 31ed 013f c861 c0be
000001f0: c534 a5be 550c 183d f6de e03e 866c c6be
