SAC/checkpoints/Pendulum-v1/01_last_checkpoint.pth (torch, 788418 bytes, 61 tensors)

log_alpha f8 []
00000000: 0bb1 c4fb 6bd7 02c0
-2.355186430873919

actor.0.weight f4 [128, 3]
00000000: 95fc 393e fbfb 44be ef6e 053d 6e09 da3c
00000010: dc17 0d3f efd1 ff3d 1346 4f3e 5e23 393e
00000020: a45a 613e 861a 053e b113 643e edd4 563e
00000030: 9863 59be 0872 f0be 8a17 efbd a137 47bd
00000040: 96b2 f5be e762 cdbd 60da 1e3d d016 b53e
00000050: fd9f c6bd e21a e0bd 99a6 c6bd e441 90be
00000060: 60e8 3cbe c67e 17be e619 7a3d e530 203e
00000070: 29ad b93d 0423 7cbe d659 323e f6fe 763e
00000080: 6783 b6bd 7a10 2b3e 66ae da3d 7ca7 6c3d
00000090: f8f0 5ebe c7f4 083f 4273 0a3e 6523 10bd
000000a0: f46d ee3e 6fea 10b9 9267 093d 99b7 a53e
000000b0: fdbd 263d 79bb 623d 4f60 9dbe 6575 49bd
000000c0: 79f9 c43b 40e5 f7bd ccd2 2ebe 4851 77be
000000d0: 06ef ca3e 92ce 353d 93d2 503d 5c96 12bf
000000e0: 38dc 03be f343 b4be 274d a53e e4c4 163c
000000f0: 53d3 45bd ddcd 363f 2959 273e 89c9 5d3e
00000100: da27 b33e 6492 af3d 9379 65bc 2bdf a03d
00000110: 0088 563e f5ad d8be 340c eebe 69dd 06be
00000120: 619b aabe 05db a5be d049 c6bd 67b8 06be
00000130: e6de b0be 213a 8fbd 0eab 9e3e 1cb6 413e
00000140: 14ed d33d 7027 94bd ee77 2fbe 0e07 96be
00000150: c2ae 863e 5ca7 fdbe 39bc dbbd 6821 4ebe
00000160: 0f2c ddbb dad6 313e 8a61 ffbd 9186 c93e
00000170: f1cd aebd f639 383d f3c8 a8be 8060 39be
00000180: 22ac 98be 33c0 353f 3ada 203e 702d 86be
00000190: fab4 283f bbc4 ac3d 27fc fabd 45d9 16bc
000001a0: 2ac9 213e 4f81 9ebc 4694 003f 7e4c 463e
000001b0: d5a6 9c3b 0d2b 063e 6c70 cabd c801 87bc
000001c0: 3c72 103e ed25 00be f2c2 983d 19a5 4fbe
000001d0: db3f 563e 8fde 643d d187 34be db32 54be
000001e0: fc8d 303e 8dd5 e93e 84f6 173e de79 b4bc
000001f0: f368 8f3e a5a7 463e 3eea a23d 46dc 933d
00000200: 1147 59be 7fa4 3a3e 30b0 a6be 54fd 31bd
00000210: 5ada d33c 79d0 1bbf ada6 d9bc 427b af3d
00000220: 11cd d6be d765 863d 9dee 843e 6cfc dc3e
00000230: 301c d03d dc6c a3bc 9b3c 093f 11f9 c3bd
00000240: 8554 8d3e 6101 fb3e b77b ed3d e818 f03c
00000250: 2bd7 213f 2f6e 273e 419e 423e e8e8 2fbe
00000260: 8bbb 1c3d f2e9 883e efa9 f0be 4973 d3bd
00000270: 2ca7 f8bd 0574 d8bd 704c 933d 9010 303e
00000280: 578a 3c3d 30f6 5bbe ecb9 8ebe 494e edbe
00000290: fbf6 25be 7bef 1fbf d5ce 7d3d 086d cc3d
000002a0: 6024 09be 2aff 653d 15cb 3c3e 0d6d a63e
000002b0: b12b d13d 42c6 513d bf0a f93b 7eec 8dbe
000002c0: 04a2 6abe af9a 8abe 22da 28bf e4da cabb
000002d0: 1389 313e 5319 92be d9b2 aabd 6267 ddbe
000002e0: 766b 62be fde6 513b e1c8 c8be ac91 9d3e
000002f0: f589 013e 4b6a fd3c 72de b93e 42f5 883d
00000300: 17ba cfbd 6eb0 64be a594 97be 3fd5 fcbe
00000310: 44fd 853e 863b d0bc d954 3f3d a777 073f
00000320: 5e78 053e cbb3 323e 7230 c5be 1dc0 a7bd
00000330: 2c51 41be 2adb 87be 2fbf 70be 890e 44bb
00000340: 311d 01be 5f35 483e 6024 e33d f83e 893e
00000350: a927 8bbc ea43 5c3e 3773 8b3d 7572 50be
00000360: f617 c2bc 46f2 843e 039f 823e 550f 75be
00000370: 5d95 953e 8d18 903c e552 4e3e 8978 30bc
00000380: c735 62be 6149 8abd aa94 2ebf de30 ffbd
00000390: 150b 8e3e bf15 403e a38a 0a3d a8fb 343d
000003a0: 094a 69bc a86a 533e 6d1b b43c 595e 45be
000003b0: 7a33 003d 5d05 dfbd c939 ba3c e630 71bd
000003c0: 5f38 783d f0bc 2b3e 0fb6 343e c23d 85bd
000003d0: 821b 863e 483d 18be 779c e9bd 8ad8 123e
000003e0: 8bd8 34bd e21f fc3d 5302 9bbe a57d 75bd
000003f0: 31db 943e f1c6 e3be c47a 11be c152 65be
0.18162759 -0.19236748 0.032576498 0.026615825 0.5511453 0.124912135 0.20241575 0.18079898
0.22007233 0.12998399 0.22273137 0.20979662 -0.21229398 -0.46962 -0.116744116 -0.048637036
-0.47987813 -0.1002863 0.038782477 0.35368967 -0.09698484 -0.109426275 -0.09699745 -0.2817527
-0.18448019 -0.14794454 0.061059855 0.15643652 0.09066231 -0.24622732 0.17417082 0.24120697
-0.08911782 0.16705504 0.10677795 0.057776913 -0.2177161 0.534985 0.1352053 -0.035190005
0.46568263 -0.00013820243 0.033546038 0.32366636 0.04070853 0.05535457 -0.3073754 -0.04918422
0.006011185 -0.12104273 -0.170726 -0.241521 0.39635485 0.044386454 0.05098207 -0.5726068
-0.12876976 -0.3520809 0.32285425 0.009202216 -0.048297238 0.7140787 0.16342606 0.21658911
0.34991342 0.08572844 -0.014006036 0.07855066 0.20950317 -0.4232022 -0.46493685 -0.13170399
-0.3332167 -0.3239366 -0.09682047 -0.13156281 -0.34545058 -0.06993509 0.3098988 0.18917125
0.103479534 -0.072340846 -0.17135593 -0.29302257 0.26305205 -0.49541748 -0.1072926 -0.20129931
-0.006749637 0.17367116 -0.12469776 0.3936048 -0.08535374 0.04497715 -0.32965812 -0.18103218
-0.29818827 0.709964 0.15708247 -0.2620654 0.6590115 0.08435961 -0.122551255 -0.0092070745
0.15799394 -0.019348769 0.5022625 0.19365117 0.00478063 0.1310236 -0.09884724 -0.016480342
0.14106077 -0.12514468 0.07459058 -0.20277824 0.20922796 0.05587631 -0.17629935 -0.20722525
0.17241663 0.4567074 0.14840132 -0.022030767 0.28009757 0.19399889 0.079548344 0.07219748
-0.21218516 0.18226813 -0.32556295 -0.043454483 0.025860954 -0.6086498 -0.026568735 0.085684314
-0.41953328 0.06562393 0.25963297 0.43161333 0.10161626 -0.01994937 0.536081 -0.0956899
0.27603546 0.4902449 0.11595862 0.029308751 0.63218945 0.16350625 0.19005682 -0.1717869
0.038264792 0.26740986 -0.4700465 -0.10324723 -0.121412605 -0.10569004 0.07192314 0.17193818
0.04603037 -0.21480632 -0.27876222 -0.4634879 -0.16207497 -0.62474793 0.06196483 0.099817336
-0.13392782 0.056151547 0.18436845 0.32505074 0.102134116 0.051214464 0.007600158 -0.27719492
-0.22913367 -0.2707114 -0.65957844 -0.0061906446 0.17337446 -0.28534946 -0.08334894 -0.43242937
-0.22111306 0.003202855 -0.39215758 0.307752 0.12650283 0.030934473 0.36302525 0.06687404
-0.10142916 -0.22332928 -0.29605594 -0.49381444 0.2616979 -0.025419008 0.046711776 0.5291695
0.13034198 0.17451398 -0.38513523 -0.081909396 -0.18878621 -0.26534396 -0.23510431 -0.002991589
-0.12608792 0.1955161 0.11090922 0.26805854 -0.016986685 0.21510282 0.06809085 -0.20356162
-0.023693066 0.2596609 0.2551194 -0.2393163 0.29215518 0.017589832 0.20148809 -0.010770925
-0.22090827 -0.06752277 -0.68195593 -0.124604926 0.2774283 0.18758295 0.03382362 0.04418531
-0.014238843 0.20646155 0.021985734 -0.19274272 0.031299092 -0.10889695 0.022732632 -0.058884524
0.060600635 0.16771293 0.17647575 -0.0650592 0.26192862 -0.14867127 -0.114067964 0.14340416
-0.044151824 0.12310769 -0.3027521 -0.059934277 0.2907348 -0.44487718 -0.14206988 -0.2239485

actor.0.bias f4 [128]
00000000: 2685 463d b2b7 343c 50d8 95bd 77b8 573d
00000010: 3911 d0bc c28c 17be c385 23bd 0ec7 80bd
00000020: 031d 053b 29ad 27be 0a39 2c3d 40c7 ad3d
00000030: 1782 99bc 478f 333d 1176 8f3d a766 223d
00000040: 4857 f53c 8427 973d 5c07 2dbd 3858 173e
00000050: 056f 8fbd a33f 9abd 5b0d e63b 9941 ea3d
00000060: 54d4 b83d 1dfd 94bc c32b 83be ca79 c3bc
00000070: 8f3d 75bd f4bc 30bd bf7b a7bd 4fac 84bb
00000080: c95a 213c 90d0 883d 8164 c4bd 5d68 89bd
00000090: 96a3 db3c 8af4 313d 95ff b63c 8865 f1bd
000000a0: c2d3 54bd 3005 413c b147 493c ee0c 903d
000000b0: 1618 a23b 3f38 c5bd d95f f0bc 9230 a93c
000000c0: 21b4 9dbd 8f5a b53c 43a7 bb3d c419 58bd
000000d0: 41b6 c7bd 7a38 cdbd 041c e13d 6c56 dd3c
000000e0: cb0d fcbd 0e00 d63d 1a0a b53d 0f13 993e
000000f0: 4728 02be 3870 1c3e d8f7 703e 9493 703d
00000100: 29aa 36bd 6bd6 813d 976d 20bc e13b 7ebc
00000110: 0bb1 d2bd 60af 253c 23e5 5d3d 6b76 91bd
00000120: 8c50 75bb fb3f 7b3e 44d6 f4bd 42d0 e4bd
00000130: f24e a53d c255 50be c9fd 373d b305 b1ba
00000140: a7f6 4c3b b090 a9bc f952 e8bc 6d66 c23b
00000150: beeb 01be bc7f 00bd 2e73 1e3d b9f4 073e
00000160: 8cdd 33bd d440 86bc f363 47bd 80d8 1c3e
00000170: eef5 7fbd 806c 013e 81ef 6dbd cb45 68bc
00000180: 151d c83c 7b8e 17bd 6733 453d dbd5 cd3b
00000190: d99e 87bd 3ef4 d23c c87e 333d 249a 2c3e
000001a0: b272 1c3d c095 79bd fdb3 f3bd 7977 3f3c
000001b0: f827 1cbc 9036 b3bd 47e0 ec3c 4c5c 8bbd
000001c0: 370d 2cbe a698 e1bc 303d 2cbe e779 d2bb
000001d0: 706d 30be 637f 753c 4ddd e1bd 491f 473c
000001e0: eb34 34bc 7f26 6abd 9f9a 8ebd 1dbe 37be
000001f0: aa8f 883d 58ee 39bd c1a1 ea3d 68a4 cd3d
0.048466824 0.0110301245 -0.07316649 0.052666154 -0.025398837 -0.14799789 -0.039922487 -0.06287967
0.0020311482 -0.16374649 0.042046584 0.084852695 -0.01873879 0.04383781 0.07004941 0.03964868
0.029948846 0.07380584 -0.042243347 0.14779747 -0.07003597 -0.07531669 0.007020635 0.11438293
0.090248734 -0.0181871 -0.25619325 -0.023861784 -0.05987316 -0.04314895 -0.081778996 -0.004048861
0.009848305 0.06680405 -0.09589482 -0.06709359 0.026811402 0.0434461 0.022338668 -0.11786944
-0.05195976 0.011781022 0.012285159 0.07033716 0.004946719 -0.09629869 -0.029342579 0.020653043
-0.077003725 0.022137908 0.09162762 -0.052758947 -0.09751559 -0.10020538 0.10991672 0.027018748
-0.12307318 0.10449229 0.08839817 0.29897353 -0.12710677 0.15277183 0.23532045 0.05873449
-0.04459587 0.06339725 -0.009791753 -0.015517206 -0.102876745 0.010112613 0.0541736 -0.071026646
-0.0037432043 0.24536125 -0.119549304 -0.111725345 0.08071698 -0.20345214 0.044919763 -0.0013505727
0.0031274946 -0.020698875 -0.028359877 0.0059326203 -0.12687585 -0.031371817 0.038684063 0.13276948
-0.043912455 -0.016388334 -0.048679303 0.15316963 -0.062490396 0.12639046 -0.058089737 -0.014176796
0.02442793 -0.037001114 0.048144724 0.006281597 -0.06622095 0.02575123 0.04382208 0.16855675
0.03819532 -0.06093383 -0.118995644 0.011686199 -0.009531014 -0.08750641 0.028915538 -0.068047136
-0.16801916 -0.027538609 -0.16820216 -0.0064232233 -0.17229247 0.014983985 -0.11028538 0.012153455
-0.010998945 -0.05716562 -0.069630854 -0.17943616 0.06668027 -0.045393318 0.11456633 0.10041124

actor.2.weight f4 [128, 128]
00000000: 63b8 d43d 4ec7 91be 4a2b 5cbe b0ac 50be
00000010: b686 f8bd f9fd 29bf f2f3 82bd 46a0 99be
00000020: e8d0 b1bc 8aa8 5b3e 8cd2 293e 1767 7c3c
00000030: a0d2 70bc 57ff 763c 9459 d3bd c4bb 5e3e
00000040: 2878 ce3c ed23 74bd e964 c9be 28cd 4ebb
00000050: ccc9 113e f8b3 3cbe 40e8 5f3d 959c a0be
00000060: 27fd f8bd d503 4bbe 9ce3 66bf ad3e dcbd
00000070: 90af 1f3e 6d39 493e 0496 91be d366 1e3e
00000080: 81b8 93bc c06e 1d3e 1896 cdbd 1f06 163e
00000090: 9076 f53d 2283 fabd e856 1c3d 76bf 683e
000000a0: a598 35be 0ac0 c73d 5c6f bcbd 6432 f2bc
000000b0: 5ff5 0dbd 83d4 153e 1367 94be 1288 4b3c
000000c0: 8572 9bbe 4473 023e 64f9 dcbc b14c 763e
000000d0: 2aab 943d 4df1 d53d d779 59bd 637c 273e
000000e0: 3f37 76bd b41b ae3c 4a64 b9bd 98d5 953d
000000f0: 4ac2 d1bc 2194 973d e0ee 6a3d e4af 41be
00000100: efdd a9be 1b59 a2bd 0509 c93d fce8 65bc
00000110: 8821 77be f4eb b43d f338 56bd 256f 7e3e
00000120: 1f50 70bd e456 ef3d bc5d 593e 0eb8 0abf
00000130: 61cb b23d 94b6 d5bd 4fc0 cbbd 10a0 0ebe
00000140: 3b78 dcbd 00a3 a0bd f966 8bbd b233 5d3d
00000150: 2591 953d 7a59 4dbe 0645 943d 367c 1a3e
00000160: 5733 7e3c d81b 033e 920d 3f3e 43c6 a7be
00000170: 62bc 4abe 1a54 003e 2ebe ce3c a905 c33d
00000180: 01f1 d03c 3276 bf3d ea8b 30be 9068 a13d
00000190: f535 b4be bf32 48bc 5c0f 19bc 5b1f 3c3e
000001a0: 8306 10be 30da 40bd dc97 c73d 6e4e 0c3d
000001b0: 25ff 3a3e 756c 37be 5a83 5f3d 4601 213e
000001c0: 4bb5 08bf f67c 46bc 9f48 21be dbf5 f03c
000001d0: a254 f3be bf2f 80be 28a8 07be e8b5 903c
000001e0: 7383 343d 83aa a9bd 9657 d5bc bd51 a73d
000001f0: dfee dfbc c7a4 a0be 76cf 4cbd d305 0c3e
00000200: 0e0d 1dbe e359 d7bd 4652 a7bc 5ebc 663d
00000210: bf96 4bbe e3c7 57bf 2d56 ee3d eaa0 6abf
00000220: bb83 ea3d a3d0 44bd 2112 353e a018 6ebd
00000230: 9456 b7bd b481 1c3e 6684 cbbd 5328 be3e
00000240: 0210 3fbf 9b88 273e 4a05 81be 6f2d 7f3e
00000250: 5182 153e da76 9bbe 1e11 013e 06b0 ccbd
00000260: e666 8fbe 759a 72be c99c 51bf c330 96bf
00000270: 3f36 a93e 2ac3 01bc 4f9d a83d c312 983d
00000280: 9b0e cc3d fe0a dc3c 5af1 ee3d d44e 7fbd
00000290: 737a a5be 0bc0 0dbf a535 fcbd 989a 93bd
000002a0: 37b6 3ebe ec57 95bc a626 94be c875 763e
000002b0: 9f13 3abe 7954 fb3b 12fc 6ebe 952f 8e3e
000002c0: ac7b 9fbd c59a bdbd 8b26 6dbd 9e28 d23e
000002d0: 506f b0bc 3cf0 a3bd c492 b6be 54a2 633e
000002e0: 8ad9 aebc 864e 7cbe 1fe8 a7bf 9589 f4bd
000002f0: 1229 e73d 10cb 093e 5e41 2f3e 0903 58bc
00000300: a0df 83bf 5e90 81bd 7639 013e 76e3 f63e
00000310: 01a1 08bf d26c 27bd 2eda 10be a0c2 09bd
00000320: 2ef4 3bbd 6cc1 fa3d fc5b babd 4bc1 d6be
00000330: 60aa 86bb 0171 53be e0ff 123e c571 bbbe
00000340: 9699 bebd f200 89be 4199 d2bd 2c61 9b3e
00000350: 753f 593e 3851 32be 4cd1 70bd 4597 2b3e
00000360: c89f c7bd 0b92 8b3c 3c67 fa3d a207 0c3c
00000370: e030 d7bd 4dcd 263e 4d3f b83d 4671 f23c
00000380: 9953 95bd 8589 9a3e 131a 49be a036 f83d
00000390: 4778 f2be c017 aebd 097c 0d3e 380b 713e
000003a0: d169 22be de07 323e 37dd 2c3e 8f48 b73c
000003b0: 7686 c73e 1bcc 8fbe 871e 853d 25cb 133e
000003c0: ec69 32bf 5478 113e 99d2 3bbe e821 09be
000003d0: 2845 0abf 0100 f7bd fd97 ca3c f592 25bf
000003e0: 55d4 9abd 26fe 8bbe 9532 e33d 04e9 fd3d
000003f0: fd1a 34be bd98 b4bf a734 50be 6aa0 be3d
0.103867315 -0.2847237 -0.21500888 -0.20378375 -0.12135069 -0.66403157 -0.06394185 -0.3000509
-0.02170606 0.21451011 0.16584224 0.015405438 -0.014698654 0.015075526 -0.1031982 0.21751314
0.02520378 -0.059604574 -0.393348 -0.0031555388 0.14237136 -0.18428028 0.05466485 -0.31369463
-0.1215766 -0.1982568 -0.90191054 -0.10754142 0.15594316 0.19650812 -0.28434765 0.15468912
-0.018032314 0.15374279 -0.10038394 0.14650773 0.119855046 -0.12232043 0.038168818 0.22729287
-0.1773401 0.097534254 -0.092009276 -0.029565044 -0.034657832 0.14631848 -0.2898489 0.012422578
-0.3036081 0.12739283 -0.026974387 0.24052693 0.072592095 0.10446415 -0.05309471 0.16356044
-0.06011128 0.021253444 -0.09052332 0.073161304 -0.02560534 0.074013 0.057356715 -0.18914753
-0.33177134 -0.07927152 0.098161735 -0.014032599 -0.24133885 0.08834067 -0.052300405 0.24847086
-0.05867016 0.11686495 0.21227163 -0.54187095 0.08730198 -0.10435215 -0.09948789 -0.13928246
-0.1076512 -0.0784359 -0.0680675 0.05400438 0.07303075 -0.20053664 0.07239728 0.15086445
0.01551517 0.1280359 0.1865752 -0.3276845 -0.19798425 0.12532082 0.02523717 0.09522564
0.025505545 0.09348716 -0.17240873 0.07881272 -0.35197416 -0.01221913 -0.009342041 0.18371336
-0.14064984 -0.04708308 0.09745762 0.034254484 0.18261392 -0.17912467 0.054568626 0.15723142
-0.5340163 -0.012114754 -0.15750359 0.029414108 -0.47525507 -0.25036427 -0.1324774 0.017664865
0.044070672 -0.08284476 -0.02604274 0.08169887 -0.027335582 -0.31375715 -0.050002538 0.13674097
-0.15337011 -0.105151914 -0.020424973 0.056331985 -0.19881724 -0.8428938 0.116375305 -0.91651785
0.11450907 -0.048050534 0.17682697 -0.058128953 -0.0895206 0.15283853 -0.099373624 0.3714014
-0.746338 0.16360705 -0.25199348 0.24919675 0.14600493 -0.30364114 0.12604186 -0.09994511
-0.28008193 -0.23691733 -0.8187986 -1.1733631 0.330492 -0.007920066 0.08233129 0.074254535
0.09963723 0.02686071 0.11667128 -0.062331036 -0.32319984 -0.5537116 -0.123149194 -0.07207221
-0.18624197 -0.018230401 -0.28935736 0.24068367 -0.18171547 0.007669982 -0.23338345 0.27770677
-0.077872604 -0.092580356 -0.057898086 0.41046613 -0.021537453 -0.080048054 -0.35658848 0.22229892
-0.021343965 -0.2463933 -1.3117713 -0.11940304 0.112871304 0.13456368 0.1711478 -0.013184317
-1.030262 -0.06326364 0.12619576 0.48220414 -0.5337067 -0.040875264 -0.14145729 -0.033632874
-0.045887165 0.122439235 -0.09099576 -0.41944346 -0.0041096658 -0.20648576 0.14355421 -0.36610237
-0.09306638 -0.26758534 -0.10283137 0.30347574 0.21215613 -0.17413795 -0.05879335 0.16756923
-0.09747273 0.017037412 0.12226722 0.008546742 -0.10507369 0.16289254 0.08996449 0.029595029
-0.072913356 0.30183044 -0.19638853 0.12119794 -0.4735739 -0.08500624 0.13816847 0.23539436
-0.15860678 0.17385814 0.16881262 0.022373466 0.38969773 -0.28085408 0.06499963 0.14432962
-0.69692874 0.14206058 -0.18342055 -0.1339184 -0.54011774 -0.120605476 0.024730677 -0.64677364
-0.0756003 -0.27342337 0.11093632 0.1239796 -0.1758842 -1.4109112 -0.20332585 0.0930794

actor.2.bias f4 [128]
00000000: b17b 5c3d 2d54 ee3d bbff d1bc 34a7 143e
00000010: 26f8 c63d 41fa a63b 0eda 163d 788c 0f3d
00000020: a66d 2d3d ec50 35be a065 793d a3ca 223d
00000030: ded5 db3d 642c f03a 0249 323d f071 8b3d
00000040: f874 5a3d 03d2 0cbd ccb8 683c 1d5d 583d
00000050: 962e 0f3d 0491 a03d 509c 093d 7607 1d3d
00000060: 5089 6d3d a4d8 0a3e 3e94 ec3c 1560 71bd
00000070: 7772 ed3c bc6a 19be 0348 d5bd 92af e83d
00000080: eaa9 da3d 0ab4 273d b6bd e93d 0000 0000
00000090: 05ec 833d 0714 2d3e 01d7 e63c a327 c13d
000000a0: ae21 0ebe 6929 8b3d 2a2d d93d 0b4b 4d3d
000000b0: f2f5 c6bc 84bd a0bc 03b9 b6bd ec92 b83d
000000c0: bdaf 173d d181 973d cd03 353d 296b 843d
000000d0: 5197 91bd 35cc b53d 33d7 8e3c 9358 353c
000000e0: 9b70 153e 7253 233d cd08 72bd a68d 613c
000000f0: b28d 9e3d 8bbb 9b3d 9d13 ef3c 4f87 e03d
00000100: 6979 9abd 939b db3d 748e 063d 7aa1 1abe
00000110: bb7e e83d 5d15 ef3c 4f51 393d b344 083e
00000120: 2966 913c 5ee1 a63d 60ce d53c ba64 f73d
00000130: 997d 623c 6966 4f3d 6ef4 e1bd 61f1 523b
00000140: 5df2 993d 3768 c33d a14c a1bc 14f7 fdbd
00000150: 8d61 9dbc 5c9c a93d 3705 c83c 6676 823d
00000160: dbaa f13c 04b7 a1bc f4e0 9d3d 337f c43b
00000170: 1513 0a3e 35f8 af3d 7028 d93c 63c4 183d
00000180: 081e febd 757d 6e3c 1c3f c4bc e0f6 7f3b
00000190: 0a87 123c c536 f03c a98b 1a3d af92 6039
000001a0: 2e79 1e3d 3ab7 d53c 194c 8e3d 917d c23d
000001b0: d9b0 01bc 2d2b 903c 6525 973d 118c f53a
000001c0: a391 a63d 654e 873d 3c6d 02bc 1074 333e
000001d0: b9b2 9b3d 69c2 323d acbc 0a3e 5553 123c
000001e0: 4631 213b 099f 5b3d 4635 4d3d 9e74 2b3d
000001f0: ff66 8e3c 7788 50ba 3210 f93d fb44 9f3d
0.0538289 0.11637149 -0.025634637 0.14516908 0.09715299 0.0050957506 0.036829047 0.03504607
0.042340897 -0.1770665 0.060887933 0.03974403 0.10734151 0.0018323776 0.043526657 0.06808841
0.053334206 -0.03437997 0.014204215 0.052823175 0.034956537 0.078401595 0.033596337 0.038337193
0.05799228 0.13559204 0.028879281 -0.05892952 0.028985245 -0.14982122 -0.10414126 0.113616124
0.1067694 0.040943183 0.114131376 0.0 0.064415015 0.16902171 0.028178694 0.09431388
-0.13880035 0.06795008 0.106043175 0.050120395 -0.024287198 -0.019621618 -0.08922007 0.09012398
0.03703283 0.073978074 0.044193078 0.06465752 -0.071089394 0.0887684 0.0174366 0.011068481
0.14593737 0.0398745 -0.059090424 0.013766682 0.0774187 0.0760413 0.029184157 0.10963308
-0.075426884 0.10723033 0.032850698 -0.15100661 0.11352297 0.029184991 0.045243558 0.13307457
0.01774891 0.08148454 0.026099384 0.12079759 0.01382389 0.050634775 -0.110329494 0.003218733
0.0751693 0.09541362 -0.01968986 -0.12400642 -0.019211555 0.08281776 0.02441655 0.06370239
0.029500416 -0.019740589 0.07708922 0.0059966086 0.13483842 0.085922636 0.02650854 0.037296664
-0.12408072 0.0145562785 -0.023955874 0.003905706 0.008943329 0.029322991 0.037730847 0.00021416949
0.038689785 0.026088346 0.06948108 0.09496606 -0.007915699 0.017598713 0.07380179 0.001873376
0.08133247 0.066067494 -0.007960614 0.17524743 0.07602448 0.043642435 0.13548535 0.008931001
0.002459602 0.053618465 0.050099634 0.04185926 0.017383097 -0.0007954905 0.12161292 0.07776829

actor.4.weight f4 [2, 128]
00000000: 9278 103f 17db 563f 06c6 3d3e 9714 993e
00000010: 9e62 123f d767 84be 41d1 1d3f b80c 4ebe
00000020: 5ea1 153b 9665 2a3f 21ec 54be 5082 1cbf
00000030: cdb7 ecbe 8312 3abf 27f8 7dbf d3ba 1e3f
00000040: d526 a8be 1e70 79bd 052b fcbe e1d7 9c3f
00000050: 3fc3 29b9 6364 ad3e 8b44 14be 46e3 063f
00000060: 3be2 483e f149 683f ac97 d73e 36f7 013e
00000070: 2c14 603e 7cc3 4b3c 6b3b 87bd a713 e9be
00000080: 365b 5c3e 8e64 1b3f 9a69 01be 92af 9dbd
00000090: e995 07be 8e11 593f 8896 0dbd 29df adbe
000000a0: 98e1 423e a674 4c3f fffd 11be eb19 113e
000000b0: 46dc 083f c2a9 e63b 34f2 5d3c b696 82be
000000c0: 21ca 05bf 2042 19bf 04f7 8f3e 2f7a 523e
000000d0: 1b23 c93e 952e d2bb 60c9 f2be 41d7 35be
000000e0: d6a4 793f 417d 8bbf 6627 6b3e 058b 15be
000000f0: f5c3 88be e2c3 8c3f a0c5 5fbf 746b 233e
00000100: 1bd1 9cbd b023 4a3e bdef 4ebf 5cf9 42bf
00000110: bf33 883e 86b7 7d3e ca03 edbe e611 2d3f
00000120: d214 08be 4e55 99bd 3d14 8dbe 1f48 023e
00000130: 45a0 ab3f be61 7b3e 14f2 033f 5872 9f3d
00000140: 73e3 8cbd 95b0 06bf c164 fabd d6d4 5e3c
00000150: 3ee8 e9be 23e5 243f f93d 20be 61b7 babd
00000160: f782 6cbd 2779 22be ca76 0c3f d759 34bf
00000170: 096b 37bf 9420 0abf 5571 7fbd 7da7 3dbe
00000180: 7024 2f3e ac9b 833e cd70 033e d728 29be
00000190: d943 16be beb4 433f 5663 1ebe 0bea dabe
000001a0: 67cf 473f 33c9 e3bd 37ea be3e 675e 28bf
000001b0: 417c 2cbe 567a 863e 1293 ecbe 3308 3cbe
000001c0: 45ad 733d 18f8 233f 661b 633d 5fde 57bf
000001d0: d032 af3e 8c36 5cbc 59e1 993e 1abb 7d3e
000001e0: 2f86 8abe 57dd f7bd 1185 f3be 82e0 233f
000001f0: 642a 98be 4721 13bf 949d 26bf be41 853f
00000200: 03ce 973e 1b5a cd3d 4693 963e 9655 13be
00000210: f954 0d3e 8241 173e ba75 fe3e 1598 64bd
00000220: 99fa 11be 1f2f e63e 5f96 a8be d7a8 0abe
00000230: 0971 f03c d3bd 613e 18e8 733d 52a3 35be
00000240: c1f3 423e fd10 413e 1278 2bbe 7001 373e
00000250: ce33 00bf d62e 77be 1cd0 14be 03a2 4cbc
00000260: b0be 2bbd 414f 8b3e 77ba 963e 84ea bb3e
00000270: 7de4 2ebe 6f3e 2d3e aa37 a23e d412 bcbd
00000280: 9872 20be 27c4 f83b 63a1 46be 0b32 5d3d
00000290: 712f 05be d2ce a6bd 928f afbe 44ec b3bd
000002a0: 5585 303e a977 bfbe 2338 94be dd1d d9bc
000002b0: f6c6 ed3d bfa7 2f3e 501f 723d 27e1 a4bc
000002c0: 961f a5be a576 6a3e 0af7 b63d de7e b23c
000002d0: eb47 193d b309 fbbd 1e1e 823e 4c67 163e
000002e0: eea2 03be 00cc 1b3d 25e4 d2bd e895 713e
000002f0: 8ede ffbd a981 093d 8ea9 b63d cf1a 2bbe
00000300: 3a87 083e 89a8 1abe d5e1 62bd 7eb9 223e
00000310: fc99 1fbe 099e bebd 9f18 333e f0ba 163e
00000320: b5d7 e03d 3d48 56be abe4 ca3c 36ae dfbd
00000330: 9429 fe3c f75f 5abe 8e2a 863c 8504 94ba
00000340: 3bc0 cfbe f1e6 d6bd dbdc 2b3e aaec 293e
00000350: 49a4 f23a 78bc da3d e1a7 34be a33d 63be
00000360: e82a 14be 7ced 1d3e f6bf 343e f5b0 e6b7
00000370: 15af 0e3e d61c 623e 4662 febc 2c55 aebd
00000380: edf0 133e 7cb3 343e a627 463e cdb7 3abe
00000390: c50a ecbd 3f5d 7b3e 4b6a 5c3d ce55 18be
000003a0: 0040 993e b1a6 42be 7ac2 353e 595c 46bd
000003b0: 16d6 98bd c5a1 2bbe 1672 53be 647e 1ebd
000003c0: df66 90be 49ef 723e ffab 1fbe d3bb c8bd
000003d0: 50eb 02bd 081a 93bd 3901 933b b0fa 94bc
000003e0: 43ae 7b3d 75a8 82bd 6d8b 403e 40a6 433d
000003f0: dff6 cebd 0ed5 27be 8dc7 0b3d f0a3 1d3e
0.56433976 0.83928055 0.18532571 0.2989852 0.5718173 -0.25860474 0.6164742 -0.2012204
0.0022831778 0.6656126 -0.20793201 -0.6113634 -0.4623398 -0.72684497 -0.99206775 0.6200382
-0.32842126 -0.06089794 -0.4925157 1.2253381 -0.00016189831 0.3386565 -0.14479272 0.5269054
0.1961755 0.90737826 0.42107904 0.1269196 0.21882695 0.012436744 -0.0660313 -0.45522806
0.21519169 0.6070031 -0.1263794 -0.07699503 -0.1324078 0.8479241 -0.034567386 -0.3395932
0.1903137 0.7986549 -0.14257048 0.14170043 0.5346111 0.0070392797 0.013546515 -0.25505608
-0.5226155 -0.59866524 0.28118145 0.20554422 0.39284596 -0.0064142444 -0.47419262 -0.17757894
0.97517145 -1.08976 0.22964248 -0.14603813 -0.26712003 1.0997279 -0.87410927 0.15958959
-0.07657071 0.19740176 -0.8083456 -0.7616174 0.2660198 0.2477704 -0.46291953 0.67605436
-0.13289192 -0.07486974 -0.27554503 0.12722825 1.3408285 0.24549004 0.51541257 0.07785481
-0.0687932 -0.5261319 -0.122262485 0.013600549 -0.45685 0.64412135 -0.1564864 -0.09117008
-0.057742085 -0.15866528 0.5486876 -0.70449585 -0.716477 -0.5395596 -0.06236394 -0.18520923
0.17103744 0.25704706 0.12835999 -0.16519485 -0.1467432 0.76447666 -0.15467581 -0.42756686
0.78050846 -0.1112236 0.37288067 -0.65769047 -0.16844274 0.2626521 -0.46205956 -0.18362503
0.059491415 0.64050436 0.05544605 -0.84323686 0.34218454 -0.013440739 0.3005474 0.24778405
-0.270555 -0.12102764 -0.4756246 0.64014447 -0.2971984 -0.5747265 -0.65084195 1.0410688
0.29649362 0.10026952 0.29409236 -0.14388117 0.13801946 0.14771083 0.49699193 -0.0558091
-0.14255752 0.44957826 -0.32927224 -0.1354097 0.029350774 0.22045068 0.059547514 -0.17738083
0.19038297 0.18854137 -0.16745022 0.17871642 -0.5007905 -0.2413896 -0.14532512 -0.0124897985
-0.0419299 0.27208903 0.29439136 0.3670236 -0.17079349 0.16918348 0.31683093 -0.09183279
-0.15668714 0.0075917426 -0.19397502 0.054002803 -0.13006379 -0.081449166 -0.34289223 -0.087852985
0.17238362 -0.3739598 -0.2894908 -0.026503498 0.116102144 0.17153834 0.059111893 -0.020126892
-0.3225066 0.22896822 0.08933838 0.02178901 0.037422102 -0.12257709 0.25413603 0.14687842
-0.12855121 0.038036346 -0.10297421 0.23592341 -0.12493621 0.03357092 0.08919059 -0.16709445
0.13332835 -0.15103354 -0.05539115 0.15891072 -0.15586084 -0.093074866 0.17489861 0.14719748
0.10978643 -0.20925994 0.02476724 -0.109219 0.031025685 -0.2132567 0.016377714 -0.0011292851
-0.40576348 -0.10493267 0.16783468 0.16594186 0.0018512096 0.10680479 -0.17642166 -0.22191481
-0.14469492 0.15422624 0.17651352 -2.7500539e-05 0.13933976 0.22081313 -0.03105272 -0.08512339
0.14447375 0.17646593 0.19351062 -0.18234177 -0.115254916 0.2454729 0.053812306 -0.14876482
0.2993164 -0.190089 0.17749968 -0.048427913 -0.07462709 -0.16760929 -0.20648989 -0.038694754
-0.28203484 0.23724093 -0.15592955 -0.098014496 -0.031962693 -0.071826994 0.0044862297 -0.018185943
0.061445486 -0.06379787 0.18803187 0.04776597 -0.10105681 -0.16389868 0.034125853 0.15394568

actor.4.bias f4 [2]
00000000: 31d9 f4bb 8203 e9bd
-0.0074721803 -0.11377622

q1.0.weight f4 [128, 4]
00000000: f8e0 e73d 91a2 c83e b56c 753e c44f 8b3d
00000010: 4fb3 dfbe d9b1 2d3e f867 003e 3fcb 803d
00000020: b43d 0bbf 65d7 d43e 4f5e 103e 20f6 8d3d
00000030: 8a54 06bf 824f 64be 1027 1fbe 6aa6 2cbd
00000040: fe48 493f f084 773e 3013 0fbd 0fd0 95bc
00000050: c9e0 c7be 5836 563f 1f8e 193e 95c0 a73d
00000060: 6eb0 09bf 9283 c63e a537 233e d9a7 203d
00000070: ca1a 09bf 475b 863e 0a11 1b3e 1aaa c33c
00000080: d3b4 c4be ea65 e53e 2cd7 053e a090 003d
00000090: 6fd8 f9be 9828 e7be 0396 16be 280c 31bc
000000a0: 30af 4abe f23e 0bbf a4bd a23e b305 4c3e
000000b0: 4263 343f d850 98be 7e04 87be bdee cebd
000000c0: 8d27 ff3e 9d84 abbf de54 a5be d05e 8cbd
000000d0: fabe 17bf 4484 8d3f b775 843e 1574 08be
000000e0: 21e8 05bf e917 883e e997 173e 51ed f93c
000000f0: f120 b9be 7016 51bf 1d34 4ebe 0e4a 65bd
00000100: 17a2 9fbe ef79 d0be 3948 993e e234 6dbc
00000110: d28f e8bd c80c 83bf 0bd6 59be 8b79 b2bd
00000120: 39ac 00bf dbca a2bd 2e05 e8bd f7ce dfbd
00000130: 8997 dbbe 61c9 603f 4688 5a3e 30cf 8d3d
00000140: 0a0e 5e3f 968f 403f 2850 fdbd d5bd 9dbd
00000150: 9802 4ebe 71f3 b0bf 1cb6 92be 8da5 d8bd
00000160: 0502 04bf 97f2 6a3c d006 003e 6418 d33d
00000170: 77d4 c6be 7e0b 9d3f cb66 303e cc9b a23d
00000180: e1b1 0dbf b349 783f 48c8 763e a48c 8d3d
00000190: 466d 06bf 597b 86be 282d 1fbe a92d 04bd
000001a0: 61dd 0bbf eb7b dbbe 25b1 28be 618e 23bd
000001b0: 086a fabe 6cf1 d5be 841d 03be f620 edbd
000001c0: 0f25 2ebf cee2 093f 7908 563e 5498 353d
000001d0: f372 fdbe 9c60 8d3f 816c 853e 7656 913d
000001e0: 669e 25be 7c46 6fbf fee9 0c3e 5633 e6bd
000001f0: b1db f2be 9d79 633e fbef 083e 2b96 883c
00000200: b8c3 b2bd 9764 d43f 0f94 5b3e 6e32 dc3d
00000210: 1051 14bf 1d32 a83e a5d4 293e 8563 273d
00000220: 5475 abb9 a4a3 91bf 7ac4 74be 7878 7ebd
00000230: 4a41 863f de1b dcbe 7493 14bf 003a 26be
00000240: 5b16 f5be f7ff 83be 740a 13be 70dc 41bd
00000250: 2d8f 06bf caa8 b8be 9c60 21be 7115 1ebd
00000260: dd6b d7be 4b68 113e 967a f93d 02e1 2f3d
00000270: f5e3 06bf 5b99 9e3e 3be8 1d3e a08a 003d
00000280: 6ec1 88bc 1947 a4bc 9657 2a3e 43f7 773e
00000290: 550a d7bd be85 8ebf 275c 26be 2aca a1bd
000002a0: 8b06 863e f0fe b0bf a44f 9bbe f515 37bd
000002b0: 074b 7dbe 63a2 913f 0528 5e3e 0201 7bbe
000002c0: 5a4d 88be ffd5 69be 05cb 01bf a0e3 02be
000002d0: f53e f9be 67c8 273f 2852 373e c5a4 293d
000002e0: acc0 f13d 8e73 623f 09be 723e 9bb6 8e3d
000002f0: 8c1c 453f 8274 64bf d186 41be 7908 2ebd
00000300: b9cb 643f 57c0 8bbe 8c2c 6e3e 16e6 b53d
00000310: af8a 00bf cdd7 153f eab3 173e 58c6 5e3d
00000320: 53df d13c 1217 8f3f dce9 7f3e a75b af3d
00000330: a7db 04bf ab28 2e3e acf6 163e 6552 c83c
00000340: b833 f03e dcde 5b3f 276d 42be 1657 5abd
00000350: 6c0e f1be 851c 0ebe 8a92 0abe 6621 28bd
00000360: c981 48bf da9d 423f 4333 5c3e 7f43 963d
00000370: f937 8abe 0560 aebe 5642 b83c 18e7 193d
00000380: b0f2 c1be f64b 31be 9dda 72be be6b 60bc
00000390: daae a8be a5c1 b03e bb91 b13c a0c9 b03e
000003a0: 1da2 00bf 2727 a33e f51c 0a3e 6acd 6a3d
000003b0: 08f6 c7be 94ae 8c3f cebf 103e 8c80 8b3d
000003c0: 99e3 b0be 9103 293f 158d 003e dcf5 293d
000003d0: 3217 12bf 4f0d 94bd 8c33 d2bd 58fe 003c
000003e0: aa84 aebf 0c9e 3c3f ca46 0fbe 9bbd 58bd
000003f0: 412a a8be aa90 91bf 3881 e8bd 13b2 e53c
0.11322206 0.39186528 0.2396725 0.068023235 -0.4369149 0.16962375 0.12539661 0.06288766
-0.54391026 0.41570583 0.14098476 0.0693171 -0.52472746 -0.22295955 -0.15542245 -0.042150892
0.78627 0.24171805 -0.034930408 -0.018287687 -0.39038685 0.8367667 0.14995621 0.08191029
-0.53784835 0.38772255 0.15939195 0.039222572 -0.535565 0.26241514 0.15143219 0.023884822
-0.38419208 0.44804317 0.13070363 0.031387925 -0.48797938 -0.45148158 -0.14705662 -0.010806121
-0.19793391 -0.5439292 0.3178531 0.19924049 0.70463955 -0.2974918 -0.26370615 -0.101041295
0.49834862 -1.3399845 -0.3229131 -0.068540215 -0.5927578 1.1055989 0.2587106 -0.13325532
-0.52307326 0.26580742 0.14804043 0.03050867 -0.36157945 -0.8167486 -0.20137067 -0.055978827
-0.31178352 -0.40718028 0.29937914 -0.01447794 -0.113555565 -1.0238276 -0.21273057 -0.08714589
-0.5026279 -0.07948848 -0.11329113 -0.10928147 -0.4288905 0.8780728 0.21341047 0.069242835
0.8674017 0.75219095 -0.12368804 -0.07702223 -0.20118177 -1.3824292 -0.28654563 -0.10578451
-0.5156558 0.0143400645 0.12502599 0.103073865 -0.38833973 1.2269132 0.17226712 0.07939872
-0.55349547 0.96987456 0.24099839 0.06911591 -0.5251049 -0.26265982 -0.1554457 -0.032270107
-0.5463467 -0.4286798 -0.16473825 -0.039930705 -0.4890902 -0.41785753 -0.12804228 -0.115785524
-0.68025297 0.538617 0.2090167 0.044334725 -0.49501762 1.1045108 0.26059344 0.07096569
-0.16173705 -0.93466926 0.13761136 -0.1124026 -0.47433236 0.2221436 0.13372795 0.016673168
-0.08728737 1.6593198 0.21443199 0.10751806 -0.5793619 0.32850733 0.16585024 0.040866394
-0.00032703078 -1.1378064 -0.23903075 -0.062126607 1.0488675 -0.4299001 -0.58037496 -0.16233063
-0.47868618 -0.25781223 -0.14359456 -0.047329366 -0.5256222 -0.36066276 -0.1575951 -0.038594667
-0.4207448 0.14199941 0.121815845 0.042939194 -0.52691585 0.30976376 0.1542062 0.031382203
-0.016693797 -0.020053433 0.16634974 0.24215417 -0.105000176 -1.1134565 -0.16246091 -0.07899888
0.26176867 -1.3827801 -0.30334198 -0.044698674 -0.24735652 1.1377681 0.21694954 -0.24512103
-0.26621515 -0.2283554 -0.5070041 -0.12782145 -0.48680845 0.65540165 0.17902434 0.041416902
0.11804327 0.8845757 0.23705305 0.06968423 0.76996684 -0.89240277 -0.18899085 -0.04248855
0.89373356 -0.2729518 0.23259181 0.08881776 -0.50211614 0.5853241 0.14814726 0.054388374
0.025619185 1.1178916 0.24991554 0.08562403 -0.5189766 0.17007701 0.14742535 0.024453351
0.46914458 0.8588693 -0.18986951 -0.053305708 -0.47081316 -0.13878067 -0.13532463 -0.041047476
-0.78323036 0.7602211 0.2150393 0.073370926 -0.2699583 -0.34057632 0.022492569 0.037573904
-0.37880468 -0.17314133 -0.23716207 -0.013697563 -0.329459 0.3452274 0.021675935 0.34528828
-0.50247365 0.31865808 0.13487609 0.057324804 -0.39054894 1.0990777 0.14135668 0.06811628
-0.34548643 0.66021067 0.12553819 0.041494235 -0.57066643 -0.07229101 -0.10263738 0.00787314
-1.3634236 0.7367866 -0.13991848 -0.052915197 -0.32844737 -1.1372273 -0.113527715 0.028039014

q1.0.bias f4 [128]
00000000: 9d0d a53d 6f56 cc3e 71f7 b33e f484 f03e
00000010: 599d c23e 45a1 3b3e 9fbd c53e 6339 d53e
00000020: 04dd 973d e1eb 8c3e c973 dd3c 9af5 533e
00000030: 6dce 4fbf 6573 a93d e0f7 ce3e e21e ea3d
00000040: b745 50be 269f efbd 2ac5 c13e d824 113e
00000050: 6ba1 38bf 5fed 01be 4be1 d73e cb54 32bc
00000060: 9aca 643e ef5e e13e 134b c23e 4bfd 883e
00000070: 9628 ef3e c4a6 013e 6dcb 1c3f 9876 bb3e
00000080: a5cc 64be 826a e03e 8aa4 86be 6954 0ebf
00000090: 7f9d d13e 24ab ca3e a6a7 c23e 7d63 cd3e
000000a0: 7925 f5be e0a7 b23c d6bb 17bf 902c c23e
000000b0: 5a8e 2a3e 9cf6 7b3e 353d b5be 6873 823d
000000c0: a827 ab3d cf70 9b3e 0124 a3be fcf5 e53e
000000d0: 1025 c73e bc1c e33e 8778 023f 16ea fe3e
000000e0: e5c2 abbe 8f3f 2a3e 8e0c 983e c6f3 cabe
000000f0: 7272 163e 8931 08bf ee1a 053e 0d64 113f
00000100: 48ff e53e 845a a1be e769 7d3e bed5 323e
00000110: 86e4 103f 7553 c03d 81ab b73c e56d e5be
00000120: 1616 c63e bf00 3b3f 55c0 813e 6db0 973e
00000130: ecfa c63e 85c2 a93e 2c74 d23e dc9a da3e
00000140: ba2b d63e 41e9 6a3e 523a 683d 1f56 9ebe
00000150: 3696 9c3e 83e7 65be 403f 14be 1c53 873d
00000160: 0f06 0cbe bd2e 203e 3a5c 083f 85c8 23bf
00000170: 3239 853e bfd5 513e c2a2 0c3d 12be 303e
00000180: 55d1 353e f5e5 9bbd 9f75 04be 125a e93e
00000190: c81a 93be c012 7b3e 7cf9 d43e 143e 3cbe
000001a0: 44e3 bb3e 999e a63e 93f9 c53e 8346 0e3f
000001b0: 104a 0f3f 5fab f13e 9d4f 393f 120f bb3e
000001c0: 9ee8 e33e e428 c93e 540a 1bbd e27b a63e
000001d0: e5a1 dc3e 5016 24be 135d c83e e538 8fbe
000001e0: 1332 403e a974 073f 9ce4 2fbd 8d47 bc3e
000001f0: fb1d 5f3e f02d df3e 4487 9a3e 9c3a 21bd
0.08059237 0.39909694 0.3514972 0.46976435 0.38010672 0.18323238 0.38621232 0.41645345
0.07415202 0.2752371 0.02703275 0.20699158 -0.81174356 0.08273963 0.4042349 0.11431672
-0.20339094 -0.11700277 0.37845737 0.14174211 -0.72121304 -0.12688206 0.42164072 -0.010884474
0.22342911 0.4401774 0.37947902 0.26755747 0.46710652 0.12661272 0.61247903 0.36613917
-0.2234369 0.4383126 -0.26297408 -0.5559755 0.40940472 0.39583695 0.3801853 0.40114966
-0.47880152 0.021808565 -0.5927099 0.37924623 0.16655865 0.24605793 -0.3539826 0.06369668
0.08357173 0.30359504 -0.31863406 0.44914234 0.38895464 0.4435786 0.5096516 0.49787968
-0.3354713 0.16625808 0.29697078 -0.3963911 0.14692095 -0.53200585 0.12998554 0.5679329
0.44921327 -0.3151437 0.2474743 0.17464349 0.565987 0.09390918 0.022420647 -0.44810405
0.38688725 0.73048013 0.2534205 0.2962679 0.38863313 0.3315622 0.41104257 0.42696273
0.41830236 0.22940542 0.056696244 -0.3092508 0.30583352 -0.22451596 -0.14477253 0.06607649
-0.13674186 0.15642829 0.53265727 -0.63977844 0.260202 0.20491694 0.034334905 0.17260006
0.17755635 -0.0761222 -0.12935494 0.4557653 -0.2873137 0.24518871 0.4159659 -0.18383056
0.36696827 0.32542875 0.38666973 0.5557634 0.55972385 0.47201058 0.72387105 0.36534935
0.4451341 0.3928901 -0.037851647 0.3251639 0.43092266 -0.16024137 0.3913351 -0.27973095
0.18769102 0.52912384 -0.04294263 0.3677334 0.2178878 0.43589735 0.30181324 -0.039362535

q1.2.weight f4 [128, 128]
00000000: c792 11bd 5bbc cd3e a1cc 723e 5213 5a3e
00000010: 7209 1d3f 867d 0e3e a842 643e b9fd 103e
00000020: b59a c5be 9970 8b3e 6a5f 71bd 9b38 4ebd
00000030: 275f 1c3d 3c86 0cbe cdbb e13e 82ad b43e
00000040: 2f53 c3be ee4c 883e 0039 903e 6331 f43d
00000050: d9a8 4e3f 4781 843d 37a0 853e 59bf 0f3e
00000060: 54cc 593e 4641 a53e b0a5 133e a4ae 923e
00000070: 5d4f 013e e740 c03e 343f 933e 0463 3d3e
00000080: bf3d 1abd 0cf9 a43e 2bc4 2f3e cfaf e53d
00000090: 4b93 853e 6dcc da3d 2598 9a3e 9345 473e
000000a0: ee83 373b 10d2 e739 5ea3 583d 8008 243e
000000b0: b235 da3d b866 b23e 45bd 6d3d 3f61 193f
000000c0: a3db 3d3c 43d5 893e 9d7d 213e e0cd 173e
000000d0: b3de 00bf e022 a33e 16de 893e 4fac 923e
000000e0: cb90 85be 3858 163c 3c78 b13e d972 ac3e
000000f0: e330 f23d 4fbb c9be c619 413e 8396 3b3e
00000100: 4268 583e 41cc f6bd 23cd 0f3e 0a83 f13d
00000110: 6fd2 7e3e cd0f c53e 1685 78bd 0a9f 36be
00000120: fb14 4f3e 0a2b 863e f5ce c03e ee40 853e
00000130: 39be 54bd 20e8 6d3e 80c4 943e 0898 4a3e
00000140: 0078 693d 3edc ad3e 3e14 d93e bdd0 dabd
00000150: b687 ba3e b0a0 a53d eb19 f3bd c1f6 6cbd
00000160: c9bd 0a3e ff55 e53e 8bcf 943e f375 393e
00000170: cf0f 163e 8566 033f dc82 753e fac4 143c
00000180: 0fd7 253f 619f 5b3e 90a1 133d 3e2b 4e3e
00000190: 6e82 d53d 9ea6 bf3e 8349 933e 544e 273f
000001a0: e609 593e d726 e3be 1fb0 5c3e 251e 413e
000001b0: 1993 6a3e 936d e23e 9115 14bd 8959 af3e
000001c0: 3245 5c3e 19e8 d13d b6f1 503a 87c7 fd3d
000001d0: d47a a23e b6be 20be 7463 2e3e 851c 13bd
000001e0: 012e ac3d 16f6 783e 54c9 8bbd 332a 0a3e
000001f0: d1e2 a03e 6b8b 533e 9cb1 ba3d 764e 073e
00000200: 3dbb 3fbd fda4 193e fe00 363e 011f 9a3e
00000210: 4c52 183f 57cb 983e 7e30 313e 02a5 903e
00000220: 8319 27be 60bd 083e afa2 06bd 70c6 92bd
00000230: 6257 a23e 7d6e c73d 3244 4f3e ad5d 9b3e
00000240: 7d4a a4be 5cd9 5a3e 4bf0 f43e ed4a 913e
00000250: 01f0 463f ae9d f83c f148 a83e 2275 293d
00000260: 99c0 913e 4a32 fc3d 541f b23e fa12 3b3e
00000270: 3553 233e 02ec 2f3e 776f 573d 7d28 323e
00000280: e4bf 2bbd 62b9 453e ed65 123e 0541 953e
00000290: 7e54 113e 5fb3 e33d 1385 a33e adf8 5b3e
000002a0: fbd1 66be b689 733c edb5 b93d 8407 083e
000002b0: 7db5 003e c54f cb3e a909 243e 256b 173f
000002c0: 8086 54be b1df e93d db37 b1bd 414a 613e
000002d0: 9395 dabe 2768 9f3e 760d c63d b227 453e
000002e0: 66c3 6fbd 53fd c0bd 948b 9d3e d70a 693e
000002f0: ae0b 8f3e b143 a0be 74d1 783e 9490 cb3d
00000300: 0d51 773e cc0e 693d a2d0 b83d 7910 ad3e
00000310: edb6 1d3e 28de fa3d 4110 6dbd c9c0 39be
00000320: d72a 773e 07d4 ae3e 26c4 af3e 29a6 d13e
00000330: 287d 82bd f4e1 bf3e 73f4 a33e ad8c 7f3e
00000340: 7431 1b3e 2357 fd3d ab82 0e3e a314 86be
00000350: c988 be3e 46f0 8b3e f05c 913c 48aa 0b3e
00000360: bbbb ea3d 372b ae3e 3ef0 6d3e 4d74 bc3c
00000370: 3942 4d3d 4523 573e 7583 663e d588 b93d
00000380: 2086 123f 23ba a93e 0a1b 603e f853 123e
00000390: 24ea 29be 5499 e53e b092 773e ff5c 003f
000003a0: 29d9 bf3e 2105 d1be ece3 f23d 2f9f 873e
000003b0: 4db9 223e 2150 2a3f 9363 74bd 59cc 703e
000003c0: c2f2 a93e 9015 4cbd 85b5 9ebd 0753 b23d
000003d0: a871 ee3d c66a 77be e57d b33e 1186 043e
000003e0: cda8 1d3e 3e9e b93d c6f6 ca3c 89bc 613e
000003f0: 6671 0e3e c59f b13d 45b0 933e 2371 453d
-0.03554037 0.40182766 0.23710872 0.21296433 0.6134254 0.13915071 0.22291052 0.14159288
-0.38594595 0.27234343 -0.058928885 -0.050346952 0.03817668 -0.13723081 0.44088593 0.35288626
-0.38149402 0.26621193 0.28168488 0.11923482 0.8072639 0.0646997 0.26098797 0.14037837
0.21269351 0.32276362 0.14418674 0.28648865 0.12627931 0.37549517 0.28759158 0.18494803
-0.037656542 0.32221258 0.17164676 0.112151735 0.26088938 0.106835224 0.30194202 0.19460134
0.002800222 0.00044216262 0.052890174 0.16018867 0.10654773 0.34843993 0.05804183 0.5991401
0.01158801 0.26920518 0.15770574 0.14824629 -0.5033981 0.31862545 0.2692725 0.28647086
-0.2608703 0.009176306 0.34662044 0.33681372 0.11825731 -0.39400718 0.18857488 0.18319134
0.21133521 -0.12050677 0.14043097 0.11792572 0.24884962 0.38488618 -0.060673796 -0.17834106
0.20222847 0.2620471 0.37657896 0.260261 -0.051939223 0.2323308 0.29056168 0.19784558
0.056999207 0.33957094 0.42398256 -0.10684345 0.36431664 0.08087289 -0.11870178 -0.05785251
0.1354896 0.44792172 0.29064593 0.181114 0.14654468 0.5132831 0.239757 0.009080166
0.6478128 0.21447517 0.03604275 0.20133683 0.10425268 0.37431806 0.28767022 0.65353894
0.21195182 -0.4436557 0.2155156 0.18859155 0.22907676 0.44224223 -0.03615338 0.34247997
0.21510771 0.10249347 0.0007970588 0.123915724 0.31734335 -0.1569775 0.17030126 -0.03591587
0.08407212 0.24312624 -0.0682551 0.1349266 0.31423047 0.20658652 0.091159075 0.13213524
-0.046809424 0.15004344 0.17773816 0.3010178 0.59500575 0.29842636 0.17303655 0.2825089
-0.16318326 0.13353491 -0.03286999 -0.07166755 0.31707293 0.09737871 0.20240858 0.30344906
-0.3208808 0.21371979 0.4783958 0.28377476 0.77709967 0.030348625 0.3286815 0.041371472
0.28467253 0.123142794 0.34789526 0.18268958 0.1594971 0.17179874 0.052596536 0.17398258
-0.041931048 0.19308999 0.14296694 0.29151168 0.14192387 0.11118197 0.31937465 0.21481581
-0.22541039 0.014864376 0.09067903 0.13284117 0.12569232 0.39709297 0.1601931 0.59147865
-0.20754433 0.11419619 -0.08653232 0.22000982 -0.4269224 0.3113415 0.09670536 0.19253424
-0.058535956 -0.09423318 0.30770552 0.22758041 0.27938598 -0.31301644 0.2429865 0.099396855
0.24152012 0.056898877 0.090241686 0.3380163 0.15401812 0.12249404 -0.05787683 -0.18139948
0.24137436 0.3414614 0.34329337 0.40947083 -0.06371528 0.37477076 0.32022437 0.24956007
0.15155584 0.12370136 0.13917033 -0.2618762 0.37213734 0.27331752 0.017744511 0.13639176
0.11461588 0.34017345 0.23236176 0.023004675 0.050111983 0.21009548 0.22511084 0.09059302
0.5723591 0.33149824 0.21885315 0.14289844 -0.16593224 0.44843543 0.2417705 0.501419
0.37470368 -0.40824226 0.11859879 0.26488635 0.15890999 0.66528517 -0.059665274 0.23515452
0.33193022 -0.04982525 -0.07749466 0.087072425 0.11642772 -0.24161825 0.35056987 0.12941767
0.15396424 0.090633854 0.024775874 0.22044577 0.13910446 0.08673052 0.2884542 0.0482036

q1.2.bias f4 [128]
00000000: 31f0 103e 9195 ff3d c06c 7bbc e927 513e
00000010: 1080 483e 11ed 3d3e 5b20 aebc 9f52 bd3d
00000020: e485 9bbd 8608 e73d e878 caba ed0e 113e
00000030: f632 873f ad37 8dbc 586d a13d 462a 743d
00000040: 22a8 7f3d 47e1 fb3d 45e1 a5bc 97b2 643e
00000050: a55a af3d 428a d13d 3045 5fbc 44d9 b33d
00000060: a9bd d93d 3026 bb3d 4d14 013e 7980 cd3d
00000070: 2527 8ebc 7501 db3d 9e41 003e 1e62 ee3d
00000080: 5d12 3a3e 7a38 343e 0439 bebc f819 2abc
00000090: a9c0 583d a397 de3d 33b0 c33d 99a7 943e
000000a0: 7c32 0a3e 29d6 ee3d f01c 8c3c c4a0 313e
000000b0: 72bc bf3e 49cf ee3d 2092 ad3d 5ce5 663d
000000c0: b2ea 5e3e 24de c83d 476b b23d 687c 593f
000000d0: 69c8 d53d 1a2a ea3d 1ffb 293e be2e 403e
000000e0: 2f72 0e3d 7d3b e53d 499a 253e 4b0c cf3d
000000f0: bdfb 60bc 18ae da3d ebcd 193e 5233 e13d
00000100: cd52 c23d defa 5e3d 56f1 133e dc80 f53d
00000110: ff9c 273e d5b6 153d 87b1 793e f7a7 393e
00000120: 2a36 eb3d 0696 013e c51f 5e3e 41a4 a0bc
00000130: 3e81 213e 4a58 c2bd 9297 ccbe 56c8 a5bd
00000140: 9e16 7a3f f472 a93c be13 2abc 9053 6f3f
00000150: 6af7 393e 77be 153e db8c af3d 7707 033e
00000160: 0eb4 e23d 82d7 ff3b 6e25 5abc f253 063e
00000170: 4fb4 a73d 813b 023e 1f7a 503e d4b9 c9bc
00000180: e263 b03d d991 e43d aef7 d33d 247b f23d
00000190: eb1c 163e a062 163e 0808 2e3d 6608 2f3e
000001a0: a207 093e 093c 373e fbf8 c93d 3c2e ca3d
000001b0: 3caa 0d3e 34f3 983d c7b1 e4bb 80fa 4f3f
000001c0: 99a5 183d 4e01 1b3e da5b 643e 506a 0e3e
000001d0: b081 433e 706c ed3d ce17 d33d 861c b03d
000001e0: 0ae1 c03e e62f ca3d 5021 a23b ed69 ed3d
000001f0: 2a86 1c3e ebd2 f3bc ac4f 0b3d 395e dd3d
0.14154126 0.124796994 -0.015345752 0.20425381 0.19580102 0.18547465 -0.021255663 0.09244274
-0.07593897 0.112809226 -0.001544741 0.1416585 1.0562427 -0.017238462 0.07882184 0.059610628
0.062416203 0.122988276 -0.020249018 0.22333752 0.08562211 0.10231449 -0.013627335 0.087816745
0.10631878 0.09138143 0.126054 0.1003427 -0.01735265 0.10693637 0.12525031 0.11639808
0.18171068 0.17599669 -0.023220547 -0.010382168 0.05291811 0.10868766 0.09555092 0.29034117
0.13495821 0.116619416 0.017103642 0.17346483 0.3744846 0.1166063 0.08475137 0.056371078
0.21769217 0.09807995 0.08711868 0.84955454 0.10438616 0.114338115 0.16599701 0.1876783
0.034776863 0.11192987 0.16172136 0.101097666 -0.013731894 0.10677737 0.15019958 0.10996117
0.09488449 0.054438464 0.14447531 0.119874686 0.16368483 0.036551315 0.24384128 0.1813048
0.1148494 0.12654886 0.21691807 -0.019609572 0.15771958 -0.09489496 -0.3995939 -0.08094852
0.9769076 0.020684697 -0.0103806835 0.9348688 0.18160787 0.14623438 0.08571788 0.12795816
0.11069499 0.007807673 -0.013314588 0.1311796 0.08188688 0.12718011 0.20359086 -0.024624743
0.08612801 0.11160631 0.103499755 0.118398935 0.14659469 0.1468606 0.042488128 0.17093047
0.13381818 0.17893995 0.098619424 0.098721 0.1383447 0.07468262 -0.0069792005 0.8124161
0.0372673 0.15137216 0.22300664 0.13907743 0.1909244 0.115929484 0.10307275 0.085991904
0.3767169 0.09872417 0.004947819 0.11592469 0.15285555 -0.02976366 0.034011528 0.10808987

q1.4.weight f4 [1, 128]
00000000: 43e2 e5be dd5e fbbe 394b 553d 9e22 10bf
00000010: 23c8 13bf 3027 a1be d439 d13d c2e8 e8be
00000020: fc96 683f 931a e8be 18ff ae3b 10da d8be
00000030: 22aa 9040 1c92 8a3d 618e 1f3f 7f6f 1d3f
00000040: d405 2f3f 44fe febe 9d49 123e 1302 c2be
00000050: 29b4 6c3f 80c7 b1be 7e04 2e3e fd5b e1be
00000060: 2a52 f9be fd18 bdbe 14ce 9dbe b5cc c6be
00000070: be8d 863d d33c eabe aa29 e5be f9e6 c8be
00000080: 7ceb f7be 7025 acbe 0a09 963f d564 463e
00000090: fb8e d83e b3e2 eabe 9327 b1be 91b1 793f
000000a0: 8086 b3be 9805 ffbe 46b6 c13f 1a2e 793f
000000b0: f715 f43f d174 cbbe 73c0 eebe 75b7 443f
000000c0: 3bac 0cbf 855a cfbe 7d32 f5be 0894 9840
000000d0: 05c1 bbbe 1465 2f3f 9b82 833f 2cbf e2be
000000e0: e02e 1c3f c13a acbe 746f a0be b600 08bf
000000f0: 06ea ee3d 124b f2be 9162 683f 2d2e 99be
00000100: 009e bfbe 3641 583f b5d0 ecbe 65a8 f2be
00000110: 3974 643f c73e 263f 8a25 21bf f574 603f
00000120: fb34 c9be 1472 433f 5d15 483f 5b96 6e3f
00000130: c669 633f a387 6d3f 0497 5840 cfbe 7f3f
00000140: e2f6 9940 8b6d b43f b95c 053e 345b 9a40
00000150: 8ce2 5c3f d8e5 363f b0aa 02bf e118 f7be
00000160: 5d6f 273f cabd aa3f db3e 6f3d bf2c a6be
00000170: cfaf f1be c3ff 403f 8aba 0e3f 5c64 263e
00000180: 7609 d4be 06a1 dabe 9b71 2b3f a14a 02bf
00000190: 736d 463f 6bf3 bcbe 2f22 0dbf 6e31 bebe
000001a0: fe04 b3be bebf e1be 19f9 f8be 9f7b fbbe
000001b0: 5572 a3be 2b3a 333f 572c b43f 816c 9140
000001c0: c0fc b73f 8ea7 343f 3786 03bf 62cc 6d3f
000001d0: b3ec 4a3f 6d9c f1be fc01 edbe 3243 bebe
000001e0: ccf8 c43f f2f4 b1be ed5a 7f3f b31a d6be
000001f0: a515 bcbe 550c 183d 4d31 123f 6c98 dabe
-0.44899186 -0.49095812 0.05207369 -0.5630282 -0.5772726 -0.3147521 0.10216108 -0.4549008
0.90855384 -0.45332775 0.005340468 -0.42353868 4.520768 0.067661494 0.6232663 0.61498255
0.6836827 -0.49803364 0.14285894 -0.37892208 0.924624 -0.3472252 0.16993901 -0.44015494
-0.486955 -0.36933127 -0.30821288 -0.38828054 0.06570004 -0.4574953 -0.4475835 -0.39238718
-0.48421848 -0.33622313 1.1721509 0.19374402 0.42296585 -0.45876083 -0.34600505 0.9753657
-0.35063553 -0.49808955 1.513375 0.9733597 1.9069203 -0.3973756 -0.46631202 0.76842433
-0.549503 -0.40498748 -0.47890082 4.76807 -0.366707 0.6851361 1.0274233 -0.44286478
0.61009026 -0.33638576 -0.31335032 -0.53126085 0.1166573 -0.473229 0.907754 -0.29918042
-0.37425232 0.84474504 -0.4625298 -0.473941 0.8923984 0.6493954 -0.62947905 0.8767846
-0.39298233 0.76345944 0.781576 0.93198174 0.8883327 0.9278509 3.3842173 0.99900526
4.811387 1.409593 0.13023652 4.823633 0.86283183 0.71444464 -0.510417 -0.4826117
0.654043 1.3339169 0.058409553 -0.32456014 -0.47204444 0.7539026 0.55753386 0.16249222
-0.41413468 -0.42700976 0.66970223 -0.50895125 0.77510756 -0.36904463 -0.55130285 -0.37147087
-0.34964746 -0.440916 -0.48627546 -0.49117753 -0.31923166 0.7001063 1.4076031 4.544495
1.4374008 0.7056817 -0.5137667 0.9288999 0.79267424 -0.47189656 -0.46290576 -0.3716064
1.5388427 -0.3475719 0.99748117 -0.41817245 -0.36735263 0.037121136 0.5710648 -0.42694414
