SAC/checkpoints/Pendulum-v1/02_best_agent.pth (torch, 214247 bytes, 17 tensors)

log_alpha f8 []
-5.893402252497678
00000000: de99 420a d892 17c0

actor.0.weight f4 [128, 3]
-0.12598306 -0.8706753 -0.017794915 0.33646917 0.6229893 0.15716426 -0.28089356 -0.5202334
0.23626032 -0.07004757 -0.33671403 -0.19600876 0.11320413 0.55599844 0.27643135 -0.010926328
1.2873929 0.022502223 -0.05646702 0.5203152 0.11460426 0.17466475 -0.8167249 0.054719742
-0.12271668 -0.59092414 -0.32682413 0.45075354 0.41934428 -0.29652506 -0.14074558 -0.4283765
-0.7574254 -0.19150122 -0.35889566 -0.28355688 -0.120816834 -0.74215734 -0.60452396 -0.23806469
-0.84244096 -0.19499522 -0.27992383 -0.52787715 0.05334552 -0.11150301 -0.48213232 -0.31816328
-0.97244227 0.21716818 0.19899055 0.37989348 0.006757322 -0.14045523 0.33369917 0.28308445
0.115846604 -0.5939951 0.35040283 0.12885423 -0.0959594 -0.6156012 -0.09787015 0.24952231
0.7758604 0.12674126 -0.07314248 -0.44686592 -0.19514026 0.2257783 -0.38684532 -0.15341747
0.15053041 0.7195044 0.11230712 -0.66782784 -0.14708562 -0.06549119 -0.3346382 0.4132586
0.16737518 0.24769644 0.02599727 0.06472203 -0.30997333 -0.6886316 -0.14372702 0.38421363
0.3216073 0.10441577 0.05750646 -0.69867736 -0.14714985 -0.45275825 -0.5226923 -0.17077962
-0.18720788 -0.28393632 0.16505425 -0.6768521 -0.41496733 -0.09224985 -0.022595068 -0.7292726
-0.43525043 -0.3875356 -0.15505137 -0.048966195 -0.7662231 0.26084283 0.108554125 -0.08262089
0.5619735 0.2396643 0.14412935 -0.6023845 0.04582202 -0.05384391 -0.4657155 -0.10283302
-0.6717502 0.40332204 -0.037687454 0.13318795 1.1253545 0.18910433 -0.040066708 -0.4856748
-0.7645938 0.035228223 0.2713772 -0.30864468 0.3836853 0.04898381 -0.14262892 0.39656442
-0.36503556 -0.2253892 -0.16740555 -0.6738526 -0.15319702 -0.00020093488 -0.7355871 -0.45225084
-0.26488715 -0.39175764 0.054150928 0.41931525 -0.35928765 -0.1173839 0.11580026 -0.9175498
-0.13062868 -0.54427284 -0.1134377 0.119415484 0.050045043 1.0490259 -0.32949385 -0.043712225
0.31780887 -0.66146845 0.044904914 -0.49566382 0.18736485 -0.18599087 -0.28236437 -0.19956362
-0.108299 -0.51743793 -0.31712452 0.25262102 0.9696333 -0.42409822 -0.35361502 0.44723606
0.14886774 -0.13574053 -0.7286635 -0.20434895 -0.55341846 0.20816499 0.026173802 0.04902207
-0.5927857 -0.1620484 0.017219903 -0.03688755 8.5034706e-05 -0.3394951 0.5360058 0.29424664
0.15763952 0.7342563 0.23882008 -0.3792306 0.51260173 0.11060913 0.14679055 -1.0864705
0.074748226 -0.49111825 0.13894235 0.18056405 0.023217248 0.30822784 -0.22607817 0.40128994
-0.45634478 -0.20279752 -0.62283105 0.47328395 -0.018891191 -0.3488474 -0.6704274 -0.17875677
0.36721975 -0.5704938 -0.2199027 0.11040984 -0.952801 0.005519194 -0.07259142 0.06360736
-0.23679069 -0.93723077 -0.15504204 -0.043096233 0.18376368 -0.11634446 -0.8497895 0.10444959
0.9801093 -0.2784452 0.023411874 0.7136074 0.20319912 -0.0996499 -0.8462083 -0.3333896
0.27735838 0.08366383 0.14801104 -0.049291793 0.40818107 0.43701068 -0.09399754 -0.07173938
0.19350168 0.4139561 0.41651928 0.15304995 -0.03543868 -0.24278364 -0.6957921 0.003286008
00000000: b401 01be 94e4 5ebf a4c6 91bc b045 ac3e
00000010: 3a7c 1f3f abef 203e 48d1 8fbe 042e 05bf
00000020: 3aee 713e 1a75 8fbd c865 acbe 85b6 48be
00000030: 91d7 e73d ea55 0e3f 6988 8d3e 5704 33bc
00000040: 4ac9 a43f 9556 b83c f649 67bd 6033 053f
00000050: a3b5 ea3d 51db 323e e214 51bf cf21 603d
00000060: e252 fbbd ce46 17bf 7e55 a7be 2bc9 e63e
00000070: 4bb4 d63e 22d2 97be 9c1f 10be 2a54 dbbe
00000080: a2e6 41bf e518 44be 2cc1 b7be 5e2e 91be
00000090: d16e f7bd 06fe 3dbf 15c2 1abf 3bc7 73be
000000a0: 36aa 57bf d4ac 47be 2d52 8fbe f522 07bf
000000b0: d580 5a3d b15b e4bd 0cda f6be 4ce6 a2be
000000c0: faf1 78bf 5661 5e3e 2ec4 4b3e 6681 c23e
000000d0: 866c dd3b 7fd3 0fbe 9eda aa3e 72f0 903e
000000e0: fc40 ed3d 1010 18bf 0068 b33e 5df2 033e
000000f0: 5d86 c4bd 0a98 1dbf 2570 c8bd c782 7f3e
00000100: ca9e 463f 76c8 013e b9cb 95bd 9ccb e4be
00000110: d9d2 47be 6d32 673e 9710 c6be 7819 1dbe
00000120: a524 1a3e 7131 383f 4601 e63d c4f6 2abf
00000130: 9d9d 16be 3f20 86bd b355 abbe a296 d33e
00000140: 6664 2b3e 23a4 7d3e 3af8 d43c fc8c 843d
00000150: d3b4 9ebe 294a 30bf 2d2d 13be a6b7 c43e
00000160: b6a9 a43e efd7 d53d e58b 6b3d 85dc 32bf
00000170: 73ae 16be eecf e7be 2acf 05bf dae0 2ebe
00000180: 6cb3 3fbe 1a60 91be fb03 293e 2e46 2dbf
00000190: 9976 d4be 7ded bcbd 4b19 b9bc 9cb1 3abf
000001a0: 25d9 debe 116b c6be c9c5 1ebe c790 48bd
000001b0: 3227 44bf 318d 853e a051 de3d 2435 a9bd
000001c0: 7fdd 0f3f 8f6a 753e a596 133e df35 1abf
000001d0: dfaf 3b3d 6f8b 5cbd 4372 eebe 1e9a d2bd
000001e0: d2f7 2bbf 3a80 ce3e 295e 1abd 6c62 083e
000001f0: 9e0b 903f 91a4 413e fd1c 24bd 5eaa f8be
00000200: 6bbc 43bf 784b 103d f4f1 8a3e ad06 9ebe
00000210: 6672 c43e 3fa3 483d 510d 12be 7e0a cb3e
00000220: f1e5 babe 6dcc 66be 5c6c 2bbe 9b81 2cbf
00000230: aedf 1cbe 0cb2 52b9 704f 3cbf 6c8d e7be
00000240: 4a9f 87be 7594 c8be 5dcd 5d3d 7db0 d63e
00000250: 8df4 b7be f866 f0bd b028 ed3d 8be4 6abf
00000260: 86c3 05be 7755 0bbf 0652 e8bd 1b90 f43d
00000270: 08fc 4c3d 7b46 863f 6bb3 a8be 970b 33bd
00000280: d8b7 a23e ff55 29bf 37ee 373d a6c7 fdbe
00000290: 92dc 3f3e 6474 3ebe 1092 90be 685a 4cbe
000002a0: decb ddbd d076 04bf 255e a2be 8b57 813e
000002b0: e339 783f 6723 d9be 070d b5be 20fc e43e
000002c0: c970 183e 91ff 0abe b189 3abf da40 51be
000002d0: d5ac 0dbf 3429 553e 716a d63c 5ecb 483d
000002e0: cec0 17bf 04f0 25be c110 8d3c 6617 17bd
000002f0: a954 b238 4dd2 adbe ad37 093f 7fa7 963e
00000300: 416c 213e 39f8 3b3f 408d 743e 832a c2be
00000310: de39 033f 0a87 e23d 4350 163e 7711 8bbf
00000320: 9915 993d da73 fbbe e746 0e3e c8e5 383e
00000330: 1932 be3c 0ad0 9d3e 0981 67be e075 cd3e
00000340: 06a6 e9be 27aa 4fbe db71 1fbf 4652 f23e
00000350: b3c1 9abc 209c b2be 21a1 2bbf 040c 37be
00000360: 3a04 bc3e e20b 12bf 2c2e 61be 8e1e e23d
00000370: c4ea 73bf 5bda b43b cfaa 94bd 9344 823d
00000380: 4279 72be 5bee 6fbf 57c3 1ebe ad85 30bd
00000390: 8c2c 3c3e 0146 eebd ce8b 59bf abe9 d53d
000003a0: 71e8 7a3f 5f90 8ebe 42ca bf3c f9ae 363f
000003b0: 6e13 503e 3f15 ccbd 1ba1 58bf 0bb2 aabe
000003c0: eb01 8e3e f157 ab3d 3590 173e 31e6 49bd
000003d0: 1cfd d03e ddbf df3e c881 c0bd 19ec 92bd
000003e0: 4e25 463e 0ef2 d33e 0442 d53e 20b9 1c3e
000003f0: 2628 11bd 469c 78be 6e1f 32bf 115a 573b

actor.0.bias f4 [128]
0.050627228 -0.12877701 -0.17133953 -0.061628316 -0.12201144 0.032816187 -0.100835584 -0.09578036
-0.11809863 -0.15347724 -0.003337931 0.013118006 -0.07757278 -0.15227284 -0.0013213339 -0.09778424
-0.124976516 -0.06944858 -0.2422327 -0.025101433 0.07171663 -0.01338436 -0.06963947 0.03415578
0.06171222 -0.12312332 0.09416077 -0.15222636 -0.024511104 -0.24386525 0.0010076774 0.17608893
-0.11920329 -0.04276151 0.030438107 0.04452293 0.028124196 -0.030729728 -0.076515675 -0.15413687
0.07595005 0.047808375 0.011767964 -0.18928209 0.04796143 -0.2788409 -0.14210907 0.0040495507
0.0711738 0.03310522 -0.14723393 0.07751915 0.06375193 -0.106694266 -0.061719555 0.056725435
-0.10198839 0.13697195 -0.08115361 -0.07703131 0.017121948 0.018958285 -0.041506458 -0.2760664
-0.09571023 -0.1470895 -0.03994153 0.05732484 -0.14603816 -0.2105952 -0.014768576 0.021364313
-0.2013838 -0.06470474 -0.1329559 -0.0059437877 -0.19496222 -0.018997896 0.052072085 0.06301249
-0.22059053 -0.051745597 0.014904052 -0.28944564 0.0025227715 0.06863631 0.113167726 0.025591893
-0.11429503 0.028898623 -0.022751022 -0.18536755 0.029961474 -0.27053893 0.17664745 0.020813636
0.016039316 -0.15219507 -0.11304241 -0.19777319 -0.11145556 -0.025790887 0.065555625 0.07302733
0.0417006 -0.053376388 -0.043438613 -0.0840647 -0.13657328 0.021070126 -0.034242287 -0.054153718
-0.1385475 0.1567972 -0.079865076 -0.062580846 -0.15663612 0.17789623 -0.31796536 -0.03935312
-0.052607514 -0.15610395 -0.051637933 -0.28659168 -0.1663146 -0.019204063 -0.17216963 -0.26822847
00000000: 7f5e 4f3d 1fde 03be a173 2fbe f96d 7cbd
00000010: 22e1 f9bd 446a 063d e382 cebd 7e28 c4bd
00000020: b2dd f1bd 2329 1dbe 30c1 5abb e8ec 563c
00000030: 7ade 9ebd 69ed 1bbe 9c30 adba 1b43 c8bd
00000040: b0f3 ffbd 0f3b 8ebd d90b 78be 85a1 cdbc
00000050: 2be0 923d 134a 5bbc 239f 8ebd eee6 0b3d
00000060: f4c5 7c3d 1428 fcbd 5dd7 c03d 3ae1 1bbe
00000070: 83cb c8bc d0b7 79be 0b14 843a a850 343e
00000080: db20 f4bd b126 2fbd 5659 f93c ad5d 363d
00000090: b764 e63c e9bc fbbc 40b4 9cbd 0ed6 1dbe
000000a0: b38b 9b3d b7d2 433d 6bce 403c 2ad3 41be
000000b0: 3473 443d 3cc4 8ebe 0a85 11be 18b2 843b
000000c0: 92c3 913d 5799 073d 7ec4 16be 5cc2 9e3d
000000d0: 5f90 823d 8682 dabd a5cd 7cbd ee58 683d
000000e0: 4adf d0bd 6042 0c3e dd33 a6bd 97c2 9dbd
000000f0: 5443 8c3c 684e 9b3c ad02 2abd 9358 8dbe
00000100: ba03 c4bd a19e 16be bb99 23bd 74cd 6a3d
00000110: 078b 15be 45a6 57be e6f7 71bc 3604 af3c
00000120: 8e37 4ebe eb83 84bd 9725 08be 1bc4 c2bb
00000130: 2da4 47be 7aa1 9bbc 8a49 553d b10c 813d
00000140: 7ce2 61be 31f3 53bd 2030 743c 3832 94be
00000150: 1555 253b 3291 8c3d 7bc4 e73d 17a6 d13c
00000160: 8313 eabd cebc ec3c 5a60 babc fed0 3dbe
00000170: c471 f53c 1484 8abe 12e3 343e 5c81 aa3c
00000180: e264 833c 06d9 1bbe c782 e7bd 0e85 4abe
00000190: d042 e4bd 6947 d3bc 0742 863d 5a8f 953d
000001a0: 40ce 2a3d 33a1 5abd b0ec 31bd 1d2a acbd
000001b0: ded9 0bbe 429b ac3c a441 0cbd 4ad0 5dbd
000001c0: 65df 0dbe 728f 203e 4d90 a3bd 632a 80bd
000001d0: 3865 20be 6e2a 363e 5bcc a2be bd30 21bd
000001e0: fa7a 57bd b7d9 1fbe 4c82 53bd 25bc 92be
000001f0: 604e 2abe d751 9dbc 3c4d 30be 3e55 89be

actor.2.weight f4 [128, 128]
0.4338296 -1.3531493 0.08055615 0.10745992 -0.081869826 -0.17634657 -0.3386279 0.13345784
0.038507678 -0.21784653 0.03619718 0.050302483 0.072414346 -0.04525759 0.5706669 0.04063509
-0.20897296 -0.1209422 -0.27611884 -0.13662988 0.040135738 -0.16082034 0.1598705 -0.07748343
-0.16595908 0.062670015 -0.24529453 -1.4195664 0.038612712 -1.4214891 0.0043070023 -0.026217783
0.15353441 0.07215626 0.08416813 0.12241252 0.20540304 -1.0819193 -0.11227423 0.16904476
0.0952703 -0.06689652 -0.009644818 0.11373274 0.08060179 -0.22318369 0.115863726 0.017159978
0.0032956183 -0.0049622483 -0.084676825 0.22229663 -0.15133382 -0.024311472 -0.42205617 -0.054733653
-0.06498166 0.19176042 -0.14396967 0.09347831 0.28491986 0.18264657 -0.07660366 -2.185026
0.11684666 -0.047806915 -0.16555578 -0.25594795 0.09888713 -0.056541897 -0.10055859 -0.038280852
-0.05878041 -0.1301649 0.15481687 0.12605992 -0.08160129 -0.13294189 -1.2165397 -0.04155094
-0.9980831 -2.3483577 0.04247925 -0.93694824 0.08656357 -0.10949275 0.033870347 -0.5251189
-0.6053415 -0.28811505 0.0732691 0.090513326 -0.09117623 -0.56926227 0.20092253 0.27583382
-2.129129 -0.16686025 0.10741638 -1.3741856 0.12073149 0.06030951 -0.091347136 -0.16190062
0.043507434 -0.22219825 0.21739489 -0.014517024 0.43173522 0.07857962 0.13916287 -2.1863925
-2.0376236 -0.14893174 -2.0580375 -0.11974676 0.02425615 0.13182443 -1.1546203 -0.1413574
-0.3630429 -0.8365156 0.051643252 -0.59421515 0.1785441 -2.151846 -0.034854576 -0.11977207
-0.045422144 0.06487249 -0.15004608 0.23537676 0.053913977 -0.059529047 -0.3313281 -0.005989579
0.043359727 0.22522709 0.12765168 -0.0067411773 -0.30638108 -0.15128979 -0.13407269 -0.09008186
-0.5041993 -0.07669989 0.158998 -0.06638722 -0.045158394 0.11463872 0.054145314 0.045220293
0.0830074 0.16351089 -0.07896087 -0.08686726 0.09935098 0.017608535 -0.5249814 -0.17752308
-0.14305152 -0.06916659 -0.5266364 0.12644203 -0.4223661 -0.03847308 0.017336575 -0.14083555
-0.3028603 0.1920811 -0.053900212 -0.7239257 -0.11569214 -0.53660554 0.11750071 -0.34577042
0.011513934 0.0654072 -0.3010764 -0.86460686 0.36747256 0.23476961 -0.05298899 0.12191816
-0.07997472 0.13595189 -0.101597466 0.0031500752 -0.44166416 -0.43535596 0.09137775 -0.3005904
0.16512293 -0.14579716 0.06333786 -0.28893086 -0.091593884 -0.37217465 0.075347975 0.098084636
-0.1382516 -0.05345241 -0.023027861 -0.047975883 0.04223201 0.007516489 0.13404065 -1.0289943
0.14426732 0.14319398 0.034026925 0.2724547 -0.11518628 0.19623737 -0.09241179 0.14196129
0.15778145 0.037952717 -0.10665879 0.0843256 0.19576362 0.124973156 -0.16497219 -0.132093
-0.008361793 -0.27300808 -0.17217328 0.0140728345 -0.087549396 -0.037920553 0.4250618 -0.07358201
0.2129625 -0.1017695 -0.46910957 -0.085473545 0.15578753 -0.03220986 -0.07377302 -0.11018367
0.07580373 0.033145685 0.15725905 -0.12541045 -0.3329472 0.15318227 0.0787618 0.2562656
0.1887379 0.2504828 -0.221492 0.049946234 0.010611111 0.18672933 -0.16703703 -0.9850418
00000000: ea1e de3e ff33 adbf 9ffa a43d f213 dc3d
00000010: 5eab a7bd 3294 34be a360 adbe 2ca9 083e
00000020: 3aba 1d3d 2913 5fbe 7f43 143d fa09 4e3d
00000030: f94d 943d 0660 39bd 3a17 123f fb70 263d
00000040: 02fd 55be 8bb0 f7bd 735f 8dbe b4e8 0bbe
00000050: 5f65 243d 16ae 24be 18b5 233e a2af 9ebd
00000060: 2df1 29be 2359 803d 7d2e 7bbe 5ab4 b5bf
00000070: 5d28 1e3d 5bf3 b5bf c121 8d3b adc6 d6bc
00000080: 2038 1d3e a9c6 933d 5760 ac3d 6ab3 fa3d
00000090: 2d55 523e 557c 8abf 08f0 e5bd 121a 2d3e
000000a0: 131d c33d 0b01 89bd 4c05 1ebc b6ec e83d
000000b0: 8d12 a53d 448a 64be f649 ed3d 1593 8c3c
000000c0: 4dfb 573b 5b9a a2bb 0b6b adbd baa1 633e
000000d0: 41f7 1abe da28 c7bc bf17 d8be 6530 60bd
000000e0: 1b15 85bd d85c 443e c96c 13be 8e71 bf3d
000000f0: 04e1 913e b407 3b3e 61e2 9cbd 77d7 0bc0
00000100: 4d4d ef3d 2fd1 43bd 7487 29be 9c0b 83be
00000110: 5685 ca3d 7a98 67bd a9f1 cdbd 62cc 1cbd
00000120: bac3 70bd f349 05be 5088 1e3e da15 013e
00000130: 941e a7bd eb21 08be 93b7 9bbf 5231 2abd
00000140: 6082 7fbf 7e4b 16c0 b9fe 2d3d d7db 6fbf
00000150: 3e48 b13d bc3d e0bd a2bb 0a3d 316e 06bf
00000160: a9f7 1abf d183 93be 1c0e 963d 0d5f b93d
00000170: 9aba babd 2cbb 11bf a3be 4d3e 173a 8d3e
00000180: a643 08c0 6add 2abe 1efd db3d 50e5 afbf
00000190: 1242 f73d 1b07 773d 3514 bbbd 47c9 25be
000001a0: da34 323d f087 63be c49c 5e3e d0d8 6dbc
000001b0: 660c dd3e 5aee a03d b680 0e3e dbed 0bc0
000001c0: 6d68 02c0 9081 18be e3b6 03c0 ca3d f5bd
000001d0: d5b4 c63c fcfc 063e 99ca 93bf ffbf 10be
000001e0: c2e0 b9be e325 56bf e087 533d 7c1e 18bf
000001f0: 44d4 363e d8b7 09c0 acc3 0ebd 0f4b f5bd
00000200: 920c 3abd dedb 843d aea5 19be 9b06 713e
00000210: e7d4 5c3d bbd4 73bd d6a3 a9be 3b44 c4bb
00000220: f899 313d eea1 663e 1fb7 023e 18e5 dcbb
00000230: fbdd 9cbe b6eb 1abe 5a4a 09be d77c b8bd
00000240: 3513 01bf d514 9dbd 5fd0 223e 06f6 87bd
00000250: 02f8 38bd b5c7 ea3d 7ac7 5d3d ea38 393d
00000260: c9ff a93d 666f 273e 3db6 a1bd 76e7 b1bd
00000270: 8778 cb3d c63f 903c 2e65 06bf 9cc8 35be
00000280: 197c 12be 37a7 8dbd a5d1 06bf 057a 013e
00000290: 5f40 d8be f395 1dbd 6f05 8e3c 3237 10be
000002a0: 8110 9bbe e8b0 443e 78c6 5cbd 3253 39bf
000002b0: 00f0 ecbd fb5e 09bf 36a4 f03d d208 b1be
000002c0: f0a4 3c3c 36f4 853d b026 9abe e056 5dbf
000002d0: 5d25 bc3e 7267 703e fc0a 59bd 3ab0 f93d
000002e0: c9c9 a3bd f936 0b3e 5512 d0bd 7e71 4e3b
000002f0: ce21 e2be fae6 debe 4224 bb3d fce6 99be
00000300: fc15 293e da4b 15be 48b7 813d bfee 93be
00000310: 9395 bbbd ad8d bebe 0a50 9a3d 99e0 c83d
00000320: d491 0dbe eaf0 5abd eda4 bcbc 5c82 44bd
00000330: 79fb 2c3d e14c f63b f441 093e 16b6 83bf
00000340: d0ba 133e 71a1 123e d15f 0b3d 2f7f 8b3e
00000350: c9e6 ebbd 73f2 483e 6442 bdbd 4d5e 113e
00000360: 7691 213e 4f74 1b3d ec6f dabd e6b2 ac3d
00000370: 4276 483e edf1 ff3d 78ee 28be 6343 07be
00000380: e7ff 08bc b7c7 8bbe 314e 30be bf91 663c
00000390: 194d b3bd 9552 1bbd b3a1 d93e 2ab2 96bd
000003a0: d712 5a3e 876c d0bd 212f f0be c10c afbd
000003b0: c486 1f3e 7cee 03bd 4f16 97bd faa7 e1bd
000003c0: fc3e 9b3d c5c3 073d 8408 213e 996b 00be
000003d0: 0e78 aabe d0db 1c3e de4d a13d 3f35 833e
000003e0: 8244 413e 483f 803e cdce 62be 6c94 4c3d
000003f0: 3ada 2d3c f935 3f3e c10b 2bbe b32b 7cbf

actor.2.bias f4 [128]
0.084642425 0.01359195 -0.027005047 -0.099906385 -0.06613133 -0.014208513 0.07517169 0.09361335
0.09564144 -0.0039598136 0.07182239 0.22387458 -0.07732309 -0.026969664 0.03445968 0.036543798
0.0845754 -0.018195093 0.14207779 -0.06239732 -0.007508612 0.022157663 0.21181849 -0.037848625
-0.012557658 0.1258727 -0.022903677 -0.008811218 0.28052443 -0.0030899676 0.14159405 -0.0938527
-0.009561347 0.071437456 -0.122374825 -0.07196782 -0.022412049 0.0441401 0.06707074 -0.005301067
0.06781792 0.16257708 0.09374774 -0.025581134 0.09350194 0.027564881 0.112461 0.108991385
0.16892228 -0.021064881 0.18305783 -0.10052699 -0.12605684 0.1388714 0.06375696 -0.0015003459
-0.08209751 0.09684022 0.0995114 -0.047232196 -0.13815896 -0.1068211 0.00011356471 0.1312844
0.096134976 0.11833016 0.02485313 -0.006794664 0.037027307 0.09050877 -0.09023385 -0.0017077359
-0.07969339 0.09375555 -0.103973284 -0.10257113 0.17108105 0.13140444 0.08495453 -0.054803494
0.003160435 0.13786905 0.054016262 -0.16741922 0.004783718 0.2220476 -0.10762718 0.15402348
0.08159342 0.027687585 0.08000034 0.06364678 0.0068972446 -0.06547361 0.113410965 0.09211931
-0.09169442 0.1650945 0.10088532 -0.005999593 -0.16599631 0.13823429 0.17953771 0.0002128753
-0.113833375 -0.016135577 0.054307733 -0.0196571 0.00076341897 0.15350145 -0.1142414 0.05802964
0.044633947 0.17073964 -0.041552424 -0.020807799 -0.005624438 -0.01837622 0.07018931 0.11226461
-0.023738377 -0.0010510999 0.08130478 0.101257466 0.12521575 -0.049650278 0.22707272 0.012323476
00000000: 0259 ad3d c5b0 5e3c b039 ddbc b89b ccbd
00000010: dd6f 87bd d3ca 68bc 9df3 993d 5bb8 bf3d
00000020: a9df c33d 53c1 81bb 9e17 933d 613f 653e
00000030: 915b 9ebd 7cef dcbc 9825 0d3d f3ae 153d
00000040: de35 ad3d e00d 95bc d77c 113e 5594 7fbd
00000050: cd0a f6bb fd83 b53c f2e6 583e 2907 1bbd
00000060: a3be 4dbc c6e4 003e 7ea0 bbbc ed5c 10bc
00000070: e6a0 8f3e 0e81 4abb 08fe 103e d835 c0bd
00000080: 32a7 1cbc cd4d 923d a79f fabd dd63 93bd
00000090: 7999 b7bc 40cc 343d 625c 893d 93b4 adbb
000000a0: 1fe4 8a3d 9b7a 263e d1fe bf3d 878f d1bc
000000b0: f27d bf3d bfcf e13c f451 e63d e036 df3d
000000c0: f6f9 2c3e 4290 acbc 8373 3b3e 18e1 cdbd
000000d0: 0b15 01be 4e34 0e3e 0293 823d 41a7 c4ba
000000e0: bd22 a8bd 2a54 c63d a2cc cb3d 8c76 41bd
000000f0: 8b79 0dbe 05c5 dabd 9729 ee38 6b6f 063e
00000100: 6ae2 c43d 1557 f23d cb98 cb3c c6a5 debb
00000110: f2a9 173d a95c b93d 86cc b8bd 1cd6 dfba
00000120: 4a36 a3bd e902 c03d f2ef d4bd d010 d2bd
00000130: df2f 2f3e e38e 063e a4fc ad3d a179 60bd
00000140: 4d1f 4f3b 8b2d 0d3e 2840 5d3d f26f 2bbe
00000150: bcc0 9c3b 7260 633e a46b dcbd 55b8 1d3e
00000160: 731a a73d 13d1 e23c 38d7 a33d 3e59 823d
00000170: 4802 e23b 0717 86bd 0244 e83d 0ca9 bc3d
00000180: 49ca bbbd 880e 293e f69c ce3d 3c98 c4bb
00000190: f0fa 29be 4a8d 0d3e bcd8 373e 4737 5f39
000001a0: 7921 e9bd c22e 84bc c971 5e3d ed07 a1bc
000001b0: 2e20 483a 7c2f 1d3e 65f7 e9bd 7db0 6d3d
000001c0: 16d2 363d 5fd6 2e3e e032 2abd 1e75 aabc
000001d0: 354d b8bb ba89 96bc 6abf 8f3d fdea e53d
000001e0: fc76 c2bc 0fc5 89ba 1f83 a63d 1360 cf3d
000001f0: 8f38 003e 175e 4bbd c085 683e 68e8 493c

actor.4.weight f4 [2, 128]
-0.6781032 -0.036831856 0.6893716 -0.6641532 -0.30879873 -0.048255347 -1.1306086 -0.69350576
-0.20467974 0.16017187 -2.1543787 0.2930434 -0.03917793 0.0032283303 0.53479683 -0.8238904
-0.22890553 1.17743 0.490609 -0.01342752 -0.91352767 -0.06729565 1.2141287 0.19874309
-0.24223173 -0.09920995 -0.060591366 -0.036803022 -0.11074954 -0.4991647 -1.1750802 -0.27297118
2.3170574 -0.9445605 -0.69072396 0.07734889 3.9546819 0.47845548 0.06101891 -1.4205415
0.39216256 -0.10439615 -0.5224467 -0.05486337 -0.24359022 -0.5392664 0.08465878 0.4320423
-0.59341896 -0.0111279795 0.47757676 -0.4067573 0.027548347 -0.005247353 -0.26681 0.0917715
-0.15184012 0.3487839 -0.09544276 0.27878657 0.16596583 -0.4492362 -0.09289086 0.24538858
0.38686344 -0.20970245 -1.896267 0.15299618 2.9232051 -2.7186434 -0.26392105 -2.267248
0.13688725 0.99717826 -0.31449258 -0.6625188 -0.1992501 0.35525322 1.0573326 0.21786138
0.50719935 0.39536035 1.3078603 -1.031172 -0.20030607 0.73840666 -0.24802656 -0.88926935
0.4600371 -0.1448514 1.0526296 0.36717653 1.5848498 -0.46117318 -0.21590485 0.48684496
-1.0213627 -0.013893433 0.37592438 -0.8217885 0.07688094 -0.75814587 0.43991292 -0.01080484
-1.2434605 -0.13565642 -0.43398544 0.16632867 0.41595227 0.7209357 -0.5293109 0.27271038
0.29632398 1.1693279 -0.04467202 -0.023052368 2.4997628 -0.20937009 0.62336 -1.1285979
0.09526666 0.781014 0.12971261 -2.3425882 0.6321265 -0.6993502 -0.45665428 -0.8673857
0.32699326 -0.54256946 -0.31986278 0.2124644 0.8812388 0.019112943 -0.124320045 -0.44300255
0.44589952 -0.13423285 2.169583 -0.13093244 -0.32396212 0.000372298 -0.10067289 0.02810975
-0.36626 0.9277893 0.32163557 -0.0010660979 -0.6088089 -0.09879123 0.3047677 0.16619833
-0.018217443 -0.36877424 0.5926475 -0.114506334 -0.7997399 0.11408843 0.47878167 -0.461566
1.5330414 0.2432658 0.65368944 0.21224417 1.6999787 0.28104404 -0.32878947 0.09358499
-0.11423189 -0.99405175 0.15304154 0.040483885 0.19762859 -0.0060439855 -0.13550436 -0.110282294
0.06470781 -0.7379134 0.21166012 -0.023178773 0.8822893 -0.3750956 -0.61852807 0.040245064
0.104969345 -0.5852618 -1.2073854 0.15779273 -0.14194681 0.39888927 -0.17946081 -0.21336997
-0.1925768 -0.37166795 0.16867958 -0.41041675 1.5365148 0.5466169 0.7946273 1.0347221
0.58272743 0.81280637 0.069351465 -0.16650163 -0.5201771 0.26172417 0.32090053 0.100065775
0.40965036 -0.24677937 -0.27754188 0.09010945 -0.24492665 0.3287348 -0.044541266 -0.019363254
-0.25982884 -0.14255288 0.24941342 0.086932965 0.55888927 0.43299675 -0.5484201 -0.3274671
0.107425906 -0.7262699 -0.3609705 0.29944783 0.33697975 -1.2110884 0.10028341 -0.26809788
0.08469605 0.09608943 -0.17088155 0.08630956 0.8067475 0.15294541 -0.32168368 -0.16061153
0.06973834 0.18482952 0.025325386 0.16764185 2.1549408 0.16922604 0.10797598 0.13462909
0.07670648 0.4322908 0.38236818 -0.06667948 0.8816043 0.15479116 -0.73754805 0.18686803
00000000: 2c98 2dbf 00dd 16bd a87a 303f f205 2abf
00000010: de1a 9ebe 66a7 45bd c8b7 90bf 9889 31bf
00000020: 9197 51be 1804 243e 57e1 09c0 c909 963e
00000030: 0a79 20bd 6592 533b 72e8 083f 7bea 52bf
00000040: 3666 6abe 07b6 963f 1a31 fb3e 1aff 5bbc
00000050: f3dc 69bf 4dd2 89bd 9268 9b3f 4f83 4b3e
00000060: 980b 78be 962e cbbd a72e 78bd c4be 16bd
00000070: a8d0 e2bd 8492 ffbe 0769 96bf e1c2 8bbe
00000080: ab4a 1440 b8ce 71bf 49d3 30bf 1869 9e3d
00000090: 8219 7d40 1ef8 f43e f7ee 793d 4ed4 b5bf
000000a0: 88c9 c83e a6cd d5bd 11bf 05bf 6ab8 60bd
000000b0: b76f 79be 5d0d 0abf 9561 ad3d a634 dd3e
000000c0: 4eea 17bf 2152 36bc f184 f43e 7e42 d0be
000000d0: 12ad e13c fdf1 abbb 529b 88be b2f2 bb3d
000000e0: fa7b 1bbe ce93 b23e 7e77 c3bd 1dbd 8e3e
000000f0: f2f2 293e 4a02 e6be 903d bebd 2547 7b3e
00000100: f712 c63e 3dbc 56be e1b8 f2bf 08ab 1c3e
00000110: cb15 3b40 41fe 2dc0 a920 87be 971a 11c0
00000120: 2c2c 0c3e 1347 7f3f 2c05 a1be d59a 29bf
00000130: 3808 4cbe c0e3 b53e ad56 873f 0e17 5f3e
00000140: d1d7 013f ac6c ca3e f767 a73f 72fd 83bf
00000150: 091d 4dbe 3808 3d3f adfa 7dbe 28a7 63bf
00000160: fc89 eb3e ed53 14be 91bc 863f 90fe bb3e
00000170: 5cdc ca3f e41e ecbe 2916 5dbe be43 f93e
00000180: 03bc 82bf 48a1 63bc 2979 c03e bb60 52bf
00000190: c173 9d3d d915 42bf 443c e13e c906 31bc
000001a0: b729 9fbf 84e9 0abe 5733 debe 1052 2a3e
000001b0: b2f7 d43e 3e8f 383f eb80 07bf b2a0 8b3e
000001c0: c7b7 973e 89ac 953f 02fa 36bd 52d8 bcbc
000001d0: 1dfc 1f40 1d65 56be 8594 1f3f e575 90bf
000001e0: 2b1b c33d 89f0 473f 62d3 043e f7ec 15c0
000001f0: 0bd3 213f 9d08 33bf 97ce e9be fd0c 5ebf
00000200: a96b a73e d5e5 0abf 0ec5 a3be 4590 593e
00000210: de98 613f bf92 9c3c 829b febd 3bd1 e2be
00000220: f14c e43e 5674 09be 73da 0a40 2713 06be
00000230: 5dde a5be fe30 c339 972d cebd 6b46 e63c
00000240: 6e86 bbbe 9983 6d3f 6bad a43e 4fbc 8bba
00000250: e6da 1bbf 0e53 cabd 830a 9c3e e52f 2a3e
00000260: bf3c 95bc facf bcbe bfb7 173f 4c82 eabd
00000270: c1bb 4cbf 32a7 e93d df22 f53e 6152 ecbe
00000280: b33a c43f ab1a 793e 3158 273f 8956 593e
00000290: e798 d93f 01e5 8f3e 1857 a8be 7da9 bf3d
000002a0: 69f2 e9bd 2d7a 7ebf ecb6 1c3e 6ed2 253d
000002b0: 265f 4a3e a00c c6bb a8c1 0abe afdb e1bd
000002c0: 8785 843d e5e7 3cbf 6ebd 583e 69e1 bdbc
000002d0: b6dd 613f 880c c0be db57 1ebf 02d8 243d
000002e0: 2bfa d63d b8d3 15bf 9b8b 9abf 6b94 213e
000002f0: 815a 11be 373b cc3e 93c4 37be a87d 5abe
00000300: da32 45be 434b bebe 57ba 2c3e 2522 d2be
00000310: 84ac c43f 16ef 0b3f b26c 4b3f c671 843f
00000320: a02d 153f 1414 503f 2408 8e3d 677f 2abe
00000330: 542a 05bf b600 863e 134d a43e 49ef cc3d
00000340: b1bd d13e bbb3 7cbe f819 8ebe 4e8b b83d
00000350: 0dce 7abe ed4f a83e e770 36bd b09f 9ebc
00000360: 4908 85be 62f9 11be 3b66 7f3e e909 b23d
00000370: 5e13 0f3f c0b1 dd3e 4265 0cbf c5a9 a7be
00000380: 1d02 dc3d d3ec 39bf 20d1 b8be 3a51 993e
00000390: 9c88 ac3e f204 9bbf 6361 cd3d 2044 89be
000003a0: 1f75 ad3d 89ca c43d 93fb 2ebe 11c3 b03d
000003b0: 0187 4e3f b99d 1c3e b9b3 a4be 5977 24be
000003c0: fad2 8e3d f343 3d3e 2f77 cf3c 4eaa 2b3e
000003d0: 8dea 0940 9749 2d3e 8322 dd3d 35dc 093e
000003e0: 4918 9d3d 3855 dd3e c3c5 c33e 408f 88bd
000003f0: d2b0 613f 9381 1e3e f3cf 3cbf 555a 3f3e

actor.4.bias f4 [2]
0.047252014 -0.14515644
00000000: 548b 413d e4a3 14be

q1.0.weight f4 [128, 4]
0.37762704 -0.3470162 0.36926737 0.24404834 -0.49427763 0.7254545 -0.0750768 -0.0060193744
-0.6105542 0.29084465 0.17844416 0.05641456 1.0717694 -1.8237016 -0.4150396 -0.08593842
-0.7586141 0.51905155 -0.14960122 -0.13588977 -0.30957693 -0.17928049 -0.15651433 0.012557105
-0.584414 -0.08802505 0.035317283 -0.003242368 -0.48337665 0.045525543 -0.36944672 0.025352208
0.6865859 0.0032305866 -0.08785763 0.13653709 1.3193253 -0.22513767 -0.02141375 -0.024938017
-0.66957873 0.5118151 0.21318406 0.025454702 -0.14894603 0.54525423 -0.09270306 -0.017757718
-0.32188028 0.103891276 0.21844983 0.030035943 -0.6458396 0.37335572 0.18679804 0.03649525
-0.8474979 -0.6182019 -0.17196812 -0.08165565 -0.70443887 -0.8547722 -0.27308208 -0.09813089
-0.0152718 -0.21527845 0.3546619 0.3237579 0.50233585 1.5156595 0.23803535 0.095401175
-0.60476434 0.7770632 0.07683176 -0.0005783959 -0.53934157 -0.37706786 -0.18602183 -0.043161564
-0.2366714 -0.7274924 0.1561147 0.023137864 -0.93093395 1.2746878 0.2839023 0.041340444
-0.5246613 0.8985803 0.14327955 0.03888727 -0.4053508 -0.5298231 0.07494227 0.03113461
-0.84137505 0.29625016 0.15965688 0.0339905 0.108965755 1.2774241 0.25679538 0.06981405
-0.52082676 0.2853183 0.15370506 0.049428467 -0.010435978 1.3243407 0.22506762 0.018746976
-0.22958095 -0.09893954 -0.35448042 -0.09352885 -0.28852695 0.5779916 -0.12574784 -0.03906183
-0.5832668 -0.37619478 -0.19939087 -0.07379286 -0.25133684 1.0060074 0.22066213 0.04320235
-0.17954974 -0.56307673 0.27635863 0.29380706 0.12699197 -0.63441026 -0.10776767 -0.42951235
-0.68130565 0.7857109 -0.16936597 0.113203555 -0.18666884 0.44616354 0.32465997 0.0058836476
-0.75201535 -0.8912156 -0.26000565 -0.12690654 -0.23568533 -0.51141876 0.14305319 -0.037442043
-0.15771519 0.24277261 0.34026474 -0.047684375 0.30173734 -1.5331657 -0.25801015 -0.1350069
-0.7644464 0.1872017 0.15022108 0.03989096 -0.7223525 -0.54194415 -0.2608187 -0.05557416
-0.8220806 -0.44367418 -0.23787345 -0.07516054 1.2872635 0.4154522 0.4220934 0.047027715
-0.42236367 0.1668289 0.15194124 0.029947156 -0.68160146 0.30551466 0.20029646 0.03368653
-0.8575005 1.0362016 0.29123545 0.063708946 -0.6253531 0.8069962 0.254643 0.051609058
-0.5742543 -0.3523137 -0.2052031 -0.08274926 -0.5063615 0.2317724 0.18295263 0.030413441
-0.67430395 0.53001225 -0.04016808 0.002985436 -0.41983783 0.7754405 -0.32609704 -0.0818988
0.5091416 0.8792793 -0.13451503 -0.013263834 -0.51119107 -0.24275507 0.28607398 0.2148299
-0.020738782 -1.2402183 -0.2800074 -0.023636423 -0.66219664 -0.69174165 0.0012293231 0.035949096
-0.075979486 1.2197253 0.19473995 0.09818534 -0.7859752 0.28548324 -0.09926537 -0.1332502
-0.30210957 -0.21517603 -0.33443063 -0.252774 -0.5189605 -0.8986468 -0.07545369 -0.075019576
-0.33471546 -0.341829 -0.02543275 0.02654707 -0.07743242 -0.21190256 -0.4203255 -0.059130687
-0.48889652 0.26131442 0.13661574 0.021204652 -0.659985 0.28810766 0.14579484 0.08975593
00000000: 5558 c13e 1bac b1be 9d10 bd3e cfe7 793e
00000010: f511 fdbe 63b7 393f dec1 99bd 2c3e c5bb
00000020: 484d 1cbf 97e9 943e 11ba 363e f412 673d
00000030: bd2f 893f 0e6f e9bf 1280 d4be 7b00 b0bd
00000040: 8934 42bf 90e0 043f 1031 19be b026 0bbe
00000050: de80 9ebe 4e95 37be 4b45 20be 51bc 4d3c
00000060: 289c 15bf 7a46 b4bd dba8 103d e97d 54bb
00000070: 257d f7be fe78 3a3d 1f28 bdbe 6faf cf3c
00000080: 18c4 2f3f 40b8 533b b3ee b3bd 61d0 0b3e
00000090: a7df a83f 7d8a 66be e36b afbc d04a ccbc
000000a0: 8369 2bbf 5006 033f ec4c 5a3e 6186 d03c
000000b0: 4f85 18be c895 0b3f 1adb bdbd a278 91bc
000000c0: 7ecd a4be f3c4 d43d 50b1 5f3e f00d f63c
000000d0: be55 25bf 7b28 bf3e fc47 3f3e 0b7c 153d
000000e0: 9ff5 58bf 7b42 1ebf 6918 30be 143b a7bd
000000f0: 1b56 34bf 5ad2 5abf 6ad1 8bbe d9f8 c8bd
00000100: 9236 7abc f471 5cbe 3f96 b53e 98c3 a53e
00000110: 1599 003f 2101 c23f 8abf 733e b161 c33d
00000120: d6d1 1abf 9ded 463f f859 9d3d 7e9f 17ba
00000130: 4a12 0abf 0a0f c1be 827c 3ebe 2eca 30bd
00000140: fd59 72be f13c 3abf 88dc 1f3e 9e8b bd3c
00000150: b051 6ebf f828 a33f a45b 913e 9954 293d
00000160: 3450 06bf 5c09 663f e0b7 123e 4248 1f3d
00000170: 248a cfbe 7da2 07bf 557b 993d 020e ff3c
00000180: 5b64 57bf 1aae 973e 187d 233e 9f39 0b3d
00000190: 7029 df3d a282 a33f af7a 833e abfa 8e3d
000001a0: e754 05bf 3d15 923e dc64 1d3e 8175 4a3d
000001b0: aafb 2abc ff83 a93f 2078 663e 4293 993c
000001c0: 4517 6bbe d0a0 cabd 757e b5be 0e8c bfbd
000001d0: ceb9 93be 42f7 133f 0bc4 00be 4cff 1fbd
000001e0: f950 15bf 9a9c c0be 1f2d 4cbe b620 97bd
000001f0: 39af 80be dac4 803f 41f5 613e f3f4 303d
00000200: e3db 37be cc25 10bf e17e 8d3e e16d 963e
00000210: 2f0a 023e b668 22bf 4cb5 dcbd 0be9 dbbe
00000220: 0c6a 2ebf 5924 493f 466e 2dbe 44d7 e73d
00000230: 1e26 3fbe 8c6f e43e d539 a63e 9dcb c03b
00000240: 1484 40bf b526 64bf 761f 85be caf3 01be
00000250: 7f57 71be 57ec 02bf 897c 123e d45c 19bd
00000260: 1780 21be 6299 783e 2e37 ae3e b150 43bd
00000270: 517d 9a3e c63e c4bf e819 84be 403f 0abe
00000280: c2b2 43bf cdb1 3f3e 8ed3 193e b464 233d
00000290: 18ec 38bf dabc 0abf 078a 85be bba1 63bd
000002a0: e073 52bf 4329 e3be 1995 73be c5ed 99bd
000002b0: 0dc5 a43f 27b6 d43e a01c d83e 22a0 403d
000002c0: 0d40 d8be 32d5 2a3e 7c96 1b3e bd53 f53c
000002d0: 6f7d 2ebf 6b6c 9c3e 841a 4d3e e3fa 093d
000002e0: 2785 5bbf 41a2 843f d01c 953e d679 823d
000002f0: 2417 20bf 4e97 4e3f 9160 823e 0564 533d
00000300: 5402 13bf 7662 b4be c320 52be 7278 a9bd
00000310: e8a0 01bf be55 6d3e ef57 3b3e 9c25 f93c
00000320: 2f9f 2cbf e2ae 073f 4987 24bd 4ea7 433b
00000330: fcf4 d6be 4583 463f 31f6 a6be 8fba a7bd
00000340: 1b57 023f 7318 613f 4fbe 09be 8d50 59bc
00000350: 6bdd 02bf c994 78be 4a78 923e 5ffc 5b3e
00000360: 61e4 a9bc 79bf 9ebf 215d 8fbe 2ca1 c1bc
00000370: b885 29bf fb15 31bf 3d21 a13a 5c3f 133d
00000380: 229b 9bbd f51f 9c3f e969 473e 6515 c93d
00000390: ac35 49bf dc2a 923e a44b cbbd be72 08be
000003a0: 1bae 9abe 1b57 5cbe 7e3a abbe 986b 81be
000003b0: 98da 04bf b70d 66bf 7787 9abd dda3 99bd
000003c0: d35f abbe 3604 afbe 5858 d0bc 3e79 d93c
000003d0: e394 9ebd fcfc 58be e734 d7be 0533 72bd
000003e0: a550 fabe 01cb 853e ffe4 0b3e 61b5 ad3c
000003f0: c7f4 28bf d982 933e 3e4b 153e f5d1 b73d

q1.0.bias f4 [128]
-0.085903645 0.47740892 0.5135585 0.026573496 0.27340627 0.4431166 0.24791124 0.1281233
0.3073706 0.30535033 0.48449785 0.5224868 0.36607224 0.4879281 0.31711778 0.378403
-0.27205607 -0.17330201 0.48469183 0.45799384 0.29731643 0.20202604 0.0047203493 0.33958083
0.13721621 -0.3335806 0.4433502 -0.067252554 0.024573969 0.47134408 0.44763744 -0.020070063
-0.1270683 0.42638645 -0.34186125 -0.26608664 0.3135056 0.30022824 -0.23823977 -0.08861344
0.08748979 0.56046444 0.41996184 -0.053393126 0.52288795 0.58804446 0.34197924 0.36716887
0.43383795 0.5985573 -0.40659082 0.071545005 -0.08382013 -0.14369184 0.2564371 0.24162365
-0.011217102 -0.13145502 -0.05118676 0.21216634 0.3786835 -0.012822228 0.3679647 0.19740333
0.4649084 0.35636586 0.14668919 0.36422607 0.48138756 0.5187313 0.30356893 0.008924449
0.40049034 0.34330097 0.4175248 0.6084258 0.46761516 0.47686172 0.5791502 0.029709335
0.16147788 0.46079198 0.43937352 0.32300213 0.45513338 0.5195557 0.46948218 0.49745283
0.5553894 -0.32790068 0.28765118 -0.25394943 0.35072365 0.58310145 0.09783989 0.53339446
0.4658499 0.28591695 0.4508409 0.30215746 0.300524 -0.18608862 -0.16126773 0.16306932
-0.2999461 0.0050472175 -0.1371905 0.10006349 -0.14352617 0.30951616 -0.28763244 0.25647566
0.41057318 0.46322927 0.54060984 0.4682873 -0.005027031 -0.26260006 0.17118101 0.26613668
0.13962302 -0.07844156 0.2554018 0.5392166 0.4511876 0.3874318 -0.09633694 0.49453232
00000000: 40ee afbd f16e f43e 9278 033f a9b0 d93c
00000010: e8fb 8b3e 2ee0 e23e 72dc 7d3e c132 033e
00000020: ae5f 9d3e e156 9c3e 1a10 f83e b2c1 053f
00000030: d26d bb3e b6d1 f93e 435d a23e 0abe c13e
00000040: ef4a 8bbe 1576 31be 8729 f83e 2b7e ea3e
00000050: dc39 983e eadf 4e3e 29ad 9a3b 8add ad3e
00000060: 6882 0c3e 14cb aabe ccfe e23e b5bb 89bd
00000070: 594f c93c 0354 f13e bc30 e53e f969 a4bc
00000080: 311e 02be 534f da3e 7008 afbe 823c 88be
00000090: ce83 a03e 84b7 993e 20f5 73be f77a b5bd
000000a0: d92d b33d 997a 0f3f 3d05 d73e c0b2 5abd
000000b0: fcdb 053f 158a 163f e717 af3e 8ffd bb3e
000000c0: 0220 de3e 0d3b 193f ac2c d0be 3086 923d
000000d0: e3a9 abbd f423 13be b94b 833e 316c 773e
000000e0: f0c7 37bc 259c 06be 35a9 51bd 2242 593e
000000f0: cee2 c13e 5214 52bc df65 bc3e 1924 4a3e
00000100: 7908 ee3e 9675 b63e b135 163e d77b ba3e
00000110: 6e78 f63e 93cb 043f 636d 9b3e da37 123c
00000120: 120d cd3e 25c5 af3e d0c5 d53e cbc1 1b3f
00000130: 416b ef3e 3827 f43e 3043 143f fe60 f33c
00000140: 755a 253e edec eb3e 91f5 e03e 8960 a53e
00000150: 3e07 e93e 9a01 053f f85f f03e 23b2 fe3e
00000160: 002e 0e3f 99e2 a7be 0447 933e a905 82be
00000170: 0d92 b33e 2346 153f 4860 c83d 8a8c 083f
00000180: e183 ee3e b563 923e 9ed4 e63e 62b4 9a3e
00000190: 48de 993e 048e 3ebe 5e23 25be a5fb 263e
000001a0: 8992 99be 2163 a53b ab7b 0cbe 16ee cc3d
000001b0: 86f8 12be e778 9e3e 8f44 93be c750 833e
000001c0: a636 d23e 632c ed3e 6865 0a3f 5ac3 ef3e
000001d0: cbb9 a4bb 8473 86be 134a 2f3e 1143 883e
000001e0: 56f9 0e3e f8a5 a0bd 06c4 823e 190a 0a3f
000001f0: 1002 e73e 765d c63e 4d4c c5bd 5733 fd3e

q1.2.weight f4 [128, 128]
-0.12138585 0.22876786 0.10787042 0.012418164 0.18543498 0.33903956 0.15442854 0.101592496
0.3903739 0.7981714 0.27853397 0.21520999 0.3788017 0.050708864 0.19646811 0.08161673
-0.023895659 0.15432413 0.2116213 0.21420391 0.31498715 0.13969906 0.05432301 0.19316882
0.12390985 -0.025417063 0.18261087 0.021579815 0.09255072 0.33521357 0.30661044 0.068040974
-0.24236631 0.18139558 -0.32694653 -0.2483959 0.22163615 0.42499873 -0.243008 0.031319663
0.23868696 0.20094845 0.21072204 0.29809108 0.08987416 0.19359879 0.025251452 0.1434999
0.06784897 0.11549226 -0.55524105 -0.24879307 0.16630764 -0.14438292 0.2681931 0.34567273
0.20000282 0.13863534 -0.25828534 -0.30126008 0.17568076 0.10939455 0.3419203 0.20459574
0.11493491 0.16817808 0.27721888 0.21280535 0.15232423 0.42554057 0.32026535 0.027019002
0.12015031 0.28662 0.3452844 0.08420159 0.03021036 0.1714181 0.5062882 0.069569066
0.13017641 0.18529223 0.23009653 0.18232787 0.31967938 0.23475565 0.11037559 0.29015842
0.073443376 -0.4872189 0.13855876 -0.12211791 0.43195388 0.2066631 0.16461821 0.30428618
0.2946066 0.03017397 0.34410965 0.22931696 0.25240433 -0.05210495 -0.37380135 0.18178153
-0.08966413 0.3684692 -0.2793925 -0.0037224533 0.013307146 0.19231208 -0.024554638 0.095904075
0.38747576 0.17157722 0.32147437 0.2861845 0.11247451 -0.0047224616 0.33808884 0.09350862
-0.1348419 0.18021743 0.38607556 0.2697767 0.38165075 0.24311714 0.018498668 0.35784104
0.10622795 -0.12487305 0.06704906 0.05654363 -0.12441971 0.12334379 -0.018529816 0.09591977
-0.049262557 -0.14732361 0.081084214 -0.025542147 -0.13491195 0.0904769 0.05377325 0.08843657
0.06997082 0.048239417 0.13262892 0.016703578 -0.028855607 -0.09388582 0.11168418 0.12038429
-0.10911311 -0.014565848 -0.13535015 0.075689495 -0.0293216 -0.047758058 -0.12089784 0.052029826
-0.11343208 0.13763082 0.018653266 -0.13551097 -0.06927864 0.11312942 0.04952306 0.13966171
-0.0078968005 -7.8873185e-05 0.1324421 -0.083321445 0.1226154 -0.041608114 -0.12903579 -0.019114073
0.0876243 0.058637854 0.020904088 0.0028690237 0.0050057294 0.019174667 -0.122984335 -0.14351353
-0.13324931 -0.06435091 0.020118317 -0.03327442 -0.13894339 -0.15275368 0.038637877 -0.06065041
0.04776149 0.09866691 -0.12701052 0.037882205 -0.13523993 0.0055168574 0.040370278 0.078500755
-0.11546692 -0.09678168 -0.15324667 -0.08625366 -0.017890425 -0.06324923 -0.120458506 0.05585436
-0.019319642 -0.07607768 0.07313018 -0.08223337 -0.10621533 -0.122933984 0.11468977 0.030002931
-0.164267 -0.070252664 -0.12627394 0.08823057 0.12838978 -0.066122204 -0.08046034 0.013538337
0.12324141 0.06365389 -0.011342782 0.05890428 0.020705862 -0.111263506 -0.040993955 0.10682655
0.055088095 0.13106968 -0.082705855 -0.017055878 -0.15995906 0.048884198 0.014962185 0.059435796
-0.10615862 -0.1531239 -0.061627597 0.009463945 -0.1542265 -0.009291328 -0.038289223 -0.00023800542
-0.0033409686 -0.12322736 0.032939285 -0.112589374 -0.05324364 -0.024237877 0.09687815 -0.11275052
00000000: 2599 f8bd 1f42 6a3e 2beb dc3d 8e75 4b3c
00000010: abe2 3d3e 9896 ad3e 8422 1e3e ba0f d03d
00000020: 16df c73e f654 4c3f 019c 8e3e 0260 5c3e
00000030: 4cf2 c13e 19b4 4f3d f02e 493e ac26 a73d
00000040: d4c0 c3bc 2507 1e3e 41b3 583e 4558 5b3e
00000050: ff45 a13e 450d 0f3e ce81 5e3d 0cce 453e
00000060: 73c4 fd3d 7237 d0bc 58fe 3a3e 27c8 b03c
00000070: 3b8b bd3d 1da1 ab3e 0bfc 9c3e 1159 8b3d
00000080: e02e 78be c3bf 393e 8965 a7be 7f5b 7ebe
00000090: 96f4 623e 6f99 d93e 17d7 78be 0c49 003d
000000a0: 5b6a 743e 6ec5 4d3e 85c7 573e 659f 983e
000000b0: f20f b83d c33e 463e 22dc ce3c a3f1 123e
000000c0: 67f4 8a3d 3587 ec3d 4724 0ebf 9cc3 7ebe
000000d0: 8d4c 2a3e 1ed9 13be 9b50 893e 04fc b03e
000000e0: 8acd 4c3e 6cf6 0d3e fa3d 84be c33e 9abe
000000f0: a8e5 333e 400a e03d 2d10 af3e 8c81 513e
00000100: fe62 eb3d e036 2c3e a2ef 8d3e a5e9 593e
00000110: e2fa 1b3e 74e0 d93e d2f9 a33e f456 dd3c
00000120: 5e11 f63d dbbf 923e 1ec9 b03e e271 ac3d
00000130: b87b f73c 3a88 2f3e 1a9c 013f 3a7a 8e3d
00000140: f74c 053e 3fbd 3d3e 6d9e 6b3e 28b4 3a3e
00000150: 04ad a33e c963 703e 990c e23d a58f 943e
00000160: 7b69 963d c174 f9be 59e2 0d3e f418 fabd
00000170: 0f29 dd3e 7e9f 533e ad91 283e 66cb 9b3e
00000180: add6 963e 672f f73c 242f b03e 11d2 6a3e
00000190: 243b 813e 006c 55bd e462 bfbe f024 3a3e
000001a0: d4a1 b7bd ffa7 bc3e 890c 8fbe 67f4 73bb
000001b0: 3706 5a3c 75ed 443e cf26 c9bc 5b69 c43d
000001c0: 3963 c63e f0b1 2f3e 4a98 a43e c686 923e
000001d0: 0959 e63d e1be 9abb fb19 ad3e 7381 bf3d
000001e0: ff13 0abe eb8a 383e b2ab c53e 2c20 8a3e
000001f0: ba67 c33e b3f3 783e 858a 973c f136 b73e
00000200: 0a8e d93d 71bd ffbd 0451 893d 4b9a 673d
00000210: c3cf febd ab9b fc3d d7cb 97bc 9671 c43d
00000220: 89c7 49bd 00dc 16be 7b0f a63d c43d d1bc
00000230: 5c26 0abe f44b b93d 5741 5c3d 3b1e b53d
00000240: dc4c 8f3d b296 453d e0cf 073e f1d5 883c
00000250: 9862 ecbc 3547 c0bd adba e43d 0a8c f63d
00000260: b276 dfbd 98a5 6ebc 3b99 0abe 1803 9b3d
00000270: da33 f0bc f49d 43bd 4999 f7bd 3a1d 553d
00000280: 144f e8bd 18ef 0c3e bcce 983c 63c3 0abe
00000290: f6e1 8dbd 66b0 e73d b1d8 4a3d 7b03 0f3e
000002a0: 9561 01bc b868 a5b8 e79e 073e 6fa4 aabd
000002b0: c81d fb3d 456d 2abd f521 04be 1e95 9cbc
000002c0: 5e74 b33d 3f2e 703d 0d3f ab3c 3b06 3c3b
000002d0: 1a07 a43b 3114 9d3c 36df fbbd 36f5 12be
000002e0: 8272 08be 69ca 83bd 2bcf a43c c24a 08bd
000002f0: 2d47 0ebe 766b 1cbe c042 1e3d 906c 78bd
00000300: 8da1 433d e011 ca3d 0c0f 02be 5f2a 1b3d
00000310: 567c 0abe c1c6 b43b 4e5b 253d 01c5 a03d
00000320: ec79 ecbd 7935 c6bd b2ec 1cbe c2a5 b0bd
00000330: f18e 92bc d088 81bd f3b2 f6bd 8bc7 643d
00000340: 3a44 9ebc 9dce 9bbd 47c5 953d f869 a8bd
00000350: 6c87 d9bd d0c4 fbbd 78e2 ea3d b5c8 f53c
00000360: 9c35 28be a1e0 8fbd f54d 01be 3bb2 b43d
00000370: 9c78 033e 146b 87bd 64c8 a4bd e7cf 5d3c
00000380: fe65 fc3d f85c 823d 13d7 39bc 9d45 713d
00000390: 579f a93c 1fde e3bd 47e9 27bd e1c7 da3d
000003a0: 0ea4 613d 2137 063e b061 a9bd c5b8 8bbc
000003b0: 4fcc 23be cc3a 483d f423 753c f372 733d
000003c0: b169 d9bd 83cc 1cbe 386d 7cbd aa0e 1b3c
000003d0: 8ded 1dbe a73a 18bc 29d5 1cbd 1891 79b9
000003e0: 27f4 5abb a05e fcbd 58eb 063d 4295 e6bd
000003f0: 0116 5abd 838e c6bc 0d68 c63d bfe9 e6bd

q1.2.bias f4 [128]
0.14747664 -0.019090416 0.20864862 0.08811594 -0.084658094 0.0015867226 0.12928104 0.07356968
0.15552478 0.28838822 0.058682423 0.15338038 -0.023095805 0.19648759 0.15718901 0.09094734
0.05000739 -0.015053362 0.09262939 0.122095235 -0.014025441 0.091874816 0.09062834 0.18700173
0.08150698 0.16689028 -0.00024115057 0.22350734 0.14005591 -0.08618948 0.071055286 0.15259755
0.20526692 0.11168152 0.09790027 0.3985474 -0.028777475 0.50372356 0.15251073 0.034473907
0.20296413 0.09872533 0.07779136 -0.05378904 0.084437616 0.08734425 0.08566631 0.099225216
0.063152 -0.00021362871 -0.020564966 0.12032862 0.11381445 0.40155512 -0.023179978 0.0712915
-0.03491746 0.060962725 0.6484656 0.13464177 0.08943419 0.1576696 0.2948196 0.14049962
-0.025166381 0.18223909 0.054086406 0.057718992 0.3267093 0.051901173 0.2958548 -0.008292325
0.11061605 -0.019214764 0.15393628 0.079132825 0.00949835 -0.07338633 0.5928714 0.49489462
0.13139021 0.09922793 0.15434726 0.1475395 0.044893548 0.6081434 0.09807344 0.25995237
0.059568368 0.09510389 0.06733847 0.108687155 0.07506387 0.30789965 0.055500526 0.052485812
0.16895683 0.070675775 0.08670475 0.053780735 0.24699686 0.2017647 0.12249259 0.1977606
0.08113828 0.054229144 0.23623544 0.094588645 0.15265729 0.06716422 0.10127579 -0.0104302745
0.32730284 0.12576766 0.2057409 0.56616646 0.14897618 0.04190253 0.06630431 0.14572619
0.32352057 0.10142241 0.059918426 0.055229656 0.010112673 0.08051644 0.05264956 0.4243782
00000000: 1e04 173e 8163 9cbc fca7 553e 2176 b43d
00000010: 3961 adbd 93f9 cf3a 4062 043e b3ab 963d
00000020: e341 1f3e 9fa7 933e fb5c 703d bf0f 1d3e
00000030: 6a33 bdbc 0b34 493e 28f6 203e 9942 ba3d
00000040: 8dd4 4c3d 60a2 76bc 7ab4 bd3d 110d fa3d
00000050: f7ca 65bc dd28 bc3d 5a9b b93d 627d 3f3e
00000060: 22ed a63d 49e5 2a3e 5ddd 7cb9 1cdf 643e
00000070: d16a 0f3e 1c84 b0bd 6f85 913d 8842 1c3e
00000080: 7e31 523e 48b9 e43d f07f c83d 680e cc3e
00000090: bdbe ebbc 07f4 003f c62b 1c3e 8334 0d3d
000000a0: d4d5 4f3e 8130 ca3d 1451 9f3d e551 5cbd
000000b0: a1ed ac3d 8be1 b23d d171 af3d 9736 cb3d
000000c0: d655 813d 8501 60b9 dc77 a8bc da6e f63d
000000d0: 8d17 e93d a298 cd3e f0e3 bdbc 4701 923d
000000e0: 9c05 0fbd 0db4 793d d701 263f 88df 093e
000000f0: 4629 b73d 2474 213e 98f2 963e 22df 0f3e
00000100: ba29 cebc e29c 3a3e b589 5d3d c06a 6c3d
00000110: 7146 a73e 5396 543d 487a 973e 88dc 07bc
00000120: ab8a e23d 4868 9dbc 79a1 1d3e 6410 a23d
00000130: f89e 1b3c 924b 96bd 6cc6 173f d462 fd3e
00000140: 288b 063e 0338 cb3d 350d 1e3e 9814 173e
00000150: 4ce2 373d 49af 1b3f bada c83d 7a18 853e
00000160: f6fd 733d d4c5 c23d c0e8 893d 5f97 de3d
00000170: 16bb 993d 06a5 9d3e 8554 633d 5dfb 563d
00000180: 0503 2d3e 76be 903d 4392 b13d 3049 5c3d
00000190: bfec 7c3e 689b 4e3e 65dd fa3d c181 4a3e
000001a0: d42b a63d 611f 5e3d b4e7 713e b1b7 c13d
000001b0: 3152 1c3e 658d 893d ae69 cf3d bee3 2abc
000001c0: 3d94 a73e 3dc9 003e bead 523e 49f0 103f
000001d0: 368d 183e fda1 2b3d 8eca 873d 3f39 153e
000001e0: 7da4 a53e 8db6 cf3d 066d 753d 7e38 623d
000001f0: a0af 253c cee5 a43d 11a7 573d 1948 d93e

q1.4.weight f4 [1, 128]
-0.26016465 0.057189647 -0.46104243 -0.39858624 1.1652826 0.62578714 0.6996446 0.7248357
0.7662096 3.9526346 -0.3341415 0.7433352 0.1396507 0.9536876 -0.2137359 -0.48981264
-0.32345274 0.1136005 0.718714 0.6280979 0.112013 0.9507915 -0.3377897 1.7859223
-0.21625587 0.82447463 0.8479925 -0.411265 -0.30156332 1.4507427 -0.25069645 -0.27864417
0.5362859 -0.4059483 -0.31124398 2.7840493 0.02976883 4.275466 0.56092584 0.5237278
-0.25555992 -0.36540955 -0.29167935 1.2719667 0.5286107 -0.30557004 -0.45656708 -0.38208517
0.9232954 -0.9800074 1.7691497 -0.50062895 0.9072266 1.1509337 0.15598664 -0.27718705
0.7225722 -0.38992003 3.5438879 0.649451 -0.37091157 -0.2967423 1.7803938 -0.43958452
-0.0016044677 0.76879764 -0.42553788 -0.27194887 1.5185888 -0.3711045 -0.4220492 0.8698911
-0.3334388 0.12820795 0.69325936 -0.36071703 1.2576774 1.2188152 3.4656575 3.1089928
1.0551277 -0.3825742 -0.27890936 0.6059547 -0.39776558 3.2641692 0.80585766 -0.41167328
-0.31335965 -0.46043918 -0.35189176 -0.32790416 0.42904767 1.5410055 -0.3498818 -0.42637187
-0.3361463 -0.28912628 -0.37468004 -0.37415794 -0.35960343 -0.29100487 0.8089545 -0.2907169
-0.38385403 -0.30061296 -0.34656996 -0.3166297 -0.37501004 -0.2604375 -0.33641925 0.18615131
2.2363634 1.1324801 0.5908203 2.8457408 -0.31602672 -0.3563355 -0.3124486 -0.3280305
1.943482 -0.3004869 -0.41701603 -0.3425611 0.7849366 -0.39881727 -0.36823145 1.7065923
00000000: 4d34 85be b13f 6a3d c10d ecbe 7f13 ccbe
00000010: fb27 953f 9633 203f e91b 333f d58e 393f
00000020: 5026 443f f7f7 7c40 9814 abbe 374b 3e3f
00000030: 9800 0f3e df24 743f 95dd 5abe b9c8 fabe
00000040: 999b a5be 61a7 e83d a4fd 373f 06cb 203f
00000050: 1267 e53d 1267 733f c6f2 acbe 1a99 e43f
00000060: 2e72 5dbe c510 533f 0916 593f 5391 d2be
00000070: 8266 9abe f0b1 b93f 495b 80be 73aa 8ebe
00000080: 084a 093f 75d8 cfbe 5f5b 9fbe dd2d 3240
00000090: c3dd f33c 9ed0 8840 d698 0f3f 0613 063f
000000a0: c0d8 82be f616 bbbe ff56 95be cecf a23f
000000b0: 0853 073f ad73 9cbe 29c3 e9be aba0 c3be
000000c0: 165d 6c3f c4e1 7abf 7f73 e23f 3829 00bf
000000d0: 0140 683f cc51 933f f6ba 1f3e 76eb 8dbe
000000e0: 7efa 383f 99a3 c7be 0fcf 6240 6c42 263f
000000f0: 1fe8 bdbe 9bee 97be f2e3 e33f 3911 e1be
00000100: 014d d2ba eccf 443f 1ae0 d9be e23c 8bbe
00000110: 1e61 c23f 6901 bebe d516 d8be 2fb1 5e3f
00000120: 7eb8 aabe f248 033e 7279 313f e7af b8be
00000130: 93fb a03f 2302 9c3f 55cd 5d40 bdf9 4640
00000140: 6d0e 873f c4e0 c3be 35cd 8ebe d91f 1b3f
00000150: eea7 cbbe 26e8 5040 b04c 4e3f d7c6 d2be
00000160: ad70 a0be afbe ebbe 282b b4be 0ee3 a7be
00000170: 23ac db3e ab3f c53f b523 b3be 6a4d dabe
00000180: 5e1b acbe 5c08 94be 10d6 bfbe a191 bfbe
00000190: f11d b8be 97fe 94be a417 4f3f d8d8 94be
000001a0: 8488 c4be f1e9 99be 9e71 b1be 4a1d a2be
000001b0: 5101 c0be 1058 85be 253f acbe 739e 3e3e
000001c0: 9420 0f40 1cf5 903f 0040 173f 9e20 3640
000001d0: 41ce a1be 9b71 b6be 43f9 9fbe 9df3 a7be
000001e0: 05c4 f83f 6bd9 99be 2083 d5be 2b64 afbe
000001f0: 9bf1 483f c731 ccbe d588 bcbe 9e71 da3f
