SAC/checkpoints/Pendulum-v1/03_last_checkpoint.pth (torch, 788418 bytes, 61 tensors)

log_alpha f8 []
-3.2112047809642763
00000000: d700 d821 8cb0 09c0

actor.0.weight f4 [128, 3]
0.13854708 -0.3470919 0.0892773 0.42836392 0.328885 0.06469858 -0.22089237 0.10253082
0.19998547 -0.23598756 -0.19190991 -0.081467845 -0.0463842 0.47232404 0.18232028 -0.07070807
0.46178174 0.10373694 0.1094269 0.30735576 0.08426885 0.12429735 -0.40575343 0.14013223
-0.03175641 -0.26522693 -0.34415677 0.3089261 0.33223876 0.087743714 0.030869808 -0.4097039
-0.21364276 -0.0628095 0.15669088 -0.28978798 -0.078039 -0.70122355 -0.166431 -0.08650797
-0.5339372 -0.0921494 -0.68830675 0.37115735 0.13085762 0.053845 0.1750122 -0.28625846
-0.10258044 0.5256951 0.18940525 0.32325125 -0.19259375 -0.06089259 0.29484808 -0.013199841
-0.053142194 -0.20328498 0.08556782 0.059889615 0.17871419 -0.33593637 -0.07082867 0.29118362
0.3203238 0.097903445 0.25942513 -0.1442119 -0.09105128 0.036035564 -0.39978695 -0.25355458
0.1774576 0.41673112 0.079300694 -0.31153727 0.4959935 0.006316855 -0.12288768 0.58423465
0.113758616 0.11944202 -0.27399835 0.13787504 -0.35550228 -0.31543943 -0.11574109 0.38183177
0.3062348 0.07526781 0.12792185 -0.47205502 -0.102272004 -0.41999656 -0.24734205 -0.12991732
-0.22079763 -0.08309313 0.13900726 -0.20626315 0.28407672 -0.0036563405 0.1045508 -0.31712404
-0.17765132 -0.09030898 0.37778208 -0.07563089 -0.17175272 0.53557324 0.1258753 0.23058546
0.46052518 0.13443203 -0.023905559 -0.28009698 0.19332676 0.19550434 0.06628007 0.04960872
-0.49108168 0.054565094 -0.06615198 0.28898716 0.4247317 0.13713439 -0.33009368 -0.28659794
-0.11553338 0.16551255 -0.08574283 -0.25475648 0.12580477 -0.11807432 -0.20004413 0.25183406
-0.43732136 -0.0995209 -0.006797148 -0.23530184 -0.21462579 0.28514886 -0.31812215 -0.10894593
-0.16283457 -0.07361651 0.11198033 0.29754788 -0.36638546 -0.038591035 -0.06075834 -0.6198593
-0.114386395 -0.17510304 0.53872955 0.14149979 0.1169318 0.45940882 -0.16561887 0.04608209
0.20262608 -0.1966929 -0.1667111 0.0018426586 0.16674696 -0.055529088 -0.24956736 -0.20303433
-7.30432e-05 -0.36219037 -0.16163367 0.109960906 0.4823377 0.09117191 -0.15638651 0.48123983
0.08618036 0.29129258 -0.4292021 -0.08872753 -0.48385823 0.042488236 -0.061378717 0.2306778
-0.24165012 -0.078258425 0.1446166 -0.31533095 0.08107628 -0.15170209 0.101139 0.14743051
0.19109266 0.44756877 0.14386322 -0.396148 0.08486478 0.0550821 0.054430105 -0.5389141
-0.099971816 -0.3114596 0.26196206 0.092909604 0.051914148 0.13699383 -0.23874865 0.2137097
-0.36104998 -0.14175041 -0.06909462 0.34725124 -0.14132486 -0.41806284 0.103740245 -0.02364092
0.25128922 -0.51781857 -0.11959441 -0.04009664 -0.06452488 0.04984132 0.03474104 0.22996925
-0.21859589 -0.5086198 0.03798731 -0.05042602 0.19205005 0.003915355 -0.25389394 0.038561698
0.16331646 -0.2302285 0.094768725 0.56790733 0.10857015 0.109971814 -0.4195577 -0.1662892
0.22651684 -0.18151838 0.2117569 0.100044385 -0.349706 0.09647072 -0.23347631 -0.10453034
0.14360781 0.33907855 0.26829362 0.10482847 -0.056653578 -0.5489989 -0.27295375 0.1111591
00000000: 49df 0d3e 08b6 b1be 04d7 b63d 8452 db3e
00000010: 9d63 a83e b080 843d 9c31 62be aefb d13d
00000020: fec8 4c3e b9a6 71be 0884 44be 9dd8 a6bd
00000030: 5cfd 3dbd 75d4 f13e 2bb2 3a3e 65cf 90bd
00000040: a86e ec3e 0874 d43d 361b e03d bc5d 9d3e
00000050: 2695 ac3d 9c8f fe3d eabe cfbe d37e 0f3e
00000060: 0213 02bd d3cb 87be 5135 b0be 902b 9e3e
00000070: 331b aa3e fab2 b33d aee2 fc3c b6c4 d1be
00000080: 2bc5 5abe 44a2 80bd 9373 203e 175f 94be
00000090: e9d2 9fbd 6383 33bf e36c 2abe 172b b1bd
000000a0: 1cb0 08bf d3b8 bcbd df34 30bf 5608 be3e
000000b0: 8aff 053e 938c 5c3d 6636 333e 7890 92be
000000c0: b215 d2bd f493 063f 73f3 413e 3081 a53e
000000d0: 4c37 45be 826a 79bd 54f6 963e 2544 58bc
000000e0: a1ab 59bd f029 50be 2e3e af3d d04e 753d
000000f0: da00 373e daff abbe 9f0e 91bd 0516 953e
00000100: 7b01 a43e 9a81 c83d 5fd3 843e 49ac 13be
00000110: 1879 babd 079a 133d e0b0 ccbe e8d1 81be
00000120: 72b7 353e c85d d53e 6768 a23d d081 9fbe
00000130: dcf2 fd3e 9ffd ce3b 89ac fbbd 6790 153f
00000140: 47fa e83d 059e f43d 8349 8cbe 1d2f 0d3e
00000150: 6504 b6be 4781 a1be aa09 edbd 747f c33e
00000160: cfca 9c3e 0226 9a3d f2fd 023e 32b1 f1be
00000170: fc73 d1bd ca09 d7be 3c47 7dbe 0c09 05be
00000180: c618 62be bb2c aabd eb57 0e3e a636 53be
00000190: 8172 913e 379f 6fbb bb1e d63d 155e a2be
000001a0: 3aea 35be eaf3 b8bd a76c c13e 5ee4 9abd
000001b0: f2df 2fbe 541b 093f 74e5 003e 981e 6c3e
000001c0: f5c9 eb3e 8da8 093e 97d5 c3bc df68 8fbe
000001d0: 73f7 453e 4a32 483e d8bd 873d 8332 4b3d
000001e0: 0f6f fbbe a67f 5f3d b07a 87bd 20f6 933e
000001f0: 6f76 d93e f56c 0c3e 0a02 a9be f7bc 92be
00000200: c49c ecbd 1f7c 293e f099 afbd 716f 82be
00000210: f7d2 003e f3d0 f1bd 5ed8 4cbe 65f0 803e
00000220: 96e8 dfbe 9dd1 cbbd 9cba debb f7f2 70be
00000230: ddc6 5bbe 08ff 913e e8e0 a2be 0b1f dfbd
00000240: 1bbe 26be 41c4 96bd f155 e53d 3258 983e
00000250: e096 bbbe a211 1ebd bddd 78bd 19af 1ebf
00000260: 6a43 eabd 364e 33be 2eea 093f 52e5 103e
00000270: f179 ef3d a237 eb3e fe97 29be 93c0 3c3d
00000280: 367d 4f3e dd69 49be 51b6 2abe 5d85 f13a
00000290: b7bf 2a3e 7872 63bd 968e 7fbe 3be8 4fbe
000002a0: c52e 99b8 0471 b9be 4c83 25be 2f33 e13d
000002b0: f8f4 f63e 57b8 ba3d c923 20be 1165 f63e
000002c0: 547f b03d 4d24 953e 61c0 dbbe c7b6 b5bd
000002d0: 44bc f7be 2508 2e3d 4068 7bbd cd36 6c3e
000002e0: 2173 77be f445 a0bd 6016 143e 0f73 a1be
000002f0: 520b a63d cb57 1bbe f721 cf3d 06f8 163e
00000300: cbad 433e bc27 e53e e150 133e e9d3 cabe
00000310: 96cd ad3d c59d 613d 1af2 5e3d 46f6 09bf
00000320: 06be ccbd a277 9fbe e41f 863e 6447 be3d
00000330: eea3 543d 1c48 0c3e 877a 74be b7d6 5a3e
00000340: 8bdb b8be 0527 11be 7b81 8dbd eaca b13e
00000350: 77b7 10be 550c d6be c475 d43d 9aaa c1bc
00000360: fba8 803e c28f 04bf eaed f4bd 603c 24bd
00000370: 9f25 84bd 6926 4c3d 9f4c 0e3d 0f7d 6b3e
00000380: 9ad7 5fbe e834 02bf 9598 1b3d 848b 4ebd
00000390: c5a8 443e 614c 803b 63fe 81be dff2 1d3d
000003a0: 6e3c 273e 05c1 6bbe 1b16 c23d 6062 113f
000003b0: 075a de3d e738 e13d 44d0 d6be b747 2abe
000003c0: 08f4 673e f4df 39be cdd6 583e 12e4 cc3d
000003d0: aa0c b3be 7192 c53d 6a14 6fbe 0114 d6bd
000003e0: ed0d 133e b49b ad3e c85d 893e 4fb0 d63d
000003f0: 950d 68bd 318b 0cbf 98c0 8bbe 62a7 e33d

actor.0.bias f4 [128]
-0.048589557 0.11187095 0.06077742 0.024108233 -0.013777817 -0.0101310825 -0.10825289 -0.021674536
-0.012685405 -0.050596274 -0.0194115 0.046484437 -0.12824036 -0.09051155 0.04654545 -0.055256605
0.015738683 -0.02243354 0.111218154 0.15568325 0.03143156 -0.102396816 -0.26230803 -0.010913305
0.031058816 0.07519817 -0.05117456 -0.09903415 0.15923305 0.14455757 0.04768203 0.26962805
0.12832615 0.07802456 -0.10476055 0.09979502 -0.105019756 -0.17636178 0.01922087 -0.07649316
0.1096667 -0.21025896 0.19353072 -0.057714816 -0.048315577 -0.05302769 -0.026960075 -0.09911557
0.08563955 0.06170468 -0.08441689 -0.10513102 -0.15983118 -0.020420026 0.071496524 0.01938993
-0.043493427 0.03565431 -0.051127348 0.014619215 0.07805707 -0.09698928 -0.035780303 0.01874633
-0.1988931 0.17481227 0.07096779 0.11912881 -0.015272271 -0.22592367 0.018336197 -0.0025530155
-0.034467142 0.07198174 -0.033718992 0.075784124 -0.08672683 -0.045628157 0.045419473 -0.12597854
-0.18761775 -0.07055372 0.13530894 -0.15116374 -0.11502575 -0.035257597 0.12649056 0.055237923
0.045570362 -0.06531484 0.14293252 0.028942792 -0.025438266 -0.23673387 0.13646916 0.02607073
0.02157284 -0.03929473 -0.02505403 -0.08349078 -0.07176457 -0.12638824 -0.1590586 0.022951366
0.06123044 0.076915465 -0.014642757 0.115267806 0.0002951237 -0.087691754 0.17512171 0.06473718
-0.12757328 0.058369078 0.04077449 0.0021068072 -0.048820015 -0.09139083 -0.18369278 0.07414591
-0.027306281 -0.12187755 0.046370685 -0.20103423 0.04697229 0.052753933 -0.006899538 -0.167661
00000000: d805 47bd 991c e53d bef1 783d a17e c53c
00000010: 5abc 61bc d7fc 25bc b1b3 ddbd cc8e b1bc
00000020: 72d6 4fbc 0a3e 4fbd de04 9fbc 7766 3e3d
00000030: 7151 03be 1f5e b9bd 71a6 3e3d c054 62bd
00000040: 69ee 803c 8bc6 b7bc 58c6 e33d 6e6b 1f3e
00000050: 61be 003d 6cb5 d1bd 3d4d 86be b8cd 32bc
00000060: 0f6f fe3c 8001 9a3d 6a9c 51bd 6bd2 cabd
00000070: fd0d 233e e606 143e 3b4e 433d b00c 8a3e
00000080: ee67 033e 57cb 9f3d b38c d6bd 5561 cc3d
00000090: 9914 d7bd 2f98 34be 1675 9d3c 72a8 9cbd
000000a0: ef98 e03d 204e 57be eb2c 463e 5f66 6cbd
000000b0: 8ee6 45bd 9033 59bd 60db dcbc 1bfd cabd
000000c0: ca63 af3d 0cbe 7c3d c3e2 acbd ef4e d7bd
000000d0: c9aa 23be e647 a7bc c56c 923d a1d7 9e3c
000000e0: 2a26 32bd 410a 123d e96a 51bd 6f85 6f3c
000000f0: 63dc 9f3d 51a2 c6bd 5e8e 12bd e791 993c
00000100: a2aa 4bbe fd01 333e 9057 913d cef9 f33d
00000110: 8c38 7abc 8958 67be cb35 963c 7e50 27bb
00000120: 6b2d 0dbd 2a6b 933d ed1c 0abd b534 9b3d
00000130: d69d b1bd 97e4 3abd c509 3a3d 8500 01be
00000140: de1e 40be 787e 90bd 6d8e 0a3e abca 1abe
00000150: 9f92 ebbd 456a 10bd be86 013e 2941 623d
00000160: fda7 3a3d c9c3 85bd e75c 123e 6f19 ed3c
00000170: e963 d0bc 5d6a 72be 92be 0b3e 4992 d53c
00000180: 86b9 b03c 83f3 20bd 1c3e cdbc 37fd aabd
00000190: 4ef9 92bd eb6b 01be 42e0 22be 8104 bc3c
000001a0: c5cc 7a3d db85 9d3d 2de8 6fbc 8711 ec3d
000001b0: d5ba 9a39 bc97 b3bd 1b53 333e ed94 843d
000001c0: 92a2 02be 6a14 6f3d 2703 273d 5c12 0a3b
000001d0: 7ff7 47bd 1e2b bbbd f619 3cbe d0d9 973d
000001e0: 6cb1 dfbc f09a f9bd 30ef 3d3d ebdb 4dbe
000001f0: 0466 403d 8214 583d 8515 e2bb 53af 2bbe

actor.2.weight f4 [128, 128]
-0.2121475 0.31373397 -0.08949103 0.14121085 0.23889907 -0.54764456 0.242034 -0.2636936
0.023312991 0.17857619 0.055418666 0.057995386 0.021813357 0.07450331 0.09849825 0.023014475
-0.40042588 -0.06358549 0.28319705 -0.20687562 -0.21348827 0.056504246 -0.6418543 -0.083044745
0.23903157 -0.027263103 -0.45622385 -0.932603 0.13533314 0.097871155 -0.1656766 0.04227774
0.00694659 0.03955825 -0.07043591 0.0054676253 -1.1016937 0.20216332 -0.0631646 0.3275941
0.033218715 0.23221217 0.07569702 0.04995402 0.12110551 -0.18128316 0.13133931 -0.325681
0.025507027 0.021047087 -0.058469612 -1.0281961 -0.1520445 0.006081727 -0.17982127 -0.04725229
-0.036403354 0.30163345 -0.59240365 -0.14671722 0.13920061 -0.20374538 -0.4262929 -0.29638454
0.38819298 -0.017861353 -0.21079388 -0.3135412 0.124939315 -0.1747862 -0.19797884 -0.0571754
-0.1144766 -0.33152 0.14237213 0.108327545 -0.11340503 -0.031453405 0.27808788 -0.19014196
-0.498171 -0.5288175 0.023244727 0.16902953 0.07930636 -0.025916208 0.026496768 -0.50792104
-0.20371214 -0.9923895 0.12956396 -0.042445086 0.3172424 0.08869885 -0.0009978749 -0.30076638
-0.2609753 -0.23667419 0.030115258 -1.0130669 0.038531475 0.020277351 -0.064940356 -0.18665774
0.08622427 0.02109803 0.05892893 -0.107126616 -0.16478504 0.02854949 0.02142609 -0.5289518
0.21757899 -0.1195469 -0.3814424 -0.08045845 0.019301342 0.25037903 0.03666753 0.011686137
-0.74090594 0.0035395585 -0.19993399 -0.23475188 0.2673846 0.19353895 -0.04482347 -0.17467095
0.007989406 0.044615995 -0.13984461 0.06289394 -0.065224595 -0.25929543 -0.073849864 0.10837605
0.07761204 0.13437432 0.13762268 -0.027285151 -0.046933956 0.042828772 -0.30919152 -0.05125998
-0.15704739 0.08570512 0.1320868 0.029186284 0.22557849 0.069262326 -0.0251326 0.026811821
0.06655907 -0.04169929 -0.30495945 0.024455935 0.18710105 0.026039293 0.021766502 -0.09516524
-0.139763 0.031025762 -0.05632146 0.09360431 -0.9898836 0.008094218 0.14012568 0.10357263
-0.27635765 0.029536808 0.08422532 -0.14069876 0.0038431617 -0.08431396 0.1804436 0.055845432
0.07471769 0.2923525 0.094466075 -1.0303664 0.1288716 0.114111066 -0.16442135 0.10804366
-0.00082620856 0.020622602 -0.6456938 0.15038563 -0.4094187 0.11925 0.18752742 -0.1327553
0.06752584 -0.09498261 0.05224839 -0.46757197 -0.014225346 -0.1151455 0.12273565 -0.115853384
0.11294064 0.14349577 0.002867006 -0.18099153 0.024362963 -0.064487554 0.04626513 -0.12148533
0.18176483 0.21252415 -0.012699032 0.16678205 -0.10465532 0.037549336 -0.1402554 0.15157467
0.059630945 -0.2882626 -0.08936367 0.008500693 0.18500374 0.043924503 -0.13819316 -0.05887047
-0.034092538 -0.003870546 -0.14495756 -0.3251072 -0.118572764 0.06816874 0.15845008 0.061980292
0.14038502 -0.11556045 0.041799903 0.016287202 0.26386747 -0.011654163 -0.103944875 -0.14002469
0.041289743 -0.17616503 0.08476969 -0.098560944 -0.10972138 0.24535158 -0.0014280835 0.14185016
0.022239935 0.16522086 0.18872897 -0.015181486 0.020764878 0.25596625 0.05787041 -0.1497778
00000000: 323d 59be bda1 a03e 1347 b7bd 9499 103e
00000010: f5a1 743e 6f32 0cbf c3d7 773e d902 87be
00000020: e3fa be3c addc 363e affe 623d 928c 6d3d
00000030: edb1 b23c 3195 983d 73b9 c93d da88 bc3c
00000040: 9f04 cdbe 1c39 82bd 34ff 903e 34d7 53be
00000050: ab9c 5abe ff70 673d 9050 24bf 5d13 aabd
00000060: b1c4 743e df56 dfbc 2c96 e9be 12bf 6ebf
00000070: c594 0a3e ac70 c83d 20a7 29be 6c2b 2d3d
00000080: 38a0 e33b d507 223d b440 90bd c429 b33b
00000090: 4d04 8dbf e703 4f3e 715c 81bd 6aba a73e
000000a0: 5910 083d 07c9 6d3e 0a07 9b3d 969c 4c3d
000000b0: 2a06 f83d 4ba2 39be d07d 063e a9bf a6be
000000c0: 1df4 d03c f16a ac3c d57d 6fbd ee9b 83bf
000000d0: 8eb1 1bbe 3949 c73b 1123 38be 9e8b 41bd
000000e0: af1b 15bd b36f 9a3e c4a7 17bf 0a3d 16be
000000f0: 9b8a 0e3e a1a2 50be 1043 dabe b7bf 97be
00000100: 3bc1 c63e f951 92bc 5ada 57be 7988 a0be
00000110: 2fe0 ff3d 27fb 32be f7ba 4abe c130 6abd
00000120: b572 eabd fdbc a9be 00ca 113e d5da dd3d
00000130: e540 e8bd 49d5 00bd 8961 8e3e 93b4 42be
00000140: 4510 ffbe 9560 07bf ba6b be3c 1416 2d3e
00000150: 5f6b a23d 3a4e d4bc c00f d93c 1d07 02bf
00000160: ea99 50be 3d0d 7ebf 6aac 043e e6da 2dbd
00000170: 996d a23e bea7 b53d 20cb 82ba 0dfe 99be
00000180: 8e9e 85be b85a 72be 46b4 f63c 2dac 81bf
00000190: 2ed3 1d3d b01c a63c 73ff 84bd 3523 3fbe
000001a0: 5a96 b03d c7d5 ac3c 765f 713d 3365 dbbd
000001b0: 69bd 28be 9fe0 e93c c485 af3c 6369 07bf
000001c0: 07cd 5e3e 01d5 f4bd 6b4c c3be 66c7 a4bd
000001d0: d91d 9e3c ae31 803e b130 163d 3677 3f3c
000001e0: 03ac 3dbf f0f7 673b 7fbb 4cbe cc62 70be
000001f0: a2e6 883e 132f 463e d198 37bd f1dc 32be
00000200: ffe5 023c 43bf 363d 6d33 0fbe 8ace 803d
00000210: 7994 85bd 5fc2 84be 993e 97bd 43f4 dd3d
00000220: 10f3 9e3d 6c99 093e f6ec 0c3e 1c85 dfbc
00000230: d23d 40bd 396d 2f3d 5a4e 9ebe fcf5 51bd
00000240: 08d1 20be 2a86 af3d c341 073e 1318 ef3c
00000250: 0cfe 663e 68d9 8d3d e2e2 cdbc 77a4 db3c
00000260: 1f50 883d e0cc 2abd a523 9cbe d057 c83c
00000270: 6b97 3f3e 5b50 d53c aa4f b23c fee5 c2bd
00000280: 081e 0fbe bd29 fe3c 55b1 66bd 9eb3 bf3d
00000290: 0369 7dbf 9c9d 043c 1b7d 0f3e e31d d43d
000002a0: c07e 8dbe 2df7 f13c 537e ac3d 5613 10be
000002b0: 8edd 7b3b ccac acbd 35c6 383e 2ebe 643d
000002c0: 9705 993d 3aaf 953e 6e77 c13d 0ce3 83bf
000002d0: ebf6 033e 10b3 e93d 125e 28be ff45 dd3d
000002e0: eb95 58ba bbf0 a83c 304c 25bf b1fe 193e
000002f0: 549f d1be 5839 f43d 3007 403e 01f1 07be
00000300: fd4a 8a3d 3e86 c2bd 6802 563d 9865 efbe
00000310: 6d11 69bc 67d1 ebbd d45c fb3d 8a44 edbd
00000320: 6c4d e73d 8ef0 123e 61e4 3b3b d855 39be
00000330: d694 c73c 0d12 84bd 8180 3d3d 4dcd f8bd
00000340: 8f20 3a3e ee9f 593e 9a0f 50bc eac8 2a3e
00000350: 8755 d6bd 55cd 193d 1d9f 0fbe 6436 1b3e
00000360: 943f 743d 2897 93be 4d04 b7bd 7e46 0b3c
00000370: 9f71 3d3e 2eea 333d 8282 0dbe 2922 71bd
00000380: 9ea4 0bbd fca8 7dbb c16f 14be 7374 a6be
00000390: 47d6 f2bd 0d9c 8b3d bd40 223e 0cdf 7d3d
000003a0: 17c1 0f3e f5aa ecbd 6036 2b3d bd6c 853c
000003b0: a319 873e 1af1 3ebc 0de1 d4bd a262 0fbe
000003c0: 6f1f 293d 9b64 34be bb9b ad3d 52da c9bd
000003d0: 9ab5 e0bd 723d 7b3e 882e bbba 2b41 113e
000003e0: 8630 b63c a82f 293e 2b42 413e c4bb 78bc
000003f0: 1b1b aa3c 020e 833e 8609 6d3d 5a5f 19be

actor.2.bias f4 [128]
0.112713344 0.058181193 0.03268738 0.07811747 -0.1705516 -0.0094823325 0.05877516 0.072109126
-0.019148974 0.17631587 0.055072106 -0.012506462 0.083065204 -0.061142128 0.07422532 -0.018098032
0.10787365 -0.006089679 0.08388396 0.027971521 0.04486018 0.050959826 0.05111703 0.16165324
0.013480919 0.10273165 0.0831435 -0.003540985 0.15214458 0.04424248 0.0012745035 0.0485363
0.032122154 -0.080732755 0.032456182 0.07486613 -0.06039732 0.0550939 0.10119743 0.032980863
0.046606988 0.017698651 -0.04493503 -0.0016037006 0.010935985 0.010794455 0.08182826 0.047513828
-0.016064264 0.056657013 0.15974393 -0.026397707 -0.14844638 0.055585977 0.027167961 0.060919534
0.03688953 0.045885853 0.029574415 0.032582287 -0.031518757 -0.0016854908 0.035035994 0.06341968
0.09719196 0.12246129 -0.027476339 0.109184034 0.07368152 0.12675616 -0.13279758 0.009757042
-0.11232285 -0.008120434 -0.0080451565 0.0018415541 0.14974934 0.056089558 0.0073152487 0.08257367
-0.21425903 0.048163004 0.067693695 -0.04586768 0.04218604 0.13293351 -0.008536816 0.09419362
0.13753198 0.113086775 -0.023103146 0.00177702 0.070227094 0.04981832 0.04552171 0.107150294
-0.035698194 0.10069596 0.024388626 0.02781345 0.0217752 0.19161373 0.088620834 0.049046822
0.030116733 0.0486604 -0.027551018 0.04170775 -0.014474467 -0.04262303 0.025299687 0.07649874
0.082506746 0.10301215 -0.03321227 -0.021905182 0.0 -0.042565428 0.13100833 0.06077783
-0.033068385 0.021025958 0.118789725 0.009002406 0.03883068 -0.0300789 0.016412273 0.028756382
00000000: 41d6 e63d 674f 6e3d 34e3 053d 0dfc 9f3d
00000010: 14a5 2ebe c95b 1bbc 39be 703d f3ad 933d
00000020: 4fde 9cbc 268c 343e 4a93 613d e7e7 4cbc
00000030: 171e aa3d 2b70 7abd 7203 983d 5342 94bc
00000040: dcec dc3d ee8b c7bb 5bcb ab3d 8824 e53c
00000050: 4fbf 373d 40bb 503d 1760 513d 6d88 253e
00000060: 13df 5c3c f964 d23d 2447 aa3d df0f 68bb
00000070: cacb 1b3e 9a37 353d 3e0d a73a 00ce 463d
00000080: 8592 033d 3757 a5bd c6f0 043d 6a53 993d
00000090: 2e63 77bd 24aa 613d 9940 cf3d f116 073d
000000a0: f8e6 3e3d c3fc 903c cb0d 38bd 4333 d2ba
000000b0: d82c 333c 3adb 303c 9395 a73d dc9d 423d
000000c0: 3499 83bc 2f11 683d ea93 233e 0140 d8bc
000000d0: 5402 18be 1fae 633d 588f de3c c386 793d
000000e0: 7a19 173d cef2 3b3d 0b46 f23c 0175 053d
000000f0: d019 01bd b0eb dcba e781 0f3d 2de2 813d
00000100: 940c c73d fccc fa3d 0f16 e1bc e19b df3d
00000110: 56e6 963d 5ecc 013e 17fc 07be 00dc 1f3c
00000120: 8609 e6bd 920b 05bc d5cf 03bc 4d60 f13a
00000130: e457 193e 2abe 653d c1b4 ef3b 621c a93d
00000140: b866 5bbe 9246 453d fea2 8a3d c0df 3bbd
00000150: 45cb 2c3d b91f 083e 00de 0bbc 96e8 c03d
00000160: 2fd5 0c3e 0a9a e73d cf42 bdbc e6ea e83a
00000170: 39d3 8f3d 4b0e 4c3d f974 3a3d 9d71 db3d
00000180: 4538 12bd af39 ce3d a8ca c73c 08d9 e33c
00000190: e761 b23c 6436 443e d77e b53d 52e5 483d
000001a0: 5eb7 f63c 2150 473d acb2 e1bc bfd5 2a3d
000001b0: 5126 6dbc 7c95 2ebd 4a41 cf3c 5fab 9c3d
000001c0: 4cf9 a83d 09f8 d23d 9709 08bd 7f72 b3bc
000001d0: 0000 0000 1659 2ebd 0c27 063e 2df2 783d
000001e0: b772 07bd a13e ac3c 0748 f33d d47e 133c
000001f0: eb0c 1f3d 0668 f6bc 0873 863c 8192 eb3c

actor.4.weight f4 [2, 128]
-0.9454512 -0.29556406 1.202215 -0.53316665 -0.46232 -0.046268936 -1.1604706 -0.26856735
-0.14478959 0.88352466 -0.39777386 0.10144704 0.013162817 -0.21935329 0.06986496 -0.5157791
-0.44969735 0.46559462 0.54048425 0.36766616 -0.44519773 -0.074768074 0.19744074 0.57494515
-0.18552029 0.06257087 -0.6829367 -0.027022563 0.20940065 -0.3395558 -0.56873584 -0.14622505
0.33722812 -0.25048667 -0.5594052 0.19354655 0.3283682 0.7736173 0.073297516 -1.3127517
0.024193697 0.27051505 -0.32408065 -0.03852468 -0.6948356 -0.13746637 -0.007868289 1.2594461
-0.15889528 -0.0015885916 0.4549965 -0.30934125 -0.3825254 -0.06733487 -0.2881233 0.15005818
0.12852865 0.1689877 -0.080850005 -0.41434214 0.077073626 -0.26700774 -0.14202279 0.32407075
0.23821388 -0.034535877 -0.14981395 0.21778595 0.62729174 -0.70298934 -0.37169665 -0.3202722
0.014503276 0.86922324 -0.23840325 -0.19017515 -0.17666166 0.39157963 1.0997044 -0.010013925
0.25192893 0.21723446 1.1111828 -0.25026017 -0.22980562 0.9279655 -0.41374367 -0.7259329
-0.3858017 -0.24421303 0.031630415 0.28879815 0.4818342 -0.52186877 -0.053182036 0.032146476
-0.059545852 -0.14400351 0.9301699 -0.58807236 0.31039804 -0.4735569 -0.009011788 -0.26255322
0.05078039 -0.61231935 -0.16320245 0.80707794 0.005297762 0.12825046 -0.45037222 0.08050527
0.22280963 0.5825858 -0.04765921 -0.0019434508 0.018356105 -0.069560595 0.039640766 -0.16162547
0.08941039 1.1811006 -0.3071265 -1.2134184 0.28631756 -0.009989418 -0.044134315 -0.7007824
0.39686352 -0.068641044 0.5880318 0.27127105 0.17331114 0.041395333 0.06552474 -0.13275513
0.18502992 -0.1396944 0.039980013 -0.16286328 -0.17269664 0.004624207 -0.14548464 -0.13157721
-0.2213661 0.24327537 0.12669222 -0.013302145 -0.30057353 -0.18213297 0.17326981 0.28075302
0.020310499 -0.19937517 0.6224343 -0.13025378 -0.39519733 0.038797267 0.1484399 0.024138048
0.13477078 0.07053406 0.3078946 0.24835494 0.14406884 0.41989917 -0.4057146 0.24056667
-0.16828309 -0.55629605 0.19076203 0.05687685 0.04352936 -0.17936116 -0.09839681 0.09349995
0.19070834 -0.048764646 0.07852652 -0.01031157 0.25344005 -0.11709004 -0.19900891 -0.17101668
-0.071797445 -0.21469212 -0.23881628 -0.28055942 0.011978223 0.02642844 0.015544911 -0.17174752
-0.20603217 -0.21366096 -0.21896815 -0.344082 0.101463966 0.28545883 0.18849315 0.33283964
0.2350108 -0.21035938 0.101261795 -0.011504465 -0.23950997 0.04135924 0.19383974 -0.11984985
0.23107682 -0.1790147 -0.053243607 0.123536475 -0.21936783 0.06324519 0.017258322 0.23065338
-0.019496324 -0.2051554 0.19907667 -0.07462463 0.4956315 -0.0080364235 -0.19668867 -0.21596013
0.18011789 -0.25256824 -0.24016026 0.30215237 0.16848437 0.054857083 -0.11040978 -0.31698257
-0.056624673 0.15871218 0.048044123 -0.09648906 0.15489648 0.0142662125 0.12153723 -0.17629077
-0.030465761 0.14655405 0.02542324 0.15956438 0.19214131 0.08590915 -0.38775498 -0.15275821
0.07095659 0.32536396 0.019663205 0.06095733 0.13830686 -0.0008939554 -0.5092072 0.3927085
00000000: 1709 72bf 2c54 97be 2ee2 993f 9c7d 08bf
00000010: 35b5 ecbe 7f84 3dbd 4d8a 94bf a981 89be
00000020: b943 14be ac2e 623f 04a9 cbbe 77c3 cf3d
00000030: dba8 573c 269e 60be 5c15 8f3d 190a 04bf
00000040: bb3e e6be 6b62 ee3e 2d5d 0a3f bd3e bc3e
00000050: f5f0 e3be 0120 99bd e82d 4a3e 9b2f 133f
00000060: 08f9 3dbe 2825 803d f1d4 2ebf 6c5e ddbc
00000070: 206d 563e 42da adbe ac98 11bf 05bc 15be
00000080: 2aa9 ac3e ca3f 80be 2e35 0fbf 1131 463e
00000090: e01f a83e c90b 463f 021d 963d 3f08 a8bf
000000a0: dc31 c63c f380 8a3e e6ed a5be 0ecc 1dbd
000000b0: bfe0 31bf fcc3 0cbe ffe9 00bc 8835 a13f
000000c0: 72b5 22be 4a38 d0ba 4df5 e83e fa61 9ebe
000000d0: 5fda c3be dde6 89bd e684 93be daa8 193e
000000e0: 049d 033e 1d0b 2d3e b094 a5bd a724 d4be
000000f0: c7d8 9d3d 3db5 88be 6c6e 11be 9aec a53e
00000100: 57ee 733e 7e75 0dbd d468 19be 4803 5f3e
00000110: 3196 203f 1cf7 33bf 064f bebe b8fa a3be
00000120: 269f 6d3c 6a85 5e3f fb1f 74be 46bd 42be
00000130: cbe6 34be 207d c83e 1dc3 8c3f 7211 24bc
00000140: d4fc 803e b672 5e3e 3d3b 8e3f 1a22 80be
00000150: 2a52 6bbe 268f 6d3f 36d6 d3be bdd6 39bf
00000160: cd87 c5be fb12 7abe e58e 013d 5add 933e
00000170: f9b2 f63e 3199 05bf 68d5 59bd 06ac 033d
00000180: 5ae6 73bd a875 13be 9d1f 6e3f e98b 16bf
00000190: 7eec 9e3e 0d76 f2be 2ea6 13bc 606d 86be
000001a0: 19ff 4f3d f6c0 1cbf 8b1e 27be a99c 4e3f
000001b0: d998 ad3b 1754 033e 3097 e6be f2df a43d
000001c0: 3528 643e 5824 153f 4e36 43bd 63bb feba
000001d0: 8b5f 963c c975 8ebd 5b5e 223d 2681 25be
000001e0: cb1c b73d 4e2e 973f af3f 9dbe 4b51 9bbf
000001f0: 3798 923e a8aa 23bc 2fc6 34bd 7a66 33bf
00000200: b231 cb3e ad93 8cbd 4189 163f 0ae4 8a3e
00000210: 7a78 313e 278e 293d d631 863d f6f0 07be
00000220: 7c78 3d3e 0c0c 0fbe 15c2 233d a2c5 26be
00000230: 63d7 30be a986 973b edf9 14be 2dbc 06be
00000240: cbad 62be 2e1d 793e 9bbb 013e 3df1 59bc
00000250: c6e4 99be 1181 3abe a46d 313e dcbe 8f3e
00000260: 3462 a63c 0129 4cbe db57 1f3f 3f61 05be
00000270: 4e57 cabe e2e9 1e3d a100 183e 28bd c53c
00000280: 5a01 0a3e 2974 903d 5ca4 9d3e c250 7e3e
00000290: c886 133e 06fd d63e d3b9 cfbe 1c57 763e
000002a0: 6752 2cbe 6b69 0ebf 1f57 433e b3f7 683d
000002b0: d84b 323d 74aa 37be 4484 c9bd e77c bf3d
000002c0: 0c49 433e 70bd 47bd 83d2 a03d dcf1 28bc
000002d0: e5c2 813e e7cc efbd fec8 4bbe ff1e 2fbe
000002e0: 8a0a 93bd 40d8 5bbe 418c 74be 7ca5 8fbe
000002f0: 4f40 443c 7580 d83c 15b0 7e3c 95de 2fbe
00000300: 19fa 52be f0c9 5abe 3039 60be 842b b0be
00000310: 57cc cf3d a927 923e 5904 413e f569 aa3e
00000320: aca6 703e 7368 57be 5862 cf3d 397d 3cbc
00000330: 1a42 75be 4e68 293d ed7d 463e d773 f5bd
00000340: 679f 6c3e a14f 37be f815 5abd b100 fd3d
00000350: f6a1 60be b286 813d 5361 8d3c 6630 6c3e
00000360: c1b6 9fbc 4214 52be c1da 4b3e ccd4 98bd
00000370: 69c3 fd3e 34ab 03bc c168 49be a724 5dbe
00000380: d370 383e a050 81be 92ec 75be b7b3 9a3e
00000390: 2b87 2c3e d2b1 603d 861e e2bd 8a4b a2be
000003a0: 46ef 67bd 7285 223e eac9 443d 0e9c c5bd
000003b0: 2f9d 1e3e d5bc 693c 83e8 f83d 9185 34be
000003c0: 5593 f9bc 4412 163e 6644 d03c d864 233e
000003d0: b1c0 443e 23f1 af3d d287 c6be a66c 1cbe
000003e0: b051 913d 1b96 a63e bb14 a13c 65ae 793d
000003f0: 50a0 0d3e 5558 6aba 675b 02bf 1711 c93e

actor.4.bias f4 [2]
-0.019822992 -0.13781914
00000000: d463 a2bc 7620 0dbe

q1.0.weight f4 [128, 4]
0.008757565 -0.5575275 0.19079308 0.38900492 -0.43243036 0.72978956 -0.06588896 0.08774765
-0.5746499 0.19092058 0.13876648 0.17337605 0.13632359 -1.1338037 -0.17486195 -0.09451359
-0.49069345 0.64441246 -0.12733874 -0.053849556 -0.32289132 -0.15738522 -0.11976514 -0.055776045
-0.6886411 0.37210014 -0.12378504 -0.036921732 -0.73742497 0.13739182 -0.3071845 0.012140136
1.1843201 0.21646944 0.21938689 0.059052538 0.96207553 -0.24286057 0.009506888 -0.004573898
-0.4115448 0.90555984 0.20338154 0.095734805 0.0293144 0.455358 -0.07272806 0.03463468
-0.3784629 -0.18108188 0.15036881 0.059091933 -0.57129955 0.5360884 0.17889477 0.065213464
-0.6870773 -0.45136958 -0.18887523 -0.15616098 -0.7137363 -0.5799616 -0.2430806 -0.072146654
-0.15751442 -0.18055718 0.39658484 0.17029293 0.104440495 1.3844377 0.26590964 0.065153465
-0.41278166 0.45227402 0.13816342 0.02398026 -0.4850163 -0.2646925 -0.17753549 -0.05558715
-0.43692335 -0.30151433 -0.14157201 -0.051768612 -1.1233627 0.17898618 0.17893894 0.03087102
-0.18222006 1.033873 0.21220773 0.040593553 -0.42890972 -0.5165815 0.118947454 0.06404922
-0.4712039 0.71565324 -0.11203541 -0.027854808 0.55138147 1.2203405 0.20894185 0.07081859
-0.50496423 0.43952823 0.14450713 0.06353392 0.036446303 1.334427 0.24330348 0.12168303
-0.25369945 0.3267957 -0.26113084 -0.07417736 -0.15744443 0.5426626 -0.041115694 0.022655074
-0.5806707 -0.34428898 -0.19203238 -0.05390621 -0.15169072 1.1502606 0.17731854 0.08921583
-0.346666 -0.4620044 0.24648514 0.22939587 -0.22440512 -0.39440736 -0.002538174 -0.17500032
0.45280302 0.26023728 -0.24922407 0.07186228 -0.07212882 -0.04396459 0.29198474 -0.18547994
-0.25239578 -1.280167 -0.3207751 -0.08485657 -0.38721338 -0.3254212 0.1189003 0.052757673
0.3933825 -0.21766044 0.18484321 -0.34063455 -0.21946391 -0.9336754 -0.13858618 -0.098681025
-0.6835643 0.13578704 0.15288498 0.041392367 -0.5495258 -0.26158693 -0.20249212 -0.08047744
-0.5762066 -0.31493416 -0.18702564 -0.057158325 0.5965234 0.5694994 0.2266615 0.14118694
-0.4296895 0.234845 0.14325443 0.053561814 -0.93074185 0.13174072 0.15321486 0.09220793
-0.61541337 0.49967435 0.17070581 0.048353195 -0.39023075 1.0752484 0.22081938 0.0406288
-0.5496926 -0.3017031 -0.1759409 -0.049197026 -0.47263053 0.16078088 0.15223633 0.043117803
-0.22915067 0.16900899 -0.2181539 0.007523223 0.05731353 0.50375265 -0.2942876 -0.069126114
0.47633675 0.6771629 0.16661268 -0.05271731 -0.4044927 -0.082596846 0.22571744 0.011964096
-0.31527773 -0.95108163 -0.15273316 -0.05847543 -0.57531035 -0.79516524 0.05763736 0.04231009
-0.25247264 1.085727 0.16090108 0.043497264 -0.4924269 0.57931566 -0.1014752 -0.04162274
-0.17103058 0.27143973 -0.23326169 -0.33729738 -0.50335985 0.13191514 -0.22860807 -0.03805611
-0.19234855 0.43250477 -0.014274158 -0.29158506 -0.14276238 0.28436404 -0.32054618 -0.0491537
-0.37470672 0.32625684 0.09904594 0.0244018 -0.5250325 0.38962817 0.12500401 0.07029506
00000000: e47b 0f3c 1fba 0ebf 435f 433e a72b c73e
00000010: 8367 ddbe 7dd3 3a3f cbf0 86bd 0ab5 b33d
00000020: 411c 13bf af80 433e cd18 0e3e 7e89 313e
00000030: 6998 0b3e 7b20 91bf 030f 33be 5790 c1bd
00000040: 2c3c fbbe 37f8 243f 1665 02be 5a91 5cbd
00000050: 0352 a5be 9729 21be 6d47 f5bd 6c75 64bd
00000060: c84a 30bf e983 be3e 0383 fdbd 3e3b 17bd
00000070: e2c7 3cbf 71b0 0c3e 4947 9dbe 6ce7 463c
00000080: cd97 973f 2aaa 5d3e f5a6 603e 13e1 713d
00000090: 954a 763f 71b0 78be c7c2 1b3c a3e0 95bb
000000a0: 00b6 d2be c5d2 673f 4043 503e 9c10 c43d
000000b0: c124 f03c af24 e93e 73f2 94bd 18dd 0d3d
000000c0: e4c5 c1be 876d 39be 48fa 193e 620a 723d
000000d0: b040 12bf 173d 093f 3130 373e a38e 853d
000000e0: 4ce4 2fbf ea19 e7be 8268 41be aae8 1fbe
000000f0: 6cb7 36bf 5d78 14bf 1fea 78be a0c1 93bd
00000100: 764b 21be fbe3 38be 2b0d cb3e 4561 2e3e
00000110: e6e4 d53d 4135 b13f 4f25 883e 2e6f 853d
00000120: 1e58 d3be 7690 e73e b67a 0d3e 4072 c43c
00000130: 0e54 f8be c685 87be ddcb 35be 5aaf 63bd
00000140: 6bb4 dfbe 1660 9abe 41f8 10be 530b 54bd
00000150: 59ca 8fbf 2748 373e c53b 373e 39e5 fc3c
00000160: e597 3abe f355 843f fc4c 593e 6d45 263d
00000170: 0e9a dbbe af3e 04bf b99a f33d 3d2c 833d
00000180: a341 f1be 0d35 373f d272 e5bd c42f e4bc
00000190: 5627 0d3f 1e34 9c3f daf4 553e 5609 913d
000001a0: 5645 01bf d809 e13e adf9 133e 121e 823d
000001b0: b848 153d 81ce aa3f 8c24 793e f434 f93d
000001c0: e5e4 81be c451 a73e f1b2 85be 4dea 97bd
000001d0: 1d39 21be f0eb 0a3f ee68 28bd 2297 b93c
000001e0: d6a6 14bf a546 b0be 23a4 44be c2cc 5cbd
000001f0: d054 1bbe bd3b 933f fe92 353e cab6 b63d
00000200: 357e b1be d78b ecbe 9a66 7c3e c0e6 6a3e
00000210: 75ca 65be c3ef c9be 7e57 26bb 4933 33be
00000220: ccd5 e73e d23d 853e 9834 7fbe 882c 933d
00000230: 46b8 93bd 3714 34bd 067f 953e 74ee 3dbe
00000240: 053a 81be 83dc a3bf a23c a4be 48c9 adbd
00000250: d540 c6be 9c9d a6be 0082 f33d 6e18 583d
00000260: 6e69 c93e 61e2 5ebe 8a47 3d3e a767 aebe
00000270: 26bb 60be 5a05 6fbf 89e9 0dbe 4719 cabd
00000280: 12fe 2ebf c20b 0b3e e18d 1c3e 0b8b 293d
00000290: b9ad 0cbf b9ee 85be 185a 4fbe 5bd1 a4bd
000002a0: 4782 13bf 0d3f a1be a683 3fbe d91e 6abd
000002b0: c2b5 183f b6ca 113f f419 683e 4f93 103e
000002c0: 4300 dcbe 357b 703e 4ab1 123e a263 5b3d
000002d0: 1945 6ebf 0ae7 063e 5be4 1c3e 83d7 bc3d
000002e0: bb8b 1dbf 51d5 ff3e 81cd 2e3e 000e 463d
000002f0: 53cc c7be bda1 893f 7a1e 623e 626a 263d
00000300: a7b8 0cbf d478 9abe da29 34be d282 49bd
00000310: a1fc f1be bea3 243e d7e3 1b3e 4b9c 303d
00000320: 79a6 6abe b110 2d3e bc63 5fbe 5e85 f63b
00000330: 98c1 6a3d eff5 003f ddac 96be fe91 8dbd
00000340: 69e2 f33e 8c5a 2d3f 849c 2a3e 1bee 57bd
00000350: ab19 cfbe 8928 a9bd 7922 673e 0e05 443c
00000360: 156c a1be 167a 73bf 1566 1cbe ef83 6fbd
00000370: 8a47 13bf f38f 4bbf 2715 6c3d 584d 2d3d
00000380: 1844 81be 1af9 8a3f 41c3 243e 302a 323d
00000390: 611f fcbe 084e 143f 3bd2 cfbd 9b7c 2abd
000003a0: a422 2fbe 26fa 8a3e 27dc 6ebe 3eb2 acbe
000003b0: 31dc 00bf c314 073e 3c18 6abe b9e0 1bbd
000003c0: 05f7 44be 4471 dd3e 28de 69bc a34a 95be
000003d0: 4d30 12be 2a98 913e a11e a4be 6455 49bd
000003e0: 8fd9 bfbe 230b a73e 99d8 ca3d 49e6 c73c
000003f0: 8868 06bf 587d c73e 0d01 003e dbf6 8f3d

q1.0.bias f4 [128]
-0.2378504 0.40542135 0.48655418 0.12530363 0.30755374 0.37574983 0.129794 0.13367511
0.12286532 0.5368829 0.15561755 0.516623 0.2965339 0.3900522 0.39733037 0.5256573
0.04470523 -0.40532577 0.24221109 0.5157842 0.32865635 0.46231857 -0.087532885 0.37978956
0.3526652 -0.113253765 0.29926506 -0.3241967 -0.37780717 0.5046958 0.48620486 -0.061901063
-0.10296859 0.39200732 -0.32395712 0.13758576 -0.09122529 0.28402334 -0.004623467 0.018381882
-0.1128849 0.6290341 0.4856103 0.0419974 0.46289375 0.45982668 0.36913833 0.076338924
0.4512442 0.54756117 -0.33171624 -0.31347507 0.29499453 -0.15592737 0.030699998 0.24781978
-0.1710411 -0.4969245 -0.22810714 -0.14189832 0.40847784 0.10741735 0.19185351 0.24948636
-0.08562944 0.3116619 0.3639386 0.46011174 0.312102 0.44939283 0.24562536 0.13968946
0.45233694 0.105415486 0.40162036 0.39998692 0.054005273 0.45340785 -0.014778434 0.31839606
0.27040017 0.26456097 0.44467273 0.19560371 0.476597 0.2813529 -0.10299612 0.59582263
0.5092295 -0.17560561 0.052860644 -0.16135389 0.17744526 -0.08849954 0.49477544 0.4507996
0.42429426 0.06894545 0.23687111 0.2330645 0.4411646 0.2989516 -0.063917145 0.36804602
-0.3159921 0.24159753 -0.22203866 0.30506676 -0.07716265 0.32101503 -0.26203385 0.39148065
0.10431839 0.36692664 0.46429634 0.14944045 0.48887327 -0.19486661 0.30425262 0.4187388
0.34263054 0.4188969 0.44741714 0.47244123 0.4200866 0.23389661 -0.057792053 0.110111855
00000000: 0e8f 73be 6393 cf3e a11d f93e 984f 003e
00000010: af77 9d3e 4862 c03e b8e8 043e 21e2 083e
00000020: d0a0 fb3d 2871 093f 355a 1f3e 6841 043f
00000030: 4bd3 973e ecb4 c73e e36e cb3e 7a91 063f
00000040: d51c 373d dc86 cfbe 2f06 783e 6f0a 043f
00000050: a545 a83e 05b5 ec3e 7144 b3bd c773 c23e
00000060: 8890 b43e 97f1 e7bd 4539 993e 1cfd a5be
00000070: f16f c1be be33 013f d8ef f83e f88b 7dbd
00000080: 32e1 d2bd 2fb5 c83e b5dd a5be 48e3 0c3e
00000090: 53d4 babd 826b 913e 7480 97bb 9a95 963c
000000a0: 3330 e7bd 6108 213f eaa1 f83e 7705 2c3d
000000b0: 6900 ed3e 676e eb3e b3ff bc3e 9557 9c3d
000000c0: 7b09 e73e f82c 0c3f b6d6 a9be ce7f a0be
000000d0: 8609 973e 6dab 1fbe 907e fb3c 78c4 7d3e
000000e0: 6625 2fbe e36c febe eb94 69be cb4d 11be
000000f0: 0224 d13e a1fd db3d 3f75 443e 5a79 7f3e
00000100: 7d5e afbd 2692 9f3e 2956 ba3e c493 eb3e
00000110: d5cb 9f3e d116 e63e 3785 7b3e c10a 0f3e
00000120: b598 e73e 13e4 d73d 2fa1 cd3e 16cb cc3e
00000130: a234 5d3d 1325 e83e 3f21 72bc cf04 a33e
00000140: e471 8a3e 8974 873e 25ac e33e 574c 483e
00000150: 8604 f43e 7d0d 903e a1ef d2bd d587 183f
00000160: dd5c 023f f5d1 33be 6784 583d f439 25be
00000170: 36b4 353e 3f3f b5bd 3553 fd3e 35cf e63e
00000180: 193d d93e 4633 8d3d 578e 723e 76a8 6e3e
00000190: 54e0 e13e 2f10 993e fee6 82bd 8770 bc3e
000001a0: b7c9 a1be 5865 773e 1a5e 63be b631 9c3e
000001b0: 7407 9ebd 155c a43e 4d29 86be 2770 c83e
000001c0: e1a4 d53d cfdd bb3e 40b8 ed3e eb06 193e
000001d0: 994d fa3e 1d8b 47be 00c7 9b3e ef64 d63e
000001e0: 456d af3e a879 d63e dc13 e53e d1e3 f13e
000001f0: 9715 d73e 9882 6f3e 5cb7 6cbd 5382 e13d

q1.2.weight f4 [128, 128]
-0.04567441 0.1901364 0.08367488 0.053436957 0.18950146 0.31837955 0.2272507 -0.05940204
0.795681 0.6149091 0.24649018 0.14851688 0.32715735 0.043899536 0.21386197 0.05823431
-0.010460238 0.042301808 0.16164126 0.22405744 0.24518228 0.2334919 0.06000259 0.17186093
0.21014753 -0.13856275 0.18996297 -0.019438993 -0.117887385 0.25579157 0.31616834 0.07234672
-0.25124797 0.091939814 0.041360073 -0.15005942 0.18967187 0.43141124 -0.08931527 0.0070563713
0.5347863 0.2187159 0.26129955 0.03507432 0.05146006 0.19036141 0.09220901 0.10096475
0.072757706 0.07556952 -0.21197979 -0.23717307 0.120880015 -0.08656125 0.24164023 0.3685132
0.14785658 -0.299025 -0.2935812 -0.1742779 0.2839507 0.12557334 0.29469135 0.17855468
0.09280652 0.18767545 0.16789012 0.18431154 0.13083911 0.34258848 0.37135038 -0.12388959
0.047265004 0.2726214 0.34944785 -0.112838626 0.12973954 0.1272308 0.464939 0.032327034
0.13913128 0.23447233 0.16787657 0.16415106 0.36562464 0.24558325 0.070482954 0.2654142
0.09008877 -0.25398758 0.4063256 -0.13040817 0.4805023 0.1388659 0.11962966 0.26506138
0.29431367 0.07672288 0.2572732 0.23661548 0.324459 0.41720918 -0.36341625 0.15644678
0.09555562 0.2625467 -0.25380802 0.030236654 -0.02614941 0.18306729 -0.07828877 0.050455485
0.30291864 0.15489367 0.32081065 0.30704364 0.22731994 0.07587096 0.3107334 0.19354308
-0.10425625 0.1661543 0.35990277 0.15896009 0.3540229 0.23174131 0.052820686 0.47881213
0.11593434 -0.12430062 0.075727515 0.06288461 -0.12378572 0.12344193 -0.011238802 0.096213184
-0.03267849 -0.14008443 0.091594756 -0.02479236 -0.12626514 0.100069754 0.053620815 0.0790648
0.08124688 0.048789885 0.13309696 0.01689223 -0.021903446 -0.08430068 0.11247882 0.12797816
-0.100412734 -0.01412253 -0.125505 0.076150924 -0.029159889 -0.047432087 -0.12038757 0.05291182
-0.10405183 0.13849458 0.018932382 -0.12773283 -0.078746974 0.12069985 0.056428075 0.14301896
-0.007786911 -0.005900505 0.13307917 -0.07385026 0.13120863 -0.03312371 -0.11803141 -0.003746195
0.087815285 0.06701715 0.021047948 0.003393282 0.0056310855 0.029498637 -0.119967684 -0.13775815
-0.13279657 -0.06283139 0.019972289 -0.030603975 -0.13349806 -0.15233691 0.04693209 -0.05110796
0.06068852 0.10563097 -0.110324144 0.028799294 -0.12661745 -0.0015714949 0.047206316 0.079054564
-0.10866059 -0.080728516 -0.15268528 -0.085844204 -0.014538475 -0.061137 -0.11443 0.055945825
-0.018676016 -0.074323185 0.07511249 -0.06717517 -0.11531667 -0.11413402 0.12579075 0.030718192
-0.15587604 -0.058919232 -0.13530801 0.08856069 0.13659975 -0.058947828 -0.0897065 0.0056732325
0.13257533 0.054384872 -0.009949814 0.051408898 0.02104122 -0.09660754 -0.038035184 0.10663713
0.061016396 0.13507834 -0.08186235 -0.010233779 -0.15030272 0.057264227 0.015203725 0.05000273
-0.09930013 -0.14280185 -0.069218226 0.017551323 -0.15389489 -0.0033636997 -0.029079497 0.016161304
-0.00033648443 -0.13270688 0.04092763 -0.12227018 -0.047299415 -0.015080987 0.10603613 -0.11202634
00000000: 1715 3bbd 1eb3 423e bc5d ab3d b6e0 5a3d
00000010: ac0c 423e a502 a33e 68b4 683e 8e4f 73bd
00000020: c0b1 4b3f af6a 1d3f ec67 7c3e cf14 183e
00000030: 2b81 a73e 00d0 333d a2fe 5a3e 1a87 6e3d
00000040: 6b61 2bbc a944 2d3d 4985 253e 506f 653e
00000050: 1011 7b3e 8018 6f3e 47c5 753d 50fc 2f3e
00000060: ea30 573e 65e3 0dbe a785 423e 863e 9fbc
00000070: f16e f1bd 1df7 823e d1e0 a13e 842a 943d
00000080: 93a3 80be f14a bc3d 2e69 293d 2da9 19be
00000090: 5839 423e efe1 dc3e edea b6bd 2239 e73b
000000a0: c1e7 083f 10f7 5f3e 0ec9 853e 17aa 0f3d
000000b0: c9c7 523d 1aee 423e 14d8 bc3d 9bc6 ce3d
000000c0: fe01 953d 31c4 9a3d 3b11 59be 7fdd 72be
000000d0: f18f f73d 0647 b1bd 8970 773e c3ad bc3e
000000e0: b767 173e ce19 99be 4650 96be e875 32be
000000f0: fc61 913e 4c96 003e c9e1 963e 0ad7 363e
00000100: 5811 be3d fe2d 403e 63eb 2b3e 2abc 3c3e
00000110: b0fa 053e c267 af3e a321 be3e d3b9 fdbd
00000120: f398 413d 0895 8b3e d4ea b23e f017 e7bd
00000130: 71da 043e ca48 023e 7c0c ee3e 5a69 043d
00000140: 6e78 0e3e 8419 703e d6e7 2b3e 3717 283e
00000150: 2733 bb3e 2d7a 7b3e 5e59 903d 5fe4 873e
00000160: 7680 b83d a90a 82be e909 d03e b889 05be
00000170: 6604 f63e dd32 0e3e 6500 f53d 20b6 873e
00000180: 48b0 963e e320 9d3d 50b9 833e 544b 723e
00000190: 7d1f a63e 719c d53e b211 babe 9633 203e
000001a0: aab2 c33d 856c 863e 20f3 81be dcb2 f73c
000001b0: 4a37 d6bc fe75 3b3e dd55 a0bd 69aa 4e3d
000001c0: 2718 9b3e 729c 1e3e 4b41 a43e d334 9d3e
000001d0: 8fc6 683e 3c62 9b3d 7318 9f3e 2830 463e
000001e0: 4d84 d5bd 5a24 2a3e 2d45 b83e 6fc6 223e
000001f0: 7d42 b53e 984d 6d3e 815a 583d dd26 f53e
00000200: fc6e ed3d 5391 febd 0717 9b3d a5c9 803d
00000210: 5e83 fdbd 1fcf fc3d f422 38bc 6b0b c53d
00000220: e1d9 05bd 4b72 0fbe 0896 bb3d 5919 cbbc
00000230: a64b 01be 5ff1 cc3d 80a1 5b3d baec a13d
00000240: c464 a63d e7d7 473d 924a 083e 9361 8a3c
00000250: db6e b3bc d6a5 acbd 4c5b e63d b50c 033e
00000260: 31a5 cdbd 2f62 67bc 6284 00be 04f5 9b3d
00000270: b8e0 eebc 2648 42bd c28d f6bd 11ba 583d
00000280: 2019 d5bd 86d1 0d3e 1518 9b3c 65cc 02be
00000290: 1846 a1bd 7c31 f73d 2021 673d 9073 123e
000002a0: 5829 ffbb 0659 c1bb e845 083e ce3e 97bd
000002b0: 8e5b 063e baac 07bd 74ba f1bd b982 75bb
000002c0: 80d8 b33d 4a40 893d bf6c ac3c d361 5e3b
000002d0: f884 b83b 20a7 f13c 9eb1 f5bd 7910 0dbe
000002e0: d3fb 07be bead 80bd ed9c a33c 30b5 fabc
000002f0: b7b3 08be 35fe 1bbe dd3b 403d 9556 51bd
00000300: 8794 783d 0d55 d83d a0f1 e1bd 7fec eb3c
00000310: 01a8 01be 9efa cdba 695b 413d 5ce7 a13d
00000320: 7289 debd fe54 a5bd 8859 1cbe 16cf afbd
00000330: c932 6ebc ca6a 7abd 475a eabd 7327 653d
00000340: 72fe 98bc c136 98bd 94d4 993d 2393 89bd
00000350: 252b ecbd 19bf e9bd 4acf 003e b8a4 fb3c
00000360: f89d 1fbe 4b55 71bd 2f8e 0abe 4f5f b53d
00000370: cee0 0b3e 4773 71bd 0bb8 b7bd 86e6 b93b
00000380: d4c1 073e acc2 5e3d 8b04 23bc 2392 523d
00000390: a35e ac3c 2dda c5bd c8ca 1bbd 9164 da3d
000003a0: 54ec 793d fa51 0a3e 73a7 a7bd 95ab 27bc
000003b0: f5e8 19be e58d 6a3d 0b19 793c aacf 4c3d
000003c0: de5d cbbd a63a 12be 49c2 8dbd cbc7 8f3c
000003d0: 9f96 1dbe 8471 5cbb 2038 eebc b664 843c
000003e0: 2d6a b0b9 50e4 07be bba3 273d ca68 fabd
000003f0: 08bd 41bd 3e16 77bc 7829 d93d 116e e5bd

q1.2.bias f4 [128]
0.21673611 -0.010978047 0.28089315 0.18005626 -0.014262533 -0.1584033 -0.0046884064 -0.023758192
0.15776396 0.4665023 0.16112025 -0.028702369 -0.012557342 0.05819423 0.22450554 0.1868128
0.15617119 0.63924736 0.03498725 -0.08806156 0.58590657 0.04977499 0.18155861 0.62853485
0.17631245 0.043798514 0.041940305 0.26168203 0.21378505 -0.023794023 0.16998477 0.22068086
0.020685343 0.19830634 0.18523301 -0.012947981 0.7335638 -0.012287469 0.03178779 0.018251367
0.23351605 0.18655738 0.17249496 -0.01470579 0.018024517 0.1780166 0.17674202 0.19276124
0.047460534 -0.032309078 -0.026406066 0.20864342 0.09618084 0.049143326 -0.013972691 0.16937378
-0.074768074 0.16415909 0.6719236 -0.022240778 0.18216828 0.2255853 -0.039349437 0.22100091
-0.021573989 0.04735233 0.15993138 0.16154821 0.06756097 0.15735488 0.29822174 0.030574847
0.19543152 0.0045535048 0.079658866 0.1766372 -0.05873935 -0.062227845 -0.009181023 -0.021307452
0.056821138 0.19002071 0.22178185 -0.06290865 0.15293138 0.6240297 -0.01253055 0.3006918
0.1621132 0.18682742 0.16654678 0.19338192 -0.06798873 -0.017185515 0.15905176 0.1585197
0.23360069 0.16831407 0.17975676 0.15808605 0.23159325 0.24332725 0.016021965 0.24423906
0.17738888 0.15877293 0.20211048 0.18537845 0.2291959 0.16758202 0.18936385 -0.01757241
-0.075960964 0.008748012 -0.032343663 0.6515488 0.21735021 0.15137805 0.1689457 0.21851489
0.557438 0.19164419 0.1634208 0.15979026 0.045792345 0.17630358 0.15777147 0.3140808
00000000: 12f0 5d3e 44dd 33bc 3ad1 8f3e ab60 383e
00000010: 66ad 69bc 7a34 22be 34a1 99bb 8aa0 c2bc
00000020: e08c 213e 64d9 ee3e b5fc 243e 3b21 ebbc
00000030: 4fbd 4dbc 135d 6e3d c8e4 653e db4b 3f3e
00000040: 57eb 1f3e b7a5 233f ca4e 0f3d 9f59 b4bd
00000050: f9fd 153f dce0 4b3d 80ea 393e a9e7 203f
00000060: 408b 343e 1266 333d 99c9 2b3d 30fb 853e
00000070: 78ea 5a3e afeb c2bc 7d10 2e3e 2afa 613e
00000080: 4f74 a93c d110 4b3e b9ad 3d3e c523 54bc
00000090: d6ca 3b3f 6151 49bc ea33 023d e483 953c
000000a0: d51e 6f3e e608 3f3e 85a2 303e 8ef0 70bc
000000b0: 27a8 933c fc49 363e dcfb 343e 3463 453e
000000c0: fa65 423d 8656 04bd 8951 d8bc 9fa6 553e
000000d0: 76fa c43d 834a 493d b7ed 64bc 5270 2d3e
000000e0: 0120 99bd 5219 283e 2f03 2c3f 4b32 b6bc
000000f0: 528a 3a3e d5ff 663e e02c 21bd 104e 623e
00000100: efbb b0bc 84f4 413d 0dc5 233e e56c 253e
00000110: 685d 8a3d a321 213e 85b0 983e 1a78 fa3c
00000120: 331f 483e 9135 953b 3024 a33d 62e0 343e
00000130: ac98 70bd a0e2 7ebd 006c 16bc f78c aebc
00000140: 48bd 683d ca94 423e c81a 633e 40d6 80bd
00000150: 0b9a 1c3e 69c0 1f3f f04c 4dbc 47f4 993e
00000160: 0101 263e b04f 3f3e 3d8b 2a3e e905 463e
00000170: ad3d 8bbd a3c8 8cbc 77de 223e fd52 223e
00000180: 0535 6f3e 865a 2c3e 2812 383e 4fe1 213e
00000190: c826 6d3e c72a 793e 7f40 833c ce19 7a3e
000001a0: 6ea5 353e 5f95 223e 0df6 4e3e d9d3 3d3e
000001b0: 54b2 6a3e 9f9a 2b3e 99e8 413e 04f4 8fbc
000001c0: 6c91 9bbd d253 0f3c ca7a 04bd e7cb 263f
000001d0: 0e91 5e3e d902 1b3e 1a00 2d3e 5ec2 5f3e
000001e0: 42b4 0e3f 603e 443e c857 273e 0fa0 233e
000001f0: c190 3b3d ed88 343e d88e 213e 33cf a03e

q1.4.weight f4 [1, 128]
-0.25086588 0.0725077 -0.4506465 -0.37629175 0.6858862 0.9084712 0.70195633 0.1389171
1.0453126 2.7081223 -0.33037388 0.9777191 0.14955437 0.75838524 -0.21317795 -0.48448035
-0.32792622 3.3233542 1.2928607 0.6126168 2.660584 0.73943174 -0.33216456 3.4928842
-0.21908383 0.74159473 0.7492753 -0.38287836 -0.28520128 1.2830237 -0.26023677 -0.26413944
1.0044047 -0.39122438 -0.29715484 0.108359486 3.2770658 0.1493507 0.5202877 0.5478204
-0.23532705 -0.34393546 -0.29033554 0.7713458 0.821021 -0.2913586 -0.44334292 -0.3829912
0.68438363 0.0007304947 0.08741762 -0.46950004 0.9142721 0.8362525 0.16308028 -0.28050098
0.6672364 -0.38178432 2.7665434 0.5755234 -0.36175814 -0.2744962 1.0313423 -0.4421573
0.004280932 0.713126 -0.42600426 -0.28327084 0.8538421 -0.38487443 -0.42188734 0.6402166
-0.31458333 0.8501476 0.6460571 -0.35400087 1.5422997 0.991891 0.16290808 0.041748717
0.5038776 -0.37072834 -0.2678535 1.4342144 -0.40579084 3.5097558 0.74541897 -0.4161989
-0.3192062 -0.4444797 -0.3505834 -0.31222594 0.55067176 0.08537626 -0.35296044 -0.43688968
-0.31026584 -0.28150117 -0.36153117 -0.36458525 -0.32650307 -0.25165355 0.8238968 -0.2672133
-0.38315523 -0.31024286 -0.32482994 -0.30649388 -0.36547065 -0.2724526 -0.32754862 0.17474368
2.0759525 1.2130184 0.93862104 3.1795657 -0.2881071 -0.36236343 -0.32523993 -0.3090643
2.603473 -0.29049587 -0.41300878 -0.34387708 0.76024395 -0.3789512 -0.37113953 1.0266814
00000000: 7e71 80be eb7e 943d 23bb e6be 50a9 c0be
00000010: 3d96 2f3f 9291 683f 69b3 333f 4940 0e3e
00000020: cecc 853f e051 2d40 c426 a9be cd4b 7a3f
00000030: c824 193e 8925 423f 524b 5abe cf0d f8be
00000040: f2e5 a7be d6b1 5440 767c a53f 74d4 1c3f
00000050: 0247 2a40 664b 3d3f 7911 aabe 6a8b 5f40
00000060: 8357 60be 27d9 3d3f 82d0 3f3f a208 c4be
00000070: e705 92be 1f3a a43f c13d 85be 493d 87be
00000080: 5590 803f 904e c8be ae24 98be 94eb dd3d
00000090: 72bb 5140 64ef 183e 9331 053f f53d 0c3f
000000a0: 93f9 70be 4f18 b0be dca6 94be eb76 453f
000000b0: 6f2e 523f f42c 95be d8fd e2be 6c17 c4be
000000c0: c433 2f3f ab7e 3f3a 0208 b33d 4f62 f0be
000000d0: bd0d 6a3f a514 563f 84fe 263e d39d 8fbe
000000e0: 01d0 2a3f 3c79 c3be 0c0f 3140 8055 133f
000000f0: 5d38 b9be c48a 8cbe 0603 843f 7162 e2be
00000100: 0f47 8c3b 6d8f 363f 3b1d dabe e008 91be
00000110: 6595 5a3f 430e c5be 9e01 d8be 3ce5 233f
00000120: 1111 a1be 46a3 593f 0064 253f 9a3f b5be
00000130: 146a c53f 92ec 7d3f 60d1 263e b400 2b3d
00000140: 1ffe 003f 1bd0 bdbe 1824 89be 5694 b73f
00000150: d1c3 cfbe d79f 6040 c7d3 3e3f 0618 d5be
00000160: ff6e a3be d892 e3be ab7f b3be 14dc 9fbe
00000170: d3f8 0c3f c0d9 ae3d 3bb7 b4be 01b0 dfbe
00000180: 2adb 9ebe ec20 90be 9d1a b9be ebaa babe
00000190: 692b a7be bcd8 80be e7ea 523f 2fd0 88be
000001a0: ec2c c4be 27d8 9ebe 1c50 a6be c4ec 9cbe
000001b0: f81e bbbe e87e 8bbe 74b4 a7be 02f0 323e
000001c0: 68dc 0440 3044 9b3f 7849 703f 017e 4b40
000001d0: c682 93be b387 b9be d985 a6be ad3d 9ebe
000001e0: 4d9f 2640 e0bb 94be e375 d3be a810 b0be
000001f0: 599f 423f e405 c2be 0006 bebe 4c6a 833f
