SAC/checkpoints/Pendulum-v1/06_best_agent.pth (torch, 214247 bytes, 17 tensors)

log_alpha f8 []
-6.316071682163679
00000000: be56 884b a843 19c0

actor.0.weight f4 [128, 3]
0.2585468 -0.31768712 -0.057858672 0.26179394 0.38092747 0.11121478 -0.22709018 -0.01147646
0.2498153 -0.19398786 -0.04723654 -0.107513644 -0.061239418 0.3371327 0.18251032 -0.1186872
0.36777893 0.07495675 -0.11837098 0.24819154 0.04410901 0.25687057 -0.071807496 0.11493346
-0.21079291 -0.03973767 -0.16961463 0.23143622 0.29163706 0.100721516 0.03711391 0.22824368
-0.16795845 -0.2965551 0.07072615 -0.21585345 -0.027064145 -0.40774956 -0.093717575 -0.13339202
-0.078615315 -0.12380159 -0.2755765 -0.35688317 -0.06990223 -0.105557606 0.12768637 -0.17560513
-0.25365403 -0.12926503 0.22273535 0.36970067 0.0851064 -0.05562112 0.07298692 0.33654365
0.062539235 -0.18421666 0.023125283 0.123066545 0.26685634 -0.23787124 -0.09456409 0.26929197
0.2776659 0.106132 0.20146938 -0.04725472 -0.06751352 0.14298132 0.20490676 -0.25671494
0.16372839 0.41177508 0.08570558 -0.27557448 0.31637034 0.059178367 -0.17444862 0.1715462
0.16132993 0.2713275 -0.26247516 0.078161605 -0.3030788 -0.4056418 -0.11542254 0.1991203
0.20882012 0.07906596 0.26637256 -0.37975016 -0.10894618 -0.3014824 -0.39730787 -0.11390704
-0.35836342 -0.20576927 -0.0594229 -0.13772541 -0.12729506 -0.04348115 -0.087884836 -0.3608033
-0.105275765 -0.31126317 0.19581908 0.006433397 -0.46388963 0.01729093 -0.002685508 -0.15719625
0.49864712 0.10115141 0.07634318 0.06576994 0.07910282 0.21654432 0.15667015 0.080078624
-0.36578438 0.05015626 -0.0017460516 0.030064048 0.32895532 0.163963 -0.19511165 -0.048308946
-0.12222211 0.28342962 -0.043529313 -0.2044064 0.32892552 -0.28992912 -0.117724285 0.25607654
-0.36704025 -0.09376276 -0.07972215 0.038337383 -0.15384148 0.27027667 -0.32973868 -0.09995313
-0.4068239 -0.15183984 -0.0063920533 0.3253953 -0.27379847 -0.10802605 -0.09063712 -0.19810413
-0.15158343 -0.29208246 -0.22603074 -0.07414913 0.15248807 0.27472532 -0.16063547 0.25523254
0.29160887 0.07313526 -0.022920033 -0.38326344 -0.067988314 -0.27979895 -0.025677199 -0.14916083
0.18644884 -0.045688495 -0.06285134 0.03609447 0.46902522 0.07516597 -0.13446565 -0.30429482
0.13351683 0.11577011 -0.4342255 -0.10578797 -0.2845163 -0.054718696 0.0001214975 0.23263831
-0.2271389 -0.09638152 0.37414473 -0.31270695 -0.1226177 -0.18553153 -0.25808844 0.1273168
0.081507444 0.34997898 0.17733234 -0.1681946 -0.2419853 0.15704547 0.12105018 -0.4419348
-0.092542045 -0.1920707 0.26817444 0.07705264 0.13640927 0.2719877 -0.20607087 0.2534482
-0.3720015 -0.09332672 -0.21984668 0.3008446 0.07401129 -0.4103223 0.11578666 -0.0117407525
0.29360583 -0.4031626 -0.11691067 0.041325603 -0.27146524 -0.04841183 -0.03279816 0.025237821
-0.12099112 -0.45054114 -0.052965358 -0.0063312366 0.0933734 0.1887752 -0.27685493 -0.076267205
0.31701556 -0.050821863 0.07271201 0.36502224 0.17222647 0.13255163 -0.3221547 -0.129221
0.32439435 -0.14303432 0.1577113 0.3417855 -0.31820768 0.089446455 -0.28844833 -0.025982164
0.25061542 0.40613312 0.3016246 0.14670263 -0.00067017635 0.19309834 -0.29966953 0.2522776
00000000: 3f60 843e e3a7 a2be 37fd 6cbd db09 863e
00000010: ed08 c33e 93c4 e33d 548a 68be c307 3cbc
00000020: 95cf 7f3e c1a4 46be 1a7b 41bd 1d30 dcbd
00000030: 2fd6 7abd a89c ac3e fce3 3a3e 4612 f3bd
00000040: 854d bc3e ed82 993d 7c6c f2bd ec25 7e3e
00000050: a6ab 343d 8a84 833e cf0f 93bd 3c62 eb3d
00000060: 19da 57be f8c3 22bd 75af 2dbe 9efd 6c3e
00000070: 7451 953e 1547 ce3d c104 183d b6b8 693e
00000080: 4dfd 2bbe 12d6 97be dfd8 903d b008 5dbe
00000090: a0b5 ddbc 8dc4 d0be 00ef bfbd eb97 08be
000000a0: 1101 a1bd b08b fdbd 5d18 8dbe 64b9 b6be
000000b0: e628 8fbd 962e d8bd 37c0 023e d5d1 33be
000000c0: f1de 81be 0d5e 04be bc14 643e 6849 bd3e
000000d0: 444c ae3d f9d2 63bd 2b7a 953d 734f ac3e
000000e0: 9214 803d 4ba3 3cbe 3c71 bd3c 500a fc3d
000000f0: 65a1 883e 8594 73be d1aa c1bd a3e0 893e
00000100: 3a2a 8e3e bc5b d93d fd4d 4e3e 2a8e 41bd
00000110: 8744 8abd b269 123e 14d3 513e 2470 83be
00000120: 6aa8 273e 2fd4 d23e 6886 af3d 1918 8dbe
00000130: 4bfb a13e 0465 723d a9a2 32be cfa9 2f3e
00000140: ac33 253e 70eb 8a3e 2563 86be 3113 a03d
00000150: 252d 9bbe 48b0 cfbe a762 ecbd 31e6 4b3e
00000160: f1d4 553e 56ed a13d fc61 883e 9d6e c2be
00000170: 2d1f dfbd e75b 9abe f06b cbbe 1848 e9bd
00000180: 697b b7be 2eb5 52be 6d65 73bd e407 0dbe
00000190: a359 02be 4a19 32bd f7fc b3bd 36bb b8be
000001a0: d29a d7bd e35d 9fbe cc84 483e 3fcf d23b
000001b0: f182 edbe b5a5 8d3c 59ff 2fbb 0ef8 20be
000001c0: ad4e ff3e 7828 cf3d d059 9c3d 64b2 863d
000001d0: a900 a23d cbbd 5d3e 246e 203e 4300 a43d
000001e0: 1748 bbbe a770 4d3d c5db e4ba e148 f63c
000001f0: d56c a83e ebe5 273e 59cb 47be 9adf 45bd
00000200: 964f fabd b01d 913e cb4b 32bd e94f 51be
00000210: ed68 a83e 9771 94be 6e19 f1bd 771c 833e
00000220: b3ec bbbe b106 c0bd 5e45 a3bd a907 1d3d
00000230: 9f88 1dbe b461 8a3e 82d3 a8be 3ab4 ccbd
00000240: 394b d0be e77b 1bbe 6e74 d1bb 369a a63e
00000250: 502f 8cbe c33c ddbd f49f b9bd cfdb 4abe
00000260: b038 1bbe d58b 95be 9a74 67be 80db 97bd
00000270: d525 1c3e cca8 8c3e a07d 24be d7ad 823e
00000280: c24d 953e f0c7 953d cbc2 bbbc 1b3b c4be
00000290: 753d 8bbd cf41 8fbe fd58 d2bc 9ebd 18be
000002a0: 72ec 3e3e dc23 3bbd 34b8 80bd ccd7 133d
000002b0: 1324 f03e 9ef0 993d 5db1 09be 88cc 9bbe
000002c0: a3b8 083e e118 ed3d ce52 debe 5da7 d8bd
000002d0: 1fac 91be b620 60bd 79cc fe38 bd38 6e3e
000002e0: 1a97 68be ad63 c5bd e68f bf3e 201b a0be
000002f0: fd1e fbbd fafb 3dbe 2b24 84be 565f 023e
00000300: 60ed a63d 7230 b33e 9c96 353e 353b 2cbe
00000310: ffca 77be 87d0 203e 28e9 f73d 4745 e2be
00000320: af86 bdbd 2eae 44be 294e 893e c6cd 9d3d
00000330: dfae 0b3e f941 8b3e 3e04 53be f6c3 813e
00000340: fb76 bebe 1422 bfbd 7d1f 61be 4e08 9a3e
00000350: 3b93 973d c415 d2be 8e21 ed3d 495c 40bc
00000360: 8153 963e 546b cebe dd6e efbd 0945 293d
00000370: 7efd 8abe 7c4b 46bd 5d57 06bd 8cbf ce3c
00000380: 31ca f7bd 54ad e6be 34f2 58bd 4376 cfbb
00000390: 8e3a bf3d 494e 413e eebf 8dbe fb31 9cbd
000003a0: dd4f a23e 962a 50bd 09ea 943d 32e4 ba3e
000003b0: 235c 303e 9dbb 073e 76f1 a4be 8352 04be
000003c0: 0417 a63e 9777 12be 127f 213e 82fe ae3e
000003d0: 1eec a2be b42f b73d 80af 93be 8cd8 d4bc
000003e0: aa50 803e aef0 cf3e 8a6e 9a3e 3739 163e
000003f0: c6ae 2fba 92bb 453e 496e 99be 882a 813e

actor.0.bias f4 [128]
-0.059368525 -0.094919495 0.17651297 -0.09639775 -0.10890408 0.006021124 0.09582599 -0.030005494
-0.08181134 -0.10864884 -0.017404756 -0.064242326 -0.14191112 -0.13563208 0.099059656 -0.14522891
-0.104321934 0.0006541533 0.009618126 0.035949636 -0.048070453 -0.1509823 -0.21769595 0.011792894
-0.033255514 0.038099635 0.014559096 -0.015056519 0.09098117 -0.111618415 -0.1034813 0.09510545
0.02382565 0.03761528 -0.045507807 0.15334085 0.004097939 -0.021843735 -0.14222354 -0.10202511
0.019223867 -0.098319314 0.09347103 -0.10110588 -0.062239077 -0.10733702 0.04624279 -0.114187256
0.18121219 -0.04402729 0.059447955 0.14908451 -0.04116421 0.05900595 0.10063945 -0.086461
-0.20102562 0.08886635 -0.025823407 -0.035571378 0.039456494 -0.15905318 -0.04541426 -0.029984461
-0.08098957 0.0049898103 -0.012618918 0.06716328 0.06345615 -0.15892683 0.08986062 0.037656758
-0.13954656 0.02655502 -0.18828376 0.11176349 -0.052824814 0.05955658 -0.06049715 -0.22827001
-0.1791668 0.0097601935 0.107086144 -0.16710949 -0.14525405 -0.024847116 -0.009637001 -0.1953053
0.068375126 -0.2118358 0.022407643 0.09004124 -0.046228904 -0.09282022 0.09531405 0.09598872
0.09124803 -0.060057722 -0.046722975 -0.01472521 -0.0937323 -0.12531497 -0.11530168 -0.06531762
0.05036804 0.07448518 -0.016834244 -0.062039793 -0.06707605 -0.15221412 0.044712782 0.08019946
-0.13655962 0.066552095 -0.060675565 -0.071456894 -0.17160797 -0.11824075 -0.11748812 -0.085231446
0.029144539 -0.08951615 -0.060665857 -0.14824805 -0.20237736 0.078568906 0.0029324966 -0.11953504
00000000: 692c 73bd 2765 c2bd d1bf 343e 2f6c c5bd
00000010: 1a09 dfbd d94c c53b 6b40 c43d 15ce f5bc
00000020: b48c a7bd 4883 debd 6b94 8ebc 7b91 83bd
00000030: 2651 11be 23e3 0abe cadf ca3d e3b6 14be
00000040: bda6 d5bd 7c7b 2b3a 5895 1d3c ed3f 133d
00000050: 86e5 44bd 1b9b 1abe b0eb 5ebe fc36 413c
00000060: ef36 08bd 5d0e 1c3d 4689 6e3c 9eaf 76bc
00000070: 5654 ba3d 3298 e4bd 01ee d3bd a5c6 c23d
00000080: 022e c33c 7b12 1a3d 6566 3abd 6205 1d3e
00000090: 0148 863b a2f1 b2bc 0ca3 11be 8af2 d0bd
000000a0: 5f7b 9d3c a35b c9bd bd6d bf3d 9a10 cfbd
000000b0: 67ee 7ebd 83d3 dbbd 1469 3d3d 02db e9bd
000000c0: b08f 393e f655 34bd b37f 733d 9ca9 183e
000000d0: cd9b 28bd 39b0 713d 0e1c ce3d 7712 b1bd
000000e0: a9d9 4dbe 90ff b53d 9c8b d3bc 4bb3 11bd
000000f0: 229d 213d d6de 22be 4e04 3abd f9a1 f5bc
00000100: dcdd a5bd 9081 a33b 94bf 4ebc e78c 893d
00000110: 4cf5 813d b7bd 22be d808 b83d f93d 1a3d
00000120: 4be5 0ebe ea89 d93c 75cd 40be 42e4 e43d
00000130: d55e 58bd 9af1 733d dccb 77bd 9dbf 69be
00000140: 8077 37be 38e9 1f3c fb4f db3d c01e 2bbe
00000150: 7abd 14be 2e8c cbbc 83e4 1dbc 1dfe 47be
00000160: 4208 8c3d 7ceb 58be 3c90 b73c 8b67 b83d
00000170: 855a 3dbd 8718 bebd 0334 c33d bc95 c43d
00000180: 3fe0 ba3d 16ff 75bd 9760 3fbd 0242 71bc
00000190: b8f6 bfbd 9152 00be 4a23 ecbd 3fc5 85bd
000001a0: b84e 4e3d b08b 983d f8e7 89bc 701d 7ebd
000001b0: 2b5f 89bd 05de 1bbe c024 373d 9d3f a43d
000001c0: 49d6 0bbe 774c 883d f186 78bd fe57 92bd
000001d0: 00ba 2fbe 3528 f2bd 9d9d f0bd d38d aebd
000001e0: 87c0 ee3c 3e54 b7bd c37c 78bd 56ce 17be
000001f0: 033c 4fbe bce8 a03d 212f 403b c9ce f4bd

actor.2.weight f4 [128, 128]
0.14507882 0.04954708 -0.00611412 0.032389607 0.05204607 -0.15464218 0.06754666 0.10535756
0.00977226 -0.043290824 0.013569671 0.0017537693 0.018350372 -0.100575306 0.08757605 0.00012975546
-0.010115054 -0.06436014 0.120797224 -0.13496658 -0.058005273 -0.106470756 0.10865144 -0.070294134
-0.0049867113 -0.030610394 0.09953254 -0.14867544 -0.08524196 -0.15116833 -0.041471425 -0.1378034
-0.030604875 0.05216062 0.007489221 -0.0057254736 -0.066725425 -0.12553166 -0.035292197 0.12782913
0.010853718 0.019241318 -0.051921766 0.09269411 0.09264152 0.02390106 0.101549 0.003950395
-0.02792293 0.033465087 -0.15511623 0.069537744 -0.08759872 -0.072983816 -0.013589422 -0.12304836
-0.10492534 0.10943443 -0.048904337 0.048078313 0.011472596 0.14274989 -0.07278408 -0.11293791
0.13367237 -0.13464065 -0.15776941 -0.047404084 0.0781448 0.059782613 -0.1147074 -0.1467416
0.04083476 -0.10701392 0.077115305 -0.0561749 -0.07178982 -0.039983034 0.113412 -0.099414274
-0.12485583 0.044573914 0.03772719 -0.025707515 0.084883474 -0.04733312 -0.08605871 -0.12645143
-0.08442455 -0.101446316 0.035490308 -0.042227976 0.10662383 -0.07985997 0.07461832 0.10090728
-0.048629332 -0.095109686 0.06902314 -0.16229866 0.0922877 0.10891385 -0.019105261 -0.103740185
0.020037366 0.08824153 0.013110803 0.02591752 0.058595 0.07812131 0.011829953 -0.092929415
-0.009791524 -0.07230051 0.063341945 -0.089083195 0.12666422 0.05805364 -0.14949913 -0.06486885
-0.04652439 -0.054547176 -0.012817011 -0.082646325 0.10142218 0.062232647 -0.023721863 -0.07587467
-0.052556954 -0.054268003 -0.089339495 0.22197677 -0.014043532 -0.080349244 0.0046436186 0.020757489
0.10502465 0.08423269 0.17173581 -0.009834841 -0.11761173 -0.07904723 -0.21294005 -0.08484234
-0.016788695 -0.05411912 -0.08561614 0.11493397 0.1335767 0.06820189 -0.22418149 0.14224067
-0.0016344142 0.0774236 -0.026054863 -0.10629133 0.10121219 -0.07426441 -0.4277112 -0.14525594
-0.0942883 0.31612173 -0.16947573 0.08447173 -0.05165027 0.121040404 0.06433701 0.08935818
-0.124457665 0.047756687 0.120366916 -0.12257535 0.01768532 -0.3336298 0.19083762 -0.31329983
0.009973826 0.16965 -0.032111786 -0.13868985 0.179451 -0.019451732 -0.25683665 0.16029994
-0.34787178 -0.020595234 0.12844276 -0.1331118 -0.23426425 -0.20786862 0.13764372 -0.057463188
0.113513276 0.032455575 -0.30318132 0.080941856 -0.044180337 -0.24035224 0.0904937 -0.10684704
-0.12475639 -0.3385807 -0.17897534 -0.019204428 0.16155933 0.019393826 0.009851763 -0.2505706
0.09124689 0.09611464 0.024205266 0.15298943 -0.01826798 0.037626144 -0.13832524 -0.17444044
0.15665752 -0.037759677 -0.046377927 -0.014186493 0.11369708 -0.006776622 0.031012297 -0.0664336
-0.08391742 0.006581923 -0.21386705 -0.06906755 -0.028811574 0.12969396 0.11500189 0.010654125
0.032845076 -0.072702095 -0.16858803 0.015068799 0.17203073 -0.12395896 -0.11899504 -0.12536088
0.02812719 -0.13463266 0.12626669 -0.12096089 -0.3099717 -0.16873129 -0.046147965 0.15820394
0.10439137 0.13513751 -0.09344058 -0.0033177324 0.018611412 -0.384563 0.09395358 -0.13541035
00000000: 8b8f 143e e1f1 4a3d f558 c8bb f7aa 043d
00000010: 432e 553d 855a 1ebe e755 8a3d b4c5 d73d
00000020: d41b 203c b851 31bd 5353 5e3c bcde e53a
00000030: 8553 963c 6dfa cdbd 125b b33d f70e 0839
00000040: 9db9 25bc 40cf 83bd 8964 f73d ae34 0abe
00000050: f096 6dbd 570d dabd a584 de3d 5ff6 8fbd
00000060: 9167 a3bb a6c2 fabc b7d7 cb3d 603e 18be
00000070: 5693 aebd dfcb 1abe f1dd 29bd 561c 0dbe
00000080: 13b7 fabc 60a6 553d 2468 f53b c19c bbbb
00000090: 57a7 88bd 5f8b 00be 8d8e 10bd a4e5 023e
000000a0: cbd3 313c f89f 9d3c ebab 54bd 69d6 bd3d
000000b0: d6ba bd3d 28cc c33c ecf8 cf3d 5172 813b
000000c0: a1be e4bc b012 093d cad6 1ebe ce69 8e3d
000000d0: f566 b3bd 8a78 95bd 2ba6 5ebc c700 fcbd
000000e0: 19e3 d6bd 291f e03d ea4f 48bd c4ed 443d
000000f0: 8ef7 3b3c 072d 123e d20f 95bd fe4b e7bd
00000100: 69e1 083e 3ddf 09be 4e8e 21be c92a 42bd
00000110: 620a a03d 9dde 743d b7eb eabd 6e43 16be
00000120: 5942 273d 1d2a dbbd a1ee 9d3d a717 66bd
00000130: 8b06 93bd 40c5 23bd 8d44 e83d b699 cbbd
00000140: 6ab4 ffbd 2393 363d d387 1a3d 9198 d2bc
00000150: 63d7 ad3d 60e0 41bd 8d3f b0bd 7c7c 01be
00000160: c7e6 acbd 16c3 cfbd 495e 113d 3ef7 2cbd
00000170: 985d da3d a08d a3bd 7dd1 983d 7aa8 ce3d
00000180: 8d2f 47bd dec8 c2bd 015c 8d3d 9f31 26be
00000190: 5501 bd3d 390e df3d a382 9cbc bc75 d4bd
000001a0: 6725 a43c fab7 b43d b2ce 563c fb50 d43c
000001b0: 5001 703d 11fe 9f3d 6bd2 413c c751 bebd
000001c0: a16c 20bc 4a12 94bd 6cb9 813d 4071 b6bd
000001d0: 44b4 013e a7c9 6d3d 4d16 19be f6d9 84bd
000001e0: 5c90 3ebd dc6c 5fbd 71fe 51bc 7a42 a9bd
000001f0: 6fb6 cf3d a9e7 7e3d 5a54 c2bc 2e64 9bbd
00000200: f645 57bd 2048 5ebd a0f7 b6bd e14d 633e
00000210: d816 66bc 258e a4bd 7f29 983b 9c0b aa3c
00000220: 2a17 d73d 3082 ac3d 83db 2f3e 5022 21bc
00000230: 6bde f0bd 84e3 a1bd f50c 5abe d2c1 adbd
00000240: 7288 89bc 03ac 5dbd 8457 afbd 8062 eb3d
00000250: 55c8 083e 6fad 8b3d d58f 65be 8aa7 113e
00000260: d739 d6ba 4490 9e3d 0271 d5bc 45af d9bd
00000270: 5648 cf3d f017 98bd f6fc dabe f9bd 14be
00000280: 391a c1bd b5da a13e 0c8b 2dbe 84ff ac3d
00000290: 3c8f 53bd 08e4 f73d 1fc3 833d 6c01 b73d
000002a0: a9e3 febd 849c 433d ee82 f63d c908 fbbd
000002b0: cee0 903c 86d1 aabe f06a 433e d668 a0be
000002c0: 4269 233c bbb8 2d3e a687 03bd b604 0ebe
000002d0: 01c2 373e 3d59 9fbc 1880 83be ab25 243e
000002e0: 401c b2be 56b7 a8bc 8086 033e 764e 08be
000002f0: f8e2 6fbe 83db 54be 7af2 0c3e 855e 6bbd
00000300: a679 e83d 23f0 043d 953a 9bbe d8c4 a53d
00000310: 71f6 34bd e61e 76be c354 b93d 9fd2 dabd
00000320: 4780 ffbd 735a adbe 5045 37be 9b52 9dbc
00000330: cf6f 253e cddf 9e3c 4a69 213c ca4a 80be
00000340: a6df ba3d c1d7 c43d 1f4a c63c 43a9 1c3e
00000350: bba6 95bc df1d 1a3d 22a5 0dbe 84a0 32be
00000360: d46a 203e e4a9 1abd c8f6 3dbd 776e 68bc
00000370: 04da e83d 6d0e debb 800d fe3c 570e 88bd
00000380: e5dc abbd 2cad d73b f7ff 5abe 4a73 8dbd
00000390: 4006 ecbc 7ece 043e 1c86 eb3d a48e 2e3c
000003a0: 8f88 063d d6e4 94bd 57a2 2cbe 20e3 763c
000003b0: d328 303e 32de fdbd acb3 f3bd 9a5e 00be
000003c0: fe6a e63c 25dd 09be 0e4c 013e 58ba f7bd
000003d0: 9cb4 9ebe e5c7 2cbe a605 3dbd 3700 223e
000003e0: 25cb d53d 7d61 0a3e c65d bfbd 506e 59bb
000003f0: f676 983c 71e5 c4be bc6a c03d 03a9 0abe

actor.2.bias f4 [128]
-0.015255037 -0.050496697 -0.03053337 0.045375586 -0.029178385 -0.00950685 0.07912374 0.057552364
-0.007249211 -0.006085384 -0.02254474 0.100823015 0.12039221 -0.009812807 0.007869446 0.029663783
0.11218385 -0.036970243 -0.0539206 0.02358135 -0.0892846 -0.018258361 0.06256037 0.0008074705
-0.06491355 0.074718885 -0.0077917557 -0.009421495 0.055180598 -0.04901817 0.07240127 0.09175811
-0.07867491 -0.06970225 0.025428114 -0.10491442 -0.09216993 0.0047930796 -0.038121093 0.020163888
0.019295484 0.018342946 -0.02713326 -0.023560842 0.06805724 0.11111379 0.12369725 0.07118013
-0.015005059 0.05374906 0.038105447 -0.011171221 -0.06897948 0.10725353 0.044525117 0.059635915
0.02667384 -0.036758784 0.07775276 -0.011489148 -0.054015085 -0.08130686 -0.14472744 -0.02409127
0.12127191 0.029766355 -0.015927168 -0.030514779 0.015708046 0.007845249 -0.06520264 0.0677191
-0.06520364 0.06956419 0.02063415 0.08583943 0.07395022 -0.0094854245 0.05408906 0.03937099
-0.05268673 -0.0047199004 0.102226 -0.062492605 -0.08222496 0.058787182 -0.022906626 0.062788405
-0.0078131175 0.06662818 -0.016472366 -0.05206128 -0.037972298 -0.11399691 0.051317815 0.03431982
-0.08776722 0.08068656 0.10623031 0.0073933653 0.05885999 0.07818068 0.068617575 -0.010644729
0.012640072 0.0070677088 -0.035826266 0.045959327 -0.015039819 -0.08743157 -0.014120756 0.04796098
0.022724682 0.08357881 -0.02944409 -0.021128498 0.0 -0.0442634 -0.017905887 0.064678006
0.046091072 0.0850951 0.008695138 0.027419753 0.07684362 0.028280294 -0.02033354 -0.023966994
00000000: 43f0 79bc a0d5 4ebd 1e21 fabc c0db 393d
00000010: 8207 efbc 9ec2 1bbc a10b a23d 07bc 6b3d
00000020: ca8a edbb e767 c7bb bfaf b8bc 4c7c ce3d
00000030: 3190 f63d e5c5 20bc d9ee 003c 7601 f33c
00000040: a5c0 e53d 1c6e 17bd d9db 5cbd ad2d c13c
00000050: d8da b6bd 8f92 95bc a71f 803d 6eac 533a
00000060: 65f1 84bd 3706 993d fc51 ffbb 9d5c 1abc
00000070: 0d05 623d 47c7 48bd 1e47 943d adeb bb3d
00000080: 5020 a1bd 0ec0 8ebd 9f4e d03c 5fdd d6bd
00000090: 97c3 bcbd 440f 9d3b dd24 1cbd bd2e a53c
000000a0: 9011 9e3c f243 963c 9246 debc ab02 c1bc
000000b0: 9861 8b3d a08f e33d fc54 fd3d e3c6 913d
000000c0: c7d7 75bc f927 5c3d 7514 1c3d 7f07 37bc
000000d0: 1d45 8dbd bda7 db3d f85f 363d ca44 743d
000000e0: 1983 da3c 6190 16bd d73c 9f3d fb3c 3cbc
000000f0: ec3e 5dbd 3684 a6bd 6e33 14be 0e5b c5bc
00000100: 685d f83d 92d8 f33c b179 82bc 21fa f9bc
00000110: 29ae 803c 5c89 003c f688 85bd 50b0 8a3d
00000120: 7c89 85bd ac77 8e3d f308 a93c 95cc af3d
00000130: 3773 973d c168 1bbc 7d8c 5d3d 7a43 213d
00000140: 0ace 57bd 65a9 9abb dd5b d13d 3ff8 7fbd
00000150: 8f65 a8bd d4ca 703d ada6 bbbc 3597 803d
00000160: 9702 00bc 5b74 883d 0ef1 86bc 353e 55bd
00000170: d788 1bbd 3677 e9bd a132 523d f192 0c3d
00000180: 4dbf b3bd ff3e a53d 478f d93d 0b44 f23b
00000190: 2c17 713d 311d a03d 5f87 8c3d 3b67 2ebc
000001a0: 4e18 4f3c 3d98 e73b 90be 12bd d93f 3c3d
000001b0: 9369 76bc 530f b3bd be5a 67bc bc72 443d
000001c0: 1d29 ba3c 5e2b ab3d bb34 f1bc ac15 adbc
000001d0: 0000 0000 8a4d 35bd 5eaf 92bc e775 843d
000001e0: fec9 3c3d 5746 ae3d 0d76 0e3c 649f e03c
000001f0: 3060 9d3d 13ac e73c 8692 a6bc 6e56 c4bc

actor.4.weight f4 [2, 128]
-0.110802956 -0.22394097 0.022975948 -0.34819457 0.07054621 -0.05036335 -0.60643184 -0.2757078
-0.14461304 0.15346332 -0.40921038 0.37251624 0.19821456 -0.0056165196 0.121699296 -0.20530175
-0.6632942 0.16312078 0.46244118 0.67829674 -0.87473863 -0.5126449 0.32061803 0.53543174
-0.8261525 0.16730203 -0.26016253 -0.028197702 0.07496727 -0.59195673 0.34233665 -0.1584963
0.33492687 -0.21280633 -0.1580092 -0.02346857 0.4298369 0.9974024 0.22098818 -0.5764737
0.16392627 -0.1927341 -0.42821702 -0.045675233 -0.62125343 -0.24135652 0.11589798 0.51836383
-0.16293451 0.020659756 0.70276165 -0.3173258 -0.08806747 -0.20900238 -0.65988666 0.15347978
0.25758648 0.42247987 -0.1551471 -0.32144544 0.09341209 -0.22625127 -0.580766 0.15611719
0.34785324 -0.1401662 -0.150611 0.30856967 0.64379835 -0.6520697 -0.23617879 -0.40617123
-0.027702702 0.58758104 -0.2598721 -0.28323677 -0.36142623 0.06436165 0.49032974 0.01883864
0.4492846 0.16003403 0.24528524 -0.18270938 -0.53389 0.56315064 -0.31835172 -0.6281155
0.058731534 -0.34605703 0.053605355 0.23629811 0.39067608 -0.456072 0.07708459 -0.005499084
-0.3065765 -0.18137686 0.78916854 -0.70355564 0.61066467 -0.14398532 0.08512502 -0.25333768
0.12232194 -0.18667784 -0.020772513 0.6821777 0.012638071 0.37494197 -0.126394 0.093930006
-0.594038 0.44381848 -0.030990642 -0.00313208 0.018356105 -0.17913862 0.036154117 -0.17639291
0.37278575 0.40563646 -0.08803319 0.18225262 0.25743353 0.82636416 -0.15666245 -0.31325418
0.14998177 -0.038532842 0.16043606 0.07371639 0.16811204 0.033899013 -0.05734986 -0.16167556
0.18534732 -0.14629415 -0.005478147 -0.08510722 -0.262194 0.039075997 -0.14518759 -0.24298087
-0.059629977 0.17732637 0.027174208 -0.10982465 -0.052093234 -0.08549627 0.14983994 0.0425474
-0.0520095 -0.20198259 0.09821993 -0.14018886 -0.17785712 0.10616522 0.068858586 0.00021783117
0.13290243 0.100842245 0.17919773 0.19580327 0.0038131138 0.070422545 -0.33439925 -0.16080034
-0.19980086 -0.095635 0.18381709 0.02740413 -0.039728764 -0.051739052 -0.101037346 -0.16389172
0.18493211 -0.11979716 -0.018070126 -0.01635312 0.18348053 -0.13820991 -0.12712276 -0.11776409
-0.07866208 -0.106047854 -0.17277007 -0.04129954 0.0518368 0.074750595 0.083452694 -0.073763
-0.17304046 -0.22792856 0.0018097047 0.019174894 0.052456222 0.10668207 0.23356032 0.19199592
0.20573717 -0.026102029 0.058142245 -0.046296988 -0.27277717 0.071991675 0.15530427 -0.06548128
0.14992055 -0.14418587 -0.124226145 0.118583456 -0.1385871 0.1167254 0.0615482 -0.0065507526
-0.049555443 -0.27497527 0.19091022 -0.029513773 0.08308723 0.0015639795 -0.11244608 -0.20863013
0.21021177 -0.22408319 -0.093290664 0.05015309 -0.021566002 -0.028202044 -0.12488124 -0.18667029
-0.04161455 0.07951745 0.045254115 0.104467504 0.15064834 -0.003287863 -0.038434803 -0.1134718
-0.16618416 0.030876428 0.054678082 0.14883818 0.19214131 0.0719546 -0.18031533 -0.08579179
0.023284629 0.17324138 -0.06193558 -0.35789242 0.04125667 -0.0145467315 -0.20037381 0.26529068
00000000: a9ec e2bd c850 65be 0e38 bc3c 8f46 b2be
00000010: 887a 903d cd49 4ebd 1e3f 1bbf 9329 8dbe
00000020: 7115 14be 7d25 1d3e 0684 d1be 73ba be3e
00000030: c2f8 4a3e c80a b8bb 7b3d f93d 9f3a 52be
00000040: a6cd 29bf 2209 273e 17c5 ec3e dba4 2d3f
00000050: dfee 5fbf b23c 03bf 0c28 a43e 0e12 093f
00000060: bb7e 53bf 3951 2b3e 0634 85be defe e6bc
00000070: 7188 993d 7a8a 17bf c046 af3e db4c 22be
00000080: 897b ab3e e7e9 59be 2acd 21be 2941 c0bc
00000090: 9513 dc3e c455 7f3f ba4a 623e c893 13bf
000000a0: 4adc 273e 175c 45be 433f dbbe f415 3bbd
000000b0: 770a 1fbf 2a26 77be ec5b ed3d 7eb3 043f
000000c0: 4ed8 26be a63e a93c 30e8 333f 8778 a2be
000000d0: b85c b4bd b804 56be 55ee 28bf ce29 1d3e
000000e0: 60e2 833e 484f d83e e2de 1ebe 7f94 a4be
000000f0: d64e bf3d 6aae 67be 15ad 14bf 2fdd 1f3e
00000100: d219 b23e ba87 0fbe c539 1abe d8fc 9d3e
00000110: f8cf 243f 0aee 26bf dad8 71be adf5 cfbe
00000120: c7f0 e2bc b66b 163f f50d 85be 6904 91be
00000130: dc0c b9be 0ad0 833d 800c fb3e 7e53 9a3c
00000140: a208 e63e f6df 233e 0e2c 7b3e 2b18 3bbe
00000150: 04ad 08bf a42a 103f fffe a2be 2dcc 20bf
00000160: 7a90 703d 632e b1be 4a91 5b3d 22f8 713e
00000170: b206 c83e 4582 e9be 87de 9d3d a931 b4bb
00000180: 98f7 9cbe dbba 39be f306 4a3f 391c 34bf
00000190: 8554 1c3f e370 13be 0756 ae3d 7ab5 81be
000001a0: ed83 fa3d 7a28 3fbe 1e2b aabc 33a3 2e3f
000001b0: e90f 4f3c 65f8 bf3e 6e6d 01be 605e c03d
000001c0: e012 18bf 2d3c e33e 16e0 fdbc 9543 4dbb
000001d0: 8b5f 963c 1d70 37be 5716 143d 58a0 34be
000001e0: c6dd be3e 95af cf3e bf4a b4bd 6ea0 3a3e
000001f0: 54ce 833e 9a8c 533f 1f6c 20be da62 a0be
00000200: d294 193e 9dd4 1dbd 5a49 243e 9ef8 963d
00000210: 9025 2c3e b1d9 0a3d b0e7 6abd 478e 25be
00000220: b0cb 3d3e 22ce 15be 0782 b3bb b24c aebd
00000230: 4b3e 86be 270e 203d 0eac 14be facf 78be
00000240: 903e 74bd 0b95 353e 729c de3c bfeb e0bd
00000250: b75f 55bd ab18 afbd a46f 193e 2f46 2e3d
00000260: ea07 55bd 86d4 4ebe 8827 c93d ab8d 0fbe
00000270: 2d20 36be 276d d93d bb05 8d3d 9c69 6439
00000280: 9317 083e 6186 ce3d 9c7f 373e a780 483e
00000290: 6fe5 793b b239 903d 6136 abbe d8a8 24be
000002a0: 9998 4cbe 48dc c3bd 8c3a 3c3e a07e e03c
000002b0: a1ba 22bd 54ec 53bd abec cebd 3bd3 27be
000002c0: d85e 3d3e 3758 f5bd cd07 94bc faf6 85bc
000002d0: 52e2 3b3e e686 0dbe 782c 02be 4d2e f1bd
000002e0: 9619 a1bd 9e2f d9bd a3ea 30be b529 29bd
000002f0: d352 543d d716 993d 3fe9 aa3d 0e11 97bd
00000300: 8531 31be 1b66 69be 9d33 ed3a ab14 9d3c
00000310: 56dc 563d 217c da3d 702a 6f3e 949a 443e
00000320: c4ac 523e ecd3 d5bc 9026 6e3d e9a1 3dbd
00000330: 73a9 8bbe 5f70 933d 1508 1f3e 0d1b 86bd
00000340: c684 193e 76a5 13be 476a febd e2db f23d
00000350: c7e9 0dbe ba0d ef3d f719 7c3d b2a7 d6bb
00000360: a6fa 4abd 8fc9 8cbe f87d 433e dec6 f1bc
00000370: a329 aa3d 72fe cc3a 214a e6bd 23a3 55be
00000380: c141 573e 1076 65be 2d0f bfbd 546d 4d3d
00000390: 2fab b0bc f907 e7bc bcc1 ffbd 7f26 3fbe
000003a0: 0574 2abd 0bda a23d 615c 393d 0ff3 d53d
000003b0: 8f43 1a3e 3079 57bb d06d 1dbd e763 e8bd
000003c0: 2e2c 2abe 90f0 fc3c 20f6 5f3d 0969 183e
000003d0: b1c0 443e ef5c 933d 95a4 38be 9bb3 afbd
000003e0: 68bf be3c 3066 313e 2ab0 7dbd ad3d b7be
000003f0: c1fc 283d 6a55 6ebc cb2e 4dbe 2ed4 873e

actor.4.bias f4 [2]
0.00081427395 -0.08566798
00000000: 0075 553a b272 afbd

q1.0.weight f4 [128, 4]
0.21095137 -0.13366859 0.10259122 0.107138336 0.16090497 0.33029556 0.082887545 0.023704078
-0.42790368 0.1233309 0.12440844 0.036970053 0.3701075 -0.4180045 -0.14162873 -0.050944086
-0.32704422 0.17961608 -0.033986077 -0.046727076 -0.024660513 -0.011935147 -0.0012921165 0.15194629
-0.14233233 0.08486585 0.014185645 0.14945309 0.017906794 0.075308934 -0.16173264 0.08413822
0.29677948 0.2555444 -0.02467529 0.05035631 0.32984766 -0.23115215 -0.011816267 0.009012536
0.003072179 0.6650231 0.10949428 0.038018364 0.28316203 0.14776564 0.12265318 0.034523495
0.36276704 0.020906204 0.04369996 0.008595915 -0.09543009 0.4840588 0.103166446 0.031596273
0.08845695 -0.065666355 -0.15741973 -0.07862712 -0.0097339675 -0.21499103 -0.12899666 -0.021079713
0.28714702 -0.037959766 0.11052778 0.057743147 0.34840155 0.152409 0.1344978 0.06290487
-0.16591245 0.012789788 0.09372623 -0.016227102 -0.24908952 0.13525446 -0.07299347 -0.1612077
-0.0009602056 -0.016097505 -0.059646785 -0.20670606 -0.15924533 -0.0951453 0.12544435 -0.049873214
-0.24735485 0.5187988 0.09790663 0.041836932 -0.13164695 -0.37182108 -0.08671242 -0.02799774
-0.14090434 -0.0021594737 0.015654633 -0.05565407 -0.0036338214 0.22390677 0.14429992 -0.09254754
-0.18703407 0.28227437 0.008911238 0.008267299 0.4780336 0.4571555 0.15987122 0.042127702
0.10439228 0.15405394 -0.093263984 -0.0040163184 0.21363275 0.2391647 0.009819268 -0.008042352
-0.28276345 0.060183465 -0.06968681 0.02959028 0.23248373 0.3534828 0.10443716 0.03283859
0.1619364 -0.36053222 0.082262464 0.18649079 0.31714505 0.12395971 -0.14342742 -0.039818436
0.14631721 0.09979473 -0.14015606 0.038820595 0.3301803 0.20482306 0.13119005 0.044793513
-0.3110531 -0.5018347 -0.13505173 -0.042145174 -0.07507271 -0.11538602 0.029740812 0.007830578
0.1984824 -0.116042994 0.096501485 -0.054206766 0.104598895 -0.10491265 -0.14415723 -0.03131636
-0.1792791 -0.09699068 -0.054137487 -0.022565903 -0.34308434 0.27183604 -0.07074794 0.12524925
-0.03837458 0.010299167 -0.041293923 0.22265783 0.41752768 0.27673972 0.15277907 0.046038393
-0.3078388 0.16380566 0.03447799 0.0138257295 -0.326423 -0.012084832 0.13078459 0.1460566
0.20414007 0.07493573 0.16258332 0.02077063 -0.12725748 0.42251885 0.15059517 0.02270745
-0.16953517 0.0015042962 -0.049734566 -0.18986568 -0.24436022 -0.242819 0.06109062 -0.09316259
0.115267724 -0.046953082 -0.11182612 -0.046579786 0.209336 0.112037495 -0.085229464 -0.12111652
0.33152157 0.448601 0.117506556 0.027738051 0.16188951 -0.023682468 0.086938046 0.029038006
0.3367193 -0.4722294 -0.13141789 -0.0414115 0.085809134 -0.4006495 -0.09247698 -0.022735411
0.09761564 0.29711443 0.066384405 0.01885065 0.11715818 0.35448378 0.063160084 0.018778443
0.15191016 -0.030232849 -0.05960502 -0.15157141 -0.011752295 -0.04173427 -0.1150908 -0.037108153
-0.14077221 0.2590824 -0.0221626 -0.04839636 0.30035824 0.2063124 -0.06095564 -0.0048618345
0.008268009 0.15939319 0.032594286 -0.16741404 -0.30824682 0.106199905 0.045230854 0.027113426
00000000: a303 583e 6be0 08be 581b d23d 586b db3d
00000010: 46c4 243e 801c a93e f2c0 a93d 0e2f c23c
00000020: 3116 dbbe e994 fc3d dac9 fe3d e96d 173d
00000030: bb7e bd3e b004 d6be 1f07 11be bfaa 50bd
00000040: 5772 a7be 47ed 373e fc34 0bbd e464 3fbd
00000050: d804 cabc a38b 43bc 3c5c a9ba cf97 1b3e
00000060: 91bf 11be 26ce ad3d e86a 683c 3b0a 193e
00000070: 45b1 923c 923b 9a3d 3e9d 25be a950 ac3d
00000080: 7bf3 973e b7d6 823e d523 cabc 6b42 4e3d
00000090: cbe1 a83e 26b3 6cbe 0499 41bc 51a9 133c
000000a0: 9c56 493b f43e 2a3f 893e e03d 25b9 1b3d
000000b0: 9dfa 903e e04f 173e 9731 fb3d 8268 0d3d
000000c0: 9abc b93e 7d43 ab3c bbfe 323d e1d5 0c3c
000000d0: da70 c3bd 8ed6 f73e ee48 d33d 186b 013d
000000e0: eb28 b53d 157c 86bd a332 21be 4107 a1bd
000000f0: 387b 1fbc 9c26 5cbe b317 04be 5daf acbc
00000100: ef04 933e b37b 1bbd 645c e23d 1484 6c3d
00000110: b061 b23e 1b11 1c3e cbb9 093e 45d4 803d
00000120: f4e4 29be 428c 513c 8af3 bf3d b3ee 84bc
00000130: 5311 7fbe 2580 0a3e 9a7d 95bd a213 25be
00000140: 4fb6 7bba eade 83bc 3050 74bd c1aa 53be
00000150: 3511 23be 8adb c2bd 7c74 003e db47 4cbd
00000160: 974a 7dbe 00d0 043f 4583 c83d 345d 2b3d
00000170: 75ce 06be 555f bebe 4896 b1bd 845b e5bc
00000180: 3a49 10be f585 0dbb 253e 803c 86f5 63bd
00000190: 6825 6ebb d147 653e 5cc3 133e 9189 bdbd
000001a0: dc85 3fbe 4486 903e 7100 123c 9173 073c
000001b0: d2c0 f43e 4910 ea3e 48b5 233e 198e 2c3d
000001c0: 9fcb d53d 51c0 1d3e 3001 bfbd 529b 83bb
000001d0: 8bc2 5a3e 97e7 743e ffe0 203c 12c4 03bc
000001e0: 5fc6 90be f082 763d f5b7 8ebd 5167 f23c
000001f0: 3710 6e3e b3fb b43e 26e3 d53d c281 063d
00000200: a8d2 253e ae97 b8be 3979 a83d 71f7 3e3e
00000210: d660 a23e 97de fd3d a3de 12be a818 23bd
00000220: 2ed4 153e 2e61 cc3d 1285 0fbe 5802 1f3d
00000230: 640d a93e 23bd 513e af56 063e 6779 373d
00000240: 5a42 9fbe 3d78 00bf 004b 0abe 6ba0 2cbd
00000250: b9bf 99bd 814f ecbd 01a3 f33c d34b 003c
00000260: f83e 4b3e f3a7 edbd 92a2 c53d ea07 5ebd
00000270: f237 d63d 72dc d6bd f49d 13be 9545 00bd
00000280: f194 37be 0da3 c6bd 45bf 5dbd 21dc b8bc
00000290: c0a8 afbe 182e 8b3e 4ce4 90bd 5741 003e
000002a0: aa2e 1dbd d6bd 283c d123 29bd 6a00 643e
000002b0: 30c6 d53e d4b0 8d3e 1e72 1c3e c192 3c3d
000002c0: 0c9d 9dbe acbc 273e cb38 0d3d 5085 623c
000002d0: ea20 a7be 76ff 45bc 65ec 053e dd8f 153e
000002e0: 180a 513e e777 993d 3e7c 263e 2b27 aa3c
000002f0: c94f 02be 6454 d83e 9f35 1a3e f904 ba3c
00000300: a19a 2dbe ce2b c53a 79b6 4bbd 266c 42be
00000310: 9139 7abe 8ba5 78be 283a 7a3d 07cc bebd
00000320: 7c11 ec3d e051 40bd 1805 e5bd 72ca 3ebd
00000330: 2d5c 563e ea73 e53d c98c aebd f00b f8bd
00000340: 32bd a93e 08af e53e 47a7 f03d e93a e33c
00000350: 5dc6 253e bc01 c2bc 930c b23d 1de1 ed3c
00000360: 7966 ac3e 0dc8 f1be 6992 06be 1b9f 29bd
00000370: b3bc af3d ee21 cdbe 9264 bdbd 9d3f babc
00000380: b5ea c73d 621f 983e 8cf4 873d ae6c 9a3c
00000390: a1f0 ef3d e67e b53e 135a 813d 40d5 993c
000003a0: 568e 1b3e e1aa f7bc 6524 74bd 8935 1bbe
000003b0: b38c 40bc 8ef1 2abd bab4 ebbd b8fe 17bd
000003c0: 9726 10be 73a6 843e 578e b5bc 433b 46bd
000003d0: 8ec8 993e 8f43 533e 9fac 79bd 0650 9fbb
000003e0: 8b76 073c f837 233e 9681 053d 966e 2bbe
000003f0: 87d2 9dbe 567f d93d fd43 393d fa1c de3c

q1.0.bias f4 [128]
-0.05032144 -0.05979883 -0.04288419 -0.17587477 0.04579779 -0.033477377 0.00029327604 -0.044304863
0.0040738247 0.08021178 -0.009532378 -0.341482 0.08785009 -0.04472392 -0.112842254 -0.081751876
-0.15176791 -0.1769275 -0.122144915 -0.055248473 -0.0663432 -0.14540195 0.13756014 0.022130124
-0.04943336 -0.121560074 0.063090436 -0.20749307 -0.1337404 0.11714604 -0.0066503044 -0.12932275
0.036946427 -0.28062758 0.07369467 -0.31887388 0.15032697 0.01758002 0.08030897 -0.07399125
0.13568965 0.07493736 -0.09887635 -0.32785225 0.04188581 0.054396354 -0.22355314 -0.14256962
-0.011096049 0.0704547 -0.026419377 -0.17758629 -0.10512982 -0.12784742 -0.14779711 -0.17926122
-0.076601006 -0.063333094 -0.062653095 -0.11276199 0.09821139 0.009602485 -0.028814545 0.014561207
-0.06017675 -0.11807135 -0.087919176 -0.048297964 0.013639568 -0.040958673 0.06533814 0.053516608
-0.16694339 -0.024881557 0.114273146 0.03659182 -0.055974532 0.010710419 -0.2116159 -0.13832851
-0.17456922 0.0529138 0.16221802 -0.20830916 -0.028421408 -0.018679734 -0.11477681 -0.117469944
-0.013716387 -0.18125923 0.066087626 -0.30627862 0.12522031 -0.11043787 0.031057926 -0.09226438
0.21854 0.04924778 0.07810855 -0.017850123 0.061346952 0.1851463 0.008752061 0.075340874
-0.21202171 -0.34067398 0.025242135 -0.024847426 -0.117838405 0.043862898 -0.0975125 0.037066914
0.039143678 0.047786176 -0.032435715 -0.013919648 0.0861024 -0.00621803 0.08184338 -0.014439257
-0.18059245 -0.09149606 0.09849207 -0.007729713 -0.10591958 0.026805181 -0.15916346 0.05923207
00000000: db1d 4ebd 9eef 74bd 55a7 2fbd 8418 34be
00000010: 7796 3b3d 931f 09bd d8c2 9939 0479 35bd
00000020: b87d 853b 1346 a43d b12d 1cbc bbd6 aebe
00000030: bfea b33d 6e30 37bd d719 e7bd 876d a7bd
00000040: 0c69 1bbe 7c2c 35be 1d27 fabd 394c 62bd
00000050: f2de 87bd 40e4 14be 91dc 0c3e 3c4a b53c
00000060: a37a 4abd 7df4 f8bd 8f35 813d 1079 54be
00000070: 3ef3 08be 43ea ef3d ccea d9bb 2f6d 04be
00000080: 2355 173d 6bae 8fbe 3bed 963d 7043 a3be
00000090: 50ef 193e f903 903c 0779 a43d b988 97bd
000000a0: 3af2 0a3e c278 993d af7f cabd 40dc a7be
000000b0: 7590 2b3d b6ce 5e3d 1deb 64be c5fd 11be
000000c0: 34cc 35bc 8e4a 903d 736d d8bc 2ed9 35be
000000d0: 4e4e d7bd 6fea 02be 2058 17be 4190 37be
000000e0: fde0 9cbd c8b4 81bd 4450 80bd c2ef e6bd
000000f0: 0e23 c93d be53 1d3c 7b0c ecbc 2192 6e3c
00000100: e57b 76bd 64cf f1bd f80e b4bd 16d4 45bd
00000110: 7f78 5f3c 48c4 27bd 01d0 853d 3b34 5b3d
00000120: 35f3 2abe 68d4 cbbc 0a08 ea3d 4ee1 153d
00000130: 8d45 65bd c17a 2f3c d7b1 58be fda5 0dbe
00000140: 46c2 32be 24bc 583d 7b1c 263e ff4e 55be
00000150: 03d4 e8bc 3e06 99bc 1b10 ebbd 1594 f0bd
00000160: b2ba 60bc 059c 39be f358 873d 8dd0 9cbe
00000170: c139 003e 402d e2bd 316d fe3c 1bf5 bcbd
00000180: f3c8 5f3e 0ab8 493d 60f7 9f3d 6c3a 92bc
00000190: f146 7b3d fe96 3d3e ce64 0f3c 514c 9a3d
000001a0: 381c 59be d26c aebe 98c8 ce3c d48c cbbc
000001b0: 4355 f1bd 95a9 333d a2b4 c7bd 7ad3 173d
000001c0: 1f55 203d 70bb 433d 50db 04bd 3c0f 64bc
000001d0: 7556 b03d 9ec0 cbbb 819d a73d a292 6cbc
000001e0: 3aed 38be 4962 bbbd 36b6 c93d 8849 fdbb
000001f0: 5dec d8bd 8a96 db3c bffb 22be 549d 723d

q1.2.weight f4 [128, 128]
-0.031027703 -0.13073544 -0.06806615 -0.016835216 0.005206267 0.0009881544 -0.021481168 0.025180342
0.17435724 0.18647274 0.035648514 -1.7639571 0.1370712 -0.17168897 0.04698665 -0.1439445
-0.006336848 0.0008997404 -0.0052744537 0.0547654 0.046943072 0.11877668 -0.02082562 -0.070643865
-0.005497111 -0.17241997 -0.009219332 -0.36358902 -0.00079356 0.053263206 0.12428139 -0.16825303
-0.18518214 0.07826798 0.042268746 -0.64423704 0.047655657 0.14952813 -0.1498957 -0.11264881
0.029401993 0.09219491 0.120226175 -0.50049245 -0.08508192 0.065065265 -0.13076106 -0.053793326
-0.11975543 -0.03862271 -0.042102855 -0.103857085 -0.21531442 -0.095736615 0.09964511 0.10102137
0.025767984 0.15136382 -0.09967357 -0.08119128 0.006377707 0.17975436 0.17370138 0.03463338
-0.07459489 -0.10073743 0.14758907 -0.04685315 -0.007852709 0.1049729 0.08153811 -0.069511764
-0.0039167423 0.10730508 0.1809778 -0.13626692 0.07145407 -0.037717093 0.103504844 0.11484227
0.0631911 -0.037172634 -0.043326646 0.042314015 0.16545932 -0.06309596 -0.089167215 0.11963556
-0.047956944 -0.19024356 0.09337654 -0.08948077 0.18813482 -0.03350732 -0.06529208 0.011844084
0.13706173 -0.08733083 -0.00458645 0.092945874 0.14409056 0.16886266 -0.03484984 -0.008492866
-0.33936852 -0.051416237 0.07475253 0.05548594 0.005588296 -0.041910317 0.015019115 -0.11375389
0.12582633 -0.0510147 0.042003434 0.12046081 0.067167796 0.077770494 0.16121136 -0.059925437
-0.10334097 0.0468233 0.16759221 -0.0765403 0.13114409 0.060138103 -0.015527273 0.015728375
0.124244094 -0.13087519 0.005123611 0.07363963 -0.14459506 0.1380998 -0.08481127 0.11201417
0.0071349414 -0.15131645 0.07828226 0.00948577 -0.075003974 0.065765835 0.053838808 0.054817494
0.09546192 0.051555138 0.06933997 -0.0032997692 -0.05803452 -0.18118629 0.089992635 0.10285729
-0.16875966 -0.023761485 -0.16029815 0.09347911 -0.0028537626 -0.01529699 -0.16124445 0.05202288
-0.11200837 0.14999507 -0.032292973 -0.08264599 -0.11756744 -0.008850971 0.06518235 0.15458842
-0.103462376 -0.117707625 0.10820505 -0.05511846 0.032754585 -0.07061914 -0.10993752 -0.035628725
0.084591165 0.021862973 0.026786756 0.008568266 0.030246295 0.036643326 -0.12891783 -0.17044334
-0.1473504 -0.042543963 0.003570363 -0.020866413 -0.171384 -0.14814533 -0.028964655 -0.1760915
0.054494265 0.039792374 -0.11634803 -0.01749733 -0.21674576 0.03002942 -0.018731056 0.022749178
-0.146679 -0.08469162 -0.18771893 -0.100994125 -0.027486295 -0.11597721 -0.25363716 0.080623165
-0.037013996 -0.11571909 0.05825869 -0.09041746 -0.12488807 -0.14221208 0.10512691 -0.005581884
-0.22981016 -0.04563021 -0.21198341 0.00258046 0.08686999 -0.04500979 -0.111169055 -0.002466029
0.100653134 0.029871995 -0.021495158 0.036103535 0.006830986 -0.048136387 0.0026308785 0.122866094
0.09340131 0.10836059 -0.06770018 -0.06902714 -0.15367374 0.023010027 -0.0014628593 0.015603447
-0.13023162 -0.16879337 -0.051863797 -0.032628667 -0.17986521 -0.007598911 -0.10966498 0.0012229452
0.01622117 -0.14321429 -0.024535762 -0.09845294 -0.079867415 -0.04173419 0.1279416 -0.06940249
00000000: cf2d febc 83df 05be 4466 8bbd 02ea 89bc
00000010: 5599 aa3b f684 813a 46f9 afbc 0147 ce3c
00000020: b48a 323e b6f2 3e3e 2d04 123d 59c9 e1bf
00000030: 655c 0c3e 3ccf 2fbe 1375 403d 3066 13be
00000040: 55a5 cfbb 8edc 6b3a 53d5 acbb af51 603d
00000050: 6147 403d 3041 f33d 7e9a aabc bbad 90bd
00000060: 1c21 b4bb dc8e 30be ae0c 17bc 5728 babe
00000070: e906 50ba 852a 5a3d 3e87 fe3d 864a 2cbe
00000080: 63a0 3dbe f64a a03d fe21 2d3d b8ec 24bf
00000090: 9432 433d e71d 193e 427e 19be 6bb4 e6bd
000000a0: 73dc f03c afd0 bc3d 2439 f63d 4620 00bf
000000b0: 6e3f aebd f040 853d 3ae6 05be 6456 5cbd
000000c0: 5642 f5bd d932 1ebd 0b74 2cbd 06b3 d4bd
000000d0: 627b 5cbe 8f11 c4bd bc12 cc3d 4be4 ce3d
000000e0: 6117 d33c 1eff 1a3e a821 ccbd 9d47 a6bd
000000f0: 15fc d03b 8711 383e c6de 313e bbdb 0d3d
00000100: 35c5 98bd 6d4f cebd 9721 173e 17e9 3fbd
00000110: a6a8 00bc 08fc d63d 74fd a63d 2f5c 8ebd
00000120: 0458 80bb c4c2 db3d 3f52 393e 8e89 0bbe
00000130: 8356 923d 3d7d 1abd 59fa d33d 6d32 eb3d
00000140: 566a 813d 5542 18bd 4877 31bd 7651 2d3d
00000150: 2b6e 293e 7438 81bd 4d9d b6bd 7d03 f53d
00000160: 806e 44bd 35cf 42be 333c bf3d b241 b7bd
00000170: 6aa6 403e f93e 09bd dbb7 85bd b00d 423c
00000180: e959 0c3e 82da b2bd ee49 96bb 685a be3d
00000190: 7a8c 133e 55ea 2c3e b5be 0ebd a925 0bbc
000001a0: b6c1 adbe d599 52bd db17 993d 3a45 633d
000001b0: 061e b73b 27aa 2bbd bc12 763c cdf7 e8bd
000001c0: 9ed8 003e caf4 50bd cb0b 2c3d 28b4 f63d
000001d0: 458f 893d 2346 9f3d 9714 253e 6074 75bd
000001e0: 6ea4 d3bd cac9 3f3d 4b9d 2b3e 29c1 9cbd
000001f0: a34a 063e 5f53 763d 1a66 7ebc cbd8 803c
00000200: b073 fe3d 2504 06be f7e3 a73b 60d0 963d
00000210: ba10 14be 096a 0d3e 88b1 adbd af67 e53d
00000220: 3acc e93b b3f2 1abe 7352 a03d 346a 1b3c
00000230: af9b 99bd 3db0 863d 1586 5c3d 4f88 603d
00000240: 8a81 c33d 7b2b 533d 1d02 8e3d f140 58bb
00000250: 9bb5 6dbd e688 39be 0f4e b83d d8a6 d23d
00000260: 55cf 2cbe 72a7 c2bc 3325 24be fa71 bf3d
00000270: 3106 3bbb 3aa0 7abc 441d 25be f215 553d
00000280: a564 e5bd 4f98 193e a345 04bd 4d42 a9bd
00000290: 33c7 f0bd aa03 11bc 537e 853d 6d4c 1e3e
000002a0: 15e4 d3bd b210 f1bd 9c9a dd3d e5c3 61bd
000002b0: ac29 063d c5a0 90bd ec26 e1bd 6def 11bd
000002c0: 223e ad3d fa19 b33c e66f db3c ea61 0c3c
000002d0: 14c7 f73c 5017 163d 0903 04be b388 2ebe
000002e0: 06e3 16be 9442 2ebd c0fc 693b 0af0 aabc
000002f0: 4a7f 2fbe 69b3 17be 4947 edbc 5551 34be
00000300: 6135 5f3d 54fd 223d e047 eebd 9056 8fbc
00000310: 9af2 5dbe 4200 f63c df71 99bc 7c5c ba3c
00000320: 0533 16be cd72 adbd 6439 40be 02d6 cebd
00000330: f02a e1bc 7685 edbd bbdc 81be c21d a53d
00000340: fd9b 17bd 21fe ecbd aaa0 6e3d ca2c b9bd
00000350: 51c5 ffbd 0ba0 11be c74c d73d 3de8 b6bb
00000360: 5b53 6bbe bee6 3abd 2e12 59be ef1c 293b
00000370: e5e8 b13d 305c 38bd 9aac e3bd 1a9d 21bb
00000380: 3b23 ce3d 1db6 f43c 9d16 b0bc 4de1 133d
00000390: 77d6 df3b a92a 45bd d16a 2c3b 38a1 fb3d
000003a0: 3049 bf3d 28ec dd3d 64a6 8abd 1a5e 8dbd
000003b0: a65c 1dbe 867f bc3c 6abd bfba 9aa5 7f3c
000003c0: 705b 05be 2bd8 2cbe 226f 54bd a3a5 05bd
000003d0: 962e 38be 4900 f9bb 0898 e0bd 3b4b a03a
000003e0: 42e2 843c c4a6 12be 39ff c8bc b2a1 c9bd
000003f0: 8791 a3bd 78f1 2abd 1f03 033e e522 8ebd

q1.2.bias f4 [128]
0.09472611 -0.032006066 0.085249335 0.16116348 -0.013508699 -0.074984424 -0.051093385 -0.062734164
-0.014545984 0.0058518653 0.07962326 -0.0896116 -0.011045428 -0.0022603422 0.057249215 0.11724676
0.076320246 -0.047417063 -0.03803107 -0.086759955 0.009039115 0.010228047 0.115068294 -0.05134586
0.04717523 -0.03276833 -0.035257623 -0.019567199 0.03412292 0.015713979 0.067010164 -0.054665484
0.012541776 0.07397554 0.07265725 -0.018850878 0.083057664 -0.030833837 -0.06263165 -0.0504517
-0.059114277 0.13488963 0.09478397 -0.032858934 -0.06380744 0.046106987 0.06867821 -0.005416443
-0.04091282 -0.014319793 -0.053182174 0.085495114 -0.029597841 -0.01286074 -0.024797285 -0.00846988
-0.013124064 0.07717597 0.04639451 -0.06342984 0.1164077 0.029302282 -0.07822106 -0.05038989
-0.054157697 -0.0763172 0.06390177 0.0757545 -0.021214683 0.09879675 0.010920069 -0.028305592
0.075506315 -0.046460602 -0.0035033254 0.072498254 0.0708087 -0.015126725 0.044212956 -0.04835367
0.08042913 0.08748135 0.10546842 0.0793931 0.084279716 0.1314016 -0.062223747 0.02166635
0.089425005 -0.074532084 0.045130733 0.08419566 -0.050998002 -0.03368291 0.081519976 0.09314305
-0.056139268 0.07473397 0.11666326 0.039795935 -0.10385192 -0.0067634624 -0.028320676 0.105158746
0.10560138 0.079996504 -0.010556591 0.08904172 0.09609685 0.071356036 0.09568452 0.039520178
-0.049525265 -0.09602894 0.043658454 0.01657383 -0.009396987 0.060658105 0.080057085 -0.02027587
-0.052563056 0.06419548 0.072932675 0.080340885 -0.03213509 0.107450105 0.050211426 -0.03432598
00000000: c3ff c13d cb18 03bd 3497 ae3d 0a08 253e
00000010: 9753 5dbc 6f91 99bd 4c47 51bd c57a 80bd
00000020: 4752 6ebc 01c1 bf3b 8511 a33d 4986 b7bd
00000030: e2f7 34bc 4022 14bb 277e 6a3d 121f f03d
00000040: ca4d 9c3d 6538 42bd 78c6 1bbd 34af b1bd
00000050: cc18 143c 8a93 273c eda8 eb3d 0950 52bd
00000060: d03a 413d 1638 06bd 4c6a 10bd 644b a0bc
00000070: 7ac4 0b3d 9aba 803c a03c 893d eae8 5fbd
00000080: 057c 4d3c 7d80 973d 53cd 943d 286d 9abc
00000090: 231a aa3d 3e97 fcbc 0645 80bd 71a6 4ebd
000000a0: d021 72bd 8220 0a3e 191e c23d 1797 06bd
000000b0: 7aad 82bd aeda 3c3d 29a7 8c3d 6b7c b1bb
000000c0: 3394 27bd 919d 6abc 8dd5 59bd 1018 af3d
000000d0: 2c77 f2bc dab5 52bc ad23 cbbc 40c5 0abc
000000e0: 5006 57bc 6f0e 9e3d 2b08 3e3d 81e7 81bd
000000f0: 2967 ee3d 570b f03c 5d32 a0bd a165 4ebd
00000100: 76d4 5dbd 314c 9cbd eede 823d 2d25 9b3d
00000110: 6aca adbc f355 ca3d 17ea 323c 21e1 e7bc
00000120: 0ea3 9a3d 794d 3ebd 0c98 65bb f779 943d
00000130: 2704 913d 15d6 77bc a518 353d 7f0e 46bd
00000140: 07b8 a43d 6c29 b33d d4ff d73d da98 a23d
00000150: d89a ac3d 248e 063e 54de 7ebd a17d b13c
00000160: 7524 b73d 47a4 98bd 01db 383d c66e ac3d
00000170: 48e3 50bd 17f7 09bd f2f3 a63d c9c1 be3d
00000180: 4af2 65bd 200e 993d 26ed ee3d 1001 233d
00000190: 51b0 d4bd 09a0 ddbb c300 e8bc 785d d73d
000001a0: 8945 d83d 35d5 a33d 8df5 2cbc 815b b63d
000001b0: 6dce c43d 1d23 923d 3ff6 c33d e9df 213d
000001c0: 01db 4abd d2aa c4bd 35d3 323d d7c5 873c
000001d0: d2f5 19bc a274 783d f8f4 a33d 9519 a6bc
000001e0: 5c4c 57bd eb78 833d ba5d 953d c389 a43d
000001f0: 16a0 03bd cd0e dc3d 7faa 4d3d 6699 0cbd

q1.4.weight f4 [1, 128]
-0.05841756 0.07182332 -0.34176403 -0.4354821 0.2037546 0.0043999758 0.19108595 0.20546256
0.14609079 0.41785473 -0.08015286 0.016558154 0.41186556 0.21642917 -0.2675721 -0.44994998
-0.1049723 0.24512617 0.31013602 0.16271594 0.42053774 0.31406128 -0.17938209 0.5296143
-0.019322913 0.10774291 0.13306908 -0.35024777 -0.15910622 1.1645683 -0.025812678 -0.080387644
0.049198627 -0.27168506 -0.18519294 0.21425168 1.1496351 0.2347561 0.047010213 0.10596411
0.00035366914 -0.22678812 -0.09035516 0.0989837 0.16455059 -0.16164482 -0.17287116 -0.21716097
0.04652041 0.008392501 0.16247493 -0.43873665 0.15625145 0.05212296 0.37511152 -0.15743718
0.16555735 -0.20519783 0.14839695 0.0046663424 -0.16456954 -0.24727525 0.1719704 -1.3520477
-0.018270899 0.1320345 -0.22624905 -0.065302975 0.6535446 -0.1807842 0.06531338 0.12069252
-0.15204325 0.08321159 0.33525118 -0.23675941 0.78370696 0.11119913 0.25268564 0.036586665
0.5868532 -0.1935841 -0.10071031 0.80750924 -0.17925018 0.8182451 0.18785423 0.058586672
-0.10210195 -0.4011885 -0.16922832 -0.33067715 -0.0035068486 0.06264765 -0.10833882 -0.17638187
-0.52829283 -0.044181146 -0.31746906 -0.20231469 0.07032817 -0.21880119 0.046767984 -0.14871065
-0.2627041 -0.092266575 0.10205523 -0.1350464 -0.18585743 -0.04112865 -0.21261407 0.3655536
-0.13471721 0.2931128 0.2601223 0.3448027 -0.08099487 -0.15946305 -0.15930577 -0.3282512
0.059155602 -0.02812045 -0.1901149 -0.10062134 0.121259004 -0.15598865 -0.19257422 0.09417863
00000000: 4047 6fbd 1b18 933d b2fb aebe 83f7 debe
00000010: 0ca5 503e ac2d 903b 09ac 433e c764 523e
00000020: d398 153e 0ef1 d53e 2f27 a4bd f7a4 873c
00000030: 0be0 d23e 9c9f 5d3e 36ff 88be d85f e6be
00000040: b8fb d6bd 5b02 7b3e 26ca 9e3e 029f 263e
00000050: b950 d73e a4cc a03e f0af 37be ce94 073f
00000060: 164b 9ebc 51a8 dc3d 4343 083e ad53 b3be
00000070: beec 22be 9310 953f 1c75 d3bc 47a2 a4bd
00000080: 8084 493d 4e1a 8bbe 38a3 3dbe cb64 5b3e
00000090: 3e27 933f e763 703e c88d 403d b603 d93d
000000a0: ab6c b939 253b 68be 200c b9bd f7b7 ca3d
000000b0: f37f 283e 3886 25be 2305 31be 725f 5ebe
000000c0: 2f8c 3e3d b380 093c d45f 263e 17a2 e0be
000000d0: 6100 203e e37e 553d 9e0e c03e 3637 21be
000000e0: de87 293e 611f 52be 5ff5 173e 1ee8 983b
000000f0: eb84 28be b935 7dbe 0219 303e e60f adbf
00000100: daac 95bc 0d34 073e d5ad 67be 91bd 85bd
00000110: b34e 273f 7e1f 39be 05c3 853d a42d f73d
00000120: 3ab1 1bbe d76a aa3d 0ba6 ab3e 0f71 72be
00000130: 05a1 483f 5fbc e33d 0360 813e e6db 153d
00000140: 033c 163f e93a 46be 3541 cebd edb8 4e3f
00000150: 5c8d 37be 8378 513f dc5c 403e 94f8 6f3d
00000160: d41a d1bd 9468 cdbe 304a 2dbe 844e a9be
00000170: 28d3 65bb 694d 803d bee0 ddbd 739d 34be
00000180: 333e 07bf 4af7 34bd 4e8b a2be 952b 4fbe
00000190: 3708 903d 6b0d 60be c98f 3f3d 9b47 18be
000001a0: 2781 86be 42f6 bcbd 5502 d13d 9a49 0abe
000001b0: 6951 3ebe 8476 28bd 81b7 59be d729 bb3e
000001c0: 4ff3 09be e212 963e c02e 853e fb89 b03e
000001d0: a3e0 a5bd 484a 23be 0d21 23be 8b10 a8be
000001e0: 254d 723d dc5c e6bc 7bad 42be 9012 cebd
000001f0: a456 f83d 7dbb 1fbe 2d32 45be bae0 c03d
