SAC/checkpoints/Pendulum-v1/06_last_checkpoint.pth (torch, 788418 bytes, 61 tensors)

log_alpha f8 []
0	0xc01c883339baf8e1	-7.133007909809948

actor.0.weight f4 [128, 3]
0	0x3e8fdf4b	0.28100047
1	0xbeac8823	-0.33697614
2	0xbd57ae13	-0.052656244
3	0x3e8d1847	0.27557585
4	0x3ecc7012	0.39929253
5	0x3de7bca6	0.11315279
6	0xbe2f60d1	-0.17126776
7	0xbd0891f1	-0.033342306
8	0x3e90c35c	0.28274047
9	0xbe777167	-0.24164353
10	0xbd9e8dc4	-0.077418834
11	0xbddbdb3b	-0.10735174
12	0xbdc821fc	-0.09772107
13	0x3ebe0aa1	0.37117484
14	0x3e2ead0f	0.17058204
15	0xbe117952	-0.14206436
16	0x3ed251dc	0.4107808
17	0x3d99c018	0.07507342
18	0xbe04748a	-0.12935081
19	0x3e9614d8	0.29312778
20	0x3d1b1b95	0.0378681
21	0x3e6778f5	0.22604735
22	0xbd83b789	-0.06431491
23	0x3de71a06	0.112842605
24	0xbe6c86a8	-0.23098242
25	0xbdda8bb6	-0.10671179
26	0xbe35afe6	-0.17742881
27	0x3e792822	0.24331716
28	0x3e9756da	0.2955845
29	0x3dd9fc26	0.106437966
30	0x3d18275c	0.03714691
31	0x3e87eb0a	0.26546508
32	0xbe3ab953	-0.18234758
33	0xbeb167f0	-0.3464961
34	0x3da135f9	0.078716226
35	0xbe61a361	-0.2203498
36	0xbd5de1b9	-0.054170344
37	0xbedea940	-0.43488503
38	0xbdc6e020	-0.09710717
39	0xbddd3b56	-0.10802333
40	0xbe236545	-0.159566
41	0xbdf68b23	-0.12038257
42	0xbe9d3ef7	-0.307121
43	0xbec57ec2	-0.3857327
44	0xbd9af10b	-0.075655065
45	0xbdd26416	-0.10272996
46	0x3de3c0ca	0.11120756
47	0xbe1550f2	-0.1458166
48	0xbe9bd169	-0.30433205
49	0xbe140302	-0.14454272
50	0x3e5d675e	0.21621463
51	0x3ec14066	0.37744445
52	0x3de70589	0.112803526
53	0xbd89f215	-0.067356266
54	0x3d93f64c	0.07224712
55	0x3eb6a1df	0.35670373
56	0x3d89a5c5	0.06721071
57	0xbe449c69	-0.1920029
58	0xbc3d3bec	-0.011549931
59	0x3e05849d	0.13038869
60	0x3e8ce68a	0.27519637
61	0xbe89cc54	-0.26913702
62	0xbdd22a6a	-0.10261996
63	0x3e9027ff	0.28155515
64	0x3e91da47	0.28486845
65	0x3dee10aa	0.11624272
66	0x3e538779	0.20657147
67	0xbd6ac4fd	-0.05731677
68	0xbda6a539	-0.081369825
69	0x3e0cc16c	0.1374566
70	0x3e646b3c	0.22306532
71	0xbe8976b5	-0.2684838
72	0x3e2f617c	0.17127031
73	0x3edaad3c	0.42710292
74	0x3dad2c7c	0.0845575
75	0xbe90fbbd	-0.2831706
76	0x3eb357e4	0.35027993
77	0x3d70609e	0.05868589
78	0xbe3dd540	-0.1853838
79	0x3e4d5108	0.20050442
80	0x3e2b15a7	0.16707478
81	0x3e9935d9	0.29923895
82	0xbe8cd6f8	-0.27507758
83	0x3df2f63c	0.11863372
84	0xbeb60f98	-0.35558772
85	0xbed0d9eb	-0.40791258
86	0xbe014ad8	-0.12626207
87	0x3e58866c	0.21145028
88	0x3e5b461a	0.2141346
89	0x3db4a332	0.088201895
90	0x3e8ec8f2	0.27887684
91	0xbed3b2ad	-0.41347256
92	0xbdda5c74	-0.10662165
93	0xbeb55f6c	-0.35424364
94	0xbecd447f	-0.4009132
95	0xbe009a3f	-0.1255884
96	0xbed14c44	-0.408785
97	0xbe4d5743	-0.20052819
98	0xbd9bb48c	-0.07602796
99	0xbe2f2b17	-0.17106281
100	0xbe15af34	-0.14617616
101	0xbd585e0c	-0.052824065
102	0xbdb921b6	-0.09039633
103	0xbec75fa6	-0.3894016
104	0xbdba21e0	-0.090884924
105	0xbebec69a	-0.37260896
106	0x3e4c37d7	0.19943176
107	0x3cf996b6	0.030467372
108	0xbf07d21d	-0.5305498
109	0xbb6d6846	-0.0036225482
110	0x3c02e39e	0.0079888385
111	0xbe438534	-0.19093782
112	0x3f0a0a47	0.5392193
113	0x3dc8b37c	0.09799859
114	0x3de914ca	0.11380918
115	0x3ddeade1	0.108730085
116	0x3dc26ac0	0.09493017
117	0x3e7f92c4	0.2495833
118	0x3e249b18	0.16074789
119	0x3dc622ba	0.09674592
120	0xbed46e6a	-0.4149049
121	0x3da9f1d8	0.08298081
122	0xbc0f8633	-0.008760023
123	0x3df59889	0.119919844
124	0x3eb7b103	0.35877237
125	0x3e1559ef	0.14585088
126	0xbe4b655f	-0.19862889
127	0xbd823014	-0.063568264
128	0xbdc31fdb	-0.0952756
129	0x3e82856f	0.25492427
130	0xbd38ef0d	-0.04514985
131	0xbe6a73d1	-0.22895743
132	0x3ea61f03	0.32445535
133	0xbe9fbdc0	-0.31199455
134	0xbdf99a3b	-0.1218762
135	0x3e877bd8	0.26461673
136	0xbece2491	-0.40262273
137	0xbdc76a6f	-0.097370975
138	0xbd87e582	-0.06635572
139	0x3d518e34	0.051161006
140	0xbe2643d6	-0.16236815
141	0x3e90dbe6	0.2829277
142	0xbeb05afe	-0.34444422
143	0xbde47411	-0.111549504
144	0xbeead4aa	-0.45865375
145	0xbe22606e	-0.15857098
146	0xbc6222f5	-0.01380228
147	0x3ea9749d	0.3309678
148	0xbe9a0ead	-0.30089322
149	0xbde0e38d	-0.10980902
150	0xbd9cb070	-0.0765084
151	0xbe63104c	-0.22174186
152	0xbe0f887b	-0.14016907
153	0xbea633e9	-0.3246148
154	0xbe7aeed7	-0.24505173
155	0xbdb289be	-0.087176785
156	0x3ddc6bf9	0.10762782
157	0x3eb8d658	0.3610103
158	0xbe34cbd2	-0.17655876
159	0x3e856e29	0.26060608
160	0x3e9125d7	0.28349182
161	0x3d969385	0.07352356
162	0xbc8bac40	-0.017049909
163	0xbed2706c	-0.41101396
164	0xbd9c6ce4	-0.07637957
165	0xbea7f0f8	-0.32801032
166	0xbd206b31	-0.039164726
167	0xbe197e96	-0.14989695
168	0x3e441027	0.19146787
169	0xbd61b18e	-0.05510097
170	0xbd9b3c6a	-0.075798824
171	0x3d1ddc09	0.03853992
172	0x3ef944a7	0.4868519
173	0x3d9fc5a0	0.07801366
174	0xbdf91f30	-0.12164152
175	0xbeb42fb1	-0.35192636
176	0x3e08024c	0.13282126
177	0x3de32a01	0.11091996
178	0xbef3550c	-0.47525823
179	0xbde80e35	-0.11330835
180	0xbeb1dc91	-0.3473859
181	0xbd8e74d7	-0.06955879
182	0x3beffeb2	0.007324063
183	0x3e7bec36	0.24601826
184	0xbe7ccaad	-0.2468669
185	0xbdc968c4	-0.098344356
186	0x3ec8aa99	0.39192656
187	0xbea9306b	-0.33044752
188	0xbe012c0e	-0.12614462
189	0xbe288cac	-0.16459912
190	0xbe92bf34	-0.286615
191	0x3dd63d67	0.1046093
192	0x3e04f119	0.12982596
193	0x3ed5165a	0.41618615
194	0x3e18aef8	0.14910495
195	0xbe0e5ed6	-0.13903365
196	0xbe81181d	-0.2521371
197	0x3e12f996	0.14353022
198	0x3dfa52a6	0.12222795
199	0xbef027bd	-0.46905318
200	0xbddcfbdf	-0.10790228
201	0xbe72afd4	-0.23699886
202	0x3e952495	0.29129472
203	0x3dad3bee	0.08458696
204	0x3e07305b	0.1320204
205	0x3ea4d18d	0.32191125
206	0xbe5c807c	-0.21533388
207	0x3e89adb0	0.26890326
208	0xbec75062	-0.38928515
209	0xbdd4ecc7	-0.10396724
210	0xbe7c6160	-0.2464652
211	0x3ea6804c	0.32519758
212	0x3db2c43d	0.08728836
213	0xbee02fc5	-0.43786445
214	0x3e2ddf38	0.16979682
215	0xbc3d5718	-0.011556409
216	0x3e9ea526	0.30985373
217	0xbed3ae85	-0.41344085
218	0xbdfddfe0	-0.123962164
219	0x3d4fe491	0.050755087
220	0xbe986892	-0.2976728
221	0xbd555401	-0.052082065
222	0xbd34eea8	-0.044172913
223	0x3c8bd130	0.017067522
224	0xbdf32b8d	-0.11873541
225	0xbefa418f	-0.48878142
226	0xbda4a5a2	-0.080394045
227	0xb9e18e38	-0.00043021305
228	0x3dd963fc	0.10614774
229	0x3e67012c	0.22559041
230	0xbe92168d	-0.2853283
231	0xbdc2806f	-0.09497153
232	0x3ec4a5c5	0.38407722
233	0xbd843526	-0.0645545
234	0x3dfa533c	0.12222907
235	0x3ecbe5a2	0.39823633
236	0x3e0d4383	0.13795285
237	0x3e1c89c8	0.15286934
238	0xbe9dca7a	-0.3081854
239	0xbe1ba2fa	-0.1519889
240	0x3eb6f5dc	0.3573445
241	0xbe0c1b16	-0.13682207
242	0x3e3864dc	0.18007225
243	0x3eb0220f	0.34400985
244	0xbea48a2d	-0.3213667
245	0x3ded657c	0.11591622
246	0xbe97202a	-0.29516727
247	0xbd3d42ba	-0.046206214
248	0x3e859b3a	0.2609499
249	0x3ee02185	0.43775573
250	0x3ea3c574	0.31986582
251	0x3e272b1a	0.16325036
252	0x3c8f214c	0.017471932
253	0x3e5d45b1	0.21608616
254	0xbe9eb9b0	-0.31001043
255	0x3e8f0b9e	0.2793855

actor.0.bias f4 [128]
0	0xbd833fe8	-0.064086735
1	0xbdb6fc1a	-0.08934803
2	0x3e5412ed	0.20710345
3	0xbdfeec7f	-0.12447452
4	0xbdf79572	-0.12089051
5	0xbc2ddd5c	-0.010611858
6	0x3dc58867	0.09645157
7	0xbdd10fca	-0.1020809
8	0xbda20ab7	-0.079122
9	0xbdee65a6	-0.11640482
10	0xbcc4d2cf	-0.024026303
11	0xbd44400c	-0.047912642
12	0xbe038f52	-0.12847641
13	0xbdf338f7	-0.118760996
14	0x3de063b9	0.109565206
15	0xbe494490	-0.19655061
16	0xbdf2121f	-0.118198626
17	0x3a50ce0e	0.0007965275
18	0x3c06590d	0.008199942
19	0x3d063206	0.03276255
20	0xbd773559	-0.06035361
21	0xbe1c948e	-0.15291044
22	0xbe85f265	-0.26161495
23	0xbc6fb09d	-0.01462951
24	0xbd1e0186	-0.03857567
25	0x3d2c184a	0.04201535
26	0xbc84e37a	-0.01622175
27	0xbd2be4db	-0.0419663
28	0x3e066745	0.13125332
29	0xbde9cb6f	-0.11415755
30	0xbdd27c7f	-0.10277652
31	0x3e0a7502	0.13521197
32	0x3d276a47	0.04087284
33	0x3d425dd3	0.04745276
34	0xbd8a29a0	-0.067462206
35	0x3e141355	0.144605
36	0xbd6700de	-0.05639731
37	0xbc992aa3	-0.018697089
38	0xbe4998e6	-0.19687232
39	0xbe1e5322	-0.154614
40	0x3a306be0	0.0006729942
41	0xbe22a495	-0.15883096
42	0x3df9f5b8	0.1220507
43	0xbde3e343	-0.11127331
44	0xbda98901	-0.082780845
45	0xbdd677e5	-0.10472087
46	0x3dbdac2d	0.092613555
47	0xbdec123b	-0.11526915
48	0x3e1d0a66	0.15335998
49	0xbd62c2a2	-0.055361398
50	0x3d348e4c	0.044081017
51	0x3e2c0038	0.16796958
52	0xbd40ed40	-0.04710126
53	0x3d342b46	0.04398658
54	0x3dc172a8	0.09445697
55	0xbde910a5	-0.11380128
56	0xbe7cea15	-0.2469867
57	0x3daed16e	0.08536039
58	0xbd2274d0	-0.039662182
59	0xbd5a923a	-0.05336211
60	0x3cbc3a21	0.022976937
61	0xbe1d32b4	-0.15351373
62	0xbd5b4fc3	-0.053542864
63	0xbd7e4287	-0.062075164
64	0xbe0c9957	-0.1373037
65	0xbc6db2f9	-0.014508002
66	0xbd027932	-0.031853862
67	0x3da06dd6	0.078334495
68	0x3d316046	0.043304704
69	0xbe23f100	-0.16009903
70	0x3dac6633	0.084179305
71	0x3d56b861	0.05242193
72	0xbe0e25fe	-0.1388168
73	0x3d173795	0.03691824
74	0xbe686ab5	-0.22696956
75	0x3dcb5226	0.09927778
76	0xbd6b44f7	-0.057438817
77	0x3d64ea15	0.0558873
78	0xbd9ea31b	-0.07745954
79	0xbe7a4dae	-0.24443695
80	0xbe667c0e	-0.2250826
81	0xbc6a784a	-0.014310906
82	0x3dda78e8	0.10667592
83	0xbe5f894c	-0.21829718
84	0xbe231239	-0.1592492
85	0xbcb1b4ce	-0.02169266
86	0xbd6a2b0e	-0.057169966
87	0xbe74dc1b	-0.23912089
88	0x3d858b41	0.06520701
89	0xbe847326	-0.258691
90	0xbb5e3b93	-0.003391002
91	0x3dac91a6	0.08426218
92	0xbd4283a0	-0.04748881
93	0xbe25ddf6	-0.16197953
94	0x3dd4e60e	0.10395442
95	0x3d9dd72b	0.07707056
96	0x3d8c9cc5	0.06865839
97	0xbd8d9a3c	-0.069141835
98	0xbd0887ee	-0.033332758
99	0xbc837e0a	-0.016051311
100	0xbd99abe1	-0.075034864
101	0xbe2f9c1f	-0.17149399
102	0xbddc403e	-0.10754441
103	0xbd9603e2	-0.07324959
104	0x3bddfe3d	0.0067746923
105	0x3d897428	0.06711608
106	0x3cd4a82b	0.025959095
107	0xbd87e5d9	-0.06635637
108	0xbdf02a5a	-0.11726828
109	0xbe16cc21	-0.14726306
110	0x3c4360ea	0.011924962
111	0x3d6e0537	0.058110442
112	0xbd983487	-0.07431894
113	0x3ced3d5c	0.028959922
114	0xbda9fd49	-0.083002634
115	0xbddee2c1	-0.108830936
116	0xbe2a9dc2	-0.16661742
117	0xbde35e3c	-0.11101958
118	0xbdf6bee2	-0.12048127
119	0xbe0b56b7	-0.13607298
120	0x3d0e965d	0.034811366
121	0xbdd077d0	-0.101791024
122	0xbd8fc9ee	-0.07020937
123	0xbe5392d0	-0.20661473
124	0xbe6ce550	-0.23134351
125	0x3da8f84c	0.08250484
126	0xbc12611d	-0.008934286
127	0xbe11d158	-0.14240015

actor.2.weight f4 [128, 128]
0	0x3e148f8b	0.14507882
1	0x3d4af1e1	0.04954708
2	0xbbc858f5	-0.00611412
3	0x3d04aaf7	0.032389607
4	0x3d552e43	0.05204607
5	0xbe1e5a85	-0.15464218
6	0x3d8a55e7	0.06754666
7	0x3dd7c5b4	0.10535756
8	0x3c201bd4	0.00977226
9	0xbd3151b8	-0.043290824
10	0x3c5e5353	0.013569671
11	0x3ae5debc	0.0017537693
12	0x3c965385	0.018350372
13	0xbdcdfa6d	-0.100575306
14	0x3db35b12	0.08757605
15	0x39080ef7	0.00012975546
16	0xbc25b99d	-0.010115054
17	0xbd83cf40	-0.06436014
18	0x3df76489	0.120797224
19	0xbe0a34ae	-0.13496658
20	0xbd6d96f0	-0.058005273
21	0xbdda0d57	-0.106470756
22	0x3dde84a5	0.10865144
23	0xbd8ff65f	-0.070294134
24	0xbba36791	-0.0049867113
25	0xbcfac2a6	-0.030610394
26	0x3dcbd7b7	0.09953254
27	0xbe183e60	-0.14867544
28	0xbdae9356	-0.08524196
29	0xbe1acbdf	-0.15116833
30	0xbd29ddf1	-0.041471425
31	0xbe0d1c56	-0.1378034
32	0xbcfab713	-0.030604875
33	0x3d55a660	0.05216062
34	0x3bf56824	0.007489221
35	0xbbbb9cc1	-0.0057254736
36	0xbd88a757	-0.066725425
37	0xbe008b5f	-0.12553166
38	0xbd108e8d	-0.035292197
39	0x3e02e5a4	0.12782913
40	0x3c31d3cb	0.010853718
41	0x3c9d9ff8	0.019241318
42	0xbd54abeb	-0.051921766
43	0x3dbdd669	0.09269411
44	0x3dbdbad6	0.09264152
45	0x3cc3cc28	0.02390106
46	0x3dcff8ec	0.101549
47	0x3b817251	0.003950395
48	0xbce4bea1	-0.02792293
49	0x3d0912b0	0.033465087
50	0xbe1ed6ca	-0.15511623
51	0x3d8e69ce	0.069537744
52	0xbdb366f5	-0.08759872
53	0xbd95788a	-0.072983816
54	0xbc5ea62b	-0.013589422
55	0xbdfc00c7	-0.12304836
56	0xbdd6e319	-0.10492534
57	0x3de01f29	0.10943443
58	0xbd484fea	-0.048904337
59	0x3d44edc4	0.048078313
60	0x3c3bf78e	0.011472596
61	0x3e122d07	0.14274989
62	0xbd950fd2	-0.07278408
63	0xbde74bfe	-0.11293791
64	0x3e08e169	0.13367237
65	0xbe09df3d	-0.13464065
66	0xbe218e4e	-0.15776941
67	0xbd422ac9	-0.047404084
68	0x3da00a62	0.0781448
69	0x3d74de9d	0.059782613
70	0xbdeaebb7	-0.1147074
71	0xbe16436e	-0.1467416
72	0x3d274259	0.04083476
73	0xbddb2a1d	-0.10701392
74	0x3d9deea1	0.077115305
75	0xbd6617a7	-0.0561749
76	0xbd93068b	-0.07178982
77	0xbd23c540	-0.039983034
78	0x3de8448d	0.113412
79	0xbdcb99b6	-0.099414274
80	0xbdffb46a	-0.12485583
81	0x3d369323	0.044573914
82	0x3d1a87d3	0.03772719
83	0xbcd29891	-0.025707515
84	0x3dadd763	0.084883474
85	0xbd41e060	-0.04733312
86	0xbdb03f8d	-0.08605871
87	0xbe017c7c	-0.12645143
88	0xbdace6c7	-0.08442455
89	0xbdcfc316	-0.101446316
90	0x3d115e49	0.035490308
91	0xbd2cf73e	-0.042227976
92	0x3dda5d98	0.10662383
93	0xbda38da0	-0.07985997
94	0x3d98d17d	0.07461832
95	0x3dcea87a	0.10090728
96	0xbd472f8d	-0.048629332
97	0xbdc2c8de	-0.095109686
98	0x3d8d5c01	0.06902314
99	0xbe26319f	-0.16229866
100	0x3dbd0155	0.0922877
101	0x3ddf0e39	0.10891385
102	0xbc9c82a3	-0.019105261
103	0xbdd475bc	-0.103740185
104	0x3ca42567	0.020037366
105	0x3db4b7fa	0.08824153
106	0x3c56ceb2	0.013110803
107	0x3cd450fb	0.02591752
108	0x3d700150	0.058595
109	0x3d9ffe11	0.07812131
110	0x3c41d26b	0.011829953
111	0xbdbe51c7	-0.092929415
112	0xbc206ca1	-0.009791524
113	0xbd94124a	-0.07230051
114	0x3d81b96c	0.063341945
115	0xbdb67140	-0.089083195
116	0x3e01b444	0.12666422
117	0x3d6dc9a7	0.05805364
118	0xbe19164d	-0.14949913
119	0xbd84d9f6	-0.06486885
120	0xbd3e905c	-0.04652439
121	0xbd5f6cdc	-0.054547176
122	0xbc51fe71	-0.012817011
123	0xbda9427a	-0.082646325
124	0x3dcfb66f	0.10142218
125	0x3d7ee7a9	0.062232647
126	0xbcc2545a	-0.023721863
127	0xbd9b642e	-0.07587467
128	0xbd5a3558	-0.05327353
129	0xbd46b941	-0.048516516
130	0xbdb14b05	-0.08656887
131	0x3e651c0c	0.2237398
132	0xbcda091f	-0.026615677
133	0xbda10cca	-0.078637674
134	0x3c649545	0.013951604
135	0x3cd6d322	0.026223723
136	0x3dd5c11a	0.10437222
137	0x3db2997f	0.08720683
138	0x3e4d2a00	0.20035553
139	0xbc503079	-0.012706869
140	0xbe5dcfb4	-0.21661264
141	0xbdb4c1bb	-0.08826014
142	0xbe69eb73	-0.22843723
143	0xbdc16c77	-0.09444516
144	0xbc86b483	-0.016443497
145	0xbd83f4ea	-0.06443198
146	0xbda71820	-0.08158898
147	0x3de7fff7	0.11328118
148	0x3e059820	0.13046312
149	0x3d908611	0.07056821
150	0xbe99195e	-0.29902166
151	0x3e2aa634	0.16664964
152	0x3b064a92	0.0020491225
153	0x3da69598	0.081340015
154	0xbcd067df	-0.025440155
155	0xbdde5bb2	-0.10857333
156	0x3dee6bb1	0.11641634
157	0xbd9c7e6d	-0.07641301
158	0xbeecbf59	-0.46239737
159	0xbe067fe0	-0.13134718
160	0xbdc1627f	-0.09442615
161	0x3eaa7ecf	0.33299872
162	0xbe2c582b	-0.16830508
163	0x3db0d31f	0.08634018
164	0xbd84e02b	-0.06488069
165	0x3df64dde	0.12026571
166	0x3d9d3d1c	0.07677671
167	0x3dd26394	0.10272899
168	0xbdf38cbb	-0.118920766
169	0x3d4cbf81	0.04998732
170	0x3df72235	0.12067071
171	0xbde00bf0	-0.10939777
172	0x3c06fbf7	0.008238784
173	0xbebbeef9	-0.3670576
174	0x3e490e57	0.19634376
175	0xbeb1c33c	-0.34719265
176	0x3c4a22ac	0.012337368
177	0x3e237159	0.15961207
178	0xbd034faf	-0.032058414
179	0xbe213cfa	-0.15745917
180	0x3e561f57	0.20910393
181	0x39db1ba7	0.00041791538
182	0xbe8ec496	-0.27884358
183	0x3e24468a	0.16042534
184	0xbed77f78	-0.42089438
185	0xbc2419f1	-0.010015951
186	0x3e13cfd9	0.14434756
187	0xbe7b7b37	-0.24558721
188	0xbe82f505	-0.2557756
189	0xbe76598a	-0.24057594
190	0x3e06e5e2	0.13173631
191	0xbd465656	-0.04842218
192	0x3de13a62	0.10997464
193	0x3d3d0421	0.046146516
194	0xbebb5d39	-0.3659456
195	0x3d9e8789	0.07740695
196	0xbcc01cfc	-0.02345132
197	0xbe9d9de1	-0.30784515
198	0x3db610e7	0.088899426
199	0xbdd5610b	-0.104189
200	0xbe2ae6d0	-0.1668961
201	0xbeb61f45	-0.35570732
202	0xbe435e88	-0.1907903
203	0xbcb37fd3	-0.021911537
204	0x3e438686	0.19094285
205	0x3d6b227a	0.057405926
206	0x3c185b0f	0.009299054
207	0xbe917c57	-0.28415176
208	0x3db4885a	0.088150695
209	0x3dc5c609	0.09656913
210	0x3cf0a4ca	0.029375453
211	0x3e278404	0.16358954
212	0xbcba0c0f	-0.022710828
213	0x3d125587	0.035726096
214	0xbe1b7b2c	-0.15183705
215	0xbe7c34bb	-0.2462949
216	0x3e2f49b8	0.17117965
217	0xbd307659	-0.043081615
218	0xbd3a32f9	-0.045458768
219	0x3b1ecefa	0.0024232254
220	0x3df58023	0.11987331
221	0x3aee5d5e	0.0018185785
222	0x3cdedb63	0.027204221
223	0xbd47a1b4	-0.048738196
224	0xbdb248a7	-0.087052636
225	0xbad70265	-0.0016403912
226	0xbe5375ef	-0.20650457
227	0xbd97588c	-0.07389936
228	0xbce73739	-0.028224574
229	0x3dfe620e	0.12421046
230	0x3de1e7fa	0.11030574
231	0x3b35d213	0.0027743622
232	0x3d2d13d1	0.042255227
233	0xbd5874b0	-0.052845657
234	0xbe25c387	-0.16187869
235	0x3c9ff08c	0.019523881
236	0x3e3392bb	0.17536442
237	0xbe1510cc	-0.14557189
238	0xbe208b52	-0.15678146
239	0xbdf95e18	-0.1217615
240	0x3c4abcfe	0.012374161
241	0xbde6240b	-0.112373434
242	0x3e11fd3a	0.14256755
243	0xbdd0065d	-0.10157464
244	0xbec48273	-0.38380775
245	0xbe35de88	-0.1776067
246	0xbd4aadc9	-0.04948214
247	0x3e2f8cf2	0.1714361
248	0x3dcf052a	0.10108407
249	0x3e1410dd	0.14459558
250	0xbe1489fa	-0.14505759
251	0x3c104d70	0.008807525
252	0x3c22d220	0.009937793
253	0xbed5fea6	-0.41795844
254	0x3dc176fb	0.09446522
255	0xbdf0e9af	-0.117633216

actor.2.bias f4 [128]
0	0xbc79f043	-0.015255037
1	0xbd30a1b8	-0.043122977
2	0xbcfa211e	-0.03053337
3	0x3d2d4b11	0.042307917
4	0xbcbef28a	-0.023309011
5	0xbc6d5511	-0.014485613
6	0x3d9b86cb	0.07594069
7	0x3d69d5fc	0.057088837
8	0xbbed8aca	-0.007249211
9	0xbbc767e7	-0.006085384
10	0xbc86142c	-0.01636704
11	0x3df2363c	0.11826751
12	0x3decb86b	0.115586124
13	0x3c4351b7	0.011921338
14	0x3b12084b	0.0022282775
15	0x3d268cb0	0.040661514
16	0x3df38895	0.11891285
17	0xbd346485	-0.044041175
18	0xbd50aa84	-0.050943866
19	0x3d199592	0.037496157
20	0xbdd12d9d	-0.10213778
21	0xbc9ecd61	-0.019385042
22	0x3d85b581	0.0652876
23	0xbc5c4bc3	-0.013445797
24	0xbda0ce7b	-0.07851883
25	0x3da7780f	0.08177196
26	0x39981d48	0.00029013515
27	0xbc1a5c9d	-0.009421495
28	0x3d81e2f8	0.06342119
29	0xbd14c8be	-0.036324255
30	0x3db03b28	0.08605033
31	0x3deb5241	0.11490298
32	0xbd9d3207	-0.076755576
33	0xbd8f5380	-0.06998348
34	0x3cb2fcf0	0.021849126
35	0xbe0b90d3	-0.13629465
36	0xbdce01aa	-0.10058911
37	0x396cc7d6	0.00022581159
38	0xbd569588	-0.052388698
39	0x3c4369b6	0.011927059
40	0x3d28cd9e	0.041211717
41	0x3cb17995	0.02166442
42	0xbccd7bdc	-0.025083475
43	0xbcc102ab	-0.023560842
44	0x3d85997e	0.06523417
45	0x3df3f7f7	0.1191253
46	0x3dfa4d2d	0.12221751
47	0x3da49420	0.08036065
48	0xbcdadcca	-0.026716609
49	0x3cd04255	0.025422255
50	0x3d8b65ad	0.068065025
51	0xbc38d1e1	-0.011280508
52	0xbdb7cafd	-0.08974264
53	0x3de4b5aa	0.11167462
54	0x3cd2220e	0.025651004
55	0x3d8f2ce8	0.06990987
56	0x3cad712a	0.021172125
57	0xbcd727b9	-0.026264058
58	0x3dc22b0f	0.09480869
59	0xbc0d6b88	-0.0086315945
60	0xbd67997f	-0.05654287
61	0xbda20f6e	-0.07913099
62	0xbe1d79cf	-0.15378498
63	0xbd014d63	-0.031567942
64	0x3df1539c	0.11783525
65	0x3d2b1006	0.041763328
66	0xbc109adf	-0.008825987
67	0xbd0ca33b	-0.034335356
68	0x3d12dcab	0.035854977
69	0x3c316aef	0.010828718
70	0xbd63f5f4	-0.05565448
71	0x3d990e3f	0.0747342
72	0xbdbd2c90	-0.09237015
73	0x3d9f3085	0.07772926
74	0x3d072c9a	0.03300152
75	0x3d9bce24	0.076076776
76	0x3dacf9ad	0.084460594
77	0xbc8b4a9a	-0.017003346
78	0x3d8d124f	0.06888258
79	0x3cbec42d	0.023286903
80	0xbda73b15	-0.08165566
81	0xbb9aa965	-0.0047199004
82	0x3dcc2ca2	0.099694505
83	0xbd8b2773	-0.06794634
84	0xbd9bc37b	-0.07605644
85	0x3d78732a	0.060656704
86	0xbd008402	-0.031375892
87	0x3d3bd12f	0.04585379
88	0xbc000297	-0.0078131175
89	0x3d863261	0.06552578
90	0xbc86f10e	-0.016472366
91	0xbd8184ab	-0.063241325
92	0xbd6b30d0	-0.057419598
93	0xbdfc97d1	-0.12333644
94	0x3d6f69f9	0.058450673
95	0x3d57c45e	0.052677505
96	0xbdba226c	-0.09088597
97	0x3dbf950b	0.093545996
98	0x3df76521	0.12079836
99	0xb909cc26	-0.0001314139
100	0x3d8039d0	0.06261027
101	0x3da02574	0.078196436
102	0x3d82340d	0.06357584
103	0xbc7bb668	-0.015363313
104	0x3c098015	0.008392354
105	0x39427bec	0.00018547446
106	0xbd2cd661	-0.042196635
107	0x3d520e6c	0.051283285
108	0xbca20a23	-0.019780224
109	0xbdb2df87	-0.08734041
110	0xbcbcac2e	-0.02303132
111	0x3d54fece	0.052000813
112	0x3bc151cb	0.005899643
113	0x3dca5fb3	0.098815344
114	0xbcf134bb	-0.02944409
115	0xbcad15ac	-0.021128498
116	0x3cb84e85	0.022498379
117	0xbd5833d0	-0.052783787
118	0xbcdaaaa8	-0.026692703
119	0x3d90f2b3	0.07077541
120	0x3d9a8eae	0.07546745
121	0x3dbad4c2	0.091226116
122	0x3ad77f39	0.0016441114
123	0x3c8423ce	0.016130354
124	0x3dad2d5a	0.08455916
125	0x3d0f0ff8	0.03492734
126	0xbd91da36	-0.071216986
127	0xbca506e4	-0.020144887

actor.4.weight f4 [2, 128]
0	0xbde2eca9	-0.110802956
1	0xbe7334c2	-0.23750594
2	0x3cbc380e	0.022975948
3	0xbec8ec09	-0.3924258
4	0x3da6e127	0.08148413
5	0xbd1b3481	-0.03789187
6	0xbf35c391	-0.71001536
7	0xbe9ecd5b	-0.3101605
8	0xbe141571	-0.14461304
9	0x3e1d257d	0.15346332
10	0xbedc390c	-0.43012273
11	0x3eb5a938	0.35480666
12	0x3e4c3887	0.19943438
13	0xbcfc16b6	-0.030772548
14	0x3dea30ab	0.11435064
15	0xbe779985	-0.24179657
16	0xbf4eebd8	-0.8082862
17	0x3e0f5b57	0.13999687
18	0x3eeaadbd	0.45835677
19	0x3f53e22d	0.8276699
20	0xbf80d4f3	-1.0064987
21	0xbf121c3d	-0.5707434
22	0x3eb2d183	0.3492547
23	0x3f20d210	0.6282053
24	0xbf6c06c0	-0.921978
25	0x3e369098	0.17828596
26	0xbe951924	-0.29120743
27	0xbce6fede	-0.028197702
28	0x3db6e63f	0.08930635
29	0xbf1f24e4	-0.62165666
30	0x3eecf6e8	0.46282125
31	0xbe678039	-0.22607507
32	0x3ea5506e	0.32287925
33	0xbe4f3519	-0.20235099
34	0xbdfdd477	-0.1239404
35	0xbcf8fb6a	-0.030393321
36	0x3ee9375b	0.45550045
37	0x3f8ed99b	1.1160158
38	0x3e82001b	0.25390705
39	0xbf2f8844	-0.685673
40	0x3e2ee739	0.17080392
41	0xbe54bad9	-0.20774402
42	0xbed1daa1	-0.40987113
43	0xbd3b15f4	-0.045675233
44	0xbf3fa6e1	-0.7486401
45	0xbe967449	-0.29385594
46	0x3de09f0b	0.10967835
47	0x3f057197	0.5212645
48	0xbe3cdf0c	-0.1844446
49	0x3bdeec01	0.006803036
50	0x3f5cfb20	0.86320686
51	0xbeb46c47	-0.3523886
52	0xbdb721b8	-0.08941978
53	0xbe4a6580	-0.19765282
54	0xbf3db16f	-0.7409887
55	0x3e002934	0.12515718
56	0x3e84b633	0.25920257
57	0x3f050836	0.51965654
58	0xbe3e7a4b	-0.18601339
59	0xbeb7f850	-0.35931635
60	0x3dd6a83b	0.10481306
61	0xbe4f8a27	-0.20267545
62	0xbf1f9539	-0.6233707
63	0x3e1e75f9	0.1547469
64	0x3eb608e7	0.35553667
65	0xbe17c34b	-0.14820592
66	0xbe508f68	-0.20367205
67	0x3e9bfc40	0.3046589
68	0x3f4e37a4	0.8055365
69	0xbf4405da	-0.7657143
70	0xbe902ea9	-0.281606
71	0xbf035879	-0.51306874
72	0xbd2e921c	-0.04261981
73	0x3f2ab88d	0.6668785
74	0xbe8bd521	-0.27311042
75	0xbea4e6f1	-0.32207444
76	0xbeb111e9	-0.34583977
77	0x3d5ebb19	0.05437765
78	0x3f0d594c	0.5521438
79	0x3c22b98f	0.009931936
80	0x3edd6d5d	0.432475
81	0x3e23dff6	0.16003403
82	0x3e6f1fc3	0.2335196
83	0xbe31b133	-0.17352752
84	0xbf16f9af	-0.58974737
85	0x3f108a76	0.56461275
86	0xbed3d580	-0.41373825
87	0xbf46c940	-0.77650833
88	0x3d70907a	0.058731534
89	0xbee4374b	-0.44573435
90	0x3d5b914a	0.053605355
91	0x3e7433ca	0.23847881
92	0x3ebcc5e4	0.3686973
93	0xbf06f60e	-0.527192
94	0x3d60e842	0.054909
95	0xbaa8c3e2	-0.001287576
96	0xbe90923c	-0.28236568
97	0xbe2953f7	-0.16535936
98	0x3f5d0f65	0.86351615
99	0xbf53c54b	-0.8272292
100	0x3f1f6b08	0.6227269
101	0xbe216bf9	-0.15763845
102	0x3d935dc0	0.07195616
103	0xbe888c85	-0.26669708
104	0x3e0187a2	0.12649396
105	0xbe2c9db8	-0.1685704
106	0xbb9d01d6	-0.0047914786
107	0x3f33e951	0.7027789
108	0x3c5c5801	0.013448716
109	0x3ed79eb0	0.42113256
110	0xbe013498	-0.12617719
111	0x3d8578d0	0.06517184
112	0xbf2cdcb1	-0.6752425
113	0x3ee442fc	0.44582355
114	0xbcfde016	-0.030990642
115	0xbb4d4395	-0.00313208
116	0x3c3d36f2	0.0115487445
117	0xbe36f1bc	-0.17865652
118	0x3d067991	0.03283078
119	0xbe6e8fd0	-0.23297048
120	0x3ebd903c	0.37024105
121	0x3eef86fe	0.46782678
122	0xbd69224b	-0.05691747
123	0x3e59d0ee	0.21271107
124	0x3e6e82d3	0.23292093
125	0x3f7abe9e	0.9794711
126	0xbe6ae089	-0.22937216
127	0xbee0a63a	-0.4387682
128	0x3e1994d2	0.14998177
129	0xbd805fd2	-0.06268276
130	0x3e24495a	0.16043606
131	0x3daa15de	0.08304952
132	0x3e3dcd7e	0.1853542
133	0x3d3e2556	0.046422325
134	0x3aed3799	0.0018098234
135	0xbe522ca6	-0.20524845
136	0x3e3dcbb0	0.18534732
137	0xbe15ce22	-0.14629415
138	0xbd50ddbe	-0.05099272
139	0xbdd3e587	-0.10346513
140	0xbe896a21	-0.26838782
141	0x3db0e08c	0.08636579
142	0xbe2b74f6	-0.16743836
143	0xbea96272	-0.3308292
144	0xbd012c7b	-0.03153656
145	0x3e2d34b8	0.16914642
146	0x3cac7570	0.021052092
147	0xbdf7e962	-0.12105061
148	0x3dbd68fc	0.0924854
149	0x3d4190cd	0.047257233
150	0x3e22b84d	0.15890618
151	0xbd5b0446	-0.053470872
152	0x3d57cd0e	0.05268579
153	0xbe5d0c89	-0.21586813
154	0x3db3e889	0.08784587
155	0xbe0f8dab	-0.14018886
156	0xbe458239	-0.19287957
157	0x3dc18b8c	0.094504446
158	0x3d9acffa	0.075592
159	0x3d44791c	0.04796706
160	0x3df8ce67	0.12148743
161	0x3db87d2e	0.09008251
162	0x3e3d6294	0.18494636
163	0x3e67de89	0.22643484
164	0x3d6988f5	0.057015378
165	0x3d96bc58	0.073601425
166	0xbe90421a	-0.2817543
167	0xbe1084c0	-0.1411314
168	0xbe6ec3de	-0.23316905
169	0xbdceb74c	-0.10093555
170	0x3e35cc20	0.17753649
171	0x3ce07ea0	0.02740413
172	0xbdcdb03c	-0.1004338
173	0xbd3bdf6e	-0.045867376
174	0xbdcc69ba	-0.09981103
175	0xbe29b062	-0.16571191
176	0x3e588ce0	0.2114749
177	0xbdc2b179	-0.095065065
178	0xbd08cd84	-0.03339912
179	0x3c94ba29	0.018155174
180	0x3e49ec65	0.19719084
181	0xbe164484	-0.14674574
182	0xbd0e0615	-0.03467377
183	0xbdf39029	-0.11892731
184	0xbdd3e68f	-0.1034671
185	0xbd1aed35	-0.037823875
186	0xbe584339	-0.21119393
187	0x3c0b89a2	0.008516701
188	0x3d5f4b49	0.054515157
189	0x3d1de4d2	0.0385483
190	0x3d5f2af3	0.05448432
191	0xbd98aeed	-0.074552394
192	0xbe17859f	-0.14797066
193	0xbe74c73f	-0.23904131
194	0x3dc174b5	0.09446088
195	0x3d479bb7	0.048732486
196	0x3d063e9f	0.032774564
197	0x3e10a763	0.14126353
198	0x3e820de1	0.25401214
199	0x3e7ead54	0.24870807
200	0x3e81d7c0	0.25359917
201	0xbdcae81d	-0.09907553
202	0x3d9395f6	0.07206337
203	0xbd374077	-0.044739213
204	0xbe858e6f	-0.2608523
205	0x3db26930	0.08711469
206	0x3de12b09	0.109945364
207	0xbd8b72c5	-0.06809
208	0x3e1247d7	0.14285217
209	0xbe13a576	-0.14418587
210	0xbe0951da	-0.1341013
211	0x3de3ac80	0.11116886
212	0xbe2b7ccf	-0.1674683
213	0x3df40de4	0.11916712
214	0x3d3088ab	0.043099087
215	0xbcd87384	-0.02642227
216	0xbd4afaa6	-0.049555443
217	0xbea298ec	-0.31757295
218	0x3e437df8	0.19091022
219	0xbd191fbb	-0.037383776
220	0x3d9a0d6b	0.075220905
221	0x3c808808	0.015689865
222	0xbdfbab6e	-0.12288557
223	0xbe6ddf63	-0.23229747
224	0x3e4aa4e0	0.19789457
225	0xbe67d65b	-0.22640364
226	0xbe0411f2	-0.1289747
227	0x3cd6fb17	0.026242776
228	0xbc7e33aa	-0.015515247
229	0xbcb6b9f9	-0.022305476
230	0xbe0482f7	-0.12940584
231	0xbe4548e9	-0.19266094
232	0xbd6f1be9	-0.058376227
233	0x3d9eb5f7	0.07749551
234	0x3cecfeaa	0.028930027
235	0x3defff9d	0.11718676
236	0x3e1ea0c4	0.15491015
237	0x3c2732b4	0.01020496
238	0xbd1c837e	-0.03821134
239	0xbdf4b4c2	-0.11948539
240	0xbd92ecce	-0.07174073
241	0x3c665e93	0.014060634
242	0x3d5ff620	0.054678082
243	0x3e186909	0.14883818
244	0x3e894c5b	0.26816067
245	0x3d892d05	0.0669804
246	0xbe382bbe	-0.17985436
247	0xbdd28aaa	-0.10280354
248	0x3ce4225a	0.027848411
249	0x3e2883bc	0.16456503
250	0xbd3e03a5	-0.046390194
251	0xbeb02833	-0.3440567
252	0x3bd35206	0.006448987
253	0x3d676f7d	0.056502808
254	0xbe827c64	-0.25485528
255	0x3e612006	0.21984872

actor.4.bias f4 [2]
0	0x3a839890	0.0010039974
1	0xbddcba39	-0.10777707

q1.0.weight f4 [128, 4]
0	0x3e517373	0.20454197
1	0xbe144ef7	-0.14483248
2	0x3dd37214	0.10324493
3	0x3dbac47e	0.09119509
4	0x3e214ca7	0.15751897
5	0x3eb317e0	0.34979153
6	0x3db616d5	0.088910736
7	0x3cd06902	0.025440697
8	0xbedb2a97	-0.4280593
9	0x3df5c576	0.12000553
10	0x3df13c0b	0.117790304
11	0x3ccac930	0.024754137
12	0x3eca1252	0.39467102
13	0xbed6f94b	-0.4198707
14	0xbe0e76ff	-0.13912581
15	0xbd638761	-0.05554903
16	0xbeaf8990	-0.3428464
17	0x3e38420f	0.1799395
18	0xbd0728e5	-0.032997984
19	0xbd81d109	-0.063386984
20	0xbcaaeaeb	-0.02086397
21	0xbbb4420b	-0.005501037
22	0x3ba9feb8	0.0051878355
23	0x3e2ff27e	0.17182347
24	0xbe28d522	-0.16487554
25	0x3d9e9c39	0.07744641
26	0x3cb167a3	0.021655863
27	0x3e05bcef	0.13060354
28	0xbc8b0529	-0.016970234
29	0x3d68d7c0	0.05684638
30	0xbe0c8c23	-0.13725333
31	0x3d86a93b	0.06575247
32	0x3e9e579d	0.3092622
33	0x3e8a08a1	0.26959708
34	0xbcad6781	-0.021167519
35	0x3d259134	0.04042168
36	0x3eacd5d0	0.33756876
37	0xbe841556	-0.25797528
38	0xbc1550a2	-0.009113463
39	0xbc383f4a	-0.011245558
40	0x3cb6e6cf	0.022326855
41	0x3f36c779	0.7139812
42	0x3de85c60	0.11345744
43	0x3d1f3615	0.038869936
44	0x3e98a9f1	0.29817155
45	0x3e236ff6	0.15960678
46	0x3e0b647c	0.1361255
47	0x3d0c51d9	0.034257744
48	0x3ec87a50	0.39155817
49	0x3cafe120	0.021469653
50	0x3d4ee941	0.050515417
51	0x3a8bead6	0.0010674845
52	0xbd9ba149	-0.07599122
53	0x3f036cd2	0.5133792
54	0x3def101d	0.11672995
55	0x3d074da1	0.033033017
56	0x3daa7593	0.08323207
57	0xbd9ff072	-0.07809533
58	0xbe07f2c2	-0.13276199
59	0xbd9c024f	-0.07617628
60	0xbccfd300	-0.025369167
61	0xbe6a6ad1	-0.2289231
62	0xbdd1211b	-0.102113925
63	0xbcf40949	-0.029789584
64	0x3e9b1a07	0.30293295
65	0xbcd8f958	-0.026486084
66	0x3dd0454a	0.10169466
67	0x3d2f1fce	0.04275494
68	0x3ec55a31	0.38545373
69	0x3e069cd7	0.13145767
70	0x3e10b992	0.1413329
71	0x3cf26b4e	0.029592182
72	0xbe1876ad	-0.14889021
73	0x3c54a460	0.012978643
74	0x3dc3c9b0	0.09559953
75	0xbbbe0d77	-0.005799945
76	0xbe853c55	-0.26022592
77	0x3e0a65c8	0.13515389
78	0xbd81fe9f	-0.06347393
79	0xbe218862	-0.15774682
80	0xbc61f274	-0.0137907155
81	0xbcc9a127	-0.024612976
82	0xbd9964e7	-0.07489949
83	0xbe5ae662	-0.21376947
84	0xbe214c2a	-0.1575171
85	0xbdcc1493	-0.09964862
86	0x3ded1e8a	0.115780905
87	0xbd458384	-0.048221126
88	0xbe6ba8d1	-0.23013617
89	0x3f0ab330	0.5417967
90	0x3dc526e8	0.096265614
91	0x3d14cdb8	0.036329
92	0xbe02fc8f	-0.12791656
93	0xbec76af4	-0.38948786
94	0xbdbac395	-0.091193356
95	0xbcdfd980	-0.027325392
96	0xbdff072d	-0.124525405
97	0xbbc4cda5	-0.00600596
98	0x3bfcdb99	0.007716608
99	0xbd2fac1b	-0.042888742
100	0xbc32a95b	-0.010904635
101	0x3e5dbcf1	0.21654107
102	0x3e0a39dd	0.13498636
103	0xbdbf7334	-0.09348145
104	0xbe432188	-0.1905576
105	0x3e97c674	0.29643595
106	0xbb047d03	-0.0020216114
107	0x3c09f016	0.008419057
108	0x3ef97c9b	0.4872788
109	0x3f00be98	0.50290823
110	0x3e25af06	0.16180047
111	0x3d113aba	0.035456397
112	0x3df36830	0.118851066
113	0x3df252f5	0.11832229
114	0xbdc7bcdc	-0.09752819
115	0xbbc0a729	-0.005879302
116	0x3e818802	0.25299078
117	0x3e85b81c	0.26117027
118	0x3c29b67f	0.010358452
119	0x3bedd558	0.0072580986
120	0xbe95fdcf	-0.29295203
121	0x3d60fbe5	0.054927725
122	0xbd985c52	-0.07439484
123	0x3bc794af	0.0060907225
124	0x3e78829b	0.24268572
125	0x3eb6d607	0.35710165
126	0x3ddb529f	0.10709118
127	0x3d12e32a	0.03586117
128	0x3e29feed	0.16601153
129	0xbebbf032	-0.36706692
130	0x3da0399a	0.078234866
131	0x3e44e731	0.19228818
132	0x3eb0ac14	0.34506285
133	0x3e07df50	0.1326878
134	0xbe243965	-0.1603752
135	0xbd2f4455	-0.042789776
136	0x3e0b8e7f	0.13628577
137	0x3db47cdb	0.08812877
138	0xbdf1ea94	-0.1181232
139	0x3d50c244	0.050966516
140	0x3eb21c05	0.34787002
141	0x3e6ff983	0.23435025
142	0x3e114f5f	0.14190434
143	0x3d52d629	0.05147377
144	0xbea74c11	-0.32675222
145	0xbef65065	-0.4810821
146	0xbe0b920b	-0.1362993
147	0xbd18499d	-0.037179578
148	0xbd5bbff0	-0.053649843
149	0xbdf43407	-0.11923986
150	0x3cff2e89	0.03115012
151	0x3bc46c02	0.005994321
152	0x3e587fb0	0.21142459
153	0xbdddb655	-0.10825793
154	0x3daded32	0.08492507
155	0xbd53bced	-0.051693846
156	0x3dfdec49	0.123985834
157	0xbdabef28	-0.08395225
158	0xbdf000a7	-0.117188744
159	0xbcddf61f	-0.027094899
160	0xbe343fcc	-0.17602462
161	0xbde2b76a	-0.1107014
162	0xbd717868	-0.05895272
163	0xbc37f2cb	-0.01122732
164	0xbeb48514	-0.3525778
165	0x3e84a41b	0.25906453
166	0xbd867201	-0.06564713
167	0x3e02531b	0.12727015
168	0xbd3a6cc2	-0.045513876
169	0x3ce0c01d	0.027435357
170	0xbd05c0c7	-0.03265455
171	0x3e6f4c67	0.23368989
172	0x3edfbbec	0.4369806
173	0x3e9b8806	0.30377215
174	0x3e288b92	0.16459492
175	0x3d708e42	0.058729418
176	0xbea313dd	-0.31851092
177	0x3e3a8680	0.1821537
178	0x3d131ff4	0.035919145
179	0x3c19f60c	0.009397041
180	0xbe9b7f67	-0.30370638
181	0xbc4d139b	-0.012516881
182	0x3df880cb	0.1213394
183	0x3e1615bc	0.14656729
184	0x3e563f94	0.2092269
185	0x3db00b61	0.0859592
186	0x3e2071de	0.15668437
187	0x3d1c7137	0.038193908
188	0xbe0f6160	-0.1400199
189	0x3edc85b9	0.43070772
190	0x3e170249	0.14746965
191	0x3cb526a5	0.022113154
192	0xbe2345c9	-0.1594459
193	0x3c2478ad	0.010038537
194	0xbd4ed85d	-0.05049931
195	0xbe3ed478	-0.18635738
196	0xbe68d85e	-0.22738788
197	0xbe80cff6	-0.25158662
198	0x3d86a1d0	0.06573832
199	0xbdc65608	-0.09684378
200	0x3e10b162	0.14130166
201	0xbd203f4d	-0.03912287
202	0xbdc22216	-0.094791576
203	0xbd6a0605	-0.057134647
204	0x3e55c85a	0.2087721
205	0x3e0bb26e	0.13642284
206	0xbdb68979	-0.089129396
207	0xbded392f	-0.115831725
208	0x3eb9817e	0.36231607
209	0x3ee8836b	0.45412764
210	0x3db9a1f4	0.09064093
211	0x3d1b188c	0.037865207
212	0x3e2791c6	0.16364202
213	0xbd13c181	-0.03607321
214	0x3d894904	0.0670338
215	0x3b0e5a45	0.0021721285
216	0x3eb7a247	0.35865995
217	0xbef5bded	-0.47996464
218	0xbe06cbab	-0.1316363
219	0xbd0410bb	-0.032242518
220	0x3dd2f54c	0.10300693
221	0xbeea8d4c	-0.45810926
222	0xbdd6c8e1	-0.10487533
223	0xbcbcf0bb	-0.023064008
224	0x3dc5d55c	0.09659836
225	0x3eb5d285	0.35512176
226	0x3d9eade4	0.07748011
227	0x3c9132b2	0.017724369
228	0x3dfeed14	0.12447563
229	0x3ec54f2d	0.3853697
230	0x3d8aa2d9	0.06769342
231	0x3c8567a5	0.016284773
232	0x3e13a4a4	0.14418274
233	0xbd349fcc	-0.044097707
234	0xbd1623cd	-0.036655236
235	0xbdad7d47	-0.084711604
236	0xbd8e8587	-0.06959062
237	0xbd807b8b	-0.06273564
238	0xbddb6a9c	-0.107136935
239	0xba860411	-0.00102246
240	0xbe03aad6	-0.12858137
241	0x3e88e2a7	0.26735422
242	0xbc5a65a8	-0.013329901
243	0xbd80a49b	-0.06281396
244	0x3e955c9d	0.2917222
245	0x3e6693f6	0.2251738
246	0xbd6a488d	-0.057198096
247	0xbba5527a	-0.0050452324
248	0x3ce12783	0.027484661
249	0x3e131239	0.1436242
250	0x3cb65b1f	0.022260247
251	0xbe2b87f8	-0.16751087
252	0xbea92955	-0.33039346
253	0x3de842a0	0.11340833
254	0x3d4fd965	0.050744433
255	0x3c8ba486	0.017046224

q1.0.bias f4 [128]
0	0xbd6f4364	-0.058413878
1	0xbd50714a	-0.05088929
2	0xbd0b2e84	-0.033979908
3	0xbe494826	-0.19656429
4	0x3d129371	0.035785142
5	0xbd2e4ff8	-0.042556733
6	0x3b451905	0.0030074727
7	0xbd1d6cc5	-0.03843381
8	0x3d4690fb	0.048478108
9	0x3dd8f3c7	0.10593372
10	0xbc97edd1	-0.018546017
11	0xbec364fa	-0.38162977
12	0x3dcc8463	0.09986188
13	0xbd8b824c	-0.068119615
14	0xbe16e73d	-0.14736648
15	0xbd9e7d44	-0.07738736
16	0xbe342292	-0.17591313
17	0xbe33617b	-0.17517655
18	0xbe0907a4	-0.13381821
19	0xbd5a3adc	-0.05327879
20	0xbd80fde2	-0.06298424
21	0xbe210074	-0.15722829
22	0x3e02dd32	0.12779692
23	0x3c6c150f	0.014409318
24	0xbdc0f091	-0.094208844
25	0xbe0dba93	-0.13840704
26	0x3cc1995e	0.023632701
27	0xbe6a152f	-0.22859643
28	0xbe20c2b1	-0.15699269
29	0x3df3af84	0.11898711
30	0xbcb22e0c	-0.021750472
31	0xbe092539	-0.13393106
32	0x3d75c706	0.060004257
33	0xbe9ed3d8	-0.31021
34	0x3d8e53ec	0.069496006
35	0xbea92533	-0.33036193
36	0x3e2b8313	0.1674922
37	0xbcbbb391	-0.022912772
38	0x3dade69e	0.08491252
39	0xbddb6609	-0.10712821
40	0x3e069ac7	0.1314498
41	0x3d63164e	0.055441193
42	0xbdd79e78	-0.105282724
43	0xbeae976a	-0.34099895
44	0x3d4067fe	0.046974175
45	0x3d602109	0.054719005
46	0xbe5fb824	-0.21847588
47	0xbe013960	-0.12619543
48	0xbcb8b311	-0.022546323
49	0x3d25076d	0.040290285
50	0xbd2f7b12	-0.04284198
51	0xbe48979d	-0.19589086
52	0xbe197fa0	-0.14990091
53	0xbe153c13	-0.14573698
54	0xbe180662	-0.14846185
55	0xbe5a5d61	-0.21324684
56	0xbda16200	-0.0788002
57	0xbd8f51d9	-0.06998033
58	0xbd9bcb3f	-0.076071255
59	0xbde19385	-0.11014465
60	0x3da00eae	0.078153
61	0x3cc02ad3	0.02345792
62	0xbd0c08ff	-0.034188267
63	0x3c5a4924	0.013323102
64	0xbd927dff	-0.07152938
65	0xbe082349	-0.1329471
66	0xbdd9d008	-0.10635382
67	0xbd191bac	-0.037379906
68	0xbc930f33	-0.017951583
69	0xbd5bdff3	-0.05368037
70	0x3d816ed8	0.0631997
71	0x3d4bedb1	0.049787227
72	0xbe3973c2	-0.18110564
73	0xbd0ba0dd	-0.034088958
74	0x3de3bd56	0.11120097
75	0x3cd4983c	0.025951497
76	0xbdbf6ba9	-0.093467064
77	0xbb94b8fb	-0.004538653
78	0xbe6a89f0	-0.22904181
79	0xbe20953f	-0.15681933
80	0xbe43a2c9	-0.19105066
81	0x3d002384	0.03128387
82	0x3e256455	0.16151555
83	0xbe71df8f	-0.23620437
84	0xbcc378f7	-0.023861391
85	0xbcd12340	-0.025529504
86	0xbe0895e5	-0.1333843
87	0xbe1fc154	-0.15601093
88	0xbc834f97	-0.016029162
89	0xbe518361	-0.20460273
90	0x3da831f5	0.082126535
91	0xbeb086f0	-0.3447795
92	0x3e045f88	0.12927067
93	0xbe09a57e	-0.13442037
94	0x3d0ca792	0.034339495
95	0xbdb47cf2	-0.08812894
96	0x3e5c9d8a	0.21544471
97	0x3d7f6ba6	0.06235852
98	0x3da70b04	0.08156398
99	0xbd11db1f	-0.03560936
100	0x3d79fd9f	0.061032888
101	0x3e544f52	0.20733383
102	0x3cb43176	0.021996241
103	0x3d897231	0.067112334
104	0xbe65508b	-0.22394006
105	0xbeba0833	-0.3633438
106	0x3cbf3658	0.023341343
107	0xbd2fee94	-0.042952135
108	0xbddcc02c	-0.107788414
109	0x3d51e19e	0.051240556
110	0xbe1f3baa	-0.15550104
111	0x3cbbd6bd	0.022929544
112	0x3d3c1558	0.045918792
113	0x3d6d3f49	0.05792168
114	0xbd65353c	-0.05595897
115	0xbc1dd542	-0.009633364
116	0x3da2ee4e	0.07955609
117	0xba83929e	-0.0010038202
118	0x3d99c3ca	0.07508047
119	0xbd26de37	-0.040739264
120	0xbe5b70c2	-0.21429732
121	0xbddc8222	-0.10767008
122	0x3dc9e2b0	0.0985769
123	0xbbf27627	-0.0073993388
124	0xbdc8403f	-0.09777879
125	0xbb75a0cb	-0.0037479873
126	0xbe2e8768	-0.17043841
127	0x3d92d542	0.07169582

q1.2.weight f4 [128, 128]
0	0xbd23b281	-0.039965156
1	0xbe17e4e0	-0.14833403
2	0xbd89bd62	-0.06725575
3	0xbcd8861b	-0.026431134
4	0x3c550708	0.013002165
5	0xbc18157a	-0.009282464
6	0xbd061463	-0.032734286
7	0x3cfcde4e	0.030867722
8	0x3e271187	0.1631528
9	0x3e3631b8	0.17792404
10	0x3bdc50e4	0.00672351
11	0xc017edbe	-2.3738856
12	0x3df7ed5a	0.12105818
13	0xbe3a673d	-0.18203445
14	0x3d648989	0.055795226
15	0xbe0eff51	-0.13964583
16	0xbc7a8b97	-0.01529207
17	0xbb4daa13	-0.003138189
18	0x3c23133a	0.009953314
19	0x3d5703e6	0.052493952
20	0x3d6178d3	0.055046868
21	0x3e0c97e4	0.13729817
22	0xbccc5351	-0.024942072
23	0xbd83fea5	-0.06445054
24	0x3b0a64aa	0.002111713
25	0xbe316943	-0.1732531
26	0xbb05d691	-0.002042208
27	0xbecb6cf9	-0.39731577
28	0x3b9861bb	0.0046503223
29	0x3d022613	0.03177459
30	0x3e00c3b2	0.12574652
31	0xbe5ba87c	-0.2145099
32	0xbe466023	-0.19372611
33	0x3da42f87	0.080168776
34	0x3d4c4920	0.049874425
35	0xbf575fb5	-0.8413041
36	0x3d56f629	0.05248085
37	0x3e19f498	0.15034711
38	0xbe295b5f	-0.16538762
39	0xbdd4b066	-0.10385208
40	0x3d014202	0.03155709
41	0x3db742f2	0.08948316
42	0x3df0f4fd	0.11765478
43	0xbf155a9a	-0.5834137
44	0xbdab8867	-0.08375626
45	0x3d86d96c	0.06584439
46	0xbdfd61ed	-0.123721935
47	0xbd5ed2dd	-0.054400314
48	0xbdf68b13	-0.12038245
49	0xbcea58c6	-0.028606784
50	0xbd008110	-0.031373084
51	0xbdceafca	-0.10092123
52	0xbe826e7b	-0.25474915
53	0xbdd98399	-0.106208034
54	0x3dbac94c	0.091204256
55	0x3de71116	0.11282556
56	0x3ca02bf6	0.019552212
57	0x3e1e87b1	0.1548145
58	0xbdb48841	-0.08815051
59	0xbd8c2854	-0.068436295
60	0x3bb50d85	0.0055252933
61	0x3e395435	0.18098529
62	0x3e372337	0.17884527
63	0x3d1bcb77	0.038035836
64	0xbda48a21	-0.080341585
65	0xbddb41d7	-0.10705917
66	0x3e0fece7	0.14055215
67	0xbd2815ae	-0.0410363
68	0xbc393235	-0.011303474
69	0x3de78f16	0.11306588
70	0x3db38ccf	0.087670915
71	0xbd7b3290	-0.061327517
72	0xbc0d10c1	-0.0086099515
73	0x3dd23b40	0.10265207
74	0x3e3c55fd	0.18392177
75	0xbe0f7b51	-0.14011885
76	0x3d9c6487	0.076363616
77	0xbd1b39e2	-0.037897
78	0x3dbe768b	0.09299954
79	0x3df3bc43	0.119011424
80	0x3d5de069	0.054169092
81	0xbd12b0ad	-0.035813022
82	0xbd41aa6c	-0.047281668
83	0x3d2f8f3d	0.042861212
84	0x3e30febb	0.17284672
85	0xbd911673	-0.0708436
86	0xbdd6aa98	-0.10481757
87	0x3e07ab60	0.13248968
88	0xbd22cb0e	-0.03974443
89	0xbe414bc1	-0.18876554
90	0x3dc21fe7	0.09478741
91	0xbdcc9060	-0.09988475
92	0x3e46318d	0.1935484
93	0xbd300f26	-0.042983197
94	0xbd626504	-0.055272117
95	0x3c2c7ac3	0.010527316
96	0x3e0b2401	0.13587953
97	0xbda025dc	-0.07819721
98	0xbb919490	-0.004442759
99	0x3dc30e2d	0.09524188
100	0x3e1c4261	0.15259697
101	0x3e21a111	0.15784098
102	0xbcddebd7	-0.027089996
103	0xbbb94f60	-0.005655214
104	0xbec2bb04	-0.38033307
105	0xbd7d010a	-0.06176857
106	0x3d971119	0.07376308
107	0x3d90d0d7	0.07071083
108	0x3ca120fd	0.01966905
109	0xbd00607f	-0.031342026
110	0x3ca111f8	0.019661888
111	0xbde3251f	-0.11091065
112	0x3e04e6e7	0.12978707
113	0xbd5f8ef3	-0.054579686
114	0x3d1f56bd	0.03890108
115	0x3deede7b	0.116635285
116	0x3d9ebc27	0.07750731
117	0x3d861728	0.065473855
118	0x3e20c998	0.15701902
119	0xbdbcc979	-0.09218115
120	0xbdcb8201	-0.09936906
121	0x3d478614	0.04871185
122	0x3e2a0056	0.1660169
123	0xbda0c59d	-0.07850192
124	0x3dd8ed48	0.10592133
125	0x3d86e651	0.06586898
126	0xbd0b4159	-0.033997867
127	0x3616abb8	2.2451695e-06
128	0x3dfe73b0	0.124244094
129	0xbe060425	-0.13087519
130	0x3ba7e3f7	0.005123611
131	0x3d96d060	0.07363963
132	0xbe1410ba	-0.14459506
133	0x3e0d6a09	0.1380998
134	0xbdadb188	-0.08481127
135	0x3de567af	0.11201417
136	0x3be9cc3a	0.0071349414
137	0xbe1af2b3	-0.15131645
138	0x3da05273	0.07828226
139	0x3c1b6a34	0.00948577
140	0xbd999baf	-0.075003974
141	0x3d86b03d	0.065765835
142	0x3d5c8615	0.053838808
143	0x3d60884f	0.054817494
144	0x3dc3818a	0.09546192
145	0x3d532b7b	0.051555138
146	0x3d8e021d	0.06933997
147	0xbb5840f1	-0.0032997692
148	0xbd6db59b	-0.05803452
149	0xbe3988e6	-0.18118629
150	0x3db84e0f	0.089992635
151	0x3dd2a6d8	0.10285729
152	0xbe2ccf55	-0.16875966
153	0xbcc2a772	-0.023761485
154	0xbe242533	-0.16029815
155	0x3dbf71fa	0.09347911
156	0xbb3b0631	-0.0028537626
157	0xbc7aa03a	-0.01529699
158	0xbe251d44	-0.16124445
159	0x3d5515f2	0.05202288
160	0xbde564a5	-0.11200837
161	0x3e19984f	0.14999507
162	0xbd0445a3	-0.032292973
163	0xbda9424d	-0.08264599
164	0xbdf0c733	-0.11756744
165	0xbc1103aa	-0.008850971
166	0x3d857e53	0.06518235
167	0x3e1e4c6d	0.15458842
168	0xbdd3e415	-0.103462376
169	0xbdf110b2	-0.117707625
170	0x3ddd9a9c	0.10820505
171	0xbd61c3e5	-0.05511846
172	0x3d0629ac	0.032754585
173	0xbd90a0c5	-0.07061914
174	0xbde126ec	-0.10993752
175	0xbd11ef6d	-0.035628725
176	0x3dad3e22	0.084591165
177	0x3cb319fa	0.021862973
178	0x3cdb6fe6	0.026786756
179	0x3c0c61ea	0.008568266
180	0x3cf7c714	0.030246295
181	0x3d161750	0.036643326
182	0xbe040309	-0.12891783
183	0xbe2e88b3	-0.17044334
184	0xbe16e306	-0.1473504
185	0xbd2e4294	-0.042543963
186	0x3b69fcc0	0.003570363
187	0xbcaaf00a	-0.020866413
188	0xbe2f7f4a	-0.171384
189	0xbe17b369	-0.14814533
190	0xbced4749	-0.028964655
191	0xbe345155	-0.1760915
192	0x3d5f3561	0.054494265
193	0x3d22fd54	0.039792374
194	0xbdee47e0	-0.11634803
195	0xbc8f5690	-0.01749733
196	0xbe5df29a	-0.21674576
197	0x3cf60042	0.03002942
198	0xbc9971df	-0.018731056
199	0x3cba5c7c	0.022749178
200	0xbe163305	-0.146679
201	0xbdad72cd	-0.08469162
202	0xbe403964	-0.18771893
203	0xbdced602	-0.100994125
204	0xbce12af0	-0.027486295
205	0xbded8576	-0.11597721
206	0xbe81dcbb	-0.25363716
207	0x3da51dc2	0.080623165
208	0xbd179bfd	-0.037013996
209	0xbdecfe21	-0.11571909
210	0x3d6ea0aa	0.05825869
211	0xbdb92cca	-0.09041746
212	0xbdffc551	-0.12488807
213	0xbe11a00b	-0.14221208
214	0x3dd74cc7	0.10512691
215	0xbbb6e83d	-0.005581884
216	0xbe6b535b	-0.22981016
217	0xbd3ae6be	-0.04563021
218	0xbe59122e	-0.21198341
219	0x3b291cef	0.00258046
220	0x3db1e8e5	0.08686999
221	0xbd385c30	-0.04500979
222	0xbde3ac9a	-0.111169055
223	0xbb219d1a	-0.002466029
224	0x3dce233b	0.100653134
225	0x3cf4b61d	0.029871995
226	0xbcb0169d	-0.021495158
227	0x3d13e14d	0.036103535
228	0x3bdfd677	0.006830986
229	0xbd452aa9	-0.048136387
230	0x3b2c6ad1	0.0026308785
231	0x3dfba138	0.122866094
232	0x3dbf4930	0.09340131
233	0x3dddec28	0.10836059
234	0xbd8aa664	-0.06770018
235	0xbd8d5e1a	-0.06902714
236	0xbe1d5ca6	-0.15367374
237	0x3cbc7f86	0.023010027
238	0xbabfbd6a	-0.0014628593
239	0x3c7fa59a	0.015603447
240	0xbe055b70	-0.13023162
241	0xbe2cd82b	-0.16879337
242	0xbd546f22	-0.051863797
243	0xbd05a5a3	-0.032628667
244	0xbe382e96	-0.17986521
245	0xbbf90049	-0.007598911
246	0xbde09808	-0.10966498
247	0x3aa04b3b	0.0012229452
248	0x3c84e242	0.01622117
249	0xbe12a6c4	-0.14321429
250	0xbcc8ff39	-0.024535762
251	0xbdc9a1b2	-0.09845294
252	0xbda39187	-0.079867415
253	0xbd2af178	-0.04173419
254	0x3e03031f	0.1279416
255	0xbd8e22e5	-0.06940249

q1.2.bias f4 [128]
0	0x3dc75829	0.09733612
1	0xbd0318cb	-0.032006066
2	0x3da213d2	0.07913937
3	0x3e317f90	0.17333817
4	0xbc4ad39e	-0.012379555
5	0xbd397614	-0.045278624
6	0xbd65c7cf	-0.056098755
7	0xbd9bc3b3	-0.07605686
8	0xbb00a973	-0.001963225
9	0x3c6ba646	0.014382904
10	0x3dc7635c	0.09735748
11	0xbde56f69	-0.112028904
12	0x3c64f80e	0.0139751565
13	0xbb7b9e84	-0.0038394043
14	0x3d8d7c87	0.06908517
15	0x3e04042b	0.12892215
16	0x3dc40ac7	0.09572368
17	0xbd56a8a5	-0.052406926
18	0xbd23c24f	-0.03998023
19	0xbdba6eb1	-0.09103144
20	0x3c1fe9d7	0.009760342
21	0x3c56e26e	0.0131155085
22	0x3e053959	0.13010158
23	0xbd64fcaf	-0.05590504
24	0x3d150de6	0.036390208
25	0xbd27aa2e	-0.04093378
26	0xbd24bace	-0.040217213
27	0xbc5fe149	-0.013664552
28	0x3d1238d0	0.035698712
29	0x3c826809	0.015918748
30	0x3d8c6ed2	0.06857075
31	0xbd5fe8ea	-0.054665484
32	0x3c6aee79	0.014339083
33	0x3db294b2	0.08719768
34	0x3db1005f	0.08642649
35	0xbca68823	-0.020328587
36	0x3db4f54c	0.08835849
37	0xbd1ed476	-0.038776837
38	0xbd8d7dcc	-0.069087595
39	0xbd633f9b	-0.05548058
40	0xbd7800d3	-0.06054766
41	0x3e1166f3	0.14199428
42	0x3ddedaa2	0.10881545
43	0xbd004782	-0.031318195
44	0xbd9b14fe	-0.07572363
45	0x3d38edae	0.045148544
46	0x3da92e59	0.08260793
47	0xbc805ca3	-0.015669173
48	0xbd7f9272	-0.06239552
49	0xbc768682	-0.015046718
50	0xbd6d162d	-0.057882477
51	0x3db29381	0.087195404
52	0xbcde0f06	-0.027106773
53	0xbc52b5da	-0.01286074
54	0xbcbd8d66	-0.023138713
55	0xbc62f8bc	-0.013853248
56	0xbce25cce	-0.027632143
57	0x3daebb00	0.08531761
58	0x3d4e016c	0.050294325
59	0xbd916a7b	-0.07100388
60	0x3e02f3c0	0.12788296
61	0x3cb9382a	0.022609789
62	0xbdac983d	-0.08427475
63	0xbd6a0e6c	-0.05714266
64	0xbdad809f	-0.08471798
65	0xbda51bd3	-0.08061948
66	0x3d9ea8c2	0.07747032
67	0x3dbc89be	0.0920596
68	0xbcf25d29	-0.029585438
69	0x3dea6781	0.11445523
70	0x3cc1330c	0.023583911
71	0xbcb8ae91	-0.022544177
72	0x3dae51ab	0.08511671
73	0xbd6486bf	-0.055792566
74	0x3aec92e5	0.0018049149
75	0x3da3adbb	0.07992121
76	0x3d9abf40	0.07556009
77	0xbcd09d50	-0.025465637
78	0x3d6c4bba	0.057689406
79	0xbd5df13a	-0.05418513
80	0x3db1e688	0.086865485
81	0x3dd06b15	0.10176674
82	0x3df33ea8	0.11877185
83	0x3db58e42	0.08865024
84	0x3dd83994	0.10557857
85	0x3e0cbbac	0.13743466
86	0xbd98dd4e	-0.074640855
87	0x3ca0402b	0.019561848
88	0x3dd0ef41	0.10201884
89	0xbd9a456a	-0.07532771
90	0x3d6004c4	0.054692045
91	0x3db889bf	0.09010648
92	0xbd50e348	-0.050998002
93	0xbd2f9842	-0.042869814
94	0x3dcef1d4	0.10104719
95	0x3dd3a7ef	0.10334765
96	0xbd892c61	-0.06697918
97	0x3daf8976	0.085711405
98	0x3dfefd99	0.12450714
99	0x3d6133dc	0.054981098
100	0xbdfc4e51	-0.12319625
101	0x3cda4608	0.026644722
102	0xbce800c3	-0.028320676
103	0x3df5db5e	0.120047316
104	0x3df041cf	0.11731302
105	0x3dca2579	0.098704286
106	0xbbfa079c	-0.0076303016
107	0x3dcd1b17	0.100149326
108	0x3dd6f973	0.104967974
109	0x3dac5097	0.08413809
110	0x3dd95c7f	0.10613345
111	0x3d31d6b0	0.043417633
112	0xbd308c6d	-0.04310267
113	0xbdcf3fa3	-0.101195596
114	0x3d3e8d7a	0.04652164
115	0x3cc25020	0.023719847
116	0xbc6362bc	-0.013878521
117	0x3d955de2	0.07293297
118	0x3dbb32e4	0.09140566
119	0xbb835d44	-0.004008921
120	0xbd574c5c	-0.052563056
121	0x3d94cd3c	0.07265708
122	0x3db14d0d	0.086572744
123	0x3dcb8e77	0.099392824
124	0xbd1d5dc1	-0.03841949
125	0x3e00ebc6	0.1258994
126	0x3d7cd07f	0.061722275
127	0xbd0cff20	-0.034422994
