SAC/checkpoints/Pendulum-v1/07_last_checkpoint.pth (torch, 788418 bytes, 61 tensors)

log_alpha f8 []
-6.9664424905954085
00000000: cc49 aa19 a3dd 1bc0

actor.0.weight f4 [128, 3]
0.1962048 -0.32597643 -0.04349968 0.24025795 0.41498524 0.10346102 -0.22380666 -0.06002547
0.27494106 -0.16626258 0.0055940645 -0.061946277 0.035850134 0.35959455 0.1722572 -0.027965328
0.2951 0.117472745 -0.13835554 0.21201958 0.041933317 0.14239492 0.009311716 0.15307486
-0.23624218 -0.015515409 -0.22223416 0.22194201 0.32029322 0.10160155 -0.050389495 0.16532417
-0.077732906 -0.32064462 0.117984556 -0.19381127 0.24818735 -0.26031488 -0.12546204 -0.24683619
-0.0773017 -0.16444103 -0.19088015 -0.3722559 -0.07429246 -0.11223722 0.19319224 -0.19754809
-0.3183975 -0.03572866 0.20527779 0.29238743 -0.04815166 -0.11677563 0.26433256 0.20827715
0.032158528 -0.18318047 0.0008894605 0.09727067 0.20068227 -0.24603479 -0.08930375 0.27669582
0.27819335 0.1096486 0.17965722 -0.059569772 -0.072943255 0.07079503 0.25588638 -0.26552546
0.18437414 0.43939644 0.08299027 -0.27619815 0.3125115 0.056788005 -0.17067991 0.13527398
0.19124532 0.12681791 -0.3777254 0.093141034 -0.34643623 -0.4423169 -0.12946673 0.23863842
0.23976606 0.0946295 0.26981807 -0.3433893 -0.1235359 -0.32216626 -0.39980152 -0.120821685
-0.26443914 -0.33274493 -0.02450151 -0.18849695 -0.1328579 -0.05976616 -0.20116805 -0.44178146
-0.105967306 -0.4033215 0.2810923 -0.016713707 -0.47792 0.11243348 0.014908307 -0.16798994
0.49111435 0.096839234 0.060017582 -0.16568097 0.06415398 0.0824545 0.11712066 0.065554075
-0.3977622 0.086689204 -0.07931836 0.29719055 0.354025 0.1658786 -0.22781219 0.046816513
-0.14817463 0.29145253 -0.011925256 -0.2287366 0.35419962 -0.29259014 -0.11126505 0.26191607
-0.32713163 -0.111881435 -0.06797743 0.058531575 -0.1495249 0.2712497 -0.33570838 -0.11571825
-0.28907114 -0.33979875 -0.031100683 0.38057607 -0.3261809 -0.121338345 -0.07171802 -0.20824827
-0.10917785 -0.39109904 -0.1361799 0.039239995 0.15783112 0.16034958 -0.11979158 0.3112185
0.32648227 0.050759204 -0.027879223 -0.27179155 -0.047355656 -0.33795634 -0.11157585 -0.11400216
0.098318815 0.01964764 -0.0580267 0.070534565 0.46131635 0.09047833 -0.13164069 -0.31718716
0.15621346 0.17414378 -0.42705354 -0.08050849 -0.38867483 0.101531975 0.018058747 0.25179175
-0.21126351 -0.10044518 0.34589383 -0.3078273 -0.111383356 -0.22302197 -0.2546137 0.17094262
0.028238684 0.39562652 0.21366295 -0.1752061 -0.3067989 0.15764318 0.1590195 -0.45725355
-0.08713341 -0.14023337 0.0551953 0.1268185 -0.00078973477 0.3467542 -0.13754131 0.32436305
-0.33530855 -0.16147797 -0.23713587 0.28406918 0.082967825 -0.47524014 0.10424428 0.011957087
0.30350015 -0.37944108 -0.12992306 0.025045594 -0.28740892 -0.04655848 -0.15224855 0.38962626
0.07736167 -0.45570692 -0.0736868 -0.027619537 0.08266773 0.25473717 -0.294516 -0.04067606
0.29909858 -0.04884034 -0.0067591383 0.3580105 0.23049812 0.26831394 -0.3130277 -0.12018279
0.3553536 -0.20402467 0.17784733 0.23573351 -0.28592446 0.017920444 -0.31634963 -0.15713419
0.22396073 0.4048585 0.31256542 0.14864549 0.0050497777 0.1455426 -0.27638376 0.23633794
00000000: e9e9 483e 62e6 a6be b82c 32bd 2e06 763e
00000010: f278 d43e 5fe3 d33d 932d 65be 44dd 75bd
00000020: 13c5 8c3e bd40 2abe 6a4e b73b 61bb 7dbd
00000030: 97d7 123d c71c b83e 3164 303e 8b17 e5bc
00000040: 5917 973e 8d95 f03d 13ad 0dbe a91b 593e
00000050: 45c2 2b3d f9cf 113e 2b90 183c a8bf 1c3e
00000060: 78e9 71be 5834 7ebc 5a91 63be c444 633e
00000070: 79fd a33e 7914 d03d 3765 4ebd bd4a 293e
00000080: 6e32 9fbd 882b a4be e3a1 f13d 7676 46be
00000090: d324 7e3e fe47 85be 1f79 00be a0c2 7cbe
000000a0: 5b50 9ebd 3b63 28be 1676 43be 5398 bebe
000000b0: a526 98bd a1dc e5bd 30d4 453e 0c4a 4abe
000000c0: ff04 a3be 3758 12bd 5734 523e ceb3 953e
000000d0: ad3a 45bd 1028 efbd 9956 873e 9b46 553e
000000e0: a9b8 033d a993 3bbe af2a 693a d835 c73d
000000f0: a77f 4d3e 8bf0 7bbe e2e4 b6bd 13ab 8d3e
00000100: 5c6f 8e3e 728f e03d 10f8 373e 6fff 73bd
00000110: 4663 95bd fcfc 903d 8a03 833e f4f2 87be
00000120: 93cc 3c3e 92f8 e03e cdf6 a93d d869 8dbe
00000130: 8201 a03e 8a9a 683d b7c6 2ebe 4385 0a3e
00000140: d0d5 433e 8edc 013e 3965 c1be bac0 be3d
00000150: 1760 b1be 5c77 e2be ed92 04be a15d 743e
00000160: 3c85 753e 1ccd c13d 9825 8a3e b9d0 afbe
00000170: 6400 fdbd faf2 a4be c9b2 ccbe 5c71 f7bd
00000180: 9164 87be 8b5d aabe 64b7 c8bc 5805 41be
00000190: e70b 08be 5ccd 74bd fffe 4dbe 2e31 e2be
000001a0: 6305 d9bd 2880 cebe 54eb 8f3e 2feb 88bc
000001b0: eeb1 f4be 8643 e63d f941 743c 8e05 2cbe
000001c0: 5773 fb3e a653 c63d ffd4 753d 46a8 29be
000001d0: 2963 833d e8dd a83d f5dc ef3d 3741 863d
000001e0: 7da7 cbbe 1c8a b13d aa71 a2bd 5c29 983e
000001f0: c442 b53e 14dc 293e 9947 69be acc2 3f3d
00000200: 17bb 17be 4439 953e 2662 43bc ed39 6abe
00000210: a759 b53e 60ce 95be eede e3bd dd19 863e
00000220: cc7d a7be 1822 e5bd c037 8bbd cebe 6f3d
00000230: 0e1d 19be 3ee1 8a3e f8e1 abbe b1fd ecbd
00000240: 2201 94be 1afa adbe dcc6 febc deda c23e
00000250: 2f01 a7be 3d80 f8bd e6e0 92bd 093f 55be
00000260: a398 dfbd 223e c8be be72 0bbe 1eba 203d
00000270: 7b9e 213e ae32 243e 4a55 f5bd 0858 9f3e
00000280: af28 a73e e2e8 4f3d f862 e4bc 4328 8bbe
00000290: 01f8 41bd 9d08 adbe e181 e4bd f779 e9bd
000002a0: 605b c93d 16f4 a03c 68ad 6dbd 6d74 903d
000002b0: a831 ec3e b44c b93d d1cc 06be 5b66 a2be
000002c0: 6cf6 1f3e bf52 323e c3a6 dabe a3e1 a4bd
000002d0: 6300 c7be ffef cf3d f0ef 933c d9ea 803e
000002e0: 7655 58be 34b6 cdbd ff18 b13e 8a9b 9dbe
000002f0: f51c e4bd df5f 64be ba5c 82be 950b 2f3e
00000300: d054 e73c 8f8f ca3e 76ca 5a3e 3a69 33be
00000310: bf14 9dbe 376d 213e 02d6 223e 231d eabe
00000320: 0073 b2bd 5699 0fbe 7814 623d b5dc 013e
00000330: 3406 4fba c489 b13e a1d7 0cbe ea12 a63e
00000340: 90ad abbe 7b5a 25be bfd3 72be 8471 913e
00000350: 09eb a93d ad52 f3be 067e d53d a8e7 433c
00000360: 5f64 9b3e 1a46 c2be 8d0a 05be 6b2c cd3c
00000370: 4327 93be 1bb4 3ebd 0be7 1bbe 187d c73e
00000380: cc6f 9e3d 6b52 e9be 1be9 96bd 5e42 e2bc
00000390: b34d a93d e96c 823e cdca 96be f19b 26bd
000003a0: 7323 993e cf0c 48bd c37b ddbb 274d b73e
000003b0: b307 6c3e 7260 893e 2b45 a0be 6522 f6bd
000003c0: e8f0 b53e d8eb 50be 9c1d 363e 2064 713e
000003d0: b164 92be e5cd 923c 94f8 a1be c9e7 20be
000003e0: f655 653e 9d49 cf3e 9308 a03e 8636 183e
000003f0: 9b78 a53b 1f09 153e 2c82 8dbe 9302 723e

actor.0.bias f4 [128]
-0.02596762 -0.09619865 0.18586054 0.007608255 -0.08567444 -0.16931431 0.06555484 -0.07820289
-0.052270092 -0.10181566 0.11047101 -0.02937633 -0.16856128 -0.13566948 0.13827698 -0.21233399
-0.057726305 -0.013983343 0.044096105 -0.007467467 -0.100503035 -0.16217996 -0.24258947 -0.09487405
-0.028939292 0.01801893 -0.007340964 -0.0881351 0.12157274 -0.14126565 -0.13520026 0.11839828
0.09654834 0.05729042 0.0025241598 0.11275174 0.03186204 -0.02709192 -0.009997342 -0.1787181
0.061464563 -0.11846748 -0.019523222 -0.106935546 -0.062120985 -0.12928057 0.0068538818 -0.1273928
0.13632812 -0.07294592 0.027275342 0.14483036 -0.039943926 0.056031104 0.09619566 -0.06097433
-0.2663965 0.02445512 0.016614849 -0.022539347 0.0019772318 -0.1861995 -0.07102993 -0.033233486
-0.08202223 0.020910049 -0.0045534736 0.015511319 -0.0031332176 -0.21591079 0.07830693 0.08401998
-0.14891371 0.06401899 -0.0023142288 0.10622288 -0.08294474 0.049255375 -0.04736959 -0.119626686
-0.29232615 0.092215896 -0.011437255 -0.16990185 -0.1485587 -0.017928187 0.07991232 -0.21831559
0.069451906 -0.12543634 -0.04904169 0.12934567 -0.034356534 -0.23886892 0.12783687 0.115249634
0.032348897 -0.072817385 -0.05704894 0.075446025 -0.17168458 -0.28225285 -0.15534483 -0.09331695
0.11696978 0.093653336 0.07419065 -0.052793637 -0.15666196 -0.12584665 0.047611333 0.108126536
-0.17228615 -0.015926553 -0.12977439 -0.075789556 -0.16000015 -0.08342896 -0.18954884 -0.21016307
-0.02908242 -0.3606824 -0.021836637 -0.2019771 -0.048698988 0.10790859 -0.03444325 -0.18677072
00000000: 0cba d4bc cc03 c5bd 3a52 3e3e ab4e f93b
00000010: 1576 afbd bb60 2dbe 9e41 863d d628 a0bd
00000020: 2a19 56bd bb84 d0bd a03e e23d a1a6 f0bc
00000030: 549b 2cbe f1ec 0abe 7b98 0d3e 156e 59be
00000040: 6b72 6cbd 641a 65bc 1e9e 343d a7b1 f4bb
00000050: 89d4 cdbd 8112 26be 6069 78be 534d c2bd
00000060: 1812 edbc 6f9c 933c 788c f0bb 2d80 b4bd
00000070: 21fb f83d f1a7 10be f071 0abe cc7a f23d
00000080: 23bb c53d 5ca9 6a3d 606c 253b 62ea e63d
00000090: c581 023d e0ef ddbc e4cb 23bc e101 37be
000000a0: 44c2 7b3d 149f f2bd 2aef 9fbc 0601 dbbd
000000b0: 9372 7ebd 2062 04be 8796 e03b 4273 02be
000000c0: 9999 0b3e ac64 95bd 8a70 df3c 694e 143e
000000d0: 3e9c 23bd df80 653d 3b02 c53d 38c0 79bd
000000e0: 1f65 88be 1b56 c83c dd1b 883c 70a4 b8bc
000000f0: 7294 013b 15ab 3ebe 2478 91bd d61f 08bd
00000100: 45fb a7bd 8d4b ab3c 4e35 95bb 3023 7e3c
00000110: ab56 4dbb b817 5dbe 625f a03d ab12 ac3d
00000120: d67c 18be 631c 833d 51aa 17bb 628b d93d
00000130: efde a9bd 01c0 493d 9d06 42bd d6fe f4bd
00000140: c6ab 95be b0db bc3d 5363 3bbc c0fa 2dbe
00000150: c61f 18be 22de 92bc 12a9 a33d 1f8e 5fbe
00000160: cd3c 8e3d 6272 00be f0df 48bd 3173 043e
00000170: 70b9 0cbd 0e9a 74be abe7 023e 0008 ec3d
00000180: 4780 043d 4821 95bd 26ac 69bd 7283 9a3d
00000190: 15ce 2fbe 7283 90be b712 1fbe f51c bfbd
000001a0: da8d ef3d 52cd bf3d 44f1 973d 243e 58bd
000001b0: fe6b 20be f2dd 00be 1a04 433d 7271 dd3d
000001c0: c86b 30be 6778 82bc 94e3 04be 8e37 9bbd
000001d0: 14d7 23be cddc aabd 1719 42be fd34 57be
000001e0: 413e eebc 5dab b8be bfe2 b2bc 16d3 4ebe
000001f0: 9778 47bd 2eff dc3d 5e14 0dbd d340 3fbe

actor.2.weight f4 [128, 128]
0.03638833 0.1542952 -0.036830112 -0.27480838 0.11911578 -0.008070988 0.14085683 0.064597175
-0.39565915 0.0647602 0.0046856417 -0.26269314 0.015416419 -0.3133754 0.091019765 -0.38092443
0.04483592 -0.15583156 0.16728176 -0.094122276 -0.06282982 -0.003104559 0.1026114 0.013601582
0.08971567 0.06678222 0.17868565 -0.4288493 -0.08768942 -0.04206378 -0.04071067 -0.1415297
-0.009432326 -0.19294918 0.005880822 0.03505943 -0.5627625 -0.009985966 -0.44898432 0.20500728
-0.43738407 0.07271412 -0.26861525 0.14899619 -0.5187495 0.022158233 0.053549793 0.0027441827
-0.016596066 -0.58496314 -0.33915058 -0.40816855 -0.10713603 0.010049885 -0.009992245 -0.32241452
-0.10822182 0.20047554 -0.2675324 0.04534869 -0.5150262 0.13804787 -0.72218335 -0.24394031
0.20635341 -0.36953658 -0.16077214 0.02946776 0.0839992 0.055153273 -0.016008455 -0.46685103
0.036489643 -0.103310384 0.19282696 -0.63233095 -0.06438249 0.06351584 0.19448213 -0.10314718
-0.40034539 -0.4657424 0.03417918 0.042040266 -0.16265377 -0.039033588 -0.060571108 -0.1414295
-0.40317798 -0.42636982 -0.4305225 0.05409482 0.20242418 -0.038509395 0.16861576 -0.17493743
-0.13347295 -0.71532625 0.06479112 -0.2666226 -0.04167004 0.094568074 -0.005386553 -0.67647123
0.06661201 -0.17879333 0.010789212 -0.0853398 -0.21487632 0.07405536 -0.5677778 -0.06461941
0.08019079 0.02587421 0.10711816 -0.43810415 0.12142388 0.053520374 -0.062213313 -0.14808111
-0.080689274 -0.07153234 -0.01175576 -0.15258525 -0.34067705 0.061025545 0.070003755 -0.18459709
-0.09293725 -0.02770264 -0.06871939 0.118823625 0.04048414 -0.03263699 -0.023807827 0.04188114
0.01854847 0.116523184 0.07042743 -0.10600545 -0.074018426 -0.067903034 -0.38908938 -0.16764992
0.023310471 0.043665744 -0.036126815 0.17947136 -0.003818466 0.10053145 -0.104055986 0.14031793
0.02769225 0.042647477 0.025750285 0.0035300388 0.07355968 -0.012832651 -0.40006992 -0.21060945
-0.23463792 0.22825389 -0.2463031 -0.038081482 -0.18996255 0.12159745 0.06304962 0.1612081
-0.29666856 0.07467501 0.017116196 -0.08624976 0.05638361 -0.3364011 0.12504263 -0.3269976
-0.08859519 0.20880812 -0.02825171 -0.23832333 0.15751165 0.014688722 -0.12634404 0.11842845
-0.21299036 -0.0052172774 0.14126158 -0.1252766 -0.35785273 -0.090680994 0.15884195 -0.030277025
0.16705619 0.052833445 -0.32394114 0.101099834 -0.06731918 -0.13188902 0.097366676 -0.23207928
-0.048280835 -0.3423421 -0.19298278 -0.09659296 0.14284402 -0.019342318 0.066989474 -0.23013641
0.12434639 0.103915624 0.060519714 0.18435583 -0.0897165 0.0689744 -0.07619322 -0.10684613
0.16832566 -0.03835573 -0.113337465 -0.035888076 0.14190507 0.045813967 0.04147639 -0.09301536
-0.059117008 0.039284516 -0.23118748 -0.0545663 -0.019700164 0.29736075 0.16881157 0.07033596
0.05860781 -0.08258188 -0.23022527 -0.087914646 0.18133551 -0.088745356 -0.1007694 -0.09664428
0.070487574 -0.10509116 0.16292012 -0.01583361 -0.17521816 -0.16983783 -0.0017490358 0.23468775
0.14299491 0.15986449 -0.08247578 0.017902233 -0.049584977 -0.36142763 0.07658352 -0.009243601
00000000: ee0b 153d 90ff 1d3e 2cdb 16bd afb3 8cbe
00000010: f9f2 f33d 2d3c 04bc c63c 103e 864b 843d
00000020: d693 cabe ffa0 843d 038a 993b b77f 86be
00000030: 2695 7c3c be72 a0be 9268 ba3d 8708 c3be
00000040: dfa5 373d 4f92 1fbe e94b 2b3e 2ec3 c0bd
00000050: ecac 80bd db75 4bbb ed25 d23d 2bd9 5e3c
00000060: d9bc b73d 1ec5 883d 5ff9 363e 2392 dbbe
00000070: 8396 b3bd 124b 2cbd 3bc0 26bd 29ed 10be
00000080: 0b8a 1abc 7894 45be e9b3 c03b 7a9a 0f3d
00000090: 3411 10bf 2d9c 23bc 46e1 e5be 6eed 513e
000000a0: cef0 dfbe 24eb 943d f087 89be 7592 183e
000000b0: c4cc 04bf 2f85 b53c 0757 5b3d bfd7 333b
000000c0: 79f4 87bc 25c0 15bf 25a5 adbe 78fb d0be
000000d0: 236a dbbd 46a8 243c 83b6 23bc 8413 a5be
000000e0: 67a3 ddbd 7649 4d3e 02fa 88be 8cbf 393d
000000f0: c2d8 03bf 6c5c 0d3e 02e1 38bf 7dcb 79be
00000100: 4f4e 533e e633 bdbe 74a1 24be 5f66 f13c
00000110: c607 ac3d 66e8 613d 2a24 83bc 1907 efbe
00000120: 2a76 153d 6594 d3bd 6e74 453e 71e0 21bf
00000130: f8da 83bd 9814 823d 5326 473e d43e d3bd
00000140: 12fa ccbe ca75 eebe 78ff 0b3d 6a32 2c3d
00000150: b68e 26be afe1 1fbd 6919 78bd e5d2 10be
00000160: 586d cebe 254d dabe 726d dcbe 8892 5d3d
00000170: 4948 4f3e 07bc 1dbd 9ca9 2c3e cc22 33be
00000180: 22ad 08be 9f1f 37bf 35b1 843d c282 88be
00000190: 34ae 2abd e8ac c13d ae81 b0bb 382d 2dbf
000001a0: e16b 883d 9915 37be 3cc5 303c a2c6 aebd
000001b0: 8a08 5cbe 56aa 973d e359 11bf 2e57 84bd
000001c0: 123b a43d 27f6 d33c c460 db3d 304f e0be
000001d0: 15ad f83d 2e38 5b3d 63d3 7ebd 93a2 17be
000001e0: 6b40 a5bd 8c7f 92bd 3b9b 40bc 4f3f 1cbe
000001f0: 396d aebe ecf5 793d 215e 8f3d 0507 3dbe
00000200: e355 bebd a6f0 e2bc c0bc 8cbd cd59 f33d
00000210: b3d2 253d 5dae 05bd a208 c3bc 8f8b 2b3d
00000220: f6f2 973c b5a3 ee3d 423c 903d 6319 d9bd
00000230: f996 97bd bf10 8bbd b936 c7be 6cac 2bbe
00000240: 9af5 be3c dada 323d b6f9 13bd 57c7 373e
00000250: 3b3f 7abb 6fe3 cd3d 4e1b d5bd 81af 0f3e
00000260: dcda e23c 1faf 2e3d 43f2 d23c 3958 673b
00000270: 75a6 963d 0a40 52bc f7d5 ccbe 01aa 57be
00000280: ec44 70be 63bb 693e e136 7cbe 54fb 1bbd
00000290: 8b85 42be 1508 f93d 2920 813d bc13 253e
000002a0: f1e4 97be 36ef 983d 4437 8c3c b7a3 b0bd
000002b0: 80f2 663d c43c acbe 2d0b 003e 3b6c a7be
000002c0: 6571 b5bd ccd1 553e 2170 e7bc 080b 74be
000002d0: bc4a 213e f7a8 703c 5560 01be 9d8a f23d
000002e0: 251a 5abe b2f5 aabb e0a6 103e 8248 00be
000002f0: 7938 b7be f5b6 b9bd 77a7 223e 8607 f8bc
00000300: c710 2b3e e267 583d 9ddb a5be 6e0d cf3d
00000310: a3de 89bd ea0d 07be 2e68 c73d 31a6 6dbe
00000320: 20c2 45bd 7747 afbe 479d 45be 88d2 c5bd
00000330: b445 123e c873 9ebc c731 893d e1a8 6bbe
00000340: 52a9 fe3d b7d1 d43d 85e3 773d c6c7 3c3e
00000350: 49bd b7bd 7342 8d3d 310b 9cbd 25d2 dabd
00000360: 905d 2c3e e61a 1dbd 791d e8bd 60ff 12bd
00000370: 904f 113e 6da7 3b3d 26e3 293d d67e bebd
00000380: ad24 72bd cde8 203d 69bc 6cbe ea80 5fbd
00000390: 3d62 a1bc ab3f 983e f1dc 2c3e 4d0c 903d
000003a0: be0e 703d b020 a9bd 2cc0 6bbe 980c b4bd
000003b0: 04b0 393e 20c0 b5bd 3060 cebd 70ed c5bd
000003c0: ca5b 903d 093a d7bd 88d4 263e 7db5 81bc
000003d0: 646c 33be f8e9 2dbe e73f e5ba fc51 703e
000003e0: 426d 123e 84b3 233e 10e9 a8bd b4a7 923c
000003f0: 9e19 4bbd 0b0d b9be d2d7 9c3d 7972 17bc

actor.2.bias f4 [128]
-0.046526607 -0.061026264 -0.032758325 0.031233057 -0.046957243 -0.0015330674 0.057461414 0.017678468
-0.01170119 -0.002199421 -0.07798418 0.03662713 0.10042585 -0.019885084 -0.069473505 0.023806108
0.10901973 -0.025563672 -0.064162835 -0.026583258 -0.017145826 -0.036766835 0.10194483 0.07902353
0.0020328958 0.07615362 -0.0038551935 0.0 0.057484344 -0.09160799 0.107161604 0.039117727
-0.049725443 -0.08905417 0.046538834 -0.12671204 -0.0734014 0.06963628 0.047099724 0.0078077577
0.031179233 0.030468857 -0.05979859 -0.0049035912 0.09588142 0.14020815 0.13209417 0.16254774
-0.0184459 0.04476779 0.06175307 -0.037488036 -0.06662783 0.09555546 -0.048579432 0.042390797
0.01693143 -0.034650918 0.06134159 -0.00152516 -0.030564984 -0.11429123 -0.20876946 -0.0007445855
0.13507749 0.074742556 -0.03893252 -0.07751494 0.04095126 0.1187187 -0.1577029 0.082105964
-0.02787832 0.092017025 -0.10312204 0.07160725 0.003170258 -0.014372575 0.030747846 0.092746474
-0.071244724 -0.0063635577 0.122270934 0.057073526 -0.11686924 0.099852726 0.0046900213 -0.01949489
-0.0367996 0.03220896 -0.014847997 -0.020408856 -0.058525883 -0.16169882 0.037085388 0.011381832
-0.08636758 0.06851916 0.10625962 -0.03120819 0.04237239 0.04114864 0.06319359 0.035653386
0.009671523 -0.06818473 -0.037678853 -0.06528131 -0.0151181305 -0.039725557 0.06530766 0.036980122
0.0016780414 0.09781442 0.034410994 -0.023644578 0.0 -0.06523518 0.07412059 0.05518773
0.033062644 0.11282445 -0.046718195 0.04974515 0.090619564 0.06436972 0.101418085 0.04215358
00000000: af92 3ebd adf6 79bd 982d 06bd 78dc ff3c
00000010: 3d56 40bd 35f1 c8ba a95c 6b3d 6fd2 903c
00000020: 59b6 3fbc 2924 10bb 2bb6 9fbd 5406 163d
00000030: 11ac cd3d 0be6 a2bc 2048 8ebd 0705 c33c
00000040: bc45 df3d e86a d1bc ce67 83bd 22c5 d9bc
00000050: 6775 8cbc d298 16bd 73c8 d03d 17d7 a13d
00000060: 553a 053b 6ef6 9b3d 6aa7 7cbb 0000 0000
00000070: b474 6b3d f89c bbbd 8b77 db3d e939 203d
00000080: e8ac 4bbd 0862 b6bd 819f 3e3d cdc0 01be
00000090: 7953 96bd 779d 8e3d a4eb 403d 38d8 ff3b
000000a0: 976b ff3c d399 f93c 5eef 74bd 4eae a0bb
000000b0: 7a5d c43d ba92 0f3e b243 073e ea72 263e
000000c0: db1b 97bc 6e5e 373d caf0 7c3d 0e8d 19bd
000000d0: 2c74 88bd 95b2 c33d 3afb 46bd f9a1 2d3d
000000e0: c8b3 8a3c 1fee 0dbd 5241 7b3d e1e7 c7ba
000000f0: 6b63 fabc 8511 eabd a9c7 55be 4930 43ba
00000100: c151 0a3e a012 993d b577 1fbd 27c0 9ebd
00000110: 82bc 273d ca22 f33d de7c 21be 2c27 a83d
00000120: 1361 e4bc 6c73 bc3d a631 d3bd d2a6 923d
00000130: 1ac4 4f3b f37a 6bbc e8e2 fb3c ddf1 bd3d
00000140: c1e8 91bd 6485 d0bb 2f69 fa3d eec5 693d
00000150: 2459 efbd 967f cc3d c0ae 993b bfb3 9fbc
00000160: 2dbb 16bd 8bed 033d 0345 73bc 7930 a7bc
00000170: d6b8 6fbd 6094 25be d9e6 173d dd7a 3a3c
00000180: 7ce1 b0bd c653 8c3d a59e d93d 51a8 ffbc
00000190: ac8e 2d3d 7a8b 283d a46b 813d 4909 123d
000001a0: 4f75 1e3c 70a4 8bbd 2455 1abd 35b2 85bd
000001b0: 09b2 77bc 44b7 22bd 06c0 853d 7878 173d
000001c0: baf1 db3a ed52 c83d 8bf2 0c3d 46b2 c1bc
000001d0: 0000 0000 069a 85bd 89cc 973d 870c 623d
000001e0: b26c 073d 8110 e73d 945b 3fbd 92c1 4b3d
000001f0: c096 b93d 46d4 833d 49b4 cf3d 3ba9 2c3d

actor.4.weight f4 [2, 128]
-0.7171147 -0.22338468 -0.18684283 -0.35515422 -0.22928894 -0.051709946 -0.6994435 -0.16319032
-0.1405203 0.14603016 -0.29832622 0.18060286 0.20035104 0.0011328177 0.19870785 -0.20420167
-0.6224784 0.19707528 0.44964802 0.013453885 -0.77561027 -1.2776167 0.3721053 0.80081564
-0.5955057 0.116194464 -0.41366804 -0.03617163 -0.21485655 -0.5974056 0.3546503 -0.25018266
0.22583829 -0.19446993 -0.18957585 -0.06317075 0.48868862 0.7945179 0.9973857 -0.7500971
0.103682004 -0.028423697 -0.4825119 -0.022336511 -0.83479 -0.27733383 0.16819747 0.57721317
-0.16429603 0.0055072643 0.5944112 -0.27308637 -0.15832973 -0.1501411 -0.40299013 0.083825275
0.09082402 0.16108894 -0.2528129 -0.05186632 0.042396933 -0.285085 -0.63377756 0.3058902
0.35439816 -0.04561538 -0.16617316 0.15903263 0.77833545 -0.581154 -0.43937966 -0.47909734
-0.034090646 0.7620118 -0.22671637 -0.24632011 -0.48336032 0.3757818 0.63330865 0.113654874
0.46267954 0.16830508 0.20621823 -0.81897134 -0.5586913 0.47253808 -0.43898886 -0.20012406
0.27183348 -0.34090298 0.08095851 0.17479035 0.3096052 -0.47328195 0.05195546 -0.11797175
-0.27103686 -0.1474144 0.9082031 -0.5923912 0.7436587 -0.21155412 0.02697641 -0.20226519
0.09666596 -0.41063008 -0.21835676 0.4411846 0.020994565 0.3816048 -0.83703065 0.0636653
-0.9892266 0.38320658 -1.009738 -0.0020225605 0.018356105 -0.16618979 0.18426506 -0.17882754
0.8390138 0.4102465 -0.15383346 0.5400776 0.2720057 0.64621097 0.11839677 -0.27090192
0.0005039508 0.0028712752 0.13028944 0.09690242 0.12550509 0.043387525 -0.03718811 -0.14394897
0.18657924 -0.13146417 -0.04512637 -0.10224231 -0.23635857 -0.0048789233 -0.115374394 -0.25295177
-0.15746374 0.118887946 0.008868784 0.01653267 -0.06788001 -0.05667977 0.13484891 0.10030417
-0.079033405 -0.2201429 0.14772582 -0.13982889 -0.3457985 0.08790175 0.057727505 0.019689944
0.13312924 0.07586337 0.2507489 0.15538308 0.048588052 0.32005858 -0.22502276 -0.13420698
-0.15866286 -0.055839334 0.20063266 0.056845102 -0.049454816 -0.027656028 -0.097367816 -0.10364356
0.18082543 -0.107378274 0.01874773 0.06248804 0.1588272 -0.13582917 -0.09159993 -0.10349067
-0.062018704 -0.14639866 -0.3623514 -0.10036488 0.0436672 0.046350915 0.13504328 -0.23884907
-0.1920291 -0.25461286 0.024484435 0.07504851 0.14694203 0.3175975 0.20778316 0.28525856
0.17397621 -0.16232516 0.1725204 -0.06236303 -0.16790468 -0.055335216 0.08120994 -0.07103589
0.11711204 -0.14809597 -0.12874468 0.16671406 -0.19294748 0.09426688 -0.0017904118 0.11243446
-0.1121122 -0.23658848 0.1886467 0.011678765 0.062632 -0.03511229 -0.11335111 -0.29895166
0.15998411 -0.18346398 -0.11127076 0.045689717 0.021275118 -0.05240693 -0.09316361 -0.22831614
-0.038987666 -0.020958263 0.003985597 0.054447766 0.1632465 -0.023793632 0.05063304 -0.102461025
-0.06147233 0.22758172 0.056509852 0.15561359 0.19214131 0.036235746 -0.29007483 -0.11861566
0.094705716 0.13954982 -0.086281285 -0.34032732 0.14215091 -0.0037924685 -0.070812985 0.44101587
00000000: d494 37bf f4be 64be ba53 3fbe c6d6 b5be
00000010: b8ca 6abe cfcd 53bd bb0e 33bf 5d1b 27be
00000020: 8ee4 0fbe ee88 153e 37be 98be f5ef 383e
00000030: d328 4d3e 0e7b 943a 127a 4b3e 3e1a 51be
00000040: bf5a 1fbf 1ace 493e 4438 e63e af6d 5c3c
00000050: 658e 46bf f288 a3bf 9684 be3e 4102 4d3f
00000060: 1073 18bf 5df7 ed3d 4ccc d3be b428 14bd
00000070: 5b03 5cbe 93ef 18bf b994 b53e f117 80be
00000080: 2742 673e 2023 47be 2c20 42be ab5f 81bd
00000090: 6535 fa3e 8665 4b3f ab54 7f3f 5d06 40bf
000000a0: 3b57 d43d d0d8 e8bc cd0b f7be 0ffb b6bc
000000b0: ccb4 55bf b3fe 8dbe f53b 2c3e 3ec4 133f
000000c0: 383d 28be 4876 b43b 552b 183f fad1 8bbe
000000d0: 3021 22be 97be 19be b954 cebe 96ac ab3d
000000e0: f201 ba3d 80f4 243e b170 81be c771 54bd
000000f0: 68a8 2d3d a9f6 91be 3f3f 22bf a49d 9c3e
00000100: ad73 b53e 31d7 3abd 4c29 2abe 73d9 223e
00000110: fe40 473f 82c6 14bf 5ff6 e0be 3f4c f5be
00000120: a2a2 0bbd 3513 433f 5628 68be 573b 7cbe
00000130: 017b f7be 7966 c03e 8420 223f e3c3 e83d
00000140: 55e4 ec3e 2b58 2c3e df2a 533e 1ba8 51bf
00000150: 6506 0fbf 83f0 f13e 26c3 e0be 52ed 4cbe
00000160: c22d 8b3e d68a aebe 93cd a53d 3efc 323e
00000170: 9384 9e3e 0352 f2be 40cf 543d 2c9b f1bd
00000180: 58c5 8abe cdf3 16be 0080 683f f3a6 17bf
00000190: 6b60 3e3f a5a1 58be a2fd dc3c 9b1e 4fbe
000001a0: cef8 c53d 1b3e d2be ea98 5fbe f3e2 e13e
000001b0: cbfc ab3c b461 c33e a447 56bf f462 823d
000001c0: f43d 7dbf a733 c43e 183f 81bf ef8c 04bb
000001d0: 8b5f 963c a82d 2abe fbaf 3c3e 911e 37be
000001e0: 9cc9 563f d40b d23e 8586 1dbe 8742 0a3f
000001f0: 5544 8b3e 156e 253f 017a f23d a8b3 8abe
00000200: 911b 043a 012c 3c3b 986a 053e c774 c63d
00000210: 6884 003e 1eb7 313d 8f52 18bd 5c67 13be
00000220: a10e 3f3e 8b9e 06be 6ed6 38bd 6b64 d1bd
00000230: fb07 72be 60df 9fbb 6949 ecbd e582 81be
00000240: 2d3e 21be 867b f33d 604e 113c 866f 873c
00000250: ad04 8bbd 0c29 68bd d515 0a3e 466c cd3d
00000260: 44dc a1bd 246d 61be 7045 173e 4e2f 0fbe
00000270: 800c b1be d505 b43d ad73 6c3d ce4c a13c
00000280: 0853 083e 415e 9b3d 2962 803e be1c 1f3e
00000290: 4404 473d b8de a33e 5e6c 66be 8e6d 09be
000002a0: 8478 22be c9b7 64bd a672 4d3e 69d6 683d
000002b0: 2291 4abd e58e e2bc c768 c7bd 1343 d4bd
000002c0: 4d2a 393e 24e9 dbbd d794 993c 76f3 7f3d
000002d0: 99a3 223e cd16 0bbe be98 bbbd ebf2 d3bd
000002e0: 5307 7ebd 88e9 15be 1f86 b9be 1a8c cdbd
000002f0: 61dc 323d 75da 3d3d c948 0a3e da94 74be
00000300: 47a3 44be 9e5c 82be 9593 c83c 09b3 993d
00000310: f977 163e 249c a23e 1cc5 543e 690d 923e
00000320: d226 323e 9138 26be 30a9 303e 6070 7fbd
00000330: 34ef 2bbe 2ea7 62bd 6651 a63d 447b 91bd
00000340: 70d8 ef3d 78a6 17be a5d5 03be 17b7 2a3e
00000350: 0694 45be fe0e c13d 40ac eaba 0a44 e63d
00000360: 159b e5bd 4044 72be 9a2c 413e 4a58 3f3c
00000370: 3545 803d e8d1 0fbd a024 e8bd 3110 99be
00000380: e0d2 233e fbdd 3bbe ede1 e3bd 2425 3b3d
00000390: 2849 ae3c a6a8 56bd 90cc bebd b5cb 69be
000003a0: 88b1 1fbd aab0 abbc 9c99 823b 9f04 5f3d
000003b0: 172a 273e ddea c2bc 9764 4f3d 16d7 d1bd
000003c0: 69ca 7bbd 2f0b 693e e076 673d 2b59 1f3e
000003d0: b1c0 443e ef6b 143d b084 94be c4ec f2bd
000003e0: 12f5 c13d 26e6 0e3e 3eb4 b0bd 623f aebe
000003f0: 0290 113e 108b 78bb 6606 91bd d5cc e13e

actor.4.bias f4 [2]
0.011557173 -0.099720314
00000000: 4c5a 3d3c 2a3a ccbd

q1.0.weight f4 [128, 4]
0.25626257 -0.046042353 0.071970485 0.057795722 0.11184353 0.52733296 0.12205448 0.037588272
-0.40764078 0.12806734 0.14255983 0.06547908 0.37976685 -0.38265476 -0.13544127 -0.056124654
-0.30631718 0.17674197 -0.038687356 -0.091879085 -0.017453056 -0.02137083 0.007030792 0.16727583
-0.21574272 0.18310843 -0.008145526 0.03627887 -0.007474643 0.19934368 -0.16877939 -0.019764949
0.44386154 0.24454714 -0.019406749 -0.02929781 0.3406344 -0.30057204 -0.017039506 -0.024575483
0.020861791 0.6925401 0.11150858 0.038427845 0.32751304 0.21879363 0.12829731 0.04033171
0.44473824 0.02484518 0.032589138 0.004511863 -0.06256141 0.3122482 0.12010777 0.018898863
0.050995436 -0.04137453 -0.15209271 -0.11562467 -0.020779114 -0.13617854 -0.118852615 0.026202247
0.23161939 0.024376579 0.118881404 0.018315172 0.29834017 0.058661055 0.12451632 0.12816922
-0.16059265 0.026440943 0.10295645 -0.03242228 -0.20992926 0.13139537 -0.06378333 -0.10602433
0.008471276 -0.009873 -0.06796045 -0.14947012 -0.1553785 0.030404354 0.08369059 -0.006712871
-0.26753762 0.5490016 0.13468951 0.041698046 -0.15036668 -0.36962172 -0.062494125 -0.013673439
-0.12334616 -0.054440767 0.025158787 -0.12477684 0.05775583 0.19044553 0.12085815 -0.05423953
-0.1729477 0.28502068 0.044934224 0.013015459 0.43001068 0.6209126 0.16685499 0.049160663
0.057844464 0.19639294 -0.11132753 -0.047205817 0.335278 0.37845102 5.086488e-05 -0.005671737
-0.31653932 0.054455474 -0.038595844 0.045967907 0.25369826 0.42380008 0.118650384 0.03362029
0.15529893 -0.20376451 0.119208254 0.18131165 0.2963142 -0.17305139 -0.13429746 -0.03782998
0.1264403 0.08581094 -0.11860551 0.09012908 0.3313107 0.19419742 0.15351455 0.03616997
-0.3226755 -0.4917049 -0.14385507 -0.043344777 -0.030638281 -0.08140121 0.008134804 0.01753492
0.19224216 -0.1496099 0.10938851 -0.06662532 0.1477356 -0.065725885 -0.108066395 -0.013289262
-0.19309363 -0.12446248 -0.05951811 -0.013824595 -0.3765184 0.26865909 -0.070994966 0.089876845
-0.011319205 -0.062024817 -0.04630976 0.040728483 0.4467705 0.32527205 0.15861699 0.052751303
-0.3299216 0.14058562 0.025818368 0.010219635 -0.3550203 -0.04275871 0.1278698 0.08561015
0.22106968 0.15162599 0.12882416 0.03054219 -0.12235019 0.39914134 0.14467624 -0.009159463
-0.16530912 0.0027757022 -0.053784154 -0.18361673 -0.19658518 -0.28684908 0.045416858 -0.017108304
0.14714092 -0.029548332 -0.09565945 -0.009571378 0.17101878 0.20388721 -0.06710091 -0.006898474
0.34642455 0.42875367 0.14138807 0.03850601 0.1403946 -0.0004640007 0.12752675 0.015826141
0.3136456 -0.4476039 -0.12678605 -0.028801136 0.13454673 -0.51754165 -0.1208497 -0.03540477
0.11238143 0.23052324 0.055846155 0.02403286 0.08405193 0.4114792 0.065504685 0.030365882
0.15805055 0.06011212 -0.05056925 -0.08797212 0.024633091 0.017103408 -0.08805798 -0.023385433
-0.1936533 0.21725869 -0.009225361 -0.03905521 0.28846347 0.008988544 -0.08145742 0.1340743
-0.14188235 0.18675408 0.03155533 -0.14217319 -0.3247768 0.12005603 0.0200472 0.022572061
00000000: d934 833e e896 3cbd 4365 933d 35bb 6c3d
00000010: 380e e53d 4bff 063f b3f7 f93d 29f6 193d
00000020: 4bb6 d0be 1624 033e 34fb 113e e519 863d
00000030: cd70 c23e 53eb c3be 1eb1 0abe f7e2 65bd
00000040: 9bd5 9cbe d9fb 343e a276 1ebd 1a2b bcbd
00000050: b6f9 8ebc e111 afbc 8f62 e63b 5b4a 2b3e
00000060: a9eb 5cbe c780 3b3e d074 05bc 2799 143d
00000070: daed f4bb c020 4c3e 81d4 2cbe 1aea a1bc
00000080: d241 e33e 916a 7a3e e7fa 9ebc f601 f0bc
00000090: a267 ae3e 94e4 99be 6f96 8bbc 8652 c9bc
000000a0: 59e6 aa3c 4f4a 313f 9c5e e43d 8466 1d3d
000000b0: caaf a73e 700b 603e 5f60 033e dd32 253d
000000c0: bbb4 e33e 1e88 cb3c 307c 053d 40d8 933b
000000d0: 3220 80bd ffde 9f3e 10fb f53d cad1 9a3c
000000e0: 97e0 503d 5778 29bd 31be 1bbe a1cc ecbd
000000f0: f638 aabc 6372 0bbe 0069 f3bd 18a6 d63c
00000100: a22d 6d3e 64b1 c73c 1878 f33d b309 963c
00000110: 0bc0 983e 9346 703d 6a02 ff3d cb3e 033e
00000120: 6672 24be ad9a d83c d5da d23d 3acd 04bd
00000130: b2f7 56be 828c 063e d6a0 82bd 4923 d9bd
00000140: 1bcb 0a3c 5dc2 21bc d92e 8bbd b20e 19be
00000150: 8b1b 1fbe 8d12 f93c f965 ab3d a5f7 dbbb
00000160: b1fa 88be 5e8b 0c3f 0cec 093e 92cb 2a3d
00000170: b9f9 19be 0f3f bdbe d7f9 7fbd 8f06 60bc
00000180: e99c fcbd 48fd 5ebd cd19 ce3c 008b ffbd
00000190: 6191 6c3d 2704 433e 7a84 f73d 452a 5ebd
000001a0: 3419 31be 3bee 913e f30c 383d cb3e 553c
000001b0: 5c2a dc3e 21f4 1e3f 09dc 2a3e b15c 493d
000001c0: 51ee 6c3d 3b1b 493e b0ff e3bd e35a 41bd
000001d0: 8fa9 ab3e 55c4 c13e c057 5538 fad9 b9bb
000001e0: 7111 a2be b40c 5f3d ad16 1ebd d848 3c3d
000001f0: bde4 813e 53fc d83e f9fe f23d 6eb5 093d
00000200: af06 1f3e a5a7 50be 7523 f43d c3a9 393e
00000210: 7fb6 973e 6234 31be 4685 09be 9cf3 1abd
00000220: 9179 013e a5bd af3d 72e7 f2bd 9895 b83d
00000230: 8ea1 a93e b0db 463e eb32 1d3e f626 143d
00000240: b935 a5be bfc0 fbbe be4e 13be 4b8a 31bd
00000250: 22fd fabc adb5 a6bd d747 053c 64a5 8f3c
00000260: 21db 443e 5633 19be 1507 e03d db72 88bd
00000270: 0048 173e 4b9b 86bd ea51 ddbd 34bb 59bc
00000280: 56ba 45be 2fe6 febd 43c9 73bd 8e80 62bc
00000290: 05c7 c0be af8d 893e cf65 91bd 5a11 b83d
000002a0: 3074 39bc bc0d 7ebd 4eaf 3dbd e9d2 263d
000002b0: 1abf e43e 0f8a a63e 7e6c 223e c011 583d
000002c0: 7ceb a8be adf5 0f3e 0b81 d33c 4270 273c
000002d0: 39c5 b5be c223 2fbd 4df0 023e 6054 af3d
000002e0: 1760 623e d843 1b3e 7bea 033e 9d33 fa3c
000002f0: bd92 fabd 415c cc3e 0226 143e 9311 16bc
00000300: cb46 29be 8ee8 353b c64c 5cbd 0606 3cbe
00000310: a04d 49be e2dd 92be 0707 3a3d b726 8cbc
00000320: 1cac 163e 580f f2bc 1ae9 c3bd 45d1 1cbc
00000330: 8c1f 2f3e cfc7 503e 346c 89bd 980c e2bb
00000340: 8f5e b13e 9a85 db3e 09c8 103e 7ab8 1d3d
00000350: 9ac3 0f3e 1f45 f3b9 5f96 023e d3a5 813c
00000360: 2896 a03e 572c e5be 34d4 01be 5cf0 ebbc
00000370: 9ec6 093e 9c7d 04bf 0c80 f7bd 9804 11bd
00000380: 3c28 e63d 490e 6c3e f0be 643d 8fe0 c43c
00000390: 6b23 ac3d 67ad d23e 5227 863d dfc1 f83c
000003a0: 01d8 213e 2038 763d b421 4fbd ba2a b4bd
000003b0: 56cb c93c 721c 8c3c be57 b4bd cf92 bfbc
000003c0: 0d4d 46be 1079 5e3e f825 17bc 5bf8 1fbd
000003d0: 7cb1 933e b044 133c 26d3 a6bd c64a 093e
000003e0: 9b49 11be 763c 3f3e 2940 013d d995 11be
000003f0: 2549 a6be f0df f53d 073a a43c 0be9 b83c

q1.0.bias f4 [128]
-0.10001585 -0.2535968 0.0075530894 -0.17094012 0.07217473 -0.05658091 0.07030536 -0.08123125
0.025317898 0.0827095 -0.007419591 -0.2843549 0.14933886 -0.03773948 -0.2109868 -0.15155023
-0.16437882 0.026140971 -0.15097483 -0.0590899 -0.012885781 -0.112464614 0.07656997 0.04174058
-0.05782778 -0.08304728 0.10132437 -0.106926605 0.018825457 0.09689788 0.03350907 -0.11414514
-0.0971583 -0.36688316 0.025504181 -0.43204558 0.1598445 -0.010982596 0.056447968 -0.07579774
0.1417223 0.03361499 -0.031506084 -0.29464257 0.01911101 0.09072331 -0.2926991 -0.119756304
-0.019324763 0.15999074 -0.010253371 -0.103710495 -0.14836629 -0.12578173 -0.14766991 -0.27451283
-0.09097231 -0.065645196 -0.09373686 -0.058706727 0.12305295 0.022509426 -0.07730965 -0.00481983
-0.11567118 -0.17092304 -0.35352647 -0.04106927 0.014469381 -0.017042967 0.0033386326 -0.08479465
-0.12302647 0.052114386 0.11323021 0.03977396 -0.17617746 -0.104691245 -0.16305722 -0.3024129
-0.1382444 0.018468719 0.1732194 -0.12719606 -0.012874686 -0.03319323 -0.06259689 -0.12770012
-0.1128965 -0.31932494 0.022229949 -0.2670095 0.09930624 -0.105149604 0.015782975 -0.06484719
0.2325026 0.026576899 0.08420383 -0.045568634 0.0982934 0.17488596 0.04162442 0.09916484
-0.2062791 -0.38357025 -0.09889767 -0.0524512 -0.11595808 -0.009127912 -0.16872211 0.013061926
0.09534693 0.08340815 -0.03332137 -0.005793752 0.035585146 -0.06789176 0.09415405 -0.14673243
-0.22529294 -0.074393205 0.14208955 0.0027419592 -0.14469825 0.04367018 -0.018087327 0.07893759
00000000: 1cd5 ccbd 71d7 81be e87f f73b ed0a 2fbe
00000010: 58d0 933d 62c1 67bd 42fc 8f3d 925c a6bd
00000020: 7b67 cf3c 9963 a93d 0a20 f3bb f796 91be
00000030: 49ec 183e b794 1abd ec0c 58be fc2f 1bbe
00000040: ec52 28be 9725 d63c 2599 1abe 4008 72bd
00000050: e21e 53bc d953 e6bd b7d0 9c3d 2cf8 2a3d
00000060: d2dc 6cbd b114 aabd 2783 cf3d 56fc dabd
00000070: d837 9a3c 6572 c63d ce40 093d edc4 e9bd
00000080: eefa c6bd 1cd8 bbbe 25ee d03c 1435 ddbe
00000090: 47ae 233e 59f0 33bc fc35 673d d83b 9bbd
000000a0: a71f 113e dfaf 093d 860c 01bd 64db 96be
000000b0: b18e 9c3c 25cd b93d a8dc 95be cb42 f5bd
000000c0: f74e 9ebc 9dd4 233e c1fd 27bc 2b66 d4bd
000000d0: 55ed 17be edcc 00be c836 17be f28c 8cbe
000000e0: b14f babd fd70 86bd 1cf9 bfbd 7776 70bd
000000f0: 2f03 fc3d b065 b83c 8654 9ebd aaef 9dbb
00000100: 03e5 ecbd 7306 2fbe 6c01 b5be 4038 28bd
00000110: fc10 6d3c b19d 8bbc f6cc 5a3b d1a8 adbd
00000120: 4df5 fbbd e575 553d 3ee5 e73d 05ea 223d
00000130: dd67 34be 5d68 d6bd 79f8 26be ddd5 9abe
00000140: f18f 0dbe b64b 973c 6d60 313e af3f 02be
00000150: 59f0 52bc a0f5 07bd cc32 80bd d2c3 02be
00000160: 4836 e7bd 8f7e a3be 951b b63c 78b5 88be
00000170: 1261 cb3d ad58 d7bd 4c4b 813c 9bce 84bd
00000180: 2915 6e3e ccb7 d93c 0f73 ac3d 2da6 3abd
00000190: 0d4e c93d 4e15 333e 5e7e 2a3d f016 cb3d
000001a0: d43a 53be 5263 c4be dd8a cabd 12d7 56bd
000001b0: 6e7b edbd 3d8d 15bc 7dc5 2cbe b001 563c
000001c0: 4045 c33d e4d1 aa3d fd7b 08bd 84d9 bdbb
000001d0: bbc1 113d d60a 8bbd d7d3 c03d 0741 16be
000001e0: 31b3 66be 775b 98bd ec7f 113e 71b2 333b
000001f0: c72b 14be 81df 323d e02b 94bc 08aa a13d

q1.2.weight f4 [128, 128]
0.0013261682 -0.12176726 -0.026678171 -0.03529056 0.048930332 0.027149353 0.077346675 -0.16555108
-0.07968892 0.21197695 0.05685731 -1.925558 0.31099263 -0.16542135 -0.25690737 -0.3484766
-0.036875833 -0.0403335 0.026735729 0.023293305 -0.07707266 0.15321 0.046643585 -0.11482447
0.020569628 -0.15290485 0.025048876 -0.53273636 -0.20095359 -0.5341177 0.126504 -0.3068914
-0.15623005 0.09142985 -0.12498926 -1.7811799 -0.003779854 0.105559036 -0.14443603 -0.3104511
0.0018766326 0.090712115 0.05098428 -0.8690525 -0.02668738 0.089885905 0.06345446 -0.03086809
-0.09505039 -0.041618988 -0.22911277 -0.36516672 -0.43624383 -0.11594418 0.06518721 0.06384906
-0.021017158 0.13303676 -0.06007054 -0.25963175 0.085187435 0.117082044 0.2617507 0.08932378
-0.08432936 -0.070284285 0.26978412 -0.11378479 0.026220487 -0.030112894 0.084722705 -0.16259474
-0.041797686 0.1870154 0.16227852 -0.17070013 -0.19683336 -0.13288175 0.16676316 -0.089971706
0.06159504 0.012661816 -0.018561177 0.0033889927 0.16362786 -0.13078126 -0.05615942 -0.14131318
-0.03944746 -1.6940513 0.12227957 -0.012383572 0.1831946 -0.13704105 -0.12809841 -0.015493925
0.18411452 -0.1435211 0.109110445 0.0481197 0.13006522 0.1684695 -0.07407037 0.017598618
-0.75907975 0.020009391 -0.0023719922 0.07346636 0.009198954 -0.108713716 -0.20640197 -0.18419683
0.06322117 -0.0809739 -0.025465116 0.1497269 0.105883405 0.092068285 0.2266023 -1.4715593
-0.36789978 0.037720848 0.2151032 -0.05931231 0.11538522 0.13532221 0.025074167 -0.14597912
0.09445382 -0.12563594 0.046206728 0.05970314 -0.12827171 0.09245124 -0.036165774 0.09195398
-0.049692567 -0.1635575 0.092707224 -0.024347693 -0.0920315 0.08223228 0.050021123 0.07361733
0.061821293 0.028248021 0.11356996 0.016664634 -0.023955213 -0.10363852 0.091460876 0.098499596
-0.12309874 -0.033242915 -0.15204991 0.07613923 -0.033606444 -0.051624473 -0.14676529 0.053340953
-0.12437716 0.1348906 0.014204508 -0.12433987 -0.10666678 0.09139684 0.0367671 0.14109617
-0.04027166 -0.017913297 0.12313046 -0.07501146 0.106008954 -0.06345655 -0.13559094 -0.022645798
0.087734915 0.03277117 0.017776249 -0.004777075 0.0049441974 0.008630154 -0.12154041 -0.14236367
-0.13221787 -0.07332873 0.01610517 -0.032456085 -0.12408013 -0.1571411 0.046472248 -0.08189893
0.042279962 0.10194097 -0.11384088 0.0028093134 -0.14492178 -0.010744779 0.021102292 0.072515406
-0.11069353 -0.09809848 -0.18145443 -0.09525025 -0.017626433 -0.06871218 -0.11170235 0.0532291
-0.039353356 -0.08109143 0.05041423 -0.066054106 -0.12308724 -0.14626433 0.10786833 0.024073133
-0.17680752 -0.067939594 -0.13894534 0.0845699 0.104728386 -0.0700464 -0.10663431 0.0082315495
0.10991485 0.03408154 -0.014786203 0.032265496 -0.009752401 -0.09820801 -0.05370883 0.09112346
0.060883887 0.13222924 -0.08675407 -0.036860075 -0.16916867 0.02997523 0.011111307 0.042399004
-0.117769614 -0.16155678 -0.07403766 -0.010196967 -0.17441668 -0.02844463 -0.045935746 0.016292239
-0.003707362 -0.13398872 0.01345801 -0.14329067 -0.051276978 -0.037766684 0.08789188 -0.117851004
00000000: d2d2 ad3a 1d61 f9bd 2e8c dabc d68c 10bd
00000010: 2c6b 483d 5268 de3c ef67 9e3d 3986 29be
00000020: f233 a3bd 7c10 593e 36e3 683d af78 f6bf
00000030: 6d3a 9f3e 3764 29be 5d89 83be 866b b2be
00000040: 1d0b 17bd bd34 25bd e304 db3c 9ad1 be3c
00000050: 45d8 9dbd 15e3 1c3e 580d 3f3d 1729 ebbd
00000060: a381 a83c 1793 1cbe 4d33 cd3c 6961 08bf
00000070: c7c6 4dbe f0bb 08bf 448a 013e df20 9dbe
00000080: c5fa 1fbe 933f bb3d 5ffa ffbd b4fd e3bf
00000090: 6db7 77bb 562f d83d 0ae7 13be 72f3 9ebe
000000a0: 57f9 f53a 46c7 b93d e4d4 503d 3a7a 5ebf
000000b0: 7e9f dabc 1a16 b83d 69f4 813d 14df fcbc
000000c0: c7a9 c2bd ac78 2abd 8a9c 6abe 22f7 babe
000000d0: 5a5b dfbe 2474 edbd df80 853d 4cc3 823d
000000e0: 2d2c acbc ca3a 083e 870c 76bd 74ee 84be
000000f0: c076 ae3d b6c8 ef3d 3004 863e 63ef b63d
00000100: dfb4 acbd 35f1 8fbd 2521 8a3e 0008 e9bd
00000110: 59cc d63c 51af f6bc 1983 ad3d 3c7f 26be
00000120: 0d34 2bbd f780 3f3e 572c 263e 04cc 2ebe
00000130: af8e 49be 2712 08be f6c3 2a3e 1643 b8bd
00000140: 154b 7c3d 8173 4f3c 9c0d 98bc dd19 5e3b
00000150: 108e 273e 86eb 05be 6c07 66bd 67b4 10be
00000160: a993 21bd acd6 d8bf b66d fa3d 77e4 4abc
00000170: 5d97 3b3e 7d54 0cbe 3b2c 03be 3bda 7dbc
00000180: 8488 3c3e 32f7 12be 4c75 df3d 2a19 453d
00000190: d12f 053e 4583 2c3e 35b2 97bd fa2a 903c
000001a0: 0d53 42bf bcea a33c 6d73 1bbb 8875 963d
000001b0: 36b7 163c 4ca5 debd 0a5b 53be 189e 3cbe
000001c0: 1a7a 813d a5d5 a5bd 389c d0bc 0252 193e
000001d0: 66d9 d83d 4c8e bc3d 6f0a 683e 0e5c bcbf
000001e0: 5c5d bcbe 2d81 1a3d 0344 5c3e 77f1 72bd
000001f0: 164f ec3d e891 0a3e 5768 cd3c 8d7b 15be
00000200: 0171 c13d b5a6 00be 4443 3d3d 488b 743d
00000210: a959 03be 1357 bd3d 9022 14bd 5e52 bc3d
00000220: 6f8a 4bbd 9e7b 27be 49dd bd3d d074 c7bc
00000230: 037b bcbd 6669 a83d f3e2 4c3d afc4 963d
00000240: 5338 7d3d 6568 e73c 5e97 e83d 4584 883c
00000250: b93d c4bc 6f40 d4bd d74f bb3d 28ba c93d
00000260: 311b fcbd b929 08bd f9b2 1bbe e2ee 9b3d
00000270: e9a6 09bd 2f74 53bd a449 16be 0b7c 5a3d
00000280: 74b9 febd c320 0a3e 06ba 683c e7a5 febd
00000290: 1d74 dabd 442e bb3d 1999 163d 847b 103e
000002a0: e5f3 24bd e8be 92bc d32b fc3d 9c9f 99bd
000002b0: 391b d93d 82f5 81bd 5ad8 0abe ae83 b9bc
000002c0: 5dae b33d 103b 063d 7f9f 913c 0289 9cbb
000002d0: ef02 a23b 7d65 0d3c 2eea f8bd c8c7 11be
000002e0: 1f64 07be 602d 96bd fdee 833c acf0 04bd
000002f0: b91d febd 99e9 20be af59 3e3d a0ba a7bd
00000300: c12d 2d3d 6dc6 d03d 6825 e9bd 751c 383b
00000310: 6066 14be df0a 30bc b7de ac3c f582 943d
00000320: 4ab3 e2bd dbe7 c8bd 31cf 39be 9012 c3bd
00000330: 4f65 90bc f9b8 8cbd 34c4 e4bd c206 5a3d
00000340: fc30 21bd 4313 a6bd 277f 4e3d 6047 87bd
00000350: 2a15 fcbd 51c6 15be 12ea dc3d 0535 c53c
00000360: 080d 35be ea23 8bbd b047 0ebe fc32 ad3d
00000370: d67b d63d 7d74 8fbd 1763 dabd 9fdd 063c
00000380: 091b e13d 1699 0b3d d541 72bc d328 043d
00000390: 89c8 1fbc 4821 c9bd cafd 5bbd f09e ba3d
000003a0: 6261 793d 1a67 073e 1eac b1bd 97fa 16bd
000003b0: 8d3a 2dbe 9d8e f53c 330c 363c 94aa 2d3d
000003c0: 3231 f1bd 246f 25be 0fa1 97bd 2e11 27bc
000003d0: 499a 32be b604 e9bc 1f27 3cbd 4d77 853c
000003e0: 37f7 72bb 5734 09be fc7e 5c3c caba 12be
000003f0: cf07 52bd 3db1 1abd a800 b43d de5b f1bd

q1.2.bias f4 [128]
0.08974838 -0.039463818 -0.023090918 0.16548802 -0.041734345 -0.07919472 -0.10756767 -0.14242296
0.031484816 0.016760448 0.09248191 -0.052749563 -0.0043902462 0.0137227615 0.03338124 0.121086545
0.0906856 -0.044996575 0.0822922 -0.07341078 0.0019115518 0.02734152 0.120508276 0.045386653
0.026059017 -0.037561674 -0.05431326 0.047827315 -0.005620191 0.022801904 0.059985686 -0.03318723
-0.039343882 0.12902622 0.07536142 -0.10316217 0.04569268 -0.026474616 -0.03884332 -0.04931182
-0.069546275 0.14257576 0.10593832 -0.044361547 -0.055905364 0.11529477 0.094345994 -0.061774634
-0.06258224 -0.016997209 -0.042882714 0.060389157 -0.00794216 0.040472403 -0.020147132 0.01067994
-0.013018549 0.08473693 0.03285895 -0.053066533 0.119983524 0.01655346 -0.041145388 0.08065474
-0.031740963 -0.054964073 0.04018351 0.084652446 -0.027739773 0.12813598 -0.017647378 -0.033522785
0.088214085 -0.045049477 -0.014652064 0.101750955 0.051716328 -0.039222583 0.0050402125 0.0033134294
0.030256994 0.104333356 0.09809269 0.09337974 0.10007218 0.051721238 -0.08520965 -0.0015588293
0.09840556 -0.060435116 -0.021921417 0.06431635 -0.056743685 -0.057537183 0.09507847 0.07626537
0.10407187 0.071878396 0.11133417 0.051332425 -0.09439291 -0.019919029 -0.012140789 0.12909152
0.13765216 0.09272992 0.004710427 0.09573992 0.09188176 0.07888763 0.11066785 0.021820359
-0.11536003 -0.056325838 -0.01346718 0.024257813 0.08327389 0.07354814 0.09449803 -0.07450861
-0.068901345 0.042813923 0.0017611035 0.093707524 -0.034741316 0.13820513 0.04243119 -0.059875548
00000000: 00ce b73d d0a4 21bd 2a29 bdbc b175 293e
00000010: a2f1 2abd d730 a2bd 704c dcbd 53d7 11be
00000020: 39f6 003d 354d 893c 2867 bd3d ed0f 58bd
00000030: 0edc 8fbb 6fd5 603c c4ba 083d 39fc f73d
00000040: 5fb9 b93d 544e 38bd d088 a83d 6458 96bd
00000050: 098d fa3a 53fb df3c 0bcd f63d 5be7 393d
00000060: b879 d53c 45da 19bd 9577 5ebd 93e6 433d
00000070: 9429 b8bb 0fcb ba3c 8db3 753d 55ef 07bd
00000080: 0d27 21bd 731f 043e 1757 9a3d b046 d3bd
00000090: 3f28 3b3d 4be1 d8bc 2c1a 1fbd 31fb 49bd
000000a0: 476e 8ebd 61ff 113e 31f6 d83d 74b4 35bd
000000b0: 06fd 64bd aa1f ec3d 7938 c13d 6607 7dbd
000000c0: 1e2b 80bd bb3d 8bbc c9a5 2fbd 9f5a 773d
000000d0: d51f 02bc 64c6 253d 990b a5bc eafa 2e3c
000000e0: c14b 55bc 8e8a ad3d 1b97 063d 4b5c 59bd
000000f0: ecb9 f53d 1f9b 873c 1188 28bd 502e a53d
00000100: d002 02bd 0222 61bd 7797 243d 435e ad3d
00000110: 853e e3bc 1436 033e 3c91 90bc 304f 09bd
00000120: 96a9 b43d cd85 38bd 360f 70bc ce62 d03d
00000130: 80d4 533d dca7 20bd 5e28 a53b 1f26 593b
00000140: 84dd f73c baac d53d d2e4 c83d e13d bf3d
00000150: a5f2 cc3d a6d9 533d 6682 aebd a251 ccba
00000160: db88 c93d d08a 77bd 8b94 b3bc 4ab8 833d
00000170: 116c 68bd 1cac 6bbd 80b8 c23d 0531 9c3d
00000180: a223 d53d fb34 933d 2b03 e43d f341 523d
00000190: 1251 c1bd 3b2d a3bc 29ea 46bc 9130 043e
000001a0: b0f4 0c3e 2fe9 bd3d ed59 9a3b 4b13 c43d
000001b0: 812c bc3d d68f a13d d3a5 e23d 9cc0 b23c
000001c0: e141 ecbd ecb5 66bd 72a5 5cbc 52b8 c63c
000001d0: 808b aa3d 68a0 963d 2f88 c13d f897 98bd
000001e0: 261c 8dbd a75d 2f3d d4d4 e63a bbe9 bf3d
000001f0: e94c 0ebd a585 0d3e 54cc 2d3d 1040 75bd

q1.4.weight f4 [1, 128]
-0.24008538 0.05151969 -0.45784497 -0.45424232 0.24085893 -0.004405802 0.14392374 0.15875076
0.3572464 0.42819905 -0.08017243 0.07343202 0.48743153 0.232946 -0.15858668 -0.5178172
-0.09190268 0.29672995 1.0936984 0.13154233 0.16315107 0.44854024 -0.21624702 0.43308082
-0.00030138684 0.18578506 0.19504482 -0.3483201 -0.093203284 1.5936924 -0.00572976 -0.53105927
0.10668123 -0.27797744 -0.11548172 0.23986876 1.0183041 0.25375903 0.08876626 0.08029474
0.007784024 -0.2548758 -0.10747688 0.38155723 0.18802093 -0.22712694 -0.18756463 -0.18164238
0.031385984 0.08787333 0.15560366 -0.44628093 0.120090365 0.2142934 0.26366755 -0.04057207
0.16683604 -0.20415822 0.105561115 0.0013260294 -0.1470536 -0.18531093 0.34110337 -0.41200688
0.2753355 0.13677737 -0.21877094 -0.048664134 0.087603725 -0.16009462 0.013950832 0.14302942
-0.19962114 0.041312423 0.098309964 -0.19735804 1.0729966 0.18321833 0.40628228 0.06963151
0.27275643 -0.20076443 -0.13753298 0.98144215 -0.17481826 0.5177567 0.08801211 0.039538
-0.09691636 -0.34894097 -0.1833938 -0.3483518 0.004249346 0.039510954 -0.09171165 -0.15575767
-0.2319134 -0.014356874 -0.25189015 -0.21178907 0.10440294 -0.2607681 0.1376762 -0.21788241
-0.27730623 -0.07879839 0.123579144 -0.14612995 -0.1054795 -0.03307056 -0.2810758 0.27878335
0.17017272 0.27538547 0.19139563 0.34293228 -0.1013756 -0.16188967 -0.16494766 -0.27219746
0.08169964 -0.004734247 -0.30635285 -0.090798296 0.102102816 -0.14543904 -0.19813573 0.012832187
00000000: f1d8 75be 4f06 533d a86a eabe 7392 e8be
00000010: b9a3 763e 8c5e 90bb bf60 133e 8f8f 223e
00000020: 00e9 b63e e83c db3e 7131 a4bd 8763 963d
00000030: a090 f93e 6589 6e3e 8c64 22be ab8f 04bf
00000040: 7937 bcbd fdec 973e 4ffe 8b3f 08b3 063e
00000050: 1311 273e 11a7 e53e dc6f 5dbe c5bc dd3e
00000060: 7503 9eb9 703e 3e3e d4b9 473e 0357 b2be
00000070: 5de1 bebd 1dfe cb3f b6c0 bbbb 80f3 07bf
00000080: b07b da3d 0f53 8ebe ae81 ecbd 28a0 753e
00000090: ca57 823f b4ec 813e 16cb b53d 9271 a43d
000000a0: 2011 ff3b 157f 82be d71c dcbd 785b c33e
000000b0: 8f88 403e f793 68be f110 40be 7600 3abe
000000c0: 978e 003d eff6 b33d 9156 1f3e ef7e e4be
000000d0: f0f1 f53d bb6f 5b3e 6fff 863e e62e 26bd
000000e0: 11d7 2a3e da0e 51be 6d30 d83d 2ace ad3a
000000f0: 3895 16be 26c2 3dbe 1aa5 ae3e 91f2 d2be
00000100: c6f8 8c3e 5e0f 0c3e 7d05 60be 0b54 47bd
00000110: 9569 b33d d8ef 23be 0892 643c 4e76 123e
00000120: 7c69 4cbe 3737 293d bc56 c93d 3a18 4abe
00000130: f457 893f 969d 3b3e 3b04 d03e f79a 8e3d
00000140: bba6 8b3e 3195 4dbe 72d5 0cbe cb3f 7b3f
00000150: 8f03 33be b48b 043f b13f b43d 99f2 213d
00000160: 167c c6bd 64a8 b2be 96cb 3bbe 2b5b b2be
00000170: 193e 8b3b 3dd6 213d 51d3 bbbd f07e 1fbe
00000180: b57a 6dbe 1839 6bbc bff7 80be 3cdf 58be
00000190: 35d1 d53d 6583 85be fdfa 0c3e 911c 5fbe
000001a0: 15fb 8dbe 0d61 a1bd 1017 fd3d 17a3 15be
000001b0: a305 d8bd ff74 07bd 2be9 8fbe b1bc 8e3e
000001c0: c241 2e3e 53ff 8c3e 37fd 433e d294 af3e
000001d0: 039e cfbd 68c6 25be 0ae8 28be 775d 8bbe
000001e0: 2452 a73d be21 9bbb 48da 9cbe 75f4 b9bd
000001f0: 481b d13d f9ed 14be 18e4 4abe 183e 523c
