SAC/checkpoints/Pendulum-v1/09_last_checkpoint.pth (torch, 788418 bytes, 61 tensors)

log_alpha f8 []
0	0xc0073a0f50832aaf	-2.9033495225933943

actor.0.weight f4 [128, 3]
0	0xbcc99431	-0.024606796
1	0xbc33e204	-0.010979179
2	0xbe52ff09	-0.206051
3	0xbf172465	-0.5903991
4	0xbc250cd9	-0.010073864
5	0xbd608d2a	-0.054822125
6	0xbece5162	-0.40296465
7	0xbe103854	-0.14083987
8	0xbd1db808	-0.038505584
9	0xbdbbb70d	-0.091657735
10	0xbea4fc53	-0.32223758
11	0xbe8af901	-0.271431
12	0xbde7ddd0	-0.11321604
13	0x3e119dba	0.14220324
14	0x3ece4621	0.4028788
15	0xbe07cf31	-0.13262631
16	0xbf121055	-0.5705617
17	0xbddb866f	-0.107190005
18	0x3da42451	0.08014739
19	0xbe7b1bde	-0.24522349
20	0x3dfa3294	0.12216678
21	0xbec4b5aa	-0.3841985
22	0xbe9c7fdb	-0.30566296
23	0xbdad619e	-0.084658846
24	0x3e14ea8c	0.14542598
25	0x3cfd7f4f	0.030944495
26	0xbe5fc8f8	-0.21854007
27	0xbea4b9bf	-0.32172963
28	0xbe644213	-0.2229083
29	0xbd77cfc4	-0.060500875
30	0x3d09a692	0.03360612
31	0x3e524049	0.20532335
32	0xbda6ffff	-0.08154296
33	0x3c5ed1ca	0.013599822
34	0x3c8da629	0.017291145
35	0x3e3ebbed	0.18626375
36	0xbd07a638	-0.033117503
37	0xbbb8bf52	-0.0056380415
38	0xbe590953	-0.21194963
39	0x3e2585dc	0.16164345
40	0x3ed3a5cc	0.4133743
41	0x3db32f9d	0.08749316
42	0xbee1a077	-0.44067737
43	0xbe1d6717	-0.15371357
44	0xbd6a92b6	-0.05726882
45	0xbd9fd958	-0.07805127
46	0xbf134edf	-0.5754222
47	0xbe2ae0b2	-0.16687277
48	0xbe9edef4	-0.31029475
49	0xbe6855e6	-0.22689018
50	0x3d630002	0.05541993
51	0x3e6e0860	0.23245382
52	0xbe773b0e	-0.24143621
53	0x3e4ac597	0.19801937
54	0x3c627eff	0.013824224
55	0x3e4162e3	0.18885379
56	0xbdeee078	-0.11663908
57	0x3c4cfef8	0.012511961
58	0x3f1581f5	0.58401424
59	0x3e1191fd	0.14215846
60	0x3ebd9e79	0.37034968
61	0x3d046ccf	0.03233033
62	0xbd9f47f7	-0.07777398
63	0x3cd49983	0.025952106
64	0xbf32d488	-0.69855547
65	0xbdcf4744	-0.10121015
66	0xbeb18663	-0.3467284
67	0x3e1a6bfe	0.15080258
68	0xbc89d6a1	-0.016825976
69	0xbe5fe349	-0.21864046
70	0xbd8f6b69	-0.07002909
71	0xbe99b3d3	-0.30020007
72	0x3db1610d	0.08661089
73	0xbd6ca827	-0.05777755
74	0xbe6c435d	-0.23072572
75	0x3e8467cd	0.25860444
76	0xbefb1ed2	-0.49046952
77	0xbe05573f	-0.13021563
78	0xbd02ee91	-0.031965796
79	0xbf34b884	-0.7059405
80	0xbe1c5d57	-0.15269981
81	0xbe8183a1	-0.25295737
82	0xbf026bf4	-0.50945973
83	0xbd9eb1ab	-0.07748731
84	0xbe8398ff	-0.25702664
85	0x3ecf1956	0.40449017
86	0x3da4f6ac	0.080548614
87	0x3c3728d6	0.01117917
88	0x3de1618c	0.11004934
89	0xbe565654	-0.20931369
90	0xbd40f2d9	-0.047106598
91	0x3efb92d0	0.49135447
92	0x3dc957e0	0.09831214
93	0x3e1c3ebc	0.15258306
94	0xbee6a0a5	-0.45044437
95	0xbddf8587	-0.1091414
96	0xbeb9149d	-0.3614854
97	0x3e01f446	0.12690839
98	0x3d957d76	0.072993204
99	0x3c87e253	0.016587412
100	0xbf09459d	-0.53621846
101	0xbd7f0057	-0.062256183
102	0xbedd2e07	-0.4319918
103	0xbedc11dc	-0.42982376
104	0xbdce8a07	-0.100849204
105	0xbdea556a	-0.11442073
106	0x3f09f848	0.5389447
107	0x3d8b176c	0.06791577
108	0x3ec54dd7	0.3853595
109	0x3d3516e3	0.04421128
110	0xbdb2ec73	-0.08736505
111	0xbcee44bb	-0.029085508
112	0xbf217090	-0.6306238
113	0xbe0dee8d	-0.13860531
114	0xbe24e61a	-0.16103402
115	0xbf19e0e2	-0.6010877
116	0xbd9578c9	-0.072984286
117	0xbeefe9f2	-0.46858174
118	0x3dfc9bf0	0.1233443
119	0x3bc8b8e0	0.0061255544
120	0x3d91f1f2	0.071262255
121	0xbe7abf6b	-0.24487083
122	0xbe43fe50	-0.19139981
123	0xbac9ce88	-0.0015396634
124	0xbc934f4f	-0.017982153
125	0x3e2f1401	0.17097475
126	0xbeee11ef	-0.46498057
127	0xbd667908	-0.05626777
128	0xbd14391b	-0.036187273
129	0x3ea89260	0.32924175
130	0xbe9c1562	-0.30485064
131	0xbdc6d806	-0.09709172
132	0xbd91f66a	-0.07127078
133	0xbeca5c9c	-0.3952378
134	0xbe814928	-0.25251126
135	0xbd7ff3e7	-0.062488463
136	0x3e08819c	0.13330692
137	0x3df03cf6	0.117303774
138	0x3b544fc0	0.0032396168
139	0x3e4959bb	0.19663136
140	0x3e96752e	0.29386276
141	0xbc8fb69e	-0.017543133
142	0x3ec2b65b	0.3802975
143	0x3da428c5	0.08015589
144	0xbe72037b	-0.2363414
145	0xbcd6afb4	-0.026206829
146	0xbe2b2e0f	-0.16716789
147	0x3bd5bf07	0.0065230164
148	0x3f17da97	0.59317917
149	0x3e14a941	0.1451769
150	0xbe944172	-0.2895618
151	0x3e21f1b8	0.15814865
152	0xbd8d9dea	-0.06914885
153	0xbe1bfd7c	-0.15233415
154	0xbed8c509	-0.42337826
155	0xbd5f2aed	-0.054484297
156	0x3e248e14	0.16069824
157	0x3e1beacc	0.15226287
158	0x3e230655	0.15920384
159	0x3d9e8c47	0.077415995
160	0x3ac8463e	0.0015279723
161	0xbdc66928	-0.09688026
162	0x3e08323f	0.13300417
163	0xbef791c7	-0.48353407
164	0x3e774e16	0.24150881
165	0x3dfc13aa	0.12308438
166	0xbe9a68be	-0.30158037
167	0x3da5b328	0.08090812
168	0x3ee0f4b2	0.43936688
169	0x3c0d0356	0.008606752
170	0x3e2ed7ad	0.17074461
171	0xbe90a6e6	-0.28252333
172	0xbe80a052	-0.25122315
173	0x3e01ede7	0.12688409
174	0xbdbf07b9	-0.09327645
175	0x3dfbe88c	0.12300214
176	0x3ebf2879	0.37335566
177	0x3e62db89	0.22154059
178	0xbebb7e3e	-0.36619753
179	0xbdc9b876	-0.09849636
180	0x3e824f3e	0.25451082
181	0xbefa7b36	-0.48922127
182	0xbe0e922e	-0.1392295
183	0xbd993452	-0.074806824
184	0x3e88ed2a	0.26743442
185	0x3d446e0c	0.04795651
186	0xbe72ae9f	-0.23699425
187	0x3ed81987	0.42206976
188	0x3d9f3d65	0.07775382
189	0x3e77779d	0.24166723
190	0xbead37a6	-0.3383152
191	0xbdf7c94a	-0.1209894
192	0xbea6f263	-0.326068
193	0xbe2e7dab	-0.17040126
194	0xbc3c447a	-0.011490935
195	0x3ec38bad	0.38192502
196	0xbedf670b	-0.43633303
197	0xbe2a4604	-0.16628271
198	0x3e2d6658	0.16933572
199	0x3effff06	0.49999255
200	0x3dd8ba86	0.105824515
201	0xbe4cf52d	-0.20015402
202	0x3e317632	0.17330244
203	0xbde4c327	-0.11170035
204	0x3db653b4	0.08902684
205	0xbe9731d7	-0.29530212
206	0x3ddd50b5	0.10806409
207	0x3e9f8893	0.31158885
208	0x3f086b89	0.53289086
209	0x3e04484b	0.12918203
210	0x3e4853ca	0.19563213
211	0xbebf7f11	-0.3740163
212	0xbd9f8be0	-0.07790351
213	0xbdb9afd0	-0.09066737
214	0xbf15bdd1	-0.5849276
215	0xbe1252a3	-0.14289336
216	0x3ac3d857	0.0014941794
217	0xbf0465fb	-0.5171811
218	0xbdf72158	-0.12066907
219	0xbe5bc765	-0.21462782
220	0x3ee07ed3	0.4384676
221	0x3d96df99	0.073668666
222	0x3de07aa2	0.1096089
223	0xbdb8f5a3	-0.090312265
224	0xbdda0b46	-0.106466815
225	0x3db1ee93	0.086880825
226	0xbec79621	-0.38981727
227	0xbdcb3352	-0.09921898
228	0xbc214583	-0.009843233
229	0xbf2d47e6	-0.67687833
230	0xbdb1cede	-0.08682035
231	0xbec7d18b	-0.39027056
232	0x3d148c3e	0.036266558
233	0xbc5a755d	-0.013333646
234	0x3d6badd3	0.05753882
235	0x3e0f411a	0.13989678
236	0xbe2edbd9	-0.17076053
237	0x3e4e2132	0.2012985
238	0xbecaf71a	-0.3964165
239	0xbdd17eec	-0.102292866
240	0x3cb589b1	0.022160383
241	0xbe810e90	-0.25206423
242	0x3e12983d	0.14315887
243	0xbd711699	-0.05885944
244	0x3e6a9717	0.22909199
245	0x3e0cf07d	0.13763614
246	0xbd5429a3	-0.05179752
247	0xbf17b42c	-0.59259295
248	0xbdaa7685	-0.08323387
249	0xbc4128d6	-0.011789521
250	0x3f1cabfa	0.61199915
251	0x3e0f2bbe	0.1398153
252	0x3e7ddf19	0.24792136
253	0x3ef89939	0.485544
254	0x3de2fba2	0.110831514
255	0x3bf4ef74	0.007474834

actor.0.bias f4 [128]
0	0xbc5dabe0	-0.013529748
1	0xbc64ca2d	-0.013964218
2	0x3d53dc62	0.051723845
3	0xbcacc28c	-0.02108886
4	0xbdc808d0	-0.09767306
5	0x3d22390a	0.039605178
6	0x3d61bacf	0.055109795
7	0x3d0d4db8	0.034497947
8	0x3d26e940	0.04074979
9	0x3e0e3f86	0.1389142
10	0xbd67a3af	-0.056552585
11	0x3cab3c16	0.020902675
12	0x3bc2e75a	0.0059479894
13	0x3c4c6d1e	0.012477187
14	0x3e4c0274	0.19922811
15	0xbc489a70	-0.012243852
16	0x3d6f1b66	0.05837574
17	0xbde28cec	-0.11062035
18	0x3c13423f	0.008987962
19	0xbd27dbb6	-0.040981017
20	0x3db885fb	0.0900993
21	0xbe083133	-0.13300018
22	0xbd9a4651	-0.07532943
23	0xbde3cc1a	-0.11122914
24	0x3d8cfa9e	0.06883739
25	0xbd497149	-0.049180303
26	0x3d4aefd4	0.049545124
27	0x3d98dc80	0.07463932
28	0x3d920d54	0.071314484
29	0x3c8d91e4	0.01728148
30	0xbd321ac8	-0.04348257
31	0xbd9a34d0	-0.075296044
32	0x3e8ddd18	0.27707744
33	0xbd53706c	-0.051620886
34	0x3e43113b	0.19049542
35	0xbdf4928f	-0.11942016
36	0x3da89985	0.082324065
37	0x3d3777c7	0.044791963
38	0xbd962856	-0.07331912
39	0x3cde541f	0.027139721
40	0x3cd3f1ac	0.025872074
41	0x3cb7dd14	0.022444285
42	0xbb57d268	-0.0032931808
43	0x3d2718e6	0.04079523
44	0x3b28aa88	0.002573641
45	0x3d870028	0.06591827
46	0x3cfd1e40	0.030898213
47	0xbce38218	-0.027771994
48	0xbe3adeeb	-0.18249099
49	0xbd3141ef	-0.04327577
50	0xbdb534c0	-0.08847952
51	0xbc4c78ce	-0.012479974
52	0x3dde3b6c	0.108511776
53	0x3db0bf76	0.08630268
54	0x3c2110bf	0.009830653
55	0x3caf8aef	0.021428553
56	0xbe81df69	-0.2536576
57	0x3c99ff5f	0.018798528
58	0xbdad125f	-0.0845077
59	0xbdd9b18c	-0.106295675
60	0xbda1f409	-0.07907874
61	0x3db2773f	0.08714151
62	0x3d5af876	0.053459607
63	0xbe6c727d	-0.23090549
64	0x3d405f03	0.04696561
65	0xbdad1d9a	-0.08452912
66	0xbd1268eb	-0.03574459
67	0xbdb984fa	-0.090585664
68	0x3d4a5d2c	0.049405262
69	0xbd963ad6	-0.07335441
70	0x3b010dd0	0.001969207
71	0xbd66733e	-0.056262247
72	0x3c232115	0.009956618
73	0x3bb1b318	0.005422961
74	0x3e0f814d	0.14014168
75	0xbd9c5c1f	-0.07634758
76	0xbdcd57e8	-0.100265324
77	0x3c24b795	0.010053535
78	0x3c117c73	0.008879769
79	0xbdd31ad1	-0.10307849
80	0x3e0c5feb	0.13708465
81	0x3d85af1b	0.06527539
82	0xbe3561c7	-0.1771308
83	0xbd060825	-0.03272261
84	0xbd1e551f	-0.038655397
85	0x3dec05c3	0.115245365
86	0x3d24a4ec	0.040196344
87	0x3bfeb8c0	0.0077734888
88	0xbd9e6f78	-0.07736105
89	0xbdeab153	-0.11459603
90	0x3d028a03	0.0318699
91	0xbdfd5872	-0.12370385
92	0x3dcdf7e8	0.1005705
93	0x3c801399	0.015634345
94	0xbe286b39	-0.16447152
95	0xbdf87f67	-0.12133675
96	0x3bd9a319	0.006641757
97	0xbdb027ce	-0.08601342
98	0xbdca8b56	-0.098898575
99	0xbd0ab947	-0.0338681
100	0xbd3432c5	-0.04399373
101	0x3c796c86	0.015223628
102	0x3d2f2d16	0.042767607
103	0x3e02c7a6	0.12771472
104	0x3e2b8171	0.16748597
105	0x3b297b41	0.0025860819
106	0x3cfbe6f8	0.030749783
107	0xbd875a9f	-0.066090815
108	0x3cf38811	0.029727967
109	0xbd922f90	-0.07137978
110	0x3d47bb35	0.04876252
111	0x3e34c91a	0.17654839
112	0x3d41c975	0.047311265
113	0x3d975c29	0.07390625
114	0x3d0fd58e	0.03511577
115	0xbd16d017	-0.036819544
116	0xbd9914d2	-0.07474674
117	0x3d3502fa	0.04419229
118	0xbdca7444	-0.09885457
119	0xbd9f69a6	-0.07783823
120	0xbdd2fa6e	-0.10301672
121	0x3dbeeae2	0.09322144
122	0xbdd67c39	-0.10472912
123	0x3dcfac5f	0.10140299
124	0x3d04d887	0.03243306
125	0xbd760f83	-0.060073387
126	0x3d254ad2	0.040354557
127	0x3e5f6da9	0.21819176

actor.2.weight f4 [128, 128]
0	0xbda8b894	-0.082383305
1	0x3dfd2094	0.123597294
2	0x3da9b312	0.08286108
3	0x3dfe179c	0.12406847
4	0xbd8e6d3a	-0.06954427
5	0x3b0d499c	0.0021558767
6	0x3e1e5cb8	0.15465057
7	0xbb247023	-0.0025091253
8	0x3dcd289d	0.10017512
9	0x3cfefa54	0.031125225
10	0xbd183e3c	-0.037168726
11	0x3cf98332	0.030458067
12	0xbdc3f1d2	-0.09567608
13	0xbe89205c	-0.267825
14	0x3d0d11d7	0.03444084
15	0x3e088f63	0.13335948
16	0x3e87cf73	0.2652546
17	0xbe40cc16	-0.18827853
18	0xbdd4a868	-0.103836834
19	0xbe3a14d5	-0.1817201
20	0x3d558e79	0.052137826
21	0x3d92a4af	0.07160317
22	0x3df6a4d4	0.12043157
23	0xbcbbf1ff	-0.022942541
24	0xbd907655	-0.0705382
25	0x3cf13d8e	0.029448297
26	0x3c190381	0.009339214
27	0xbd10053d	-0.035161246
28	0xbeaf0ce2	-0.34189516
29	0xbdf6be04	-0.12047961
30	0xbe83bb36	-0.25728768
31	0x3e27532d	0.16340323
32	0xbe017c9c	-0.12645191
33	0xbdf63508	-0.12021834
34	0xbc3841e0	-0.011246175
35	0xbe893b79	-0.26803187
36	0x3c7108d7	0.01471158
37	0x3c5f91f5	0.013645639
38	0xbdc1ade3	-0.094569944
39	0xbd2644a4	-0.040592805
40	0x3e0fb829	0.14035095
41	0x3df6523f	0.12027406
42	0x3e39676e	0.18105862
43	0x3d9c9d0c	0.07647142
44	0x3d124aa4	0.035715714
45	0x3c5d34aa	0.013501326
46	0x3d61237c	0.05496548
47	0xbea7f300	-0.32802582
48	0x3e2a6872	0.16641405
49	0xbe088248	-0.13330948
50	0x3db9884f	0.09059202
51	0xb9f524db	-0.000467575
52	0xbc963138	-0.018334016
53	0xb9dd53f0	-0.00042214943
54	0x3d9fc900	0.078020096
55	0x3dc1ef6a	0.09469493
56	0xbe0406d2	-0.12893227
57	0x3e577d2c	0.21043843
58	0xba1ce033	-0.0005984336
59	0x3ad2dd06	0.0016087599
60	0xbd9227d8	-0.07136506
61	0xbe52e9a0	-0.20596933
62	0xbe51943f	-0.20466708
63	0x3e5fb1cf	0.21845172
64	0x3dffb3b3	0.12485447
65	0x3c457431	0.012051628
66	0xbec88683	-0.39165124
67	0xbd88b5a8	-0.06675273
68	0x3dfcf85c	0.12352058
69	0xbe889c47	-0.2668173
70	0xbbc1701f	-0.0059032585
71	0xbcfd11bc	-0.030892245
72	0x3d46338b	0.048389
73	0xbcf9a463	-0.030473894
74	0x3e301e0b	0.1719896
75	0x3e1c2097	0.15246807
76	0xbd3f7631	-0.046743575
77	0x3cf57150	0.029961258
78	0x3d104897	0.035225477
79	0x3da41c9e	0.08013271
80	0x3e4b91a7	0.1987978
81	0xbe6e04d9	-0.23244037
82	0x3c320acd	0.010866833
83	0xbd965df0	-0.07342136
84	0xbece5faa	-0.4030736
85	0x3e121a01	0.14267732
86	0xbd078d5c	-0.033093795
87	0x3d919c20	0.071098566
88	0x3ca850c0	0.020546317
89	0xbe56045d	-0.20900102
90	0xbd12de07	-0.035856273
91	0x3c120360	0.0089119375
92	0x3d728259	0.05920634
93	0x3e34e939	0.17667092
94	0x3cae8153	0.021301901
95	0xbd454006	-0.04815676
96	0x3dd39c88	0.1033259
97	0x3cde13e1	0.027109088
98	0xbdbc09bb	-0.091815434
99	0xbd6aeae2	-0.057352908
100	0xbc5df573	-0.013547289
101	0xbdc1b469	-0.09458239
102	0xbb9d5035	-0.004800821
103	0x3d1a6cba	0.037701346
104	0x3c96245a	0.01832788
105	0x3d86be8c	0.06579313
106	0x3c835821	0.016033234
107	0xbe84acf5	-0.25913206
108	0xbd0069a8	-0.03135076
109	0xbde0f285	-0.10983757
110	0xbd727099	-0.059189413
111	0x3dbda450	0.09259856
112	0x3de82f68	0.11337167
113	0x3df0170f	0.11723148
114	0xbe28ebd6	-0.16496214
115	0xbf016a4e	-0.50552833
116	0x3e76c283	0.24097638
117	0xbe061a5b	-0.13095991
118	0x3de272ad	0.11057029
119	0xbe81963f	-0.2530994
120	0x3e19144c	0.14949149
121	0xbd124d92	-0.035718508
122	0x3c7a43bc	0.015274938
123	0xbdd53d92	-0.10412134
124	0xbe7dd607	-0.24788676
125	0x3d217c45	0.039425153
126	0xbceabe21	-0.028655114
127	0x3da15370	0.078772426
128	0xbe27f16d	-0.1640069
129	0x3c0bba4e	0.008528305
130	0xbd32fccf	-0.04369813
131	0xbfb24fd6	-1.3930614
132	0x3cfa20c7	0.030533208
133	0xbd411dde	-0.047147624
134	0xbe970de4	-0.29502785
135	0x3dbf5f21	0.09344316
136	0xbe33994a	-0.17538944
137	0x3dd506d4	0.10401693
138	0xbe0f7798	-0.14010465
139	0xbe69d134	-0.22833711
140	0xbf2fcce3	-0.6867201
141	0x3e26f987	0.16306125
142	0x3e88a66b	0.26689467
143	0xbf6cab26	-0.9244865
144	0x3daca4b4	0.08429852
145	0xbd5a12a8	-0.05324045
146	0xbe99691a	-0.29963
147	0xbcf4ea72	-0.029896948
148	0xbed0f569	-0.40812233
149	0xbf72dc14	-0.9486706
150	0x3e425544	0.18977839
151	0xbf870d79	-1.0550987
152	0x3d843292	0.06454958
153	0xbe10e650	-0.14150357
154	0xbf91aca5	-1.1380812
155	0x3d596417	0.05307397
156	0xbbcdba7b	-0.0062783337
157	0xbf2d3417	-0.6765761
158	0x3e2c8d99	0.1685089
159	0xbdb0b7e0	-0.086288214
160	0x3e5455fd	0.20735927
161	0xbf14e1f9	-0.58157307
162	0x3e09c9b1	0.13455845
163	0xbdeb99a5	-0.11503915
164	0xbdc78efe	-0.097440705
165	0xbf82f376	-1.0230548
166	0xbe4fb971	-0.20285584
167	0x3e65a0d8	0.22424638
168	0xbec1fb63	-0.37887105
169	0xbe8ca6a5	-0.2747089
170	0x3e3e0468	0.18556368
171	0xbeb8f780	-0.36126328
172	0xbfb15b55	-1.3855997
173	0x3da62d15	0.081140675
174	0x3c975faf	0.018478243
175	0xbe169435	-0.14704974
176	0xbf2dde17	-0.6791701
177	0x3c18b115	0.009319563
178	0xbab30d7e	-0.0013660637
179	0xbf4d5fb8	-0.8022418
180	0xbe17c43d	-0.14820953
181	0xbf2a642c	-0.665591
182	0xbeae1ada	-0.3400486
183	0xbed7857d	-0.4209403
184	0xbe6561b1	-0.22400548
185	0x3db4189b	0.087937556
186	0xbe2c9b4f	-0.1685612
187	0x3e0140e7	0.12622415
188	0xbe9f1d67	-0.3107712
189	0x3dbe934a	0.09305437
190	0x3dd57018	0.10421771
191	0x3dd1a3f6	0.10236351
192	0x3e117d3c	0.1420793
193	0xbc6aaab1	-0.014322923
194	0x3ca7c2b6	0.020478588
195	0xbe660ef7	-0.22466646
196	0xbe0d9696	-0.13826975
197	0x3e099140	0.13434315
198	0xbe596e0b	-0.21233384
199	0xbf688855	-0.90833026
200	0xbd14af27	-0.03629985
201	0x3e3062b2	0.1722515
202	0xbf6f719d	-0.93532735
203	0xbe153acf	-0.14573215
204	0xbf2755c1	-0.65365225
205	0xbca0edad	-0.019644583
206	0xbe323984	-0.17404753
207	0xbe277e47	-0.16356765
208	0xbe62acda	-0.2213625
209	0x3dc12fb5	0.094329275
210	0xbf10353f	-0.5633125
211	0xbda92f4e	-0.08260976
212	0x3dbaf210	0.09128201
213	0xbe785768	-0.24252093
214	0xbebeaeb2	-0.37242657
215	0xbedf7082	-0.43640524
216	0xb97e5cac	-0.0002425785
217	0x3d837903	0.064195655
218	0xbdca78f4	-0.09886351
219	0xbee4a05e	-0.446536
220	0xbe759f39	-0.2398652
221	0xbd24a89e	-0.04019987
222	0xbd8440de	-0.06457685
223	0xbf1025a4	-0.56307435
224	0xbf305236	-0.68875444
225	0xbecd46bd	-0.40093032
226	0xbceb743b	-0.028741946
227	0xbd9b44c2	-0.07581474
228	0xbfa5c6f3	-1.295134
229	0xbec0b93a	-0.37641317
230	0xbf40ce7d	-0.75315076
231	0x3d29b017	0.041427698
232	0xbc0e0530	-0.008668229
233	0xbf47ead4	-0.78092694
234	0xbe56e2eb	-0.20985
235	0xbeec6b2e	-0.46175522
236	0xbf6623d2	-0.8989841
237	0xbf710407	-0.9414677
238	0xbf4a060b	-0.7891547
239	0x3d946bb9	0.07247109
240	0xbdeccb21	-0.11562181
241	0xbeb53e47	-0.35399076
242	0x3c4ba436	0.012429288
243	0x3d77cfce	0.060500912
244	0xbd920464	-0.07129744
245	0xbf86da7d	-1.0535427
246	0xbedb28ae	-0.42804474
247	0xbe653d1a	-0.2238659
248	0xbda42184	-0.08014205
249	0x3d99a0b2	0.07501353
250	0xbecb1424	-0.39663804
251	0x397c6a42	0.00024072177
252	0x3d7d0fdf	0.061782714
253	0xbdec6020	-0.11541772
254	0xbf30ad5e	-0.6901454
255	0xbe180054	-0.14843875

actor.2.bias f4 [128]
0	0x3bba101d	0.0056781904
1	0x3c9e1335	0.019296268
2	0xbde8cbb2	-0.11366977
3	0x3c921d8d	0.017836357
4	0xbd386592	-0.04501874
5	0x3de52274	0.11188212
6	0x3d05fb5b	0.032710414
7	0xbe01282a	-0.12612978
8	0x3da7a0cc	0.081849664
9	0x3d27c006	0.040954612
10	0x3c4188cd	0.011812401
11	0x3df3fd42	0.119135395
12	0x3d99a2ae	0.07501732
13	0x3d04c023	0.0324098
14	0x3dc0317f	0.09384441
15	0x3dd55fc7	0.10418659
16	0x3db7faac	0.08983359
17	0xbc65277d	-0.0139864655
18	0x3d892da0	0.066981554
19	0x3d6b740f	0.05748373
20	0x3e27a456	0.16371283
21	0xbd85c155	-0.06531016
22	0x3d70be2d	0.058775116
23	0xbbcd14f2	-0.0062586004
24	0xbd223a69	-0.039606486
25	0x3e2551e0	0.16144514
26	0x3dac5288	0.08414179
27	0xbd65711f	-0.056016084
28	0x3d39e09f	0.04538023
29	0xbad135f6	-0.0015961516
30	0xbdf65963	-0.12028768
31	0x3ba9f034	0.005186105
32	0x3cbc7f64	0.023009963
33	0xbce1b7d7	-0.027553482
34	0x3d088b23	0.033335816
35	0x3c6e9392	0.014561551
36	0xbea11538	-0.314615
37	0x3d25aeda	0.040449955
38	0x3cd0f9b3	0.02550969
39	0x3d782633	0.060583305
40	0xbd124219	-0.035707567
41	0xbd8f591e	-0.0699942
42	0x3d6ff6c3	0.05858494
43	0xbb4dfb9e	-0.0031430493
44	0xbda5d720	-0.080976725
45	0xbd61a7fd	-0.055091847
46	0x3de50ecc	0.11184463
47	0x3db2cafe	0.08730124
48	0xbc71259c	-0.014718439
49	0x3d638e62	0.05555571
50	0xbd1e2d2d	-0.0386173
51	0x3d93d824	0.0721896
52	0xbdbbfa4a	-0.09178598
53	0xbcef8b2b	-0.029241165
54	0x3dcfb70b	0.101423346
55	0x3de4ae15	0.11166016
56	0x3da64505	0.08118633
57	0xbdd9430d	-0.10608492
58	0x3d5b5e9e	0.05355703
59	0x3d8b6488	0.06806284
60	0x3da73e8b	0.08166226
61	0x3d9ccc8c	0.07656202
62	0x3d05457d	0.032536972
63	0x3d66fa9d	0.056391347
64	0xbd3bc25b	-0.04583965
65	0xbc9b5ec1	-0.01896608
66	0x3d7fd202	0.06245614
67	0x3db3fac6	0.087880656
68	0x3d9a2f5d	0.07528565
69	0x3dba5004	0.09097293
70	0x3b7c671d	0.0038513609
71	0xbcb87e6b	-0.022521218
72	0xbbea8f03	-0.0071581616
73	0x3d7132a6	0.058886193
74	0xbc87de56	-0.01658551
75	0xbdc64514	-0.09681144
76	0xbdd91280	-0.10599232
77	0xbdad372b	-0.08457788
78	0xbdd959de	-0.10612844
79	0xbd90d773	-0.07072344
80	0xbda9a958	-0.08284253
81	0xbd6e860d	-0.05823331
82	0x3db63129	0.08896095
83	0xbdddc609	-0.10828788
84	0xbd6e1237	-0.05812284
85	0x3d15d6df	0.03658187
86	0xbcd152b8	-0.025552139
87	0x3dcfc30e	0.101446256
88	0xbba77c1b	-0.00511123
89	0xbdea47b6	-0.11439459
90	0xbc46ad59	-0.01212629
91	0x3d8a0b8d	0.067404844
92	0x3d7530cf	0.059861
93	0xbdb1332d	-0.08652339
94	0x3b88afb4	0.004171336
95	0xbc848705	-0.016177664
96	0x3db983da	0.09058352
97	0x3d06644a	0.032810487
98	0x3d58c2ac	0.05292003
99	0x3d244f66	0.040114783
100	0x3c46cd56	0.012133917
101	0xbd428008	-0.04748538
102	0x3c603689	0.013684877
103	0xbdf71b93	-0.12065806
104	0xbdda554d	-0.10660801
105	0x3e06489e	0.13113639
106	0x3d346a31	0.044046585
107	0x3db22094	0.0869762
108	0xbd7dd91e	-0.061974637
109	0x3d58c323	0.052920472
110	0x3d578f36	0.05262681
111	0x3e017db2	0.12645605
112	0xbd277488	-0.040882617
113	0x3d6f55b9	0.05843136
114	0x3aebc821	0.001798872
115	0x3ddc92d4	0.10770193
116	0xbb97d0db	-0.004633052
117	0x3ca51e39	0.020156013
118	0xbd10f808	-0.03539279
119	0x3d061fbc	0.032745108
120	0xbd63f38d	-0.05565219
121	0x3ddd63dc	0.10810062
122	0x3d98edc4	0.07467225
123	0x00000000	0.0
124	0x3cba149c	0.022714905
125	0xb9c12044	-0.00036835868
126	0xbd4d45aa	-0.050115265
127	0x3df8089b	0.12111016

actor.4.weight f4 [2, 128]
0	0x3dfa8e48	0.12234169
1	0x3fa1a0a6	1.2627151
2	0xbf1e3bca	-0.6180998
3	0x3f2119ed	0.62930185
4	0xbf0dd5f0	-0.5540457
5	0xbd39f071	-0.04539532
6	0xbe077238	-0.13227165
7	0xbf44e75d	-0.7691553
8	0x3e08e16b	0.1336724
9	0x3f941768	1.1569643
10	0xbdbc06ea	-0.09181006
11	0x3c938d28	0.018011644
12	0x3eb5e430	0.35525656
13	0x3f391603	0.7229921
14	0x3c05075a	0.0081194285
15	0xbd6f5e17	-0.05843934
16	0xbe28e9ef	-0.16495489
17	0xbe9eb406	-0.30996722
18	0xbda43e7f	-0.08019733
19	0xbef9d1a7	-0.48792765
20	0x3e8ba8f9	0.27277353
21	0x3ec7e352	0.3904062
22	0xbeb7c751	-0.35894254
23	0x3e82ae21	0.25523475
24	0xbf02e379	-0.51128346
25	0xbdf3a4ac	-0.11896643
26	0xbe320550	-0.17384839
27	0xbea8f5d6	-0.33000058
28	0xbe360f87	-0.1777936
29	0xbef1c569	-0.47220924
30	0x3e9f5a52	0.31123596
31	0x3f11716f	0.5681371
32	0x3ee82775	0.45342603
33	0xbf306194	-0.6889889
34	0x3ef7f350	0.4842782
35	0xbe6b6bf3	-0.22990398
36	0x3f161db8	0.586391
37	0xbf1c6e31	-0.6110564
38	0x3e217d3b	0.15770428
39	0xbcd84b48	-0.026403084
40	0xbd838420	-0.06421685
41	0xbe1cdd7a	-0.15318862
42	0x3efc966c	0.49333513
43	0xbed82836	-0.4221818
44	0xbecabf37	-0.3959901
45	0xbe95b356	-0.29238385
46	0x3d19d9f3	0.03756137
47	0xbf026b00	-0.5094452
48	0xbe9103fc	-0.28323352
49	0x3ece9a29	0.4035199
50	0x3f153cfe	0.5829619
51	0xbece5dd8	-0.40305972
52	0xbedc49e9	-0.4302514
53	0xbd38eb26	-0.04514613
54	0xbbcc6390	-0.0062374547
55	0xbe1eafed	-0.15496798
56	0xbc9ff1de	-0.019524511
57	0xbecf1a7c	-0.40449893
58	0xbd0bd4d1	-0.034138504
59	0x3e8da48a	0.27664596
60	0xbef0a44d	-0.47000352
61	0xbd87df37	-0.06634372
62	0x3e65df17	0.22448383
63	0xbf492527	-0.78572315
64	0xbe9bb090	-0.30408144
65	0xbec82b1a	-0.39095384
66	0xbdcc70be	-0.09982441
67	0xbd817404	-0.06320956
68	0xbe507ccd	-0.20360108
69	0x3e9f34ba	0.31094915
70	0xbe8bc60c	-0.27299535
71	0x3deebdd6	0.11657302
72	0x3d6f330d	0.058398295
73	0xbf551b99	-0.83245236
74	0xbdda9881	-0.10673619
75	0x3e9debe3	0.3084403
76	0xbd427076	-0.047470532
77	0xbe755165	-0.23956831
78	0x3e954c3e	0.2915973
79	0xbe08e985	-0.1337033
80	0xbdc3d77f	-0.09562587
81	0x3f11238f	0.56694883
82	0xbf137a24	-0.57608247
83	0x3e638ea0	0.22222376
84	0x3eeed087	0.4664347
85	0x3ec05da8	0.37571454
86	0xbe967420	-0.2938547
87	0x3e00dd7c	0.1258449
88	0xbe491459	-0.19636668
89	0x3f160476	0.58600557
90	0xbe1f9a09	-0.15586103
91	0xbf1dc76d	-0.61632425
92	0xbf1f7b72	-0.6229774
93	0xbe8a8156	-0.270518
94	0xbe4a9db7	-0.19786726
95	0xbe01e103	-0.12683491
96	0x3e2a4f83	0.16631894
97	0x3ea4da9e	0.32198042
98	0xbe51d766	-0.20492324
99	0x3e4cbf38	0.19994819
100	0xbd87f445	-0.066383876
101	0xbe75508e	-0.2395651
102	0x3f1bc87f	0.6085281
103	0x3f2855a4	0.6575568
104	0xbde365eb	-0.11103424
105	0x3c92b296	0.017907422
106	0x3f534bb5	0.82537395
107	0x3dceb84e	0.10093747
108	0xbee15807	-0.44012472
109	0x3f03722e	0.513461
110	0x3ea4d707	0.32195303
111	0x3bba82a7	0.0056918445
112	0x3d79a52e	0.060948543
113	0x3f524b7c	0.8214643
114	0x3f3c492b	0.73549145
115	0xbf0d0c42	-0.5509683
116	0xbec173e7	-0.3778374
117	0xbf96460c	-1.1740127
118	0x3f292526	0.6607231
119	0xbd6f9590	-0.058492243
120	0xbf2e185a	-0.6800591
121	0x3d9ba182	0.075991645
122	0x3c7a7964	0.015287731
123	0x3de0d82f	0.10978734
124	0x3e7f3df0	0.24925971
125	0xbd53e129	-0.0517284
126	0xbec8dddb	-0.39231762
127	0x3de6dbd8	0.112724006
128	0x3d881137	0.066439085
129	0x3d6b922d	0.05751245
130	0x3e650156	0.22363791
131	0xbd43cb62	-0.047801383
132	0xbca855de	-0.020548757
133	0xbe7620da	-0.2403597
134	0xbcfd2f08	-0.030906215
135	0x3f19179c	0.5980165
136	0xbe1cc296	-0.15308604
137	0x3e39c090	0.18139863
138	0x3d1d43bd	0.03839468
139	0xbe962ecc	-0.29332578
140	0x3dc93724	0.0982497
141	0x3e5986f2	0.21242884
142	0xbdb7c0d5	-0.08972327
143	0xbe72cb5b	-0.23710386
144	0xbe1c9811	-0.15292384
145	0xbe1cfb14	-0.15330154
146	0xbe2e99d0	-0.17050862
147	0x3deda23b	0.11603209
148	0xbd77938b	-0.060443442
149	0x3e4ccc76	0.1999987
150	0x3d419e11	0.047269884
151	0xbd743661	-0.059622172
152	0xbe0b651b	-0.13612787
153	0xbe8b5578	-0.27213645
154	0xbeceb36f	-0.40371272
155	0x3cbe9543	0.023264533
156	0x3d8e0102	0.06933786
157	0x3cd222f8	0.02565144
158	0x3dfb81b6	0.122806
159	0xbc14043e	-0.009034215
160	0x3c4bf9eb	0.012449722
161	0x3d87fa0c	0.066394895
162	0xbf08149a	-0.53156435
163	0xbeac4d9f	-0.3365297
164	0x3e29dca7	0.16588078
165	0x3e8494a3	0.2589465
166	0x3dd0bea3	0.10192611
167	0xbd6668f2	-0.056252427
168	0x3e0355ba	0.12825671
169	0x3e7f352f	0.24922632
170	0x3e9900e7	0.298835
171	0x3f56dd55	0.83931476
172	0x3d7d4e6b	0.061842363
173	0x3e31cdaa	0.17363611
174	0xbe36386f	-0.17794965
175	0x3d3d0ce8	0.046154886
176	0x3df7a693	0.120923184
177	0x3e67d8ee	0.22641346
178	0x3d82b175	0.063815035
179	0xbd92ba1f	-0.07164406
180	0x3ea5169b	0.3224381
181	0x3d4f89f0	0.050668657
182	0xbe0c3022	-0.13690236
183	0x3a3ba114	0.00071574864
184	0xbe80f2fd	-0.25185385
185	0x3e4367e7	0.19082604
186	0xbebcdf49	-0.36889103
187	0xbe3a499d	-0.18192144
188	0x3d0d14f9	0.03444383
189	0xbe89e430	-0.26931906
190	0xbb87651a	-0.0041319253
191	0x3e957f97	0.29198906
192	0x3e9335ad	0.2875189
193	0x3deea414	0.11652389
194	0xbe9a55cb	-0.3014358
195	0xbe0644dd	-0.13112207
196	0xbe9034ea	-0.2816537
197	0x3e0327c6	0.12808141
198	0xbeaafb87	-0.33395025
199	0x3ea41b04	0.3205186
200	0x3e55d46d	0.20881815
201	0x3c87bf39	0.016570674
202	0x3d5ceb4e	0.05393534
203	0x3eb523e7	0.35378954
204	0x3e25c481	0.16188242
205	0x3e2c5b7f	0.16831778
206	0x3e802d75	0.2503468
207	0xbea004c0	-0.31253624
208	0x3e79b467	0.24385224
209	0xbc828ce9	-0.015936332
210	0x3dc8dddd	0.09807942
211	0x3d818c73	0.06325617
212	0x3bd1f6f2	0.006407612
213	0x3ee13d3d	0.43992034
214	0xbd02131f	-0.031756517
215	0xbe76aac1	-0.24088575
216	0x3e516c21	0.20451404
217	0x3e0a5713	0.13509779
218	0x3d42db61	0.047572497
219	0xbc355488	-0.011067517
220	0x3e29353c	0.16524214
221	0x3c379abc	0.011206325
222	0x3e735fc2	0.23766997
223	0xbdfd31c7	-0.1236301
224	0xbe8fc2d3	-0.28078327
225	0x3c907c94	0.017637528
226	0x3e20c353	0.1569951
227	0xbca369d9	-0.019947933
228	0xbe34811d	-0.17627378
229	0xbe36a335	-0.17835696
230	0x3e28a717	0.1646999
231	0x3e1a2f0f	0.15057014
232	0x3e1c53aa	0.1526629
233	0xbe42118b	-0.18952005
234	0x3e21ed66	0.15813217
235	0xbe9638e9	-0.29340294
236	0x3d7fc12f	0.062440094
237	0x3e5d5ecc	0.21618193
238	0x3e688be1	0.2270961
239	0xbe51ae92	-0.2047675
240	0x3c3fc8c1	0.011705578
241	0xbe8f3960	-0.2797346
242	0x3e6bd372	0.23029879
243	0x3d998294	0.07495609
244	0xbeba52ce	-0.363913
245	0x3e2b4099	0.16723861
246	0x3d6d3ed5	0.05792125
247	0xbc81e1a2	-0.01585466
248	0xbd403015	-0.046920855
249	0xbe2230cb	-0.15838926
250	0xbe0fb158	-0.14032495
251	0xbe50e07d	-0.20398135
252	0xbe5ead53	-0.21745805
253	0x3d397bce	0.045284085
254	0xbddbcf01	-0.10732842
255	0xbe34c0ff	-0.17651747

actor.4.bias f4 [2]
0	0x3cfc6542	0.030810002
1	0xbe128bf9	-0.14311208

q1.0.weight f4 [128, 4]
0	0x3c8697fe	0.016429897
1	0x3ee85000	0.45373535
2	0x3de54c18	0.11196154
3	0xbe23862c	-0.15969151
4	0xbed3d5a8	-0.41373944
5	0xbebd4dcf	-0.36973426
6	0xbdfe3a5e	-0.124134764
7	0xbba1dd6b	-0.004939725
8	0xbeeacc69	-0.45859078
9	0x3f288972	0.65834725
10	0x3e38443c	0.1799478
11	0x3d828fb9	0.06375069
12	0xbf25575d	-0.6458643
13	0xbf015b9f	-0.5053043
14	0xbe442595	-0.19154961
15	0xbd958f9d	-0.07302783
16	0xbf05c72b	-0.5225703
17	0x3f0292db	0.51005334
18	0xbda23b56	-0.07921474
19	0xbe79a4ab	-0.24379222
20	0xbf07a929	-0.5299249
21	0xbea99bd7	-0.3312671
22	0xbe1cece5	-0.15324743
23	0xbd52a943	-0.05143095
24	0xbf019b7a	-0.50627863
25	0xbeb710c1	-0.3575497
26	0xbe13712e	-0.14398643
27	0xbd8ad121	-0.067781694
28	0xbec20088	-0.3789103
29	0xbdb85bfc	-0.090019196
30	0xbdf2d984	-0.11857894
31	0xbcb5fe26	-0.022215914
32	0xbf0cabc0	-0.5494957
33	0x3e9cc441	0.3061848
34	0x3e3b1e03	0.18273167
35	0x3d4954f1	0.049153272
36	0xbed4bb22	-0.4154902
37	0xbd2725d6	-0.040807568
38	0xbe996fb1	-0.29968026
39	0x3e06ad8d	0.13152142
40	0xbe95438d	-0.291531
41	0xbda2ab51	-0.07942832
42	0xbdc5793b	-0.096422635
43	0xbd8cbb7b	-0.068716966
44	0xbf0e02a0	-0.55472755
45	0x3ec8656b	0.39139876
46	0x3e300651	0.1718991
47	0x3d2e8146	0.042603754
48	0xbe8b6fdb	-0.27233776
49	0xbe91e39e	-0.2849397
50	0x3e59d728	0.21273482
51	0x3db09a4a	0.08623178
52	0xbee3b054	-0.44470465
53	0xbf7ce432	-0.987857
54	0xbe7223dc	-0.23646492
55	0xbd160206	-0.036623023
56	0xbedbcbe5	-0.42928997
57	0x3e51e808	0.20498669
58	0x3dd00829	0.101578064
59	0x3ced9701	0.029002668
60	0xbebdcc30	-0.37069845
61	0xbe984ca8	-0.29745984
62	0xbddc417b	-0.10754677
63	0xbd0789c8	-0.033090383
64	0xbf2e3128	-0.68043756
65	0xbf8d3e7a	-1.1034691
66	0xbe8ab26c	-0.2708925
67	0xbd6f54d0	-0.058430493
68	0xbe407fe4	-0.18798786
69	0xbe83f280	-0.2577095
70	0xbea44035	-0.32080236
71	0xbdf96b0b	-0.1217862
72	0xbe4bd5da	-0.19905797
73	0xbecb63d8	-0.39724612
74	0x3dca6a77	0.09883588
75	0x3bcf3810	0.006323822
76	0xbf0c04cd	-0.54694825
77	0x3eb4b002	0.35290533
78	0x3e3861af	0.18006013
79	0x3d3b2022	0.04568494
80	0x3e315d8c	0.17320842
81	0xbede6d7b	-0.43442902
82	0x3e82b0bd	0.25525466
83	0x3d484574	0.04889436
84	0xbee5f79c	-0.44915473
85	0xbe1e5725	-0.1546293
86	0xbe039742	-0.12850669
87	0xbd8cb03f	-0.06869554
88	0xbf27a56e	-0.654868
89	0x3edf1639	0.43571642
90	0x3e4db27f	0.20087622
91	0x3d35b9cb	0.04436664
92	0xbe56ee08	-0.20989239
93	0x3fa64646	1.2990196
94	0x3e87886a	0.26471263
95	0x3dd456c0	0.10368109
96	0xbedc76ab	-0.43059286
97	0xbf126d1b	-0.5719773
98	0x3e481a0e	0.19541189
99	0xbcadf818	-0.021236464
100	0xbe8912f9	-0.26772287
101	0x3e9bca2a	0.30427676
102	0xbe6aa3f9	-0.22914113
103	0xbc8fc59d	-0.017550284
104	0xbf15fafe	-0.5858611
105	0x3ed4054c	0.4141029
106	0x3e3f9041	0.18707372
107	0x3d528a10	0.051401198
108	0xbf053bdd	-0.5204447
109	0xbf5103a7	-0.816462
110	0xbe6495ef	-0.2232282
111	0xbd8f30fd	-0.06991766
112	0xbed46508	-0.4148333
113	0xbf3cf331	-0.7380858
114	0x3e06491f	0.13113831
115	0xbd604aeb	-0.054758947
116	0xbf26b6fa	-0.6512295
117	0xbec76cfd	-0.3895034
118	0xbe41838a	-0.18897834
119	0xbd35d188	-0.044389278
120	0xbe5d442a	-0.21608034
121	0xbe31b49a	-0.1735405
122	0x3e0a8f48	0.1353122
123	0x3e4a90d6	0.19781813
124	0x3e641ee5	0.2227741
125	0xbfaac6ee	-1.3341959
126	0xbe91a9c5	-0.28449836
127	0xbdd1e6d5	-0.10249106
128	0xbdd6465e	-0.1046264
129	0xbf9c2bb7	-1.2200841
130	0xbe838cb6	-0.2569329
131	0xbd217c47	-0.03942516
132	0x3efb895e	0.4912824
133	0xbea056a9	-0.31316116
134	0xbdbd101a	-0.09231587
135	0x3eca4f4b	0.3951362
136	0xbecc36e9	-0.39885643
137	0xbf5a9aef	-0.8539266
138	0x3d26f7e6	0.040763758
139	0xbcfb7f7e	-0.030700441
140	0xbf3ddb5d	-0.74162847
141	0x3e24b013	0.16082792
142	0x3e8846be	0.26616472
143	0xbd0db43f	-0.034595724
144	0xbf208549	-0.62703377
145	0x3ec93e63	0.3930541
146	0x3e2ec7fc	0.17068475
147	0x3d9a1984	0.07524398
148	0xbc946557	-0.018114729
149	0xbd660a57	-0.056162205
150	0x3ebe2033	0.3713394
151	0x3db792e5	0.08963565
152	0xbf69956b	-0.9124362
153	0x3eb2c729	0.34917572
154	0xbe781e67	-0.24230348
155	0xbe63450e	-0.22194311
156	0xbf1b6f12	-0.60716355
157	0x3f0c5eac	0.5483196
158	0x3e4ac107	0.19800197
159	0x3daa884a	0.08326776
160	0xbe75d126	-0.24005565
161	0xbf1f4d0a	-0.6222693
162	0x3df21815	0.118209995
163	0x3e76f967	0.24118577
164	0xbec11290	-0.37709475
165	0x3f8fdbe3	1.1238979
166	0x3e7f1908	0.24911892
167	0x3d7e17a1	0.062034253
168	0xbf0ea9c7	-0.5572781
169	0x3ec5bd5a	0.38621026
170	0x3e35a0db	0.17737143
171	0x3d74335d	0.059619296
172	0xbf0da590	-0.55330753
173	0x3f31c81d	0.69445974
174	0x3e51f192	0.20502308
175	0x3d2dc6a6	0.042425774
176	0x3f0573a9	0.5212961
177	0x3e3cd9dd	0.18442483
178	0x3d32b7d9	0.043632362
179	0x3d27a77e	0.040931217
180	0xbe860977	-0.26179096
181	0xbe7749c8	-0.24149239
182	0x3e63b849	0.22238268
183	0x3da2cf87	0.07949739
184	0xbedd8c7b	-0.4327124
185	0xbe4221da	-0.18958226
186	0xbe03171d	-0.12801786
187	0xbd37e32e	-0.04489439
188	0xbf009baa	-0.50237525
189	0xbe8131e3	-0.25233373
190	0xbe19dd6c	-0.15025872
191	0xbd5ee642	-0.05441881
192	0xbe6f239e	-0.2335343
193	0xbeccbb5d	-0.39986697
194	0x3db8af86	0.090178534
195	0x3d0a1111	0.033707682
196	0xbf0063b2	-0.5015212
197	0x3f55ba63	0.8348753
198	0xbd9cf73d	-0.076643445
199	0xbd4b7a37	-0.0496771
200	0xbf11089c	-0.5665376
201	0x3e971751	0.29509977
202	0x3e0c372c	0.13692921
203	0x3d4fab6b	0.050700586
204	0xbe8e2e2a	-0.27769595
205	0xbdc3394f	-0.09532415
206	0xbdaf6acf	-0.08565294
207	0xbdc364d2	-0.09540714
208	0xbedeca76	-0.4351384
209	0x3e46515f	0.19366978
210	0x3e23be79	0.15990628
211	0x3d2eaa08	0.042642623
212	0xbf25e2f3	-0.6479942
213	0xbef4325f	-0.4769468
214	0xbe41b505	-0.1891671
215	0xbd662ead	-0.056196857
216	0xbe28d755	-0.16488393
217	0xbf0ca4f7	-0.54939216
218	0xbe1f3f06	-0.15551385
219	0x3cbbd465	0.022928426
220	0xbeec1a92	-0.46114022
221	0x3ee6be6b	0.45067152
222	0xbd9c7e9f	-0.076413386
223	0xbcfa8c84	-0.030584581
224	0x3f7433b7	0.9539141
225	0x3f559b1f	0.8343982
226	0x3e3584e2	0.17726472
227	0x3d1c92c5	0.038225908
228	0xbe76004b	-0.2402355
229	0x3e82ba5f	0.25532815
230	0xbe7ebfbd	-0.2487783
231	0xbd03397a	-0.032037236
232	0xbdce32cf	-0.10068285
233	0x3e8af699	0.27141264
234	0x3eb810e1	0.35950378
235	0x3e2a3021	0.16619922
236	0xbe49ee2a	-0.19719759
237	0xbec0af89	-0.37633923
238	0x3e94a82b	0.29034552
239	0xbe400ae0	-0.18754148
240	0xbe921837	-0.285341
241	0xbe708697	-0.23488842
242	0xbcbe68c6	-0.02324332
243	0xbeb90528	-0.36136746
244	0xbdc7bb65	-0.097525395
245	0x3eeddf1a	0.46459275
246	0x3ec769c4	0.3894788
247	0x3de6927f	0.11258411
248	0xbeb5350f	-0.35392043
249	0x3f2d8dc0	0.6779442
250	0x3e2c5e40	0.16832829
251	0x3d74fb14	0.05980976
252	0xbe207646	-0.15670118
253	0x3f0741ab	0.52834576
254	0x3db3fd21	0.08788515
255	0x3e125f97	0.14294277

q1.0.bias f4 [128]
0	0x3ee48410	0.44632006
1	0x3d842468	0.064522564
2	0x3e72133b	0.23640148
3	0x3ee4ed62	0.4471236
4	0x3e6e995f	0.23300694
5	0x3ecd6b0c	0.40120733
6	0x3eba19e6	0.36347884
7	0x3ed78001	0.42089847
8	0x3ef6a184	0.48170102
9	0xbe4840d6	-0.19555983
10	0x3ec75cc9	0.38937977
11	0x3ec889ff	0.39167783
12	0xbe2fb842	-0.17160133
13	0x3dda51ea	0.10660155
14	0x3e27125e	0.163156
15	0x3e64efc7	0.22357093
16	0x3e97968d	0.2960705
17	0xbe22dbd1	-0.15904166
18	0x3f01102a	0.5041529
19	0x3ee37d97	0.44431755
20	0x3d117793	0.035514425
21	0x3edf7fef	0.43652293
22	0x3ef40b22	0.47664744
23	0xbe0664d9	-0.13124408
24	0x3e6e91d6	0.2329782
25	0x3ee8354c	0.45353162
26	0x3ee31c38	0.44357467
27	0x3e83e90b	0.25763735
28	0x3e9d2bf8	0.30697608
29	0x3efc6240	0.4929371
30	0xbe83f516	-0.25772923
31	0xbee75437	-0.45181438
32	0xbe3212df	-0.17390011
33	0x3ed22191	0.41041234
34	0x3ea766c9	0.32695606
35	0x3e5fe341	0.21864034
36	0x3eb61133	0.35559997
37	0x3dd99a15	0.10625092
38	0x3e543566	0.20723495
39	0x3ed2ca5c	0.41170013
40	0x3eaeebb8	0.34164214
41	0x3d1c2ead	0.03813045
42	0x3edb6936	0.42853707
43	0x3e98d1fe	0.2984771
44	0x3edddb00	0.43331146
45	0x3e6b081f	0.22952317
46	0x3ecc79f6	0.399368
47	0x3ee64a0d	0.4497837
48	0x3f069aa6	0.52579725
49	0x3e934d58	0.28769946
50	0x3e6e98f2	0.23300532
51	0x3eb270dc	0.3485173
52	0x3efd9f63	0.49535665
53	0x3ee263b7	0.442167
54	0x3e9747a5	0.29546848
55	0xbec9bde3	-0.39402685
56	0x3e3350ea	0.17511335
57	0xbda36380	-0.079779625
58	0xbdbf755f	-0.09348559
59	0xbe822e85	-0.25426117
60	0xbe7d788b	-0.24753015
61	0xbdcf755a	-0.10129805
62	0x3e175b45	0.1478091
63	0x3ec8d62e	0.39225906
64	0x3e849dfd	0.25901785
65	0x3eb993ae	0.36245483
66	0x3ebbd94c	0.36689222
67	0xbef10cb9	-0.4708002
68	0x3e9b671e	0.3035211
69	0x3e44692d	0.19180746
70	0x3e9876f0	0.29778242
71	0xbd952740	-0.07282877
72	0x3eb9df73	0.3630329
73	0x3d2ecefa	0.042677857
74	0x3ea33f9f	0.31884477
75	0xbe42e8cb	-0.19034116
76	0x3eba8d72	0.3643604
77	0x3f04e92b	0.51918286
78	0x3eef7cd9	0.4677494
79	0xbec48033	-0.38379058
80	0x3e9fadd9	0.31187323
81	0x3ead30ac	0.33826196
82	0x3f13f0d7	0.5778937
83	0xbe2e4507	-0.1701852
84	0x3e94c168	0.29053807
85	0x3e0e1cc3	0.13878159
86	0x3ecf9110	0.4054036
87	0x3ec3715e	0.3817243
88	0x3eaadd20	0.3337183
89	0xbe44e2c3	-0.19227128
90	0x3dfd4bd9	0.123679824
91	0x3dd787f6	0.10523979
92	0x3ee6d6e3	0.4508582
93	0x3e441233	0.19147567
94	0x3eb4b6e4	0.35295784
95	0xbe75d1b0	-0.2400577
96	0x3eb3f382	0.3514672
97	0x3eab3f34	0.33446658
98	0x3f09321e	0.535921
99	0xbe2742b5	-0.1633404
100	0x3e891ef2	0.26781422
101	0xbe3ed666	-0.18636474
102	0xbe2d20e9	-0.16907085
103	0x3ef1afc4	0.4720441
104	0x3ee365d6	0.44413632
105	0xbe0c80a6	-0.1372095
106	0x3ed87ac3	0.4228116
107	0xbe19bec5	-0.15014179
108	0x3f04afa1	0.5183049
109	0xbe824fad	-0.25451413
110	0x3edfc93f	0.43708226
111	0xbc61a3b1	-0.013771937
112	0x3f03ee07	0.51535076
113	0x3ecf1601	0.40446475
114	0x3e2a6d31	0.16643216
115	0xbcd36ae4	-0.025807805
116	0x3e05c790	0.13064408
117	0xbe4247c2	-0.18972686
118	0x3efdc4ff	0.4956436
119	0x3dda20cc	0.10650787
120	0xbf14e195	-0.5815671
121	0xbeb380cc	-0.35059202
122	0x3f0408d3	0.51575965
123	0x3e6aa72d	0.22915335
124	0xbdc75ea3	-0.097348474
125	0x3edd96d6	0.4327914
126	0xbe0b1047	-0.13580428
127	0x3eb5308a	0.35388595

q1.2.weight f4 [128, 128]
0	0xbec0dd64	-0.37668908
1	0x3eb72f27	0.35778162
2	0x3d0daf82	0.034591205
3	0x3e9c6240	0.3054371
4	0xbe82c1fb	-0.2553862
5	0x3e27639d	0.16346593
6	0x3de17b21	0.11009813
7	0x3dfee812	0.12446608
8	0xbc9e16c6	-0.019297969
9	0x3d98c65f	0.07459711
10	0x3de8be50	0.11364424
11	0xbe448a3a	-0.19193354
12	0x3eaa1aa1	0.3322344
13	0x3e01cd79	0.12676038
14	0xbe6825c6	-0.2267066
15	0x3d58383b	0.052788
16	0x3e82afa0	0.25524616
17	0x3e45d7bb	0.19320576
18	0xbc35ff6c	-0.011108261
19	0xbdce99e0	-0.10087943
20	0x3df54200	0.11975479
21	0x3d85b8c2	0.065293804
22	0xbd4fcba5	-0.05073132
23	0xbd590dae	-0.05299156
24	0x3ec3caa0	0.38240528
25	0xbf168407	-0.5879521
26	0x3cf0ef3d	0.029410953
27	0x3ea24fc0	0.3170147
28	0x3e51238e	0.2042372
29	0x3df5caf5	0.120016016
30	0x3e78e3ab	0.24305598
31	0x3e23841d	0.15968366
32	0x3e92d4f6	0.286781
33	0x3d885f55	0.06658808
34	0x3e846949	0.25861576
35	0x3e9b64b6	0.30350274
36	0x3bacbbd2	0.0052714134
37	0x3e534b90	0.20634294
38	0xbe496774	-0.1966837
39	0x3dc6834f	0.09693014
40	0x3e77d525	0.24202402
41	0xbe3b86b8	-0.1831311
42	0xbe3825a2	-0.17983106
43	0xbdf4c843	-0.119522594
44	0xbf15251f	-0.5825977
45	0x3e566372	0.20936373
46	0x3e8066e2	0.25078493
47	0x3e577ff9	0.21044911
48	0x3dbe5334	0.092932135
49	0xbf08b4f3	-0.53401107
50	0x3e107d77	0.14110361
51	0x3d9769e6	0.073932454
52	0xbe93196d	-0.28730336
53	0x3e3b437a	0.18287459
54	0x3e74124e	0.23835108
55	0x3cdda7ef	0.027057616
56	0xbfdd9fec	-1.7314429
57	0x3d94a86c	0.072586864
58	0x3ec415cd	0.38297883
59	0x3e4b7037	0.19867025
60	0x3e940d72	0.28916508
61	0x3ece7eb1	0.40331033
62	0xbdf60278	-0.120121896
63	0xbe95b439	-0.2923906
64	0x3e571d26	0.21007213
65	0x3eadb5ef	0.33927867
66	0x3e48c488	0.1960622
67	0x3e2fb500	0.1715889
68	0xbefe2668	-0.49638677
69	0xbe9cdbbe	-0.306364
70	0x3dd0c984	0.10194686
71	0x3d10bc43	0.03533579
72	0x3cb1714a	0.021660466
73	0xbe1430d6	-0.14471754
74	0xbe9e7234	-0.30946505
75	0x3cf63dd1	0.030058773
76	0xbf46dca3	-0.77680415
77	0x3d0226d3	0.031775307
78	0x3e317540	0.17329884
79	0xbf098d01	-0.5373078
80	0xbf3349d6	-0.7003454
81	0xbea20e7a	-0.3165167
82	0xbceedac1	-0.029157044
83	0x3e9e2297	0.30885765
84	0x3e4cdf95	0.20007165
85	0x3d889414	0.06668869
86	0x3d9b9794	0.075972706
87	0x3db15317	0.08658426
88	0xbf00779e	-0.5018252
89	0xbded26bb	-0.11579653
90	0x3e8b9d1a	0.27268296
91	0x3ec58ec6	0.3858549
92	0xbe14aba5	-0.14518602
93	0x3ead82b5	0.33888784
94	0xbc462aa2	-0.012095125
95	0xbdb87495	-0.09006611
96	0x3ea28c30	0.3174758
97	0x3e1a005f	0.15039204
98	0x3e031b5f	0.1280341
99	0x3e1c9d6e	0.1529443
100	0x3db75932	0.089525595
101	0xbe6fa232	-0.23401716
102	0x3d39cba9	0.04536024
103	0xbe5b4243	-0.21411996
104	0xbd74f3ab	-0.059802692
105	0x3e3277b0	0.1742847
106	0xbec8f77a	-0.3925131
107	0x3e8e3a1f	0.27778718
108	0xbf041976	-0.5160135
109	0xbdb4713a	-0.08810659
110	0x3e5f7e90	0.21825624
111	0xbeaebbd7	-0.34127685
112	0xbe50767d	-0.203577
113	0x3cefa9b9	0.029255735
114	0x3e71c38e	0.23609754
115	0xbea64167	-0.32471773
116	0x3e8d8d52	0.2764688
117	0x3f0f8fec	0.5607898
118	0x3e614584	0.21999174
119	0xbe727411	-0.23677088
120	0x3ec706ce	0.3887238
121	0xbda412b2	-0.08011378
122	0xbe584b14	-0.2112239
123	0x3ec521c2	0.38502318
124	0xbe37fc1c	-0.17967266
125	0xbe14e8b1	-0.1454189
126	0xbe43df1c	-0.19128078
127	0xbe6e0248	-0.23243058
128	0x3e2b182a	0.16708437
129	0xbf0a4963	-0.5401823
130	0x3e216f5f	0.15765141
131	0x3e6b7bbc	0.2299642
132	0x3e863191	0.2620969
133	0x3e0890d0	0.13336492
134	0x3e4c9611	0.19979121
135	0x3d38032f	0.04492491
136	0x3e8cb281	0.27479938
137	0xbc583677	-0.013196579
138	0x3d84da04	0.06486896
139	0x3ea3da67	0.32002565
140	0xbe3aaeb2	-0.18230703
141	0x3e120560	0.14259863
142	0x3e94e1c5	0.29078498
143	0x3eac69e2	0.33674532
144	0x3d335ee2	0.04379166
145	0xbdafd033	-0.08584633
146	0x3e93043c	0.28714168
147	0x3d9ed93c	0.07756278
148	0xbdfe15eb	-0.12406524
149	0x3e8443a1	0.25832847
150	0x3e850e9e	0.25987715
151	0x3e95a5df	0.29228112
152	0x3ea2e575	0.31815687
153	0x3e51dab5	0.20493586
154	0x3e9a81c7	0.30177137
155	0x3e86b1d4	0.26307547
156	0x3e1416c8	0.14461815
157	0x3e09053b	0.13380902
158	0xbeaf3fb6	-0.34228295
159	0x3eb9dc29	0.3630078
160	0x3e31ea44	0.17374521
161	0x3e4977f5	0.19674666
162	0x3e692c57	0.2277082
163	0x3d27a76d	0.040931154
164	0x3e4b68c0	0.19864178
165	0xbe16f863	-0.1474319
166	0x3e0cc6be	0.13747689
167	0x3e66bbd2	0.22532585
168	0x3e7bbbdc	0.24583381
169	0x3e02c67b	0.12771027
170	0x3d9baf7f	0.076018326
171	0x3d087683	0.033316147
172	0x3e5040c7	0.2033721
173	0x3de094f9	0.10965914
174	0x3ea1c992	0.31599098
175	0x3e04761a	0.12935677
176	0x3ea322ef	0.3186259
177	0x3e485d27	0.19566785
178	0x3d9ce1fb	0.0766029
179	0x3e55b446	0.2086955
180	0x3e2df18f	0.16986679
181	0x3d9c15c2	0.076213375
182	0x3e6290e6	0.22125587
183	0xbe49a3ec	-0.19691437
184	0x3e9e6862	0.30939013
185	0xbcd7f5e3	-0.026362365
186	0xbd1e1d80	-0.038602352
187	0xbd93fa4b	-0.07225474
188	0xbd945525	-0.072428025
189	0xbd2c3b0e	-0.042048506
190	0x3e53e390	0.20692277
191	0x3e48bf59	0.19604243
192	0x3e6c9095	0.23102029
193	0xbde59371	-0.11209763
194	0xbd91eca8	-0.07125217
195	0xbead82b6	-0.33888787
196	0x3e9d76b3	0.30754623
197	0x3e321053	0.1738904
198	0x3e2005e8	0.15627253
199	0xbe082471	-0.13295151
200	0x3e674cac	0.22587842
201	0x3dbc642a	0.09198792
202	0x3ea5a664	0.32353508
203	0x3b96d154	0.0046025906
204	0x3f277440	0.6541176
205	0x3e832088	0.25610757
206	0x3e7a8f0c	0.2446863
207	0x3e64e775	0.22353919
208	0x3f00ed43	0.5036203
209	0x3eb04d81	0.3443413
210	0x3e0596d2	0.13045815
211	0x3e7f6749	0.24941744
212	0x3e0d32e8	0.1378895
213	0x3e4a8223	0.19776206
214	0x3e60fa63	0.21970515
215	0x3d2f465d	0.042791713
216	0x3eb2d884	0.34930813
217	0x3e04dac3	0.12974076
218	0x3e8ac98d	0.27106896
219	0x3d30586d	0.04305308
220	0x3e7d2434	0.24720842
221	0x3e2f7cdb	0.17137472
222	0x3de16c29	0.11006958
223	0xbe2c4fea	-0.1682736
224	0x3e83a3f6	0.2571103
225	0x3db88580	0.09009838
226	0xbcaffefe	-0.021483894
227	0xbe65d3d6	-0.2244409
228	0x3e9f1115	0.3106772
229	0xbdee4fec	-0.11636338
230	0xbda05ab4	-0.078298
231	0x3e827d7a	0.25486356
232	0x3e127e30	0.14305949
233	0x3cfa7cff	0.03057718
234	0x3e857dfe	0.26072687
235	0xbe83ceae	-0.25743622
236	0x3e8ec903	0.27887735
237	0xbd5dd5c8	-0.054158956
238	0x3e4bd776	0.1990641
239	0x3cebdbb4	0.028791286
240	0x3ce46473	0.02787993
241	0x3e961aee	0.2931742
242	0xbca9e448	-0.020738736
243	0x3e27732f	0.16352533
244	0x3e430490	0.19044709
245	0xbd766c3e	-0.06016182
246	0x3c96590e	0.018353011
247	0x3e4cb815	0.19992097
248	0x3ca0de11	0.01963714
249	0xbe3672a7	-0.17817174
250	0x3e3de185	0.1854306
251	0x3e515888	0.20443928
252	0x3ea65a0e	0.3249058
253	0x3d3e9c6e	0.0465359
254	0x3e5f8d90	0.21831346
255	0x3e659e3c	0.22423643

q1.2.bias f4 [128]
0	0xbc9beab6	-0.019032817
1	0x3e2f716a	0.17133108
2	0x3e28513b	0.16437237
3	0x3e2498c3	0.16073899
4	0xbd9e8dcb	-0.077418886
5	0x3e4fe2aa	0.20301309
6	0x3e6c585a	0.23080578
7	0x3e2d20af	0.16906999
8	0x3e7bb92f	0.2458236
9	0x3e2fadfd	0.17156215
10	0xbd8827eb	-0.06648239
11	0x3e2d75c4	0.16939455
12	0xbdeb9bf7	-0.11504357
13	0x3f3590d6	0.7092413
14	0xbd489d83	-0.04897834
15	0x3e3898b3	0.18027
16	0x3f20a15b	0.6274621
17	0x3d3d3c66	0.04620018
18	0x3e316ab5	0.17325862
19	0x3e64086f	0.22268842
20	0x3e64b233	0.22333603
21	0xbbcc9de9	-0.0062444103
22	0x3e89ae64	0.26890862
23	0x3e434991	0.19071032
24	0x3f0a439a	0.540094
25	0xbd16d072	-0.036819883
26	0xbd2c2a63	-0.04203261
27	0x3e3b49bc	0.18289846
28	0x3e342015	0.17590363
29	0xbb19be89	-0.0023459515
30	0x3d103a56	0.035211883
31	0x3e286627	0.16445218
32	0x3c6e0ae1	0.014528961
33	0x3e7e71eb	0.24848144
34	0x3e3eb7c0	0.18624783
35	0x3e2a6057	0.16638313
36	0xbd84e443	-0.0648885
37	0x3e7240db	0.23657553
38	0x3ed36404	0.41287243
39	0x3e222b27	0.15836774
40	0xbd238798	-0.039924234
41	0x3f313d9d	0.6923464
42	0xbc5389e8	-0.012911297
43	0xbd2b2831	-0.041786376
44	0x3e47ecbb	0.195239
45	0xbd56d10a	-0.05244545
46	0xbc7e4b7e	-0.015520928
47	0x3e52aa89	0.20572866
48	0xbd4848ca	-0.048897542
49	0x3e2e5c68	0.17027438
50	0x3e3605c4	0.17775637
51	0xbdc1833f	-0.09448861
52	0xbcfa89ca	-0.030583281
53	0x3d229d02	0.039700516
54	0x3e398050	0.18115354
55	0x3e57cf81	0.2107525
56	0x3e876967	0.26447603
57	0x3e7638f6	0.24045166
58	0xbc9e4730	-0.019321054
59	0x3e363a58	0.17795694
60	0x3e392aee	0.18082783
61	0x3c07ab71	0.008280621
62	0x3e3b795d	0.18308015
63	0x3e3ce18c	0.18445414
64	0x3e4c0a10	0.19925714
65	0x3e42272d	0.18960257
66	0x3e3ba267	0.1832367
67	0x3e60f583	0.21968655
68	0x3e50ce3e	0.20391175
69	0x3e23df71	0.16003205
70	0x3e4cc844	0.1999827
71	0xbd9e0ce2	-0.07717301
72	0x3e47b9c5	0.19504459
73	0xbaad8a2d	-0.0013240032
74	0xbca815c3	-0.02051819
75	0xbd57171a	-0.052512266
76	0xbc840b19	-0.016118573
77	0x3e33e075	0.17566092
78	0x3e80a6d3	0.25127277
79	0x3e2eda98	0.17075574
80	0x3e45207c	0.19250673
81	0x3e30ae9f	0.17254113
82	0x3d1eddc9	0.03878573
83	0xbd4784d2	-0.04871065
84	0xbd00b5b3	-0.031423282
85	0x3e694fc5	0.22784336
86	0x3e84e841	0.25958446
87	0x3e4717ea	0.19442716
88	0x3e6c1e2e	0.23058388
89	0x3e269788	0.16268742
90	0x3e51817a	0.20459548
91	0x3e0a4271	0.13501908
92	0x3d615cd0	0.055020154
93	0x3cfa2eb0	0.03053984
94	0x3e55a39b	0.20863192
95	0x39f87cd1	0.00047395242
96	0x3e45dc5f	0.19322346
97	0xbe2eaf79	-0.17059125
98	0xbb6ba627	-0.0035957189
99	0x3e3656f2	0.17806605
100	0x3f4293b4	0.7600663
101	0x3e3003d8	0.17188966
102	0x3e27a71e	0.16372344
103	0x3ca7c32a	0.020478804
104	0x3e3316e1	0.17489196
105	0x3e363465	0.17793424
106	0x3e36ef9a	0.17864838
107	0x3e3831fb	0.17987816
108	0x3e7d6388	0.24745
109	0x3ccdc22f	0.025117008
110	0xbdfd0f0a	-0.12356384
111	0xbe1b012a	-0.15137163
112	0x3e62769e	0.22115561
113	0xbd91f977	-0.0712766
114	0xbc955883	-0.018230682
115	0xbcdef7eb	-0.027217826
116	0x3e22dfba	0.15905657
117	0xbbbec48d	-0.0058217705
118	0x3e3f4e9b	0.1868233
119	0x3e4d5951	0.20053603
120	0xbd368192	-0.04455716
121	0xbe109733	-0.14120178
122	0x3e124016	0.1428226
123	0xbcdf7a82	-0.027280096
124	0x3e4560b5	0.19275172
125	0xbce916e5	-0.0284533
126	0x3e3bb8d5	0.18332227
127	0x3e5a5e67	0.21325074

q1.4.weight f4 [1, 128]
0	0x3f385acf	0.7201356
1	0xbea06795	-0.31329027
2	0xbec7d7a8	-0.3903172
3	0xbeed1f97	-0.46313164
4	0x3f28203e	0.656742
5	0xbeeff5b2	-0.46867138
6	0xbe92be8b	-0.28660998
7	0xbee36a30	-0.44416952
8	0xbeb134f3	-0.3461071
9	0xbeb9ae36	-0.36265725
10	0x3f6ca7a8	0.92443323
11	0xbecc6148	-0.3991797
12	0x3f6d4210	0.9267893
13	0x4049d678	3.1537151
14	0x3f5a14f8	0.85188246
15	0xbedb9f91	-0.42895177
16	0x406b1110	3.6729164
17	0x3f810044	1.0078206
18	0xbee960d9	-0.455817
19	0x3fb9c619	1.451358
20	0xbec61b76	-0.38692826
21	0x3da21229	0.0791362
22	0xbeb08365	-0.34475246
23	0xbec7782c	-0.3895887
24	0x4017a839	2.3696425
25	0x3f518ae1	0.8185254
26	0x3f7c1893	0.98475
27	0xbedb64d5	-0.42850366
28	0xbed8afcb	-0.4232162
29	0x3d23310b	0.039841693
30	0x3f798d13	0.9748089
31	0xbeb7d15e	-0.35901922
32	0x3f35cac6	0.7101253
33	0x3f6ebbdc	0.932554
34	0xbe9275b3	-0.28605422
35	0xbeea33fb	-0.45742783
36	0x3f2c2b90	0.6725397
37	0xbe8db3e8	-0.2767632
38	0x4022a116	2.541082
39	0xbee28dd0	-0.4424882
40	0x3f531f7e	0.8246993
41	0x40a2cc5a	5.0874453
42	0x3dfccaa7	0.1234334
43	0x3f63130f	0.88700956
44	0xbecf4d7f	-0.40488812
45	0x3f21e796	0.63244
46	0x3dae3ebe	0.08508061
47	0xbeb6303b	-0.35583672
48	0x3f82846d	1.0196663
49	0xbebaf659	-0.36516073
50	0xbec94cf7	-0.39316532
51	0x3f5e78d5	0.86903125
52	0x3f6c9fea	0.9243151
53	0x3fc2d2cb	1.5220579
54	0xbf011f9c	-0.5043886
55	0xbeb3a39e	-0.35085768
56	0xbeb7600c	-0.35815465
57	0xbe9f10fc	-0.31067646
58	0x3f2ffdff	0.6874694
59	0xbedb0c2e	-0.4278273
60	0xbeed8af0	-0.46395063
61	0x3f426257	0.75931305
62	0xbf02d9c0	-0.5111351
63	0xbef696b4	-0.48161852
64	0xbeefc9bb	-0.46833596
65	0xbe9ae0e5	-0.30249706
66	0xbec24d5f	-0.37949654
67	0xbed33f0f	-0.41259047
68	0xbe86e5be	-0.26347154
69	0xbeddf553	-0.4335123
70	0xbec24529	-0.3794339
71	0x3f3ee1e9	0.7456346
72	0xbee1b615	-0.4408423
73	0x3f440fa2	0.76586354
74	0x3f82d939	1.0222541
75	0x3f3e49a5	0.7433112
76	0x3e348057	0.17627083
77	0xbeb47a1f	-0.3524942
78	0xbe958e1b	-0.2920998
79	0xbebeb59f	-0.3724794
80	0xbeadc6c0	-0.33940697
81	0xbeb9a368	-0.36257482
82	0x3f6ff8c1	0.93738943
83	0x3f90d157	1.1313885
84	0x3f4fcd26	0.81172407
85	0xbeaf7072	-0.34265476
86	0xbe9e1c91	-0.3088117
87	0xbeffb723	-0.4994441
88	0xbe93fc3f	-0.28903386
89	0xbec4e619	-0.384568
90	0xbebbea4d	-0.36702195
91	0x3f26f3f8	0.65216017
92	0x3e99336b	0.2992204
93	0x3f5661eb	0.8374316
94	0x3f48820e	0.7832345
95	0x3f0cc96a	0.54994833
96	0xbee2dd45	-0.4430944
97	0x3f5843c5	0.8447841
98	0x3f545a2c	0.8295009
99	0xbeef2a4c	-0.46711957
100	0x4088af0e	4.271369
101	0xbeb16634	-0.34648287
102	0xbea8742b	-0.3290113
103	0x3f3c4d34	0.735553
104	0xbeaa1119	-0.3321617
105	0xbefc75e5	-0.49308696
106	0xbef5b562	-0.47989947
107	0xbec9b8ee	-0.39398903
108	0xbed97d2e	-0.42478317
109	0x3f63989d	0.88904744
110	0x3f299f3e	0.6625861
111	0x3f673291	0.90311533
112	0xbe951ced	-0.2912363
113	0x3f9298ef	1.1452922
114	0x3f61f8fe	0.88270557
115	0x3f256e16	0.646211
116	0xbecfb25a	-0.4056576
117	0x3f741f9e	0.95360744
118	0xbef67e83	-0.48143396
119	0xbef09352	-0.46987396
120	0x3f552d8c	0.83272624
121	0x3f206d44	0.62666726
122	0xbf3e466f	-0.74326223
123	0x3f0129b1	0.5045424
124	0xbea3eef0	-0.32018232
125	0x3f3b2ec4	0.73118234
126	0xbefad53e	-0.48990816
127	0xbea06823	-0.3132945
