SAC/checkpoints/Pendulum-v1/11_best_agent.pth (torch, 214247 bytes, 17 tensors)

log_alpha f8 []
00000000: 8b67 05fc a704 17c0
-5.7545470598505615

actor.0.weight f4 [128, 3]
00000000: 6dd2 acbd d4ff 343e 13dd 03be d575 23be
00000010: f32f c53e 12ba 803d ca52 413e 7a53 23be
00000020: cbad 81bd 6c83 8bbe f074 be3e 878a d53d
00000030: 4801 37be 899f 06be cd85 783d aac1 aabe
00000040: 511f 2fbe a590 203d efcb 95be d240 79be
00000050: 9cdd b63d 1019 993e 5620 8abe 053a b8bd
00000060: 42c5 233e fb3b 3f3e 7588 29bd 1236 c4bd
00000070: a4d6 fbbe 8bb6 ffbd 2057 debd e1cd bcbe
00000080: 3357 a9bd c56d 8a3e 9a2b 97bd 8204 98bc
00000090: 27ab 673e 60f3 78be bbd4 a1bd 7696 8d3d
000000a0: 0c8f 583e 6c35 b0bd 20e9 563e 1afe 253e
000000b0: 3261 913d 2212 bbbd 91f8 4a3e e6cb fc3d
000000c0: d51a 9ebe 747d 46be 2e51 69bd 93ca f1ba
000000d0: d0a2 a8be e961 223d 981e f0bd 3627 8f3e
000000e0: 414b 68bd e99c ffbd bc1e 843e 4273 3c3e
000000f0: 152f 203e 835c 02be e5dd b2bd fd0a 31be
00000100: 832a 693e 67b5 d73c c3ca 8abe 15f0 23be
00000110: 76b6 f5bd 2210 7e3e 9afe 51be c5d8 543e
00000120: 23d2 37be 5bdf 1dbe 0974 033e 30ca a2bd
00000130: 20d4 a83e 9758 053e 09b7 17be 685d d1be
00000140: 65cb 74bd 6c66 4bbe 9bd6 223e 740d dbbd
00000150: e466 ef3d 9ac2 623d de20 1ebe edd4 c5bd
00000160: 2332 99bd eae2 a23d b163 1a3e 4c0d b03e
00000170: 477f 953d 5b66 9cbe 2f96 9cbe b12f 81bd
00000180: d778 223e ac20 c9be c85c 31be 91e4 053e
00000190: 1bdf 103e badd 633e b986 16be 923b 7cbe
000001a0: 644d 39be c28a 4fbe c5ab d93e 026e a13d
000001b0: 9afa c03c 2740 b83e 5bc8 793d 4c57 523e
000001c0: c9a8 cd3e 16e2 b33d b1c4 763e cfd8 8dbe
000001d0: 4dcc 9e3d c0c8 1fbe 106b af3e 15a4 b03d
000001e0: 8c7e 7dbe ca32 fbbd 4f1d 7abd dc56 8c3e
000001f0: 0571 823e e1bb 00be e062 193e 9f87 0ebf
00000200: 92ae d1bd d90a 843e 3355 1ebd 8290 36be
00000210: 4b8d 10be 6aa5 52bd 3294 1c3e 0c42 023e
00000220: bcda 573d 7ae6 21be dcb9 acbd d312 b9bd
00000230: 2d0e 483d 74a8 4ebe 966c 5c3e 7280 8a3d
00000240: 7861 17be 5d73 393e 791a 413e f652 583e
00000250: fa1b 43be 493c 8cbd 6c28 653d 5e50 5b3e
00000260: 0fbd 9ebd e3e3 8e3e fc3a 863e 959f d43d
00000270: d75f 3bbe f495 323e 7441 573d 2edd a23d
00000280: 6b1b cdbe c280 0f3e 9020 3a3e 559f 163e
00000290: 84aa 803d 9c0e 423d 9ae8 6f3d 568a 5a3e
000002a0: 9367 ad3e 5380 af3e 7d8c e53d 3de4 1abe
000002b0: 6c1e ed3e 3373 c83d b6fc cdbd bd8a 0e3e
000002c0: 04b1 243e ccb8 8ebe 5728 fe3d 49b6 5a3e
000002d0: 7dc5 983e 2265 e73e 2d79 d73d 94b2 c6be
000002e0: 1ee1 313d 7ef7 ed3c cb6d 413e fb43 143e
000002f0: f6e0 17be 1074 e33d bda2 72bd dad5 24be
00000300: 7f65 48be 1635 813e 7133 133d 55b2 00be
00000310: 14d2 91be 6bb2 40be 04b1 a4be eeab a83d
00000320: 0b29 513d efc4 35be c253 d6bd 2a64 42be
00000330: 483b af3e 2935 e43e 5dca e43d 37e2 3bbe
00000340: f644 483e 4e8c 5b3e aae8 25be ea64 ebbe
00000350: fffc b9bd 2933 4b3e 9f37 45be 5ba9 0dbe
00000360: 81e9 cd3c ab85 983e e0f0 143e ddf3 213e
00000370: 76b7 b7be 2c05 043e b9b3 8cbe 3748 b83d
00000380: 753d f1bd 3cfd 233e 8661 53be ca4b 6c3d
00000390: bd44 693d 1ce8 06be dfcb d5bd 40f4 84be
000003a0: a6f3 92be 4964 b2bd cd4a 4c3e 254c 95be
000003b0: 6bdf 8ebd 00ac 4dbc df19 7a3e a017 ed3c
000003c0: d6cc 893e f9fb 80be 15c5 acbd dfa2 9f3e
000003d0: 6764 253d 2162 dc3d e9ef 7cbe 3546 9d3e
000003e0: dccb a13d f1b7 6e3e 02af 923d 71e3 23be
000003f0: ed12 623d 8d5f 313e 6e5c 01be 3945 f7bb
-0.08438573 0.17675716 -0.12877302 -0.15962918 0.38513145 0.0628549 0.18879238 -0.15949813
-0.063319765 -0.27248704 0.3719859 0.104268126 -0.17871583 -0.13146795 0.060674477 -0.3335088
-0.1710179 0.039200444 -0.2925715 -0.24341133 0.089289874 0.29901934 -0.26977795 -0.08995441
0.15993217 0.18675224 -0.0413899 -0.095806256 -0.49187195 -0.12485989 -0.108564615 -0.36875823
-0.08268585 0.27036873 -0.07381363 -0.018556837 0.22623883 -0.2431159 -0.07901903 0.06913464
0.21148318 -0.086039394 0.20987368 0.16210213 0.07098617 -0.09134318 0.19821383 0.12343578
-0.30879846 -0.19383794 -0.056962185 -0.0018447213 -0.32936716 0.039644156 -0.11724585 0.27959603
-0.056712393 -0.124811 0.25804698 0.18403342 0.1564296 -0.12730603 -0.08733729 -0.17289348
0.22770123 0.026331617 -0.2710782 -0.16009553 -0.11997692 0.24810842 -0.20507279 0.20785816
-0.17951255 -0.15417235 0.12837233 -0.079487205 0.3297434 0.13022076 -0.14815916 -0.40891576
-0.059764285 -0.1986329 0.15902178 -0.10695925 0.11689547 0.055361368 -0.15442225 -0.09659753
-0.07480266 0.07953437 0.15077092 0.34385145 0.07299667 -0.3054684 -0.3058333 -0.063079245
0.15866409 -0.3928274 -0.1732055 0.13075472 0.14147608 0.2225255 -0.1469983 -0.246321
-0.18095928 -0.20267776 0.42513862 0.078823105 0.023556996 0.35986444 0.06098209 0.20541114
0.40167835 0.08783357 0.2409847 -0.27704474 0.07753811 -0.15603924 0.3426137 0.08625046
-0.24755305 -0.122655466 -0.061063107 0.27410018 0.25476852 -0.1257167 0.14979124 -0.5567569
-0.10238375 0.25789526 -0.03865547 -0.17828563 -0.14116399 -0.051427282 0.15290907 0.12720507
0.052698836 -0.15810576 -0.08433887 -0.090367936 0.048841644 -0.20181447 0.21525797 0.0676278
-0.14783275 0.18110414 0.18857755 0.21125397 -0.19053641 -0.06847436 0.055946752 0.21417376
-0.07750904 0.2790824 0.26216877 0.10382 -0.18298279 0.17440015 0.052552655 0.07952343
-0.4005998 0.14013961 0.18176484 0.14709218 0.06282523 0.047377214 0.058571436 0.21341833
0.33868083 0.3427759 0.11208437 -0.15126128 0.46312273 0.097875975 -0.100579664 0.13920112
0.16083151 -0.27875364 0.12410038 0.21358599 0.29838172 0.45194346 0.10521159 -0.3880812
0.04342758 0.029048678 0.18889539 0.14479057 -0.1483191 0.111061215 -0.05923723 -0.16097203
-0.19569968 0.25235814 0.03593773 -0.12568028 -0.2848059 -0.18818061 -0.32166302 0.08235918
0.051064532 -0.17750905 -0.10465194 -0.18983522 0.34224916 0.44571808 0.1117141 -0.18348013
0.19557557 0.2144024 -0.16202036 -0.4597543 -0.09081458 0.19843735 -0.19259499 -0.13834135
0.025135757 0.2978948 0.14545012 0.15815683 -0.35882157 0.12892598 -0.27480868 0.08998149
-0.117793 0.1601457 -0.20642671 0.057689466 0.05695032 -0.1317448 -0.10439276 -0.25967598
-0.28701514 -0.08710534 0.19950409 -0.29159656 -0.06976207 -0.012553215 0.24423932 0.02894193
0.2691409 -0.2519224 -0.08436028 0.31178948 0.040378954 0.10760904 -0.24700893 0.30717626
0.07900211 0.23312356 0.07162286 -0.16004731 0.05519383 0.17321606 -0.12632915 -0.007546094

actor.0.bias f4 [128]
00000000: e76f 3ebe e359 e03d fd5a e8bd e342 b13d
00000010: 6071 0d3e 4e07 813d 9773 27be f29b 42bd
00000020: 3e21 3dbd 5b53 5cbd 28ae 003e 815d bcbc
00000030: 8a30 e0bd b650 38bd 3297 13be e3cf 5ebc
00000040: 3ddb 4f3d a3f0 aeb8 381a d93d bd6b d5bc
00000050: 4464 0dbe 6565 013c 3739 22be 61e6 bfbd
00000060: 717d 0f3e 4cda c1bc 40a8 653e dbc8 92be
00000070: 0eb3 e8bd 5b83 9a3d 8f49 6ebd 451f 473e
00000080: 8c0a 2cbd c8dc 86bd 8443 84bd 2825 1f3e
00000090: 78db 673d 4ac4 bcbd 0c9c d53d 4f8a 683c
000000a0: fa39 923e cd62 7a3c 5d7f 223c 6a5c 08be
000000b0: 8209 be3d 0493 c6bd de8a 43be 645e a63d
000000c0: a8de 8ebd 1114 f0bd 7047 87bd 5861 34be
000000d0: 57d4 413e eaf2 de3c 7051 fcbd f46c 033e
000000e0: 4cac 0b3c c551 4ebd 87f6 0fbd 869c b6bd
000000f0: 615f 0fbe ab78 923d 4109 19be 8e20 11bd
00000100: fe76 0b3d d2ad 74bd 3288 303e c513 833c
00000110: df98 37be d41c ccbd 401a 633b e637 24bd
00000120: 22b4 78bd 44f5 1dbe 03c1 e33d 5557 0d3c
00000130: 6e06 ebbc fc1d d63d dbb9 b8bd 6c39 a6bc
00000140: c673 c7bb e58f 45bd f6c1 cd3d b860 a6bd
00000150: d201 49bd 42d5 f8bd 5971 3ebd 5cfa ca3c
00000160: 099d 98bd d801 97bd afc8 0d3d c27c 3fbe
00000170: defe 4a3e 0011 303c a666 5cbe 2d19 093c
00000180: f9f1 b9bd c334 92bd e662 a13d b592 77bc
00000190: 68ac 42be 63a1 d93d a075 f93d ee1d 0ebd
000001a0: a438 11be afa2 67bd f0d9 1a3c ed45 bb3c
000001b0: 75c4 843c 8bca dbbd 2e55 7a3c 098a 163d
000001c0: 09fe d5bc 9353 debc ccd8 873d 5ced dc3d
000001d0: 35b6 f83c 6442 993d c35c 33be 6c62 313d
000001e0: 5934 abbd 41c4 cabd 2d1c e3bb fd01 5c3d
000001f0: 8119 87bd d6e4 e4bd f421 2abd 0d1f 103d
-0.18597375 0.109546445 -0.1134548 0.08655336 0.1381278 0.063002214 -0.16352688 -0.047512002
-0.04617428 -0.05379043 0.12566435 -0.022993805 -0.10946758 -0.044998847 -0.14413145 -0.013599369
0.05074619 -8.3417886e-05 0.10600704 -0.02605235 -0.1380778 0.0078977095 -0.15842138 -0.09370113
0.14012696 -0.023663662 0.22427464 -0.28668866 -0.11362277 0.07544585 -0.05817562 0.19445522
-0.042002246 -0.065850794 -0.0645819 0.15541518 0.056605786 -0.09217127 0.10430154 0.014193132
0.28559858 0.015282345 0.009918061 -0.13316503 0.09279157 -0.0969601 -0.19095942 0.08123472
-0.06976062 -0.11722577 -0.066054225 -0.17615259 0.18928657 0.02721544 -0.123202205 0.12834531
0.0085249655 -0.05037095 -0.035147216 -0.08916573 -0.14001228 0.07151922 -0.14944936 -0.035431437
0.034049027 -0.05973608 0.17239454 0.016000638 -0.1792941 -0.09966436 0.0034653097 -0.04009237
-0.060718663 -0.15425593 0.111207984 0.008626779 -0.02868959 0.10454938 -0.09019824 -0.020291053
-0.0060867993 -0.04823293 0.10046761 -0.081239164 -0.049074 -0.12150051 -0.046494815 0.024777584
-0.07451827 -0.073733985 0.034615215 -0.18699935 0.19823787 0.010746241 -0.21523532 0.008367819
-0.09079356 -0.0713897 0.078801915 -0.015110661 -0.1901108 0.10626485 0.12180638 -0.034696512
-0.14181763 -0.05655163 0.009451374 0.022860492 0.01620696 -0.107319914 0.0152790975 0.036752734
-0.02612211 -0.02713946 0.066331476 0.1078746 0.03036032 0.07483366 -0.17515855 0.043306753
-0.08359594 -0.09900714 -0.006930849 0.053712834 -0.06596661 -0.111764595 -0.041536286 0.035185862

actor.2.weight f4 [128, 128]
00000000: 8504 223e a98f 8b3c 06fa 8fbe f3be 28be
00000010: ad82 c7bd 7db3 033e fe3a 8fbc b419 75bd
00000020: 77a9 8ebd 1bd7 a0bd c4c0 0ebd 2195 0bbe
00000030: 7a34 c3be a09d f93d 9e09 253e 669c ad3d
00000040: 1c5b e5bc 22f1 89bb 1a49 c53d 187a 8d3d
00000050: 4b1c ff3d 3d4c 4b3d fe01 0e3c d54b ec3c
00000060: a9e9 0c3e 1306 c63d 7d6f c2bc 4b5a b4bd
00000070: aaf2 60bd 93d9 473c a278 8d3d a0f6 2a3d
00000080: 280a a5bd 78c1 f53d 6a23 0e3e 9abf b53d
00000090: 47cc 813d 7033 603d a295 e5bd 8954 10bc
000000a0: 851a 263c 5cf2 9ebb 31ce 5dbe 86af 8fbc
000000b0: 4908 b83d 30b3 e23d 4a9f 703d fbb6 c8bb
000000c0: 8206 843c af6b c7be ed22 1ebd 3ce2 1e3c
000000d0: 2575 0e3e f7b1 f0bd b5ca 413d e55d 1e3e
000000e0: dcc3 a1bd ccd1 943c f19b 9e3a d148 93bd
000000f0: 693c c5bd b14d 293e 3183 0abc f37c 0cbe
00000100: 1ab0 e03d f0f8 5d3d 2da3 273e 4e96 433d
00000110: 9b73 933d 570d 08be ef26 19bd 7b60 bebd
00000120: 5395 2f3d 694d afbd 4854 81bd 54c2 5c3d
00000130: b303 00be 670b 1fbd 5c96 d1be 2427 94bd
00000140: b7f8 043e 2335 023e 8731 b6bd 4ef4 18bc
00000150: fc19 5cbd ad13 fb3d dbe5 0a3e 9663 c3be
00000160: 3c03 c9bd d96c 123e 0682 17bc 23ab e8bd
00000170: 8633 abbd 89e1 213e 505b c63c 9710 cebd
00000180: 62ad 7f3d 30b1 a33c e90d a4bd e885 9c3d
00000190: 7a77 5e3e ebd8 d93a 9da6 bebd ee8b 103e
000001a0: fa9f afbd e250 573e 4625 11be 4e38 24bd
000001b0: 60f9 9e3d 8cb8 773d 25bd d83d 580b 1f3e
000001c0: 922a d63d 4977 bb3c c466 32bd fd8e 04bd
000001d0: 5d4e 11bd 2e64 303d 6ac9 43bb d3a7 5fbd
000001e0: 8d39 78bd 65b7 0cbe 1e87 97bc 0a23 9d3d
000001f0: 248b d53d eeb4 96bd c35c 613d a757 c13d
00000200: 0b87 72bd 3c61 a23d 3bd8 e43b b9bf 88bd
00000210: 5593 61be 89f5 09be 518f 7d3c 35cd 80bc
00000220: 0a27 563c 6110 a4bd 4941 4f3e aaaf da3d
00000230: 942a 173d a531 0cbe 9e7e 893e eaf8 f3bd
00000240: 54e5 e9bd aae7 d33d 7276 d83d ad1d 9e3c
00000250: b838 b53d d3b7 e0bc 3831 19be fe05 c03d
00000260: d5a4 d6bd c82e c0bc 5dc7 e03d 023b 09be
00000270: 282a c43d 7bdd 23be 9175 acbc 44d7 d9bd
00000280: 4cea a33c 4c07 083d ac4c ad3d 7fb4 4b3d
00000290: d2b2 193d 65ee febc 47a5 b4bd 4ed3 3bbe
000002a0: 8c2e 2e3e 2a56 a6bd 4094 b63d 4e37 f5bd
000002b0: 91ac 4dbc eb1b 07bd f640 c5ba 1879 eabb
000002c0: 0cad 85be 5754 8abd e260 abbd c108 c73d
000002d0: 4b7d 4a3e 3df9 f9bd 30c2 7c3c 26ba f33d
000002e0: 430c 463e 41da 7fbd 2134 21be c917 68be
000002f0: c9e8 8e3d 482f 5f3e 7382 ab3d 9282 b7bc
00000300: 9c03 b93b f492 133e cd84 233e b752 0d3d
00000310: b8e9 433e aa34 71bd 0d71 0cbd 2569 1a3d
00000320: 4ac0 8a3e 323c 19bc db2d e43d 4637 d0bd
00000330: be5c d7bd 2162 a3bd ad8c 5a3b 9976 1a3e
00000340: abf7 7c3e 20d5 44bd fc29 a23c 0301 cf3d
00000350: 738e 983d 323f 6cbc 716d e6bd e26b 173d
00000360: fb8a 91bc 93e6 ccbb 2241 253c aed6 b73d
00000370: 5610 0ebe 9b9f cebc c763 ef3d b132 423d
00000380: b02e 55be d999 883d 5c0f 933d 6a17 2e3c
00000390: 0280 103e 3b46 2cbc 5316 f43c 2fae 0b3e
000003a0: c9f0 25be 3a0d 3abd d312 a53c dbcc 153e
000003b0: b1de db3d fd0a bfbd 3356 03bd 42da 0fbe
000003c0: e744 7b3e cf10 163e fffe 143e a7f3 efbd
000003d0: 3b47 cbbc a683 17bc f40d 98bd caee 393d
000003e0: ac1a 68bd 8bbe 183e 28d2 393e de1a 023e
000003f0: a982 7ebc 3fd4 943d f332 d33d 1390 753d
0.15822037 0.017036276 -0.2812044 -0.16479091 -0.09741721 0.12861438 -0.017484184 -0.059838966
-0.069659166 -0.07853528 -0.034851804 -0.13631107 -0.38125974 0.12188268 0.1611695 0.08477096
-0.027997546 -0.0042096535 0.09633084 0.06908053 0.12456568 0.049633253 0.008667467 0.028844753
0.1376101 0.09669127 -0.023734802 -0.088062845 -0.054918922 0.01219787 0.069077745 0.041739106
-0.08058578 0.11999792 0.13880697 0.08874436 0.06337791 0.054736555 -0.11210181 -0.008809217
0.010138159 -0.004850669 -0.21660687 -0.01753975 0.08985955 0.110693336 0.05874566 -0.0061253286
0.016116384 -0.38949344 -0.038607527 0.009697493 0.13911875 -0.11752694 0.047312457 0.15465505
-0.07898685 0.018166445 0.0012100918 -0.07191623 -0.09630663 0.16533543 -0.00845413 -0.1371954
0.10971089 0.054192483 0.1637084 0.047750764 0.07199784 -0.13286339 -0.037390646 -0.09295746
0.042867016 -0.08559687 -0.063149035 0.053896263 -0.12501411 -0.038829233 -0.40935028 -0.07234028
0.12985502 0.12715583 -0.08896165 -0.0093355905 -0.053735718 0.12259612 0.13564245 -0.38161916
-0.0981507 0.14299335 -0.009247309 -0.11360767 -0.08359437 0.15808691 0.024213463 -0.10061758
0.06242121 0.01998195 -0.08010466 0.07642728 0.21725264 0.0016620433 -0.09309123 0.14115879
-0.08575435 0.21026948 -0.14174375 -0.04009276 0.07762408 0.060478732 0.105829515 0.15531671
0.104573384 0.022884028 -0.043555036 -0.032362927 -0.035475124 0.04306429 -0.002987469 -0.05460341
-0.06060176 -0.13741834 -0.018497046 0.07672699 0.104269296 -0.07358728 0.055020105 0.094405465
-0.05921082 0.07928702 0.0069837845 -0.06677193 -0.22028859 -0.1347257 0.015476064 -0.01572285
0.013070831 -0.080109365 0.20239748 0.106780365 0.03690584 -0.13690813 0.26854414 -0.11912711
-0.11420694 0.10346921 0.10569467 0.01930126 0.08848709 -0.027431404 -0.14960182 0.09376143
-0.10480658 -0.023459807 0.109755255 -0.13401416 0.09578353 -0.16002457 -0.021052154 -0.10636762
0.020009182 0.033210084 0.084618896 0.04973268 0.037524052 -0.031119535 -0.08820587 -0.18342325
0.17009944 -0.08121903 0.08914995 -0.11973439 -0.01255335 -0.03298561 -0.0015049267 -0.007155549
-0.26108587 -0.06754368 -0.08368088 0.097184666 0.19774358 -0.122057416 0.015427157 0.11900739
0.19340615 -0.062464003 -0.15742542 -0.22665323 0.06977994 0.2179538 0.083744906 -0.022401128
0.005646182 0.14411527 0.15968628 0.03450271 0.19132125 -0.058888115 -0.0342875 0.03769793
0.2709983 -0.009352731 0.11141559 -0.101667926 -0.10515736 -0.07977701 0.003334801 0.15084304
0.24703853 -0.048054814 0.01979541 0.10107615 0.07449045 -0.014419364 -0.11251343 0.03696812
-0.017766466 -0.0062530725 0.01008633 0.08976494 -0.13873419 -0.02522259 0.11688953 0.047411624
-0.20818591 0.06669969 0.07180664 0.0106257 0.14111331 -0.010514791 0.029795801 0.13640665
-0.16205133 -0.04542277 0.020150578 0.14628927 0.107358344 -0.09328268 -0.032064628 -0.14048102
0.24538003 0.1465485 0.14550398 -0.11716395 -0.024814239 -0.009247696 -0.07424536 0.045393743
-0.05666606 0.14916436 0.18146574 0.12705562 -0.0155340815 0.07267045 0.10312452 0.059951853

actor.2.bias f4 [128]
00000000: fbc1 88bc 0049 bb3d 0a6a bb3d acfb a2bd
00000010: c15f 5e3d 4ea3 c8bd cd79 b63c 3f98 8ebd
00000020: bfbf 3f3d 1f83 87ba 0472 c33d 65fb 97bd
00000030: d932 e4bb 6f04 02bd 927f 003e 78ba 78bc
00000040: 0371 db3d c1df 1a3d af58 39bc cf9a 38bd
00000050: 7dce 163d 2fe6 f0bc d1ba 783d 69d1 ba3d
00000060: da11 593d 8170 97bc 279f 30bd 24ec ddbc
00000070: 1115 5f3d 1823 ab3c 22be ccbb 0000 0000
00000080: e8ef b53d cdcf 05bc 87be 413d 4dd4 7f3d
00000090: c8d3 a83d d027 1cbc 715f 48bc aba6 7bbd
000000a0: 2ac0 703d 7a6b 0c3d 35a9 ba3c 7eca 7dbc
000000b0: e433 c53d 0bd8 723d 2459 c7bb cb4e 703a
000000c0: 5d2f f9bd f64b cd3b bf86 303c 6ece c33d
000000d0: d329 86bd ba8c 8fbd 44d9 b03d 9f29 a53c
000000e0: a7aa 9bbc 0f26 96bd fa00 2ebd 5286 99bc
000000f0: a1a1 d23d 0424 7c3d b809 593d ab87 a03c
00000100: a638 e8bb 4b19 b93d 0000 0000 b876 1fbd
00000110: 7c22 703c ff55 e73d 7329 8f3d 0ea1 94bd
00000120: 07a8 6cbc b1f3 973b 03e8 5e3d 639e ad3c
00000130: 5ee5 92bd 37e2 463c e2a7 373c 3194 2c3d
00000140: 28f3 a93b 913f af3d 8311 88bd adaf 12bc
00000150: 3ebb c23d 910f 4abd 0257 8a3d b421 10bc
00000160: 4a4c c83d 8825 8f3d c7b0 cdbd c6e9 64bc
00000170: 9bf0 b9bc 3b69 293c 64f3 56bd 1bcd 2dbc
00000180: 57c3 993d d382 943d 4961 463d 1f4b 36bd
00000190: c75c 3fbc 4489 43be 881a f23c 4be4 8e3d
000001a0: 765e c53d 7e1b abbd fe60 32bd 6bf0 12bc
000001b0: 96de 4d3d d55b 64bc 3b86 103d 598e 0fbd
000001c0: e1be ac3d 9816 5a3d 22ad 823b 3439 763c
000001d0: fe48 113d 5370 a5bd 5f29 073e 59e4 6d3d
000001e0: 688b f63d 2a89 d2bd e7fb c5b9 0841 71bd
000001f0: 6cc3 94bd f43a 49bd 0f44 253d 5722 8d3d
-0.01669406 0.09144783 0.09151085 -0.07958159 0.054290537 -0.09796773 0.022274876 -0.069626324
0.046813723 -0.001033876 0.09543231 -0.074209966 -0.0069640693 -0.03174251 0.12548664 -0.015181176
0.10714915 0.037811045 -0.011312648 -0.045069512 0.036818016 -0.029406635 0.060725037 0.09121973
0.05299554 -0.018486263 -0.04312053 -0.02709014 0.05446345 0.020890757 -0.0062482515 0.0
0.08883649 -0.008167219 0.04730084 0.062458325 0.08243519 -0.009530976 -0.012229786 -0.061438244
0.058777012 0.034282185 0.022785762 -0.015490172 0.09629038 0.059288066 -0.0060836244 0.00091670145
-0.12167237 0.0062651588 0.0107743135 0.09560858 -0.06550946 -0.07009263 0.0863519 0.020161448
-0.019002272 -0.07331478 -0.0424814 -0.018740807 0.102847345 0.061557785 0.052987784 0.019595942
-0.007086831 0.090380274 0.0 -0.03893158 0.014656659 0.11295699 0.06990328 -0.07257281
-0.014444358 0.0046372046 0.054420482 0.021193689 -0.071726546 0.012138895 0.01120946 0.042133514
0.005186457 0.08557046 -0.06643965 -0.008953017 0.0950837 -0.04933125 0.06754877 -0.008797098
0.09780176 0.069895804 -0.10043483 -0.013971752 -0.022697737 0.01034003 -0.05247821 -0.010607983
0.07507961 0.07251515 0.048432622 -0.044505235 -0.011679835 -0.19095331 0.029553667 0.06977137
0.096371576 -0.08354853 -0.04354953 -0.008968453 0.050261103 -0.01393791 0.035284262 -0.035047863
0.08434845 0.053244203 0.003987924 0.015028287 0.03547 -0.08078065 0.13199376 0.058079097
0.120383084 -0.10280068 -0.0003776245 -0.05889991 -0.07263836 -0.049128488 0.04034811 0.068913154

actor.4.weight f4 [2, 128]
00000000: fb46 35be 4883 50be 3cf8 a0be 625b 83be
00000010: f156 01bf 68d9 2d3e e60e 8c3e 1810 9e3d
00000020: 1ca6 92be 745a 473f f606 403e 2452 3dbf
00000030: d95b e63d 1cad c93c 2b3e 853e a8da 62bd
00000040: bfe9 dd3e be98 e8bd d04b 393e b6ca 6abd
00000050: bca2 0ebe c7b2 a73e 56db e63e 5dcf b93e
00000060: bcf3 363e de79 7a3d 8aa9 233f cf9b 213e
00000070: 91b8 773e 7ae3 483e 25c9 d0bd aee1 3cbd
00000080: c2eb fabe 9c07 d53e d187 973e 71c2 1c3f
00000090: 1251 e03d 3026 31bc ce6d d23e 1b38 31be
000000a0: adb5 68be c7e5 3d3f 05ce ef3e d2b2 cf3d
000000b0: b3b7 19be 3c61 c6be 9107 49be c150 2e3e
000000c0: 0088 6fbe 51bc 81be ffee cabd dc22 293e
000000d0: 55d4 443f d8d9 e93e 4631 543e e2d1 433e
000000e0: e199 473e ffec e9be f4a5 7bbe df68 2dbe
000000f0: f680 60bf f99b 6c3e 5b06 6dbf c999 0c3e
00000100: 33ff 3a3e 7a24 583d 6637 c3bd 7cd9 db3e
00000110: c2c1 813b 47c1 ab3e bfc9 a0be 8b31 4d3e
00000120: dd7b 303d 8463 423e 9b97 933a 3bf5 2b3e
00000130: c464 28be 90a6 913e eb1e 60be 7a74 b6bd
00000140: d6e8 5e3e 5ac7 65bd bbf2 d1bd 4b79 01be
00000150: 7a5e e2be b747 91be 1fa7 b7be a459 a1bc
00000160: de40 683e f461 7fbe 630e d3bb b9d9 31be
00000170: 3fd1 e2bd 4950 bc3d d6e9 9c3e 0b06 eebd
00000180: c768 f9bd 7bcc df3c 128d 8fbe 496f b5be
00000190: 3175 45be 5caf 1a3f aac4 b73d 448e 8d3e
000001a0: ebf6 f4be 5c90 8ebd ea69 a23e 8f4d 24bd
000001b0: 2e43 65be ec02 debc b6c8 efbe 51ae c43e
000001c0: cb65 f63d 5198 a43c 12d9 0ebf ded6 ddbd
000001d0: 3d66 7f3f d32b 0c3e ed3d cf3e 7b3f 09bf
000001e0: ea23 3fbf 4bf6 2a3e 1bdd 20be 1a60 92be
000001f0: fc70 acbe 3ce8 3cbf 60b1 d0be d9c4 62be
00000200: 2890 d03d 3282 22be cd59 0fbe 5ad7 813e
00000210: 8147 36be b404 823d a586 72be 4e78 a43d
00000220: 16bf 543e 3cb0 9abc 0857 123d e6fd 1dbe
00000230: 1cd5 5fbd 0c5a 083e 372b 43be 0884 b83d
00000240: 3a60 1c3e 8b3c 5f3c ee8e a9bc 0369 4c3d
00000250: 8306 b8bd 0a65 833c af42 23bd 58b1 63bd
00000260: 07f6 f83d f05a 4dbd 399f c33d ad55 423d
00000270: 9692 d83d f9a1 0ebe 4748 083d 0a40 6c3d
00000280: e58e bb3d f369 85be d4d8 4abe 333d 10be
00000290: 7d04 57be 15d2 c6bd f754 293d db01 283e
000002a0: eb40 babd 63a5 9bbe bd27 fd3d 2632 19be
000002b0: 940c a2bc 6634 35bd 2f57 6bbc 8724 1a3e
000002c0: 7ec7 323d 458b 45be 0834 d4bb d34d 26be
000002d0: 2757 70bd 7db4 92be 7411 d4bd 3714 e53d
000002e0: 60b5 243d 44a5 5dbd 0319 7b3d 34da 4fbe
000002f0: e666 c43d 7792 093d 03e3 8fbe e9c5 a8bd
00000300: 0533 973d 123f 43bd 9969 31be 9e7a e73d
00000310: 3f7c 8bbe 2782 4ebd 3276 9ebd c424 f03d
00000320: 393e 66bd 0e58 033e 16ab 7bbd 6db5 8f3c
00000330: 5939 513d e0a0 583e 63a1 22be 863b c1bd
00000340: 6df9 a7bd f312 81bd c9b4 083e d6da 363e
00000350: 73cf ecbc fb31 3dbd 5130 6abe e5cb 58bb
00000360: 61b7 14be 1b19 7fbe f5f8 483e 7272 433e
00000370: c44c 16bd b2dc df3d 09a5 303e 44d7 a83d
00000380: 1325 5bbe 2f7b 1fbe 37c8 6ebe 0638 27be
00000390: 27b9 0a3e 656e ca3d 7ed4 e7bd 3c55 6dbd
000003a0: be5a 1dbe 6fa8 e13d c759 913d 8a12 bb3d
000003b0: 2ab3 e73d ed29 ae3d e285 303e f6ba 0abd
000003c0: a6d8 5dbe 3ffe acbd b732 2dbe fc36 19be
000003d0: 2c0a d1bd 16ac 88bd 0040 303c e975 ddbd
000003e0: afc1 90be 489c 2a3e c4ca 9dbd d6af 13bd
000003f0: a803 b13d aadb ad39 731d 543e 109a 223e
-0.17702858 -0.2036258 -0.31439388 -0.25655657 -0.5052329 0.16977465 0.27355117 0.077179134
-0.28642356 0.77872396 0.18752655 -0.7395346 0.11247987 0.024618678 0.26023993 -0.055384308
0.43342397 -0.11357258 0.18095326 -0.057322226 -0.13929266 0.32753584 0.45089215 0.36291018
0.17866415 0.061151378 0.6393057 0.15782093 0.241915 0.19618025 -0.10194615 -0.046113662
-0.49007994 0.41607368 0.29595807 0.61234194 0.10952963 -0.010812327 0.410994 -0.17306559
-0.22725554 0.7417874 0.46836868 0.10141529 -0.15011482 -0.3874606 -0.19631793 0.17022993
-0.23391724 -0.25338987 -0.09908866 0.16517204 0.7688649 0.45674014 0.20721921 0.19123033
0.19492294 -0.45688626 -0.24575025 -0.16934536 -0.8769678 0.23106374 -0.9258782 0.1373054
0.18261413 0.05276916 -0.09532051 0.42939365 0.0039598653 0.33545896 -0.3140392 0.2003843
0.043086875 0.18983275 0.0011260392 0.16792767 -0.16444689 0.2844739 -0.21886794 -0.08908935
0.21768507 -0.05609832 -0.10251375 -0.12643926 -0.44212705 -0.28375027 -0.3586969 -0.019696064
0.22680995 -0.2493971 -0.006440924 -0.17368211 -0.11075067 0.09195001 0.30647153 -0.11622246
-0.12178188 0.027319184 -0.28037316 -0.35436466 -0.19282986 0.6042383 0.089730576 0.27647603
-0.47844633 -0.06961128 0.3172143 -0.04011303 -0.22388908 -0.027101003 -0.46832818 0.38414243
0.12031134 0.020092161 -0.55799973 -0.10831998 0.9976538 0.13688593 0.40476933 -0.5361249
-0.74664176 0.16695516 -0.15709345 -0.28588945 -0.3367995 -0.7379186 -0.40760326 -0.22145404
0.101837456 -0.15869978 -0.139991 0.25359613 -0.17800714 0.06348553 -0.23684175 0.08030759
0.20776019 -0.018882863 0.03572753 -0.15428886 -0.054646596 0.133156 -0.19059454 0.09009558
0.15271083 0.013625274 -0.020698037 0.049904834 -0.08985617 0.01603939 -0.039858516 -0.05558905
0.12156301 -0.050135553 0.09551854 0.047444988 0.10574834 -0.13928975 0.033272054 0.05767826
0.09158114 -0.26057395 -0.19809276 -0.14085846 -0.20997806 -0.09708039 0.041340794 0.16406958
-0.09094413 -0.30399618 0.12361095 -0.14960536 -0.019781388 -0.044239424 -0.014364048 0.15052997
0.04364728 -0.19291408 -0.006475929 -0.16240625 -0.058676865 -0.28653327 -0.103548914 0.11185496
0.040212035 -0.054112688 0.06130315 -0.20298082 0.09589939 0.033586945 -0.28102884 -0.08240873
0.07382778 -0.04766757 -0.17325439 0.11302684 -0.2724323 -0.05041709 -0.07737388 0.117257625
-0.056211684 0.12826559 -0.061442457 0.017542565 0.05108008 0.21155119 -0.15881877 -0.09435181
-0.08201871 -0.063024424 0.13350214 0.17856917 -0.028907513 -0.046190243 -0.22869994 -0.0033080515
-0.14523079 -0.2491192 0.1962622 0.19086626 -0.036694303 0.10930766 0.17250456 0.08244184
-0.21400861 -0.15574335 -0.23318563 -0.16329965 0.13547193 0.09884337 -0.113198265 -0.057942614
-0.15366647 0.11018454 0.07097202 0.091343954 0.1131347 0.085040905 0.17238572 -0.033869706
-0.21664676 -0.08446931 -0.16913877 -0.14962381 -0.10207018 -0.06673448 0.010757446 -0.10813505
-0.2827277 0.16661179 -0.0770469 -0.036056362 0.086432755 0.00033160794 0.20714359 0.15879083

actor.4.bias f4 [2]
00000000: 79a9 ec3a 7a33 a3bd
0.0018055878 -0.07968803

q1.0.weight f4 [128, 4]
00000000: 5d17 463e cd93 b2be 750a bfbd efed cdbc
00000010: 9917 df3d a1fb 6c3e 7d11 4cbc 72ef 0abc
00000020: 9fcb a03e 4e27 96bd a6df 3e3c c1ad 423d
00000030: 2d8d fbbd 0e33 553d 7a39 353c 11b5 d0bd
00000040: 0f25 4fbe 1fa4 213e 04e7 b83d 98df 85bc
00000050: 4fd4 383d 006e 75be a4e7 15be 6e25 723d
00000060: 1a71 e2bd 233e adbe e87c 6ebd 0d25 87bc
00000070: 7897 9d3c 3e24 0ebd b339 b43d f9ec 72bb
00000080: 21e7 a2be 134c a1bd d151 073d 8cfd b1bd
00000090: 06d7 9fbd 1352 e9be 43d9 9abd 008f 9bbc
000000a0: 7e48 a73e a5e1 78be b7af 86bd 7d09 d7bc
000000b0: cf1a 94be a379 1ebd 5963 88bd 24d4 47bc
000000c0: cad5 923e 5849 a73e 2e64 913d a5b6 d93c
000000d0: 8eea 50be e629 8abe 1f15 a4bd 1343 bfbc
000000e0: e211 6d3e 78ff 533e 4c79 1c3d 25b9 3cbd
000000f0: 57ce 55be 7f5c 72be c78c c73d 6a70 f3bb
00000100: 0c39 2a3e c8a8 bf3e cbb3 d03d c022 cd3c
00000110: 8d5b c23d 8070 8fbe d6c6 2bbe 4de1 09be
00000120: 738a 2a3e a049 13be 6e94 d83c ba67 87bc
00000130: 406e 81be 598b 5f3e 51a2 29bd 2963 f8bb
00000140: ad6c aa3b 2828 7c3e 1c64 e3bd 678b b53c
00000150: 4475 35bd b15a c5bd d36a d63d 7e4c 063d
00000160: 3dee 55be 16ee 36be d731 0f3d 9c8e 183d
00000170: 60ba b0be 7b2a 293e 0da1 ccbc c474 bcbb
00000180: e261 753e 1cdc 533e 3502 a83d 4a3d e33c
00000190: fe1e e1bd 8d82 db3d 054e 98bb cd2e 203d
000001a0: 4054 293e 6135 e4bd f4bc 2ebe 218c d1bd
000001b0: a831 333e c676 163e 4874 eb3d 283c 2a3d
000001c0: 6e1f bd3d adf3 64be f42c ea3d bd3d cb3c
000001d0: 769e 9bbe eaf1 40bc ba37 10bd 8f1c 8e3d
000001e0: 53bd 013e e8f4 03be 8685 e63d 9a65 b83d
000001f0: 968e 783e bc02 56be eb84 44be 20a0 54bd
00000200: 52cb 15be 7a01 c9be 6dc9 c2bd 3146 bbbc
00000210: 2b5a 353d eb62 15bd a606 a4ba b94d 04be
00000220: d5a0 99be 77c9 313e bfd1 683d f016 96bc
00000230: 0552 d5bd 924b 523e 148d 843d c261 bf3c
00000240: a5d9 dbbe a16c 7fbe 8764 5d3d c158 b1bc
00000250: 164c ba3b 5a57 853e 7c02 3fbd d242 c6bb
00000260: 7b6b 9fbd 48e8 ebbd d2c3 f3bd bf3c c2bd
00000270: 12ba 423e 18a1 523e d0c2 7ebd da88 9f3d
00000280: 4e52 ad3e d6ad e23d d5de dabd 4b3c a8bd
00000290: ed62 c53e bb53 78be 3176 c33d a6e9 ac3c
000002a0: d277 573e bd67 ac3e 2c2c 893d 02eb 923c
000002b0: 43f1 b63d 51c8 5a3e 411f 943d 4170 443d
000002c0: 92be ca3d f092 77be b66e d63b b3c9 b93c
000002d0: c6ac 9bbe 7a47 edbd b147 edbd 84ff 69bd
000002e0: f2f3 0e3e 0958 c73d a436 e2bd 1ff0 9abd
000002f0: e5cd 0fbe 8ecf 613e f633 05be 3616 82bd
00000300: 476f c3be d485 043f abd0 ee3d ec8e 003d
00000310: b899 733e d686 a8be e826 47bc de4b c6bc
00000320: 915d 35be 10ab 2b3d 27ea 6b3d 0823 2a3c
00000330: a82a 113e cbb1 7fbe bccc c0bc 2e55 d53c
00000340: 5efe 7b3e 0f89 b8be 7525 d9bd 33f1 f3bc
00000350: 5dcd 0a3e 0c21 92be aa2a 57bd 8571 50bc
00000360: d247 c53e 84bc f7bd 472e 52bd 1fbe 71bc
00000370: 2139 cdbe f10f 533e f96b d73d a547 163d
00000380: 3f93 743e 0e26 6a3d b2f7 f2bd f55e 703c
00000390: 1b2c 433e 11fd b4be a7ba 973d bb1c 27bd
000003a0: 52a8 2f3d 2a5f b5bd 43b2 29bd 4961 953d
000003b0: 6696 a4be 2b88 0fbe 51e8 45bd 258b 15bd
000003c0: 3479 0d3e 42e8 8a3e 001d 253c 0d76 07bd
000003d0: 8260 8ebc d8aa 8e3d 52d5 763d dc2a 833d
000003e0: bce6 333d 5a15 02be 89d0 a53d 224c 073c
000003f0: 190a 07be 78f7 7cbd 29ba be3d a183 273d
0.1934485 -0.34878388 -0.093281664 -0.02513787 0.10893173 0.23142864 -0.012455341 -0.00847994
0.3140535 -0.073317155 0.011650002 0.047528986 -0.122827865 0.052050643 0.011061067 -0.10190786
-0.2022898 0.15785263 0.09028438 -0.01634197 0.04512435 -0.23967743 -0.14639145 0.059117727
-0.11056729 -0.3383647 -0.05822459 -0.01649716 0.019237265 -0.034702532 0.08800068 -0.0037067516
-0.31816962 -0.07875838 0.03303701 -0.08690938 -0.07804684 -0.4557043 -0.07560971 -0.018989086
0.32672495 -0.24304827 -0.06576484 -0.026249642 -0.28926703 -0.03869022 -0.06659574 -0.012196574
0.28678733 0.32673144 0.07099186 0.02657635 -0.20401976 -0.2698509 -0.08011841 -0.023347413
0.23151353 0.20702922 0.038201615 -0.046075005 -0.20879494 -0.23668097 0.09743648 -0.0074291723
0.16623324 0.37433457 0.10190543 0.025040984 0.09490118 -0.28015518 -0.16775069 -0.13464852
0.16654377 -0.14383554 0.026437964 -0.016528953 -0.25279427 0.218305 -0.041414563 -0.00758018
0.0052009434 0.24624693 -0.11103079 0.022161199 -0.044301286 -0.09636439 0.10469594 0.032787792
-0.20891662 -0.1786426 0.03495964 0.037245378 -0.34517193 0.16520111 -0.024979139 -0.0057512242
0.2396312 0.20689434 0.08203546 0.027739186 -0.109922394 0.1071826 -0.0046479725 0.039107133
0.16536045 -0.11142994 -0.17064267 -0.102318056 0.17499411 0.14693746 0.11496788 0.041561276
0.0923451 -0.2235858 0.114343554 0.024809713 -0.30394334 -0.011776427 -0.035209395 0.06939041
0.12669878 -0.12886393 0.11255936 0.09003754 0.24273142 -0.2089948 -0.19191329 -0.05191052
-0.14628342 -0.3925894 -0.09511075 -0.022860618 0.044275444 -0.03647129 -0.0012514188 -0.12920274
-0.30005518 0.17362009 0.056840654 -0.018321484 -0.104160346 0.2053664 0.06472221 0.023362044
-0.42939487 -0.24943782 0.05405095 -0.021648766 0.0056853397 0.26043206 -0.04663323 -0.006050446
-0.07784172 -0.115189135 -0.11902584 -0.09484243 0.19016293 0.20569265 -0.062197506 0.07789774
0.33851856 0.11068313 -0.10687033 -0.08214625 0.38552037 -0.2425069 0.095440276 0.021107506
0.21041802 0.33672896 0.06697878 0.017934326 0.08932736 0.21365477 0.07232524 0.047958616
0.0989963 -0.24177146 0.0065439595 0.022679185 -0.30405253 -0.11585899 -0.1158594 -0.057128444
0.13960245 0.09733588 -0.11045578 -0.07565331 -0.14043386 0.22051832 -0.13008103 -0.06351893
-0.38170835 0.51766706 0.11660894 0.0313863 0.23789108 -0.32915372 -0.012155272 -0.024206098
-0.17711474 0.041911185 0.057596352 0.010384329 0.14176428 -0.24970166 -0.023535125 0.026041593
0.24608752 -0.36042067 -0.106028475 -0.029778099 0.13554902 -0.28540838 -0.052530922 -0.012722378
0.38531357 -0.120965034 -0.051313665 -0.014754801 -0.40082648 0.2061155 0.10518641 0.03668942
0.23884295 0.057165198 -0.118636504 0.014671077 0.19059794 -0.35349324 0.07408648 -0.040798884
0.042885132 -0.08856042 -0.04142977 0.07293946 -0.32145995 -0.14016788 -0.048317257 -0.03650965
0.13815767 0.27130324 0.010077715 -0.033071566 -0.017380003 0.069661796 0.06026203 0.06404659
0.043921217 -0.12703457 0.080964155 0.008257898 -0.13187446 -0.061759442 0.09312851 0.040897015

q1.0.bias f4 [128]
00000000: 1a63 a9bd 5359 833d 2c1a 2fbc 9946 b4bc
00000010: 90e6 14bd 94c7 d3bd b079 7c3d daaa 00be
00000020: 6132 963d 78c4 3a3d 1342 5b3d 7154 e13d
00000030: d273 21be 69dc eb3d 2e11 31ba de3d b4bd
00000040: 2236 48bd d88f 10be 3bdb a63d dcb5 f43d
00000050: be0b 08be 6173 263c a733 003e c5a0 ea3d
00000060: ba3b fcbd c418 733d bacd 5bbd 73fa 13be
00000070: 9e2a b93c fd3c 42bb 0cf4 3fbe d0e5 e0be
00000080: 494c 083d 223f 693c 3d95 c83d 3065 5d3d
00000090: 1950 193e 441a abbd 6d72 e6bd 459e 41bc
000000a0: 8d63 39bd 2b2e 073d 0db8 00be 8c67 eebc
000000b0: e020 bcbd e5d1 31bd 18c6 66be 37f7 04be
000000c0: e1e9 5b3e 4ec9 ff3c 0d43 003b dcbc a93d
000000d0: 77a8 04be a255 8d3d d4ea 84bd e041 573e
000000e0: 9c82 3ebe b04d 78bd 2afb 4abd 836f 253d
000000f0: 5cd4 5c3c 3218 babd af20 31be 9f47 83be
00000100: 7c27 1abd 3ca5 f93d 35b7 e3bc 3be4 b03d
00000110: 70f9 743d 4fcc 58bd 11e5 9f3a aa10 d1ba
00000120: 44ed fdbc 9c74 aa3d e23c 48be 5c7c f9bb
00000130: 696c 6fbd e044 07be 0ac2 08bc 0d93 513d
00000140: 7cbe 993c 5974 24be 3486 b3be ba0d 99bc
00000150: f778 fb39 5d19 e7bd 98e8 28be 5df6 e33c
00000160: dd6b fcbd 5345 1d3e 7e16 7dbd 488e c8bc
00000170: eabf 4cbe 2846 02be d42d 493d 9e2d 863d
00000180: 9cf0 7cbe 52db c33d 05a9 d83d 0947 47bd
00000190: 37fd 94bd c305 e2bd 2677 be3a 674e 653e
000001a0: dab5 f23d 4139 9cbd ef84 173d 6411 3dbe
000001b0: 72f3 ef3c b32f 6f3d 4701 ebbb b2af 3e3c
000001c0: 4a3d ee3d 12ef 05be 770d 2dbd 1fa4 073d
000001d0: 102b c2bd 9d86 8dbd d9b0 a8bd 1416 45be
000001e0: 154d 5a3d 439f 293e 5fca 353d fecb d4be
000001f0: 66e5 60bd 408e b2be 7dee 01be 1a1b 0d3d
-0.08270855 0.064135216 -0.010687392 -0.02200632 -0.036352694 -0.10340801 0.061639488 -0.12565175
0.07333828 0.045597523 0.05352981 0.11002434 -0.15766838 0.11516649 -0.0006754574 -0.08800863
-0.04887975 -0.14117372 0.08147284 0.119487494 -0.1328573 0.010159344 0.12519704 0.114564456
-0.123160794 0.05934979 -0.053662993 -0.14451008 0.02260333 -0.0029638403 -0.1874544 -0.43925333
0.033275876 0.014236243 0.0979409 0.054051578 0.14971961 -0.08354619 -0.11252294 -0.01181752
-0.045260955 0.033003014 -0.1257021 -0.02910211 -0.09185958 -0.04341306 -0.22536504 -0.1298493
0.21475936 0.03122392 0.0019571215 0.08287975 -0.12954889 0.06901099 -0.064901024 0.21021223
-0.18604511 -0.060620964 -0.049555935 0.04038955 0.013478365 -0.09086646 -0.17297624 -0.2564058
-0.03763531 0.12189719 -0.02779732 0.086372815 0.059808195 -0.05292922 0.0012199004 -0.0015950401
-0.030996926 0.08323023 -0.19554475 -0.0076137017 -0.058452997 -0.13209867 -0.008347044 0.05116563
0.018767588 -0.16060008 -0.35063326 -0.018683303 0.00047964577 -0.112841345 -0.16494977 0.027827436
-0.12325261 0.15358476 -0.06178903 -0.024481907 -0.19995084 -0.12722075 0.04911597 0.065516695
-0.2470116 0.095633164 0.10579113 -0.04865173 -0.072748594 -0.11036255 0.0014531359 0.2239319
0.11851092 -0.07628108 0.03699201 -0.18463665 0.029290888 0.0583951 -0.007171783 0.011638569
0.11632784 -0.1307948 -0.04224917 0.033115502 -0.0948087 -0.06910441 -0.08236856 -0.19246703
0.053296167 0.1656466 0.04438245 -0.41561884 -0.05490627 -0.34874153 -0.12688632 0.034449674

q1.2.weight f4 [128, 128]
00000000: 80da 7e3c b9a4 843d b630 cbbc f3f3 aabd
00000010: a6ed 22bd 7aea e1bc 75f9 0f3e 7ce4 853d
00000020: 207f 473e 91e4 f1bd 6c0b f4be f8ee 263e
00000030: 5cff 0b3e 8649 503c ab61 f63d 5406 24be
00000040: f37d 413d 6c0c 81be 1f50 73be 0dcb 913e
00000050: 9dc8 39bb 5c38 7c3c 2877 003d d689 903e
00000060: 8174 02be f8e0 923d e71d 56be a9e0 773d
00000070: 33e8 14be f809 b9bd 0590 67bd 338b 5bbe
00000080: d791 493d 918a 01be 4197 1a3e 653e c63d
00000090: 0cc8 1c3d ff5f c2bd 16a9 91bd a649 b53d
000000a0: 3f33 b0bd 5f15 0ebe 8180 94bd 8af5 d7bd
000000b0: 43f3 1ebe 278e 8a3d 2e05 28be 2087 253c
000000c0: d53d 743e 22ac 61be d08a 37bb c014 97bc
000000d0: a940 98be e661 96be c419 a5bd 6516 1b3e
000000e0: 1eb4 e9bd 1dc1 a8bd b7d7 efbd b98a 823d
000000f0: 2c85 a33d e328 b13d 3962 963d 5a04 9a3c
00000100: 6421 5cbd 6603 1d3d 24f5 813d d40d ffbc
00000110: 1162 2dbe 34ad 42bd e3d7 6cbe b621 573c
00000120: dcc5 14be d42c 973d 88d2 40bf 48bb 99bd
00000130: 53e2 cc3d cd6c 9dbe c734 333e 4cf9 163e
00000140: e427 cabb ff60 efbe 8349 c4be bc59 3c3e
00000150: 81db cdbd 57ad 53be 129e 29be 86c3 833d
00000160: 4d52 28be 4769 873e efae fd3c b9f4 d6bd
00000170: 9693 0ebe 9cab 883d 5954 853e 97ec afbd
00000180: 2eb0 0dbe 2c5f 7a3e 5fdd 003e 0eb1 07be
00000190: f8b4 393d b86c 2ebe 1965 353e 26c6 873e
000001a0: 2bc6 f53d cbd5 0cbe 26a7 1cbd b7f0 27be
000001b0: fe09 793d 0847 8dbe db92 aabe d880 35bd
000001c0: 405c 5c3e 234c 0d3d 460d 593c b3eb eebc
000001d0: aec0 2ebe a02c f2bd 5b88 963c 397c 17be
000001e0: 456c aebe 92fa 9f3e 8bb6 3a3e f24a 28be
000001f0: 22b3 6d3c cd63 e6be f523 54bd 407b 18be
00000200: 5dba 2dbe 6568 82be 5770 0abe 2e91 e9bd
00000210: 2a82 8f3d 2694 edbb 78c8 393c 8614 a0be
00000220: e565 5f3e 411e d4bd 6430 8dbe 9b44 bf3d
00000230: eb73 65be fbd3 183e fcca 05be 8cad cdbc
00000240: d132 08be b24f 33be c5d5 41be 0edb 483e
00000250: e1b8 14be dcaa e7bc 4ee7 0abd 9a6e 263e
00000260: 3c4b a6bd 3acd ad3c 2346 1dbd 357a 5ebe
00000270: 1ded 1dbe 96ce 413e b6c8 aabe 92da 34be
00000280: 4a67 0dbc 47c4 8f3c 99dc 243e 832c 12be
00000290: 4b53 d63d 5b75 75be ea8e ef3d c055 88be
000002a0: aaec 75be d34e d9be d275 61be b11d 89bd
000002b0: 7e50 9ebe 722d a6bd c6da e3bd 7791 b73d
000002c0: 16ab e23b a1a3 d1bd 595c 2a3d 3c79 1abe
000002d0: c987 a6be db97 6ebe 3f55 abbd 36ba 4bbc
000002e0: 83e0 bf3b ce02 aabe d978 e1bd 8fd5 653e
000002f0: 9626 043e 7764 71be ced1 bebe 8092 67be
00000300: a5f5 ea3d 7729 6e3e 2df8 c13d db93 843c
00000310: 111e 4ebd 1bdf 0ebe 8f52 e5bd f550 febd
00000320: 0fd5 d2bd ef7f 043e f94f 1bbe 8cec 84bd
00000330: b7f0 57be 9251 a7be 4bae 243d 57ed 313e
00000340: 8a06 36be bf4f b8be c914 bfbe 6249 473e
00000350: 71e4 2ebe 3abb a5be a04e 93be bfb3 34be
00000360: f994 b8be 3c2d 6c3e 0ba7 943a 0d55 a9bd
00000370: e879 44be 4f7a 7abe e622 7ebc 79cd 5fbe
00000380: 752a c7be 8c5c 113e dee4 9abc 200e 4fbe
00000390: b930 b9bc 201d 0b3d 4010 30be 6c05 463d
000003a0: 60f1 96be 11e6 b6bd 916d a3bd acbf 803d
000003b0: 0f65 c63d c492 1fbe fe49 d1be 9954 c1bb
000003c0: 4510 473e 4186 0ebe a43a 6abe a492 1bbe
000003d0: 2f0b 423d b11b 76bc bcde 613d 2f5e 14be
000003e0: 452e 2dbe fe1c 5c3c 1810 213e 6164 b0be
000003f0: ac6a 44bc 35ca 1dbe 89f3 37be 60b8 96bd
0.015555024 0.06476731 -0.0248035 -0.08347311 -0.03977742 -0.027577627 0.14060004 0.065377206
0.19482088 -0.11811174 -0.47664964 0.16302097 0.1367163 0.012712842 0.120303474 -0.16018039
0.047239255 -0.2520479 -0.23761033 0.28475228 -0.0028348335 0.0153942965 0.031363636 0.2823016
-0.12739755 0.07171816 -0.20909844 0.060516987 -0.14541702 -0.090351045 -0.056533832 -0.21439819
0.04921135 -0.12650515 0.15096761 0.096798696 0.038276717 -0.09490966 -0.07112329 0.08851938
-0.086035244 -0.1387534 -0.07251073 -0.1054488 -0.15522484 0.06765395 -0.16408226 0.010103017
0.23851712 -0.2203832 -0.0028006323 -0.018442512 -0.29736832 -0.29371566 -0.08061555 0.15145262
-0.11411308 -0.082399584 -0.11711066 0.063741155 0.07984385 0.08650377 0.07342953 0.018800903
-0.05374278 0.03833332 0.06345585 -0.031134523 -0.1693194 -0.04752846 -0.23129229 0.013130596
-0.14528602 0.07381597 -0.75321245 -0.07506424 0.100041054 -0.3074707 0.17500602 0.14743537
-0.006169306 -0.4675369 -0.38337335 0.18393606 -0.10051633 -0.20671593 -0.16564205 0.064337775
-0.16437645 0.26447508 0.030967204 -0.10495896 -0.13923487 0.06673357 0.26040915 -0.08590048
-0.13836738 0.24450368 0.12584446 -0.13251135 0.0453386 -0.1703366 0.17714347 0.26518363
0.12000688 -0.1375343 -0.038245343 -0.16400419 0.060800545 -0.27593255 -0.33315167 -0.044312328
0.21519566 0.034496438 0.013247794 -0.029165125 -0.17065689 -0.11824918 0.018375566 -0.14793481
-0.34066978 0.31245857 0.18233697 -0.1643484 0.014508041 -0.44998017 -0.051792104 -0.14890766
-0.16965623 -0.25470272 -0.13519417 -0.11404644 0.07007249 -0.0072503267 0.011339299 -0.31265658
0.21816213 -0.10357333 -0.27575982 0.09339257 -0.224075 0.14924614 -0.13065714 -0.025107168
-0.13300635 -0.1751087 -0.18929203 0.19614813 -0.1452365 -0.028279714 -0.033911996 0.16253129
-0.081198186 0.021216024 -0.038396966 -0.21726306 -0.15422483 0.18926463 -0.33356255 -0.17661503
-0.008630583 0.017549647 0.16099776 -0.14274792 0.104651056 -0.23970549 0.116971806 -0.26627922
-0.24016061 -0.4244295 -0.22017601 -0.06695116 -0.30920786 -0.08114137 -0.11125712 0.08963292
0.0069173677 -0.10236288 0.041591976 -0.1508531 -0.3252547 -0.23300116 -0.08365869 -0.012434533
0.0058556213 -0.33205265 -0.11009378 0.22444747 0.12905344 -0.2357348 -0.37269443 -0.22614479
0.11472634 0.23258005 0.09471164 0.016183784 -0.050321642 -0.13952295 -0.111973874 -0.12417785
-0.10294544 0.12939428 -0.15167226 -0.0649043 -0.21087919 -0.3267942 0.04020528 0.17375694
-0.17775932 -0.3599834 -0.37320545 0.19461587 -0.17079331 -0.32369405 -0.28770924 -0.17646693
-0.36051157 0.2306413 0.0011341287 -0.08268175 -0.19187129 -0.2446072 -0.01551125 -0.21855725
-0.3889958 0.1419546 -0.01890796 -0.20220232 -0.02260624 0.033963323 -0.17193699 0.048345014
-0.2948103 -0.089306004 -0.079798825 0.062865585 0.09687244 -0.1558333 -0.40876764 -0.0058999774
0.194398 -0.13918401 -0.22873932 -0.15192658 0.047373947 -0.015021251 0.055144057 -0.14489053
-0.16912182 0.013434647 0.15728796 -0.34451583 -0.011988323 -0.15409167 -0.17963995 -0.073593855

q1.2.bias f4 [128]
00000000: 7c36 323e b3d2 f03d dc93 0cbc eaee 9e3a
00000010: 4b68 fc3d bb07 8b3b 538b 87bc 14e7 993d
00000020: 975f 133d 29a6 433c c083 68bc e34a 39bb
00000030: 894e d63b e7e7 613d 0125 793d addd 1ebc
00000040: c06a 82bd f7e3 d83c de79 873d 4112 893d
00000050: 469b 86bc 3b67 903d bb76 a23a 3768 ddbc
00000060: 2331 e33d 8efc 543d 2200 f63d f8e1 c93b
00000070: 2b34 8abd f3f0 c03d 7fec 283d 148d d6bb
00000080: 3704 04bd 8398 95bd 4095 bb3d 1adf 2bbd
00000090: 0f6f a23c 9c18 013d 896f 543d b6ef 0a3d
000000a0: c3c1 473d 20de e93b c43f 653e 851d 70bd
000000b0: 5008 2bbc d378 5ab9 afed 7dbd cd7e 873d
000000c0: 617f 503d 2b43 a8bc fca3 f83c f8a0 243d
000000d0: a02b 953d 9e85 883d 37eb 89bc 97bf 9a3d
000000e0: 22d3 1abd d15d 613d 57a3 7cbd 8f39 80bd
000000f0: 3d4c ff3c 2676 beb8 4c03 1d3c c309 813d
00000100: 30aa 2cbc 95d4 32bd 9097 863d 915e 583d
00000110: f06c c2bd 91db 123d a4a3 9a3d b761 c43d
00000120: f775 de3d 154f f9bc ce1a c8bc b220 813d
00000130: 4bd2 6cbd 3082 efbc 3d13 e23d b26a 923b
00000140: 6497 bcbc d176 6a3d 14f5 15bd 1bd2 073b
00000150: ed6d 5cbd f920 1a3d 72ff 653d 826a 4cbd
00000160: 5b27 38bd 6013 503d faa8 903d 95d9 e5bb
00000170: 5946 a53c 4cf1 853d 952e 85bc d18d febc
00000180: 4185 923d 0b18 60bc 39ef d33b b557 76bc
00000190: 3014 663d 8ec6 973d 676f 8fbc 11d2 753d
000001a0: 57d0 0fbb df52 d63c a66d eabb 9216 8c3d
000001b0: d10d 0a3d 2c9d b7bc f86e 243d cb22 37bc
000001c0: c87e 63bb bae6 683c 18ef 0a3d ad64 90bc
000001d0: 46b2 8d3b 3ab7 29bd c122 f1bc bcc5 81bd
000001e0: e7cf 4d3d c00e d53c 88a6 73bc e558 7a3d
000001f0: 64d6 523d d37b 313b 34c7 a13d 64ff a9bc
0.17403597 0.11758938 -0.008580174 0.0012125645 0.1232458 0.004242865 -0.016545927 0.07514778
0.035979833 0.011941471 -0.014191568 -0.0028273396 0.006540124 0.0551528 0.060826305 -0.009696406
-0.06368017 0.02647589 0.06615041 0.06692935 -0.016431462 0.0705094 0.0012395004 -0.027027233
0.110933565 0.051998667 0.12011744 0.006160971 -0.067482315 0.094209574 0.041241165 -0.0065475795
-0.032230582 -0.0730448 0.091593266 -0.041960813 0.019828347 0.03151761 0.05186418 0.033920012
0.04876877 0.007137075 0.22387606 -0.058621902 -0.010438994 -0.0002083511 -0.06199425 0.06615982
0.050902728 -0.02053984 0.030351631 0.040192574 0.072837114 0.066661105 -0.016835792 0.07556074
-0.03779901 0.05502111 -0.06167921 -0.062609784 0.031164283 -9.081913e-05 0.009583306 0.0630069
-0.010538623 -0.043659765 0.06571877 0.05282456 -0.094934344 0.035853926 0.07550743 0.0958895
0.10862344 -0.030433217 -0.024426844 0.06305064 -0.05781774 -0.029236883 0.11038826 0.0044682855
-0.023021407 0.05724222 -0.036610678 0.0020724598 -0.05381577 0.0376291 0.056151815 -0.04990626
-0.044959407 0.050799727 0.0706348 -0.007014463 0.020175146 0.06540164 -0.016257564 -0.031073483
0.071543224 -0.013677607 0.0064677265 -0.015035559 0.056171596 0.07410918 -0.017509175 0.060014788
-0.0021944249 0.026162563 -0.0071541844 0.068402424 0.033704583 -0.022413813 0.04014489 -0.011177729
-0.0034713019 0.014215166 0.033919424 -0.017626131 0.0043242304 -0.041434504 -0.029435517 -0.06336543
0.0502471 0.02600801 -0.014871247 0.061119933 0.05147399 0.0027081862 0.07899323 -0.020751663

q1.4.weight f4 [1, 128]
00000000: 8204 f6be c1b6 d1be 96c4 be3d 7946 c23e
00000010: 9ef9 75be 67a0 d73d 0961 73be 4194 8ebe
00000020: 9ebd 093e 45fe ea3e b168 eb3e e67d 03be
00000030: 99b1 b83d d7fd 8bbe 0b66 863f 85ee 453e
00000040: b36b e83b 2ae5 383e b681 1dbe 8ddf a0bd
00000050: a15d 573e c673 fabd a562 d1be dca3 8abe
00000060: 5328 a7be 499b 3bbe 1f61 44be 699e 8b3e
00000070: cec5 a83d a8ad 08be 137e 1b3f 98ec 693e
00000080: d015 e73d 1c33 003e c9f7 ddbd 5378 a13d
00000090: 3852 713e 9999 04be cee6 afbd 2b36 7d3e
000000a0: 53dc 143f 61a7 243e e014 e2be e6f2 be3d
000000b0: 8083 a73d a5fe 233e 25df b2bd 3bb0 243f
000000c0: b506 ddbc 3103 133e 9e01 7fbe 8a8b fc3e
000000d0: e522 47be 0b70 013f 88e5 583e 1538 1a3f
000000e0: 065b 243e 1bec 113f 991b 933e 32b9 713a
000000f0: 8da8 a8be 7761 a53d 8349 793e 1c39 cabd
00000100: 555b ae3e 02ff 633e 3ae5 68be 0aa5 23bd
00000110: 3eed c9be 49dd 543e b6be 3d3f 3445 a6be
00000120: 5a9c 4bbe 5b61 dd3d 0746 783e 1d29 40be
00000130: 3ef9 9dbe d1f7 b33d d642 1ebe 9603 92be
00000140: 8f24 9c3e 9737 193f 4995 b33e 406c a3be
00000150: 307c 573e dff6 fb3e 2a66 f03e ffd4 37be
00000160: 120a a5be 6ab9 5cbe a7ec 1cbe dec3 303e
00000170: 1bab 883e 206e 19be 5231 183f d91c 133e
00000180: 38ac 48be e64f 4c3e 5a93 b3bd eaed f03d
00000190: 5e46 09be 5938 bdbd 0dcc bd3d 0daa f83e
000001a0: ae60 5d3e f722 873e a739 9d3d 6ffb 33be
000001b0: 6103 e2bc 09e5 513e f859 bfbe 6898 b3bd
000001c0: 0066 233e 68b0 1b3e 9cc5 3fbe 4abf ea3d
000001d0: 0ee7 4d3e 6242 153e a4b0 4a3d 371f 1b3c
000001e0: 11d3 0d3f 0a27 053e 9c9c 5e3d 0a73 cdbd
000001f0: 2223 5b3e 3fc2 5bbe 5ec7 8ebd b95c 623d
-0.48050314 -0.40959743 0.093148395 0.3794439 -0.24021003 0.10528641 -0.23767485 -0.27847484
0.1345124 0.45897117 0.4597831 -0.12840995 0.09018249 -0.27342102 1.0499891 0.19329269
0.007092917 0.18056169 -0.15381512 -0.07855139 0.2103181 -0.12229113 -0.40895572 -0.2707814
-0.32647952 -0.18320955 -0.19177674 0.27269295 0.08240853 -0.13347495 0.6073925 0.2284416
0.11283457 0.12519497 -0.10838277 0.07884278 0.2356652 -0.12949218 -0.085889444 0.24727695
0.5814869 0.16079475 -0.4415655 0.09323673 0.081793785 0.16015108 -0.08733968 0.64331406
-0.026980737 0.14356686 -0.2490296 0.4932521 -0.19446905 0.5056159 0.21181309 0.60241824
0.16050348 0.57000893 0.28731993 0.00092210167 -0.32941094 0.080752306 0.24344449 -0.09874174
0.34054056 0.22265247 -0.22743693 -0.039952315 -0.39438814 0.20787539 0.74119127 -0.32474673
-0.19883862 0.10809585 0.24245463 -0.18765683 -0.3085422 0.087875016 -0.15455183 -0.2851836
0.30496642 0.5985045 0.35074833 -0.31918526 0.21043468 0.49211785 0.46952945 -0.17952345
-0.32234246 -0.21555105 -0.1532465 0.17262217 0.26693043 -0.14983416 0.59450257 0.14366473
-0.19596946 0.19952354 -0.087683395 0.117641285 -0.13405749 -0.09239263 0.09267435 0.48567238
0.21618912 0.26393864 0.07677012 -0.17576383 -0.027589502 0.20497526 -0.37373328 -0.087693036
0.15956879 0.15204012 -0.18727726 0.11462267 0.20107672 0.14576104 0.049484864 0.009467891
0.55400187 0.13003173 0.054348573 -0.100317076 0.21400121 -0.21460818 -0.0697162 0.05526421
