SAC/checkpoints/BipedalWalker-v3_hardcore/01_best_agent.pth (torch, 891687 bytes, 17 tensors)

log_alpha f8 []
000000 23 72 7a 71 f8 4d 1d c0
       -7.326143048380376

actor.0.weight f4 [256, 24]
000000 ea ba 27 3f 90 d0 eb 3f f5 a6 a5 bf 16 02 b2 3d
       0.65519583 1.8423023 -1.2941576 0.08691804
000010 67 0e ec 3c cc 8e 8a bc 8e 28 d6 3d c3 67 1f 3e
       0.028815461 -0.016913794 0.10456954 0.15566926
000020 42 3d 0c 3d 21 28 9c 3e d8 db 93 3e 7f 52 24 be
       0.034238108 0.30499366 0.28878665 -0.16047095
000030 18 f7 dd bc a8 2b d7 be 0a 61 7c 3e 5f a5 22 3e
       -0.027095363 -0.42025495 0.24646392 0.15883397
000040 bf 66 7d 3e 59 5e 5b 3d 45 da aa 3d 6b 1e ed 3c
       0.24746226 0.053556774 0.08342413 0.028945168
000050 ae e0 20 3e 4b 35 8b 3e 54 bf 7e 3d c4 47 70 be
       0.15710708 0.27189097 0.062194183 -0.23464876
000060 e0 52 93 3e 94 09 19 be 1f de a8 bf 6b 44 87 3f
       0.28774166 -0.1494506 -1.3192786 1.0567755
000070 ea 86 07 be 1a 70 88 3e 94 be ba 3e 17 25 20 3e
       -0.1323506 0.26648027 0.36473525 0.15639149
000080 91 4c c5 bd b8 d8 d0 bd 1d f3 55 be 05 ff b1 be
       -0.096337445 -0.10197586 -0.20893522 -0.34764877
000090 7c b2 e8 be cc 7a 3d bf 7e db e8 3c 85 ad 18 3e
       -0.45448673 -0.740155 0.028424975 0.14909942
0000a0 e2 51 5e 3d 29 b8 88 bd 1e c1 14 3e 6c 7e 16 3d
       0.05427731 -0.06675751 0.14526793 0.03674166
0000b0 a6 63 3e be fd 9a af bd c0 e8 bc bd 79 2c 92 be
       -0.185927 -0.085744835 -0.09224081 -0.28549555
0000c0 32 24 f3 3e 43 33 67 3e 2f 85 2f 3f 1a d6 e3 bd
       0.47488552 0.22578149 0.685626 -0.11124821
0000d0 54 56 ae 3d 85 c6 8d be a7 34 bc 3e 73 72 97 3e
       0.085125595 -0.2769052 0.3675892 0.29579505
0000e0 6b e9 be 3d bd 5d 2d be 8e 23 f4 3e 88 34 3c be
       0.09321865 -0.1693029 0.47683376 -0.18379414
0000f0 54 05 88 3c d2 50 e8 3d 4f 5a 1e bd 2a 8a f4 bd
       0.016604103 0.1134354 -0.038660344 -0.11940415
000100 d7 c7 37 be 66 9c 89 be df 29 00 be be dc c8 be
       -0.17947327 -0.26877135 -0.12515973 -0.39230913
000110 d4 ff 92 be 6c 53 a6 be 15 42 9e 3e 4d 8c 25 be
       -0.28710806 -0.3248552 0.30909792 -0.16166802
000120 82 ce 5d bf 1b ff 79 bf e6 bf 96 be ed 6b 97 bd
       -0.8664323 -0.97654885 -0.29443282 -0.07393632
000130 22 ed 86 bd d8 d3 8c 3d 0d f1 09 3d 6d ed 06 be
       -0.06588198 0.068763435 0.03367715 -0.13176508
000140 58 7f 4a bd 08 ce 40 be 81 20 90 3e 61 d8 03 3f
       -0.04943785 -0.18828595 0.281498 0.51502043
000150 4f 75 d8 3d ec 19 80 be b6 e9 51 be 22 b9 78 bd
       0.1056925 -0.25019777 -0.2049931 -0.06072343
000160 3f ab 2f bc a8 47 ce bd 35 cc 16 3d ba 46 22 be
       -0.010721981 -0.10072261 0.03681584 -0.15847293
000170 8c 1d 9f bd aa c9 8d bd c9 a2 ec 3d c6 8a 19 bd
       -0.077693075 -0.0692323 0.11554486 -0.03748586
000180 1f 35 96 3e 9f 75 2d 3f d2 67 d6 3e 1c 91 ee 3e
       0.29337403 0.677576 0.41876084 0.46595085
000190 b4 88 1a 3f f7 df a4 3e 0d 5b 52 bd e8 85 48 bd
       0.6036484 0.32202122 -0.051356364 -0.048955828
0001a0 ef fc 2f 3e 5f d5 19 be 59 9a 9b 3d 83 d0 49 3e
       0.1718633 -0.15022801 0.07597799 0.19708447
0001b0 64 3e 11 3e ca b7 5d bf 66 b0 06 3e 5f 75 cd 3c
       0.14183956 -0.86608565 0.13153228 0.025080381
0001c0 f8 f1 03 be a6 2c 23 3c fc f3 11 3d 68 2a 40 3e
       -0.12885273 0.0099593755 0.035633072 0.18766177
0001d0 1b 76 a0 3c 36 bc 68 bd 80 57 bc 3d fb 3f 02 bd
       0.019587567 -0.056820117 0.09196377 -0.031799298
0001e0 f2 dd b6 3e 0d 32 49 3f b7 46 32 bf 7f 5f 8b 3d
       0.35716206 0.78591996 -0.6963915 0.06805324
0001f0 e1 c3 03 bf 0a 2e 3d 3e 58 82 4a 3e 6a a1 11 3e
       -0.5147076 0.18474594 0.19776285 0.14221731
000200 07 c0 e0 3e 0c a0 22 3f 62 c3 51 be 06 24 cb 3e
       0.43896505 0.6352546 -0.20484689 0.3967592
000210 01 21 59 be 4a 2a 5f be f2 85 a9 3d d9 45 ed 3d
       -0.21203996 -0.21793476 0.08277501 0.11585588
000220 11 27 80 be a1 7d d5 be 4f 49 cb be db 3e 8e be
       -0.25029805 -0.4169741 -0.39704368 -0.2778233
000230 66 e3 d4 be 39 af bb be 32 97 a5 be d7 8a 2f be
       -0.4157974 -0.36657122 -0.32341915 -0.17142807
000240 ce bd 09 be 71 79 1c 3f 76 28 34 bf cc a9 80 3e
       -0.13451311 0.61122805 -0.7037424 0.25129545
000250 73 30 32 3e 42 24 90 bc c6 13 1d 3e d2 49 d6 bd
       0.17401294 -0.017595414 0.15339574 -0.10463299
000260 ed af be be 46 f9 89 3e af e4 51 bb 11 11 42 3e
       -0.37243596 0.26947993 -0.0032027175 0.18951823
000270 b0 f3 b6 3d 54 36 20 3e 15 88 ef 3d 29 27 d1 3d
       0.089331985 0.15645725 0.116958775 0.10212547
000280 76 c7 f7 3d f3 4c 9c 3e 21 f0 37 3e 17 f3 d4 3e
       0.12098591 0.30527458 0.17962696 0.41591713
000290 e7 ab 82 3e a5 a9 84 3e 2a e6 a3 bd 5f 77 b6 be
       0.25521776 0.25910679 -0.08002885 -0.35637948
0002a0 2d 88 1a 3c 36 de 77 bb 98 f1 10 bf be c8 20 3f
       0.009431881 -0.0037821657 -0.5661864 0.6280631
0002b0 45 eb 9f be 7d 5e 7b 3d 6e e0 44 be ec 8d c5 bc
       -0.31234184 0.061369408 -0.19226238 -0.024115525
0002c0 ee 93 26 bf d3 f1 cc 3e 4a ee 4d be b3 67 25 3f
       -0.6506947 0.40028247 -0.20110431 0.6461136
0002d0 bd 34 8b bc 98 23 c2 bf df 32 7b bb 2b eb aa bd
       -0.016992921 -1.5167112 -0.0038329882 -0.08345636
0002e0 80 6e 6b bc 47 9c 1a be 86 4d cd bd 41 98 34 be
       -0.014369607 -0.15098678 -0.10024552 -0.17636205
0002f0 f1 5b 37 be 00 ff db bd 7f f5 da 3c b4 fd 88 3e
       -0.17906167 -0.10741997 0.02672839 0.2675606
000300 78 02 85 3f 53 83 05 40 58 a9 6b bf 95 a7 a4 bf
       1.0391378 2.0861404 -0.92055273 -1.2863642
000310 cb 05 a9 be 42 66 6a 3d 78 ff f7 bd d1 5d 1b be
       -0.33012232 0.057226427 -0.12109274 -0.15172507
000320 12 81 b6 bd b6 0f 5b 3d 53 57 23 3e 2b 2f 9e 3e
       -0.08911337 0.05348178 0.1595128 0.3089536
000330 f7 1b 0d be 2d 01 8c bd 44 db 2e be f2 b9 6f be
       -0.13780199 -0.06836162 -0.1707583 -0.23410776
000340 10 b8 5f be f2 be 08 be 06 db 9d bd 34 52 a1 be
       -0.21847558 -0.1335409 -0.07707791 -0.31508029
000350 37 40 26 be 38 1c 6a be 94 06 63 be 18 cd 0a 3e
       -0.16235434 -0.22862327 -0.22170478 0.135548
000360 2d 7b 91 be a4 9a 88 3e 83 ba 04 bf b5 ec 9c 3f
       -0.28414288 0.2668048 -0.51847094 1.2259737
000370 16 8f a4 3e 79 93 93 3d 84 da 28 be 14 37 8a 3d
       0.32140416 0.072058626 -0.16489607 0.067487866
000380 1b 77 50 3e ba cc 5e 3e 42 79 00 3d bb 83 d6 3e
       0.20357935 0.21757784 0.03136564 0.41897377
000390 64 91 c0 bd ae 20 ce be 90 0c 55 3c 77 6f 9b bd
       -0.09402731 -0.40259308 0.013003483 -0.075896196
0003a0 d5 5a 2a be 59 2a 1f bb b5 e2 9d 3e 22 0b 8f 3e
       -0.16636212 -0.0024286716 0.30837026 0.2793818
0003b0 19 f5 b1 3e 8e 78 c4 3e 1a 95 a7 3e 53 83 34 be
       0.34757307 0.38373226 0.32730943 -0.17628221
0003c0 83 80 cb 3d 7f d3 c8 3e 84 4f 26 bf b3 77 78 3f
       0.09936621 0.3922386 -0.6496508 0.97057647
0003d0 4f 2b 84 bd 81 cb ac be 43 34 ca 3d 0d 6f bb 3e
       -0.06453573 -0.3374901 0.098732494 0.36608163
0003e0 a4 af e2 be 29 81 9f 3e 00 d9 6b 3c a7 b6 66 be
       -0.44274628 0.3115323 0.014394999 -0.22530614
0003f0 78 9d 28 3e c5 d2 3f 3e 39 3b eb 39 ab 11 84 be
       0.1646632 0.18732746 0.00044866817 -0.2579473

actor.0.bias f4 [256]
000000 65 6d b1 be 4a 19 07 be 21 20 ae 3c 69 25 9e bc
       -0.34653774 -0.13193241 0.021255555 -0.019304948
000010 a0 47 6d bd 5f 67 bb 3c 14 94 b6 be e2 6c 6a 3c
       -0.057929635 0.02287644 -0.3565985 0.014308186
000020 bf 02 d4 3a 97 4a fa be c9 c7 78 bc 1f 28 52 be
       0.0016175135 -0.48885033 -0.015184351 -0.20523117
000030 08 86 be bd 83 c3 04 3d 25 14 15 be 7b f3 79 be
       -0.09302908 0.032413017 -0.14558466 -0.24409287
000040 bc ef 64 3d 5f 48 ca bd 8f 29 ec bc 56 b6 d5 bc
       0.05589269 -0.09877085 -0.02882841 -0.026087921
000050 ed 3a 3d 3e b0 3a 89 3c 96 89 30 3e ec 68 ca bc
       0.1847951 0.016751617 0.17239985 -0.024708234
000060 06 7f 0d be 5e c0 4a be c0 49 90 be 3c ba 6d bd
       -0.13817987 -0.19799945 -0.28181267 -0.058038935
000070 dc e9 71 be 42 fe 0b 3d 46 39 aa bd 82 00 2f be
       -0.23624367 0.034178026 -0.08311705 -0.17090037
000080 37 7e 46 be c0 c5 1b be 2a df 90 be d7 ed 07 bc
       -0.19384085 -0.15212154 -0.2829526 -0.0082964515
000090 93 7b 3e bd f7 bd 23 be 03 a6 39 be 79 3d 50 be
       -0.04650457 -0.15990435 -0.18129735 -0.2033595
0000a0 88 32 80 3d 2b d6 57 be b5 dc fb bc 60 2e 2f be
       0.06259638 -0.21077792 -0.03074489 -0.17107534
0000b0 7a ec f9 bb 09 4a a8 3b a6 9e 6b bd 3d ca 06 3e
       -0.007627067 0.005135779 -0.057524346 0.13163085
0000c0 6b 19 2b 3d 46 e4 bd be 58 2a 3b bd 1e 01 83 bd
       0.041772287 -0.3708822 -0.04569468 -0.063966975
0000d0 d5 25 17 bd 0c ab d1 bd 62 18 ae be ec 57 42 3d
       -0.036901314 -0.10237703 -0.34002978 0.04744713
0000e0 7b 30 2b be 63 0f 2a be b6 56 7a 3c ff 80 df bc
       -0.16717713 -0.16607432 0.015279463 -0.02728319
0000f0 18 a0 33 be c9 89 0b be 16 ad f3 3d 7c 7e 76 bd
       -0.1754154 -0.1362678 0.11898248 -0.06017922
000100 e6 fb 44 3e 28 10 98 bd 44 43 0f be 88 18 a1 bd
       0.19236717 -0.074249566 -0.13990504 -0.07866007
000110 4d 3e 52 be 75 ea ad 3c fa d5 60 be a6 57 b8 be
       -0.20531578 0.021229962 -0.21956626 -0.3600437
000120 d1 77 25 be 0f f4 cf 3d bc c2 85 ba 98 d4 27 3d
       -0.16158988 0.10153972 -0.001020513 0.04097423
000130 d2 33 ad bd b5 55 0f be d5 0f b6 bc 55 b3 70 bd
       -0.084571496 -0.13997538 -0.022224346 -0.058764774
000140 cb 86 20 bd c0 d8 21 be 13 bd 47 bd 0c ee a9 bd
       -0.03919105 -0.1580534 -0.0487643 -0.08297357
000150 8d 6e b4 3d 9b 32 8d be e7 75 27 be bb 5b 0f 3e
       0.088101484 -0.2757767 -0.1635357 0.13999836
000160 a6 ed 8e be 38 69 67 3d 0e 63 c5 3d 28 f0 93 be
       -0.27915686 0.05649683 0.09638034 -0.28894162
000170 63 ad 00 be 4c 8b 61 3b d7 18 d3 bd 7e 9b cc 3d
       -0.12566142 0.0034415303 -0.10307472 0.09990595
000180 a6 f3 2f be b6 ae 70 3e c3 a7 6c bd 54 32 00 3e
       -0.17182788 0.23504147 -0.057777178 0.12519199
000190 d2 b5 8d 3d ca f1 36 be 93 86 00 3e 9e 3c db bb
       0.06919445 -0.17865673 0.12551336 -0.0066905757
0001a0 ef 1b c7 be 49 0f 97 be 36 e0 a1 bd 27 4b 04 3d
       -0.388885 -0.2950385 -0.07904093 0.032298233
0001b0 50 41 f6 3d ce 8e 34 bc 61 9d 84 bd 09 76 fd 3d
       0.12024176 -0.011020375 -0.0647533 0.12376029
0001c0 0a 8f 8c be a4 ca 10 be 79 8d 90 3e 7c d5 fd bd
       -0.2745288 -0.14139801 0.28232935 -0.123942345
0001d0 34 da a0 3d b0 57 3d be a2 22 8c 3d cc d1 1d be
       0.07854119 -0.18490481 0.06842543 -0.15412062
0001e0 6d fe 37 3e 35 78 59 be c5 fb 1b be 88 88 9d 3d
       0.1796815 -0.21237262 -0.15232761 0.07692057
0001f0 81 26 52 be 0d 06 08 3e ff 5d 67 be d9 74 1c 3e
       -0.205225 0.13283558 -0.2259445 0.15278949
000200 4d 3f e6 bd b6 8d 57 be ff 92 e3 be 05 14 f1 bd
       -0.112425424 -0.21050152 -0.44448087 -0.117713965
000210 20 96 09 be 2e 5b 8b bb 1c 1b 3f 3e 06 a0 e9 bd
       -0.13436174 -0.004252813 0.18662685 -0.11407475
000220 47 24 05 bd 80 3f d6 bd 39 b0 05 bd 36 aa 07 be
       -0.0325053 -0.104613304 -0.032638762 -0.13248524
000230 0e 34 ba 3c 9d 72 ee bd 3b 24 04 be 10 0d b6 3d
       0.0227299 -0.116429545 -0.12904446 0.0888921
000240 7f b0 42 be d7 dd 96 3d b5 3e aa 3d bb e6 cf be
       -0.1901264 0.07366531 0.08312742 -0.4060572
000250 6f 1d 97 bd b0 ac cc bd e7 00 36 3d 01 83 19 3e
       -0.07378661 -0.09993875 0.044434454 0.1499138
000260 e0 43 c1 bd c8 48 78 bd 57 ea 8e 3d 9c b5 c2 bd
       -0.09436774 -0.060616285 0.069782905 -0.095072955
000270 86 bd 80 be b8 2f 44 3c 20 b9 76 3d df e1 44 3e
       -0.25144595 0.011974268 0.060235143 0.19226788
000280 88 71 7e bd c0 6c c2 bd 17 53 41 be 04 89 c4 bd
       -0.06211999 -0.09493399 -0.18879353 -0.09596446
000290 c4 43 dc bc 14 98 81 be 71 22 fc be bb f6 f9 be
       -0.026887782 -0.2531134 -0.49245027 -0.48821053
0002a0 fa c7 22 be 20 14 09 bd 6e 94 be be 4e 41 19 3d
       -0.15896598 -0.03346646 -0.37222618 0.037415795
0002b0 01 22 ca 3e 7b 51 da 3d e6 49 85 3b f4 2c 9f bc
       0.39479068 0.106600724 0.0040676473 -0.019430615
0002c0 3b f0 52 be 94 a7 85 3b 61 63 48 be 42 79 aa bc
       -0.20599453 0.0040788148 -0.1956916 -0.020809773
0002d0 10 46 8a be 94 bb 21 be 10 f1 0a 3d 11 98 75 bd
       -0.27006578 -0.15794212 0.0339213 -0.059959475
0002e0 b9 52 9e 3d 52 cd a9 3d a9 f4 fa bc 99 fd e5 3d
       0.07730622 0.08291115 -0.030634241 0.112300105
0002f0 f0 69 ea 3d 12 ed 12 bd 43 f6 ac bd dd cf 78 3c
       0.11445987 -0.03587062 -0.08445408 0.015186277
000300 23 e1 9e bd c7 eb 9e be bd ad 2b 3d 9b 36 83 3d
       -0.07757785 -0.3103926 0.041913737 0.064068995
000310 49 c3 9e bc f6 0e 33 be 38 4e 37 be ab 1b 96 be
       -0.019380229 -0.17486176 -0.17900932 -0.29317984
000320 90 4d 77 be 0c f7 17 be e9 b1 f9 bd f0 64 aa bd
       -0.24150681 -0.14840335 -0.12192137 -0.083200336
000330 97 ed c6 be 75 7b d8 bc 87 76 b8 3d 60 64 83 be
       -0.38853142 -0.026426056 0.09006982 -0.25662518
000340 e3 d9 1f 3e 0f cb 8f bc d8 c9 84 bd e9 f4 fe 3b
       0.15610461 -0.01755288 -0.06483811 0.0077806604
000350 db 27 b9 3d 3b 1b 7a 3e ba 56 80 bd 30 31 90 bc
       0.09040805 0.2442445 -0.06266542 -0.01760158
000360 74 fd 37 3e 2a 65 51 3e a1 0c a5 3d e8 5a 05 3d
       0.17967778 0.20448747 0.080590494 0.032557398
000370 a7 8e 3a 3e d2 41 6f be 83 47 94 bc 24 9e 3b 3d
       0.1821848 -0.23364952 -0.018100506 0.04580511
000380 e6 1b 0d 3e 85 75 1a 3e 37 9b 03 be b1 ef 27 3d
       0.13780174 0.15083893 -0.12852179 0.041000072
000390 a7 f8 20 3d 68 4d 35 be d2 b4 a3 bc 26 b3 9c be
       0.039299633 -0.1770531 -0.019983683 -0.3060543
0003a0 73 ff f3 3c 79 9c 2e bd d0 ae 3e be f8 0b bc be
       0.029784894 -0.042629693 -0.18621373 -0.3672788
0003b0 9c 71 62 be 9d 6a 59 3d da df 8e bd cd 1d 79 be
       -0.22113651 0.05308019 -0.0697629 -0.24327774
0003c0 5e f7 90 3c de 95 d5 3b d1 97 40 3e 3f 8d 40 be
       0.017696079 0.0065181097 0.18807913 -0.18803881
0003d0 8a 54 d5 3c 1e de af bd c7 9f 9d be d9 0a 66 bd
       0.026041288 -0.08587287 -0.30785963 -0.05616269
0003e0 04 59 1e bd c3 31 8d be 11 2b fe be ca dd 25 3d
       -0.03865911 -0.27577028 -0.49642232 0.040494718
0003f0 3d 91 83 3c 18 39 7a bd 4a 79 b6 be 44 21 9b be
       0.016060466 -0.061089605 -0.3563941 -0.30298817

actor.2.weight f4 [256, 256]
000000 d5 30 d5 3d fb 80 50 3e 9b ee 8b 3d 99 96 9a bb
       0.104097046 0.20361702 0.0683262 -0.0047176597
000010 c0 fc be be 89 f8 20 3d 51 4e 9d be 9a 6b 61 3e
       -0.37302208 0.03929952 -0.30723813 0.22013703
000020 82 c1 7a 3d 26 97 0a 3e 34 69 cd be 4e 1b 8d bf
       0.0612197 0.13534221 -0.40119326 -1.1023958
000030 c8 62 86 3b b9 23 42 bf e6 a4 81 be 20 6a 46 bd
       0.004101131 -0.7583576 -0.2532112 -0.048441052
000040 da ee 06 3f ae 5d 6c bd 5f 3d ed be 60 83 2f bf
       0.5270821 -0.057706527 -0.46335885 -0.6855984
000050 db e0 5a 3e 50 88 86 3e 34 3d fa 3d 9d e2 a3 3e
       0.21374838 0.26275873 0.12218705 0.3200883
000060 97 0e b6 bd ea d6 18 be cc a3 9a 3e 05 e4 91 3e
       -0.088895015 -0.14925733 0.30203092 0.28494278
000070 94 1b df be 84 5a b1 3e f5 d3 11 bf d5 e7 28 bf
       -0.43575728 0.3463937 -0.56964046 -0.6597875
000080 36 70 ba 3d 06 fc fe 3d 35 94 35 3e 45 3b 15 3e
       0.09103434 0.124504134 0.17732318 0.14573391
000090 41 96 25 bf 75 e3 2c 3e ff 0d d8 3d 49 4a 57 bf
       -0.64682394 0.16883643 0.105495445 -0.84097725
0000a0 02 54 6d 3d a4 11 2a 3e 8f 41 29 bd d3 43 d2 3d
       0.057941444 0.16608292 -0.041322287 0.10266843
0000b0 1d 4e 04 be 51 5b 5b be 0e 1b 6d 3d 8b 90 47 be
       -0.12920423 -0.21421553 0.05788713 -0.19488733
0000c0 40 b3 b7 be 16 e3 80 3e 00 e0 f0 3d df bd 22 be
       -0.35878944 0.25173253 0.117614746 -0.15892743
0000d0 7b 4b 43 bf fd e0 e5 3c 3a b7 5d 3d 7d 9f 25 bf
       -0.7628705 0.028061384 0.054129817 -0.64696485
0000e0 d8 fb 2a 3d d0 60 b3 3d 1c c5 16 be 03 f1 d7 bc
       0.041744083 0.087587 -0.14723629 -0.02636004
0000f0 fc 57 8f 3e 9a 47 7d 3e c2 e3 88 be 8e de 13 be
       0.27996814 0.24734345 -0.26736265 -0.14440367
000100 65 85 d7 bf ef 1e ad 3e e0 e9 89 bf b5 47 70 bf
       -1.6837584 0.33812663 -1.0774498 -0.93859416
000110 07 29 43 be c2 49 32 3e 39 70 ab 3e 6d 93 1a 3e
       -0.1905862 0.17410949 0.33484057 0.15095301
000120 2b b7 3a bd 2e 6e eb 3d 84 49 5a be d4 6e 34 3e
       -0.04558484 0.114956245 -0.21317106 0.17620403
000130 b7 b3 50 3c 26 9d 60 be 11 fe 38 3f f5 ce 1c be
       0.01273816 -0.21934947 0.72262675 -0.15313323
000140 42 52 09 3e 01 ba 82 3d 22 b9 23 bd 33 ca df bd
       0.13410285 0.06383134 -0.03997148 -0.10927238
000150 d3 c2 ca bd 21 9c ce 3c 59 02 00 3e 97 59 c1 be
       -0.09900441 0.025220932 0.12500896 -0.37763664
000160 9c 63 bc 3d 02 94 e6 be 86 22 b8 bd cb 9b fe be
       0.091986865 -0.45034796 -0.0899096 -0.49728236
000170 3e 54 55 bf 9a 49 37 bf f4 36 83 3e 8b ed c9 3e
       -0.8333167 -0.7159668 0.25627863 0.39439043
000180 0d 80 18 bf 55 e4 fb 3e 4d 06 6b be 15 9c c0 be
       -0.5957039 0.4919764 -0.22951622 -0.3761908
000190 d5 ce 71 3e b8 b9 e9 bd 97 fa 03 bf 78 40 4d 3d
       0.23614056 -0.11412376 -0.51554245 0.05011031
0001a0 34 38 f3 bc cf 8e 92 be 43 80 b6 3e cd ba 23 3e
       -0.029689886 -0.2862458 0.3564473 0.15989228
0001b0 51 84 26 3e 9f 34 29 3f 83 90 9a be 82 32 53 3e
       0.16261412 0.6609592 -0.3018838 0.20624736
0001c0 93 97 09 be 2b e6 db be fa a6 63 bd bc a9 e0 bd
       -0.13436727 -0.42949042 -0.055579163 -0.10969874
0001d0 8c 7a e4 3d 98 34 13 3e 0c e0 7a be 75 bb 8c be
       0.111561865 0.14375532 -0.2449953 -0.27486768
0001e0 72 3f 39 3e 9f c0 57 3e 39 7b 93 3d e9 0e 9c 3d
       0.18090609 0.21069573 0.07201237 0.076200314
0001f0 71 62 0d bf 5f 21 b8 be 01 c9 89 3d cf d7 78 be
       -0.55228335 -0.3596296 0.067277916 -0.24301074
000200 46 23 ff be 69 28 0b 3e 9c 59 53 bf 4b d4 d8 bc
       -0.498316 0.13589634 -0.8255861 -0.026468417
000210 7e 3c 14 bf c0 0e 32 3d 47 ce 5c bf d5 25 ac bd
       -0.57904804 0.043471098 -0.86252254 -0.084056534
000220 ae 6a ca 3d 5d 41 4a bf e5 53 fb 3e f8 4c 42 3e
       0.09883629 -0.79005986 0.49087444 0.18974674
000230 8a 7b b3 bb f0 98 56 be 5d 1d 83 3e 2c b5 d9 be
       -0.0054773735 -0.20956779 0.2560834 -0.42521036
000240 4f ae 9a 3d 8b 27 b8 bd 3e 1e c6 3e 79 4d 62 be
       0.07552778 -0.08991917 0.38694948 -0.22099866
000250 3f 11 16 be e5 26 5a bc e0 a7 e1 be a3 d0 c3 be
       -0.14655016 -0.013314937 -0.4407339 -0.38245115
000260 44 8c 5f 3d 3b 4c 48 bd a4 3c 89 bd b9 20 5e be
       0.054577127 -0.048900824 -0.067010194 -0.2169217
000270 21 2e 77 3d b0 cf 67 be 5a cf 65 bd 11 40 93 be
       0.060346726 -0.2263782 -0.05610595 -0.28759816
000280 4e 9b 1c bf 45 fa de be 0d d4 40 bf bc 09 0d be
       -0.61174476 -0.43550315 -0.75323564 -0.13773245
000290 57 cf c7 bd 2c 4d b1 3c a5 63 29 3e d9 18 ed 3d
       -0.09756344 0.021643244 0.16541918 0.11577005
0002a0 b2 63 91 be 95 b9 83 3e 40 d2 f0 be 86 3d ff bd
       -0.28396374 0.25727525 -0.47035408 -0.124629065
0002b0 8d e2 0f 3e 7c a0 ac 3e 88 97 ec be fc 0b 96 3d
       0.14051266 0.3371619 -0.4620936 0.073265046
0002c0 a6 22 8b 3d 11 a4 2d be 53 ba 9c be 80 68 72 bc
       0.06793718 -0.16957118 -0.30610904 -0.014795423
0002d0 73 f8 a0 3d 89 d9 59 bd fd 9e 05 bb ce ef 16 be
       0.07859888 -0.053185973 -0.0020388954 -0.14739916
0002e0 0c 3a 26 bc 9e ab 99 bd 71 57 c7 be 8c 94 78 be
       -0.010145675 -0.075034365 -0.389339 -0.24275416
0002f0 f1 96 98 3e ae 41 55 bf 43 72 bb 3e 8a ae 18 3e
       0.2980266 -0.83303344 0.36610612 0.14910331
000300 48 01 a8 bd 37 66 e0 3e 14 47 8e be 85 f6 08 3c
       -0.082033694 0.43827984 -0.27788603 0.008359556
000310 8d 56 2a bd d1 ae c0 be 76 e5 de 3e fd 26 0a bf
       -0.041586448 -0.37633374 0.4353444 -0.5396574
000320 c7 2f 76 3e 9c 30 1d 3e b0 38 9a 3e 09 5c 74 be
       0.24041663 0.15350574 0.30121374 -0.23863234
000330 fe e7 47 be 94 6f a7 be 5b 73 10 3d 89 38 20 bf
       -0.19522092 -0.32702315 0.03526626 -0.62586266
000340 b8 e7 58 3e 80 0e 31 bf b8 6c 10 bc b9 05 6e bd
       0.21182144 -0.6916275 -0.008814983 -0.058110926
000350 8c 2e 46 3e 6c 53 73 3d a3 56 95 be 7b 55 8f bd
       0.19353694 0.05940573 -0.2916766 -0.06998726
000360 bc ff 60 3a 50 34 51 be ca 42 ce 3d e5 b5 96 bd
       0.0008583029 -0.20430112 0.10071333 -0.073589124
000370 15 95 3d be f5 69 83 3d d0 7e 16 bf d8 6c 95 be
       -0.18513902 0.06416694 -0.5878725 -0.29184604
000380 c0 02 e1 be 87 50 c0 bd b8 b5 80 bf 28 f4 a7 bd
       -0.4394741 -0.09390359 -1.0055456 -0.08200866
000390 6c f5 8a 3e 6d 8d 6a be d3 21 91 be 53 5f 0e be
       0.27140367 -0.22905512 -0.28346118 -0.13903551
0003a0 d9 07 fa be ce 66 83 3b 01 9e 15 3e 9f b8 a3 3e
       -0.48834112 0.004010058 0.14611055 0.31976792
0003b0 0c fe f9 3b 80 75 e9 3e 69 7f 0e bf e8 50 05 be
       0.0076291617 0.45597458 -0.5566316 -0.13019145
0003c0 cd 08 66 3e 50 63 28 bd 60 39 b9 be ee f9 49 3d
       0.22464295 -0.041110337 -0.36176586 0.049310617
0003d0 ca f7 0d be 49 87 22 3e 6d db 4d be 57 01 23 be
       -0.13864055 0.1587192 -0.20103236 -0.1591848
0003e0 43 fb 07 be 84 29 14 bf 8a 08 37 3d d0 69 c6 bd
       -0.13279442 -0.5787585 0.044685878 -0.09688151
0003f0 e3 3d 06 be 85 48 db bd 4b 18 1b 3e 18 1b e5 bd
       -0.13109545 -0.107071914 0.15145986 -0.11186808

actor.2.bias f4 [256]
000000 27 6e bc be 27 8b 0b be 77 77 ca 3d 20 c7 4f be
       -0.3680279 -0.13627301 0.09886067 -0.20290804
000010 c3 72 38 be 0d dd 7d be 91 4d cc bd 82 73 eb bd
       -0.18012528 -0.24791355 -0.09975732 -0.11496641
000020 30 80 ee bd 32 1e 1b 3e c4 47 ad 3c 4b 19 db bd
       -0.116455436 0.15148237 0.021152385 -0.106981836
000030 63 60 91 bd e7 22 dd bd 71 9a 4b bd 2f ff 90 be
       -0.070984624 -0.10797673 -0.049707834 -0.2831969
000040 50 95 8a bd f8 72 89 3e 86 dd 45 be 94 4c db bd
       -0.0676676 0.26845527 -0.19322786 -0.107079655
000050 48 a5 62 be 86 50 5f 3d c6 b4 3a be 6f ac ee bd
       -0.22133362 0.054520153 -0.18233022 -0.11653983
000060 4b 57 d3 bd 4e d8 49 be 63 5c a4 3d 62 75 4c be
       -0.10319384 -0.1971142 0.08025434 -0.19966653
000070 b6 71 d8 3e 84 b6 24 bd a6 d5 bc 3d 18 14 07 be
       0.42274255 -0.040213123 0.09220438 -0.13191259
000080 63 d0 88 3c d0 8b 0c bd d9 39 63 be fa 30 73 bc
       0.016700929 -0.034313023 -0.22190036 -0.01484322
000090 49 0f 3d be 62 40 2d 3e aa 11 e8 bd c9 cd 92 be
       -0.18462862 0.16919091 -0.11331494 -0.28672627
0000a0 e0 6a ec 3d c5 dd cf bd d6 7d fb 3d c4 c7 07 bd
       0.11543822 -0.10149721 0.12279861 -0.033149496
0000b0 ce 23 c5 3c e0 c5 b3 3d 11 00 54 be 81 85 3f be
       0.024064925 0.08777976 -0.2070315 -0.18703271
0000c0 58 8a b2 3d 33 42 5f be 95 dc 86 be ec ce cf bd
       0.08717793 -0.21802597 -0.26340166 -0.10146889
0000d0 9a 90 b9 bd d4 ee 40 be c8 08 13 be 4d 85 3e 3e
       -0.09060784 -0.18841106 -0.14358819 0.18605538
0000e0 ba af 48 3c 83 01 29 3d 10 ed c3 be 43 d0 0b be
       0.012248928 0.041261207 -0.38266802 -0.13653664
0000f0 a8 be 68 3d 4c 47 af bc 08 89 f0 bd 84 76 7e be
       0.05682245 -0.021396302 -0.11744887 -0.24849898
000100 41 59 d3 3d 46 be b3 bd 34 4f 94 3e 2d 80 ad bd
       0.10319758 -0.08776526 0.28966677 -0.08471713
000110 56 f5 1a be 10 2c 08 bb e1 0d 97 be fe b9 44 bd
       -0.1513265 -0.0020778216 -0.29502776 -0.04802894
000120 29 8b df bd c2 9e 0e be e2 e9 e6 3d a7 ba 62 bd
       -0.109152146 -0.13927749 0.11275078 -0.055353787
000130 b9 66 01 be 6a fa 14 3e 79 94 be 3d 75 04 22 be
       -0.12636842 0.1454865 0.09305663 -0.15822013
000140 e7 65 7f 3e 05 ac 2a 3e 49 43 25 3e b9 c8 19 be
       0.24941216 0.16667183 0.16138949 -0.15017976
000150 fa 25 27 3e 0f 55 13 3e b0 40 4b bd 18 4d 54 3b
       0.1632308 0.14387916 -0.049622238 0.0032394584
000160 0a be b9 3d a6 02 33 bc a6 89 fc bc e3 a8 62 bd
       0.0906945 -0.010925924 -0.030827355 -0.055336844
000170 35 9f 61 bd 26 27 8b be 4a 9b 2b 3c e3 c1 5d bd
       -0.055083472 -0.27178305 0.0104740355 -0.054139983
000180 02 47 69 3e b1 f5 60 bc 56 76 8e bd c5 29 8b be
       0.22780994 -0.013730452 -0.069561645 -0.27180305
000190 2b 7b 27 be 74 7e 8d be 79 39 ce bd 18 59 e2 bd
       -0.16355579 -0.2763554 -0.10069556 -0.110521495
0001a0 bc a2 de 3e de 24 be bd 07 02 4c 3e eb 8b 4f 3d
       0.4348353 -0.092843756 0.19922648 0.050670546
0001b0 3c cb 56 3d f0 68 47 3e 59 77 3c bb ad 8b 14 3d
       0.052439913 0.19473624 -0.002875766 0.036266018
0001c0 be e5 9f be 69 e2 11 be 5c 9c 1a be c2 04 12 bc
       -0.31229967 -0.14246525 -0.15098709 -0.008912267
0001d0 91 59 a9 3d 6a 8a b0 bd 7a 2a 74 be ab 43 a2 be
       0.082690366 -0.086201504 -0.23844329 -0.31692252
0001e0 01 99 13 3e 82 18 90 be d7 f1 0a be 98 8d 53 be
       0.14413835 -0.28143698 -0.13568817 -0.20659482
0001f0 d3 2a 1f be 65 e6 37 be 4a e3 1b be 58 38 b6 be
       -0.1554368 -0.17958982 -0.15223423 -0.35589862
000200 37 f0 81 be ca 56 3d bd 52 86 f4 bd c0 32 33 3e
       -0.25378582 -0.046225347 -0.11939682 0.17499828
000210 dd 5e bf bd d6 fc 90 be c1 33 a0 3b 7a 5e 21 be
       -0.093442656 -0.283179 0.004888982 -0.15758696
000220 f3 3d 85 bd 42 59 0f 3e d9 27 fe bd 7c 09 d9 bb
       -0.065059565 0.13998893 -0.12409944 -0.006623445
000230 7f 43 a9 bd 3e 7d f5 3c ba b6 0a bd 56 1a d0 3d
       -0.08264827 0.029966947 -0.033865668 0.10161273
000240 7f c6 c9 3d 3e 78 72 3d 82 f8 c0 3e be 3a ba bd
       0.09852313 0.059196703 0.37689596 -0.090932354
000250 74 d9 c0 bd a9 76 d8 bc 99 2b 47 bd 24 ef 1f 3e
       -0.09416476 -0.02642377 -0.048625562 0.15618569
000260 73 99 38 bd ce f1 c1 3d 22 1f 56 bd de 4f c2 3d
       -0.045068216 0.09469949 -0.052275784 0.0948789
000270 a1 ee 06 be 29 85 6c bd 56 5c 60 3d a7 dc 7f 3e
       -0.13176967 -0.05774418 0.05477556 0.24986516
000280 fe 91 5f be be f0 8f bc a6 dd 8b bc 96 db 40 be
       -0.21833035 -0.01757085 -0.017073464 -0.18833765
000290 b5 9a 0a bc 20 1f 0c bc 3d 2b e9 bc 41 4b 20 3d
       -0.008459737 -0.008552343 -0.028463 0.039134268
0002a0 f6 a7 0f bd 5b 71 ae be ee 9b 4d be 26 96 83 be
       -0.03507229 -0.34070858 -0.20079014 -0.25700492
0002b0 18 57 67 be 14 26 31 bd 48 e0 e0 3d e3 85 1f be
       -0.22591817 -0.043249205 0.10980278 -0.15578417
0002c0 a2 8b 33 bd 17 b3 42 be e6 4d 39 be 33 5b ae 3d
       -0.043834336 -0.1901363 -0.18096122 0.085134886
0002d0 c9 2a 1c be 4f 3b ce bd d0 a7 14 bd c5 c3 8d 3e
       -0.15250696 -0.10069906 -0.03629285 0.27688423
0002e0 47 5a 2d be e7 af 99 bd 0d 3f f5 bd b3 ce 08 be
       -0.1692897 -0.07504254 -0.119749166 -0.133601
0002f0 65 65 1e 3e cc 33 b9 bd cf cf 2e bd c1 de c9 bc
       0.15468366 -0.090430826 -0.04267865 -0.02464235
000300 b4 cd c3 bb b9 8f 9a bd b9 dd 86 bd ed 1f f2 3b
       -0.0059754495 -0.07546944 -0.06585259 0.0073890598
000310 37 63 2a be 38 8d 7b bd 42 b8 e5 bc ca 88 d7 bd
       -0.1663941 -0.061413974 -0.028041963 -0.10524137
000320 02 08 1b 3b 8b 75 df bc 93 08 56 be e3 2b 2f 3d
       0.0023655896 -0.027277729 -0.20901708 0.042766463
000330 68 32 14 be 8f 9e f6 3c bc 18 23 bc 27 26 a5 bd
       -0.14472353 0.030104904 -0.009954628 -0.080639176
000340 b9 ca 2b be bb 13 c2 3d ac 08 0c be af ba a3 bd
       -0.16776551 0.094764195 -0.13675183 -0.079945914
000350 5a 0c 04 bc 1a 28 87 3c e9 41 77 3d c9 97 4b 3e
       -0.0080595855 0.016498614 0.06036559 0.1988212
000360 45 61 b5 bd 24 2d 0f bc 8c 18 73 be c5 c0 9f bd
       -0.08856443 -0.00873879 -0.23739833 -0.0780044
000370 d1 ec 34 3d f6 eb 18 bd ef e4 7c be a0 5a 1b 3e
       0.04417116 -0.037334405 -0.24696706 0.1517129
000380 4e 80 1c be 30 31 b8 bd 6f 13 a1 3c b9 3c fb bd
       -0.1528332 -0.08993757 0.019662587 -0.12267441
000390 a0 da 71 3e df 00 2b 3e 87 7a 13 be 8e 39 1b 3e
       0.23618555 0.16699551 -0.14402209 0.15158674
0003a0 f8 f2 37 bd d8 b4 01 bd 8b 5b 06 3e 8f e3 b3 3e
       -0.044909447 -0.031666607 0.13120858 0.3513455
0003b0 c3 08 27 bd 3f f9 5b 3e 24 43 1b 3e 53 f0 4e be
       -0.04077984 0.21481799 0.15162331 -0.20208864
0003c0 bc 0e 99 bb f8 b0 99 be 0f e7 b1 3d 52 c3 a2 be
       -0.004670946 -0.3001783 0.08686649 -0.31789643
0003d0 7e 41 99 bd c4 50 14 bd e2 87 ce 3c 40 55 1f 3e
       -0.07483195 -0.036209837 0.025211278 0.15559864
0003e0 dd ca a4 bc 6b e6 85 bd 0c 70 81 be ee ee c7 bd
       -0.020116264 -0.06538089 -0.25280797 -0.09762369
0003f0 17 98 78 3c 5d a0 17 bd 69 4c 54 be 5e 41 41 bd
       0.01517298 -0.03701817 -0.20732273 -0.04718148

actor.4.weight f4 [8, 256]
000000 1f 0e f5 bc 1b a8 c7 bd 18 55 87 3e 58 79 e4 be
       -0.02991396 -0.097488604 0.2643211 -0.44623828
000010 79 7e b4 be fc 37 2c 3f ee 20 60 bd 7e 71 e1 3e
       -0.3525274 0.67272925 -0.054718904 0.440319
000020 fb cd 8e be 0a ee f5 be 7d c4 01 be 6e 23 8c bd
       -0.27891526 -0.48033172 -0.1267261 -0.06842695
000030 61 88 99 3f a4 93 ab bd 2d a6 87 3e a2 71 e8 be
       1.1994745 -0.083777696 0.2649397 -0.45399195
000040 f4 03 46 bd 3e 81 aa be 65 cf 2d 3e 86 e1 bd 3c
       -0.048343614 -0.3330173 0.16973646 0.023178827
000050 21 69 d7 3e b7 31 db be 19 17 0b 3d 52 f4 c7 3e
       0.42072394 -0.42811367 0.033957575 0.3905359
000060 c5 22 89 be 4b 08 df 3e ec 04 46 3f ac 97 b3 bf
       -0.2678434 0.43561015 0.7735126 -1.4030662
000070 ba 78 88 3f 9f 90 6a bf 3d d5 cb 3e 5b 59 f5 be
       1.0661843 -0.91626924 0.39811125 -0.47919735
000080 84 c1 6a 3f 95 3b 10 3c 8d f7 ee 3e 54 9e 28 3f
       0.9170153 0.008803268 0.4667324 0.6586659
000090 34 bf 28 be 43 86 ed 3e 76 e5 7c bb 9f f1 11 bd
       -0.16479188 0.46391496 -0.0038588918 -0.03563082
0000a0 78 2d 24 3f 20 b6 37 be 05 a0 52 3e 28 a8 ff bd
       0.6413188 -0.17940569 0.20568855 -0.12483245
0000b0 e5 03 07 3d 88 58 83 be a5 5c ee 3d 5e 79 58 3d
       0.0329627 -0.2565348 0.11638764 0.05285012
0000c0 c8 8b 65 be 51 ab 8e 3e b4 e2 9d be 31 26 89 3e
       -0.22416604 0.2786508 -0.30837023 0.2678695
0000d0 cb c5 7f 3f b2 85 a2 3f 0f 1c d5 3e c4 0b b5 bd
       0.99911183 1.269705 0.4162297 -0.08840135
0000e0 9d 22 e5 bb 6e dd b3 3e 0f 70 44 bf 13 de 81 3e
       -0.0069926516 0.35129875 -0.7673349 0.25364742
0000f0 dc 68 75 3a 0a 97 4e bf 52 21 08 3e 83 8e 80 be
       0.00093616336 -0.8069922 0.1329396 -0.25108728
000100 d8 7f e3 3e 4a c7 8b be d3 71 61 3e f0 d7 cb be
       0.44433475 -0.27300483 0.22016077 -0.39813185
000110 1b a6 49 be 4a 75 f6 3e 3e 3a a2 3d d5 de 1c 3f
       -0.1969227 0.4813636 0.07921265 0.61277515
000120 ca 6f 48 3d 00 65 fc be 33 a7 88 3e 1f 10 e7 bd
       0.048934735 -0.49295807 0.26690063 -0.11282372
000130 17 a3 ae 3e 4f f6 0d bf cd 3f 62 bd ca e0 3f 3e
       0.34108803 -0.5545396 -0.055236626 0.18738094
000140 22 b9 13 bf 07 65 1a 3f bd a5 9c 3d 75 c2 4f 3f
       -0.57704365 0.60310405 0.076487996 0.8115609
000150 35 52 93 3e 16 1e dc 3d 6d 3e c2 bf ee 35 85 3e
       0.28773656 0.10747926 -1.5175301 0.26017708
000160 c9 2b 5b 3f d1 97 0b 3f b7 98 97 3e 97 a2 93 3d
       0.85613686 0.5452853 0.296087 0.07208746
000170 5b 16 a4 bf a4 af ff 3b 35 87 d1 3d 39 4a 96 bd
       -1.2819322 0.0078029204 0.10230867 -0.073383756
000180 80 84 30 3f 2d 3c 5b bf 40 10 b1 3d 4e 7f 0b 3e
       0.6895218 -0.85638696 0.086456776 0.13622782
000190 84 dd 8e 3d bf d9 99 3f 04 6c a1 bf 12 bd 88 bb
       0.069758445 1.2019576 -1.2611089 -0.0041729296
0001a0 49 25 91 3e 9a 48 80 3d db a1 fd 3e a1 3b a8 3f
       0.2834876 0.06263848 0.49537548 1.3143197
0001b0 7b 0d 7c bf 2d 83 02 3e 3b b3 83 3e eb fb 01 3d
       -0.9845807 0.12745352 0.2572268 0.03173439
0001c0 f6 f6 ae be d2 d4 6f 3e a7 ba 8b bc 47 53 ee 3d
       -0.3417279 0.23421028 -0.017056776 0.11636978
0001d0 0d a6 c1 be d2 ac 01 bf 74 b3 79 3f f2 fb c9 be
       -0.37822 -0.5065433 0.9753945 -0.39450032
0001e0 88 70 39 3d 03 f8 9f bf ff 18 9a be 4c cf b9 3d
       0.045273334 -1.2497562 -0.30097196 0.09072742
0001f0 6f 8b 33 be aa cd 62 be bb e8 80 bd 4b 90 ac be
       -0.17533658 -0.22148767 -0.0629439 -0.33703837
000200 5c d3 ad bd 8b da be bf 85 eb 33 3e 70 88 8f 3e
       -0.08487579 -1.4910444 0.17570312 0.2803378
000210 85 de ea 3d 99 14 bb be 41 09 bb bd d6 c5 9a bd
       0.114682235 -0.36539152 -0.091326244 -0.075572655
000220 2b 2f c1 3e 3b 80 58 3d 6f 68 83 bf 3a ea 36 bd
       0.377313 0.052856665 -1.0266246 -0.04465697
000230 ca dd 74 bc fb 1c c5 be 9c 82 1b 3e 48 30 be 3e
       -0.014945457 -0.38498673 0.15186542 0.3714621
000240 ee b5 23 3f ec 16 97 be 58 65 04 bf 0f f4 3e 3d
       0.6394948 -0.29509676 -0.5171714 0.04661947
000250 03 f2 b1 be 55 80 8d 3e 14 d5 44 bf b7 c8 26 3e
       -0.34754953 0.27636972 -0.7688763 0.16287504
000260 7c 44 d8 bd 49 37 83 be 10 99 17 bf 2b cb cb 3e
       -0.10559937 -0.25628117 -0.5921793 0.39803442
000270 5b 20 84 be 70 e3 2d 3f 7b 7b 28 bf 35 c8 13 bf
       -0.25805935 0.6792517 -0.65813416 -0.57727367
000280 4a b6 47 bc 65 40 7a 3f d8 04 e7 bd 78 31 81 bf
       -0.012189457 0.9775451 -0.11280221 -1.0093222
000290 a6 79 ec 3e 8e 20 91 3f 15 8d 44 3e 0c cc a4 be
       0.4618656 1.133806 0.19194444 -0.32186925
0002a0 93 44 1d bf af 5d de bc 2d e9 75 3f a8 36 dd be
       -0.6143276 -0.027144281 0.96058923 -0.43205762
0002b0 29 b3 66 3f e8 b8 86 3f 4d 01 d4 3e 43 54 89 3e
       0.90117127 1.0525179 0.41407242 0.268221
0002c0 50 68 9b 3f 99 4f d6 3e a7 7b 49 3f e2 b1 9d be
       1.2141209 0.41857603 0.78704304 -0.30799776
0002d0 07 30 5c bf fd f0 11 3e e4 ca 16 bd 74 5e f4 be
       -0.86010784 0.14252086 -0.036814585 -0.47728312
0002e0 ce 79 7d 3d 0b cd e0 3e f9 9b 59 3f ff c2 02 3f
       0.06188374 0.43906435 0.8500362 0.5107879
0002f0 d1 5d 98 3e f3 5c 0a 3f c8 5b 8a 3f 5d aa 1f bf
       0.29759076 0.5404808 1.080926 -0.6236933
000300 30 f4 d1 be a0 42 af 3e ea 58 20 3f 3a c5 19 3f
       -0.41006613 0.34230518 0.6263567 0.6006657
000310 fc eb 1a bf b1 52 e2 bd 82 b3 e3 bd d4 25 1f 3e
       -0.60516334 -0.110509284 -0.11118223 0.15541774
000320 3a be 10 3e 5e 49 76 3f c7 5d ab bd 4f 40 7c 3c
       0.14135066 0.962057 -0.08367496 0.015396192
000330 f4 1a 12 3e b7 28 8c be a5 5b cd be 7b 8f 58 be
       0.14268094 -0.27374813 -0.40108982 -0.21148483
000340 66 de 06 bf 93 e6 e9 3d 02 08 46 3f ad d7 32 bf
       -0.52683103 0.11420932 0.7735597 -0.69860345
000350 52 c4 ab be 6c 0f 0c 3f d0 1f 16 3c 52 4f 23 3e
       -0.33548218 0.5471103 0.009162858 0.15948227
000360 06 c4 b7 3d bf 0a da bd d2 d9 9a 3e 49 35 06 bf
       0.089729354 -0.10646581 0.3024431 -0.52425057
000370 74 15 04 bf b2 74 d1 bd db 8e 8b 3e 4e cc d1 bd
       -0.51595235 -0.10227336 0.27257428 -0.10244046
000380 e8 9b 9a be 6c a6 53 3d bb 04 1e be e3 b5 96 bf
       -0.30197072 0.051672384 -0.15431492 -1.1774257
000390 f6 60 aa be 78 19 ae 3d e4 cb c4 3e e2 ab ad be
       -0.332771 0.085009515 0.38436806 -0.339202
0003a0 13 03 0c 3e b1 b7 24 be d6 aa 02 3f 76 3f 44 be
       0.13673048 -0.16085698 0.51041925 -0.19164833
0003b0 51 1a 3b bc 9d ff 66 bd db 3a 92 be 10 6e 09 bf
       -0.011419849 -0.056396116 -0.28560528 -0.5368357
0003c0 be 8b 05 3e 26 7f 01 bf 1b f7 2f 3e 1a 2e ea 3e
       0.13041589 -0.5058464 0.17184107 0.45738298
0003d0 e0 40 4a bf 11 ab a0 be bf 85 a2 be 5f 02 c6 3d
       -0.7900524 -0.31380513 -0.31742665 0.09668421
0003e0 42 22 39 3f 5d 1d 80 be 0c 15 20 be 0e 9b d7 bf
       0.723179 -0.25022402 -0.15633029 -1.6844194
0003f0 68 48 3f be 66 c6 4d be 6a 93 a5 3e 18 7c 27 3d
       -0.18679965 -0.20095214 0.3233903 0.04088983

actor.4.bias f4 [8]
000000 31 93 79 3d 2d 56 1e bc 94 27 de bd 9d 19 46 3d
       0.06093139 -0.009664101 -0.10847393 0.04836427
000010 ae fd 74 c0 16 90 64 c0 04 c0 59 c0 b7 e0 71 c0
       -3.8279834 -3.5712943 -3.4023447 -3.7793405

q1.0.weight f4 [256, 28]
000000 8f 9d 5e 3d 1e 37 91 bf b9 db 64 bf 0d 7d 7b 3f
       0.05434948 -1.1344945 -0.8939777 0.9823769
000010 e4 40 b1 3e 7c 2e 18 3e b5 21 df bd 6b 3f 4e bd
       0.3461982 0.14861482 -0.10895101 -0.05035345
000020 97 24 d3 bd a5 a3 00 3f 4d b7 5b be d3 41 3b 3e
       -0.10309713 0.502497 -0.21456642 0.18286829
000030 86 c7 c1 3e 37 6c 6d bd 1a 47 93 3e f1 0b c1 3d
       0.37847537 -0.05796453 0.28765184 0.09426106
000040 43 a0 c4 bd 47 7f 52 be aa 54 38 be 04 b8 90 bd
       -0.0960088 -0.20556365 -0.18001047 -0.07066348
000050 d0 ac cd bd 82 bc 1d be 1b 60 c0 bc 63 af 50 be
       -0.10042727 -0.15403941 -0.023483327 -0.20379405
000060 df 43 e0 3e 25 97 0b bd d0 50 85 bd 8f 65 25 be
       0.43801782 -0.03407969 -0.065095544 -0.16152023
000070 0e 08 3a 3e d4 b9 23 3e a4 03 c5 be 02 d2 33 be
       0.18167135 0.15988857 -0.3847934 -0.1756058
000080 15 7f 0c bd 57 07 ad 3c 42 74 5a 3e 21 62 15 3e
       -0.034300882 0.021121664 0.21333411 0.14588214
000090 38 fd b4 bd 15 9c d8 3d 54 85 d6 bc b6 4c 5d 3e
       -0.0883736 0.10576645 -0.026186623 0.21611294
0000a0 7a 3b 0e 3d b1 d1 a2 be 4c bd ed be df 4a e1 be
       0.03472469 -0.31800607 -0.46433485 -0.44002435
0000b0 0d e7 eb be 07 37 9f be b1 51 fb be eb 5c d2 be
       -0.46074715 -0.3109667 -0.49085763 -0.41086516
0000c0 38 00 ad be e9 29 e6 be e2 92 78 be 8f 4a 84 be
       -0.3378923 -0.4495385 -0.24274781 -0.25838134
0000d0 2d 8f 25 be 9c 38 f3 3e a7 a8 60 be 2e c0 a0 bc
       -0.16167898 0.47504127 -0.21939336 -0.019622888
0000e0 ab 30 a4 be cb 02 8c bf 2e a7 d3 3e df 0d a4 3f
       -0.3206838 -1.0938352 0.41338485 1.2816733
0000f0 7b 23 8e bb 9f 82 82 3d 40 fb ef be 62 3f b1 bc
       -0.0043377257 0.0637257 -0.46871376 -0.021636669
000100 57 0c 72 3e 97 fb 62 bc cb 83 8c bd aa 94 8f bc
       0.2363752 -0.013853929 -0.06861075 -0.017526943
000110 6c e9 f2 bd 22 14 ec be 71 ed 97 be 4a eb 29 be
       -0.11860928 -0.4610911 -0.2967334 -0.16593662
000120 aa 72 97 bb 55 ff 88 3e f0 c1 a8 3e 94 41 cf 3e
       -0.0046218233 0.26757303 0.32960463 0.4047972
000130 9c 7e 8b 3c ec 91 ce bc d6 af 38 be 25 08 ee bd
       0.017028145 -0.025216065 -0.18035826 -0.11622647
000140 9e de 8b bd c8 37 9b 3c fb f3 24 be eb e0 18 bc
       -0.0682957 0.018947497 -0.16108696 -0.009330968
000150 0c f7 e9 3e 2b dc 4e bd 2b 63 10 3e 32 dd 86 be
       0.45696294 -0.050502937 0.1410033 -0.26340634
000160 ba bf 21 3e bf e8 6e bd 3f e6 e9 bd 40 9a a3 bd
       0.15795794 -0.058327433 -0.11420869 -0.07988405
000170 f9 98 5d bd 80 ba 3d 3d e7 a4 a8 3c 7e 24 3f bd
       -0.054100964 0.04632044 0.020586444 -0.04666566
000180 01 79 9f 3d ca f1 02 3e 45 c5 0c 3d 04 ba ed 3d
       0.077867515 0.12787548 0.03436782 0.11607745
000190 4d 4b 0f be ad 1a 0c be 2d 98 c4 bc b0 ed e8 3d
       -0.13993569 -0.13682051 -0.023998344 0.1137346
0001a0 8c 43 9e 3e 20 30 df 3d a8 d3 0b be c2 b2 b7 3c
       0.3091091 0.10897851 -0.13654959 0.022424106
0001b0 db 61 29 be 52 bf 40 bd 5a e7 49 be bd 05 13 3e
       -0.16541235 -0.047057457 -0.1971716 0.14357658
0001c0 66 b8 41 3e a5 ae 07 3e 66 98 61 be b4 0f ad be
       0.18917999 0.13250215 -0.22030792 -0.33801043
0001d0 ef 54 f5 bd ba 6a 29 bd 92 01 11 3e 23 74 47 3e
       -0.119790904 -0.041361548 0.14160755 0.19477896
0001e0 32 67 ab bd 0b dd 4c 3d 1a 8a 60 bd 96 1a 86 3d
       -0.08369292 0.05001549 -0.054819204 0.065480396
0001f0 74 82 f7 bd 52 45 ad be 3d a2 03 bf 96 42 8b be
       -0.12085429 -0.3384195 -0.5141943 -0.2719924
000200 1f 41 e9 be 94 ca 04 bf 96 bd de be e8 08 f2 be
       -0.45557496 -0.5187161 -0.43504018 -0.4727242
000210 09 5a 04 bf 59 41 cc be ad 10 af be 80 c3 ae be
       -0.5169988 -0.39893606 -0.3419241 -0.3413353
000220 98 5e 0f be 09 eb 0d 3f de bc 26 3b 2b 57 7d 3e
       -0.14000928 0.5543676 0.0025442163 0.24740283
000230 52 30 79 3c 15 03 a2 bd ff d0 32 3f d5 55 12 3d
       0.015209274 -0.07910744 0.6985015 0.035726387
000240 40 13 88 be 09 ec 67 be c4 ff 2f be f6 ce 22 be
       -0.26577187 -0.22648634 -0.1718741 -0.15899262
000250 34 2b 2a 3e 4b 16 20 3f f0 bd 63 bc 34 55 94 3e
       0.16618043 0.62534016 -0.013900265 0.28971255
000260 e8 2a 99 3c 0f b7 f7 3d 71 30 c0 3c 8c 58 c8 3c
       0.018697217 0.120954625 0.023460599 0.024456285
000270 6f f1 77 3e 73 5e 34 3e 75 41 51 3d 10 29 ae 3d
       0.24213193 0.17614155 0.051087815 0.08503926
000280 48 0c ca bd d7 74 36 3d 3f 7d 2f be 33 a9 07 bd
       -0.09865624 0.04454502 -0.17137621 -0.033120345
000290 fd ab bb 3d b1 de d1 3c 28 94 87 3c b6 1f 71 bd
       0.091636635 0.025618883 0.016550139 -0.058868133
0002a0 c0 56 2e 3f 4b 86 c6 3f 87 8c 90 3d 8d 54 4a be
       0.6810112 1.5509733 0.070580535 -0.19758816
0002b0 f8 02 36 3f 84 8f d5 3d b4 f1 c7 3e 7c ed 04 3d
       0.7109828 0.10427764 0.39051592 0.032453045
0002c0 90 5a 2c 3d dd 13 20 be 0f 79 21 3e fc 3e 9a bc
       0.042078555 -0.15632577 0.15768836 -0.018828861
0002d0 0e d9 59 3d 2f 2b ff bc 9c f6 7c bc c6 ad a6 bb
       0.053185515 -0.031148521 -0.015439656 -0.0050866334
0002e0 5f c1 a2 3d a9 be 47 3e 17 c5 4b 3e 31 9f f6 3d
       0.07947039 0.19506325 0.19899403 0.12042082
0002f0 9b af 67 bd bb fc 16 3d 79 e6 f0 bd 3a 01 f6 bd
       -0.056563955 0.036862116 -0.11762709 -0.12011953
000300 47 3d e5 3c c7 62 8d 3c dc 23 ef 3b 1e 34 68 39
       0.02798332 0.017259015 0.007297976 0.0002214466
000310 88 c2 63 bf e7 f1 cf bf 96 9a 1a 3f 2b a0 d1 bf
       -0.88968706 -1.6245698 0.6039213 -1.6377004
000320 cb 76 ea bd 32 77 83 be a3 d4 3f be 16 71 d1 bd
       -0.11448439 -0.25676876 -0.18733458 -0.102266476
000330 51 74 f2 bd 1f b2 83 bd 55 87 81 bd 67 26 19 bf
       -0.11838592 -0.06430458 -0.06324641 -0.5982422
000340 ad 27 9d 3d d3 88 63 3d cf 7c 08 be c2 3c 95 3d
       0.07673583 0.055550408 -0.1332886 0.07286979
000350 80 9e 05 be 7c cd 1e 3e aa 71 8b 3d 3f 2f c8 bd
       -0.13048744 0.15508074 0.06808789 -0.097746365
000360 49 54 b3 bb 63 29 0a 3d a0 6b 18 3e 21 af b7 bd
       -0.005472694 0.033730876 0.14884806 -0.0896895
000370 7b ad 3f bc ed f9 1b be 37 9d f6 3d 89 04 8e bd
       -0.011699076 -0.15232058 0.12041705 -0.06934459
000380 2b b4 a0 be 2c 4e 23 3f b3 ed 4c 3d d6 05 32 be
       -0.31387457 0.63791156 0.050031375 -0.17385039
000390 10 42 db be 48 1c 6a bd 74 d4 a6 be aa 83 e4 3d
       -0.4282384 -0.057155877 -0.32583964 0.111579254
0003a0 a2 12 b2 3e b1 a5 38 3d 61 f7 db 3d f1 ba 3d bd
       0.3477984 0.04507989 0.10740543 -0.04632086
0003b0 45 8f 99 3e 92 ca ef be 28 94 b7 bc 66 ad 43 bd
       0.29992118 -0.46834236 -0.022409514 -0.047772788
0003c0 52 f6 82 bd 43 7a 85 bd 7a 94 40 bd 7f 74 54 3d
       -0.06394638 -0.0651746 -0.0470166 0.05186891
0003d0 a1 85 d4 bc fb 07 1b be 7a 6d 3a bd 12 fa 1b 3e
       -0.025942625 -0.15139763 -0.04551456 0.15232113
0003e0 46 7d 8b 3d cd 73 35 3e d6 5c 83 3e fe 8d 94 3d
       0.068110034 0.17719956 0.25656766 0.07253645
0003f0 43 04 cd 3e a1 0e 2d 3f a9 cd 0c bf 72 41 65 bf
       0.40042314 0.67600447 -0.5500131 -0.89552987

q1.0.bias f4 [256]
000000 41 ff f0 bc 13 0d ad bd dd 37 a3 3d ba 4c 2d be
       -0.02941859 -0.08449759 0.079696395 -0.169238
000010 b0 77 ae bd 03 b2 e2 bc 2c be 2d be 01 e9 4d be
       -0.08518922 -0.027672773 -0.16967076 -0.20108415
000020 c8 37 e5 3d 00 48 95 3e 3f e0 00 3d a1 7d 24 3e
       0.1119228 0.29156494 0.031463858 0.16063549
000030 37 a5 5f 3e 96 4e 79 3e 57 6d 96 bd 69 a1 5b be
       0.21840368 0.24346384 -0.07345074 -0.21448292
000040 5e 36 96 bc 03 c1 76 3d 98 b2 e7 bd f3 6c 5a bd
       -0.018336471 0.060242664 -0.11313361 -0.05332656
000050 23 23 86 3d 9e 59 d9 bd 0d 95 ce bd 5a ba 00 3e
       0.065496705 -0.10612796 -0.10087023 0.12571087
000060 70 e4 39 be 2e dd 89 3e ef 8a 2b 3e ba 94 00 be
       -0.18153548 0.2692656 0.16752218 -0.12556735
000070 20 63 85 3e 71 5e 59 3d a8 16 ff 3c 02 12 3c 3e
       0.2605219 0.053068582 0.031138733 0.18366244
000080 09 a7 2a 3e 72 02 0a bf 3b 3e b3 3d 92 4a 8e be
       0.16665281 -0.5390998 0.08752104 -0.27791268
000090 cd f6 e0 3d 82 63 71 3e 79 c4 94 be 6b bb 4e 3e
       0.109845735 0.23573115 -0.29056147 0.20188682
0000a0 bf c3 37 be 0f b4 55 3d 47 c1 97 be e7 2f 8e 3d
       -0.17945765 0.05217367 -0.29639646 0.069427304
0000b0 0e 4e ea 3d 6b b2 8c 3d 13 6a b7 3c 8f 96 4c 3d
       0.11440669 0.06869968 0.022389447 0.04994827
0000c0 d1 f2 a7 be 23 b9 98 bd d0 ef 98 3e 00 5e aa 3c
       -0.32802442 -0.07457187 0.29870462 0.020796776
0000d0 0f c7 2e be 36 24 87 3e 35 e3 49 3e 66 9b ab 3d
       -0.17068122 0.26394814 0.19715579 0.08379249
0000e0 62 f7 4f bc db e6 cf 3e a9 07 db 3c f5 21 a0 3d
       -0.012693258 0.40605816 0.026737051 0.07818977
0000f0 35 52 30 be f4 90 41 be 14 4f 5c be e1 97 01 bf
       -0.1721886 -0.18902951 -0.21514541 -0.50622374
000100 9d 2e e5 bc 76 aa 59 be fd 1b 5e 3e 00 ba 1f be
       -0.027976329 -0.21256432 0.21690364 -0.15598297
000110 fc 87 4a be 2f 89 a3 be f4 f7 87 3e 4d 04 ec bd
       -0.19778436 -0.319406 0.2655636 -0.11524258
000120 a0 aa cf 3d a3 0b 7c 3e 41 cb d2 3d c9 32 4e 3e
       0.10139966 0.24613814 0.10292674 0.2013656
000130 12 bc b3 3d 9e e8 a6 be c7 06 97 bd 2a 02 bb bc
       0.08776106 -0.32599348 -0.073743396 -0.02282818
000140 3b 7c 0b be 2e 6d ed 3d 14 48 c9 bd 8d 11 95 3e
       -0.13621609 0.1159309 -0.09828201 0.29114953
000150 3f 41 8d be 95 f8 b5 3d 8d c1 11 3e 38 5c cb bd
       -0.2758884 0.08885304 0.1423399 -0.09929699
000160 9d e9 26 3e 55 aa 6f 3e 05 2b 60 bd 8d 4e a9 bd
       0.16300054 0.2340482 -0.054728527 -0.082669355
000170 f6 ab aa 3c 7b 41 55 be 52 47 54 bb 61 af 70 3e
       0.02083395 -0.2082576 -0.0032391143 0.23504402
000180 50 5a 81 3e e7 75 1f 3e f4 60 1b bd 7d 13 af 3e
       0.25264215 0.1557232 -0.03793426 0.34194556
000190 14 e9 17 3d 43 33 ad 3e 05 10 16 bd 09 c7 91 3d
       0.037087515 0.33828172 -0.03663637 0.07118041
0001a0 92 f1 22 3e ba d4 ff 3c 07 23 50 be 83 52 18 3c
       0.15912464 0.031229366 -0.20325862 0.009297016
0001b0 83 54 9e 3d 5e 90 8d be b2 d4 dd bd 23 3e b7 3c
       0.07730963 -0.27649206 -0.10831584 0.022368496
0001c0 47 df b5 be 31 95 a3 be 3c bb 35 3c 28 19 19 3e
       -0.3552191 -0.31949762 0.011092003 0.14951003
0001d0 f9 0b 41 bd 63 28 ba 3c 22 40 fd 3d ab 5b 28 be
       -0.04713056 0.022724336 0.12365748 -0.16441219
0001e0 d8 7b 24 bd f9 6c 17 3e 14 60 05 be 90 09 a1 3e
       -0.04015717 0.14787664 -0.13024932 0.31452608
0001f0 e8 fa 1a be e0 2b 5d bd c8 4c ca bc 27 e2 00 3e
       -0.15134776 -0.05399692 -0.024694815 0.1258627
000200 2c 70 0a 3d 86 27 07 be 5e 84 70 be 67 d7 6b 3d
       0.03379838 -0.1319867 -0.23487994 0.05757847
000210 e1 1f 6a be 4b b8 82 3e 45 7e 85 3e ae 2c 91 be
       -0.22863723 0.2553123 0.26072899 -0.283544
000220 b5 6e 05 be 99 e2 85 bc 9f f6 ef bc 31 b9 44 3e
       -0.13030513 -0.016343402 -0.029292403 0.1921127
000230 d4 12 3a bd 1f 28 6a be 64 54 31 3e 59 cb 21 be
       -0.045428112 -0.22866867 0.17317349 -0.15800227
000240 56 9b 0d bf fb 5d 36 bd 4a 1f 8c 3e a1 6f 88 be
       -0.5531515 -0.04452322 0.27367622 -0.26647666
000250 33 78 db bd ad 71 4d 3e 5c 53 ad 3c a4 2d ca be
       -0.107162856 0.20062895 0.021157913 -0.39487946
000260 af 62 d4 3d 7a 74 a4 3d 01 31 05 bd ff 91 03 3e
       0.10370385 0.08030029 -0.032517437 0.12848662
000270 a9 8a 18 be 7d 65 0d bd c2 d5 8b 3e c2 59 ac 3e
       -0.14896645 -0.034520615 0.27311522 0.3366223
000280 f3 1f 2f 3e 93 d1 57 3d 62 ed f5 3c fb 79 0f 3e
       0.17102031 0.0526901 0.03002042 0.14011376
000290 36 84 0d be db 1d 58 3d 3f 24 28 3e 85 df 77 bd
       -0.13819966 0.052762847 0.16420077 -0.0605159
0002a0 93 40 85 bd 19 62 ba bd b6 83 44 3e 31 b0 11 3d
       -0.06506457 -0.09100742 0.19190869 0.03556842
0002b0 1f f5 65 be ff d4 86 3e da d4 b5 bd 00 10 92 3e
       -0.22456788 0.26334378 -0.08878489 0.28527832
0002c0 f4 fc b0 bd 85 72 11 be 8b 45 58 be 62 01 81 be
       -0.08641997 -0.14203842 -0.21120279 -0.25196368
0002d0 b4 37 ca 3e 52 07 6f be ae 87 75 be 11 24 69 3e
       0.39495623 -0.23342636 -0.23977539 0.22767664
0002e0 65 9b b6 bd 43 5d 98 be a4 85 a8 bd 9c 6f 1a 3c
       -0.08916358 -0.29758653 -0.08228615 0.009426024
0002f0 bc bf 2e 3e d6 96 f3 3d 1f 20 22 3c 87 4a be bd
       0.17065328 0.11894004 0.009895354 -0.09291559
000300 7f 5b 83 be e9 dc d5 3d 42 53 81 3e 85 67 be 3b
       -0.25655743 0.10442526 0.25258833 0.0058106803
000310 b5 d7 4b be 9f 1f d3 3d af 8e c3 3d 72 1d 5d 3d
       -0.19906504 0.103087656 0.09548699 0.05398316
000320 5d ae 65 be 97 23 ba bd e5 87 9d be f2 33 8c be
       -0.22429796 -0.090888195 -0.30767742 -0.2738338
000330 f0 bd 15 be b1 f0 16 be 5a 26 0f 3e f4 87 d0 bd
       -0.14623237 -0.14740254 0.13979474 -0.10182181
000340 ed f9 35 be 1a 88 17 bc 04 fe a6 3d 6a 1c 24 3e
       -0.1777112 -0.009248758 0.081539184 0.16026464
000350 b7 f0 50 3d 9d 3b 2d 3e 2a b1 a0 3d 54 9c 8d 3e
       0.051010814 0.16917272 0.07846291 0.2765833
000360 3a 51 9e 3d 88 a5 1b be c5 19 65 be 5b 7b b1 3d
       0.077303365 -0.15199864 -0.22373112 0.08666106
000370 24 92 5b be e0 c0 5f 3d 6b 5e 1e 3d a5 a2 a7 3e
       -0.21442467 0.0546273 0.038664263 0.32741275
000380 59 89 88 bd 1f 53 e2 3d b0 a0 4b 3e a2 02 4f 3e
       -0.06666822 0.1105101 0.19885516 0.20215848
000390 2f c6 e2 bd e8 0f e6 3e c8 cf 1a 3e bd 4f 3e 3c
       -0.11072957 0.4493401 0.15118325 0.011615691
0003a0 ba ae d9 3e 03 06 33 3e 9a a7 9b 3e e9 c7 e9 3d
       0.42516118 0.17482762 0.30401307 0.11415083
0003b0 c3 51 3e 3e 00 4c 01 bb 78 1e 18 be 53 1b 14 bd
       0.18585877 -0.0019729137 -0.14855373 -0.03615887
0003c0 91 fe ac 3c ac 85 0c be a7 f4 4d be 64 63 ba bd
       0.02111748 -0.13722867 -0.20112859 -0.091009885
0003d0 ab fe da bd 8f a1 2a 3e 54 d2 57 3d b6 34 b7 be
       -0.10693105 0.16663192 0.05269082 -0.35782403
0003e0 1c ec d0 bd 13 b0 7f be 8c 0a a2 3c dc 00 ad bd
       -0.10201284 -0.2496951 0.01978042 -0.084474295
0003f0 bf 4c 1c 3e c5 1d 72 bd c5 a5 01 be d9 2c c1 3e
       0.15263651 -0.05911042 -0.12660892 0.3772953
