TD3/checkpoints/Pendulum-v1/01_last_checkpoint.pth (torch, 856402 bytes, 60 tensors)

actor.0.weight f4 [128, 3]
000000 2e 55 9e be f7 f9 95 3e d3 c9 a4 3e 12 d0 07 bf
       -0.30924362 0.2929227 0.3218523 -0.53051865
000010 2a d3 95 3f ab 33 df 3d 85 0a 9f bf 67 7f ff 3e
       1.1705067 0.10898527 -1.2425085 0.49901888
000020 37 25 4e 3d d6 e2 ab be ae b0 57 3f 75 16 48 3e
       0.05032846 -0.335715 0.84253967 0.19539817
000030 e5 55 b9 3e f4 58 74 bf 33 ed 31 bd 4b 5f 8a 3e
       0.36198345 -0.9544823 -0.0434391 0.27025828
000040 9e 91 68 3f dc 4f ba 3e 51 cc fe be 53 c3 1e 3e
       0.90847194 0.36389053 -0.49765256 0.15504198
000050 ec d5 f9 3c 36 54 77 3e 17 25 33 bf 86 b1 02 bd
       0.030497514 0.24153218 -0.6997847 -0.03190758
000060 e3 fc a1 bd 45 c6 d9 3e 8b 26 85 3e f5 7c 9d 3e
       -0.079095624 0.4253408 0.26005968 0.30759397
000070 4f dc 7b bf 39 f6 9b be da 68 37 be 7a ca 1d 3f
       -0.9838304 -0.3046129 -0.17911091 0.6163708
000080 97 8d 0c 3e 37 32 84 3e 53 59 b4 be 5d a0 0f 3f
       0.13725887 0.2581956 -0.352244 0.5610407
000090 7a d5 65 be a9 b7 12 3f b4 c8 03 3e ed b3 ac be
       -0.22444716 0.57311493 0.12869531 -0.33731022
0000a0 d7 d7 30 bf cd f6 ef bc 17 06 b7 3d 4f 7f c0 bf
       -0.69079345 -0.029292488 0.089367084 -1.5038851
0000b0 a1 73 23 be d5 21 81 3e 9a 19 89 3f 20 35 7b 3e
       -0.15962078 0.25221124 1.0710938 0.24531984
0000c0 1d ef 93 bf ef 08 4f be 3a fb 49 3e 95 c7 08 3e
       -1.1557347 -0.20218252 0.19724742 0.13357385
0000d0 47 b3 82 3f 79 e8 2f 3e 13 8e 22 3e 64 ac 85 bf
       1.0210961 0.17178525 0.1587451 -1.0443234
0000e0 dd 6a 57 be 29 c8 a2 bf 2a e9 73 bd ec 2f 5c bb
       -0.21036859 -1.2717334 -0.059548534 -0.00335979
0000f0 b3 a7 a3 3e 46 5c 8b 3f 6f d3 d4 3d 7f 2d c0 bf
       0.31963882 1.0887535 0.1039189 -1.5013884
000100 a9 12 b9 3d 49 91 22 be df 14 39 3e 9d 32 6c bf
       0.09036762 -0.15875734 0.18074368 -0.9226473
000110 80 98 ee 3d 47 a2 1a bd 16 43 f2 3c 7c 3c 07 3a
       0.11650181 -0.037752416 0.029573005 0.0005158854
000120 15 37 3a be 4b 60 8f bf df 6f 37 bd 57 02 45 bd
       -0.18185075 -1.1201261 -0.044784423 -0.048097935
000130 d6 85 73 3f 82 84 ee 3e 5c 8f 5b 3e 74 b8 37 bf
       0.9512609 0.4658547 0.21441406 -0.7176583
000140 9e 2d 9f be 03 4f 75 bf 86 31 15 3f 83 1d 02 3e
       -0.3108949 -0.9582369 0.5827869 0.1270657
000150 7b 36 a0 3e 3b 2c 87 bf a2 68 a5 be 35 8d 5b 3e
       0.31291565 -1.0560373 -0.3230639 0.21440585
000160 49 ff 69 bf ca 77 c6 be 23 e0 56 3e 45 6e 3d bf
       -0.9140516 -0.38763267 0.20983939 -0.7399638
000170 17 b0 9a be ce 8b 83 be 09 da 95 3f 1c 4d 57 3c
       -0.3021247 -0.256926 1.1707164 0.013140943
000180 e4 4c 9e be 89 c0 9b 3d f8 d6 54 3e 43 40 76 3e
       -0.30918038 0.076050825 0.20785129 0.24047951
000190 bd aa 06 bf 5f b2 8a 3e c7 4c ba bd 8f a8 9d 3f
       -0.52604276 0.2708921 -0.09096675 1.2317065
0001a0 78 ec 9b 3e 93 72 c6 3e 72 b2 22 3f 12 7e 22 be
       0.3045385 0.38759288 0.63553536 -0.15868405
0001b0 fc 57 f9 3d cb dc 7c bf d2 db 48 be 3c f1 78 be
       0.12174985 -0.98774403 -0.19615105 -0.24310774
0001c0 1c 09 be bd af f6 71 3a e5 07 83 3d c1 e8 e0 bd
       -0.09279081 0.0009230179 0.0639799 -0.10981894
0001d0 79 27 99 be ba c3 44 3e 4a f9 7b bf 3b a5 db be
       -0.29912928 0.19215289 -0.9842726 -0.42899498
0001e0 79 86 00 3f bd ae 70 3e 66 3a 82 be 1c 27 1b bf
       0.5020519 0.23504157 -0.2543518 -0.6060655
0001f0 97 25 ce 3e e7 18 cd 3d da 01 35 3f 4a f0 d8 3e
       0.40263054 0.10014515 0.7070595 0.42370826
000200 83 75 8b 3e 68 19 7a be 83 72 b6 be 2f 9e ac b9
       0.27238092 -0.24423754 -0.3563424 -0.00032924252
000210 52 3a 0c 3e d9 23 54 bf 6a e2 c1 be e6 65 0a be
       0.13694122 -0.828672 -0.37868053 -0.13515434
000220 9b 06 4d 3f 11 4a b4 3e 67 00 a9 be 98 51 48 3f
       0.80088204 0.35212758 -0.3300812 0.782495
000230 30 f8 17 3e a8 cf d0 be be de 63 3f 52 d7 54 3e
       0.1484077 -0.4078343 0.8901175 0.20785263
000240 7f 86 16 bf 7c b2 4f bf 9a 90 f1 bd 40 df a1 be
       -0.58798975 -0.8113172 -0.11795159 -0.3161564
000250 85 9c 84 bf 54 d3 1d be ef ef be be b4 4f 5b bf
       -1.0360266 -0.15412647 -0.3729243 -0.8566849
000260 de 7f 16 be 27 25 0d be 7c 3c 31 3f 34 cc 85 3d
       -0.14697215 -0.13783704 0.69232917 0.06533089
000270 2f 12 4d 3d 24 e2 55 bf 79 65 a7 3d ff c4 2b be
       0.05006617 -0.8354819 0.08173651 -0.16774367
000280 6c fc 7e 3f 31 2c 83 3e 23 73 ef bd e0 63 4f 3e
       0.99603915 0.25619653 -0.116918825 0.20252943
000290 36 30 92 bd b4 bd 0f 3f 0f 4b dd 3e f6 99 73 3e
       -0.07138102 0.5614884 0.43221328 0.237892
0002a0 92 a4 aa bf 1a fb 97 bd 9a 23 19 be 93 f2 43 3e
       -1.3331473 -0.07420941 -0.14954987 0.19135503
0002b0 5c 08 e7 bc bd 8c b4 be 8f 1a 85 bf 50 a9 33 be
       -0.028202228 -0.35263625 -1.039873 -0.17545056
0002c0 19 c5 49 3e 09 9e 06 3e d8 28 87 bf 50 fa 85 be
       0.19704093 0.13146223 -1.055934 -0.26167536
0002d0 0b 00 1b bd 16 1a 68 3f a2 5d d9 3e 8b 20 82 3e
       -0.037841838 0.90664804 0.4245425 0.25415453
0002e0 7f 27 42 be 53 d8 73 be 09 80 23 be 49 81 36 3f
       -0.18960379 -0.2381299 -0.1596681 0.71291023
0002f0 5a 83 92 3e 22 72 45 be 5b 63 ed 3e 09 1f cb be
       0.28615838 -0.1928182 0.46364865 -0.39672115
000300 cb e3 b5 3e 6e 23 0e 3f 49 0e 85 3e 8b 90 db be
       0.35525355 0.5552281 0.2598746 -0.42883715
000310 6c 50 6e 3f 91 38 3f 3e f0 fc 09 3f 88 e9 2c 3f
       0.93091464 0.18673922 0.53901577 0.6754384
000320 c2 2a 81 3e 5f 03 93 3e 2e 3d 85 3f 2b 1b 99 3e
       0.25227934 0.2871351 1.0409296 0.2990354
000330 72 18 b2 3e 81 2c b6 3f 49 be ab 3e c3 ab ae 3e
       0.34784275 1.4232332 0.33543614 0.3411542
000340 87 cf 82 3f b8 37 b6 3e da 41 0f be 93 cf bf 3e
       1.0219582 0.35589385 -0.13989964 0.37463054
000350 94 a5 01 3f a3 a7 b5 3d fa 93 05 3f 3a 2c 0a bf
       0.5064328 0.08869865 0.5217892 -0.53973734
000360 66 bd 88 be 4b 1c 80 bf 8f c3 5e be dc 76 1c bf
       -0.26707 -1.0008634 -0.21754287 -0.61118865
000370 fb c2 22 bf 73 fa 73 bd 9c 94 71 be 17 83 3d 3f
       -0.63578767 -0.05956502 -0.23591846 0.7402815
000380 86 cd 2f 3e 48 1e 52 3e 3e ce 84 bf 31 a3 bf be
       0.17168245 0.20519364 -1.037544 -0.37429193
000390 7e cc 23 3e 67 f1 ad 3f b6 6e 85 3e 36 fb bc bd
       0.15995976 1.3589295 0.26061028 -0.09227602
0003a0 73 f8 e0 3e 11 8a ba 3e fe db 98 be 0a 47 8c bf
       0.43939552 0.3643346 -0.2985534 -1.0959179
0003b0 26 01 91 be d1 a9 2d be a9 2e 6b bf 2d cd bc bd
       -0.2832119 -0.16959311 -0.9186807 -0.09218822
0003c0 3e 8e 82 be f6 5f 99 bf 86 51 ce bd e0 2f ac be
       -0.25499147 -1.198241 -0.10074143 -0.33630276
0003d0 28 0c 32 bf a6 e0 da 3d b9 33 6e 3e 10 0f 4c bf
       -0.695498 0.106873795 0.23261918 -0.79710484
0003e0 62 fb b5 3d 71 a6 db be 81 ac 63 3c 13 12 94 3e
       0.08885838 -0.42900422 0.013896109 0.2892004
0003f0 33 f5 47 be 68 dd c4 3e d6 c4 73 3d a1 f4 be be
       -0.1952713 0.3845017 0.05951389 -0.37296012

actor.0.bias f4 [128]
000000 c9 53 19 bd 0f 25 e7 bd ae 70 d3 3e bd 38 40 be
       -0.03743342 -0.11286365 0.41296905 -0.18771644
000010 30 d5 43 be 56 05 5c be e8 dd bf be 1f 31 99 be
       -0.19124293 -0.2148641 -0.3747399 -0.2992029
000020 39 d5 ad 3d 8b d0 91 be 41 40 24 be 69 c4 11 be
       0.084879346 -0.28479418 -0.16040136 -0.14235081
000030 e0 25 51 be 11 0e ae 3d 97 65 d9 bd 8b e7 49 be
       -0.20424604 0.08498777 -0.1061508 -0.19717233
000040 a8 5f 9d 3e 25 20 c5 be 3d af de bb 86 ed 80 3e
       0.30737042 -0.38501087 -0.0067957924 0.25181216
000050 7b 6c 54 be c9 4d ae 3c 55 36 de be 70 fe 85 bd
       -0.20744507 0.021277325 -0.43400827 -0.06542671
000060 32 33 c5 3d ea e5 52 3d b6 a8 b6 be 2a 23 e4 3c
       0.09628905 0.051488794 -0.3567559 0.027848799
000070 48 ee 6d be 04 e0 cd be 1f 74 a1 be e3 eb 96 bc
       -0.23235428 -0.40209973 -0.31533906 -0.018423026
000080 22 cf 60 3d fd 97 16 be 52 3c b8 bd 7b 8b aa be
       0.054885037 -0.14706416 -0.0899588 -0.3330954
000090 f8 c2 34 bc 41 3c 95 be ee 86 f3 be 1b 3e ce be
       -0.011032812 -0.29147533 -0.4756388 -0.40281758
0000a0 03 fb 1b bf 36 97 a2 be 95 2d f1 be 3c 33 07 bf
       -0.6092989 -0.3175599 -0.4710509 -0.5281255
0000b0 15 e3 c6 be 7f f7 ec 3b ae 1d ae bd df 1e 09 be
       -0.38845125 0.0072316523 -0.08501755 -0.13390683
0000c0 ea af 5e be c8 41 bd bd ef bb da bd 24 63 5e bd
       -0.21746793 -0.092410624 -0.10680377 -0.054293767
0000d0 fc a2 9d be ef a4 a6 bd e6 df 26 bd c9 05 b7 be
       -0.3078841 -0.08136927 -0.04074087 -0.357466
0000e0 70 cf 9f 3d 6b 6a 00 bf 21 a8 9d 3e 86 27 40 bd
       0.078032374 -0.5016238 0.30792335 -0.046912692
0000f0 c5 0f 4e 3d b7 0c 06 bf 3b 90 7b 3d 8f e2 ae be
       0.050308008 -0.5236315 0.061416846 -0.34157225
000100 bd b1 88 be fa 35 c7 bd 82 10 26 be 1f 2d 64 be
       -0.26698104 -0.09727092 -0.16217235 -0.22282837
000110 7c 6b 9f be d7 46 98 be e8 19 36 3e 82 b6 cf bd
       -0.31136692 -0.29741547 0.1778332 -0.101422325
000120 c7 0f 21 be 72 43 8d be 4f cb 24 be 0b 3a fd bd
       -0.15728675 -0.2759052 -0.16093181 -0.123645864
000130 60 93 dc be 9d 56 cb 3d 25 c4 34 be 10 f1 70 3d
       -0.43081188 0.099286295 -0.17652948 0.058823645
000140 31 e5 ab 3d 0a bc fc be a6 cd 18 be eb 82 46 ba
       0.08393324 -0.49362212 -0.14922199 -0.0007572609
000150 35 9f 63 be bd b9 55 3c ec f1 25 be a8 62 70 be
       -0.22228701 0.013044772 -0.16205567 -0.23475134
000160 26 ad 75 bd 3c b4 9b bd 02 2d 17 3b 93 77 f4 be
       -0.05997958 -0.07602736 0.0023067598 -0.47747478
000170 59 69 f8 3d 9b 39 b3 be c0 64 0b be 74 41 08 bd
       0.121294685 -0.35004887 -0.13612652 -0.033265546
000180 0f b4 fa bd 2e 31 79 be 2d e4 7e 3c 6d 4c df be
       -0.12241375 -0.24335167 0.015557331 -0.43612996
000190 fa a9 2d be 45 4f 2e 3d fd 50 d9 bd 9f 71 26 bf
       -0.16959372 0.042556066 -0.106111504 -0.6501712
0001a0 68 27 95 be 86 ca 60 bd 1b 2c 6e be cb 64 b8 be
       -0.29131627 -0.05488064 -0.23259012 -0.360144
0001b0 ef 8b 1a bd 60 3a 43 bc c4 44 ed bd 49 c5 05 be
       -0.037731107 -0.011915773 -0.115853816 -0.1306354
0001c0 26 b8 f4 bd 19 20 2b be 39 02 39 be 0d 5f e7 be
       -0.11949186 -0.16711463 -0.18067254 -0.45189705
0001d0 13 da 8b be d1 44 eb be 4b 60 bf bd f1 90 b6 be
       -0.27314815 -0.4595094 -0.09344538 -0.35657457
0001e0 77 e1 27 be 0b 7e cf bd dc ab b8 bd 79 b7 66 bd
       -0.16394602 -0.10131463 -0.090171546 -0.056327317
0001f0 95 67 15 bf 1f 55 5e be d9 b8 a5 be af 46 2b be
       -0.5836118 -0.21712159 -0.3236759 -0.16726182

actor.2.weight f4 [128, 128]
000000 2c c6 1a 3e 92 a0 0a be 6b 7a 9d bf a2 cc 48 bd
       0.15114659 -0.13537815 -1.2302984 -0.049023278
000010 70 c4 6d be 27 69 61 3e ed a0 a7 3d 3d 7e 39 3e
       -0.23219466 0.22012769 0.08184991 0.18114562
000020 82 c3 8b 3e 9e f2 97 be 04 5f fe bc 6c e6 82 3e
       0.27297598 -0.2967729 -0.031051166 0.25566423
000030 e6 a1 d2 bd 55 47 41 be 2b 8b 0f bf ba 5f 0b 3f
       -0.10284786 -0.18874867 -0.5607173 0.5444294
000040 12 69 ec be 44 c1 29 3f a6 13 37 bf a0 30 a3 bf
       -0.46173912 0.66310525 -0.71514356 -1.2749214
000050 21 20 b0 3e 20 41 03 c0 f6 8b bb 3e 8a 86 f4 3c
       0.34399512 -2.05085 0.3663022 0.02984931
000060 ea 7d 5a bf 44 6f 49 3e ae da 54 bf 9c cd 4b bf
       -0.8534838 0.1967135 -0.8314618 -0.7961061
000070 44 e3 61 bf 34 9b b0 bf e6 02 7b be e9 f6 cf be
       -0.88237405 -1.3797364 -0.24512824 -0.40618065
000080 77 96 0c bd 82 89 37 3e 85 bf 5c 3e 72 9f 15 3f
       -0.034323182 0.17923549 0.21557434 0.5844642
000090 dc ea 04 bf 6b 90 1c be 84 64 67 be 81 81 39 be
       -0.51920867 -0.15289466 -0.22596937 -0.18115808
0000a0 88 0c 2b bd da df 9f be c5 d4 01 3f 74 c1 9e 3c
       -0.041759998 -0.31225473 0.50715286 0.019379355
0000b0 82 9a de be 0d ed ed 3d ef e6 9d bd 5d b6 1e bf
       -0.43477255 0.116174795 -0.07710063 -0.61997014
0000c0 1a d5 7a bf 0c 3b b5 be 5f 1b e1 be 8e 4e 0a 3f
       -0.9798142 -0.35396612 -0.43966195 0.54026115
0000d0 34 8c 3a 3e 5a a8 b4 3e 64 42 6a 3d 98 e0 b7 3e
       0.18217546 0.35284692 0.05719222 0.3591354
0000e0 68 66 fb bf d8 1c 4b be 34 eb cb be 7c 30 d9 be
       -1.9640627 -0.19835222 -0.39827883 -0.42419803
0000f0 5c 0e 68 3e 9b 72 ce be dd 65 19 38 d2 c1 9d bd
       0.22661728 -0.40321812 3.657291e-05 -0.07702984
000100 31 0f a3 3e cc 55 3f 3e 5c b3 ae 3e 27 b9 55 3e
       0.31847528 0.18685073 0.34121215 0.20871411
000110 68 ee 2b 3f 4a 57 83 3e 38 b7 a4 3e a1 f5 24 3e
       0.67160654 0.25652534 0.32171035 0.16109325
000120 cc 4a 8d bf a3 52 00 be 04 fb 52 3e 85 97 76 bf
       -1.1038451 -0.12531523 0.20603567 -0.9632495
000130 8a 9b eb 3e 29 34 9c 3e 2d a0 23 bf 44 f8 f3 be
       0.46017104 0.30508545 -0.63916284 -0.4765035
000140 bb 1e 98 be 56 32 bd bb 8a 72 a6 3d ab 48 da bd
       -0.29710945 -0.005773823 0.08127315 -0.106583916
000150 f0 91 69 3d 40 b4 90 bd e0 e2 9a 3e 15 c8 87 3e
       0.057023942 -0.0706563 0.30251217 0.26519838
000160 89 fa 3c 3e 76 26 6d 3e f0 fc d0 be 93 1c 00 bc
       0.18454947 0.23159203 -0.40817976 -0.007819313
000170 58 93 8b be ae e0 7b 3f 8f 66 43 bf 8d 52 c4 be
       -0.27260852 0.9838971 -0.76328367 -0.3834423
000180 39 e1 a8 be 8b 9d b6 3e 64 64 df bf a2 9d 3a be
       -0.3298433 0.3566707 -1.7452512 -0.18224195
000190 dc 4c 05 3e d4 c8 64 bf 92 03 50 3e 6a ea 6b 3b
       0.13017601 -0.8936894 0.20313862 0.0035997876
0001a0 14 ca 48 3b 3e 42 09 3e ec cb a4 be e7 50 e3 3d
       0.0030638026 0.13404176 -0.3218683 0.11099415
0001b0 e0 f5 33 3e 8c a8 74 3e d6 f1 00 3e d5 60 bb bd
       0.17574263 0.2389242 0.12592253 -0.091493286
0001c0 3d 23 f8 bd c2 4d 46 bf 4c 65 b6 3e 62 26 6a 3d
       -0.12116096 -0.774624 0.35624158 0.05716551
0001d0 70 7f 40 be 1b b3 90 be 6a c4 e1 be 6b 59 66 3c
       -0.18798614 -0.28261647 -0.44095165 0.014059405
0001e0 2f 50 fc bd 11 ae f6 be 36 7e ab be 4e 1f 68 3e
       -0.12319981 -0.48179677 -0.3349473 0.22668192
0001f0 7e 06 7a 3d fe da d0 3d 8b c7 f5 be 99 cd b4 be
       0.061041348 0.101980194 -0.48003802 -0.3531311
000200 84 63 3b bf 25 dc 80 3e ad 4c 29 bd 11 37 d4 3e
       -0.73198724 0.25167957 -0.04133289 0.41448262
000210 31 2e 90 bf 6c 5b 05 bf 36 2a da 3e 3b 47 8a be
       -1.1264096 -0.52092624 0.4261033 -0.2700747
000220 af 0f fa be 9c 73 16 bf 52 19 03 3e da 5c 2f bf
       -0.4884009 -0.58770156 0.12802628 -0.68501055
000230 b6 6a 02 3f b4 fd 06 be 33 ed 0c bf cf e8 b0 3b
       0.5094408 -0.13182718 -0.5504944 0.0053988467
000240 b5 00 00 3f 00 08 ed bd 3f ce 65 bf b4 ec f5 be
       0.5000108 -0.115737915 -0.8976783 -0.48032153
000250 08 17 58 3e 01 21 a0 be cf e1 fc 3d ba d5 1b 3e
       0.21102536 -0.3127518 0.12347757 0.15218249
000260 a7 44 3a 3c 51 6d cf bd ff 12 90 be 5b 38 14 3f
       0.011368907 -0.10128272 -0.28139493 0.5789849
000270 a5 03 13 bf 36 31 01 bf 6a 54 0a bd 37 60 81 3e
       -0.57427436 -0.50465715 -0.03377191 0.2526872
000280 60 fe b5 3e 25 d7 c6 be 4e 84 ca 3d 44 e3 76 3e
       0.35545635 -0.38836017 0.09888516 0.24110132
000290 2b 46 74 bf a4 b8 ea be 87 cd 00 bc 3f 48 cb be
       -0.9541957 -0.45843995 -0.007861502 -0.39703557
0002a0 e1 c0 59 3e 6b 3b be 3e 0b a3 01 bf b1 70 f6 bc
       0.21264984 0.37154707 -0.5063941 -0.030083032
0002b0 03 c0 e2 be aa 2b d5 3b c2 14 06 3e c2 52 bf 3e
       -0.44287118 0.0065054493 0.13093856 0.37367827
0002c0 8c 89 80 3c cc fe 50 3d e9 ca bf 3c 61 51 2d 3e
       0.015690587 0.051024243 0.023412185 0.16925575
0002d0 b3 0b 05 be aa 45 e1 3d fb e9 be bc bf 7e b8 bf
       -0.12992744 0.109996155 -0.02330493 -1.441368
0002e0 5d 19 31 bf 79 04 eb 3d df 4e 7a 3e b1 9a 96 bf
       -0.69179326 0.114754625 0.2444415 -1.1765958
0002f0 b3 11 f8 be bd 71 81 3e 27 4a 88 3e 73 46 b9 3d
       -0.48451003 0.25282088 0.26619074 0.0904664
000300 8e 4e c1 be dc 6a 6c 3e 3f 43 1b bf 8d 90 b0 bd
       -0.37755245 0.23087639 -0.60649484 -0.08621321
000310 4c 5d 04 be a4 0a c9 be f3 0f 0b bf d7 d7 17 3e
       -0.12926215 -0.3926593 -0.5432121 0.1482843
000320 00 ea b6 3d ea 08 cc bd bd 89 52 3e 7d 49 f6 be
       0.08931351 -0.09962638 0.20560355 -0.48102942
000330 42 db 38 be 9c 2c 1c bf f6 f3 2d bf cd 8a ed bd
       -0.1805239 -0.6100557 -0.6795038 -0.1159874
000340 88 85 77 be 3c 70 41 be f1 90 86 be 16 45 b5 3e
       -0.24172032 -0.1889047 -0.26282457 0.3540427
000350 a1 c4 2c 3e 38 de 64 3e df 56 12 bf 16 e0 94 be
       0.16871883 0.22350395 -0.57163805 -0.29077214
000360 1f 40 99 bd 74 61 de be ee 55 88 3e ec 80 87 be
       -0.07482933 -0.43433726 0.2662806 -0.26465547
000370 79 26 60 3d 35 09 66 3d 00 2e aa be 58 cc 56 bf
       0.05472419 0.056161124 -0.3323822 -0.83905554
000380 c9 18 8d bd ac b3 2c bf 5e 64 4b bf ab 01 ac 3d
       -0.06889493 -0.6746166 -0.79450023 0.08398756
000390 00 21 8b be 0a 37 9e bf 37 d0 b1 bf 53 03 45 3e
       -0.27173615 -1.2360547 -1.3891667 0.1923955
0003a0 97 59 64 3e d0 1e 41 3e 45 23 e3 be 99 99 4e be
       0.22299801 0.1885941 -0.44362846 -0.2017578
0003b0 9c 06 e9 bf d0 3f d4 be f6 74 97 bf c5 78 97 bd
       -1.8205142 -0.41454935 -1.1832569 -0.07396082
0003c0 20 73 6a 3e 28 5e e3 be 34 2d 87 3e 3d a2 ce 3e
       0.22895479 -0.44407773 0.26401675 0.40358153
0003d0 b6 05 b3 3e 65 c8 04 3e 93 13 63 bf 71 a7 80 3e
       0.34965295 0.1296707 -0.8870174 0.25127748
0003e0 53 90 b6 3d 08 12 e5 be 0f d9 df be cd b6 45 bf
       0.089142464 -0.4474032 -0.4372029 -0.77232057
0003f0 53 c6 3a be 7a 33 e7 3d 35 91 6b 3c d9 24 ac 3d
       -0.18239717 0.11289115 0.014377882 0.08405466

actor.2.bias f4 [128]
000000 0d 13 fa bd 9a de b8 bd 96 96 e6 bc 53 5d ba be
       -0.12210665 -0.09026833 -0.028147977 -0.36399326
000010 28 ea 4b bd 49 99 9b bc 30 c3 8f 3e aa 5d 6e bd
       -0.049783856 -0.01899399 0.28078604 -0.058194794
000020 93 ae 90 bd e7 b4 e7 bc e0 6b db bd 3a e3 d3 3d
       -0.070645474 -0.028284503 -0.10713935 0.103460744
000030 be 0a 8d 3c 96 38 6a be 95 57 02 3e e7 62 8c 3e
       0.017217036 -0.22873148 0.12728722 0.27419207
000040 33 ca ed bd d4 d4 63 3e 50 f4 97 3e 81 8d b4 3e
       -0.11610832 0.22249156 0.29678583 0.3526421
000050 1b 44 19 be 47 36 de bc f0 7a 65 bd f9 d3 b7 bc
       -0.14967386 -0.02712549 -0.056025445 -0.022439944
000060 7d 60 95 3c c8 a8 89 3e 98 ea 91 3c 30 c1 4d bc
       0.018234486 0.26886582 0.017812058 -0.0125582665
000070 fa 38 b4 bd 43 6d 9f 3e 8b fe 98 3d 8d 3d bc bc
       -0.0879993 0.31138048 0.07470425 -0.022978568
000080 aa e1 36 be 4a d2 5c 3e cd 6e b5 bc ad e0 fa bc
       -0.17859522 0.21564594 -0.02214756 -0.030624712
000090 66 79 ab bd 52 a6 bc 3c 33 3f 66 be 68 17 75 3c
       -0.08372764 0.023028526 -0.22485046 0.014959194
0000a0 a3 49 0f 3e 9f eb 3e bd 97 e6 1d 3d 70 b0 89 3d
       0.13992934 -0.046611425 0.038549986 0.06723106
0000b0 2f 67 91 3d 34 df da bd 04 0e b9 3d 6f 27 88 3d
       0.07099759 -0.10687104 0.090358764 0.06648146
0000c0 ef ba d6 bc d6 3d 64 bd 52 f5 f5 3d 87 78 60 bc
       -0.026212184 -0.055723034 0.12009682 -0.013700611
0000d0 a4 d0 ea bc 34 84 57 3d e0 96 14 be 28 74 8a bc
       -0.02866394 0.052616313 -0.14510679 -0.01690109
0000e0 73 6b e2 bc 41 02 20 bd f9 42 6c 3d fc 82 19 3e
       -0.027639126 -0.03906465 0.057681058 0.14991373
0000f0 25 ed 8e bb c6 06 9a 3c 46 91 f6 bc cf 66 f6 bc
       -0.004361766 0.018802058 -0.030098569 -0.03007832
000100 14 75 9d bd 55 fa 0e 3e ae 2c 58 3e b6 5f 2a be
       -0.076883465 0.13962682 0.21110794 -0.16638073
000110 06 3a ea 3c e9 a4 5a bc 2d 95 72 bd ed d0 37 bd
       0.02859212 -0.013344982 -0.059224296 -0.04487698
000120 e1 46 c0 bd b8 1c 64 3d f3 ee 7d 3c 8b a3 f7 bc
       -0.09388519 0.05569145 0.015498864 -0.03022935
000130 83 0b 58 3d bb 03 21 3e 7a f0 c8 bc ec 54 4c be
       0.052745353 0.1572408 -0.02452873 -0.1995427
000140 b7 ff 65 3d 89 38 c0 3d b3 7d c4 3c 85 27 79 ba
       0.05615207 0.09385783 0.02398572 -0.0009504485
000150 0d 42 3c bd 69 6e 10 3e 77 7e b2 bc 5d e3 a0 bc
       -0.04596143 0.14104618 -0.021788819 -0.019639665
000160 45 3f 1a 3e 21 11 92 bd 24 49 b8 bc 2a 72 e7 bd
       0.15063198 -0.07132173 -0.022495814 -0.11301072
000170 7d 47 b5 be 58 6f 79 bd 4b 39 d0 bd 8a a7 a9 bc
       -0.35406104 -0.0608972 -0.10167178 -0.020709772
000180 e6 ff ad 3c a8 03 86 bd a2 26 44 bd 59 2a 85 3d
       0.021240186 -0.06543666 -0.047888406 0.06502218
000190 34 c7 e6 bc c1 7a 12 3d 5d 9a d0 be 5c 9e 81 3d
       -0.02817116 0.0357616 -0.4074277 0.06329033
0001a0 68 02 02 be 79 1d d2 bc 5c f3 47 bd 6e 19 b7 3d
       -0.1269623 -0.02564882 -0.04881607 0.08940397
0001b0 17 3b 7e bd 14 0d 02 bd 08 cc 95 bc c8 fd b0 bd
       -0.06206807 -0.031750754 -0.018285766 -0.08642155
0001c0 25 1c aa 3e 68 35 b6 bc da a2 47 bd cb 95 01 3d
       0.33224598 -0.022242263 -0.04873929 0.031636994
0001d0 b8 2e 11 bd 40 ed 24 be e5 42 3b 3e 52 84 55 bd
       -0.035444945 -0.16106129 0.18287237 -0.052128144
0001e0 8f f3 c6 bc 6b 7c 4b 3e 6b f9 1f bd f2 f1 26 bd
       -0.02428606 0.1987168 -0.039056223 -0.04075808
0001f0 72 97 4d bd bd 63 48 bd 80 ae 1f be 2f d3 07 bd
       -0.050193258 -0.048923243 -0.1559391 -0.033160385

actor.4.weight f4 [1, 128]
000000 08 c0 97 be b5 6e 1f bf 81 13 2c be 65 fa da bd
       -0.29638696 -0.622783 -0.16804315 -0.1069229
000010 1e 45 59 bd 28 5f ec 3d f9 85 a2 c0 94 bd 77 3d
       -0.05304443 0.11541587 -5.078854 0.06048353
000020 d2 1c fa 3c f3 3c 06 3e 06 3b fb bd 5d 2d 0f 3f
       0.03053132 0.13109188 -0.12267117 0.55928594
000030 d6 a1 b0 bf a9 ee 99 3e 0b 38 41 bf 8a 26 5c 3f
       -1.3799388 0.30064896 -0.7547614 0.85996306
000040 38 c5 2a 3f 0c a4 e9 bf 50 2b 69 3f 38 08 ec 3e
       0.6670718 -1.8253188 0.91081715 0.4610002
000050 39 ad 42 3f b4 14 04 3d 74 05 3d bd 8d 89 41 3e
       0.76045567 0.032246307 -0.04614778 0.18900128
000060 70 27 cd be fe b5 76 3f a0 78 77 c0 c1 a5 85 40
       -0.4006915 0.9637145 -3.8667374 4.1764836
000070 2b e7 5a 3e 8e 4a 6f bf f2 0f 55 be 48 2f f6 3d
       0.21377246 -0.93473136 -0.20806864 0.12020737
000080 6d 7b 6e be 2d 2a d1 c0 45 3a 27 3d 7e 70 dc 3c
       -0.2328927 -6.5363984 0.040827055 0.02690911
000090 e6 57 36 be d5 33 d8 bf de 06 ac 3e 03 d0 79 bf
       -0.17806968 -1.6890818 0.3359899 -0.97583026
0000a0 0a 19 70 bf bb 8e 46 3f 74 7b 2f be 98 6d 89 be
       -0.93788207 0.7756154 -0.17136937 -0.26841426
0000b0 d9 5f 46 bf a4 ee c8 3b e4 02 5c bf 9f 92 7f c0
       -0.7749 0.006131964 -0.8594191 -3.993324
0000c0 3c 71 36 3e 99 40 c0 bc 50 ae f1 3f e6 4d cf bf
       0.17816633 -0.023468303 1.8881321 -1.6195648
0000d0 bd 6f f6 bd 0d 8b 93 be e3 80 9e 3f fd 9a 21 3b
       -0.12033031 -0.28817025 1.2383083 0.002465903
0000e0 e4 87 62 3c d2 f7 a1 3d ea 20 ce bf 90 9a a2 be
       0.013826344 0.07908596 -1.6103795 -0.31758547
0000f0 99 57 a1 bd fe 08 7f bf 35 b8 a8 3d 3b 5e 0a be
       -0.07878036 -0.99623096 0.0823826 -0.13512509
000100 74 be ad 3a a9 57 e2 3f 36 55 97 be b8 65 ca 3c
       0.0013255612 1.7683002 -0.29557198 0.024706706
000110 e8 e7 28 be 81 6f 8f bd d5 09 5e 3d 2a 10 4e 3d
       -0.16494715 -0.070036896 0.054208595 0.050308384
000120 13 84 12 3e 08 bf d7 bf dc 34 45 40 ac 29 43 3c
       0.14308195 -1.6855173 3.0813513 0.011911791
000130 84 01 85 3f 4a 73 71 bf 3f c7 40 3e 45 b2 1e 3e
       1.0391088 -0.9431654 0.18826006 0.15497692
000140 60 c0 ce bf 9e 52 f1 bf 55 e5 40 3f 85 76 02 be
       -1.6152458 -1.8853338 0.7534993 -0.12740524
000150 cd e7 ac bc 99 07 bf be 38 f9 37 3e a3 b8 3e be
       -0.021106625 -0.37310484 0.17966163 -0.18625121
000160 a9 78 de 3e 06 44 d3 3d af d7 38 3d bc 9c b2 bd
       0.4345143 0.10315709 0.045127567 -0.08721301
000170 3b 0f cc ba 95 c8 84 3d 8a a5 62 3f fc 41 97 3d
       -0.0015568504 0.064835705 0.8853384 0.073856324
000180 ef 81 ad bf a1 a7 8f 3d 32 96 2a 3e bf e3 a8 be
       -1.3555278 0.070143946 0.16658857 -0.32986256
000190 4b 9c b0 3d e6 62 3a bd b5 51 d7 3d 3a 51 80 bf
       0.086235605 -0.045504473 0.10513631 -1.0024788
0001a0 eb bf 8f be dd 33 ab 3c 51 60 e5 3d ff 71 67 bf
       -0.2807611 0.020898754 0.112000115 -0.9040832
0001b0 64 30 53 3f a6 c7 15 bd d5 99 e2 3d 1d 01 9a be
       0.82495713 -0.036567353 0.110644974 -0.30078974
0001c0 62 c2 1c 3f e5 de 46 3e 73 bc db be 36 ae 91 bf
       0.61234105 0.19420965 -0.42917213 -1.138129
0001d0 9f be 49 bc 78 c5 b1 bd 22 1b ec bf c2 9d 04 bb
       -0.012313514 -0.08680242 -1.844578 -0.0020235633
0001e0 bf 3e 3b 3e 3c 7c 9c bf 2f 9e a6 3d 6e a8 95 3a
       0.18285654 -1.2225413 0.0813564 0.0011417994
0001f0 b9 ea 1c 3e 59 bc f3 bb b7 3c 7d 3e 3e 93 32 3e
       0.15323915 -0.0074382243 0.24730192 0.17438981

q1.0.weight f4 [128, 4]
000000 06 32 1f bf 82 b6 a6 bf 5b 0c b0 be 64 0c aa bd
       -0.62185705 -1.3024447 -0.34384426 -0.083031446
000010 ec a0 45 bf ae d1 0d bf 8c 8a 84 be 75 51 63 bd
       -0.7719867 -0.5539807 -0.25886953 -0.055497605
000020 76 78 1c bf c8 a0 be 3e ca 0d 66 3e d9 88 4b 3d
       -0.6112131 0.3723204 0.22466198 0.049691055
000030 2d 72 ab be b7 83 39 bf c4 01 12 be 52 46 98 bd
       -0.33485547 -0.72466606 -0.14258486 -0.074352875
000040 ea 09 92 bf 66 f5 da be 90 43 75 be 2a dd 18 be
       -1.1409276 -0.4276535 -0.23951554 -0.14928117
000050 6f 31 12 bf ac 34 b9 be 73 70 4b be c3 02 f3 bc
       -0.5710668 -0.36172998 -0.19867115 -0.029664403
000060 6e 81 8d be 6b 5d bf bd 70 01 b2 3e b6 ba 14 3e
       -0.2763781 -0.0934399 0.34766722 0.1452435
000070 d0 35 60 be fe 68 ca 3e 1c 0e b4 bc 57 c9 95 bd
       -0.21895528 0.39533228 -0.021979384 -0.07313793
000080 03 18 8f 3c 7c c5 80 bf fc 46 2e bd 73 e3 ad 3d
       0.017467504 -1.0060267 -0.042548165 0.08490648
000090 37 32 52 3f d6 ab 92 3f e8 bd 8f 3e 1e 42 9f 3e
       0.8210787 1.145869 0.28074574 0.3110513
0000a0 47 7b 1b 40 ba b7 0d 3d 27 01 57 3b 5a 65 80 bc
       2.4293993 0.034599043 0.0032807083 -0.015673328
0000b0 1a b7 1e bf 96 2a c4 3e 38 4e 68 3e a3 ef 19 3d
       -0.6199814 0.3831374 0.22686088 0.03758205
0000c0 c5 41 01 bf fd 36 c2 be dd c0 5d 3e 18 81 2f bb
       -0.5049098 -0.37932578 0.21655603 -0.0026779827
0000d0 28 b1 17 bf a4 a7 a7 bf 0f 6b 58 be bf 40 57 bd
       -0.59254694 -1.3098035 -0.2113459 -0.05255198
0000e0 d3 3f ab 3f 96 78 63 3f 8b 8a 09 3f ad 63 54 3d
       1.3378853 0.88855875 0.53727025 0.05185287
0000f0 1e cc bf be ac 25 99 3d 3c e0 9e 3c 09 a4 7a bd
       -0.37460417 0.074778885 0.019394033 -0.061191592
000100 7a c0 cd 3f e7 c1 42 3c 89 10 1b 3e d8 ee 64 3d
       1.6074364 0.01188705 0.15143026 0.05589184
000110 ef ec 7d bf 79 0c f6 be f6 6d ba 3d 29 b4 43 3d
       -0.99189657 -0.4805639 0.09103005 0.047779236
000120 95 ba 17 bd bc 0b 9c bf a5 aa 85 be bf 1f cf bd
       -0.037043173 -1.2191081 -0.26106754 -0.10113477
000130 a7 8b 0f be b1 2e 75 bf a2 93 52 be 83 cd 7c bd
       -0.14018117 -0.9577437 -0.2056413 -0.06171943
000140 0e 83 fe be ae 3b d3 be 6b 7c 49 3e 6d 6a f8 3b
       -0.49709362 -0.4125647 0.19676368 0.0075810463
000150 f5 e6 b1 3f a0 81 4e bf ee ee 6e 3d 39 41 07 3c
       1.3898607 -0.8066654 0.05833333 0.008255296
000160 78 d6 53 bf d8 2a 9c 3e 76 14 73 3e a8 2a e2 bc
       -0.8274913 0.30501437 0.23738274 -0.02760823
000170 f5 f1 6c bf 4d 94 05 bf f2 8b 78 be b1 93 b0 bd
       -0.925567 -0.52179414 -0.24272135 -0.0862192
000180 55 6e 0b bf b4 7f 87 bf c0 fa 39 be 61 35 a9 bd
       -0.5446523 -1.0585847 -0.1816206 -0.08262134
000190 38 fb 84 bf fc af 9d bf 44 49 02 be ad 49 85 bc
       -1.0389166 -1.2319331 -0.12723261 -0.016270483
0001a0 c9 cb 3e bf 96 76 fb 3e ac a7 85 3e 40 19 63 3d
       -0.745297 0.4911391 0.26104486 0.055444002
0001b0 78 00 d1 be 22 b4 6d 3e d1 28 37 3e 9b 90 d4 3d
       -0.4082067 0.23213246 0.17886664 0.10379144
0001c0 4a cb a7 3d e9 94 b4 bf b7 5e 99 be 9e bd 8c 3c
       0.08193071 -1.4107944 -0.29955074 0.01718026
0001d0 88 07 0d be 34 6c 6f bf 67 a0 4a be 6e 09 57 bd
       -0.13772404 -0.9352448 -0.19787751 -0.052499227
0001e0 9d c1 50 bf 40 a9 29 3f 9b 4c 97 3e d6 44 2c 3c
       -0.8154543 0.6627388 0.29550633 0.010514459
0001f0 bb 36 c2 3e 3e c9 38 bf d1 2b 83 bd 4b e5 95 3e
       0.3793238 -0.7218207 -0.06404842 0.292765
000200 42 5c df be 1a 0d 7d 3e 4e 73 ed be fb 38 4f be
       -0.43625075 0.24712029 -0.46377033 -0.2023658
000210 cb 80 59 bf 02 40 c8 3e 3c 66 3c 3e b8 98 b5 3d
       -0.8496215 0.39111334 0.18398374 0.088670194
000220 d1 71 22 bf 56 a9 48 3f a9 7f 80 3e 6f 88 ec 3c
       -0.6345492 0.78383386 0.25097397 0.02887365
000230 41 20 05 bf 0e 80 9d 3e 6f dd 4b 3e d7 63 48 3d
       -0.5200234 0.3076176 0.19908689 0.04892334
000240 41 99 67 3f 91 c6 0e 3f 4e 32 00 3f 47 6c 84 3d
       0.9046822 0.5577174 0.5007676 0.06465965
000250 bd fc eb bd 0e 8b ea be ba 47 fc be 77 1c 34 bd
       -0.115228154 -0.45809215 -0.49273473 -0.04397246
000260 3b 90 32 3e f0 d1 93 3e a6 6b 0d 3f 99 58 5a 3e
       0.17437832 0.28871107 0.55242383 0.2132286
000270 81 ae 4e bf 5f ec c8 3e 06 7e 2c be 0e 3c 7a bd
       -0.8073502 0.39242837 -0.16844949 -0.06109243
000280 88 15 fa bd 0e 56 8b 3f 02 e8 4c 3e e1 8e e5 3d
       -0.12211138 1.0885637 0.20010379 0.112088926
000290 3a ec 17 be 43 34 26 be ea 38 bd 3e 83 f6 01 3e
       -0.14836207 -0.16230874 0.36957484 0.12691693
0002a0 fd 4f 1b 3e 18 5e 32 3f c5 4f fd 3e 67 ff c7 3d
       0.15167232 0.69674826 0.49474922 0.09765511
0002b0 04 ba a2 3e d8 76 3b bf d5 3c 8d 3e c6 74 e5 3c
       0.31782544 -0.73228216 0.27585474 0.028009783
0002c0 46 2a 08 bf 7c ff c0 3f 26 8d b6 3e 6b 8c 29 3d
       -0.53189504 1.5077968 0.35654563 0.04139368
0002d0 39 d1 35 be 7d 7e 27 3e e6 6b 0f be 44 5a 8a 3d
       -0.17755593 0.16356845 -0.14006004 0.06755498
0002e0 c7 5e 59 be 73 5f c6 3d e2 40 ef 3d db ea a1 3d
       -0.21227561 0.09686174 0.11682297 0.07906123
0002f0 a4 2d b8 bd dc 7f cc 3e 49 f3 c1 bc 38 43 b3 bd
       -0.0899308 0.399413 -0.023675578 -0.08753055
000300 49 dc 84 3e bb 03 53 3f f5 23 08 3e 3f 08 c2 be
       0.25949314 0.8242757 0.13294967 -0.37896916
000310 f0 cf 4b 3f 52 c0 b1 3f 02 e6 bc 3e be d1 be 3d
       0.7961416 1.3886817 0.36894232 0.09317349
000320 45 2b 72 3e 12 ae 92 3f 9f 03 d3 3e 9c 49 ba 3d
       0.23649319 1.1459372 0.412137 0.09096071
000330 fd 19 38 bf 3d 88 91 3f cb e4 a6 3e a7 49 39 3d
       -0.71914655 1.1369702 0.3259643 0.045236256
000340 0e 91 15 bf 25 90 1c 3f 69 89 64 3e 90 88 62 3d
       -0.5842446 0.6115745 0.22318043 0.055306017
000350 6f 38 88 bf a3 ed fb 3e 22 47 18 3e f6 a2 00 3e
       -1.0642222 0.4920474 0.14870885 0.12562165
000360 0c 45 99 bd f1 b8 d0 3f c3 91 b2 3b 96 f2 8a bd
       -0.07483873 1.630644 0.005449505 -0.06784551
000370 52 fe f8 be 26 33 66 3e 61 5a 9d be a8 69 79 bc
       -0.4863153 0.22480449 -0.30733016 -0.015222944
000380 42 f7 4a bf 43 68 4f 3f 1a 64 99 3e 43 52 0c 3d
       -0.79283535 0.81018466 0.29959184 0.03425814
000390 b2 93 ae 3e ed a5 bb bf bb 49 78 be b3 f6 26 3d
       0.34097058 -1.4660012 -0.24246876 0.040762614
0003a0 20 e5 69 bf 76 4b 00 3f 6d d3 7c 3e f2 7e d0 3c
       -0.9136524 0.50115144 0.24690028 0.025451157
0003b0 83 c7 a6 3e de c8 a5 3f 18 f5 0f 3e f0 85 3f 3b
       0.3257409 1.2951925 0.1405834 0.002922412
0003c0 e4 4c 7f 3f 39 59 62 bf 30 82 cc be 75 38 71 bd
       0.997267 -0.8841739 -0.39943075 -0.058891732
0003d0 9b 8d f2 bf b7 08 76 3e 1c 21 20 3e 05 fb 85 bd
       -1.8949465 0.24026762 0.1563763 -0.06542019
0003e0 bf 14 4a bf f4 44 26 bf 6e 54 8f be 6c 4a 16 bd
       -0.78937906 -0.64948964 -0.27994102 -0.036692068
0003f0 b7 b6 a2 3f fe bc 69 be 11 f3 21 3f 8e cf f1 3d
       1.271201 -0.22826001 0.63261515 0.11807166

q1.0.bias f4 [128]
000000 61 88 22 3e 56 4f 10 3f bf c1 1c 3f d8 0a ac 3b
       0.15872337 0.5637106 0.61233133 0.005250316
000010 c1 ca 8c 3e c8 6f 00 3f 1b 95 65 bf 82 2e a8 3e
       0.2749844 0.50170565 -0.8968064 0.32847983
000020 6d 37 d2 3e b4 07 d0 be aa 9a 7b 3f da e4 15 3f
       0.41057912 -0.40630877 0.98282874 0.58552325
000030 cf aa 58 bf a5 5c 8a 3d a0 5f 98 bf 2f 7b 33 be
       -0.84635633 0.06755952 -1.1904182 -0.1752746
000040 2c 43 05 3f 02 89 87 3d e2 91 b3 3e b8 a1 c7 3e
       0.5205562 0.06617929 0.35072237 0.3899057
000050 e2 57 ed 3e a5 af f2 bd 2c e7 0e bf 3a 30 d7 3e
       0.46356112 -0.11849908 -0.5582149 0.4202898
000060 9f b2 01 3e 64 a0 90 be 85 78 26 3f 38 23 1a 3f
       0.12665795 -0.28247368 0.6502765 0.6020999
000070 53 21 d8 3e c2 8a c6 3e bf 3d 0f 3f 7d 0f 89 3d
       0.42212924 0.3877774 0.5595359 0.06692407
000080 77 c1 4f bf 6c 6e 7c 3e 46 c6 aa 3e 26 7b 0c 3f
       -0.8115458 0.24651498 0.33354396 0.5487541
000090 fa 63 62 bf b4 fa 0e bf 8c f9 db be 1d 2d 8d 3e
       -0.884338 -0.5585129 -0.42963827 0.2757348
0000a0 67 27 c5 3e 43 af 85 3e 80 90 7d be b5 78 0a 3f
       0.38506624 0.26110277 -0.24762154 0.54090434
0000b0 44 7a 24 bc bc ba 97 3e d2 15 ea 3e fa b3 d6 3e
       -0.010038916 0.29634655 0.45719773 0.41934186
0000c0 9c c4 80 3e 1d c5 9f be 55 5e 87 be cd 8d 9d 3e
       0.2515 -0.31205073 -0.26439157 0.30772248
0000d0 53 24 c2 3e 4d 46 3e 3e 75 0e e5 3e 74 48 6f bf
       0.37918338 0.18581505 0.44737592 -0.9346993
0000e0 90 ab f7 3e 65 ee a3 be d8 22 c5 3e de 6d 63 bd
       0.4837308 -0.32017818 0.38503146 -0.0555247
0000f0 8a 7e 62 bf 69 77 28 bf 1f ab 07 3f ac e2 50 bf
       -0.88474333 -0.65807205 0.52995485 -0.81595874
000100 6c d9 9c 3e c2 c4 93 be 5f b5 98 bf 31 5f 33 3e
       0.3063463 -0.28861052 -1.193035 0.17516781
000110 5a 85 12 3f c6 5b 8c 3e 9d 6c 85 3e 58 eb 09 3e
       0.5723473 0.27413768 0.26059428 0.13468683
000120 48 06 14 3f 25 07 00 3f be dd eb bc 4d 05 84 3e
       0.57822084 0.500109 -0.028792258 0.25785294
000130 8d 9d c3 be 6a 7d 75 be 3e 9e 43 bf b1 b8 c8 be
       -0.3820614 -0.23973623 -0.76413333 -0.39203408
000140 81 87 f7 bd dd 84 06 3e 46 07 85 be 79 3d 01 3f
       -0.12086392 0.13136621 -0.25982112 0.50484425
000150 60 e0 02 3d 12 11 66 be 6e c6 a3 be 39 43 34 3e
       0.031952262 -0.2246745 -0.31987327 0.17603768
000160 69 a0 98 bf 26 66 63 bd e7 a4 f8 3d dd cc 5f bf
       -1.1923953 -0.05551734 0.121408276 -0.8742197
000170 32 d2 47 3e e1 9b 4b 3e 42 ad 43 3e bc 5f 3d 3e
       0.19513777 0.19883682 0.19109061 0.18493551
000180 6b 81 9e 3e fd 49 4e 3e e9 5a 20 be 54 5a c9 3e
       0.30958113 0.20145412 -0.1565968 0.39326727
000190 12 ee b1 3e 64 aa df 3e 46 66 a1 3e d5 05 46 3f
       0.34751946 0.43684685 0.3152334 0.7735265
0001a0 2c 7f 98 3e 1e 22 63 3c 51 b5 ea 3e 26 56 b0 3e
       0.29784524 0.013863115 0.45841458 0.34440726
0001b0 a6 db 21 bd 8b 30 4d be 70 11 30 3e f1 51 b9 3b
       -0.039516114 -0.20038049 0.17194152 0.00565552
0001c0 74 1d ed 3e 18 8d a7 3e 2c 62 f8 3e 0b 47 40 3e
       0.46311533 0.32724833 0.485124 0.187771
0001d0 76 a1 b4 3e b6 b0 32 bf 80 19 2f 3d 53 f6 19 3f
       0.35279435 -0.6980089 0.042748928 0.60141486
0001e0 0a e1 07 3d a8 24 d3 3e 93 4d 16 bf 29 e0 99 3e
       0.0331736 0.41238904 -0.5871212 0.30053833
0001f0 bc 36 b0 bd 05 71 99 be 09 72 db 3e e4 11 8b be
       -0.0860419 -0.2996904 0.4286044 -0.27162087

q1.2.weight f4 [128, 128]
000000 8f 8d 49 3e 6b ed 35 3e 2b b4 ac 3e bd 71 25 3d
       0.19682907 0.17766349 0.33731207 0.040391672
000010 78 1d 02 3e ff 50 03 3e e1 99 19 bf fd 01 da 3c
       0.12706554 0.12823866 -0.60000426 0.026612276
000020 39 c4 29 3e 4a de 5b 3e 25 20 1f 3f 5e 03 7e 3e
       0.16578759 0.21471515 0.62158424 0.24805972
000030 68 6a 29 be af 76 8a 3e 0e 0e e5 be 5b c3 35 bd
       -0.16544497 0.27043673 -0.44737285 -0.04437576
000040 a9 0b 25 3f dc bc 9e 3e 32 60 b6 ba cb 89 a8 3d
       0.64470917 0.31003463 -0.0013914166 0.08229407
000050 7a 08 2f 3e 80 8f b5 3e 98 2e 7a be 1f 80 8d 3e
       0.17093077 0.35461044 -0.24431837 0.2763681
000060 ce eb 42 3e 44 7d cb 3e 09 ac c2 3d d8 c7 a9 3e
       0.19035265 0.39744008 0.09505469 0.3316028
000070 df 48 17 3e b2 bb b1 3e 41 01 85 3e 65 51 aa 3e
       0.14773892 0.34713513 0.2597752 0.33265224
000080 f7 cc c9 be 43 28 0a 3e ae 30 59 3e a4 35 95 3d
       -0.39414188 0.13491921 0.21209976 0.07285622
000090 e0 37 76 3e 8f 50 23 be 3d 12 29 be a3 da 98 3e
       0.24044752 -0.159487 -0.16510864 0.29854307
0000a0 50 40 4b 3e 7b a5 3f 3e d2 8e 1b be 09 61 bf 3d
       0.19848752 0.1871547 -0.151912 0.0934468
0000b0 94 e8 88 3e 56 f4 aa 3e ef 71 a0 3d 4f 59 be 3e
       0.26739943 0.3338954 0.07834231 0.37177512
0000c0 e3 03 2b 3c 2a f8 13 3e e3 0b 72 bd 52 a1 a0 3c
       0.010437938 0.14450136 -0.059093367 0.019608174
0000d0 9c 2e 20 3e 97 37 d0 3d aa bf a0 3e 64 bf 04 bf
       0.1564278 0.10166853 0.31396228 -0.5185454
0000e0 0f 48 bf 3c bd fb 05 3f bc ad 4a 3e c8 69 a6 3e
       0.02334979 0.5233725 0.19792837 0.3250258
0000f0 9e ce 3e 3c 01 75 ad 3e 93 d0 8f 3d 69 69 b1 bd
       0.011645941 0.3387833 0.07022204 -0.086626835
000100 c3 02 98 3e 2c c6 e8 3d 41 87 f4 3d c5 ad 25 3e
       0.29689607 0.11365923 0.1193986 0.16179569
000110 05 ce da 3e 9a 54 70 3e 0e 1e 2c be 7e db e8 3e
       0.42735305 0.23469773 -0.1680834 0.4547996
000120 4d 0c 92 3e 90 5b cc 3d 74 e2 20 3d ec 35 3d 3e
       0.2852501 0.09978402 0.039278463 0.18477601
000130 5a 58 56 3d 42 5b 99 3e 1b 66 0f 3f fc 22 04 bf
       0.052330352 0.29952437 0.56015176 -0.5161588
000140 ae 5c 09 3e f1 13 8d 3e 27 f8 a3 3e 8e 59 26 3e
       0.1341426 0.27554277 0.32025263 0.162451
000150 a1 14 6f 3e 50 2f 91 bd 4a 2d 7f 3d ac ef 44 3e
       0.23347713 -0.07089102 0.06229905 0.19232053
000160 f9 f5 12 bb 55 56 35 3e 5e 4d 09 3e 29 46 aa 3e
       -0.0022424443 0.17708714 0.1340842 0.33256653
000170 b0 c8 c5 3e aa fa dc 3d 26 b7 8e 3e 82 ad 62 3d
       0.38629675 0.10789998 0.27874106 0.05534125
000180 60 9a 70 3e 26 a7 42 3e fb 1e 0c bd c9 97 7c 3e
       0.2349639 0.19009075 -0.034209233 0.24667276
000190 a6 48 34 bd 6e be 8e 3e 15 3b 05 3f 46 4b a1 3e
       -0.044014595 0.2787966 0.5204328 0.31502742
0001a0 41 67 9b 3e b7 57 38 3e e0 e0 d7 3d 3c 29 58 3e
       0.30352214 0.1800221 0.105409384 0.2110948
0001b0 f9 ba 0e 3d 65 c2 26 be 14 ff 80 3e 6f 62 4c be
       0.03484628 -0.16285093 0.2519461 -0.19959424
0001c0 63 8c af 3e d4 c0 28 3e 2a c7 98 3e 19 5c 34 3d
       0.34286794 0.16479808 0.2983945 0.044033144
0001d0 f6 ac a4 3c 6e a4 37 bf 56 0f ca 3d ae 29 7d 3d
       0.020102005 -0.71735275 0.09866206 0.061807327
0001e0 db 43 6d 3e 40 06 bf 3c 86 34 88 bc df 77 b1 be
       0.23170416 0.02331841 -0.016626608 -0.34661767
0001f0 8f af a9 be c0 c8 13 be 5d e9 fc 3d ad 5e 86 3e
       -0.33141753 -0.14432049 0.12349198 0.26244107
000200 2f d8 45 3e 04 ba 93 3d 12 e2 8a 3e ea 3c 3e bd
       0.19320749 0.07213214 0.27125603 -0.04644481
000210 83 81 b2 3e 97 c9 07 3d 96 a2 cd be b6 10 65 3e
       0.34864435 0.033151235 -0.40163106 0.22369656
000220 a0 a6 ba 3d aa 73 cd 3d b5 ad 22 3f 7f dd 3d 3e
       0.091138124 0.10031827 0.63546306 0.18541525
000230 1b b4 47 bd ec 25 bd 3e 33 39 a0 be 1d 83 7c 3e
       -0.048755746 0.36942995 -0.3129364 0.24659391
000240 ae 39 0d 3f ef ce fd 3e c9 bb 33 3e 38 d3 06 3e
       0.5516614 0.4957194 0.17552103 0.13166511
000250 44 d9 70 3e 71 f1 ae 3e ff ca 3a be b5 79 3e 3e
       0.2352038 0.3416858 -0.182415 0.18601115
000260 fb 70 c6 3e 02 86 fb 3e d4 3f 54 3e c4 36 7a 3e
       0.38758072 0.49125677 0.20727473 0.24434954
000270 b0 16 06 3e ae cc 86 3e 8f d4 c8 3d 22 e9 f1 3e
       0.13094592 0.26328033 0.09806167 0.4724818
000280 d6 9e cf be e8 13 e4 3d 82 11 98 3d 01 e3 52 3e
       -0.4055087 0.11136609 0.07425214 0.20594408
000290 9c 0b d6 3c ce 70 01 be 76 a0 82 be 44 0f df 3e
       0.026128583 -0.12640688 -0.25513047 0.43566334
0002a0 95 93 ac 3e 21 40 3e 3e 5e e6 be bd 75 55 8e 3d
       0.33706346 0.1857915 -0.09321283 0.069498934
0002b0 95 8e 4f 3e 76 20 95 3d c5 12 c3 3d 79 06 7d 3e
       0.20269234 0.07281582 0.095250644 0.247095
0002c0 d3 e3 08 3e 2d c1 89 3e 51 a9 90 be b3 da a0 3e
       0.13368158 0.26905194 -0.28254178 0.31416854
0002d0 e4 64 df 3d 00 d0 c2 3d 59 0e 51 3e fb ba 17 bf
       0.10907915 0.09512329 0.2041563 -0.59269685
0002e0 30 21 5d 3e 03 ae ea 3e c4 bd 34 3d 8c 78 b6 3e
       0.21594691 0.45835885 0.044126287 0.35638845
0002f0 2a bf 13 be 02 56 89 3e 48 6f 30 3e c2 29 28 bd
       -0.14428392 0.2682343 0.1722995 -0.04105545
000300 85 fe 74 3e 79 8f 64 3e c6 ef 47 3e 5c ba fe 3d
       0.23925216 0.22320355 0.1952506 0.12437889
000310 9d 67 ea 3e 21 c5 9c 3e c3 34 3d be d1 bb 9a 3e
       0.45782176 0.30619147 -0.18477158 0.30221418
000320 c8 0a 75 3e 50 75 8f 3e 00 66 8f 3e 0c 88 5c bc
       0.23929894 0.2801919 0.28007507 -0.0134601705
000330 42 fc 2c 3d 08 9b 97 3c ec c2 d7 3e 95 68 8e be
       0.04223276 0.018506542 0.421409 -0.27814165
000340 66 23 b8 3d a5 48 3f 3e 6c 6d bb 3e 55 30 e1 3d
       0.08991127 0.18680055 0.3660692 0.10995547
000350 61 15 b0 3e 75 42 81 bb ad d7 c3 bb 1c 8f 7a 3c
       0.3439131 -0.00394469 -0.0059766383 0.015292909
000360 5f c3 0b bd 9a ee 8c 3e 75 36 3d 3e ff 6e 76 3e
       -0.034121867 0.2752579 0.18477805 0.24065779
000370 44 2c b8 3e 25 3d 14 3e a8 d1 02 3e 7c df 95 bd
       0.35971272 0.1447645 0.1277529 -0.07318017
000380 ea 0b 5d 3e 1c 8c 0e 3e 15 64 f9 3d d4 3b 5f 3d
       0.21586576 0.13920635 0.12177292 0.054500416
000390 d8 a9 29 3e 7b 1f 91 3e 3f 4c ef 3e 99 2c ab 3e
       0.16568696 0.2834433 0.4673786 0.33432463
0003a0 c9 df af 3e e6 1f 2a 3e f6 28 9c 3e 9b 88 66 3e
       0.34350422 0.16613731 0.305 0.22513048
0003b0 b0 e6 47 3e f2 59 e7 bd 16 92 43 3e 7c 24 51 be
       0.19521594 -0.112964526 0.19098696 -0.20424074
0003c0 c5 8f 5d 3d a1 33 02 bb 30 16 83 3e 1f 68 09 3d
       0.054092187 -0.00198672 0.25602865 0.033546563
0003d0 46 fe 8f 3e a8 5c 5d bf ee ea 62 3e ea 9a 55 3e
       0.28123683 -0.8646951 0.22159931 0.20859876
0003e0 3f 94 96 3e 62 13 78 3e a3 9f 1a 3d e7 a9 6b be
       0.29409978 0.24226144 0.037749898 -0.23014031
0003f0 cd 4a b5 bd de 0c 63 bb 7c 3a 02 3e 73 88 b3 3d
       -0.08852158 -0.003464512 0.12717623 0.0876626

q1.2.bias f4 [128]
000000 36 c4 8a 3e a1 9c 88 3e 5b 16 9e bc bc ec b3 3e
       0.27102822 0.26681998 -0.01929777 0.35141551
000010 b8 63 b2 3e e9 f0 7a 3e 6a 64 9f 3e 8a fb c0 bc
       0.34841704 0.24505962 0.31131297 -0.023557443
000020 00 b0 6f 3e f1 5c 30 bc 21 b4 2e bd b8 1b 02 bd
       0.23406982 -0.010764346 -0.042652253 -0.031764716
000030 2e 18 7e 3e 12 cf 02 bd 8d ea b3 bc a6 4d 6d 3e
       0.24813911 -0.03193576 -0.021962428 0.23174152
000040 fc da 72 3e 8f eb 9e 3e 44 9e a8 3e 14 e0 82 3e
       0.23716348 0.31039092 0.32933247 0.25561583
000050 1c ab 79 bd 33 43 89 3e 0c fd b9 3e 10 21 36 bd
       -0.0609542 0.2680908 0.36325872 -0.044465125
000060 87 c0 7e 3e 77 2f 90 3e f8 be 80 bc 11 92 8e 3e
       0.24878131 0.28161213 -0.015716061 0.27845815
000070 2d a9 7f 3e 13 4a 40 be 8f 73 4f bd 4b b4 6b 3e
       0.24966879 -0.18778257 -0.050647315 0.23017995
000080 80 4c da 3e a4 09 86 3e dd 48 82 3e df 3a 48 bd
       0.4263649 0.2617923 0.25446215 -0.04888427
000090 19 8e a7 3e 79 eb 71 bc ae 3d 55 bc 97 92 7a 3e
       0.327256 -0.014765614 -0.013015194 0.24469982
0000a0 95 00 6b 3e 51 a7 61 3e cf d1 1a bd e9 e0 3c bd
       0.22949441 0.22036482 -0.037797745 -0.04611293
0000b0 72 ae 02 3f 39 55 cc 3e e8 75 60 be 4b 52 bf 3e
       0.5104743 0.3990877 -0.21919978 0.37367472
0000c0 e1 bd 71 3e 30 54 90 3e 3c 37 52 3e 6a 44 ba 3e
       0.2360759 0.2818923 0.20528883 0.3638032
0000d0 78 f0 7c 3e 40 90 3d bd dc bd 3a bd 2c 9f 84 3e
       0.24701107 -0.046280146 -0.04559122 0.25902689
0000e0 4f 65 c3 bc db 85 b8 3e fd 84 96 3e 40 db 8c 3e
       -0.023852019 0.36039624 0.29398337 0.27511024
0000f0 40 fe cc 3e 98 03 bf 3e 9f 74 ac 3d b2 e6 bf bc
       0.40037727 0.3730743 0.08420681 -0.023425434
000100 18 e1 25 bd 1a 7c 88 3e 07 20 8a 3e 84 4d 6a 3e
       -0.04049787 0.26657182 0.2697756 0.22881132
000110 81 40 22 bc 8e 2e e8 3e c2 d8 4b 3e 0c 1e a4 3e
       -0.009903074 0.45348018 0.19906905 0.32054174
000120 d0 04 27 bd 90 f9 3d bd bf 99 93 3e e7 20 7a bc
       -0.040776074 -0.04638058 0.28828236 -0.015266634
000130 07 45 4c 3e 7e bf 30 bd 54 66 ff bd 7d e8 f0 bc
       0.19948207 -0.04315137 -0.124706894 -0.029407734
000140 11 67 9d 3e dd d3 93 3e 36 74 17 3f 6a f9 a0 3e
       0.30742696 0.28872576 0.591617 0.31440288
000150 37 a0 c9 3e ce ea 74 3e 73 6c 8e be 56 9f b6 3e
       0.39380047 0.23917696 -0.27817115 0.3566844
000160 57 ec bf 3e 65 cc 83 3e 3d 06 56 3e 42 51 4f bd
       0.37485 0.25741878 0.20900817 -0.050614603
000170 21 f0 75 3e 7c 9d 44 3e 90 cb 1c bc 56 d8 66 bc
       0.24017383 0.192007 -0.009570017 -0.014089664
000180 f3 3a 66 3e c3 68 72 bc 91 0b 75 3e 09 7f 85 bb
       0.22483425 -0.014795485 0.23930193 -0.0040739817
000190 95 0f f7 3d d8 de 6c 3e 0e f0 b8 bc ed 86 8e 3e
       0.12063519 0.23131883 -0.022575404 0.27837315
0001a0 7f 43 14 3f c9 a2 a6 3d 5b be 64 3e ea ea 95 bc
       0.5791549 0.081365176 0.2233824 -0.018300492
0001b0 3c d1 71 3e 7a 41 ce bc d3 10 a9 3e c2 1c d2 3e
       0.23614973 -0.025177706 0.33020648 0.41037565
0001c0 b7 f1 97 3e 5d 13 9f 3e da e7 2c 3e f7 89 63 3c
       0.296766 0.3106946 0.1688532 0.013887874
0001d0 17 a7 a7 3d af 79 9e 3e 0a 31 71 3e c1 b7 72 3e
       0.08186167 0.30952212 0.23553863 0.23702909
0001e0 6c dd 47 bc ab 6e a0 3e 0d f7 8a 3e d3 e3 bc bc
       -0.012198787 0.31334433 0.2714161 -0.023057854
0001f0 18 ff 0f bd 3a 85 90 3e 5c 55 0d 3e 61 c7 84 3e
       -0.035155386 0.28226644 0.13802093 0.25933364

q1.4.weight f4 [1, 128]
000000 34 19 7b be 70 a8 8b be 7c 14 47 3e f4 7e 69 40
       -0.24521333 -0.27276945 0.19441408 3.6483736
000010 68 df 0a c0 09 bf c8 bd a5 cd 7a be 2c dc 43 3e
       -2.1698856 -0.09802062 -0.2449251 0.19126958
000020 2f 4c c6 bd de 0d cf 3d a7 88 1f 3e f7 43 05 3e
       -0.096824996 0.10110067 0.15579472 0.13014208
000030 a0 55 58 be a8 a7 e2 3d 53 75 d6 3d cf 60 02 be
       -0.21126413 0.11067134 0.104715966 -0.12732242
000040 9b 93 1b be e9 46 16 bf 8b c2 e1 bf 8d 6b 82 be
       -0.15193026 -0.5870195 -1.7637495 -0.2547268
000050 4d 79 29 3e 74 61 75 be a5 dc ea be 1a b9 2f 3e
       0.16550179 -0.23962957 -0.45871463 0.17160454
000060 69 ae 3c be 4e 74 e4 3f d3 d4 4d 3e 31 7d f0 bd
       -0.18425907 1.7847993 0.20100717 -0.11742628
000070 46 db 62 be 93 5a 1c 3f 9f 88 fe 3d f7 1f c1 bd
       -0.22153959 0.61075705 0.12428402 -0.09429925
000080 d0 97 59 40 3b 40 1a 40 95 c1 33 be 07 bb 0b 3b
       3.399891 2.4101703 -0.17554314 0.0021321194
000090 20 9b 28 40 c4 19 1d 3e d6 55 2a 3e 24 93 75 be
       2.634468 0.1534186 0.16634306 -0.23981911
0000a0 24 5e 29 be 73 0c 11 40 76 07 82 3d 15 55 c3 bf
       -0.16539818 2.2663848 0.06349079 -1.526034
0000b0 c6 f9 38 40 bd 79 04 bf 98 2d 83 40 6c 52 f4 be
       2.890245 -0.5174826 4.0993156 -0.47719133
0000c0 5b a8 90 bd 9f 20 18 bf 39 c4 bb bd c8 43 13 bf
       -0.07063361 -0.59424776 -0.09168286 -0.575253
0000d0 75 04 f0 bd 66 72 e3 3d 19 24 81 3c 4e 57 7e be
       -0.117196 0.11105804 0.015764283 -0.24837992
0000e0 b5 26 2d 3e 93 ef 04 bf 20 19 aa be 92 c6 69 be
       0.16909297 -0.5192806 -0.33222294 -0.22829655
0000f0 7e 02 1b bf 93 12 19 40 e1 9c 58 3f a4 0f 87 3d
       -0.6055068 2.3917587 0.8461438 0.0659478
000100 10 1b d9 3d b4 f6 53 be e6 8c 5a be 24 dd 39 be
       0.10600865 -0.20699579 -0.21342811 -0.18150765
000110 ae b0 20 3e 92 9f 1a 40 d3 20 ee be 47 7a 5b be
       0.15692398 2.4159894 -0.46509418 -0.21433364
000120 df 70 f6 b9 95 25 16 3d c3 32 3f bf 1d c0 8b 3d
       -0.00047004872 0.036656935 -0.7468683 0.06823752
000130 15 4d 1f 40 8a ee 37 3e 90 11 36 3f 47 44 f7 3d
       2.4890797 0.17962089 0.7112055 0.1207357
000140 dd 9a f2 be 96 3b 8f be 0a 39 32 40 73 aa 15 40
       -0.47383776 -0.27975148 2.7847314 2.3385284
000150 72 f5 dd be e1 f4 29 be f3 01 a9 3f fb 97 4e be
       -0.43351322 -0.1659732 1.320372 -0.20175163
000160 49 b2 d7 be a5 a1 7a be d3 93 94 bd b7 45 dd 3d
       -0.42128208 -0.24475725 -0.07254758 0.10804313
000170 89 2d 32 be 53 06 4d 40 e3 c1 c9 3d 95 18 65 3d
       -0.17400183 3.203511 0.09851434 0.055931646
000180 fa 18 1c be bf d6 45 3f 0a c7 3a be f1 c6 47 3f
       -0.15243903 0.772808 -0.1823999 0.78037935
000190 ff fa 49 3f e0 f7 14 be e6 a3 31 3e e9 ca a2 be
       0.78898615 -0.14547682 0.17347679 -0.31795433
0001a0 d2 ba 40 40 23 03 d5 3f b7 42 3e 3f b3 b6 2f 3d
       3.0114026 1.6641582 0.7432055 0.042898845
0001b0 31 a4 4b be 64 d0 a8 3d b6 40 c8 be 49 68 17 40
       -0.19886853 0.08242872 -0.3911187 2.36574
0001c0 c8 01 e8 be ae e6 0f bf 9c 21 81 3f 75 2a dc 3f
       -0.4531386 -0.56211364 1.0088382 1.7200457
0001d0 d9 87 48 3f b1 83 c1 be 6a cd a8 bd f8 20 2e be
       0.7833229 -0.37795785 -0.082423046 -0.17004764
0001e0 52 e3 12 3e 98 28 03 bf 9c 83 94 be 69 d7 15 3e
       0.14344528 -0.51233816 -0.2900666 0.14632954
0001f0 cd 24 e0 3f cd 8e 26 bf 47 24 23 3f 32 e2 5a be
       1.7511231 -0.65061647 0.6372723 -0.21375349
