TD3/checkpoints/Pendulum-v1/02_best_agent.pth (torch, 213476 bytes, 15 tensors)

actor.0.weight f4 [128, 3]
0	0xbe32e57d	-0.17470355
1	0x3f1fd5cd	0.6243561
2	0x3e27ea50	0.16397977
3	0x3e2b93ab	0.1675555
4	0x3f03be04	0.51461816
5	0x3e6ee817	0.23330723
6	0xbe308668	-0.17238772
7	0xbf656a7e	-0.8961562
8	0xbcd8625d	-0.02641409
9	0x3edeb50a	0.43497497
10	0x3d52c071	0.051453058
11	0x3dc5f976	0.096667215
12	0xbd1d66dc	-0.038428172
13	0x3db13a71	0.08653725
14	0x3bb825b3	0.0056197285
15	0xbbed4190	-0.0072404817
16	0x3f6baff5	0.92065364
17	0xbe59520f	-0.21222709
18	0xbeb29d81	-0.3488579
19	0x3ee8450f	0.45365188
20	0x3e690b18	0.22758138
21	0x3e3d9b76	0.18516335
22	0xbff1fd7b	-1.8905481
23	0xbe2e4628	-0.1701895
24	0xbeb36dd1	-0.3504472
25	0x3e869db2	0.26292187
26	0xbe9212eb	-0.28530058
27	0x3ef94667	0.48686525
28	0xbf056663	-0.52109355
29	0xbea8dc65	-0.32980648
30	0x3e53788a	0.20651451
31	0xbe78a832	-0.24282911
32	0x3e94db3d	0.29073516
33	0xbea76b67	-0.3269913
34	0x3e4ba8bd	0.19888587
35	0xbb48052f	-0.0030520668
36	0xbf3214c1	-0.6956292
37	0x3f38b168	0.721457
38	0xbe0cfc15	-0.13768037
39	0xbe20b565	-0.15694197
40	0x3e390d6f	0.18071531
41	0xbac1daf5	-0.0014789986
42	0x3edbb16f	0.4290881
43	0xbec01048	-0.37512422
44	0xbe5e9b3b	-0.21738903
45	0x3e949b79	0.29024866
46	0x3f395b25	0.724047
47	0xbe3ec6eb	-0.18630569
48	0xbf9ca9dc	-1.2239337
49	0xbde725bb	-0.112864934
50	0x3de1e676	0.11030285
51	0xbecf8e8e	-0.40538448
52	0x3f543e71	0.8290778
53	0x3dd2bab5	0.10289518
54	0xbefe7c4b	-0.49704203
55	0x3f1343c9	0.57525307
56	0x3e48baee	0.19602558
57	0x3e849b92	0.2589994
58	0x3f141eb7	0.5785937
59	0x3e8d5981	0.2760735
60	0x3e397dbb	0.18114369
61	0x3f20d478	0.628242
62	0x3ea3684c	0.3191551
63	0x3ec04da5	0.37559238
64	0x3f50b01c	0.8151872
65	0x3d4f41c7	0.05059984
66	0x3ecbb3fe	0.3978576
67	0xbe0a2fcf	-0.134948
68	0xbe864678	-0.26225638
69	0xbe848d87	-0.25889227
70	0xbf2c44fe	-0.67292774
71	0xbdebd64a	-0.11515482
72	0x3ede1b9a	0.43380433
73	0xbf04b27c	-0.51834846
74	0xbe47112b	-0.19440143
75	0xbd936803	-0.07197573
76	0x3eee39bc	0.46528423
77	0xbe8d0c1b	-0.27548298
78	0xbf422442	-0.75836575
79	0xbea0125f	-0.31264016
80	0x3da096ae	0.0784124
81	0xbf80aa68	-1.0052004
82	0x3d3f2f4e	0.046675973
83	0xbda8243b	-0.082100354
84	0x3f08065d	0.5313471
85	0xbef45edf	-0.4772863
86	0xbe664afd	-0.22489543
87	0x3e10384a	0.14083973
88	0xbf4e6976	-0.8062967
89	0xbba7960e	-0.0051143235
90	0xbecb22ef	-0.3967509
91	0xbf0e1c06	-0.5551151
92	0xbe0d0341	-0.13770773
93	0xbede79af	-0.43452212
94	0xbf66daf8	-0.9017787
95	0xbe3f5c38	-0.18687522
96	0x3ecd1a37	0.40059063
97	0x3e88aa2b	0.26692328
98	0x3e60e92b	0.21963947
99	0x3ea9889f	0.33112046
100	0xbe98926e	-0.29799217
101	0x3ea7f2c8	0.32802415
102	0xbecc6566	-0.3992111
103	0x3e19fd98	0.15038145
104	0xbea1012e	-0.31446213
105	0x3d45d33d	0.048297156
106	0xbed0c33c	-0.40773952
107	0x3d7ee58f	0.062230643
108	0x3f10d7d1	0.5657931
109	0xbe92706a	-0.2860139
110	0xbf02e05e	-0.5112361
111	0x3f08991d	0.5335863
112	0x3e9d4360	0.30715466
113	0x3e9c60aa	0.305425
114	0x3e58d60a	0.211754
115	0xbfe7867a	-1.8087914
116	0x3d3e6c05	0.046489734
117	0xbf0fcd72	-0.5617286
118	0x3f02c378	0.5107951
119	0x3df07d2f	0.11742627
120	0xbd691287	-0.056902435
121	0x3e1cd708	0.15316403
122	0xbead5cfd	-0.33860007
123	0xbe50541c	-0.20344585
124	0xbebec166	-0.37256926
125	0x3ea3038f	0.31838652
126	0x3ed5cfdd	0.4176015
127	0x3f095890	0.5365076
128	0x3e923b21	0.28560737
129	0x3ea340be	0.31885332
130	0xbea1fb53	-0.31637058
131	0x3cf9e8d9	0.030506538
132	0x3f03bd2c	0.5146053
133	0x3f399089	0.7248617
134	0x3e11ac04	0.14225775
135	0x3e1aca0c	0.15116137
136	0x3e1bcffd	0.1521606
137	0x3e7a038f	0.2441542
138	0xbd61eda8	-0.055158287
139	0x3c930e85	0.01795126
140	0x3b9f380a	0.0048589753
141	0x3ea209d4	0.31648123
142	0x3f7bd452	0.9837085
143	0x3e909fc6	0.28246897
144	0xbc2e5973	-0.010641444
145	0x3cfec0a4	0.031097718
146	0x3bbb47d2	0.0057153488
147	0x3f01d041	0.50708395
148	0x3e8dbf3b	0.2768496
149	0x3ea1fccf	0.3163819
150	0x3e601b3c	0.21885389
151	0xbd414e85	-0.047194023
152	0x3e8a3363	0.2699233
153	0x3cb804f7	0.022463305
154	0xbe5f006b	-0.21777503
155	0x3cebf48f	0.028803138
156	0x3eb2c18d	0.34913293
157	0x3f3b9307	0.7327122
158	0xbdf8350b	-0.12119492
159	0x3ee5065d	0.44731417
160	0xbf2cdcd2	-0.67524445
161	0xbe2f0633	-0.17092209
162	0xbc6bb7e0	-0.014387101
163	0xbea82be9	-0.32846
164	0x39a909ab	0.00032241395
165	0xbe8e6c01	-0.27816775
166	0xbf11ab8a	-0.5690237
167	0xbdf41fd7	-0.119201355
168	0xbecc03ae	-0.39846557
169	0xbf5c12d6	-0.8596624
170	0xbe864e87	-0.26231787
171	0xbe52cd90	-0.20586228
172	0xbeab9b10	-0.3351674
173	0x3e518de6	0.20464286
174	0xbe9d7c93	-0.30759105
175	0xbe763aaa	-0.24045816
176	0xbe2bc870	-0.1677568
177	0x3eb21cb8	0.34787536
178	0x3f6822ba	0.9067799
179	0x3e8cb36c	0.27480638
180	0x3dc98b7f	0.0984106
181	0xbf153fa7	-0.5830025
182	0xbe2d8516	-0.169453
183	0x3e3d83b7	0.18507276
184	0xbf0ba602	-0.5455018
185	0xbe3cf508	-0.18452847
186	0xbecd731b	-0.4012688
187	0x3f66e3fc	0.90191627
188	0x3e6776d1	0.22603919
189	0x3f20fc48	0.6288495
190	0xbe1a32d4	-0.15058452
191	0xbe300590	-0.17189622
192	0x3eb275ba	0.34855443
193	0x3ec41d39	0.38303545
194	0x3e54a59f	0.20766304
195	0xbd6a232d	-0.057162452
196	0xbf1a9212	-0.60379136
197	0xbdf5690b	-0.11982926
198	0x3e0ca429	0.13734497
199	0x3ed2642e	0.41092056
200	0xbe5c3d63	-0.21507792
201	0x3ea17afb	0.3153914
202	0x3efa6733	0.4890686
203	0xbe1ce45e	-0.1532149
204	0xbebd8262	-0.37013537
205	0x3f1b61ba	0.60695994
206	0x3dec6b24	0.11543873
207	0x3ecfb368	0.40566564
208	0x3f428a69	0.7599245
209	0x3e90fe17	0.28318855
210	0x3e987c87	0.29782507
211	0xbe66f90e	-0.22555944
212	0x3e9d906d	0.3077425
213	0xbed65067	-0.41858217
214	0xbf1a49ae	-0.60268676
215	0xbe84e5d7	-0.25956604
216	0xbe17a3f2	-0.14808634
217	0x3f8b37c3	1.0876392
218	0x3d1cb75f	0.038260814
219	0x3ec83f95	0.3911101
220	0xbecb7fbd	-0.39745894
221	0xbe570ea4	-0.21001679
222	0xbf914c2b	-1.135137
223	0xbe73e4c2	-0.23817733
224	0x3d77b7dc	0.060478076
225	0xbe0fbcc9	-0.1403686
226	0xbe962ce8	-0.29331136
227	0x3ed45bbb	0.41476235
228	0xbe961e88	-0.29320168
229	0xbf148481	-0.58014685
230	0xbdc3a527	-0.09552985
231	0x3ec80fa5	0.39074436
232	0xbf0c6a52	-0.5484973
233	0xbe5c9a21	-0.2154317
234	0xbf6edc3d	-0.93304807
235	0x3eeb75b5	0.4598824
236	0xbd4e1e0c	-0.050321624
237	0xbf1489f8	-0.58023024
238	0xbf04a0a3	-0.5180761
239	0x3deb6c70	0.11495292
240	0xbf9d261c	-1.2277255
241	0x3e1027d9	0.140777
242	0x3dfa7681	0.12229634
243	0x3d9819c9	0.07426793
244	0x3e4171b1	0.18891026
245	0x3de8bca1	0.11364103
246	0x3c4bdfbd	0.01244348
247	0x3b1f3813	0.0024294897
248	0xbbd20b79	-0.006410059
249	0xbf62e675	-0.886329
250	0x3e66556f	0.22493528
251	0x3d6d4831	0.057930175
252	0x3e842fc7	0.258177
253	0x3f957681	1.167679
254	0xbd2797c9	-0.040916238
255	0x3e0705ad	0.13185759

actor.0.bias f4 [128]
0	0xbe608c58	-0.21928537
1	0xbece4b61	-0.40291885
2	0xbd2f76be	-0.04283785
3	0xbe8a3292	-0.26991707
4	0xbe6fe927	-0.23428784
5	0x3c9ef042	0.019401673
6	0xbea9be3c	-0.3315295
7	0xbe90a9e1	-0.28254607
8	0x3d8c616a	0.06854518
9	0xbd920d55	-0.07131449
10	0xbf2e4aae	-0.680827
11	0xbed1fc01	-0.41012576
12	0x3eb4f9b0	0.35346746
13	0xbe889082	-0.2667275
14	0xbe734144	-0.23755366
15	0xbe63d63f	-0.22249697
16	0x3c777829	0.015104332
17	0x3e38415b	0.17993681
18	0x3e20bacb	0.15696256
19	0xbf2baf20	-0.67064095
20	0xbea9dbeb	-0.33175597
21	0xbe94cc05	-0.29061905
22	0xbeba87cc	-0.3643173
23	0xbe07e397	-0.13270412
24	0xbe967183	-0.29383478
25	0x3e608006	0.21923837
26	0x3ea6ca9d	0.32576457
27	0xbd920509	-0.07129867
28	0xbebc4611	-0.36772206
29	0xbec73ec7	-0.38915083
30	0xbd5d8008	-0.05407718
31	0xbd942f5b	-0.07235595
32	0xbf0b373c	-0.54381156
33	0xbe918396	-0.28420705
34	0x3de7d72c	0.11320338
35	0xbe71dbb6	-0.2361897
36	0xbeff6bab	-0.49886832
37	0xbec14605	-0.37748733
38	0xbd854264	-0.06506804
39	0x3d6fcd96	0.05854567
40	0x3e9004b1	0.2812858
41	0xbeb4db05	-0.3532335
42	0xbeccbc13	-0.3998724
43	0xbdaee425	-0.08539609
44	0x3d8b58ed	0.068040706
45	0xbf5b39b4	-0.85634923
46	0xbdcb29b7	-0.09920066
47	0xbe712af2	-0.23551539
48	0xbde5334e	-0.11191426
49	0xbea7a136	-0.32740182
50	0xbf20f52c	-0.628741
51	0xbe70ba6c	-0.23508614
52	0xbd174398	-0.036929697
53	0xbed11397	-0.40835258
54	0xbebfb524	-0.37442887
55	0xbdec7bbe	-0.115470394
56	0xbcd9c27e	-0.026581999
57	0xbeba7c4a	-0.3642295
58	0xbdec5110	-0.11538899
59	0xbe92183c	-0.28534114
60	0xbe84ab6f	-0.25912043
61	0xbd8805b8	-0.06641716
62	0xbdcac75a	-0.099013045
63	0xbea8fd44	-0.33005726
64	0xbf08d1c6	-0.5344509
65	0xbed9d523	-0.42545423
66	0xbd8b6095	-0.06805531
67	0xbd7c499e	-0.061593644
68	0xbdad30c0	-0.08456564
69	0xbe85fb4e	-0.26168293
70	0xbf011f74	-0.5043862
71	0x3dc64799	0.09681625
72	0x3e2bd6a9	0.16781105
73	0xbe721151	-0.23639418
74	0x3df0b579	0.11753363
75	0xbe49c9f7	-0.1970595
76	0xbe222ca1	-0.15837337
77	0xbe6f879c	-0.23391575
78	0x3e9a584b	0.30145487
79	0xbd91b71b	-0.07115003
80	0x3e89a9f8	0.26887488
81	0xbf1c9bd5	-0.6117528
82	0xbd6183d1	-0.05505735
83	0x3eb36392	0.35036904
84	0xbe476894	-0.19473487
85	0xbec80f37	-0.39074108
86	0xbe43fde0	-0.19139814
87	0xbe38aa2f	-0.1803367
88	0xbe884cde	-0.26621145
89	0x3d2dd308	0.042437583
90	0xbe695df3	-0.22789745
91	0x3ce55644	0.027995236
92	0xbeb64097	-0.35596153
93	0xbd8f3dc0	-0.069942
94	0x3d888007	0.06665044
95	0xbe214ec3	-0.15752701
96	0xbddef572	-0.10886659
97	0xbdeca599	-0.11555023
98	0xbd92a743	-0.07160809
99	0xbda80e7c	-0.08205888
100	0xbdb14019	-0.08654804
101	0xbeabacfb	-0.3353041
102	0xbe4ad992	-0.19809559
103	0xbe05e3d0	-0.13075185
104	0xbef126e7	-0.47099993
105	0xbead920b	-0.33900484
106	0xbe82a251	-0.25514463
107	0xbe691da8	-0.22765219
108	0xbe977265	-0.29579464
109	0xbd6e9446	-0.058246873
110	0xbd87eb5a	-0.066366866
111	0xbec0c10e	-0.3764729
112	0xbed8881a	-0.42291337
113	0xbe5f0aac	-0.21781415
114	0xbeb8d767	-0.3610184
115	0xbeb50bd3	-0.35360584
116	0xbe3435b0	-0.17598605
117	0x3db2593e	0.08708428
118	0xbe5f42cf	-0.21802829
119	0xbd0a99d7	-0.03383812
120	0x3dd200a6	0.1025403
121	0xbf024971	-0.5089331
122	0xbee05a40	-0.43818855
123	0xbefe1d0a	-0.4963153
124	0xbe33cb7f	-0.17558096
125	0xbe03a452	-0.12855652
126	0xbf09ce8a	-0.5383078
127	0xbe7cfbea	-0.24705473

actor.2.weight f4 [128, 128]
0	0x3d42613c	0.04745601
1	0xbe0726f3	-0.13198452
2	0xbe88848f	-0.26663634
3	0xbe6d4a87	-0.23172961
4	0x3d2d636a	0.042331137
5	0x3de63e1d	0.11242316
6	0xbe246556	-0.16054282
7	0xbf4113ca	-0.7542082
8	0xbeb9c67c	-0.36284244
9	0xc02a3bd6	-2.659902
10	0xbdadf53a	-0.08494039
11	0xbe3fc15b	-0.18726103
12	0xbf1566ec	-0.5836017
13	0xbe2e39aa	-0.17014185
14	0xbfd4b9fa	-1.6619256
15	0xbf11cf4a	-0.56956923
16	0xbf103799	-0.56334835
17	0xbe60193c	-0.21884626
18	0xbebe610b	-0.37183413
19	0x3e03e438	0.12880027
20	0x3e33bb26	0.1755186
21	0x3f31699f	0.6930179
22	0xbe0e1281	-0.13874246
23	0x3c8adf03	0.016952043
24	0xbebea27e	-0.37233347
25	0x3e67ab99	0.22624053
26	0x3defcf81	0.117095
27	0xbe1ea973	-0.15494327
28	0xbe171dbb	-0.14757435
29	0xbf372dc0	-0.71554184
30	0xbdb39f05	-0.08770565
31	0xbdef9293	-0.11697879
32	0x3ed0b7d5	0.40765253
33	0x3d6a8922	0.057259686
34	0xbefb3a42	-0.49067885
35	0x3d090bad	0.0334584
36	0xbdc129ac	-0.094317764
37	0x3ee4b9d4	0.44673026
38	0xbf52814b	-0.82228535
39	0xbea60f02	-0.32433325
40	0x3e3154b6	0.17317471
41	0xbe85f094	-0.2616011
42	0x3e8c3d2a	0.27390414
43	0xbe4c048e	-0.19923612
44	0x3ece6c5a	0.4031704
45	0x3e676ae1	0.22599365
46	0xbd4dc7e2	-0.05023945
47	0x3e220a58	0.15824258
48	0x3d006382	0.031344898
49	0x3edb92e5	0.4288551
50	0xbd85a191	-0.06524957
51	0xbe32addd	-0.17449136
52	0x3ec3c552	0.3823648
53	0xbfc6a64c	-1.55195
54	0x3e18f035	0.14935382
55	0xbf520128	-0.82033014
56	0xbdd1ec3d	-0.10250137
57	0x3e4b0e21	0.19829609
58	0x3ebf42a7	0.3735554
59	0x3e25f34b	0.1620609
60	0xbf5c75bd	-0.86117154
61	0xbf9e90e5	-1.2387968
62	0xbd6003ae	-0.05469101
63	0x3e078dde	0.13237712
64	0x3d1ac490	0.037785113
65	0xbdd402f3	-0.10352125
66	0x3e5a9e62	0.21349481
67	0x3f095553	0.5364582
68	0xbe4632ff	-0.19355391
69	0x3ef1a6c8	0.47197556
70	0xbd157a92	-0.036493845
71	0xbd8ea885	-0.06965736
72	0x3e79dc56	0.24400458
73	0xc0040a7e	-2.0631404
74	0xbf428fb9	-0.76000553
75	0xbeb62bee	-0.3558039
76	0xbe267f2e	-0.16259453
77	0xbf2a79fe	-0.66592395
78	0xbf17242f	-0.59039587
79	0xbd4a19e9	-0.049341116
80	0xbf690a55	-0.9103139
81	0x3ec44871	0.38336518
82	0x3cd3aeb9	0.02584015
83	0xbeb2cb8c	-0.3492092
84	0x3f579588	0.8421254
85	0xbedf0381	-0.4355736
86	0xbd758398	-0.05993995
87	0xbe4ffe0a	-0.20311752
88	0xbf785ae8	-0.9701371
89	0xbf17de87	-0.59323925
90	0xbe41be38	-0.18920219
91	0xbb7233c1	-0.0036957117
92	0xbdf2cc86	-0.11855416
93	0xbeff0124	-0.49805558
94	0xbe16a5e4	-0.1471172
95	0x3eb083ed	0.3447565
96	0x3d94c295	0.07263676
97	0xbf891bb5	-1.071158
98	0xbd9e2065	-0.077210225
99	0xbd8f6498	-0.070016086
100	0x3d223d5d	0.0396093
101	0x3d9cb9cc	0.076526254
102	0xbffaf83e	-1.9607008
103	0x3c9f5749	0.0194508
104	0xbf0e46b9	-0.55576664
105	0xbe9419e1	-0.28925994
106	0xbe4de33a	-0.20106211
107	0xbd25616e	-0.04037612
108	0x3ede9798	0.43475032
109	0xbf745b3c	-0.9545171
110	0x3d066fc4	0.03282143
111	0x3f1b0f96	0.6057066
112	0xbf3bf60a	-0.734223
113	0xbed920c6	-0.42407817
114	0xbee78d87	-0.45225164
115	0xbf96be5e	-1.1776845
116	0xbff07817	-1.8786649
117	0x3e606835	0.21914752
118	0x3e8d6a96	0.2762038
119	0xbf1716e4	-0.59019303
120	0xbf1e980d	-0.6195076
121	0x3d944df9	0.072414346
122	0xbfbe1f9a	-1.4853394
123	0x3dc6d2d8	0.09708184
124	0x3b5c8861	0.0033650624
125	0xbec25bd9	-0.379607
126	0x3eb43c9d	0.35202494
127	0xbfea6d82	-1.8314669
128	0xbe0d677a	-0.13809004
129	0x3df03027	0.11727934
130	0x3d0e0e70	0.034681737
131	0xbbf63339	-0.0075134304
132	0x3ce60664	0.02807922
133	0x3b97e6b3	0.004635656
134	0xbe25c58b	-0.16188638
135	0x3d25d63f	0.040487524
136	0x3d45b4b1	0.048268024
137	0xbcd3a4c8	-0.02583541
138	0xbd836bc3	-0.06417038
139	0xba148984	-0.00056662434
140	0xbd205aae	-0.03914898
141	0x3ad95e6a	0.0016583924
142	0xbdd10201	-0.1020546
143	0x3d7b1e2e	0.06130808
144	0xbc7cf18a	-0.015438447
145	0xbd023395	-0.031787474
146	0xbda1237f	-0.078680985
147	0x3de11408	0.10990149
148	0xbe03c91d	-0.12869687
149	0xbd9dae54	-0.07699266
150	0xbdf85987	-0.12126451
151	0x3db6e0c3	0.08929589
152	0xbdbda0d4	-0.09259191
153	0xbd86e683	-0.06586935
154	0xbd21daec	-0.03951542
155	0x3db9fb97	0.0908119
156	0xbe10587b	-0.14096253
157	0xbdaaf8f1	-0.08348263
158	0xbe39a81a	-0.18130532
159	0xbd89537c	-0.067053765
160	0xbe1b1a8e	-0.15146849
161	0xbcd39748	-0.025828972
162	0xbc19465f	-0.009355157
163	0xbba671c8	-0.0050794818
164	0xba43342c	-0.0007446434
165	0xbd6563f0	-0.05600351
166	0xbe18e0f9	-0.1492957
167	0xbd3e2fea	-0.046432413
168	0x3d7085f6	0.058721505
169	0x3c43619e	0.011925129
170	0x3bbb96d5	0.0057247677
171	0xbda5c087	-0.08093362
172	0x3db6235c	0.08893463
173	0x3da3d825	0.08000211
174	0xba50b1ae	-0.00079610466
175	0x3db32c92	0.087487355
176	0xbbe92c8d	-0.0071159066
177	0xbc5d8b2a	-0.013521949
178	0x3ca1875d	0.019717867
179	0xbe28b5b1	-0.1647556
180	0x3d88a287	0.06671625
181	0xbdf52e0b	-0.119716726
182	0xbdc706b6	-0.09718077
183	0xbd87b19f	-0.066256754
184	0xbe18d438	-0.14924705
185	0xbdf5ae36	-0.11996119
186	0x3d869f4d	0.06573353
187	0xbd40a626	-0.04703345
188	0x3d2d3068	0.042282492
189	0x3ba4f8ba	0.0050345333
190	0x3dff0c2d	0.12453494
191	0xbdd67f3e	-0.10473488
192	0xbdcfc635	-0.10145227
193	0x3dfaf6e4	0.12254122
194	0xbe1ca832	-0.15298536
195	0xbe3fcf18	-0.18731344
196	0xbd3e2f27	-0.046431687
197	0x3d84e39d	0.06488726
198	0x3d222a9e	0.039591424
199	0xbe0a78f3	-0.13522701
200	0xbe1d4385	-0.15357788
201	0x3ced64f7	0.028978808
202	0xbe033f7c	-0.12817186
203	0x3d6ee0f9	0.05832002
204	0xbd84ee0c	-0.06490716
205	0xbdad04d9	-0.0844819
206	0xbd81f4b6	-0.06345503
207	0x3dc12b9d	0.09432147
208	0xbde717de	-0.11283849
209	0xbe0c5661	-0.13704826
210	0x3ce7cb3a	0.028295148
211	0x3d280732	0.041022487
212	0xbd59305c	-0.053024635
213	0x3d083288	0.033251315
214	0xbdb8619d	-0.09002993
215	0xbdfbe777	-0.12300008
216	0xbe0bc40e	-0.13649008
217	0xbdcb991a	-0.09941311
218	0xbdf0dd65	-0.11760978
219	0x3cb39913	0.021923577
220	0xbd5002a1	-0.050783757
221	0x3d89922f	0.067173354
222	0xbdcf29a8	-0.10115367
223	0x3d29c896	0.04145106
224	0x3d8490e0	0.06472945
225	0xbd6407d4	-0.055671528
226	0xbddcf5c7	-0.10789066
227	0x3cde5436	0.027139764
228	0xbe30c930	-0.17264247
229	0x3dad217a	0.08453651
230	0x3db56708	0.08857542
231	0xbd09de1b	-0.033659082
232	0xbde7251c	-0.11286375
233	0xbcc1ebb5	-0.023671964
234	0x3dc0792f	0.09398114
235	0x3a62f361	0.0008657482
236	0x3bc41d9e	0.005984976
237	0x3d401734	0.04689713
238	0x3d83734f	0.06418478
239	0xbcb68964	-0.02228231
240	0xbdb11dff	-0.086482994
241	0xbca67ed5	-0.02032415
242	0xbdabae8b	-0.08382901
243	0x3d8fba9c	0.07018015
244	0xbdca7b9f	-0.0988686
245	0x3d99cedc	0.075101584
246	0x3d171f3c	0.03689502
247	0xbe569d6a	-0.20958486
248	0xbe06254d	-0.13100167
249	0xbd2a8fbf	-0.041640993
250	0xbd936fa9	-0.07199032
251	0xbcddb572	-0.027064059
252	0xbde1d69b	-0.11027261
253	0x3db11044	0.086456805
254	0x3d3718e8	0.044701487
255	0xbd011077	-0.031509843

actor.2.bias f4 [128]
0	0xbe28f73e	-0.16500565
1	0xbd2cc3a3	-0.04217876
2	0xbd55cbda	-0.05219636
3	0xbd344092	-0.04400689
4	0x3dfa5e4c	0.12225017
5	0x3dc886df	0.097913496
6	0xbd87e23a	-0.06634946
7	0xbd10fc81	-0.035397056
8	0x3eb71457	0.35757706
9	0xbd950f4c	-0.07278308
10	0x3e7e9466	0.24861297
11	0xbeabb45e	-0.33536047
12	0xbc46bdbc	-0.012130197
13	0xbdc74de5	-0.09731654
14	0xbc848c3c	-0.01618015
15	0x3e5705a4	0.20998245
16	0xbe97301f	-0.295289
17	0xbcc8f3f2	-0.024530385
18	0xbe3f1710	-0.18661141
19	0xbd2de007	-0.042449977
20	0xbd87a568	-0.066233456
21	0xbdc76679	-0.09736342
22	0xbd8c8fe2	-0.06863381
23	0x3d823e01	0.063594826
24	0xbd17f5a3	-0.03709949
25	0x3d445c08	0.04793933
26	0xbdad0a55	-0.08449236
27	0xbd87c495	-0.06629292
28	0xbd0e76bd	-0.034781206
29	0xbd7870fa	-0.060654618
30	0xbd1ce04e	-0.03829985
31	0xbd9ce490	-0.07660782
32	0x3e5cfc28	0.21580565
33	0xbdb02b09	-0.08601958
34	0x3d310f21	0.04322732
35	0xbddee3d3	-0.10883298
36	0xbd58fb09	-0.05297378
37	0xbdbb9a5d	-0.09160302
38	0xbd638abb	-0.055552226
39	0x3d57ba38	0.052667826
40	0x3ccae4c7	0.024767293
41	0xbd52d539	-0.051472876
42	0xbd94f9bc	-0.072741956
43	0x3ccc26f5	0.02492092
44	0xbd347b19	-0.044062708
45	0xbd2120fb	-0.039338093
46	0xbd74ab02	-0.0597334
47	0xbd8d8afd	-0.069112755
48	0x3e08742d	0.13325568
49	0xbcdecf2e	-0.0271984
50	0xbd44b756	-0.048026405
51	0xbd659d00	-0.05605793
52	0x3de0e4b0	0.10981119
53	0xbd0534f9	-0.03252122
54	0x3e63d72f	0.22250055
55	0x3e2abff4	0.16674787
56	0xbdbeb93f	-0.09312677
57	0xbd9ad077	-0.07559293
58	0xbcf63498	-0.030054376
59	0x3e561de6	0.20909843
60	0xbc9eb4cf	-0.019373326
61	0x3dca4ebf	0.09878301
62	0x3dd7b449	0.105324335
63	0xbcd6a648	-0.026202336
64	0x3df48e3e	0.11941193
65	0xbd61e51a	-0.05515013
66	0xbcb3bab1	-0.021939607
67	0xbda37fc3	-0.07983353
68	0x3d983927	0.07432776
69	0xbce85dd9	-0.028365063
70	0xbd33238f	-0.043735083
71	0xbd8df3f2	-0.069312945
72	0xbdf208b9	-0.1181807
73	0xbdb65b7d	-0.08904169
74	0xbd693b41	-0.056941275
75	0xbdc7f736	-0.097639486
76	0xbe3f4aaf	-0.18680833
77	0x3eb62702	0.35576636
78	0xbd781027	-0.06056228
79	0xbd8b1e9e	-0.06792949
80	0x3e61819b	0.22022097
81	0xbd46131b	-0.048358064
82	0xbd177636	-0.03697797
83	0xbd50001e	-0.05078136
84	0xbd1032bc	-0.035204634
85	0x3c194512	0.009354847
86	0x3ce9d3dc	0.028543405
87	0xbdd33a92	-0.10313906
88	0xbd72c3f7	-0.059268918
89	0xbd51a81a	-0.051185705
90	0xbdcbd69f	-0.09953045
91	0xbd9eef5d	-0.07760499
92	0xbd393818	-0.04521951
93	0xbdaaae9b	-0.083340846
94	0x3e821c2c	0.25412118
95	0xbd7cd123	-0.061722886
96	0xbd5ad771	-0.053428117
97	0x3da5c839	0.0809483
98	0xbd84ddd1	-0.064876206
99	0xbe2e4059	-0.17016734
100	0x3d38494b	0.044991773
101	0x3e2acb62	0.16679147
102	0xbd8a9442	-0.06766559
103	0xbe0d682f	-0.13809274
104	0x3dbc04f2	0.09180631
105	0xbba39f10	-0.004993327
106	0xbd52f222	-0.051500447
107	0xbcfd369c	-0.030909829
108	0xbd164dde	-0.036695354
109	0xbd167873	-0.036735963
110	0xbd08b40a	-0.033374824
111	0xbcaee4c7	-0.021349324
112	0xbe597e69	-0.21239628
113	0xbd5005a4	-0.05078663
114	0xbe3af97d	-0.18259235
115	0xbd3ba8cc	-0.045815274
116	0xbe03f1df	-0.12885235
117	0xbcb53c66	-0.022123527
118	0x3e343f1f	0.17602204
119	0x3e1d87a3	0.15383773
120	0xbd6dbd4c	-0.058041856
121	0xbd809fb4	-0.06280461
122	0x3e0a83ca	0.13526836
123	0x3dfc76a2	0.12327315
124	0x3dace98c	0.08442983
125	0xbcfbe77e	-0.030750033
126	0xbdda2a73	-0.10652628
127	0x3da35cee	0.07976709

actor.4.weight f4 [1, 128]
0	0x3fbb6f3e	1.4643323
1	0xbe023a4e	-0.12717554
2	0xbb9e16ee	-0.004824511
3	0x3cc46393	0.023973262
4	0x401e160c	2.4700956
5	0xbfb2b7e7	-1.3962373
6	0xbd64b9aa	-0.055841126
7	0x3fbf3193	1.4937004
8	0xbf4aa016	-0.7915052
9	0xbdf413ee	-0.11917864
10	0xc07198c1	-3.7749484
11	0x3fb5c6ed	1.4201332
12	0xbe3c4d7a	-0.1838893
13	0x3c495305	0.01228786
14	0xbe01b0f8	-0.12665164
15	0xbf90d46b	-1.1314825
16	0x3f04696d	0.51723367
17	0xbde33b25	-0.11095265
18	0xbea10561	-0.31449416
19	0x3c027fee	0.007965071
20	0x3f7b9629	0.98276
21	0x3c942f03	0.018088823
22	0x3d60ce59	0.05488429
23	0xbfab3cb9	-1.3377906
24	0x3b07e125	0.0020733562
25	0x401c7a6f	2.4449728
26	0x3e1e44f9	0.15455998
27	0xbc5b2ce0	-0.013377398
28	0xbdbd76ec	-0.09251198
29	0xbd94abdd	-0.07259343
30	0x3ad7ab8d	0.0016454324
31	0x3ceaf6b6	0.028682094
32	0x40248082	2.5703435
33	0xbe33d760	-0.17562628
34	0x3f690167	0.91017765
35	0xbc25207b	-0.010078545
36	0x3f081d83	0.5317003
37	0x3dd26eea	0.102750614
38	0xbc3741fe	-0.011185167
39	0x3f5bbd83	0.85836047
40	0x3c1cbd8f	0.009566679
41	0x3e14f681	0.14547159
42	0xbe03ca7c	-0.1287021
43	0xbe68b71a	-0.22726098
44	0x3aebea56	0.0017998915
45	0x3dc57dfe	0.09643172
46	0xbe0297e6	-0.12753257
47	0x3d3ac683	0.04559947
48	0x3f557c53	0.8339283
49	0xbeb0d461	-0.34537032
50	0x3d7573d2	0.059924908
51	0x3d57ed32	0.05271644
52	0xbfd6afed	-1.6772438
53	0xbe2e7a0d	-0.17038746
54	0xc00ef432	-2.2336545
55	0x3f0c60e6	0.54835355
56	0xbef0fcb6	-0.47067803
57	0x3c9728db	0.018452099
58	0x3eea3e17	0.45750496
59	0xbec42a63	-0.38313589
60	0x3ca0e1f0	0.019638985
61	0x3fd260ff	1.6435851
62	0x3f2c583e	0.67322147
63	0xbcd944ff	-0.026522158
64	0xbdad631f	-0.084661715
65	0x3996819c	0.00028706796
66	0x3cf96fd9	0.03044884
67	0xbd70bc5f	-0.058773395
68	0x3f1c8e00	0.61154175
69	0xbdf1fb3c	-0.11815497
70	0xbefc189c	-0.49237525
71	0xbd0b2bc4	-0.033977285
72	0x3c9c3d59	0.019072222
73	0xbef8dd78	-0.48606467
74	0xbdf3f751	-0.11912406
75	0xbde977de	-0.11399816
76	0x3f61c7ec	0.8819568
77	0xbf89315d	-1.071819
78	0x3d598851	0.053108517
79	0xbdfb55f2	-0.12272252
80	0x3f707b3e	0.9393805
81	0x3cd39682	0.025828604
82	0xbd79d2e5	-0.06099214
83	0xbb06afb1	-0.0020551498
84	0x3e3d31e3	0.18476062
85	0xbf79ab6a	-0.9752718
86	0x3f904f26	1.1274154
87	0xbebf98a9	-0.37421158
88	0x3e26db65	0.1629463
89	0xbc4b7006	-0.012416845
90	0x3dfcbc06	0.1234055
91	0x3c5bf0bc	0.013424095
92	0x3f6188c5	0.8809932
93	0x3ca449c5	0.020054707
94	0xbdd865b4	-0.10566273
95	0x3db24682	0.087048545
96	0x3f658ab2	0.8966476
97	0xbfcab949	-1.5837795
98	0x3d4a60d3	0.049408745
99	0x3f0a50c9	0.5402952
100	0x3f3d72b5	0.74003154
101	0xc01b4d7d	-2.4266045
102	0x3d80fb1b	0.062978946
103	0x3ff2da44	1.8972859
104	0xbfab0523	-1.3360943
105	0x3f3eec3b	0.7457921
106	0xbe2d37f9	-0.16915883
107	0x403ab4fd	2.9172966
108	0xbdc2eb20	-0.09517503
109	0xbe3372fa	-0.17524329
110	0x3d8bca26	0.06825666
111	0x3dd93d1f	0.10607361
112	0x3eed7b04	0.46382916
113	0x3dee3862	0.11631848
114	0xbdd8ebfd	-0.10591886
115	0xbe0232f9	-0.12714757
116	0x3e37db27	0.17954694
117	0xbf0f1cfe	-0.55903614
118	0xbf017a96	-0.50577676
119	0xbdac8847	-0.0842443
120	0xbdd97f07	-0.10619932
121	0xbd82d676	-0.063885614
122	0x3f21a567	0.6314301
123	0xbed3b599	-0.41349486
124	0xbdf0f7f4	-0.11766043
125	0x3b0df8ed	0.0021663264
126	0xbeb4df66	-0.3532669
127	0xbddeec7a	-0.10884948

q1.0.weight f4 [128, 4]
0	0x3f419ffc	0.7563474
1	0xbece760c	-0.40324438
2	0xbe61014a	-0.21973148
3	0xbe17bbf3	-0.1481779
4	0x3f3110a0	0.6916599
5	0xbf4e48b4	-0.80579686
6	0x3dbe12d0	0.09280932
7	0x3e11efef	0.14251684
8	0xbf976d48	-1.1830225
9	0xbf5b377d	-0.85631543
10	0xbe659a21	-0.22422077
11	0xbd82bd49	-0.063837595
12	0x3f65d857	0.89783233
13	0x3ea1f386	0.31631106
14	0xbebbd43e	-0.36685365
15	0xbdfa590b	-0.12224015
16	0x3ef47b67	0.477504
17	0x3fb63876	1.423598
18	0xbeaec744	-0.34136403
19	0xbdbc9f22	-0.0921004
20	0x3f9c66fd	1.221893
21	0xbf8ffb4c	-1.1248565
22	0xbef7fd06	-0.4843523
23	0xbe871c64	-0.26388848
24	0x3dc970f0	0.09835994
25	0xbf7ea92e	-0.994769
26	0xbe5474df	-0.20747708
27	0xbdf6a07e	-0.1204233
28	0xbf35de3b	-0.7104222
29	0xbf7244b4	-0.9463608
30	0xbc6ab161	-0.014324517
31	0xbbc10318	-0.0058902614
32	0x3e9ca66c	0.3059572
33	0xbf55fa18	-0.8358474
34	0xbdf7eb1b	-0.1210539
35	0xbd5fcf5b	-0.05464111
36	0xbe4791aa	-0.1948916
37	0x3f158037	0.58398765
38	0x3e7d20d0	0.24719548
39	0x3eb27fad	0.34863034
40	0xbef3f5cf	-0.47648475
41	0x3edbdf10	0.4294362
42	0x3e1a265a	0.15053692
43	0xbd892bb5	-0.066977896
44	0x3f8af97b	1.0857385
45	0x3d2f7cb2	0.042843528
46	0xbeb952e6	-0.3619606
47	0xbdf29474	-0.118447214
48	0x3edb3721	0.42815498
49	0xbf93b130	-1.1538448
50	0xbe7301c0	-0.23731136
51	0xbdd06106	-0.10174756
52	0xbe0c3357	-0.1369146
53	0x3f81c888	1.0139322
54	0x3efa15a0	0.48844624
55	0x3e1d485c	0.15359634
56	0x3f505ee8	0.81394815
57	0x3f651910	0.8949137
58	0x3e2dbda9	0.16966881
59	0x3db228f1	0.08699215
60	0xbe132477	-0.14369379
61	0x3eeff1d0	0.46864176
62	0x3f05b87c	0.52234626
63	0x3e3d8ace	0.18509981
64	0xbf3ffa00	-0.74990845
65	0x3f3deb56	0.7418722
66	0x3e829d88	0.25510812
67	0x3d81c44a	0.06336267
68	0xbed79558	-0.42106128
69	0x3e762624	0.24037987
70	0x3e232d85	0.15935333
71	0x3d434285	0.04767086
72	0xbf45d3a6	-0.77276075
73	0xbee37445	-0.44424644
74	0xbe88cf00	-0.26720428
75	0xbd9a2566	-0.075266644
76	0x3ddf5fb3	0.10906925
77	0xbf771beb	-0.96526974
78	0xbdfae6bc	-0.1225104
79	0xbde30dd2	-0.110866204
80	0xbec4eacf	-0.38460395
81	0x3ee13a8a	0.43989974
82	0x3eb9474f	0.36187217
83	0xbeaa7104	-0.3328935
84	0xbf7c82a1	-0.98636824
85	0x3f04da64	0.5189574
86	0x3e8b6246	0.27223414
87	0x3c4ba211	0.012428776
88	0x3f38f283	0.72245044
89	0x3efa4517	0.48880836
90	0x3e81e151	0.25367215
91	0xbe47b571	-0.19502808
92	0x3f0e6cdb	0.5563485
93	0x3f818377	1.0118245
94	0x3e87ff82	0.26562124
95	0x3dd3bb23	0.10338428
96	0xbf58e55b	-0.8472497
97	0x3f195325	0.59892493
98	0x3e4da01f	0.20080613
99	0x3daf538d	0.08560858
100	0x3e98cd8a	0.29844314
101	0xbf024f67	-0.5090241
102	0x3edb7d6f	0.42869136
103	0x3d54dbcd	0.05196743
104	0x3e016d33	0.12639312
105	0x3fc6f034	1.5542054
106	0x3eaf3671	0.34221223
107	0x3dfcf488	0.12351328
108	0xbf2f356f	-0.6844091
109	0x3f6193ec	0.88116336
110	0x3e86a42b	0.26297125
111	0x3d99d0af	0.07510506
112	0xbf6569d7	-0.89614624
113	0x3f1971ec	0.59939456
114	0x3e8a430b	0.27004275
115	0x3d68d56a	0.056844153
116	0xbe681689	-0.22664846
117	0xbf40489e	-0.75110805
118	0xbdb0366d	-0.08604131
119	0x3e533eb1	0.20629384
120	0xbf25b560	-0.6472988
121	0x3f10ab1c	0.5651109
122	0x3d18f5b9	0.037343714
123	0x3e463908	0.19357693
124	0x3e47f680	0.19527626
125	0x3f163fb0	0.5869093
126	0x3f0c19f6	0.54727113
127	0x3c89d8c5	0.016826997
128	0xbf3089e7	-0.6896042
129	0x3f895c9d	1.0731388
130	0x3e8f8417	0.28030464
131	0x3d8e7988	0.06956774
132	0xbe6424ca	-0.22279659
133	0x3e8afc68	0.27145696
134	0x3ea03011	0.31286672
135	0x3c84acd7	0.016195698
136	0xbcfe0f2f	-0.0310131
137	0x3f8847ce	1.0646913
138	0x3e6778ae	0.2260463
139	0x3e0af558	0.13570154
140	0x3eca0dd5	0.39463678
141	0x3f8311d0	1.0239811
142	0x3ec0df7e	0.3767051
143	0xbdcf6e7c	-0.10128495
144	0xbc8e7ccd	-0.017393494
145	0xbf813641	-1.0094682
146	0xbe4e6a75	-0.20157798
147	0xbe000e86	-0.1250554
148	0xbcc195ab	-0.023630938
149	0x3fa7ec7a	1.3119042
150	0xbd44b992	-0.048028536
151	0xbe0ab3d8	-0.13545167
152	0x3f4bc87a	0.7960278
153	0xbd82e0b5	-0.06390516
154	0xbe4ee980	-0.2020626
155	0xbe3170ad	-0.17328139
156	0xbe195827	-0.14975034
157	0xbf22bf54	-0.63573194
158	0x3ca257b9	0.01981722
159	0xbc74d148	-0.014942475
160	0xbf9285b2	-1.144705
161	0x3ec9fd65	0.39451137
162	0x3e8113d5	0.25210443
163	0x3d3cd5a7	0.046102192
164	0x3f96bf5a	1.1777146
165	0xbfad2d80	-1.352951
166	0xbea662d5	-0.32497278
167	0xbe12d798	-0.14340055
168	0x3e23481d	0.15945478
169	0xbf6645d8	-0.89950323
170	0x3d82c859	0.063858695
171	0xbd2c8db9	-0.042127345
172	0x3e053205	0.13007362
173	0x3f838624	1.0275311
174	0x3e17c30b	0.14820497
175	0x3d295738	0.041342944
176	0xbf7379b8	-0.95107603
177	0x3ee1d2a0	0.44106007
178	0x3e5cdcf9	0.2156867
179	0x3d1ee782	0.038795
180	0xbfa44ea0	-1.2836494
181	0xbf05d260	-0.5227413
182	0xbeabb642	-0.3353749
183	0xbd6473f0	-0.05577463
184	0x3e81c071	0.25342134
185	0x3e93b4dd	0.28848925
186	0x3ed896b5	0.4230248
187	0xbb098d3b	-0.002098872
188	0x3f193f94	0.5986264
189	0xbf67af68	-0.90502024
190	0xbe8d7e40	-0.27635384
191	0xbde1e121	-0.11029268
192	0xbfbe6bc8	-1.4876642
193	0xbebcd567	-0.36881563
194	0xbea044b8	-0.31302428
195	0xbd5ba710	-0.05362612
196	0x3e89ee72	0.26939732
197	0x3f3ee7e5	0.7457259
198	0x3da789a9	0.081805535
199	0x3e0408eb	0.12894027
200	0x3fca49fc	1.5803828
201	0x3ec5699f	0.38557145
202	0x3ddac8b6	0.10682814
203	0xbd644335	-0.055728156
204	0xbf831256	-1.0239971
205	0xbf5b54cf	-0.8567628
206	0xbed13368	-0.40859532
207	0xbdb80d6e	-0.089869365
208	0xbf1c3ccc	-0.6103027
209	0xbed4f023	-0.4158946
210	0xbe7d0978	-0.24710643
211	0xbdc688d9	-0.0969407
212	0xbe3c8305	-0.18409355
213	0x3f890b83	1.0706638
214	0x3defcc60	0.11708903
215	0x3d8f1508	0.06986433
216	0xbdc0a2ab	-0.094060265
217	0x3ed70297	0.41994163
218	0xbe670fd4	-0.22564632
219	0x3d69c14b	0.057069104
220	0x3f1d1942	0.61366665
221	0xbf55de01	-0.83541876
222	0xbe1ad26e	-0.15119335
223	0xbcfd664c	-0.030932568
224	0xbee844ce	-0.45364994
225	0xbef2c28c	-0.47414052
226	0x3c6eb0b1	0.014568494
227	0x3dafa3b8	0.08576149
228	0x3e172eac	0.14763898
229	0xbf6aacfa	-0.9167019
230	0xbe2c36a6	-0.16817722
231	0xbda84cca	-0.08217771
232	0xbf6daac5	-0.928387
233	0x3e87d6eb	0.26531157
234	0x3d015ed1	0.031584565
235	0xbdcf5c48	-0.10125023
236	0x3ed3aa83	0.41341028
237	0xbf066ddc	-0.5251138
238	0xbe9855d0	-0.2975297
239	0xbc0dfcdc	-0.008666243
240	0x3fe4b6ca	1.7868283
241	0x3d9a5ee5	0.07537631
242	0xbcd9297b	-0.026509037
243	0xbd0d346e	-0.03447383
244	0xbed9d26a	-0.42543346
245	0x3e521d02	0.20518878
246	0x3e36d30d	0.17853947
247	0x3d98ee62	0.07467343
248	0x3de6813b	0.112551175
249	0xbe8dc33c	-0.27688015
250	0x3e965a42	0.29365736
251	0xbe8242a1	-0.2544146
252	0xbf181055	-0.5939992
253	0x3f95808f	1.1679858
254	0x3e9f04dd	0.31058398
255	0x3d81e7ef	0.06343066

q1.0.bias f4 [128]
0	0x3db96dd2	0.0905415
1	0x3ec5953d	0.38590422
2	0x3f0988af	0.5372419
3	0x3ea9918f	0.33118865
4	0xbf19d362	-0.6008817
5	0xbf5a886d	-0.8536442
6	0x3e1b0f03	0.15142445
7	0x3e985138	0.29749465
8	0xbd9fe358	-0.07807034
9	0xbe7793ae	-0.24177429
10	0x3dbc9f09	0.09210021
11	0xbf5c85c0	-0.86141586
12	0xbdc1e560	-0.09467578
13	0xbeca1378	-0.39467978
14	0xbeab4631	-0.3345199
15	0xbf18fe11	-0.59762675
16	0x3ed722bb	0.42018685
17	0x3f27a8d2	0.65491974
18	0x3f14b1f4	0.58084035
19	0x3df53c7b	0.11974426
20	0xbe384ee2	-0.17998841
21	0x3f179bac	0.5922191
22	0xbefb4493	-0.49075755
23	0xbf5b19d9	-0.85586315
24	0x3f089b3e	0.5336188
25	0x3d6b7b2a	0.057490505
26	0xbf1472ac	-0.57987475
27	0x3e8ff80f	0.2811894
28	0x3f125164	0.5715544
29	0xbec54fb9	-0.38537386
30	0x3eabf727	0.33587
31	0xbda4d809	-0.08049018
32	0x3e927f10	0.28612566
33	0xbf4c1556	-0.79720056
34	0x3e6de33e	0.23231217
35	0xbd96384d	-0.07334957
36	0x3e77df55	0.24206288
37	0x3e525dc6	0.20543584
38	0x3b7fbd56	0.0039022765
39	0x3e65dc0c	0.22447222
40	0x3eb83148	0.359751
41	0xbf6c2caf	-0.9225568
42	0x3dd401bd	0.10351894
43	0xbdc89624	-0.09794262
44	0x3eecd37f	0.4625511
45	0x3ef148d9	0.4712589
46	0xbdd93d66	-0.10607414
47	0xbea10236	-0.31447
48	0x3e517933	0.2045639
49	0xbe0163ea	-0.1263577
50	0xbe726c8b	-0.23674218
51	0x3f5c3bc5	0.860287
52	0x3f3b99e2	0.7328168
53	0xbe094d09	-0.13408293
54	0x3f18ee4d	0.5973862
55	0xbe130112	-0.14355877
56	0x3e0a4085	0.13501175
57	0x3c33293e	0.010935126
58	0x3e40aeff	0.18816756
59	0xbf99e474	-1.2022843
60	0x3ed5a681	0.41728595
61	0x3f1a3212	0.6023265
62	0x3e6b0a37	0.22953115
63	0x3df5c1d3	0.1199986
64	0x3e1e4e66	0.15459594
65	0xbe8c52d5	-0.27406946
66	0x3e5cc269	0.21558537
67	0xbf434a32	-0.7628509
68	0x3f10e677	0.5660166
69	0xbde51057	-0.11184757
70	0xbeba368e	-0.36369747
71	0xbedfcd4d	-0.4371132
72	0xbe34b4de	-0.1764712
73	0x3dc4e2f2	0.09613599
74	0xbd12d29c	-0.035845384
75	0xbd1c2abf	-0.038126703
76	0xbe0d3cb9	-0.13792695
77	0xbb431453	-0.0029766753
78	0x3e6894c7	0.22713004
79	0x3f590f1e	0.8478869
80	0x3e05c2d9	0.1306261
81	0x3e2189a3	0.1577516
82	0xbe26eb58	-0.16300714
83	0x3f2d74cf	0.6775636
84	0x3ebd3f56	0.36962384
85	0x3df0df3d	0.11761329
86	0xbeb4c300	-0.35305023
87	0xbdb668ca	-0.08906706
88	0x3edaafdf	0.42712304
89	0xbe409c01	-0.18809511
90	0x3ee3dc69	0.44504097
91	0xbdca71d1	-0.0988499
92	0x3ed56c28	0.4168408
93	0x3eef0633	0.46684417
94	0x3e225ca8	0.15855658
95	0xbef54f7f	-0.47912213
96	0xbef35391	-0.47524694
97	0x3d9ce471	0.07660759
98	0x3e86cea0	0.26329517
99	0xbf1c8872	-0.611457
100	0x3f00d591	0.50325876
101	0x3d035ca3	0.032070767
102	0x3e1584bd	0.14601417
103	0x3f4bcfd1	0.7961398
104	0xbd7deaa8	-0.061991364
105	0xbe21d2ef	-0.15803121
106	0x3e118691	0.1421149
107	0x3eba65ba	0.36405736
108	0xbe994c1f	-0.29940888
109	0x3da606c7	0.081067614
110	0x3d847d89	0.064692564
111	0x3ea920dc	0.33032882
112	0x3f1f3362	0.6218778
113	0x3f6c7dd7	0.92379516
114	0x3e2bf8b3	0.1679409
115	0x3e9589cf	0.29206702
116	0xbe7fb2d4	-0.24970561
117	0x3ec9befc	0.39403522
118	0xbedf8599	-0.43656614
119	0xbdbab202	-0.091159835
120	0xbda747a5	-0.08167962
121	0xbe1d48c5	-0.1535979
122	0x3f29af41	0.6628304
123	0x3e2ca058	0.16858041
124	0x3f084958	0.53236914
125	0x3e21f5ef	0.15816472
126	0xbf23d6c2	-0.6399957
127	0x3e138f4c	0.14410132

q1.2.weight f4 [128, 128]
0	0x3eb9a36d	0.36257496
1	0x3f03a346	0.5142101
2	0x3dd830d0	0.10556185
3	0x3ee83553	0.45353183
4	0x3e787559	0.24263515
5	0x3bc93009	0.0061397594
6	0xbd414c08	-0.04719165
7	0x3d1f0eab	0.038832348
8	0xbb1b7c3d	-0.0023725175
9	0x3e35a55c	0.17738861
10	0x3e7340e2	0.2375522
11	0xbdacb4e0	-0.08432937
12	0x3d2aea56	0.041727386
13	0xbe69c4d6	-0.22828993
14	0xbeb0de97	-0.34544823
15	0xbe019739	-0.12655343
16	0x3e7dd449	0.24788012
17	0x3d80ddac	0.062922806
18	0x3de7d9f0	0.11320865
19	0x3d848e95	0.06472508
20	0x3e22b283	0.1588841
21	0x3e5ec940	0.21756458
22	0x3e964856	0.29352063
23	0xbde80fce	-0.113311395
24	0x3e8a2df3	0.2698818
25	0x3ccd5ab4	0.025067665
26	0xbd0ad7e3	-0.033897292
27	0x3d9366d8	0.0719735
28	0x3e296cea	0.16545454
29	0x3d659038	0.05604574
30	0x3ebcf005	0.3690187
31	0xbe082cef	-0.13298391
32	0x3e81a9af	0.2532477
33	0xbe198db5	-0.14995463
34	0x3d044c29	0.032299194
35	0xbe2b422c	-0.16724461
36	0x3da7827f	0.08179187
37	0x3f07cffb	0.5305173
38	0x3e9df5ff	0.30851743
39	0x3d994e7b	0.07485672
40	0x3e81a4fc	0.25321186
41	0xbdd1f264	-0.102513105
42	0x3c970377	0.01843427
43	0x3d8757b3	0.06608524
44	0x3e440432	0.19142225
45	0x3c42c874	0.011888612
46	0x3e3d3a4b	0.18479268
47	0xbdfe9961	-0.124315985
48	0xbc5b4056	-0.013382038
49	0x3c11c005	0.008895879
50	0x3ead0605	0.33793655
51	0xbe11d07f	-0.14239691
52	0xbb7a420d	-0.0038186342
53	0x3da8f54a	0.0824991
54	0x3e98c32d	0.29836407
55	0x3c684c5b	0.014178361
56	0x3e429b08	0.19004452
57	0x3e0217b5	0.12704356
58	0x3e350ee0	0.17681456
59	0xbe912f06	-0.2835619
60	0x3f0bcc18	0.546083
61	0x3e9af3d3	0.30264148
62	0x3f15ad1c	0.5846727
63	0x3dc5dbfe	0.09661101
64	0x3bf1f18f	0.0073835324
65	0xbe0627da	-0.1310114
66	0xbd872c74	-0.06600276
67	0x3e9655f8	0.29362464
68	0x3e9cb6b6	0.30608147
69	0x3dd3e754	0.10346857
70	0x3d18973d	0.037253607
71	0xbe81f9fc	-0.25386035
72	0x3dad287b	0.08454987
73	0x3daa0d52	0.08303322
74	0x3d2f5a77	0.042810883
75	0x3f6bdc33	0.9213287
76	0x3ea093c1	0.31362727
77	0xbd49eb34	-0.049296573
78	0x3e92140e	0.28530926
79	0x3e247f13	0.160641
80	0xbe3b947a	-0.18318358
81	0x3d6ab325	0.05729975
82	0x3dd08c06	0.10182957
83	0x3e1fe725	0.15615518
84	0x3c9b9aaf	0.018994657
85	0xbdd10347	-0.10205703
86	0xbd8f653b	-0.0700173
87	0x3cc3e913	0.02391485
88	0x3d4d80e3	0.050171744
89	0x3df33079	0.1187448
90	0x3e9e29a3	0.3089114
91	0x3daf9086	0.085724875
92	0x3e40021a	0.18750802
93	0x3e0ea4d8	0.1393007
94	0x3e8a5cb4	0.27023852
95	0xbf047ab1	-0.5174971
96	0x3e699719	0.22811545
97	0x3e65c859	0.22439708
98	0x3ea6aac3	0.32552156
99	0x3d8e893d	0.0695977
100	0xbdb4fa3b	-0.0883679
101	0xbd4cf5a2	-0.05003894
102	0x3d1ea848	0.038734704
103	0x3d52ebb5	0.05149432
104	0x3eff7f00	0.4990158
105	0xbc4de0a9	-0.01256577
106	0x3d982178	0.07428259
107	0x3ebecc59	0.3726528
108	0x3ec0cef1	0.37657884
109	0x3e528a3a	0.20560542
110	0x3f66a4dc	0.90095305
111	0xbc7a05db	-0.015260185
112	0x3ea45295	0.32094255
113	0xbd933451	-0.07187713
114	0x3e2aa36b	0.16663902
115	0x3e8604c9	0.26175526
116	0x3e6911be	0.22760674
117	0x3e9a2797	0.3010833
118	0x3d0234ae	0.03178852
119	0x3ac1c7f1	0.0014784319
120	0x3f21e764	0.632437
121	0xbc68d303	-0.014210465
122	0xbd16f7f7	-0.03685757
123	0x3e04100c	0.12896746
124	0x3eb53373	0.35390815
125	0x3f0645c2	0.5245019
126	0x3b85155b	0.0040613837
127	0x3e10eac7	0.1415206
128	0xbdba6601	-0.09101487
129	0xbe166d59	-0.1469015
130	0x3db76ee0	0.089566946
131	0x3da6385e	0.0811622
132	0x3d936880	0.07197666
133	0xbd7b6c3c	-0.061382517
134	0xbe119a08	-0.14218915
135	0xbd814783	-0.06312468
136	0xbe20e979	-0.15714063
137	0xbd4d4162	-0.050111182
138	0x3dfc95a9	0.12333233
139	0x3b9850e6	0.0046483157
140	0x3e0cb444	0.13740641
141	0xbd493f79	-0.049132798
142	0xbdc72fce	-0.09725915
143	0xbe0bd1a8	-0.13654196
144	0x3e08acd4	0.13347179
145	0xbe221301	-0.15827562
146	0xbddd25c8	-0.10798222
147	0xbd9efdd8	-0.077632606
148	0x3d13caf0	0.03608221
149	0x3db1e0bd	0.086854436
150	0x3d50d237	0.050981726
151	0xbbc3680f	-0.0059633325
152	0x3e001cd9	0.12511005
153	0x3da1c935	0.07899705
154	0xbdb359d9	-0.087573715
155	0xbca118ae	-0.019665089
156	0x3de8463e	0.11341523
157	0xbdd80a22	-0.10548808
158	0xbc5a72d6	-0.013333043
159	0xbd0932d5	-0.033495743
160	0xbe262489	-0.16224875
161	0x3da8eaa5	0.0824788
162	0x3d8519ba	0.064990476
163	0x3d8496f7	0.06474107
164	0xbdbd6cc3	-0.0924926
165	0x3e045fe0	0.12927198
166	0xbdddd257	-0.10831135
167	0xbdc16173	-0.09442415
168	0xbe1ce047	-0.1531993
169	0x3df4cf25	0.11953572
170	0x3d830c0a	0.06398781
171	0xbd620da2	-0.055188783
172	0xbe11d3a6	-0.14240894
173	0x3c02d1fb	0.007984634
174	0xbe23618a	-0.15955177
175	0x3dc9d302	0.098547
176	0xbdfcff4b	-0.12353381
177	0x3d15f7d5	0.036613304
178	0xbc14d517	-0.009084008
179	0x3de0ce18	0.10976809
180	0xbda5f9bc	-0.08104274
181	0xbcfe5d10	-0.031050235
182	0xbe053ad1	-0.13010718
183	0xbdb34c21	-0.08754755
184	0x3e07671c	0.13222927
185	0x3dfc7902	0.12327768
186	0x3d36f7a5	0.044669766
187	0xbe103c46	-0.14085492
188	0x3d84e301	0.0648861
189	0xbe2a9721	-0.16659214
190	0xbdf68e6b	-0.12038883
191	0xbe15d371	-0.1463144
192	0xbd8d3404	-0.06894687
193	0xbd921326	-0.071325585
194	0xbe03d710	-0.12875009
195	0xbde2912c	-0.110628456
196	0xbdad0398	-0.08447951
197	0xbdaa82b1	-0.08325709
198	0x3d54c7c8	0.05194834
199	0x3dcb7c9a	0.09935875
200	0x3c846e2b	0.016165813
201	0x3c0c5f3e	0.008567629
202	0x3ddb4042	0.107056156
203	0xbd1118cb	-0.035424035
204	0xbdd5a256	-0.10431354
205	0xbe102ff0	-0.14080787
206	0xbe009ed1	-0.12560584
207	0x3cc095c9	0.023508923
208	0x3dd89e40	0.10577059
209	0xbd099a29	-0.033594284
210	0xbd1cf471	-0.038319055
211	0x3deac297	0.11462896
212	0xbdbbcbca	-0.09169729
213	0x3dd62154	0.104555756
214	0xbdf531dc	-0.119724005
215	0x3defc05f	0.11706614
216	0xbe2995cb	-0.16561048
217	0xbdfb53d7	-0.122718506
218	0x3d3b65c2	0.04575134
219	0x3d97f3b7	0.07419532
220	0xbda1ecae	-0.07906471
221	0xbda38962	-0.07985188
222	0x3de9ca85	0.11415581
223	0x3da69dda	0.081355765
224	0xbe2984fc	-0.16554636
225	0x3de3d51d	0.111246325
226	0x3c7c3113	0.01539256
227	0xbe0cbcb4	-0.1374386
228	0xbd07630f	-0.033053454
229	0xbca1c5aa	-0.019747574
230	0x3d33d4be	0.04390406
231	0xbe0aa9d6	-0.1354135
232	0xbd760b9f	-0.060069676
233	0xbd65f70b	-0.0561438
234	0xbd870968	-0.06593591
235	0x3ccde27e	0.025132414
236	0x3b42fd1c	0.0029752916
237	0x3d21e028	0.039520413
238	0xbd39e327	-0.045382645
239	0xbc81b806	-0.01583482
240	0x3cb24c88	0.021765009
241	0x3d72ecbd	0.059307802
242	0xbdcdedd5	-0.100551285
243	0xbd9aa4b5	-0.075509466
244	0x3d0e9ddf	0.034818526
245	0xbdd0cfa0	-0.10195851
246	0x3d9cc161	0.076540716
247	0x3c2f5047	0.010700292
248	0x3defd44f	0.117104165
249	0x3de608b9	0.112321325
250	0xbd9dd1c8	-0.07706028
251	0x3d8d91e7	0.06912594
252	0x3b0476fb	0.002021252
253	0x3d2fb13f	0.042893644
254	0x3cbfe555	0.023424784
255	0x3bc4c759	0.0060052094

q1.2.bias f4 [128]
0	0x3eef7659	0.4676998
1	0xbc73117b	-0.014835711
2	0x3ecf4790	0.40484285
3	0x3e884dad	0.26621762
4	0xbba82215	-0.005131016
5	0xbd4a5b38	-0.0494034
6	0x3eed3969	0.46332863
7	0x3ef5c26f	0.47999904
8	0xbca29ff1	-0.019851657
9	0x3ea95ec1	0.33080104
10	0xbd59f8b6	-0.053215705
11	0x3db2bb36	0.08727114
12	0x3e5ea20a	0.217415
13	0x3efc7c0b	0.49313387
14	0x3ef76c1a	0.48324662
15	0x3df4882a	0.11940034
16	0x3ed89a58	0.42305255
17	0x3eed97e0	0.46404934
18	0xbd0ae5f3	-0.033910703
19	0xbc9ec24a	-0.019379754
20	0x3ea0f741	0.3143864
21	0x3ed5f977	0.4179189
22	0xbc7aeedd	-0.0153157385
23	0x3e0ad305	0.1355706
24	0xbd3986ff	-0.045294758
25	0x3eca24be	0.39481157
26	0xbccd5650	-0.025065571
27	0x3d425c75	0.047451455
28	0xbca95551	-0.020670565
29	0xbc94c0f9	-0.018158423
30	0x3ef877fd	0.48529044
31	0xbd7cb8fe	-0.06169986
32	0x3eec1a23	0.4611369
33	0x3f07b946	0.5301708
34	0x3e1baaa8	0.15201819
35	0x3eea6248	0.45778108
36	0x3ee0ed33	0.4393097
37	0x3ec958a3	0.39325437
38	0xbd282495	-0.041050512
39	0x3f23b851	0.6395312
40	0x3e53ca31	0.20682599
41	0x3edf827d	0.43654242
42	0x3ef38c41	0.47567943
43	0x3eca7cae	0.39548248
44	0xbd3f4016	-0.046691976
45	0x3e6092cd	0.21931
46	0x3e9f24ec	0.31082857
47	0x3e1c5b58	0.1526922
48	0x3e4369d3	0.19083337
49	0xbd4b4ce9	-0.049633894
50	0x3f0675ac	0.52523303
51	0x3efa1828	0.48846555
52	0x3f181dc9	0.5942045
53	0x3ee24420	0.441926
54	0xbd5cbdb7	-0.053891864
55	0xbea1408b	-0.31494555
56	0x3e701178	0.23444164
57	0x3ec59ca6	0.38596076
58	0x3ec4d84d	0.38446274
59	0x3efa50bf	0.4888973
60	0xbd1dee1a	-0.03855715
61	0x3edb9303	0.428856
62	0xbc955884	-0.018230684
63	0x3f074c3d	0.52850705
64	0x3f0f232c	0.55913043
65	0x3f088f08	0.5334325
66	0x3edc05db	0.42973217
67	0xbd710236	-0.05884
68	0xbd0ee00f	-0.034881648
69	0xbd840a5f	-0.06447291
70	0x3e122a4d	0.14273949
71	0xbc8d17de	-0.017223295
72	0x3ef0d709	0.4703906
73	0xbccaaf25	-0.024741719
74	0x3f0c0177	0.54689735
75	0x3ed127be	0.40850633
76	0x3ef8783b	0.4852923
77	0x3e488233	0.19580917
78	0x3f01894a	0.5060011
79	0x3ec81b47	0.3908331
80	0x3f1811fe	0.59402454
81	0xbd2d130b	-0.04225449
82	0x3e91a1f9	0.28443888
83	0x3ed0eaa2	0.4080401
84	0x3ee65d91	0.4499326
85	0x3ece3416	0.40274113
86	0x3ee7c2a7	0.45265695
87	0x3ed2cca9	0.41171768
88	0x3eefd31b	0.46840748
89	0xbd41094d	-0.04712801
90	0x3eeee611	0.46659902
91	0xbbc4c9ab	-0.006005486
92	0xbc9dda95	-0.019269267
93	0x3f05ff24	0.5234244
94	0x3ee549d3	0.44782886
95	0x3eb1c02c	0.34716928
96	0x3ed661e0	0.41871548
97	0x3efe3a38	0.49653792
98	0x3ee785bb	0.45219216
99	0x3ef26107	0.4733965
100	0xbd016969	-0.031594668
101	0x3ee80809	0.4531863
102	0x3cc1fb8b	0.023679515
103	0x3ef08013	0.46972713
104	0x3eed21e7	0.46314928
105	0x3f161607	0.5862736
106	0x3dda7439	0.10666699
107	0x3eecfcde	0.46286672
108	0x3ec63e1e	0.38719267
109	0x3e19443b	0.14967434
110	0x3f191b4a	0.59807265
111	0x3eccb55e	0.39982122
112	0xbd80fef1	-0.06298626
113	0x3ef6c3f2	0.4819637
114	0x3edc00c2	0.42969328
115	0xbe6963b2	-0.22791937
116	0x3f17a962	0.5924283
117	0x3e2e1da6	0.17003497
118	0xbcda5735	-0.026652912
119	0xbd8c3a11	-0.06847013
120	0x3f0172a7	0.5056557
121	0xbc69ef54	-0.014278252
122	0xbca2a0a1	-0.019851984
123	0x3e927dbd	0.28611556
124	0xbc658438	-0.014008574
125	0x3ed0ad57	0.40757248
126	0x3e82b95a	0.25532037
127	0x3ee3b385	0.444729

q1.4.weight f4 [1, 128]
0	0xbe1fb4ea	-0.15596357
1	0x3def695e	0.11690019
2	0xbd29f0b4	-0.041489318
3	0x40176ebc	2.3661337
4	0x3d98de3a	0.07464261
5	0x3dd6c45f	0.104866736
6	0xbe139405	-0.14411934
7	0xbe6c94c8	-0.2310363
8	0x3e319ab4	0.17344171
9	0x4000aaf9	2.0104353
10	0x3d18250a	0.0371447
11	0xc0068a94	-2.1022081
12	0x4017900f	2.3681676
13	0xbe978d50	-0.296
14	0xbe6076aa	-0.21920267
15	0x4014adf9	2.3231184
16	0x404960c4	3.146531
17	0xbefdbb6b	-0.4955705
18	0x3d6f9778	0.05849406
19	0x3f05e406	0.5230106
20	0xbf17f927	-0.5936455
21	0xbd8c8409	-0.06861121
22	0x3dc483b8	0.09595436
23	0x400621ec	2.0958204
24	0x3dd531fd	0.10409925
25	0x404bfc37	3.187269
26	0x3c95af73	0.018272137
27	0x3f94dcc7	1.1629876
28	0x3dbf6db6	0.093470976
29	0x3d1249af	0.0357148
30	0xbe3763bb	-0.17909138
31	0x3d59ad53	0.05314381
32	0xbe1a84c0	-0.15089703
33	0xbe5fac7d	-0.21843143
34	0x400cddf1	2.2010462
35	0xbe20d243	-0.15705208
36	0xbdddaca4	-0.10823944
37	0xbd1f1e4d	-0.038847256
38	0x3e08c1c2	0.13355163
39	0xbedb77ad	-0.42864743
40	0xbf4e84e1	-0.8067151
41	0xbda1ab60	-0.07894015
42	0xbe0fce01	-0.14043428
43	0xbf9fbafe	-1.247894
44	0x3d5a3342	0.05327154
45	0x400d0e84	2.204011
46	0xbfd9a63e	-1.7003858
47	0x40235030	2.5517693
48	0xbfb81600	-1.4381714
49	0xbbdf4618	-0.0068137757
50	0x4053e9ef	3.3111532
51	0xbe84dfd5	-0.2595202
52	0xbebbf37d	-0.36709204
53	0xbea010d2	-0.31262833
54	0x3ccccc20	0.024999678
55	0x40089f33	2.1347167
56	0x405dd646	3.4662032
57	0xbd173a62	-0.036920913
58	0xbd76d41f	-0.06026089
59	0xbe7b6059	-0.24548472
60	0x3d62aba5	0.055339474
61	0xbdaca9b2	-0.08430804
62	0x3e91e02d	0.28491345
63	0xbebfb768	-0.37444615
64	0xbec9cfb6	-0.39416283
65	0x402eebb0	2.7331352
66	0x403067ba	2.756331
67	0x3bdf2b2f	0.006810568
68	0x3cefa399	0.029252814
69	0x3e03cf4e	0.12872049
70	0x4000c42e	2.0119739
71	0x3e472136	0.19446263
72	0xbe4d0501	-0.2002144
73	0x3e40d073	0.18829517
74	0xbe8bf8f1	-0.27338365
75	0xbd56b8be	-0.052422278
76	0xbe77f9d3	-0.24216394
77	0x401732fb	2.3624866
78	0xbfaea688	-1.3644571
79	0xbdcdd08e	-0.10049544
80	0xbf7c48c2	-0.9854852
81	0x3dc327f4	0.09529105
82	0xbecca3e6	-0.39968795
83	0xbdf82c16	-0.12117784
84	0x404ec62b	3.2308452
85	0xbe235e98	-0.15954053
86	0xbe0773bf	-0.13227747
87	0xbf962eb9	-1.1733009
88	0xbe266673	-0.16250019
89	0xbbc643fd	-0.0060505853
90	0xbe3f7b61	-0.18699409
91	0x3de3c709	0.11121947
92	0x3e3cdff8	0.18444812
93	0xbf1a6273	-0.6030647
94	0xbddebac6	-0.10875468
95	0xbf806b82	-1.0032809
96	0xbd9f4865	-0.0777748
97	0xbedaafa6	-0.42712134
98	0xbe001707	-0.12508784
99	0xbe4e01b7	-0.20117842
100	0x3c19988d	0.00937475
101	0xbe06ae53	-0.13152437
102	0x3cd421c5	0.025895009
103	0xbe3e3839	-0.18576135
104	0xbe030973	-0.12796573
105	0xbea90230	-0.3300948
106	0x40012156	2.0176597
107	0xbe142d59	-0.14470424
108	0x407d0634	3.9535036
109	0xbd6d600e	-0.057952933
110	0xbfa3b2a8	-1.2788897
111	0xbd4456d8	-0.047934383
112	0x3e1d786c	0.15377969
113	0xbe5364f2	-0.20643976
114	0xbdbd106e	-0.09231649
115	0x3fc86f0d	1.565889
116	0xbe2b2fc1	-0.16717435
117	0xbd524b0f	-0.051341113
118	0x3d277f07	0.040892627
119	0x3f33c103	0.7021639
120	0xbe988dd6	-0.29795712
121	0x3e49c829	0.19705261
122	0x3d1904cd	0.037358094
123	0xbff4828d	-1.9102341
124	0xbbee89b1	-0.0072795977
125	0xbd6dc7fe	-0.058052056
126	0xbe19c8e4	-0.1501804
127	0xbde60e96	-0.11233251
