TD3/checkpoints/Pendulum-v1/02_last_checkpoint.pth (torch, 856658 bytes, 60 tensors)

actor.0.weight f4 [128, 3]
00000000: eb29 e9be f201 98bd 283d ae3a 67b8 bd3e
00000010: 8956 22bf 05c8 f6bd c124 883e 49f9 b0be
00000020: 2306 2d3c e4f7 9d3d cd2b 2ebf 1911 a83d
00000030: b84e babd 99df b53d a7aa 233b b18e dbbe
00000040: ca9c a53e 6012 d23d e692 7cbd fe52 9a3c
00000050: 4f73 c73a d192 8f3e c7f7 16bf e31b c9bd
00000060: 0e5a 9dbd 1c5f 2c3f 83c3 fb3d 47d7 9d3e
00000070: 5371 40bf ed94 8eb8 05b2 d43e 4e6d c03e
00000080: 3357 4a3e 888a 72bf 944e 5c3e e98f 2a3d
00000090: 537c 4c3e a4cf bf3e c4f6 353e f0f8 67bf
000000a0: 1e45 923e de1c 6c3d adeb e43e 96e0 31bf
000000b0: 572b 7cbd cc2f d33e 5e44 00bf ec64 07be
000000c0: f8e3 3abd ffbd d53d 4c10 a93a 3d1e 58bc
000000d0: daba f63e 1c89 1d3e 2700 b23d a3b6 793e
000000e0: 7592 90b9 66f5 323e c764 f53e f3fa 2b3e
000000f0: f1c2 d23e f77a 843e 6656 4c3e 9c13 e63e
00000100: dd54 c73e 5c2c a23d 9218 b13d 0d75 a5be
00000110: 55cb f63b 6470 abbe c310 4bbf b588 f6bc
00000120: 8a3e c43e d881 1dbf 5270 793c 15ea 56bf
00000130: cbb6 96be 138c 1cbb 6de0 d6be aa75 41bf
00000140: 7d74 09bd 8090 0f3e 5f15 763e 0347 313c
00000150: e5de 163f 5c31 183f 68c0 15be 0df2 863e
00000160: 127c 6fbf 1e31 9f3c 75d7 e1bd 5bb6 4b3e
00000170: fcbd 35bd 9da8 0bbf 1b7b 52bf a0fc 63bc
00000180: 1e37 cd3e 5d03 ca3e da31 993d 7e57 a83e
00000190: c013 b63d e439 193e 77f5 cb3e 1f6b c2be
000001a0: 2270 20be 0fa7 883e ea9d 193e f046 143d
000001b0: 62cb 35bd f1f8 4ebf 3500 48be 8fc8 db3e
000001c0: 5126 173f fb53 943d a7d8 27bd 6965 12be
000001d0: 7f85 333d 45b0 3a3e 47bb f33e d840 173e
000001e0: 16e3 f0be 4ddd ecbe fc0a 03be 9d8a 48be
000001f0: 032c 66bf 3330 b83d 01dc ee3d 2880 8d3d
00000200: fe14 1b3e 34a9 943e e2bc c7be 4039 bf3d
00000210: 524a 083f 248e 903e 98cc 5b3e 8234 41be
00000220: 602d 3abf e120 a3bd 23ca 1ebe 798c 63bd
00000230: efb3 2f3b 8e24 763e fe1f 363f 45ea 32bd
00000240: 07a9 bd3d 045b ebbd aa3d f03d b510 323c
00000250: 74e0 3b3d 7d4a 8c3b a7a8 ce3e 95f0 003f
00000260: 1e6e e43d d267 643e caef 37bf 54ff c8bd
00000270: 5e6a a63e 34b3 2a3f a60d b03d 6c26 2abf
00000280: 2b4d 0a3f a90c bc3d 67d4 46bd 3393 5cbf
00000290: 1152 3cbe 2681 333e 5d47 06bf 21e4 30be
000002a0: 5975 a0be bec3 9ebe c35c 1bba e5c4 dbbd
000002b0: 4818 c4be a7e6 3dbe 8bbe bbbe 1970 bdbe
000002c0: 8e5a adbb fb9d 47bf 4e42 833e 3f9e 6e3e
000002d0: cf10 0a3f da26 a33e 5365 453e 8293 c03c
000002e0: 81a1 153c 79aa 083a 89e5 37bd ab59 16ba
000002f0: 46cb bb3a ae4f 223f e18f 923e 893a 1c3e
00000300: fb21 c63e d429 fd3e 98be b93d 41ad 16be
00000310: b459 95bd ddda cbb8 20ef 4dbe 7e64 393f
00000320: 2aee 16bb fef2 9c3e ca53 313f 9aeb ce3d
00000330: 9c06 f5bc 9e37 cb3d 5434 0d3b 6e4f e53e
00000340: 6a0d c93e cecf 363e 04e3 b43e 08dc bfbc
00000350: 0a05 823d 671c e5be d8d6 3ebf dde5 773d
00000360: 0d7d ae3e 4afe 1a3f ec07 d83d 9274 303f
00000370: 347d 783e 0959 64bd da05 8d3e a21b d7be
00000380: a342 2fbe 15cc 8dbd a2a3 57bf d41e b73d
00000390: 5f4e f8bb 6c26 50bf a8dc 35be 3046 a53e
000003a0: 6be4 54bf 26ca 6fbd 99cf 1fbf a592 883e
000003b0: a970 743d 42e5 803e 4193 9d3e 1dd2 583e
000003c0: cbc2 973e 74ec f63e d4f2 353e f659 313e
000003d0: 5984 ba3d 0e1c 503e d8c4 73be 3de4 453f
000003e0: d4db 013e 5b4b 9bbd 85a7 b63d cd22 4b3c
000003f0: 7373 d83e 24d1 f33d 9245 0c3e 544b 6fbf
-0.45539793 -0.07422246 0.0013293372 0.3705475 -0.6341329 -0.120498694 0.2659054 -0.3456519
0.010560545 0.07713297 -0.68035585 0.08206386 -0.09097046 0.088805385 0.0024973543 -0.42882302
0.32346183 0.10257411 -0.06166353 0.018838402 0.001521686 0.280417 -0.5897183 -0.09819772
-0.07683192 0.67332625 0.1229315 0.30828306 -0.7517292 -6.798827e-05 0.41542068 0.37583393
0.19759826 -0.9474263 0.2151435 0.04164115 0.19969301 0.37463105 0.17769915 -0.90614223
0.28568357 0.057644717 0.44711056 -0.69483316 -0.06156477 0.41247404 -0.5010432 -0.13222092
-0.045627564 0.104366295 0.0012898534 -0.013190803 0.4818943 0.15384334 0.08691435 0.24386077
-0.0002757494 0.17476425 0.4792845 0.16794948 0.41164353 0.25875065 0.19954833 0.44936836
0.38931933 0.07918617 0.086472645 -0.32315865 0.0075315633 -0.33484185 -0.7932245 -0.030094484
0.38328964 -0.6152625 0.015224533 -0.8395093 -0.29436335 -0.0023887202 -0.41968098 -0.75570166
-0.033558358 0.14019966 0.2403159 0.010820153 0.5893386 0.59450316 -0.14624178 0.26356545
-0.9354869 0.0194326 -0.11027423 0.19893782 -0.044370636 -0.5455416 -0.82219094 -0.013915211
0.40081114 0.3945569 0.074802116 0.3287925 0.08890486 0.1496349 0.39835712 -0.37972352
-0.15667775 0.26689956 0.15001646 0.036200464 -0.044383414 -0.80848604 -0.19531329 0.42926452
0.5904284 0.072425805 -0.0409781 -0.14296497 0.043828484 0.18231304 0.4760382 0.1477083
-0.47048253 -0.4626259 -0.12797159 -0.19584127 -0.89910907 0.08993568 0.11663056 0.069092095
0.15144727 0.29035342 -0.39011294 0.093370914 0.53238404 0.28233445 0.21464765 -0.18867686
-0.72725487 -0.079652555 -0.15506797 -0.055553887 0.002681013 0.24037382 0.71142566 -0.043680448
0.09260755 -0.11491969 0.117305115 0.010868241 0.045868352 0.0042813406 0.40363047 0.503671
0.11153816 0.2230523 -0.71850264 -0.09814325 0.32503027 0.6667969 0.08596353 -0.6646488
0.54024 0.09182102 -0.048542406 -0.8616211 -0.18390681 0.17529735 -0.5245264 -0.17274524
-0.3133953 -0.31008714 -0.00059266033 -0.10730914 -0.38299775 -0.18545018 -0.3666881 -0.36999586
-0.005290336 -0.77975434 0.25636524 0.23302554 0.539319 0.3186558 0.19276933 0.023507837
0.009132744 0.00052133907 -0.044896636 -0.00057354075 0.0014327548 0.6340283 0.28625396 0.15256704
0.386978 0.49445975 0.09069556 -0.14714529 -0.072925 -9.720561e-05 -0.2011075 0.72418964
-0.002303014 0.30654138 0.69268477 0.10103531 -0.029910378 0.099227175 0.0021546083 0.44787163
0.39268047 0.17852709 0.3532945 -0.023420349 0.063486174 -0.44748232 -0.74546576 0.06052195
0.3407978 0.60544264 0.10548386 0.6892787 0.24266511 -0.055748973 0.27543527 -0.4201327
-0.17115264 -0.06923691 -0.8423406 0.08941427 -0.007577702 -0.8130863 -0.17759955 0.3228011
-0.8316104 -0.058542393 -0.62426144 0.2667438 0.059677754 0.2517491 0.30776408 0.21173902
0.29640803 0.48227274 0.17768413 0.17319474 0.091072746 0.20323202 -0.23805559 0.7730139
0.12681514 -0.07582732 0.089186706 0.012398434 0.4227558 0.11905125 0.13698414 -0.93474317

actor.0.bias f4 [128]
00000000: 6f1b 01bf 762b 96be df52 72be 0284 e73d
00000010: 5de1 18be cece 94be b77a b5bd 2a18 0dbe
00000020: f35a 8abe fd75 e2bd 8fc6 ebbe 6a54 89be
00000030: 90f4 1abf 7aa4 a7be 4804 a1be 339c 87be
00000040: 49c3 08be 896c 9fbe 3aad 95be bacb 0cbf
00000050: e1ea 0cbf d5a8 b2be 3c2d d0be 7bc5 80be
00000060: f37d dabe 7388 3cbe 08d5 80be 691b babe
00000070: f92f 09bf f024 5bbe 7ceb 13bf 0651 c6be
00000080: d727 97be 73c7 37bf e2b2 17bf e0d6 10bf
00000090: a516 aebe 98b3 ddbe b4e4 00bf 31ac f1be
000000a0: edec 42be 18f1 08be c517 32bf fddb a0be
000000b0: 2507 e2be 4039 47be 7a63 3fbe e2f5 3dbe
000000c0: 0c15 55bf 3ea1 dcbd 05cc cdbe 8554 6bbd
000000d0: b94e 67be 7181 1cbe a190 b1be 9dae d9be
000000e0: cca5 e5be dedd 44bf c821 12bf 1d0b c8be
000000f0: b405 febe 597f ebbc 5677 72bd 0e39 0bbf
00000100: 7eff a2be 8166 35be e14d f0be a740 53be
00000110: 0574 2fbe 89f4 cbbe 882b 9dbe ec2f c1be
00000120: e40b 62be d8d4 20bf 0554 f6be 5673 bfbd
00000130: 315d b6be f583 7dbe 8f13 d93d fb7e 1dbf
00000140: a2d0 05bf a24a edbe 6f45 a1be 152a 62be
00000150: 7e02 15bf c2f0 b7be d529 2ebf c04e debe
00000160: 3cff e2be c948 bebe 772d c5be e2aa 8abe
00000170: 2394 b1be 0d56 3e3c 6b76 debe cf42 babe
00000180: b8d2 cfbe e3cc 41bb 93c6 c0be 0d23 38bf
00000190: ea20 15bf fa69 e8be 8856 8abe b016 f0bd
000001a0: 1b87 99be cc1a e3bd 34a9 9fbd 8ba0 0fbf
000001b0: 845f aebe 2bdb aabe 8d57 00be c54b 14be
000001c0: 0d14 fcbe 8237 d4bd afd3 ef3c 95d1 83be
000001d0: c40b ebbe 1b9c 07be 6b24 f7be 01f3 b1be
000001e0: 0a89 1f39 be05 a8be 5bce 3fbe f2c5 dabe
000001f0: 1d4b 9cbe 4815 86be 3189 44be 6005 d1be
-0.50432485 -0.29330033 -0.23664425 0.11304475 -0.1492972 -0.2906403 -0.088612966 -0.13778749
-0.27022514 -0.11057661 -0.46049926 -0.26822215 -0.6052942 -0.32742673 -0.3144858 -0.26486358
-0.13355745 -0.31137493 -0.29233724 -0.5499836 -0.55045897 -0.34894434 -0.4065951 -0.25150666
-0.42674217 -0.18411426 -0.2516253 -0.36349037 -0.53588825 -0.2140081 -0.57781196 -0.3873369
-0.29522583 -0.7178871 -0.5925733 -0.56577873 -0.3400165 -0.43301082 -0.50348973 -0.47201684
-0.19035693 -0.1337322 -0.6956752 -0.31417838 -0.44146076 -0.19455433 -0.18690291 -0.18550828
-0.8323524 -0.10772942 -0.40194717 -0.05745365 -0.22588624 -0.15283753 -0.34680656 -0.42516032
-0.44853055 -0.7690104 -0.57082796 -0.3907098 -0.49613726 -0.028747248 -0.05919584 -0.54383934
-0.3183555 -0.17714883 -0.46934417 -0.20630132 -0.17134102 -0.39835003 -0.30697274 -0.37731874
-0.22074848 -0.62824774 -0.48110977 -0.093481705 -0.35617974 -0.24757369 0.10599434 -0.6152188
-0.52271473 -0.46346003 -0.31498286 -0.22086366 -0.5820693 -0.3592587 -0.6803258 -0.43419456
-0.44335353 -0.37164906 -0.3851125 -0.27083498 -0.34683332 0.011617196 -0.4344972 -0.36379096
-0.40590453 -0.0029571585 -0.376515 -0.71928483 -0.5825335 -0.45393354 -0.27019143 -0.11723077
-0.2998589 -0.110890955 -0.07795945 -0.56104344 -0.34057248 -0.33370337 -0.12533398 -0.14482029
-0.49234048 -0.1036215 0.029275743 -0.25745836 -0.45907414 -0.13243143 -0.48269972 -0.3475571
0.00015214473 -0.3281688 -0.18731062 -0.42729145 -0.30526057 -0.2618811 -0.1919296 -0.40824413

actor.3.weight f4 [128, 128]
00000000: ae93 1c3d 6cdd 7fbd 2fbf f1bd ea66 4ebe
00000010: d971 0d3d bcf2 78bd 7141 983b e5be 88bd
00000020: b456 22bd 268a 3cbe f244 40be 430f e2bb
00000030: 5ecc 87bd 9ac5 18be 9872 d03c 5c6f 08be
00000040: 8066 f3bc 5f46 62be 7e25 e1bd eca2 12ba
00000050: 9d1b 82bd 36f5 963d 2a2a 2b3d 14e4 5ebd
00000060: bc42 873d 95d4 91bd 033d b93b a948 52be
00000070: d008 173d b151 0fbd 4a92 99bc 3de3 26be
00000080: dc92 d1bc 5106 52bc 9ccb 34be e926 9c3d
00000090: df85 b73d 719e 2fbd 7e50 f8bd 25b2 81bd
000000a0: 0c8f 44be 0d33 85be 32d2 e2bd 517a 0bbe
000000b0: 8be9 f33d ed64 fa3b b1b4 3abd e2e3 72be
000000c0: baab 8d3a a708 0dbd 34b9 0bbe 9bbe b03d
000000d0: 7533 4c3d 6748 11be b718 633d c184 0dbe
000000e0: 010a 75be a5e1 80bb c4d2 963a 4c54 9ebd
000000f0: 2565 ccbd 8f3b 24be 1a4c 243d 32e3 94bd
00000100: 4775 f3bd ffdd 03be 07bb 223d 69bc 11be
00000110: cd87 1d3d df92 ae3d c089 fdbd 1c80 5e3d
00000120: 6d17 193b b415 a3bd b5cb aabd 4fe3 85be
00000130: 6e53 56be 6f08 b9bc 39a2 fa3c c0be a4bd
00000140: efc6 5c3d f8a2 c4bd c395 74bd cfbd f43d
00000150: 0f4f 803d 922e 263d 47ea 00be ed90 a1bd
00000160: a4b2 15be 5a51 e5bb 9ab9 103d e333 123c
00000170: 8691 09be dcfe 9bbc 6470 37be 6d47 49be
00000180: dbc4 81bd 6b5e 1dbe 8c37 9bbd 23bd afbb
00000190: 9a30 90bd d332 9cbb f9ac 28bc 8f55 b6bc
000001a0: 4d39 1dbc 6861 15be 3710 37be 617e 4bbd
000001b0: 87b9 5c3d c342 0cbd b9ff 013e 2c5b cf3d
000001c0: 2213 36be bd2a f5bd 6264 5f3d 004c 93bd
000001d0: 928b 89bb 66e4 fbbd 881e 2d3d 2e31 00be
000001e0: 7127 69bd f589 4cbe 1269 efbd 2dd6 23bc
000001f0: 4166 b93b c4c5 35be 5a0a 9a3d 8cb1 88bd
00000200: b9e2 00be fb7f 0bbe b309 8bbd 6ba5 a8be
00000210: efea 633c e3fc 933c a3e5 34be 62bf f4bd
00000220: af00 353e d84b 97bd c29f 61be 0733 82bd
00000230: 5d0b c33d a659 1ebd 7612 90be dea8 5abe
00000240: 2799 afbc 1e31 453e e549 d7bd 1468 0e3c
00000250: 3588 46bd 3967 dabd de1d 43bd 83db 183d
00000260: 4faa e9be de14 583d fe32 97bd d2ef 5f3d
00000270: 99cb 45be a7df c3bd a5db babe fcfb 67be
00000280: a21e 8cbd 873d 8f3e 200f ea3b 6fa8 e7bd
00000290: 9a21 47bd 0afa 383e eca6 e8be f10e 31be
000002a0: 9fa5 063e fe62 cbbe 4c0e 603d ebb1 8bbe
000002b0: 5534 5e3e 26ee 2fbc 411f 2b3c a747 32bf
000002c0: 8f39 aa3e e440 b0bc d151 dabd fa36 93be
000002d0: e0ba 4ebb b44f c5bd 3b3b 2ebe 1f69 28be
000002e0: 7863 a0be 8932 21be 870f 4b3e 65a3 dcbe
000002f0: 0ff9 493e 2f85 293d 0915 f93d 623a e03d
00000300: 2b84 40be 809d 1e3e 80de 82bf 00a8 6dbe
00000310: 54a7 5cbd 5bf6 3ebb ee6f e23d bd46 4dbf
00000320: 243c 47be 0590 27be e94d 86be e8d1 3ebe
00000330: 17a1 6dbe 09f2 20be 7d75 01be b211 db3d
00000340: 1d05 d0bc 16e0 8abc 476c 213e 5328 f53c
00000350: 22d0 0e3e 5dd9 523e 860e 28be 4b31 2abf
00000360: 5ef9 9d3e 355c 3abe 2a89 dabd 2636 0c3e
00000370: df07 753e 4586 1ebe 966a 3d3d 93ac 9dbe
00000380: 5f9e 56be 5304 a9be 432b 0bbf 37c0 01be
00000390: d195 a8be 9d78 493e 75ab 16be 4355 35bd
000003a0: f05e c4be 1bd9 49bc c356 58bd ba95 af3d
000003b0: 8b79 dd3d 89f9 143d 111d 7f3d 300c a23d
000003c0: d2f9 3c3c 5022 08be 883c 03be dde5 dd3d
000003d0: 3a7f b33d e081 d63d 2ef9 c33e a605 4abe
000003e0: d9f4 33be 6bb4 e1be 041e 67be ff28 dc3d
000003f0: b006 913d e258 023e 7ca8 96bd 42d6 023e
0.038226776 -0.062467024 -0.118040435 -0.20156446 0.0345324 -0.060778365 0.004646473 -0.06677035
-0.039633468 -0.18412074 -0.187763 -0.006898792 -0.06630777 -0.14919129 0.025445268 -0.1332373
-0.029711962 -0.22097157 -0.10993479 -0.0005593735 -0.06352923 0.07370989 0.041788258 -0.05441673
0.066045254 -0.07120625 0.005653025 -0.2053553 0.03687364 -0.034990016 -0.018746514 -0.16297622
-0.025582723 -0.012818889 -0.17655796 0.07624609 0.08961081 -0.04287571 -0.12124728 -0.063328065
-0.19195193 -0.2601551 -0.11075248 -0.13620879 0.11909779 0.007641426 -0.045582477 -0.23719743
0.0010808625 -0.03443208 -0.13644868 0.08630105 0.04985376 -0.14187776 0.05544349 -0.13820173
-0.23929597 -0.003933149 0.0011506905 -0.07730922 -0.09980229 -0.16038345 0.04011164 -0.072698966
-0.11887603 -0.12877654 0.039729144 -0.14232029 0.038459588 0.08524107 -0.12379789 0.054321393
0.002335991 -0.07963124 -0.08339635 -0.26149985 -0.20930263 -0.02258703 0.030594932 -0.08044195
0.053900655 -0.09601396 -0.059713136 0.119502656 0.06265079 0.040571757 -0.1258937 -0.078889705
-0.14618927 -0.0069982233 0.035333253 0.008923504 -0.13434419 -0.019042425 -0.17913967 -0.19656153
-0.06336375 -0.15368049 -0.07578954 -0.005363123 -0.0704052 -0.004766801 -0.010295146 -0.022257594
-0.009596181 -0.14587939 -0.17877279 -0.04968107 0.05388787 -0.034243356 0.12695207 0.101248115
-0.17780736 -0.11971042 0.054539092 -0.0719223 -0.0041975463 -0.12299423 0.042265445 -0.1251876
-0.05692238 -0.19974501 -0.116899624 -0.009999794 0.0056579416 -0.17751223 0.07521506 -0.066744894
-0.12586488 -0.1362304 -0.06788959 -0.32938704 0.013910993 0.018064922 -0.17665724 -0.11950566
0.17676042 -0.07387513 -0.22033599 -0.06357389 0.09523652 -0.038659714 -0.28139085 -0.2135348
-0.021435333 0.19257018 -0.10512141 0.008691806 -0.04846974 -0.106642194 -0.047635905 0.037318718
-0.45637748 0.052754276 -0.07382773 0.05467207 -0.19315948 -0.09564143 -0.364957 -0.22654718
-0.0684178 0.2797663 0.0071429163 -0.11311423 -0.04861603 0.18064132 -0.4543985 -0.17290856
0.13149117 -0.39723963 0.054701135 -0.27284178 0.2169965 -0.010737931 0.010444463 -0.6964058
0.3324704 -0.021515317 -0.106601365 -0.2875288 -0.0031544492 -0.09634343 -0.17014782 -0.1644635
-0.3132589 -0.15741934 0.19830142 -0.4309341 0.19723915 0.04138678 0.12162215 0.10948636
-0.18800418 0.15489769 -1.0224152 -0.23208618 -0.053870514 -0.0029138539 0.11056505 -0.80186063
-0.19456536 -0.16363533 -0.26231316 -0.1863476 -0.23205982 -0.15717329 -0.12642474 0.106967345
-0.025393063 -0.016952556 0.15763961 0.029926455 0.13946584 0.2059073 -0.1641179 -0.66481465
0.30854315 -0.18199237 -0.10670693 0.13692531 0.23928784 -0.15480907 0.046244226 -0.30795726
-0.20958851 -0.33011112 -0.5436289 -0.1267098 -0.329268 0.19674917 -0.14713843 -0.044270765
-0.38353682 -0.012319828 -0.052817117 0.0857348 0.10814198 0.036370788 0.06228358 0.07912481
0.011534171 -0.13294339 -0.1281606 0.108348586 0.08764501 0.104739904 0.38276047 -0.19728717
-0.1757387 -0.4408296 -0.22570044 0.10750007 0.07081354 0.12729219 -0.073563546 0.12777045

actor.3.bias f4 [128]
00000000: ec84 0abe bea1 f2bc 6a9b c4be b6b8 c3be
00000010: 5a0a 7abe eac1 b2be a0fb b33e 5126 b13e
00000020: 51b5 4ebe 4356 25be a102 bc3d 0e01 3cbe
00000030: 1723 1f3e 211e 42be fae2 24be d2a3 de3e
00000040: 9806 19be 93ad 50be f271 9bbe 0d52 3f3e
00000050: ff14 06be bf22 c4be 29aa 8e3e e31e 1bbf
00000060: 77d9 ebbd 56b6 87bd 2754 5fbe 5ae3 b03e
00000070: 54b2 e13d 16d4 b43d 5a4c 92bd 9a80 0fbf
00000080: 7398 07bd 2401 aa3d 5c2f 8a3d db90 2ebe
00000090: 4e93 84be 8d42 01be 0387 a53e 3b22 d63e
000000a0: 9edc 393e c9af f5be 3b1a 773d f799 a23e
000000b0: 57b5 083d 6958 8abe 5a8a aa3e a905 2b3e
000000c0: 032d 743d d06b 3cbe 8957 143e 41bf ba3b
000000d0: 5d50 963e a598 22bf 6e49 843d ba5d 22bd
000000e0: 1bb4 eabe 47b4 a2bd e354 2abe 47a5 873d
000000f0: 4ba8 1bbe c2dc 77bd fbf7 423e 93c4 6cbd
00000100: cf25 1cbf 9f1d 5abd 8682 943e 05c4 cd3e
00000110: 4c6d 883e 7f13 c5bc f6b2 fcbd 0880 32bf
00000120: 2fc7 0cbe 6520 91be 6ee9 a6bd 3ab7 27bf
00000130: 3471 6abd 9685 6bbe 3010 ab3a 4b58 2a3e
00000140: b266 5c3b 99e5 ec3e 77d3 8abd 03fc 343e
00000150: aa79 90bc f352 37be 30b5 d13d 1c29 a23d
00000160: 121d 00be fa52 dfbd e064 a93d f950 993d
00000170: a6a9 22bf 0815 433e 22cb 90be dcf5 b23e
00000180: 1444 e73e 1688 1fbf 18b3 4a3e 2c0f 02be
00000190: ebda 54be f6da 46bd c26a a63e 306d e73d
000001a0: 7842 d13d 4cd7 8b3e b9bc a03d 34f6 f7bd
000001b0: 3a7b 233e 83ab c9bd dc3a 26be 9d3d c1bd
000001c0: 7305 11be 2ab6 0cbd bea8 4ebf 9c93 063e
000001d0: d1aa 6c3e 5963 843e 8120 98be 5fa7 b03e
000001e0: 2cf8 df3e ec4d 213e 18b8 c9bb 0b5a aa3e
000001f0: 9a09 eabd 7e49 ce3e 1eac 85be 9018 00be
-0.13527268 -0.02961814 -0.38399822 -0.3822686 -0.24418011 -0.3491357 0.35152912 0.34599546
-0.20186354 -0.16146187 0.09180189 -0.18359777 0.1554073 -0.18956806 -0.1610221 0.4348436
-0.14943922 -0.20378713 -0.3036037 0.18683644 -0.13093947 -0.3830776 0.27864197 -0.60594004
-0.115160875 -0.06626575 -0.21809445 0.34548455 0.110203415 0.08829515 -0.07143469 -0.56055605
-0.03310437 0.08300999 0.06747314 -0.17047445 -0.25893635 -0.12623043 0.32329568 0.4182299
0.18150565 -0.47985676 0.06032775 0.3175809 0.033376064 -0.27020577 0.3330868 0.16701378
0.05961324 -0.18400502 0.14486517 0.005699069 0.29358187 -0.6351417 0.06459318 -0.039640166
-0.45840535 -0.079445414 -0.16633944 0.06623321 -0.15200917 -0.060513265 0.1903991 -0.057804655
-0.6099519 -0.053250905 0.2900583 0.40188614 0.26645887 -0.024057148 -0.123388216 -0.6972661
-0.13747858 -0.28345028 -0.08149992 -0.65513957 -0.057236865 -0.23000178 0.0013051089 0.16635244
0.0033630547 0.4626892 -0.06778615 0.1767426 -0.017636139 -0.17902736 0.10239637 0.07917997
-0.1251109 -0.109044984 0.082711935 0.074861474 -0.6354011 0.19050992 -0.28279978 0.349532
0.45169127 -0.62317026 0.19794881 -0.127011 -0.20786636 -0.04854866 0.32503325 0.11300123
0.10217756 0.27312696 0.07848496 -0.121075064 0.15964976 -0.098471664 -0.1623339 -0.0943558
-0.14162235 -0.034353413 -0.8072623 0.13142246 0.23112036 0.25857046 -0.297123 0.34502694
0.43744028 0.15752381 -0.006155979 0.33271822 -0.114276126 0.40290445 -0.26107877 -0.1250937

actor.6.weight f4 [1, 128]
00000000: b8a6 463c 6226 cabc 66dd 0339 629d 1e3e
00000010: 4802 14be aa60 a23d 7de1 f4bd 1bdd 033e
00000020: 0e56 26bf 10e0 4240 f335 1bbf 801e ab3e
00000030: 16d1 77bf 97ba 61bc 76a2 b5be 2fbf 51be
00000040: 2c68 6f3d 8aa1 0f3e fe85 3e3b 692a 023e
00000050: 5f1b 9e3c cc63 9c3e da48 5d3d 66e9 853c
00000060: 7e14 023b 066e 2a40 15fd edbd f3ce acbe
00000070: ef69 a8be 21ba 0ac0 89b9 a5bb 5bbb fc3d
00000080: 1eae 283e 65a0 4dbf ab86 e33d cdd5 8f3e
00000090: c64a 003e ab75 bc3d 2b0b 733d e51e bfbe
000000a0: fc88 13c0 0fe2 733e 606f 0ebe bfbb 6ebe
000000b0: c411 ae3e 2a1a 793e a6a6 fdbd c4d4 f13e
000000c0: b25f 143e d17f 563d 8102 f73d 1950 0740
000000d0: 9e62 61bf abba 09be 375e 3abf 8461 e33d
000000e0: 2f64 1dbe 878e 933c 374a 163e ec3d 59bf
000000f0: a567 99bc ea71 443f 39d5 c73d 926e 66bf
00000100: 2517 163c bbf2 0640 bcb5 a43d 6473 fabd
00000110: a719 6a3d f467 03c0 b251 4d3e f7fb a5bd
00000120: 323a 21bf 2420 76bb d288 b8be 3222 02bd
00000130: fead 03bd 717e d03d 4d15 933f 9ec2 c3bd
00000140: 5296 563f 4e41 1a3d f5fa 313e 39a2 323f
00000150: 2ec6 043e 1596 88bd 4728 033e 0b67 1b3d
00000160: ba95 cd3d 8389 3f40 a050 b33d f4b1 88bf
00000170: 41c9 2cbd 88ad 1cc0 c5ad 303d 81fd 1a3e
00000180: d923 953d c86a 51bd 30f6 ea3d 825a 9ebc
00000190: e3bc 293f 3240 a0be 26db 183e a275 cb3e
000001a0: d410 86be 605f 553d 709c b4bf f4e3 c13c
000001b0: c281 f1bd 3e0b f4be 201c 683d 5f5d 843d
000001c0: 03f5 093b dd81 20be a203 8dbd bb07 f6be
000001d0: 6850 973d 5398 af3d c9f0 9abe 3cd8 a6be
000001e0: 5705 2bbe 4939 87be a410 943e 46aa d6be
000001f0: 24df 5abc 2ca8 8e3d 8f35 c4bc deb4 b6bd
0.01212471 -0.024676505 0.00012575611 0.15489724 -0.14453995 0.079285935 -0.11957071 0.12877314
-0.6497506 3.0449257 -0.60629195 0.33421707 -0.96803415 -0.013777397 -0.3547551 -0.20483087
0.058448955 0.14026466 0.0029071565 0.1271149 0.01930016 0.3054489 0.054024555 0.016346645
0.001984864 2.6629653 -0.11620537 -0.3375164 -0.3289332 -2.1676104 -0.005057518 0.12340423
0.1647267 -0.8032287 0.1110967 0.28092805 0.12528524 0.09202131 0.059336822 -0.37328258
-2.3052359 0.23816703 -0.13909674 -0.23313807 0.3399793 0.24326387 -0.12385301 0.4723264
0.1448963 0.05236799 0.120610245 2.1142638 -0.880411 -0.13450114 -0.7280001 0.11102584
-0.15370248 0.018012298 0.14676748 -0.8486011 -0.01872618 0.7673632 0.09757466 -0.90012467
0.0091607915 2.108565 0.080424756 -0.1222904 0.05715337 -2.0532198 0.20050696 -0.08104699
-0.62979424 -0.0037555778 -0.36041886 -0.031770892 -0.032148354 0.10180367 1.1490875 -0.09558605
0.8382312 0.037659936 0.17380889 0.6977878 0.12966225 -0.06669251 0.12808333 0.037940066
0.10038324 2.992768 0.087556124 -1.0679307 -0.04218412 -2.4480915 0.04313447 0.15135767
0.07282228 -0.051127225 0.11472738 -0.019330267 0.66303843 -0.31298977 0.14927348 0.39738184
-0.26184714 0.05209291 -1.4110241 0.023668267 -0.117923275 -0.47664827 0.056667447 0.064631216
0.002105058 -0.15674539 -0.068854585 -0.48052773 0.07388383 0.085739754 -0.3026183 -0.3258685
-0.16701256 -0.26410893 0.28918946 -0.41926783 -0.013358865 0.0696567 -0.02395132 -0.089212164

q1.0.weight f4 [128, 4]
00000000: a157 123f 56b6 14bf 4e8e 223d 36cd e8bc
00000010: 46ac f93e 9224 11bf 9df9 983d 218a 1cbe
00000020: 2901 57be 2321 e43c e67b 75bc 5195 a6bc
00000030: b6f7 353f d98f 123f 4a74 5a3d 29a9 283d
00000040: b734 253f f1bd b4be 88b6 12be 2e68 15ba
00000050: 29d5 513d e4c5 28bf 5f10 0cbd 3b51 513d
00000060: 9720 d2bc 3a53 47bf eec8 24bd 82d8 5bbd
00000070: 0c11 ff3e 58e1 06bf c8be cf3c 2b7d 8bbb
00000080: ac86 423a b7ca 2ebf b996 153d 463c fe3d
00000090: fd86 ad3d df20 153e fe66 653c 7769 773d
000000a0: 61f2 c5be 9720 c83c 7150 963d 4955 d7bb
000000b0: e925 303f 9a36 8fbe 9fa2 1bbe 7efe 3f3d
000000c0: 1298 7b3e 1fba 3abf 4d2b d0bd 8a0b 8bbd
000000d0: bd6f 223f 66c1 7e3e 8f54 5d3e fbc9 263e
000000e0: ec64 813d e60f 803d 9253 aabb e034 97bc
000000f0: b7bf b83d 7b9c 1c3e c72f 79bc 7723 3e3d
00000100: 009c 0abc a249 483f 38a0 e5bd ca56 1c3e
00000110: ce6c d0be 0601 883d 177c 6d3d e5de 76bc
00000120: 6e80 a6be cc6d 0f3f 5c86 20bd ab8b d9bd
00000130: 4550 cbbd 9822 29bf 95dd 913c 2833 b7bd
00000140: 3f3e b8be 7a71 a33d a963 553d 924c 0c3d
00000150: ed9e 98be 1755 573f 0398 223e 48f0 1d3e
00000160: cb39 e73e 1e1d 6e3f 88d6 e83c 911b 803c
00000170: ac1c 903d 3d0a 173e 0663 ee3b 58d8 de3c
00000180: 5e56 61be cb2c 073f 6361 70bc d36d 83bd
00000190: d521 713f 36e0 1b3d aa87 a53d a02c d73c
000001a0: ddd3 02bf 5dd4 ef3e 1e56 0d3e 73ef 11bc
000001b0: 92b0 bfbe 4fb4 a63d 22f7 6f3d 34af 1a3a
000001c0: f7f3 10bf 3877 a33e 8004 193e 0852 59bc
000001d0: f09c a0be f217 46be 04a3 72bd f6c3 67bd
000001e0: 9f25 babe 093c 243d b5bc 933d f9e4 fe3b
000001f0: 767f 5a3f 225d 413d baf6 b83d de6b b9bc
00000200: 9822 1fbe 7d30 1e3f 51ba 7cbc 31a1 b13d
00000210: d806 0cbd 126c 333e 9586 c8bb b82b c23d
00000220: 84dc 7c3d a807 fa3d febc aa3b abac 543d
00000230: befc 233f e084 273f b6ec 873d baec 343d
00000240: f1c5 5a3c 4ab5 39bf eb74 7dbd 0364 d1bd
00000250: 7e73 eb3c caab 453f 08f2 ce3b 9909 023e
00000260: d885 74bd 4083 2abf d4ca 2bbc e776 1ebc
00000270: 634e b7bc 9c7e 3dbf 5950 853d 2d9d debd
00000280: 27ae 16be 8274 1e3f 9acd 99bc e55a cabc
00000290: 6490 dbbc e570 26bf ee01 5cbd d963 67bd
000002a0: 078c e93e 0d4c 1fbf 0895 d63b 0c7a ed3c
000002b0: e795 6e3d 9399 043e 2645 b9bb 5ab3 7e3d
000002c0: 4e3f 8bbe 6fd8 4e3f 583a e23d cdd3 093e
000002d0: 2ece 90be 2ff9 f73c 3c78 cebc dcef fbbc
000002e0: 8296 d1be 0469 a23c f658 633d 7f7b fabc
000002f0: c9e3 0f3f aed0 05bf c9ba 84bd 6cab bd3d
00000300: ec89 8dbd 75cd 20bf 5ecb 82bc dc15 c13c
00000310: 7411 ffbe 50fa d93e d76b 053e 81d6 c8bb
00000320: c75d ca3d 39f5 d83d d63b 2bbd 17ba b13c
00000330: a4da b7bd 24d7 31bf 1d2f 0c3c a240 20bd
00000340: 9e0e 443d 6213 f53d 5f10 113c e6c2 7e3d
00000350: 5f19 f5bb 2349 443f 37a5 193d 91b4 aabb
00000360: d154 183f d1cb 24bf fe12 d63c cf4c fdbc
00000370: 1e71 cc3e 5228 14bf fd4e 94bd dfe4 ee3c
00000380: 0626 d73c fee1 3fbf 7ee4 c43d d556 fbbd
00000390: 0b6c 99be c55b 33bc c7cf 08bd 6c82 20bd
000003a0: 1eb9 52bf 8fb4 c73d 2e66 d1bc ba47 7e3e
000003b0: e365 2f3f 8a32 d6bd 1f83 b0bd bd5b 57bc
000003c0: 2c9c 2e3f a66f ffbd d962 9cbd a7e2 0cbd
000003d0: 293b 67be 8e09 ea3e f357 263d ac99 bd3c
000003e0: 762e 59bd 2d9c 473f d1c2 f13d 03ef 533d
000003f0: 68a6 fbbd 2868 6d3f ac9b 363e 73b2 163e
0.5716496 -0.5809072 0.039686494 -0.028418165 0.48764247 -0.56696427 0.07469485 -0.15287067
-0.20996536 0.027847832 -0.014983153 -0.020334871 0.710811 0.57250744 0.05333356 0.04117695
0.6453356 -0.35301164 -0.14327443 -0.0005699423 0.051228676 -0.6592696 -0.0341953 0.051102858
-0.025650306 -0.7786137 -0.040230684 -0.053673275 0.49817693 -0.526876 0.025359526 -0.0042568645
0.00074205804 -0.6827807 0.036520693 0.1241384 0.084730126 0.1456332 0.014001606 0.060403313
-0.38661483 0.024429603 0.07339562 -0.006571446 0.68807846 -0.27971345 -0.15198754 0.046873562
0.24569729 -0.7294025 -0.10164509 -0.0678931 0.6345175 0.24878463 0.21614288 0.16287987
0.063180774 0.062530324 -0.0051979506 -0.01845783 0.09020942 0.15294068 -0.015209145 0.04642054
-0.008460045 0.78237355 -0.112122 0.15267482 -0.4070801 0.0664082 0.05797967 -0.015067791
-0.3251986 0.5602691 -0.039190635 -0.10622343 -0.099274196 -0.6606841 0.017805854 -0.08945304
-0.3598499 0.07980628 0.052096996 0.03425271 -0.2980875 0.8411421 0.158783 0.15423691
0.4516128 0.9301318 0.028422609 0.015638145 0.07036719 0.1475 0.007274988 0.02720277
-0.22005603 0.52802724 -0.014671656 -0.06417432 0.9419225 0.03805562 0.080825165 0.026266396
-0.5110453 0.46841708 0.13802382 -0.008907187 -0.374394 0.0813986 0.058585294 0.0005900741
-0.5662226 0.31926894 0.14943123 -0.013264187 -0.31369734 -0.19345072 -0.059237495 -0.056583367
-0.36356828 0.040096316 0.072137274 0.0077787605 0.8535074 0.04720796 0.09031434 -0.022634443
-0.1554054 0.6179274 -0.015425281 0.08673323 -0.034186214 0.17521694 -0.006119559 0.09480995
0.061733738 0.122084916 0.005210518 0.05192248 0.6405753 0.65437126 0.06636946 0.044171073
0.013352857 -0.7254225 -0.06187908 -0.10224154 0.028741594 0.77215254 0.0063154735 0.12698974
-0.059697956 -0.6660652 -0.01048537 -0.009671903 -0.022376245 -0.74021316 0.06509466 -0.10869823
-0.14714871 0.61896527 -0.018774796 -0.024701545 -0.02680225 -0.65016013 -0.053712778 -0.056491707
0.45614645 -0.6222542 0.0065485276 0.02898886 0.058248427 0.12949209 -0.005653995 0.06218276
-0.27196735 0.80799 0.110462844 0.13459702 -0.28282303 0.030270187 -0.025203817 -0.030754022
-0.4093514 0.019825466 0.05550476 -0.030576466 0.5620695 -0.52271545 -0.06480939 0.09261212
-0.06911072 -0.628135 -0.015966114 0.023569994 -0.49818003 0.42573786 0.13029419 -0.0061290865
0.09881168 0.105936475 -0.04180511 0.02169518 -0.08977249 -0.69468904 0.008556155 -0.03912414
0.047865503 0.119665876 0.008854001 0.06219759 -0.007479831 0.766741 0.037511077 -0.0052095135
0.5950442 -0.643735 0.026132103 -0.030920414 0.39930052 -0.57874024 -0.07241628 0.029161869
0.026263248 -0.7495421 0.09613894 -0.12272421 -0.29965243 -0.0109471725 -0.033401277 -0.03918688
-0.82313716 0.09751236 -0.025561418 0.24832049 0.6851484 -0.10458858 -0.08618759 -0.013144431
0.6820705 -0.12472467 -0.07636041 -0.03439584 -0.22581162 0.45710415 0.04061122 0.023144566
-0.053022824 0.7797268 0.118047364 0.05174161 -0.12287599 0.92737055 0.17832822 0.1471651

q1.0.bias f4 [128]
00000000: 99ac 4cbd e6fe 383e ce61 f43e 0e24 3dbf
00000010: 7f59 24bf 95c6 243d 7d7b 6e3c 25de 45bd
00000020: 66f0 063e e46f 1b3f f671 cf3e 9bd5 27bf
00000030: 05c4 4fbe fc17 15bf 1304 173f 70f5 193f
00000040: ec7b 493d 0bb3 d33e acb1 7e3e f111 d63d
00000050: d4d7 be3e 2ebc 463e d16d f4be 8c21 083f
00000060: 15f4 703e 1d7c 73bf fece e33e 46ec c13e
00000070: dc67 053f 7dd6 a73e f094 c63e 1351 62bf
00000080: 7d8e 363e 3e90 013f cf6d 153f 2c7a 2bbf
00000090: 9fb9 083d 8f78 09bd 51c7 0e3e 23ac 3c3d
000000a0: 25ce 433e d680 453d 1022 d2be d840 0f3f
000000b0: 35a6 483e 6987 d63e 8eb1 d13e 3b3d 0bbf
000000c0: 7eaa 1f3e de04 dc3e f60e 173f cf0c 403d
000000d0: 6ca9 0b3f 089e 193c aa4b 4ebe e811 b9be
000000e0: cc2d 26bd 6573 c23e ab69 e0bd a4b4 33bf
000000f0: f500 33bf 3529 6e3e 94ba 5fbf b706 943d
00000100: e8af b03d 09eb 72bf 5a56 1a3f 0c60 073e
00000110: a9e2 e03e 393b 113f 50db 57bf 7368 49bf
00000120: d721 79bf cec7 513e 05ce fbbe dd38 04bf
00000130: 2520 723e f784 143f b5df 083f 84c9 323e
00000140: 2f28 143f aa0e 163f 8a9a 90bf 520f c33e
00000150: 54ad 0e3f 23d8 83be 1fec acbe 10f6 22be
00000160: 66d2 f2be 35b8 7b3e afa0 e03d 88f1 43bf
00000170: 5d47 fa3e 4f0d 1d3e e18d 0c3f bcb0 a7be
00000180: 1c20 9abe 4cc9 5cbe 59cf 5a3e 1ddd 6fbe
00000190: 3e5b 723b 8858 d43d a75a 1d3e d4b9 353e
000001a0: 6c38 84bf 1aaf e93e 52ce 533e 23ea fabe
000001b0: 1b76 31bf 30f0 6dbe 5d0b 15bf aa8d c43e
000001c0: 3d57 da3e 2dc3 643e 284a 073f dc20 af3e
000001d0: d7cc 8b3c 7c3e 8a3e e532 d13c df58 27bf
000001e0: f42e 833d 73b6 063f e45c 083f 583f 8e3c
000001f0: 6b11 c63e a54e 8a3d 2495 b73e eff8 f73d
-0.04996929 0.18065986 0.4773087 -0.7388314 -0.6419906 0.040228445 0.014555809 -0.048307557
0.13177642 0.60717607 0.40516633 -0.6556031 -0.2028962 -0.5823972 0.5899059 0.6014013
0.049190447 0.41347536 0.24872464 0.10452641 0.3727404 0.19407722 -0.47740033 0.5317619
0.2353061 -0.95111257 0.4449386 0.37875575 0.521116 0.3278083 0.38785505 -0.8840496
0.17827792 0.5061072 0.5837068 -0.66983294 0.033380147 -0.03356224 0.1394322 0.0460626
0.19121607 0.04821857 -0.41041613 0.5595832 0.19594653 0.41900185 0.40955776 -0.54390305
0.15592381 0.42972463 0.59007204 0.046887215 0.5455539 0.0093760565 -0.20146051 -0.36146474
-0.04057102 0.37978664 -0.109576546 -0.7019751 -0.69923335 0.23257907 -0.8739407 0.07227843
0.086273015 -0.94889885 0.6028801 0.13220233 0.43922928 0.5673099 -0.8431902 -0.78675
-0.9731726 0.20486376 -0.49180618 -0.51649266 0.23645075 0.5801539 0.5346635 0.17459685
0.57873815 0.58616126 -1.1297162 0.38097626 0.5573323 -0.25750837 -0.33773896 -0.15914178
-0.47426146 0.24581988 0.10968148 -0.7654042 0.4888257 0.15337108 0.5490399 -0.32752025
-0.30102623 -0.21561164 0.2136816 -0.23424192 0.0036980654 0.103684485 0.15366612 0.17746669
-1.0329719 0.45641404 0.20684174 -0.49006757 -0.6932084 -0.23236156 -0.58220464 0.3838933
0.42644683 0.22340079 0.5284753 0.34204757 0.017065449 0.27000797 0.025536964 -0.6536998
0.0640544 0.52622145 0.5326674 0.017364189 0.38685164 0.067532815 0.35855973 0.12108027

q1.3.weight f4 [128, 128]
00000000: 769a 723e db08 f03d a7e2 393e aabf 7d3f
00000010: e684 873e 1f3d 4b3e 0af0 41bd 7237 253e
00000020: e94e 43bc f8cd 083e 7b2c a73d e17c 493e
00000030: 1e1c d23d ecd9 84bc 2be9 bcbc 96d8 173e
00000040: 44b9 2e3e d50e 25bd ac0a d83d 6159 4b3e
00000050: 4041 463d a142 8bbd af7c da3e b308 773e
00000060: 62a6 f43d f564 803f f392 bfbc 0999 233d
00000070: 2d4d aebd 358e 0f3e e8a2 4d3e afad 453f
00000080: 0385 903e 3150 353e 2a67 ab3d 7ac7 4e3e
00000090: cac5 783e 9577 c03d bb2c 233e eba9 183e
000000a0: 0816 c23d 1f79 913d 3103 1d3e d8cf 263e
000000b0: dea9 923d 9d16 d13d 101b 293e 5bce 333e
000000c0: f87b 573d b50b 343e de60 6b3d 1cfc 583d
000000d0: 6069 6f3b 9262 723e 434d 243e 36f5 403e
000000e0: 655a bc3d f0ab 583e 9f7f 82bd 11ab d83e
000000f0: 9711 2b3f 5fc4 1d3e ac57 9cbe bcbd 31bd
00000100: 74e2 a2bd e6f3 893f 9569 2d3e e071 853e
00000110: 40e7 3c3e 15b3 d43d 3858 9c3d 96df 2e3e
00000120: 9f11 883f 449e 373e 6259 1d3e ec42 953d
00000130: faba 4d3e 1ece ab3d daa6 4d3e f83b 673e
00000140: 363c edbc a77b 043e 8988 d03f 4c19 893d
00000150: 8ddd ec3d a7d0 fa3d 7d8e 143e 0967 123e
00000160: f35b 9b3d e89b fbbd 0c1d a93d 5c58 1d3f
00000170: ffd2 3b3d be3a 7a3d 9958 763e e09a a03d
00000180: 6f9a 6d3e 3d29 143e 0f40 703e 975e 553e
00000190: 4b2e 1f3c 38cc de3d fb9f ff3c 61e8 303d
000001a0: 6160 9bbf 4ff8 fb3b 42b3 633e f015 fc3d
000001b0: 14e6 443f 2e4c af3e b211 133e ea67 463d
000001c0: 0f45 a83d db0f 453c c85e 193e 3216 213e
000001d0: d19d 7a3e 19e6 6b3d e644 733e 57c5 6f3e
000001e0: 877f a33e 8a0b 9bbd e70b 793d c99d ecbc
000001f0: cced 1d3d e60d 443e c2e0 3f3e e2f1 c13d
00000200: e634 09be f39e 42be 6bd8 253d d5d9 473d
00000210: db69 9b3c eb66 dbbd bb2e 17be 2be2 adbd
00000220: e10e 49be 5ff8 bdbd f6d7 693d 8710 16bc
00000230: f700 b93d 0b55 82bd 8513 02be d4da 16be
00000240: 4bab e23d 9fa3 49be 1fe0 22be 81bf b4bd
00000250: 8311 b33c e490 283d 675b f53c 1316 43bd
00000260: d967 8b3d ba1f 8f3d 7edb c1bd d826 37bd
00000270: 15cb 863d 5d30 eabd 30ae b3bd 3100 3dbd
00000280: a56e 4cbe bb9c 203d 4fc0 4e3c fd1b 3a3d
00000290: 44b4 d7bd e83a ec3d 4ef2 28be c18c 10be
000002a0: 9051 49be 2ddc 933d 6a90 8f3c 54dd d1bd
000002b0: b1a1 36be 3380 2ebc ea68 4bbe 72ec 653d
000002c0: 714e 31be a694 0fbd a6ee 64bd 24b2 7c3d
000002d0: 567e b5bd 4c1e 7cbd 25e3 21be 1720 ccbd
000002e0: ffef 923d ba86 9e3d 1d46 d0bc b56a 18be
000002f0: 0981 603d 050e 53be 2988 05be df57 37be
00000300: 54c1 09be 6d13 9cbd f7e4 0fbe 1e95 01be
00000310: d790 eebd cc52 fcbd fcc4 d83c 3140 813d
00000320: 8b66 37ba c351 8fba a729 bd3d 517a 67bd
00000330: fa10 2abe d703 37be dcb0 10be bec2 c9bc
00000340: 0e78 043d c433 79bd 0e4d 6abd 1340 bd3d
00000350: fc16 0dbe 4b10 6b3d ff91 f4bd 49a0 8a3d
00000360: 603d 2abe de5f 1cbe 3faf 1a3c d396 773d
00000370: 10b0 07be b6d8 c0bd e7e3 9a3c a6f2 8c3d
00000380: 1dce 46be 820f b33d fa08 05bd 1635 26be
00000390: 34e9 92bd 75ce 9abd e214 03bb 75d6 17be
000003a0: a6fb c0bd a6f3 a5bd f416 aabd 3a96 1b3c
000003b0: f82a 63bc 8d74 03bc aaaf 7fbd 8ae2 09bd
000003c0: 1d51 cebc 1282 253c 081c 0abe 8112 e5bd
000003d0: 674f d1b9 87f9 05be ee92 ee3c a627 acbc
000003e0: 38b7 ab3d 401f 8d3d 2715 12be 4ed7 803c
000003f0: beb1 43bd e481 3a3b c28f 2cbd d678 adbd
0.23691735 0.11720439 0.18152867 0.9912058 0.2646858 0.19847535 -0.04734806 0.16134432
-0.011920669 0.13359821 0.08162781 0.19676544 0.10259269 -0.016217194 -0.023060402 0.14828715
0.1706286 -0.040297348 0.105489105 0.19858314 0.04840207 -0.06799818 0.4267325 0.24124412
0.119457975 1.003081 -0.0233855 0.039940868 -0.08510814 0.14019091 0.20081675 0.77218145
0.2822648 0.17706372 0.08369286 0.20193282 0.242942 0.093978085 0.15935032 0.14908569
0.094768584 0.0710318 0.15333249 0.16290224 0.07161306 0.10209391 0.1651423 0.17559187
0.05260846 0.17582591 0.057465427 0.052974805 0.0036531314 0.23670414 0.16045098 0.1884354
0.09196929 0.21159339 -0.06371998 0.42318013 0.66823715 0.15406941 -0.30535638 -0.043393835
-0.07953349 1.0777557 0.16934808 0.26063442 0.1844759 0.1038572 0.07634014 0.17077479
1.0630378 0.17931467 0.15366128 0.07288155 0.20090857 0.08388923 0.2008318 0.2258147
-0.028959375 0.12937795 1.6291667 0.06694278 0.11565695 0.122468285 0.1450748 0.14297117
0.07585897 -0.12285596 0.082574934 0.6146295 0.04585552 0.061091177 0.24057235 0.0784204
0.23203443 0.14468856 0.23461936 0.20836864 0.009715627 0.108787954 0.031204214 0.043190364
-1.2138788 0.007689513 0.2223635 0.12308872 0.7691357 0.34237808 0.14362219 0.048438944
0.08216297 0.012027706 0.14977562 0.15731123 0.24474265 0.057592485 0.23756751 0.23415123
0.31933233 -0.0757056 0.060802367 -0.028883832 0.03855686 0.19145927 0.18738082 0.094699636
-0.13399085 -0.19005947 0.040489595 0.048791725 0.018971374 -0.107129894 -0.1476392 -0.08490404
-0.19634582 -0.09275889 0.057090722 -0.009159214 0.09033387 -0.06363877 -0.12702759 -0.14731914
0.11067828 -0.19691323 -0.15905808 -0.08825589 0.021858936 0.041153803 0.02995081 -0.047628473
0.06806917 0.06988473 -0.09465693 -0.04471478 0.065817036 -0.11435006 -0.08773458 -0.04614276
-0.19964083 0.03921197 0.012619092 0.045436848 -0.1053243 0.11534673 -0.16498682 -0.14116193
-0.1966002 0.072197296 0.017524917 -0.10247293 -0.17835118 -0.010650682 -0.1986424 0.056133695
-0.1731508 -0.03505387 -0.055891655 0.061693326 -0.08861987 -0.06155233 -0.15809305 -0.09967058
0.07174682 0.07740541 -0.025424058 -0.14884456 0.054810558 -0.20610817 -0.13040222 -0.17904614
-0.13452655 -0.07620893 -0.14052187 -0.1265454 -0.1164872 -0.1232048 0.026461117 0.06311072
-0.0006996176 -0.0010934401 0.0923646 -0.056513134 -0.16608039 -0.17872559 -0.14129966 -0.024628993
0.032341056 -0.060840383 -0.05720239 0.09240737 -0.13778299 0.057388585 -0.11941909 0.06768853
-0.16624975 -0.15270945 0.009441196 0.06044657 -0.13250756 -0.09416334 0.0189075 0.06882219
-0.19414563 0.08743192 -0.032479264 -0.16231188 -0.07173386 -0.0755891 -0.002000146 -0.14827903
-0.09422998 -0.08103113 -0.08305159 0.009496266 -0.013865225 -0.008023393 -0.062423386 -0.03366331
-0.025185162 0.010101812 -0.13487256 -0.1118517 -0.00039922746 -0.13083468 0.029122796 -0.021015
0.083845556 0.06890726 -0.14265881 0.015727665 -0.04777693 0.0028458769 -0.042129286 -0.08470313

q1.3.bias f4 [128]
00000000: 3ff0 e440 604b 82bd d887 e740 99c8 e840
00000010: 7cf1 4fbd 0ac0 33bf ad24 e340 8849 e240
00000020: f909 8abd d568 93bd 9662 69bf e93d e740
00000030: 0b6f b5bd 0517 e440 704c e140 2a89 5ebd
00000040: c0d5 3ebd 6d1a e640 7dd7 8bbd f2a6 0ebf
00000050: e09c e740 64cd e440 8c0d 46bd 34b2 b440
00000060: f4d3 ebbf bebf 70bd e92e 9ebd 256e a3bd
00000070: 47f0 90bd fa36 89bf 5aff e440 80a4 85bd
00000080: 0e11 e340 cf95 e340 1173 e740 72df e840
00000090: d9a7 e340 40aa e640 3920 95bd ceea db40
000000a0: de64 e940 2fd8 e940 927f ec40 5bc7 e840
000000b0: d09b 71bd 3889 95bf 7245 e640 89e8 92bd
000000c0: b81c e640 f7d9 9b40 aefe 8abd 89b0 e040
000000d0: bf29 de40 35b1 e540 830b 90bd 3b79 e140
000000e0: a79d 61bd 1e6e e740 81ca ea40 5126 e340
000000f0: 61c0 9abd 8f74 e540 d28f a7bd 16fd e540
00000100: 7663 da40 85a8 17bd 0c9f 36bf 6bd8 9abd
00000110: f6a6 bbbd db36 8abd 9600 2abf f7e7 94bd
00000120: 7994 e240 b967 6cbd b115 e140 3129 e440
00000130: e9e2 d340 1ff2 80bf bb21 e140 aca2 e540
00000140: 829d e540 bcd5 87bd f410 e840 1364 e840
00000150: b72e 1ac0 d4cf e440 8ba5 e440 9dae e340
00000160: 8924 e540 2753 72bd 4f6f e240 745e d9be
00000170: df5f a8bd 9cb4 e740 9f82 e540 ae09 ed40
00000180: 2be7 e540 8939 e140 378f e440 1470 e240
00000190: 45dd e840 7ac0 e140 8a4c 82bf f586 e140
000001a0: e33e e340 6218 e140 f355 9bbd 34db e340
000001b0: 256b d9bd c57e e940 5016 d340 eada e740
000001c0: e4ad a7bd a47a dd40 ebca e540 1795 4cbd
000001d0: 522f e840 a181 e740 9227 87bd aecd 9bbd
000001e0: 2dbf e340 c781 8cbd 5623 9fbd 8ffc e440
000001f0: 1c23 e840 8bd7 e840 1277 e940 8c8b e440
7.154327 -0.06362033 7.2353325 7.274487 -0.050767407 -0.70214903 7.098227 7.071476
-0.067401834 -0.071977295 -0.91166055 7.2263074 -0.088590704 7.12781 7.0405807 -0.05433003
-0.046590567 7.190726 -0.068282105 -0.5572349 7.2379 7.150072 -0.048352763 5.6467533
-1.8424058 -0.05877661 -0.07723791 -0.07979993 -0.07077079 -1.0719903 7.156171 -0.065255165
7.095832 7.112037 7.232796 7.277276 7.114239 7.2082825 -0.072815366 6.8724127
7.293563 7.3076396 7.3905725 7.2743354 -0.058986485 -1.1682501 7.195977 -0.07173259
7.1910057 4.870357 -0.067868575 7.0215497 6.942596 7.1778817 -0.07033446 7.0460486
-0.05508199 7.232192 7.3372197 7.0984273 -0.075562246 7.1704783 -0.081817284 7.1871443
6.824641 -0.037025947 -0.71336436 -0.0756081 -0.09162705 -0.06748744 -0.66407144 -0.07270806
7.080624 -0.057716105 7.033898 7.1300282 6.621449 -1.007389 7.0353675 7.1761074
7.175477 -0.066325635 7.2520695 7.262216 -2.4091012 7.1503696 7.145208 7.115065
7.16071 -0.05916133 7.0760875 -0.42454875 -0.08221411 7.240797 7.172195 7.4074316
7.1844687 7.0382733 7.1424823 7.0761814 7.2770104 7.0547457 -1.0179608 7.0477242
7.1014266 7.0342264 -0.07584753 7.120508 -0.10616139 7.296725 6.5964737 7.245473
-0.08187464 6.921221 7.1810203 -0.04994687 7.2557764 7.234574 -0.06599344 -0.0760759
7.117087 -0.068606906 -0.07770412 7.15583 7.254286 7.2763114 7.295785 7.1420345

q1.6.weight f4 [1, 128]
00000000: fcae 6ac0 61df d53d c262 61c0 6120 49c0
00000010: fd23 f13c 7adc 5840 f6b5 6ec0 80f3 68c0
00000020: 6c32 0d3e a2d1 ebbb 9b6f 3840 8c0f 75c0
00000030: f4dd 943c 7dc9 87c0 bb3f 80c0 73ff 2e3d
00000040: b42e a13d 40ef 71c0 7d44 d03d 2a0f 4c40
00000050: c716 5cc0 7208 5ac0 33a6 a03d b577 cabf
00000060: 5d9f 4f40 f25e fd3d 08c3 5ebc 0328 893d
00000070: d0a5 513d f456 7340 ff40 73c0 f682 8d3d
00000080: c51f 62c0 b6c1 74c0 3386 6dc0 5b06 60c0
00000090: 9467 64c0 6209 51c0 84f1 ba3d 258f a7c0
000000a0: 4e07 60c0 84f8 53c0 6a55 46c0 1112 64c0
000000b0: 0810 913d ae2f 6d40 a3d4 78c0 55dd a03d
000000c0: b75f 69c0 6da7 bdbf bb28 c03c 2172 7fc0
000000d0: aa6e a1c0 39f5 68c0 399e c93c 81c2 3ec0
000000e0: cd88 973c fe60 5bc0 c260 53c0 2011 86c0
000000f0: fe3b 6d3d bcd6 6ac0 205d 2c3e 8203 71c0
00000100: b3cf a2c0 27ba e93c d4f1 3c40 7924 093c
00000110: 662d 27ba f864 283e 8ef0 5140 59c9 233e
00000120: af3e 83c0 7290 393e ad80 87c0 a877 5ec0
00000130: 7e92 abc0 78a9 4340 2aed 91c0 486c 50c0
00000140: dae6 81c0 49e0 e53c 6266 55c0 4825 53c0
00000150: 2a95 a640 c0c6 6fc0 8eee 5dc0 5b37 8dc0
00000160: e0d3 5ac0 bf2b cabc 9823 60c0 0d2e 6040
00000170: 2378 083e 1b0b 79c0 9175 56c0 a305 62c0
00000180: 0d08 51c0 790f 93c0 8139 7ac0 9d53 71c0
00000190: d8c5 73c0 5c18 6bc0 7709 4740 3ccb 6ec0
000001a0: 1971 74c0 2fde 8ec0 b280 e93b 5395 5dc0
000001b0: e533 233e 87e5 57c0 d1b6 c6c0 7a7d 47c0
000001c0: d9b4 203e e009 8ec0 a5ea 59c0 eb47 123e
000001d0: d84b 61c0 bcbd 58c0 0872 ee3a 4771 c13d
000001e0: 0eb4 73c0 0dc2 163e 4a45 1abb 3af3 6cc0
000001f0: 8a9e 6bc0 be0a 47c0 5484 6dc0 a761 71c0
-3.6669302 0.10442997 -3.5216527 -3.1426013 0.029436106 3.3884568 -3.729856 -3.639862
0.13788766 -0.007196621 2.8818119 -3.829074 0.018172242 -4.2433457 -4.0077796 0.042724084
0.07870236 -3.7802277 0.10169313 3.1884255 -3.4388902 -3.4067655 0.078442 -1.5817782
3.2441018 0.12371625 -0.013596304 0.06697085 0.05118352 3.8021822 -3.800842 0.069097444
-3.533189 -3.8243232 -3.7113159 -3.500388 -3.568822 -3.2661977 0.09128097 -5.2362237
-3.5004458 -3.3120432 -3.0989633 -3.5636027 0.07083136 3.7060351 -3.8879783 0.07854716
-3.646467 -1.4816719 0.023456922 -3.9913409 -5.044759 -3.6399672 0.02461158 -2.9806216
0.018497849 -3.427795 -3.3027806 -4.1895905 0.05791854 -3.6693563 0.168324 -3.765839
-5.087854 0.028531147 2.95226 0.008370512 -0.00063773093 0.16444767 3.2803073 0.15994777
-4.101402 0.18121508 -4.2344575 -3.4760532 -5.3616323 3.0572186 -4.5602007 -3.256609
-4.05943 0.028061049 -3.334374 -3.2991505 5.2057085 -3.7465057 -3.4676852 -4.4130073
-3.4191818 -0.024679063 -3.5021725 3.5028107 0.13327079 -3.8913028 -3.3509257 -3.531594
-3.2661164 -4.5956388 -3.9097598 -3.7707283 -3.8089504 -3.6733618 3.1099527 -3.7311544
-3.819403 -4.464622 0.0071259374 -3.462239 0.15937765 -3.3733842 -6.2098165 -3.1170335
0.15693988 -4.4387054 -3.4049466 0.14285247 -3.5202541 -3.3865805 0.0018191943 0.09445434
-3.8078647 0.14722462 -0.0023539835 -3.7023454 -3.6815515 -3.1100307 -3.7112017 -3.7715852

q2.0.weight f4 [128, 4]
00000000: 4196 3dbe aeab 823f 3245 2d3e a031 0e3e
00000010: 97b6 433e c76c 51bf 424e f3bd c758 8dbd
00000020: 30cb 99bc 39ab 42bf 5717 11be a3e3 83bd
00000030: 90f4 7f3e 8547 943f cf04 983d a9d3 b03d
00000040: c24c e2be acc1 2f3d 6bae 963d 965b 7abc
00000050: 3678 bebc f973 2bbf 5d26 903d 5aca c5bd
00000060: 9dad f83d 7921 44bf 7c2e cd3d 31b0 4fbe
00000070: 4913 3a3d 8051 b03c 08a5 0fbd e2a8 30bb
00000080: e6b1 a13f ef15 febe 534d a7be 6a9e e63d
00000090: e7c0 b8bd 8cfa 1f3d 75ed 65bd 3cb0 6f3d
000000a0: ba64 913e 8b1e 02bf 7085 babd 3ecd 5d3d
000000b0: af79 e9be 52ba af3d 8b5a a73d 69c6 8dbc
000000c0: eac6 233f a442 1dbe c02b c43c 6a9f 283c
000000d0: 0377 ac3d d61c 43bf 9ad9 b43d 78eb b5bd
000000e0: be21 50bf a642 3d3e 54dd 4f3c b488 a8bd
000000f0: 76c9 c73d 90c5 743d 1d7e c6bb acd9 693d
00000100: 5d06 ea3d 9fd0 22bf b640 18bd 5e76 b43d
00000110: 1d1b dabe 69da 253e 9f70 ba3d 190f 8cbd
00000120: 3dd9 013e 0629 203f f298 7fbd 1751 9ebd
00000130: eeed 91bd cd7e 1dbf 01d1 423d c165 06bc
00000140: b08b 043e cfb5 f53c 9c78 96bc 3d15 3a3d
00000150: 8b7f f1be ab5c c33d 7751 913d 5ca5 d4bc
00000160: d5a9 0a3e 2d4a 7f3d 5c8c 68bc 02a6 973d
00000170: c786 823e 4521 49bf a1fb 873d 57ce 293e
00000180: a4c8 e53d 7b5b 453f 1c69 c5bd 119e dc3d
00000190: 7986 943e e18b aa3f 339f 503e d666 583e
000001a0: f5c5 643f 2d11 4d3d e96d fb3d c034 ec3c
000001b0: 32fb 9ebe b528 0b3f e3dd c43d 8003 e73d
000001c0: 4c80 d53d 0c9c b73d d88b 02bd e94f 463d
000001d0: c6cd e63e d326 6a3f af59 3e3c 72fd 043e
000001e0: dcf4 543a b5a3 1cbf 7b47 0abd 5a31 5b3c
000001f0: 00e4 053e d94e 333d 8a2f 09bd 0be9 ae3d
00000200: 5c1f 513d af2b 513f 3b9a e3bd 723f c73d
00000210: fe52 2c3e cefe d33d 39fa 02bc 3233 c73d
00000220: d84f e9be c50b 913d 9f6d b03d 4fe4 38bd
00000230: 60b9 ee3e 7d85 a33e c453 2e3b e272 28bf
00000240: b7f2 a5bd 5bfd 27bf 55fa e8bd d58e c7bd
00000250: bdfe 853e 4fdb 23bf def4 d1bc b356 023e
00000260: a0dc 1cbe f370 003f bc6e 8ebc f32b d9bc
00000270: 716b 0abe eeea 8e3f b710 2b3e d7b2 493e
00000280: 184c 3dbd a196 25bf f4fc ebbd 4e53 87bb
00000290: 2315 cbbd f35d 20bf 69dd 01be f015 dabb
000002a0: 9210 cfbe d31e a23e 42f5 1a3d 5a49 a13d
000002b0: 8ab1 9fbc 3882 39bf 9f74 ddbd b976 f1bd
000002c0: 3a85 4e3d d092 5d3f 7afd 2b3d 87cd 023e
000002d0: d708 f23e e7a7 88bc c6f8 7bbd e3e5 e73c
000002e0: 073b 6f3f ca8b 3dbf 6f0c f8bd 2506 da3b
000002f0: 3074 98be a8bb 0f3f 32c9 9b3d ae6e 4f3d
00000300: 804f 133d b0cd 303c 63c3 063c 18f9 07be
00000310: dd28 a93c e48f 4cbf 1b29 c93d 831c 82bd
00000320: 0c15 e4be a1a0 943d 1bac ac3d 8975 0dbd
00000330: d069 68bf 6a75 c33f ed11 013f c0ae 083e
00000340: 1610 013f cb13 49bf e780 b93c 411e 193e
00000350: b402 d73c 9dc7 04bf 0e79 59bd 71be 313e
00000360: 0bd2 f0be 30a6 283d c5d8 b63d a1d2 39bd
00000370: 4397 553d 044f 8a3d 4690 753a 9d1b 1a3d
00000380: 566d 133e f608 2cbd a75a e5bc f4f9 573c
00000390: 71a9 acbe 559a 3b3f edde e63d 9c91 923d
000003a0: 656f e7be 1ffe 513d 6e66 b93d e40c 50bd
000003b0: 4c57 193d 39e7 50bf aa28 12be 2e19 10be
000003c0: d58f c33d 2a4c 7e3d 8b76 593b 18e0 6f3d
000003d0: f4f1 7a3e ca94 50bf 5b35 03be 3425 febd
000003e0: 71ed 65be db97 373f 2ff2 f23c eaa4 853c
000003f0: d86e debd c703 5d3d 82fe 82bd eea5 5dbd
-0.18514349 1.0208642 0.16920927 0.13886118 0.19112621 -0.81806606 -0.11880161 -0.069016986
-0.018773645 -0.76042515 -0.1416906 -0.06439903 0.24995637 1.1584326 0.07422792 0.08634121
-0.44199187 0.04290931 0.07357486 -0.015280625 -0.02325068 -0.66973835 0.07038567 -0.09657736
0.12142489 -0.76613575 0.10018632 -0.20282055 0.045428548 0.021523237 -0.035069495 -0.002695613
1.2632415 -0.4962611 -0.3267618 0.11260684 -0.09021168 0.0390573 -0.05613466 0.05851768
0.2839716 -0.50827855 -0.091074824 0.054150812 -0.4560065 0.0858046 0.081715666 -0.017306523
0.63975394 -0.15357453 0.023946643 0.0102919135 0.08421137 -0.76215875 0.08830567 -0.08882803
-0.81301486 0.18482456 0.012687046 -0.08229199 0.097552225 0.059758723 -0.0060575143 0.057092354
0.11426995 -0.6359958 -0.03717109 0.08811639 -0.4259881 0.16196598 0.09103512 -0.06838817
0.12680526 0.62562597 -0.06240172 -0.077303104 -0.071254596 -0.6152161 0.047562603 -0.008202971
0.12943912 0.02999392 -0.018368058 0.04543041 -0.4716762 0.095391594 0.07095616 -0.025957756
0.13541348 0.0623266 -0.0141936205 0.0740471 0.25493452 -0.7856639 0.06639791 0.16582619
0.1121991 0.77092713 -0.09639189 0.10772336 0.29008844 1.3323938 0.2037323 0.21132979
0.8936456 0.05006521 0.12276823 0.028833747 -0.31051022 0.5435899 0.09612634 0.112799644
0.10424861 0.089653105 -0.031871647 0.048416052 0.45078868 0.9146549 0.011618062 0.12987307
0.0008123645 -0.611873 -0.033759575 0.013378466 0.13075256 0.043776367 -0.033492602 0.08540543
0.051055297 0.8170728 -0.111134015 0.09728898 0.16828534 0.103513345 -0.007994228 0.097265616
-0.45568728 0.07082323 0.086146586 -0.045139607 0.46625805 0.3193778 0.0026600221 -0.658003
-0.08102935 -0.65620965 -0.11375872 -0.0974404 0.26170912 -0.64006513 -0.025629457 0.12728386
-0.15318537 0.50172347 -0.017386787 -0.026510214 -0.13517548 1.1165445 0.16705595 0.19697128
-0.046215147 -0.64682966 -0.11522856 -0.0041298037 -0.09916141 -0.62643355 -0.12682118 -0.006655447
-0.4044233 0.31664142 0.037831552 0.07875319 -0.019493837 -0.72464323 -0.10813259 -0.11790223
0.050420024 0.86552143 0.04198978 0.12773715 0.4727237 -0.016681625 -0.061516546 0.02830786
0.93449444 -0.74041426 -0.121117465 0.0066535645 -0.29776144 0.56145716 0.07606734 0.05064266
0.03596449 0.010791227 0.008225295 -0.13278615 0.020649368 -0.7990706 0.09822293 -0.063530944
-0.44547307 0.072572 0.08431264 -0.03453592 -0.9078646 1.5270207 0.5041798 0.13347912
0.5041517 -0.78545827 0.022644473 0.14952947 0.026246406 -0.51867086 -0.053093962 0.17357804
-0.4703525 0.041174114 0.08928064 -0.045366887 0.052146208 0.06753352 0.0009367507 0.03762399
0.14397177 -0.042000733 -0.027997328 0.013182152 -0.33723024 0.73282367 0.112729885 0.07156679
-0.45202175 0.05126774 0.0905274 -0.050793543 0.03743677 -0.8160282 -0.14273325 -0.14072105
0.09548918 0.062084354 0.003318223 0.05856332 0.2450636 -0.81477034 -0.12813322 -0.1240944
-0.22453858 0.7171609 0.029656498 0.016313989 -0.108609855 0.05395868 -0.063962 -0.05411332
