TD3/checkpoints/Pendulum-v1/02_last_checkpoint.pth (torch, 856402 bytes, 60 tensors)

actor.0.weight f4 [128, 3]
-0.24344109 0.75116754 0.04892513 0.16797201 0.5344323 0.22244878 -0.15837766 -0.88605607
-0.113133736 0.3601387 0.007958696 0.11398522 -0.038428172 0.08653725 0.0056197285 0.083986625
1.8532841 -0.3210161 -0.2578375 0.34208786 0.30693528 0.14308898 -1.9734153 -0.1429302
-0.34949747 0.25272843 -0.28487888 0.45137468 -0.33462676 -0.39688924 0.27236363 -0.32759804
0.32347754 -0.3269913 0.19888587 -0.0030520668 -0.9658758 0.5923055 0.011007918 -0.15694197
0.18071531 -0.0014789986 0.4441688 -0.4285645 -0.13443284 0.26864332 1.3916647 -0.100735135
-1.645154 -0.023688933 0.023654528 -0.5565275 0.9761133 0.015916636 -0.7786657 0.4557843
0.24649249 0.28805968 0.5981569 0.2818498 0.1854245 0.64753675 0.31615394 0.3542657
1.7124838 -0.6555634 0.38732564 0.25899976 -0.9205572 -0.26146203 -0.64466614 -0.14334078
0.41612363 -0.50681424 -0.3040282 -0.06450284 0.23210722 -0.048849795 -0.7915506 -0.39943516
0.14441715 -0.94569296 0.06255942 -0.14347473 0.54298335 -0.3599541 -0.21784776 0.17488723
-0.8821632 0.040317144 -0.3967509 -0.5551151 -0.13770773 -0.4342166 -0.8950781 -0.19303834
0.4984704 0.22435857 0.24538885 0.31136104 -0.40656364 0.29079452 -0.3983259 0.1416725
-0.3140714 -0.07301696 -0.4548926 0.012422681 0.5290904 -0.18301281 -0.6745896 0.5538446
0.31698087 0.31139755 0.20801604 -1.989719 0.082471155 -0.5871718 0.6534484 0.031715836
-0.13471535 -0.14105295 -0.28870282 -0.35368928 -0.38449216 0.26949292 0.43234596 0.5690374
0.29806662 0.34614286 -0.2071446 0.043615185 0.5175652 0.7183905 0.16544089 0.16519234
0.05358452 0.35892224 -0.055158287 0.01795126 0.0048589753 0.27754667 1.013131 0.29130486
-0.010641444 0.031097718 0.0057153488 0.5134791 0.27290517 0.33261484 0.19762494 -0.03926354
0.26122755 -0.006888985 -0.19143263 0.009573211 0.3182022 0.5728382 -0.15157561 0.40646604
-0.8398249 -0.17665294 -0.014387101 -0.32846 0.00032241395 -0.27816775 -0.5690237 -0.119201355
-0.39846557 -0.8596624 -0.26231787 -0.34613603 -0.36835033 0.15331638 -0.30759105 -0.24045816
-0.1677568 0.29546702 0.93060094 0.28444454 0.0984106 -0.5830025 -0.169453 0.12707017
-0.7746031 -0.08087668 -0.48218793 0.983458 0.09875846 0.60316277 -0.26079023 -0.10690836
0.41226423 0.42594928 0.21317834 -0.057162452 -0.60379136 -0.11982926 0.06165652 0.21511473
-0.07162387 0.32013115 0.54841775 -0.17265262 -0.51318157 0.7604024 0.05237397 0.38692683
0.80399776 0.27567777 0.29526144 -0.22829269 0.33373177 -0.41858217 -0.60268676 -0.25956604
-0.15708457 2.3857908 -0.44575152 0.38663647 -0.31076825 -0.17916223 -1.4201001 -0.2420065
0.03722124 -0.069080435 -0.2532526 0.4141825 -0.29158658 -0.5730302 -0.106003776 0.37144125
-0.48777223 -0.2649409 -0.9392114 0.54259115 -0.11600313 -0.88571095 -0.5589849 0.121181674
-1.1506286 0.018213905 0.1846207 0.090423405 0.22825924 0.12075606 0.01244348 0.0024294897
-0.006410059 -1.1996306 0.3085484 -0.013053222 0.25314134 1.6641644 -0.8427667 0.13185759
00000000: 9f48 79be 844c 403f b865 483d db00 2c3e
00000010: 8ed0 083f 9dc9 633e c12d 22be 92d4 62bf
00000020: a9b2 e7bd 1a64 b83e 3165 023c 1571 e93d
00000030: dc66 1dbd 713a b13d b325 b83b 2e01 ac3d
00000040: 6a38 ed3f 395c a4be 4703 84be 2426 af3e
00000050: 9f26 9d3e eb85 123e df98 fcbf 4b5c 12be
00000060: 55f1 b2be 9f65 813e a5db 91be 951a e73e
00000070: 3354 abbe 1135 cbbe 3f73 8b3e eeba a7be
00000080: d99e a53e 676b a7be bda8 4b3e 2f05 48bb
00000090: a343 77bf 55a1 173f 8e5a 343c 65b5 20be
000000a0: 6f0d 393e f5da c1ba 186a e33e ce6c dbbe
000000b0: c3a8 09be 9e8b 893e 1222 b23f 394e cebd
000000c0: 6894 d2bf 4b0f c2bc 24c7 c13c 9678 0ebf
000000d0: 90e2 793f 9b63 823c a356 47bf 8f5c e93e
000000e0: 8768 7c3e 8f7c 933e d020 193f 9e4e 903e
000000f0: ecdf 3d3e f8c4 253f eede a13e 5062 b53e
00000100: ab32 db3f 01d3 27bf 8c4f c63e 9e9b 843e
00000110: a3a9 6bbf 5ade 85be d708 25bf edc7 12be
00000120: 280e d53e 94be 01bf 96a9 9bbe 111a 84bd
00000130: 84ad 6d3e b916 48bd 0fa3 4abf c482 ccbe
00000140: 17e2 133e ef18 72bf 271f 803d 0aeb 12be
00000150: f500 0b3f e74b b8be 7c13 5fbe a315 333e
00000160: 73d5 61bf 9723 253d ef22 cbbe 061c 0ebf
00000170: 4103 0dbe a351 debe d723 65bf d8ab 45be
00000180: 8337 ff3e 41be 653e 3747 7b3e b76a 9f3e
00000190: 1c29 d0be 05e3 943e 5ff1 cbbe 9912 113e
000001a0: f7cd a0be ea89 95bd afe7 e8be 8088 4b3c
000001b0: 7872 073f b667 3bbe e7b1 2cbf c2c8 0d3f
000001c0: 514b a23e 806f 9f3e 2802 553e 1daf febf
000001d0: a3e6 a83d e450 16bf 6548 273f 77e8 013d
000001e0: d2f2 09be 2f70 10be dbd0 93be c316 b5be
000001f0: 28dc c4be fafa 893e 735c dd3e 6fac 113f
00000200: 309c 983e a339 b13e b71d 54be d6a5 323d
00000210: 277f 043f 71e8 373f 5669 293e 2e28 293e
00000220: 717b 5b3d a8c4 b73e a8ed 61bd 850e 933c
00000230: 0a38 9f3b 991a 8e3e 47ae 813f e925 953e
00000240: 7359 2ebc a4c0 fe3c d247 bb3b 5e73 033f
00000250: 3aba 8b3e 7e4c aa3e 315e 4a3e ced2 20bd
00000260: 9ebf 853e ffbc e1bb ea06 44be f5d8 1c3c
00000270: 66eb a23e 86a5 123f a336 1bbe 511c d03e
00000280: c4fe 56bf 82e4 34be e0b7 6bbc e92b a8be
00000290: ab09 a939 016c 8ebe 8aab 11bf d71f f4bd
000002a0: ae03 ccbe d612 5cbf 874e 86be be38 b1be
000002b0: 6a98 bcbe f8fe 1c3e 937c 9dbe aa3a 76be
000002c0: 70c8 2bbe 7447 973e dd3b 6e3f b7a2 913e
000002d0: 7f8b c93d a73f 15bf 1685 2dbe af1e 023e
000002e0: 644c 46bf aca2 a5bd 56e1 f6be e7c3 7b3f
000002f0: e041 ca3d e068 1a3f 4c86 85be c5f2 dabd
00000300: 4c14 d33e 0616 da3e 6c4b 5a3e 2d23 6abd
00000310: 1292 1abf 0b69 f5bd 8c8b 7c3d 0947 5c3e
00000320: 89af 92bd 3be8 a33e 1b65 0c3f d9cb 30be
00000330: de5f 03bf bba9 423f 1786 563d 461b c63e
00000340: ccd2 4d3f a325 8d3e 822c 973e 8fc5 69be
00000350: e4de aa3e 6750 d6be ae49 1abf d7e5 84be
00000360: c7da 20be ccb0 1840 8b39 e4be 37f5 c53e
00000370: 041d 9fbe 4e76 37be d7c5 b5bf 8dd0 77be
00000380: 4d75 183d 0b7a 8dbd 53aa 81be bb0f d43e
00000390: d64a 95be 1bb2 12bf 8218 d9bd 8c2d be3e
000003a0: 48bd f9be 55a6 87be 2970 70bf 41e7 0a3f
000003b0: 0d93 edbd f4bd 62bf a219 0fbf 192e f83d
000003c0: cc47 93bf 5435 953c 350d 3d3e e82f b93d
000003d0: cabc 693e f44e f73d bddf 4b3c 1338 1f3b
000003e0: 790b d2bb 7f8d 99bf 0efa 9d3e 2edd 55bc
000003f0: be9b 813e 5703 d53f 8fbf 57bf ad05 073e

actor.0.bias f4 [128]
-0.33598956 -0.46284708 -0.064941764 -0.3575797 -0.23428784 0.107105 -0.20862369 -0.30355215
0.06315404 -0.107667625 -0.6660423 -0.41012576 0.51820517 -0.2667275 -0.22270973 -0.24332891
-0.05069087 0.095527396 0.09005184 -0.7159834 -0.3800138 -0.30964875 -0.3743515 -0.16049536
-0.3119674 0.22382817 0.37236238 -0.13190648 -0.35616088 -0.34881654 -0.05407718 -0.075679824
-0.52110565 -0.33937636 0.108303495 -0.3222269 -0.53449136 -0.37405193 -0.06808769 0.0072870594
0.20207505 -0.44469026 -0.4103999 -0.070782326 0.05763366 -0.7911013 -0.09920066 -0.28251654
-0.11191426 -0.33624837 -0.6748613 -0.26256827 -0.07049721 -0.45158592 -0.37442887 -0.115470394
-0.026581999 -0.48186666 -0.11538899 -0.349983 -0.25912043 -0.10924794 -0.23602821 -0.36166933
-0.5409667 -0.42545423 -0.14507082 -0.059652016 -0.13338399 -0.30028096 -0.5352587 0.09681625
0.16558418 -0.24214561 0.12906502 -0.13500477 -0.16242032 -0.25300717 0.24674152 -0.14633818
0.37681717 -0.61202747 -0.05505735 0.29759324 -0.19763465 -0.39074108 -0.18901926 -0.1803367
-0.24369209 0.05338706 -0.20405161 -0.047390554 -0.37944806 -0.069942 0.06299602 -0.10004302
-0.13226327 -0.110163875 -0.07160809 -0.10728657 -0.21967311 -0.45096788 -0.18514648 -0.13075185
-0.5500451 -0.43656248 -0.4081782 -0.33347696 -0.4169555 -0.18388449 -0.086509116 -0.3764729
-0.45107153 -0.26903245 -0.3734717 -0.31441814 -0.21673849 0.052367114 -0.319887 -0.10956003
0.0999257 -0.50786406 -0.45269626 -0.6085972 -0.16809812 -0.12956083 -0.5181203 -0.2297962
00000000: d306 acbe 4bfa ecbe 3000 85bd b014 b7be
00000010: 27e9 6fbe de59 db3d 73a1 55be 306b 9bbe
00000020: e856 813d d880 dcbd c081 2abf 01fc d1be
00000030: 18a9 043f 8290 88be 050e 64be 372b 79be
00000040: 3ba1 4fbd dea3 c33d 196d b83d b04a 37bf
00000050: 2b91 c2be 488a 9ebe 00ab bfbe e558 24be
00000060: 31ba 9fbe 3633 653e 48a6 be3e 7e12 07be
00000070: b85a b6be 1598 b2be 0880 5dbd 06fe 9abd
00000080: 2e67 05bf bdc2 adbe 39ce dd3d edfa a4be
00000090: 6dd4 08bf bc83 bfbe 8f71 8bbd 49c8 ee3b
000000a0: c3ec 4e3e 71ae e3be f01f d2be 53f6 90bd
000000b0: 4611 6c3d 9d85 4abf b729 cbbd 02a6 90be
000000c0: 4e33 e5bd bf28 acbe b6c3 2cbf 596f 86be
000000d0: d760 90bd 4536 e7be 24b5 bfbe be7b ecbd
000000e0: 7ec2 d9bc 3ab7 f6be 1051 ecbd f930 b3be
000000f0: 6fab 84be 62bd dfbd 61b1 71be b92c b9be
00000100: cb7c 0abf 23d5 d9be 728d 14be ac55 74bd
00000110: d095 08be 6dbe 99be b706 09bf 9947 c63d
00000120: e68e 293e 05f5 77be 9f29 043e b13e 0abe
00000130: 8351 26be 288a 81be cfa9 7c3e add9 15be
00000140: 2eee c03e d5ad 1cbf d183 61bd 245e 983e
00000150: bd60 4abe 370f c8be 448e 41be 2faa 38be
00000160: 6b8a 79be 64ac 5a3d e8f2 50be 991c 42bd
00000170: 0447 c2be c03d 8fbd 0f04 813d 5be3 ccbd
00000180: 0670 07be 999d e1bd 43a7 92bd 10b9 dbbd
00000190: fdf1 60be 43e5 e6be 0a97 3dbe d0e3 05be
000001a0: c1cf 0cbf 1e85 dfbe bcfc d0be 7ebd aabe
000001b0: 317b d5be 374c 3cbe b12b b1bd 0ec1 c0be
000001c0: d9f2 e6be 9fbe 89be af37 bfbe 6afb a0be
000001d0: b2f0 5dbe e67e 563d 3bc8 a3be 0261 e0bd
000001e0: d8a5 cc3d 6103 02bf cec7 e7be 07cd 1bbf
000001f0: ea21 2cbe 98ab 04be 88a3 04bf b24f 6bbe

actor.2.weight f4 [128, 128]
0.051913798 -0.17410393 -0.26663634 -0.20787315 0.042331137 -0.14228465 -0.14332274 -0.74418557
-0.36284244 -2.5945973 -0.19184901 -0.18726103 -0.5955381 -0.17014185 -1.939487 -0.70912445
-0.5321186 -0.20936137 -0.38241512 0.08947874 0.17525873 0.62530035 -0.19282228 0.016952043
-0.4715633 -0.056223508 0.120136514 -0.15494327 -0.3090412 -0.6970642 -0.08770565 -0.11697879
0.4107275 0.07506665 -0.49067885 -0.075623415 -0.090240516 0.44542494 -0.76138574 -0.32232934
-0.021703089 -0.2561424 0.26681954 -0.17546822 0.4091944 0.21649654 -0.05023945 0.14713526
0.031344898 0.42860448 -0.081124134 -0.17449136 0.3486569 -1.520231 0.14935382 -0.82033014
-0.10250137 0.22569257 0.3735554 0.15033105 -0.86117154 -1.1483107 -0.05733134 0.1785687
-0.03978497 -0.10352125 0.09006051 0.50449914 -0.20515393 0.46614966 -0.04363895 -0.06965736
0.10383014 -2.220596 -0.7599802 -0.50240296 -0.16259453 -0.77755517 -0.57051283 -0.081101544
-0.90006536 0.3910619 0.02584015 -0.3181897 0.6354257 -0.4355736 -0.05993995 -0.20311752
-0.97014016 -0.5931967 -0.42040697 0.05699531 -0.052195664 -0.49805558 -0.099596195 0.36559942
0.10099828 -0.99881166 -0.077210225 -0.09402734 0.039166782 0.098739624 -2.2755451 0.0194508
-0.56184703 -0.28925994 -0.5239073 -0.04074302 0.45050937 -0.9545171 0.007724862 0.6057066
-0.734223 -0.4969243 -0.46051762 -1.1905044 -2.1289496 0.15284921 0.20943785 -0.59019303
-0.6195076 -0.14014985 -1.4853394 0.082244076 0.011470982 -0.62154293 0.3648167 -1.8959119
-0.16106966 0.12699515 0.034681737 0.00053976063 0.02807922 0.0049928995 -0.17105454 0.040487524
0.048268024 -0.054765314 -0.059672743 -0.00056662434 -0.071618654 0.0016583924 -0.1318173 0.05291732
-0.047897834 -0.036670893 -0.07592749 0.119384594 -0.11881778 -0.09981419 -0.116429545 0.08929589
-0.12282545 -0.06480078 -0.07188405 0.0908119 -0.17127046 -0.11643099 -0.18130532 -0.067053765
-0.14845131 -0.032080747 -0.009355157 -0.03911544 -0.0007446434 -0.07418553 -0.20824257 -0.07742204
0.028460275 -0.020130865 -0.0028991513 -0.11052297 0.06620695 0.048532072 -0.00079610466 0.08153718
-0.0071159066 -0.032012407 0.017708022 -0.1647556 0.06632665 -0.119716726 -0.09718077 -0.066256754
-0.14924705 -0.15211704 0.06573353 -0.04714771 0.042282492 -0.05681001 0.09791816 -0.13383804
-0.08852408 0.12254122 -0.15298517 -0.19283055 -0.075672105 0.050089616 0.048367955 -0.13522701
-0.14506215 -0.0014502739 -0.16075943 0.06605649 -0.06490716 -0.114916414 -0.09657358 0.061943147
-0.14503935 -0.13704826 0.028295148 0.0084369015 -0.03319883 0.033251315 -0.09002993 -0.12300008
-0.16010773 -0.13192284 -0.14806399 -0.011828206 -0.08257888 0.067173354 -0.160368 0.043768648
0.06472945 -0.11472952 -0.10789066 0.03390529 -0.11487257 0.052402586 0.05878964 -0.033659082
-0.11286375 -0.057942223 0.061990328 0.08012601 -0.02630071 0.013229773 0.071197376 -0.02228231
-0.086482994 -0.014297996 -0.08382901 0.07018015 -0.12650368 0.08283952 0.004614153 -0.20958486
-0.13100167 -0.030740982 -0.07199032 -0.016918814 -0.13185526 0.094297804 0.049815275 -0.0608599
00000000: 90a3 543d 4d48 32be 8f84 88be b3dc 54be
00000010: 6a63 2d3d 11b3 11be 32c3 12be f282 3ebf
00000020: 7cc6 b9be e20d 26c0 1174 44be 5bc1 3fbe
00000030: 2f75 18bf aa39 2ebe 1c41 f8bf 2e89 35bf
00000040: ed38 08bf d462 56be eacb c3be a140 b73d
00000050: 0677 333e af13 203f 3473 45be 03df 8a3c
00000060: bf70 f1be 9f4a 66bd 220a f63d 73a9 1ebe
00000070: a63a 9ebe cd72 32bf 059f b3bd 9392 efbd
00000080: e04a d23e 8bbc 993d 423a fbbe 73e0 9abd
00000090: 05d0 b8bd bd0e e43e 2dea 42bf 5a08 a5be
000000a0: adca b1bc 1925 83be 929c 883e f1ad 33be
000000b0: ee81 d13e 45b1 5d3e e2c7 4dbd a0aa 163e
000000c0: 8263 003d 0c72 db3e 6924 a6bd ddad 32be
000000d0: 2883 b23e ee96 c2bf 35f0 183e 2801 52bf
000000e0: 3dec d1bd f41b 673e a742 bf3e 62f0 193e
000000f0: bd75 5cbf d8fb 92bf 44d4 6abd b7da 363e
00000100: 91f5 22bd f302 d4bd a571 b83d db26 013f
00000110: df13 52be 2bab ee3e c1be 32bd 85a8 8ebd
00000120: e5a4 d43d 3f1e 0ec0 108e 42bf 7b9d 00bf
00000130: 2e7f 26be db0d 47bf 210d 12bf 9118 a6bd
00000140: af6a 66bf 4439 c83e b9ae d33c c3e9 a2be
00000150: 42ab 223f 8103 dfbe 9883 75bd 0afe 4fbe
00000160: 1b5b 78bf bddb 17bf 953f d7be ea73 693d
00000170: 1fcb 55bd 2401 ffbe 17f9 cbbd d92f bb3e
00000180: 30d8 ce3d 1fb2 7fbf 6520 9ebd 6891 c0bd
00000190: 596d 203d 0038 ca3d 88a2 11c0 4957 9f3c
000001a0: 35d5 0fbf e119 94be ca1e 06bf 27e2 26bd
000001b0: 2aa9 e63e 3c5b 74bf d720 fd3b 960f 1b3f
000001c0: 0af6 3bbf dd6c febe f7c8 ebbe 7362 98bf
000001d0: b640 08c0 8184 1c3e e076 563e e416 17bf
000001e0: 0d98 1ebf 7183 0fbe 9a1f bebf 956f a83d
000001f0: c9f0 3b3c 701d 1fbf 41c9 ba3e 3ead f2bf
00000200: 72ef 24be 040b 023e 700e 0e3d b97e 0d3a
00000210: 6406 e63c 7a9b a33b ec28 2fbe 3fd6 253d
00000220: b1b4 453d 9851 60bd 686b 74bd 8489 14ba
00000230: cdac 92bd 6a5e d93a 1dfb 06be d5bf 583d
00000240: 8530 44bd 3834 16bd df7f 9bbd e97f f43d
00000250: bc56 f3bd 626b ccbd 9d72 eebd c3e0 b63d
00000260: e98b fbbd 45b6 84bd f237 93bd 97fb b93d
00000270: 8661 2fbe 5f73 eebd 1aa8 39be 7c53 89bd
00000280: 9f03 18be 1a67 03bd 5f46 19bc 8337 20bd
00000290: 2c34 43ba 95ee 97bd 8a3d 55be 728f 9ebd
000002a0: 8625 e93c 7ce9 a4bc b0ff 3dbb de59 e2bd
000002b0: 8297 873d 91c9 463d aeb1 50ba f7fc a63d
000002c0: 8d2c e9bb 711f 03bd 6a10 913c b1b5 28be
000002d0: 44d6 873d 0b2e f5bd b606 c7bd 9fb1 87bd
000002e0: 38d4 18be 92c4 1bbe 4d9f 863d f51d 41bd
000002f0: 6830 2d3d 9db1 68bd 5189 c83d d70c 09be
00000300: 1d4c b5bd e4f6 fa3d 25a8 1cbe 5f75 45be
00000310: faf9 9abd c52a 4d3d 7a1d 463d f378 0abe
00000320: 2c8b 14be 1e17 beba 1f9e 24be a048 873d
00000330: 0cee 84bd 4c59 ebbd 5ec8 c5bd 19b8 7d3d
00000340: 3285 14be 6156 0cbe 3acb e73c ee3a 0a3c
00000350: 7ffb 07bd 8832 083d 9d61 b8bd 77e7 fbbd
00000360: 48f3 23be c816 07be 169e 17be 17cb 41bc
00000370: 1e1f a9bd 2f92 893d 8237 24be c146 333d
00000380: e090 843d 50f7 eabd c7f5 dcbd 46e0 0a3d
00000390: 4f42 ebbd 18a4 563d 68cd 703d 1bde 09bd
000003a0: 1c25 e7bd d354 6dbd 92e9 7d3d 1b19 a43d
000003b0: 9674 d7bc b1c1 583c eecf 913d 6489 b6bc
000003c0: ff1d b1bd 2442 6abc 8bae abbd 9cba 8f3d
000003d0: 2e8a 01be c4a7 a93d 5232 973b 6a9d 56be
000003e0: 4d25 06be 83d4 fbbc a96f 93bd 5399 8abc
000003f0: 1105 07be 351f c13d 1a0b 4c3d 3b48 79bd

actor.2.bias f4 [128]
-0.1501836 -0.07247039 -0.05219636 -0.04400689 0.13272782 0.06874456 -0.06634946 0.085137784
0.35757706 -0.07278308 0.17387873 -0.48991445 -0.1389507 -0.09731654 -0.045487978 0.20854388
-0.295289 -0.024530385 -0.13828807 -0.042449977 -0.10358405 -0.09736342 -0.06863381 0.08647688
-0.060160454 0.096260615 -0.08449236 -0.06629292 -0.034781206 -0.060654618 -0.03829985 -0.07660782
0.2147478 -0.054948375 -0.03624006 -0.10883298 -0.05297378 -0.09160302 -0.055552226 0.04058484
0.024767293 -0.05155561 -0.072741956 0.02492092 -0.044062708 -0.039338093 -0.0597334 -0.069112755
0.13033009 -0.048986904 -0.048026405 -0.05605793 0.31894854 -0.03252122 0.264176 0.18567012
-0.099418856 -0.07559293 -0.04748695 0.19644609 -0.019373326 0.2032846 0.077306055 -0.026202336
0.006923259 -0.05515013 -0.021939607 -0.07983353 0.05079622 -0.028365063 -0.04584881 -0.069312945
-0.13277714 -0.10087999 -0.056941275 -0.097639486 -0.08863196 0.35000965 -0.06056228 -0.06792949
0.210801 -0.048358064 -0.03697797 -0.05078136 -0.035204634 0.074612245 0.028543405 -0.13399127
-0.059268918 -0.051185705 -0.09953045 -0.07760499 0.020724602 -0.083340846 0.30013862 -0.093471535
-0.05929822 0.06624011 -0.064876206 -0.17016734 0.067944854 0.133271 -0.06766559 -0.13902044
0.12289584 0.047934204 -0.051500447 -0.06655817 -0.036695354 -0.036735963 -0.033374824 -0.021349324
-0.21239628 -0.07596768 -0.13184687 -0.045815274 -0.17996418 -0.037921492 0.17602204 0.15383773
-0.058041856 -0.06280461 0.10864597 0.17565344 0.064048134 -0.0554076 -0.07979052 0.07976709
00000000: bbc9 19be 5b6b 94bd dacb 55bd 9240 34bd
00000010: cde9 073e f3c9 8c3d 3ae2 87bd b85c ae3d
00000020: 5714 b73e 4c0f 95bd 440d 323e 11d6 fabe
00000030: 1849 0ebe e54d c7bd 9a51 3abd 878c 553e
00000040: 1f30 97be f2f3 c8bc 639b 0dbe 07e0 2dbd
00000050: e023 d4bd 7966 c7bd e28f 8cbd ca1a b13d
00000060: cf6a 76bd 4924 c53d 550a adbd 95c4 87bd
00000070: bd76 0ebd fa70 78bd 4ee0 1cbd 90e4 9cbd
00000080: d9e6 5b3e 8c11 61bd 7570 14bd d3e3 debd
00000090: 09fb 58bd 5d9a bbbd bb8a 63bd 4a3c 263d
000000a0: c7e4 ca3c fa2b 53bd bcf9 94bd f526 cc3c
000000b0: 197b 34bd fb20 21bd 02ab 74bd fd8a 8dbd
000000c0: 4075 053e 7ea6 48bd 56b7 44bd 009d 65bd
000000d0: 394d a33e f934 05bd 1442 873e 4f20 3e3e
000000e0: 1d9c cbbd 77d0 9abd ad81 42bd 2a29 493e
000000f0: cfb4 9ebc d729 503e a352 9e3d 48a6 d6bc
00000100: 81dc e23b 1ae5 61bd b1ba b3bc c37f a3bd
00000110: b20f 503d d95d e8bc f6cb 3bbd f2f3 8dbd
00000120: bbf6 07be 2b9a cebd 413b 69bd 36f7 c7bd
00000130: ac84 b5bd 7734 b33e 2710 78bd 9e1e 8bbd
00000140: 38dc 573e 1b13 46bd 3676 17bd 1e00 50bd
00000150: bc32 10bd 4ece 983d dcd3 e93c 0235 09be
00000160: f7c3 72bd 1aa8 51bd 9fd6 cbbd 5def 9ebd
00000170: a4c6 a93c 9bae aabd c5ab 993e 016e bfbd
00000180: b1e2 72bd e5a8 873d d1dd 84bd 5940 2ebe
00000190: ac26 8b3d 3178 083e 4294 8abd 605b 0ebe
000001a0: d0b0 fb3d a856 443d 22f2 52bd a64f 88bd
000001b0: de4d 16bd 7378 16bd 0ab4 08bd c7e4 aebc
000001c0: 697e 59be f194 9bbd de02 07be cca8 3bbd
000001d0: 8848 38be 9153 1bbd 1f3f 343e a387 1d3e
000001e0: 4cbd 6dbd b49f 80bd c781 de3d 7fde 333e
000001f0: ab2b 833d 14f3 62bd 3669 a3bd ee5c a33d

actor.4.weight f4 [1, 128]
1.4151708 -0.1416007 -0.004824511 0.023973262 2.3534503 -1.5293621 -0.055841126 1.6589082
-0.7915052 -0.11917864 -3.7691605 1.3050421 -0.12557186 0.01228786 -0.12432597 -1.1314347
0.51723367 -0.11095265 -0.39107606 0.007965071 0.9564268 0.018088823 0.05488429 -1.3180361
0.020742437 5.0800347 0.15455998 -0.013377398 -0.09251198 -0.07259343 0.0016454324 0.028682094
2.5961199 0.08885242 0.93133587 -0.010078545 0.5317003 0.102750614 -0.011185167 0.891226
0.009566679 0.14547159 -0.1287021 -0.22726098 0.0017998915 0.09643172 -0.12753257 0.04559947
0.82232267 -0.41902542 0.059924908 0.05271644 -1.6350046 -0.17038746 -2.1574738 0.500081
-0.47071308 0.018452099 0.39916095 -0.37852937 0.019638985 1.8844227 0.67689395 -0.026522158
-0.051837724 0.00028706796 0.03044884 -0.058773395 0.62489194 -0.11815497 -0.54755324 -0.033977285
0.010991979 -1.2588595 -0.11912406 -0.11399816 1.0059546 -1.0616667 0.053108517 -0.12272252
0.9382126 0.025828604 -0.06099214 -0.0020551498 0.18476062 -1.8555518 1.1274154 -0.44383162
0.1629463 -0.012416845 0.1234055 0.013424095 1.0296133 0.020054707 -0.097519696 0.055476185
0.7711427 -1.569396 0.049408745 0.5402952 0.39769536 -3.514715 0.062978946 1.8968948
-1.144555 0.70031106 -0.16915883 2.9084964 -0.09517503 -0.17524329 0.06825666 0.10607361
0.46382916 0.10916036 -0.16709335 -0.12714757 0.17004032 -1.5042899 -0.50577676 -0.0842443
-0.10619932 -0.063885614 0.6402008 -0.5437265 -0.044425096 -0.025105333 -0.7120568 -0.10884948
00000000: 5124 b53f c6ff 10be ee16 9ebb 9363 c43c
00000010: ee9e 1640 23c2 c3bf aab9 64bd 1b57 d43f
00000020: 16a0 4abf ee13 f4bd ed39 71c0 9f0b a73f
00000030: e995 00be 0553 493c 9d9e febd dad2 90bf
00000040: 6d69 043f 253b e3bd 1f3b c8be ee7f 023c
00000050: 63d8 743f 032f 943c 59ce 603d 68b5 a8bf
00000060: 0bec a93c a58f a240 f944 1e3e e02c 5bbc
00000070: ec76 bdbd ddab 94bd 8dab d73a b6f6 ea3c
00000080: d426 2640 42f8 b53d 076c 6e3f 7b20 25bc
00000090: 831d 083f ea6e d23d fe41 37bc 6327 643f
000000a0: 8fbd 1c3c 81f6 143e 7cca 03be 1ab7 68be
000000b0: 56ea eb3a fe7d c53d e697 02be 83c6 3a3d
000000c0: bd83 523f 808a d6be d273 753d 32ed 573d
000000d0: d547 d1bf 0d7a 2ebe 0d14 0ac0 4f05 003f
000000e0: 4e01 f1be db28 973c d35e cc3e 9ace c1be
000000f0: f0e1 a03c c334 f13f ec48 2d3f ff44 d9bc
00000100: cb53 54bd 9c81 9639 d96f f93c 5fbc 70bd
00000110: ebf8 1f3f 3cfb f1bd 732c 0cbf c42b 0bbd
00000120: b417 343c 4f22 a1bf 51f7 f3bd de77 e9bd
00000130: 1fc3 803f b2e4 87bf 5188 593d f255 fbbd
00000140: b32e 703f 8296 d33c e5d2 79bd b1af 06bb
00000150: e331 3d3e b982 edbf 264f 903f e63d e3be
00000160: 65db 263e 0670 4bbc 06bc fc3d bcf0 5b3c
00000170: 5eca 833f c549 a43c 68b8 c7bd ff3a 633d
00000180: 9c69 453f f8e1 c8bf d360 4a3d c950 0a3f
00000190: ba9e cb3e 17f1 60c0 1bfb 803d 73cd f23f
000001a0: c780 92bf 9647 333f f937 2dbe ce24 3a40
000001b0: 20eb c2bd fa72 33be 26ca 8b3d 1f3d d93d
000001c0: 047b ed3e 788f df3d 851a 2bbe f932 02be
000001d0: 0d1f 2e3e 928c c0bf 967a 01bf 4788 acbd
000001e0: 077f d9bd 76d6 82bd 33e4 233f a931 0bbf
000001f0: 17f7 35bd b3a9 cdbc 5b49 36bf 7aec debd

q1.0.weight f4 [128, 4]
0.4831022 -0.49870667 -0.22671925 0.02983173 0.67979157 -0.7827616 0.07461053 0.14015359
-1.1478035 -0.86637384 -0.21321741 -0.07859822 0.88758326 0.25825953 -0.33107847 -0.13031235
0.5242104 1.3527956 -0.2546713 -0.04586631 1.1735734 -1.056212 -0.5582498 -0.24150048
0.09945719 -1.0026819 -0.2084864 -0.116827466 -0.79828155 -0.9035876 -0.012847956 -0.061147835
0.31240547 -0.81516397 -0.12633547 -0.05343909 -0.088255 0.56037545 0.14680055 0.24903989
-0.3820858 0.42342633 0.048442677 -0.12709291 1.0821431 0.026533633 -0.40353185 -0.13559201
0.4290784 -1.1686559 -0.23077174 -0.10322068 -0.21716054 1.041724 0.43376836 0.11936583
0.81535333 0.8693207 0.14711808 0.08418464 -0.13102384 0.48423904 0.5026204 0.14458264
-0.7657603 0.74444014 0.24590348 0.055241738 -0.41930193 0.23693497 0.15674642 0.04804711
-0.6371671 -0.57787 -0.28502205 -0.16211994 0.11345362 -0.9553013 -0.12168345 -0.10282609
-0.26359102 0.46358165 0.31765136 -0.20217302 -0.99930036 0.5116443 0.24980453 0.039184462
0.70781446 0.50073266 0.2529689 -0.16566968 0.5083416 1.0267357 0.26201054 0.094692856
-0.8521923 0.59733534 0.19196042 0.07772761 0.29093483 -0.48519897 0.386323 0.04099386
0.05138529 1.4383386 0.32533005 0.16759042 -0.7074405 0.8678539 0.25122854 0.0532321
-0.8979463 0.6815719 0.2123829 0.037294224 -0.18682124 -0.7242557 -0.11583344 0.17207523
-0.59210366 0.5652995 0.04208536 0.15554678 0.20199238 0.61149496 0.50750965 0.023507306
-0.69131917 1.0601474 0.254974 0.08066192 -0.22765544 0.28568766 0.29210195 0.032519992
-0.0301888 1.037462 0.2347288 0.14179836 0.39536366 0.9813198 0.368712 -0.08637444
-0.010563735 -0.9979818 -0.21533321 -0.115298666 -0.033840127 1.2808764 -0.076174945 -0.06261665
0.75271475 -0.10531518 -0.1456913 -0.12750563 -0.15351808 -0.56753004 0.011282568 -0.041513577
-1.1286407 0.40005335 0.23578767 0.0077914507 1.1859127 -1.2994927 -0.30667242 -0.09730652
0.15899476 -0.88389707 0.016971644 -0.046886873 0.13140474 1.0145473 0.139258 0.033110887
-0.8573001 0.4496771 0.1694419 0.08648561 -1.2645003 -0.537792 -0.4441304 -0.09431036
0.24808139 0.3175592 0.36139196 -0.0067306967 0.6028343 -0.9302532 -0.22665238 -0.093875304
-1.4129627 -0.41211626 -0.31858528 -0.12957166 0.26063043 0.7346144 0.07880645 0.0914281
1.5696291 0.3747863 0.09010668 -0.003244581 -1.0587717 -0.8530881 -0.49858147 -0.11703878
-0.60867935 -0.39766756 -0.25078768 -0.08525026 -0.16930975 1.06419 0.07826927 0.027579514
-0.093153164 0.3278332 -0.19716118 0.047359593 0.6129568 -0.82238495 -0.15249172 -0.04030897
-0.5630053 -0.4634665 -0.045174886 0.0018593142 0.15073583 -0.9253901 -0.18497571 -0.070809916
-0.93111837 0.21453854 -0.040734794 -0.1377863 0.41341028 -0.5251138 -0.2975297 -0.008666243
1.7745651 0.09678053 -0.058193482 0.017998056 -0.4234749 0.20482883 0.17245345 0.07398098
0.09743989 -0.227697 0.24407563 -0.23787747 -0.56031644 1.197317 0.28905395 0.047483593
00000000: 2c59 f73e 7b56 ffbe 1729 68be ac61 f43c
00000010: d206 2e3f 1063 48bf 68cd 983d 6c84 0f3e
00000020: 3aeb 92bf adca 5dbf aa55 5abe 1bf8 a0bd
00000030: a838 633f 983a 843e 1e83 a9be 9a70 05be
00000040: a732 063f 6828 ad3f 4764 82be 50de 3bbd
00000050: a737 963f f431 87bf 75e9 0ebf e74b 77be
00000060: 36b0 cb3d e157 80bf 757d 55be 3d43 efbd
00000070: 2e5c 4cbf 8451 67bf 3c80 52bc 2776 7abd
00000080: 9cf3 9f3e 96ae 50bf 165e 01be f2e2 5abd
00000090: 0abf b4bd c474 0f3f e252 163e 5004 7f3e
000000a0: c0a0 c3be 56cb d83e d46b 463d a524 02be
000000b0: aa83 8a3f 105d d93c ba9b cebe a2d8 0abe
000000c0: 2ab0 db3e 8496 95bf 6d4f 6cbe 5d65 d3bd
000000d0: 555f 5ebe 3657 853f e316 de3e 1376 f43d
000000e0: ffba 503f cd8b 5e3f 1fa6 163e ff68 ac3d
000000f0: 1d2b 06be 2eee f73e bbab 003f 790d 143e
00000100: de08 44bf a193 3e3f 1fce 7b3e 2945 623d
00000110: beae d6be 159f 723e 2282 203e 0ccd 443d
00000120: 621d 23bf 4aef 13bf 69ee 91be c502 26be
00000130: 5f5a e83d a08e 74bf 2c35 f9bd 7c96 d2bd
00000140: 67f5 86be 935a ed3e 33a3 a23e 7206 4fbe
00000150: 26d2 7fbf 1ffb 023f c2cc 7f3e e37f 203d
00000160: 5433 353f 0430 003f 2485 813e 50a5 29be
00000170: ad22 023f 136c 833f 3f26 863e 54ee c13d
00000180: 4629 5abf f8ea 183f 4691 443e a72f 9f3d
00000190: 69f5 943e 006c f8be 21cc c53e 2ee9 273d
000001a0: 6279 523d 7b1b b83f a991 a63e d39c 2b3e
000001b0: d21a 35bf ac2b 5e3f 07a1 803e e709 5a3d
000001c0: cfdf 65bf 7f7b 2e3f e77a 593e d4c1 183d
000001d0: 114e 3fbe d268 39bf 153a edbd 7d34 303e
000001e0: 1b94 17bf 78b7 103f b361 2c3d a847 1f3e
000001f0: 17d7 4e3e ef8a 1c3f 27ec 013f 6592 c03c
00000200: 4bfa 30bf e9b2 873f f48b 823e 1432 a53d
00000210: 821e 69be a745 923e 638e 953e af33 053d
00000220: 814e f7bc 8ecb 843f bf5c 703e 9733 113e
00000230: 1b6d ca3e c637 7b3f d2c7 bc3e 15e5 b0bd
00000240: 8413 2dbc bc7b 7fbf 4f80 5cbe b521 ecbd
00000250: f29b 0abd c2f3 a33f 9c01 9cbd 283d 80bd
00000260: eab1 403f 7caf d7bd 1a30 15be d690 02be
00000270: d833 1dbe a649 11bf 85da 383c 240a 2abd
00000280: 4c77 90bf cbd3 cc3e 5372 713e 6d4f ff3b
00000290: fdcb 973f c755 a6bf 2b04 9dbe a448 c7bd
000002a0: 86cf 223e 1447 62bf 1e08 8b3c 730c 40bd
000002b0: f78e 063e b0dc 813f a699 0e3e 489f 073d
000002c0: 0578 5bbf 143c e63e 2d82 2d3e 5e1f b13d
000002d0: 25db a1bf bdac 09bf 0f65 e3be ca25 c1bd
000002e0: 0c09 7e3e 1f97 a23e 5e08 b93e 2d8d dcbb
000002f0: 5953 1a3f 1325 6ebf 9017 68be b241 c0bd
00000300: f6db b4bf e700 d3be 9c1d a3be 6fae 04be
00000310: 5a71 853e b00f 3c3f 4765 a13d a83e bb3d
00000320: 9be9 c83f fde3 bf3e da89 b83d 09a3 54bb
00000330: d585 87bf fb63 5abf 1246 ffbe 07b2 efbd
00000340: 69d2 1bbf 159b cbbe 3e67 80be b097 aebd
00000350: 895f 2dbe 6137 883f a44b a03d 6fee e13c
00000360: 16c7 bebd c1d9 a73e 9fe4 49be 22fc 413d
00000370: bdea 1c3f d287 52bf ca26 1cbe 051b 25bd
00000380: 1e21 10bf 7b4b edbe 4d09 39bd 3bb4 f33a
00000390: 7e5a 1a3e 5ee6 6cbf 466a 3dbe ca04 91bd
000003a0: c65d 6ebf feaf 5b3e 87d9 26bd da17 0dbe
000003b0: 83aa d33e dc6d 06bf d055 98be dcfc 0dbc
000003c0: f324 e33f df34 c63d 4a5c 6ebd a970 933c
000003d0: b4d1 d8be a6be 513e a397 303e 5783 973d
000003e0: 918e c73d 6729 69be f6ee 793e 2796 73be
000003f0: e670 0fbf af41 993f e1fe 933e 287e 423d

q1.0.bias f4 [128]
-0.18400823 0.37508607 0.5365748 0.32054463 -0.62049854 -0.9018446 0.15337777 0.28918818
-0.07321986 -0.31989095 0.0763824 -0.86404747 -0.093075424 -0.49464664 -0.33551553 -0.6209679
0.41157946 0.6562946 0.447182 0.12493222 -0.20032649 0.5774717 -0.49796188 -0.9047152
0.53416765 0.047768746 -0.63831836 0.27787736 0.5393739 -0.41450962 0.35689256 -0.07833616
0.29239798 -0.83932245 0.23360965 -0.07711027 0.24748902 0.1966995 -0.03801704 0.217459
0.35763082 -0.91769576 0.09869622 -0.09305526 0.47039026 0.4561121 -0.115156546 -0.3101789
0.13034372 -0.13010906 -0.24894176 0.8506219 0.7303596 -0.16139145 0.59230924 -0.14895643
0.10061946 0.015711326 0.16164456 -1.2022843 0.40086052 0.60379195 0.21172412 0.13043226
0.15459594 -0.294108 0.21770997 -0.8293056 0.5677988 -0.10021711 -0.38953507 -0.44516245
-0.17618228 0.051909268 -0.0399641 -0.053586558 -0.24839972 -0.0037618037 -0.12250536 0.819167
0.11306134 0.13477303 -0.18310146 0.6793462 0.31534624 0.11527818 -0.41447538 -0.08555956
0.4275714 -0.26325426 0.42895964 -0.10019248 0.406633 0.46090516 0.09857029 -0.4947233
-0.5025571 0.066958085 0.25716656 -0.6234963 0.50325876 0.03774168 0.13188179 0.73888755
-0.0717544 -0.37781692 0.13647471 0.3035552 -0.32904878 0.08193416 0.05921533 0.2903536
0.60865664 0.8556635 0.18200798 0.2847673 -0.28106585 0.392418 -0.43889654 -0.092674665
-0.069204375 -0.13285275 0.65721524 0.14022376 0.52708817 0.17061163 -0.6912719 0.13319573
00000000: a76c 3cbe 480b c03e f75c 093f 6d1e a43e
00000010: fed8 1ebf 4adf 66bf 100f 1d3e 7910 943e
00000020: 4bf4 95bd bfc8 a3be 606e 9c3d 3732 5dbf
00000030: 549e bebd 5342 fdbe b1c8 abbe c1f7 1ebf
00000040: 8bba d23e ec02 283f 0af5 e43e 77dc ff3d
00000050: 6322 4dbe 2fd5 133f dcf4 febe 6a9b 67bf
00000060: 36bf 083f 29a9 433d d568 23bf f145 8e3e
00000070: 6814 0a3f 9b3a d4be 9fba b63e b56e a0bd
00000080: 30b5 953e d6dd 56bf 5e37 6f3e fdeb 9dbd
00000090: c36d 7d3e 986b 493e c1b7 1bbd 92ad 5e3e
000000a0: 631b b73e 1cee 6abf 3e21 ca3d c293 bebd
000000b0: fed6 f03e 8687 e93e 32d7 ebbd c5cf 9ebe
000000c0: d378 053e 4f3b 05be 97ea 7ebe 5bc2 593f
000000d0: d9f8 3a3f cd43 25be 94a1 173f 0988 18be
000000e0: 9311 ce3d 0ab5 803c 2786 253e 74e4 99bf
000000f0: 973d cd3e 1c92 1a3f 35ce 583e 0990 053e
00000100: 664e 1e3e 5395 96be 5def 5e3e 5f4d 54bf
00000110: 435b 113f a13e cdbd 2471 c7be 55ec e3be
00000120: 2169 34be d09e 543d 65b1 23bd 947d 5bbd
00000130: 7f5c 7ebe 9888 76bb 17e4 fabd eeb4 513f
00000140: b48c e73d f101 0a3e f37e 3bbe a2e9 2d3f
00000150: 1075 a13e f716 ec3d 1e36 d4be da39 afbd
00000160: a3ea da3e 43c9 86be 99a0 db3e b731 cdbd
00000170: 3332 d03e c3fb eb3e 38df c93d 5f4c fdbe
00000180: 95a7 00bf 5221 893d 56ab 833e 749d 1fbf
00000190: 91d5 003f 0597 1a3d 050c 073e bc27 3d3f
000001a0: f9f3 92bd 3871 c1be 07c0 0b3e 966b 9b3e
000001b0: 1579 a8be 19cd a73d c68b 723d 3aa9 943e
000001c0: ecd0 1b3f c30c 5b3f 4d60 3a3e 05cd 913e
000001d0: dde7 8fbe 03eb c83e 0cb7 e0be 37cc bdbd
000001e0: 06bb 8dbd 8d0a 08be 423f 283f d196 0f3e
000001f0: 40ef 063f d1b4 2e3e 32f7 30bf 7664 083e

q1.2.weight f4 [128, 128]
0.3608733 0.51005363 -0.097657695 0.45031556 0.2866723 -0.010206953 -0.07236836 0.013062331
-0.0092470655 0.19702967 0.23115252 -0.079935804 0.024411635 -0.2027151 -0.3622457 -0.11052266
0.25135586 0.055614963 0.020632489 0.03870125 0.1802852 0.21966206 0.25864023 -0.07772878
0.27072296 0.024070121 -0.025338737 0.07899646 0.16986288 0.066784464 0.41455773 -0.1235665
0.2610098 -0.1248453 0.026975341 -0.16474651 0.053516496 0.5573748 0.29744792 0.01942042
0.25011575 -0.072168484 -0.0152992895 0.060518317 0.19202983 -0.17456914 0.1928696 -0.14030512
-0.104014196 -0.023188025 0.33143103 -0.27269655 -0.05052857 0.08544551 0.3089437 0.00919149
0.16919832 0.10387365 0.20177265 -0.2835619 0.540131 0.293916 0.5873883 0.097992815
0.0073835324 -0.11620462 -0.09823557 0.51176876 0.3066398 0.055102162 0.054645877 -0.2549964
0.08015788 0.12547128 0.050872765 0.9069567 0.55954987 -0.046082847 0.27352467 0.051772628
-0.1927083 0.042202186 0.10371741 0.15149301 -0.0035180415 -0.16273263 -0.03310323 0.0015202331
0.050521053 0.12738213 0.31757686 0.10194064 0.19159941 0.14007394 0.27477005 -0.52233183
0.22349499 0.26615882 0.32651022 -0.0007607275 -0.0883679 -0.07905458 0.04415931 -0.05153571
0.4954845 0.016845841 0.07251084 0.36376235 0.37327322 0.19126646 0.8878863 0.011515794
0.30140406 -0.13857242 0.17660287 0.25390267 0.2373968 0.2964534 0.024105037 -0.002423734
0.6292247 -0.009155082 -0.07738388 0.14240406 0.3834636 0.54949063 0.018070647 0.10583325
-0.09101487 -0.1469015 0.089566946 0.0811622 0.07197666 -0.061382517 -0.14218915 -0.06312468
-0.15714063 -0.050111182 0.12333233 0.0046483157 0.13740641 -0.049132798 -0.09725915 -0.13654196
0.13347179 -0.15827562 -0.10798222 -0.077632606 0.03608221 0.086854436 0.050981726 -0.0059633325
0.12511005 0.07899705 -0.087573715 -0.019665089 0.11341523 -0.10548808 -0.013333043 -0.033495743
-0.16224875 0.0824788 0.064990476 0.06474107 -0.0924926 0.12927198 -0.10831135 -0.09442415
-0.1531993 0.11953572 0.06398781 -0.055188783 -0.14240894 0.007984634 -0.15955177 0.098547
-0.12353381 0.036613304 -0.009084008 0.10976809 -0.08104274 -0.031050235 -0.13010718 -0.08754755
0.13222927 0.12327768 0.044669766 -0.14085492 0.0648861 -0.16659214 -0.12038883 -0.1463144
-0.06894687 -0.071325585 -0.12875009 -0.110628456 -0.08447951 -0.08325709 0.05194834 0.09935875
0.016165813 0.008567629 0.107056156 -0.035424035 -0.10431354 -0.14080787 -0.12560584 0.023508923
0.10577059 -0.033594284 -0.038319055 0.11462896 -0.09169729 0.104555756 -0.119724005 0.11706614
-0.16561048 -0.122718506 0.04575134 0.07419532 -0.07906471 -0.07985188 0.11415581 0.081355765
-0.16554636 0.111246325 0.01539256 -0.1374386 -0.033053454 -0.019747574 0.04390406 -0.1354135
-0.060069676 -0.0561438 -0.06593591 0.025132414 0.0029752916 0.039520413 -0.045382645 -0.01583482
0.021765009 0.059307802 -0.100551285 -0.075509466 0.034818526 -0.10195851 0.076540716 0.010700292
0.117104165 0.112321325 -0.07706028 0.06912594 0.002021252 0.042893644 0.023424784 0.0060052094
00000000: 63c4 b83e e092 023f c200 c8bd c38f e63e
00000010: b6c6 923e 103b 27bc dd35 94bd 6303 563c
00000020: 0181 17bc 25c2 493e 3fb3 6c3e 62b5 a3bd
00000030: e9fa c73c 8c94 4fbe 4578 b9be b459 e2bd
00000040: b7b1 803e 84cc 633d 7705 a93c 3485 1e3d
00000050: af9c 383e 17ef 603e 7e6c 843e 4430 9fbd
00000060: 339c 8a3e b42e c53c 2f93 cfbc e5c8 a13d
00000070: 89f0 2d3e 4bc6 883d e940 d43e 6f10 fdbd
00000080: 14a3 853e e5ae ffbd 64fb dc3c 4fb3 28be
00000090: 1d34 5b3d 1db0 0e3f 184b 983e 9317 9f3c
000000a0: 2c0f 803e 12cd 93bd dfa9 7abc 0ee2 773d
000000b0: 78a3 443e 41c2 32be 9c7f 453e 25ac 0fbe
000000c0: 6505 d5bd d0f4 bdbc 54b1 a93e e29e 8bbe
000000d0: 0cf7 4ebd 0efe ae3d de2d 9e3e e797 163c
000000e0: 5342 2d3e b5bb d43d 7d9d 4e3e 062f 91be
000000f0: 0646 0a3f 287c 963e 145f 163f 75b0 c83d
00000100: 8ff1 f13b b0fc edbd bb2f c9bd 4703 033f
00000110: e4ff 9c3e ceb2 613d 5bd4 5f3d e38e 82be
00000120: d129 a43d 8b7b 003e f65f 503d 502e 683f
00000130: a93e 0f3f 5ec1 3cbd 6d0b 8c3e 890f 543d
00000140: 5355 45be 33dc 2c3d cb69 d43d fc20 1b3e
00000150: f18e 66bb 62a3 26be 4197 07bd 8f42 c73a
00000160: 2aef 4e3d 7670 023e 6f99 a23e 41c6 d03d
00000170: a332 443e 8b6f 0f3e a9ae 8c3e 8ab7 05bf
00000180: dfdb 643e f845 883e 592c a73e 8f6b 47ba
00000190: 3bfa b4bd 5ee7 a1bd 65e0 343d 1c17 53bd
000001a0: 25b0 fd3e 4a00 8a3c 9080 943d 0f3f ba3e
000001b0: ab1d bf3e 5bdb 433e 844c 633f beac 3c3c
000001c0: a251 9a3e eee5 0dbe 62d7 343e 88ff 813e
000001d0: 2618 733e bdc8 973e ed77 c53c 82d7 1ebb
000001e0: df14 213f 32ff 15bc 717b 9ebd 5fd2 113e
000001f0: 5755 c43e 6bab 0c3f e508 943c 1abf d83d
00000200: 0166 babd 596d 16be e06e b73d 5e38 a63d
00000210: 8068 933d 3c6c 7bbd 089a 11be 8347 81bd
00000220: 79e9 20be 6241 4dbd a995 fc3d e650 983b
00000230: 44b4 0c3e 793f 49bd ce2f c7bd a8d1 0bbe
00000240: d4ac 083e 0113 22be c825 ddbd d8fd 9ebd
00000250: f0ca 133d bde0 b13d 37d2 503d 0f68 c3bb
00000260: d91c 003e 35c9 a13d d959 b3bd ae18 a1bc
00000270: 3e46 e83d 220a d8bd d672 5abc d532 09bd
00000280: 8924 26be a5ea a83d ba19 853d f796 843d
00000290: c36c bdbd e05f 043e 57d2 ddbd 7361 c1bd
000002a0: 47e0 1cbe 25cf f43d 0a0c 833d a20d 62bd
000002b0: a6d3 11be fbd1 023c 8a61 23be 02d3 c93d
000002c0: 4bff fcbd d5f7 153d 17d5 14bc 18ce e03d
000002d0: bcf9 a5bd 105d febc d13a 05be 214c b3bd
000002e0: 1c67 073e 0279 fc3d a5f7 363d 463c 10be
000002f0: 01e3 843d 2197 2abe 6b8e f6bd 71d3 15be
00000300: 0434 8dbd 2613 92bd 10d7 03be 2c91 e2bd
00000310: 9803 adbd b182 aabd c8c7 543d 9a7c cb3d
00000320: 2b6e 843c 3e5f 0c3c 4240 db3d cb18 11bd
00000330: 56a2 d5bd f02f 10be d19e 00be c995 c03c
00000340: 409e d83d 299a 09bd 71f4 1cbd 97c2 ea3d
00000350: cacb bbbd 5421 d63d dc31 f5bd 5fc0 ef3d
00000360: cb95 29be d753 fbbd c265 3b3d b7f3 973d
00000370: aeec a1bd 6289 a3bd 85ca e93d da9d a63d
00000380: fc84 29be 1dd5 e33d 1331 7c3c b4bc 0cbe
00000390: 0f63 07bd aac5 a1bc bed4 333d d6a9 0abe
000003a0: 9f0b 76bd 0bf7 65bd 6809 87bd 7ee2 cd3c
000003b0: 1cfd 423b 28e0 213d 27e3 39bd 06b8 81bc
000003c0: 884c b23c bdec 723d d5ed cdbd b5a4 9abd
000003d0: df9d 0e3d a0cf d0bd 61c1 9c3d 4750 2f3c
000003e0: 4fd4 ef3d b908 e63d c8d1 9dbd e791 8d3d
000003f0: fb76 043b 3fb1 2f3d 55e5 bf3c 59c7 c43b

q1.2.bias f4 [128]
0.46395588 -0.014835711 0.3804775 0.24266827 -0.005131016 -0.0494034 0.4589378 0.47852576
-0.019851657 0.32448146 -0.053215705 0.08727114 0.21712573 0.49261484 0.48150393 0.12020325
0.42312953 0.46499518 -0.033910703 -0.016776258 0.3143864 0.4051267 -0.0153157385 0.13220528
-0.045294758 0.39201185 -0.025065571 0.046223138 -0.020670565 -0.018158423 0.48248658 -0.06169986
0.45713398 0.5216352 0.15216482 0.45469788 0.4325552 0.3659228 -0.041050512 0.6401492
0.22434062 0.42587575 0.47009036 0.39548248 -0.046691976 0.2109204 0.30492198 0.1488467
0.1913454 -0.049633894 0.52120805 0.4874686 0.5944004 0.43593103 -0.053891864 -0.3400898
0.23990253 0.35593855 0.36896208 0.48765862 -0.03855715 0.41889316 -0.018230684 0.53801435
0.5577965 0.5288334 0.42694584 -0.05884 -0.034881648 -0.06447291 0.14333436 -0.017223295
0.46818158 -0.024741719 0.5460611 0.3895576 0.48398927 0.19469689 0.474236 0.2795854
0.584355 -0.04225449 0.28856897 0.40876055 0.44691694 0.39102682 0.44767734 0.43257815
0.46495178 -0.04712801 0.4639507 -0.015823131 -0.019269267 0.5294355 0.44102207 0.36829153
0.4079603 0.4971658 0.4467718 0.47118166 -0.031594668 0.4480181 0.023679515 0.46704397
0.45790362 0.5860981 0.10783791 0.45858034 0.39197326 0.13316992 0.59807265 0.37975335
-0.06298626 0.47985217 0.42096534 -0.2672748 0.58912873 0.14063461 -0.026652912 -0.07739437
0.5052173 -0.014278252 -0.019851984 0.28997386 -0.014008574 0.39176607 0.26829115 0.43832472
00000000: a08b ed3e 7b11 73bc f2cd c23e 087e 783e
00000010: 1522 a8bb 385b 4abd e5f9 ea3e 5401 f53e
00000020: f19f a2bc 6f22 a63e b6f8 59bd 36bb b23d
00000030: 3556 5e3e 0338 fc3e af87 f63e 1f2d f63d
00000040: 6fa4 d83e d913 ee3e f3e5 0abd 5d6e 89bc
00000050: 41f7 a03e c46c cf3e ddee 7abc d260 073e
00000060: ff86 39bd c7b5 c83e 5056 cdbc 7954 3d3d
00000070: 5155 a9bc f9c0 94bc 7b08 f73e feb8 7cbd
00000080: 770d ea3e e289 053f 18d1 1b3e 29ce e83e
00000090: e077 dd3e 3c5a bb3e 9524 28bd d1e0 233f
000000a0: 8cb9 653e 630c da3e afaf f03e ae7c ca3e
000000b0: 1640 3fbd 84fb 573e bc1e 9c3e 456b 183e
000000c0: 0cf0 433e e94c 4bbd e46d 053f 7c95 f93e
000000d0: a02a 183f 5a32 df3e b7bd 5cbd 4020 aebe
000000e0: 02a9 753e 943d b63e 99e8 bc3e 64ae f93e
000000f0: 1aee 1dbd 2a79 d63e 8458 95bc 4fbb 093f
00000100: c0cb 0e3f a061 073f a598 da3e 3602 71bd
00000110: 0fe0 0ebd 5f0a 84bd 3ec6 123e de17 8dbc
00000120: 7fb5 ef3e 25af cabc a9ca 0b3f 1874 c73e
00000130: 71cd f73e 9f5e 473e 10cf f23e d125 8f3e
00000140: 4a98 153f 0b13 2dbd 50bf 933e 1049 d13e
00000150: 4cd2 e43e ab34 c83e f735 e53e e27a dd3e
00000160: 290e ee3e 4d09 41bd f28a ed3e 839f 81bc
00000170: 95da 9dbc 1689 073f a5cd e13e b590 bc3e
00000180: 2ce0 d03e 848c fe3e 46bf e43e b93e f13e
00000190: 6969 01bd a162 e53e 8bfb c13c 6320 ef3e
000001a0: 5872 ea3e 860a 163f 1fda dc3d 0bcb ea3e
000001b0: b8b0 c83e b25d 083e 4a1b 193f 086f c23e
000001c0: f1fe 80bd 2faf f53e c588 d73e 3ed8 88be
000001d0: 24d1 163f 8502 103e 3557 dabc f180 9ebd
000001e0: ec55 013f 54ef 69bc a1a0 a2bc 7477 943e
000001f0: 3884 65bc 9095 c83e 755d 893e 196c e03e

q1.4.weight f4 [1, 128]
-0.14641674 0.11690019 -0.028718945 2.1521618 0.07464261 0.104866736 -0.13391085 -0.22303253
0.17344171 1.9374552 0.0371447 -2.1022081 2.2743518 -0.28581756 -0.21085946 2.2310152
3.067164 -0.49084762 0.05849406 0.38979378 -0.5936455 -0.056932244 0.09595436 2.0560024
0.10409925 3.1386266 0.018272137 1.0817536 0.093470976 0.0357148 -0.16986503 0.05314381
-0.141285 -0.20661736 2.0785036 -0.110701166 -0.09614079 -0.024066448 0.13355163 -0.42089692
-0.7577327 -0.067617066 -0.12381225 -1.247894 0.05327154 2.1259785 -1.6922394 2.461124
-1.2697322 -0.0068137757 3.251982 -0.251717 -0.3596103 -0.23417534 0.024999678 1.9926395
3.312355 -0.020905536 -0.045978658 -0.23644191 0.055339474 -0.06980415 0.28491345 -0.35512334
-0.37826967 2.6771553 2.7046933 0.006810568 0.029252814 0.12872049 1.9403821 0.19446263
-0.1906458 0.18829517 -0.26353264 -0.038240764 -0.23159917 2.2994702 -1.3407218 0.001575294
-0.9899445 0.09529105 -0.28954875 -0.10999471 3.1397421 -0.16295508 -0.122355394 -1.0423946
-0.15350746 -0.0060505853 -0.17797129 0.094401605 0.18444812 -0.57683307 -0.09890853 -0.9654208
-0.0664975 -0.42230028 -0.11347586 -0.1899982 0.00937475 -0.12027072 0.025895009 -0.1760575
-0.11719672 -0.32191718 1.9478946 -0.13507998 3.8527238 -0.025610527 -1.2788897 -0.03655089
0.15377969 -0.19509763 -0.081995554 1.4244053 -0.15807731 -0.013716917 0.040892627 0.67546165
-0.29340512 0.19705261 0.037358094 -1.9056336 -0.0072795977 -0.046056356 -0.1307818 -0.1007104
00000000: 45ee 15be 5e69 ef3d fe43 ebbc 05bd 0940
00000010: 3ade 983d 5fc4 d63d ed1f 09be a462 64be
00000020: b49a 313e 88fe f73f 0a25 183d 948a 06c0
00000030: fb8e 1140 ae56 92be 8beb 57be f4c8 0e40
00000040: 6a4c 4440 6150 fbbe 7897 6f3d 0d93 c73e
00000050: 27f9 17bf c931 69bd b883 c43d 8b95 0340
00000060: fd31 d53d 42df 4840 73af 953c e776 8a3f
00000070: b66d bf3d af49 123d 19f1 2dbe 53ad 593d
00000080: 04ad 10be 8093 53be 3406 0540 4bb7 e2bd
00000090: 76e5 c4bd 0027 c5bc c2c1 083e cd7f d7be
000000a0: c5fa 41bf d17a 8abd 4791 fdbd feba 9fbf
000000b0: 4233 5a3d 0810 0840 4d9b d8bf 0e83 1d40
000000c0: 9686 a2bf 1846 dfbb 7920 5040 0de1 80be
000000d0: d71e b8be a9cb 6fbe 20cc cc3c d00e ff3f
000000e0: a0fd 5340 1642 abbc 1e54 3cbd d41d 72be
000000f0: a5ab 623d 7af5 8ebd 2de0 913e bad2 b5be
00000100: 90ac c1be 8356 2b40 b219 2d40 2f2b df3b
00000110: 99a3 ef3c 4ecf 033e 715e f83f 3621 473e
00000120: a738 43be 73d0 403e c0ed 86be 59a2 1cbd
00000130: 5528 6dbe 852a 1340 c69c abbf 187a ce3a
00000140: 016d 7dbf f427 c33d bc3f 94be e844 e1bd
00000150: 89f1 4840 b2dd 26be 7795 fabd 306d 85bf
00000160: 0f31 1dbe fd43 c6bb 1b3e 36be a155 c13d
00000170: f8df 3c3e 55ab 13bf 8e90 cabd d125 77bf
00000180: d72f 88bd be37 d8be 0866 e8bd e38e 42be
00000190: 8d98 193c 7f50 f6bd c521 d43c 6b48 34be
000001a0: d504 f0bd 54d2 a4be 9c54 f93f 6852 0abe
000001b0: 0793 7640 2bcd d1bc a8b2 a3bf 63b6 15bd
000001c0: 6c78 1d3e acc7 47be 49ed a7bd ea52 b63f
000001d0: 05df 21be ebbc 60bc 077f 273d 0eeb 2c3f
000001e0: 3239 96be 29c8 493e cd04 193d cdeb f3bf
000001f0: b189 eebb 97a5 3cbd aaeb 05be 4141 cebd

q2.0.weight f4 [128, 4]
-0.81484884 0.60782707 -0.072013736 0.13745104 0.42698658 -1.2452672 -0.1965692 -0.069238566
-0.28419507 -1.6789571 -0.066779 0.00051026384 1.1814177 0.68294805 0.11031162 0.0030590596
0.34474117 0.20853889 0.508611 -0.048464105 0.06778148 -0.8683654 -0.12377968 -0.085256
0.5141237 -0.099790685 -0.31526253 -0.07815031 -0.32731614 0.9793083 0.5277074 0.10631804
0.5638501 -1.0472412 -0.26917267 -0.07924558 -0.77471775 -0.4203194 -0.26729545 -0.07774535
-0.71174437 -0.81053996 -0.30355975 -0.039251305 0.20261653 1.0218897 0.027074942 0.042308737
0.17907752 0.690603 -0.02364223 0.20192164 0.2683052 -0.94123906 -0.19205531 -0.059026584
-0.74763745 -0.51486504 -0.00022496041 0.06343903 0.118565954 0.33187473 0.4796499 0.07931721
-0.6265627 -1.0251654 -0.19540127 -0.08964841 -0.32548693 -0.5043522 0.058029138 0.12605715
-0.48122582 1.1727037 0.2683706 0.088952154 -0.20205615 -1.0370768 -0.25505403 0.24349244
0.4455668 -0.36377892 -0.026992295 0.006455255 -0.060494833 0.92722595 0.53996575 0.13288549
0.09922504 -0.71982616 -0.17105785 -0.07002129 -0.4935931 -0.3538655 -0.20622092 -0.06746657
-0.88290584 0.6142548 0.19784029 0.08662909 1.0563363 1.1476421 -0.014784596 0.23452568
1.3147373 0.61187977 0.06296919 -0.025423946 0.20425856 1.2544675 0.27525678 0.20678595
1.1770461 0.6150269 0.3221907 0.09341635 0.6690607 0.47536772 0.27109054 0.025648396
-0.44068795 -0.8591434 -0.25970092 -0.06572409 -0.013860414 -0.0006316093 -9.5861666e-05 -0.034813732
-0.020881254 1.1237422 0.2103654 0.14633496 -0.47053283 0.25596094 0.18196245 0.06297454
-0.86239475 1.261843 0.3157464 0.12382035 1.2845379 -0.07814132 -0.10344312 0.037561823
0.4815806 -0.57061654 -0.15299429 -0.055651132 -0.0062919776 -0.9467401 -0.1853751 -0.1146869
-0.95836395 0.7414286 0.26452872 0.021702727 -0.2999436 1.3427494 0.27352402 0.12826452
-0.751091 -1.1718724 -0.36989748 -0.11599585 -0.94786906 -0.75526726 -0.5050273 -0.1569225
-0.1730227 1.6521417 0.3638365 0.12881511 -0.36561573 -0.4201492 -0.112599 -0.058806606
0.34665337 0.8344117 0.21394114 0.019127326 1.6776772 -1.7284373 -0.37974918 -0.14945292
1.4911379 -1.085531 -0.42132866 -0.070637494 -1.0825194 0.53711194 0.283165 0.05662296
0.0021116014 1.0684392 0.25982687 0.11145258 -0.3279114 -0.24695188 -0.2757472 -0.067542516
-0.59424484 0.33433822 0.22910382 0.11831309 0.4700134 -1.1945306 0.112224184 -0.09640705
0.5182674 0.5437644 -0.24920292 -0.115205206 0.6354949 -0.6049914 -0.15956776 -0.056052472
0.11673965 1.1121684 0.3345469 0.0895055 0.32286367 -0.22072159 0.06950792 -0.16443403
0.98204577 -0.22123986 0.41527537 0.22186457 -0.9946188 0.29914814 0.2536048 0.039415583
-0.53222877 0.09473171 0.0155028505 -0.4170951 -0.90444773 -0.5439033 -0.33233148 -0.07004259
-0.44776806 0.27337044 0.004722011 0.04419828 -0.3454037 -1.2446506 -0.21574731 -0.09201176
-0.12510289 1.0094491 0.21821603 0.1053447 -1.3485246 -0.3013486 -0.27338466 -0.108799666
00000000: ef99 50bf 8e9a 1b3f f07b 93bd f7bf 0c3e
00000010: fc9d da3e ea64 9fbf 7049 49be f3cc 8dbd
00000020: 0482 91be 11e8 d6bf 6ec3 88bd 3ac3 053a
00000030: b238 973f afd5 2e3f 0feb e13d 817a 483b
00000040: ea81 b03e 388b 553e 5534 023f 4c82 46bd
00000050: 04d1 8a3d 324d 5ebf 3380 fdbd b39a aebd
00000060: 9c9d 033f 0f5f ccbd 176a a1be 450d a0bd
00000070: fb95 a7be f3b3 7a3f d517 073f 46bd d93d
00000080: 7b58 103f 000c 86bf 00d1 89be 824b a2bd
00000090: e753 46bf 1b34 d7be f3da 88be f438 9fbd
000000a0: e134 36bf 8c7f 4fbf 2f6c 9bbe fac5 20bd
000000b0: b57a 4f3e 48cd 823f 45cc dd3c ed4b 2d3d
000000c0: 1960 373e 5ccb 303f 5aad c1bc 8cc4 4e3e
000000d0: 4d5f 893e 0bf5 70bf 26aa 44be dcc5 71bd
000000e0: 2b65 3fbf 32ce 03bf 5ae3 6bb9 52ec 813d
000000f0: b5d2 f23d 7ceb a93e ac94 f53e 1071 a23d
00000100: 6a66 20bf 9f38 83bf 4517 48be 9699 b7bd
00000110: 39a6 a6be 3a1d 01bf f6af 6d3d 2015 013e
00000120: 3b63 f6be 281b 963f df67 893e 8c2c b63d
00000130: cfe7 4ebe efbe 84bf 7196 82be 1556 793e
00000140: 5521 e43e 3b41 babe f21e ddbc 9b86 d33b
00000150: 6ec9 77bd ae5e 6d3f 323b 0a3f 2213 083e
00000160: 7f36 cb3d 8746 38bf ca29 2fbe 5267 8fbd
00000170: 3cb8 fcbe dc2d b5be 942b 53be ea2b 8abd
00000180: 1e06 62bf cd3f 1d3f a596 4a3e 986a b13d
00000190: 0736 873f f0e5 923f 173b 72bc 8027 703e
000001a0: 5049 a83f 27a4 1c3f fef5 803d e145 d0bc
000001b0: 2829 513e 6492 a03f 75ee 8c3e b2bf 533e
000001c0: 72a9 963f 6772 1d3f 2ef6 a43e 1251 bf3d
000001d0: 9047 2b3f 6663 f33e 61cc 8a3e 961c d23c
000001e0: daa1 e1be d2f0 5bbf 85f7 84be 5a9a 86bd
000001f0: ca16 63bc 9592 25ba 5709 c9b8 d898 0ebd
00000200: 2a0f abbc c9d6 8f3f 076a 573e d5d8 153e
00000210: aee9 f0be 500d 833e 5d54 3a3e ccf8 803d
00000220: e7c5 5cbf 1284 a13f 83a9 a13e 8695 fd3d
00000230: bd6b a43f 8e08 a0bd fdd9 d3bd 6dda 193d
00000240: bb91 f63e ed13 12bf 89aa 1cbe 71f2 63bd
00000250: ef2c cebb 8f5d 72bf f8d2 3dbe f7e0 eabd
00000260: 5757 75bf 44ce 3d3f 4f70 873e ebc9 b13c
00000270: 3592 99be 36df ab3f 570b 8c3e c657 033e
00000280: 8047 40bf eaff 95bf 3463 bdbe 3b8f edbd
00000290: 8ca7 72bf 3259 41bf 7849 01bf 4bb0 20be
000002a0: dd2c 31be 6179 d33f c748 ba3e 1ce8 033e
000002b0: fc31 bbbe cc1d d7be 4e9a e6bd 32df 70bd
000002c0: 8d7c b13e 019c 553f 6313 5b3e e9b0 9c3c
000002d0: 20be d63f 6f3d ddbf 7c6e c2be 300a 19be
000002e0: 9bdd be3f aef2 8abf 64b8 d7be 64aa 90bd
000002f0: ff8f 8abf 2b80 093f 01fb 903e 7aed 673d
00000300: cb62 0a3b 9ec2 883f 0708 853e 4041 e43d
00000310: 01e4 a7be f4e0 7cbe bd2e 8dbe bb53 8abd
00000320: 6e20 18bf 612e ab3e 319a 6a3e 224e f23d
00000330: 99a5 f03e 61e6 98bf cbd5 e53d 0f71 c5bd
00000340: 2cad 043f 2534 0b3f 0d2f 7fbe b5f0 ebbd
00000350: cbaf 223f b7e0 1abf bb65 23be 4797 65bd
00000360: 3315 ef3d 895b 8e3f bb49 ab3e a94e b73d
00000370: 634e a53e d704 62be 2b5a 8e3d 6561 28be
00000380: 5a67 7b3f b48c 62be f99e d43e 7730 633e
00000390: 569f 7ebf f229 993e 7dd8 813e 3c72 213d
000003a0: 2540 08bf b302 c23d abff 7d3c 7d8d d5be
000003b0: e389 67bf 3f3d 0bbf 5a27 aabe 7d72 8fbd
000003c0: db41 e5be 36f7 8b3e 19bb 9a3b 4109 353d
000003d0: c1d8 b0be b650 9fbf ddec 5cbe a970 bcbd
000003e0: f91a 00be a135 813f 0674 5f3e f6be d73d
000003f0: 749c acbf 5d4a 9abe 13f9 8bbe 5cd2 debd
