TD3/checkpoints/Pendulum-v1/04_best_agent.pth (torch, 213604 bytes, 15 tensors)

actor.0.weight f4 [128, 3]
000000 33 53 d6 be 23 5a e4 bd 59 7c 1e be 3e c8 bb be
       -0.4186035 -0.11150005 -0.15477122 -0.3667621
000010 85 d2 2a 3f b8 cf b3 3b 90 15 52 3e 01 5d 4b 3f
       0.6672748 0.0054874085 0.20516038 0.7943879
000020 09 b5 a6 3d c8 b1 bd 3e e7 4b 50 3f 65 39 19 3e
       0.081399985 0.370497 0.8136582 0.149633
000030 6e 34 ab bd 03 fc bc 3e 87 56 0a 3e 66 fd 9c bd
       -0.083596095 0.3691102 0.1350957 -0.076655194
000040 86 2c b6 3c 4c c3 34 3a 88 f2 94 be 5f 76 3d 3f
       0.022238027 0.00068955566 -0.29091287 0.74008745
000050 3a 66 b2 3d a3 ec 38 be 6f 37 66 3e 4f 8e 0e be
       0.087109044 -0.1805902 0.22482084 -0.13921474
000060 5c 2b 18 3f 18 9b ba 3e 22 d8 2a 3e e2 32 ea 3e
       0.5944116 0.36446452 0.1668401 0.45741946
000070 0b d9 3d bf 05 8f 0c be c4 ef ad 3e fa 20 20 bf
       -0.74159306 -0.13726433 0.3397199 -0.6255032
000080 f3 b7 25 be 5b bf 72 3b a0 71 4d be 27 72 99 ba
       -0.16183452 0.0037040326 -0.20062876 -0.0011706994
000090 3a be 14 3f 74 b1 e8 bd dd a7 2e be 3d c7 82 be
       0.5810276 -0.113619715 -0.17056222 -0.25542632
0000a0 0c c9 33 3f e2 c8 b0 3d a8 d4 08 3f 7f 9c 5e 3e
       0.7022865 0.08632065 0.5344949 0.21739386
0000b0 f9 81 00 3e 5e 5c 81 be 5b 4f 80 3e 26 52 23 3e
       0.1254958 -0.25265783 0.25060543 0.15949306
0000c0 af d3 88 be b0 8a ee bb 6c 60 59 be a4 53 d1 be
       -0.26724002 -0.0072797164 -0.21228188 -0.40884125
0000d0 8f 8d 7c be ba b9 ea bd 56 91 8c 3e 45 e7 12 3c
       -0.24663375 -0.11461206 0.27454633 0.008966272
0000e0 30 0e b3 3d 2a 96 e4 3e bb 49 63 be a6 7c 48 be
       0.087429404 0.44645816 -0.22196095 -0.195788
0000f0 07 ab cb be c9 85 85 3e bd 89 ed 3d b1 bf 0b bc
       -0.3977892 0.26078632 0.11598537 -0.0085295895
000100 14 fa 29 3f bf de 55 3e 5a 13 23 3f a2 34 7c 3e
       0.66397214 0.20885752 0.63701403 0.24629453
000110 27 57 02 3e 61 f7 69 be 80 92 a5 bd 4d 10 d9 3d
       0.12728558 -0.22848274 -0.08084583 0.10598812
000120 23 42 51 3e 80 f2 ac be 8f 5c 12 bd 12 5b 00 be
       0.20435385 -0.33778763 -0.035732802 -0.1253474
000130 7a db b7 bd bd d2 f8 3d 56 92 c4 be d5 cb 19 3f
       -0.08977409 0.1214957 -0.38392895 0.6007665
000140 b7 c5 2e 3c d2 3e de 3e ae 85 2d 3f 27 2d a5 3c
       0.010667256 0.43407303 0.67782104 0.020163132
000150 cd 4f 4c 3e da 28 2b bf a4 49 d6 bd 76 ed 89 be
       0.19952317 -0.6685921 -0.104632646 -0.2693898
000160 db 47 0f 3d b2 db 3f be e9 86 3f be d4 ed 30 3f
       0.034980636 -0.18736151 -0.18703808 0.69112897
000170 9e db 14 3e 52 d4 60 be b8 e0 3d 3e 29 1f 33 3e
       0.14536902 -0.21955994 0.18542755 0.17492355
000180 fe e8 5d be 45 82 9c bc 12 da 17 3e f6 b5 b3 be
       -0.2167091 -0.019105086 0.14829281 -0.35099763
000190 05 fd 1f 3f 37 31 d0 bb 83 6c cd be 09 21 8c 3c
       0.6249545 -0.006353523 -0.4012185 0.017105596
0001a0 53 98 a5 bd 73 de 7c 3d b6 71 46 3f b1 68 b3 3d
       -0.08085694 0.06173558 0.7751726 0.08760203
0001b0 fe ab e5 bc ed d0 40 3c fb 7f cf 3a 25 b7 8c be
       -0.028036114 0.011768562 0.0015830988 -0.27483478
0001c0 e5 22 4a 3f e7 66 eb 3d 4f fd 07 3c 7a 8b 59 bc
       0.78959495 0.114942364 0.00830014 -0.013277883
0001d0 e5 19 19 3b 9e 4d a4 bd 4b e9 d3 3d 62 d2 14 3d
       0.0023361382 -0.08022617 0.103472315 0.03633345
0001e0 87 21 25 bf 39 da c6 3e ff ca e1 3d 09 62 85 3e
       -0.64504284 0.38838366 0.110250466 0.26051357
0001f0 df da 66 3f 57 30 a6 bd 87 d4 3d be f2 6c b4 be
       0.9017772 -0.08114689 -0.18538104 -0.3523937
000200 44 c2 36 be 5b fc 1a bf 3f a3 1f 3e 35 17 9f 3d
       -0.17847544 -0.60541314 0.15589617 0.07768098
000210 d9 23 55 3e 85 f6 24 3e ee ce 2a 3e be ac 84 3e
       0.20814456 0.16109665 0.166805 0.25913042
000220 0d 34 61 3f c2 7e 3e 3e 74 c1 05 be 6c 99 19 be
       0.8797005 0.18603042 -0.13062078 -0.14999932
000230 83 0e 16 3e 42 ec 14 3f be 5d 9b bc 28 e9 4e be
       0.14653973 0.58173 -0.018965598 -0.2020613
000240 79 5e 80 3e 1a 7c 20 bf 45 e8 e7 bd 37 d5 03 3f
       0.25072077 -0.62689364 -0.11323599 0.51497215
000250 6a cb 13 bf 97 9a 57 be 2e 3e 84 3e 19 58 21 3f
       -0.5773226 -0.21055065 0.2582869 0.6302505
000260 1d 6e 45 3e 6c 09 14 3f c5 79 02 bd 70 09 ed 3d
       0.19280286 0.57826877 -0.03185441 0.11574066
000270 3a 84 c4 be 4e c5 07 bd 4b e8 58 be 8e aa 16 bf
       -0.3838213 -0.03314715 -0.21182363 -0.58853996
000280 38 c3 c6 3e 6b 05 f4 3d aa 66 a4 bd 30 33 25 be
       0.38820815 0.11915096 -0.08027394 -0.16132808
000290 2a db 19 3e 8a b8 8f 3e c6 90 16 be e1 6d e3 3d
       0.1502501 0.2807048 -0.14703664 0.11104942
0002a0 a4 16 62 3e be 80 66 3f 09 c8 18 3e 89 26 72 be
       0.22078949 0.90040195 0.14920057 -0.23647512
0002b0 5e f6 33 be bb 6c 00 3e 5f f7 a0 3d fd d6 03 3d
       -0.1757445 0.12541477 0.07859682 0.03218745
0002c0 70 52 51 3e 1c ce b6 3e 0c 5b 2c 3f dc a1 16 3e
       0.20441604 0.35704124 0.67326427 0.14710182
0002d0 b1 54 9a 3d 5f b4 37 bf b3 af b1 bd 2e 7b af be
       0.07535685 -0.717596 -0.0867609 -0.34273666
0002e0 af 67 ab be 78 c8 32 be bd 90 a2 3e ef dc 1b 3f
       -0.33477542 -0.17459285 0.31751052 0.6088399
0002f0 00 58 57 b9 25 d2 05 3f 93 52 d2 be 35 14 4d be
       -0.0002053678 0.5227378 -0.41078624 -0.2002724
000300 ba b8 16 3f e0 f6 d6 bd 9a 78 d6 3d 89 77 03 bf
       0.5887562 -0.104963064 0.10472222 -0.5135427
000310 07 d8 08 3f 6b 8d 80 3d f1 81 10 be f7 f2 33 3f
       0.5345463 0.06276973 -0.14112069 0.7029261
000320 47 ae d0 3d ef 0d e9 be f2 fb 49 be 6c 77 5e 3d
       0.10189491 -0.45518443 -0.19725016 0.05431311
000330 67 13 e2 3e 20 28 0f bf 18 0d 37 be aa 2f c9 be
       0.44155428 -0.559206 -0.17876089 -0.39294177
000340 0b 8d 84 be 56 74 b3 bd b1 db 6a be 63 e6 54 3e
       -0.25888857 -0.08762424 -0.22935368 0.2079101
000350 2d d1 d7 3d 0d a9 cc be 5a 0a 43 be a7 fa 28 be
       0.10537944 -0.39972726 -0.19046918 -0.16501866
000360 29 b8 03 3f 89 1a 13 bf ae 39 18 be 7c 00 84 be
       0.5145288 -0.57462364 -0.14865753 -0.2578162
000370 6f 2e 7b 3e d9 31 35 3e f9 05 31 3f 1c 44 07 3e
       0.24529432 0.17694797 0.6914974 0.13209575
000380 0a 21 13 3e 96 b4 ca 3e fd 78 1f bf e8 b0 d6 bd
       0.14368072 0.395909 -0.6229399 -0.10482961
000390 44 79 83 be 2d d5 ba be a0 c4 37 be cc 4d 04 bd
       -0.25678456 -0.36490765 -0.179461 -0.032300755
0003a0 5f e7 07 3d f3 5e e3 3b 38 2c f9 3e 43 91 fe be
       0.033179637 0.006938809 0.4866655 -0.497202
0003b0 64 5b 1f be 31 41 33 3e f8 c3 ef be bb 3a dd bd
       -0.15562207 0.17505337 -0.468292 -0.108022176
0003c0 7f c2 1c 3e bb 38 4f 3f 9c ac ad bd 0f 60 f4 be
       0.1530857 0.8094594 -0.08480188 -0.47729537
0003d0 7f eb 0a 3e e9 ae 08 be ff 4f 9a bc 39 2e b0 3d
       0.13566397 -0.13347973 -0.018836973 0.08602566
0003e0 8c 16 a2 ba bb a7 42 be da aa 51 3e 39 19 21 3e
       -0.0012366339 -0.19009297 0.20475331 0.15732278
0003f0 a2 00 e3 be c9 73 23 3f 7f 3c a5 3c 7b 09 3a 3e
       -0.4433642 0.6384855 0.020170448 0.18167679

actor.0.bias f4 [128]
000000 62 a9 a6 be 4f 67 9a be 36 31 ce be 0c ab 9f bd
       -0.32551104 -0.30156943 -0.4027192 -0.077962965
000010 bd bb eb be 86 33 c7 bd 2d f6 e6 3d 12 18 1f be
       -0.4604167 -0.09726624 0.11277423 -0.15536526
000020 04 9b c7 be 51 85 02 bf 71 62 da be be 26 6d be
       -0.38985455 -0.50984675 -0.4265323 -0.2315931
000030 c3 47 03 bf 90 b6 dd 3d 26 62 00 bf 4d bb ae be
       -0.51281375 0.10825837 -0.5014976 -0.34127274
000040 c3 c2 76 be c3 6c 62 be 1f bf fd be d4 f4 cd be
       -0.24097733 -0.22111802 -0.49559876 -0.40225852
000050 9a b5 2f be 68 7f 29 3e 70 76 ef be dd 85 9f be
       -0.17159119 0.16552508 -0.46770048 -0.31156817
000060 7a b5 f5 be 18 e0 bb be 79 88 6e be 92 5f 69 be
       -0.47990018 -0.36694407 -0.23294248 -0.22790363
000070 58 ea 80 be 7c e3 dd be 22 79 17 3c 2e 6e c8 be
       -0.2517879 -0.4333762 0.009245189 -0.3914656
000080 5c 6e ec be 3b 25 37 be 0e 73 95 be f2 33 83 be
       -0.46177948 -0.17885296 -0.29189342 -0.2562557
000090 01 67 3d bd 6c 03 42 3d dd 7b 23 bd 8a 17 d9 be
       -0.04624081 0.047366545 -0.039913047 -0.4240077
0000a0 a6 ad 9b be 00 77 6c bd d7 80 13 be 09 35 a2 be
       -0.3040592 -0.057730675 -0.14404617 -0.31681088
0000b0 0e 67 f0 bd aa 51 09 bd 53 bf bf be 9b de 2d bf
       -0.11738406 -0.033525147 -0.37450656 -0.67917794
0000c0 1d e8 af be 09 6b 13 bf aa 5c f9 bd 06 aa 38 bf
       -0.34356776 -0.575852 -0.121758774 -0.72134435
0000d0 ac 65 a8 be fb 9f 85 be ef 5b 04 bf 32 b6 8a be
       -0.3289007 -0.26098618 -0.5170278 -0.2709213
0000e0 69 12 2b 3b 50 a9 b3 be e6 e1 7b be 90 77 37 be
       0.0026103503 -0.35090113 -0.24597892 -0.17916703
0000f0 b9 93 30 be a3 b5 83 be b0 e4 cb bd 25 41 0b bf
       -0.17243852 -0.25724515 -0.09955728 -0.5439628
000100 af e9 40 bf 39 c9 71 bd 34 ea 39 bc 8c c3 10 be
       -0.7535657 -0.05902979 -0.011347342 -0.14137095
000110 4c e5 05 bf c4 21 2f be be a5 7d be 9c ed e7 be
       -0.52303004 -0.17102724 -0.24770257 -0.4529847
000120 1b f5 0c bf b3 04 b5 be c0 f2 19 bf cb 7a cd be
       -0.550615 -0.35355148 -0.6013603 -0.40132746
000130 b6 21 74 be 56 46 ee bd ed 39 e9 be ca 4b 3b be
       -0.23840985 -0.11634509 -0.45552006 -0.1829063
000140 9e eb e3 3c bb 2d b9 be e5 85 d1 bd 7f 26 a0 be
       0.027822312 -0.36167702 -0.102306165 -0.3127937
000150 bf 7f 5e be c2 09 28 be 61 5d f6 be 0a 30 7b be
       -0.21728419 -0.16409972 -0.48118117 -0.24530044
000160 1a 28 00 bf 8e 45 08 bf d5 b7 5e be db 67 af be
       -0.5006119 -0.5323113 -0.21749814 -0.34258923
000170 81 3f bb be c4 9b 8b be cf 10 28 3d b0 4f da be
       -0.36571887 -0.27267277 0.041031655 -0.42638922
000180 48 30 a2 be a3 6b f4 bd 6c e0 04 3d 24 9f ef be
       -0.3167746 -0.119345926 0.032440588 -0.46801102
000190 60 d4 06 bf dd 34 af be 0a ac 20 be cd d4 18 bf
       -0.5266781 -0.3422002 -0.15690628 -0.5969971
0001a0 70 ac bd be 0a 38 48 be 6a a8 0e bf e0 79 65 be
       -0.37045622 -0.19552627 -0.5572573 -0.22409773
0001b0 93 4f 12 bf 8a 52 cf be 6e 8b 45 be a0 5b c7 be
       -0.5715267 -0.4049266 -0.1929147 -0.38937092
0001c0 58 5c 9b be 62 46 f0 be e9 e9 4d be e3 cf 2c bd
       -0.3034389 -0.46928698 -0.20108761 -0.042190444
0001d0 a8 bc 1e be 46 64 83 be 47 53 42 3d ae dd ef be
       -0.15501654 -0.2566244 0.0474427 -0.46848816
0001e0 2a 15 e9 be b3 2c 3d bd 87 b8 0c be 4f 3e 01 bf
       -0.4552396 -0.046185207 -0.13742267 -0.504857
0001f0 29 87 fe be 72 1d f6 be 43 56 10 3d 74 85 aa bd
       -0.49712494 -0.4806934 0.035238516 -0.083262354

actor.3.weight f4 [128, 128]
000000 d3 97 66 3c 3f 6d 4d be 60 bf 0a be ac 63 c8 be
       0.014074284 -0.20061205 -0.13549566 -0.39138544
000010 56 b1 86 be 40 be 54 bd 0d 85 20 be 68 59 b4 bd
       -0.26307172 -0.05193925 -0.15675755 -0.088061154
000020 19 e3 a7 bc 0d 09 00 be 72 50 9d bd 9d e6 3e be
       -0.02049403 -0.12503453 -0.07681359 -0.1864266
000030 44 14 fd be ae c1 06 be d5 49 23 3e 61 af 4c be
       -0.49429524 -0.1315982 0.15946133 -0.19988777
000040 89 ef cc bd ee 4c 89 bd d9 eb d0 3d 3e ce 62 bf
       -0.10006625 -0.06704126 0.10201234 -0.8859595
000050 9f 90 b2 be d4 b4 00 bf 59 30 a4 bd fb b0 86 be
       -0.34875962 -0.5027592 -0.08017034 -0.263069
000060 64 48 90 be c8 93 88 be e9 fb 1f be 8f 1c 07 3e
       -0.2818023 -0.26675248 -0.1562344 0.13194488
000070 19 1b 5d 3d 4a f4 38 3a d6 68 24 be 3f f1 ea be
       0.05398092 0.0007055445 -0.16055617 -0.4588718
000080 cb 53 3e bd 82 d2 85 be 7d 04 2b bd e6 75 0a be
       -0.04646663 -0.26137167 -0.041752327 -0.13521537
000090 37 aa a4 3b 14 51 68 3d f0 b5 02 bd b3 70 42 be
       0.005025174 0.056717947 -0.03191179 -0.18988304
0000a0 96 e5 22 3d f7 63 1f bf 69 e9 26 3d 3a 80 ba 3d
       0.03976973 -0.6226191 0.04074994 0.091064885
0000b0 05 a4 c3 be 4d 1b 99 be a6 b2 93 bc b4 8b 2e bf
       -0.38211074 -0.2990364 -0.018029522 -0.6818192
0000c0 4c 6b fe 3d da 48 0e bf 26 74 3b be 69 d1 1a 3d
       0.12422809 -0.5557991 -0.18306026 0.037797365
0000d0 61 2a 9e bc cc 8e 17 be a3 8e 9a be 8d df 8b be
       -0.019307317 -0.14800566 -0.30186948 -0.27318993
0000e0 e7 d8 af bd 6a 01 2c be 2f fc 10 be be 41 00 be
       -0.08586293 -0.16797414 -0.141587 -0.12525079
0000f0 64 09 e3 bc af e5 8b bd 2b 40 19 bf 32 b7 18 bf
       -0.027714439 -0.06830918 -0.5986354 -0.59654534
000100 c5 4b 7d bd 31 2d 59 3c 7f 36 af bd 9e 32 91 bd
       -0.061839838 0.013255403 -0.08555316 -0.070897326
000110 04 1d 49 be 76 0e 27 be 64 ac bf 3c b7 9e 82 3d
       -0.19639975 -0.1631411 0.023397632 0.06377929
000120 6a 05 0d be bb 14 d3 be d8 71 b9 3d 48 5a 8e 3c
       -0.13771597 -0.41226754 0.09054917 0.017377034
000130 30 fa a7 3d 30 34 29 be 03 16 e0 bd 3b d2 a9 be
       0.08202016 -0.16523814 -0.109416984 -0.33168206
000140 37 e3 ce be da 1c d4 bc ba ca a7 bc 8e 6d 56 be
       -0.40407726 -0.025892664 -0.02048241 -0.2094023
000150 bf 2a ba bd 90 b6 5b be 79 ae 50 bf 9a cc 98 3c
       -0.090901844 -0.21456361 -0.81516224 0.01865225
000160 4a 18 84 be b9 d0 02 3d 93 fb 69 be c5 e7 e0 be
       -0.2579978 0.031937335 -0.22849874 -0.43926826
000170 fa 2e b9 be f0 ff 8f be 7c b6 f5 3a c9 b1 ac be
       -0.36168653 -0.28124952 0.0018746401 -0.3372939
000180 ce 4a 5f be c6 5f 38 bf 91 b6 2e be dd 4e 51 be
       -0.2180588 -0.7202114 -0.17061831 -0.2044024
000190 2f 69 98 be c7 25 e4 3d d9 f1 72 be bc 5b d2 be
       -0.2976775 0.11140018 -0.2372507 -0.41085613
0001a0 80 07 d3 bd 42 95 d8 bd ec e1 a1 be 94 d2 9d bd
       -0.10304165 -0.10575344 -0.31617677 -0.0770618
0001b0 88 a5 8c be ec b9 17 3d 47 c1 08 3e 92 b1 46 bf
       -0.2747004 0.037042543 0.1335498 -0.776147
0001c0 a2 73 1f be 95 a7 1c be ef a7 8e bd aa cd b2 be
       -0.15571454 -0.15298302 -0.069656245 -0.34922534
0001d0 64 7c ff be ba 44 8b bc 26 df 2c be 49 66 81 bd
       -0.4989959 -0.017000545 -0.16882 -0.063183375
0001e0 78 1f ae 3d 78 d2 92 be 6a 56 20 bf ab c1 e2 be
       0.08502096 -0.286762 -0.6263186 -0.44288382
0001f0 85 a2 76 bc 4d 0d 6e 3d 49 15 aa bd c0 a9 e1 bc
       -0.015053396 0.058118153 -0.08304841 -0.027546763
000200 44 aa 0e 3e fb 81 d0 3d 54 19 9b be 3c 7e 9f be
       0.13932139 0.10181042 -0.3029276 -0.31150997
000210 e4 14 d4 be 52 c3 ca 3c 36 5b 05 bd e9 9b 4d 3e
       -0.41422188 0.02475134 -0.03255769 0.20079006
000220 61 ec 99 bc 93 c0 1a bf ab 0e b7 be 95 bf b0 3d
       -0.018789472 -0.60450095 -0.35753378 0.086302914
000230 40 1c cf be b1 67 d2 bd cb 42 91 3e 21 42 28 bf
       -0.4045124 -0.10273684 0.28371271 -0.65725905
000240 34 72 d9 3e 65 31 e5 3d e5 09 86 3e bc 32 1b bf
       0.42469943 0.11191062 0.26179424 -0.6062429
000250 7e be ce be 8b 5f 41 bf a7 f2 ff 3b b8 d0 3e be
       -0.4037971 -0.7553641 0.007810909 -0.18634307
000260 f4 af 1f bf 85 14 0b bd f9 d5 29 3e 02 c3 45 be
       -0.6237786 -0.033955116 0.1658553 -0.19312671
000270 27 29 01 3d 40 89 01 3f 56 d2 a6 be f9 05 d7 be
       0.031533387 0.5060005 -0.3258235 -0.41996744
000280 9e d4 40 be 2c fe 07 be ca e9 07 3d e2 b3 80 be
       -0.18831107 -0.13280553 0.033181943 -0.2513724
000290 87 cc 36 bc a7 14 6f be a9 78 9a bd c6 15 7e be
       -0.011157162 -0.23347722 -0.07542545 -0.24812993
0002a0 09 11 4e be 07 b6 c4 bd 1d b4 25 bd 94 93 10 bd
       -0.20123686 -0.096050315 -0.040454973 -0.03529699
0002b0 54 15 16 bf c6 bb ab be 54 66 47 be 51 7d 6b bf
       -0.58626294 -0.33541697 -0.19472629 -0.9198809
0002c0 bf 1b 1a be 83 4b 8e bf 4b 49 02 be 16 cc 20 be
       -0.15049647 -1.1116794 -0.12723272 -0.15702853
0002d0 c0 8b 53 3e ad 25 d2 be a9 73 b2 be c7 9c 2f bf
       0.20658779 -0.4104437 -0.34853867 -0.685986
0002e0 0a 26 12 bf 9f 5d 4d bd 4f db fb be 2d 91 0e be
       -0.57089293 -0.050138112 -0.49190757 -0.13922568
0002f0 95 2d e4 bd 63 51 41 3b e1 2a 8e be 3c 0d 45 bf
       -0.111415066 0.0029497973 -0.2776709 -0.7697332
000300 94 0a d2 be cf a6 9d 3d b5 9f 4b be f3 b3 4f bd
       -0.41023695 0.07697832 -0.19885142 -0.050708722
000310 39 de 34 bf a8 b4 91 3d f0 9f be be c8 96 17 3e
       -0.70651585 0.071145356 -0.37231398 0.14803612
000320 15 13 72 bf 39 9a d2 be a0 57 be b9 75 a8 96 be
       -0.94560367 -0.41133288 -0.0003630491 -0.29425398
000330 29 9d 5b 3d a3 ae 8f 3d cb 80 0f bf d2 dc bf be
       0.053616676 0.07015731 -0.560559 -0.3747316
000340 fc d8 97 3c 2a 4e b9 3e 60 f6 36 3d 66 f5 db be
       0.018536083 0.36192447 0.044668555 -0.42960662
000350 28 9b 9c 3e 56 74 00 bf f2 6c 30 bf 1f 6f 1b be
       0.30587125 -0.50177515 -0.6891624 -0.15179108
000360 91 bd 84 be 68 01 01 3e ff 4f 0f 3e d4 31 14 bf
       -0.25925878 0.12598193 0.1399536 -0.5788853
000370 3e ea e1 be b2 11 3e be 0a b2 05 3d 74 59 ec be
       -0.44124025 -0.18561438 0.032640494 -0.46161997
000380 ed 73 8e 3e 75 b6 28 bf c6 2d 4b bd 8d f6 6a 3e
       0.2782282 -0.6590341 -0.0496042 0.22945614
000390 be 65 02 bf 7a 06 7f be ba 46 1f bd 80 89 48 bf
       -0.50936496 -0.24904814 -0.03888581 -0.7833481
0003a0 2c 31 86 be 03 1c 37 bf af 58 a5 be 42 9c e3 bd
       -0.2620939 -0.7152712 -0.32294223 -0.11113788
0003b0 3e 6e 45 3b 80 5c ac 3e da 23 cf bd a8 75 c4 be
       0.0030125524 0.33664322 -0.1011426 -0.38371015
0003c0 8c 83 c2 be e3 4f 45 be 1f 3f 3b 3d e3 41 37 be
       -0.37990987 -0.19268756 0.045714494 -0.17896228
0003d0 4f 1c ee be da 0c cb 3d 2c e0 c9 be 08 69 d7 be
       -0.46505973 0.099145606 -0.39428842 -0.4207232
0003e0 69 9c ac 3d 89 f1 3e 3e b5 86 14 bf 19 21 89 bf
       0.0842827 0.18646826 -0.58018047 -1.0713226
0003f0 2b e7 30 3d 02 7d c9 3d 02 c8 44 bd fd de ab 3d
       0.04318921 0.098382965 -0.048042305 0.08392141

actor.3.bias f4 [128]
000000 22 db 2f 3e a2 31 e8 3d 93 5b b0 bd 7d 35 f1 bd
       0.17173436 0.11337592 -0.086112164 -0.1177778
000010 4c 13 0d be 21 83 25 3e 7a b0 22 3d dd d3 9e 3d
       -0.13776892 0.16163303 0.039719082 0.077552535
000020 08 0b b3 bd d9 d0 8c 3d 0a 1b 97 3e a1 7f dc bd
       -0.087423384 0.06875772 0.29512817 -0.10766531
000030 19 85 db bd 2d 2b 38 bf 0e 1c 8a 3e 56 e2 39 bd
       -0.10718746 -0.7194088 0.2697453 -0.045381866
000040 17 e9 34 bd ab 14 6d be f9 0e fa 3d 38 d2 c2 bc
       -0.044167604 -0.23152415 0.12209887 -0.02378188
000050 53 e1 ac bd f6 dd 33 3e 7a 05 13 be b0 07 3b 3e
       -0.08441415 0.1756514 -0.14357558 0.18264651
000060 59 9e 21 be 4b b7 8a bb a8 bd a3 bd 04 5e ae 3b
       -0.15783061 -0.004233276 -0.079951584 0.005321266
000070 c3 c1 e2 bd 9e 5a 2f bb b5 3a d6 bd 7c d0 99 bd
       -0.11072113 -0.0026756893 -0.10460416 -0.07510468
000080 ca 68 15 be ee dd d5 bd 33 b2 aa bd 2b d7 fa 3d
       -0.14590755 -0.1044272 -0.0833477 0.12248071
000090 3c e8 54 3d af b5 38 3e 25 f5 cb 3d 3f 18 7a be
       0.05197929 0.18038057 0.09958867 -0.24423312
0000a0 8a 39 d1 be 9d 87 19 3e 09 b2 fd bd 1f d2 9e be
       -0.4086421 0.14993139 -0.12387473 -0.31019685
0000b0 db 53 12 3d b7 cb 16 be 50 13 28 bb 1f c4 6b 3d
       0.035724502 -0.14726149 -0.0025646277 0.057560083
0000c0 b5 f9 34 3e 69 7d 3e be 73 65 91 3d f4 4b be 3d
       0.1767338 -0.18602528 0.07099428 0.09291831
0000d0 1e c2 a5 3d f8 34 89 be 33 63 d1 bd 2c bc af bd
       0.080936655 -0.26798224 -0.10223999 -0.08580813
0000e0 cd 17 2e bf 3e bf 1c bd 6b fe 43 3d 9d 21 03 be
       -0.6800507 -0.03826832 0.047850054 -0.12805791
0000f0 07 05 bb bd a9 73 cd 3a 5a 59 d1 bd 41 b0 e8 bd
       -0.09131818 0.0015674728 -0.102221206 -0.11361743
000100 c5 67 04 be e3 6e d8 bd 1e ab 44 3e 92 55 01 3e
       -0.1293021 -0.10568025 0.19205901 0.12630299
000110 06 f5 a7 3e cf bb 9f 3d 12 8b 57 3d a8 c1 21 3e
       0.32804126 0.077994935 0.052622862 0.1579653
000120 5c e7 65 3e 29 eb 2b bd 79 49 bb be a3 b0 cd bd
       0.22451538 -0.041972313 -0.36579493 -0.100434564
000130 3d 33 dc 3d 40 26 10 3d 87 b7 b3 bc 98 05 50 3e
       0.107519604 0.035192728 -0.021938099 0.20314634
000140 5b 91 07 3e f4 0b e8 bd d3 64 88 3e b7 f1 91 be
       0.13239042 -0.11330405 0.26639423 -0.28504726
000150 59 30 5e 3e ad dd f8 be 02 87 0c be a6 67 42 3e
       0.2169813 -0.48606625 -0.13723376 0.18984851
000160 49 ae 5e 3e 4b cc b9 bd 96 30 cd bd 31 c1 66 3e
       0.21746172 -0.09072169 -0.10019033 0.22534634
000170 3d 2d e3 bd f4 ae 24 3e b4 51 cf bd 54 66 07 bd
       -0.11092613 0.16082364 -0.101230055 -0.033056572
000180 1a 4a 00 be 05 44 f3 bb 7a 84 da 3d be 99 d1 bd
       -0.12528268 -0.00742388 0.10669799 -0.10234402
000190 20 86 5a 3e 25 4f 37 3d ef dc 1a 3e 5a c9 be bd
       0.21340227 0.044753212 0.15123342 -0.093157485
0001a0 d8 aa c1 3d dd 4b c3 bd 7b 26 47 3e 3d 36 b2 3c
       0.09456414 -0.09535954 0.19448273 0.021754378
0001b0 5c ec ef 3d 2c 51 b9 bd 1b 4d e5 bd ba b2 8e bd
       0.11715004 -0.090486854 -0.11196347 -0.06967683
0001c0 c5 90 b3 be f2 dd f2 bd 65 ed 81 3d 85 b9 b7 3d
       -0.35071388 -0.11858739 0.063441075 0.08970932
0001d0 0d 5d 99 3e 9b 9d bf bd 63 8c 60 bd 70 72 a3 3d
       0.29953805 -0.09356233 -0.054821383 0.079808116
0001e0 26 79 04 be 69 bb d6 bd f0 2e 9c 3e 5d 7f 0b be
       -0.1293684 -0.104849644 0.3050456 -0.13622804
0001f0 a9 b4 6b be 14 d3 4b 3d b6 bc dc bd 11 cf dc bd
       -0.23018135 0.049761847 -0.10778181 -0.10781682

actor.6.weight f4 [1, 128]
000000 ae 87 26 bf 41 9c a9 bf d7 8e 57 bc b8 2c ec bd
       -0.6505078 -1.325081 -0.013156614 -0.11531967
000010 48 fe a4 3e 15 6e 8f be 0c cf 86 3d 9e b7 2c bf
       0.3222525 -0.28013673 0.0658246 -0.6746768
000020 b1 1d c3 3c 4e 18 33 3e 8a fe 8c be 5f eb 27 3d
       0.023817869 0.1748974 -0.27537948 0.04099595
000030 da cd c2 bc 54 09 01 3f 22 bd 77 3d 8a 6b ce bd
       -0.023779798 0.5040486 0.060483105 -0.10079105
000040 e2 6d e9 3e 02 a2 bb bf 32 80 cb be 64 20 26 be
       0.45591646 -1.4658816 -0.39746243 -0.16223294
000050 36 41 16 bb f0 9a a6 be 51 49 4e 3e 7f 66 cf 3e
       -0.0022927052 -0.32540083 0.20145155 0.40507886
000060 4b 91 0d 3e 3e 9a f4 be 72 17 04 bc 9a d8 7d be
       0.13824956 -0.47773927 -0.00806223 -0.24789658
000070 fc b6 6b bc 65 0a d6 bd 4e e9 95 3d bd 03 cf ba
       -0.014386889 -0.10451201 0.0731989 -0.0015793961
000080 db 53 5c bc 08 7b e9 bf dd 63 19 3d 44 b3 9d bf
       -0.013447727 -1.8240671 0.037448753 -1.2320333
000090 be a9 8b bf 34 79 8f 3d e0 47 b9 3e 55 4a 96 3f
       -1.0911176 0.070055395 0.3618765 1.1741434
0000a0 1c b2 6d be 83 88 04 3f 67 0c 11 be 5d 21 8f 3f
       -0.23212475 0.517708 -0.14164887 1.1182057
0000b0 03 99 8e 3f 6f 89 a5 3f b0 f9 98 3c 0f 66 78 bf
       1.1140445 1.2932566 0.018673748 -0.9703073
0000c0 88 41 9b bf d9 ee b0 bf 63 6c a9 be 86 8d a2 be
       -1.2129374 -1.382289 -0.33090505 -0.317486
0000d0 8a b6 96 be 08 47 4a 3e 65 1e 40 3c 81 d6 37 bb
       -0.2943614 0.19753659 0.011725997 -0.0028051438
0000e0 01 1c 99 be d5 e7 f2 3d d9 e7 39 bf bb 0c e0 3a
       -0.29904178 0.11860625 -0.72619396 0.0017093638
0000f0 24 e9 a7 bc 9f 8b b1 be bf 4c c8 bc 63 f2 aa 3e
       -0.020496912 -0.34676835 -0.024450658 0.3338805
000100 92 80 12 bd 16 ef 2c bd 0f 5e ed bd 41 7e 17 bf
       -0.035767145 -0.042220198 -0.11590206 -0.59177023
000110 8b 32 ff be 63 2d a5 3e 06 3d ac 3d bb 9a f5 bd
       -0.4984325 0.3226119 0.08410077 -0.11992403
000120 86 b7 c9 be 16 7d 1e 3f 9f 7e f3 3e ef 5b c2 bc
       -0.3939783 0.61909616 0.47557542 -0.023725478
000130 6b ff ca be 42 ff df be c3 fc 77 be ca 5c 27 be
       -0.39647993 -0.43749434 -0.24217515 -0.1634399
000140 ed 6a 11 3f 75 15 cd bc 46 ea de be 37 d4 4d 3e
       0.5680378 -0.025034646 -0.4353811 0.20100485
000150 b6 e4 a6 be cb 09 a1 3e f5 f1 32 3f a1 98 88 3d
       -0.32596368 0.31452784 0.6990045 0.06669737
000160 69 70 ed be c7 57 2f 3d 69 45 39 3e c5 0b af 3d
       -0.46374825 0.04280832 0.18092884 0.08547167
000170 8f 7e a0 3d 4f 38 b2 bf 2e 5f 6f 3d 4f 2d 97 bd
       0.07836639 -1.3923434 0.05844038 -0.07381689
000180 c8 aa 86 3d 8e 41 a8 be be 7e 91 bf 69 6c 36 3e
       0.06575543 -0.32862514 -1.1366804 0.17814793
000190 4d 27 88 3e 36 b0 b0 3e 5e 2b f1 be 9c 10 05 be
       0.26592484 0.34509438 -0.471034 -0.12994617
0001a0 39 b8 2e 3f 10 d9 91 3d d5 d8 a3 3d 87 70 6b be
       0.6824985 0.071214795 0.08000342 -0.22992145
0001b0 2e 45 d2 3d 77 5e 31 3f cf 33 93 bb d8 2b e2 be
       0.10267101 0.69284767 -0.00449226 -0.44174075
0001c0 3c 5b 21 3e 9c 7d ac ba c4 58 8e 3e 19 e9 2e 3e
       0.1575746 -0.0013159993 0.27802098 0.17081107
0001d0 03 b4 a1 bf 23 3c f3 3d 84 68 a6 3d 16 7f 87 bf
       -1.263306 0.118767045 0.081254035 -1.0585659
0001e0 2e ed b1 bd 6e 07 32 bd 47 a7 62 3e 3a 66 8e bc
       -0.086878166 -0.043464117 0.22134124 -0.01738273
0001f0 16 c6 87 3f a5 81 24 bf 55 59 2b bd 24 d3 05 bd
       1.0607326 -0.6426032 -0.04183324 -0.032672063

q1.0.weight f4 [128, 4]
000000 82 ae 76 be 24 36 63 3e e7 81 6e be e0 fd a6 bd
       -0.24090007 0.22188622 -0.23291741 -0.081538916
000010 dc 2a cd be 51 bc 0a bf ca 51 ad bd f2 c4 e6 bc
       -0.40071762 -0.541936 -0.08462866 -0.028170083
000020 8e 30 95 be 2e cc 90 3e 7f 78 92 3d a1 45 5c 3d
       -0.29138607 0.28280777 0.07151889 0.05377734
000030 38 bf 13 be 41 c6 09 3f 43 6f 9a 3d e7 0d 54 3d
       -0.14428413 0.53818136 0.07540753 0.05177107
000040 60 29 63 3f e7 5f 0e 3e f5 02 04 3e 11 02 96 3d
       0.8873501 0.13903771 0.12891753 0.07324613
000050 8a 13 ec be 11 b5 d3 be 16 fc b7 bd cc 26 46 bc
       -0.46108657 -0.4134908 -0.089836285 -0.012094211
000060 36 c5 24 be b9 6f 09 3f f9 66 87 3d 7a 06 b5 3c
       -0.16090855 0.536861 0.06611437 0.022097815
000070 db 67 b0 be 7e 03 03 bf e4 56 c0 bd 4b 3b 06 3d
       -0.34454235 -0.51177204 -0.09391573 0.03277139
000080 e7 61 c8 be d6 c3 16 bf 7c 8a b9 bd 81 dd bb bc
       -0.39137194 -0.5889257 -0.09059617 -0.02293277
000090 eb a5 55 3f ef 05 82 be 48 98 ec 3d 05 fb 05 3e
       0.83456296 -0.25395152 0.11552483 0.13084038
0000a0 6c 6f 90 3b 13 89 15 be 59 53 35 3c 98 69 9b 3c
       0.004407814 -0.14603071 0.011067235 0.01897125
0000b0 6c be a7 be d9 9e 6e 3e c9 ec b8 3d cd 06 98 3c
       -0.32762468 0.23302783 0.09029538 0.01855793
0000c0 e7 f0 07 3d 4f 20 05 be ff c5 17 bb 2e c5 b5 bd
       0.033188727 -0.13000606 -0.0023158786 -0.088755
0000d0 ad 07 9f be 0f 8a 32 bf f8 28 de bd 6a 25 0d bc
       -0.31060544 -0.6974191 -0.10847658 -0.008614877
0000e0 64 f4 68 be b2 d1 c0 3e ce 19 62 3d 24 c1 bf 3c
       -0.22749478 0.37659985 0.05520039 0.023407526
0000f0 bc ed 99 3c 10 26 b0 bd b7 f1 02 bc cf 8a 95 bd
       0.018790118 -0.0860101 -0.0079922 -0.07301866
000100 cb db 25 3d d0 d0 54 3f e8 c0 60 39 08 2e b5 be
       0.040492814 0.8313112 0.00021434168 -0.35386682
000110 29 83 32 3f 6a 3a 54 bf c0 f5 e1 bd 0a f4 3f 3d
       0.69731385 -0.8290163 -0.11033201 0.046863593
000120 6a 80 55 bd 84 51 78 bd c6 c2 b8 bc ce 95 a5 bd
       -0.05212442 -0.060624614 -0.022553813 -0.080852136
000130 ae 04 c4 be 24 71 fc be 59 5a d7 bd ac 81 b0 bc
       -0.3828482 -0.4930507 -0.10515279 -0.021546207
000140 1b 0d fe bd 83 e4 1c 3f 31 c7 73 3c 04 8d 0e be
       -0.124048434 0.6128618 0.014879034 -0.1392098
000150 02 b9 b8 be fc e1 04 bf 68 39 ac bd e9 1e fe 3c
       -0.3607865 -0.51907325 -0.08409387 0.031020598
000160 e1 cf 80 be 0f 87 ca 3e 0a 85 8c 3d 98 36 3c 3d
       -0.251586 0.39556167 0.06861313 0.045950502
000170 5b 04 0b be 2a 22 19 3f 8d dd 93 3c a8 28 bb bd
       -0.1357588 0.59817755 0.01804998 -0.09138614
000180 71 fd 83 3b 15 7f b5 bc c1 93 88 bc 62 36 97 bd
       0.0040280153 -0.022155324 -0.016672017 -0.073834196
000190 78 b5 bd be 18 b9 5b bd d5 46 96 be 18 ed 7a 3e
       -0.37052512 -0.053643316 -0.29350916 0.24504507
0001a0 e3 85 b5 be 20 03 05 bf 2a c5 ab bd 33 da b8 bc
       -0.3545371 -0.51957893 -0.083872154 -0.022564983
0001b0 07 02 88 be 23 cb 94 3e 45 10 98 3d a7 4f 0d 3d
       -0.26564047 0.2906123 0.07424978 0.03449979
0001c0 f4 ee 94 bd db c7 30 3f ba 9d c8 3b b0 c9 5f be
       -0.07272139 0.69054955 0.006122318 -0.21854281
0001d0 7a 6f 4c bd 6e c6 80 be c7 66 dd 3c b8 98 c3 bd
       -0.049911 -0.2515139 0.027026547 -0.09550613
0001e0 64 94 0c be f1 35 18 3f df 4c 85 3d 2e d3 63 bc
       -0.13728482 0.5945731 0.065088026 -0.01390533
0001f0 c3 f0 fe bd fc 26 23 3f d4 f2 58 3c 41 52 23 be
       -0.124482654 0.6373136 0.0132414885 -0.15949346
000200 4a 5e 39 3f 1b 96 18 3f e6 e9 c5 3d 94 ed b8 3d
       0.724095 0.5960404 0.09663753 0.090296894
000210 ff b2 3b 3c 71 19 47 be 1b c7 07 3d 72 3f 47 bd
       0.01145625 -0.19443299 0.033148866 -0.04864449
000220 71 de ca be d7 2a da be d3 d2 b1 bd 18 f7 7b 3c
       -0.39622834 -0.4261081 -0.0868279 0.015378736
000230 c3 1e 30 be 55 27 0f 3f 06 72 b4 3d f0 4a 4d 3d
       -0.17199235 0.5591939 0.08810811 0.050120294
000240 9e cb d0 bc 2c c2 9a bd ed ee 3c bc e0 02 ca bd
       -0.025487717 -0.075565666 -0.011531574 -0.098638296
000250 6d 00 a5 bb 09 02 68 bd 4d 49 ca 3b 11 08 86 bd
       -0.005035451 -0.056642566 0.006173289 -0.06544507
000260 53 c2 bd be 41 31 0d bf d8 4b b7 bd b6 3c 38 bd
       -0.3706232 -0.5515328 -0.08950013 -0.044979773
000270 fc f2 c9 be 6c 89 a1 3d 3f b0 b8 3c 67 b6 bd 3e
       -0.39443195 0.07887539 0.022544978 0.37053224
000280 6a 97 8d be 0e 19 82 3e 37 3f 8c 3d 35 7b 50 3d
       -0.27654582 0.2540974 0.06847995 0.05089875
000290 a3 5f 72 be 84 66 ca 3e 81 3d 9d 3d fa ad 3e 3d
       -0.23669295 0.39531338 0.076777466 0.046552636
0002a0 e8 91 6d be 78 c2 3e 3f 8f 02 68 3e 96 82 7a 3d
       -0.2320019 0.74515486 0.22657226 0.061159693
0002b0 49 63 86 be 24 09 9e 3e ec 90 a0 3d 1e b9 6f 3c
       -0.26247624 0.3086635 0.07840142 0.014631538
0002c0 8c d0 31 be f2 c9 f9 3e 6b c0 9b 3d ba e6 14 3d
       -0.1736471 0.48786885 0.0760506 0.03635285
0002d0 c9 2b 42 3d 78 ec 1d be d7 29 c9 3c 1a d7 9e bd
       0.047405038 -0.15422237 0.024556084 -0.07755871
0002e0 cd f0 23 bf b3 c4 0a 3d e5 13 b2 3b a5 4b d7 bc
       -0.6403931 0.033878993 0.0054345005 -0.026281187
0002f0 13 f7 11 3b 21 ed ea bd da 77 1e bb 91 d0 77 bd
       0.0022272512 -0.1147101 -0.0024180324 -0.06050164
000300 32 5c b5 be 18 8c 06 bf 90 f7 a1 bd 69 85 68 bc
       -0.35421902 -0.52557516 -0.07908547 -0.014191964
000310 f9 fe 9e 3d e5 73 56 be 29 bf 1b 3d fe ac ba bd
       0.07763476 -0.20942648 0.0380241 -0.09115027
000320 9a ad db be 3c 43 fb be 95 4a d4 bd c9 df 88 3c
       -0.42905885 -0.49074733 -0.10365788 0.016708272
000330 71 84 c4 be 44 02 0f bf 4a 16 b7 bd 88 39 dc bc
       -0.38382295 -0.5586283 -0.08939798 -0.026882902
000340 bd b8 16 bf 62 e0 1a bf 02 ba 71 be 91 07 ca bb
       -0.5887564 -0.6049863 -0.23606113 -0.0061654528
000350 73 58 05 bb 67 04 39 3d 74 69 3b bc 87 d2 9d bd
       -0.002034691 0.045170214 -0.011438716 -0.077061705
000360 03 11 b7 be 1e 04 20 bf 8a ae fa bd 73 c2 df bc
       -0.35755166 -0.6250628 -0.12240322 -0.0273144
000370 e4 fb 4d be 4d 81 d3 3e 31 99 9d 3d 8d 7b 58 3d
       -0.2011562 0.41309586 0.076952346 0.052852202
000380 08 29 a2 be c7 6c 04 bf c4 ef b7 bd 28 26 15 bd
       -0.3167193 -0.5172848 -0.089812785 -0.03641334
000390 b0 ce 64 be f9 82 a0 3e 8b fb 8a 3d ba 4b da 3c
       -0.2234447 0.31349924 0.06786259 0.026647437
0003a0 ec e1 70 be 84 d3 d6 3e 60 b6 9b 3d e9 fe 1b 3d
       -0.23523682 0.4195825 0.07603145 0.0380849
0003b0 23 e3 11 be 3f b1 15 3f 6b fa 9f 3d 70 c8 0e 3d
       -0.14246802 0.5847358 0.07811435 0.03485912
0003c0 78 10 d2 be fa cd ab be 34 45 db bd 05 eb 97 3c
       -0.4102819 -0.33555585 -0.10706559 0.018544683
0003d0 ab 99 26 bd 49 e2 b9 bd f4 1b ab bc d7 e9 2f be
       -0.040673893 -0.090763636 -0.020887353 -0.17179047
0003e0 2b 79 2a be c8 79 3b 3f 95 e3 5a 3e c9 5c 0d 3d
       -0.16647784 0.732327 0.21375878 0.034512315
0003f0 27 5f a8 bc c4 55 48 bd 8a 5a 3f bc d7 28 bc bd
       -0.020553185 -0.048909917 -0.011679301 -0.09187477

q1.0.bias f4 [128]
000000 c8 e8 99 bf fe b8 94 3e 8f c2 ad 3e fc 81 74 3e
       -1.2024164 0.29047388 0.339375 0.2387771
000010 51 00 62 bf c5 a9 b0 3e 22 18 8b 3e 9a c9 63 3e
       -0.8828173 0.34504524 0.2716685 0.22244874
000020 f0 7d 81 3e a8 ae 82 bf 39 b0 f9 3e 63 f8 b9 3e
       0.25291395 -1.0209551 0.4876726 0.36322317
000030 7a eb 00 3f 97 00 23 3e aa d5 98 3e b3 e0 0c 3f
       0.5035931 0.15918194 0.29850513 0.55030364
000040 24 d0 b0 3e 7e d2 65 bf 7b 03 fe 3e c9 ba 7f 3e
       0.345338 -0.8977431 0.4961203 0.24973597
000050 78 15 bc 3e ee a3 62 3e 7a 71 91 3e 0d 40 ac 3e
       0.3673513 0.22132847 0.28406888 0.33642617
000060 1a cc fb 3e bc 52 97 bf cd a2 6b 3e 4a 06 95 3e
       0.49179155 -1.1822124 0.23011322 0.2910636
000070 84 30 bf 3e ab 51 03 3f de 92 8d 3e 5f fc c4 3e
       0.37341702 0.5129649 0.27651113 0.38473794
000080 dd 0b 20 bf a6 04 04 3f 57 bd 9c 3e 0d e0 83 3e
       -0.625181 0.5156959 0.30613205 0.25756875
000090 b3 cc 06 3f d1 6d f7 3e aa 29 6f 3e e9 3f 87 3e
       0.52656096 0.4832597 0.23355737 0.26415947
0000a0 7b 07 9b 3e e2 88 8f 3e 75 d6 60 bf 78 63 9a 3e
       0.30279145 0.2803412 -0.87827235 0.30154014
0000b0 a7 a3 83 3e c2 da 06 3f cd 09 a1 be 75 4d 08 3f
       0.25710794 0.5267755 -0.3145279 0.5324319
0000c0 48 95 70 3e 08 7a 17 3f 15 54 98 3e ea 14 86 3e
       0.23494446 0.5917058 0.2975165 0.2618783
0000d0 d4 95 89 bf ec a7 fc 3e c5 1c 57 3e e6 1a 8a 3e
       -1.0748849 0.49346864 0.21007068 0.26973647
0000e0 b1 a3 62 3e 7c 64 7a 3e 71 87 8b 3e 14 33 84 3e
       0.22132756 0.24452394 0.2725177 0.2582022
0000f0 4d 2b b1 3e 2b 60 fd 3e cc 92 6c bf d2 38 e5 3e
       0.34603348 0.49487433 -0.92411494 0.44769913
000100 69 fb 6a bf 58 ee 53 bf 83 fc 89 3e 7c 8f 6f 3e
       -0.9178987 -0.8278556 0.26950464 0.23394579
000110 8c 34 05 3f b3 7a e9 3e 53 ad c1 3d 11 0f f5 3e
       0.52033305 0.45601425 0.09456887 0.47863057
000120 33 72 07 3f b6 ff 9b 3e 4f 78 a3 3e 1e 0f da 3d
       0.5290863 0.3046853 0.31927726 0.106474146
000130 4c 79 b1 3d 46 4a 9a 3e 55 a8 12 bf dd bc 9c 3e
       0.08665714 0.3013479 -0.57288104 0.3061284
000140 9e 76 62 3e 8e bf 95 3e 0c 48 9f 3e bd 43 93 bf
       0.22115561 0.29247707 0.31109655 -1.1505047
000150 63 38 1a 3e 9a 87 58 3e 6d 07 1c 3f 01 15 7e 3e
       0.15060572 0.21145478 0.6094883 0.248127
000160 59 1b 90 bf ed 35 5d 3e aa 7f 38 bf 04 d6 10 3f
       -1.1258346 0.21602602 -0.720698 0.5657656
000170 e6 4c 98 3e df ca fc 3e 65 89 88 3e 50 79 75 3e
       0.2974617 0.49373528 0.26667324 0.23972058
000180 4f 85 fb bd fb df 91 3e 79 66 8b 3e 36 a5 73 3e
       -0.12281286 0.28491196 0.27226618 0.23793492
000190 c2 c6 97 3e fb e0 01 3f 54 5a 6a 3e f0 6f ff 3e
       0.29643828 0.5073392 0.2288602 0.4989009
0001a0 7d d5 94 3e dc 93 86 3e d5 d5 64 bf b8 ac 71 bf
       0.2906913 0.26284683 -0.8938878 -0.9440417
0001b0 d8 8b 65 bf 19 47 43 bf 87 83 29 3e 24 1d 8d bf
       -0.8966651 -0.7628036 0.1655408 -1.1024518
0001c0 ac 66 98 3e 55 85 9d 3e 9a 3a 8c 3e 10 52 92 3e
       0.29765832 0.30765787 0.2738846 0.28578234
0001d0 4e 73 01 3f 2c 09 3e bc d5 24 16 3f 38 10 a9 3e
       0.50566566 -0.011598866 0.5864995 0.33020186
0001e0 ce 71 89 3e 64 fe 94 3e be ee 01 3f b7 ff 9c 3e
       0.2684464 0.29100335 0.50754917 0.30663845
0001f0 27 62 8a 3e f0 94 8d bf 12 ef 63 3e 4d b6 87 bf
       0.2702801 -1.1061077 0.22259167 -1.0602509

q1.3.weight f4 [128, 128]
000000 bb a9 ad 3c 45 85 56 3d c8 ca ea 3d a1 71 f4 3c
       0.021199098 0.05237319 0.11464459 0.029839339
000010 d3 01 81 bc b7 d5 14 be d1 66 97 3b 1f d2 9e 3d
       -0.01574794 -0.1453465 0.004620411 0.07754921
000020 20 c9 8b 3b 0e 78 93 bd ea e0 4a be 9f 7e 47 3d
       0.0042659193 -0.07200633 -0.1981236 0.04870474
000030 3d 0d e4 3d 33 4b 2e bd 6e ca 76 3b f0 39 89 bc
       0.111353375 -0.042552184 0.0037657279 -0.01675126
000040 c2 42 5e bd 30 67 fd bc aa 87 1a be 55 b3 b4 3c
       -0.054262884 -0.030932993 -0.15090814 0.022058168
000050 8f 6e 08 3c bc 3d 5a 3a cf c7 f1 3d 13 d6 21 be
       0.0083271405 0.0008325239 0.118056886 -0.15804319
000060 0f d8 cc bd 8a d2 bb bd ef bb f7 3c ec de 34 3d
       -0.100021474 -0.091710165 0.03024098 0.044157907
000070 8c d5 c8 3d b6 ad fe bd d4 74 c4 bc aa f1 12 be
       0.09806356 -0.124354765 -0.02398149 -0.1435
000080 30 7e ed 3c e7 02 c0 3d 30 56 01 3d 49 3a 3b bd
       0.028990835 0.093755536 0.031576335 -0.045709882
000090 86 4b 1b be bc f0 85 3d 00 7b 01 be 15 73 fe bd
       -0.15165529 0.06540057 -0.12644577 -0.12424294
0000a0 b5 11 3a bd f1 55 c2 bd f7 71 76 3d 1e fa 8c 3d
       -0.045427043 -0.09489048 0.06016728 0.068836436
0000b0 5f c7 3e bc 21 29 1a be 63 0f ab bc f1 b2 14 be
       -0.011644213 -0.15054752 -0.02088136 -0.14521386
0000c0 5b 04 c0 3c 01 ca 24 bc df 52 8d 3b 45 4f a6 bd
       0.023439577 -0.010057927 0.0043128575 -0.08120588
0000d0 a8 d5 d4 bd 80 b8 24 be 72 e8 a8 bc 2d b6 e9 bd
       -0.10392314 -0.16086006 -0.020618651 -0.114117004
0000e0 6e 0c e5 3c 25 26 78 bc 3b d9 28 be 20 1c 2b bd
       0.027960028 -0.015145813 -0.16489117 -0.04177487
0000f0 04 1c c7 bd e2 58 c9 bc 4f c6 36 3a 05 c0 87 bd
       -0.097221404 -0.024578515 0.00069722993 -0.06628422
000100 a9 d9 f2 bd 3d 5c 1c be 1a 6b 1e be 4c 85 a6 bc
       -0.11857922 -0.15269561 -0.15470544 -0.020327233
000110 1c c3 c2 bc 7b 03 18 be 8b b5 9a 3d 5a fd 06 be
       -0.023774676 -0.14845078 0.07554158 -0.13182583
000120 e4 3c 37 be 4e 56 42 bc c2 84 a6 bb 73 d7 4f bd
       -0.17894322 -0.011861397 -0.005081744 -0.050742578
000130 df 3c 07 3d d2 77 f3 3d a3 d8 ed bd 23 a9 2e 3d
       0.033017036 0.11888088 -0.11613586 0.04264177
000140 20 bb 11 be 5a 6f dc bc a4 33 c1 bc 55 0a c6 bd
       -0.14231539 -0.026908565 -0.023584194 -0.096699394
000150 42 83 14 bd e9 f6 01 bc 2b 67 68 3d ed a7 34 be
       -0.03625799 -0.007932403 0.056739014 -0.17642184
000160 37 19 a9 3c 52 d4 1b be f5 3b 83 3d 2f b7 2c be
       0.020641906 -0.15217713 0.0640792 -0.16866754
000170 76 c3 81 3d 13 8e 9f 3c 0b f1 10 be aa e7 d5 bd
       0.06336109 0.019476926 -0.1415445 -0.10444577
000180 e6 ca 5f bd aa 00 2a be 8f 40 2b be 60 ac 9a bd
       -0.05463686 -0.16601816 -0.16723846 -0.07552409
000190 d1 13 0e be eb 9d 16 be 09 c5 d5 3d c6 f6 a8 bd
       -0.13874747 -0.14708678 0.10437972 -0.08250193
0001a0 09 4b bf 3d c3 99 43 3d 88 5c 04 bd da 76 6a 3c
       0.09340484 0.04775406 -0.032314807 0.014310563
0001b0 0a d7 80 bd 65 3c 8f bd 14 69 4c bd 99 d4 87 3d
       -0.062910154 -0.06993941 -0.049904898 0.06632347
0001c0 2e 44 7b 3d ab 02 32 bd a3 39 3b 3c 90 9a bb bc
       0.061344318 -0.043459576 0.011427316 -0.02290085
0001d0 08 f7 82 3d 59 20 ff bd d0 c8 2a be 3e 57 73 3d
       0.06394774 -0.12457342 -0.16678166 0.059409373
0001e0 63 55 0f be d7 4c 41 bc 34 78 8f 3d d0 8f b9 3c
       -0.13997416 -0.011798105 0.07005349 0.022651583
0001f0 36 58 6b 3d 65 76 92 3d 37 9d b4 3d de 65 f1 bd
       0.05745717 0.07151488 0.08819049 -0.11787008
000200 9d 3d 9b bd f8 2b ac bd be c3 cd 3d 8e 84 67 bd
       -0.07580111 -0.08406824 0.100471005 -0.0565229
000210 4c 93 cb 3c 6b 48 95 3b ce b9 b6 3c 3a d3 b5 bc
       0.02485051 0.004555752 0.022305395 -0.022195447
000220 7c 74 01 3d 66 b6 1f bc b7 b0 c5 3c 2a 6c 84 3c
       0.03160523 -0.009748077 0.024132116 0.016164858
000230 7e ed 38 3d 9f f3 5b 3d bc bc bb 3d 19 c2 49 be
       0.045148365 0.053699132 0.091668576 -0.19702949
000240 82 1c 10 be f6 cc 29 be db d4 cf 3c 2b 5c 1a bd
       -0.14073375 -0.16582093 0.025370052 -0.037685554
000250 fd 06 cf bd da 7c 1d be 2d 84 51 bd d1 57 d1 bd
       -0.10108755 -0.15379658 -0.051151443 -0.10221828
000260 6a c9 3e be 72 68 03 3c 03 a3 41 3c 33 fa 6f 3d
       -0.18631521 0.008020507 0.01181865 0.058588218
000270 48 1d fc bd 0d 0b a8 3d 5c fe 00 be 70 1e 3c 3c
       -0.123102725 0.08205233 -0.1259703 0.011481866
000280 70 99 7d bd 83 ee bf bd 2b 82 75 3d 0d 44 c8 3d
       -0.061913908 -0.093716644 0.05993859 0.09778605
000290 b4 24 c6 bd 7c 9c 1b be 28 e1 a7 bc 1d 5a 83 bc
       -0.09674969 -0.15196413 -0.020493105 -0.01603418
0002a0 1c cf d1 3d 98 76 32 bd 5a 40 82 3d 94 c1 cb 3d
       0.10244581 -0.04357013 0.0635993 0.099490315
0002b0 fc e7 02 be e2 87 ed bd 3e 07 50 3c 08 76 1b be
       -0.12783808 -0.11598183 0.012697039 -0.15181744
0002c0 7a 2a eb bc a8 f5 ee bc fa 74 ff bd 46 71 16 be
       -0.028706778 -0.029169872 -0.124734834 -0.14691648
0002d0 89 90 a5 3d 18 36 20 3d 6b 8e 91 3c 9b 15 a3 3b
       0.080842085 0.039114088 0.017768105 0.004976941
0002e0 05 00 58 bc c6 ac 02 3d d4 64 0d be aa 10 1f be
       -0.013183598 0.03190305 -0.13807994 -0.155337
0002f0 ee 35 61 be 18 4b 13 be 5c ed 7b 3c 64 80 39 be
       -0.21993229 -0.14384115 0.015376415 -0.18115383
000300 3e 48 9f 3d 45 06 6f bc 82 eb 15 be b2 66 b9 3d
       0.07777451 -0.014588897 -0.1464062 0.09052791
000310 77 2e 0a bd bc bc 92 bd 1c 08 4f be ed 9e 88 3b
       -0.03373572 -0.071649045 -0.20217937 0.004169336
000320 17 33 b5 bc dd 6d 84 bd 20 f2 ab 3d a1 41 0d be
       -0.022119088 -0.06466267 0.08395791 -0.13794567
000330 a4 46 5d be a3 ca 21 be ff 7b eb 3a 7f 8f cb 3d
       -0.21608979 -0.15799956 0.0017966031 0.09939479
000340 ee 6a ce bc 25 83 e4 3d 40 2b bc 3d a9 61 0d be
       -0.025197472 0.11157826 0.09187937 -0.13806786
000350 43 15 61 be 27 e7 1f be 33 23 17 3d 41 5c 48 be
       -0.21980767 -0.15615521 0.036898803 -0.19566442
000360 96 70 a7 bc cb 7c 99 bd 1c 75 b4 b9 2b 2f 9b 3d
       -0.020439427 -0.074945055 -0.0003441953 0.07577356
000370 ee bf 67 bd b2 3f 3d be 6e c8 88 3d c3 66 3d bd
       -0.056579523 -0.18481329 0.06678854 -0.04624058
000380 a2 91 43 bd 32 aa ec 3c ba f5 eb bd ac 6d e6 bd
       -0.04774631 0.02888975 -0.11521478 -0.11251387
000390 4f ce 35 be 5c 5b 1d ba 93 09 dc bc 67 ce 28 bd
       -0.17754482 -0.00060026883 -0.026860034 -0.041212466
0003a0 02 15 08 be 5c e5 f6 bb 11 15 c0 3c 1d 00 89 bd
       -0.13289264 -0.007534666 0.023447545 -0.06689475
0003b0 fd fd 33 3c b9 50 fb bc 18 d3 35 3c 27 5b 15 be
       0.0109858485 -0.03067814 0.011097692 -0.14585553
0003c0 e6 e1 9a 3d bf 70 3d 3d 2b ba 1e be 42 2f b7 bd
       0.07562618 0.0462501 -0.15500705 -0.089445606
0003d0 34 bf 7f 3d 27 67 23 3d 3b 6e 8c 3c 00 9d 41 3c
       0.062438205 0.039893296 0.017142406 0.011817217
0003e0 5c b5 79 3d da 51 8f 3d e3 e1 02 3c 78 3f 58 bc
       0.060963973 0.06998034 0.007988426 -0.013198726
0003f0 33 0a 24 be 48 8b ed bc f3 a3 93 ba ce f3 27 bd
       -0.16019516 -0.028997079 -0.0011264071 -0.041003995

q1.3.bias f4 [128]
000000 90 58 03 bd aa 0f 80 bd ff a8 a5 40 27 8b 17 bd
       -0.03206688 -0.06252988 5.1768794 -0.03699794
000010 56 71 d1 bc c8 86 b5 bf 36 56 ab 40 18 b7 52 bd
       -0.025566738 -1.4181757 5.354274 -0.051444143
000020 0d 7c 66 bf 38 1c ac 40 c5 ea 55 bd 17 f3 a7 40
       -0.90033036 5.3784447 -0.052225847 5.248424
000030 75 31 d7 bc 63 8e a8 40 f4 ae 8f bd 9f 07 b0 40
       -0.0262687 5.267381 -0.070157915 5.5009303
000040 31 ae b1 40 18 d9 91 40 3e c8 11 c0 88 3d a9 40
       5.5525136 4.5577507 -2.2778468 5.288761
000050 bf 75 ac 40 74 6b 52 bd 32 d0 23 bd b2 76 87 bd
       5.3893733 -0.051372007 -0.039993472 -0.06614436
000060 44 81 ab 40 e6 e6 93 40 d0 82 aa 40 63 ac a8 40
       5.3595295 4.621936 5.3284683 5.2710433
000070 77 be a8 40 03 f9 a7 40 66 3b ab 40 f4 95 7f bd
       5.27325 5.249147 5.351001 -0.062398866
000080 5e 71 ab 40 2b 8d 9e 40 1b 6d 88 bd 34 9b b1 40
       5.357589 4.9547324 -0.06661435 5.5501957
000090 c0 42 ad 40 29 15 8a bd 13 38 80 bd 36 76 4d bf
       5.414398 -0.06742317 -0.06260695 -0.802585
0000a0 27 93 a7 40 b2 07 4c bd f0 9e 8f bd b2 ca ae 40
       5.236713 -0.049812026 -0.07012737 5.462243
0000b0 c9 f0 aa 40 d6 8f 2e bd fa 84 2a bd a5 81 ad 40
       5.3418927 -0.04261764 -0.041630723 5.4220757
0000c0 20 b6 ac 40 67 14 ad 40 92 40 ac 40 ec 12 9e bf
       5.397232 5.4087405 5.382882 -1.2349524
0000d0 6f 24 ad 40 96 93 b1 40 6c d1 ad 40 17 58 ae 40
       5.4106975 5.549266 5.431814 5.448253
0000e0 08 77 ae 40 ee 21 a8 40 75 57 af 40 38 a5 aa 40
       5.45203 5.254142 5.479426 5.3326683
0000f0 85 8c a8 40 2c 31 ae 40 7c c2 0c bd 48 67 83 bd
       5.2671533 5.4435024 -0.034365162 -0.06416184
000100 d8 44 ad 40 78 ee a6 40 70 53 a2 40 09 3c 20 bd
       5.414654 5.21661 5.0726852 -0.039119754
000110 bb 25 a7 bd fb 3a b0 40 c8 59 b8 bd 91 3c 9b bf
       -0.081614934 5.5072 -0.090014994 -1.2127858
000120 d7 c4 ad bd 77 a7 67 bd af 8f a9 40 38 24 06 bd
       -0.0848481 -0.05655619 5.2987895 -0.032749385
000130 31 c3 aa 40 11 f2 ac 40 47 08 9a bd 5c ae a7 40
       5.336327 5.404549 -0.0752111 5.240034
000140 ba 1e aa 40 1c 7a 9a bd 14 81 ad 40 4c 27 b2 bf
       5.316251 -0.07542822 5.4220066 -1.3918242
000150 28 bb 83 bd ff ba b1 40 dd 30 ac 40 ef 09 72 bd
       -0.064321816 5.5540767 5.3809648 -0.059091505
000160 8e a0 8e bd 1e 6d 62 bd bb dc 50 bd 60 51 aa 40
       -0.06964217 -0.055279844 -0.050991755 5.3224335
000170 0d 41 11 bd 8a 5c a8 40 1c 92 b1 40 7a 17 1b bd
       -0.035462428 5.2612963 5.5490856 -0.037864186
000180 c8 85 aa 40 19 3c ad 40 50 30 96 40 b5 91 99 40
       5.3288307 5.413586 4.6933975 4.7990365
000190 6d 68 a9 40 4c 86 b0 40 80 e6 89 bd 9a bc ac 40
       5.2939973 5.5163937 -0.067334175 5.3980227
0001a0 82 b7 63 bd c6 a2 9d 40 d5 9f a8 40 dc cf 46 bd
       -0.05559493 4.92612 5.2695107 -0.048538074
0001b0 97 f6 8e bd a7 a7 ae 40 0f 9a ac 40 13 62 1d bd
       -0.06980627 5.4579654 5.393806 -0.03842361
0001c0 79 0c bc bd 7b bc 97 40 d8 61 6d bd 8b d7 4f bd
       -0.091820665 4.741758 -0.05795464 -0.050742667
0001d0 b0 26 a9 40 85 c7 9d 40 3a 04 aa 40 6c 28 a0 40
       5.2859726 4.9306054 5.313016 5.0049343
0001e0 65 4c ac 40 42 a3 76 bf ef 34 a8 40 07 ec b1 40
       5.3843255 -0.9634286 5.2564616 5.560062
0001f0 bc 6c a2 bf 01 33 ac 40 2f a0 af 40 68 c5 a7 40
       -1.2689433 5.381226 5.4883037 5.2428474

q1.6.weight f4 [1, 128]
000000 3a 58 dc 3c 74 00 a0 3d 70 cf 16 c0 7b d7 c4 3d
       0.026897538 0.078125864 -2.356411 0.09611412
000010 d1 68 70 3d ae 9c ea 3f 00 23 ff bf ae 48 56 bd
       0.05869371 1.8329065 -1.9932556 -0.052315407
000020 c6 a0 21 40 99 68 f9 bf bf f9 e6 3d 36 ff 19 c0
       2.5254378 -1.9485046 0.11278104 -2.4062018
000030 5e 7b 17 3e 12 7a 1d c0 aa dd 78 3c 12 be f3 bf
       0.14793155 -2.4605756 0.015189568 -1.904238
000040 06 45 ef bf 12 96 78 c0 6f 59 d2 40 f7 31 06 c0
       -1.8692939 -3.8841596 6.573417 -2.0967996
000050 06 d8 e6 bf 27 1e 0c 3e 0b a6 e4 3d b9 18 64 3d
       -1.8034675 0.13683377 0.11164483 0.05568764
000060 c5 a4 06 c0 a6 7e 5e c0 8f f5 05 c0 f2 7b 18 c0
       -2.1038067 -3.47648 -2.0931127 -2.382565
000070 53 12 15 c0 32 02 13 c0 f5 51 fc bf 2c 17 cf 3d
       -2.3292434 -2.297009 -1.9712511 0.101118416
000080 3e 38 02 c0 ec 0a 47 c0 3f a0 79 3d 64 6d f1 bf
       -2.0346828 -3.1100416 0.06094384 -1.8861508
000090 ce 89 f7 bf f2 f0 c4 3d 1e 1a 46 3c 1a e8 bc 3f
       -1.933893 0.09616269 0.012091188 1.4758332
0000a0 5f ba 0e c0 0a 52 28 3d c7 a5 7c 3d 38 ff f4 bf
       -2.2301252 0.041093864 0.061681535 -1.9140387
0000b0 9b 68 17 c0 96 9c 89 3d 33 d8 03 3b c3 15 02 c0
       -2.3657596 0.067193195 0.0020117878 -2.0325782
0000c0 e6 50 02 c0 0e 4a f4 bf 0a 40 f5 bf 06 cf 17 40
       -2.0361876 -1.90851 -1.9160168 2.3720107
0000d0 bc 4f 0d c0 69 47 fc bf 1e 24 06 c0 b8 13 07 c0
       -2.2079916 -1.9709293 -2.0959544 -2.1105785
0000e0 c9 13 f4 bf 93 cf 07 c0 9a c2 ee bf be 55 07 c0
       -1.9068538 -2.1220443 -1.8653138 -2.1146083
0000f0 f7 61 12 c0 9b 65 e0 bf 56 91 29 3e 9f e8 32 3d
       -2.2872293 -1.7531008 0.16559348 0.043678876
000100 01 aa 01 c0 d9 75 07 c0 61 a3 2b c0 e6 8d f2 3d
       -2.0260012 -2.1165679 -2.6818469 0.11843471
000110 df e1 f1 3d d8 bb ee bf a9 6c 93 3d 1e 6a 20 40
       0.118106596 -1.8651075 0.0719846 2.5064769
000120 7f 0e dd bc da fb 2e 3e 24 8a 0a c0 19 35 bd 3b
       -0.026984451 0.17088261 -2.1646814 0.005774152
000130 4d 09 05 c0 a2 96 f5 bf 7d 99 f7 3d a1 ba 0e c0
       -2.0786927 -1.9186594 0.120898224 -2.230141
000140 af 0d 09 c0 f5 2b cc 3d 64 84 ff bf 9c 44 00 40
       -2.1414602 0.09969322 -1.9962277 2.0041876
000150 e9 ab 92 bc e9 a6 dd bf b6 96 f1 bf 6f 2a 27 3c
       -0.017904239 -1.7316562 -1.8874118 0.010202988
000160 0f bd 1c 3e fc 96 97 3d 83 6d 01 3e bf cd 0e c0
       0.15306495 0.07401845 0.12639432 -2.2313077
000170 33 5a e3 3d 5d c1 0c c0 03 74 ef bf 91 84 40 3d
       0.111011885 -2.199302 -1.8707279 0.047001425
000180 72 61 07 c0 e2 b2 0e c0 5e 11 9a bf fe 8b 74 c0
       -2.1153226 -2.2296681 -1.203655 -3.8210444
000190 3e 05 15 c0 ee b2 01 c0 25 7e 00 3e 0f 3c f3 bf
       -2.328445 -2.026546 0.1254812 -1.9002703
0001a0 d3 91 e9 3d 96 27 3b c0 f5 4b 0e c0 ad 37 12 3e
       0.11404767 -2.9242911 -2.223386 0.14279051
0001b0 62 e6 02 3e 01 2f f9 bf c5 d4 f7 bf b8 14 f2 3d
       0.12783197 -1.946747 -1.9361807 0.11820358
0001c0 ab 19 b6 3d 6a e3 4d c0 a5 58 f1 3d 06 7a df 3d
       0.088916145 -3.2170053 0.11784486 0.10911946
0001d0 83 27 01 c0 d3 ae 43 c0 97 b5 05 c0 f1 19 45 c0
       -2.0180366 -3.0575454 -2.0892084 -3.0797083
0001e0 55 2e 03 c0 86 bd 4a 40 3c 1f 0c c0 e7 7f de bf
       -2.049703 3.1678176 -2.1894064 -1.7382783
0001f0 ae 78 27 40 67 6d f5 bf b5 6f da bf 07 47 02 c0
       2.6167407 -1.9174012 -1.706534 -2.0355852
