TD3/checkpoints/Pendulum-v1/05_best_agent.pth (torch, 213476 bytes, 15 tensors)

actor.0.weight f4 [128, 3]
0.41367686 0.659988 0.19916528 -0.3471754 0.06637608 -0.07317077 -0.14295834 -0.8293956
-0.17414574 0.39171314 -0.15666367 -0.15839672 -0.022296824 0.58605295 0.49245054 0.3866367
-0.57027346 -0.17612286 0.32119837 -0.43396088 -0.104709506 0.23583917 -0.7979723 -0.06256841
0.021378389 0.068938516 -0.022048978 0.113996394 -0.20614453 0.1804987 -0.07110987 -0.80912936
-0.15672058 0.38988662 -0.54634356 -0.1650907 -0.36492935 -0.42781237 0.0976037 -0.4063289
-0.33667028 -0.01987192 0.13661195 -1.2684762 0.12561716 -0.112655945 0.5254969 0.25607875
-0.25747705 0.8747312 0.1841805 0.3465774 0.60831535 0.1734889 -0.018213468 0.10301717
-0.0028385364 0.14330001 -0.967669 0.09130218 0.43967015 -0.41425434 -0.13560751 0.05910309
-0.0435818 -0.16018018 -0.44679847 -0.71774143 -0.0045571914 -0.031327978 -0.63168037 -0.0503397
-0.26308087 -0.33218244 -0.045616765 0.54367816 0.731391 0.21234152 0.004579099 0.45586282
0.45827276 0.3396288 -0.6082976 -0.11971483 -0.6634135 -0.3882421 -0.058831852 -0.05345456
0.63142407 0.4708008 -0.2490105 0.74855953 0.16964917 0.19663712 -0.49644545 0.10220815
-0.42795065 0.44296372 0.16918948 0.24226622 0.33226097 0.25567624 0.6603276 0.33319235
0.22002108 0.45317307 0.64625806 0.1886687 -0.24772672 -0.41366094 0.009514334 0.5011653
-0.29371053 -0.12450131 0.389946 0.12968297 0.16159278 0.08904709 -0.87391233 -0.06819498
-0.070219286 0.88698524 0.11468204 -0.7113421 -0.41335207 0.05561727 0.16407245 -0.60860485
0.46424913 0.39489904 -0.43569943 -0.14562881 0.24939024 0.6357964 0.12761639 0.49498245
0.45091364 0.2283449 0.21226934 0.82766724 0.21616875 0.3415699 -0.4135195 -0.1686749
0.41177452 0.2786059 -0.12227194 0.023240311 0.9158216 0.06648797 -0.24302298 0.098897964
-0.0009019576 -0.038163982 0.05686889 0.496441 -0.24924836 0.38462922 0.18387139 -0.3625251
0.8159205 0.07399845 -0.10910379 0.10920515 -0.0007856592 0.03603881 0.043447714 -0.2658568
0.11321776 -0.994171 0.049460445 -0.073414564 0.11853944 0.001371815 -0.41982213 -0.064122714
-0.0055625793 -0.18533579 -0.7681202 0.07119267 -0.14794256 0.39532128 0.23646034 -0.15996216
0.6122586 0.10883017 -0.4803458 -0.517128 -0.026922466 0.021256808 -0.8055949 -0.011611354
-0.47633365 0.22301015 0.03424668 -0.043727376 0.1483897 -0.016233858 0.22436021 0.098136336
-0.16810033 -0.6048526 0.23413952 0.039078448 -0.5616213 0.5823868 0.06589187 0.31194443
0.5269277 0.069925785 0.08301865 -0.025674706 -1.9276138e-05 0.5059103 -0.36738446 -0.134875
0.011422449 -0.15788321 -0.13545114 -0.31234983 -0.25330463 -0.025245868 -0.22440504 -0.17533098
-0.23164436 -0.0080876695 -0.844048 -0.013722369 -0.7959683 0.074124835 0.00638797 0.3887675
0.500599 0.2002859 -0.67507374 0.24765073 0.045625098 -0.32084057 0.3531447 0.039502326
0.5739821 -0.50222534 -0.123415954 -0.3942787 0.38037607 0.13627706 0.4263857 -0.5171088
-0.16277452 -0.2364494 0.7027608 0.15116076 -0.218787 -0.035476938 -0.31327757 -0.1846764
00000000: 74cd d33e f9f4 283f fcf1 4b3e f9c0 b1be
00000010: 2ff0 873d 8fda 95bd ac63 12be 4553 54bf
00000020: 4353 32be a08e c83e 716c 20be c032 22be
00000030: d4a7 b6bc 9107 163f 7a22 fc3e 3ff5 c53e
00000040: 71fd 11bf 8d59 34be 1d74 a43e 1f30 debe
00000050: f071 d6bd d37f 713e ea47 4cbf de23 80bd
00000060: bb21 af3c a32f 8d3d 0fa0 b4bc f176 e93d
00000070: 8d17 53be a7d4 383e 0da2 91bd 1a23 4fbf
00000080: 5c7b 20be 389f c73e 2cdd 0bbf 890d 29be
00000090: 05d8 babe 390a dbbe 73e4 c73d 570a d0be
000000a0: 0c60 acbe 70ca a2bc 01e4 0b3e 6e5d a2bf
000000b0: c9a1 003e 29b8 e6bd f786 063f c11c 833e
000000c0: 08d4 83be 62ee 5f3f d099 3c3e 9872 b13e
000000d0: 8eba 1b3f 13a7 313e 6934 95bc abfa d23d
000000e0: bd06 3abb 3dbd 123e 28b9 77bf a3fc ba3d
000000f0: 721c e13e 2519 d4be b2dc 0abe 1516 723d
00000100: d482 32bd 4606 24be c5c2 e4be e7bd 37bf
00000110: 7e54 95bb c451 00bd ceb5 21bf 0031 4ebd
00000120: 89b2 86be d113 aabe a5d8 3abd 7e2e 0b3f
00000130: 713c 3b3f 0e70 593e 440c 963b da66 e93e
00000140: baa2 ea3e d3e3 ad3e 64b9 1bbf 0c2d f5bd
00000150: 78d5 29bf abc7 c6be abf9 70bd 2bf3 5abd
00000160: 02a5 213f cd0c f13e 9cfc 7ebe 99a1 3f3f
00000170: 83b8 2d3e 3e5b 493e 192e febe 8252 d13d
00000180: 591c dbbe 24cc e23e 0240 2d3e a314 783e
00000190: 1c1e aa3e ffe7 823e 3b0b 293f 3098 aa3e
000001a0: 354d 613e 4d06 e83e 2b71 253f 5e32 413e
000001b0: 13ac 7dbe 5ecb d3be 02e2 1b3c 5e4c 003f
000001c0: 3a61 96be 8bfa febd 01a7 c73e 9dcb 043e
000001d0: 9478 253e 525e b63d b8b8 5fbf cfa9 8bbd
000001e0: 21cf 8fbd 7711 633f 6bde ea3d 841a 36bf
000001f0: e2a2 d3be efce 633d 9c02 283e 87cd 1bbf
00000200: 10b2 ed3e 3530 ca3e ff13 dfbe b81f 15be
00000210: 2860 7f3e 8ec3 223f dfad 023e 576e fd3e
00000220: 27de e63e 3fd3 693e 225d 593e 00e2 533f
00000230: 575b 5d3e 40e2 ae3e d4b8 d3be 1db9 2cbe
00000240: 1cd4 d23e 6fa5 8e3e b669 fabd 7762 be3c
00000250: 4973 6a3f d82a 883d 04db 78be 048b ca3d
00000260: 5a71 6cba d651 1cbd 5aef 683d 842d fe3e
00000270: f63a 7fbe 1fee c43e c848 3c3e e49c b9be
00000280: 2ae0 503f 808c 973d cf71 dfbd f3a6 df3d
00000290: b2f4 4dba 6e9d 133d 3bf6 313d 621e 88be
000002a0: b7de e73d fe81 7ebf 0997 4a3d 605a 96bd
000002b0: cec4 f23d 79ce b33a edf2 d6be c552 83bd
000002c0: 4c46 b6bb aac8 3dbe 87a3 44bf 76cd 913d
000002d0: 417e 17be 8d67 ca3e a922 723e 1fcd 23be
000002e0: fbbc 1c3f 5ae2 de3d e2ef f5be 8062 04bf
000002f0: 818c dcbc c222 ae3c 783b 4ebf 8c3d 3ebc
00000300: 01e2 f3be c65c 643e 3f46 0c3d 7a1b 33bd
00000310: 78f3 173e defc 84bc afbe 653e b4fb c83d
00000320: 7e22 2cbe 9fd7 1abf 45c2 6f3e b910 203d
00000330: 6ac6 0fbf 4d17 153f 51f2 863d 2eb7 9f3e
00000340: bce4 063f 4035 8f3d af05 aa3d c353 d2bc
00000350: 31b3 a1b7 5683 013f d119 bcbe ac1c 0abe
00000360: 3925 3b3c 23ac 21be b4b3 0abe 51ec 9fbe
00000370: 25b1 81be 6cd0 cebc 6fca 65be f789 33be
00000380: 2e34 6dbe 2582 04bc 8813 58bf cad3 60bc
00000390: 94c4 4bbf c3ce 973d 2d52 d13b 890c c73e
000003a0: 4227 003f bf17 4d3e a2d1 2cbf 2798 7d3e
000003b0: 62e1 3a3d 3745 a4be 62cf b43e 31cd 213d
000003c0: 7ef0 123f d791 00bf 81c1 fcbd e6de c9be
000003d0: a7c0 c23e 378c 0b3e 3a4f da3e 3e61 04bf
000003e0: 5dae 26be cb1f 72be 22e8 333f e3c9 1a3e
000003f0: b309 60be 4450 11bd eb65 a0be cf1b 3dbe

actor.0.bias f4 [128]
-0.14430012 -0.29660767 -0.1165666 -0.3162016 0.09558871 -0.16209796 -0.1767743 -0.15051493
-0.24319693 -0.24602053 -0.16579959 -0.17233028 -0.22360727 0.01727512 0.080554776 -0.054400057
-0.15631709 -0.15241334 -0.12757131 -0.286345 -0.10337832 -0.6073785 0.06351166 -0.29863504
-0.0942653 -0.23571339 0.15161583 -0.09608871 0.047871083 0.06306237 -0.1271989 -0.06478903
-0.013067771 -0.25074852 -0.58412266 -0.19215487 0.030364431 -0.20699486 -0.43272382 -0.2182286
-0.03067694 0.106648326 -0.04386195 -0.22430913 -0.13993208 -0.3998897 0.02264412 -0.1759753
-0.091106474 0.13055347 -0.27675903 0.22404002 -0.007556557 -0.17425925 -0.16235262 0.13729128
-0.33894894 -0.16099848 -0.35603014 -0.01527146 -0.08974425 -0.08290636 0.12154157 -0.17077918
-0.09916251 -0.2806285 -0.11536057 -0.02451788 0.099934146 -0.20225532 -0.089424774 -0.11187748
-0.6535506 -0.2858044 -0.17255828 -0.12319763 0.074361786 -0.28130552 0.024288148 0.043789525
0.018841753 0.013463432 -0.2262116 -0.12438568 -0.18823396 -0.08207363 -0.3333148 0.038187023
-0.1787066 -0.05750478 -0.3258821 -0.33580354 -0.14693446 0.07578284 0.044405058 0.022017669
-0.1365654 -0.3347039 -0.041175716 -0.2529744 -0.07496128 -0.4094759 -0.11322875 -0.38508582
0.029920012 -0.15002716 -0.31344578 -0.106354915 0.21569134 0.060952842 -0.01180733 -0.16337949
0.03027126 0.23046187 -0.09091661 0.09498385 0.11552307 0.20681871 -0.12562063 -0.102696456
0.08188348 0.014578965 -0.30535045 -0.37482634 -0.1470922 -0.05926755 0.04178309 0.022360293
00000000: 69c3 13be f6dc 97be 78ba eebd 2de5 a1be
00000010: 03c4 c33d 02fd 25be 5204 35be 9620 1abe
00000020: 9e08 79be ceec 7bbe 5ec7 29be 5977 30be
00000030: 4ef9 64be 8d84 8d3c e7f9 a43d 98d2 5ebd
00000040: 9611 20be 3e12 1cbe 0ea2 02be d09b 92be
00000050: 03b8 d3bd 287d 1bbf 6712 823d b1e6 98be
00000060: 2a0e c1bd da5e 71be 2e41 1b3e 28ca c4bd
00000070: 7814 443d d826 813d 6e40 02be 1cb0 84bd
00000080: 341a 56bc 1c62 80be 1089 15bf 3fc4 44be
00000090: d4be f83c 76f6 53be fa8d ddbe 5177 5fbe
000000a0: 354e fbbc 706a da3d 97a8 33bd 4bb1 65be
000000b0: 5b4a 0fbe 58be ccbe 2980 b93c de32 34be
000000c0: 0896 babd cfaf 053e 5cb3 8dbe bf6a 653e
000000d0: ff9c f7bb 0471 32be c43f 26be 1696 0c3e
000000e0: b78a adbe c9dc 24be 9549 b6be 2535 7abc
000000f0: d5cb b7bd cfca a9bd c9ea f83d bde0 2ebe
00000100: b715 cbbd 8aae 8fbe 2a42 ecbd b9d9 c8bc
00000110: 46aa cc3d 051c 4fbe 5624 b7bd 0520 e5bd
00000120: 184f 27bf f454 92be 1eb3 30be 0a4f fcbd
00000130: fe4a 983d 4707 90be f0f7 c63c a55c 333d
00000140: 055a 9a3c ba95 5c3c 03a4 67be ebbd febd
00000150: 67c0 40be 3816 a8bd 3da8 aabe ff69 1c3d
00000160: ddfe 36be 228a 6bbd 05da a6be 71ee abbe
00000170: fd75 16be 0934 9b3d 14e2 353d 665e b43c
00000180: cdd7 0bbe 4f5e abbe dea7 28bd dc85 81be
00000190: 4d85 99bd d3a6 d1be 7ae4 e7bd f829 c5be
000001a0: d01a f53c b8a0 19be f77b a0be 9bd0 d9bd
000001b0: 31de 5c3e b0a9 793d 8873 41bc f44c 27be
000001c0: 6ffb f73c 32fe 6b3e 7d32 babd e586 c23d
000001d0: 5c97 ec3d 49c8 533e b2a2 00be 8552 d2bd
000001e0: 87b2 a73d 9cdc 6e3c e556 9cbe 3de9 bfbe
000001f0: 569f 16be 88c2 72bd bf24 2b3d ef2c b73c

actor.2.weight f4 [128, 128]
0.071529455 -0.014135432 -0.07159148 0.0794496 0.10115569 -0.16179511 -0.048624814 0.12729514
0.07447628 0.03290066 0.04185103 -0.08196369 0.11702509 0.0017929483 0.055844657 -0.050013836
-0.08997211 0.08264102 -0.15721825 -0.09985034 0.105774865 -0.06636707 0.017412227 0.03754315
-0.0956112 0.09252161 -0.13472041 -0.040119637 -0.0029202565 -0.16537817 -0.027028227 -0.09903108
-0.1415658 -0.113795936 -0.035472225 -0.06819782 0.025323788 -0.047009204 -0.07234841 -0.121957
-0.018771933 0.033950936 -0.15309541 -0.036386415 0.012449607 -0.03470977 -0.045296405 -0.08356791
-0.080589294 -0.16381915 0.028744241 -0.0035225812 -0.16003837 -0.11792776 0.037916716 0.020373816
-0.15301888 0.12958172 -0.16218504 -0.1538348 0.060509317 0.054736122 -0.048926916 -0.009858589
0.03789174 -0.13353284 -0.17065324 0.090177566 0.08915344 0.10830506 0.12406463 0.055338457
0.13598527 0.09894575 0.11068007 0.00357632 -0.15722722 0.049202804 -0.15998016 0.04064004
0.065393746 0.084281385 -0.066649966 0.033577736 -0.16897008 -0.034864757 -0.060766123 0.060087603
-0.07943669 0.042301282 -0.014228324 0.09574796 0.032107536 -0.086225145 0.039555024 0.12925819
-0.12026088 -0.12544125 -0.04286437 0.036341272 0.079971366 -0.022238713 -0.13829963 -0.12872097
0.09707935 -0.048355643 0.055619203 -0.017742617 -0.005334803 -0.1508824 -0.0049354997 -0.01292707
0.10775676 -0.08988669 0.05795594 -0.14005357 0.044472665 -0.12822056 -0.021478295 0.012708428
-0.13176492 0.09113047 -0.032154102 0.039841615 -0.0767176 0.0932178 0.018488156 0.048000067
-0.09930413 -0.14691249 0.08043137 -0.07530414 -0.46722627 0.1842337 -0.013131388 0.17155547
0.14288552 -0.09100315 -0.015185866 0.21088162 -0.25630963 0.08023851 -0.26025146 0.121935934
0.28357223 -0.03822884 -0.004896112 -0.25328943 0.16320948 0.05757197 0.10046402 0.1536819
0.34848505 -0.07314976 -0.79789287 0.13201247 0.08227442 -0.51441723 0.43310612 -0.17153695
0.19336751 -0.3612715 -0.033349376 0.06731476 0.23205611 0.14296477 -0.059952464 -0.11930676
-0.47562826 0.1290077 -0.9999085 0.17785022 0.011239422 -0.323082 -0.030445853 0.08188777
0.090308145 -0.426477 0.080258146 -0.8097495 0.20912609 0.17690875 0.027968327 -0.11324435
-0.05367382 -0.15165916 0.044149656 0.09890816 -0.06565525 0.041215036 0.22694844 0.14147812
-0.1338326 -0.124357104 -0.13653028 -0.12561522 -0.11700855 -0.11570911 0.020706961 0.07747217
0.1754784 0.29637656 0.10063269 -0.06063188 -0.12376835 -0.14666557 -0.09973597 0.19128591
0.1419904 -0.013961273 0.14607665 0.23700254 -0.04317973 0.28861892 0.095128946 -0.4532571
0.12195514 -0.51096374 -0.27987742 -0.5257529 0.016552588 -0.15724106 -0.7152373 0.006680826
0.2851183 -0.11355782 0.27692917 -0.20952389 0.24446745 0.3217893 0.13820562 -0.0059601977
-0.34579882 -0.04049257 0.08778555 0.14298569 -0.055661853 -0.11531173 -0.46152216 0.11281196
0.32683042 0.19619517 -0.012131713 0.12149027 -0.14015433 -0.15185866 0.16948049 -0.047638554
-0.33026493 0.044493407 0.040024474 0.13082626 0.19812708 0.28905416 -0.35169277 0.0013047294
00000000: 097e 923d 4d98 67bc 8e9e 92bd 79b6 a23d
00000010: b72a cf3d 9ead 25be d02a 47bd a859 023e
00000020: 0587 983d d8c2 063d fc6b 2b3d 94dc a7bd
00000030: daaa ef3d 5d01 eb3a 5ebd 643d 4fdb 4cbd
00000040: 4c43 b8bd b23f a93d d2fd 20be 567e ccbd
00000050: 7ea0 d83d 75eb 87bd 16a4 8e3c d9c6 193d
00000060: cecf c3bd f87b bd3d 26f4 09be 7d54 24bd
00000070: c661 3fbb e558 29be 4d6a ddbc cfd0 cabd
00000080: a0f6 10be d80d e9bd 534b 11bd 4cab 8bbd
00000090: d573 cf3c b98c 40bd 672b 94bd 97c4 f9bd
000000a0: 99c7 99bc 2310 0b3d 0bc5 1cbe ec09 15bd
000000b0: 70f9 4b3c d52b 0ebd b988 39bd a725 abbd
000000c0: 000c a5bd 35c0 27be 0b79 eb3c 1bdb 66bb
000000d0: 19e1 23be 1c84 f1bd 8f4e 1b3d fde6 a63c
000000e0: fbb0 1cbe 12b1 043e d613 26be df86 1dbe
000000f0: 9ed8 773d fc32 603d 9767 48bd eb85 21bc
00000100: 5f34 1b3d d5bc 08be b9bf 2ebe 04af b83d
00000110: 1496 b63d 0bcf dd3d 9915 fe3d 94aa 623d
00000120: b93f 0b3e 12a4 ca3d 3cac e23d b160 6a3b
00000130: 2c00 21be e188 493d d7d1 23be 2c76 263d
00000140: 28ed 853d b89b ac3d c77f 88bd cf88 093d
00000150: 7e06 2dbe 59ce 0ebd e6e5 78bd 6b1e 763d
00000160: b4af a2bd 1c44 2d3d eb1d 69bc 8217 c43d
00000170: 3183 033d cf96 b0bd 7304 223d 425c 043e
00000180: 564b f6bd ac73 00be 8d92 2fbd 96da 143d
00000190: 07c8 a33d f62d b6bc 6b9e 0dbe 6ecf 03be
000001a0: 8ad1 c63d 9110 46bd f6d0 633d f758 91bc
000001b0: 92cf aebb ea80 1abe f9b9 a1bb 10cc 53bc
000001c0: 94af dc3d 8316 b8bd 3563 6d3d 346a 0fbe
000001d0: f828 363d 404c 03be 40f3 afbc 0337 503c
000001e0: 62ed 06be 9da2 ba3d 05b4 03bd f630 233d
000001f0: 1e1e 9dbd f9e8 be3d 7974 973c b89b 443d
00000200: f75f cbbd 3a70 16be 34b9 a43d 0f39 9abd
00000210: 4838 efbe c2a7 3c3e 0925 57bc 3dac 2f3e
00000220: 9550 123e dc5f babd 23ce 78bc 5af1 573e
00000230: 043b 83be 1754 a43d ae3f 85be 8cb9 f93d
00000240: 6130 913e d895 1cbd 906f a0bb 27af 81be
00000250: 6320 273e 96d0 6b3d 15c0 cd3d ca5e 1d3e
00000260: a26c b23e 8bcf 95bd b542 4cbf 472e 073e
00000270: 7e7f a83d d9b0 03bf 16c0 dd3e 62a7 2fbe
00000280: 2202 463e 94f8 b8be 5b99 08bd 52dc 893d
00000290: 1ea0 6d3e 5b65 123e b790 75bd 1a57 f4bd
000002a0: 8c85 f3be 981a 043e 01fa 7fbf 5e1e 363e
000002b0: 8d25 383c 016b a5be 9569 f9bc c6b4 a73d
000002c0: 7af3 b83d 315b dabe 625e a43d be4b 4fbf
000002d0: 2625 563e 9127 353e d51d e53c a7ec e7bd
000002e0: 14d9 5bbd 8a4c 1bbe 45d6 343d 5d90 ca3d
000002f0: 4276 86bd 19d1 283d 2c65 683e a4df 103e
00000300: 6a0b 09be f0ae febd 98ce 0bbe 47a1 00be
00000310: 2ea2 efbd e6f8 ecbd a5a1 a93c bba9 9e3d
00000320: 9cb0 333e abbe 973e 8318 ce3d 2259 78bd
00000330: 437a fdbd 802f 16be 5f42 ccbd 74e0 433e
00000340: ee65 113e d3bd 64bc 1e95 153e cbb0 723e
00000350: 3bdd 30bd dcc5 933e f7d2 c23d 5111 e8be
00000360: 9ec3 f93d 85ce 02bf 184c 8fbe be97 06bf
00000370: 4b99 873c cd03 21be cb19 37bf d5ea da3b
00000380: 07fb 913e 0191 e8bd a9c9 8d3e 6e8d 56be
00000390: ad55 7a3e 91c1 a43e c685 0d3e c34d c3bb
000003a0: 8b0c b1be 89db 25bd e9c8 b33d d76a 123e
000003b0: affd 63bd 8e28 ecbd a24c ecbe f509 e73d
000003c0: 5156 a73e 63e7 483e 18c4 46bc e4cf f83d
000003d0: 9e84 0fbe d680 1bbe 4b8c 2d3e a520 43bd
000003e0: 7c18 a9be b83e 363d b4f0 233d 52f7 053e
000003f0: d3e1 4a3e e8fe 933e 1311 b4be 7403 ab3a

actor.2.bias f4 [128]
-0.022005847 -0.056314856 -0.067621395 -0.06820478 0.03990173 0.10323767 0.15669863 0.178175
-0.041793764 -0.11147666 0.22257526 -0.10385217 -0.021938568 0.14705466 -0.11710173 0.039660595
0.11034686 0.057313737 -0.18810031 0.10115843 0.025308955 -0.08274431 -0.031441145 0.0429191
-0.047575306 0.018105032 -0.05973131 -0.047261484 -0.022116875 -0.06480332 -0.026247403 -0.023083365
0.09750734 0.34848264 -0.03905261 -0.051870804 -0.21968463 0.0017359777 0.15048969 0.06740936
0.098450735 0.07674824 0.17445874 0.030872393 0.004952847 -0.044946276 -0.12115194 0.051956404
0.027735338 -0.060574736 0.21456282 -0.25247428 0.04416285 -0.0391071 0.058992494 0.05174394
0.08822409 0.078195535 0.018888991 -0.0049092635 -0.003856135 -0.08908061 -0.022196805 0.10521371
0.08871552 -0.13491826 -0.087745726 0.10411999 -0.10905942 0.10152901 0.18182321 0.29057658
-0.045261383 0.06234643 0.09695988 0.11327126 -0.017327186 -0.015745291 -0.024522185 0.09085852
0.0022125859 -0.14061561 -0.011927644 -0.037500843 -0.02315996 0.008976253 -0.088057525 0.18339092
0.16345838 -0.088132456 0.07508947 0.097678676 0.1348915 0.1648155 -0.057165675 0.08002251
0.26814446 0.107707694 -0.01263002 -0.015882406 -0.024899872 0.25010774 -0.046865426 -0.0342311
0.12199061 -0.048832837 -0.027445313 -0.08738538 0.1048654 -0.008757468 -0.10061444 0.006175684
-0.02776554 0.02965951 -0.047476765 0.10900282 -0.05118744 0.064792655 0.10386954 -0.30574185
0.20293026 -0.046320107 -0.049671914 -0.119283125 -0.010574272 0.176269 0.39021498 -0.062217094
00000000: 9b45 b4bc 68aa 66bd 167d 8abd f3ae 8bbd
00000010: ff6f 233d 466e d33d 9b75 203e 8273 363e
00000020: f02f 2bbd e04d e4bd c5ea 633e 72b0 d4bd
00000030: 83b8 b3bc 7f95 163e 08d3 efbd 2673 223d
00000040: 89fd e13d cfc1 6a3d 5e9d 40be 272c cf3d
00000050: ba54 cf3c d975 a9bd 6ec8 00bd f0cb 2f3d
00000060: 53de 42bd 0151 943c d1a8 74bd 4295 41bd
00000070: 732e b5bc 9ab7 84bd cb04 d7bc 5319 bdbc
00000080: eeb1 c73d 516c b23e a1f5 1fbd 7b76 54bd
00000090: 02f5 60be bf89 e33a f819 1a3e eb0d 8a3d
000000a0: 8aa0 c93d 2e2e 9d3d 50a5 323e 1ae8 fc3c
000000b0: 7e4b a23b 9619 38bd 821e f8bd 3dd0 543d
000000c0: 3835 e33c 371d 78bd 5bb6 5b3e 4f44 81be
000000d0: 1be4 343d c42e 20bd 1da2 713d 74f1 533d
000000e0: d5ae b43d fb24 a03d 16bd 9a3c e3dd a0bb
000000f0: 36b7 7cbb e56f b6bd 13d6 b5bc 497a d73d
00000100: 7cb0 b53d 0328 0abe 08b4 b3bd dc3c d53d
00000110: 8c5a dfbd 71ee cf3d dd2f 3a3e 74c6 943e
00000120: 0064 39bd f85e 7f3d e792 c63d c3fa e73d
00000130: bef1 8dbc 45fc 80bc c0e2 c8bc 0814 ba3d
00000140: 0801 113b 8afd 0fbe 2a6c 43bc 7c9a 19bd
00000150: f5b9 bdbc 2211 133c 8157 b4bd d4ca 3b3e
00000160: a261 273e ca7e b4bd 82c8 993d c20b c83d
00000170: ff20 0a3e 65c5 283e 8e26 6abd d7e2 a33d
00000180: 3b4a 893e da95 dc3d 25ee 4ebc d21b 82bc
00000190: d1fa cbbc 1f0e 803e f6f5 3fbd e935 0cbd
000001a0: 37d6 f93d f104 48bd fed4 e0bc 1bf7 b2bd
000001b0: acc3 d63d 7c7b 0fbc f20e cebd 645d ca3b
000001c0: 8f74 e3bc 80f8 f23c ff76 42bd df3c df3d
000001d0: eca9 51bd 03b2 843d 8eb9 d43d 328a 9cbe
000001e0: f3cc 4f3e 27ba 3dbd c774 4bbd b64a f4bd
000001f0: b63f 2dbc dc7f 343e 42ca c73e 5ad7 7ebd

actor.4.weight f4 [1, 128]
0.14257522 0.21445704 -0.018476384 -0.018042993 -0.27727696 -0.42669743 -0.1660392 -2.4050696
-0.01369933 0.071208574 -0.5333215 0.005657403 0.087770656 0.5814039 0.82457703 0.501416
-0.16773729 5.7404933 -0.116240576 -0.1144185 0.6248709 -0.0031867095 0.005099827 0.2723166
0.034643114 -0.019453516 -0.027585443 -3.952991e-06 -0.48731294 7.281815e-05 0.038103517 0.1843437
-0.7328974 -0.14173628 -0.037141696 0.3931332 0.4689789 0.27584347 -0.35697764 0.43157887
0.4979032 -1.1245887 1.0377446 0.3572857 -0.5475207 -0.5245844 -0.0159389 -2.415056
-0.5578136 -0.013239612 0.13091789 0.8017532 -0.5509238 0.13805714 0.4759811 0.8553207
-0.19247578 -0.3177716 -0.36848697 0.051595446 0.06454054 0.025803633 -0.01208745 -0.4069821
-0.2058016 2.8932772 0.014966709 -0.33901998 0.5078921 -0.4066104 -0.54316515 0.50717133
0.39405313 -0.55564255 0.2541251 -0.4050759 0.09472881 -0.0032144543 0.059250735 -0.5267959
-0.03139344 0.6886889 0.10861241 0.15989661 0.05300141 -0.6300533 0.029981028 -0.17577606
-0.11288076 0.03070962 -3.1893203 0.18957588 -0.6569902 -0.21633263 0.019699432 0.11381207
-0.31305698 -0.1527533 -0.568395 -0.41204333 -0.14385149 -0.30189478 0.02755214 0.3895088
-0.3991726 0.021178624 0.035605468 0.017597917 -2.2931883 -0.27469754 0.4020216 1.9434761
0.08678594 0.57577986 0.30562234 -0.594142 -0.3171085 -0.21413942 -0.45687208 0.12866268
0.5137906 0.004459817 0.07882714 0.016823232 0.00023674073 -2.422919 0.8034616 0.016579617
00000000: 3dff 113e a09a 5b3e c95b 97bc e6ce 93bc
00000010: 3ff7 8dbe 1678 dabe 2e06 2abe a9ec 19c0
00000020: 2873 60bc cdd5 913d c287 08bf bc61 b93b
00000030: 1ac1 b33d e3d6 143f 7b17 533f cd5c 003f
00000040: 53c3 2bbe 1fb2 b740 8a0f eebd 3f54 eabd
00000050: 8af7 1f3f 1dd8 50bb 731c a73b 156d 8b3e
00000060: f0e5 0d3d fb5c 9fbc defa e1bc efa3 84b6
00000070: 1581 f9be f2b5 9838 6f12 1c3d 98c4 3c3e
00000080: 2a9f 3bbf 5123 11be e421 18bd c148 c93e
00000090: 011e f03e 5b3b 8d3e c6c5 b6be e8f7 dc3e
000000a0: 2bed fe3e 86f2 8fbf d1d4 843f 27ee b63e
000000b0: 512a 0cbf 2a4b 06bf 4c92 82bc 4790 1ac0
000000c0: dfcc 0ebf f5ea 58bc 570f 063e b33f 4d3f
000000d0: 5809 0dbf da5e 0d3e cbb3 f33e 4cf6 5a3f
000000e0: 5f18 45be f6b2 a2be 53aa bcbe bf55 533d
000000f0: d52d 843d 2462 d33c 710a 46bc f55f d0be
00000100: a8bd 52be 742b 3940 ed36 753c 0794 adbe
00000110: 3705 023f 3d2f d0be df0c 0bbf fbd5 013f
00000120: 55c1 c93e 973e 0ebf af1c 823e 1c66 cfbe
00000130: 2e01 c23d 98a9 52bb e6b0 723d 19dc 06bf
00000140: 6896 00bd ea4d 303f 2f70 de3d f0bb 233e
00000150: 0218 593d 2c4b 21bf c69a f53c a4fe 33be
00000160: 072e e7bd be92 fb3c d31d 4cc0 2e20 423e
00000170: 8230 28bf 4d86 5dbe b460 a13c 4d16 e93d
00000180: 0149 a0be 5c6b 1cbe 5682 11bf 58f7 d2be
00000190: ce4d 13be f491 9abe 07b5 e13c b36d c73e
000001a0: 5a60 ccbe cb7e ad3c 0ad7 113d 8229 903c
000001b0: 99c3 12c0 28a5 8cbe c6d5 cd3e d3c3 f83f
000001c0: d4bc b13d 4f66 133f 887a 9c3e b119 18bf
000001d0: 0c5c a2be 5d47 5bbe 23eb e9be 26c0 033e
000001e0: c887 033f a823 923b 2070 a13d e0d0 893c
000001f0: 9b3d 7839 1b11 1bc0 a9af 4d3f fad1 873c

q1.0.weight f4 [128, 4]
-0.30152738 0.49628112 -0.32942823 -0.15582184 -0.21507272 0.52531075 -0.040516023 0.000986311
-0.6786585 0.4486763 0.22188155 0.03940568 -0.5819279 0.60454196 -0.065143086 -0.17677014
-0.46117258 -0.20841552 -0.16034248 -0.021354474 -0.35885444 0.40360132 -0.11696565 0.048538916
-0.7300842 -0.559058 -0.18491581 -0.06951937 -0.48471424 0.24218157 0.17505549 0.04888993
-0.13655016 -0.8241938 0.33953866 -0.036309786 0.33153096 -0.4584958 0.4311733 -0.0553922
-0.48373127 -1.1044137 -0.27299073 -0.07917939 1.4498911 -0.6871096 -0.099706516 0.0073880088
0.20000497 0.16926722 -0.4123423 -0.13606112 -0.38187662 0.0018721513 0.41459078 0.06904213
0.21140774 1.1464696 0.26938146 0.09158502 -0.18347943 0.5454955 -0.044982847 0.032990877
-0.5868818 0.44627714 -0.11908721 0.01342924 0.19021326 1.0205413 0.24897891 0.0828876
0.4973808 -1.009786 -0.26677242 -0.08253092 -0.7622491 1.1496668 0.19362137 0.06344555
-0.106403925 1.0830474 0.16513377 0.038024604 -0.576222 -0.62322843 -0.1803251 0.0739599
-0.4826187 -0.20340683 -0.20114483 -0.064279005 -0.17829138 1.5056807 0.32734537 0.10888814
-0.81293607 -0.43040314 -0.19423607 -0.05873273 -0.47309366 0.16506498 -0.1969143 -0.030189697
-0.22849168 -0.15866773 0.10973119 0.093713075 -0.44963282 -0.973802 -0.23389147 -0.062124737
1.3177382 -0.110846445 0.10343763 -0.027193265 -0.10364652 1.143688 0.48668328 0.13761681
1.0256934 -0.6457072 0.36459997 0.11290815 -0.2846707 0.49652436 -0.0963039 -0.09716502
-0.63205135 0.35253435 0.17229202 0.0915064 -0.2086569 -0.05536554 0.05949038 0.072780296
1.0746574 -1.2645137 -0.16859132 -0.0010050563 0.4291015 -1.24786 -0.29689544 -0.10548944
0.37482515 0.22553146 0.18871543 -0.37563244 -0.7078095 -0.5160436 -0.23389913 -0.04736034
0.25996223 -1.3590844 -0.16338333 -0.28609598 -0.7718425 0.73107874 0.28456262 0.10571136
1.6319565 0.02332254 -0.115580976 -0.02887862 -0.77124983 0.47177744 0.25149205 0.07183608
-0.087595955 0.3615321 -0.047471616 0.021747913 -0.6169287 -0.65120536 -0.21839046 -0.05537635
0.71568686 -0.74508876 -0.2590238 -0.07916946 -0.35674435 0.33981547 -0.10127674 -0.049396925
-0.6575612 0.57305986 -0.104153425 0.06463431 0.38962078 -1.2513939 -0.2907258 -0.08740408
-0.54945874 1.144287 0.29945037 0.09045124 -0.30386457 -0.9508128 0.01714082 0.27437368
-0.7331362 0.5896115 0.18123926 0.038076118 1.2194481 -0.051284906 0.14296943 -0.021535777
-0.2907275 -0.6832802 -0.031009454 -0.06278834 -0.5709214 0.33411542 0.19792056 0.052419197
-0.704429 -0.3441884 -0.15908825 -0.047336202 0.6378171 0.5761506 0.21986324 0.055150986
1.5082296 -0.5444074 -0.24793023 -0.1005118 0.49615026 1.0791866 0.19153638 0.1288619
-0.48828906 0.62184024 0.19651207 0.06624919 -0.37796304 1.0226685 0.14349754 0.11675261
-0.66922355 1.0052423 0.29517046 0.09372956 -0.6445512 -1.0759703 -0.29002497 -0.056482624
0.10926954 0.4347666 -0.39200637 0.025750855 -0.52218455 0.55912143 -0.104110666 -0.054613646
00000000: cc61 9abe 8f18 fe3e d1aa a8be c38f 1fbe
00000010: 063c 5cbe c47a 063f 21f4 25bd 1b47 813a
00000020: 90bc 2dbf e6b8 e53e eb34 633e da67 213d
00000030: 3af9 14bf 43c3 1a3f bd69 85bd 3b03 35be
00000040: d01e ecbe e16a 55be d230 24be 94ef aebc
00000050: c5bb b7be d5a4 ce3e b08b efbd bed0 463d
00000060: cce6 3abf 6d1e 0fbf 925a 3dbe 2c60 8ebd
00000070: 772c f8be 72fe 773e bf41 333e cf40 483d
00000080: ced3 0bbe 5dfe 52bf 03d8 ad3e 92b9 14bd
00000090: 6dbe a93e f6bf eabe bfc2 dc3e eee2 62bd
000000a0: a0ab f7be 6e5d 8dbf 71c5 8bbe ce28 a2bd
000000b0: 0896 b93f 6ae6 2fbf ee32 ccbd 1c17 f23b
000000c0: 1ace 4c3e 6354 2d3e 881e d3be 9b53 0bbe
000000d0: 5585 c3be f962 f53a 3e45 d43e f665 8d3d
000000e0: 457b 583e 84bf 923f 5eec 893e ed90 bb3d
000000f0: 08e2 3bbe 98a5 0b3f ef3f 38bd 7121 073d
00000100: e33d 16bf 707e e43e ffe3 f3bd 5106 5c3c
00000110: 44c7 423e 19a1 823f 54f4 7e3e f9c0 a93d
00000120: b2a8 fe3e ab40 81bf 6596 88be f905 a9bd
00000130: c222 43bf 4828 933f ae44 463e beef 813d
00000140: 4dea d9bd 4ca1 8a3f d418 293e b0bf 1b3d
00000150: 4983 13bf e68b 1fbf 25a7 38be 4a78 973d
00000160: cc19 f7be e149 50be e9f8 4dbe b6a4 83bd
00000170: 0492 36be 25ba c03f d099 a73e bf00 df3d
00000180: 941c 50bf cd5d dcbe d2e5 46be bb91 70bd
00000190: 5539 f2be cb06 293e e7a3 49be 6250 f7bc
000001a0: b9f9 69be cb79 22be bfba e03d a4ec bf3d
000001b0: 4636 e6be 164b 79bf 3f81 6fbe 8276 7ebd
000001c0: a5ab a83f 7603 e3bd 1cd7 d33d 69c4 debc
000001d0: a044 d4bd 5e64 923f 8d2e f93e 6ceb 0c3e
000001e0: ec49 833f 114d 25bf d9ac ba3e 633c e73d
000001f0: 5cc0 91be 7138 fe3e fb3a c5bd 74fe c6bd
00000200: 1ece 21bf 627f b43e 526d 303e b567 bb3d
00000210: 28aa 55be fac6 62bd 2fac 733d d60d 953d
00000220: 608e 893f 96db a1bf 34a3 2cbe 18bc 83ba
00000230: 31b3 db3e e0b9 9fbf ae02 98be d90a d8bd
00000240: 15e9 bf3e b8f1 663e 9e3e 413e e552 c0be
00000250: 0133 35bf 6f1b 04bf 4183 6fbe eafc 41bd
00000260: c519 853e 7af6 adbf f64d 27be 2c7b 92be
00000270: 7897 45bf fa27 3b3f 31b2 913e 337f d83d
00000280: f3e3 d03f e90e bf3c b8b5 ecbd db92 ecbc
00000290: a170 45bf d08c f13e 91c3 803e cb1e 933d
000002a0: 8265 b3bd bc1a b93e 9971 42bd ae28 b23c
000002b0: 0aef 1dbf 65b5 26bf c0a1 5fbe 50d2 62bd
000002c0: 4137 373f 23be 3ebf c49e 84be 9923 a2bd
000002d0: 32a7 b6be 4bfc ad3e 2e6a cfbd 6e54 4abd
000002e0: ee55 28bf 0db4 123f 644e d5bd fe5e 843d
000002f0: 607c c73e ad2d a0bf 03da 94be e900 b3bd
00000300: 54a9 0cbf ff77 923f 8f51 993e 803e b93d
00000310: 2394 9bbe 7868 73bf e86a 8c3c b57a 8c3e
00000320: d0ae 3bbf c7f0 163f c996 393e b4f5 1b3d
00000330: e016 9c3f 1f10 52bd 9466 123e cc6b b0bc
00000340: 3cda 94be 74eb 2ebf 8a07 febc 2c97 80bd
00000350: e827 12bf 2d11 ab3e b0ab 4a3e 83b5 563d
00000360: 7555 34bf 7639 b0be 08e8 22be 9be3 41bd
00000370: fb47 233f 9b7e 133f d423 613e 00e6 613d
00000380: ab0d c13f 495e 0bbf 6ce1 7dbe 21d9 cdbd
00000390: 6807 fe3e c922 8a3f 1d22 443e 60f4 033e
000003a0: 0601 fabe ec30 1f3f 763a 493e a8ad 873d
000003b0: 5f84 c1be cde6 823f 05f1 123e fe1b ef3d
000003c0: 3c52 2bbf c8ab 803f 9520 973e 49f5 bf3d
000003d0: 4f01 25bf 65b9 89bf 277e 94be 535a 67bd
000003e0: b5c8 df3d ba99 de3e 0fb5 c8be 75f3 d23c
000003f0: e3ad 05bf 9522 0f3f f937 d5bd 8fb2 5fbd

q1.0.bias f4 [128]
-0.49443036 0.37759247 0.4980087 0.45638013 0.50847644 0.5359312 0.5426697 0.5303763
-0.45859206 0.07508216 0.13660336 0.07187864 -0.014252628 -0.55476326 0.109680854 0.32216612
0.381123 0.094723485 -0.17155534 0.154353 0.053837266 0.043966535 0.72226346 -0.28970778
0.36904904 0.35706738 0.5516579 0.13788177 0.22105023 -0.17874384 -0.052982256 0.49626783
0.34774926 0.42529863 -0.33084297 -0.03821804 -0.029141933 0.5315617 0.013442987 0.5450468
0.58569294 0.6052137 0.42478186 0.3963326 -0.46766737 0.5782433 0.14138892 0.016647996
0.1601675 0.27717063 0.49409008 0.33079147 0.5450664 0.5497252 0.28998873 -0.45596138
-0.07017519 -0.25312665 0.2595993 0.082603894 0.32296562 0.27854833 0.30282235 -0.72060037
-0.3869414 0.16921628 0.34213206 -0.27472284 -0.3919801 0.13409942 0.36589175 -0.12262587
-0.6575638 0.42977616 0.36868778 0.2337216 0.24103177 -0.19705388 0.19779834 0.5148388
0.6329583 0.54516315 0.35326907 0.5354497 0.48824963 0.5410598 -0.676301 0.44997138
-0.2294201 0.3224872 0.0655548 0.41996515 -0.17830664 0.015962657 0.100569874 -0.36016804
-0.47612736 0.15908742 0.054672644 0.63791746 0.011066105 0.44704705 0.58148867 0.5157099
-0.057824936 -0.1956401 -0.5056709 -0.22764775 0.57842374 0.554418 0.27589378 0.3159297
-0.32528052 0.014060003 0.29736024 0.39749622 0.2376295 0.06153945 0.35387024 0.5357277
-0.012726217 -0.071518324 0.16488418 0.5175399 0.6165937 -0.35155055 0.37548476 0.1537466
00000000: fa25 fdbe cd53 c13e fffa fe3e a8aa e93e
00000010: 832b 023f ca32 093f 67ec 0a3f bec6 073f
00000020: 94cc eabe adc4 993d c0e1 0b3e 1c35 933d
00000030: db83 69bc f704 0ebf 5ba0 e03d f5f2 a43e
00000040: 8e22 c33e 63fe c13d 34ac 2fbe b60e 1e3e
00000050: 7784 5c3d 4116 343d 42e6 383f 9454 94be
00000060: fff3 bc3e 89d1 b63e 7439 0d3f e130 0d3e
00000070: fe5a 623e a008 37be ec03 59bd d116 fe3e
00000080: 310c b23e bec0 d93e 4064 a9be 858a 1cbd
00000090: 10bb eebc 6d14 083f f93f 5c3c 3088 0b3f
000000a0: f9ef 153f 49ef 1a3f 027d d93e 1bec ca3e
000000b0: 1972 efbe c107 143f 42c8 103e 6161 883c
000000c0: f302 243e 4fe9 8d3e 60f9 fc3e 805d a93e
000000d0: 7989 0b3f caba 0c3f 6779 943e c573 e9be
000000e0: 03b8 8fbd d199 81be 33ea 843e 3b2c a93d
000000f0: c05b a53e e39d 8e3e 880b 9b3e 4479 38bf
00000100: 2f1d c6be 0847 2d3e ef2b af3e 79a8 8cbe
00000110: 9eb1 c8be 5c51 093e 2a56 bb3e 4623 fbbd
00000120: 1a56 28bf 9f0b dc3e a5c4 bc3e b754 6f3e
00000130: 08d1 763e 7ec8 49be a68b 4a3e 7acc 033f
00000140: 8e09 223f d08f 0b3f afdf b43e 3b13 093f
00000150: dbfb f93e e582 0a3f 1022 2dbf a662 e63e
00000160: 1aed 6abe 0b1d a53e 9841 863d ac05 d73e
00000170: 0496 36be 1ec4 823c 94f7 cd3d f267 b8be
00000180: f7c6 f3be d0e7 223e 6cf0 5f3d 8f4e 233f
00000190: 9c4e 353c 5ae3 e43e 71dc 143f 9005 043f
000001a0: d7d9 6cbd e155 48be a673 01bf 7e1c 69be
000001b0: 9413 143f 57ee 0d3f f341 8d3e 8ac1 a13e
000001c0: 2b8b a6be ed5b 663c 9a3f 983e a084 cb3e
000001d0: 2655 733e ca10 7c3d 7b2e b53e 7325 093f
000001e0: 9f81 50bc 3378 92bd 66d7 283e 7f7d 043f
000001f0: 16d9 1d3f 6ffe b3be 8a3f c03e c06f 1d3e

q1.2.weight f4 [128, 128]
-0.084346645 0.50166094 0.27874252 0.36509287 0.38250178 0.42729154 0.08001365 0.2615882
-0.5219011 -0.07649549 0.0897887 -0.04346977 -0.2411014 -0.0007044081 0.0744511 0.2485965
0.50440633 -0.10503631 -0.4516234 -0.06080349 0.12584436 0.10755246 0.26412916 0.095324315
0.20686905 0.43952286 0.26283893 0.0024693292 0.21362045 -0.17832184 -0.1525576 0.4305648
0.023920327 0.11208439 -1.128823 -0.40998957 -0.0024628686 0.42058375 -1.094143 0.13254783
0.39483795 -0.022353118 0.29796284 -0.078300886 -0.86584425 0.33858538 0.45542738 -0.58486056
0.060638916 0.0723828 0.22179481 0.26998496 -0.14829911 0.14620498 0.24517225 -0.2187971
-0.025478488 0.046624877 0.036335394 0.15736991 0.061419267 -0.08862175 -0.22887665 0.033576705
-0.56717145 -0.04313224 0.27586016 -0.06786794 -0.23332314 0.13288447 -0.37909237 -0.26147237
-0.3347563 0.31345272 0.06910984 0.36131632 0.4421902 0.023181148 0.4398266 0.38971788
0.19737999 0.14749889 0.098494336 0.3131294 0.14171597 -0.022126993 -0.20333792 0.29360184
-0.16576236 0.57707465 -0.3267685 0.37249523 -0.04433337 0.2434669 -0.5227125 -0.12889661
-0.73893416 0.067865 0.051713344 0.3200267 0.5843222 -0.022135781 0.179484 0.24321389
0.2479383 0.3108803 -0.3672368 -0.16521302 0.13363211 0.2641154 0.29822665 0.18117838
0.012673187 0.05136651 0.41655782 0.024367226 0.6444456 0.13342316 -0.37676093 0.21199717
-0.455614 0.010848039 0.13148692 0.2565432 0.2234219 0.02923554 0.282953 0.13176402
0.09487157 -0.024865229 -0.008910218 -0.1231886 -0.028121434 0.022533761 -0.08415974 0.05473815
-0.14566523 0.12036445 -0.116700575 0.008698344 -0.16191232 -0.12676841 0.034598473 -0.16788955
-0.0343994 -0.040639848 0.005983669 -0.09410372 -0.03905154 -0.11311359 0.07790088 0.08581662
-0.06907763 0.106681794 -0.16279727 0.09537184 -0.13350621 -0.039262287 0.03759725 0.059217907
-0.010660656 0.0767077 -0.010823148 -0.05935425 -0.007840388 -0.08754812 -0.087548606 0.06128413
-0.15807682 0.08147587 -0.13330477 0.13138986 -0.029703194 0.10356901 -0.027928695 -0.020122617
-0.07442067 0.020409437 -0.15690933 0.014684204 -0.01816435 -0.049127 0.122101046 -0.07295883
-0.12590915 0.0025225056 -0.15571648 0.0863958 0.08829354 -0.12203076 0.0011405374 0.019255625
-0.053526387 -0.05663659 -0.1146422 -0.048754167 0.12366868 0.013032028 -0.05345435 -0.05518733
0.040025845 0.12504306 0.1299127 -0.1095367 -0.11329053 0.03901075 0.072899446 0.06087833
-0.113186575 -0.102999896 -0.10857807 -0.110516936 0.12788843 -0.008411587 0.08106793 -0.027121
0.0304405 -0.004234549 0.045462072 0.007147451 -0.018948242 -0.02673455 0.03237719 -0.1531352
0.030628951 -0.15144165 -0.041160394 -0.096743554 -0.056842867 -0.093372025 -0.020367388 0.13152276
0.09374206 0.016034082 -0.11307666 0.13703954 0.05280394 -0.08738502 -0.15971974 0.11713876
-0.14501695 -0.10402414 0.046188593 0.023107862 0.046504904 -0.07514091 -0.04192698 0.10029526
-0.053109154 -0.08653561 0.015249693 0.13378876 0.13217139 0.020281116 -0.1319626 -0.01822672
00000000: efbd acbd da6c 003f 57b7 8e3e 74ed ba3e
00000010: 46d7 c33e f5c5 da3e 32de a33d e3ee 853e
00000020: 4f9b 05bf aba9 9cbd 23e3 b73d 5c0d 32bd
00000030: 49e3 76be 07a8 38ba d179 983d 1590 7e3e
00000040: c620 013f 471d d7bd 2f3b e7be 150d 79bd
00000050: 58dd 003e 7744 dc3d f03b 873e 6539 c33d
00000060: 7bd5 533e 2409 e13e d392 863e 78d4 213b
00000070: 52bf 5a3e 009a 36be 0f38 1cbe fd72 dc3e
00000080: 90f4 c33c 808c e53d 467d 90bf 27ea d1be
00000090: 1468 21bb c156 d73e e10c 8cbf 9eba 073e
000000a0: 3328 ca3e e31d b7bc 968e 983e 375c a0bd
000000b0: f8a7 5dbf 105b ad3e c72d e93e 6cb9 15bf
000000c0: 8360 783d 6f3d 943d 2e1e 633e 783b 8a3e
000000d0: b9db 17be c2b6 153e 6f0e 7b3e 590c 60be
000000e0: 43b8 d0bc baf9 3e3d 6cd4 143d 9425 213e
000000f0: c592 7b3d 527f b5bd a45e 6abe ba87 093d
00000100: 2632 11bf 6fab 30bd 8b3d 8d3e 59fe 8abd
00000110: 43ec 6ebe de12 083e 6518 c2be b5df 85be
00000120: 2e65 abbe e07c a03e 7689 8d3d 74fe b83e
00000130: c166 e23e 64e6 bd3c f430 e13e 1a89 c73e
00000140: fb1d 4a3e f309 173e 66b7 c93d 7f52 a03e
00000150: fe1d 113e ab43 b5bc d137 50be fb52 963e
00000160: 9cbd 29be 2abb 133f 334e a7be b2b7 be3e
00000170: e896 35bd 634f 793e 7dd0 05bf 79fd 03be
00000180: ca2a 3dbf cefc 8a3d 5fd1 533d 8ada a33e
00000190: 2496 153f 1956 b5bc a7ca 373e 100d 793e
000001a0: 8ae3 7d3e b42b 9f3e 7606 bcbe 9a2d 29be
000001b0: dbd6 083e 223a 873e 2ab1 983e d386 393e
000001c0: 33a3 4f3c b165 523d 1147 d53e c79d c73c
000001d0: 63fa 243f 15a0 083e cfe6 c0be c915 593e
000001e0: 3d46 e9be f9bb 313c 82a4 063e a159 833e
000001f0: b6c8 643e 5f7f ef3c 37df 903e 26ed 063e
00000200: 074c c23d 2ab2 cbbc 2afc 11bc 4e4a fcbd
00000210: ec5e e6bc b998 b83c f15b acbd 1c35 603d
00000220: 4429 15be a381 f63d b600 efbd 8083 0e3c
00000230: 58cc 25be 94cf 01be 21b7 0d3d 3deb 2bbe
00000240: 63e6 0cbd f875 26bd a712 c43b 73b9 c0bd
00000250: 82f4 1fbd 19a8 e7bd 7f8a 9f3d a0c0 af3d
00000260: 9378 8dbd fc7b da3d 54b4 26be 5052 c33d
00000270: dab5 08be 7ed1 20bd 93ff 193d 7a8e 723d
00000280: 08aa 2ebc ed18 9d3d 9353 31bc 711d 73bd
00000290: f974 00bc 6e4c b3bd af4c b3bd 1105 7b3d
000002a0: e4de 21be d2dc a63d 0c81 08be 108b 063e
000002b0: 1d54 f3bc fd1b d43d b8ca e4bc 30d8 a4bc
000002c0: dd69 98bd b131 a73c d7ac 20be 0496 703c
000002d0: 67cd 94bc 6539 49bd 1d10 fa3d 706b 95bd
000002e0: 54ee 00be 9f50 253b 2474 1fbe 48f0 b03d
000002f0: 3ed3 b43d 43eb f9bd 167e 953a f9bd 9d3c
00000300: 7c3e 5bbd c5fb 67bd 88c9 eabd 73b2 47bd
00000310: 0146 fd3d 4a84 553c f3f2 5abd 1c0c 62bd
00000320: 24f2 233d 4a0b 003e d607 053e c754 e0bd
00000330: de04 e8bd bcc9 1f3d 4e4c 953d 8e5b 793d
00000340: 5dce e7bd 9cf1 d2bd 2e5e debd b456 e2bd
00000350: 2ff5 023e c1d0 09bc f106 a63d dc2c debc
00000360: 5b5e f93c f9c1 8abb 7036 3a3d 2a35 ea3b
00000370: 5839 9bbc 6a02 dbbc f29d 043d 79cf 1cbe
00000380: 91e9 fa3c 8513 1bbe cd97 28bd 7c21 c6bd
00000390: 11d4 68bd d539 bfbd 82d9 a6bc e7ad 063e
000003a0: d6fb bf3d e859 833c bc94 e7bd 1854 0c3e
000003b0: f248 583d ebf6 b2bd 928d 23be 72e6 ef3d
000003c0: 537f 14be 9c0a d5bd 4030 3d3d b34c bd3c
000003d0: ed7b 3e3d 7ae3 99bd a0bb 2bbd 9a67 cd3d
000003e0: fc88 59bd 9539 b1bd d9d9 793c ecff 083e
000003f0: f057 073e 9524 a63c 3421 07be 3450 95bc

q1.2.bias f4 [128]
0.31939432 -0.01951485 0.14669195 0.39404464 -0.015174511 0.38492176 -0.031191073 0.38881186
0.33075324 0.38249373 0.40611947 -0.020308232 0.39138338 0.3673309 0.3671997 0.52690864
0.3868119 0.35988888 0.36404097 -0.14270055 0.38917744 -0.14949755 0.12221239 -0.04601437
0.40716085 0.35092303 -0.007606432 0.37106833 0.57280535 0.3398491 -0.026088625 -0.062631406
-0.03417016 -0.017822707 0.2574893 0.3595136 -0.013569622 0.37289652 0.36524752 -0.018527318
0.437849 -0.016967868 0.34864482 0.31780207 0.3789688 -0.020534612 -0.02522536 -0.23052965
0.48293108 0.40728414 0.388289 -0.01319286 0.40626436 0.4116619 -0.017443435 0.42209494
0.36178496 0.39136687 0.01912657 0.34661788 0.36031446 -0.092727885 0.4150475 -0.022956332
0.35380328 0.34059486 0.61270106 0.43965572 0.3556092 -0.014096731 0.25385922 -0.038524337
0.3590804 0.3710288 0.33448222 -0.027843276 0.4091599 -0.025323594 0.3578242 0.04675249
0.38172224 0.40693143 -0.020817 0.46690023 0.44010985 0.53436637 -0.03883917 0.36945638
-0.03098633 0.36266866 0.35118237 0.37130842 -0.014145225 -0.089266025 -0.017142786 -0.0137942275
-0.016181301 -0.11750429 0.37084123 -0.020866368 0.35667527 -0.008123681 0.39257863 0.37281343
-0.033190496 -0.017464483 0.12908137 0.40101293 -0.057444174 0.33529574 -0.01553534 0.4849734
0.1966952 0.39851388 -0.02427784 0.36209458 0.0553161 0.43319264 -0.040717784 -0.023211798
0.45136738 0.35093907 0.37222618 0.30348018 -0.021499943 0.34325495 0.12353822 0.3629805
00000000: a787 a33e 9bdd 9fbc 6a36 163e 38c0 c93e
00000010: 839e 78bc 7714 c53e 6c84 ffbc 5912 c73e
00000020: 7d58 a93e 38d6 c33e e4ee cf3e 735d a6bc
00000030: 6763 c83e cc12 bc3e 9901 bc3e 7ce3 063f
00000040: 360c c63e 5b43 b83e 9463 ba3e 1820 12be
00000050: 4442 c73e e315 19be 7d4a fa3d 9079 3cbd
00000060: 6377 d03e 2fac b33e 603f f9bb abfc bd3e
00000070: 5fa3 123f b400 ae3e d0b7 d5bc e544 80bd
00000080: 02f6 0bbd ed00 92bc a3d5 833e 2b12 b83e
00000090: 1f53 5ebc 4bec be3e b901 bb3e 9ac6 97bc
000000a0: be2d e03e 3300 8bbc 9381 b23e f4b6 a23e
000000b0: 3308 c23e 3438 a8bc 6aa5 cebc f70f 6cbe
000000c0: be42 f73e 8c87 d03e d1cd c63e de26 58bc
000000d0: e201 d03e 59c5 d23e 89e5 8ebc d41c d83e
000000e0: e13b b93e 3d61 c83e 53af 9c3c e677 b13e
000000f0: 237b b83e 1ee8 bdbd 1b81 d43e eb0e bcbc
00000100: b425 b53e 7362 ae3e fad9 1c3f 8e1a e13e
00000110: 6912 b63e faf5 66bc d6f9 813e b2cb 1dbd
00000120: 63d9 b73e 7df7 bd3e 4141 ab3e 9517 e4bc
00000130: 687d d13e 6d73 cfbc bc34 b73e 8a7f 3f3d
00000140: 1971 c33e 5159 d03e 6a88 aabc 8c0d ef3e
00000150: 1456 e13e 3ccc 083f d215 1fbd 6329 bd3e
00000160: 0bd7 fdbc b5af b93e 2dce b33e 231c be3e
00000170: 60c1 67bc 1bd1 b6bd 076f 8cbc 2f01 62bc
00000180: a68e 84bc 17a6 f0bd e7de bd3e f2ef aabc
00000190: 249e b63e 3019 05bc 1100 c93e 67e1 be3e
000001a0: c2f2 07bd ad11 8fbc e82d 043e 9151 cd3e
000001b0: 954a 6bbd e2ab ab3e f087 7ebc 6f4e f83e
000001c0: 776a 493e 030a cc3e 52e2 c6bc 7664 b93e
000001d0: 2393 623d 6dcb dd3e b1c7 26bd ab26 bebc
000001e0: a019 e73e 49ae b33e 6e94 be3e c161 9b3e
000001f0: a620 b0bc 1dbf af3e 9b01 fd3d 95d8 b93e

q1.4.weight f4 [1, 128]
-0.47496617 0.07805627 -0.64380336 -0.2291625 0.111822136 -0.30161738 0.76472086 2.8808253
-1.6083145 -0.28738022 -0.25943276 0.139874 -0.78175676 -0.2620866 -0.29390448 3.5568476
-0.15246518 -0.24436904 -0.23581943 0.7418798 -0.33997202 0.6331708 0.55117816 0.054483917
-0.34554958 -0.5967615 0.09293907 -0.3318004 3.0339265 -0.124652274 0.074929625 0.003312428
0.03908813 -0.0015765948 2.5523648 -0.26157483 0.039834205 -0.19376008 -0.1539313 0.16959609
-0.37568378 0.18975076 -0.14301115 -1.0686471 -0.23432314 0.058071844 0.046364047 -1.0155131
-0.43825075 -0.29211855 2.769444 0.12787466 -0.4109891 -0.3395236 0.18430966 3.6170554
-0.2771413 -0.24166605 0.7057624 -0.18437831 -0.22786464 1.1506131 -0.31760114 0.06385028
-0.43371817 -0.13583384 2.992311 -0.68698454 3.3690276 0.04841983 3.39331 0.03114289
1.6425574 -0.27113974 -0.8311123 0.052438606 -0.308602 0.0043581715 -0.28132954 1.9707462
-0.24682002 -0.3272849 0.022233358 -0.46327224 3.8600743 3.605073 0.7232279 -0.17390828
-0.020153167 -0.16990855 -0.15816069 -0.3232672 0.06382685 0.0063998713 0.028546793 0.0033737735
0.0034399962 -0.3878879 -0.3469248 0.07616218 -0.26193467 0.14487728 -0.40383095 -0.23217353
0.11467328 0.17495137 -0.66763437 -0.3776754 0.12476629 -0.12054863 0.058591258 3.4646966
3.0325325 -0.32430342 0.12964095 -0.24499965 0.81070733 -0.2713825 0.09961645 0.1433825
3.6531973 -0.21686852 -0.5808249 -0.36662194 0.18394278 -0.10113946 0.71917987 -0.2927304
00000000: c42e f3be f7db 9f3d 4cd0 24bf 93a9 6abe
00000010: 0103 e53d 986d 9abe bfc4 433f 715f 3840
00000020: 40dd cdbf 8023 93be 5fd4 84be 213b 0f3e
00000030: 3621 48bf 3730 86be a67a 96be 64a3 6340
00000040: d51f 1cbe e13b 7abe a67a 71be d6eb 3d3f
00000050: d010 aebe 7b17 223f 031a 0d3f 872a 5f3d
00000060: e0eb b0be 5dc5 18bf d756 be3d bee1 a9be
00000070: da2b 4240 b149 ffbd b474 993d 5215 593b
00000080: e01a 203d bea5 ceba f259 2340 23ed 85be
00000090: 3129 233d 0b69 46be 2ba0 1dbe 99aa 2d3e
000000a0: a059 c0be 064e 423e 8471 12be 6ec9 88bf
000000b0: 68f2 6fbe bedc 6d3d 3ae8 3d3d 55fc 81bf
000000c0: 6762 e0be 9090 95be 923e 3140 93f1 023e
000000d0: 2a6d d2be 0ad6 adbe acbb 3c3e d67d 6740
000000e0: 77e5 8dbe 4e77 77be d8ac 343f abcd 3cbe
000000f0: 5955 69be 4a47 933f 9e9c a2be f0c3 823d
00000100: 4f10 debe 0718 0bbe 0682 3f40 38de 2fbf
00000110: 269e 5740 df53 463d fe2b 5940 601f ff3c
00000120: 523f d23f d4d2 8abe c7c3 54bf ddc9 563d
00000130: 1501 9ebe fece 8e3b 6d0a 90be 6941 fc3f
00000140: 63be 7cbe e391 a7be bb22 b63c 0532 edbe
00000150: 750b 7740 84b9 6640 7725 393f 0315 32be
00000160: 4118 a5bc 82fc 2dbe e0f4 21be 4783 a5be
00000170: a7b7 823d 03b6 d13b f7da e93c 871a 5d3b
00000180: 8f71 613b 3e99 c6be 21a0 b1be ebfa 9b3d
00000190: 4d1c 86be b65a 143e eec2 cebe e6be 6dbe
000001a0: d3d9 ea3d 7426 333e 16ea 2abf ac5e c1be
000001b0: 7885 ff3d 33e2 f6bd 63fd 6f3d 97bd 5d40
000001c0: 0315 4240 190b a6be 99c0 043e 30e1 7abe
000001d0: 848a 4f3f a6f2 8abe b603 cc3d ddd2 123e
000001e0: fccd 6940 c812 5ebe f1b0 14bf dfb5 bbbe
000001f0: 7f5b 3c3e 3522 cfbd 2c1c 383f c2e0 95be

q2.0.weight f4 [128, 4]
-0.36080548 -0.3975028 -0.13240758 -0.031249475 -0.18605115 0.62625384 -0.10782289 -0.02062874
0.2081286 -1.376025 -0.30056998 -0.0698732 -0.17231037 -0.802107 0.0678099 0.0057054856
-0.273442 -0.75045997 -0.18207812 -0.059907928 -0.35133588 0.6092176 -0.13414705 -0.16566291
-0.2554237 -0.016162705 0.13622755 0.107498035 -0.6334838 0.37449703 0.20689152 0.06469431
0.007871405 1.3128587 0.20736134 0.042106967 -0.6747073 -0.36203244 -0.37830096 0.034368895
0.561382 -1.28472 -0.29945707 -0.06966316 -0.75702184 -0.7509435 -0.27322587 -0.053019192
-0.60880333 -0.3967666 -0.19251703 -0.030434951 0.6111865 0.8432607 0.20493291 0.07405579
-0.6965644 0.37376255 0.19993262 0.06996318 -0.65083724 0.38788867 -0.17457548 -0.035533056
-0.68379503 -0.18153225 -0.3620476 -0.093269385 -0.5721834 -0.2523168 -0.17420873 -0.017098697
-0.26972237 0.28880706 -0.4359484 -0.04579876 -0.57887274 0.85871965 0.2527454 0.08447456
-1.241261 0.05293471 0.014480731 -0.06529273 -0.6901851 0.6491719 0.2498475 0.09352271
-0.53473634 0.524802 -0.1966895 -0.06266075 1.0904096 -0.083990864 -0.009991708 -0.010642674
1.0676829 -0.047721602 -0.0817144 0.006994361 0.042990617 0.50346655 -0.05489581 0.25378025
-0.9748757 -0.4719345 -0.22230253 -0.09623051 0.007895249 0.60187817 0.068667985 0.0266347
1.362558 -0.0752524 0.080369 0.12198543 -0.43496346 0.16854022 0.16696274 0.06709973
-0.8786547 -0.5973422 0.17419997 0.027865464 -0.61351234 -0.25412104 -0.19403434 -0.036384467
-0.41292816 0.18463282 -0.23070572 -0.028361607 -0.95126307 -0.59513754 -0.21449538 -0.10663553
-0.43029204 -1.1102461 -0.18255049 -0.09341347 -0.9983529 -0.9234788 0.07868157 -0.11352183
-0.67659146 0.46014503 0.22017293 0.038372837 0.9499895 0.016498031 0.0009318504 0.006944805
1.1872436 -0.6928552 -0.07524398 -0.014768282 0.27610177 -1.0603834 -0.24333698 -0.07159118
-0.3096226 -1.1142247 -0.17345747 0.18454747 -0.1059105 -1.0090927 -0.5201173 -0.117058925
-0.7137759 0.4993217 0.15199696 0.106199816 -0.749679 -0.5376236 -0.24433467 -0.03828792
-0.337641 0.41667476 -0.40965775 -0.027558377 1.236949 -0.5182058 -0.18451814 -0.015816445
-0.7368099 0.34661415 0.23246068 0.07001957 -0.18632145 -1.0963533 -0.14405525 0.0048779906
-0.016215574 -1.1083921 -0.15106533 -0.025970004 -0.6687246 0.3291258 0.20135961 0.08014552
0.9099201 -0.6821288 0.122794226 0.10647358 -0.6289989 0.4359633 -0.112260625 0.038367353
-0.33033186 0.56874603 0.16633819 0.0509886 -0.8504115 -0.3745736 -0.1779953 -0.05570122
1.0834641 0.06671211 -0.11739331 0.018114788 -0.22266167 0.5048844 -0.14401561 -0.037632924
-0.5422689 0.5122382 -0.07404483 0.035223555 1.0560123 -0.23083943 -0.03559732 0.009775857
-0.9091932 -0.45898986 -0.42883676 -0.038768604 -0.48746628 -0.8284386 0.0077312225 0.037862994
1.3311766 -0.2082336 -0.079291336 -0.042838022 -0.76862764 0.83646137 0.17402965 0.060848005
-0.3862702 -0.37679702 -0.15015765 -0.032971952 0.7044019 -0.696386 -0.25446132 -0.06571771
00000000: 7fbb b8be 7d85 cbbe da95 07be e6fe ffbc
00000010: 3184 3ebe 2c52 203f 3fd2 dcbd 9afd a8bc
00000020: aa1f 553e 9621 b0bf 4fe4 99be ae19 8fbd
00000030: 2172 30be e256 4dbf ebdf 8a3d 15f5 ba3b
00000040: 9700 8cbe 251e 40bf b072 3abe 0462 75bd
00000050: 4ce2 b3be aff5 1b3f d85d 09be 8aa3 29be
00000060: e5c6 82be a667 84bc 3c7f 0b3e ee27 dc3d
00000070: ff2b 22bf 13be bf3e 5fdb 533e 737e 843d
00000080: 11f7 003c c10b a83f 8856 543e 5b78 2c3d
00000090: 9eb9 2cbf 515c b9be aab0 c1be 66c6 0c3d
000000a0: bbb6 0f3f b471 a4bf 7052 99be 8fab 8ebd
000000b0: 2fcc 41bf d53d 40bf 43e4 8bbe a72a 59bd
000000c0: 89da 1bbf fe24 cbbe 2f23 45be b852 f9bc
000000d0: b876 1c3f efdf 573f efd9 513e 90aa 973d
000000e0: 0b52 32bf ce5d bf3e 23bb 4c3e db48 8f3d
000000f0: 459d 26bf 5899 c63e eac3 32be 1c8b 11bd
00000100: 310d 2fbf 97e3 39be 4e5e b9be 0504 bfbd
00000110: 9c7a 12bf ab2f 81be c663 32be 9112 8cbc
00000120: 0d19 8abe 85de 933e a134 dfbe 7b97 3bbd
00000130: 0131 14bf 0dd5 5b3f d867 813e 0001 ad3d
00000140: a4e1 9ebf 11d2 583d 9740 6d3c 32b8 85bd
00000150: f9af 30bf 2130 263f 06d8 7f3e d688 bf3d
00000160: 7be4 08bf 6d59 063f f968 49be 4754 80bd
00000170: 8b92 8b3f 6703 acbd 43b4 23bc 9c5e 2ebc
00000180: d5a9 883f ba77 43bd e159 a7bd f430 e53b
00000190: ee16 303d 2fe3 003f 6eda 60bd 7cef 813e
000001a0: 7491 79bf 66a1 f1be 46a3 63be 8014 c5bd
000001b0: 135b 013c b014 1a3f cda1 8c3d 0431 da3c
000001c0: 4d68 ae3f ee1d 9abd 8198 a43d 7fd3 f93d
000001d0: 88b3 debe cf95 2c3e 48f8 2a3e 956b 893d
000001e0: 84ef 60bf 6beb 18bf 7a61 323e 1d46 e43c
000001f0: 250f 1dbf 271c 82be f0b0 46be e107 15bd
00000200: 526b d3be 6310 3d3e 1f3e 6cbe 9a56 e8bc
00000210: fa85 73bf ef5a 18bf ada4 5bbe bb63 dabd
00000220: 3d4f dcbe 8b1c 8ebf 84ee 3abe 904f bfbd
00000230: 0e94 7fbf 1b69 6cbf ce23 a13d 227e e8bd
00000240: 1935 2dbf 2198 eb3e 0375 613e d62c 1d3d
00000250: 8332 733f e126 873c 6c47 743a 3f91 e33b
00000260: 99f7 973f f55e 31bf 8419 9abd aaf6 71bc
00000270: 365d 8d3e a5ba 87bf 542d 79be 669e 92bd
00000280: da86 9ebe ea9e 8ebf d69e 31be 03fa 3c3e
00000290: 9be7 d8bd f329 81bf 6826 05bf 97bc efbd
000002a0: 04ba 36bf 18a7 ff3e 17a5 1b3e 4a7f d93d
000002b0: f7ea 3fbf b3a1 09bf de32 7abe cbd3 1cbd
000002c0: 48df acbe 6556 d53e a9be d1be 1bc2 e1bc
000002d0: 5854 9e3f 23a9 04bf 53f2 3cbe 7d91 81bc
000002e0: 939f 3cbf 6977 b13e 2c0a 6e3e 6c66 8f3d
000002f0: 0dcb 3ebe 4e55 8cbf 3883 13be 8dd7 9f3b
00000300: 86d6 84bc cbdf 8dbf dfb0 1abe 0cbf d4bc
00000310: 8931 2bbf 2d83 a83e 3731 4e3e 5623 a43d
00000320: 86f0 683f fe9f 2ebf 8a7b fb3d d20e da3d
00000330: 1206 21bf 9536 df3e e6e8 e5bd 1627 1d3d
00000340: 4221 a9be 5799 113f 8f54 2a3e 6cd9 503d
00000350: 91b4 59bf 1cc8 bfbe 6644 36be f626 64bd
00000360: f4ae 8a3f 5ca0 883d e76b f0bd 7765 943c
00000370: 6c01 64be 1b40 013f d478 13be fb24 1abd
00000380: 22d2 0abf 0b22 033f d1a4 97bd 9346 103d
00000390: 692b 873f 2c61 6cbe 7fce 11bd eb2a 203c
000003a0: e3c0 68bf b800 ebbe 7e90 dbbe d4cb 1ebd
000003b0: 2e95 f9be 8d14 54bf 3256 fd3b 3a16 1b3d
000003c0: ff63 aa3f 303b 55be 7f63 a2bd ec76 2fbd
000003d0: c8c4 44bf 5522 563f d434 323e c23b 793d
000003e0: 35c5 c5be 8aeb c0be edc2 19be 990d 07bd
000003f0: af53 343f 5a46 32bf c148 82be 0297 86bd
