TD3/checkpoints/Pendulum-v1/06_best_agent.pth (torch, 213476 bytes, 15 tensors)

actor.0.weight f4 [128, 3]
-0.093168475 0.82469875 0.02514365 -0.18965396 0.33901763 0.18835708 0.19284774 -0.39610428
0.049500003 -0.12258862 -0.6827885 0.28697595 -0.7989289 -0.06331984 0.004103922 0.11277643
-0.47100043 0.10453043 -0.21182725 -0.18046437 -0.4543529 0.12543684 -0.9953084 0.08847603
-0.17609893 0.42859825 0.1755409 -0.36242813 -1.0039058 -0.03994369 -0.4342458 0.1870992
0.026848419 -0.41466743 0.25138414 0.037216652 -0.3709581 0.3245443 0.053559456 -0.2893936
-1.1791435 -0.057236936 0.26731926 0.25846615 0.3486274 -0.8081787 -0.24072261 0.02286709
0.44277304 -0.49468628 0.1648235 -0.29318646 -0.86088717 -0.2131107 0.0033082967 -0.25956133
0.24705032 0.42641377 0.51838136 0.24523365 -0.062206946 -0.8606294 -0.118778154 -0.6937667
0.3640731 0.022270381 -0.15379931 0.07960672 0.2181904 0.027965132 -0.27572724 0.2585239
-0.1347732 -0.2836002 0.11054846 0.34992966 0.16214311 0.2199628 0.4942816 -0.6040918
-0.21046913 0.3811881 -0.2141511 0.14995305 -0.39166576 0.13955577 0.18556727 0.49340853
0.732676 0.27022418 0.41251934 0.31013206 0.23979 0.013060161 -0.18775433 0.26900312
0.12663627 0.74020386 0.2221405 -0.13240199 -0.086699575 0.17643577 -0.22341277 -0.95141363
-0.049452756 0.43008542 -0.20843174 -0.19588512 -0.31544718 0.4703563 0.07259836 -0.16180837
0.049743276 0.23269552 0.13616954 0.23001246 -0.51678485 -0.17475405 0.027335566 0.43935114
0.16181062 -0.2561098 0.31442213 -0.33465442 0.5825181 0.14062811 0.014646144 0.20753025
0.3186567 0.17403908 0.22624165 0.25550273 -0.11410485 -0.62820697 -0.18556876 -0.36672273
0.5682087 0.15603839 -0.8173261 0.049347874 0.037797414 -0.59442127 0.25808397 0.085829966
-0.04096867 0.09788158 0.0031537812 0.35798946 0.7903434 0.1995158 -0.08562563 0.051832676
-0.6112056 0.030002598 -0.72703457 0.10756008 -0.20951578 0.72319853 0.16824745 0.15576874
-1.1659628 0.0247816 0.013935824 -0.45338637 0.18410428 0.44319862 -0.8212939 -0.19131598
0.39691654 -0.21699116 0.1519827 -0.41124234 0.73659414 0.11822559 -0.24837889 -0.85967404
0.028925974 -0.23511474 -0.071136534 -0.15403074 -0.11660777 0.39924654 0.19076495 0.20636827
0.27019852 0.19334516 -0.60398114 0.39841577 0.03340542 0.011841994 -0.25523555 0.24807782
0.31180754 0.3486627 0.20400424 -0.23051092 -0.4764866 0.2780094 -0.23993494 -0.8157486
0.03220114 0.29843464 -0.3230491 0.12559092 -0.18853538 0.4530699 0.19036287 0.40959
0.65580505 0.32050294 0.3007817 -0.76565164 -0.17220756 -0.14821924 -0.1057653 0.1844022
-0.27515042 -0.9932905 -0.20811035 -0.82101864 -0.10224666 -0.008134455 0.08866564 -0.59473157
0.08911441 -0.16721946 0.10746719 0.18169701 0.4124209 0.1816914 0.17879099 0.05037856
0.9087309 -0.3669596 0.1947971 0.3673282 0.27336234 0.4300715 0.25962687 0.26605394
0.50569767 -0.44968382 -0.19060618 0.31880277 -0.48664716 -0.2428379 -0.20405021 -0.860994
-0.19038756 0.18239933 -0.15110703 -0.17969571 0.38851082 -0.21263532 -0.11845356 0.088931784
00000000: 1dcf bebd 751f 533f 0efa cd3c a634 42be
00000010: b893 ad3e aee0 403e e179 453e 2ece cabe
00000020: 84c0 4a3d be0f fbbd 3acb 2ebf 83ee 923e
00000030: 9b86 4cbf d5ad 81bd 317a 863b 54f7 e63d
00000040: f826 f1be 0d14 d63d 3ee9 58be a7cb 38be
00000050: f1a0 e8be 8472 003e 88cc 7ebf ec32 b53d
00000060: 4753 34be 3b71 db3e fec0 333e 2e90 b9be
00000070: fc7f 80bf ff9b 23bd 7755 debe ef96 3f3e
00000080: 37f1 db3c 4a4f d4be 6cb5 803e 7d70 183d
00000090: 38ee bdbe ac2a a63e 2961 5b3d 662b 94be
000000a0: 2dee 96bf 4771 6abd 12de 883e ad55 843e
000000b0: 4a7f b23e cde4 4ebf fd7f 76be c353 bb3c
000000c0: 26b3 e23e 8547 fdbe 7ec7 283e 891c 96be
000000d0: 1a63 5cbf b139 5abe 02d0 583b 39e5 84be
000000e0: c2fa 7c3e e852 da3e a4b4 043f 881e 7b3e
000000f0: b6cc 7ebd 3552 5cbf f641 f3bd b29a 31bf
00000100: ca67 ba3e 6070 b63c 917d 1dbe d908 a33d
00000110: 4e6d 5f3e 2217 e53c 1f2c 8dbe 3f5d 843e
00000120: fc01 0abe 0c34 91be 3b67 e23d fb29 b33e
00000130: d808 263e ee3d 613e 7a12 fd3e c3a5 1abf
00000140: 3885 57be 162b c33e 6d4a 5bbe 4b8d 193e
00000150: 6a88 c8be b5e7 0e3e 5905 3e3e 0ba0 fc3e
00000160: a890 3b3f d35a 8a3e bc35 d33e a1c9 9e3e
00000170: 828b 753e 49fa 553c ac42 40be c7ba 893e
00000180: f0ac 013e 007e 3d3f cd78 633e 6394 07be
00000190: 8c8f b1bd 94ab 343e 51c6 64be d88f 73bf
000001a0: f98e 4abd 2834 dc3e 216f 55be 1c96 48be
000001b0: 4b82 a1be 8ad2 f03e 73ae 943d 18b1 25be
000001c0: 9bbf 4b3d bc47 6e3e 0770 0b3e 6388 6b3e
000001d0: 034c 04bf baf2 32be d6ee df3c a2f2 e03e
000001e0: afb1 253e d320 83be f0fb a03e d357 abbe
000001f0: e81f 153f d100 103e 61f6 6f3c cf82 543e
00000200: f926 a33e 4d37 323e e4ab 673e 41d1 823e
00000210: ceaf e9bd 2cd2 20bf bd05 3ebe 15c3 bbbe
00000220: 2076 113f 87c8 1f3e 493c 51bf ff20 4a3d
00000230: 76d1 1a3d fe2b 18bf 9523 843e 9fc7 af3d
00000240: c4ce 27bd 2376 c83d abaf 4e3b 654a b73e
00000250: f253 4a3f df4d 4c3e 7e5c afbd 804e 543d
00000260: f877 1cbf 02c8 f53c f01e 3abf 7648 dc3d
00000270: 4e8b 56be 8a23 393f 0f49 2c3e d781 1f3e
00000280: 453e 95bf c802 cb3c 1553 643c 4222 e8be
00000290: d585 3c3e eeea e23e 5140 52bf 56e8 43be
000002a0: a538 cb3e ee32 5ebe 5aa1 1b3e 5b8e d2be
000002b0: 6f91 3c3f 4220 f23d 0957 7ebe 9913 5cbf
000002c0: 2af6 ec3c ebc1 70be 08b0 91bd 3cba 1dbe
000002d0: 0ed0 eebd 0b6a cc3e e357 433e 3452 533e
000002e0: 7657 8a3e 46fc 453e 829e 1abf 27fd cb3e
000002f0: 1fd4 083d ec04 423c 3cae 82be 1d08 7e3e
00000300: 3da5 9f3e eb83 b23e 7de6 503e 0e0b 6cbe
00000310: 0df6 f3be 4057 8e3e 81b1 75be e6d4 50bf
00000320: 58e5 033d 6dcc 983e b166 a5be e89a 003e
00000330: 6b0f 41be c7f8 e73e 7cee 423e c8b5 d13e
00000340: d7e2 273f f618 a43e 0f00 9a3e bf01 44bf
00000350: 2e57 30be c9c6 17be 7a9b d8bd eed3 3c3e
00000360: 84e0 8cbe 4948 7ebf e11a 55be 472e 52bf
00000370: b266 d1bd 6146 05bc 5596 b53d 5440 18bf
00000380: 9e81 b63d 943b 2bbe c217 dc3d c80e 3a3e
00000390: d528 d33e 4f0d 3a3e fc14 373e c059 4e3d
000003a0: 97a2 683f 21e2 bbbe e478 473e 7112 bc3e
000003b0: 26f6 8b3e 5532 dc3e d0ed 843e 3938 883e
000003c0: 6775 013f f53c e6be 442e 43be 1e3a a33e
000003d0: d129 f9be 80aa 78be 8af2 50be 1a6a 5cbf
000003e0: f5f4 42be e4c6 3a3e cdbb 1abe 2702 38be
000003f0: e4ea c63e 13bd 59be c897 f2bd de21 b63d

actor.0.bias f4 [128]
0.011411017 -0.0050776163 -0.41097218 0.068294734 0.13409352 -0.37965354 0.11872631 0.050678227
-0.09332074 0.041712344 0.17275201 0.12052123 -0.0058473176 -0.046504542 -0.26663017 0.17066522
-0.330432 -0.083022095 -0.14671431 -0.29928848 -0.33589643 0.0983131 -0.23037241 -0.16585109
-0.26002485 -0.4678735 -0.2057959 -0.56462276 -0.13840921 -0.23175482 -0.44585946 -0.14614624
-0.06979882 -0.21924733 -0.05505882 -0.5677261 -0.047150876 -0.25099042 -0.046442 0.282852
-0.05097021 0.010051741 -0.092827305 -0.31758136 -0.08508265 0.048855312 0.059800457 -0.014882935
-0.1334805 0.09626886 0.12463356 -0.26558706 -0.067377254 0.025445333 0.09854293 -0.050715283
-0.5818242 0.07986162 -0.07810507 -0.6243753 -0.06743972 -0.059457272 -0.007969818 -0.15585078
-0.31918877 -0.15609317 -0.07121367 -0.49943683 -0.10509263 -0.24163431 0.02233527 -0.25691923
-0.13767196 0.15600584 -0.35335433 -0.21750496 -0.36035645 -0.25170332 -0.19081862 -0.33440387
-0.3593551 -0.39334935 -0.15390815 -0.6600553 -0.27817667 -0.042454377 -0.05053107 -0.042342372
0.037256494 -0.39657867 -0.27821153 0.20461236 -0.35778922 0.108256824 -0.3385137 -0.31689584
-0.13368721 -0.13107291 -0.28406814 0.14307342 -0.0858554 -0.08765942 -0.10648063 -0.038289387
-0.26996735 -0.2174066 -0.13970599 -0.14078747 -0.22838289 -0.07930351 -0.117488444 -0.28528106
0.063064545 -0.17292766 -0.0462521 -0.08406312 -0.14022759 -0.11313159 0.06580183 -0.048212804
-0.12327319 -0.044934325 -0.14568582 -0.27578935 0.027668545 -0.060177255 -0.34144711 -0.05078288
00000000: 46f5 3a3c 2262 a6bb f26a d2be 1cde 8b3d
00000010: d04f 093e f361 c2be c826 f33d f993 4f3d
00000020: f21e bfbd 90da 2a3d e7e5 303e d6d3 f63d
00000030: db9a bfbb 8c7b 3ebd c083 88be ddc2 2e3e
00000040: 622e a9be 7d07 aabd 473c 16be 573c 99be
00000050: 9efa abbe 6158 c93d bfe6 6bbe ded4 29be
00000060: fa21 85be 1e8d efbe 29bc 52be 1e8b 10bf
00000070: 25bb 0dbe 2351 6dbe b147 e4be 5ca7 15be
00000080: aff2 8ebd 5f82 60be 5b85 61bd 7f56 11bf
00000090: 4721 41bd d181 80be f739 3ebd fad1 903e
000000a0: 24c6 50bd 0fb0 243c 3e1c bebd 069a a2be
000000b0: d03f aebd 821c 483d 53f1 743d 8ed7 73bc
000000c0: 1daf 08be 9c28 c53d e13f ff3d 07fb 87be
000000d0: 16fd 89bd bb72 d03c e0d0 c93d d4ba 4fbd
000000e0: 6ef2 14bf 7d8e a33d 8df5 9fbd 0fd7 1fbf
000000f0: d61d 8abd 7889 73bd d793 02bc 5997 1fbe
00000100: b66c a3be e3d6 1fbe 79d8 91bd 2fb6 ffbe
00000110: ce3a d7bd fc6e 77be 75f8 b63c eb8a 83be
00000120: e1f9 0cbe ffbf 1f3e dcea b4be 9fb9 5ebe
00000130: a480 b8be 42df 80be f565 43be fc36 abbe
00000140: 64fd b7be 1665 c9be 199a 1dbe 62f9 28bf
00000150: 2c6d 8ebe a4e4 2dbd abf9 4ebd 326f 2dbd
00000160: 449a 183d 5c0c cbbe be71 8ebe e785 513e
00000170: 2630 b7be c1b5 dd3d ab51 adbe 2c40 a2be
00000180: 4de5 08be fa37 06be 6171 91be d781 123e
00000190: f5d4 afbd c886 b3bd 8412 dabd 55d5 1cbd
000001a0: 2939 8abe d69f 5ebe 160f 0fbe 972a 10be
000001b0: 34dd 69be e169 a2bd c89d f0bd 5c10 92be
000001c0: fc27 813d f313 31be d872 3dbd 4929 acbd
000001d0: d297 0fbe 89b1 e7bd 1cc3 863d ca7a 45bd
000001e0: a776 fcbd 0e0d 38bd aa2e 15be 4334 8dbe
000001f0: 25a9 e23c 6d7c 76bd 28d2 aebe b601 50bd

actor.2.weight f4 [128, 128]
0.101981156 0.121208355 -0.110450156 -0.1581492 0.06323277 -0.07218544 0.038145818 0.11333334
-0.023650143 -0.07132857 0.05622493 0.10513109 -0.051818408 -0.20450579 -0.19138435 -0.094892725
-0.042681452 -0.18865931 0.14630815 -0.17134252 0.015123005 -0.046983983 -0.08481227 -0.10145541
0.16311759 0.076714434 -0.015422782 -0.14156535 0.090962455 -0.27399236 -0.0068138517 -0.003103209
-0.10257038 0.1055582 -0.054797698 0.10492087 -0.119566195 0.01586618 -0.10969788 0.13421048
0.12919968 0.025557956 0.056496017 0.018157665 0.10002658 0.004912777 -0.06478387 -0.039422937
-0.047946084 -0.17497073 -0.11037537 0.08866544 0.054024603 -0.08442441 -0.020568397 -0.06982509
-0.10817187 0.0805369 0.0047382987 -0.13455378 0.08341392 0.050398912 -0.04487486 0.11853665
-0.15770224 0.000716623 -0.07757554 0.0013439421 0.111572966 -0.09791661 0.052012164 -0.089874
-0.140139 -0.08569376 -0.091346875 -0.087834075 -0.013706898 -0.11683555 0.08983348 -0.06981216
0.07671469 0.10451877 0.04459846 0.1128721 0.076579034 -0.01809947 0.10402845 0.15617502
0.12010215 0.034752488 0.005058509 -0.06800512 0.056659423 -0.09264364 -0.10708392 -0.043742806
-0.061150216 -0.0014586865 -0.062278032 0.09239695 -0.14695159 -0.04757154 0.08410798 0.116625905
0.19452707 -0.116083615 -0.054954868 -0.1296404 -0.025540046 0.1406038 -0.15002751 -0.07299914
-0.008313729 -0.13340332 0.0643294 0.11204293 -0.031722903 0.004847899 -0.12963581 -0.093767665
0.09363058 -0.15840466 -0.10251347 0.02929306 -0.015229972 -0.09078161 0.060783427 0.0665758
-0.121321715 0.045875322 0.118020765 0.027902994 -0.12673052 0.052480318 -0.13674553 0.0958413
0.04435133 -0.063681774 -0.022389524 0.043035068 0.03042595 0.10481101 -0.059911564 -0.16546427
0.09067856 0.037273284 -0.06639553 -0.04431329 0.065861315 0.062390417 0.07515574 -0.042032525
-0.08549276 0.08439735 -0.0031729743 0.070809 0.04652675 0.10197492 -0.13446343 -0.13560995
0.11414864 0.0016918131 -0.056875065 -0.06710701 -0.07487113 0.015445797 -0.014718373 0.010915294
-0.12785754 0.008209721 -0.11081065 -0.09367054 -0.02260828 -0.095739946 0.05792634 -0.007944515
0.0054953163 -0.13320842 -0.09507955 -0.10227592 0.041173138 -0.089674555 0.056072287 -0.048465833
-0.046123307 0.091720015 0.12888655 -0.14268467 -0.1052567 0.080949195 0.08179655 -0.1061584
-0.093717165 -0.16828865 -0.0070859035 0.03704203 0.09228062 -0.10846308 -2.9453297e-05 -0.03891013
-0.097907126 -0.16017413 0.049870577 0.08854249 -0.050242018 -0.008446556 0.11923577 0.036413714
-0.12483161 -0.042005856 -0.07508521 -0.06705082 0.014903227 -0.17189558 0.053481746 0.10031143
0.024805056 -0.0511716 -0.0047919797 0.08640605 0.0808537 -0.12737824 -0.07785124 -0.114707954
0.09281499 -0.00567513 -0.043602325 0.055838346 -0.065781 -0.0056712297 0.05375659 -0.09611315
-0.05600596 -0.005360749 -0.16142188 0.105364 0.08856882 -0.16017321 0.023634095 -0.1322557
-0.14248893 0.12558042 0.06110581 0.12753724 -0.13089426 -0.091773115 -0.059130535 -0.025645113
-0.13050783 -0.10674701 -0.16221699 0.06697386 0.014113685 0.06540566 0.12287056 0.010779241
00000000: 7fdb d03d 163c f83d b133 e2bd ddf1 21be
00000010: 2f80 813d f6d5 93bd ca3e 1c3d 4f1b e83d
00000020: f2bd c1bc b714 92bd 1d4c 663d f84e d73d
00000030: 8a3f 54bd f769 51be 42fa 43be 1e57 c2bd
00000040: bfd2 2ebd e82f 41be ced1 153e 6a74 2fbe
00000050: 7bc6 773c 4772 40bd 0eb2 adbd dbc7 cfbd
00000060: 4c08 273e 751c 9d3d d6af 7cbc 82f6 10be
00000070: 864a ba3d ba48 8cbe bb46 dfbb 355f 4bbb
00000080: 6b10 d2bd e62e d83d 8d73 60bd c1e0 d63d
00000090: 1fdf f4bd cbf9 813c 48a9 e0bd 796e 093e
000000a0: ec4c 043e eb5e d13c 5e68 673d 62bf 943c
000000b0: bcda cc3d 5cfb a03b 68ad 84bd f279 21bd
000000c0: 1d63 44bd 872b 33be 7b0c e2bd 3a96 b53d
000000d0: e748 5d3d b4e6 acbd 0e7f a8bc 7500 8fbd
000000e0: 3789 ddbd 88f0 a43d bb43 9b3b 77c8 09be
000000f0: ebd4 aa3d 176f 4e3d b4ce 37bd 58c3 f23d
00000100: b27c 21be c1db 3b3a eddf 9ebd 3727 b03a
00000110: 5e80 e43d 8188 c8bd b50a 553d dc0f b8bd
00000120: 9980 0fbe 3680 afbd 1214 bbbd 5ae2 b3bd
00000130: e692 60bc 7a47 efbd 9efa b73d aef9 8ebd
00000140: 971c 9d3d f00d d63d e0ac 363d 7d29 e73d
00000150: 78d5 9c3d 5745 94bc de0c d53d 58ec 1f3e
00000160: 1ef8 f53d a058 0e3d d9c1 a53b 4546 8bbd
00000170: b613 683d f3bb bdbd d04e dbbd a82b 33bd
00000180: a678 7abd 6631 bfba 4017 7fbd 9d3a bd3d
00000190: 7a7a 16be 60da 42bd ce40 ac3d 90d9 ee3d
000001a0: 1b32 473e 3fbd edbd 5b18 61bd 74c0 04be
000001b0: 5c39 d1bc 71fa 0f3e d0a0 19be 9380 95bd
000001c0: 4f36 08bc e19a 08be 22bf 833d c476 e53d
000001d0: e0ef 01bd 20db 9e3b 40bf 04be 4309 c0bd
000001e0: 64c1 bf3d d534 22be 95f2 d1bd 00f8 ef3c
000001f0: 2287 79bc b5eb b9bd 0bf8 783d e558 883d
00000200: 8577 f8bd c3e7 3b3d dfb4 f13d d294 e43c
00000210: a5c5 01be 9af5 563d 0507 0cbe 7248 c43d
00000220: bda9 353d 976b 82bd 3c6a b7bc 8a45 303d
00000230: d83f f93c 28a7 d63d d465 75bd 776f 29be
00000240: aeb5 b93d dfab 183d 61fa 87bd da81 35bd
00000250: 4ce2 863d 188d 7f3d 41eb 993d 4c2a 2cbd
00000260: d416 afbd 85d8 ac3d adf1 4fbb 4f04 913d
00000270: d592 3e3d 3ad8 d03d c8b0 09be 56dd 0abe
00000280: c3c6 e93d d4bf dd3a d4f5 68bd 666f 89bd
00000290: 0956 99bd 5e10 7d3c 5525 71bc 10d6 323c
000002a0: 16ed 02be 1182 063c b2f0 e2bd 57d6 bfbd
000002b0: 0035 b9bc 4e13 c4bd 2b44 6d3d b629 02bc
000002c0: 0e12 b43b ca67 08be 11b9 c2bd 0a76 d1bd
000002d0: 2aa5 283d 4ba7 b7bd 0eac 653d 1c84 46bd
000002e0: cbeb 3cbd b4d7 bb3d d6fa 033e ee1b 12be
000002f0: d390 d7bd b1c8 a53d f384 a73d 9369 d9bd
00000300: c9ee bfbd dc53 2cbe de30 e8bb 62b9 173d
00000310: 9ffd bc3d e421 debd 7912 f7b7 3a60 1fbd
00000320: 8883 c8bd b004 24be 1745 4c3d c455 b53d
00000330: 93ca 4dbd 6c63 0abc e231 f43d 8c26 153d
00000340: b7a7 ffbd 550e 2cbd 46c6 99bd f151 89bd
00000350: aa2c 743c 6505 30be ad0f 5b3d 1470 cd3d
00000360: f933 cb3c 5099 51bd 0a06 9dbb a8f5 b03d
00000370: a096 a53d 716f 02be 7970 9fbd 01ec eabd
00000380: c915 be3d 71f6 b9bb 5a98 32bd c0b6 643d
00000390: 30b8 86bd b9d5 b9bb df2f 5c3d f9d6 c4bd
000003a0: 8166 65bd 39a9 afbb c74b 25be 15c9 d73d
000003b0: 9263 b53d 7204 24be 4a9c c13c 0a6e 07be
000003c0: 9ee8 11be 2798 003e 164a 7a3d 1f99 023e
000003d0: 2509 06be 8bf3 bbbd dc32 72bd b315 d2bc
000003e0: d8a3 05be 2d9e dabd 361c 26be 9729 893d
000003f0: 163d 673c 67f3 853d 8fa3 fb3d 6a9b 303c

actor.2.bias f4 [128]
-0.06613083 -0.026165608 -0.07061103 -0.046212584 -0.018161371 -0.038417734 0.07536672 -0.09915555
-0.00933212 -0.03548763 -0.07944769 -0.06841984 -0.09188846 -0.2624829 -0.11183072 0.08305923
0.006572458 0.17882255 -0.030839618 -0.0472985 -0.25693294 -0.018508567 -0.057458665 -0.42411157
0.2895538 -0.03411208 -0.012654616 -0.061566006 -0.024862276 -0.097649306 -0.2470172 0.14269087
-0.041267138 -0.07411317 0.07256476 -0.05694151 -0.0039935308 -0.043387216 -0.049789228 -0.08053527
-0.023918822 -0.047492635 -0.071060956 -0.09527309 -0.18567894 -0.113191016 0.1850295 0.18896833
0.1292035 -0.118751444 -0.049145382 0.24623434 -0.033553 -0.03702389 -0.063103884 -0.003327616
-0.048752204 -0.030854605 0.015238344 -0.05454937 -0.046858046 -0.016531987 -0.092582375 0.0844815
-0.10090968 -0.04614434 0.055855956 0.14564231 -0.08976618 -0.37849474 -0.08814238 0.010356007
-0.023600403 -0.4357625 -0.27406093 -0.04805547 -0.005364465 -0.026640225 -0.06556581 -0.08282569
-0.02719154 -0.22411288 -0.016173583 -0.2518969 -0.012627941 0.04250045 -0.09439927 0.14520581
-0.117317714 -0.24403939 -0.050798718 -0.084666364 0.00061195955 -0.112475805 -0.03460901 -0.054694362
-0.07729122 0.07307389 -0.042410787 -0.02407804 -0.044172604 -0.034194805 0.33642766 0.08639852
-0.03746637 -0.041991577 -0.43728998 -0.042452134 -0.21201828 0.10328492 -0.001613465 -0.33049265
-0.043569382 0.025616234 0.012121913 -0.054217357 0.15956466 -0.038196526 -0.011340747 -0.3006927
-0.24872026 -0.1557737 0.1921777 -0.16812155 -0.00022254164 -0.045850933 -0.055015255 -0.010805654
00000000: 9a6f 87bd 4259 d6bc 849c 90bd 6849 3dbd
00000010: 28c7 94bc ea5b 1dbd de59 9a3d 1112 cbbd
00000020: c0e5 18bc 7a5b 11bd 78b5 a2bd b31f 8cbd
00000030: 0430 bcbd 2964 86be 8107 e5bd f51a aa3d
00000040: c65d d73b 421d 373e 5ea3 fcbc 12bc 41bd
00000050: b78c 83be 479f 97bc c759 6bbd 2725 d9be
00000060: 6540 943e 1cb9 0bbd 4e55 4fbc a32c 7cbd
00000070: f9ab cbbc 5cfc c7bd 14f2 7cbe 8e1d 123e
00000080: bb07 29bd a5c8 97bd d59c 943d 803b 69bd
00000090: 2adc 82bb cbb6 31bd caef 4bbd adef a4bd
000000a0: 68f1 c3bc a387 42bd 6888 91bd 8a1e c3bd
000000b0: 9f22 3ebe b1d0 e7bd 6078 3d3e ea80 413e
000000c0: ec4d 043e f533 f3bd ab4c 49bd db24 7c3e
000000d0: df6e 09bd 5da6 17bd 9c3c 81bd 2214 5abb
000000e0: 64b0 47bd ccc2 fcbc 3faa 793c 296f 5fbd
000000f0: 39ee 3fbd 176e 87bc d49b bdbd a304 ad3d
00000100: bca9 cebd d901 3dbd 37c9 643d 4223 153e
00000110: 55d7 b7bd 10ca c1be fe83 b4bd 3eac 293c
00000120: a255 c1bc 431c dfbe b751 8cbe d0d5 44bd
00000130: 65c8 afbb 9a3c dabc 5e47 86bd 84a0 a9bd
00000140: cbc0 debc d97d 65be 767e 84bc a1f8 80be
00000150: 6ce5 4ebc f414 2e3d 6854 c1bd d5b0 143e
00000160: 4544 f0bd 76e5 79be 5112 50bd 8f65 adbd
00000170: e96b 203a b759 e6bd 2dc2 0dbd 3207 60bd
00000180: dc4a 9ebd c3a7 953d efb6 2dbd 4f3f c5bc
00000190: 55ee 34bd da0f 0cbd 3f40 ac3e b5f1 b03d
000001a0: 5676 19bd 5cff 2bbd 79e4 dfbe 4ae2 2dbd
000001b0: 521b 59be 0b87 d33d e77a d3ba 5536 a9be
000001c0: cf75 32bd 23d9 d13c fd9a 463c 0513 5ebd
000001d0: eb64 233e f673 1cbd 8ace 39bc 65f4 99be
000001e0: 86b0 7ebe 2483 1fbe 3bca 443e 0e28 2cbe
000001f0: 115a 69b9 30ce 3bbd ad57 61bd 330a 31bc

actor.4.weight f4 [1, 128]
-0.012800168 -0.1464738 1.6799816 -0.6644178 0.6030932 0.19298673 -0.4966431 -0.23833717
-0.0027663098 -0.03151848 -1.225679 -0.09000516 0.24639916 0.12803923 0.6014154 -0.50829285
1.3441805 -0.5098375 2.5443165 -0.009928183 1.1518086 -0.40630737 -0.019968653 -0.39914617
-1.1706195 -0.025997167 -0.013116416 0.2222941 2.3743997 0.20104273 0.10754043 -0.6325948
-0.4607198 -0.0036980126 0.6345096 -0.1243222 0.5487425 0.018039692 -0.051624425 0.009612128
-0.016836995 0.27619153 0.66459686 0.03595548 -0.36798942 -0.0071326257 -1.0025429 0.061503436
-3.7938666 -0.0730487 -0.12586226 -0.3209557 -0.5429536 -0.11967765 -0.015399866 0.7380976
2.588408 -0.15260977 -0.030436099 -0.052785516 -0.13946982 -0.001705218 1.2581217 0.52718127
-0.032219134 -0.15207504 0.113114275 -0.34912363 -0.015829928 0.5686257 -0.27619535 1.51625
-0.056869075 0.30818883 -0.11414 0.012947279 -0.49312273 -0.042170595 0.05562727 -0.10265828
0.002914939 0.13612036 -0.13017748 -1.0218388 2.1239674 1.3865383 0.7598352 -2.2632523
-1.1718615 -0.3037469 2.5269458 1.4718175 0.07438988 -0.010773012 0.2773132 -0.0338098
4.4677967e-05 -1.579101 -0.0030414572 -0.09130813 -0.03745823 -0.11618367 -0.6257296 0.86635464
2.4495301 -0.02724412 1.8458118 -0.14493784 -0.5751272 0.0703985 1.3813547 -0.36251244
2.4552767 1.0836145 -0.077204764 -0.15563267 0.90376115 -0.14257498 -0.32995886 0.20209195
0.16003187 2.0307927 -1.3910552 1.462243 1.8142756 -0.08601971 -0.0071908007 0.3567233
00000000: ccb7 51bc 3afd 15be a309 d73f 4917 2abf
00000010: 5164 1a3f 509e 453e 0148 febe a90e 74be
00000020: fa4a 35bb 8619 01bd 0de3 9cbf a054 b8bd
00000030: 1050 7c3e b71c 033e 5cf6 193f 7b1f 02bf
00000040: 1b0e ac3f b684 02bf 15d6 2240 d1a9 22bc
00000050: 776e 933f 8507 d0be 4d95 a3bc e35c ccbe
00000060: dcd6 95bf 03f8 d4bc 3ce6 56bc 11a1 633e
00000070: 2af6 1740 25de 4d3e 283e dc3d bcf1 21bf
00000080: 77e3 ebbe 5b5a 72bb 396f 223f a39c febd
00000090: 637a 0c3f fac7 933c 2274 53bd 307c 1d3c
000000a0: bded 89bc fa68 8d3e 0523 2a3f 0e46 133d
000000b0: 1c69 bcbe cdb8 e9bb 5353 80bf 07eb 7b3d
000000c0: b6ce 72c0 8f9a 95bd 09e2 00be 4e54 a4be
000000d0: 02ff 0abf 8e19 f5bd b84f 7cbc f7f3 3c3f
000000e0: 7aa8 2540 bc45 1cbe 2055 f9bc a035 58bd
000000f0: 2dd1 0ebe 9f81 dfba 220a a13f 5af5 063f
00000100: 36f8 03bd 8fb9 1bbe 75a8 e73d 55c0 b2be
00000110: c4ad 81bc 7491 113f 7a69 8dbe 7b14 c23f
00000120: 8cef 68bd edca 9d3e 3bc2 e9bd d320 543c
00000130: 957a fcbe 13bb 2cbd 6cd9 633d 813e d2bd
00000140: 9008 3f3b 2363 0b3e 3f4d 05be 9dcb 82bf
00000150: 15ef 0740 167a b13f 8f84 423f 20d9 10c0
00000160: 8fff 95bf b784 9bbe 7bb9 2140 8464 bc3f
00000170: b959 983d 4a81 30bc fffb 8d3e 257c 0abd
00000180: 9a64 3b38 fb1f cabf 2f53 47bb c2ff babd
00000190: cd6d 19bd b4f1 edbd d12f 20bf 6bc9 5d3f
000001a0: 1ac5 1c40 102f dfbc 9043 ec3f 966a 14be
000001b0: 893b 13bf 172d 903d 3bd0 b03f 3b9b b9be
000001c0: 4123 1d40 e1b3 8a3f 881d 9ebd 2c5e 1fbe
000001d0: e45c 673f 2dff 11be 5ef0 a8be 31f1 4e3e
000001e0: 65df 233e 82f8 0140 190e b2bf c72a bb3f
000001f0: 2f3a e83f 1a2b b0bd cfa0 ebbb 70a4 b63e

q1.0.weight f4 [128, 4]
-0.47500888 0.19091284 0.14718069 0.041943353 -0.38721868 -0.61218166 -0.00056494755 0.02064916
0.37335944 0.5411851 -0.3473294 0.16088574 -0.042372476 1.1851654 0.09134216 0.04973368
0.88755137 -0.6747819 -0.28497207 -0.14230563 -0.61666924 -0.41203192 -0.17662518 -0.10565599
0.5650346 -0.5995442 0.19493298 0.0009106877 -0.6053273 0.3714022 0.19404681 0.04961457
-0.61231875 0.12183454 -0.10784332 -0.0560291 -0.025791131 0.7475793 0.07874338 0.12499014
-0.7634294 -0.35631523 -0.1638935 -0.0464516 -0.2846025 -0.4679839 0.1131534 0.022568965
0.07592932 0.55511814 0.36099002 -0.06539652 0.19135505 -1.3156393 -0.012008927 -0.062302265
-0.48393404 -0.33751038 -0.16014859 -0.035886988 -0.45253557 1.1025698 0.032825846 -0.094892725
-0.7547745 0.54915345 0.21522412 0.060177755 -0.31223136 0.14222509 0.11724736 0.04681404
-0.029698307 1.0059612 0.21876062 0.04006987 -0.5933674 0.33979732 0.18798214 0.027406888
0.41171288 -1.0199169 -0.16679384 -0.101153985 -0.18421811 0.6794557 0.4284184 0.12801969
-0.0355422 0.57849073 0.14810564 -0.06180049 -0.6452932 0.08571541 -0.009954569 -0.12012983
-0.63140726 -0.6649203 -0.2352246 -0.054415423 -0.12810168 -0.39905515 0.3967698 0.21438453
-0.24472779 0.18452322 -0.08867567 -0.03841142 -0.59641457 -0.41932175 -0.19022712 -0.03398458
-0.6890101 -0.2525628 -0.12248058 -0.020280678 -0.35192597 -0.38481373 0.0013752509 0.0094410805
-0.7017248 -0.2756669 -0.13729969 -0.04068522 0.8204007 0.8502358 -0.1388726 0.034338616
-0.7198647 0.9043203 0.28661197 0.10608403 -0.2729222 -0.09843021 -0.10528234 -0.06556566
-0.54121125 -0.102536194 -0.1416934 -0.111511216 -0.2927089 0.052929357 0.28431636 0.11258249
0.118952565 -0.7476759 -0.17110866 -0.042831346 0.6649268 -0.74970454 -0.26672685 -0.103145994
0.1637477 -0.97947377 0.0006222774 0.24712662 -0.4671763 0.3156043 0.1556591 0.07803857
0.14549764 -0.958718 -0.21532933 -0.049808804 -0.5509748 -0.4037384 -0.1767541 -0.024293786
-0.21104415 -0.48448235 0.12079434 0.055877347 -0.2726068 0.13636202 0.10642721 0.064683214
-0.71152955 0.38145596 0.19412988 0.09614861 -0.5706019 -0.3148735 -0.15834849 -0.058267
-0.31107652 -0.53523815 0.1280167 -0.019091334 1.4275519 0.5774764 0.4326078 0.06954653
-0.35944572 0.1492772 0.14710963 0.08433615 0.36465594 -1.0790902 -0.25713852 -0.087075345
-0.7105297 0.60589117 -0.1269741 0.0033881948 -0.53915995 -0.41738603 -0.18077621 -0.026229491
1.0349674 0.5132404 0.32044795 0.09408964 0.016098537 -0.16526613 0.26742873 -0.19708492
-0.38881403 0.13316472 0.15441044 0.058112007 -0.09968207 0.14932719 -0.40199867 -0.09203375
-0.21135598 0.6849406 0.42072338 0.053373292 0.8653561 0.7437676 0.050201923 0.020950783
-0.58028054 0.8691245 0.25973997 0.070001535 -0.22380114 0.7033033 0.4091815 -0.029625926
-0.33112946 -1.0110877 -0.2387812 -0.07551858 0.7966695 -0.8124471 -0.3802902 -0.08159708
0.4836661 0.73502684 0.19049402 0.13359672 1.2946773 -0.048222736 0.06422935 -0.009484026
00000000: 5d34 f3be a87e 433e 89b6 163e cbcc 2b3d
00000010: 8741 c6be f0b7 1cbf fd18 14ba 6d28 a93c
00000020: f828 bf3e 1b8b 0a3f 29d5 b1be 3bbf 243e
00000030: c38e 2dbd 80b3 973f 9911 bb3d 8bb5 4b3d
00000040: 9136 633f 82be 2cbf dce7 91be 91b8 11be
00000050: 09de 1dbf d9f5 d2be 3bdd 34be 2b62 d8bd
00000060: 1ca6 103f bb7b 19bf 839c 473e 38bb 6e3a
00000070: bbf6 1abf 6e28 be3e 35b4 463e a638 4b3d
00000080: ecc0 1cbf 6384 f93d f5dc dcbd c57e 65bd
00000090: ec47 d3bc 5b61 3f3f 3644 a13d d5fa ff3d
000000a0: 1c70 43bf f36e b6be b3d3 27be 0844 3ebd
000000b0: 6bb7 91be 969b efbe f8bc e73d 8de2 b83c
000000c0: d580 9b3d 391c 0e3f afd3 b83e 9cee 85bd
000000d0: 94f2 433e de66 a8bf 17c1 44bc a930 7fbd
000000e0: 34c6 f7be 29ce acbe fefd 23be 3cfe 12bd
000000f0: beb2 e7be 0221 8d3f 6574 063d 1e57 c2bd
00000100: e738 41bf 5295 0c3f b663 5c3e f37c 763d
00000110: cadc 9fbe 74a3 113e 621f f03d 14c0 3f3d
00000120: dd49 f3bc 56c3 803f c902 603e 4e20 243d
00000130: ede6 17bf eaf9 ad3e 647e 403e 6984 e03c
00000140: 08cc d23e a38c 82bf 01cc 2abe d229 cfbd
00000150: aca3 3cbe cff0 2d3f a859 db3e 9817 033e
00000160: b394 11bd f817 143f 01a9 173e 8322 7dbd
00000170: ef31 25bf 908b af3d 7d18 23bc a106 f6bd
00000180: e8a3 21bf 3738 2abf b8de 70be b5e2 5ebd
00000190: 162d 03be f550 ccbe 6925 cb3e 9e87 5b3e
000001a0: ec99 7abe a8f3 3c3e 979b b5bd 4b55 1dbd
000001b0: a0ae 18bf 57b1 d6be e6ca 42be 6a33 0bbd
000001c0: f762 30bf e94f 81be 19d7 fabd aa23 a6bc
000001d0: a42f b4be 4e06 c5be c341 b43a c3ae 1a3c
000001e0: 3da4 33bf 3624 8dbe 4a98 0cbe 8ca5 26bd
000001f0: c805 523f 0ea9 593f 9e34 0ebe a6a6 0c3d
00000200: 0e49 38bf 8981 673f cebe 923e 9542 d93d
00000210: 75bc 8bbe c795 c9bd 449e d7bd 4a47 86bd
00000220: d28c 0abf 7ffe d1bd 1318 11be fe5f e4bd
00000230: f1dd 95be 74cc 583d ea91 913e a691 e63d
00000240: 679d f33d b067 3fbf 1c37 2fbe ec6f 2fbd
00000250: a538 2a3f a3ec 3fbf 6c90 88be 353e d3bd
00000260: 7aad 273e cbbe 7abf 5420 233a c30e 7d3e
00000270: bb31 efbe e396 a13e 1965 1f3e b0d2 9f3d
00000280: 55fd 143e 8b6e 75bf 4b7f 5cbe 5104 4cbd
00000290: af0c 0dbf cdb6 cebe 07ff 34be c303 c7bc
000002a0: f51b 58be 120e f8be 0663 f73d a5df 643d
000002b0: 1e93 8bbe 7ca2 0b3e 82f6 d93d a278 843d
000002c0: cd26 36bf 324e c33e fcc9 463e 90e9 c43d
000002d0: f712 12bf 1937 a1be 1b26 22be 61a9 6ebd
000002e0: 6c45 9fbe 5e05 09bf cf16 033e 6e65 9cbc
000002f0: 05ba b63f 7ed5 133f c57e dd3e 696e 8e3d
00000300: 4509 b8be 1fdc 183e e8a3 163e 6eb8 ac3d
00000310: 2fb4 ba3e a11f 8abf a9a7 83be 8f54 b2bd
00000320: 46e5 35bf af1b 1b3f 8005 02be 7a0c 5e3b
00000330: 6306 0abf 9fb3 d5be 661d 39be 3bdf d6bc
00000340: d079 843f b963 033f c111 a43e 12b2 c03d
00000350: 14e1 833c 863b 29be 6bec 883e a1d0 49be
00000360: a212 c7be 555c 083e c51d 1e3e db06 6e3d
00000370: 1d26 ccbd 3ae9 183e c5d2 cdbe 317c bcbd
00000380: b46d 58be 4458 2f3f 0e69 d73e f49d 5a3d
00000390: fa87 5d3f 8e67 3e3f 88a0 4d3d faa0 ab3c
000003a0: 448d 14bf f17e 5e3f a3fc 843e f75c 8f3d
000003b0: 202c 65be af0b 343f 3d80 d13e 12b2 f2bc
000003c0: cd89 a9be 526b 81bf 0f83 74be 7ca9 9abd
000003d0: 88f2 4b3f 88fc 4fbf 66b5 c2be 5f1c a7bd
000003e0: 15a3 f73e b82a 3c3f dd10 433e 94cd 083e
000003f0: fcb7 a53f 3485 45bd ad8a 833d e362 1bbc

q1.0.bias f4 [128]
0.40579408 0.44120824 0.15495314 0.23761982 0.1441867 0.40946582 0.39760226 0.48571038
-0.7480775 0.19531208 0.20671135 0.3908883 0.16146655 -0.5436587 0.3955973 0.18200749
0.5426284 0.38814062 0.3186802 0.44158673 -0.113069184 -0.014617849 0.27512595 -0.6053054
0.4053641 -0.40630394 0.34153405 0.4634554 0.077547684 0.25665063 0.15112178 -0.48506683
0.42279154 0.40954506 -0.6470777 0.44236547 0.11519488 -0.002553709 0.3563005 0.39858136
0.1650956 0.41627157 0.49453193 0.3563665 0.4124986 0.3849835 0.42401356 0.27960315
0.5274231 -0.025165712 -0.4449077 0.4072647 -0.93932724 0.061296135 0.54738855 -0.5872708
-0.07633639 0.028774736 0.27981088 -0.13352309 0.027092326 -0.9009387 -0.2608532 0.45257828
0.4303103 0.29420698 -0.2903524 0.4754424 -0.15332481 -0.5932281 -0.28366584 -0.053862084
0.44769838 -0.050006367 -0.31516126 0.10665149 0.39739448 0.39890566 0.32561192 -0.34719568
-0.6220214 0.20492798 -0.2811639 0.3690018 0.010723556 0.5678763 0.32932356 0.41351607
0.44530338 -0.34131172 0.41221744 0.21474448 0.061270244 -0.20848592 0.51747847 0.22992413
0.19305545 0.48561457 0.4786835 -0.98856735 0.25418153 0.46852294 0.17156121 0.33599526
-0.8770087 0.1330017 0.43985793 -0.09173563 -1.2210164 0.21991155 0.36095905 -0.65066344
0.07203332 -0.81918585 0.1450076 0.4644864 0.36460677 0.023652667 -0.43015397 -0.101660155
0.039827697 -0.54065543 0.44288072 0.5780472 0.18142436 0.3938625 -0.0011703955 -0.45688
00000000: 3ec4 cf3e 0ce6 e13e 09ac 1e3e 9c52 733e
00000010: aea5 133e 81a5 d13e 8692 cb3e 08af f83e
00000020: 0282 3fbf e4ff 473e 24ac 533e 8322 c83e
00000030: 7d57 253e 372d 0bbf bb8b ca3e 2c60 3a3e
00000040: b2e9 0a3f 5eba c63e 0d2a a33e a817 e23e
00000050: d190 e7bd b47f 6fbc 4fdd 8c3e 4bf5 1abf
00000060: e28b cf3e 1207 d0be 8ddd ae3e 074a ed3e
00000070: 52d1 9e3d b667 833e abbf 1a3e ae5a f8be
00000080: 2278 d83e e4af d13e e2a6 25bf ba7d e23e
00000090: 4beb eb3d 215c 27bb 056d b63e db12 cc3e
000000a0: d20e 293e 8c21 d53e 4a33 fd3e ab75 b63e
000000b0: 0433 d33e 8f1c c53e 4e18 d93e 2528 8f3e
000000c0: 3305 073f 5328 cebc f1ca e3be 0085 d03e
000000d0: c077 70bf a811 7b3d a821 0c3f 6157 16bf
000000e0: 4156 9cbd ffb8 eb3c 5f43 8f3e 47ba 08be
000000f0: baf0 dd3c eba3 66bf 8d8e 85be 57b8 e73e
00000100: a251 dc3e 4ca2 963e 12a9 94be 306d f33e
00000110: 2e01 1dbe ccdd 17bf a63c 91be 7d9e 5cbd
00000120: b938 e53e 7ad3 4cbd d15c a1be 196c da3d
00000130: 4a77 cb3e 5d3d cc3e 9bb6 a63e a2c3 b1be
00000140: cb3c 1fbf a4d8 513e b7f4 8fbe ceed bc3e
00000150: dbb1 2f3c 5760 113f 199d a83e 61b8 d33e
00000160: cefe e33e 69c0 aebe 2a0e d33e fae5 5b3e
00000170: 82f6 7a3d 557d 55be 7879 043f 3b71 6b3e
00000180: 54b0 453e 79a2 f83e 0116 f53e c012 7dbf
00000190: 1524 823e 3de2 ef3e bead 2f3e 9207 ac3e
000001a0: a483 60bf 9931 083e 0f35 e13e e4df bbbd
000001b0: 444a 9cbf 7e30 613e a0cf b83e e191 26bf
000001c0: 3586 933d 2ab6 51bf df7c 143e 29d1 ed3e
000001d0: bdad ba3e 3dc3 c13c 243d dcbe 3333 d0bd
000001e0: 5e22 233d 6568 0abf 43c1 e23e e7fa 133f
000001f0: 4fc7 393e 58a8 c93e f567 99ba 2dec e9be

q1.2.weight f4 [128, 128]
0.29630437 0.22826011 -0.15915678 0.19757842 0.20652908 0.14949875 -0.3415977 0.12965083
-0.24002175 0.08284935 0.21754026 0.30630127 0.018308531 0.051352877 0.09719756 0.35622713
0.2902023 0.10352696 0.09008702 0.17278747 0.11717252 -0.30233335 0.23637377 -0.192388
0.17400321 -0.33876184 0.22385494 0.24976102 0.089610726 -0.09220972 0.13491501 0.3325691
0.16055386 0.24491881 -0.26275188 0.37144542 0.053467102 0.043736942 -0.05542574 0.27401114
-0.039726302 0.19486466 0.4625236 0.040325288 0.045683138 0.18846424 0.2359033 0.2750726
0.12008458 0.11230275 0.035631355 0.1961862 1.013979 0.007611294 0.3093843 -0.16698779
-0.36667603 -0.1393129 0.05645821 -0.11472962 0.12775852 -0.119769365 0.16414575 0.32715663
0.22609298 0.22090289 -0.32718673 0.18241888 -0.40097263 -0.31273106 -0.006445819 0.12494412
0.254237 0.17452335 0.023380965 -0.011241067 0.105551586 0.2595806 0.03619184 0.23703744
-0.16778332 0.03976785 0.114990726 0.019824356 -0.030750504 0.5739892 0.28004557 0.04122821
0.10894579 -0.04622722 0.14230113 -0.039902087 0.11264254 0.107520394 0.22090426 -0.09484583
0.05137128 0.010285147 0.50290483 -0.17125429 0.07887559 0.46003354 0.5192744 0.30341503
-0.23200443 0.05369602 0.22667451 0.22375104 -0.2201127 0.11487706 0.5398692 -0.22107223
0.13335069 -0.20250227 -0.037945647 0.29745716 0.11790836 0.29371685 0.060914595 -0.13176194
-0.121169224 -0.25636014 0.089796744 0.62404794 0.01427517 0.14547203 0.02468632 0.06526004
0.275258 0.23925179 -0.22661039 0.12237952 0.1740069 0.2321809 -0.109417416 0.040157326
-0.38909525 0.23121879 0.10769818 0.2647214 -0.05382729 0.042295605 0.15891126 0.5100018
0.13506956 0.15073077 0.32562593 0.15334553 0.26268277 -0.14186564 -0.052227695 -0.19376029
0.07135085 -0.16549283 0.26462495 0.00336137 0.1298407 0.18346249 0.058842022 0.19910681
0.23174095 0.10593032 -0.30931222 0.18549225 0.04193709 0.20565687 -0.08447025 0.13463084
0.023816476 0.1307356 0.2471356 0.08941506 0.26705265 0.10189977 0.2709288 0.31951502
0.3158533 0.015039037 0.043418605 0.22025879 0.97287405 0.0067794635 0.22010171 -0.0711282
-0.37818682 -0.12795116 0.24872877 -0.28297383 0.06325181 -0.2506771 0.16009499 0.45747694
0.027608711 -0.017494218 -0.18250746 0.17683895 -0.2344222 -0.46947777 -0.15816689 0.123461396
0.3844138 0.11299677 -0.009159428 0.08857826 0.30479285 0.43898046 0.07191656 0.23730066
-0.11915129 0.21941288 0.28952593 0.21787803 0.15473016 0.4039656 0.23779964 0.07312701
0.26372433 -0.20878083 0.113060504 0.11036362 -0.0025679003 0.2285846 0.12810087 -0.003392733
-0.046396907 0.022614462 0.36427975 -0.115496024 -0.005565712 0.41216317 0.381625 0.026453497
-0.041827388 0.23640609 0.18308578 0.09165243 -0.20752388 0.07016702 0.3303966 -0.14347255
0.23616701 -0.099422194 -0.11635328 0.24456549 0.21935436 0.19179375 0.11863419 -0.24278294
-0.15938345 -0.24181366 0.20350708 0.6198941 0.24580827 -0.028186476 -0.2416898 -0.0253781
00000000: 35b5 973e 05bd 693e fff9 22be ff51 4a3e
00000010: 5c7c 533e 3316 193e e5e5 aebe 30c3 043e
00000020: 43c8 75be ecac a93d e0c2 5e3e 85d3 9c3e
00000030: c6fb 953c 6557 523d 840f c73d 6763 b63e
00000040: 6595 943e f105 d43d 8b7f b83d 33ef 303e
00000050: 25f8 ef3d 70cb 9abe f70b 723e 5c01 45be
00000060: e62d 323e 3172 adbe 3b3a 653e 5ac1 7f3e
00000070: d485 b73d 73d8 bcbd 2927 0a3e 7f46 aa3e
00000080: 3b68 243e ffcb 7a3e 6a87 86be 182e be3e
00000090: 5200 5b3d 8225 333d 1a06 63bd 304b 8c3e
000000a0: 0cb8 22bd 9a8a 473e e5cf ec3e 212c 253d
000000b0: 3e1e 3b3d c5fc 403e a290 713e 51d6 8c3e
000000c0: e7ee f53d fcfe e53d 2ff2 113d 09e5 483e
000000d0: 10ca 813f 2968 f93b 9e67 9e3e d9fe 2abe
000000e0: f6bc bbbe 0aa8 0ebe b940 673d 5df7 eabd
000000f0: 21d3 023e a449 f5bd d315 283e 1381 a73e
00000100: eb84 673e 5e34 623e 0585 a7be 04cc 3a3e
00000110: 494c cdbe 491e a0be 7337 d3bb b4e2 ff3d
00000120: 5a2b 823e 40b6 323e 7089 bf3c 742c 38bc
00000130: 6e2b d83d c0e7 843e e53d 143d f1b9 723e
00000140: 64cf 2bbe 9de3 223d 4280 eb3d b066 a23c
00000150: 7be8 fbbc f5f0 123f 2262 8f3e e9de 283d
00000160: f81e df3d c158 3dbd 63b7 113e 5f70 23bd
00000170: 22b1 e63d a733 dc3d ba34 623e 883e c2bd
00000180: b16a 523d 0883 283c 5fbe 003f 495d 2fbe
00000190: 8689 a13d 8489 eb3e 2bef 043f 3759 9b3e
000001a0: 9292 6dbe 5cf0 5b3d 5d1d 683e fe1e 653e
000001b0: 3965 61be aa44 eb3d de34 0a3f c260 62be
000001c0: 158d 083e c15c 4fbe e56c 1bbd 4e4c 983e
000001d0: f079 f13d 0e62 963e 9581 793d 9aec 06be
000001e0: 9227 f8bd a341 83be 5be7 b73d 9bc1 1f3f
000001f0: 67e2 693c 9ff6 143e f73a ca3c 0ea7 853d
00000200: 9eee 8c3e 6cfe 743e 8e0c 68be 1da2 fa3d
00000210: dd2e 323e d4c0 6d3e 3d16 e0bd 027c 243d
00000220: 7e37 c7be 9ec4 6c3e dd90 dc3d 9089 873e
00000230: 017a 5cbd 283e 2d3d a2b9 223e 7a8f 023f
00000240: ad4f 0a3e 2b59 1a3e 71b8 a63e 9c06 1d3e
00000250: 5b7e 863e 3a45 11be b5ec 55bd 1969 46be
00000260: 6520 923d f476 29be ec7c 873e 6e4a 5c3b
00000270: f6f4 043e 97dd 3b3e 5504 713d a8e2 4b3e
00000280: 804d 6d3e fff1 d83d 2c5e 9ebe aef1 3d3e
00000290: 3ac6 2b3d b797 523e bdfe acbd abdc 093e
000002a0: c51a c33c 8edf 053e 1d11 7d3e 3e1f b73d
000002b0: 20bb 883e d4b0 d03d 2eb7 8a3e 7997 a33e
000002c0: 86b7 a13e 4b66 763c b5d7 313d 858b 613e
000002d0: 460e 793f 4326 de3b 5862 613e a9ab 91bd
000002e0: b4a1 c1be a105 03be c1b2 7e3e f2e1 90be
000002f0: 2a8a 813d c058 80be f1ef 233e 6b3a ea3e
00000300: aa2b e23c 0950 8fbc 3ce3 3abe 4515 353e
00000310: 600c 70be 645f f0be 80f6 21be 54d9 fc3d
00000320: e3d1 c43e da6a e73d 6d11 16bc 8568 b53d
00000330: cf0d 9c3e 0cc2 e03e fd48 933d f2fe 723e
00000340: 9705 f4bd c5ad 603e be3c 943e 6b1b 5f3e
00000350: 9571 1e3e 94d4 ce3e c081 733e 9dc3 953d
00000360: e006 873e a4ca 55be 448c e73d 5206 e23d
00000370: 384a 28bb 1512 6a3e e02c 033e 9d58 5ebb
00000380: af0a 3ebd f741 b93c e082 ba3e 2e89 ecbd
00000390: 9460 b6bb 0d07 d33e 5a64 c33e 01b5 d83c
000003a0: 3253 2bbd 7014 723e d77a 3b3e 45b4 bb3d
000003b0: 2481 54be bab3 8f3d be29 a93e 78ea 12be
000003c0: c4d5 713e dd9d cbbd a14a eebd 606f 7a3e
000003d0: 6e9e 603e 9565 443e 7bf6 f23d 179c 78be
000003e0: 6a35 23be 009e 77be 2964 503e 61b1 1e3f
000003f0: 2ab5 7b3e 53e7 e6bc 887d 77be bce5 cfbc

q1.2.bias f4 [128]
0.24956968 0.25397655 0.27530754 0.24703316 0.41327247 -0.024380043 -0.01644108 0.0057588597
0.23888278 0.25862753 0.32426116 0.24683222 -0.017128937 0.25944072 -0.054639965 0.28997707
0.25397813 0.48526427 -0.00841592 0.31200716 0.3414811 0.46743864 0.011464149 0.27534798
0.30140826 0.3111121 -0.0214866 -0.04430333 0.0070978245 -0.052065257 0.28955862 -0.006005334
0.27958417 -0.025501005 -0.02086823 0.25621688 -0.020824673 0.27602085 0.23935196 0.7771243
0.3034727 0.29062223 -0.017606042 0.3138733 -0.018705925 -0.048797734 0.32608977 -0.057991043
-0.040091835 -0.084070295 0.28811723 0.023775712 0.52787447 0.29170325 0.3684376 -0.011641074
0.2526202 0.24489132 0.18227643 0.38646722 -0.025405599 0.028758485 -0.05468217 -0.04882308
-0.011623964 0.11746812 -0.024899898 0.32007018 0.054866113 0.3290417 -0.063592836 0.28276697
0.25433034 0.45505264 0.15844055 0.24750914 0.33670327 0.2578913 -0.060626894 0.2571431
0.25565743 0.26130873 0.25484303 -0.01204308 0.25271404 -0.012102607 0.26103455 0.08681502
0.26792094 -0.01398812 0.09294232 0.27851143 0.26617068 0.2611298 0.25995538 0.30459276
0.27121308 0.25718126 0.296867 -0.017943671 0.5280645 -0.011997445 0.25923693 -0.017719232
0.35084915 0.3092545 0.24218334 0.25911728 0.27731955 0.25988773 0.17149463 0.25591314
0.46550587 -0.20282888 -0.011056339 0.24782614 0.38314483 -0.015865609 0.26598626 0.1509481
0.30249017 0.3244302 0.28583974 -0.051505286 0.254397 -0.019892387 0.25747004 0.24819365
00000000: 328f 7f3e 3709 823e 1cf5 8c3e 43f6 7c3e
00000010: 7398 d33e a8b8 c7bc 72af 86bc d1b4 bc3b
00000020: b09d 743e d46a 843e 8f05 a63e 96c1 7c3e
00000030: fc51 8cbc 6ad5 843e 28ce 5fbd e077 943e
00000040: 6c09 823e 8f74 f83e ede2 09bc 67bf 9f3e
00000050: 9cd6 ae3e 1e54 ef3e 20d4 3b3c 69fa 8c3e
00000060: 2f52 9a3e 164a 9f3e ab04 b0bc 6977 35bd
00000070: de94 e83b 6142 55bd 0741 943e 65c8 c4bb
00000080: a825 8f3e 7ce7 d0bc daf3 aabc dc2e 833e
00000090: 8198 aabc 9b52 8d3e ae18 753e 9ef1 463f
000000a0: c660 9b3e 70cc 943e 8c3a 90bc 00b4 a03e
000000b0: 2b3d 99bc 22e0 47bd 3df5 a63e 0488 6dbd
000000c0: 5637 24bd 0c2d acbd 1a84 933e 48c5 c23c
000000d0: c822 073f 215a 953e daa3 bc3e 34ba 3ebc
000000e0: 6f57 813e cac4 7a3e aca6 3a3e 08df c53e
000000f0: 671f d0bc ea96 eb3c 69fa 5fbd b6fa 47bd
00000100: 7072 3ebc 2093 f03d dffa cbbc 3de0 a33e
00000110: 4abb 603d 2778 a83e f63c 82bd d5c6 903e
00000120: 9637 823e a9fc e83e 3d3e 223e 0973 7d3e
00000130: 5f64 ac3e 540a 843e e853 78bd 43a8 833e
00000140: 88e5 823e 42ca 853e c97a 823e 5750 45bc
00000150: bc63 813e 034a 46bc 52a6 853e 13cc b13d
00000160: ef2c 893e 6d2e 65bc 8b58 be3d 0d99 8e3e
00000170: 8647 883e ceb2 853e df18 853e 95f3 9b3e
00000180: 71dc 8a3e 43ad 833e f4fe 973e 9bfe 92bc
00000190: 3c2f 073f ee90 44bc b4ba 843e ec27 91bc
000001a0: 80a2 b33e 9b56 9e3e e9fe 773e 05ab 843e
000001b0: d4fc 8d3e 0110 853e 4a9c 2f3e 0c07 833e
000001c0: c956 ee3e 60b2 4fbe a625 35bc 23c6 7d3e
000001d0: 8f2b c43e 98f8 81bc 5a2f 883e 2492 1a3e
000001e0: fedf 9a3e b71b a63e 9659 923e 35f7 52bd
000001f0: 5340 823e 5cf5 a2bc 1dd3 833e 7a26 7e3e

q1.4.weight f4 [1, 128]
-0.29750866 -0.27316523 -0.35780883 -0.2695504 3.1460812 0.16043063 0.10772423 0.5167874
-0.19542 -0.19286464 -0.64692336 -0.34283313 0.0413484 -0.340036 0.0307133 -0.9455083
-0.3182144 4.097147 0.046228144 -0.29983142 -0.311295 4.4715977 1.0895982 -0.15889153
-0.4338049 -0.5727345 0.10622068 0.07983254 0.6355279 0.102936506 -0.40247628 0.040651374
-0.25913027 0.088887915 0.05088389 -0.33882955 0.12928838 -0.2379451 -0.21522872 5.019016
-0.24617559 -0.28599268 -0.0005461251 4.5948095 0.054243878 -0.009924703 -0.26752043 0.11357708
-0.01976354 2.1821985 -0.45562705 1.228959 4.201747 -0.43321088 -0.914477 0.3148238
-0.21466725 -0.22322524 0.79437256 -0.9276094 0.03658601 0.99886465 0.1167504 -0.016088761
0.09417884 0.6720723 0.14917961 -0.2528966 0.78354454 -0.52876323 0.08557738 -0.34255153
-0.27019447 -0.81284595 1.5500363 -0.20753145 -0.47585985 -0.25600603 0.975968 -0.29968256
-0.40037423 -0.25382486 -0.3112661 0.012329115 -0.23497288 0.09754351 -0.26073244 0.96651405
-0.3574312 0.13470972 0.80057776 -0.24006513 -0.31242973 -0.2106722 -0.20460823 -0.90319467
-0.23307107 -0.26717228 -0.19595811 0.11795049 4.3801475 0.062454306 -0.23103477 0.13328725
-0.92521036 3.1082292 -0.24723974 -0.3110758 -0.2757179 -0.27482647 0.6852144 -0.31378034
4.705773 0.93094414 0.17831339 -0.3536205 -0.5485309 0.021681322 -0.41275114 0.9501957
-0.4768834 -0.4024288 -0.3836539 -0.13673459 -0.2560063 0.16984117 -0.36198044 -0.22003402
00000000: 0e53 98be 50dc 8bbe b832 b7be 8302 8abe
00000010: 6559 4940 ed47 243e 859e dc3d 2e4c 043f
00000020: 2e1c 48be 4f7e 45be c59c 25bf d387 afbe
00000030: f15c 293d 3319 aebe 759a fb3c d50c 72bf
00000040: ffec a2be d41b 8340 b959 3d3d 8183 99be
00000050: 0f62 9fbe 5417 8f40 f477 8b3f 76b4 22be
00000060: ad1b debe ba9e 12bf 3a8a d93d 3e7f a33d
00000070: f5b1 223f 60d0 d23d 5f11 cebe 0e82 263d
00000080: b9ac 84be de0a b63d a06b 503d 117b adbe
00000090: 2c64 043e e1a7 73be eb64 5cbe c79b a040
000000a0: 7415 7cbe a26d 92be d629 0fba ae08 9340
000000b0: d42e 5e3d 399b 22bc 70f8 88be 1a9b e83d
000000c0: 26e7 a1bc 24a9 0b40 f347 e9be 874e 9d3f
000000d0: b674 8640 d1cd ddbe 2a1b 6abf 9630 a13e
000000e0: bbd1 5bbe 2895 64be 005c 4b3f cf77 6dbf
000000f0: 36db 153d 98b5 7f3f d51a ef3d 94cc 83bc
00000100: d6e0 c03d ee0c 2c3f 8ac2 183e aa7b 81be
00000110: 6096 483f 075d 07bf 3243 af3d ea62 afbe
00000120: ee56 8abe ac16 50bf 9767 c63f 2083 54be
00000130: e7a3 f3be 3913 83be 0ad9 793f fe6f 99be
00000140: dafd ccbe 55f5 81be 455e 9fbe 0e00 4a3c
00000150: bb9c 70be e4c4 c73d b97e 85be 776d 773f
00000160: 3901 b7be 58f1 093e aaf2 4c3f a2d3 75be
00000170: caf6 9fbe 74ba 57be d284 51be c437 67bf
00000180: 2faa 6ebe ceca 88be 3ea9 48be 0790 f13d
00000190: 2b2a 8c40 16d0 7f3d 6194 6cbe 747c 083e
000001a0: 96da 6cbf 3aed 4640 6a2c 7dbe 5445 9fbe
000001b0: e62a 8dbe 0eb6 8cbe 366a 2f3f d1a7 a0be
000001c0: b195 9640 5b52 6e3f c997 363e bf0d b5be
000001d0: 856c 0cbf 079d b13c 1e54 d3be 0740 733f
000001e0: 102a f4be 260b cebe 496e c4be 2704 0cbe
000001f0: 4213 83be d8ea 2d3e 8055 b9be 9950 61be

q2.0.weight f4 [128, 4]
-1.4530354 -0.03485691 -0.16619837 -0.012889408 0.4693542 0.61832136 0.03127978 0.01762551
-0.20263198 0.7312718 0.44758147 0.056632537 -0.48804623 -0.32715282 -0.15701982 -0.024526667
1.7889969 -0.01807877 0.018378463 0.030155739 0.1009442 -0.45694873 -0.05947172 -0.3184489
-0.37319782 1.1235992 0.2730521 0.08052647 -0.5158954 0.60794294 -0.06928139 -0.04227365
-0.28761187 -0.090523355 -0.27881327 -0.0017888236 -0.4920547 -0.30333441 -0.1421939 -0.054753292
0.523085 -0.92478704 -0.23522909 -0.069785744 -0.18431316 0.7694222 0.277515 -0.12354177
0.43074724 0.5564331 -0.54000425 0.112522304 -0.5685425 0.98619926 0.280125 0.079891615
-0.4514017 -0.45984405 0.198231 -0.01894965 -0.60773075 0.74723464 -0.19695053 -0.027812328
-0.59406984 -0.62048346 -0.21702348 -0.05006488 -0.36446092 0.054037467 0.1259452 0.027753506
-0.27272892 0.11540321 0.32385993 0.090104274 -0.49134505 -0.533376 -0.18045446 -0.05189248
0.14354217 1.1500818 0.1716309 0.16058467 -0.39968705 -0.21293646 -0.12710646 -0.029540176
-0.18626015 0.5988889 0.35900405 -0.025915418 -0.17627494 -0.09631548 0.41881377 0.4135407
-0.5340699 -0.38733014 -0.17184108 -0.02665104 -0.035272364 0.83132404 0.18974537 0.016136903
0.43741924 0.15098868 0.27015758 0.08232352 -0.3741872 0.096731156 0.12680484 0.039606165
-0.5737951 -0.7578972 -0.23027648 -0.052692927 -0.042580362 -0.88131243 -0.18518844 -0.088705026
-0.5714225 0.756441 0.23024997 0.094452456 0.38507023 0.092257865 0.02609643 0.44547266
-0.45455712 -0.99898577 -0.25293672 -0.07100012 -0.042475093 0.22483158 -0.010765965 -0.040010918
-0.59832424 -0.7739234 -0.24254028 -0.050056826 0.6643691 0.81880325 0.10925502 0.045403153
-0.36346793 -0.3084683 0.08960162 0.077238545 -0.5274557 -0.29657224 -0.16472657 -0.05318988
-0.339428 0.33607808 -0.08678154 -0.057209063 1.4764261 0.1255432 -0.27617738 -0.11715318
-0.46081933 0.4905517 0.17334805 0.06451959 0.053935222 -0.6231747 -0.06840407 0.15212134
-0.22475386 -1.0404297 0.19832994 0.07872439 -0.81261754 -0.2184987 -0.11894069 -0.033789832
-0.65067166 0.41519922 0.20472603 0.028798753 -0.71566176 0.54046905 -0.13704467 -0.024621261
-0.016767707 -0.2804663 -0.58221227 -0.32161656 -0.12445417 -1.3202145 -0.28877702 -0.07308345
-0.42374378 1.1122582 0.2998399 0.062813126 0.34894082 0.5383025 -0.68269414 -0.49231303
0.46826136 -0.49046603 -0.0109697925 0.10157279 0.47189704 -0.97804564 -0.16970149 -0.14962812
-0.2140533 0.45273554 0.4077696 0.06879901 -0.26155105 -0.48698136 0.13237315 0.031890664
-0.6312365 -0.49053735 -0.12972423 -0.06304755 0.86385894 -0.51097 -0.38815898 -0.047682956
-0.5138808 -0.33099413 -0.16683502 -0.0391511 0.39623117 0.95827365 0.16692449 0.089978404
1.0382203 -0.76254356 -0.26013643 0.03371403 0.46657026 0.27496898 0.22316737 -0.36861977
-0.62598336 -0.16240327 -0.08693678 -0.037189707 0.04415906 -1.1700007 -0.12801766 -0.18436347
1.0310267 0.6649391 0.36851388 0.09255138 -0.47068664 -0.6025619 0.0915444 0.011282158
00000000: 10fd b9bf 1fc6 0ebd e82f 2abe 182e 53bc
00000010: 324f f03e 4f4a 1e3f 3a1f 003d 6063 903c
00000020: c27e 4fbe a134 3b3f 6629 e53e 85f7 673d
00000030: 32e1 f9be 9380 a7be cec9 20be 26ec c8bc
00000040: dafd e43f ee19 94bc 6e8e 963c 2b09 f73c
00000050: d5bb ce3d 2ff5 e9be 9e98 73bd bc0b a3be
00000060: c913 bfbe 19d2 8f3f 7ccd 8b3e 10eb a43d
00000070: b911 04bf 26a2 1b3f 67e3 8dbd 2327 2dbd
00000080: dd41 93be 4f64 b9bd 9dc0 8ebe f676 eaba
00000090: 98ee fbbe a64e 9bbe 479b 11be fd44 60bd
000000a0: e6e8 053f d8be 6cbf e5df 70be d4eb 8ebd
000000b0: 97bc 3cbe daf8 443f 7216 8e3e 7803 fdbd
000000c0: e78a dc3e 6672 0e3f b83d 0abf 1872 e63d
000000d0: 008c 11bf 8e77 7c3f 8b6c 8f3e 379e a33d
000000e0: 201e e7be ae70 ebbe 11fd 4a3e 4c3c 9bbc
000000f0: 3e94 1bbf c54a 3f3f 66ad 49be aed6 e3bc
00000100: f614 18bf 01d8 1ebf 673b 5ebe d510 4dbd
00000110: 9f9a babe 6456 5d3d c7f7 003e 525b e33c
00000120: 20a3 8bbe 8558 ec3d f8d0 a53e 9788 b83d
00000130: 9491 fbbe 548b 08bf 0ec9 38be 368d 54bd
00000140: b8fc 123e e135 933f 03c0 2f3e 4f70 243e
00000150: c8a3 ccbe 040c 5abe 3228 02be 3dfe f1bc
00000160: fbba 3ebe c850 193f 61cf b73e 924c d4bc
00000170: 6b81 34be 0d41 c5bd c26e d63e 9bbb d33e
00000180: ceb8 08bf 2350 c6be 1cf7 2fbe 4853 dabc
00000190: c179 10bd a7d1 543f 9c4c 423e 8a31 843c
000001a0: 6af5 df3e c79c 1a3e 1852 8a3e 3c99 a83d
000001b0: 7795 bfbe fc1a c63d 21d9 013e 133a 223d
000001c0: 3ce4 12bf 8d05 42bf 99cd 6bbe 8ad4 57bd
000001d0: bf68 2ebd b19d 61bf 0aa2 3dbe fbaa b5bd
000001e0: bf48 12bf 1ea6 413f a6c6 6b3e 4a70 c13d
000001f0: ed27 c53e b1f1 bc3d 2ec8 d53c fe14 e43e
00000200: b6bb e8be 88bd 7fbf ec80 81be 8368 91bd
00000210: 5dfa 2dbd 403a 663e bb63 30bc 7de2 23bd
00000220: c72b 19bf d81f 46bf 7b5c 78be 6308 4dbd
00000230: 1814 2a3f 179d 513f 19c1 df3d a8f8 393d
00000240: 7818 babe 8fef 9dbe 0e81 b73d 3e2f 9e3d
00000250: 5607 07bf 51d8 97be 15ae 28be a2dd 59bd
00000260: 82c9 adbe 6d12 ac3e 85ba b1bd 0d54 6abd
00000270: 88fb bc3f 668e 003e 1f67 8dbe 02ee efbd
00000280: 83f0 ebbe 9829 fb3e 2782 313e d922 843d
00000290: 2eeb 5c3d 6188 1fbf 6f17 8cbd b2c5 1b3e
000002a0: e025 66be cd2c 85bf 0117 4b3e 413a a13d
000002b0: b407 50bf 20be 5fbe 2d97 f3bd 3567 0abd
000002c0: 6b92 26bf fe94 d43e b3a3 513e 5deb eb3c
000002d0: 9c35 37bf 2e5c 0a3f 7055 0cbe 87b2 c9bc
000002e0: 6e5c 89bc 4799 8fbe dd0b 15bf edaa a4be
000002f0: d4e1 febd cafc a8bf 95da 93be c7ac 95bd
00000300: f2f4 d8be 7a5e 8e3f 9e84 993e 2ba4 803d
00000310: 5fa8 b23e 31ce 093f 0bc5 2ebf 7410 fcbe
00000320: f4bf ef3e 5d1e fbbe a5ba 33bc 6505 d03d
00000330: 7d9c f13e 3361 7abf 3ac6 2dbe 1d38 19be
00000340: ca30 5bbe f4cc e73e 2dc7 d03e 7fe6 8c3d
00000350: 05ea 85be 9f55 f9be d48c 073e c99f 023d
00000360: b798 21bf b627 fbbe 6ed6 04be 131f 81bd
00000370: dc25 5d3f eece 02bf c6bc c6be 344f 43bd
00000380: b18d 03bf 1078 a9be cdd6 2abe e75c 20bd
00000390: d0de ca3e 6c51 753f 41ee 2a3e 9946 b83d
000003a0: 67e4 843f 0e36 43bf 9a30 85be b917 0a3d
000003b0: 4ce2 ee3e bcc8 8c3e fd85 643e bbbb bcbe
000003c0: 7240 20bf 0b4d 26be e90b b2bd 3c54 18bd
000003d0: 21e0 343d 95c2 95bf 1017 03be c7c9 3cbe
000003e0: aff8 833f 7339 2a3f daad bc3e 948b bd3d
000003f0: d7fd f0be 7f41 1abf a17b bb3d cdd8 383c
