TD3/checkpoints/Pendulum-v1/06_last_checkpoint.pth (torch, 856338 bytes, 60 tensors)

actor.0.weight f4 [128, 3]
-0.020972779 0.91188574 0.018648675 -0.20093343 0.33701575 0.24877612 0.1991538 -0.42366168
0.09970595 -0.075757444 -0.8489555 0.20801395 -0.8892991 -0.11950119 -0.028918767 0.15327804
-0.500847 0.13374232 -0.1733954 -0.12685199 -0.47387546 0.09217262 -1.4108446 0.12851414
-0.18937565 0.55238974 0.12004452 -0.3430877 -1.1269952 -0.029940274 -0.4453674 0.17671312
-0.0005267435 -0.4721833 0.22278807 0.04037092 -0.40977854 0.3395971 0.06559664 -0.31740645
-1.249499 -0.023343252 0.1625824 0.35191977 0.37065527 -0.802686 -0.22310278 0.03226478
0.36416733 -0.5104125 0.17320426 -0.27653876 -1.005387 -0.18741344 -0.00511621 -0.29014727
0.25482616 0.48690915 0.69205976 0.24150869 -0.10672986 -0.88638514 -0.15468189 -0.7587303
0.39916104 0.01100023 -0.19471459 0.114525 0.17216751 0.036922477 -0.2863063 0.26421133
-0.11361539 -0.19421977 0.011850264 0.32822627 0.26847684 0.27523023 0.40948364 -0.6225172
-0.23075809 0.3902703 -0.28833526 0.1890494 -0.4164026 0.31187865 0.15991692 0.46080628
0.7706292 0.3073455 0.401298 0.3882397 0.25459024 0.006838032 -0.22598027 0.24833585
0.15867648 0.93602884 0.23158087 -0.1378055 -0.08410563 0.18164861 -0.26251546 -1.0062063
-0.06867788 0.50986993 -0.2507356 -0.19265991 -0.3801791 0.48901662 0.072494715 -0.17331643
0.037134092 0.21292193 0.1671827 0.2683054 -0.5255213 -0.30086997 0.115271494 0.437616
0.13718568 -0.3644972 0.38824323 -0.37487835 0.60482967 0.1438708 -0.035695348 0.2780435
0.30830792 0.1344699 0.22302881 0.31065658 -0.11049976 -0.721562 -0.22207378 -0.4057099
0.5855026 0.16318637 -0.91114295 0.14971726 0.040758964 -0.6624637 0.27114186 0.08569369
-0.04096867 0.09788158 0.0031537812 0.23923063 0.9618616 0.16842483 -0.09045081 0.03622236
-0.6273637 0.02969053 -0.7376489 0.10553431 -0.24832025 0.7746515 0.17278561 0.11405723
-1.338465 0.11419185 0.009365255 -0.62448186 0.1509205 0.44515368 -0.9003558 -0.19892475
0.41041946 -0.27759624 0.18669556 -0.46311098 0.7661837 0.0955452 -0.2620583 -0.97822094
0.03778676 -0.21591331 -0.0027087845 -0.17543039 -0.14306703 0.4658218 0.17110325 0.20460495
0.2614101 0.11855434 -0.6511694 0.4413052 -0.0014808833 0.0060514337 -0.2846129 0.24136792
0.45461798 0.46824333 0.2590599 -0.22243643 -0.4432514 0.32138434 -0.24720751 -0.96297324
-0.010147583 0.2255739 -0.35055578 0.16548805 -0.20092818 0.5021564 0.19555658 0.44564307
0.6259373 0.3841967 0.29737163 -0.8605597 -0.19586499 -0.18076937 -0.07010298 0.15807295
-0.25744912 -1.0919942 -0.2603434 -0.9031444 -0.13339654 -0.05254393 0.078496695 -0.6121828
0.09808483 -0.2308847 0.2758293 0.13960415 0.3792482 0.17001483 0.2223939 0.26393935
0.99003 -0.3395402 0.12817758 0.4503895 0.30351156 0.45625684 0.37511542 0.33720848
0.50193304 -0.5124078 -0.20433709 0.36797547 -0.53547835 -0.24739297 -0.20877081 -0.93118644
-0.23716867 0.24502008 -0.07456688 -0.2057777 0.27584887 -0.22605665 -0.14164275 -0.030959116
00000000: 1bcf abbc 5871 693f 1bc5 983c 7ec1 4dbe
00000010: 548d ac3e 2bbf 7e3e f9ee 4b3e 2fea d8be
00000020: a232 cc3d b826 9bbd 2655 59bf 9c01 553e
00000030: 1ba9 63bf 0abd f4bd 0de7 ecbc ebf4 1c3e
00000040: 8237 00bf bff3 083e 908e 31be 7de5 01be
00000050: ce9f f2be 00c5 bc3d 8e96 b4bf 3699 033e
00000060: b1eb 41be 6a69 0d3f e7d9 f53d 31a9 afbe
00000070: 6141 90bf 4e45 f5bc 3207 e4be 49f4 343e
00000080: 2815 0aba 02c2 f1be 8e22 643e fa5b 253d
00000090: 7ece d1be acdf ad3e 8857 863d 1983 a2be
000000a0: 95ef 9fbf 593a bfbc 007c 263e d42e b43e
000000b0: 87c6 bd3e d47c 4dbf 0e75 64be 1328 043d
000000c0: 2474 ba3e 65aa 02bf 755c 313e 7d96 8dbe
000000d0: 85b0 80bf 4fe9 3fbe e1a5 a7bb 2f8e 94be
000000e0: 9378 823e 284c f93e d42a 313f 0e4e 773e
000000f0: 2f95 dabd 23ea 62bf ee64 1ebe 263c 42bf
00000100: d65e cc3e 4f3a 343c 4363 47be 158c ea3d
00000110: ae4c 303e 063c 173d bd96 92be b546 873e
00000120: 30af e8bd 8ce1 46be 9c27 423c 460d a83e
00000130: cc75 893e faea 8c3e d7a7 d13e 4a5d 1fbf
00000140: d94b 6cbe 82d1 c73e aea0 93be 2a96 413e
00000150: b932 d5be 8fae 9f3e 43c1 233e cdee eb3e
00000160: f547 453f 645c 9d3e ee76 cd3e 5bc7 c63e
00000170: a759 823e 9211 e03b 5f67 67be c14b 7e3e
00000180: 167c 223e 969f 6f3f 8923 6d3e e31c 0dbe
00000190: 933f acbd 1802 3a3e 6d68 86be 5ecb 80bf
000001a0: fda6 8cbd d686 023f 6b60 80be a448 45be
000001b0: d6a6 c2be 6360 fa3e 1c78 943d dd79 31be
000001c0: eb19 183d 3508 5a3e f131 2b3e 535f 893e
000001d0: 9088 06bf a10b 9abe 7613 ec3d 340f e03e
000001e0: 677a 0c3e 619f babe d1c7 c63e 0ef0 bfbe
000001f0: 1ed6 1a3f de52 133e 4935 12bd b85b 8e3e
00000200: 89da 9d3e 7ab2 093e aa61 643e 610e 9f3e
00000210: b34d e2bd 4ab8 38bf 4f67 63be 35b9 cfbe
00000220: 80e3 153f 541a 273e aa40 69bf 7b4f 193e
00000230: dff2 263d 3997 29bf 1bd3 8a3e 2c80 af3d
00000240: c4ce 27bd 2376 c83d abaf 4e3b e0f8 743e
00000250: 903c 763f 8f77 2c3e 463e b9bd e65d 143d
00000260: e89a 20bf 8e39 f33c 8fd6 3cbf 5f22 d83d
00000270: aa47 7ebe 904f 463f b6ee 303e d696 e93d
00000280: d252 abbf 6bdd e93d ba70 193c 0bde 1fbf
00000290: e78a 1a3e 2feb e33e b87d 66bf eeb2 4bbe
000002a0: 8022 d23e 1821 8ebe 1f2d 3f3e e21c edbe
000002b0: 9d24 443f 34ad c33d 812c 86be b06c 7abf
000002c0: 4ac6 1a3d 6118 5dbe dd85 31bb 06a4 33be
000002d0: 2a80 12be 3280 ee3e b135 2f3e f683 513e
000002e0: 8bd7 853e 9ecc f23d 0ab3 26bf c1f2 e13e
000002f0: 331a c2ba 1b4b c63b c8b8 91be 2729 773e
00000300: b0c3 e83e 97bd ef3e 80a3 843e 60c6 63be
00000310: d9f1 e2be 7d8c a43e f723 7dbe 6a85 76bf
00000320: 0c42 26bc d8fc 663e 0c7c b3be b375 293e
00000330: 1ec0 4dbe 528d 003f fc3f 483e 542b e43e
00000340: 6d3d 203f 6eb5 c43e 1841 983e a44d 5cbf
00000350: d590 48be 9b1b 39be 2792 8fbd e0dd 213e
00000360: 5fd0 83be 77c6 8bbf bb4b 85be 7934 67bf
00000370: 1a99 08be 4e38 57bd e0c2 a03d 03b8 1cbf
00000380: b3e0 c83d 0a6d 6cbe 7f39 8d3e 64f4 0e3e
00000390: d22c c23e 5e18 2e3e 3abb 633e 0f23 873e
000003a0: 9b72 7d3f 37d8 adbe fc40 033e 7499 e63e
000003b0: de65 9b3e 7f9a e93e 210f c03e 97a6 ac3e
000003c0: af7e 003f 282d 03bf be3d 51be 4867 bc3e
000003d0: 1c15 09bf 9554 7dbe 04c8 55be 3c62 6ebf
000003e0: 58dc 72be 8be6 7a3e 85b6 98bd 64b7 52be
000003f0: 103c 8d3e 657b 67be cc0a 11be f99d fdbc

actor.0.bias f4 [128]
0.106256455 0.036986466 -0.41974598 0.13950694 0.10479682 -0.43532375 0.15129524 -0.0065159737
-0.091376334 0.03209821 0.13798092 0.09866791 -0.007318515 -0.05115722 -0.36722514 0.2597637
-0.48538858 -0.11906987 -0.14727953 -0.2841989 -0.30102146 0.13970765 -0.23386022 -0.17046128
-0.33358854 -0.49555904 -0.3400243 -0.6245501 -0.16222832 -0.286727 -0.5217017 -0.13551062
0.055791542 -0.22581472 -0.059049964 -0.5756687 -0.048528694 -0.24311206 -0.1188117 0.22686855
-0.07964305 -0.0065561454 0.022768283 -0.3860082 -0.09688089 0.076849155 0.10201646 -0.05473732
-0.1334805 0.05687938 0.1429703 -0.30319336 -0.080721006 -0.020108584 0.08350131 -0.039862882
-0.64524436 0.0881723 -0.06367015 -0.6493664 -0.070829876 -0.063503385 0.028867157 -0.13250086
-0.22750379 -0.21138126 -0.054541174 -0.62100303 -0.12631714 -0.25426063 0.025832914 -0.25507295
-0.18161441 0.12793119 -0.34850213 -0.14976896 -0.43890595 -0.13627385 -0.29379103 -0.3107601
-0.3923458 -0.41886 -0.16071427 -0.66812795 -0.39779863 -0.04615849 -0.108370036 -0.017273225
0.01186549 -0.46984187 -0.36277053 0.31726694 -0.41248432 0.10288161 -0.36414066 -0.27687812
-0.13149951 -0.16521741 -0.3370639 0.1045199 -0.08907444 -0.10415795 -0.10648063 -0.1419441
-0.18802202 -0.2579261 -0.17061618 -0.14699388 -0.22838289 -0.008523653 -0.12569554 -0.24492235
0.03877324 -0.04711583 -0.00072882307 -0.052089874 -0.28184584 -0.09502829 0.03809371 -0.14603056
-0.11405443 -0.17524081 -0.14589715 -0.42524022 0.063257426 0.03098682 -0.38676053 0.10407958
00000000: fc9c d93d 1f7f 173d f2e8 d6be e8da 0e3e
00000010: b79f d63d c1e2 debe 24ed 1a3e f383 d5bb
00000020: 8423 bbbd 6a79 033d df4a 0d3e 6712 ca3d
00000030: 27d0 efbb 3c8a 51bd ef04 bcbe bfff 843e
00000040: da84 f8be e7da f3bd 72d0 16be 8582 91be
00000050: 7c1f 9abe 860f 0f3e 0e79 6fbe 678d 2ebe
00000060: 1ecc aabe eab9 fdbe aa17 aebe 84e2 1fbf
00000070: 2e1f 26be e2cd 92be 3e8e 05bf 4cc3 0abe
00000080: ac85 643d f93b 67be 60de 71bd 065f 13bf
00000090: 06c6 46bd 5ef2 78be 8c53 f3bd 3b50 683e
000000a0: e51b a3bd efd4 d6bb 8d84 ba3c dea2 c5be
000000b0: 7d69 c6bd 1763 9d3d 01ee d03d 3d34 60bd
000000c0: 1daf 08be 5afa 683d ce66 123e 293c 9bbe
000000d0: 0e51 a5bd c2ba a4bc bc02 ab3d 4347 23bd
000000e0: bc2e 25bf ae93 b43d 7f65 82bd e03c 26bf
000000f0: 410f 91bd 100e 82bd d17a ec3c 4eae 07be
00000100: c1f6 68be 5474 58be 9166 5fbd 0efa 1ebf
00000110: 4859 01be 732e 82be 8c9f d33c ec98 82be
00000120: 21f9 39be 6500 033e df6e b2be 095d 19be
00000130: 48b8 e0be 5f8b 0bbe c76b 96be f31b 9fbe
00000140: 8ce1 c8be d174 d6be 4892 24be 6f0a 2bbf
00000150: 43ac cbbe af10 3dbd 1cf1 ddbd 9480 8dbc
00000160: 7967 423c 1d8f f0be 0fbd b9be d070 a23e
00000170: 2531 d3be 98b3 d23d a570 babe f8c2 8dbe
00000180: cfa7 06be c12e 29be a493 acbe 880e d63d
00000190: a96c b6bd c350 d5bd 8412 dabd cb59 11be
000001a0: d888 40be e40e 84be 02b6 2ebe 9085 16be
000001b0: 34dd 69be cba6 0bbc 55b6 00be edcc 7abe
000001c0: b0d0 1e3d 87fc 40bd 7d0e 3fba 315c 55bd
000001d0: 194e 90be 319e c2bd 2608 1c3d 0989 15be
000001e0: 5e95 e9bd 5472 33be 1066 15be 16b9 d9be
000001f0: 1c8d 813d 12d8 fd3c 7a05 c6be ad27 d53d

actor.2.weight f4 [128, 128]
0.101981156 0.121208355 -0.110450156 -0.15944873 0.06323277 -0.07218544 0.036001172 0.101397835
-0.023650143 -0.07132857 0.05622493 0.10513109 -0.051818408 -0.20454845 -0.19138435 -0.094892725
-0.04437898 -0.18865931 0.14630815 -0.17134252 0.015123005 -0.046983983 -0.08481227 -0.10145541
0.16311759 0.076714434 -0.022394927 -0.14156535 0.090962455 -0.27399236 -0.0068138517 -0.003103209
-0.10257038 0.1055582 -0.054797698 0.10492087 -0.119566195 0.01586618 -0.111362204 0.13421048
0.12841558 0.025557956 0.056496017 0.018157665 0.09960605 0.004912777 -0.06478387 -0.039422937
-0.047946084 -0.17732391 -0.11257926 0.08866544 0.054024603 -0.091790214 -0.022137485 -0.083858795
-0.10817187 0.0805369 0.0047382987 -0.13455378 0.08341392 0.04971416 -0.04487486 0.11853665
-0.15770224 0.000716623 -0.07757554 0.0013439421 0.111572966 -0.09791661 0.038312893 -0.089874
-0.140139 -0.08569376 -0.091346875 -0.087834075 -0.013706898 -0.11683555 0.08983348 -0.06981216
0.06831839 0.10179928 0.04459846 0.1128721 0.074423894 -0.01809947 0.10402845 0.15617502
0.10992794 0.034752488 0.005058509 -0.06800512 0.056659423 -0.09264364 -0.119338535 -0.047882706
-0.06279244 -0.0014586865 -0.062278032 0.09059255 -0.14695159 -0.04757154 0.08410798 0.115963496
0.1802082 -0.116083615 -0.054954868 -0.1296404 -0.025540046 0.1406038 -0.15002751 -0.07299914
-0.008313729 -0.1386423 0.0643294 0.11204293 -0.03266308 0.004847899 -0.12963581 -0.093767665
0.09363058 -0.15840466 -0.10251347 0.02929306 -0.015229972 -0.0995694 0.05087194 0.058794122
-0.15270838 0.01503007 0.118020765 0.027902994 -0.14413305 0.052480318 -0.13674553 0.0958413
0.0134901535 -0.063681774 -0.05325331 0.012111871 -0.00032010733 0.10481101 -0.059911564 -0.16546427
0.09067856 0.037273284 -0.06639553 -0.07473093 0.065861315 0.031340767 0.07515574 -0.042032525
-0.08549276 0.08439735 -0.0031729743 0.070809 0.04652675 0.07078531 -0.13446343 -0.13560995
0.08285854 0.0016918131 -0.056875065 -0.06710701 -0.10585505 0.015445797 -0.044844147 -0.019644264
-0.12785754 -0.023019452 -0.1398926 -0.09367054 -0.02260828 -0.12698472 0.03175056 -0.03823953
0.0054953163 -0.16462825 -0.12504554 -0.10227592 0.009886769 -0.089674555 0.056072287 -0.048465833
-0.046123307 0.06034774 0.12888655 -0.14268467 -0.13615082 0.05058121 0.050873574 -0.1061584
-0.119263135 -0.16828865 -0.0070859035 0.03704203 0.061377052 -0.13947748 -2.9453297e-05 -0.03891013
-0.097907126 -0.16017413 0.049870577 0.08854249 -0.050242018 -0.039693724 0.08951099 0.036413714
-0.12483161 -0.042005856 -0.07508521 -0.06705082 0.014903227 -0.20125918 0.027584605 0.068969876
0.024805056 -0.0511716 -0.035485357 0.08640605 0.0808537 -0.12737824 -0.07785124 -0.114707954
0.061534688 -0.00567513 -0.07353061 0.024511566 -0.097066455 -0.0056712297 0.05375659 -0.09611315
-0.05600596 -0.035296675 -0.16142188 0.105364 0.08856882 -0.16017321 0.023634095 -0.1634881
-0.16355792 0.12558042 0.030164149 0.12753724 -0.13089426 -0.091773115 -0.059130535 -0.055060595
-0.13050783 -0.10674701 -0.16221699 0.06697386 -0.017398337 0.06540566 0.12287056 0.010779241
00000000: 7fdb d03d 163c f83d b133 e2bd 8746 23be
00000010: 2f80 813d f6d5 93bd f775 133d aba9 cf3d
00000020: f2bd c1bc b714 92bd 1d4c 663d f84e d73d
00000030: 8a3f 54bd 2675 51be 42fa 43be 1e57 c2bd
00000040: bcc6 35bd e82f 41be ced1 153e 6a74 2fbe
00000050: 7bc6 773c 4772 40bd 0eb2 adbd dbc7 cfbd
00000060: 4c08 273e 751c 9d3d 9175 b7bc 82f6 10be
00000070: 864a ba3d ba48 8cbe bb46 dfbb 355f 4bbb
00000080: 6b10 d2bd e62e d83d 8d73 60bd c1e0 d63d
00000090: 1fdf f4bd cbf9 813c de11 e4bd 796e 093e
000000a0: 607f 033e eb5e d13c 5e68 673d 62bf 943c
000000b0: 42fe cb3d 5cfb a03b 68ad 84bd f279 21bd
000000c0: 1d63 44bd 6694 35be f48f e6bd 3a96 b53d
000000d0: e748 5d3d 82fc bbbd ac59 b5bc 29be abbd
000000e0: 3789 ddbd 88f0 a43d bb43 9b3b 77c8 09be
000000f0: ebd4 aa3d 13a1 4b3d b4ce 37bd 58c3 f23d
00000100: b27c 21be c1db 3b3a eddf 9ebd 3727 b03a
00000110: 5e80 e43d 8188 c8bd fbed 1c3d dc0f b8bd
00000120: 9980 0fbe 3680 afbd 1214 bbbd 5ae2 b3bd
00000130: e692 60bc 7a47 efbd 9efa b73d aef9 8ebd
00000140: 83ea 8b3d 247c d03d e0ac 363d 7d29 e73d
00000150: 8e6b 983d 5745 94bc de0c d53d 58ec 1f3e
00000160: e621 e13d a058 0e3d d9c1 a53b 4546 8bbd
00000170: b613 683d f3bb bdbd c367 f4bd a820 44bd
00000180: 5399 80bd 6631 bfba 4017 7fbd 9688 b93d
00000190: 7a7a 16be 60da 42bd ce40 ac3d 457e ed3d
000001a0: 8088 383e 3fbd edbd 5b18 61bd 74c0 04be
000001b0: 5c39 d1bc 71fa 0f3e d0a0 19be 9380 95bd
000001c0: 4f36 08bc 3ff8 0dbe 22bf 833d c476 e53d
000001d0: b9c9 05bd 20db 9e3b 40bf 04be 4309 c0bd
000001e0: 64c1 bf3d d534 22be 95f2 d1bd 00f8 ef3c
000001f0: 2287 79bc 0beb cbbd 185f 503d 1bd2 703d
00000200: 965f 1cbe af40 763c dfb4 f13d d294 e43c
00000210: 9d97 13be 9af5 563d 0507 0cbe 7248 c43d
00000220: ce05 5d3c 976b 82bd 2520 5abd de70 463c
00000230: 14d4 a7b9 28a7 d63d d465 75bd 776f 29be
00000240: aeb5 b93d dfab 183d 61fa 87bd 880c 99bd
00000250: 4ce2 863d 2d5f 003d 41eb 993d 4c2a 2cbd
00000260: d416 afbd 85d8 ac3d adf1 4fbb 4f04 913d
00000270: d592 3e3d e3f7 903d c8b0 09be 56dd 0abe
00000280: bdb1 a93d d4bf dd3a d4f5 68bd 666f 89bd
00000290: 88ca d8bd 5e10 7d3c 7fae 37bd 02ed a0bc
000002a0: 16ed 02be 4a93 bcbc 0140 0fbe 57d6 bfbd
000002b0: 0035 b9bc 4808 02be e00c 023d 0ea1 1cbd
000002c0: 0e12 b43b 4f94 28be f00b 00be 0a76 d1bd
000002d0: 1dfc 213c 4ba7 b7bd 0eac 653d 1c84 46bd
000002e0: cbeb 3cbd 312f 773d d6fa 033e ee1b 12be
000002f0: 1f6b 0bbe 3e2e 4f3d cf60 503d 9369 d9bd
00000300: 3b40 f4bd dc53 2cbe de30 e8bb 62b9 173d
00000310: 8166 7b3d 2fd3 0ebe 7912 f7b7 3a60 1fbd
00000320: 8883 c8bd b004 24be 1745 4c3d c455 b53d
00000330: 93ca 4dbd e395 22bd 8a51 b73d 8c26 153d
00000340: b7a7 ffbd 550e 2cbd 46c6 99bd f151 89bd
00000350: aa2c 743c e316 4ebe 1cf9 e13c 1440 8d3d
00000360: f933 cb3c 5099 51bd 1859 11bd a8f5 b03d
00000370: a096 a53d 716f 02be 7970 9fbd 01ec eabd
00000380: cc0b 7c3d 71f6 b9bb 3797 96bd 7bcc c83c
00000390: c7ca c6bd b9d5 b9bb df2f 5c3d f9d6 c4bd
000003a0: 8166 65bd 3f93 10bd c74b 25be 15c9 d73d
000003b0: 9263 b53d 7204 24be 4a9c c13c 6d69 27be
000003c0: ba7b 27be 2798 003e ce1a f73c 1f99 023e
000003d0: 2509 06be 8bf3 bbbd dc32 72bd 3887 61bd
000003e0: d8a3 05be 2d9e dabd 361c 26be 9729 893d
000003f0: f586 8ebc 67f3 853d 8fa3 fb3d 6a9b 303c

actor.2.bias f4 [128]
-0.07633593 -0.057612564 -0.02359914 -0.06674662 -0.009584829 -0.038417734 0.07380917 -0.04927635
-0.00933212 -0.059797168 0.046235137 -0.06841984 -0.09188846 -0.3113185 -0.18444864 0.16317983
0.0818358 0.21277565 -0.0026661193 -0.0472985 -0.25693294 0.055934224 -0.057458665 -0.5538634
0.3230156 -0.03411208 -0.012654616 -0.09111277 -0.010269076 -0.097649306 -0.18395777 0.16516073
-0.041267138 -0.10035248 0.052753422 -0.05694151 0.055045296 -0.043387216 -0.051725574 -0.08053527
-0.023918822 -0.06469631 -0.12973617 -0.09527309 -0.020804496 -0.14185627 0.21395458 0.11741816
0.12254762 -0.118751444 -0.049145382 0.19611469 -0.033553 -0.03702389 -0.063103884 0.058845017
-0.039985053 -0.030854605 0.17217246 -0.05454937 -0.046858046 -0.016531987 -0.09099264 0.24021244
-0.10090968 -0.04614434 0.02132962 0.23205978 -0.08976618 -0.42036998 -0.08814238 0.0480999
-0.023600403 -0.42558417 -0.31034377 -0.04805547 0.07211976 -0.026640225 -0.06556581 -0.08282569
-0.02719154 -0.3507241 -0.04677816 -0.18850203 -0.015432379 0.08914047 0.1280484 0.11009388
0.08416814 -0.29098424 -0.033818483 -0.01619035 0.00061195955 -0.11737649 0.0004853208 -0.054694362
-0.077289574 0.09757327 -0.033335947 -0.02407804 -0.044172604 -0.034194805 0.34565273 0.0632502
-0.013957449 -0.041991577 -0.50903994 -0.07421082 -0.14462435 0.270243 -0.11220898 -0.32443213
0.005524785 -0.051940896 0.079964645 -0.054217357 0.1413565 -0.038196526 -0.0004958376 -0.25436056
-0.2571056 -0.12240631 0.1808128 -0.10193516 0.011909353 -0.045850933 -0.06531402 -0.11163467
00000000: 0356 9cbd 27fb 6bbd fc52 c1bc 74b2 88bd
00000010: b009 1dbc ea5b 1dbd 4329 973d ffd5 49bd
00000020: c0e5 18bc e0ed 74bd 0e61 3d3d b31f 8cbd
00000030: 0430 bcbd 2365 9fbe 1be0 3cbe 9d18 273e
00000040: 8799 a73d dce1 593e 0fba 2ebb 12bc 41bd
00000050: b78c 83be 491b 653d c759 6bbd fec9 0dbf
00000060: 4d62 a53e 1cb9 0bbd 4e55 4fbc 5599 babd
00000070: a03f 28bc 5cfc c7bd 6d5f 3cbe e51f 293e
00000080: bb07 29bd 9a85 cdbd f913 583d 803b 69bd
00000090: 2d77 613d cbb6 31bd 32de 53bd adef a4bd
000000a0: 68f1 c3bc 807f 84bd 8fd9 04be 8a1e c3bd
000000b0: 316e aabc c542 11be e916 5b3e ef78 f03d
000000c0: 3ffa fa3d f533 f3bd ab4c 49bd 4ad2 483e
000000d0: df6e 09bd 5da6 17bd 9c3c 81bd 7907 713d
000000e0: 5ec7 23bd ccc2 fcbc fa4d 303e 296f 5fbd
000000f0: 39ee 3fbd 176e 87bc 595a babd 40fa 753e
00000100: bca9 cebd d901 3dbd 75bb ae3c 14a1 6d3e
00000110: 55d7 b7bd bc3a d7be fe83 b4bd 6704 453d
00000120: a255 c1bc 2be6 d9be 61e5 9ebe d0d5 44bd
00000130: 86b3 933d 9a3c dabc 5e47 86bd 84a0 a9bd
00000140: cbc0 debc 1c92 b3be 759a 3fbd ad06 41be
00000150: 17d8 7cbc 478f b63d 1f1f 033e e678 e13d
00000160: 5960 ac3d e3fb 94be 4085 0abd a0a1 84bc
00000170: e96b 203a 1663 f0bd a872 fe39 3207 60bd
00000180: ff49 9ebd 7fd4 c73d 468b 08bd 4f3f c5bc
00000190: 55ee 34bd da0f 0cbd 65f9 b03e 5289 813d
000001a0: c9ad 64bc 5cff 2bbd 7150 02bf d8fb 97bd
000001b0: 6818 14be 4a5d 8a3e d2cd e5bd f81b a6be
000001c0: 4109 b53b fabf 54bd 81c4 a33d 0513 5ebd
000001d0: c2bf 103e f673 1cbd 19fb 01ba 8c3b 82be
000001e0: 58a3 83be 29b0 fabd fe26 393e 62c3 d0bd
000001f0: 721f 433c 30ce 3bbd 5bc3 85bd b8a0 e4bd

actor.4.weight f4 [1, 128]
-0.012435095 -0.12286666 1.7226465 -0.65499073 0.65819275 0.19298673 -1.054272 -0.29904842
-0.0027663098 -0.00033596402 -2.3979385 -0.09000516 0.24639916 0.090908736 0.7105531 -0.94423836
1.4040295 -0.35468477 2.6857426 -0.009928183 1.1518086 -0.64923936 -0.019968653 -0.39799225
-1.1774516 -0.025997167 -0.013116416 0.18105435 2.5176234 0.20104273 0.08495048 -0.6945898
-0.4607198 0.014469211 0.5832354 -0.1243222 0.5897168 0.018039692 -0.051534314 0.009612128
-0.016836995 0.59373707 0.91546226 0.03595548 -0.6174805 0.001933701 -1.0393105 0.015661217
-3.9727182 -0.0730487 -0.12586226 -0.3340331 -0.5429536 -0.11967765 -0.015399866 0.73642766
2.751419 -0.15260977 -0.31100103 -0.052785516 -0.13946982 -0.001705218 0.8297787 0.40752038
-0.032219134 -0.15207504 0.08494325 -0.72136986 -0.015829928 0.53690934 -0.27619535 1.4967862
-0.056869075 0.33146784 -0.12807232 0.012947279 -0.5733362 -0.042170595 0.05562727 -0.10265828
0.002914939 0.34946042 -0.0958767 -1.1245092 2.2152686 1.4033462 0.8047542 -2.3213305
-1.4424708 -0.31017137 2.7133543 1.5753646 0.07438988 -0.010201815 0.5712055 -0.0338098
0.0005195847 -1.4601454 0.009916761 -0.09130813 -0.03745823 -0.11618367 -0.6709946 1.1271255
2.6004322 -0.02724412 1.7584689 -0.11562959 -0.7391643 0.17333488 1.3685075 -0.30800593
2.666302 1.1482092 -0.47349158 -0.15563267 0.8675818 -0.14257498 -0.40292624 0.23668317
0.14896199 2.279111 -1.6078237 1.5257899 1.9006392 -0.08601971 0.0022514085 0.42703444
00000000: 92bc 4bbc 84a1 fbbd ae7f dc3f 79ad 27bf
00000010: 527f 283f 509e 453e 63f2 86bf e01c 99be
00000020: fa4a 35bb 5424 b0b9 d377 19c0 a054 b8bd
00000030: 1050 7c3e 5c2e ba3d cfe6 353f 9bb9 71bf
00000040: 3db7 b33f 3e99 b5be 35e3 2b40 d1a9 22bc
00000050: 776e 933f 8d34 26bf 4d95 a3bc a4c5 cbbe
00000060: bcb6 96bf 03f8 d4bc 3ce6 56bc 5066 393e
00000070: be20 2140 25de 4d3e 84fa ad3d a3d0 31bf
00000080: 77e3 ebbe 4510 6d3c ea4e 153f a39c febd
00000090: aef7 163f fac7 933c a515 53bd 307c 1d3c
000000a0: bded 89bc 27ff 173f bc5b 6a3f 0e46 133d
000000b0: 3413 1ebf 3d74 fd3a 2008 85bf f44b 803c
000000c0: 0441 7ec0 8f9a 95bd 09e2 00be 6306 abbe
000000d0: 02ff 0abf 8e19 f5bd b84f 7cbc 8686 3c3f
000000e0: 4017 3040 bc45 1cbe 873b 9fbe a035 58bd
000000f0: 2dd1 0ebe 9f81 dfba 606c 543f 83a6 d03e
00000100: 36f8 03bd 8fb9 1bbe baf6 ad3d b2ab 38bf
00000110: c4ad 81bc e472 093f 7a69 8dbe b196 bf3f
00000120: 8cef 68bd 27b6 a93e 6425 03be d320 543c
00000130: 29c6 12bf 13bb 2cbd 6cd9 633d 813e d2bd
00000140: 9008 3f3b 7aec b23e 015b c4bd ebef 8fbf
00000150: f6c6 0d40 d9a0 b33f 5f04 4e3f ae90 14c0
00000160: e2a2 b8bf c8ce 9ebe 99a7 2d40 8ca5 c93f
00000170: b959 983d 8325 27bc 863a 123f 257c 0abd
00000180: bd34 083a 0be6 babf e979 223c c2ff babd
00000190: cd6d 19bd b4f1 edbd 4dc6 2bbf a645 903f
000001a0: 7b6d 2640 102f dfbc 8215 e13f 35cf ecbd
000001b0: df39 3dbf b37e 313e 412b af3f f4b2 9dbe
000001c0: b1a4 2a40 85f8 923f 7d6d f2be 2c5e 1fbe
000001d0: d719 5e3f 2dff 11be 594c cebe 135d 723e
000001e0: 7e89 183e f4dc 1140 2bcd cdbf 154d c33f
000001f0: 2548 f33f 1a2b b0bd 5e8c 133b 42a4 da3e

q1.0.weight f4 [128, 4]
-0.49523875 0.19666527 0.15983056 0.034217447 -0.370968 -0.6303828 -0.035736974 -0.0026579122
0.37416562 0.5235113 -0.32662162 0.13917755 -0.070633486 1.2942841 0.065006725 0.03231159
1.0329167 -0.60610414 -0.32593662 -0.09965059 -0.6591922 -0.4166512 -0.19329381 -0.086994916
0.5914274 -0.53748745 0.22118115 -0.0065410445 -0.6543054 0.38163522 0.21581988 0.035219297
-0.6170279 0.14925225 -0.13225913 -0.1043266 -0.0063115046 0.8833363 0.05600754 0.07692643
-0.83937836 -0.34243366 -0.17288485 -0.051677275 -0.29385194 -0.49750587 0.11436062 0.010807464
0.061051585 0.65057725 0.31477624 -0.023861084 0.3424697 -1.3002337 -0.042470254 -0.06886015
-0.5091161 -0.32719874 -0.17147225 -0.03348293 -0.3187154 1.3190448 0.07859417 -0.055027165
-0.8763805 0.5503995 0.1950296 0.0803812 -0.31447464 0.15837014 0.12587631 0.04897487
-0.00581049 1.106637 0.23266038 0.08185473 -0.6666179 0.40039274 0.20193593 0.062401872
0.4041521 -1.0811334 -0.16492192 -0.100600995 -0.20031449 0.7355388 0.41568983 0.13777457
-0.003454324 0.6553918 0.14269003 -0.042461462 -0.6804552 0.12757835 0.06651477 0.0146458885
-0.6797531 -0.7148156 -0.25316253 -0.050814748 -0.12578088 -0.44797608 0.4444722 0.23340343
-0.29231527 0.2054108 -0.08360576 -0.040719472 -0.6297795 -0.45473257 -0.20308508 -0.045318168
-0.776479 -0.22217594 -0.12462948 -0.03505628 -0.39945173 -0.34974074 -0.001446941 0.017303402
-0.77196306 -0.27818957 -0.15216506 -0.049268637 0.91190624 0.85737896 -0.1362026 -0.042201158
-0.8031437 0.8935284 0.3081394 0.08104258 -0.2849045 -0.09939503 -0.106214285 -0.04584973
-0.56563026 -0.06608399 -0.14782245 -0.15787986 -0.31619176 0.03378513 0.28588632 0.11279309
0.12333967 -0.74681747 -0.16181134 -0.06184071 0.65923554 -0.81316 -0.2853461 -0.22001062
0.13523646 -1.279109 0.016367435 0.20904751 -0.4989038 0.35073367 0.17520915 0.076106176
0.14482085 -0.9666094 -0.20627932 -0.08266073 -0.58509105 -0.399477 -0.18861529 -0.034463875
-0.19260226 -0.5227278 0.1183669 0.006117282 -0.27566504 0.13510066 0.10917828 0.0384926
-0.8129753 0.3624592 0.21399212 0.069144174 -0.61003274 -0.31756052 -0.17457786 -0.06568241
-0.31992534 -0.53998864 0.13244216 -0.08591591 1.4390458 0.7730474 0.4458201 0.10216974
-0.37062767 0.1747137 0.16128157 0.041065153 0.34557557 -1.1047294 -0.2588392 -0.09779714
-0.76346403 0.634283 -0.14508043 -0.03210469 -0.6110089 -0.39493385 -0.18446672 -0.06432708
1.0239305 0.5224026 0.3317289 0.10218754 0.033633307 -0.23379818 0.23123148 -0.15835324
-0.40312025 0.18136014 0.16946362 0.037479546 -0.077253446 0.11826442 -0.41691622 -0.15913276
-0.21475315 0.7327839 0.41543347 0.08624713 0.87951624 0.81148064 0.020468114 0.06795732
-0.6300709 0.9053376 0.27602503 0.06502453 -0.26724932 0.7877459 0.3741651 -0.055451803
-0.3430177 -1.0833592 -0.24991876 -0.06450881 0.897149 -0.98580307 -0.3862269 -0.11624308
0.5202628 0.72128063 0.15765142 0.15207577 1.4522549 -0.0060638483 0.085652836 -0.010133278
00000000: ef8f fdbe 9f62 493e 9faa 233e 9827 0c3d
00000010: 85ef bdbe c460 21bf ef60 12bd 5e30 2ebb
00000020: a392 bf3e d604 063f f33a a7be 8f84 0e3e
00000030: 4aa8 90bd 1aab a53f 3f22 853d 2859 043d
00000040: 9d36 843f a429 1bbf 2ae1 a6be 9c15 ccbd
00000050: d2c0 28bf 4e53 d5be d0ee 45be 642a b2bd
00000060: c967 173f c798 09bf 507d 623e 4256 d6bb
00000070: 8f80 27bf b165 c33e e3ff 5c3e 1c42 103d
00000080: 8af5 1dbf 95d5 183e f06e 07be 2fa9 d5bd
00000090: bdd0 cebb 5422 623f 2a68 653d 9b8b 9d3d
000000a0: 80e1 56bf 7753 afbe ba08 31be 8dab 53bd
000000b0: c373 96be 17b9 febe e735 ea3d ca11 313c
000000c0: 3a11 7a3d 3b8c 263f 5a2a a13e 5278 c3bc
000000d0: 3058 af3e 0f6e a6bf 4af5 2dbd 8d06 8dbd
000000e0: 6f55 02bf 9886 a7be 6c96 2fbe 6625 09bd
000000f0: aa2e a3be 76d6 a83f fbf5 a03d 2a64 61bd
00000100: 795a 60bf fbe6 0c3f d7b5 473e e69e a43d
00000110: d202 a1be c82b 223e b8e5 003e e099 483d
00000120: ec65 bebb 48a6 8d3f 863e 6e3e 74a3 a73d
00000130: 78a7 2abf 4700 cd3e 4bc8 4e3e 1b99 7f3d
00000140: 06ed ce3e 9462 8abf 4be1 28be e507 cebd
00000150: 3e1f 4dbe 454c 3c3f 4cd5 d43e c714 0d3e
00000160: f161 62bb c2c7 273f 561d 123e 12ec 2dbd
00000170: 5032 2ebf e6a3 023e e538 883d 4ff5 6f3c
00000180: 4d04 2ebf 28fe 36bf 859e 81be 2023 50bd
00000190: b4cc 00be 1f5d e5be dc91 e33e 4f01 6f3e
000001a0: 59aa 95be 3557 523e 7f39 abbd 76c9 26bd
000001b0: 3b39 21bf b5d2 e8be 89f5 4fbe 8b9f 39bd
000001c0: 54c7 46bf 1782 63be be3d ffbd 2d97 0fbd
000001d0: f084 ccbe 3811 b3be 49a7 bdba ddbf 8d3c
000001e0: 5f9f 45bf dd6e 8ebe 28d1 1bbe e9cd 49bd
000001f0: b072 693f 307d 5b3f b278 0bbe 1fdb 2cbd
00000200: d39a 4dbf 47be 643f 73c4 9d3e a7f9 a53d
00000210: 01df 91be 9f8f cbbd e086 d9bd edcc 3bbd
00000220: 25cd 10bf 0b57 87bd c55e 17be 42ab 21be
00000230: e3e3 a1be 4762 0a3d b15f 923e 1000 e73d
00000240: 8299 fc3d 6e2f 3fbf dfb1 25be af4c 7dbd
00000250: a9c3 283f 412b 50bf e218 92be 774a 61be
00000260: 6d7b 0a3e d8b9 a3bf 0015 863c 8d10 563e
00000270: 5270 ffbe 5d93 b33e 076a 333e 8edd 9b3d
00000280: eb4b 143e b773 77bf e33a 53be 074a a9bd
00000290: 87c8 15bf 4088 ccbe 5e24 41be fe29 0dbd
000002a0: 8739 45be 7dd1 05bf 586a f23d 7b73 c83b
000002b0: f823 8dbe d457 0a3e dd98 df3d 6baa 1d3d
000002c0: 261f 50bf 4194 b93e c020 5b3e 769b 8d3d
000002d0: 1b2b 1cbf 4b97 a2be 8ac4 32be 8084 86bd
000002e0: 41cd a3be b23c 0abf eb9e 073e aef4 afbd
000002f0: a732 b83f 6fe6 453f 8842 e43e 5e3e d13d
00000300: e9c2 bdbe 26e8 323e ff26 253e ef33 283d
00000310: 48ef b03e c667 8dbf 9286 84be de49 c8bd
00000320: 6172 43bf 5f60 223f f78f 14be 3580 03bd
00000330: 146b 1cbf c534 cabe d8e4 3cbe ebbd 83bd
00000340: 2810 833f 2dbc 053f 5fd8 a93e b347 d13d
00000350: 14c3 093d ca68 6fbe f2c7 6c3e 5a27 22be
00000360: c765 cebe 79b6 393e df87 2d3e 2784 193d
00000370: 0e37 9ebd 9e34 f23d 0b76 d5be b3f3 22be
00000380: 40e8 5bbe ba97 3b3f b2b3 d43e 56a2 b03d
00000390: fa27 613f 32bd 4f3f bfac a73c 352d 8b3d
000003a0: 544c 21bf 34c4 673f 2753 8d3e 952b 853d
000003b0: e7d4 88be b7a9 493f 9192 bf3e 6e21 63bd
000003c0: 04a0 afbe 84ab 8abf b4ea 7fbe 321d 84bd
000003d0: 8fab 653f 975d 7cbf 88bf c5be da10 eebd
000003e0: f12f 053f d9a5 383f 606f 213e c0b9 1b3e
000003f0: 7de3 b93f 3fb3 c6bb c16a af3d 0c06 26bc

q1.0.bias f4 [128]
0.41728863 0.45907623 0.121108115 0.23140241 0.20816511 0.43016753 0.39015454 0.5040283
-0.8027005 0.1790806 0.19156678 0.41092673 0.16647613 -0.6619287 0.43044052 0.06499787
0.45646188 0.39367694 0.31601092 0.4204477 -0.086061925 -0.02632239 0.252671 -0.5943592
0.42103902 -0.4172031 0.2894523 0.4712527 0.031432256 0.20463936 0.14770703 -0.637702
0.49148762 0.38494906 -0.703547 0.42578563 0.09671946 -0.13313092 0.36268064 0.40599582
0.13343999 0.44174144 0.52080876 0.34404966 0.39021796 0.40763667 0.45355317 0.16716981
0.53124803 -0.0033143337 -0.44819072 0.42024666 -0.93984216 0.053285874 0.5529661 -0.65803325
-0.078304246 0.055489585 0.32054028 -0.16921133 0.003177633 -1.0238755 -0.26722327 0.4934629
0.427404 0.20579089 -0.31044424 0.45763087 -0.13394824 -0.59166795 -0.3026065 -0.032078635
0.46508986 -0.033875782 -0.28921583 0.08767771 0.3787799 0.44859907 0.30438113 -0.3655062
-0.6739908 0.21709415 -0.45314527 0.37884808 -0.018408116 0.656571 0.3487206 0.43100208
0.45603645 -0.36673066 0.41529042 0.1866319 0.064011656 -0.22733316 0.51940584 0.19459942
0.2071593 0.50771916 0.5086289 -1.0849812 0.2809163 0.49125418 0.20448148 0.3258913
-0.92693186 0.14649005 0.46919397 -0.23724262 -1.3972944 0.23213261 0.37091115 -0.65083057
0.074734636 -0.8774995 0.1297724 0.4746167 0.4039232 -0.004496719 -0.4745524 -0.18436354
-0.027384337 -0.5425239 0.44000483 0.628706 0.21931852 0.36047018 0.025764715 -0.50958174
00000000: dba6 d53e 0a0c eb3e 8807 f83d c1f4 6c3e
00000010: 3c29 553e eb3e dc3e 56c2 c73e 0008 013f
00000020: c87d 4dbf e860 373e 152a 443e fd64 d23e
00000030: b878 2a3e 2974 29bf b362 dc3e 9a1d 853d
00000040: 5fb5 e93e 0690 c93e 2fcc a13e ec44 d73e
00000050: 3c41 b0bd 0ea2 d7bc 185e 813e ed27 18bf
00000060: 6d92 d73e a59b d5be 1833 943e 0948 f13e
00000070: 1cbf 003d fb8c 513e 8340 173e 7040 23bf
00000080: 44a4 fb3e 0b18 c53e a81b 34bf 9300 da3e
00000090: da14 c63d 7953 08be 47b1 b93e afde cf3e
000000a0: 7ea4 083e ef2b e23e b953 053f 4727 b03e
000000b0: a6ca c73e c1b5 d03e 1f38 e83e 902e 2b3e
000000c0: dfff 073f 4b35 59bb 4179 e5be 922a d73e
000000d0: 7f99 70bf 4a42 5a3d 308f 0d3f de74 28bf
000000e0: fa5d a0bd 0c49 633d db1d a43e bc45 2dbe
000000f0: d63f 503b 5a0e 83bf 7dd1 88be 2ba7 fc3e
00000100: b2d4 da3e d9ba 523e 8cf2 9ebe 984e ea3e
00000110: ba29 09be 8d77 17bf 3def 9abe e364 03bd
00000120: 4220 ee3e 55c1 0abd 1914 94be 5f90 b33d
00000130: 70ef c13e c7ae e53e d8d7 9b3e a123 bbbe
00000140: a98a 2cbf ee4d 5e3e a802 e8be 60f8 c13e
00000150: 9ecc 96bc 0915 283f 828b b23e 4eac dc3e
00000160: 9c7d e93e 1fc4 bbbe f2a0 d43e 6f1c 3f3e
00000170: 8b18 833d 06ca 68be c8f7 043f 1245 473e
00000180: 9121 543e e2f9 013f 8135 023f aae0 8abf
00000190: 43d4 8f3e ab85 fb3e 9863 513e 39db a63e
000001a0: 684b 6dbf 7d01 163e 313a f03e bbef 72be
000001b0: 8bda b2bf 2cb4 6d3e 11e8 bd3e d59c 26bf
000001c0: 790e 993d cfa3 60bf 0ee3 043e f600 f33e
000001d0: 06cf ce3e 3759 93bb 88f8 f2be ccc9 3cbe
000001e0: 1e55 e0bc d9e2 0abf 5048 e13e e0f2 203f
000001f0: 0995 603e 8c8f b83e 8610 d33c f373 02bf

q1.2.weight f4 [128, 128]
0.28817642 0.23237626 -0.12773354 0.26784426 0.21606292 0.1433607 -0.28366178 0.12731126
-0.21175678 0.121958956 0.21468143 0.31602132 0.052142154 0.031201134 0.087684445 0.35338336
0.29054707 0.11039104 0.13503031 0.16866882 0.13392216 -0.2740024 0.25424835 -0.09672237
0.16741988 -0.32852745 0.22359496 0.24390845 0.07458692 -0.09256073 0.12529178 0.3610966
0.15434319 0.24491693 -0.19930452 0.3725978 0.0633274 0.039272167 -0.016353771 0.26692024
-0.023216743 0.18551113 0.47917852 0.044262785 0.041766297 0.18189818 0.248245 0.31667528
0.12302652 0.14859778 0.03816249 0.18925211 0.9609177 0.08796927 0.3196138 -0.16559885
-0.3370028 -0.14919673 0.05039938 -0.081665225 0.1508636 -0.12817124 0.10226316 0.40736213
0.21434832 0.22505167 -0.41313955 0.18512101 -0.38558292 -0.5119788 0.0127786985 0.2316099
0.24895601 0.23319384 0.035145666 -0.023160653 0.098574564 0.25421512 0.040805887 0.21090403
-0.16299924 0.04541463 0.16087994 0.015310244 -0.006820599 0.62587315 0.27857965 0.034013674
0.10795835 0.0073854686 0.13674663 -0.036118258 0.13738182 0.09443332 0.20603488 -0.015186604
0.053361278 0.012810796 0.501365 -0.19811802 0.13355024 0.47463745 0.56947905 0.29011533
-0.22904149 0.05329609 0.22199236 0.2760324 -0.21693774 0.119753785 0.55619 -0.20589711
0.18702333 -0.23223454 -0.030454412 0.2937454 0.12603992 0.32802987 0.06775137 -0.15063436
-0.11736639 -0.26048458 0.08581757 0.61440325 0.017729448 0.15131228 0.069784544 0.01965216
0.26523829 0.24153316 -0.19576453 0.19094536 0.18333916 0.22436197 -0.052473497 0.035917815
-0.3617711 0.26862586 0.10315988 0.27258775 -0.021710323 0.02117575 0.1477232 0.5054584
0.13352452 0.15568691 0.36876538 0.14733706 0.27864963 -0.11532049 -0.036090985 -0.099539615
0.063125335 -0.15673341 0.26271328 -0.00416101 0.11315769 0.18128479 0.047544166 0.22782202
0.22363894 0.10427123 -0.24694288 0.18480052 0.050748974 0.20074016 -0.046880655 0.12563942
0.0392471 0.119710006 0.26194713 0.09144905 0.2612569 0.09364945 0.2814075 0.36045107
0.3168921 0.05048153 0.04453267 0.21165015 0.91928184 0.085529976 0.22842115 -0.070416555
-0.350283 -0.13777423 0.24079128 -0.2516591 0.084892996 -0.25949642 0.09741488 0.5378281
0.014212823 -0.015186076 -0.26898283 0.17769635 -0.22077173 -0.66981757 -0.13992725 0.22870174
0.37723726 0.17067792 0.0014164182 0.07499042 0.2959202 0.43203855 0.074856624 0.2108126
-0.11527852 0.22318393 0.33421344 0.21174563 0.1771788 0.4560756 0.23450035 0.064272426
0.26083618 -0.15697676 0.10583479 0.1126652 0.020686246 0.21490456 0.11136054 0.074687295
-0.04599059 0.02347257 0.36098558 -0.14286809 0.047289457 0.4249312 0.4318751 0.011302888
-0.039462056 0.23446178 0.17672795 0.14209548 -0.20464855 0.07330351 0.3466096 -0.12892798
0.28818798 -0.12979291 -0.11019299 0.23895343 0.22562395 0.22424372 0.123970985 -0.26306733
-0.15621206 -0.24675032 0.1976374 0.6102171 0.24768576 -0.02413155 -0.19825277 -0.07228032
00000000: dc8b 933e 0bf4 6d3e 95cc 02be e222 893e
00000010: 993f 5d3e 26cd 123e 1e3c 91be e25d 023e
00000020: c5d6 58be 9ec5 f93d 73d5 5b3e 8ccd a13e
00000030: 0393 553d 8599 ff3c e793 b33d aaee b43e
00000040: 96c2 943e b314 e23d 6345 0a3e 85b7 2c3e
00000050: e422 093e 0b4a 8cbe d72c 823e 6116 c6bd
00000060: 1e70 2b3e c034 a8be 14f6 643e 23c3 793e
00000070: 07c1 983d 7b90 bdbd 7d4c 003e a7e1 b83e
00000080: 240c 1e3e 81cb 7a3e 7c16 4cbe 24c5 be3e
00000090: ccb1 813d dadb 203d 58f8 85bc c5a9 883e
000000a0: 0a31 bebc a1f6 3d3e e356 f53e e54c 353d
000000b0: 2313 2b3d 8443 3a3e f033 7e3e 4323 a23e
000000c0: 54f5 fb3d 042a 183e 4550 1c3d 4ecb 413e
000000d0: b4fe 753f 3c29 b43d 6ca4 a33e bf92 29be
000000e0: a28b acbe 07c7 18be 956f 4e3d 1940 a7bd
000000f0: fd7b 1a3e 523f 03be 596f d13d c591 d03e
00000100: 207e 5b3e f273 663e 0787 d3be 5d90 3d3e
00000110: 206b c5be 0b11 03bf bf5d 513c 252b 6d3e
00000120: 53ee 7e3e 5eca 6e3e e7f4 0f3d 69bb bdbc
00000130: 76e1 c93d 7c28 823e 1324 273d 3af7 573e
00000140: 46e9 26be b104 3a3d b6bd 243e d1d7 7a3c
00000150: 557f dfbb 3939 203f fea1 8e3e ec51 0b3d
00000160: 4419 dd3d cd01 f23b 4f07 0c3e bdf0 13bd
00000170: d2ad 0c3e 4266 c13d cffa 523e 3cd1 78bc
00000180: 5b91 5a3d 5fe4 513c 7559 003f 73df 4abe
00000190: 65c1 083e ae03 f33e 61c9 113f ff89 943e
000001a0: da89 6abe 004d 5a3d f751 633e 1e54 8d3e
000001b0: ed24 5ebe 7941 f53d 7862 0e3f b1d6 52be
000001c0: 0b83 3f3e e4ce 6dbe 887b f9bc cc65 963e
000001d0: 9c10 013e 88f3 a73e 3bc1 8a3d e53f 1abe
000001e0: ca5d f0bd 3c5e 85be 1fc1 af3d 8849 1d3f
000001f0: 593d 913c 9bf1 1a3e 33eb 8e3d 91fd a03c
00000200: 50cd 873e 7854 773e 7f76 48be 2e87 433e
00000210: 43bd 3b3e 25bf 653e 73ee 56bd 8f1e 133d
00000220: 103a b9be 5489 893e 7d45 d33d 9f90 8b3e
00000230: d9d9 b1bc c478 ad3c c044 173e b965 013f
00000240: a7ba 083e 646c 1f3e d1ce bc3e 87df 163e
00000250: 2aab 8e3e 262d ecbd 24d4 13bd 6ddb cbbd
00000260: db47 813d b97e 20be 5b82 863e 1559 88bb
00000270: 38bf e73d b8a2 393e acbd 423d 2d4a 693e
00000280: 9b01 653e 288c d53d 98de 7cbe 593c 3d3e
00000290: 28de 4f3d d48e 4d3e ee05 40bd 9fa7 003e
000002a0: 91c1 203d 852a f53d ef1d 863e a449 bb3d
000002b0: 77c3 853e 48cb bf3d a514 903e 0b8d b83e
000002c0: ae3f a23e b9c5 4e3d e467 363d d1ba 583e
000002d0: 0e56 6b3f 572a af3d 3ce7 693e 8e36 90bd
000002e0: 4b58 b3be b014 0dbe fd91 763e 76d9 80be
000002f0: 61dc ad3d b7dc 84be 7481 c73d 1aaf 093f
00000300: e6dc 683c 05cf 78bc 1eb8 89be 08f6 353e
00000310: fc11 62be 2a79 2bbf 1749 0fbe ca30 6a3e
00000320: 3e25 c13e 31c6 2e3e 1ca7 b93a 9494 993d
00000330: da82 973e 2834 dd3e 6e4e 993d 42df 573e
00000340: 2517 ecbd 548a 643e 061e ab3e d9d3 583e
00000350: 5c6e 353e be82 e93e dc20 703e 43a1 833d
00000360: 528c 853e 84be 20be e9bf d83d 03bd e63d
00000370: 3476 a93c f10f 5c3e ff10 e43d a7f5 983d
00000380: a160 3cbd 8c49 c03c 1ad3 b83e 034c 12be
00000390: 97b2 413d 9590 d93e bc1e dd3e c02f 393c
000003a0: f7a2 21bd c016 703e 2cf8 343e 7a81 113e
000003b0: 648f 51be 2720 963d d076 b13e b205 04be
000003c0: 608d 933e 6fe8 04be ddac e1bd 35b0 743e
000003d0: f709 673e 25a0 653e 80e4 fd3d c3b0 86be
000003e0: 0ef6 1fbe 1eac 7cbe 7561 4a3e 3037 1c3f
000003f0: 56a1 7d3e 87af c5bc c602 4bbe b407 94bd

q1.2.bias f4 [128]
0.28371772 0.286336 0.312367 0.27902678 0.41835186 -0.024380043 -0.01644108 -0.022852212
0.2633086 0.28279096 0.33909446 0.2832538 -0.017128937 0.2956671 -0.054639965 0.3124445
0.28940725 0.49793303 -0.00841592 0.34615454 0.37630934 0.47450298 0.0017987404 0.29258332
0.34108478 0.3470828 -0.0214866 -0.04430333 -0.0026716383 -0.052065257 0.32819557 -0.006005334
0.31119862 -0.025501005 -0.02086823 0.2925469 -0.020824673 0.30574378 0.26628584 0.77291006
0.33348894 0.3240392 -0.017606042 0.30129087 -0.018705925 -0.048797734 0.35828856 -0.057991043
-0.040091835 -0.108520724 0.32845724 0.07339201 0.54020554 0.33136213 0.4019622 -0.059878886
0.28001994 0.27286273 0.16812631 0.39622793 -0.025405599 0.006524612 -0.05468217 -0.04882308
-0.011623964 0.17430924 -0.024899898 0.35132352 0.05509397 0.36282623 -0.063592836 0.31910613
0.28664365 0.4587171 0.1472433 0.2737759 0.3629134 0.28893963 -0.041916933 0.2912665
0.29437858 0.29198328 0.28974107 -0.01204308 0.28197595 -0.012102607 0.2923906 0.10909895
0.30495423 -0.01398812 0.105666324 0.30854785 0.3010787 0.28686947 0.2859211 0.36003548
0.30054283 0.28940934 0.32094577 -0.017943671 0.4895535 -0.011997445 0.2884228 -0.017719232
0.3709074 0.3185299 0.27271152 0.29403856 0.310165 0.29273927 0.14993495 0.29099444
0.45933464 -0.19885364 -0.011056339 0.28476983 0.4198156 -0.015865609 0.30530885 0.14679739
0.34455606 0.3736584 0.32411107 -0.051505286 0.28576273 -0.019892387 0.29486698 0.2760825
00000000: 7343 913e a29a 923e 91ee 9f3e 99dc 8e3e
00000010: 3732 d63e a8b8 c7bc 72af 86bc 9034 bbbc
00000020: 63d0 863e fac9 903e ca9d ad3e a406 913e
00000030: fc51 8cbc ae61 973e 28ce 5fbd baf8 9f3e
00000040: 302d 943e 14f1 fe3e ede2 09bc 2b3b b13e
00000050: 9eab c03e 0ef2 f23e b6c3 eb3a 7bcd 953e
00000060: aaa2 ae3e d6b4 b13e ab04 b0bc 6977 35bd
00000070: a716 2fbb 6142 55bd 4009 a83e 65c8 c4bb
00000080: 6d55 9f3e 7ce7 d0bc daf3 aabc b5c8 953e
00000090: 8198 aabc 738a 9c3e 9e56 883e 6fdd 453f
000000a0: 10bf aa3e 77e8 a53e 8c3a 90bc cc42 9a3e
000000b0: 2b3d 99bc 22e0 47bd 9971 b73e 0488 6dbd
000000c0: 5637 24bd 1d40 debd 8c2b a83e 8d4e 963d
000000d0: e94a 0a3f 4ca8 a93e fdcd cd3e 9043 75bd
000000e0: c65e 8f3e aab4 8b3e 4e29 2c3e 63de ca3e
000000f0: 671f d0bc 6acc d53b 69fa 5fbd b6fa 47bd
00000100: 7072 3ebc 1f7e 323e dffa cbbc ade0 b33e
00000110: 37aa 613d 5cc4 b93e f63c 82bd e161 a33e
00000120: f5c2 923e f8dc ea3e f3c6 163e 5b2c 8c3e
00000130: c9cf b93e e5ef 933e 17b1 2bbd e220 953e
00000140: cab8 963e d57e 953e f158 943e 5750 45bc
00000150: 275f 903e 034a 46bc 39b4 953e 456f df3d
00000160: f622 9c3e 6d2e 65bc 9667 d83d fcf9 9d3e
00000170: fd26 9a3e 8ee0 923e 4064 923e 9256 b83e
00000180: c0e0 993e 762d 943e 0153 a43e 9bfe 92bc
00000190: c2a6 fa3e ee90 44bc 27ac 933e ec27 91bc
000001a0: 93e7 bd3e 5a16 a33e d8a0 8b3e 398c 963e
000001b0: f2cd 9e3e ece1 953e 8c88 193e 39fd 943e
000001c0: e92d eb3e 4aa0 4bbe a625 35bc 5acd 913e
000001d0: 12f2 d63e 98f8 81bc 7151 9c3e 0e52 163e
000001e0: a769 b03e 2750 bf3e e3f1 a53e 35f7 52bd
000001f0: 7e4f 923e 5cf5 a2bc cef8 963e af5a 8d3e

q1.4.weight f4 [1, 128]
-0.26749894 -0.24153894 -0.32624757 -0.23482585 3.1526325 0.16043063 0.10772423 0.51004285
-0.16053545 -0.15756784 -0.6509051 -0.31387287 0.0413484 -0.31131083 0.0307133 -1.0089363
-0.28933787 3.967517 0.046228144 -0.27228102 -0.28746036 4.507928 1.0977532 -0.1246211
-0.4105975 -0.58588606 0.10622068 0.07983254 0.60136306 0.102936506 -0.37300453 0.040651374
-0.23091355 0.088887915 0.05088389 -0.30971754 0.12928838 -0.20815133 -0.18148187 5.000699
-0.21306646 -0.2588752 -0.0005461251 4.8238835 0.054243878 -0.009924703 -0.24224107 0.11357708
-0.01976354 2.3522322 -0.43410566 1.473493 4.1837926 -0.40978023 -0.9621472 0.4523685
-0.18500245 -0.1886418 0.7806218 -0.97036725 0.03658601 1.0379905 0.1167504 -0.016088761
0.09417884 0.68800104 0.14917961 -0.2285664 0.7992692 -0.5460216 0.08557738 -0.31406164
-0.23718977 -0.87609804 1.6344517 -0.1763324 -0.51656634 -0.21997704 0.9613265 -0.26682743
-0.37467113 -0.21874666 -0.282525 0.012329115 -0.20193957 0.09754351 -0.22559372 1.0110339
-0.32618126 0.13470972 0.8184112 -0.21002634 -0.28200522 -0.17154324 -0.17800014 -0.92999756
-0.20194149 -0.23780118 -0.15918794 0.11795049 4.528943 0.062454306 -0.200326 0.13328725
-0.98819417 3.062532 -0.21595338 -0.2819381 -0.24860373 -0.24235797 0.6967819 -0.2855658
4.588856 0.9710484 0.17831339 -0.32717988 -0.54528075 0.021681322 -0.38722008 0.95547754
-0.4979367 -0.43669787 -0.35928005 -0.13673459 -0.22671127 0.16984117 -0.3340692 -0.19003204
00000000: 9ff5 88be fc55 77be ec09 a7be 3076 70be
00000010: bbc4 4940 ed47 243e 859e dc3d 2b92 023f
00000020: 6863 24be 7759 21be b7a1 26bf f2b3 a0be
00000030: f15c 293d 2264 9fbe 759a fb3c d324 81bf
00000040: 1824 94be cceb 7d40 b959 3d3d 6b68 8bbe
00000050: 012e 93be f240 9040 2d83 8c3f 5939 ffbd
00000060: d639 d2be a1fc 15bf 3a8a d93d 3e7f a33d
00000070: eef2 193f 60d0 d23d 73fa bebe 0e82 263d
00000080: 9a74 6cbe de0a b63d a06b 503d 4c93 9ebe
00000090: 2c64 043e 9f25 55be 62d6 39be ba05 a040
000000a0: 182e 5abe 4a8b 84be d629 0fba 415d 9a40
000000b0: d42e 5e3d 399b 22bc 0b0e 78be 1a9b e83d
000000c0: 26e7 a1bc f98a 1640 1943 debe 6b9b bc3f
000000d0: a1e1 8540 b7ce d1be 474f 76bf d89c e73e
000000e0: 4871 3dbe 512b 41be d5d6 473f fd69 78bf
000000f0: 36db 153d dfdc 843f d51a ef3d 94cc 83bc
00000100: d6e0 c03d d620 303f 8ac2 183e 4f0d 6abe
00000110: e89c 4c3f 12c8 0bbf 3243 af3d b0cc a0be
00000120: e0e1 72be f647 60bf b735 d13f 7b90 34be
00000130: b13d 04bf a941 61be 7e19 763f 9b9d 88be
00000140: e5d4 bfbe 20ff 5fbe 1ea7 90be 0e00 4a3c
00000150: 3fc9 4ebe e4c4 c73d 0a02 67be 8f69 813f
00000160: 3b01 a7be 58f1 093e 6583 513f 2511 57be
00000170: fd62 90be 08a9 2fbe ab45 36be 5214 6ebf
00000180: c0c9 4ebe 2782 73be 2a02 23be 0790 f13d
00000190: 1aed 9040 16d0 7f3d 4222 4dbe 747c 083e
000001a0: 4bfa 7cbf 8600 4440 e222 5dbe 315a 90be
000001b0: fa91 7ebe b02c 78be 4c60 323f ae35 92be
000001c0: e9d7 9240 a196 783f c997 363e 1f84 a7be
000001d0: 8597 0bbf 079d b13c b641 c6be 2d9a 743f
000001e0: 8ff1 febe dd96 dfbe 8ef3 b7be 2704 0cbe
000001f0: 0027 68be d8ea 2d3e 1e0b abbe c297 42be

q2.0.weight f4 [128, 4]
-1.535002 -0.088429675 -0.17148294 -0.038427856 0.41405538 0.71455634 0.08540541 0.004709217
-0.22174306 0.782763 0.4401458 0.09180706 -0.5149599 -0.3186714 -0.16682202 -0.024815956
1.9643431 -0.05496422 0.023427637 0.0205011 0.08818379 -0.577769 -0.05389133 -0.3243407
-0.37954113 1.2026366 0.27800253 0.10090646 -0.5393529 0.61415076 -0.07206716 -0.038776875
-0.2650372 -0.08582076 -0.3000591 0.023092594 -0.52977973 -0.33570635 -0.15346844 -0.08817186
0.5581974 -1.0410668 -0.25603387 -0.06470918 -0.19478421 0.8134788 0.27579126 -0.034357116
0.45558742 0.55400413 -0.4796956 0.010846317 -0.58277154 1.0566934 0.29347745 0.08138222
-0.52450955 -0.42260537 0.21366261 0.039374102 -0.65412205 0.6774884 -0.22567362 -0.0022500025
-0.643679 -0.63666695 -0.23444334 -0.040277716 -0.36739796 0.10491777 0.13031411 0.040735416
-0.30619904 0.111653276 0.32184514 0.10389332 -0.5236581 -0.5826106 -0.20564842 -0.02490047
0.120444216 1.1630604 0.15906823 0.14157811 -0.41385853 -0.24440774 -0.13613144 -0.054267745
-0.20679216 0.6517812 0.32791305 -0.011515087 -0.1808032 -0.0014061446 0.43685576 0.43738073
-0.5920766 -0.3761261 -0.18096519 -0.04950624 -0.01614593 0.91460663 0.19468573 0.01856928
0.5529064 0.17504571 0.3222593 0.08130521 -0.35849854 0.17093776 0.13984674 0.032589063
-0.60341996 -0.8169359 -0.2501421 -0.043567263 -0.03687559 -0.9396195 -0.18631648 -0.11352571
-0.59897035 0.7859654 0.24859816 0.0726684 0.3501215 0.056634933 0.07961287 0.43137467
-0.46638486 -1.0668241 -0.26571533 -0.08709006 -0.038049746 0.20402293 -0.0021990635 -0.024300536
-0.6299059 -0.8370988 -0.26153678 -0.055422455 0.7803708 0.9020246 0.10724164 0.03997048
-0.41867173 -0.37495896 0.07632637 0.06620683 -0.55356944 -0.30189034 -0.18219395 -0.049115397
-0.35461044 0.31360698 -0.11558556 -0.046863534 1.5713449 -0.09148545 -0.29088837 -0.06785825
-0.4979086 0.51309335 0.19014236 0.05670223 0.015331475 -0.80011946 -0.03819951 0.061249208
-0.30691764 -1.0929863 0.22312517 0.08727507 -0.8834361 -0.13780367 -0.109835066 -0.025780601
-0.67663294 0.47398967 0.22213365 0.052219007 -0.79148626 0.5343076 -0.13398392 -0.051811703
0.004658194 -0.33664504 -0.5704707 -0.38339293 -0.1458872 -1.3875843 -0.29526213 -0.08255845
-0.41433114 1.2081448 0.3153048 0.068588935 0.34511465 0.5215504 -0.6682282 -0.39772666
0.4643586 -0.5623855 -0.035025943 0.11977511 0.5082738 -0.9691913 -0.14752366 -0.1390232
-0.19473033 0.5659941 0.36340988 0.11779349 -0.28952152 -0.5324519 0.1249887 0.050391085
-0.71355474 -0.45660362 -0.12946694 -0.07032654 0.87670964 -0.54361266 -0.40900618 -0.11124975
-0.54639375 -0.3440422 -0.17461012 -0.05323317 0.39562824 1.014443 0.1755468 0.09307206
0.9846843 -0.894948 -0.20344771 0.009681746 0.4766 0.22900757 0.1869788 -0.40903306
-0.6882721 -0.09004195 -0.08202812 -0.010432632 0.018993864 -1.1873485 -0.1345178 -0.1483558
1.0959212 0.7890674 0.39674094 0.1371002 -0.50501275 -0.62230474 0.095559046 0.00025434466
00000000: f27a c4bf 9e1a b5bd 3999 2fbe 8766 1dbd
00000010: 11ff d33e 2aed 363f 08e9 ae3d c74f 9a3b
00000020: 9d10 63be 2863 483f ca5a e13e 5705 bc3d
00000030: 69d4 03bf e628 a3be 64d3 2abe d54a cbbc
00000040: 986f fb3f 2922 61bd 51eb bf3c ecf1 a73c
00000050: b499 b43d abe8 13bf 28bd 5cbd fc0f a6be
00000060: 3753 c2be ffef 993f 5956 8e3e 0ca8 ce3d
00000070: 0813 0abf fc38 1d3f f297 93bd 80d4 1ebd
00000080: f5b2 87be cbc2 afbd 59a1 99be ae2c bd3c
00000090: a59f 07bf b4e1 abbe d526 1dbe 7393 b4bd
000000a0: 06e6 0e3f ad41 85bf df16 83be 3f86 84bd
000000b0: 8375 47be 2640 503f 8334 8d3e 0cba 0cbd
000000c0: c142 e93e 37d3 0d3f a99a f5be c0b4 313c
000000d0: 8430 15bf bb41 873f ad42 963e b9ab a63d
000000e0: 4246 06bf bb5f d8be 5fca 5a3e bd46 213d
000000f0: 8b74 27bf e16f 2d3f fc16 67be c774 13bb
00000100: 26c8 24bf 9bfc 22bf ea11 70be 3ffa 24bd
00000110: 961b bcbe 21df d63d 1071 053e 2eda 263d
00000120: 1fc6 9cbe 79aa e43d e3c8 a43e 05c6 d43d
00000130: 750e 06bf f825 15bf 8095 52be 12fc cbbc
00000140: 75ab f63d 2adf 943f c8e2 223e daf9 103e
00000150: 44e5 d3be 0646 7abe 0a66 0bbe db47 5ebd
00000160: 53c1 53be 22db 263f 38e4 a73e c7a9 3cbc
00000170: 7924 39be 624e b8ba 8fab df3e 5ef0 df3e
00000180: 5592 17bf 9a93 c0be f04e 39be 0ec7 4abd
00000190: 7844 84bc a923 6a3f b25b 473e 9a1e 983c
000001a0: 468b 0d3f 2f3f 333e 2cff a43e 5983 a63d
000001b0: 1f8d b7be 4f0a 2f3e fc33 0f3e 1c7c 053d
000001c0: bb79 1abf b622 51bf a012 80be 9673 32bd
000001d0: dc0a 17bd e78a 70bf bfc9 3ebe 2b80 e8bd
000001e0: 1f56 19bf 0735 493f 8490 7e3e 2cd3 943d
000001f0: 2043 b33e 08fa 673d 130c a33d 24dd dc3e
00000200: ffc9 eebe b18d 88bf d70b 88be 465c b2bd
00000210: 0dda 1bbd 63eb 503e 2a1e 10bb eb11 c7bc
00000220: 8341 21bf 1b4c 56bf 26e8 85be a802 63bd
00000230: 61c6 473f 16eb 663f 81a1 db3d 16b8 233d
00000240: 245c d6be 9ffa bfbe 0051 9c3d 7297 873d
00000250: bab6 0dbf 5f91 9abe 0d91 3abe 3a2d 49bd
00000260: 808f b5be 1891 a03e 1fb8 ecbd faf3 3fbd
00000270: d421 c93f b95c bbbd 52ef 94be 44f9 8abd
00000280: e0ed febe 165a 033f aeb4 423e 9940 683d
00000290: de30 7b3c a1d4 4cbf 1777 1cbd 73e0 7a3d
000002a0: 4f24 9dbe fae6 8bbf ed7a 643e 46bd b23d
000002b0: de28 62bf 681c 0dbe 35f1 e0bd d731 d3bc
000002c0: d137 2dbf c6ae f23e 0177 633e 99e3 553d
000002d0: d89e 4abf 62c8 083f 1533 09be 8238 54bd
000002e0: c3a3 983b bd5c acbe 5e0a 12bf 144c c4be
000002f0: 7463 15be 5d9c b1bf 992c 97be 6814 a9bd
00000300: 3623 d4be 7da4 9a3f a16f a13e 5b78 8c3d
00000310: deb2 b03e 5484 053f 0111 2bbf d4a2 cbbe
00000320: 69c0 ed3e 7ff8 0fbf 5d77 0fbd a74c f53d
00000330: 3b1e 023f ec1c 78bf 7110 17be 195c 0ebe
00000340: 6367 47be fde4 103f dc10 ba3e b73d f13d
00000350: 2a3c 94be c54e 08bf 13fa ff3d e266 4e3d
00000360: 86ab 36bf f3c7 e9be fb92 04be 5c07 90bd
00000370: 0b70 603f 332a 0bbf 4269 d1be e9d6 e3bd
00000380: 76e0 0bbf 4d26 b0be ffcc 32be 060b 5abd
00000390: c98f ca3e 45d9 813f 8ac2 333e 909c be3d
000003a0: 4514 7c3f 501b 65bf 9954 50be 30a0 1e3c
000003b0: ea04 f43e f680 6a3e 5f77 3f3e c86c d1be
000003c0: 9a32 30bf ea67 b8bd 5cfe a7bd a1ed 2abc
000003d0: 0599 9b3c 09fb 97bf 09bf 09be 95ea 17be
000003e0: 2547 8c3f 5200 4a3f a121 cb3e ff63 0c3e
000003f0: 8448 01bf 5d4f 1fbf 76b4 c33d 9059 8539
