TD3/checkpoints/Pendulum-v1/07_best_agent.pth (torch, 213476 bytes, 15 tensors)

actor.0.weight f4 [128, 3]
00000000: bca1 74be 7347 9c3e 8b14 d83e e2e9 ab3d
00000010: f6d3 cabd 8f31 923e ba35 ddbd 21fc b1be
00000020: 28b8 ba3e e434 453e 9419 2fbf f619 1cbe
00000030: 536c 63bf 8abf e5bd bbad 0ebd 4813 1e3e
00000040: 4af6 353f 2b57 f73d 9580 63be e237 8d3e
00000050: 38f2 8d3c d0a7 5dbe 08d6 243f 4404 cb3d
00000060: 562c 37be a156 903e d6b3 92bd 0ce8 b53e
00000070: b8b1 9fbe 9fc0 26be c7ce dd3e 27b3 71be
00000080: 68a0 d43e 82d2 9ebe 54b3 313f c2e4 833e
00000090: b68c 18bf 938c da3e e4bb 4f3e c6ce d7bd
000000a0: 318e 2fbf 92d6 12be de7e ae3e baf6 55be
000000b0: 6a89 0fbe 777c 643e 0998 85be 98ef 91bd
000000c0: fedd 2fbe f538 2f3f 4ccd 553e 625a 00bf
000000d0: bc4d 853e 2738 163e e83a 80be b163 463f
000000e0: 10c5 043e 4569 0ebd f1ce 053f 3737 853e
000000f0: 457f 98bc f40a 053f 8a89 5b3e 9f53 6d3e
00000100: 6972 8f3e 407e 82bd 61f3 c13e cb78 18bf
00000110: 86b7 38bd bf2a 1fbf 695c 593e a324 6b3d
00000120: e16b e03c 7cd2 73bf 88ff 3abe 69da 83be
00000130: 3a82 a8bc 182a cbbd e301 58bf 8f7d a43d
00000140: 6ad6 e9bc 1f2a 73bd 79d2 3e3f 923c 0e3e
00000150: edc1 5a3e 43d6 88be f340 4cbe d9e6 8d3e
00000160: 267a 56be f231 a5bd 115d aabe ef60 10be
00000170: 7bbf 8f3e df55 c3be 88e5 e03e f455 393e
00000180: 487a 5a3e b1bf 6e3e 81c3 413e c8c9 943e
00000190: cc4c 923e 3bd3 a03e 8af1 44be 2164 16bf
000001a0: e335 0bbe f62a 7e3d 0a04 76be a799 a5bd
000001b0: 9a91 0abd eaea 3dbf 327f 0bbe 97f8 083f
000001c0: 9da7 143f 283a 403e 6241 fdbd 43c5 34be
000001d0: d4c9 313a 2904 83be 8354 2e3e 2684 ad3e
000001e0: 06fc 02be 76ca d7be 5c65 1abe b23f 413d
000001f0: e117 fdbd 6dfc 7c3b de17 0b3f 7017 8b3e
00000200: 2a3a 773e 2fe5 7cbc 8d88 babf a1b3 88be
00000210: a92f be3e 70d9 5c3f adaf 473e fd1e b4be
00000220: 2cd9 ad3d b0dc cd3e 102a a93e c10c d63e
00000230: 43a9 963d 2e2b 563e 5819 a03e 1ac8 853e
00000240: b9d0 97bc 23f0 be3c 55e3 5c3c f9c5 3dbe
00000250: 39a9 943e 28e6 883d 352f 3c3e 8c18 a0be
00000260: 0f0f 5a3e 676c a93e 092d 8fbe 62ad bebd
00000270: 3501 3c3e 332b 033f c226 9ebd df21 863e
00000280: 2f62 ffbe 9863 04be 6286 06bd 1dc7 43bf
00000290: 12a2 e6bd b784 c6be 37f2 47bf 1ccd c5bc
000002a0: 2f9e 01be fbf9 48bf 2485 d8bd fe97 04bf
000002b0: 8691 08bf 6a01 023b 852b b6be 9b20 82be
000002c0: c773 01be e060 f43b 336c cb3e d668 b23e
000002d0: 0bb3 993d 3c08 5fbf f4a1 2fbe 415f d53c
000002e0: 9396 dfbe 2a04 76bd 0648 86bd 7b9c e1ba
000002f0: 30dc 143a 7058 af3e 302a cdbe abd6 c0bd
00000300: 3df5 f53e d805 203f 6161 493e 8645 22bf
00000310: c878 e83e 4a0c 4d3e 31e7 b4be c763 82bd
00000320: 9f8a 47be 60a2 893e 8726 053f 9a51 08be
00000330: 006b edbe f93b f33e ab21 523d eb1a 00be
00000340: f9ca 2b3f 7b36 4e3e 77df 333e 3bb5 75bf
00000350: df19 523e be47 4abe 9647 78bf 8d5d 97bd
00000360: 979f acbd 1f03 2b3f d0ac 083e 9f04 ca3e
00000370: 26f1 30bf 141a a2bc b231 25bf 016a 13bf
00000380: b70c babc 8d9a bcbe d725 08be 7606 a33e
00000390: 0444 edbe a149 9d3e 5051 c63d ee2a 83be
000003a0: fa88 8dbf 6637 9cbc 8c16 0ebf c5d3 703e
000003b0: 90d2 813d 5399 4abd a7f0 c73c 6ef5 293c
000003c0: 36ba 593e a82f 9d3f 874b 763e 5857 af3e
000003d0: 604a 093f 11e7 903d 7db1 f73c 2819 a53c
000003e0: 85f2 95b9 8909 05be 027b b8bd 5a9e 58b9
000003f0: 4de9 d33e 7f95 773f d060 663e 8533 1cbe
-0.23889822 0.3052326 0.42203173 0.08394219 -0.099037096 0.28553435 -0.10801263 -0.34762672
0.36468625 0.19258457 -0.68398404 -0.15244278 -0.88837165 -0.11218174 -0.03483365 0.15437043
0.7107893 0.12077173 -0.22217019 0.27581698 0.017327413 -0.21646047 0.64389086 0.09912923
-0.17888007 0.28191093 -0.07163207 0.355286 -0.31190276 -0.16284417 0.4332182 -0.23603497
0.4152863 -0.3101998 0.6941426 0.25760466 -0.5958971 0.42685375 0.20286518 -0.10537486
-0.6857634 -0.14339665 0.34081167 -0.208949 -0.14017263 0.22313105 -0.26092556 -0.07125777
-0.17174527 0.68446285 0.20879096 -0.50137913 0.2603587 0.14669858 -0.25044942 0.77495867
0.12965798 -0.03476836 0.5226889 0.26018688 -0.018615374 0.5196984 0.21439186 0.2317643
0.28016976 -0.063717365 0.37880996 -0.59559315 -0.045096897 -0.621746 0.21226658 0.057407986
0.02739519 -0.9524305 -0.1826154 -0.2575257 -0.02056991 -0.09920138 -0.8437788 0.08031761
-0.028544623 -0.05936634 0.74539906 0.13890293 0.2136304 -0.2672597 -0.19946651 0.27715185
-0.20945033 -0.08066167 -0.3327413 -0.14099477 0.28075776 -0.38151452 0.43925118 0.18099195
0.21335709 0.23315312 0.18922235 0.29060197 0.28574216 0.31411156 -0.19232765 -0.58746535
-0.13594775 0.06205269 -0.24024978 -0.080859475 -0.033830263 -0.74186575 -0.1362274 0.5350432
0.5806826 0.18772185 -0.123659864 -0.17653374 0.0006782089 -0.2558911 0.17024426 0.33889884
-0.12791452 -0.42146653 -0.15077728 0.047179885 -0.1235807 0.0038602606 0.54333293 0.2716632
0.24143282 -0.015435501 -1.4572922 -0.26699546 0.37145737 0.86269283 0.19500609 -0.35179892
0.08488688 0.40207434 0.33039904 0.41806605 0.07356503 0.20914909 0.31269336 0.26129228
-0.018532144 0.023307865 0.013481935 -0.18532552 0.29035357 0.06684524 0.18377383 -0.31268728
0.21294807 0.33090517 -0.27964047 -0.09310414 0.18359835 0.5123779 -0.07722236 0.26197717
-0.49879596 -0.12928617 -0.032843 -0.764757 -0.11261381 -0.38773128 -0.78103966 -0.024145655
-0.12657999 -0.7850644 -0.105722696 -0.5179442 -0.5334705 0.0019837269 -0.35580078 -0.254155
-0.12641822 0.0074578375 0.39730987 0.34845608 0.07504853 -0.8712194 -0.17151624 0.026046397
-0.43669567 -0.060062565 -0.06556706 -0.0017212773 0.00056785624 0.3424716 -0.4007125 -0.09415945
0.48038664 0.62508917 0.19666053 -0.63387334 0.4540465 0.20024219 -0.35332635 -0.06366687
-0.19486474 0.26881695 0.52011913 -0.13312379 -0.46370697 0.47506693 0.05130164 -0.12510268
0.67106587 0.2013797 0.17565714 -0.9597966 0.20517682 -0.1975393 -0.9698423 -0.0739089
-0.08428877 0.6680164 0.13347173 0.3945665 -0.69117963 -0.019787826 -0.64528954 -0.57583624
-0.022711141 -0.36836663 -0.13295685 0.31840867 -0.46340954 0.30720237 0.09683478 -0.2561869
-1.1057427 -0.019069385 -0.55503154 0.23518284 0.0633899 -0.049462628 0.024406744 0.010373456
0.2126244 1.2280169 0.24052249 0.34246325 0.5362911 0.070753224 0.030236 0.020153597
-0.00028600186 -0.12991919 -0.09007837 -0.00020658356 0.41388932 0.9671249 0.22497869 -0.15254028

actor.0.bias f4 [128]
00000000: 9bba 8bbe 7c98 10bf d54d 5ebd 9872 e7bd
00000010: 54fc b2bb 0e6f 043c 63bc 74be 1eae 6f3d
00000020: 7e88 1d3c 0162 a3be 8707 99be b0f5 0e3e
00000030: 62bf 903d ea5c f3bd e71a e3be 47cf e4be
00000040: e763 13be 5f51 133d 0fc7 0abe 4afd bebe
00000050: c4f5 83be 94f3 97bd c743 a0be ef44 803e
00000060: a75c 8fbe 662f fcbb 07d6 d13c a067 3e3e
00000070: 38f0 7bbe 28ea d0be 3886 7fbe 2ecd d4bc
00000080: 8e92 00bf 8eb2 49be 6fbb 02bd e143 d3be
00000090: b8ad 1dbe d116 8fbe e264 62be 69a1 96be
000000a0: 00ca e7bb 4102 23be 9e64 ddbe f127 b9be
000000b0: b534 febc 5032 aebe b810 93be 7c73 b6be
000000c0: 24c7 48be 7ed8 a63d 8ac1 29bf 5ddf d1be
000000d0: e229 56bd e691 47be 02e8 89be 0e50 43bc
000000e0: 9d56 f6bd 11dd 74bb 34a8 f6bd 2aba cfbe
000000f0: 62d2 9dbe 331a 3dbe 65aa 94bd c51f 97be
00000100: a744 95be 3889 df3d 1d14 06be dff0 febd
00000110: 2306 ab3c 15f5 13be 7724 d8be d995 3ebe
00000120: 1240 813e 2bd1 a4be 85ca 2c3d 7b7d 92be
00000130: 956c 393e 865d 0dbd 7223 913e cc57 36be
00000140: 4070 253e 9709 ebbe 46df 2fbd a3b8 23be
00000150: 4c19 ecbd 342c 38be 200a b4be eac1 c7be
00000160: ee70 e7be 2827 b7bd 30ac 6ebe e594 75be
00000170: d138 f2be ff07 a7be 3d21 963d c965 17be
00000180: 391b 2fbe 0574 a4bd b9d8 e4bd 82bb 4fbe
00000190: 5905 dfbe 3ddf f5be 871e 02bf 6886 a2bd
000001a0: 9e8d e4be f943 a7be d47c 9ebe 69e3 36be
000001b0: 6525 85be 560d bbbd b245 d5bd 7c0e eabe
000001c0: 325a c8be 473b 09be f674 ab3e c791 13bf
000001d0: 1dcb 463d 9fbb 6cbc a14a ddbd 80ae 60be
000001e0: 7ae8 3e3c eab8 15bf 26b7 82bd 15c0 8fbe
000001f0: a542 8bbe 5928 abbe 8a5a 16bc ccd3 c2be
-0.27290806 -0.5648267 -0.054273445 -0.11301154 -0.0054622088 0.008083118 -0.23899989 0.05851566
0.009615062 -0.3191071 -0.29888555 0.1396091 0.070677534 -0.11882956 -0.44356462 -0.4468939
-0.14393578 0.035966273 -0.13552497 -0.3730262 -0.25773442 -0.07419506 -0.3130171 0.25052592
-0.28000376 -0.00769608 0.025614752 0.18594217 -0.24603355 -0.40803647 -0.24953544 -0.025976744
-0.50223625 -0.1969702 -0.03191703 -0.41262725 -0.153983 -0.27947095 -0.22108796 -0.2942002
-0.007073641 -0.15918829 -0.43240827 -0.36163285 -0.031030992 -0.3402276 -0.28723693 -0.35634983
-0.19607216 0.08146761 -0.6631094 -0.40990725 -0.052286036 -0.1948925 -0.2693482 -0.011920942
-0.12028239 -0.003736321 -0.12043801 -0.4057172 -0.30824572 -0.18467025 -0.07259063 -0.29516426
-0.2915394 0.10914844 -0.1309361 -0.12448286 0.02087695 -0.1444896 -0.4221532 -0.1861185
0.25244194 -0.32190832 0.042185325 -0.2861136 0.18107827 -0.03451302 0.28347355 -0.1780693
0.16156101 -0.45905754 -0.04293754 -0.15988402 -0.115282625 -0.17985612 -0.35163975 -0.39015132
-0.45203346 -0.08943015 -0.23307872 -0.2398258 -0.47308972 -0.32623288 0.073305584 -0.14784922
-0.17100228 -0.080299415 -0.11174149 -0.20286372 -0.43558767 -0.4802188 -0.5082783 -0.07935792
-0.44639295 -0.32669047 -0.3095461 -0.17860188 -0.26005092 -0.09133403 -0.10413684 -0.45714176
-0.39131314 -0.13401519 0.33487672 -0.57644314 0.048533548 -0.014449029 -0.1080525 -0.21941566
0.011652106 -0.5848528 -0.06382589 -0.28076234 -0.27199283 -0.3342922 -0.00917686 -0.38052213

actor.2.weight f4 [128, 128]
00000000: 5b4a 49bc 9b71 a6bd aae7 16be 13df 8cbd
00000010: eb87 2b3d 9e1d a7bd d05b f9bd 6d10 1fbd
00000020: 87e3 9abd b119 2fbc 5829 3dbe d13c 473c
00000030: d2b3 39bd 4d0a aabd cd65 713d 89bf 0fbe
00000040: 5ca6 05be d356 a0be e8a2 a1bd b1a3 193d
00000050: 3b06 a8bc dbea 8c3d a1ba fa3d 1d8e 013d
00000060: 209b c43d 0590 6abd f205 463d e8c1 16be
00000070: 965f d83c 367a 32bb d34c 37bd 142c 4abe
00000080: 8fee 173d 4802 8a3d 7c4e 22be c4fb f63d
00000090: 8b33 e23d a013 16bd 3ab2 8dbd 489f 8ebd
000000a0: f806 4fbe 3e79 16be 2852 7eba e8fb 8bbd
000000b0: c08d 123e 58be 8f3b ef29 1ebe 3abf 6fbe
000000c0: 642a 083d d92e 1abe 4fef 18be 82c1 c03d
000000d0: b8e3 8b3d 15d5 0ebe b227 b93d 344f 1bbe
000000e0: 3802 28be 1863 603d a152 4d3d acdd f2bd
000000f0: dbcb 70bd bb90 29be a6f9 1d3d 38b8 483c
00000100: 861c 0bbe b931 00be 20e6 503c 9232 20be
00000110: adf3 adbd ed1d 583d d421 6dbd 345d a03d
00000120: 96ba ed3c 1fc3 92bd 507d d2bd 0263 22be
00000130: 3a3d 4dbe df8d a13b 3c8f dfbd 4027 72bd
00000140: 0d86 8fbd 188b 9abd 733f 093d e68e 0a3e
00000150: cc85 fe3d 70c1 a13d 0c2d f0bd 222d aabc
00000160: 968b e4bd 8c71 143d ebd9 1e3d 8bcc 64bd
00000170: ebe1 aabd 6cbf 7abb 1191 21be 5044 43be
00000180: 054b b4bc 99bb 4cbd b0e0 88bd d3c1 ac3c
00000190: bfd3 b03c a9bb 0abd 5289 3bbd a94e 03be
000001a0: 8ab6 cfbb 2f48 b3bd bdbd 15be 9a2e dcbc
000001b0: 6e1f 043d 4b35 5dbc 7913 013e 3b95 d23d
000001c0: 6566 6abe 9e74 c6bd 853a 3cbe 5017 1cbd
000001d0: c9d0 343d 5136 44be bf47 423d 43dc 07be
000001e0: 12fa c9bd c376 f9bd 318b aabd 0649 903d
000001f0: a9c4 7c3d 31c8 47be e159 bb3d 1081 cabd
00000200: c114 31bf d03c 223e e82e 25be dd67 2cbe
00000210: 483e 193e 9c4c 983e 17ed a3be 8307 c53e
00000220: 0d85 353d bb51 d7be ce2f 3b3f d166 bd3e
00000230: 87f5 4fbe 3043 3b3d 8b7e 1dbe 2865 01ba
00000240: 9118 0ebf d53d c83d 121f 41bf 291f 42be
00000250: b7ce fabe ba74 5cbd 1bdb 0ebf 7b9f d73d
00000260: b801 27bf b902 04bd 1eaa a0be 933c 803e
00000270: 5777 06bf 87c8 0bbe 23c8 40bf 1841 1abe
00000280: 6239 04bf 846a 033f 6ce6 5bbc 2c90 46bd
00000290: b702 0fbd cc53 f63e bf1a 9abd 1243 14bf
000002a0: b555 13be 7b88 c43a 96fe 0a3f 42f2 afbf
000002b0: 8eda aa3e 62ed 05bf f4ab b63d 693c 0f3f
000002c0: d500 0abd 7d51 623e 83d3 573d 032e 08be
000002d0: d49a 853d 8b87 acbe a231 fcbd 5f56 fd3c
000002e0: c55b 58be f07d 9e3d d65f 493e 5a48 ed3d
000002f0: 7835 efbe be0c 083b 0bbd f73d 7485 0ebf
00000300: f4ab 053f eeff 98bd 38cb 25bd a040 25be
00000310: d875 a5bb d85e e5be faa0 1ebf a911 dabe
00000320: d6e3 7a3e 2bb7 6ebe 91f2 d13d 9e5e 2dbf
00000330: ed94 8dbd 849f d4bd 4da6 c03c 13c8 503d
00000340: abff a53e 4917 4b3e baf6 d73c a437 223d
00000350: d3d4 613f eebd a63c d1ca f5bd aabf 20be
00000360: 4285 32be 3977 f7be 7ce7 453d 9e71 c5be
00000370: 6507 65bc bde0 4c3d 1d77 48bd 6b43 643e
00000380: 635e 113e 8313 34be 946a 96bc f04a 65be
00000390: f516 323f 4e34 b6be 9446 86bd d4b9 b9be
000003a0: e750 2bbe 523e 26bf 7eff 1fbf e238 e8be
000003b0: 918f 3cbf f6df 8ebc 092b 813d 9997 b53d
000003c0: 50b8 02c0 0a47 0ebf 5079 643e 0fef 7cbd
000003d0: 2179 99be e5df b63d ba32 42bc afec 78be
000003e0: 912b d23d c1d8 b53e 275d 38bd 4583 36be
000003f0: 2923 c7be 390f ffbe c181 733e 2451 49be
-0.012285794 -0.08127137 -0.1473681 -0.068784855 0.04187767 -0.08159946 -0.12175715 -0.038834024
-0.07562929 -0.010687278 -0.18472803 0.012160496 -0.045337506 -0.08302746 0.058934975 -0.14037909
-0.13051742 -0.31316242 -0.078924 0.037509624 -0.020510783 0.068807326 0.12242628 0.03162967
0.095999 -0.057266254 0.048345514 -0.14722407 0.026412766 -0.0027233488 -0.044751 -0.19743377
0.03709274 0.06738716 -0.15850252 0.12059739 0.11044987 -0.03663981 -0.0691876 -0.06963974
-0.20217502 -0.14694688 -0.0009701573 -0.06835157 0.14311886 0.0043867044 -0.15445684 -0.23412791
0.03324355 -0.15056933 -0.14935039 0.09411909 0.06830543 -0.13948472 0.090407744 -0.15166932
-0.16407096 0.054782003 0.05012763 -0.11858687 -0.05878816 -0.16559117 0.03856816 0.012250952
-0.135851 -0.12518968 0.012750179 -0.15644291 -0.08493743 0.052762914 -0.05789359 0.07830277
0.029019635 -0.07166123 -0.10277808 -0.15858081 -0.20042887 0.0049302424 -0.10915992 -0.059119463
-0.0700799 -0.07546061 0.033507776 0.13531074 0.124278635 0.078982234 -0.11727342 -0.020773474
-0.111594364 0.0362411 0.03878204 -0.05585913 -0.08343872 -0.003826107 -0.15777995 -0.19069028
-0.022008428 -0.049983595 -0.06683481 0.021088516 0.021585343 -0.033870373 -0.045785256 -0.12822975
-0.006338899 -0.08754002 -0.1462316 -0.02687769 0.032256536 -0.013501476 0.12605084 0.1028237
-0.22890623 -0.09690212 -0.18381698 -0.03810817 0.044144426 -0.19161345 0.047431704 -0.13267617
-0.0986215 -0.12180855 -0.0832733 0.07045178 0.061710987 -0.1950996 0.091480024 -0.09887898
-0.6917229 0.1584351 -0.16131175 -0.16836496 0.14965165 0.29745948 -0.32016823 0.38482293
0.04431634 -0.42054543 0.7311982 0.36992505 -0.20308505 0.045718372 -0.15380304 -0.0004936033
-0.55506235 0.097774185 -0.75438035 -0.18957199 -0.48985836 -0.053822257 -0.5580308 0.10528465
-0.65237 -0.03222916 -0.3137979 0.25046214 -0.5252585 -0.13650714 -0.75305384 -0.15063894
-0.5165006 0.51334405 -0.013421636 -0.048477337 -0.0349147 0.48110807 -0.07524633 -0.5791484
-0.14388163 0.0014994288 0.5429472 -1.3745806 0.3336987 -0.5231534 0.08919516 0.55951554
-0.0336922 0.22101398 0.052691948 -0.13298802 0.06523672 -0.3369716 -0.12314154 0.030924974
-0.21128757 0.077388644 0.19665465 0.115860656 -0.4672048 0.0020759548 0.12096604 -0.55672383
0.52215505 -0.0747069 -0.040477008 -0.16137934 -0.0050494485 -0.44798923 -0.6196438 -0.425916
0.24500975 -0.2331206 0.10251344 -0.677225 -0.06913171 -0.10381988 0.023516798 0.050972056
0.32421622 0.19833101 0.026362766 0.039603844 0.8821537 0.020354237 -0.12001575 -0.15698114
-0.17433646 -0.48333147 0.048316464 -0.38563246 -0.013978814 0.050019015 -0.04894172 0.22291343
0.14196162 -0.17585568 -0.018361367 -0.22391868 0.6956628 -0.3558678 -0.065564305 -0.36274588
-0.1673008 -0.64938843 -0.62499225 -0.45355898 -0.73656565 -0.017440777 0.063070364 0.088668056
-2.0424995 -0.55577147 0.22311902 -0.06175142 -0.29975227 0.08929423 -0.0118529145 -0.24309038
0.10262216 0.35516933 -0.045010712 -0.17823513 -0.38894013 -0.498163 0.23779966 -0.19659859

actor.2.bias f4 [128]
00000000: 9a0e 52bd 7e02 333d edef 33bd e51b c4bd
00000010: f9d5 4b3e 21ca 5b3e 427d 343e b180 f73d
00000020: cf7f 00bd b096 b4bd f845 1ebe 8e4c 8b3b
00000030: 5b40 813d 0a1f 65bd 1d05 b73d 053f 1e3d
00000040: 29e1 2bbd f4ff 6f3a c5d5 2abe 7180 723d
00000050: 9123 213d 1cf1 53bd adb3 99bd 5c92 3bbd
00000060: 3312 d5bc c6e0 77be f35f 0fbd 7496 2ebe
00000070: 0970 90bd f49b ad3d 14f5 32bd 18bd 343e
00000080: 6eb1 bbbd 4e8b d8bd 5f65 2abe 37ba 243e
00000090: 0abb 07bd 0e1e 95bd 4909 cdbd f32a fe3d
000000a0: 9fb0 d53c 051f 3f3d 7595 62bd 92c0 81bd
000000b0: 8729 9e3d b809 bdbd e15c 45bd 8954 b03c
000000c0: 4f9e 093e 397c 29bd f80f cb3d 7ce6 60bd
000000d0: 9562 183e a94f 1abd 36a3 f73d 4883 89bd
000000e0: 2178 0cbe 5389 0dbd a15d 72be 4a88 1bbd
000000f0: d46c e1bd 1471 13be f0ca 90bd 155f 45bd
00000100: b71a 05bf 07c0 963d e7fe 2bbc feaf 82bd
00000110: 830c babd eff0 79bb c008 4cbe f8ab d7bd
00000120: 19b2 4a3b 3ae1 fa3d a024 613c d757 8fbd
00000130: 7d8c 913d 7db6 94bd bfef 143d 2ecf 793c
00000140: eb67 59bd 974d 8ebd 783d 41bd d7cc 06bd
00000150: fffe 51bc d25a 8dbd 3a75 7abd 78c4 a03d
00000160: 8548 8fbd 59b2 10bd b07d a73c bce2 503e
00000170: 7193 7e3e 365d f0bc e85e 73bd 03ae 13be
00000180: 427d ffbd a743 503e 18d3 a0bd 4b3a a0be
00000190: 8ab9 533d ff27 753d 3302 39bd d306 62bd
000001a0: f51a 96be b2ba a3bd 27c3 24bd 12c1 283e
000001b0: 702c abbb f719 183e 59a2 11bd 46b6 f83c
000001c0: d03a 88bd a694 6ebc 20c6 bc3d 2863 a73d
000001d0: fe92 0fbd 99cb 44be 7065 253e b814 2d3e
000001e0: d115 ebbe 77e5 123e d78e 38bc f795 8bbd
000001f0: bbb2 dc3d ce76 1bbe 3d75 de3c f1e3 31bd
-0.051283456 0.04370355 -0.043929983 -0.09575633 0.19905843 0.21463825 0.17625907 0.12085093
-0.031371888 -0.08817804 -0.15456378 0.0042510694 0.06311103 -0.055937804 0.08936522 0.03863432
-0.041962776 0.00091552665 -0.16683109 0.059204523 0.03934056 -0.05174361 -0.075049736 -0.045793876
-0.026009655 -0.24206838 -0.035003614 -0.17049581 -0.07052619 0.08477011 -0.043690756 0.17650259
-0.091647014 -0.10573445 -0.16640233 0.1608666 -0.03313736 -0.07281123 -0.10011537 0.12410536
0.026085196 0.046660442 -0.055318315 -0.06335558 0.077227645 -0.09230369 -0.04818428 0.021524685
0.13439296 -0.041378234 0.09915155 -0.054907307 0.14881356 -0.037673626 0.12091677 -0.06714493
-0.137177 -0.03455479 -0.23668529 -0.037971772 -0.110070854 -0.14398605 -0.07069957 -0.04818638
-0.5199389 0.07360845 -0.010497785 -0.06381224 -0.09084418 -0.0038137992 -0.19925213 -0.10530847
0.0030928908 0.1224999 0.013741642 -0.06999176 0.07106874 -0.072613694 0.036361452 0.015247149
-0.05307762 -0.06948393 -0.04717776 -0.032910194 -0.012817143 -0.06902088 -0.061146952 0.078499734
-0.06996254 -0.035326336 0.020445675 0.20398992 0.24860932 -0.029341321 -0.05941668 -0.14421849
-0.12475063 0.20338307 -0.07852763 -0.31294474 0.051690616 0.059852596 -0.045168113 -0.05518229
-0.29317442 -0.07994594 -0.040225174 0.164799 -0.005223803 0.14853655 -0.035555217 0.030360352
-0.066518426 -0.014561808 0.09217477 0.081732094 -0.035052292 -0.19218291 0.16151977 0.16902435
-0.45915082 0.14345346 -0.011264524 -0.06815713 0.10776278 -0.15182039 0.027155513 -0.043430272

actor.4.weight f4 [1, 128]
00000000: 9601 aa3d 5f32 30bf b7b3 ddbb ea21 7dbc
00000010: 9d8c 093f 4ceb 9dbf a388 d1bf dd38 bc3f
00000020: 112c 8bbd 14c3 a93f 354d 5c3f 7f74 103f
00000030: 0a3c 07bf b33b abbc cb52 adbf 6bc2 e83e
00000040: c45c 953d 53ee 21bd 83c4 33bf 3704 32bf
00000050: e512 a2be 6b4f e7bc 4e72 583c e075 b7bb
00000060: 754f 683e 68c4 cf3d 19cc b53d b8ac 0bbf
00000070: 6dca 6dbd d18a 9bbf a3e6 30bb a4a6 70be
00000080: d580 a03e 4a06 e3bb 183c 30bf 65e2 5a3e
00000090: a435 413d 72aa 333e 793c ad3c 1749 f4be
000000a0: dbaa d23e 4b8f 9e3f 4e14 adbd f569 15be
000000b0: f02b 393f 966b 123f c0d1 3fbe 08cb e53f
000000c0: 53df 8b3e 84a1 103e db21 b03e 6793 f53d
000000d0: ee0e 7ebe be6a 26be db97 a73e 6125 033e
000000e0: 1cb3 ba3a 0d1d 04b9 e359 793d 87d9 2ebe
000000f0: 42dc 733c 44b8 243f ed8f 043e e79a d9bb
00000100: 3d52 dfbd 6900 a43f ef94 323d 49ff 353d
00000110: c102 d5bc 4712 c6bf a55a ca3b a80f 19bf
00000120: 1d43 18bf 91ec a6be ff03 8bbf f22b d8bd
00000130: 1ac6 bcbf eaab 16be a92e 823f c224 48bf
00000140: 32f8 963c 08a5 da3c 283a 71bd e449 923c
00000150: 9406 423e 238e 13be ab33 87be 9137 863d
00000160: 3cf3 293e 0671 b7bb c559 abbe 09df 113f
00000170: 8bb2 163f 8a0c 7e3a 212f 93bd 93d2 a83f
00000180: 4053 0a3f 206f b9be 5467 9a3d eb30 093e
00000190: 55b1 fc3f cb22 80bf 06ba c93e 0088 473e
000001a0: ac04 5fbd 1ba4 963a 60b5 28be 89a6 4e40
000001b0: bd6a 92be f502 c3be c2c4 923d 002e 693f
000001c0: f27b 193d d0d9 423f 1380 9dbe edf3 cbbe
000001d0: f02d e03d d4a1 183e 00d6 713f 1cfb 403f
000001e0: 7393 e0be 9dbb 4cbf 008d 233f 056c 7bbe
000001f0: fdc1 a23e ec64 4240 61e1 36be 27c2 25be
0.08301084 -0.6882686 -0.0067658084 -0.01544998 0.53730184 -1.2337432 -1.6369823 1.4704853
-0.067955144 1.3262658 0.8605531 0.5642776 -0.5282599 -0.02090249 -1.3540891 0.4546083
0.07293084 -0.039533924 -0.7022173 -0.6953768 -0.3165504 -0.028236112 0.013210846 -0.0055987686
0.2268656 0.101448834 0.08876819 -0.5456042 -0.058054376 -1.2151738 -0.002699294 -0.23501068
0.3134829 -0.00692824 -0.68841696 0.21375425 0.047170296 0.17545488 0.021147 -0.47712013
0.41145977 1.238748 -0.084511384 -0.145912 0.7233267 0.57195413 -0.18732357 1.7952585
0.2731882 0.14124113 0.3440083 0.119910054 -0.24810383 -0.16251656 0.32733044 0.12807228
0.0014244053 -0.00012599323 0.06087674 -0.17075168 0.0148840565 0.6434367 0.12945528 -0.0066407803
-0.109043576 1.2812625 0.043599065 0.044432912 -0.02600229 -1.5474328 0.0061753565 -0.59789515
-0.59477407 -0.3260236 -1.0860595 -0.10555257 -1.4747956 -0.14714018 1.017049 -0.7818109
0.018428896 0.026690021 -0.058893353 0.0178575 0.18947822 -0.1440969 -0.26406607 0.06553567
0.16596693 -0.0055981902 -0.33466926 0.5698095 0.58866185 0.00096911995 -0.071867235 1.3189262
0.5403328 -0.36217594 0.075392395 0.13397567 1.9741617 -1.0010618 0.39399737 0.19485474
-0.054447815 0.0011492999 -0.16475439 3.2289145 -0.2859706 -0.38088194 0.07166435 0.91085815
0.03747172 0.76113605 -0.30761775 -0.39834538 0.10946262 0.14905483 0.94467163 0.7538316
-0.43862495 -0.79973775 0.63887024 -0.24552925 0.31788626 3.0374098 -0.17859413 -0.16187344

q1.0.weight f4 [128, 4]
00000000: 42af 743f 0a0a 2c3e 229e ebbd 4f96 5cbe
00000010: cea5 4e3f fc6d 9cbe e9bf 2a3e 544b 073e
00000020: 1fa0 4dbf c7ae 4bbf 1067 8bbe 6ad5 c53c
00000030: 06f0 9a3f 679b 493f 050d c73d 80e9 bc3c
00000040: 7c26 92be f9ba 5d3f 7341 e63c 05e1 733c
00000050: 6e3a 4c3f 4dfd d0be c6f2 85be c395 24bd
00000060: a1b9 343e 03d3 80bf 9c81 59be 9ab7 c5bd
00000070: a6c6 eabe 72ae 2ebf 820e 8d3d 6273 153c
00000080: 2176 fa3e 9e74 65bf e684 44be 41fe 923c
00000090: 4d7c 0f3d 3fbb b7be eabd 0b3f 6343 9d3e
000000a0: fe6e b5be 51e0 b23d 5ee6 d73e 8623 ebbc
000000b0: 6ff8 b53e 800c c0be bf8d d3be ead6 64be
000000c0: 96dd d43e 352e a1bf fd1d 4abe a480 23be
000000d0: 37ff 2fbe 065b a03e 41f1 083f c176 cabc
000000e0: d52d 7b3f f3e5 253f 410f c13e b387 c23d
000000f0: 710e b23d bf19 d33e c15b ef3e 44dc 013d
00000100: 652a 01bf 0fd3 b53f b3fe bbbd 0289 2abc
00000110: f1da 0abf 5113 5c3e 836b fe3d 6434 1b3e
00000120: d866 28bf cbf6 97be bed6 3bbe ba72 9abd
00000130: 06f9 da3d 85b7 66bf d6b7 23be fc55 06be
00000140: df1c 593e f769 393f ce6f a43e 1b95 8dbe
00000150: e726 2bbf ae53 2e3f d192 363e 1817 333d
00000160: 8fb3 4d3f 34df 4b3f ec72 883e 2fee 53bd
00000170: 1983 acbc b435 833f 2ee6 b73e da95 003e
00000180: 8d99 1abf 941a 3b3f ba63 303e 63e2 693d
00000190: 4b53 bebe 1471 bdbf 7559 413e 7d79 0d3e
000001a0: ce95 95be 5d26 d83f df90 853e 2ebf 193e
000001b0: ba53 1bbf 021b 163f 9bc9 363e d0dd 2c3c
000001c0: 3a41 44bf 2765 013f e928 513e c4c4 833b
000001d0: 2b78 84bf bed7 f8be 47ac 74be 95e7 dfbd
000001e0: 55e6 b0be 6ee8 883d a9c9 563e 6abd c83d
000001f0: fefe 993f d217 1e3f 3367 053e aebb 313e
00000200: 0ccc 37bf b61d 373f 5dc7 563e 7a8c 363d
00000210: dd5f 77be 0a8d a53e f5bd c83e fbb0 4b3e
00000220: 3408 343d 34b6 7a3f 20ce 4d3e 36e9 b73d
00000230: b2d1 f33e 2501 a13f 3871 eb3d f99d 60bd
00000240: 7433 373f 4ec4 6bbf 3b9f 8bbc 7dcc 03bd
00000250: 17ff 2fbf 0557 573d 6ad6 c33b b063 f8be
00000260: ed10 563f ac65 7e3d d41f b1bd 0205 af3b
00000270: c2f2 9b3e bfd6 08bf 09ee 5cbd 7372 8a3d
00000280: b32b 0bbf 50d7 7d3f 2163 6c3e cc08 a93d
00000290: 8680 c9be 0b61 1c3f ce5f 85be 548d 3fbe
000002a0: 5dff 923e 63cf 43bf 991c 03be b356 293e
000002b0: 00bb 2c3b 4b86 8d3f 9953 5e3e 818f d13d
000002c0: be09 91bf f3aa eb3e 829f 5fbd 1bd0 fc3d
000002d0: c053 f0be cadd 84bf d6d3 bcbc ac38 713c
000002e0: 04ed 9ebe 7b10 11bf c2b1 ef3e 66e9 e03d
000002f0: 2d0c 1c3f 853d 6abf 3b66 34be 05ae 53bd
00000300: 50d4 d0be 7a2d 82bf 8371 6ebe 95ff 89bd
00000310: 0639 c9be e541 4c3e 8213 dd3d 54ba 7d3e
00000320: 3e47 203f 1565 9d3f 249b a83e b44d a5bd
00000330: a443 86be 79ce a1bf 67bd 8dbe 4354 b4bd
00000340: 4c7c 58bf aaa7 efbe 5132 6bbe 203b 00be
00000350: 0b5c 193d 125a 613f 92c3 2d3e b57a 293d
00000360: ae47 f3be ce0f 7e3f afce a1be 5a1d b1bd
00000370: fe8d 5a3f f05e ffbe 06b7 dfbd 0034 d1bd
00000380: 51bb 47be 8e37 0abf 8e91 813d 671a 003e
00000390: 401d 283e d2c6 60bf 2b69 5cbe 121c 0ebd
000003a0: 8507 99bf 033f a83d 1231 94bd 7b5b ac3d
000003b0: 5ce7 a53e 0cad 31be 2381 53be 97dc 303e
000003c0: ad49 023f 896f d8bf 1fd7 61be 67be f9bd
000003d0: aaa5 c4be 0ff8 133e b51c 813e 0c13 f23d
000003e0: 2fe3 253f 53fa cebe 4fd5 7c3a 819e 5cbd
000003f0: 46ab cfbe dc39 8e3f 36f0 323e d988 1e3e
0.9557992 0.16800705 -0.11504771 -0.21541713 0.8072175 -0.3055266 0.1667477 0.13212329
-0.8032245 -0.79563564 -0.27227068 0.024149615 1.2104499 0.7875275 0.0971928 0.02306056
-0.28544986 0.8661342 0.02810738 0.014885192 0.79776657 -0.40818253 -0.26161784 -0.040181886
0.17648937 -1.0064396 -0.21240848 -0.0965416 -0.45854682 -0.6823493 0.06887533 0.009121748
0.4891825 -0.8963107 -0.19191322 0.017943503 0.03503065 -0.35885045 0.5458666 0.30715474
-0.35436243 0.08734191 0.42167944 -0.028703462 0.35541102 -0.37509537 -0.4131908 -0.22347608
0.41575307 -1.2592226 -0.19738002 -0.15967041 -0.171872 0.31319445 0.53493124 -0.02471483
0.9811681 0.64804 0.3770695 0.09498539 0.08694161 0.4123058 0.4674969 0.031704202
-0.50455314 1.4205035 -0.091794394 -0.010408642 -0.5424033 0.21491744 0.1242285 0.15156704
-0.6578193 -0.29680476 -0.18343636 -0.075414136 0.10692029 -0.9012378 -0.15988097 -0.13118738
0.2120242 0.72427315 0.3211655 -0.2765282 -0.66856235 0.68096435 0.17829444 0.043723196
0.8035211 0.79637456 0.26650178 -0.05174082 -0.021058606 1.0250764 0.359178 0.12557164
-0.6039055 0.7308743 0.17225543 0.057100665 -0.37172922 -1.4800134 0.18881781 0.13815875
-0.29215854 1.6886708 0.2608709 0.15014336 -0.6067463 0.5863496 0.17850344 0.010550931
-0.7666203 0.5054497 0.20425762 0.004021259 -1.0349172 -0.48602098 -0.23893844 -0.10932843
-0.3455073 0.066849574 0.20975365 0.09801753 1.2030942 0.61755097 0.13027649 0.1735675
-0.71795726 0.7152971 0.20974489 0.044567563 -0.24157663 0.32334167 0.39207426 0.19891731
0.043953136 0.9793427 0.20098162 0.08980028 0.47620922 1.2578474 0.11496204 -0.054838154
0.71562886 -0.9209641 -0.0170437 -0.032177437 -0.6874861 0.052573223 0.005976488 -0.48513556
0.83619577 0.06210868 -0.08648649 0.005341173 0.30458647 -0.53452677 -0.053937946 0.06760111
-0.54363555 0.99156666 0.2308469 0.08253631 -0.39355868 0.61085576 -0.26049656 -0.18706256
0.28710452 -0.7648832 -0.12803878 0.1653698 0.0026356578 1.1056608 0.21711577 0.10232449
-1.1331098 0.4602886 -0.054595478 0.123443805 -0.46938896 -1.0380185 -0.02305023 0.014722984
-0.31040204 -0.5666577 0.46815306 0.10982017 0.6095608 -0.9150012 -0.17617123 -0.05167963
-0.40786982 -1.0170128 -0.23285489 -0.067382015 -0.39301318 0.19947012 0.107947364 0.2477811
0.62608707 1.2296473 0.32930863 -0.08071461 -0.2622348 -1.2641135 -0.27683565 -0.08805134
-0.8456466 -0.46807605 -0.22968413 -0.12522554 0.037441295 0.8802806 0.16969135 0.04137679
-0.47515625 0.99242866 -0.31603 -0.086481765 0.8537291 -0.4987712 -0.10923581 -0.10214996
-0.1950505 -0.5399102 0.063265905 0.12510072 0.16417408 -0.87803376 -0.21524493 -0.03469474
-1.195542 0.082151435 -0.07235922 0.08415886 0.32403076 -0.17351168 -0.2065473 0.17271648
0.5089367 -1.6909038 -0.22054718 -0.121945195 -0.38407642 0.14450096 0.25217214 0.11820039
0.6479978 -0.40425357 0.00096448226 -0.0538621 -0.4056036 1.1111407 0.17474446 0.1548189

q1.0.bias f4 [128]
00000000: 7e56 853d f571 c53e 45ee d03e 33d1 853e
00000010: 5e27 17bf 6e9a 45bf 8bc8 743d ac13 da3e
00000020: e615 6abe 9ba4 f73d 672a e4be 96f1 073d
00000030: 4ec8 35be a048 84be 0228 55bf c56c 7e3c
00000040: aba7 a03e 1ac3 d73e 316c 133f 45bc a43d
00000050: 5186 42be cfc7 e53e 247e c7be c2ce 5abd
00000060: 1276 c03e 0b90 ecbd fd2c 1c3f 7a13 cb3e
00000070: 67fb 0b3f d5b7 af3e 53db 87bf 725d 853e
00000080: 4765 f43e 6346 dfbe 93c7 583e 760c 3ebe
00000090: 0f45 a53d 0ffd cb3e 97ff 483e 54c2 2c3e
000000a0: 590f 833e d762 10bf 00a8 b73d 3113 403e
000000b0: 6c1f fa3d dd7d 243e 25d0 5ebe 5e68 bdbe
000000c0: dd69 8f3d 345e f63e 22e0 d9bd ad96 0dbe
000000d0: 0484 093f e641 483e f3c2 22bf bc50 113e
000000e0: 88b7 093f 7d7a e3be c385 85bc 10a1 46bf
000000f0: bad1 72bf 83aa fe3e 7fe5 103f 52fa 253e
00000100: f7dc ec3d f1a0 38bf 5b8f 3f3e 806b 6cbe
00000110: 5cdf d9be 5a03 f93e bd9c debe 9808 b7be
00000120: 6bb1 9dbe 1065 ecbe f59e 6e3d 7477 2cbd
00000130: d547 8cbe 4fbe c1be 3c68 cf3e 10f7 673e
00000140: 7558 483e bc5b d8be 9000 07bf 2ce2 0c3f
00000150: f2a2 7f3e 4ac2 8d3e 2d26 f4bd d36a 73be
00000160: d3f2 ef3e 02a0 0e3d 0ff8 f43e 8995 0e3d
00000170: 4e9f 003f 0aba 003f c9b9 433f e00d 81be
00000180: c3f5 33be 1d11 c43d c7eb 333f 28b1 13bf
00000190: 2fad cabd 72de 983e 9a43 5dbd 03b0 813e
000001a0: be59 86bd 1910 3b3d 7dfd 2b3f 3647 d4be
000001b0: 2db2 9ebe 6c60 943d 76c1 dc3e ae01 903c
000001c0: 61fc 243f 156b 7e3e 78b4 833e fc63 4a3e
000001d0: 4ee2 2abe c26a d03e c441 fbbe a89e b73d
000001e0: 5069 2ebf 220c 9d3e 9d73 a63e bbf6 d43d
000001f0: 4c70 df3e f7e1 c73e 2a9a 2b3e 31bd 873e
0.06510638 0.38563505 0.40806785 0.2613617 -0.59044445 -0.77188766 0.059761565 0.42593133
-0.22859916 0.12091943 -0.445636 0.03318938 -0.17752191 -0.25836658 -0.8326417 0.015528862
0.3137792 0.42141038 0.5758696 0.08043722 -0.1899655 0.44879004 -0.38963425 -0.053419836
0.3759008 -0.115509115 0.61006147 0.39663297 0.54680485 0.3431994 -1.0613807 0.26047856
0.47733518 -0.43608388 0.21169882 -0.18559441 0.080698125 0.39841506 0.1962875 0.16871005
0.25597647 -0.5640082 0.0896759 0.18757321 0.122130245 0.16063638 -0.21759088 -0.36993688
0.07002614 0.48118746 -0.10638453 -0.1382701 0.53717065 0.19556388 -0.6357872 0.14190954
0.5379567 -0.4442939 -0.016299134 -0.7758951 -0.9485127 0.49739465 0.56600183 0.16208771
0.11565583 -0.7212058 0.1870703 -0.23087883 -0.42553222 0.4863537 -0.43478957 -0.35748744
-0.30799422 -0.46170855 0.058257062 -0.042106107 -0.27398553 -0.37840506 0.40509212 0.2265284
0.19564994 -0.42257488 -0.52735233 0.5503261 0.24964502 0.27687293 -0.11921344 -0.23771219
0.46864948 0.034820564 0.47845504 0.034810577 0.5024308 0.50283873 0.7645536 -0.25205898
-0.1757422 0.095735766 0.7028164 -0.57692194 -0.098963134 0.29857212 -0.054019548 0.253296
-0.06560086 0.04566965 0.6718367 -0.4146058 -0.30995312 0.072449535 0.4311635 0.017578926
0.644476 0.24845536 0.25723624 0.19764704 -0.16687891 0.4070645 -0.49073613 0.08965808
-0.68129444 0.3067332 0.3251008 0.103986226 0.43640363 0.39039585 0.16758028 0.2651153

q1.2.weight f4 [128, 128]
00000000: 4516 953e 70b1 e83e e819 0e3e 2405 243f
00000010: 36c4 83be 7854 dd3c ca75 bbbd 3fa2 8f3c
00000020: ac46 dbbc ae9f bc3d 5ae3 6ebe 8942 65bd
00000030: fd68 05bd 0a4c 6fbe f5d3 e5be c85c 13be
00000040: 861e 273f 7691 4ebd f5d7 f53d 1f0c ac3d
00000050: 29f4 d8be 9932 163e 8ce4 0e3f bc20 7dbe
00000060: dbc7 343e be1c 18be debb 7f3e 7383 883d
00000070: 3f7d e63d 5840 d83d c689 51bf 5578 6abd
00000080: 7f8e 7f3e c2a8 5dbd ef28 04be b849 87be
00000090: 311b 293d fb10 043e 70c5 853e 795e cf3d
000000a0: dc61 273d 2a00 05be 27fc 0e3c 9ec9 983d
000000b0: 09ba 1cbd 053a 833c eb33 f13d dc0c a8bd
000000c0: 7a34 b6bd f195 8b3e 72d1 f1bd 0f3e 54be
000000d0: 0112 5fbd 9962 903c fdd5 113e bf1d 673d
000000e0: f26d 923e 1c44 e63d 5a74 02be 1e1c bebd
000000f0: ff85 febc 7aeb 973e 593b f23e d59c 13bd
00000100: c643 943d 4cc7 93be 615a 65bd 2f7f 833e
00000110: 8456 f23c 80a8 8b3d 2fe0 393d 28ec 9cbd
00000120: 7630 74bc e26e 5dbd 0576 c7bd af12 283f
00000130: ff7e 543f ff8e 0bbe b22e 743e 084d 0d3e
00000140: 4dde 0bbe 9164 4f3f 1aae 263e b7f6 7b3d
00000150: 643c 003d d196 fd3c 4852 06be fb3c b0bc
00000160: 1eca a63e ee4d f93d 14e6 923e 3425 3e3e
00000170: 15aa 553e 9fbb b83d be9d 043f 31c8 43be
00000180: 7a80 443e dcc1 6c3e 4467 883e b94a 453f
00000190: 5df4 26be 9126 733d 2110 723d 0f51 46bb
000001a0: ca1d 443e 5e40 7abe 20c9 903d 830a ae3e
000001b0: 5408 ad3d 565c 293e d2a2 353f 2790 75be
000001c0: caeb bb3e 9113 e1bd 718e f43c f334 e03c
000001d0: fbcb 503d 98fc 483e b06c cfbc 3dac 4a3c
000001e0: 8607 5f3f aeca f5bd a73b 91bd 5935 a03d
000001f0: 67c9 2d3e dc9a 213e e815 3d3d e186 5b3e
00000200: 022b b8bd 602a 15be 22bc b93d b24c a73d
00000210: dd28 953d b309 77bd cf73 10be 1506 7ebd
00000220: 62c4 1fbe 27c3 4abd cc21 fe3d 6086 bc3b
00000230: 2cd9 0d3e b96b 46bd 5ba6 c7bd 6e14 0bbe
00000240: 20de 083e c155 21be 3e3a dbbd 5ead 9cbd
00000250: 1c91 163d 6cd5 b23d 8da5 513d b29e b3bb
00000260: 9c65 003e 8762 a33d 4113 b2bd 2be0 9cbc
00000270: 6955 e93d 0ac5 d5bd 12a7 4dbc caab 06bd
00000280: 56b9 25be 7128 aa3d 18cf 853d f3d4 853d
00000290: c823 bbbd 7cea 043e 3481 dbbd ce17 bfbd
000002a0: f497 1cbe e50d f73d 2d5d 853d d6e8 61bd
000002b0: 7d43 11be 7422 153c c27b 22be e41f cc3d
000002c0: 0cbe fabd 2a2b 183d 6741 0cbc 2d05 e33d
000002d0: dcbf a3bd 000e fdbc 1bf3 03be 4ffc b0bd
000002e0: ae8d 083e 90bf fe3d 4616 393d 971e 0fbe
000002f0: b62c 873d b5ad 29be fa41 f4bd db83 15be
00000300: 8dec 8abd 9ea3 90bd 24a3 02be 644f e0bd
00000310: ea48 abbd b146 a8bd df0c 593d 0547 cc3d
00000320: 192e 873c ac48 1e3c 6ca7 dc3d 80b8 0fbd
00000330: ee49 d4bd 4e48 0fbe b214 ffbd 45d5 c93c
00000340: aee3 da3d f96e 08bd fe8b 18bd 463d ec3d
00000350: 12b0 b9bd 5170 d83d ced5 f3bd d909 f23d
00000360: 41ed 27be 4f64 fabd 207b 3e3d abcb 983d
00000370: 311f a1bd d89d a2bd fab4 eb3d daa2 a73d
00000380: 615e 28be 7968 e53d 4840 7f3c adfb 0cbe
00000390: e2db 02bd 3780 98bc 9073 383d 0c8c 09be
000003a0: d0ae 73bd 5f31 63bd f635 85bd fefd d03c
000003b0: de32 843b 8c82 263d b9f7 37bd d558 78bc
000003c0: 0153 bb3c 3c89 773d d027 ccbd 9e13 9abd
000003d0: 9b30 103d 6152 d0bd 9600 9f3d f2a3 413c
000003e0: 3cc7 f03d adf3 e63d db71 9bbd 7993 8e3d
000003f0: 348f 313b 9aa6 303d 5b58 ca3c 9a2f e23b
0.29118553 0.45447874 0.1387707 0.64070344 -0.25735635 0.027017817 -0.09153326 0.01753342
-0.026767097 0.09210144 -0.23328915 -0.055971656 -0.032570828 -0.2336885 -0.44888273 -0.14390862
0.6528095 -0.05043169 0.12004081 0.084007494 -0.4237378 0.14667739 0.55817485 -0.24719518
0.17654364 -0.14854714 0.2497401 0.06665697 0.112543575 0.105591476 -0.8185085 -0.057243664
0.24956702 -0.054116018 -0.1290624 -0.2642343 0.041285697 0.12897103 0.26127195 0.10125441
0.04086481 -0.12988344 0.00872711 0.074603304 -0.038263354 0.016018877 0.11777481 -0.08205578
-0.08896728 0.27262834 -0.11807527 -0.20726798 -0.05446053 0.01762514 0.14241786 0.056424852
0.28599507 0.112434596 -0.12739697 -0.09282707 -0.031069754 0.29671842 0.47310904 -0.03603824
0.07239489 -0.2886299 -0.055994395 0.2568297 0.02958227 0.06819248 0.045379814 -0.07662231
-0.014904132 -0.054060824 -0.09739307 0.6565351 0.8300628 -0.13628767 0.23845938 0.13798916
-0.1365902 0.8101283 0.16277352 0.061514582 0.031307593 0.030955704 -0.13117325 -0.021513453
0.32576078 0.12173067 0.2869116 0.1856888 0.20865662 0.09020161 0.51803195 -0.19119336
0.19189635 0.23120826 0.26641285 0.7706714 -0.16304155 0.05936295 0.059097413 -0.0030260717
0.19151989 -0.24438617 0.070696115 0.33992395 0.08448854 0.1653913 0.7095157 -0.23980771
0.3670333 -0.1099006 0.029853078 0.027368998 0.05097578 0.19627607 -0.02532038 0.012370166
0.87120855 -0.12001549 -0.07091456 0.07822675 0.1697136 0.1578173 0.04616347 0.21438171
-0.08992578 -0.14566946 0.090690866 0.08168925 0.07283185 -0.060311984 -0.14106677 -0.06201752
-0.15602258 -0.049502518 0.1240879 0.0057533234 0.13852376 -0.048442576 -0.09748527 -0.13582012
0.13365984 -0.15755369 -0.10704468 -0.07650255 0.03675948 0.08732113 0.051183272 -0.0054815644
0.12538761 0.07977777 -0.08695079 -0.01914986 0.11393244 -0.10437973 -0.01255204 -0.032878675
-0.16183981 0.08308495 0.065336406 0.065347575 -0.09137684 0.12980074 -0.10718003 -0.09330712
-0.1529234 0.12063197 0.065119125 -0.05515369 -0.14185901 0.009102453 -0.15867522 0.0996702
-0.1224328 0.03715054 -0.008560515 0.110849716 -0.07995579 -0.030890465 -0.12885706 -0.08641874
0.13335297 0.124388814 0.045187257 -0.13976513 0.06600325 -0.1657017 -0.119266465 -0.1460108
-0.067834 -0.070624575 -0.12757546 -0.109526426 -0.08363517 -0.08216608 0.05299079 0.099744834
0.016501473 0.009660881 0.10774121 -0.035088062 -0.103656635 -0.13992426 -0.12455119 0.024637828
0.10687958 -0.033308957 -0.037242882 0.115351245 -0.09066786 0.10568298 -0.119060144 0.118182845
-0.16399099 -0.122261636 0.04650414 0.074607216 -0.078672774 -0.079402626 0.11509128 0.08185358
-0.16442253 0.11201567 0.015579291 -0.13767882 -0.031947978 -0.018615825 0.045032084 -0.1343233
-0.059492886 -0.055467006 -0.06504433 0.025511738 0.004034384 0.040651843 -0.04491398 -0.015157898
0.022866728 0.06043361 -0.09968531 -0.07523273 0.035202604 -0.101719625 0.07763784 0.011818873
0.11756751 0.11276946 -0.075900756 0.06961722 0.0027093412 0.043127634 0.024700334 0.006902647

q1.2.bias f4 [128]
00000000: 0c11 b73e 63f3 64bc 7ee3 b53e a667 863e
00000010: 0327 b6bb 2735 4abd 2da3 b73e 217a b53e
00000020: 6961 a4bc efe6 d53e 972b 0f3e fa2c b53e
00000030: 2d62 c6bd 0b53 fe3e 6821 b83e 39ae bf3e
00000040: 7457 773e 0a1a e33e 8dfe 51bd 8df6 07bc
00000050: 9391 b73e 3ced b23e c9c4 67bb 5bac 45bd
00000060: a502 a3bc 0a9d d03e 0041 dabc c603 2abd
00000070: dbe2 28bd 0000 0000 960a be3e 28f2 0bbd
00000080: 95a0 b53e 872f e43e 5e63 ab3e 8932 be3e
00000090: 75a8 af3e e0ac b23e d7e1 2dbc 837e 053f
000000a0: fd36 d93e 4d13 b43e aef0 d13e f02b c03e
000000b0: b989 50bd 04bd c23d f7e9 a53e 0bbb 823e
000000c0: aa30 fc3e f1f0 96bc 9f20 873e dc19 b83e
000000d0: 1162 073f 9df5 e53e 29a9 b6bc e35b 95bd
000000e0: 7af1 8c3e 33e3 b53e 9061 a73e 6100 bb3e
000000f0: 7eb6 44bd faf6 b23e b6e3 c5bd 682f fd3e
00000100: b608 d53e e236 f23e 29e8 df3e b677 47bd
00000110: 2632 b73e 8731 0c3e 26d1 aa3e df9a 47bd
00000120: 8613 b43e b2c7 73bd 8531 da3e ac13 b33e
00000130: 2991 c03e 8ac1 773e 3f8d 023f b5e7 bf3e
00000140: 3cfd ea3e 119c 3dbd 474d c43e c5c7 b23e
00000150: 6364 47bd 1584 e13e 4bfe b33e 80db 073f
00000160: e84b b53e 812e 99bc 933d b43e 2bbe 9dbc
00000170: 4adc b7bc 02cf 0e3f 5b39 b53e 3738 c13e
00000180: 92eb b23e 84b7 073f 071f c53e bf9a ed3e
00000190: c1da 0bbc 309b c83e bb63 d43c dfd7 b53e
000001a0: 4cc4 b93e 936c 003f 10dc 863e e5c0 b63e
000001b0: 5e5a 32be e442 ae3e db2e 013f 91ca b03e
000001c0: 0644 44bd f1e7 fb3e 5bf9 af3e 99ff a6bc
000001d0: 3d9a fc3e 6c65 a73e 8235 58bd 8003 963d
000001e0: a3c6 d83e e7c7 75bc 15bc a1bc 3c70 b03e
000001f0: 0b9f 9ebc b6e9 ed3e 27a6 bc3e 13e7 b33e
0.35755193 -0.013974044 0.35525125 0.26250952 -0.00555885 -0.049367096 0.3586668 0.3544474
-0.02006598 0.4177775 0.13981472 0.35385877 -0.09686694 0.49672732 0.35962987 0.3743761
0.24154454 0.44355804 -0.05126815 -0.008298528 0.35853252 0.3494662 -0.0035365096 -0.048260074
-0.019898722 0.4074481 -0.026642323 -0.041507505 -0.04123197 0.0 0.3711745 -0.034166485
0.35474077 0.4456751 0.3347425 0.3714793 0.3430821 0.34897518 -0.010612926 0.52146167
0.42424765 0.35170975 0.41003937 0.37533522 -0.050912593 0.09508708 0.32405064 0.25533327
0.49255878 -0.018425437 0.26392075 0.3595723 0.5288401 0.4491395 -0.022297459 -0.072929166
0.27527982 0.35524902 0.32691622 0.36523727 -0.0480256 0.34954053 -0.09662573 0.4945023
0.41608208 0.47307497 0.43731812 -0.04869815 0.35780448 0.13690768 0.33362693 -0.04873168
0.35171145 -0.059516616 0.42615905 0.34975946 0.37610748 0.24194923 0.50996774 0.37481466
0.45896327 -0.046291415 0.38340208 0.34918037 -0.04867972 0.44046083 0.35154948 0.53069305
0.35409474 -0.018698933 0.35203227 -0.019255718 -0.02244391 0.5578462 0.3539532 0.377382
0.3494535 0.530144 0.38500234 0.46407124 -0.008536042 0.391809 0.025926461 0.3551626
0.36282575 0.5016567 0.2633977 0.35694042 -0.17417285 0.34035408 0.5046212 0.34529546
-0.047916435 0.49200395 0.3436993 -0.02038555 0.49336424 0.32694566 -0.052785404 0.07324886
0.42339048 -0.015001274 -0.019743005 0.34460628 -0.019362947 0.4646737 0.36845514 0.35137233

q1.4.weight f4 [1, 128]
00000000: 461d 82be 83d1 ef3d 7dec 26be 745b af3f
00000010: 1ffd 973d 589b d93d 5fae 7cbe 4adc 91be
00000020: 71d0 313e 1fd6 4440 d35b 753e e8b1 90bf
00000030: 0431 943f 2473 57bf 27cc 99be 017f 5040
00000040: 0d00 4240 afb5 61be f8b3 a53d 4d1a 063e
00000050: 0c91 3dbe 3f98 3cbe 9054 4b3f b0ac 213d
00000060: d040 083e f37f 5240 f0c0 8f3c 1e95 253e
00000070: 09ac bc3d 17df 5b3d d43d 85be b239 9d3d
00000080: 664c 78be 7178 d1be 726c 1f40 5e8c 50be
00000090: e75c 7dbe 49f2 1dbe c4dd 0c3e 0d62 05bf
000000a0: e54e c6be b317 29be 3703 0abf b610 80bf
000000b0: 84c9 4d3d ef27 0240 068a 85bf 50d3 3540
000000c0: 5e3f 1abf 8d6d 9cbb 2eba 1f3f b4a9 9fbe
000000d0: 9240 56bf c63e 15bf 4ff5 583d 056b c23c
000000e0: 5109 5a40 5c16 3fbe baad 0dbe 0c0c aebe
000000f0: 9234 2c3d 08ac 53be 43db 323e a693 a9bf
00000100: b022 29bf d368 7140 161d 2d40 a54f 1b3d
00000110: 75ee 3e40 1f20 c93f f2aa ef3f 8441 273e
00000120: 3765 99be c52d 203e 12a0 b3be 0d00 48be
00000130: 9287 dbbe d82a 3540 1525 e7bf 54f9 0abf
00000140: c830 fbbe 4df2 903d 89b2 21bf f969 17be
00000150: a3ca bc3c 3e4b d8be c6bc 5dbe 4379 57bf
00000160: da6f 59be e22a 883c 5721 80be f3d6 c83d
00000170: 9dbd 3c3e bd7d 37bf 1802 58be 9070 89bf
00000180: a861 3dbe b4f3 48bf 9b41 9dbe 089a 04bf
00000190: 50b1 89ba fb08 a1be 99f2 0a3f fb89 96be
000001a0: 9628 75be dcfd 50bf 97c9 4040 d873 7fbe
000001b0: c332 203f e491 01be 32f1 2cbf 50b9 0dbe
000001c0: 6dd3 1e3e b03e 13bf 36e4 3cbe 5182 273e
000001d0: 2144 49be dd01 0fbe b90a 283c a2e2 d03e
000001e0: 49c4 93be dc99 493e 1a5c 193d 985e be40
000001f0: 9b1c 0ebd 3ad8 b3be d899 cdbe 3d03 6abe
-0.2541296 0.11709883 -0.1630115 1.3699784 0.07421326 0.106253326 -0.24675892 -0.2848838
0.1736467 3.075569 0.2396081 -1.1304293 1.1577458 -0.84160066 -0.30038568 3.2577517
3.031253 -0.22041963 0.08090967 0.1309597 -0.18512362 -0.18417452 0.7942591 0.03947133
0.13305974 3.2890594 0.017548054 0.16170165 0.092125006 0.053679552 -0.26023734 0.0767702
-0.24247894 -0.40912202 2.490994 -0.20366046 -0.2474247 -0.15424456 0.13756472 -0.5210274
-0.38732067 -0.16512947 -0.53911155 -1.00051 0.05024101 2.0336874 -1.0432746 2.8410225
-0.6025294 -0.0047738017 0.6239346 -0.3118416 -0.83692276 -0.5829891 0.05296832 0.023732672
3.4068186 -0.18660873 -0.13835803 -0.33993566 0.042042322 -0.20671093 0.17466454 -1.3248184
-0.66068554 3.772023 2.7049003 0.03791775 2.9833043 1.5712928 1.8724043 0.16333586
-0.29960033 0.1564246 -0.3508306 -0.1953127 -0.4287687 2.83074 -1.8058192 -0.54286695
-0.49060655 0.07077465 -0.6316305 -0.14786519 0.023045843 -0.42244905 -0.21654043 -0.84169406
-0.21234074 0.01662201 -0.25025436 0.09806623 0.18431707 -0.71676236 -0.21094549 -1.0737476
-0.18494284 -0.7849686 -0.30714116 -0.51797533 -0.0010505114 -0.31452164 0.54276425 -0.29402146
-0.23941264 -0.8163736 3.012304 -0.24946535 0.62577456 -0.12653309 -0.67555535 -0.13840222
0.1551034 -0.5751753 -0.1844643 0.16358306 -0.19654895 -0.13965555 0.010256463 0.40797907
-0.2886069 0.19687599 0.03744135 5.949047 -0.03469525 -0.35125905 -0.40156436 -0.22852798

q2.0.weight f4 [128, 4]
00000000: 50c9 cebf 4aa9 b63e 78fd 843d 4739 ee3d
00000010: f678 0e3f d076 71bf 0476 34be 2b81 4abd
00000020: c398 583e 36fe 82bf 3a19 64be b001 f4bd
00000030: a24a 783f 1399 813f c5b7 a8bc d72a c0bd
00000040: 6897 593e 2aba 1f3f 238e 1d3f ca8d 0b3c
00000050: c1c1 11bc 959c 67bf dab8 0dbe 307c bdbc
00000060: 85e1 8c3f 620e 2e3e 8b1f 14bd c0dc b53c
00000070: 5065 0abe 2d59 f13c e1d8 073f 46fd ad3d
00000080: 131d 733f b204 eabe 6677 53be afcc 3cbe
00000090: 97b9 49bf ee1d 08bf f0e5 83be 6483 e5bc
000000a0: 6e6b 3ebe 6f04 49bf cb89 10be d393 1bbd
000000b0: 9174 2bbd d69e 763f b1ff 643e 9fa1 043e
000000c0: 1797 093f c8b7 693f 04ed 4dbd 9b8e 253e
000000d0: a151 e83e d093 aabe ed95 39bd 9f52 e63e
000000e0: 7916 44bf 129a c4bd f417 943e 3ff3 e73c
000000f0: 3be2 8c3d 44ba 85bd 2399 f03e 22fe b43e
00000100: fc96 babe daf3 77bf 1d3c 2bbe 3a87 77bd
00000110: 29f8 2bbc 103e f3be 7502 3d3d 8d98 47bd
00000120: 77a0 193d fbe8 8f3f eab4 753e 0126 033d
00000130: 8a68 98be 5e2a 8cbf 4e08 83be 3ead 94bd
00000140: db25 0e3f 4d8f 7ebe ed1a 3e3d 1cca 38bd
00000150: d760 883e 2818 c03d 55d4 203f 5024 df3e
00000160: b299 dd3e df6d afbe 9a44 5e3b a1d3 1cbd
00000170: 8182 33bf ab7e e2be 04ac 65be fb04 04bd
00000180: cc33 03bf 0685 8a3f a261 443e 5029 da3d
00000190: 438b a23f f881 133f 8847 21be c4c1 2b3d
000001a0: 9e79 3d3f b78c 233f 5e09 783e cc35 c63d
000001b0: 4401 823d 62d4 aa3f 5260 793e 74ce f33d
000001c0: 0390 9c3f c416 a03f b4e1 c63e 4ccb 713e
000001d0: 9f1f 363f de0e 843f 1fb1 98bd 470b f4bd
000001e0: b76f 01bf e66a 5cbf 9663 12be 708b f7bd
000001f0: e5b3 5fbe fa06 90bd f648 c0bd 4d8d 27be
00000200: 2198 013e ccca a13f 1241 903e 5638 323e
00000210: 7c74 f5bc d79f adbe 1147 743d 8c2d b33d
00000220: 9b64 b4be 931a 633e 5a31 f43d 42ba 573d
00000230: c84a 8b3f 9edb b5bd f731 91bd abe0 9cb8
00000240: 1cba 0f3f 3528 fbbe 0b79 973b 7520 85bc
00000250: 7f6d d9bd ef09 93bf ee24 1dbe 2d15 b2bd
00000260: 9fc1 5fbf 0ceb 2c3f 0e8a 793e a718 dd3b
00000270: 4fce 13bf b7a8 963e c788 053e 76df f13d
00000280: 3953 a2bd 89df adbf e3fc 45be 39c0 dbbd
00000290: 2979 46bf 5a12 57bf e11c 88be b2b8 58bd
000002a0: 62c4 ca3c 53aa b43f eb1d 963e 62d9 0b3e
000002b0: 94a3 04bf 1711 38bf 58cd 223c 81e2 a7bd
000002c0: 743e b7be 0333 483f 0503 cc3b ea4d e73e
000002d0: dbbd c73e 83f4 c1bf 299f 80be 7243 e6bd
000002e0: 3618 483f d6db b2be 0b84 5cbe 3e4e 96bd
000002f0: e276 54bf 13ec 6f3f 34c7 833e 0869 813d
00000300: 787c 093f 05e7 a63e aabe 9f3e a211 87be
00000310: d7f2 9d3e a5ac 7cbe 28af 06be 3f72 463c
00000320: ae94 d9be de54 8f3e c550 853e e19b 503e
00000330: 6df4 103f 6a81 a0bf 51a6 933d cb4c 343e
00000340: df5d dd3e 6452 9cbf de0a ccbe 469b 40bc
00000350: 1df4 543f c926 b7be bb1b 92be 89d0 9d3d
00000360: 71b1 ea3e ff53 9f3f 5d8c 9d3e 851a 88bd
00000370: 742a 6f3e baa6 d4be 5420 423e 36ee f5be
00000380: 32e0 c53f 982d d33e a1d5 803e 817b 343d
00000390: a61b 0ebf c26e 3a3e 1ded 0b3e 7237 2a3e
000003a0: 793b 20bd e558 613d 3a55 5d3d 534c 05bf
000003b0: 3f36 4dbf 5b15 8abf 8589 98be 30ac 9bbd
000003c0: a0d9 22bf ea2a 8d3e 3928 8b3e 2732 c53d
000003d0: b259 9cbe 3253 a0bf 6a71 37be c1e7 8dbe
000003e0: 22dd 1bbf 01ef 893f 825b 593e 73b0 da3d
000003f0: be18 d3be c798 92bf f1aa 84be a959 acbd
-1.6155186 0.35676032 0.06493658 0.116320185 0.5565332 -0.9432192 -0.17623144 -0.04943959
0.21152024 -1.0233829 -0.22275248 -0.11914384 0.9698888 1.012484 -0.02059544 -0.09383171
0.21249163 0.6239344 0.6154501 0.008517692 -0.008896292 -0.904733 -0.13840047 -0.023130506
1.1006323 0.16997674 -0.036162894 0.022199988 -0.1351521 0.029461468 0.53065306 0.08495574
0.9496624 -0.45706707 -0.20651016 -0.18437456 -0.7879881 -0.5317067 -0.25761366 -0.028016753
-0.18595669 -0.7852239 -0.14115064 -0.037982773 -0.041859213 0.96336114 0.22363164 0.12952279
0.5374617 0.9129605 -0.050274864 0.16167681 0.45374778 -0.33315897 -0.045308996 0.4498491
-0.7659679 -0.09599699 0.28924525 0.028314231 0.068790875 -0.06529668 0.46991834 0.35350138
-0.36443317 -0.9685646 -0.1672215 -0.060431696 -0.010496178 -0.47508287 0.04614492 -0.048729468
0.037506547 1.1242975 0.23994794 0.032018665 -0.29767257 -1.095043 -0.25592273 -0.07259606
0.5552651 -0.24859352 0.046412397 -0.04511462 0.26636383 0.093796074 0.6282399 0.43582392
0.43281323 -0.34263512 0.0033915401 -0.038287763 -0.7012101 -0.44237265 -0.224289 -0.032231312
-0.5125091 1.0821846 0.19177869 0.10652411 1.2698749 0.5762019 -0.15749943 0.041932836
0.740137 0.6388659 0.24222323 0.0967823 0.06347898 1.3346064 0.2435315 0.11904612
1.2231449 1.2506948 0.38844073 0.23612708 0.71142 1.0317037 -0.07455658 -0.119162135
-0.5056109 -0.86100614 -0.14295802 -0.120871425 -0.21845968 -0.07032581 -0.09388916 -0.16362496
0.12655689 1.2640014 0.28174645 0.17404303 -0.02996277 -0.3391101 0.059638087 0.08748922
-0.35233006 0.22178106 0.119234756 0.052667864 1.0882196 -0.08879779 -0.07089608 -7.480507e-05
0.56143355 -0.49054113 0.0046225837 -0.016250828 -0.10616588 -1.1487406 -0.15346119 -0.08695445
-0.8740482 0.67546153 0.2436907 0.0067473236 -0.57736677 0.29425594 0.13040458 0.118102
-0.0792603 -1.3583843 -0.1933475 -0.10730023 -0.77528626 -0.8401238 -0.26584533 -0.052910514
0.024751846 1.4114479 0.293197 0.13657144 -0.518121 -0.7190108 0.009936653 -0.08197499
-0.35789835 0.7820284 0.006225946 0.4517663 0.39012036 -1.5152744 -0.2512143 -0.11243333
0.7816194 -0.34933347 -0.21534745 -0.07339142 -0.829939 0.93719596 0.25737917 0.06318861
0.5370555 0.3259813 0.31200153 -0.2638064 0.30849335 -0.24675234 -0.13152754 0.012112199
-0.42496246 0.27994436 0.26038185 0.20371963 0.56622964 -1.2539494 0.07209457 0.17607419
0.4323568 -1.2212644 -0.3985204 -0.01175577 0.8318499 -0.35771778 -0.28536782 0.077057905
0.45838502 1.2447509 0.3077115 -0.06645683 0.23356038 -0.41533452 0.18957645 -0.48033303
1.5459044 0.41245723 0.25162986 0.044063095 -0.5551094 0.18206313 0.1366467 0.16622713
-0.039119218 0.055016417 0.054036357 -0.52069587 -0.801609 -1.0787767 -0.2979242 -0.076012015
-0.6361332 0.27571803 0.27179125 0.096287064 -0.30537182 -1.2525389 -0.17914358 -0.27715877
-0.60884297 1.0776063 0.21226314 0.10678186 -0.41229814 -1.1452874 -0.25911668 -0.08415539
