TD3/checkpoints/Pendulum-v1/07_last_checkpoint.pth (torch, 856338 bytes, 60 tensors)

actor.0.weight f4 [128, 3]
-0.26584288 0.47253498 0.36677516 0.15741827 -0.19094433 0.2930914 -0.26168433 -0.22075658
0.30011216 0.18213077 -0.7461876 -0.17697914 -0.9967217 0.034722116 -0.035654396 0.21892086
0.64825577 0.14212431 -0.15574041 0.24736242 0.0032663313 -0.22817028 0.70389473 0.065781586
-0.19574516 0.34956387 -0.12994865 0.37898195 -0.27914372 -0.18368353 0.36389723 -0.13938488
0.43458587 -0.308824 0.68862754 0.22598064 -0.66281545 0.44737637 0.19778238 -0.22144552
-0.78872865 -0.16783969 0.40834057 -0.23611136 -0.15255348 -0.0342225 -0.4029756 -0.086416006
-0.27105764 0.70283735 0.22275682 -0.6297702 0.19113821 0.123901054 -0.31181172 0.7537851
0.23098017 0.040247455 0.589508 0.24623731 0.00024866613 0.55790204 0.20482332 0.1373145
0.3378835 -0.074941605 0.34349442 -0.75416577 -0.06586209 -0.69793606 0.15252152 0.08778784
0.08136462 -1.1017839 -0.19262993 -0.3175654 -0.05871156 -0.13254592 -0.9576555 0.064722165
-0.01552679 -0.07739241 0.8038444 0.14526194 0.22441079 -0.31263363 -0.13710801 0.36053798
-0.22712687 -0.13568905 -0.38479987 -0.09769491 0.28682783 -0.4405313 0.4523988 0.16089025
0.27367058 0.1964381 0.20834558 0.27429286 0.2842399 0.33073312 -0.2507605 -0.6754322
-0.15266569 -0.05271457 -0.37919798 -0.078560285 -0.20281364 -0.74732924 -0.053222522 0.55940276
0.5720604 0.19723284 -0.123659864 -0.17653374 0.0006782089 -0.28997007 0.2847836 0.2801545
-0.1663024 -0.5069536 -0.11430894 0.047179885 -0.1235807 0.0038602606 0.5341734 0.29959327
0.3243867 0.0498025 -1.6346748 -0.28148246 0.4046118 0.83589226 0.2392082 -0.386029
0.23226729 0.3197627 0.31146023 0.47454646 0.16948137 0.23812328 0.30744597 0.20750843
-0.018532144 0.023307865 0.013481935 -0.12824471 0.26388356 0.03311061 0.26069182 -0.45843053
0.21612652 0.31560367 -0.3580461 -0.08008947 0.085422024 0.63604546 -0.085383244 0.26204383
-0.690121 -0.17638731 -0.08351236 -0.82053536 -0.16585863 -0.41909456 -0.8776186 -0.013821029
-0.09052032 -0.87900513 -0.093556754 -0.5264118 -0.5385632 -0.025667205 -0.49217236 -0.30210128
-0.16871098 0.07511369 0.5062805 0.31753775 0.11615323 -1.0516682 -0.18894812 0.036833107
-0.4744526 -0.08301269 -0.06556706 -0.0017212773 0.00056785624 0.28508222 -0.42822623 -0.13181993
0.40805468 0.6311371 0.25012624 -0.70283407 0.46783733 0.1962575 -0.4115537 -0.15072247
-0.21585156 0.20587416 0.5927076 -0.108069 -0.6036919 0.40222424 0.042673614 -0.2422811
0.6794894 0.2131568 0.14019032 -0.9688577 0.23754698 -0.3127199 -0.9956536 -0.053090148
-0.16886447 0.6079364 0.15642273 0.3559786 -0.889521 -0.028948871 -0.64764106 -0.6224856
-0.022991337 -0.4187307 -0.06328913 0.30424157 -0.5407632 0.27927592 0.08479428 -0.2971253
-1.2006093 0.014660287 -0.6077325 0.21503678 0.07603872 -0.049462628 0.024406744 0.010373456
0.13636093 1.186922 0.21372578 0.3530959 0.49880245 0.032124396 0.030236 0.020153597
-0.00028600186 -0.12991919 -0.09007837 -0.00020658356 0.46681675 0.90398127 0.25098935 -0.2627733
00000000: 8f1c 88be 1bf0 f13e f4c9 bb3e 4132 213e
00000010: e986 43be 1310 963e 7dfb 85be 030e 62be
00000020: 4da8 993e 7d80 3a3e 2706 3fbf 053a 35be
00000030: 2729 7fbf c738 0e3d 580a 12bd ca2c 603e
00000040: 17f4 253f 0989 113e 6a7a 1fbe 934c 7d3e
00000050: f20f 563b 78a5 69be 7232 343f 7fb8 863d
00000060: 6b71 48be 09fa b23e 4211 05be ec09 c23e
00000070: edeb 8ebe 8917 3cbe bd50 ba3e e9ba 0ebe
00000080: 0a82 de3e 2e1e 9ebe e549 303f 7867 673e
00000090: 46ae 29bf 840e e53e 7787 4a3e 9dc2 62be
000000a0: 1fea 49bf 2bde 2bbe 0412 d13e 2dc7 71be
000000b0: fb36 1cbe e42c 0cbd d152 cebe e0fa b0bd
000000c0: 11c8 8abe 26ed 333f 5d1a 643e 9f38 21bf
000000d0: bcb9 433e d6bf fd3d c9a5 9fbe 0ff8 403f
000000e0: 1186 6c3e 84da 243d ffe9 163f a225 7c3e
000000f0: 675f 8239 abd2 0e3f 34bd 513e 2c9c 0c3e
00000100: 11ff ac3e fc7a 99bd 80de af3e 0211 41bf
00000110: b4e2 86bd f0ab 32bf 9a2e 1c3e 1cca b33d
00000120: 7ea2 a63d 4107 8dbf c840 45be ef97 a2be
00000130: 887b 70bd 1eba 07be e928 75bf 0e8d 843d
00000140: 1464 7ebc e97f 9ebd bfc8 4d3f 8cbf 143e
00000150: f1cb 653e 8411 a0be 0b66 0cbe 6f98 b83e
00000160: f293 68be 12f2 0abe 7d04 c5be 4514 c8bd
00000170: 19db 923e 528d e1be d1a0 e73e 6ac0 243e
00000180: 8d1e 8c3e 1227 493e 8b58 553e 1d70 8c3e
00000190: e487 913e da55 a93e ae63 80be 20e9 2cbf
000001a0: 6554 1cbe 3ceb 57bd 3d26 c2be 37e4 a0bd
000001b0: 61ae 4fbe f850 3fbf dcff 59bd 0535 0f3f
000001c0: 8d72 123f 68f7 493e 6241 fdbd 43c5 34be
000001d0: d4c9 313a f576 94be 28cf 913e 6970 8f3e
000001e0: 2d4b 2abe b6c7 01bf ce1a eabd b23f 413d
000001f0: e117 fdbd 6dfc 7c3b 97bf 083f 4a64 993e
00000200: 0316 a63e b5fd 4b3d 063d d1bf 781e 90be
00000210: 4729 cf3e 09fd 553f fff2 743e 98a5 c5be
00000220: 7ad7 6d3e f0b7 a33e b777 9f3e c1f7 f23e
00000230: 868c 2d3e 97d6 733e 8f69 9d3e 177d 543e
00000240: b9d0 97bc 23f0 be3c 55e3 5c3c 9552 03be
00000250: bf1b 873e fe9e 073d 6679 853e 68b7 eabe
00000260: 4550 5d3e ce96 a13e d251 b7be f305 a4bd
00000270: bef1 ae3d e0d3 223f 69dd aebd 9c2a 863e
00000280: c5ab 30bf e09e 34be 8708 abbd 9b0e 52bf
00000290: d8d6 29be 9093 d6be 9dab 60bf 9971 62bc
000002a0: b862 b9bd 7b06 61bf af9a bfbd ecc2 06bf
000002b0: 47df 09bf 0844 d2bc 04fe fbbe 05ad 9abe
000002c0: 92c2 2cbe 35d5 993d 999b 013f 4f94 a23e
000002d0: bfe1 ed3d 109d 86bf 9e7b 41be 50de 163d
000002e0: 74eb f2be 8f02 aabd 0648 86bd 7b9c e1ba
000002f0: 30dc 143a 4cf6 913e 7840 dbbe cefb 06be
00000300: 8bec d03e 3392 213f 8c10 803e efec 33bf
00000310: 6088 ef3e baf7 483e 2bb7 d2be fe56 1abe
00000320: 3108 5dbe add0 523e afbb 173f 4853 ddbd
00000330: 8d8b 1abf 56f0 cd3e 87ca 2e3d 8918 78be
00000340: 04f3 2d3f c745 5a3e 0d8e 0f3e 0f07 78bf
00000350: 843f 733e d31c a0be 28e3 7ebf 0e75 59bd
00000360: cfea 2cbe b8a1 1b3f 482d 203e d442 b63e
00000370: a6b7 63bf 2f26 edbc cecb 25bf 375b 1fbf
00000380: 5458 bcbc df63 d6be bb9d 81bd 8dc5 9b3e
00000390: 756f 0abf 41fd 8e3e a0a8 ad3d cf20 98be
000003a0: 91ad 99bf b331 703c 5b94 1bbf 9a32 5c3e
000003b0: 30ba 9b3d 5399 4abd a7f0 c73c 6ef5 293c
000003c0: 33a2 0b3e 0fed 973f eeda 5a3e fcc8 b43e
000003d0: 0963 ff3e df94 033d 7db1 f73c 2819 a53c
000003e0: 85f2 95b9 8909 05be 027b b8bd 5a9e 58b9
000003f0: 9b02 ef3e 516b 673f ad81 803e 398a 86be

actor.0.bias f4 [128]
-0.26710746 -0.59689844 -0.09383118 -0.13340129 -0.08370528 0.06458584 -0.31511325 0.06426879
-0.17055489 -0.33851153 -0.40215522 0.12722176 0.055264387 -0.12534839 -0.4928896 -0.59545565
-0.13416858 -0.07753769 -0.0921347 -0.46288088 -0.3147276 -0.19830014 -0.34970966 0.31271067
-0.28122574 -0.044837616 -0.08528673 0.17231512 -0.35485744 -0.41827977 -0.19985966 -0.07713553
-0.55435574 -0.25751644 -0.06594028 -0.5430033 -0.2732381 -0.2888578 -0.22108796 -0.29624337
-0.061623458 -0.15918829 -0.45877552 -0.3376138 -0.02278405 -0.35721603 -0.32998994 -0.47885028
-0.19607216 0.042711034 -0.6743103 -0.4787242 -0.10488592 -0.19839782 -0.250327 -0.05023372
-0.07897858 0.027315786 -0.16577388 -0.45397276 -0.3055394 -0.2564554 -0.07259063 -0.3753625
-0.40897137 0.09127458 -0.18118116 -0.23097177 -0.03349329 -0.11261835 -0.4357934 -0.25667694
0.18480922 -0.35693616 0.07985165 -0.26512954 0.27901936 -0.09399143 0.33032346 -0.1780693
0.13934214 -0.5198563 -0.04293754 -0.15988402 -0.08419893 -0.2449003 -0.4263584 -0.41454598
-0.52331144 -0.17964715 -0.26241195 -0.102705285 -0.54406524 -0.39558563 0.030394027 -0.36108598
-0.29971313 -0.11731693 -0.13017443 -0.17872573 -0.48946524 -0.53714967 -0.58772284 -0.05629788
-0.4764799 -0.36925697 -0.31653792 -0.22661321 -0.19777007 -0.14957756 -0.10413684 -0.5558843
-0.44748747 -0.12370316 0.40128243 -0.66344184 0.0023408702 -0.05733468 -0.16439572 -0.28111684
0.043188 -0.6785271 -0.1268265 -0.3582187 -0.20522788 -0.31768656 0.014182749 -0.41331705
00000000: 4fc2 88be 56ce 18bf 902a c0bd 599a 08be
00000010: ad6d abbd 9545 843d 8656 a1be 5b9f 833d
00000020: f1a5 2ebe 6251 adbe 4ae7 cdbe 6c46 023e
00000030: e95c 623d 545b 00be 075c fcbe c86f 18bf
00000040: 7d63 09be 15cc 9ebd 1eb1 bcbd b9fe ecbe
00000050: fa23 a1be 310f 4bbe 250d b3be 9d1b a03e
00000060: d2fc 8fbe a6a7 37bd cfaa aebd 6073 303e
00000070: e0af b5be c428 d6be 03a8 4cbe 3cf9 9dbd
00000080: 42ea 0dbf 32d9 83be b30b 87bd 4402 0bbf
00000090: dde5 8bbe 2be5 93be e264 62be 36ad 97be
000000a0: e168 7cbd 4102 23be a0e4 eabe b7db acbe
000000b0: 9ea5 babc 05e5 b6be 71f4 a8be dd2b f5be
000000c0: 24c7 48be c4f1 2e3d 9a9f 2cbf 571b f5be
000000d0: 6ece d6bd cc28 4bbe dc2a 80be e0c1 4dbd
000000e0: 86bf a1bd 5bc5 df3c a1c0 29be 1e6f e8be
000000f0: a96f 9cbe 1f4e 83be 65aa 94bd 832f c0be
00000100: b264 d1be 2bee ba3d 8e87 39be dd83 6cbe
00000110: 4330 09bd 73a4 e6bd 5020 dfbe 296b 83be
00000120: a13e 3d3e 56c0 b6be 4389 a33d 0fbf 87be
00000130: a0db 8e3e 947e c0bd 2820 a93e cc57 36be
00000140: b5af 0e3e 4d15 05bf 46df 2fbd a3b8 23be
00000150: 7d70 acbd 25c7 7abe a64b dabe 5f3f d4be
00000160: bdf7 05bf 6cf5 37be dc5a 86be 2657 d2bd
00000170: dc47 0bbf 338a cabe e5fc f83c 43e0 b8be
00000180: 0074 99be dc43 f0bd 724c 05be e103 37be
00000190: 309b fabe a482 09bf 0175 16bf 9b98 66bd
000001a0: 2cf5 f3be 400f bdbe 4211 a2be 4b0d 68be
000001b0: 3d84 4abe dc2a 19be b245 d5bd 6f4e 0ebf
000001c0: 141d e5be 1558 fdbd e474 cd3e 53d7 29bf
000001d0: 4969 193b c5d7 6abd 5a57 28be 8cee 8fbe
000001e0: e6e5 303d f4b3 2dbf cede 01be 7168 b7be
000001f0: 4227 52be d0a7 a2be c35e 683c 4b9e d3be

actor.2.weight f4 [128, 128]
-0.012285794 -0.08127137 -0.15716985 -0.090126626 0.04187767 -0.10116065 -0.12175715 -0.06667272
-0.07562929 -0.038971048 -0.15314619 -0.017184364 -0.045337506 -0.08302746 0.058934975 -0.14037909
-0.13051742 -0.31316242 -0.078924 0.037509624 -0.020510783 0.085016504 0.1112572 0.03162967
0.039150734 -0.057266254 0.048345514 -0.16426183 0.026412766 -0.0027233488 -0.044751 -0.19743377
0.03709274 0.05757657 -0.15850252 0.12059739 0.11044987 -0.05549526 -0.0691876 -0.06963974
-0.2339362 -0.14694688 -0.008763421 -0.12533908 0.12339785 0.0043867044 -0.12814578 -0.23412791
0.03324355 -0.17739919 -0.14935039 0.09411909 0.09181226 -0.16339254 0.090407744 -0.15166932
-0.20385216 0.054782003 0.05012763 -0.11858687 -0.12122374 -0.16559117 0.03856816 -0.012420256
-0.15577076 -0.12518968 0.012750179 -0.137199 -0.08493743 0.052762914 -0.038856577 0.07830277
0.011917901 -0.08193941 -0.10277808 -0.15858081 -0.20042887 0.0049302424 -0.10915992 -0.059119463
-0.08371594 -0.10131739 0.033507776 0.13531074 0.10522466 0.078982234 -0.11727342 -0.020773474
-0.111594364 0.0362411 0.0070952754 -0.05585913 -0.08343872 -0.003826107 -0.16552174 -0.18355499
-0.04444739 -0.049983595 -0.06683481 0.043709666 0.021585343 -0.033870373 -0.045785256 -0.15367264
-0.006338899 -0.08754002 -0.1462316 -0.02687769 0.032256536 -0.013501476 0.12605084 0.1028237
-0.22890623 -0.09690212 -0.18381698 -0.03810817 0.044144426 -0.19161345 0.047431704 -0.13267617
-0.104146056 -0.12180855 -0.0832733 0.0642734 0.045160227 -0.1950996 0.07119486 -0.09887898
-0.7148121 0.5069335 0.00964185 -0.27626148 0.36560398 0.23349525 -0.26549956 0.42221904
0.09395726 -0.49043906 0.7912439 0.38187602 -0.17460439 0.29537597 -0.1536363 -0.0004936033
-0.5196084 0.1215468 -0.7116042 -0.21010615 -0.4717899 -0.034033876 -0.72593296 0.17905329
-0.4993815 0.05747722 -0.099697776 0.19889306 -0.45688602 -0.14415364 -0.83537906 -0.115320936
-0.56013155 0.50009066 0.21883823 -0.026081037 0.03233997 0.41606843 -0.07524633 -0.59747946
-0.039544784 0.0014994288 0.5462663 -1.2996238 0.2703076 -0.59634656 0.10389152 0.46646824
-0.0336922 0.23729867 0.68608093 0.3956563 0.09556983 -0.44338346 0.04180507 0.11250183
-0.4021932 0.20019597 0.38578737 0.06480323 -0.35958105 0.05730864 0.12096604 -0.69788396
0.5118521 -0.047642253 0.056064818 -0.16115788 0.062193353 -0.41018257 -0.4065464 -0.32437447
0.24175757 -0.40362582 0.26413962 -0.81271785 0.01902162 0.40498206 0.117538944 0.050972056
0.32171807 0.29674846 0.026362766 0.039603844 0.8299908 0.06740266 -0.12001575 -0.15698114
-0.17433646 -0.48263463 -0.0038602566 -0.2284898 -0.031640135 0.14066094 -0.19215457 0.1915435
0.13561724 -0.08759718 0.26883882 -0.16773903 0.6021205 -0.27738237 -0.100732535 -0.25732467
-0.1673008 -0.57921606 -0.6908928 -0.421122 -0.7553577 0.026409307 0.063070364 0.10371256
-1.9988815 -0.5167596 0.31405342 -0.06175142 -0.26177442 0.16786249 0.51128334 -0.13960636
0.093896076 0.25566408 0.1787582 -0.1759344 -0.5543688 -0.5353946 0.18259376 -0.15629162
00000000: 5b4a 49bc 9b71 a6bd 22f1 20be 4f94 b8bd
00000010: eb87 2b3d 512d cfbd d05b f9bd b58b 88bd
00000020: 87e3 9abd 1ba0 1fbd 5bd2 1cbe 39c6 8cbc
00000030: d2b3 39bd 4d0a aabd cd65 713d 89bf 0fbe
00000040: 5ca6 05be d356 a0be e8a2 a1bd b1a3 193d
00000050: 3b06 a8bc 221d ae3d d1da e33d 1d8e 013d
00000060: 855c 203d 0590 6abd f205 463d 4134 28be
00000070: 965f d83c 367a 32bb d34c 37bd 142c 4abe
00000080: 8fee 173d 69d5 6b3d 7c4e 22be c4fb f63d
00000090: 8b33 e23d ff4e 63bd 3ab2 8dbd 489f 8ebd
000000a0: f98c 6fbe 3e79 16be 7494 0fbc e358 00be
000000b0: 03b8 fc3d 58be 8f3b a638 03be 3abf 6fbe
000000c0: 642a 083d 22a8 35be 4fef 18be 82c1 c03d
000000d0: 1108 bc3d 6050 27be b227 b93d 344f 1bbe
000000e0: 9fbe 50be 1863 603d a152 4d3d acdd f2bd
000000f0: 2744 f8bd bb90 29be a6f9 1d3d 547e 4bbc
00000100: 5f82 1fbe b931 00be 20e6 503c e57d 0cbe
00000110: adf3 adbd ed1d 583d 1328 1fbd 345d a03d
00000120: 4d43 433c d9cf a7bd 507d d2bd 0263 22be
00000130: 3a3d 4dbe df8d a13b 3c8f dfbd 4027 72bd
00000140: 4373 abbd 7e7f cfbd 733f 093d e68e 0a3e
00000150: 0780 d73d 70c1 a13d 0c2d f0bd 222d aabc
00000160: 968b e4bd 8c71 143d 7c7f e83b 8bcc 64bd
00000170: ebe1 aabd 6cbf 7abb 887e 29be d7f5 3bbe
00000180: 770e 36bd 99bb 4cbd b0e0 88bd e808 333d
00000190: bfd3 b03c a9bb 0abd 5289 3bbd 5c5c 1dbe
000001a0: 8ab6 cfbb 2f48 b3bd bdbd 15be 9a2e dcbc
000001b0: 6e1f 043d 4b35 5dbc 7913 013e 3b95 d23d
000001c0: 6566 6abe 9e74 c6bd 853a 3cbe 5017 1cbd
000001d0: c9d0 343d 5136 44be bf47 423d 43dc 07be
000001e0: 874a d5bd c376 f9bd 318b aabd c6a1 833d
000001f0: eef9 383d 31c8 47be 9cce 913d 1081 cabd
00000200: edfd 36bf 65c6 013f daf8 1d3c 2572 8dbe
00000210: 7230 bb3e 6119 6f3e 8fef 87be 182d d83e
00000220: aa6c c03d d41a fbbe f68e 4a3f 4185 c33e
00000230: 7ecb 32be 853b 973e d652 1dbe 2865 01ba
00000240: 0e05 05bf 87ed f83d b12b 36bf 1126 57be
00000250: 728e f1be 1b67 0bbd bed6 39bf bf59 373e
00000260: efae ffbe 3c6d 6b3d 592e ccbd 9faa 4b3e
00000270: f7ec e9be 039d 13be 67db 55bf 622d ecbd
00000280: c864 0fbf f105 003f 2117 603e e6a7 d5bc
00000290: eb76 043d ec06 d53e bf1a 9abd 6af4 18bf
000002a0: b6f9 21bd 7b88 c43a 1cd8 0b3f 135a a6bf
000002b0: c265 8a3e 2baa 18bf 14c5 d43d edd4 ee3e
000002c0: d500 0abd 6cfe 723e 00a3 2f3f 7693 ca3e
000002d0: 1dba c33d 2803 e3be cb3b 2b3d 5c67 e63d
000002e0: 44ec cdbe 2c00 4d3e ec85 c53e 8eb7 843d
000002f0: 021b b8be 77bc 6a3d 0bbd f73d 86a8 32bf
00000300: bd08 033f 8624 43bd 39a4 653d 9206 25be
00000310: 75be 7e3d 7303 d2be da26 d0be 6914 a6be
00000320: 4c8f 773e 0ba8 cebe 4f3d 873e 470e 50bf
00000330: 3ad3 9b3c cf59 cf3e 42b8 f03d 13c8 503d
00000340: 3bb8 a43e 6aef 973e baf6 d73c a437 223d
00000350: 477a 543f 680a 8a3d d1ca f5bd aabf 20be
00000360: 4285 32be e31b f7be 5cfc 7cbb 3bf9 69be
00000370: 1699 01bd 6c09 103e 2bc4 44be fb23 443e
00000380: 3fdf 0a3e 2666 b3bd 3ea5 893e c8c3 2bbe
00000390: 9224 1a3f 1005 8ebe dc4c cebd 0fc0 83be
000003a0: e750 2bbe 8147 14bf 5ade 30bf 4e9d d7be
000003b0: 1f5f 41bf 5558 d83c 092b 813d 4067 d43d
000003c0: 59db ffbf 5b4a 04bf 9ccb a03e 0fef 7cbd
000003d0: 4c07 86be 25e4 2b3e 77e3 023f f8f4 0ebe
000003e0: 964c c03d 67e6 823e 640c 373e 2628 34be
000003f0: 1deb 0dbf 9f0f 09bf dcf9 3a3e e90a 20be

actor.2.bias f4 [128]
-0.074526995 -0.054931108 -0.043929983 -0.09575633 0.09320646 0.26673755 0.16429204 0.05966202
-0.07864632 -0.035023935 -0.18045102 -0.062378928 0.084549375 -0.087700486 -0.055640176 -0.011080053
-0.049645398 -0.11429799 -0.1724817 -0.023810375 0.022861518 -0.083502516 -0.07508553 -0.045793876
0.040980365 -0.27917254 -0.035003614 -0.29085076 -0.07052619 0.048554007 -0.043690756 0.16912328
-0.091647014 -0.10573445 -0.12786971 0.13466525 -0.020086307 -0.07281123 -0.10011537 0.079825014
-0.046584453 0.01617382 -0.055318315 -0.07732701 0.058370296 -0.12606055 -0.04818428 -0.029308405
0.17878512 -0.041378234 0.14783639 -0.054907307 0.090541884 -0.039074276 0.057520922 -0.06714493
-0.137177 -0.04882233 -0.2953493 -0.037971772 -0.110070854 -0.09855319 -0.10285306 -0.04818638
-0.66867703 -0.061685782 -0.010497785 -0.06381224 -0.09084418 0.020314995 -0.23158884 -0.16664301
-0.024079222 0.15867426 0.06470897 -0.06999176 0.019021813 -0.072613694 -0.02748002 0.032626428
-0.05307762 -0.06948393 -0.04717776 -0.032910194 -0.047927227 -0.06902088 -0.111483164 -0.013253502
-0.06996254 -0.035326336 0.042452883 0.25942808 0.16779841 -0.029341321 -0.05941668 -0.14421849
-0.0833858 0.15646146 -0.07852763 -0.3290372 0.06456731 0.12265578 -0.033944204 -0.10158149
-0.37203875 -0.07994594 -0.040225174 0.0099609615 -0.050421722 0.082540706 -0.035555217 0.065461814
-0.066518426 -0.014134246 0.08847471 -0.0024877323 -0.035052292 -0.21260907 0.1765175 0.22403918
-0.4613881 0.094314165 0.019796206 -0.1495199 -0.021090003 -0.18262833 0.016008528 -0.043430272
00000000: 9ca1 98bd 71ff 60bd edef 33bd e51b c4bd
00000010: 07e3 be3d d391 883e 2c3c 283e 2a60 743d
00000020: 5211 a1bd 4275 0fbd 27c8 38be 0c81 7fbd
00000030: 3928 ad3d 509c b3bd f4e6 63bd 1c89 35bc
00000040: f958 4bbd 1115 eabd 0b9f 30be fa0d c3bc
00000050: 1448 bb3c 5e03 abbd 71c6 99bd 5c92 3bbd
00000060: 07db 273d b4ef 8ebe f35f 0fbd 64ea 94be
00000070: 0970 90bd 91e0 463d 14f5 32bd a72e 2d3e
00000080: 6eb1 bbbd 4e8b d8bd 47f0 02be b0e5 093e
00000090: 0a8c a4bc 0e1e 95bd 4909 cdbd 4c7b a33d
000000a0: 57cf 3ebd f57e 843c 7595 62bd a05d 9ebd
000000b0: b115 6f3d 0416 01be e15c 45bd 2e18 f0bc
000000c0: 7213 373e 397c 29bd 6c62 173e 7ce6 60bd
000000d0: 066e b93d 590c 20bd 0f9b 6b3d 4883 89bd
000000e0: 2178 0cbe ecf9 47bd 0638 97be 4a88 1bbd
000000f0: d46c e1bd 41d6 c9bd a0a4 d2bd 155f 45bd
00000100: 6b2e 2bbf 3baa 7cbd e7fe 2bbc feaf 82bd
00000110: 830c babd a26b a63c a025 6dbe 77a4 2abe
00000120: ca41 c5bc 817b 223e 2386 843d d757 8fbd
00000130: a2d3 9b3c 7db6 94bd c71d e1bc 4aa3 053d
00000140: eb67 59bd 974d 8ebd 783d 41bd d7cc 06bd
00000150: 574f 44bd d25a 8dbd 4951 e4bd 3725 59bc
00000160: 8548 8fbd 59b2 10bd 13e3 2d3d c2d3 843e
00000170: 59d3 2b3e 365d f0bc e85e 73bd 03ae 13be
00000180: 2dc6 aabd 6f37 203e 18d3 a0bd 9077 a8be
00000190: de3b 843d f432 fb3d 1409 0bbd f509 d0bd
000001a0: dd7b bebe b2ba a3bd 27c3 24bd 4d33 233c
000001b0: 0287 4ebd 1a0b a93d 59a2 11bd d810 863d
000001c0: d03a 88bd 5393 67bc 3b32 b53d 3909 23bb
000001d0: fe92 0fbd 31b6 59be 01c1 343e 876a 653e
000001e0: 103b ecbe c927 c13d a72b a23c bf1b 19be
000001f0: f1c4 acbc ec02 3bbe 5124 833c f1e3 31bd

actor.4.weight f4 [1, 128]
0.050828002 -0.64038855 -0.0067658084 -0.01544998 0.45215806 -1.280946 -1.6520995 1.3411672
-0.036453165 1.4306424 0.81284094 0.5563013 -0.46434078 -0.009600203 -1.4117639 0.38719288
0.034467638 0.015459554 -0.7193996 -0.6903711 -0.32482073 0.0034453324 0.013190086 -0.0055987686
0.2692431 0.037958972 0.08876819 -0.7027303 -0.058054376 -1.162919 -0.002699294 -0.20814644
0.3134829 -0.00692824 -0.8514911 0.1972807 0.10585054 0.17545488 0.021147 -0.55806524
0.34894213 1.4091455 -0.084511384 -0.08030742 0.8230798 0.74734336 -0.18732357 2.1570895
0.4001426 0.14124113 0.39801028 0.119910054 -0.21759278 -0.1624362 0.27879357 0.12807228
0.0014244053 0.008200132 0.0027654425 -0.17075168 0.0148840565 0.62006176 0.080535956 -0.0066407803
-0.038646683 1.5104195 0.043599065 0.044432912 -0.02600229 -1.439244 0.0004820539 -0.6334945
-0.5360663 -0.24337414 -1.0130613 -0.10555257 -1.3862664 -0.14714018 0.9493821 -0.7233958
0.018428896 0.026690021 -0.058893353 0.0178575 0.16356593 -0.1440969 -0.11938508 0.0008590575
0.16596693 -0.0055981902 -0.31723487 0.6448418 0.4630358 0.00096911995 -0.071867235 1.3189262
0.54054695 -0.34590736 0.075392395 0.28145137 2.3122244 -0.9639902 0.34789783 0.0979806
-0.5588682 0.0011492999 -0.16475439 3.5362992 -0.3135677 -0.35607585 0.07166435 1.0020462
0.03747172 0.7052361 -0.31650984 -0.64000124 0.10946262 0.17210008 1.02333 0.80991626
-0.35647085 -0.8133044 0.6738501 -0.27286386 1.1197445 3.160758 -0.21940964 -0.16187344
00000000: 0631 503d 81f0 23bf b7b3 ddbb ea21 7dbc
00000010: 4381 e73e 0af6 a3bf ff77 d3bf 5eab ab3f
00000020: ea4f 15bd 4a1f b73f 5816 503f c369 0e3f
00000030: 13be edbe 2b4a 1dbc aeb4 b4bf 253e c63e
00000040: f02d 0d3d 124a 7d3c 922a 38bf 29bc 30bf
00000050: e74e a6be 16cb 613b 3b1b 583c e075 b7bb
00000060: 3bda 893e de7a 1b3d 19cc b53d 22e6 33bf
00000070: 6dca 6dbd 88da 94bf a3e6 30bb 5724 55be
00000080: d580 a03e 4a06 e3bb 52fb 59bf f403 4a3e
00000090: 2bc8 d83d 72aa 333e 793c ad3c 5ddd 0ebf
000000a0: 8ba8 b23e e15e b43f 4e14 adbd 3778 a4bd
000000b0: 5cb5 523f e551 3f3f c0d1 3fbe c10d 0a40
000000c0: 7edf cc3e 84a1 103e 01c8 cb3e 6793 f53d
000000d0: a4d0 5ebe ad55 26be 08be 8e3e 6125 033e
000000e0: 1cb3 ba3a d959 063c 6d3c 353b 87d9 2ebe
000000f0: 42dc 733c 5ebc 1e3f 09f0 a43d e79a d9bb
00000100: fc4b 1ebd 6d55 c13f ef94 323d 49ff 353d
00000110: c102 d5bc 2639 b8bf 2ebc fc39 b22c 22bf
00000120: a43b 09bf 1237 79be feab 81bf f22b d8bd
00000130: 2d71 b1bf eaab 16be b50a 733f 7830 39bf
00000140: 32f8 963c 08a5 da3c 283a 71bd e449 923c
00000150: d47d 273e 238e 13be 2a80 f4bd 5f32 613a
00000160: 3cf3 293e 0671 b7bb 9c6c a2be 5a14 253f
00000170: 0713 ed3e 8a0c 7e3a 212f 93bd 93d2 a83f
00000180: 4961 0a3f c51a b1be 5467 9a3d 651a 903e
00000190: 7cfb 1340 10c8 76bf aa1f b23e 0eaa c83d
000001a0: fd11 0fbf 1ba4 963a 60b5 28be ba52 6240
000001b0: f28b a0be 934f b6be c2c4 923d 0d43 803f
000001c0: f27b 193d 5a8a 343f 940d a2be 1fd7 23bf
000001d0: f02d e03d 013b 303e 7afc 823f ac56 4f3f
000001e0: 5983 b6be b834 50bf 7181 2c3f d0b4 8bbe
000001f0: ca53 8f3f dc49 4a40 ecac 60be 27c2 25be

q1.0.weight f4 [128, 4]
1.033102 0.22119783 -0.13428581 -0.16193302 0.8343071 -0.26437774 0.17282917 0.12802267
-0.78780615 -0.93363917 -0.28541896 -0.011964872 1.260393 0.76938176 0.110421434 0.0011259947
-0.15907954 0.9772605 -0.019519025 -0.0669925 0.879062 -0.53886014 -0.33007804 -0.016531052
0.17893259 -1.004632 -0.20264624 -0.078782484 -0.50714195 -0.6249189 0.07555978 0.0034388462
0.44199932 -1.0001812 -0.18536292 0.12567563 0.03866322 -0.37842855 0.57219213 0.28947228
-0.38583604 0.15357146 0.4822366 0.051722847 0.18851298 -0.5770201 -0.35017443 -0.077309504
0.3854328 -1.2996505 -0.2052727 -0.14801982 -0.19827957 0.55495566 0.5504992 -0.009027419
0.98888755 0.6478682 0.3849274 0.09572274 0.14156999 0.6287355 0.46228588 0.045249853
-0.48331228 1.4350629 -0.072128735 0.0050755613 -0.5298327 0.1604551 0.14546177 0.050696492
-0.6759715 -0.21741122 -0.1826112 -0.07082948 0.13692161 -0.8625592 -0.17186463 -0.098462865
0.25113377 0.80692995 0.28396782 -0.24097215 -0.709332 0.67928946 0.20463866 0.04523209
0.7908915 0.81374973 0.27240834 -0.024636658 -0.07083994 1.237862 0.3702505 0.13966404
-0.6181341 0.81921214 0.21253487 0.05210822 -0.33235303 -1.4895816 0.25134584 0.09616859
-0.3008292 1.7120501 0.25554428 0.1699199 -0.6868926 0.5203358 0.18946429 -0.018448433
-0.81614864 0.462705 0.2163475 0.03120471 -1.0944778 -0.3937472 -0.25755924 -0.04810831
-0.23619358 0.047551144 0.22091016 0.118642144 1.19779 0.65017647 0.13424739 0.20366238
-0.76848865 0.722768 0.22150828 0.042803105 -0.37637642 0.47174287 0.41982758 0.16604382
0.060125504 0.96826434 0.20471151 0.07297232 0.5058522 1.275107 0.10816756 -0.09193159
0.6180124 -1.0428091 -0.045650356 -0.005595174 -0.7058053 0.01417421 0.0053136223 -0.49830627
0.9154805 0.035631213 -0.077960655 -0.016783347 0.32489502 -0.4891014 0.023742061 0.058565725
-0.57648313 1.1287287 0.2556857 0.067812115 -0.4019816 0.6218145 -0.27655917 -0.19039415
0.29160565 -0.75263745 -0.048516404 0.14332163 -0.006488633 1.069143 0.22142832 0.06965288
-1.1813443 0.4233389 -0.050317056 0.12856573 -0.5870953 -1.0462011 -0.011210964 -0.04880737
-0.36495063 -0.520936 0.513018 0.11170943 0.64981484 -0.8455888 -0.18941149 -0.04674659
-0.4164288 -1.1457056 -0.27356905 -0.06959229 -0.37401068 0.18825473 0.106825724 0.22799407
0.6422937 1.1449493 0.29907027 -0.06496011 -0.23468746 -1.4087387 -0.30853024 -0.110648245
-0.8353675 -0.5870916 -0.23588538 -0.13883208 0.0690844 0.8598366 0.16509062 0.03773717
-0.49212015 0.9795235 -0.34851927 -0.07855815 0.90481436 -0.47383064 -0.11449957 -0.046653498
-0.121601775 -0.5110176 0.082883395 0.082550906 0.2666226 -0.9052934 -0.22763893 -0.042563498
-1.2574968 0.13091023 -0.054105863 0.113260336 0.36190107 -0.13098429 -0.23839551 0.023557965
0.48726287 -1.5850785 -0.14261112 -0.04562991 -0.4009934 0.17427285 0.30678147 0.124564305
0.70688707 -0.42398274 -0.008906558 0.006470984 -0.38868952 1.1906254 0.17003791 0.21886753
00000000: b03c 843f af81 623e 3882 09be c5d1 25be
00000010: 2695 553f 855c 87be 21fa 303e 6018 033e
00000020: aaad 49bf fa02 6fbf 6f22 92be 4f08 44bc
00000030: 8f54 a13f 34f6 443f a224 e23d 1d96 933a
00000040: bfe5 22be be2d 7a3f 5de6 9fbc 5d33 89bd
00000050: 350a 613f bdf2 09bf fdff a8be 216c 87bc
00000060: 1b3a 373e c897 80bf 7f82 4fbe b658 a1bd
00000070: 0ed4 01bf affa 1fbf 16bf 9a3d 445e 613b
00000080: bc4d e23e f005 80bf c7cf 3dbe 1db1 003e
00000090: 535d 1e3d 63c1 c1be 2f7b 123f b635 943e
000000a0: 4d8c c5be d641 1d3e b7e7 f63e 56db 533d
000000b0: 8c09 413e 97b7 13bf 104a b3be 7254 9ebd
000000c0: 7357 c53e f35a a6bf 0233 52be 8292 17be
000000d0: cd09 4bbe 9311 0e3f 84ed 0c3f bde7 13bc
000000e0: bc27 7d3f b1da 253f 3415 c53e 490a c43d
000000f0: b9f7 103e cff4 203f bcb0 ec3e e957 393d
00000100: b574 f7be 24b0 b73f 3bb8 93bd e550 a63b
00000110: 1ea3 07bf 574e 243e eef3 143e 20a7 4f3d
00000120: 780c 2dbf 0ca1 5ebe 6efe 3abe 0c0f 91bd
00000130: 2e35 0c3e aed0 5cbf 48fd 2fbe e6a6 c9bd
00000140: 9b94 803e f692 4e3f 3b64 913e 67c1 76be
00000150: c896 35bf eae5 2d3f cc8c 513e 4945 393d
00000160: de77 4a3f e751 503f 1b79 8b3e d1d2 c9bc
00000170: 8814 91bd 4372 9e3f 7991 bd3e 1704 0f3e
00000180: 093e 1ebf e3b7 513f bea2 593e 6e6f 553d
00000190: 2d2a aabe 9caa bebf 67b0 803e 0af4 c43d
000001a0: 4906 9abe 7524 db3f b3d6 823e 7bff 2d3e
000001b0: 32d8 2fbf ba34 053f ed02 423e 2b21 97bc
000001c0: 1eef 50bf abe7 ec3e 338a 5d3e 05a1 ff3c
000001d0: d917 8cbf 3c99 c9be cede 83be 380d 45bd
000001e0: bbdc 71be fdc4 423d 4636 623e a7fa f23d
000001f0: 2f51 993f f771 263f 2678 093e df8c 503e
00000200: acbb 44bf 5307 393f 11d3 623e 4f52 2f3d
00000210: 69b4 c0be 4888 f13e a4f3 d63e 6407 2a3e
00000220: 2946 763d 2ce0 773f e59f 513e 8372 953d
00000230: 887f 013f b536 a33f f486 dd3d a146 bcbd
00000240: 1036 1e3f c57a 85bf defb 3abd b957 b7bb
00000250: a8af 34bf f23a 683c e51d ae3b 0022 ffbe
00000260: ee5c 6a3f 09f2 113d d6a9 9fbd 3b7d 89bc
00000270: a458 a63e 806b fabe b67e c23c 9de2 6f3d
00000280: 6694 13bf 2f7a 903f 3ce9 823e 14e1 8a3d
00000290: 88d0 cdbe 3c2f 1f3f 2a99 8dbe aff6 42be
000002a0: 564d 953e d9ac 40bf 23b9 46bd e8c2 123e
000002b0: 999e d4bb aed9 883f 1bbe 623e 2ba6 8e3d
000002c0: 4a36 97bf e0bf d83e 4219 4ebd bca6 033e
000002d0: e14b 16bf ebe9 85bf 31ae 37bc 3dea 47bd
000002e0: cfda babe 105c 05bf 2655 033f eac7 e43d
000002f0: 445a 263f 8278 58bf 16f5 41be 5a79 3fbd
00000300: 2836 d5be 7ba6 92bf 3e11 8cbe 6786 8ebd
00000310: 547e bfbe d9c5 403e 72c7 da3d 4777 693e
00000320: 5c6d 243f b38d 923f bd1f 993e ce09 85bd
00000330: e951 70be 8d51 b4bf adf7 9dbe 8c9b e2bd
00000340: a5da 55bf a34b 16bf f08b 71be ff29 0ebe
00000350: 1f7c 8d3d 401e 5c3f 840d 293e 4a92 1a3d
00000360: 2cf7 fbbe 0dc2 7a3f 1e71 b2be 18e3 a0bd
00000370: eaa1 673f ee99 f2be c07e eabd bd17 3fbd
00000380: 5a0a f9bd 0dd2 02bf c5be a93d 7310 a93d
00000390: c282 883e 4fc1 67bf 2e1a 69be 1057 2ebd
000003a0: a8f5 a0bf 550d 063e 1c9e 5dbd 09f5 e73d
000003b0: 194b b93e bf20 06be f41d 74be a2fc c03c
000003c0: 857a f93e dae3 cabf a608 12be 6ee6 3abd
000003d0: 024f cdbe 9574 323e 7612 9d3e 921b ff3d
000003e0: 8df6 343f 4414 d9be d0ec 11bc 8c0a d43b
000003f0: 5002 c7be 6a66 983f 6b1e 2e3e cf1e 603e

q1.0.bias f4 [128]
0.08770575 0.39451104 0.38527372 0.3515571 -0.5209505 -0.82055587 0.09036505 0.3865399
-0.18179436 0.07528515 -0.33833084 0.21345969 -0.19514075 -0.21622093 -0.899014 0.12507725
0.34108186 0.50790626 0.6073343 0.07608955 -0.2225286 0.47315523 -0.40529335 -0.08348665
0.34522343 -0.11639387 0.6270347 0.4528096 0.6165141 0.3813898 -1.1091083 0.21841182
0.5110839 -0.32879993 0.23614566 -0.25684777 0.065202236 0.40019435 0.19265124 0.115531564
0.23181881 -0.6165089 0.08779313 0.22546661 0.084101334 0.2151584 -0.24193113 -0.3554007
0.017549379 0.5076588 -0.10341776 -0.20784108 0.49668026 0.21887608 -0.6887868 0.17083704
0.5776493 -0.55303544 -0.04823295 -0.9381153 -1.0859079 0.48382226 0.5383811 0.12751895
0.10926091 -0.7939459 0.18401043 -0.25851727 -0.3691793 0.49235365 -0.4734659 -0.37921497
-0.33594105 -0.572521 0.12116111 -0.025203213 -0.26728263 -0.27952757 0.37155643 0.16771618
0.15328154 -0.3536526 -0.622443 0.58063185 0.27379844 0.3008539 -0.12870012 -0.24679358
0.4827359 0.0105062425 0.4873739 0.05979914 0.5501265 0.5612556 0.7947634 -0.3179329
-0.32350734 0.14842933 0.66909283 -0.5608154 -0.08300595 0.29787052 -0.14997613 0.2437729
-0.17676494 0.109026164 0.65149146 -0.42904067 -0.41644323 0.059769433 0.44929543 0.047908567
0.67096055 0.22660889 0.22060674 0.23684022 -0.24087994 0.4211723 -0.559823 0.08296864
-0.65344566 0.34499833 0.30274174 0.09931313 0.4571052 0.32189795 0.18207565 0.26649356
00000000: 129f b33d 5afd c93e 9942 c53e 4bff b33e
00000010: 035d 05bf f30f 52bf 5011 b93d 8fe8 c53e
00000020: 4d28 3abe 1a2f 9a3d b339 adbe 2d95 5a3e
00000030: fad2 47be 0569 5dbe c825 66bf 4014 003e
00000040: 48a2 ae3e 2506 023f 437a 1b3f d7d4 9b3d
00000050: 8ade 63be 6741 f23e 9c82 cfbe 0cfb aabd
00000060: 20c1 b03e e95f eebd 5985 203f a9d6 e73e
00000070: ded3 1d3f 8645 c33e 43f7 8dbf 59a7 5f3e
00000080: 65d6 023f 7758 a8be 2bd0 713e 8d81 83be
00000090: c088 853d 46e6 cc3e 5e46 453e d09b ec3d
000000a0: e961 6d3e 87d3 1dbf e2cc b33d b8e0 663e
000000b0: 523d ac3d 7c52 5c3e cbbc 77be 15f7 b5be
000000c0: b7c3 8f3c edf5 013f b1cc d3bd 4bd4 54be
000000d0: e04c fe3e 0d21 603e 5554 30bf e8ef 2e3e
000000e0: d3e0 133f bb93 0dbf ea8f 45bd 5328 70bf
000000f0: 08ff 8abf 8db7 f73e 58d3 093f 5494 023e
00000100: 2fc4 df3d 0a40 4bbf 3b6d 3c3e 605c 84be
00000110: 1205 bdbe c715 fc3e 1f6a f2be 7728 c2be
00000120: 7700 acbe bc90 12bf 5123 f83d f876 cebc
00000130: 45d9 88be 3d1e 8fbe a53c be3e cabd 2b3e
00000140: d6f5 1c3e f411 b5be 6d58 1fbf 4aa4 143f
00000150: 4f2f 8c3e 8609 9a3e f7c9 03be 75b7 7cbe
00000160: 2929 f73e 6022 2c3c 1289 f93e f1ef 743d
00000170: 17d5 0c3f 72ae 0f3f 9d75 4b3f 1ac8 a2be
00000180: c1a2 a5be dcfd 173e ab49 2b3f 9991 0fbf
00000190: 06ff a9bd 7c82 983e 5893 19be 9a9f 793e
000001a0: de01 35be 1c49 df3d 25c8 263f 38ab dbbe
000001b0: 0c38 d5be cbd0 743d 0d0a e63e c63b 443d
000001c0: 12c4 2b3f 290c 683e bce6 613e 3e86 723e
000001d0: 3ba9 76be e5a3 d73e 8f50 0fbf 76eb a93d
000001e0: 3748 27bf 9fa3 b03e f700 9b3e af64 cb3d
000001f0: b109 ea3e cfcf a43e 0a72 3a3e d871 883e

q1.2.weight f4 [128, 128]
0.2997328 0.4976364 0.115868606 0.6434796 -0.01975921 0.043681312 -0.10107592 -0.017162442
-0.0063009253 0.09708835 -0.23631841 -0.052758064 -0.023515817 -0.23738319 -0.42393783 -0.1721855
0.6327243 -0.056532357 0.096109666 0.06264636 -0.39018065 0.1416804 0.51580614 -0.30123782
0.17886263 -0.12887895 0.2466706 0.06372053 0.106845826 0.09750902 -0.78471494 0.025540182
0.24556392 -0.05954446 -0.16847226 -0.25561503 0.08430557 0.11004201 0.2860921 0.08833593
0.06688891 -0.08595188 -0.007966797 0.030915035 -0.027188832 -0.008251978 0.10007421 -0.053722702
-0.08952346 0.26536193 -0.103544496 -0.23898977 -0.081565835 -0.03301881 0.1685434 0.0885662
0.26621562 0.13062605 -0.15856023 -0.043803196 0.023974331 0.30479294 0.47805646 -0.027932141
0.111137435 -0.2685974 -0.088883206 0.27067533 0.025330154 0.0703732 0.026630495 -0.09636479
-0.022607615 -0.025860492 -0.1404237 0.6548989 0.90266424 -0.13550687 0.24911503 0.09895425
-0.11996537 0.8435635 0.17377725 0.0560496 0.01635318 0.027821826 -0.15402606 0.006962452
0.38668716 0.08562178 0.24903332 0.20117503 0.20185694 0.08202937 0.5315045 -0.17097051
0.19491483 0.25193048 0.2382646 0.7464782 -0.17805113 0.066787854 0.06471515 -0.021424575
0.25941426 -0.23365828 0.13152368 0.31135392 0.114910126 0.14980161 0.7369993 -0.27894562
0.36086982 -0.1284722 0.001117544 -0.00709656 0.008418531 0.19808988 -0.00073683646 0.031695783
0.8504537 -0.10310469 -0.14774364 0.08787294 0.15852544 0.17280602 0.10657526 0.21815643
-0.08992578 -0.14566946 0.090690866 0.08168925 0.07283185 -0.060311984 -0.14106677 -0.06201752
-0.15602258 -0.049502518 0.1240879 0.0057533234 0.13852376 -0.048442576 -0.09748527 -0.13582012
0.13365984 -0.15755369 -0.10704468 -0.07650255 0.03675948 0.08732113 0.051183272 -0.0054815644
0.12538761 0.07977777 -0.08695079 -0.01914986 0.11393244 -0.10437973 -0.01255204 -0.032878675
-0.16183981 0.08308495 0.065336406 0.065347575 -0.09137684 0.12980074 -0.10718003 -0.09330712
-0.1529234 0.12063197 0.065119125 -0.05515369 -0.14185901 0.009102453 -0.15867522 0.0996702
-0.1224328 0.03715054 -0.008560515 0.110849716 -0.07995579 -0.030890465 -0.12885706 -0.08641874
0.13335297 0.124388814 0.045187257 -0.13976513 0.06600325 -0.1657017 -0.119266465 -0.1460108
-0.067834 -0.070624575 -0.12757546 -0.109526426 -0.08363517 -0.08216608 0.05299079 0.099744834
0.016501473 0.009660881 0.10774121 -0.035088062 -0.103656635 -0.13992426 -0.12455119 0.024637828
0.10687958 -0.033308957 -0.037242882 0.115351245 -0.09066786 0.10568298 -0.119060144 0.118182845
-0.16399099 -0.122261636 0.04650414 0.074607216 -0.078672774 -0.079402626 0.11509128 0.08185358
-0.16442253 0.11201567 0.015579291 -0.13767882 -0.031947978 -0.018615825 0.045032084 -0.1343233
-0.059492886 -0.055467006 -0.06504433 0.025511738 0.004034384 0.040651843 -0.04491398 -0.015157898
0.022866728 0.06043361 -0.09968531 -0.07523273 0.035202604 -0.101719625 0.07763784 0.011818873
0.11756751 0.11276946 -0.075900756 0.06961722 0.0027093412 0.043127634 0.024700334 0.006902647
00000000: 9476 993e 33ca fe3e 854c ed3d 14bb 243f
00000010: 11de a1bc 2deb 323d e400 cfbd 4098 8cbc
00000020: fe77 cebb 42d6 c63d 74fd 71be d718 58bd
00000030: 3ea4 c0bc 9414 73be 610e d9be 6551 30be
00000040: 38fa 213f 798e 67bd 25d5 c43d bc4c 803d
00000050: c2c5 c7be ab14 113e df0b 043f d83b 9abe
00000060: c427 373e d8f8 03be 3897 7c3e e97f 823d
00000070: fcd1 da3d cfb2 c73d 14e3 48bf a539 d13c
00000080: 1c75 7b3e e4e4 73bd fe83 2cbe f9df 82be
00000090: 66a8 ac3d b55d e13d aa7a 923e 78e9 b43d
000000a0: 0efd 883d 8a07 b0bd 2b87 02bc 8741 fd3c
000000b0: 1dbb debc 4e33 07bc b5f3 cc3d 560c 5cbd
000000c0: 1358 b7bd 85dd 873e 230f d4bd bcb9 74be
000000d0: fd0b a7bd bb3e 07bd a496 2c3e 3262 b53d
000000e0: 6a4d 883e d6c2 053e 9d5d 22be fb6a 33bd
000000f0: d165 c43c d20d 9c3e d1c3 f43e f2d1 e4bc
00000100: 069c e33d 9985 89be 6608 b6bd f595 8a3e
00000110: 2f81 cf3c d31f 903d 3228 da3c e75a c5bd
00000120: 9b33 b9bc 62d9 d3bc 3bcb 0fbe 74a7 273f
00000130: 0115 673f 50c2 0abe 0318 7f3e 87a8 ca3d
00000140: 67b0 f5bd c7f3 573f aaf2 313e 4494 653d
00000150: 1bf7 853c 99ea e33c 02b9 1dbe 4825 e43b
00000160: dcfb c53e 795a af3d 9702 7f3e d400 4e3e
00000170: 96b3 4e3e 04ff a73d ae10 083f e512 2fbe
00000180: c197 473e 08fd 803e a3fb 733e 3219 3f3f
00000190: 0953 36be 12c8 883d 6089 843d 9782 afbc
000001a0: f2d1 843e 1e44 6fbe 25ae 063e c869 9f3e
000001b0: 0056 eb3d 9865 193e fcab 3c3f f6d1 8ebe
000001c0: eec3 b83e 378e 03be 8e7a 923a 438a e8bb
000001d0: e1ed 093c 13d8 4a3e 4228 41ba 70d3 013d
000001e0: 55b7 593f 8d28 d3bd 1c4a 17be baf6 b33d
000001f0: 7e54 223e 10f4 303e 2144 da3d 6664 5f3e
00000200: 022b b8bd 602a 15be 22bc b93d b24c a73d
00000210: dd28 953d b309 77bd cf73 10be 1506 7ebd
00000220: 62c4 1fbe 27c3 4abd cc21 fe3d 6086 bc3b
00000230: 2cd9 0d3e b96b 46bd 5ba6 c7bd 6e14 0bbe
00000240: 20de 083e c155 21be 3e3a dbbd 5ead 9cbd
00000250: 1c91 163d 6cd5 b23d 8da5 513d b29e b3bb
00000260: 9c65 003e 8762 a33d 4113 b2bd 2be0 9cbc
00000270: 6955 e93d 0ac5 d5bd 12a7 4dbc caab 06bd
00000280: 56b9 25be 7128 aa3d 18cf 853d f3d4 853d
00000290: c823 bbbd 7cea 043e 3481 dbbd ce17 bfbd
000002a0: f497 1cbe e50d f73d 2d5d 853d d6e8 61bd
000002b0: 7d43 11be 7422 153c c27b 22be e41f cc3d
000002c0: 0cbe fabd 2a2b 183d 6741 0cbc 2d05 e33d
000002d0: dcbf a3bd 000e fdbc 1bf3 03be 4ffc b0bd
000002e0: ae8d 083e 90bf fe3d 4616 393d 971e 0fbe
000002f0: b62c 873d b5ad 29be fa41 f4bd db83 15be
00000300: 8dec 8abd 9ea3 90bd 24a3 02be 644f e0bd
00000310: ea48 abbd b146 a8bd df0c 593d 0547 cc3d
00000320: 192e 873c ac48 1e3c 6ca7 dc3d 80b8 0fbd
00000330: ee49 d4bd 4e48 0fbe b214 ffbd 45d5 c93c
00000340: aee3 da3d f96e 08bd fe8b 18bd 463d ec3d
00000350: 12b0 b9bd 5170 d83d ced5 f3bd d909 f23d
00000360: 41ed 27be 4f64 fabd 207b 3e3d abcb 983d
00000370: 311f a1bd d89d a2bd fab4 eb3d daa2 a73d
00000380: 615e 28be 7968 e53d 4840 7f3c adfb 0cbe
00000390: e2db 02bd 3780 98bc 9073 383d 0c8c 09be
000003a0: d0ae 73bd 5f31 63bd f635 85bd fefd d03c
000003b0: de32 843b 8c82 263d b9f7 37bd d558 78bc
000003c0: 0153 bb3c 3c89 773d d027 ccbd 9e13 9abd
000003d0: 9b30 103d 6152 d0bd 9600 9f3d f2a3 413c
000003e0: 3cc7 f03d adf3 e63d db71 9bbd 7993 8e3d
000003f0: 348f 313b 9aa6 303d 5b58 ca3c 9a2f e23b

q1.2.bias f4 [128]
0.37968814 -0.013974044 0.3666817 0.2533675 -0.00555885 -0.049367096 0.379209 0.37872955
-0.02006598 0.41694802 0.16218303 0.39680213 -0.07599355 0.53373796 0.38499975 0.39430162
0.24157932 0.46263486 -0.05126815 -0.008298528 0.37330234 0.36333546 -0.026037779 -0.048260074
-0.019898722 0.39891657 -0.026642323 -0.041507505 -0.04123197 0.0 0.39415127 -0.034166485
0.3764079 0.48357996 0.3272178 0.3882859 0.36342096 0.3557077 -0.010612926 0.5526593
0.41507477 0.36079353 0.4272371 0.385588 -0.050912593 0.09457783 0.35652092 0.24292062
0.5036683 -0.018425437 0.31699836 0.38510287 0.55649143 0.47535512 -0.022297459 -0.072929166
0.26757032 0.3676999 0.32704479 0.3923772 -0.0480256 0.3643343 -0.09662573 0.50675344
0.46234325 0.4786289 0.44352895 -0.04869815 0.3492977 0.13067488 0.34139663 -0.04873168
0.37589765 -0.059516616 0.45228353 0.36472085 0.40609625 0.23575704 0.5229771 0.37565348
0.45722792 -0.046291415 0.39132106 0.35285896 -0.04867972 0.4495324 0.37003633 0.5224344
0.37231484 -0.04097686 0.37262627 -0.019255718 -0.02244391 0.55363774 0.37229604 0.41977528
0.36314702 0.5580515 0.4068673 0.49217492 -0.008536042 0.4190168 0.007423204 0.3794027
0.38357186 0.534414 0.25620216 0.37879536 -0.18556361 0.32304132 0.5104334 0.33762392
-0.047916435 0.5168423 0.35677633 -0.02038555 0.5089061 0.28180715 -0.052785404 0.11592178
0.40361503 -0.015001274 -0.019743005 0.3603232 -0.019362947 0.48620734 0.40383595 0.37050673
00000000: 7c66 c23e 63f3 64bc b4bd bb3e 63b9 813e
00000010: 0327 b6bb 2735 4abd af27 c23e d7e8 c13e
00000020: 6961 a4bc 367a d53e 4f13 263e a629 cb3e
00000030: 82a2 9bbd 0da3 083f b01e c53e e7e1 c93e
00000040: 9260 773e 7ade ec3e 8dfe 51bd 8df6 07bc
00000050: 7c21 bf3e 1b07 ba3e 2e4d d5bc 5bac 45bd
00000060: a502 a3bc cb3e cc3e 0041 dabc c603 2abd
00000070: dbe2 28bd 0000 0000 32ce c93e 28f2 0bbd
00000080: 89b8 c03e cb97 f73e 1789 a73e 69cd c63e
00000090: 5012 ba3e 521f b63e d7e1 2dbc 147b 0d3f
000000a0: ae84 d43e eeb9 b83e d2be da3e ca6b c53e
000000b0: b989 50bd 05b2 c13d e989 b63e 2fc0 783e
000000c0: 68f0 003f f1f0 96bc 9c4d a23e 342c c53e
000000d0: 3976 0e3f bf61 f33e 29a9 b6bc e35b 95bd
000000e0: fafe 883e 2943 bc3e 6a72 a73e aae5 c83e
000000f0: 7eb6 44bd 068a ba3e b6e3 c5bd 98ba 013f
00000100: 41b8 ec3e d90e f53e 3a16 e33e b677 47bd
00000110: 26d7 b23e a3cf 053e 8acb ae3e df9a 47bd
00000120: a875 c03e b2c7 73bd b591 e73e b1bc ba3e
00000130: d9eb cf3e 4b6a 713e d4e1 053f a755 c03e
00000140: c719 ea3e 119c 3dbd 3c5b c83e eea9 b43e
00000150: 6364 47bd 1c29 e63e 6775 bd3e 43be 053f
00000160: 0da0 be3e 5ad7 27bd dfc8 be3e 2bbe 9dbc
00000170: 4adc b7bc 34bb 0d3f 969d be3e c9ec d63e
00000180: 68ee b93e 77dc 0e3f e950 d03e 5afe fb3e
00000190: c1da 0bbc 5f89 d63e 593e f33b 1241 c23e
000001a0: 8863 c43e 5bcf 083f ee2c 833e 77f1 c13e
000001b0: 6304 3ebe ac65 a53e c3ab 023f 0bdd ac3e
000001c0: 0644 44bd c74f 043f 63ab b63e 99ff a6bc
000001d0: ac47 023f 0749 903e 8235 58bd 6668 ed3d
000001e0: a1a6 ce3e e7c7 75bc 15bc a1bc 487c b83e
000001f0: 0b9f 9ebc 2bf0 f83e 96c3 ce3e 0fb3 bd3e

q1.4.weight f4 [1, 128]
-0.19379139 0.11709883 -0.09916979 1.3819174 0.07421326 0.106253326 -0.1735643 -0.23871493
0.1736467 3.1316004 0.23933232 -1.2211396 1.2190537 -0.8226485 -0.24165475 3.4335234
3.0579636 -0.176487 0.08090967 0.1309597 -0.13135076 -0.117566735 0.6399895 0.03947133
0.13305974 3.2204192 0.017548054 0.16170165 0.092125006 0.053679552 -0.20185836 0.0767702
-0.19071287 -0.37047386 2.506251 -0.15229818 -0.17388785 -0.085383475 0.13756472 -0.4866123
-0.37002704 -0.097043626 -0.5318744 -1.0077949 0.05024101 2.0643508 -1.0809609 2.8820093
-0.6047274 -0.0047738017 0.77191716 -0.24956308 -0.8148206 -0.56803316 0.05296832 0.023732672
3.4748497 -0.11303383 -0.06914527 -0.28759483 0.042042322 -0.13046952 0.17466454 -1.383883
-0.639568 3.6621819 2.7705796 0.03791775 2.91432 1.6740259 1.9827648 0.16333586
-0.23260574 0.1564246 -0.3010742 -0.12625177 -0.4117327 3.4833124 -1.8043435 -0.5351697
-0.5146423 0.07077465 -0.6278848 -0.076986544 0.023045843 -0.39025137 -0.15808819 -0.9436887
-0.15874825 -0.025374658 -0.19026265 0.09806623 0.18431707 -0.6960934 -0.15432143 -1.1644475
-0.120600365 -0.79096097 -0.24936526 -0.51064557 -0.0010505114 -0.26927695 0.49391738 -0.2332106
-0.17653552 -0.8004185 3.0683975 -0.19186978 0.5968376 -0.049295604 -0.66733736 -0.0819556
0.1551034 -0.5688375 -0.12548873 0.16358306 -0.15648118 -0.07777402 0.010256463 0.41046166
-0.2953949 0.19687599 0.03744135 6.024553 -0.03469525 -0.3481598 -0.38856593 -0.16083527
00000000: 4071 46be 83d1 ef3d 8819 cbbd abe2 b03f
00000010: 1ffd 973d 589b d93d d7ba 31be b071 74be
00000020: 71d0 313e 246c 4840 8813 753e 4d4e 9cbf
00000030: f409 9c3f 1899 52bf 5874 77be d9be 5b40
00000040: adb5 4340 02b9 34be f8b3 a53d 4d1a 063e
00000050: d080 06be d4c6 f0bd 5ad6 233f b0ac 213d
00000060: d040 083e 591b 4e40 f0c0 8f3c 1e95 253e
00000070: 09ac bc3d 17df 5b3d f5b3 4ebe b239 9d3d
00000080: 3c4a 43be c0ae bdbe 6b66 2040 0ef4 1bbe
00000090: a80f 32be 88dd aebd c4dd 0c3e 3f25 f9be
000000a0: 2f74 bdbe cfbe c6bd ec28 08bf 6cff 80bf
000000b0: 84c9 4d3d 531e 0440 ed5c 8abf d772 3840
000000c0: 6acf 1abf 8d6d 9cbb 5d9c 453f 778d 7fbe
000000d0: 1598 50bf 9f6a 11bf 4ff5 583d 056b c23c
000000e0: f063 5e40 487e e7bd 099c 8dbd a13f 93be
000000f0: 9234 2c3d cd99 05be 43db 323e 1423 b1bf
00000100: baba 23bf 3061 6a40 2d51 3140 a54f 1b3d
00000110: 3884 3a40 7b46 d63f 3dcb fd3f 8441 273e
00000120: 3330 6ebe c52d 203e 6626 9abe 2548 01be
00000130: a1ce d2be 97ee 5e40 baf4 e6bf e200 09bf
00000140: 99bf 03bf 4df2 903d 0fbd 20bf 1fab 9dbd
00000150: a3ca bc3c 07cf c7be dfe1 21be 9595 71bf
00000160: e78e 22be 84de cfbc 36d4 42be f3d6 c83d
00000170: 9dbd 3c3e 2d33 32bf 7006 1ebe 9e0c 95bf
00000180: 53fd f6bd 6b7c 4abf 9b59 7fbe abb9 02bf
00000190: 50b1 89ba abde 89be bde2 fc3e c2ce 6ebe
000001a0: bac5 34be 3ae8 4cbf a060 4440 8379 44be
000001b0: 59ca 183f 30ea 49bd 9fd6 2abf 56d8 a7bd
000001c0: 6dd3 1e3e 569f 11bf 1e80 00be 5182 273e
000001d0: 9a3c 20be fc47 9fbd b90a 283c 0828 d23e
000001e0: 003e 97be dc99 493e 1a5c 193d 23c9 c040
000001f0: 9b1c 0ebd 0042 b2be 1df2 c6be 00b2 24be

q2.0.weight f4 [128, 4]
-1.6673154 0.2534549 0.15993069 0.06748662 0.5841264 -0.8930423 -0.19357507 -0.11512085
0.23600793 -1.007242 -0.24139127 -0.104279004 0.97198874 1.0829496 -0.03969208 -0.03333028
0.21181504 0.8055009 0.68036944 0.08369091 -0.0034365745 -0.98600304 -0.1503485 -0.039139606
1.1504157 0.20957594 -0.049761478 0.034001894 -0.10670548 0.11742457 0.5442425 0.08523119
1.0470774 -0.5408137 -0.27420568 -0.16469577 -0.82938194 -0.56762785 -0.26445603 -0.06887543
-0.19483356 -0.8347827 -0.12385571 -0.031727504 0.014233887 0.9963642 0.21711443 0.08469029
0.5252674 0.99130803 -0.06848816 0.105690785 0.4620822 -0.2875197 -0.0884684 0.40773156
-0.76657116 -0.08650292 0.3006462 0.108676955 0.09775106 -0.11693581 0.47907996 0.29878017
-0.29184976 -1.0158004 -0.17765072 -0.08376526 0.022584733 -0.4306342 0.03293927 -0.055507857
-0.007528953 1.1314758 0.24109715 0.06667451 -0.31209418 -1.2276025 -0.27400762 -0.07916943
0.548123 -0.28166893 0.114646666 0.0021019552 0.2316886 -0.0066581415 0.61941946 0.44466883
0.46686682 -0.32993948 0.016257692 -0.029426653 -0.7221214 -0.45086882 -0.22672795 -0.06193457
-0.53805053 1.190718 0.19550759 0.1526463 1.3286707 0.683212 -0.1421219 0.016380029
0.7431935 0.679944 0.25079623 0.07807357 0.022419794 1.3726959 0.2301552 0.13548645
1.2330159 1.286456 0.38330925 0.29213852 0.66575444 1.1649427 -0.108350195 -0.1009558
-0.38220078 -0.85941005 -0.13929632 -0.20511088 -0.21613385 -0.10800872 -0.0994456 -0.15817547
0.1728515 1.2888416 0.28543472 0.115757726 0.036526322 -0.32227167 0.085174546 0.09443161
-0.32099834 0.1431945 0.10756072 0.086962 1.1286876 -0.13788185 -0.1121184 -0.02679517
0.57213056 -0.4884315 0.006883259 -0.062967524 -0.1301704 -1.2226498 -0.08743231 -0.04607094
-0.94050264 0.6579672 0.25235602 0.048739724 -0.6276981 0.29238245 0.14855686 0.07527391
-0.056437287 -1.4169217 -0.21384197 -0.19329256 -0.7598428 -0.89964086 -0.27574536 -0.041745633
0.055904116 1.4048043 0.30097342 0.13243397 -0.4762707 -0.70532936 0.0036381052 -0.06995339
-0.4130088 0.8146421 0.0113233505 0.36829534 0.0013803836 -1.4867914 -0.23280413 -0.05605002
0.84063 -0.40275073 -0.2805908 -0.1215424 -0.89443964 0.9662952 0.27236354 0.074717164
0.5371183 0.3994337 0.32988292 -0.28838745 0.2555795 -0.4493012 -0.1837415 -0.0011734439
-0.4149906 0.33685407 0.290986 0.20570883 0.54431295 -1.2389654 0.07720563 0.16193016
0.55172056 -1.0813415 -0.37274688 -0.08957179 0.90498626 -0.5088101 -0.33804694 -0.030610044
0.51904327 1.2750889 0.31894398 -0.0389124 0.240005 -0.37161028 0.14968707 -0.55927455
1.5590425 0.5169539 0.26454285 0.07286237 -0.5767746 0.15485223 0.1439403 0.14032425
-0.056584977 0.08687065 0.071000576 -0.44128782 -0.7809015 -1.14209 -0.3178495 -0.06433975
-0.6204515 0.45370588 0.30901742 0.05092957 -0.29614368 -1.3332196 -0.13200939 -0.12535822
-0.64387983 1.1185045 0.27451852 0.087659724 -0.3731013 -1.2735723 -0.28985965 -0.09067344
00000000: 976a d5bf d7c4 813e dfc4 233e 6d36 8a3d
00000010: 4f89 153f 6c9e 64bf 8b38 46be 7bc4 ebbd
00000020: 10ac 713e 4eed 80bf 462f 77be 3b90 d5bd
00000030: 41d4 783f 189e 8a3f 2a94 22bd 5585 08bd
00000040: 0be6 583e 4f35 4e3f b12c 2e3f 2466 ab3d
00000050: 2738 61bb b26a 7cbf f5f4 19be da50 20bd
00000060: d240 933f 139b 563e b1d2 4bbd 9245 0b3d
00000070: 6788 dabd 4b7c f03d 7a53 0b3f b18d ae3d
00000080: a206 863f c472 0abf b064 8cbe 02a6 28be
00000090: 6052 54bf 0f50 11bf c866 87be 900e 8dbd
000000a0: 7382 47be 52b4 55bf 10a8 fdbd b3f4 01bd
000000b0: 4035 693c b911 7f3f 3f53 5e3e 1a72 ad3d
000000c0: ed77 063f 5dc6 7d3f 8543 8cbd 6974 d83d
000000d0: 0a96 ec3e c835 93be ec2e b5bd 31c2 d03e
000000e0: 023e 44bf 7128 b1bd 4cee 993e 0692 de3d
000000f0: b531 c83d 0b7c efbd f849 f53e b7f9 983e
00000100: 556d 95be bf05 82bf 12ea 35be 1f8d abbd
00000110: 9e03 b93c 167c dcbe 54eb 063d 355c 63bd
00000120: 6fb5 f6bb 33d4 903f 2ce2 763e a58c 883d
00000130: cfca 9fbe 1422 9dbf ba4a 8cbe 9523 a2bd
00000140: ca51 0c3f e936 90be dfcb ea3d f5c0 093b
00000150: c73f 6d3e 8a2c dabb 4692 1e3f a2ab e33e
00000160: 2b09 ef3e d4ed a8be da2e 853c 2a10 f1bc
00000170: f3dc 38bf 47d8 e6be 5f2b 68be 1baf 7dbd
00000180: aebd 09bf 7369 983f 2433 483e 504f 1c3e
00000190: e211 aa3f fbe6 2e3f 6788 11be 692f 863c
000001a0: ee41 3e3f cf10 2e3f 5d68 803e 09e5 9f3d
000001b0: b7a9 b73c 80b4 af3f cead 6b3e f6bc 0a3e
000001c0: 77d3 9d3f 97aa a43f 1c41 c43e 2e93 953e
000001d0: e26e 2a3f d81c 953f b5e6 ddbd eac1 cebd
000001e0: d2af c3be 4c02 5cbf b2a3 0ebe 9608 52be
000001f0: 3152 5dbe ad33 ddbd 22aa cbbd c0f8 21be
00000200: fcff 303e c3f8 a43f 8024 923e 6312 ed3d
00000210: a09c 153d cb00 a5be fe6f ae3d 5c65 c13d
00000220: e559 a4be 94a1 123e cb48 dc3d 2219 b23d
00000230: d678 903f e630 0dbe 559e e5bd 8b81 dbbc
00000240: 2677 123f b213 fabe f68c e13b 1ef5 80bd
00000250: 644b 05be ca7f 9cbf b60f b3bd e2b4 3cbd
00000260: c8c4 70bf 8a70 283f cf34 813e 4ea3 473d
00000270: d3b0 20bf 27b3 953e 4a1f 183e 3529 9a3d
00000280: c92a 67bd b15d b5bf 64f9 5abe 7cee 45be
00000290: 0f85 42bf dd4e 66bf 7f2e 8dbe 78fd 2abd
000002a0: b7fb 643d a1d0 b33f 3019 9a3e c59c 073e
000002b0: c1d9 f3be 7790 34bf 476d 6e3b b943 8fbd
000002c0: e475 d3be 628c 503f 9385 393c 3591 bc3e
000002d0: fded b43a 2e4f bebf 3564 6ebe b594 65bd
000002e0: 8733 573f 5835 cebe 99a9 8fbe 39eb f8bd
000002f0: fff9 64bf 1f5f 773f 3c73 8b3e 5005 993d
00000300: 9680 093f 9382 cc3e 6ae6 a83e 85a7 93be
00000310: 51db 823e cf0a e6be bb26 3cbe 3ece 99ba
00000320: a679 d4be 2378 ac3e 1efc 943e 56a5 523e
00000330: 1858 0b3f 6b96 9ebf fc1d 9e3d 05d1 253e
00000340: 8f3d 0d3f 6669 8abf aed8 bebe 6a71 b7bd
00000350: 2ead 673f 6141 02bf 7d14 adbe eac1 fabc
00000360: 05e0 043f 1d36 a33f a04c a33e 9c62 1fbd
00000370: dfc3 753e b443 bebe 9147 193e 9e2c 0fbf
00000380: b48e c73f 1757 043f 2972 873e de38 953d
00000390: 80a7 13bf 9591 1e3e 1665 133e 29b1 0f3e
000003a0: a6c5 67bd 3de9 b13d c068 913d 7af0 e1be
000003b0: 29e9 47bf 0130 92bf 2bbd a2be 8fc4 83bd
000003c0: e9d5 1ebf 234c e83e 8837 9e3e 869b 503d
000003d0: 25a0 97be f1a6 aabf 782d 07be e85d 00be
000003e0: 4fd5 24bf 282b 8f3f b18d 8c3e f186 b33d
000003f0: 2207 bfbe 6b04 a3bf 7c68 94be ffb2 b9bd
