TD3/checkpoints/Pendulum-v1/08_last_checkpoint.pth (torch, 856338 bytes, 60 tensors)

actor.0.weight f4 [128, 3]
-0.37257633 0.4808516 0.18206845 -0.34705535 0.58863693 0.16544798 -0.5089564 0.015958548
0.22255383 -0.079813346 -0.19201578 0.33623794 -0.114783406 0.60431814 0.19845574 -0.13465892
0.7213239 0.021720478 -0.1280318 0.7020581 0.032652043 -0.08215422 -0.9750567 -0.05070291
-0.13856159 0.4149255 -0.077690445 0.1744243 -0.11457846 0.40146178 0.3144269 0.24562232
0.29255155 -0.37745407 -0.31436804 -0.18706428 -0.33942372 -0.3521287 -0.22969116 -0.1436091
0.22943863 -0.17427145 0.2777114 -0.26601714 -0.13878478 0.38083854 -0.20449314 -0.15750793
-0.40948883 0.11095275 -0.014519483 -0.31945795 0.23800676 -0.12805273 -0.83563364 0.4411102
0.069361515 0.4669101 0.60331297 0.24533924 -0.22459184 0.556779 0.085117795 0.43096864
0.49933273 0.25434768 0.19762726 -0.8898517 -0.17915182 -0.04274986 0.36632907 0.0008759175
-0.3749717 -0.45080984 0.046247974 0.1719972 0.2695333 -0.15775175 -0.3947562 -0.45765683
-0.1591979 -0.67554885 0.3845917 0.049012214 0.34752217 0.0055099605 -0.10513937 0.3418514
-0.24815327 -0.16344887 -0.29120362 -0.36967003 -0.20266774 -0.43804857 -0.3921044 -0.2602852
-0.59428203 0.37459698 0.06292869 0.4946142 0.3992638 0.24124084 -0.42443207 -0.45973736
-0.16302693 0.39337602 0.77821815 -0.015246012 -0.0017524633 0.32178017 -0.12574923 -0.015856596
0.7336559 0.15157972 -0.07728227 -1.0256886 -0.19802092 -0.06584667 0.3642316 0.2723176
-0.30267757 0.44744477 -0.08258109 -0.05372539 -1.3181527 0.06468448 0.12744161 0.97025853
0.2670546 0.16540717 -0.593674 0.5186366 0.4482098 0.60120875 0.24962264 -0.05688464
-0.10323685 0.42268226 -0.18321072 -0.03888677 -0.0015261724 -0.05695268 0.70090973 0.14729275
-0.79405904 0.31947404 0.083833724 -0.17898114 0.2774852 -0.19340718 0.21353872 0.31045768
0.25841686 -0.38757166 -0.118714534 -0.06816308 -0.015762517 0.71048135 0.14514175 -0.4241636
0.13751657 -0.15966217 -0.4935756 0.2238767 -0.20182575 0.15030168 -1.0772141 -0.3045399
-0.40486747 -0.043539256 -0.118132204 -0.3219536 -0.6598508 0.081978075 -0.68120325 0.10594163
-0.1633323 -0.4088762 0.51627725 0.19559623 0.56537044 0.76627797 0.049045585 0.40182137
-0.51257473 -0.104134254 -0.2155632 -0.5356761 -0.15562803 0.4265463 -0.24665467 -0.10366878
-0.035554543 0.6962626 0.14952451 -0.45714208 -0.4517137 -0.12476704 0.2685154 0.19794352
-0.117141835 -0.5064338 0.5107777 0.019611517 -0.25613126 -0.3199199 -0.17170314 -0.054182462
0.6919571 0.14699307 0.28127876 0.21151257 0.30834955 -0.4599458 -0.5598386 -0.18952565
-0.028914813 0.7543834 0.1582999 0.31313738 -0.52926654 -0.22755368 -0.39055833 -0.7744944
-0.048898827 0.004184383 -1.1000406 -0.1699848 -0.3936692 -0.36649865 -0.23356828 -0.3732443
-0.86187106 0.04633275 -0.08682307 0.29334545 -0.14900522 -0.34431785 -0.61189544 -0.018800756
-0.6123913 0.5230217 0.024729481 -0.23511988 0.51585364 0.11959842 0.26399666 0.67369574
0.20078969 -0.81581646 0.16568866 0.113731444 0.24167019 1.0903162 0.019951874 -0.601148
00000000: 53c2 bebe 2e32 f63e 2770 3a3e 3db1 b1be
00000010: e9b0 163f 326b 293e f74a 02bf 80bb 823c
00000020: 27e5 633e 2e75 a3bd c99f 44be 6127 ac3e
00000030: 9013 ebbd 98b4 1a3f fb37 4b3e 07e4 09be
00000040: afa8 383f 25ef b13c c51a 03be 14ba 333f
00000050: 26be 053d 7940 a8bd 519d 79bf dbad 4fbd
00000060: 17e3 0dbe 1d71 d43e 2b1c 9fbd 499c 323e
00000070: 1da8 eabd 668c cd3e 90fc a03e 6b84 7b3e
00000080: 51c9 953e a941 c1be d9f4 a0be c78d 3fbe
00000090: f2c8 adbe 374a b4be 2934 6bbe 440e 13be
000000a0: f6f1 6a3e 3774 32be 3030 8e3e 6633 88be
000000b0: 991d 0ebe 45fd c23e a666 51be c249 21be
000000c0: 85a8 d1be 323b e33d 20e3 6dbc fe8f a3be
000000d0: 0bb8 733e 4120 03be 16ec 55bf 32d9 e13e
000000e0: 690d 8e3d d70e ef3e b872 1a3f 363a 7b3e
000000f0: 67fb 65be 1289 0e3f 3d52 ae3d eca7 dc3e
00000100: 8aa8 ff3e dc39 823e cd5e 4a3e 52cd 63bf
00000110: 9373 37be 7a1a 2fbd 7c8f bb3e d49d 653a
00000120: 4afc bfbe 8cd0 e6be 846e 3d3d 0920 303e
00000130: 4500 8a3e ad89 21be 7c1d cabe ff51 eabe
00000140: c604 23be c5f0 2cbf 34e9 c43e 08c1 483d
00000150: 6dee b13e e68c b43b 4f53 d7bd 2607 af3e
00000160: e41b 7ebe 245f 27be a418 95be 6445 bdbe
00000170: 2288 4fbe e747 e0be e8c1 c8be 1a44 85be
00000180: de22 18bf 2dcb bf3e c2e0 803d 133e fd3e
00000190: 4e6c cc3e d707 773e 294f d9be b262 ebbe
000001a0: 88f0 26be 9568 c93e 4e39 473f 69ca 79bc
000001b0: e9b2 e5ba 5fc0 a43e 68c4 00be b1e5 81bc
000001c0: e0d0 3b3f b737 1b3e 2b46 9ebd c449 83bf
000001d0: ffc5 4abe 9eda 86bd 907c ba3e 366d 8b3e
000001e0: 8ef8 9abe 7b17 e53e 4620 a9bd 280f 5cbd
000001f0: 3ab9 a8bf 4c79 843d 0e80 023e dd62 783f
00000200: 61bb 883e 7f60 293e 05fb 17bf 5ec5 043f
00000210: c17b e53e d1e8 193f 149d 7f3e deff 68bd
00000220: d76d d3bd cf69 d83e 979b 3bbe bc47 1fbd
00000230: d909 c8ba 3747 69bd d26e 333f e9d3 163e
00000240: 7447 4bbf 1a92 a33e 04b1 ab3d d546 37be
00000250: 8a12 8e3e 880c 46be e5a9 5a3e 4ff4 9e3e
00000260: 374f 843e cb6f c6be 9b20 f3bd 1699 8bbd
00000270: 6520 81bc 1be2 353f 0aa0 143e f92b d9be
00000280: 25d1 0c3e 7b7e 23be f1b5 fcbe ef3f 653e
00000290: 69ab 4ebe afe8 193e 27e2 89bf a7ec 9bbe
000002a0: ca4a cfbe 3856 32bd 4cef f1bd 1ad7 a4be
000002b0: fbeb 28bf 1fe4 a73d 5663 2ebf edf7 d83d
000002c0: 9540 27be 3958 d1be bf2a 043f 614a 483e
000002d0: 1ebc 103f cb2a 443f 06e4 483d 88bb cd3e
000002e0: 1938 03bf 5744 d5bd 99bc 5cbe 1222 09bf
000002f0: f45c 1fbe 4764 da3e 0b93 7cbe 4c50 d4bd
00000300: a4a1 11bd 443e 323f f41c 193e 870e eabe
00000310: 0547 e7be dd85 ffbd da7a 893e b5b1 4a3e
00000320: 0fe8 efbd a5a5 01bf 54c2 023f 55a8 a03c
00000330: a323 83be 8bcc a3be f3d2 2fbe 6eee 5dbd
00000340: 1a24 313f 5a85 163e c503 903e c096 583e
00000350: fedf 9d3e 047e ebbe 9551 0fbf 0313 42be
00000360: c2de ecbc 451f 413f 5e19 223e 8b53 a03e
00000370: 037e 07bf d503 69be 43f7 c7be 4445 46bf
00000380: 234a 48bd 261d 893b 21ce 8cbf 7f10 2ebe
00000390: 028f c9be b6a5 bbbe 862c 6fbe e019 bfbe
000003a0: 95a3 5cbf 69c7 3d3d 4bd0 b1bd 6031 963e
000003b0: d394 18be 6e4a b0be 2ea5 1cbf 0b04 9abc
000003c0: adc5 1cbf c0e4 053f 7b95 ca3c 44c3 70be
000003d0: fc0e 043f 04f0 f43d 922a 873e 5377 2c3f
000003e0: d09b 4d3e 59d9 50bf 4aaa 293e 08ec e83d
000003f0: 6478 773e 7b8f 8b3f 1d72 a33c d6e4 19bf

actor.0.bias f4 [128]
0.1508691 0.09478783 0.015619468 -0.29524404 -0.34448 -0.26502207 -0.24292259 -0.08334282
-0.57060325 -0.07980532 -0.62962776 -0.009816619 -0.33345577 -0.32693198 -0.40691853 -0.32359585
-0.16946366 -0.027235951 0.17182313 -0.22395602 -0.34907767 -0.36730853 -0.44700903 -0.39347076
0.009590676 -0.5896626 -0.0019582957 0.16175838 -0.28520814 -0.45590648 -0.29996938 -0.35866085
0.41650906 -0.4666222 -0.019947747 -0.063831076 -0.14585535 0.14732555 -0.2272477 -0.5598251
-0.4682091 0.10482306 -0.16194868 -0.17049445 -0.22132365 -0.335387 -0.23574536 -0.2813102
0.19394226 -0.3029603 -0.6434134 -0.4876963 0.14016259 -0.06867692 -0.17850205 0.0048340377
0.011217954 0.023706764 -0.38363963 0.16632788 -0.21926454 -0.49162364 -0.19825019 -0.2435606
0.13940191 0.17688194 -0.41129768 -0.006619439 -0.31479105 -0.27946335 -0.64945424 0.0033553934
0.12910622 -0.49658543 0.15589054 0.047030162 0.029940978 0.11597896 -0.26734954 0.025504338
0.13050956 -0.08115653 -0.026860692 0.38814628 -0.27365163 -0.52156585 -0.3671017 -0.33158544
-0.2589577 0.10202999 -0.1750449 0.1463301 0.17717518 0.001637272 -0.26385495 -0.3309017
-0.49627405 -0.105511986 -0.35383332 -0.3861004 0.07577385 0.019964067 -0.19020425 -0.48645768
-0.07416725 -0.19321874 0.1101861 -0.106786415 -0.11170425 -0.3412979 -0.29560357 -0.3642134
-0.31011337 -0.26242188 -0.006929269 -0.31606296 -0.37681463 -0.2987707 0.022045078 -0.09626001
0.019308629 -0.14225806 -0.24065715 -0.27402323 -0.3525418 0.20783608 0.06805375 -0.22311106
00000000: 6e7d 1a3e 1f20 c23d cce8 7f3c 3a2a 97be
00000010: af5f b0be f9b0 87be b3c0 78be a4af aabd
00000020: 0e13 12bf f970 a3bd 492f 21bf e2d5 20bc
00000030: b7ba aabe a163 a7be a057 d0be 5bae a5be
00000040: e287 2dbe ee1d dfbc 67f2 2f3e ba54 65be
00000050: 4fba b2be dd0f bcbe 5ede e4be 0075 c9be
00000060: 3622 1d3c 21f4 16bf c056 00bb fda3 253e
00000070: cd06 92be 936c e9be 9695 99be 65a2 b7be
00000080: ad40 d53e 1be9 eebe 7569 a3bc deb9 82bd
00000090: 1b5b 15be 82dc 163e 9fb3 68be b350 0fbf
000000a0: 1ab9 efbe 79ad d63d e0d5 25be 1996 2ebe
000000b0: aba2 62be d8b7 abbe 3b67 71be e407 90be
000000c0: cd98 463e 9d1d 9bbe beb6 24bf 54b3 f9be
000000d0: c886 0f3e 7ca6 8cbd 3ec9 36be d966 9e3b
000000e0: 82cb 373c b034 c23c 6a6c c4be db51 2a3e
000000f0: e286 60be 18b6 fbbe 1902 4bbe f367 79be
00000100: 60bf 0e3e 8a20 353e 9c95 d2be e1e7 d8bb
00000110: 4b2c a1be d215 8fbe a242 26bf 29e6 5b3b
00000120: 6c34 043e 7240 febe c5a1 1f3e b3a2 403d
00000130: c846 f53c 6186 ed3d 0ae2 88be 79ee d03c
00000140: 4ca4 053e 6535 a6bd f40a dcbc 1cbb c63e
00000150: 111c 8cbe 5785 05bf c1f4 bbbe 91c5 a9be
00000160: 1b96 84be 19f5 d03d f83e 33be 8fd7 153e
00000170: 696d 353e bb99 d63a ff17 87be f36b a9be
00000180: a217 febe ab16 d8bd a429 b5be f4ae c5be
00000190: 522f 9b3d af8b a33c e7c4 42be fb10 f9be
000001a0: 00e5 97bd 22db 45be 40a9 e13d d6b2 dabd
000001b0: 33c5 e4bd 99be aebe 5a59 97be 2e7a babe
000001c0: 2ec7 9ebe 295c 86be ec0e e3bb 01d3 a1be
000001d0: d9ed c0be 79f8 98be e197 b43c f823 c5bd
000001e0: 212d 9e3c 19ac 11be d46e 76be c64c 8cbe
000001f0: 5c80 b4be fbd2 543e c45f 8b3d 3a77 64be

actor.2.weight f4 [128, 128]
0.023207476 -0.027254745 -0.068806835 -0.120563515 0.0101496205 -0.064712085 -0.027361326 -0.040241092
-0.029060792 -0.08169516 -0.17986648 0.022418484 -0.035106044 -0.053570226 0.09133662 -0.08042918
-0.036381423 -0.17842853 -0.09187827 0.06511159 -0.038957596 0.02245455 0.11924144 0.030958066
0.10397865 0.02972641 0.08252344 -0.17748666 0.104741916 0.042551056 0.014557647 -0.15766288
0.033323262 0.04088497 -0.123477325 0.06886427 0.12832224 -0.06401378 -0.05826296 -0.044683095
-0.13628724 -0.1565817 -0.07234597 -0.110725686 0.086622715 0.061128397 -0.050304364 -0.19582076
-0.007993694 -0.03361621 -0.11875282 0.12785506 0.058250908 -0.06689298 0.12237594 -0.14211433
-0.13532305 0.053049482 0.085159294 -0.08127235 -0.060676735 -0.14781979 0.04869367 -0.014512405
-0.16768622 -0.12577945 0.07831715 -0.16931586 0.019273093 0.09289462 -0.08695768 0.077919506
0.017170222 -0.043581557 -0.10289792 -0.103655025 -0.15780027 0.013691814 0.0137473885 -0.05368865
0.033401173 -0.06559922 -0.009611779 0.12370736 0.09673142 0.11403285 -0.07182683 -0.005081258
-0.055012193 0.035839494 0.08141763 -0.010052704 -0.058740783 0.017413825 -0.12139418 -0.16254808
-0.03218635 -0.028634708 -0.040303193 0.06087819 0.0017022103 0.030784484 0.029367195 -0.0016939922
0.020051392 -0.117098205 -0.11020263 -0.02961965 0.087293595 -0.0020162156 0.08863267 0.09449854
-0.16128467 -0.07803412 0.03319792 -0.015816519 0.04270157 -0.09445444 0.06991638 -0.09718841
0.0034952208 -0.15101808 -0.052550793 0.05604383 0.045117732 -0.16334656 0.033444114 -0.040345702
-0.317298 -0.043292098 -0.0010162288 -0.5737346 -0.023102244 0.0347861 -0.07263709 0.11465338
-0.06682323 -0.49991003 -0.13663213 0.10112275 0.032069754 -0.11042486 -0.61589605 -0.5589742
0.37973025 -0.063341774 0.09981578 -0.102643445 -0.14505473 -0.29248908 -0.47379938 0.33645695
-0.028742233 -0.17454655 0.12263711 0.21018273 -0.7931976 -0.61274385 -0.08437703 -0.076535575
0.17330222 -0.28018346 0.11010996 -0.2254214 -0.07283899 0.19207747 -0.20920107 -0.21768275
0.3993852 -0.1359264 0.049200207 -1.0019825 -0.15243326 -0.32476357 0.0835008 0.09140423
0.2075238 0.27823848 -0.038080923 0.18588631 0.37884745 -0.19807497 -0.06259383 0.03395567
-0.049517807 -0.08225218 0.22124445 -0.18612304 -0.22132434 -0.84756464 0.12830383 -0.6393231
-0.032938395 0.28435516 -0.5153344 0.10904245 0.05702329 0.04090684 -0.09999431 0.057687584
-0.015310776 -0.36584356 0.067716934 0.08121749 0.116718546 0.06088578 0.09117064 0.1481408
0.026487768 -0.00914309 -0.2787935 0.4464211 0.21654786 0.46915147 -0.7503588 -0.86335415
-0.97049016 0.35775444 -0.086940676 -0.09626021 0.141115 0.10500546 -0.6089332 -0.14254528
0.03501336 -0.01677713 -0.06542661 -0.5753372 -0.00399847 0.2806529 0.18819113 -0.101163484
-0.17605436 -0.0015383369 0.124179974 -0.07212492 0.10430002 0.19585648 0.29652005 0.028516725
-0.7505359 -0.009180715 0.01821277 -0.42299786 -0.39317957 0.2963764 0.17043123 -0.36873585
0.0830224 -0.022088528 0.00463551 -0.8891895 -0.55330694 0.045565628 -0.05597728 -0.26637706
00000000: 9b1d be3c 5845 dfbc 99ea 8cbd 01ea f6bd
00000010: 984a 263c c587 84bd dc24 e0bc d8d3 24bd
00000020: e610 eebc cb4f a7bd eb2e 38be f8a6 b73c
00000030: 5bcb 0fbd 746c 5bbd b20e bb3d 0eb8 a4bd
00000040: b004 15bd f8b5 36be ad2a bcbd 3a59 853d
00000050: 0092 1fbd 9bf2 b73c db34 f43d c59b fd3c
00000060: c2f2 d43d cd84 f33c 0d02 a93d 10bf 35be
00000070: ee82 d63d 044a 2e3d 3283 6e3c 6172 21be
00000080: f97d 083d 0077 273d aee1 fcbd b608 8d3d
00000090: e866 033e a819 83bd 24a5 6ebd 9f05 37bd
000000a0: e28e 0bbe f456 20be 202a 94bd 26c4 e2bd
000000b0: 4067 b13d c561 7a3d f30b 4ebd 3d85 48be
000000c0: fcf7 02bc 27b1 09bd ae34 f3bd 70ec 023e
000000d0: 8198 6e3d 30ff 88bd 3da0 fa3d 6b86 11be
000000e0: 2092 0abe 6a4a 593d ff67 ae3d 1e72 a6bd
000000f0: 2b88 78bd 125e 17be 0473 473d 70c5 6dbc
00000100: f0b5 2bbe 54cc 00be be64 a03d 2361 2dbe
00000110: 9be2 9d3c 893f be3d de16 b2bd 4394 9f3d
00000120: 91a8 8c3c 9382 32bd 25bc d2bd 1649 d4bd
00000130: 6596 21be a153 603c ba3c 613c a1e8 5bbd
00000140: abcf 083d e258 86bd b97a 1dbc 495a fd3d
00000150: 1f1b c63d 0e8a e93d f219 93bd ae80 a6bb
00000160: 7754 61bd 6fcc 123d 49be a63d 19b4 24bc
00000170: 2d9a 70bd 70a7 8e3c 839d f8bd 0173 26be
00000180: d6d5 03bd 5693 eabc f614 25bd 695b 793d
00000190: b31c df3a be2f fc3c 7993 f03c f208 deba
000001a0: d142 a43c 2fd1 efbd ebb1 e1bd e9a4 f2bc
000001b0: fcc6 b23d 7c22 04bb 0c85 b53d 7388 c13d
000001c0: cf27 25be 5ad0 9fbd 8bfa 073d a591 81bc
000001d0: d7e7 2e3d 5471 c1bd 5230 8f3d b80a c7bd
000001e0: 1310 653b 7ca4 1abe 803f 57bd 378e 653d
000001f0: 5fcd 383d 5244 27be b2fc 083d 8941 25bd
00000200: e274 a2be 0e53 31bd fb32 85ba 45e0 12bf
00000210: eb40 bdbc df7b 0e3d c1c2 94bd 64cf ea3d
00000220: 9eda 88bd 35f4 ffbe 4be9 0bbe 7219 cf3d
00000230: 935b 033d 6e26 e2bd 5dab 1dbf ef18 0fbf
00000240: 016c c23e 55b9 81bd 376c cc3d ba36 d2bd
00000250: 3a89 14be 21c1 95be d595 f2be 1644 ac3e
00000260: d574 ebbc 55bc 32be 2a29 fb3d 243a 573e
00000270: ff0e 4bbf c8dc 1cbf ddcd acbd afbe 9cbd
00000280: 2376 313e 3574 8fbe 5581 e13d ded4 66be
00000290: 9c2c 95bd f5af 443e ce38 56be 3ae8 5ebe
000002a0: 387c cc3e 4a30 0bbe 2886 493d f640 80bf
000002b0: 7717 1cbe 6947 a6be 7802 ab3d 2432 bb3d
000002c0: 1e81 543e 4675 8e3e befa 1bbd fb58 3e3e
000002d0: 4bf8 c13e 2ad4 4abe 3231 80bd 1a15 0b3d
000002e0: 2fd3 4abd d573 a8bd e88d 623e 0a97 3ebe
000002f0: d9a2 62be fff9 58bf 1462 033e aeaa 23bf
00000300: 69ea 06bd 0097 913e f5ec 03bf a651 df3d
00000310: 4191 693d ee8d 273d d1c9 ccbd d149 6c3d
00000320: 0dda 7abc d94f bbbe 2daf 8a3d 5b55 a63d
00000330: 220a ef3d 5e63 793d acb7 ba3d 39b2 173e
00000340: e0fc d83c e6cc 15bc 06be 8ebe 4e91 e43e
00000350: b9be 5d3e 9f34 f03e 8417 40bf c704 5dbf
00000360: 0b72 78bf 972b b73e f40d b2bd 1324 c5bd
00000370: 7380 103e 1a0d d73d 0ce3 1bbf 64f7 11be
00000380: 2b6a 0f3d 3170 89bc 63fe 85bd 4c49 13bf
00000390: 9905 83bb bdb1 8f3e 2db5 403e cd2e cfbd
000003a0: 9847 34be 05a2 c9ba 1252 fe3d 3bb6 93bd
000003b0: 409b d53d 9a8e 483e 7ad1 973e e89b e93c
000003c0: 1f23 40bf b66a 16bc f232 953c 2d93 d8be
000003d0: d54e c9be a6be 973e 8685 2e3e f2ca bcbe
000003e0: a607 aa3d 00f3 b4bc 7ae5 973b eca1 63bf
000003f0: 86a5 0dbf 06a3 3a3d 6f48 65bd 9362 88be

actor.2.bias f4 [128]
-0.04891439 0.12587838 0.18906882 -0.101742655 0.23581669 -0.06789727 -0.04664407 -0.017788045
0.17870143 0.032128412 0.21952637 -0.21105412 -0.034473814 -0.05736728 0.1958429 0.14242737
-0.101411566 0.1447059 0.1057641 -0.114997864 0.2660006 0.15863717 -0.0466439 0.13795024
-0.11305107 0.2944919 -0.061118316 -0.0906205 0.011539286 -0.1617997 -0.052897368 -0.10396734
-0.35138476 0.22473073 -0.20114468 0.052009314 -0.09603635 -0.2854698 -0.003964485 0.15130207
-0.04021525 -0.3447519 0.09715239 0.22983244 -0.11081616 -0.010962914 -0.07537608 -0.031950448
-0.16577566 -0.24407321 0.033433836 -0.045085404 -0.060494486 -0.10669057 -0.0167216 -0.02890032
0.01953023 -0.07678094 -0.21002974 -0.18232723 0.23278582 -0.08067926 -0.049236868 0.28952146
-0.0009743632 -0.032420244 -0.03994997 -0.029942533 -0.15510382 -0.31792128 -0.06562631 0.14285713
0.16428092 0.1824438 0.21621771 -0.01968888 0.18656443 -0.1650158 -0.03516705 -0.024954181
0.24127276 -0.07316309 -0.033787653 -0.02522319 -0.2668448 0.055569123 0.24579619 -0.29929575
-0.5013644 -0.03457863 -0.27211818 -0.036338177 -0.07602518 -0.15769258 -0.11358353 -0.08934647
-0.03674771 0.034631107 -0.015056715 -0.105023116 -0.26151392 0.22769728 -0.06801954 0.0477993
-0.0486696 -0.11142366 0.013680159 -0.25208598 -0.2870511 -0.065228395 -0.1031679 0.06961892
0.01079714 -0.08081961 0.121080585 -0.052966893 -0.056853365 -0.038538933 -0.009591438 0.24877873
-0.17549244 0.09786155 -0.2670797 0.11971123 0.11257512 -0.15614071 -0.062217683 -0.042329364
00000000: 755a 48bd 43e6 003e 429b 413e 745e d0bd
00000010: ee79 713e b90d 8bbd da0d 3fbd 3cb8 91bc
00000020: 82fd 363e 1599 033d 85cb 603e 921e 58be
00000030: 6a34 0dbd f4f9 6abd 0b8b 483e 7bd8 113e
00000040: deb0 cfbd c92d 143e d99a d83d 0084 ebbd
00000050: 3b31 883e c871 223e ad0d 3fbd d442 0d3e
00000060: 5287 e7bd a4c7 963e 3357 7abd 3e97 b9bd
00000070: 460f 3d3c d2ae 25be e9aa 58bd d4ec d4bd
00000080: b4e8 b3be d01f 663e dff8 4dbe b807 553d
00000090: b5ae c4bd 1929 92be 83e8 81bb eeee 1a3e
000000a0: bfb8 24bd 5283 b0be d5f7 c63d 3259 6b3e
000000b0: 95f3 e2bd cb9d 33bc c65e 9abd 79de 02bd
000000c0: 18c1 29be 54ee 79be ebf1 083d 79ab 38bd
000000d0: 11c9 77bd 9680 dabd bdfb 88bc 5dc0 ecbc
000000e0: dcfd 9f3c 533f 9dbd 0912 57be fdb3 3abe
000000f0: 685f 6e3e 2b3b a5bd 99ac 49bd 283c 943e
00000100: 686c 7fba 17cb 04bd 94a2 23bd 0b4a f5bc
00000110: 89d3 1ebe 94c6 a2be 1667 86bd 2449 123e
00000120: 4239 283e 8cd2 3a3e 2d68 5d3e 934a a1bc
00000130: bf0a 3f3e e7f9 28be 530b 10bd b66c ccbc
00000140: 3510 773e 88d6 95bd ec64 0abd dda0 cebc
00000150: e29f 88be 739c 633d ffb1 7b3e 4b3d 99be
00000160: 6b59 00bf 52a2 0dbd 1353 8bbe 57d7 14bd
00000170: 17b3 9bbd 2a7a 21be 7b9e e8bd 48fb b6bd
00000180: c484 16bd 59d9 0d3d 71b0 76bc 5c16 d7bd
00000190: 27e5 85be 7a29 693e d44d 8bbd 33c9 433d
000001a0: c659 47bd 1632 e4bd bf22 603c 6a11 81be
000001b0: 5df8 92be 7796 85bd b149 d3bd 5d94 8e3d
000001c0: 7de6 303c c084 a5bd 19f9 f73d d0f3 58bd
000001d0: 13df 68bd 00db 1dbd 6825 1dbc dabf 7e3e
000001e0: 4ab4 33be a36b c83d acbe 88be 292b f53d
000001f0: c98d e63d 5ae3 1fbe f8d7 7ebd 8e61 2dbd

actor.4.weight f4 [1, 128]
0.043437287 -0.66831374 -0.21910807 -1.4703228 4.1831493 0.006832124 -0.59322196 0.11512301
-0.43810347 -0.48511612 -0.36521947 0.021000905 0.0077132666 0.041788682 -0.15404564 -0.028371828
0.1640548 -0.33856866 -0.07203344 -0.6818532 2.560239 0.17969288 0.060258444 -0.10347122
0.08436247 0.37924623 0.13934015 -0.010888996 -1.5079359 -0.010763368 -1.9615576 -0.046456892
0.61407584 -0.20855731 0.008147249 -0.3543902 9.349151e-05 0.2533463 -0.08048489 -0.38745388
-0.08063198 0.4115118 -0.32184786 -0.12362919 0.5747315 0.11877534 -1.4917861 -0.2760622
0.23726599 0.12508596 -0.14485353 1.4366467 -0.47271687 -0.2388595 0.4861094 0.09147544
-0.30401018 -0.012315974 0.8546171 -0.55391896 -0.32390338 0.035559144 -0.027941199 -0.06645657
-0.09572324 0.11630199 0.04445922 0.0011880539 0.047082637 -0.17043154 -0.1298151 -0.046276353
-0.30646232 -0.33584616 -0.35226345 -0.35888952 -0.4806882 -0.50353193 0.15956381 -0.4757974
0.52755654 0.9537265 -2.308969 0.035626438 0.076964304 -0.20526369 0.21622148 0.22819935
0.8453609 0.021881187 0.009104302 -0.100896865 0.16937922 -0.0003859417 -0.33401948 1.6274076
0.15729912 -0.2050755 -0.0056190635 0.043531053 0.38399968 -0.26882377 0.9569672 0.14750756
-0.21839191 -0.2619297 -0.24782385 0.5572774 -0.22465265 -0.16033195 0.12135936 1.009491
1.9454991 0.8662382 -0.4163335 0.0072881933 0.08120622 0.15559708 -0.06718993 -0.4072988
-0.38566342 -0.50361603 0.023378788 1.5614717 -0.15830836 0.07418365 0.0029490606 -0.13436422
00000000: 4ceb 313d 9c16 2bbf de5d 60be 8a33 bcbf
00000010: 5cdc 8540 03e0 df3b 65dd 17bf 9dc5 eb3d
00000020: 194f e0be 2461 f8be 0cfe babe 170a ac3c
00000030: 92bf fc3b 9c2a 2b3d 24be 1dbe 096c e8bc
00000040: fbfd 273e df58 adbe 4586 93bd ee8d 2ebf
00000050: f5da 2340 6901 383e 8fd1 763d b8e8 d3bd
00000060: 3bc6 ac3d 902c c23e 2faf 0e3e c267 32bc
00000070: 0b04 c1bf d658 30bc 5214 fbbf 9549 3ebd
00000080: 1334 1d3f 0c90 55be 0a7c 053c a272 b5be
00000090: df10 c438 9bb6 813e 43d5 a4bd 5b60 c6be
000000a0: 6122 a5bd adb1 d23e 3ec9 a4be 4d31 fdbd
000000b0: 9b21 133f 7c40 f33d d9f2 bebf 0658 8dbe
000000c0: dbf5 723e 8916 003e 7c54 14be 0ae4 b73f
000000d0: f207 f2be 9697 74be 55e3 f83e 7a57 bb3d
000000e0: 39a7 9bbe f0c8 49bc 30c8 5a3f a2cd 0dbf
000000f0: aad6 a5be 77a6 113d f1e4 e4bc 621a 88bd
00000100: 8c0a c4bd bd2f ee3d df1a 363d 79b8 9b3a
00000110: b9d9 403d 9b85 2ebe 40ee 04be 468c 3dbd
00000120: a1e8 9cbe 07f4 abbe e05b b4be 5ec0 b7be
00000130: c41c f6be 78e7 00bf b264 233e b89b f3be
00000140: f20d 073f 6b27 743f 26c6 13c0 07ed 113d
00000150: 769f 9d3d a530 52be 2a69 5d3e 17ad 693e
00000160: 9269 583f 2d40 b33c 362a 153c 04a3 cebd
00000170: bf71 2d3e 3858 cab9 9a04 abbe e44e d03f
00000180: 0513 213e 50ff 51be 1f20 b8bb 9e4d 323d
00000190: 9b9b c43e 45a3 89be cdfb 743f 390c 173e
000001a0: 21a2 5fbe a61b 86be 89c5 7dbe bba9 0e3f
000001b0: 580b 66be 0f2e 24be 428b f83d 0037 813f
000001c0: 1d06 f93f c9c1 5d3f aa29 d5be ccd1 ee3b
000001d0: 724f a63d d754 1f3e e09a 89bd 7889 d0be
000001e0: ad75 c5be fbec 00bf df84 bf3c 4ede c73f
000001f0: 961b 22be 99ed 973d 0745 413b c696 09be

q1.0.weight f4 [128, 4]
0.13849844 0.44949862 -0.042000115 -0.20360017 0.44845963 0.099830866 0.05647835 -0.06995731
-0.40161777 -0.45522517 0.05961204 -0.06535185 0.0891155 -0.026417203 0.005904991 -0.04166477
-0.011415495 0.1916684 -0.0037458558 0.09549947 0.1851853 0.06026747 -0.19717412 -0.09242255
-0.1030038 -0.8479829 -0.16039357 -0.12168036 -0.00049010303 0.02347246 4.3067874e-05 0.183252
-0.017672002 -0.04558837 0.00017454133 -0.034225143 0.6224027 0.41101462 0.23155004 0.069607235
0.35210228 -0.24207877 0.028098075 -0.28278458 0.13233295 -0.43198642 -0.2758264 -0.06310687
0.5820878 -0.38253447 -0.23708166 -0.07632038 0.27386317 0.45068806 0.123104654 0.017933995
0.13977444 -0.054973423 0.0040892805 -0.0239388 0.03063271 0.3175547 0.1498922 -0.012877879
0.06283686 0.05515757 0.0027843867 0.046013873 -0.16009665 -0.1166286 0.055020045 0.060025256
-0.52356595 0.20993046 0.008604111 0.011675905 -0.17915432 -0.48501897 -0.02551667 -0.15407911
0.027156536 -0.14715126 0.013845255 -0.27809328 0.10047381 0.76019007 0.16670282 0.046823405
0.35053253 0.81362563 0.17428105 0.057558686 0.07006564 0.2992019 0.26997495 0.004589566
-0.23495969 0.43523732 0.10926638 0.028488211 0.11930521 -0.056258067 0.0647218 0.27870142
-0.10462145 -0.20635937 0.14069572 0.12469292 0.14303651 0.7721348 0.11662642 0.026657073
-0.038129672 0.6625716 0.14876013 0.03858092 -0.07298035 -0.014360613 0.0009611495 -0.061279148
-0.024228908 -0.0902116 -0.0026463536 -0.04562374 0.418847 -0.13611685 0.043571193 -0.096188545
-0.41733998 0.49494696 0.15267977 -0.012113015 -0.005360971 0.067284785 0.17571586 0.048055116
0.07878415 0.5456563 0.081352286 -0.07909045 0.16901079 -0.023781277 0.12784864 -0.40803787
0.40527576 -0.25513124 -0.1615005 -0.03177511 -0.06518497 -0.09601098 0.17977771 -0.31460774
0.19980343 -0.0993971 0.00046777414 0.0762416 0.029137947 0.03848431 -0.01184342 0.043658406
-0.22975042 0.6465188 0.15512706 0.056298964 -0.041576155 0.013789154 -0.087662935 -0.030943321
-0.106754355 -0.48061296 -0.031307675 -0.038324762 0.14442532 0.37655178 0.06252429 0.05076753
-0.4465318 0.112338565 0.08132357 0.079657204 -0.04084473 0.015698707 -0.0010077863 0.20601286
-0.018571222 -0.26119566 0.115874894 -0.46175632 0.63892245 -0.4095779 -0.19553633 0.018506672
-0.22872213 0.3823278 -0.06258984 0.29419497 0.5032617 0.5352692 0.09069739 0.0406324
0.11610945 0.070132695 0.01010973 -0.034867432 0.12137828 -0.8211425 -0.11267661 -0.08346634
-0.3463705 0.025904374 0.01156652 -0.00015036161 0.2814755 0.69804806 0.14777195 0.06314834
0.7139808 0.10645761 -0.023172311 0.07755461 0.5943729 -0.2712535 -0.13953634 -0.040121943
-0.2747811 -0.2050688 -0.021569058 0.34464234 0.056906022 -0.008758722 -0.011211266 0.10519458
-0.44051293 0.27964166 0.12474632 0.023693992 -0.18724148 0.28102458 -0.22485214 -0.14571008
0.37417507 -0.20798308 -0.15790907 -0.06311227 -0.029063523 0.0078349495 0.002450287 0.07362797
0.42037255 -0.09043356 0.024453187 -0.13485062 -0.065773964 0.70444715 0.14687917 0.049354434
00000000: 89d2 0d3e af24 e63e 5008 2cbd 907c 50be
00000010: 809c e53e 2074 cc3d d855 673d c745 8fbd
00000020: d8a0 cdbe 4613 e9be c12b 743d 31d7 85bd
00000030: 3082 b63d e468 d8bc a87e c13b aea8 2abd
00000040: 0e08 3bbc b944 443e 087d 75bb 3a95 c33d
00000050: 37a1 3d3e 06db 763d 03e8 49be 0948 bdbd
00000060: a8f3 d2bd 6815 59bf 363e 24be 8d33 f9bd
00000070: 427a 00ba 5149 c03c c7a3 3438 6aa6 3b3e
00000080: e0c4 90bc dfba 3abd 1505 3739 aa2f 0cbd
00000090: c955 1f3f 8270 d23e 741b 6d3e 3d8e 8e3d
000000a0: c046 b43e 7fe3 77be ef2d e63c 24c9 90be
000000b0: 4a82 073e 532d ddbe 1e39 8dbe 2d3e 81bd
000000c0: b503 153f 8fdb c3be 89c5 72be dc4d 9cbd
000000d0: cb37 8c3e 96c0 e63e 4b1e fc3d 50ea 923c
000000e0: 0821 0f3e d02b 61bd 5fff 853b 4d1b c4bc
000000f0: 73f1 fa3c 8896 a23e 577d 193e bdfd 52bc
00000100: 9db0 803d e7ec 613d 427a 363b 0b79 3c3d
00000110: 60f0 23be fada eebd b35c 613d 0bdd 753d
00000120: 6b08 06bf 03f8 563e 42f8 0c3c 4c4c 3f3c
00000130: 3b74 37be 6854 f8be 5608 d1bc eac6 1dbe
00000140: 6277 de3c d2ae 16be 35d7 623c 3e62 8ebe
00000150: 37c5 cd3d d19b 423f 25b4 2a3e e6c9 3f3d
00000160: 0079 b33e c549 503f bb76 323e a8c2 6b3d
00000170: 937e 8f3d fe30 993e 283a 8a3e 1264 963b
00000180: 4699 70be 6dd7 de3e 0dc7 df3d 1c60 e93c
00000190: 4a56 f43d dc6e 66bd dd8c 843d f4b1 8e3e
000001a0: c543 d6bd df4f 53be 8a12 103e 005f ff3d
000001b0: 2a78 123e a0aa 453f d5d9 ee3d ef5f da3c
000001c0: dc2d 1cbd 4b9e 293f 9354 183e 0707 1e3d
000001d0: b976 95bd c748 6bbc a7f5 7b3a d8ff 7abd
000001e0: b47b c6bc dcc0 b8bd 726e 2dbb f5df 3abd
000001f0: 1d73 d63e 3762 0bbe b577 323d 80fe c4bd
00000200: 96ad d5be b069 fd3e 1658 1c3e ab75 46bc
00000210: 16ab afbb 9bcc 893d dcee 333e 71d5 443d
00000220: 9659 a13d 22b0 0b3f 079c a63d 2dfa a1bd
00000230: 2a11 2d3e f4d0 c2bc c1ea 023e 57ea d0be
00000240: 4e80 cf3e 90a0 82be 6360 25be 9e26 02bd
00000250: b37f 85bd 68a1 c4bd a617 383e 4414 a1be
00000260: 4599 4c3e b590 cbbd 953f f539 8e24 9c3d
00000270: b4b2 ee3c b9a1 1d3d e70a 42bc 28d3 323d
00000280: b243 6bbe 4282 253f a1d9 1e3e be99 663d
00000290: c24b 2abd e7eb 613c a088 b3bd d97c fdbc
000002a0: 07a2 dabd e712 f6be 7a3c 00bd 6dfa 1cbd
000002b0: 3be4 133e 65cb c03e bc0c 803d 9df1 4f3d
000002c0: d19f e4be c311 e63d f98c a63d 5123 a33d
000002d0: ce4c 27bd 939a 803c b217 84ba 09f5 523e
000002e0: ad22 98bc 70bb 85be d14f ed3d 536b ecbe
000002f0: 6c90 233f 32b4 d1be ad3a 48be 4e9b 973c
00000300: 2236 6abe 78c0 c33e 1a2f 80bd b9a0 963e
00000310: c2d5 003f 6707 093f 8ebf b93d 296e 263d
00000320: cbca ed3d bba1 8f3d 48a3 253c 27d1 0ebd
00000330: 2d95 f83d 6536 52bf ffc2 e6bd 67f0 aabd
00000340: 7957 b1be 6935 d43c 8081 3d3c 63aa 1db9
00000350: 8f1d 903e 47b3 323f 8851 173e eb53 813d
00000360: 72c7 363f 7306 da3d dcd3 bdbc f4d4 9e3d
00000370: d328 183f bde1 8abe 9de2 0ebe e856 24bd
00000380: 1cb0 8cbe 8efd 51be 98b1 b0bc f674 b03e
00000390: 4a16 693d be80 0fbc 75af 37bc 4270 d73d
000003a0: e98a e1be 312d 8f3e 007b ff3d e719 c23c
000003b0: 3bbc 3fbe 74e2 8f3e a43f 66be 0635 15be
000003c0: e093 bf3e 84f9 54be eab2 21be 0141 81bd
000003d0: a016 eebc 295e 003c ff94 203b 43ca 963d
000003e0: 123b d73e 3b35 b9bd 0d52 c83c 4816 0abe
000003f0: 80b4 86bd a656 343f 7e67 163e e027 4a3d

q1.0.bias f4 [128]
-0.35675064 -0.21732649 -0.13985682 -0.33183095 -0.29857963 -0.92200124 -0.10902084 -0.27556366
-0.08188385 -0.5732992 -0.3026199 -0.13531952 -0.6143167 -0.09892511 -0.17701837 -0.25037932
-0.16637953 -0.62428635 0.11526015 -0.083711356 -0.4813114 -0.28157067 -0.011698449 -0.25715262
0.11107705 -0.34303802 -0.6499517 -0.037803426 -0.1364619 -0.139925 -0.17709869 -0.35276467
0.2246428 -0.4111103 -0.13572022 -0.09189161 -0.4486072 -0.19537638 -0.32061964 -0.222761
0.067019135 -0.11179506 -0.02091911 -0.31502804 0.10495843 -0.26326227 -0.25974143 -0.32265484
-0.05320794 -0.18554975 -0.20313576 0.02204357 0.025873456 -0.017176054 0.17870699 -0.3971503
-0.14297098 -0.17742358 0.34960717 -0.62253183 -0.45485997 -0.1316952 0.13179722 -0.10800083
-0.44884914 -0.3829305 -0.2522408 -0.37676412 -0.36017 -0.183813 -0.4291119 -0.074507155
-0.05799563 -0.29575706 -0.5633526 -0.00065489666 -0.11585146 -0.108262286 -0.04309214 -0.32378006
-0.17295115 0.0034075447 -0.45479915 -0.27802944 0.093792304 -0.24268587 -0.39800096 -0.14125867
-0.26223814 -0.2667501 -0.100289986 -0.12562396 -0.24426956 -0.2688844 0.25440925 -0.42195126
-0.40299478 -0.17017013 0.18182111 -0.04273092 -0.16046043 -0.090021595 -0.25443047 -0.1438102
-0.065060966 -0.39544442 -0.35496655 -0.18383108 -0.05077517 -0.19499257 -0.5070161 -0.312137
0.28497434 -0.004896355 -0.41456237 -0.495964 -0.27872133 0.18958464 -0.7629019 -0.19113044
-0.2650849 -0.46698 -0.086589396 0.38674578 -0.09008538 -0.0017832973 -0.19360286 -0.16325407
00000000: 05a8 b6be d68a 5ebe a036 0fbe bfe5 a9be
00000010: 6edf 98be 4608 6cbf 5146 dfbd ae16 8dbe
00000020: b8b2 a7bd bdc3 12bf fff0 9abe 3391 0abe
00000030: dc43 1dbf 4099 cabd 4e44 35be b831 80be
00000040: 655f 2abe 3bd1 1fbf 830d ec3d dc70 abbd
00000050: 736e f6be 082a 90be daaa 3fbc 82a9 83be
00000060: 5d7c e33d aea2 afbe 3c63 26bf c4d7 1abd
00000070: abbc 0bbe 8048 0fbe 5c59 35be 929d b4be
00000080: c308 663e 0d7d d2be 3efa 0abe ab31 bcbd
00000090: d8af e5be bf10 48be 4228 a4be 761b 64be
000000a0: 5441 893d cff4 e4bd 8e5e abbc 5b4b a1be
000000b0: 72f4 d63d 50ca 86be d4fc 84be 0433 a5be
000000c0: 92f0 59bd c100 3ebe d202 50be b894 b43c
000000d0: 92f4 d33c ccb4 8cbc f7fe 363e 4957 cbbe
000000e0: fc66 12be 87ae 35be b6ff b23e 3f5e 1fbf
000000f0: 68e3 e8be 1bdb 06be daf5 063e 8a2f ddbd
00000100: 8ecf e5be 770f c4be b525 81be 3ae7 c0be
00000110: 3468 b8be 7a39 3cbe 8eb4 dbbe 3597 98bd
00000120: d38c 6dbd 786d 97be e037 10bf 5fad 2bba
00000130: 8843 edbd 9eb8 ddbd 6281 30bd 80c6 a5be
00000140: 1b1a 31be 1d51 5f3b 6fdb e8be e059 8ebe
00000150: 2e16 c03d a582 78be c8c6 cbbe 1da6 10be
00000160: 1444 86be 7893 88be d664 cdbd 91a3 00be
00000170: cd21 7abe 37ab 89be ee41 823e ff09 d8be
00000180: 5555 cebe 1441 2ebe 502f 3a3e 9e06 2fbd
00000190: bd4f 24be 3e5d b8bd b644 82be fb42 13be
000001a0: af3e 85bd b177 cabe 2dbe b5be 373e 3cbe
000001b0: a0f9 4fbd 22ac 47be cfcb 01bf 6cd0 9fbe
000001c0: 28e8 913e 9a71 a0bb 8541 d4be feee fdbe
000001d0: 90b4 8ebe 7a22 423e 8a4d 43bf b3b7 43be
000001e0: 35b9 87be 0118 efbe c855 b1bd 8b03 c63e
000001f0: af7e b8bd 87bd e9ba d43f 46be 132c 27be

q1.2.weight f4 [128, 128]
-0.45991167 -0.2867145 0.3608072 0.052046645 0.11161227 -0.483786 -0.07998754 0.16670263
0.007037278 -1.3832484 0.02204729 -0.37039712 -0.13342044 0.21377485 -0.21398325 0.21550016
0.10374676 0.4588641 0.07271345 0.02323172 0.059676103 0.25040284 -0.30081823 0.14172111
-0.19601229 0.01906343 0.70351905 -0.007767126 0.19478647 -0.06691977 0.21224926 -0.124114454
0.05085024 0.49452618 -0.58759 -0.26551762 -0.035361852 -0.0008300186 0.10583111 0.10273293
-0.5722338 -0.24302325 -0.101386 0.37031254 0.07226309 0.11354472 0.18103638 -0.18379723
-0.032238867 -0.5828241 -0.48670474 -0.2866623 -0.034978844 -0.57232964 0.08901882 -0.069011375
0.14701329 0.08166639 -0.03034259 -0.39353338 -0.14824636 0.02859879 0.05031155 -0.8016756
0.34295806 -0.6921145 -0.042804603 0.12501076 0.30885017 -0.022729507 -1.0547441 0.024637893
0.012960235 0.07456671 -0.262904 0.25045806 -0.18328132 -0.08468801 0.2564543 0.23730418
-0.009407742 0.12562855 0.48567787 -0.06666872 0.10264642 -0.12402434 0.13614072 0.00993812
-0.11368766 -0.7710236 0.10708328 0.18150066 0.041937802 0.31034312 0.15814319 -0.2995571
0.09702713 -0.015533125 0.001980214 -0.35646582 -0.15385468 -0.01276705 -0.06324387 0.02401485
0.017126275 -0.14449838 0.18520921 -0.6520225 -0.19805227 0.123935856 0.32518953 0.04148627
0.1088275 -0.13349539 -0.08239259 -0.048990723 -0.1295049 -0.057977706 -0.16519909 -0.12748249
0.111133054 -0.51384574 -0.10649553 -0.035967536 0.06576872 -0.67738986 -0.13650917 -0.055617508
-0.13632545 -0.107604936 0.089410186 0.08651249 0.0648441 -0.12961513 -0.17222996 -0.07916288
-0.18701887 -0.012207773 0.15688777 -0.05204834 0.08120213 -0.040063567 -0.111552365 -0.1746528
0.12738451 -0.18881449 -0.14528638 -0.104483455 0.041635975 0.096803896 0.047765996 -0.049040977
0.06052218 0.032082077 -0.11932656 -0.013459103 0.11993326 -0.11776133 -0.013345486 -0.038608223
-0.20234077 0.05630212 0.06837848 0.09322617 -0.15304163 0.118981324 -0.17050901 -0.10405004
-0.18709934 0.059255127 0.028300326 -0.06650743 -0.1865569 3.2815062e-06 -0.12458512 0.041404497
-0.116736695 0.043705683 0.021772465 0.080417216 -0.12273047 -0.043695312 -0.16898504 -0.14556278
0.07874344 0.11064228 0.0040416117 -0.20942783 -0.009835566 -0.14675008 -0.12717946 -0.14829439
-0.07098918 -0.028456949 -0.13404302 -0.18473376 -0.073496245 -0.08718874 0.09812384 0.052616775
-0.01958886 0.0040611075 0.14762434 -0.08196227 -0.1305925 -0.14187162 -0.17480977 -0.013306981
0.098800056 -0.034692757 -0.0075972397 0.12984322 -0.14125542 0.11286837 -0.10843949 0.12080552
-0.22193065 -0.11593481 0.057888925 0.032571763 -0.07232894 -0.07278782 0.11721146 0.071097516
-0.16563159 0.043262627 -0.03780699 -0.12830484 -0.041428164 -0.055710025 0.03640258 -0.13853033
-0.038195625 -0.012974787 -0.08704275 0.057961486 -0.0214723 0.022665247 -0.07928025 -0.060780104
0.021500045 0.024284353 -0.110506795 -0.07616192 0.03928865 -0.15711038 -0.00024604352 -0.026801277
0.12581776 0.11611094 -0.07591044 0.032384403 0.014746651 0.04297682 0.0180195 -0.01959554
00000000: 8b79 ebbe 3ecc 92be b9bb b83e dd2e 553d
00000010: f994 e43d ccb2 f7be 82d0 a3bd 18b4 2a3e
00000020: f798 e63b 490e b1bf 859c b43c b1a4 bdbe
00000030: 5e9f 08be cbe7 5a3e 6d1e 5bbe 13ac 5c3e
00000040: 2e79 d43d 3cf0 ea3e caea 943d 7350 be3c
00000050: ee6e 743d cd34 803e d904 9abe 571f 113e
00000060: 72b7 48be e92a 9c3c d319 343f 6083 febb
00000070: 1b76 473e 3b0d 89bd df57 593e b82f febd
00000080: 5748 503d 8932 fd3e 4c6c 16bf edf1 87be
00000090: 97d7 10bd 9b95 59ba fbbd d83d a465 d23d
000000a0: ea7d 12bf 16db 78be 77a3 cfbd 9b99 bd3e
000000b0: acfe 933d 228a e83d 9a61 393e 5735 3cbe
000000c0: e70c 04bd f633 15bf 5d31 f9be 67c5 92be
000000d0: fa45 0fbd 3284 12bf 804f b63d d655 8dbd
000000e0: a78a 163e b540 a73d 0691 f8bc 357d c9be
000000f0: e5cd 17be 0248 ea3c 7c13 4e3d 9d3a 4dbf
00000100: 3398 af3e 6a2e 31bf e153 2fbd d202 003e
00000110: 9c21 9e3e 3b33 babc db01 87bf 68d5 c93c
00000120: 2a57 543c 6eb6 983d 5a9b 86be 0a3c 803e
00000130: 19ae 3bbe e870 adbd fa4d 833e deff 723e
00000140: ee22 1abc c5a4 003e c5aa f83e 9c89 88bd
00000150: 4938 d23d 7900 febd 7968 0b3e 7fd3 223c
00000160: 13d5 e8bd cd61 45bf 7b4e db3d 4fdb 393e
00000170: f9c6 2b3d 4be5 9e3e 4af0 213e 8c5f 99be
00000180: 29b6 c63d a67e 7ebc 7ac6 013b b082 b6be
00000190: 158c 1dbe e42c 51bc 0186 81bd caba c43c
000001a0: 674c 8c3c 62f7 13be 7ca7 3d3e f2ea 26bf
000001b0: 37ce 4abe 15d2 fd3d 3e7f a63e 82ed 293d
000001c0: f4e0 de3d 04b3 08be 72bd a8bd 7faa 48bd
000001d0: ef9c 04be 087a 6dbd f329 29be c58a 02be
000001e0: ba99 e33d 658b 03bf 541a dabd b252 13bd
000001f0: c0b1 863d 6c69 2dbf 0fc9 0bbe 2fcf 63bd
00000200: e698 0bbe fa5f dcbd b01c b73d 762d b13d
00000210: fccc 843d d4b9 04be 0d5d 30be 2620 a2bd
00000220: e081 3fbe 1c03 48bc 30a7 203e a430 55bd
00000230: 4d4d a63d b219 24bd 9175 e4bd 2fd8 32be
00000240: 1671 023e 9658 41be f4c5 14be 6cfb d5bd
00000250: 7c8a 2a3d 1f41 c63d 47a6 433d 31df 48bd
00000260: 1be6 773d 7f68 033d 7c61 f4bd 9283 5cbc
00000270: 929f f53d da2c f1bd 06a7 5abc a823 1ebd
00000280: 6b32 4fbe 0d9d 663d 040a 8c3d 5ded be3d
00000290: f2b6 1cbe 7bac f33d ea99 2ebe 3018 d5bd
000002a0: f896 3fbe 81b5 723d 16d6 e73c 0c35 88bd
000002b0: c608 3fbe d937 5c36 7c26 ffbd c397 293d
000002c0: a613 efbd bb04 333d 2b5c b23c c8b1 a43d
000002d0: 1d5a fbbd dbf9 32bd 6a0a 2dbe 690e 15be
000002e0: 3e44 a13d 6b98 e23d 7f6f 843b 4074 56be
000002f0: 5b25 21bc a745 16be 553b 02be 7cda 17be
00000300: c662 91bd 8c1e e9bc 9342 09be d92a 3dbe
00000310: 3385 96bd 0390 b2bd 27f5 c83d b084 573d
00000320: d178 a0bc 0a13 853b d62a 173e d6db a7bd
00000330: 0aba 05be cb46 11be 5501 33be 8605 5abc
00000340: af57 ca3d fe19 0ebd 44f2 f8bb 9ff5 043e
00000350: 43a5 10be 8827 e73d 8615 debd e268 f73d
00000360: ca41 63be 3b6f edbd f01c 6d3d f869 053d
00000370: 3221 94bd c811 95bd 900c f03d 939b 913d
00000380: 549b 29be 2734 313d 81db 1abd 5862 03be
00000390: 94b0 29bd 3230 64bd df1a 153d e5da 0dbe
000003a0: 0473 1cbd 3394 54bc 7843 b2bd 0669 6d3d
000003b0: ade6 afbc 78ac b93c af5d a2bd 8ff4 78bd
000003c0: dd20 b03c fbef c63c 6351 e2bd c8fa 9bbd
000003d0: 23ed 203d 8be1 20be 67ff 80b9 5a8e dbbc
000003e0: 5fd6 003e 93cb ed3d ef76 9bbd 82a5 043d
000003f0: f09b 713c 7608 303d a19d 933c d386 a0bc

q1.2.bias f4 [128]
0.10429243 -0.057781707 -0.017047448 -0.087051086 -0.04050963 -0.07699265 0.009385578 0.50324047
-0.052932255 0.068324946 -0.05788449 -0.05134211 -0.092877835 -0.056710657 0.39807513 0.25733486
-0.07734687 -0.034749493 -0.10474424 -0.07098912 0.33245263 0.05193232 -0.034492813 -0.08361578
-0.1118645 0.16362743 -0.088987395 -0.085810214 -0.041269008 -0.025373105 -0.16146149 -0.055866715
0.18237424 -0.06412475 0.16641755 0.20589076 0.24157567 0.17163497 -0.04409363 0.25960523
-0.097723015 -0.063273035 -0.073008 0.031117817 -0.119985886 -0.13279477 0.13067241 0.2599023
0.19577578 -0.0562623 -0.08918075 0.39279208 0.19058843 0.26453003 -0.09056296 -0.06664286
-0.050479192 -0.04665521 -0.061059654 0.15385872 -0.062634155 0.3810492 -0.08754478 -0.07143604
0.36400756 -0.042157836 0.10976953 -0.13165987 0.1627683 -0.09471679 -0.05854926 -0.27975395
0.26826748 -0.10622085 0.46684667 0.074417695 0.45569664 -0.07638315 0.4248975 -0.0030723836
0.03909874 -0.020420317 -0.058072407 -0.17548342 -0.05527519 -0.01996487 0.09743641 -0.055320594
0.026435545 -0.052926607 0.4456881 -0.03520081 -0.08801156 -0.034051534 0.016583014 -0.0455469
-0.07271131 0.42420772 -0.016330605 0.46496248 -0.07496835 0.40952426 -0.07352593 0.47385132
0.012699346 0.36485085 -0.103634894 0.069595665 -0.11718092 -0.0647543 0.5641852 -0.08936074
-0.24919389 0.34902716 0.0075855996 -0.042614773 -0.006727449 -0.06269125 -0.055182032 -0.09368108
0.39009613 0.08627468 0.10447732 -0.0786407 -0.07430403 0.030806458 0.07841685 0.0966741
00000000: 4597 d53d 83ac 6cbd 17a7 8bbc d747 b2bd
00000010: 6ded 25bd 53ae 9dbd f8c5 193c 5ed4 003f
00000020: 7ecf 58bd f3ed 8b3d 4918 6dbd 1b4c 52bd
00000030: bc36 bebd 6f49 68bd 81d0 cb3e 65c1 833e
00000040: 0968 9ebd 7c55 0ebd 2684 d6bd be62 91bd
00000050: 3b37 aa3e fcb6 543d 5648 0dbd c03e abbd
00000060: 3719 e5bd f38d 273e 063f b6bd 44bd afbd
00000070: b109 29bd 42db cfbc 2956 25be 7fd4 64bd
00000080: 50c0 3a3e d653 83bd 5d69 2a3e 07d5 523e
00000090: 9d5f 773e 14c1 2f3e 869b 34bd faea 843e
000000a0: 0123 c8bd 4b95 81bd 3885 95bd cbea fe3c
000000b0: 29bb f5bd 5afb 07be fdce 053e ea11 853e
000000c0: 7279 483e 4c73 66bd 66a4 b6bd 0b1c c93e
000000d0: 9d29 433e 7b70 873e 1379 b9bd 0d7c 88bd
000000e0: 45c3 4ebd 8919 3fbd b019 7abd 248d 1d3e
000000f0: 5646 80bd e118 c33e ad4a b3bd 0f4d 92bd
00000100: 335f ba3e b2ad 2cbd d9ce e03d d8d1 06be
00000110: bcac 263e e0fa c1bd 59d1 6fbd e93b 8fbe
00000120: 5b5a 893e 518a d9bd 8706 ef3e 4e68 983d
00000130: 1251 e93e c56e 9cbd 2a8c d93e 0b5a 49bb
00000140: 0026 203d 8248 a7bc 55dd 6dbd edb1 33be
00000150: 3d68 62bd 5e8d a3bc be8c c73d d997 62bd
00000160: 5b8f d83c 92c9 58bd 3b31 e43e b92e 10bd
00000170: 683f b4bd 9f79 0bbd 1ad9 873c 638f 3abd
00000180: abe9 94bd c131 d93e c3c7 85bc 900f ee3e
00000190: 0289 99bd 2aad d13e c394 96bd a49c f23e
000001a0: eb10 503c bbcd ba3e 883e d4bd 2c88 8e3d
000001b0: 8dfc efbd e79d 84bd 716e 103f c302 b7bd
000001c0: af2c 7fbe b0b3 b23e 9f90 f83b d48c 2ebd
000001d0: ef71 dcbb 4564 80bd 8e06 62bd dedb bfbd
000001e0: aeba c73e c8b0 b03d 35f8 d53d 600e a1bd
000001f0: b62c 98bd d35d fc3c 0399 a03d 12fd c53d

q1.4.weight f4 [1, 128]
-0.01683189 0.11831552 0.00062220945 -0.017486317 0.04230209 0.09053178 -0.011313312 -0.16657102
0.12508386 0.48802504 0.02466312 -0.014116589 0.019339625 -0.085587196 -0.10903401 0.30825174
0.017353661 -0.019253176 -0.013039184 0.055513322 -0.21581136 -0.44658917 0.060316335 0.0034995077
0.047247205 0.4327177 -0.024590807 0.17642885 0.0010911085 0.025707405 -0.25902742 0.08657493
0.006324353 -0.06715323 0.2549535 -0.23717144 -0.29453915 -0.11895947 0.122881 -0.43107736
0.030872406 0.026320618 -0.040096033 0.1534482 0.033594016 -0.0059325024 -1.3655736 0.5776958
-0.25817 -0.029080682 -0.0018289362 -0.036291607 -0.27234548 -0.2969981 -0.017911404 -0.006236216
0.0075019835 0.0029035818 -0.022448359 -0.13130108 0.060006026 -0.19073178 0.10080384 0.012144641
-0.20932853 -0.0049444987 0.40279868 -0.004045586 0.37265489 0.024159975 0.069714405 -0.021892512
-0.42565832 -0.0019197981 -0.45752746 -0.6028466 -0.24679527 0.0010222291 -0.44820276 -0.029755725
-0.03272462 -0.00848728 0.00967172 0.3281295 0.5842716 -0.10498153 -0.0004036792 -0.0020208138
0.008250201 0.0019215181 -0.09117929 0.10582141 0.11062853 0.017527979 -0.20289396 0.030240487
-0.06140322 -0.16206212 -0.1001845 -0.38133028 0.03138563 -0.124191515 0.004563659 -0.24765445
-0.42996886 -0.27137238 0.15877894 0.028296676 0.022482796 -0.02309475 -0.24717337 -0.023684781
0.6372834 -0.2193659 -0.010161044 0.12617913 -0.004193174 0.010752403 0.027822917 -0.0004958936
-0.06846377 0.834121 0.56699693 -0.020471944 -0.0062591378 0.0090561835 0.3212602 -0.02737212
00000000: 08e3 89bc 684f f23d c51b 233a 773f 8fbc
00000010: f544 2d3d ba68 b93d 785b 39bc 9891 2abe
00000020: fc15 003e 6bde f93e 500a ca3c 4449 67bc
00000030: 226e 9e3c 5748 afbd 394d dfbd 2cd3 9d3e
00000040: 4429 8e3c d6b8 9dbc 4da2 55bc f061 633d
00000050: a7fd 5cbe 56a7 e4be 430e 773d ff57 653b
00000060: 4986 413d 2d8d dd3e a972 c9bc c4a9 343e
00000070: 8703 8f3a 5698 d23c 3e9f 84be 324e b13d
00000080: 853c cf3b a287 89bd 4489 823e 12dd 72be
00000090: d6cd 96be 06a1 f3bd 09a9 fb3d 2cb6 dcbe
000000a0: 21e8 fc3c 569e d73c bd3b 24bd 8621 1d3e
000000b0: e199 093d 7065 c2bb 1ecb aebf dfe3 133f
000000c0: dc2e 84be 9c3a eebc eab8 efba 82a6 14bd
000000d0: de70 8bbe 2310 98be f0ba 92bc 2c59 ccbb
000000e0: 33d3 f53b 054a 3e3b 9fe5 b7bc ca73 06be
000000f0: e1c8 753d 314f 43be 3e72 ce3d 51fa 463c
00000100: 385a 56be 7605 a2bb a13b ce3e d690 84bb
00000110: 9fcc be3e 24eb c53c 6dc6 8e3d ed57 b3bc
00000120: e3ef d9be bca1 fbba 0a41 eabe 2854 1abf
00000130: e6b7 7cbe 51fc 853a d57a e5be 47c2 f3bc
00000140: 400a 06bd 3c0e 0bbc 2276 1e3c 9700 a83e
00000150: d392 153f 8e00 d7bd e8a4 d3b9 a16f 04bb
00000160: da2b 073c 73db fb3a 35bc babd e5b8 d83d
00000170: 3691 e23d d696 8f3c 6fc3 4fbe e6ba f73c
00000180: f181 7bbd 9df3 25be 882d cdbd b93d c3be
00000190: 388e 003d 1f58 febd bf8a 953b 2199 7dbe
000001a0: e124 dcbe 52f1 8abe f296 223e 6ece e73c
000001b0: d72d b83c 3331 bdbc 041b 7dbe 9606 c2bc
000001c0: 0125 233f 74a1 60be 827a 26bc 1a35 013e
000001d0: e566 89bb d92a 303c e3ec e33c dbfe 01ba
000001e0: bc36 8cbd f488 553f b626 113f c7b4 a7bc
000001f0: 7419 cdbb 6360 143c 387c a43e 7f3b e0bc

q2.0.weight f4 [128, 4]
0.06008966 0.075140424 0.00464126 0.023149014 -0.1662305 0.2315304 -0.075825036 -0.0052722157
0.05830573 0.004030393 -0.013386408 0.21696821 0.5069268 0.2851113 0.20486268 0.057020724
0.11559939 -0.22597687 0.023282804 -0.33188033 -0.09186778 -0.013294232 0.00040517419 0.096459925
0.51224935 0.4607755 0.124150485 0.036568627 0.039784897 0.025787085 0.22000162 0.08418306
0.5528278 -0.49458024 -0.09307443 0.035093535 -0.32332164 -0.4645175 -0.1372919 -0.015353842
-0.28721982 -0.3219469 0.005727516 -0.041014463 0.07764475 0.010636386 0.015018967 -0.065915234
0.02587118 -0.036463782 0.010126188 0.0048653865 0.15651064 -0.011401275 -0.13102277 -0.082470246
0.45829237 -0.4581713 0.09979808 -0.052684214 0.7070544 0.102786325 -0.01037284 -0.049041454
-0.13219732 -0.7649194 -0.1669817 -0.052652173 0.088863686 -0.59740233 0.08827412 -0.028520072
0.5829727 0.5457043 0.119137906 0.035412155 -0.32473096 0.060713205 -0.12086113 -0.09395415
0.36013204 0.67362225 0.0067238538 -0.09645574 0.18611884 0.4691304 0.17227885 0.029790906
-0.060313705 -0.13619925 -0.0017657629 -0.08402967 -0.53003746 -0.0056240875 0.032985624 0.08296841
-0.16610557 0.48402023 0.067393154 0.119764164 0.5773487 0.4514668 0.18922836 0.05254766
0.57694554 0.3989973 0.20838343 0.042859625 -0.45380855 0.60236776 0.010177181 0.15315169
0.5266991 0.13459066 0.1639333 0.03945647 0.29663843 0.7222625 0.14460042 0.023303771
-0.16387014 -0.5130835 -0.041600376 0.0218528 -0.25941128 0.67789304 -0.007437571 -0.1563244
0.08183765 0.8721804 0.1696164 0.09436073 0.051717974 0.022396537 -0.02188913 -0.0055970587
0.009133709 0.020723946 0.019561833 -0.17072597 0.5067685 -0.41935772 0.021014728 0.10172484
0.042122327 -0.23504828 0.08291084 -0.0032789 0.044282377 -0.6114628 -0.07419036 -0.111096136
-0.53367984 0.35413322 0.15302199 0.026863461 0.2668098 0.69909364 0.17411219 0.05418057
0.2975174 -0.41004553 -0.06585886 -0.01821386 -0.19744314 -0.11304049 -0.077381976 0.23272802
0.0827623 1.0435646 0.20452733 0.11455357 -0.38303435 0.25646347 0.018873576 -0.06440607
0.38653663 0.3106309 0.03308035 0.16971426 0.5175877 -0.25074074 -0.123687305 0.089492
0.57025474 -0.36899012 -0.20232219 -0.036109515 -0.21865764 0.67426217 0.14432852 0.0317395
0.33222175 0.20122156 0.12143619 0.06555442 -0.11483888 0.13860634 0.00025786247 0.03874469
0.010079772 0.42578322 0.25545266 0.11198561 0.41652736 -0.19641273 0.034994643 0.042350143
0.4352057 -0.16839717 -0.14058179 -0.035348617 0.21716246 0.07852524 -0.037111774 0.27231953
-0.024314635 -0.058969256 0.0057233255 -0.24957752 0.13837424 -0.1633251 0.053866193 -0.3352106
0.37796396 0.029717902 0.060568072 -0.049956705 -0.016523737 0.0054103076 0.00038400816 0.04886232
0.103435464 -0.33772424 -0.0042177425 -0.30918613 -0.014687564 -0.74232435 -0.15662219 -0.061211247
-0.025002083 0.054276384 0.00045522352 0.09716902 0.3396795 -0.43354174 -0.06783385 -0.062631376
-0.028416945 0.3113236 0.043129314 -0.12714934 0.12584347 -0.001539478 -0.18347853 -0.080972426
00000000: 9320 763d 39e3 993d b615 983b 00a3 bd3c
00000010: 5438 2abe 4e16 6d3e 284a 9bbd 8dc2 acbb
00000020: fdd1 6e3d 6311 843b aa52 5bbc ea2c 5e3e
00000030: f4c5 013f 1cfa 913e 86c7 513e 908e 693d
00000040: 5fbf ec3d 7b66 67be 94bb be3c 38ec a9be
00000050: 2d25 bcbd 0dd0 59bc 8f6d d439 c88c c53d
00000060: c622 033f c4ea eb3e 9c42 fe3d fcc8 153d
00000070: 7df5 223d 703f d33c 1b48 613e 2b68 ac3d
00000080: 1f86 0d3f 9f39 fdbe cf9d bebd 3dbe 0f3d
00000090: 6a8a a5be 3dd5 edbe 3f96 0cbe ae8e 7bbc
000000a0: 7a0e 93be 39d6 a4be e3ad bb3b c8fe 27bd
000000b0: 3604 9f3d 3d44 2e3c 1d12 763c 91fe 86bd
000000c0: ccef d33c 0c5b 15bd 50e8 253c d26d 9f3b
000000d0: 5344 203e 6acc 3abc d52a 06be 29e6 a8bd
000000e0: 4ca5 ea3e 6e95 eabe f062 cc3d 67cb 57bd
000000f0: 8401 353f a381 d23d d8f2 29bc b1df 48bd
00000100: bc5e 07be c2d1 43bf 40fd 2abe cea9 57bd
00000110: 2afe b53d 5cef 18bf 10c9 b43d eda2 e9bc
00000120: b33d 153f 47b3 0b3f 93fe f33d 560c 113d
00000130: 2343 a6be 69ae 783d 0a86 f7bd 096b c0bd
00000140: 3a63 b83e 8272 2c3f c653 dc3b 968a c5bd
00000150: f095 3e3e dc31 f03e de69 303e 0f0c f43c
00000160: 810b 77bd d177 0bbe 2c71 e7ba bf17 acbd
00000170: 89b0 07bf 444a b8bb ef1b 073d 57eb a93d
00000180: 9417 2abe 80d1 f73e 6c05 8a3d ea46 f53d
00000190: 20cd 133f a826 e73e 14c5 413e 373c 573d
000001a0: b4b2 133f 6049 cc3e 7762 553e 938d 2f3d
000001b0: 9859 e8be c634 1a3f 31be 263c ccd3 1c3e
000001c0: c1d5 063f 22d2 093e 22de 273e 1c9d 213d
000001d0: fee0 973e 32e6 383f 2212 143e 8de7 be3c
000001e0: 93cd 27be 7159 03bf 2865 2abd a504 b33c
000001f0: 8ed1 84be 668a 2d3f deb6 f3bb 8113 20be
00000200: 7f9a a73d 3747 5f3f ecaf 2d3e 3340 c13d
00000210: 3ad6 533d f178 b73c d550 b3bc 8867 b7bb
00000220: 8da5 153c 44c5 a93c 2340 a03c cad2 2ebe
00000230: 95bb 013f 0eb6 d6be 1427 ac3c 1d55 d03d
00000240: 7688 2c3d 7fb0 70be 29cd a93d d0e2 56bb
00000250: 7061 353d d388 1cbf 1ef1 97bd 5f86 e3bd
00000260: 3e9f 08bf f350 b53e ccb1 1c3e c310 dc3c
00000270: 4b9b 883e cdf7 323f 774a 323e 72ec 5d3d
00000280: 3354 983e 7df1 d1be 03e1 86bd 3c35 95bc
00000290: 892e 4abe c681 e7bd 717a 9ebd 4150 6e3e
000002a0: 487f a93d 8693 853f 9d6f 513e 109b ea3d
000002b0: 141d c4be 2e4f 833e c29c 9a3c 54e7 83bd
000002c0: 21e8 c53e 030b 9f3e 437f 073d 93c9 2d3e
000002d0: a180 043f 1761 80be c54f fdbd 9547 b73d
000002e0: 37fc 113f 46ec bcbe 8c2d 4fbe 92e7 13bd
000002f0: cae7 5fbe 729c 2c3f dbca 133e 4701 023d
00000300: f818 aa3e 060d 4e3e 8ab3 f83d 6541 863d
00000310: a630 ebbd d2ee 0d3e b731 8739 c1b2 1e3d
00000320: a125 253c 4200 da3e b1ca 823e b658 e53d
00000330: 1343 d53e 6b20 49be 8b56 0f3d 5877 2d3d
00000340: 48d3 de3e 4f70 2cbe acf4 0fbe b6c9 10bd
00000350: d65f 5e3e d7d1 a03d 8402 18bd 776d 8b3e
00000360: 7c2f c7bc bf89 71bd bc8a bb3b 4091 7fbe
00000370: fab1 0d3e b23e 27be cca2 5c3d b9a0 abbe
00000380: 7e84 c13e f572 f33c 3a16 783d 679f 4cbd
00000390: ca5c 87bc f348 b13b b454 c939 db23 483d
000003a0: f9d5 d33d 31ea acbe fd34 8abb a54d 9ebe
000003b0: 1ca4 70bc f808 3ebf 9161 20be a5b8 7abd
000003c0: 2bd1 ccbc ea50 5e3d 11ab ee39 8d00 c73d
000003d0: 79ea ad3e 2ff9 ddbe 79ec 8abd e144 80bd
000003e0: a7ca e8bc cf65 9f3e 5da8 303d 7033 02be
000003f0: 1cdd 003e 4fc8 c9ba cce1 3bbe dfd4 a5bd
