SAC/checkpoints/BipedalWalker-v3/02_best_agent.pth (torch, 891687 bytes, 17 tensors)

log_alpha f8 []
0	0xc01b0b0e86ea4e8e	-6.760797603655773

actor.0.weight f4 [256, 24]
0	0xbdc16541	-0.09443141
1	0x3f380548	0.7188306
2	0xbdb56c1e	-0.08858512
3	0x3fae93e8	1.3638887
4	0x3da9a98c	0.082842916
5	0xbcbc66f5	-0.022998312
6	0x3ddd5ab4	0.10808316
7	0xbd3487d2	-0.04407484
8	0xbcb2252c	-0.02174624
9	0x3d83309c	0.06405756
10	0x3e822fd2	0.2542711
11	0xbe539aeb	-0.20664565
12	0xbd152147	-0.03640869
13	0xbd83a349	-0.064276285
14	0x3e23b164	0.15985638
15	0x3e7d48fe	0.24734876
16	0x3e67cb09	0.22636046
17	0x3e2f0dfd	0.1709518
18	0x3e9d3919	0.30707625
19	0x3d8485c7	0.064708285
20	0x3e570f9a	0.21002045
21	0x3dc32837	0.09529155
22	0xbe04e345	-0.12977321
23	0xbe8f3989	-0.27973583
24	0xbfbece79	-1.490676
25	0xc03f6d98	-2.991064
26	0x3f4d9e02	0.80319226
27	0xbedb8272	-0.4287296
28	0xbf0ab1bd	-0.5417746
29	0xbc81e346	-0.015855443
30	0xbe7c28c3	-0.24624924
31	0xbc7bf00d	-0.015377057
32	0xbda04e17	-0.078273945
33	0xbcdd4a74	-0.027013041
34	0xbdae9700	-0.08524895
35	0xbc947c59	-0.0181257
36	0x3d6b3f20	0.057433248
37	0x3dfa6710	0.12226689
38	0xbd85c81f	-0.06532311
39	0xbd46b020	-0.04850781
40	0xbe8aada4	-0.27085602
41	0xbdce0ef4	-0.10061446
42	0xbe41bd72	-0.18919924
43	0xbe75d5d5	-0.24007352
44	0xbe31a879	-0.17349423
45	0xbd9a9bd2	-0.075492516
46	0xbcfbdd78	-0.030745253
47	0x3e31baa1	0.1735635
48	0x3e6449ae	0.22293732
49	0x3eb4d3fc	0.3531798
50	0xbf64fb04	-0.8944552
51	0x3e8fd829	0.28094605
52	0x3ddfed42	0.10933925
53	0xbd978f1f	-0.07400345
54	0xbedfa9c8	-0.4368422
55	0xbec03598	-0.3754089
56	0x3e3b51d5	0.18292935
57	0xbec56681	-0.38554767
58	0x3e18e647	0.14931594
59	0x3bba347c	0.005682526
60	0x3ed3a17a	0.41334134
61	0xbdb1fc77	-0.08690732
62	0xbd8a5174	-0.06753817
63	0xbda635f7	-0.08115762
64	0xbdd94f3f	-0.10610818
65	0xbe1a76de	-0.15084407
66	0xbd801f46	-0.06255965
67	0xbea14969	-0.3150132
68	0xbea08822	-0.3135386
69	0xbe4c3e84	-0.19945723
70	0xbe5d691b	-0.21622126
71	0xbc8bf66a	-0.017085273
72	0xbea37be5	-0.31930462
73	0xbfce7e09	-1.6132213
74	0xbec6fddd	-0.38865557
75	0x3f7c7bc1	0.98626333
76	0xbdaff1d5	-0.08591048
77	0x3d0ea0ca	0.03482131
78	0x3d76bcad	0.06023853
79	0xbec7c4ae	-0.39017242
80	0xbf1c7ac4	-0.61124825
81	0xbd08a370	-0.03335899
82	0x3df5cf01	0.120023735
83	0xbf24fba2	-0.6444646
84	0x3e51e9ec	0.2049939
85	0x3d01903c	0.031631693
86	0xbd9d8143	-0.0769067
87	0x3b90ebda	0.004422647
88	0xbe24629e	-0.16053244
89	0x3da79920	0.08183503
90	0x3dc50c50	0.09621489
91	0x3d0d8333	0.03454895
92	0xbda82050	-0.08209288
93	0xbde7e863	-0.11323621
94	0xbd02d6f1	-0.031943265
95	0x3d830b99	0.063986965
96	0xbedc60c1	-0.43042567
97	0xbfd2d3b5	-1.6470858
98	0x3fa9246b	1.3214239
99	0xbe49193b	-0.19638531
100	0xbed83453	-0.4222742
101	0x3e2dbe3f	0.16967104
102	0xbefbd5c5	-0.4918653
103	0xbd87a7ea	-0.06623824
104	0x3af52527	0.0018703089
105	0xbd92a9d8	-0.071613014
106	0x3c8d754c	0.017267846
107	0x3eb66164	0.35621178
108	0xbe15fb4f	-0.14646648
109	0xbe08861f	-0.13332413
110	0xbe64da5a	-0.2234892
111	0xbe8e0cea	-0.27744228
112	0xbe6b4a01	-0.22977449
113	0xbe899c69	-0.26877144
114	0xbda466bf	-0.0802741
115	0xbe4b0e33	-0.19829635
116	0xbe5d6b9e	-0.21623084
117	0xbdc48e63	-0.095974706
118	0x3d40d900	0.047081947
119	0x3df83c74	0.121209055
120	0xbdfa2351	-0.12213767
121	0xbefe6d77	-0.4969289
122	0xbeaa5dca	-0.3327468
123	0xbd8ee5e3	-0.06977441
124	0xbe0ce2b4	-0.13758355
125	0x3ed44931	0.4146209
126	0x3e8f665f	0.2800779
127	0xbe297cad	-0.16551466
128	0xbe8668f5	-0.2625195
129	0xbf001b56	-0.5004171
130	0xbf0bc554	-0.54597974
131	0xbeb02a7c	-0.34407413
132	0xbe430fdf	-0.19049023
133	0xbee797af	-0.45232913
134	0xbbe55089	-0.006998126
135	0xbd035b0d	-0.032069255
136	0xbd8d0fbf	-0.06887769
137	0xbde28835	-0.11061136
138	0xbe45a18b	-0.19299905
139	0xbac1f80a	-0.0014798653
140	0x3d82d474	0.063881785
141	0xbd35c656	-0.0443786
142	0x3d1274b0	0.035755813
143	0xbd2dc264	-0.042421713
144	0x3d4209c4	0.047372594
145	0x3f6297d1	0.88512903
146	0xbf032740	-0.51231766
147	0xbf6bf43b	-0.9216954
148	0x3e3d7438	0.18501365
149	0x3e41007d	0.18847843
150	0xbe146286	-0.14490709
151	0xbe787ab0	-0.24265552
152	0x3d283ca3	0.041073453
153	0xbf088da4	-0.53341126
154	0xbd7dabc3	-0.061931383
155	0xbebef561	-0.37296584
156	0xbe1dcc83	-0.15410046
157	0xbf01a23e	-0.50638187
158	0x3e085aa4	0.13315827
159	0x3e18ae94	0.14910346
160	0x3da78b74	0.081808954
161	0x3dd977b3	0.10618534
162	0x3d8f0496	0.069832966
163	0x3df182e4	0.117925435
164	0xbd979dc5	-0.07403139
165	0x3e140e25	0.1445852
166	0x3d2818f2	0.041039415
167	0xbe92d8d7	-0.2868106
168	0xbc6ec099	-0.014572286
169	0xbd17b731	-0.03703994
170	0xbe5c19cb	-0.21494214
171	0xbf017aa7	-0.5057778
172	0x3d225434	0.039631084
173	0xbdd5c733	-0.10438385
174	0x3ee83304	0.45351422
175	0xbebff16a	-0.37488872
176	0x3e8e6ace	0.2781586
177	0xbe91706d	-0.28406087
178	0x3d38a13c	0.04507564
179	0x3e2803aa	0.16407648
180	0xbede3302	-0.4339829
181	0x3ea96e58	0.33091998
182	0xbeafbf44	-0.34325612
183	0xbe556167	-0.20837937
184	0xbe74cf6c	-0.2390725
185	0xbe471544	-0.19441706
186	0xbdc6c417	-0.0970537
187	0xbe4678da	-0.19382039
188	0xbe626a7f	-0.22110938
189	0xbeaa38bf	-0.3324642
190	0xbe72f0d7	-0.23724686
191	0xbe2991f7	-0.16559587
192	0xbf04d557	-0.5188803
193	0x3d0195c4	0.03163697
194	0x3d92bc43	0.07164814
195	0x3e9b4d9f	0.30332658
196	0xbe0eac62	-0.13932946
197	0xbe4dac1d	-0.20085187
198	0xbf0f4e1f	-0.5597858
199	0x3c57b4e7	0.013165689
200	0xbe10a918	-0.14127004
201	0xbe5232b7	-0.20527159
202	0x3df54f1e	0.11977981
203	0x3efd78f2	0.49506336
204	0x3e0e8f3c	0.13921827
205	0xbf1a6234	-0.60306096
206	0xbdef13f7	-0.1167373
207	0xbdaf5c60	-0.08562541
208	0xbd618a2d	-0.055063415
209	0x3e14649a	0.14491501
210	0x3dbd3f6a	0.09240611
211	0x3aa661fa	0.0012693994
212	0x3da7bb7d	0.081900574
213	0xbdece9a7	-0.11568003
214	0xbd63f7da	-0.05565629
215	0xbd959f5a	-0.073057845
216	0x3ce5a6dc	0.028033666
217	0xbf5ac349	-0.8545423
218	0x3ece0fc4	0.40246403
219	0x4001e3b6	2.0295234
220	0xbe42eaca	-0.19034877
221	0xbe2901dc	-0.16504616
222	0x3f9077a2	1.1286509
223	0x3f46ecbe	0.7770499
224	0x3ea187a4	0.31548798
225	0xbd53daf0	-0.051722467
226	0x3d88241e	0.06647514
227	0x3d165353	0.036700558
228	0x3e570d3e	0.21001145
229	0xbf294d4e	-0.6613358
230	0xbe17c5fc	-0.14821619
231	0xbde48b9c	-0.11159441
232	0xbe03896d	-0.12845393
233	0xbe1fd0a6	-0.15606937
234	0xbe63a353	-0.22230272
235	0xbe737d66	-0.23778304
236	0xbb5cc55a	-0.0033686967
237	0xbda14c8d	-0.07875929
238	0xbd885373	-0.06656542
239	0xbeaa4a78	-0.3325994
240	0x3e747144	0.23871332
241	0x3f9404fc	1.1564021
242	0xbed49286	-0.4151804
243	0xbe1bc4f5	-0.15211852
244	0x3c441f4b	0.011970351
245	0x3e2ffb2d	0.1718566
246	0x3e4d8454	0.2007001
247	0xbe02dd7a	-0.12779799
248	0xbf61d21d	-0.8821123
249	0xbe891381	-0.26772693
250	0xbe188f31	-0.14898373
251	0x3e09a97b	0.13443558
252	0xbe83949a	-0.25699311
253	0xbcec4fa6	-0.028846573
254	0xbe732252	-0.23743561
255	0xbe295569	-0.16536488

actor.0.bias f4 [256]
0	0xbe42370a	-0.18966308
1	0x3d5b4b5d	0.05353867
2	0xbe4c7a0a	-0.19968429
3	0xbccdca99	-0.02512102
4	0x3cc3994f	0.023876814
5	0x3c392531	0.011300371
6	0xbe09ca88	-0.13456166
7	0xbce667bf	-0.028125642
8	0x3d1816f5	0.03713127
9	0xbe61dc5a	-0.22056714
10	0xbe18b89d	-0.14914174
11	0xbddd0a8b	-0.107930265
12	0xba4e082d	-0.00078594947
13	0xbe2f7756	-0.17135367
14	0xbdab77d6	-0.08372466
15	0x3e090936	0.1338242
16	0x3d18bd69	0.03729001
17	0x3da6a682	0.081372276
18	0x3de2ba68	0.110707104
19	0xbdde0b23	-0.10841968
20	0x3e16b2f7	0.14716707
21	0xbd31e6a3	-0.043432843
22	0xbe802029	-0.25024536
23	0x3d8dec28	0.06929809
24	0xbd831fa0	-0.06402516
25	0xbcc2b6c0	-0.023768783
26	0xbda22e3d	-0.079189755
27	0x3b62ac01	0.0034587386
28	0xbe335cf2	-0.17515925
29	0x3d89eec4	0.06734994
30	0xbcbe558c	-0.023234151
31	0xbdd8b22c	-0.105808586
32	0x3ceddbf1	0.02903554
33	0xbeb51639	-0.35368517
34	0xbe044e9d	-0.12920614
35	0xbd558579	-0.052129243
36	0xbc2fa16d	-0.010719639
37	0xbc9fb43d	-0.019495124
38	0xbc648858	-0.0139485225
39	0xbc888312	-0.016664062
40	0xbd13dbcd	-0.03609829
41	0xbd7ae378	-0.061252087
42	0xbe485c5b	-0.19566481
43	0x3df3556f	0.118815295
44	0xbd2dc3d9	-0.042423103
45	0xbe14320d	-0.14472218
46	0x3d857baf	0.065177314
47	0xbe5f6b4f	-0.21818279
48	0x3dc384a0	0.095467806
49	0xbe7b8377	-0.24561869
50	0x3dc12547	0.09430938
51	0xbdec31a3	-0.11532905
52	0xbdc4f874	-0.09617701
53	0xbd2fe185	-0.04293968
54	0x3bdd84a1	0.0067601954
55	0xbeb51320	-0.35366154
56	0xbe0f1717	-0.13973652
57	0x3d8f710f	0.07003986
58	0xbd32575f	-0.043540355
59	0xbda29a9a	-0.07939644
60	0xbd279131	-0.04090995
61	0x3da6034a	0.08106096
62	0xbd9e19d4	-0.0771977
63	0x3e08fb3d	0.1337709
64	0x3dbd5ebf	0.09246587
65	0xbe8497ef	-0.25897166
66	0x3c8391ac	0.016060673
67	0xbdb95e43	-0.09051182
68	0xbe0f6643	-0.14003853
69	0xbe4433b6	-0.19160351
70	0x3d62f7b0	0.055411994
71	0xbdf94d73	-0.121729754
72	0xbe738ff7	-0.23785387
73	0xbe65fb97	-0.22459255
74	0xbddb4e51	-0.10708297
75	0xbe028fc5	-0.12750156
76	0xbd81d8f5	-0.063402094
77	0xbbe7e0c9	-0.007076357
78	0xbd36e1ff	-0.04464912
79	0xbdaa281a	-0.0830843
80	0xbcf796df	-0.030223308
81	0xbe882ae9	-0.26595238
82	0xbe320b93	-0.17387228
83	0xbdb77fac	-0.08959898
84	0xbe4e5eed	-0.20153399
85	0xbdfafb71	-0.1225499
86	0x3c430493	0.011902946
87	0xbd7ffd61	-0.0624975
88	0xbea8f9fe	-0.3300323
89	0x3cb7e9ae	0.022450294
90	0x3d0caf53	0.03434689
91	0xbcae00ce	-0.021240618
92	0x3e2b774d	0.16744728
93	0xbdd1c76d	-0.102431156
94	0x3d01af86	0.031661533
95	0xbc8a7745	-0.016902575
96	0xbc9baa99	-0.019002246
97	0x3e12f330	0.14350581
98	0x3d8ea9c2	0.069659725
99	0xbcda1c99	-0.026624965
100	0xbd6a30a8	-0.05717531
101	0xbe191ec8	-0.14953148
102	0x3c7870d0	0.015163615
103	0xbcbba35a	-0.02290504
104	0x3d08b341	0.033374075
105	0xbd7d1ea0	-0.061796784
106	0x3bd76371	0.0065731336
107	0xbcc7a450	-0.024370342
108	0x3d9a4f7b	0.07534691
109	0x3d4a2192	0.04934842
110	0xbd8b3426	-0.06797056
111	0xbdfa48e6	-0.122209355
112	0xbd566b9e	-0.052348725
113	0x3dd7eb02	0.10542871
114	0xbc3ac737	-0.011400036
115	0xbe95ab49	-0.29232243
116	0xbe634100	-0.22192764
117	0xbe23acdd	-0.15983911
118	0xbd248d43	-0.04017378
119	0xbe2297a0	-0.15878153
120	0xbd894c71	-0.06704033
121	0xbd749590	-0.059712946
122	0xbe3864b3	-0.18007164
123	0xbe9e789f	-0.30951402
124	0xbdf411f7	-0.11917489
125	0xbd3c6c2d	-0.046001602
126	0xbc916eca	-0.017753024
127	0xbc629b25	-0.013830935
128	0x3deef489	0.11667735
129	0xbd457fd8	-0.048217624
130	0xbd1f72d8	-0.038927883
131	0xbd277e24	-0.04089178
132	0x3d1542ed	0.03644078
133	0xbdbc0f78	-0.09182638
134	0x3c70e35f	0.014702647
135	0xbda31ec3	-0.07964852
136	0xbd244482	-0.040104397
137	0xbd429924	-0.047509328
138	0xbe1a8f6c	-0.15093774
139	0xbdb96179	-0.090517946
140	0x3df208e5	0.11818103
141	0xbd49f360	-0.049304366
142	0xbe1f406c	-0.15551919
143	0xbe12cfc0	-0.14337063
144	0xbd87d3e2	-0.0663221
145	0xbdac3035	-0.08407632
146	0xbd95ab0a	-0.07308014
147	0xbc91b9fa	-0.017788876
148	0xbe146de7	-0.1449505
149	0xbcd56f77	-0.026054127
150	0xbe26b703	-0.16280751
151	0xbd045484	-0.032307163
152	0xbca2e438	-0.019884214
153	0xbddef905	-0.108873405
154	0xbdffc4bb	-0.12488695
155	0xbe790de8	-0.24321711
156	0xbe0a944c	-0.13533133
157	0x3ae4abb9	0.0017446197
158	0x3d952158	0.072817504
159	0xbe117fb2	-0.14208868
160	0xbdee12ee	-0.11624704
161	0xbe13eb4e	-0.1444523
162	0xbe639d32	-0.22227934
163	0x3e01e90c	0.12686557
164	0xbd9797d7	-0.07402008
165	0xbe6eb6a0	-0.23311853
166	0xbdf1f224	-0.11813763
167	0xbe3ea59c	-0.18617862
168	0xbd7c647f	-0.061619278
169	0x3e0f97a6	0.14022693
170	0xbd18726b	-0.037218492
171	0x3e217e3e	0.15770814
172	0xbcc6ed47	-0.024283065
173	0xbdec9570	-0.115519404
174	0xbdf31e7d	-0.118710496
175	0xbcf2909e	-0.029609974
176	0xbd9a127b	-0.07523056
177	0xbd8eddb5	-0.06975881
178	0xbe2a494f	-0.16629528
179	0xbdb9700d	-0.09054575
180	0x3cb746a8	0.022372559
181	0x3b8f4bd3	0.0043730526
182	0x3b7404df	0.0037234349
183	0x3d4bb545	0.04973342
184	0x3d93dae9	0.07219488
185	0x3c6ee15f	0.0145801
186	0x3c5959db	0.013266052
187	0xbcc0761d	-0.02349382
188	0xbe0065c5	-0.12538822
189	0xbddf9550	-0.10917151
190	0xbc70fc74	-0.014708627
191	0xbe95cae9	-0.2925637
192	0xbd969699	-0.07352943
193	0xbdba6268	-0.09100801
194	0xbe75a55f	-0.23988865
195	0xbd92f149	-0.07174928
196	0xbdb39885	-0.08769325
197	0x3d91715a	0.07101698
198	0xbd9fd8fb	-0.078050576
199	0xbeaae6cb	-0.33379206
200	0xbe7a3154	-0.2443288
201	0x3d850976	0.06495945
202	0xbe385c3a	-0.18003932
203	0xbde25e6f	-0.11053168
204	0xbd3f8065	-0.046753306
205	0xbda82450	-0.08210051
206	0x3dffee1b	0.12496587
207	0xbd1062b8	-0.035250396
208	0xbd51f5c0	-0.051259756
209	0xbdaac1f8	-0.08337778
210	0x3c50a25c	0.012734022
211	0x3da8a114	0.08233848
212	0xbe9dd834	-0.30829012
213	0xbdb987b6	-0.09059088
214	0xbcde57f9	-0.027141558
215	0xbd81f10b	-0.063448034
216	0xbe060472	-0.13087633
217	0x3d78a486	0.060703777
218	0xbd8b6afb	-0.06807514
219	0xbc65ab78	-0.014017932
220	0xbd9eea43	-0.077595256
221	0xbdadfed4	-0.0849587
222	0x3df11fcf	0.11773645
223	0x3ca6a3e3	0.02034182
224	0xbd86b9ad	-0.065783836
225	0xbda53276	-0.08066265
226	0xbda82efa	-0.08212085
227	0x3c5353f4	0.012898434
228	0xbe767251	-0.24067046
229	0xbd9413ac	-0.072303146
230	0xbcc00af8	-0.02344273
231	0xbd34c3ea	-0.04413215
232	0xbe278c0c	-0.16362017
233	0xbd06588e	-0.032799296
234	0xbe6a1c66	-0.22862396
235	0x3db31109	0.087434836
236	0xbe1f18de	-0.1553683
237	0x3d5dc509	0.054142985
238	0xbd421a16	-0.04738816
239	0xbdfa99cd	-0.122363664
240	0xbb5141f8	-0.003193019
241	0xbc8bc67c	-0.017062418
242	0x3d0043da	0.03131471
243	0x3db8c581	0.09022046
244	0xbd062b5d	-0.0327562
245	0xbe02aec1	-0.12761976
246	0xbce9212d	-0.028458202
247	0x3de3f68d	0.1113101
248	0xbd60a7fa	-0.054847695
249	0xbd92d910	-0.07170308
250	0xbda4d027	-0.080475144
251	0x3d4571f4	0.048204377
252	0xbc0b6e22	-0.008510144
253	0xbe039bb6	-0.12852368
254	0xbe8722c0	-0.263937
255	0xbdbee0e2	-0.09320237

actor.2.weight f4 [256, 256]
0	0x3d912712	0.0708753
1	0xbe7b3cde	-0.24534938
2	0xbd6874ca	-0.056752004
3	0xbf349119	-0.705339
4	0x3db2c4d3	0.087289475
5	0xbe39d47c	-0.18147463
6	0x3e592928	0.21207106
7	0xbde619f9	-0.11235423
8	0xbde646c9	-0.1124397
9	0x3e8d054d	0.27543107
10	0x3c7e862b	0.015534918
11	0xbf8b844d	-1.089975
12	0xbecbb755	-0.3978831
13	0x3e98c820	0.29840183
14	0xbd9d3def	-0.076778285
15	0xbdcb7ced	-0.09935937
16	0x3e047cdb	0.12938254
17	0xbd98ae27	-0.07455092
18	0xbf64b47b	-0.8933789
19	0x3e440202	0.19141391
20	0xbdc0e95f	-0.09419512
21	0xbe6e120c	-0.23249072
22	0xbea9350b	-0.3304828
23	0xbe564924	-0.20926338
24	0x3e6cc198	0.23120725
25	0x3f0b63ba	0.54449046
26	0xbece10f7	-0.40247318
27	0xbf07c6cf	-0.5303773
28	0xbea5b352	-0.32363373
29	0xbeed5423	-0.46353254
30	0xbe19beab	-0.1501414
31	0xbf174dfc	-0.5910337
32	0xbd6e4fd7	-0.05818161
33	0xbdd42a1a	-0.10359593
34	0x3e129fab	0.14318721
35	0x3d4aca50	0.049509346
36	0xbd84d0c4	-0.064851314
37	0x3ec20c55	0.37900034
38	0xbcdda36c	-0.027055465
39	0xbe5fc993	-0.21854238
40	0x3db7701d	0.08956931
41	0xbba8a680	-0.0051468015
42	0xbe1b8d8d	-0.15190716
43	0xbd5d5562	-0.054036506
44	0xbd880fc6	-0.066436335
45	0xbe80cad5	-0.2515475
46	0xbe1b6d44	-0.151784
47	0xbd32f83f	-0.043693777
48	0x3bb4d206	0.005518201
49	0x3b855dd0	0.004070021
50	0xbed6995d	-0.41913882
51	0x3df9ee72	0.12203683
52	0xbde90cbb	-0.11379381
53	0xbd97bd2a	-0.07409127
54	0xbf80d3d5	-1.0064646
55	0x3db4f033	0.08834877
56	0xbd25bf2f	-0.04046553
57	0xbe2290c3	-0.15875535
58	0x3ec11901	0.3771439
59	0xbefde806	-0.49591082
60	0xbe1c76d4	-0.15279704
61	0x3e28b857	0.1647657
62	0x3e3f4d9e	0.18681952
63	0xbec9e858	-0.39435077
64	0xbe9a8f9d	-0.30187693
65	0x3e6362dc	0.2220568
66	0xbf37bb6c	-0.7177036
67	0xbe83fdad	-0.25779477
68	0xbd4d62b6	-0.050142966
69	0xbe127422	-0.14302114
70	0xbebd63cf	-0.3699021
71	0xbd162fc3	-0.036666643
72	0xbd9667ff	-0.073440544
73	0x3e1a47fa	0.1506652
74	0xbc364491	-0.011124746
75	0x3d17ee58	0.037092537
76	0x3e026f75	0.1273783
77	0x3e93d3c1	0.28872493
78	0xbea40749	-0.32036808
79	0x3e07032b	0.13184802
80	0xbe10defe	-0.14147565
81	0x3ebb67eb	0.3660272
82	0xbe2a2c60	-0.1661849
83	0x3dcef544	0.101053745
84	0xbe4cb20d	-0.19989796
85	0x3cfc2c4c	0.030782841
86	0x3d930290	0.07178223
87	0x3e6140bc	0.2199735
88	0x3d3317ec	0.043723986
89	0xbf1cf833	-0.6131622
90	0x3e256a6f	0.16153882
91	0x3e37d1e2	0.17951158
92	0x3e286688	0.16445363
93	0x3e78c4e2	0.24293855
94	0xbf1ffcb3	-0.62494963
95	0xbf4aa468	-0.79157114
96	0xbc602be3	-0.013682338
97	0xbf04cf58	-0.5187888
98	0x3e2db249	0.16962542
99	0x3e816c4d	0.2527794
100	0xbd93004b	-0.0717779
101	0xbe473a3d	-0.1945581
102	0xbd8a3e1f	-0.0675013
103	0xbf0d3a99	-0.5516754
104	0xbee6af86	-0.4505579
105	0xbdd81a03	-0.10551836
106	0x3e18f957	0.14938866
107	0x3e0c1080	0.13678169
108	0xbec33be0	-0.38131618
109	0x3ca81482	0.020517591
110	0xbe0b27a6	-0.13589343
111	0x3e6c60be	0.23083779
112	0x3e12ad61	0.14323951
113	0xbe964274	-0.29347575
114	0x3da35db2	0.07976855
115	0x3e1d1238	0.15338981
116	0x3cbf2b9b	0.023336222
117	0xbd509f96	-0.050933443
118	0x3e214de9	0.15752377
119	0xbd1b7930	-0.03795737
120	0xbf169006	-0.5881351
121	0xbf1e922e	-0.619418
122	0xbe9823a6	-0.29714698
123	0x3cad11d9	0.021126674
124	0x3da4dd94	0.08050075
125	0x3c85f041	0.016349914
126	0xbdaf46b5	-0.08558408
127	0xbed1db06	-0.40987414
128	0xbee0daee	-0.4391703
129	0xbc0a6e1c	-0.008449104
130	0xbdec53db	-0.11539432
131	0x3cbd64d7	0.023119373
132	0xbd9f7c97	-0.077874355
133	0x3e62d43c	0.22151273
134	0xbd304ee0	-0.04304397
135	0xbfb4a6c8	-1.4113398
136	0x3e506d74	0.20354253
137	0xbe78ab4a	-0.24284092
138	0x3dd27232	0.10275687
139	0xbeb991c8	-0.36244035
140	0xbf0e065c	-0.55478454
141	0x3dd07a2c	0.101795524
142	0x3d6d5b7a	0.057948567
143	0xbd255661	-0.04036558
144	0xbe125d46	-0.14293393
145	0x3ea1574a	0.3151191
146	0x3e1ea568	0.15492785
147	0x3d5fd325	0.054644722
148	0x3e233312	0.1593745
149	0xbf14a937	-0.580707
150	0xbe182aaa	-0.14860025
151	0x3ec226ac	0.3792013
152	0x3e365bc1	0.17808439
153	0x3e368249	0.17823137
154	0xbe8b6f4a	-0.27233344
155	0x3e7ded86	0.24797639
156	0x3e700e2f	0.2344291
157	0xbe7771f3	-0.24164562
158	0x3d7e865b	0.06213985
159	0x3afd4507	0.001932294
160	0xbd2582e1	-0.04040802
161	0x3e80022e	0.25001663
162	0x3d93d473	0.07218256
163	0xbabb4c98	-0.0014289794
164	0xbc9095f8	-0.017649636
165	0xba4c4475	-0.00077921833
166	0xbe14e8d5	-0.14541943
167	0xbb82d850	-0.0039930716
168	0x391d8ce6	0.00015025176
169	0xbe9a9b4a	-0.301966
170	0xbd6a449c	-0.057194337
171	0xbf226a69	-0.6344362
172	0x3c8c6fed	0.017143214
173	0x3e42e050	0.19030881
174	0xbe97c35a	-0.2964123
175	0xbe3d1eb2	-0.1846874
176	0x3e8a5ec4	0.27025425
177	0x3d23e2a5	0.040011067
178	0x3db3cf6a	0.087797955
179	0x3cd36fd4	0.02581016
180	0xbd468e1e	-0.048475377
181	0xbeaece12	-0.34141594
182	0x3e9cbb70	0.30611753
183	0xbeab062e	-0.33403152
184	0xbdaa629b	-0.08319589
185	0xbcbee023	-0.023300236
186	0x3d24eb67	0.04026356
187	0xbe011b11	-0.12607981
188	0x3dd067ea	0.1017607
189	0x3dec9c87	0.11553293
190	0x3da560ae	0.08075081
191	0xbe85c70a	-0.26128417
192	0x3d8c2d81	0.06844617
193	0x3e32d2fe	0.174633
194	0xbe3dd134	-0.18536836
195	0xbebcd99a	-0.36884767
196	0xbd2c153d	-0.042012442
197	0xbb581563	-0.0032971732
198	0xbc49f950	-0.012327507
199	0x3e6c89b6	0.23099408
200	0x3e7cf9a5	0.24704607
201	0x3e02b1f1	0.12763192
202	0xbe204b96	-0.15653834
203	0xbe41a8f7	-0.18912111
204	0xbcc20d9b	-0.023688128
205	0x3e71601a	0.23571816
206	0xbe40bd5c	-0.18822235
207	0xbe4f5d30	-0.20250392
208	0xbf942bb4	-1.1575837
209	0x3eb470aa	0.35242206
210	0x3d2020d0	0.039093792
211	0xbeccabc4	-0.39974797
212	0x3b51ffcf	0.0032043343
213	0xbeb008c9	-0.34381703
214	0x3ec21174	0.3790394
215	0xbc9859c1	-0.018597485
216	0xbd4c2e74	-0.04984899
217	0xbf2a71f7	-0.66580147
218	0xbea1a444	-0.31570637
219	0xbee02d95	-0.43784776
220	0x3e46cc02	0.1941376
221	0xbda151a0	-0.07876897
222	0xbde7cac3	-0.113179706
223	0xbe86a1b3	-0.26295242
224	0x3eaf87e8	0.34283376
225	0x3e68dc32	0.22740248
226	0x3d2992c0	0.041399717
227	0xbdedb11b	-0.11606046
228	0x3e3c1d03	0.18370442
229	0xbed0c61c	-0.40776145
230	0x3e8cdfdc	0.2751454
231	0xbf033a6b	-0.51261014
232	0x3e6cc49b	0.23121874
233	0x3d4cad55	0.04996999
234	0x3d416717	0.047217455
235	0xbea9351a	-0.33048326
236	0xbe895f1b	-0.26830372
237	0xbe7a9af2	-0.2447317
238	0x3e4a7ee6	0.1977497
239	0xbd2aa98a	-0.04166559
240	0xbeb25e05	-0.34837356
241	0xbd85b190	-0.06528008
242	0xbf02ec50	-0.51141834
243	0x3ea5ea3c	0.3240527
244	0x3cf62ae1	0.030049743
245	0x3e1ceb3d	0.15324111
246	0xbf191f50	-0.59813404
247	0x3c98a52f	0.018633453
248	0x3e5efb5f	0.21775578
249	0xbea5bef6	-0.32372254
250	0xbf1bb1cd	-0.6081818
251	0xbdd26054	-0.102722794
252	0x3d0913de	0.033466212
253	0x3d9d9e24	0.076961786
254	0x3d5c4cee	0.053784303
255	0xbe2821eb	-0.16419189

actor.2.bias f4 [256]
0	0xbcfb6d2c	-0.030691706
1	0xbd474490	-0.04864937
2	0xbe38f9e3	-0.18064074
3	0x3ca11733	0.019664383
4	0xbd299d05	-0.04140951
5	0xbdcdeaf1	-0.10054577
6	0x3d0a0f90	0.033706248
7	0x3dbe3d98	0.09289092
8	0xbd02ab65	-0.031901736
9	0xbcd61ff1	-0.026138278
10	0x3dd3cfde	0.10342382
11	0xbe090249	-0.13379778
12	0xbd7edafb	-0.062220555
13	0xbdbecd4e	-0.093165025
14	0xbe1c407b	-0.15258972
15	0xbc94bbe6	-0.018156003
16	0xbd776623	-0.06040014
17	0xbd473799	-0.048637006
18	0xbe85a712	-0.26104027
19	0xbdbe2b36	-0.092855856
20	0xbe0885f8	-0.13332355
21	0x3e100d92	0.14067677
22	0x3e5ac27c	0.21363252
23	0xbd6eba82	-0.058283336
24	0xbe0ee483	-0.13954358
25	0xbe5d6061	-0.21618797
26	0x3da8cb95	0.08241955
27	0x3d236cb4	0.03989859
28	0xbd65585e	-0.055992477
29	0x3d75bd70	0.059995115
30	0x3e013d04	0.12620932
31	0xbdcfa04b	-0.10137995
32	0xbe6c352e	-0.23067161
33	0xbc9c06d5	-0.019046227
34	0xbe2b0953	-0.16702776
35	0xbd94b8a4	-0.0726178
36	0xbd2457dd	-0.040122855
37	0xbdc12fc4	-0.09432939
38	0xbbac57fc	-0.005259512
39	0xbcebcd7c	-0.028784506
40	0x3c7c443c	0.015397128
41	0xbe8125de	-0.25224203
42	0xbb86436c	-0.004097393
43	0xbd89bcd5	-0.0672547
44	0xbe44390b	-0.19162385
45	0xbdb5f5ae	-0.0888475
46	0xbcfae738	-0.030627832
47	0x3e54a368	0.2076546
48	0xbc8200d8	-0.015869543
49	0xbd572278	-0.052523106
50	0xbd9dcf82	-0.077055946
51	0xbe470ed6	-0.19439253
52	0x3d1457a6	0.0362164
53	0x3e6efd98	0.23338926
54	0xbd9a9855	-0.07548586
55	0xbe227045	-0.1586314
56	0x3d940754	0.0722796
57	0x3ec474de	0.38370413
58	0x3dd477b2	0.103743926
59	0x3da13570	0.078715205
60	0xbc0e44c1	-0.008683384
61	0x3cf555d4	0.029948153
62	0xbe1dbe73	-0.15404682
63	0xbea032c4	-0.3128873
64	0xbdcc4c70	-0.09975517
65	0x3df108ce	0.117692575
66	0xbdd1b741	-0.10240031
67	0xbda50fa2	-0.08059622
68	0x3d7392b9	0.059466098
69	0x3e169752	0.14706162
70	0x3e9951e1	0.2994528
71	0x3e358be3	0.17729144
72	0x3e516988	0.20450413
73	0x3c465a7e	0.012106536
74	0xbe08970b	-0.13338868
75	0xbde31078	-0.110871255
76	0x3e04a1dd	0.12952371
77	0xbe5f7ead	-0.21825667
78	0xbdb36899	-0.08760185
79	0xbcd7e7e1	-0.026355686
80	0xbe91b20d	-0.28456154
81	0xbe42f0cd	-0.1903717
82	0xbdfe60a3	-0.12420776
83	0xbe13856e	-0.14406368
84	0xbe037029	-0.12835754
85	0x3cea9f19	0.028640317
86	0xbe08dee6	-0.13366279
87	0xbe91ad77	-0.28452656
88	0x3db2922f	0.087192886
89	0x3e4047cf	0.18777393
90	0x3db69a2c	0.08916125
91	0xbc80c167	-0.015717221
92	0x3cf6b925	0.03011758
93	0x3df2d423	0.11856868
94	0xbe3e1046	-0.18560895
95	0x3e5fffc1	0.21874906
96	0x3d4928c3	0.04911114
97	0xbda17e38	-0.078854024
98	0xbdb8a0cd	-0.09015045
99	0xbddf6e3e	-0.10909699
100	0xbdaa390c	-0.08311662
101	0x3e0018d3	0.1250947
102	0x3be1f540	0.006895691
103	0xbdfc485c	-0.12318489
104	0xbb9bd7b1	-0.004755937
105	0x3d8cbe95	0.06872288
106	0xbe5cf5d4	-0.21578151
107	0xbd4d674a	-0.050147332
108	0x3e2a934e	0.16657755
109	0x3e4ef85d	0.2021193
110	0xbd8837c4	-0.066512614
111	0x3deda2d5	0.11603323
112	0xbe0083ed	-0.12550326
113	0xbe48662d	-0.19570227
114	0xbe2b5b0a	-0.16733947
115	0xbe13d905	-0.14438255
116	0x3de80765	0.113295354
117	0xbcdbb601	-0.026820185
118	0xbd39f3dc	-0.045398578
119	0xbd048f22	-0.032363065
120	0xbdc357aa	-0.09538205
121	0x3e13eaea	0.14445081
122	0xbe1c21c1	-0.15247251
123	0x3e02e6db	0.12783377
124	0xbe2909b8	-0.16507614
125	0xbe696bec	-0.22795075
126	0xbdb4fca2	-0.088372484
127	0x3dbbd018	0.0917055
128	0xbdaa3b8c	-0.08312139
129	0xbe0bc17e	-0.1364803
130	0xbe3238da	-0.174045
131	0xbdafa164	-0.08575705
132	0xbdb6e701	-0.08930779
133	0x3e3f1f11	0.18664195
134	0x3df20b9a	0.11818619
135	0x3dc8ac0b	0.097984396
136	0xbe95b61f	-0.2924051
137	0xbdb83ae9	-0.08995611
138	0x3e150600	0.1455307
139	0xbe039128	-0.12848341
140	0xbd3121e8	-0.043245226
141	0x3e02c048	0.12768662
142	0xbcd67eec	-0.026183568
143	0xbde3448d	-0.110970594
144	0xbe087e59	-0.13329448
145	0xbe2d791d	-0.16940732
146	0x3e040909	0.12894072
147	0xbe1c6639	-0.1527337
148	0xbd164af9	-0.036692593
149	0xbe2737af	-0.16329835
150	0x3c5c7577	0.01345574
151	0x3d641890	0.055687487
152	0xbe30321d	-0.17206617
153	0xbe66b3ed	-0.22529574
154	0xbe08332c	-0.1330077
155	0x3a806fca	0.0009798941
156	0xbd515324	-0.05110468
157	0xbd2f3a51	-0.042780224
158	0x3f1d329b	0.6140534
159	0xbdba96dd	-0.09110806
160	0xbc63f7fe	-0.013914106
161	0xbdc35657	-0.095379524
162	0xbe003fce	-0.1252434
163	0xbe8e50f9	-0.27796152
164	0x3d0c859e	0.034307115
165	0xbca61349	-0.020272868
166	0x3e09ca6f	0.13456129
167	0xbd9c1ecf	-0.07623064
168	0xbda9159b	-0.08256074
169	0x3e842311	0.25808004
170	0x3ddfbcc2	0.109246746
171	0xbdacfdef	-0.084468715
172	0xbd8202ba	-0.06348176
173	0x3d45208b	0.04812674
174	0x3d6ae49a	0.057346918
175	0xbda67b67	-0.08129006
176	0xbe2c9faf	-0.1685779
177	0xbd0c0c81	-0.034191612
178	0xbd58faf1	-0.05297369
179	0xbda29280	-0.07938099
180	0x3e44a66a	0.19204107
181	0x3d2d2b39	0.04227755
182	0xbe2ee135	-0.17078097
183	0xbdbec5cd	-0.09315071
184	0xbe05cc0b	-0.13066117
185	0xbe26974a	-0.1626865
186	0x3c285fd5	0.010276754
187	0xbe267a82	-0.1625767
188	0xbd6ac576	-0.05731722
189	0xbc2168c6	-0.00985164
190	0x3de64f34	0.112455755
191	0x3da87fa8	0.082274735
192	0xbdfe6372	-0.124213114
193	0xbe10bc37	-0.14134298
194	0xbde641cd	-0.11243019
195	0xbda9a32d	-0.082830764
196	0xbc28476c	-0.010270935
197	0xbc721b6c	-0.014777046
198	0xbe22efdd	-0.15911813
199	0x3c4050ac	0.011737984
200	0xbe11c7c7	-0.14236365
201	0x3dbe46e4	0.09290865
202	0xbe2901c3	-0.16504578
203	0xbe6b4b30	-0.229779
204	0xbd98eef6	-0.07467453
205	0xbe85e84d	-0.26153794
206	0x3b33d9fd	0.0027443164
207	0xbce9d744	-0.02854503
208	0xbddb8586	-0.10718827
209	0x3e04246e	0.12904522
210	0xbd99f427	-0.075172715
211	0xbd49d9e3	-0.04928006
212	0xbe5f05d8	-0.21779573
213	0xbe7971cd	-0.24359818
214	0xbe695d7c	-0.22789568
215	0xbd1b79b1	-0.03795785
216	0xbd83cf8c	-0.06436071
217	0x3db54926	0.088518426
218	0xbdb097c7	-0.08622699
219	0xbde95f3e	-0.11395119
220	0x3d48df5b	0.049041133
221	0xbdcea04c	-0.10089168
222	0xbdd4c2e7	-0.10388737
223	0x39d68948	0.00040919543
224	0x3b3e355d	0.0029023506
225	0xbe45e53a	-0.19325724
226	0x3c452844	0.012033526
227	0x3e0ccc95	0.13749917
228	0x3d7f4258	0.06231913
229	0xbcc399ff	-0.023877142
230	0xbe28954d	-0.16463204
231	0xbd86310b	-0.06552323
232	0x3c7129ee	0.0147194695
233	0xbdff303b	-0.12460371
234	0xbda544a7	-0.08069735
235	0xbe5c32eb	-0.21503799
236	0x3d7ca1b7	0.06167766
237	0xbd05f63e	-0.032705538
238	0xbdc90993	-0.09816279
239	0xbc25a3b3	-0.01010983
240	0xbdb5587d	-0.088547684
241	0xbd059f0d	-0.032622386
242	0xbd2e9bf4	-0.042629197
243	0x3d8c5769	0.0685261
244	0xbd6d47f3	-0.057929944
245	0xbde3b316	-0.11118142
246	0x3e2b18bc	0.16708654
247	0x3a8f6e4b	0.0010942904
248	0xbd61dd36	-0.055142604
249	0xbe8e7bcd	-0.27828828
250	0x3e8b24fc	0.27176654
251	0xbe112297	-0.14173351
252	0xbdd3da81	-0.10344411
253	0xbe14ebff	-0.1454315
254	0xbda4e3c8	-0.08051258
255	0xbbc53247	-0.0060179564

actor.4.weight f4 [8, 256]
0	0x3ee28c8a	0.44247848
1	0xbe6a03a3	-0.2285295
2	0xbf2a239d	-0.6646059
3	0x3c9810af	0.018562643
4	0xbdbe2065	-0.092835225
5	0x3d6fcd56	0.058545433
6	0x3e948369	0.29006508
7	0x3db39e58	0.08770436
8	0x3e9fcaf9	0.31209543
9	0x3e9d962a	0.3077863
10	0x3f33acb6	0.7018541
11	0xbed505d4	-0.4160601
12	0xbe32e482	-0.17469981
13	0xbe74eb33	-0.23917846
14	0xbe85e2f7	-0.26149723
15	0xbdbb9911	-0.091600545
16	0xbe045f10	-0.12926888
17	0x3d92d1fc	0.071689576
18	0x3e63c36b	0.22242515
19	0x3ea674ff	0.32511136
20	0xbe85d13b	-0.26136193
21	0xbe2d1d9d	-0.16905828
22	0xbd856028	-0.06512481
23	0x3dc87aaf	0.09789025
24	0x3f0d0142	0.55080044
25	0xbe15e54a	-0.14638248
26	0xbdc02526	-0.093820855
27	0xbd861489	-0.065468855
28	0xbe33e013	-0.17565946
29	0x3f8f6f41	1.1205827
30	0xbedecb8d	-0.43514672
31	0x3ea25697	0.31706688
32	0xbf00cb0a	-0.50309813
33	0x3d4a6e25	0.04942145
34	0xbf083615	-0.5320752
35	0xbee36457	-0.4441249
36	0xbeb83e08	-0.35984826
37	0xbeec15c6	-0.46110362
38	0x3ee3b5ab	0.4447454
39	0xbe1e8c85	-0.15483291
40	0xbe3fea16	-0.1874164
41	0x3e00530e	0.12531683
42	0x3e9de12e	0.3083586
43	0x3b93c34b	0.0045093647
44	0x3d5fea85	0.054667015
45	0x3dcac490	0.099007726
46	0x3db0dbcd	0.08635674
47	0x3e777e75	0.24169333
48	0x3d87f754	0.06638971
49	0x3dbcbd9c	0.092158526
50	0xbf41d008	-0.75708055
51	0x3f2ebe7b	0.682594
52	0x3e42ad2b	0.19011371
53	0x3ed856ca	0.42253715
54	0xbe5ea9a1	-0.21744396
55	0xbd89d988	-0.06730944
56	0xbe496b45	-0.19669826
57	0xbf245c65	-0.6420348
58	0x3d8a45e7	0.06751614
59	0x3e013078	0.12616146
60	0x3f042bd7	0.51629394
61	0x3e2e5153	0.1702321
62	0x3e4c91d5	0.19977506
63	0xbf32251e	-0.69587886
64	0xbe9c8e6b	-0.30577406
65	0x3f46cf0a	0.77659667
66	0xbeb851d3	-0.35999927
67	0x3f320da5	0.6955207
68	0xbfe6db47	-1.8035668
69	0xbfb964b3	-1.4483856
70	0xbeaedbd1	-0.34152082
71	0xbf024ac1	-0.50895315
72	0x3f9249d1	1.1428777
73	0x3d95286b	0.072831
74	0xbe3e712f	-0.18597864
75	0x3eb3b502	0.35099036
76	0xbee5771b	-0.44817433
77	0xbe938318	-0.28810954
78	0x3dee813c	0.11645743
79	0x3e9ffae5	0.31246105
80	0xbf16a555	-0.58846027
81	0x3f25cd9c	0.6476686
82	0x3f227751	0.6346331
83	0xbe926731	-0.28594354
84	0x3f44527b	0.76688355
85	0xbdf8ff1d	-0.12158034
86	0xbf53edc7	-0.82784694
87	0xbf7d552a	-0.98958075
88	0x3e3ebe07	0.18627177
89	0xbf05311e	-0.5202807
90	0xbde75d04	-0.11297038
91	0xbe3dd5c1	-0.18538572
92	0xbfc3bdb3	-1.5292267
93	0xbe1fc39c	-0.15601963
94	0xbe8f7409	-0.28018215
95	0x3f42cb38	0.7609134
96	0xbe01f3f3	-0.12690715
97	0x3cb0ef64	0.021598525
98	0x3d366689	0.04453138
99	0xbe56741f	-0.20942734
100	0xbf245226	-0.6418785
101	0xbe5d21b6	-0.21594891
102	0x3e69eec9	0.22844996
103	0xbf3f669d	-0.7476595
104	0xbe12bde5	-0.14330252
105	0xbf01e1d5	-0.5073522
106	0xbe5f06d9	-0.21779956
107	0x3b394aeb	0.0028273414
108	0x3cd93ba7	0.026517702
109	0x3eb37ccc	0.3505615
110	0xbe10d80f	-0.1414492
111	0xbeafd923	-0.3434535
112	0xbf31fd10	-0.6952677
113	0x3dfa2d93	0.12215724
114	0xbdbd294d	-0.09236393
115	0xbf860c7c	-1.047256
116	0x3e85e874	0.2615391
117	0xbe30eabc	-0.17277044
118	0x3f887a5e	1.0662344
119	0x3d147625	0.036245484
120	0x3f0e01d9	0.5547157
121	0xbd42b2f4	-0.047533944
122	0x3ed539c1	0.41645625
123	0x3e762d03	0.24040608
124	0x3dfc35d5	0.12314955
125	0xbddc4fc0	-0.107573986
126	0x3fa2606a	1.2685673
127	0x3d4ab1a6	0.049485825
128	0xbf3a73f6	-0.7283319
129	0xbf21e552	-0.6324054
130	0xbf02d3be	-0.5110434
131	0x3ea2379e	0.31683058
132	0xbdc6da1c	-0.0970957
133	0x3d53366a	0.051565565
134	0xbe2cd66d	-0.16878672
135	0xbceb1d6f	-0.028700558
136	0x3db12472	0.086495295
137	0xbe48feb9	-0.19628419
138	0xbe7abaf3	-0.24485378
139	0x3e9575c5	0.29191414
140	0xbdc3eeb1	-0.09567011
141	0x3ea99712	0.3312307
142	0x3adc16e5	0.0016791491
143	0xbe93f028	-0.28894162
144	0xbf043c7a	-0.5165478
145	0xbe5bb484	-0.2145558
146	0xbf1303ba	-0.5742756
147	0x3eaa250f	0.33231398
148	0xbd448e18	-0.047987074
149	0xbe566fdb	-0.20941107
150	0x3ec43ec3	0.38329133
151	0xbe533abe	-0.20627877
152	0x3edf3084	0.43591702
153	0x3f140978	0.5782695
154	0xbc477903	-0.012174848
155	0x3ea8acde	0.32944387
156	0x3efb8689	0.4912608
157	0x3cdb8cce	0.02680054
158	0x3c1b9013	0.009494799
159	0x3eaae452	0.3337732
160	0xbe1048e8	-0.14090312
161	0x3cfb1a8f	0.030652313
162	0x3f106208	0.56399584
163	0xbe83d3ca	-0.2574752
164	0xbd8e0ad6	-0.069356605
165	0xbd512824	-0.05106367
166	0x3daf6e41	0.08565951
167	0xbeebd70a	-0.460625
168	0x3ee5ec76	0.44906968
169	0x3f690b9e	0.9103335
170	0xbecd2205	-0.40065017
171	0xbd06be1a	-0.03289614
172	0x3e91dc2d	0.28488293
173	0x3e82ac51	0.25522092
174	0x3ef4e1cd	0.47828522
175	0x3bb12d1f	0.00540699
176	0x3d131735	0.035910804
177	0x3ddcc3e4	0.10779551
178	0xbf5d5e2b	-0.86471814
179	0x3e7ad709	0.24496092
180	0xbdc60da1	-0.09670568
181	0xbed0ed4f	-0.40806052
182	0xbf131715	-0.57457095
183	0x3e2c3a74	0.16819173
184	0xbde4daea	-0.11174567
185	0xbf83a001	-1.0283204
186	0xbe76c1ef	-0.24097417
187	0xbf6b1215	-0.91824466
188	0xbdefc485	-0.11707405
189	0x3eee72ae	0.4657187
190	0xbef65f2c	-0.48119485
191	0x3f1a280c	0.60217357
192	0xbf401aba	-0.7504078
193	0x3f4ecb7c	0.8077924
194	0xbed98a75	-0.42488447
195	0x3f1cdd08	0.61274767
196	0xbed6c8f1	-0.4195018
197	0xbec09f2d	-0.3762144
198	0x3eaf17ce	0.3419785
199	0x3f0d0758	0.5508933
200	0x3f2d25eb	0.67635983
201	0x3f8d13f1	1.1021711
202	0xbf606fd5	-0.8767064
203	0xbf17348c	-0.59064555
204	0x3e0e0d0e	0.13872167
205	0xbec21e3f	-0.379137
206	0x3d048175	0.032350022
207	0x3e45bf7c	0.19311327
208	0xbf3e2997	-0.7428221
209	0x3f055fce	0.5209931
210	0x3ecadfd1	0.39623883
211	0x3e28249b	0.16420214
212	0xbe50101f	-0.2031865
213	0x3fa94899	1.322528
214	0xbeee481c	-0.4653939
215	0xbc30c8bd	-0.010790047
216	0x3d9b2be3	0.0757673
217	0x3e18a163	0.14905314
218	0x3dedcc15	0.11611191
219	0x3d97d973	0.07414522
220	0x3e81075e	0.25200933
221	0x3f667a03	0.90029925
222	0x3f543917	0.8289961
223	0x3eab9b58	0.33516955
224	0x3f6de8f1	0.92933565
225	0x3f4d45ab	0.8018443
226	0xbf300af6	-0.68766725
227	0xbe6921f9	-0.22766866
228	0xbebc3c32	-0.36764675
229	0xbeb0a1ea	-0.3449853
230	0xbc00843f	-0.00784403
231	0x3d70d913	0.058800768
232	0x3e11917f	0.14215659
233	0xbe8bf01a	-0.2733162
234	0x3e1081ee	0.14112064
235	0xbde352b0	-0.11099756
236	0x3ef01bda	0.4689625
237	0xbeb1f3f0	-0.34756422
238	0x3ec3b3d2	0.3822313
239	0xbbf1f897	-0.0073843705
240	0xbd9f3642	-0.07774021
241	0xbf00d1c9	-0.50320107
242	0xbe64e956	-0.22354636
243	0x3f11eea2	0.5700475
244	0x3d4a3e9d	0.04937612
245	0xbf6a552d	-0.9153622
246	0xbfb4845b	-1.4102892
247	0x3eff0aa8	0.49812818
248	0xbee7d7f4	-0.45281947
249	0xbde457c8	-0.111495554
250	0xbe842134	-0.25806582
251	0x3f50c343	0.81547946
252	0x3edd7f99	0.43261412
253	0x3f7db18e	0.9909905
254	0x3ebab8d3	0.36469135
255	0xbd62edfe	-0.05540275

actor.4.bias f4 [8]
0	0x3e0da20d	0.13831349
1	0xbdfb215e	-0.12262224
2	0xbdd4c384	-0.10388854
3	0x3da3b8bd	0.079942204
4	0xbfad42e6	-1.3536041
5	0xbf90bcca	-1.1307614
6	0xbfa08e57	-1.2543439
7	0xbfaf73f3	-1.370726

q1.0.weight f4 [256, 28]
0	0x3d4364e4	0.04770364
1	0x3e2ece0a	0.17070785
2	0xbe25c571	-0.16188599
3	0x3e39bbd0	0.18138051
4	0x3e250076	0.16113457
5	0x3dcb2127	0.09918433
6	0x3d940f2f	0.072294585
7	0x3ad3e743	0.0016166944
8	0xbe203916	-0.15646777
9	0xbd8f0761	-0.06983829
10	0xbcf69387	-0.030099643
11	0x3b454879	0.0030103012
12	0x3d6223c9	0.05520991
13	0xbcd2a783	-0.025714641
14	0xbe468a97	-0.19388805
15	0xbe3bc01a	-0.18335
16	0xbea4e674	-0.32207072
17	0xbe95a2fa	-0.29225904
18	0xbe18c226	-0.14917812
19	0xbe77ce39	-0.24199761
20	0xbe96031a	-0.2929924
21	0xbe8d3216	-0.27577275
22	0xbe279afa	-0.16367713
23	0xbdcb00cf	-0.099122636
24	0x3d854da6	0.06508951
25	0x3dc2f492	0.09519304
26	0xbdea040e	-0.114265546
27	0xbc66de93	-0.014091152
28	0x4090331c	4.506239
29	0x418e1507	17.760267
30	0x3fcc782f	1.5974177
31	0xc0fc32ea	-7.881215
32	0x3fa5e0f4	1.2959275
33	0xbeeba2c4	-0.46022618
34	0xc03060c9	-2.7559073
35	0xbfd9d350	-1.7017612
36	0x3e81326b	0.25233778
37	0xbf80a7d0	-1.0051212
38	0x3f5280d0	0.822278
39	0xbf2ee46d	-0.683173
40	0x3e827b57	0.25484726
41	0xc003bbd6	-2.0583396
42	0xbf856cba	-1.0423806
43	0xbf9c75ec	-1.2223487
44	0xbf8dc4a6	-1.1075637
45	0xbfa8a1d2	-1.3174384
46	0xbfb79416	-1.4342067
47	0xbfbf77dd	-1.4958454
48	0xbfbb3c54	-1.4627786
49	0xbf81c104	-1.0137029
50	0xbec4eda8	-0.38462567
51	0xbf115db9	-0.56783634
52	0xbe2b4e66	-0.16729125
53	0x3fb9b4a7	1.4508256
54	0x3ef9ab34	0.4876343
55	0xbfa8a613	-1.3175682
56	0x3f1bd441	0.6087075
57	0xbfe6de85	-1.8036658
58	0xc0e269be	-7.075408
59	0xc03ff9eb	-2.9996288
60	0x40233f80	2.5507507
61	0xbf886e60	-1.0658684
62	0x40140af6	2.313169
63	0xbf1a2abd	-0.60221463
64	0x3ec41104	0.38294232
65	0xc0c3aa9e	-6.1145773
66	0x40216edf	2.522392
67	0xbf3a997a	-0.72890437
68	0x3df05702	0.117353454
69	0x3e99d6b9	0.30046633
70	0xbecfa58e	-0.40555996
71	0xbed3e23b	-0.41383538
72	0xbe5eeaaf	-0.21769212
73	0xbec727a4	-0.3889743
74	0xbea9af01	-0.3314133
75	0xbef0a125	-0.46997944
76	0xbed8f27e	-0.42372507
77	0xbee42d4e	-0.44565815
78	0xbdd27395	-0.10275952
79	0x3e74f395	0.23921044
80	0x3e9eaf97	0.3099334
81	0x3ec6909e	0.3878221
82	0xbeadeae4	-0.3396827
83	0x3ead597e	0.3385734
84	0xc01faa57	-2.4947717
85	0xc0c7d1fe	-6.244384
86	0x3fbb9558	1.4654951
87	0x3fa69a02	1.301575
88	0xbfbc9705	-1.4733588
89	0xbf0ded3f	-0.55440134
90	0xbf6e5823	-0.93103236
91	0x3d5db82a	0.05413071
92	0xbee6b5a5	-0.4506046
93	0x3f1f50d9	0.6223274
94	0x3e4bf8c0	0.1991911
95	0x3f456c6b	0.7711856
96	0xbe0c6c5b	-0.1371321
97	0x3db34de6	0.08755092
98	0xbfb85acf	-1.4402713
99	0xbf9c3e5f	-1.2206534
100	0xbf77ca4d	-0.9679306
101	0xbef5d62b	-0.4801496
102	0x400944d2	2.1448255
103	0x404c8b7f	3.1960142
104	0x3d9841da	0.07434435
105	0xbf32056d	-0.6953953
106	0xbf68ae2b	-0.9089076
107	0x3f61c3c7	0.8818936
108	0x3bb026b7	0.005375709
109	0x3e9b4132	0.30323178
110	0x3e41679c	0.1888718
111	0xbdcc8f0b	-0.09988221
112	0x3d1f9b03	0.03896619
113	0x3d092f78	0.033492535
114	0xbe811ded	-0.25218144
115	0x3e55aefd	0.20867534
116	0x3d8e62f7	0.0695247
117	0x3b166917	0.0022950822
118	0xbdacb25c	-0.08432457
119	0xbdcc580b	-0.0997773
120	0xbd0d4ff4	-0.034500077
121	0x3e1a02b2	0.1504009
122	0xbd1cf508	-0.038319618
123	0x3c18c0f5	0.009323348
124	0x3d2e6c74	0.042583898
125	0x3d6e7a2f	0.058221992
126	0xbefe16a9	-0.49626663
127	0xbef89a02	-0.48555
128	0xbea65ae8	-0.3249123
129	0xbee0e630	-0.4392562
130	0xbe9d0272	-0.30665928
131	0xbefcd157	-0.49378464
132	0xbe8f603f	-0.28003117
133	0xbecfeaf3	-0.4060894
134	0xbeb7b8d4	-0.358832
135	0xbebf957a	-0.3741873
136	0x3de6a07b	0.11261078
137	0xbd7edace	-0.062220387
138	0x3d63128d	0.055437613
139	0xbcbdebd7	-0.023183746
140	0xbf8fb0c7	-1.1225823
141	0x412d8286	10.844366
142	0x401e1995	2.4703114
143	0xbf54dcf0	-0.83149624
144	0x3f0522a5	0.5200599
145	0xc0121511	-2.2825358
146	0xc0211b3f	-2.517288
147	0x4025347c	2.5813284
148	0x3f9ae94e	1.2102449
149	0xbf30e3a1	-0.69097334
150	0x40574645	3.363664
151	0xc0525383	-3.2863472
152	0x3f9a7112	1.2065756
153	0x3fb1b4cb	1.3883299
154	0xbfe36857	-1.7766217
155	0xbffc301d	-1.9702183
156	0xc006fac0	-2.1090546
157	0xc00de25a	-2.2169404
158	0xc00bcaaa	-2.1842446
159	0xbff3d985	-1.9050757
160	0xbfe2633c	-1.7686534
161	0xbf48f008	-0.7849126
162	0xbee82583	-0.4534112
163	0xbfb45635	-1.4088808
164	0x408702d6	4.219096
165	0x3fb8e2cc	1.4444213
166	0x400f72c1	2.241379
167	0x3f396275	0.7241586
168	0x40d56e50	6.669716
169	0x3f4ef0e9	0.8083635
170	0x3f81e5c0	1.0148239
171	0x3fef984e	1.8718355
172	0x3d4158e6	0.04720392
173	0xbfa4a451	-1.2862645
174	0xbfaafb1b	-1.3357881
175	0xbf203b3b	-0.6259038
176	0xbd410cfe	-0.04713153
177	0xbf81fc8e	-1.0155199
178	0x40688ba3	3.6335227
179	0xbf5eda5d	-0.87051946
180	0xbfdcab77	-1.7239827
181	0x40831f5a	4.097577
182	0xbf834738	-1.0256109
183	0xbfa31c34	-1.2742982
184	0xbfa96530	-1.3234005
185	0xbf9f6acc	-1.2454467
186	0xbf9fe61f	-1.2492102
187	0xbfa9a8d5	-1.3254648
188	0xbfa23561	-1.267254
189	0xbfb00dee	-1.3754251
190	0xbf98ead4	-1.1946664
191	0xbfea0d2c	-1.828527
192	0x3e202073	0.15637378
193	0x3f52ab4a	0.82292616
194	0xc02c97fb	-2.6967762
195	0xbf2d3bad	-0.67669183
196	0xc102cb7b	-8.174678
197	0xc081e08a	-4.0586596
198	0x40ee28ef	7.442497
199	0xc0c88a1d	-6.2668595
200	0xbf94120e	-1.156801
201	0x3c751cc6	0.014960473
202	0xbf964f6f	-1.1742991
203	0x3c284b19	0.010271811
204	0x3d845c40	0.06462908
205	0xc0397300	-2.897644
206	0x3c7dddc2	0.015494766
207	0xc030728b	-2.7569911
208	0x3f167bb0	0.5878248
209	0x3e243623	0.16036277
210	0xbf95b00a	-1.1694348
211	0xbfabdad0	-1.3426151
212	0xbfbadb7b	-1.459823
213	0xbfce7049	-1.6128017
214	0xbfeccdfe	-1.8500364
215	0xc0080e86	-2.1258864
216	0xc00a9d36	-2.1658454
217	0xc0009e5e	-2.009666
218	0x3d3218fe	0.043480866
219	0x3f67e364	0.90581346
220	0x3de9a199	0.114077754
221	0xbd175f73	-0.03695626
222	0xbccb8cef	-0.024847476
223	0xbe833d3b	-0.25632653
224	0x3fe8d540	1.8190079
225	0x3ffa6961	1.9563409
226	0x4084dbf2	4.151849
227	0x3f9e1a0d	1.23517
228	0xc02bf927	-2.687082
229	0xbf9f1357	-1.2427777
230	0x3e799fe5	0.24377401
231	0x3f304a8f	0.6886377
232	0xc03ac788	-2.9184284
233	0xbf5d83e8	-0.865294
234	0xbeaf33aa	-0.34219104
235	0xc049be6f	-3.1522481
236	0x3d96d287	0.07364374
237	0x3f55a2ef	0.8345174
238	0xbfe4d41f	-1.7877234
239	0xc0001ffe	-2.0019526
240	0xbffeaff8	-1.9897451
241	0xbff6013c	-1.9219127
242	0xc00066fa	-2.0062852
243	0xbffb4548	-1.9630518
244	0xbfa18c83	-1.2621006
245	0xbe238b30	-0.15971065
246	0x3e624a0a	0.22098556
247	0xbf39d0f1	-0.72584444
248	0xbe96dea4	-0.29466736
249	0x3fa99a4e	1.3250215
250	0xbf76614d	-0.9624222
251	0x3f956900	1.1672668
252	0x3e388768	0.18020403
253	0x4081ed7f	4.060241
254	0xc0018945	-2.0240033
255	0xbfbea033	-1.4892639

q1.0.bias f4 [256]
0	0xbe3f8eb5	-0.18706782
1	0xbf906d8a	-1.1283429
2	0x3f2ea496	0.6821989
3	0x3fb75369	1.432233
4	0xbe95f0d1	-0.2928529
5	0xbfcc5cfe	-1.5965879
6	0xbfecf17e	-1.8511198
7	0x3ef9c87e	0.48785776
8	0xbf2be8ce	-0.67152107
9	0xbfe4de9a	-1.7880433
10	0xbf058872	-0.52161324
11	0xbff95caf	-1.948141
12	0xbf89aa78	-1.0755148
13	0xbfa88134	-1.316443
14	0xbee4c71f	-0.44683167
15	0xc018e143	-2.388749
16	0xc01920e2	-2.392632
17	0xc054874b	-3.3207576
18	0xbfd127e3	-1.6340297
19	0xbebdff39	-0.37108782
20	0xc02f4df1	-2.7391322
21	0xc01d41cb	-2.4571407
22	0xbfd71933	-1.6804565
23	0x3ec5f316	0.38662022
24	0xc01cf022	-2.4521565
25	0xbf60bd8e	-0.8778924
26	0x3e90def3	0.28295097
27	0xbffd319d	-1.9780766
28	0xbe355641	-0.17708685
29	0x3f147930	0.5799742
30	0x3fad1432	1.3521788
31	0x3e6927d2	0.22769096
32	0xbeb98bbc	-0.3623942
33	0xbebcd486	-0.36880893
34	0xc0026a96	-2.0377555
35	0xbfdd3b61	-1.7283746
36	0xbead3f5a	-0.33837396
37	0xc00e61a0	-2.2247086
38	0xbfbc3215	-1.4702784
39	0xbe613e33	-0.21996383
40	0x3e2f2bdf	0.17106579
41	0xc009436f	-2.1447408
42	0xbe5d1f26	-0.21593913
43	0xbff2e6c1	-1.897667
44	0xbf7cd27a	-0.9875866
45	0xbe130542	-0.14357474
46	0x3fb6dcaa	1.4286091
47	0xbd290946	-0.04126861
48	0xbfdf87ab	-1.7463278
49	0xc0306750	-2.7563057
50	0xbed37e12	-0.41307122
51	0xbf1ef318	-0.6208968
52	0xbffb01ae	-1.9609888
53	0xbff6f5fb	-1.9293817
54	0xbda00c33	-0.07814827
55	0xbfc270dd	-1.5190693
56	0xbfbc529b	-1.4712709
57	0xbdf0d29f	-0.11758923
58	0xbfb7bc9e	-1.4354436
59	0xbf967325	-1.1753889
60	0xbe414757	-0.1887487
61	0xbf178738	-0.591907
62	0xbf184f72	-0.59496224
63	0xbea63bc5	-0.32467476
64	0xc02dee63	-2.717675
65	0xbec3f591	-0.3827329
66	0xbe152833	-0.14566116
67	0xbea51ee8	-0.32250142
68	0xc03d74fa	-2.9602647
69	0xbfe30566	-1.7736022
70	0xc02a952a	-2.6653543
71	0xc0133ee4	-2.3007135
72	0xbfbcfe0b	-1.4765028
73	0xbfca7cac	-1.5819297
74	0xbfb969aa	-1.4485371
75	0xbe2bdab1	-0.16782643
76	0xbeac8cf7	-0.33701298
77	0xbfad2a75	-1.3528582
78	0x401660d6	2.3496604
79	0xc009082b	-2.1411235
80	0xbfb53429	-1.4156543
81	0xc016db02	-2.3571172
82	0xbff2b5ea	-1.8961766
83	0x3f305867	0.6888489
84	0xc00f8835	-2.2426884
85	0xbf9561bf	-1.1670455
86	0xbfa11c9a	-1.2586854
87	0xbf456f63	-0.7712309
88	0xc006610a	-2.0996728
89	0xbf673c08	-0.90325975
90	0xc01f23f4	-2.4865694
91	0xbfe0c10d	-1.7558914
92	0xbe9f1056	-0.3106715
93	0xbfb8e7aa	-1.4445698
94	0xbf672b31	-0.9030028
95	0xbfbed486	-1.4908607
96	0xbfdf33df	-1.7437705
97	0xc003a5c7	-2.0569932
98	0xbe356364	-0.17713696
99	0xbfdf8da5	-1.7465101
100	0xbf14391e	-0.57899654
101	0xbf9df49d	-1.2340275
102	0xc025002a	-2.578135
103	0xc0060903	-2.0943
104	0xbeacb1f8	-0.3372953
105	0xbda19c83	-0.0789118
106	0xc01d5fcf	-2.4589727
107	0x400df2fd	2.2179558
108	0xbfeeed55	-1.8666178
109	0xbe603007	-0.21893321
110	0xc019db61	-2.4040148
111	0xbec5da29	-0.38643005
112	0xbfaff6f0	-1.3747234
113	0x3edc52a8	0.43031812
114	0xbfaf992e	-1.3718622
115	0xbf9513cb	-1.1646665
116	0xc0134b92	-2.3014874
117	0xbf1ed42d	-0.62042505
118	0xbfcbc129	-1.5918323
119	0xbfdeea01	-1.7415162
120	0xbd90a15b	-0.07062026
121	0xbed71845	-0.42010704
122	0xbfd6962e	-1.6764581
123	0xc01bce01	-2.4344485
124	0xbff1e1d7	-1.8897046
125	0xc01f2aa9	-2.4869788
126	0xbed7f3dd	-0.4217824
127	0xbfbc868f	-1.4728564
128	0xbfe9173c	-1.8210216
129	0xbf7018c2	-0.9378778
130	0xc00cd6e5	-2.2006161
131	0x3f8ca3d5	1.0987498
132	0xbfaf662f	-1.3703059
133	0xbffde55f	-1.9835624
134	0xbfca004a	-1.5781338
135	0xc0037f07	-2.0546281
136	0xbe4066fd	-0.18789287
137	0xbd99dc92	-0.075127736
138	0x3db00ce7	0.08596211
139	0xbf81de70	-1.0146008
140	0xc01f99b0	-2.4937553
141	0xc0078b92	-2.1178937
142	0xbf8eb387	-1.1148537
143	0xc017eecf	-2.3739507
144	0xbfe37be9	-1.7772189
145	0xc00f6047	-2.2402513
146	0xbe026480	-0.1273365
147	0xbfb2b7a9	-1.3962299
148	0xbef6e9d9	-0.48225287
149	0xbfb3d6e7	-1.4049958
150	0xbeb775f3	-0.35832176
151	0xbfeffe5b	-1.8749498
152	0xbede2bd1	-0.43392804
153	0xc04d045f	-3.2033918
154	0xbfb9f443	-1.4527668
155	0xbfbdae14	-1.481875
156	0xbfd5bfbd	-1.6699139
157	0xc00aa9aa	-2.1666055
158	0xbfff436d	-1.9942452
159	0xbfa28163	-1.2695736
160	0x3d84c96c	0.06483731
161	0xc0024639	-2.035536
162	0xc01eccea	-2.481257
163	0xbf977248	-1.1831751
164	0xbfa186a5	-1.2619215
165	0xbdd1781d	-0.10227988
166	0xbf4ecfd0	-0.80785847
167	0xbfd0fe10	-1.6327534
168	0xbfe8108b	-1.8130049
169	0x3fc75679	1.5573264
170	0xc00fc958	-2.246664
171	0xbfb04966	-1.37724
172	0xbf7aaef2	-0.97923195
173	0xbfee4278	-1.8614035
174	0xbf0986ec	-0.537215
175	0xbfee0daf	-1.8597926
176	0xbfaea32a	-1.3643544
177	0xc0126920	-2.2876663
178	0xbf12c066	-0.57324827
179	0xbf25aece	-0.64719856
180	0xbfae965f	-1.363964
181	0xbe03e1a4	-0.12879044
182	0xbfe877de	-1.816158
183	0xbee8db88	-0.4547999
184	0xc01e994d	-2.4781067
185	0xc02ac844	-2.6684732
186	0xbfe4f954	-1.7888589
187	0xbf74edec	-0.9567554
188	0xbef15f07	-0.47142813
189	0xc022b0f7	-2.542051
190	0xbfe500af	-1.7890834
191	0xbfe62ca6	-1.7982376
192	0xbf9a9586	-1.2076881
193	0xbf5e32dd	-0.8679636
194	0xbd57d05d	-0.052688945
195	0xbefc77eb	-0.4931024
196	0xbfe52d01	-1.7904359
197	0xbe912ede	-0.2835607
198	0xc01f46ce	-2.4886966
199	0xc0029610	-2.040409
200	0xbf82ea5e	-1.0227773
201	0xbfca3ab6	-1.5799167
202	0x3dbc49f2	0.091937914
203	0xbed5741e	-0.41690153
204	0xc023f5c0	-2.5618744
205	0xbfd1bb2d	-1.6385247
206	0x40286e44	2.63173
207	0xbf8876db	-1.0661272
208	0xc0189629	-2.384165
209	0xbf87b142	-1.060097
210	0xbfc64bd6	-1.5491893
211	0xc0345b98	-2.8180904
212	0xbf9ead67	-1.2396668
213	0xbfd72326	-1.6807601
214	0xbe6225c5	-0.2208472
215	0xc00eed4c	-2.2332335
216	0xc03f5c92	-2.990025
217	0xbefe69f9	-0.49690226
218	0xc026219e	-2.5958018
219	0xbfa49cff	-1.2860411
220	0xbfe7fe06	-1.8124397
221	0xbf09ad1c	-0.5377977
222	0xbfd5ed87	-1.6713113
223	0xbf919415	-1.1373316
224	0xbfc8ac73	-1.5677627
225	0xbf1565ae	-0.58358276
226	0xc01fd966	-2.497644
227	0xbf323ea0	-0.6962681
228	0xbfd58cdc	-1.6683612
229	0xbfe693fd	-1.8013912
230	0xc00635ef	-2.0970418
231	0x3f9708dc	1.1799579
232	0xbff5783a	-1.9177315
233	0x3ebe8b35	0.37215582
234	0xc0129134	-2.2901125
235	0xbfdd30c4	-1.7280507
236	0xbf9251c9	-1.1431209
237	0xbe42c1aa	-0.1901919
238	0xbfea4a4c	-1.8303924
239	0xc001d8f0	-2.0288658
240	0xbfcc1e7a	-1.5946801
241	0xbee3bf82	-0.44482046
242	0xc01d9a95	-2.46256
243	0xbf522e86	-0.8210224
244	0xbe56b81c	-0.2096867
245	0xbf41b637	-0.7566866
246	0x3fe7c06b	1.8105596
247	0xc018dbb9	-2.3884108
248	0xbf897d63	-1.074139
249	0xbf861861	-1.047619
250	0xbff971f8	-1.9487906
251	0xc0038ddd	-2.0555336
252	0xc0062ef7	-2.0966165
253	0xbef90a0c	-0.48640478
254	0xbe373013	-0.17889433
255	0xbf5664a5	-0.8374732
