SAC/checkpoints/BipedalWalker-v3/02_best_agent.pth (torch, 891687 bytes, 17 tensors)

log_alpha f8 []
00000000: af68 a78a 53ef 1dc0
-7.483717123477773

actor.0.weight f4 [256, 24]
00000000: f21e 1b3f c602 fc3f 2b29 fbbc 4c9e 30c0
00000010: ad7d 303f 0d01 e73e f9b9 fe3e 1d88 943e
00000020: 977d 823e 2d82 91be 490e e83c a42f 40bf
00000030: 69e4 853d 1543 213d 5187 15be 9da9 02bd
00000040: 87ef 0bbd ae48 abbd b96f 723d 56fb 3abe
00000050: 5cfc 02be 4752 debe e5b5 59bf 6a15 a9ba
00000060: c9e4 54bf eb67 88c0 c792 803f 1316 8bbf
00000070: 9778 6ebe d117 bfbd 9583 a63d 8001 1b39
00000080: 1d06 0cbc ca99 15bf 62e5 c2be e92c efbe
00000090: c256 023e 4da4 ca3d 5c04 aabe d443 a0be
000000a0: 45fd 05bf 2d78 abbe ad6d d0be d37d e5be
000000b0: a0bf afbe ecd6 05be 09c6 913d fd35 ca3e
000000c0: 9e49 68bf 54b6 c8be 7b31 ad3f 3021 0abe
000000d0: 9a57 903a 5d0a 5a3e fe42 7bbe e4d5 5c3d
000000e0: 7628 9ebd d0b9 8abf 534c 063e 6e41 66be
000000f0: 6545 1cbe b352 9cbe aa1c 02be e685 05be
00000100: e3b5 1cbe ad06 49be a2c7 08be 607b dabe
00000110: 7d8e cebe ab1b e8bd 3693 ec3e a8d0 7b3b
00000120: c669 84bf 5725 d7bf 3ba7 b03f c96a 11c0
00000130: 30a9 cfbe 76de 3cbe 8ec9 97bb c121 cc3d
00000140: 446f cabf 1f1a e6be 98a9 02bf 966b 4abf
00000150: 3d5e cf3c 34fe d9bd b736 c0be 985d 9abe
00000160: c100 f3be ea23 67be 8485 3cbe 3ded 56be
00000170: 9649 9dbe 925b babe 90de cfbe 8727 a43d
00000180: 8413 4fbf 0fcf 3d3f f741 563f 8ae2 853e
00000190: f3ce 93bc 6ad3 bfbd e9ed 9e3e e9e3 60be
000001a0: 38ab cbbe 1a5f 43bf e6b2 0c3f fc76 cdbc
000001b0: 3f1c 72be 79b7 3d3d 0065 12be 6a0d 32be
000001c0: f482 dcbd 524e 05be e4ba 593d 9987 e1bd
000001d0: f2a0 4bbe c156 28be f542 21bd 2389 cf3d
000001e0: ac37 0ebf af0e f7be 077d 0540 1b1d c43f
000001f0: 36ef eb3d 4252 3b3d cbcd 723e 3269 dfbc
00000200: bdcb 083d fafc 50be c1e1 74bc 5510 443e
00000210: 0e31 273d 9089 0fbe 4902 bebd 68ac 11be
00000220: 2dae 4abe c360 81be 7cf9 b5be 6ade 4cbe
00000230: b283 53bd fc8c 2e3d 7d3b 053f ffd1 bfbe
00000240: 2c74 3cbf a377 c5bf e829 95be e032 2abf
00000250: a7b2 1ebe d816 a53e 7ba1 9fbe 2253 a3be
00000260: 5d56 2e3f 5d9d a33e d6a7 ba3c b9c3 ac3d
00000270: 8811 e63d 5ab7 453d ebfa 713e 9609 823e
00000280: 1d1a 3f3e 7c56 5a3e e71f 3d3e 6315 773e
00000290: d9ec 013d 147a 613e 4a55 a43d 4c96 febe
000002a0: 834f 753e bd7d f83f 928c 32c0 81ff 443f
000002b0: a3d3 5f3f b3d1 913e 6579 be3e 606e f9bc
000002c0: 86c7 563f 755d 4cbe 0b1b 02be 777f 2d3f
000002d0: 7d8f 3e3e 093f 0cbf 6df7 74be bdbe bdbd
000002e0: 1fb6 e3bd b9bf 55bd 5986 853d ccbf 73bc
000002f0: 9cf2 b2bc 4c71 f4bd c40d c03b 253a 24be
00000300: a594 0dbf f97e c1bf 54f6 d83f 6632 dfbe
00000310: 36ee 05bf 676c 203e 15b0 90be 8ec3 9ebc
00000320: 4df5 34bf e6bb 61be ac67 e23e 5946 ddbe
00000330: 7f01 1b3f 7d85 2f3e 4b77 c6be 5d8e b2be
00000340: 95f3 9ebe 3496 bbbd 4d42 f5bd c081 3bbe
00000350: 0cb5 a4bd 2c5a 75be 3a51 06be 1a48 e7bd
00000360: 2922 9cbf df1a afbf 55fc dc3e d531 2140
00000370: 08a2 04be 10fc 0dbf f5f8 6ebe f9fc 413d
00000380: 3a05 82be 436f 39be 60c0 37be 5726 b2bc
00000390: 3035 4f3e 6ded 833e 009a c3bd 49a9 89bd
000003a0: 57de b6bd d1d5 03be a77a 56be da0d 7ebe
000003b0: 7e81 863c 21ac 763c 2705 693e ec14 8abe
000003c0: f38c 44bf d47a 0a3f 2269 83bf 248f 08bf
000003d0: 6181 243c b567 0a3f fd02 463f e659 58be
000003e0: 2f60 cc3e 7572 893e 2609 b3bc 5cea 963f
000003f0: 5227 a33e 2bc2 b4bd 97d5 febe d4df d3be
0.60594094 1.9688346 -0.030659279 -2.7596617 0.68941766 0.4511799 0.4975126 0.29010096
0.25486442 -0.2841963 0.028327124 -0.75072694 0.065377064 0.039370615 -0.146024 -0.031900037
-0.034163978 -0.08363472 0.05918858 -0.1825994 -0.1279158 -0.43422148 -0.85043174 -0.0012900059
-0.831616 -4.2626853 1.0044793 -1.0866112 -0.23288189 -0.093307145 0.08130566 0.0001478251
-0.008546379 -0.5843779 -0.3806563 -0.4671395 0.12728408 0.09894619 -0.3320645 -0.3130175
-0.52339584 -0.33490124 -0.40708676 -0.4482256 -0.34325886 -0.13070267 0.0711785 0.39494315
-0.9073733 -0.39201605 1.3530725 -0.13489223 0.0011012435 0.21293016 -0.24537274 0.05391492
-0.07722561 -1.0837955 0.13115053 -0.22485897 -0.15260847 -0.30531844 -0.12706247 -0.1303936
-0.1530376 -0.19631453 -0.13357404 -0.42672253 -0.40343085 -0.11333402 0.46206063 0.003842393
-1.034478 -1.680827 1.3801035 -2.2721426 -0.40558767 -0.18444237 -0.0046321815 0.099673755
-1.5815206 -0.44941804 -0.5104003 -0.79070413 0.025313491 -0.106441885 -0.37541744 -0.3014953
-0.47461513 -0.22572294 -0.18410307 -0.20988937 -0.30720204 -0.36397988 -0.4059949 0.08015352
-0.80889153 0.7414407 0.83694404 0.26149398 -0.018043017 -0.09366496 0.31040886 -0.21961941
-0.39779067 -0.7631699 0.5496048 -0.02508115 -0.23643588 0.04631755 -0.14296341 -0.1738793
-0.10767165 -0.13018158 0.05315675 -0.11012191 -0.19885615 -0.16439344 -0.039370496 0.10133579
-0.555537 -0.4825339 2.085756 1.5321382 0.11520235 0.045732744 0.23711316 -0.02727184
0.033397425 -0.20409003 -0.014946402 0.19146855 0.040818267 -0.1401732 -0.092777796 -0.14225924
-0.19793005 -0.25269136 -0.35541904 -0.20006719 -0.051639266 0.042614922 0.52043897 -0.37464902
-0.73614764 -1.5427135 -0.29133534 -0.6648388 -0.15497838 0.3224399 -0.31177887 -0.31899363
0.6810053 0.31955996 0.022785109 0.08435769 0.112338126 0.04827056 0.23630874 0.25397938
0.18662305 0.21322054 0.18469201 0.24129252 0.031720016 0.22019225 0.0802408 -0.49724042
0.23956113 1.9413372 -2.7898297 0.7695237 0.87432307 0.284803 0.37201992 -0.030448139
0.838982 -0.19957526 -0.12705629 0.6777262 0.18609424 -0.54783684 -0.2392251 -0.09264896
-0.11118721 -0.052184794 0.065197654 -0.014877271 -0.0218442 -0.11935672 0.005861016 -0.16037805
-0.5530494 -1.5116874 1.6950173 -0.43593138 -0.52316606 0.15666352 -0.2825934 -0.019380357
-0.706868 -0.22044334 0.4421972 -0.43217734 0.6054916 0.17140765 -0.38762888 -0.3487424
-0.31045213 -0.09159508 -0.119755365 -0.18311214 -0.080423445 -0.23960179 -0.13116923 -0.11293049
-1.2197925 -1.3680075 0.43161264 2.5186665 -0.12952435 -0.5546274 -0.23337157 0.047360394
-0.25394613 -0.18108849 -0.17944479 -0.021746797 0.20235133 0.2576708 -0.095508575 -0.06721742
-0.08929127 -0.12874533 -0.20945226 -0.24809971 0.016419169 0.015055687 0.22755872 -0.26969087
-0.7677757 0.5409367 -1.0266459 -0.53343415 0.010040612 0.54064494 0.7734831 -0.21128044
0.39917132 0.26845136 -0.021854948 1.1790271 0.31865937 -0.08826097 -0.4977233 -0.41381705

actor.0.bias f4 [256]
00000000: c564 fc3d 9a40 6f3e d4cb 74be fbd0 883d
00000010: e6a4 0a3c 358c bcbe ab55 9fbe 6f08 d9bb
00000020: 060f a7bc c02d 61be 0ba1 fbbd fbae 10be
00000030: 66a9 843d a58d 86bd 5aa3 11be 7bdb 1abc
00000040: 2f95 fbbd 050f 9ebb 897c 083e 17f2 333e
00000050: cccb b1bc 43d6 513d 690d 49be c4c2 38be
00000060: 86e4 54bd e826 4cbc dfb8 cfbc dd92 853c
00000070: 3b48 c2be a76d 2ebe 9aa8 a23c b368 93be
00000080: 867d 02bf 3c7e 55be dd51 07be 0222 b33c
00000090: a3a3 8fbe 7075 afbd 7061 c0be 7575 6bbe
000000a0: 493a 0f3c 46f1 07bd d879 423e d09e b43e
000000b0: 486a 3cbd c841 2fbe befa 9e3d e16b ecbd
000000c0: a6c0 973d da41 81be b307 76be 64b0 a03c
000000d0: cce8 ee3d cdf3 98be e0e9 203e 959d 7ebe
000000e0: a5df 7fbb b964 5dbe 8552 f8bd f40f b53d
000000f0: 3a3f 59be 4519 9ebe 50b4 5e3e 15bd a03e
00000100: e8bd 13be 25b6 b9bd 7fff a0bc 3ad9 68bd
00000110: c5d0 94be 7841 27be d1d1 a83c a482 06bf
00000120: 9260 8bbe 2e89 e5bd 60c2 bcbd 1ea4 66bd
00000130: 2a2f a3be c94e 373e 1cf6 e43d edcb 2bbe
00000140: 1dbc 92be b338 31bf fb9a 1abe 6b62 2bbd
00000150: 736f aabe 964d 3cbe 9ac2 a03d 59dd 27be
00000160: e127 3abf 9000 8abe 5258 05bc 4220 d5be
00000170: 2d6c a4bd 06a0 603d a7b6 e73c c506 3ebe
00000180: 75ce cbbd 74bb 743e d112 98bd 8277 70be
00000190: fb97 823e b7cb 48be 8798 cd3e 2b2c 0ebe
000001a0: 494a 293e 229a 6fbe 2fc6 77be db96 cdbe
000001b0: c9a8 07be a978 ab3d 92ff 8abd 7b46 3e3e
000001c0: 4ea4 843d a3f7 85be 49ac ef3d 2e1f d8bd
000001d0: 9ef4 423e 9956 03bd 1a23 2ebe f6d9 143e
000001e0: 6b94 34be 071a 15bd 1540 b43b 5b33 293e
000001f0: 4f2d 6cbe 19b2 873d 2687 143e 5372 24be
00000200: 219b 38bd 403a 4a3b abb9 293e 92ca 97be
00000210: ac2b 763d bcaa c9bd 0010 2d3e d942 8bbe
00000220: 3122 8bbe 7f85 bb3e 1531 0ebe e1f3 df3d
00000230: 580b 893d 356e 17be 7355 cfbe 1355 0c3e
00000240: 6869 383e 4139 b1bd 9f1e d33e 6f83 593e
00000250: 3a4f 03bf 3a2f b53d c0c3 d3be baa8 ffbe
00000260: 4001 f6bd d599 cdbd ba92 9abd 66cc b7be
00000270: f21e 35bd 560e fa3c be0e 26be cea1 15be
00000280: cf6e 77be 93da 033f 19a2 07be 5897 40bd
00000290: f4b2 a63b 4e17 b6be c5fa 2abd 923f 29bf
000002a0: cae5 8dbe 70f0 72bd 45a2 5b3e 82c6 71bc
000002b0: 6d3c 1abf a4bb a5bd 868d 63be b430 47bd
000002c0: dace 91be f641 f9be 92cd 14be 4f49 593d
000002d0: f285 36be 49d4 223d f4e5 9cbd c838 a93e
000002e0: da6e 243d 6288 9dbe 4de6 6b3c 70bd a9be
000002f0: 90bf 60be 35e4 8fbe 7327 8d3d 2be4 8fbe
00000300: b692 30bd 796f d4bd 190c aebe e5c7 edbe
00000310: 5a7e 8bbe 7c35 80be c3bb 983e 9734 acbe
00000320: 46f6 14be d939 9c3e b9e7 d4bd d63d a4be
00000330: f905 3c3d b61f b4be 0364 e2bd 1f91 9e3c
00000340: 68a4 03be 6f3a 0c3e ba2f 723d a65a a3bb
00000350: f6fe b4be ddc5 a13e 2a8a 55be c570 8bbd
00000360: bec1 983e 3295 b7be d8f8 5d3e 1943 30be
00000370: 3e75 2a3e cd87 febd 05ad e5bc 66b4 41be
00000380: a105 91bc acbd a1bc 1575 b53a da33 3cbe
00000390: e154 9ebe 9285 4d3c 3b7a 75bb 9ae8 e5be
000003a0: 2186 91be af7c 8fbe 884e 83be 6552 453e
000003b0: fc28 3a3e 201a 30be 6ef8 9e3c 4f18 b13d
000003c0: f161 4e3e 822e 8d3d 7c25 adbd 66ed 51be
000003d0: a676 2ebe b5f8 19bf ac87 cf3d 46dc eabb
000003e0: 1773 823d 8c1d 92be 1565 28bd 24a9 0a3e
000003f0: e239 1e3e dc8e 80bd 3c2f fabe 9a9d 63be
0.12323908 0.23364487 -0.2390588 0.06680485 0.008462166 -0.3682572 -0.31120047 -0.00662332
-0.020392906 -0.21990108 -0.12286576 -0.1412925 0.06477623 -0.06569985 -0.1422247 -0.009451742
-0.12284314 -0.004823568 0.13328756 0.17572819 -0.021703623 0.051229727 -0.19634022 -0.18043047
-0.05197575 -0.012460448 -0.025356708 0.016305381 -0.37945732 -0.17034017 0.019855786 -0.28790817
-0.50972784 -0.20848936 -0.13214822 0.021866802 -0.28054532 -0.08567321 -0.3757434 -0.22994025
0.008741924 -0.03318908 0.18991792 0.35277414 -0.045999795 -0.17114937 0.07762669 -0.11544014
0.07409792 -0.25245553 -0.24026375 0.01961536 0.11665496 -0.29873505 0.15714216 -0.248648
-0.0039043215 -0.21620454 -0.12125114 0.088409334 -0.21215525 -0.30878654 0.21748471 0.31394258
-0.14427912 -0.090679444 -0.01965308 -0.05684779 -0.2906553 -0.16333568 0.02060786 -0.5254309
-0.27222115 -0.112078056 -0.092167616 -0.056308858 -0.3187192 0.17901148 0.11179754 -0.1677701
-0.28659144 -0.6922714 -0.15098183 -0.041841906 -0.33288154 -0.18388972 0.07849617 -0.16393031
-0.727171 -0.26953554 -0.008138733 -0.41626173 -0.080284454 0.05484011 0.028285338 -0.1855727
-0.09951488 0.23899633 -0.07425464 -0.23483089 0.25506577 -0.19608961 0.40155432 -0.13884036
0.16532244 -0.23398641 -0.24196695 -0.40154156 -0.1324798 0.083726235 -0.067870274 0.18581574
0.06476651 -0.26165494 0.11702783 -0.10552822 0.19038627 -0.032065008 -0.17005578 0.1453627
-0.17634742 -0.036401775 0.0055008032 0.16523497 -0.23064159 0.06625766 0.1450468 -0.16059236
-0.045069817 0.0030857474 0.16574733 -0.29646736 0.060100242 -0.09847018 0.16900635 -0.27199438
-0.27174523 0.36625287 -0.13885911 0.10935188 0.06691617 -0.14788134 -0.4049488 0.13704328
0.1800896 -0.086534984 0.412343 0.21241544 -0.51292765 0.088468984 -0.41360283 -0.49933416
-0.12011957 -0.10039107 -0.07547517 -0.3589813 -0.044218965 0.030524414 -0.16216561 -0.14612505
-0.24163364 0.5150539 -0.13245429 -0.047019333 0.005087251 -0.35564655 -0.04174306 -0.66112626
-0.27714378 -0.05931133 0.2144862 -0.014756801 -0.6024845 -0.0809243 -0.22221956 -0.04863043
-0.28478128 -0.48683137 -0.14531544 0.05304843 -0.17824534 0.039753232 -0.076610476 0.33051133
0.04014478 -0.30768114 0.01439817 -0.33152342 -0.21948075 -0.28103796 0.0689229 -0.28103766
-0.043108664 -0.10372824 -0.33993605 -0.4644157 -0.27244836 -0.25040805 0.2983075 -0.33633873
-0.14547071 0.30512884 -0.1039576 -0.32078427 0.045904133 -0.35180444 -0.11054232 0.019356309
-0.12855685 0.13694166 0.059127547 -0.0049851714 -0.3535077 0.3159627 -0.20853487 -0.068086185
0.29835314 -0.35856014 0.21676958 -0.17213096 0.16646287 -0.12428246 -0.028036604 -0.18916473
-0.01770288 -0.019743763 0.0013844097 -0.18379155 -0.30924132 0.012544053 -0.0037456888 -0.44904023
-0.28422645 -0.28024814 -0.25645852 0.19269712 0.18179697 -0.17197466 0.01940557 0.086472146
0.20154549 0.06893636 -0.08454415 -0.20500717 -0.17037448 -0.6014512 0.10133299 -0.007167372
0.06369608 -0.28538167 -0.041112024 0.13541085 0.15451768 -0.06277248 -0.48864162 -0.22228089

actor.2.weight f4 [256, 256]
00000000: 137b 883f ad1f 0dc0 88b1 1abf 7534 1b3d
00000010: 44d7 f9bd c7d4 e03e fd22 823d 2c25 3cbf
00000020: 0977 07bf be71 7d3f 8e17 d5bd eabc 2dbe
00000030: 07fb eebd 35d5 a93e 594d a13f 8d03 29bf
00000040: ebbe c9bf e5dd d6be c5d3 753e cc5e 2fbf
00000050: d62c 6dbd 488b 87bf 4e04 bcbe 6e4c 913f
00000060: cc5b 343e ced3 41bf 1c1c 82bf d6eb 633e
00000070: 7daf b9bf 9ef0 c03e 8e50 62be ea78 fcbd
00000080: 4190 393d 664e 2b3f ffc5 0ac0 bbf7 0dbf
00000090: 2db1 fb3e 7f80 ddbe 03dc d8be b7c8 17bf
000000a0: 78e2 8a3d 6ae8 95bf 105e ccbf f28f 5a3e
000000b0: 27a5 d8be e0a8 35be a3c6 b4bf 40f6 f4be
000000c0: 6bc1 82bf 4b7a 11be 1192 83bf 2540 bdbe
000000d0: b223 71be d706 10be 59f7 4fbf 5344 02bf
000000e0: 4cb3 7b3e f2aa 67bf ce2c 98bf a417 773e
000000f0: c60a 84be de8e c1bc c106 11bf 493f f53d
00000100: f03d 063f eb5f f83e d4a7 13bf c27a 1f3f
00000110: 075f f63e 4ba1 b4be 75ec 763e d4b7 5dbe
00000120: 4f59 b43e f2ac 3cbf ca1c 70bf e470 413e
00000130: 6a9c 333d 1460 51bf 0c5c 163e 09c1 98bf
00000140: 20f2 b7bd f584 07bf 7a88 1bbe 8b24 8c3e
00000150: b8bc 3d3e 30c9 09bf 8b9b cb3d 9912 023e
00000160: a8d0 d23e 9435 0bbf 8749 503f 7f7b 223f
00000170: 9b8b f33e 6c8b 96bd be8f 563f c18d 0cbe
00000180: 3b77 293e 7b0c 66bd de00 de3e 075d abbf
00000190: a4d1 4c3d 5256 e13e 8b39 85bf 90af 283d
000001a0: 6aa7 42be e018 53bd c1e2 793e d000 63bf
000001b0: a763 5cbf df73 98bf 43c0 1dbf 143b 9bbf
000001c0: f607 293f 08b6 59be d9c6 aabf 57d7 0bbf
000001d0: c315 80be 0b78 1c3f dbee 55bf 49cb 1f3d
000001e0: 7211 02bd b634 82bf 1bb0 a0bf d88c e23e
000001f0: 469f 34be 8611 54be 8dea babc 211f c0bf
00000200: 6ef9 853f acb1 ddbe 71ef bbbf 31c3 20bf
00000210: cb66 2d3e cb31 cfbe 63a6 91bf 9b0c 523e
00000220: 89de d5be ab78 83be ae9a e43d 0b3d 0abf
00000230: 5096 0e3f b0e7 333f 8291 51be d736 ae3e
00000240: 0581 24bd 5856 673f 8f6d 853e d745 0b3f
00000250: 59de 13bd 5009 89bf cc57 6f3e 3c69 9c3e
00000260: 693c 633e 81c9 6dbf a982 79bf 9aee cfbe
00000270: 8bfd 00bf bb41 0d3d 6cdb b9be 0858 57bf
00000280: 606d bbbe 173c 9dbb 609a 52be 6162 a2bf
00000290: 9186 b9be 2c67 8fbe 18ae ccbd 615f 593f
000002a0: 8db2 02bf c2af e43d b7e7 b7be e4a4 503d
000002b0: aaf2 a83e 83c6 a13e 17f2 c53d 424d b4be
000002c0: 053b 1abf 9ac3 923c b12a 10bf 21bf 793d
000002d0: 7384 0d3e 14dd 1abe 7c6a 41bf d3ff 3d3f
000002e0: 7974 e0be d9e1 173f 29ff 22bf d08b cfbf
000002f0: a4e5 7b3e cc2e c73c 29b6 afbf 1d53 6fbd
00000300: d69f 88bf c141 d7bd f9f3 e0be ecde 3c3e
00000310: 9a37 5cbf cdb2 463d 8163 12bf ec4f 413d
00000320: 7ac1 13be 01ed 82be 2b4a 033f 0a02 20bf
00000330: 17fa b63e 3e76 cdbe 13ef 593e ce3c acbc
00000340: 0737 aebf c54d bfbf deca e1be 0c3a bdbe
00000350: 6b0c 433e f071 b2bd 8dea 98be 8b06 25bf
00000360: 521f 503e b82d 99bf 950f 713e 90cc e3bc
00000370: 362d 8cbf 2bfa 60bf cfa7 e93e de42 a6be
00000380: 6063 c43e 9549 4fbe 713e ae3e e045 473c
00000390: dfb0 1abf b17f 90be 6f02 5bbf 93d4 63be
000003a0: bb05 0bbe 48aa c9be d450 8bbf f462 8d3c
000003b0: ff10 a6bf 68d6 8dbf 874d e5bd d03b 6fbf
000003c0: ad9a 21c0 2214 f5be be5c 37bf 6f18 1cbf
000003d0: 274c 503f 98e0 2b3f 6296 e5bf f532 333d
000003e0: 6d29 81be db8f bdbe db21 efbe 606f e2bf
000003f0: 7ce7 43bf 64f3 ac3d 4fcf 25be 3add 5e3f
1.0662559 -2.2050583 -0.6042714 0.037891824 -0.12199262 0.43912336 0.0635433 -0.7349422
-0.5291601 0.9900168 -0.10404883 -0.16966596 -0.116689734 0.33170477 1.260173 -0.66021043
-1.5761389 -0.41966167 0.24006565 -0.68504024 -0.057904087 -1.058938 -0.36722034 1.135145
0.17613143 -0.75713813 -1.0164828 0.22257933 -1.450668 0.37683576 -0.22101042 -0.1232775
0.045303587 0.669165 -2.1683347 -0.5545613 0.49158612 -0.43262097 -0.42355356 -0.5929064
0.06781477 -1.1711552 -1.5966206 0.21343973 -0.423135 -0.17740202 -1.4123119 -0.47844124
-1.0215276 -0.14206807 -1.0278951 -0.36963 -0.23548773 -0.14065109 -0.812368 -0.50885504
0.24580115 -0.90495217 -1.1888673 0.24130112 -0.2578947 -0.023627695 -0.5665093 0.11974961
0.5243826 0.4851068 -0.5767796 0.6229669 0.48119375 -0.35279307 0.24113639 -0.21652156
0.35224387 -0.73701394 -0.9379393 0.1889072 0.04385034 -0.8178723 0.1468355 -1.193391
-0.089817286 -0.5293725 -0.1518878 0.2737163 0.18529022 -0.5382261 0.09941777 0.12702407
0.41174817 -0.5437863 0.81362194 0.6346969 0.47567448 -0.07350811 0.83813083 -0.1372595
0.16549389 -0.056164246 0.43360037 -1.3387765 0.050004616 0.4401117 -1.0408186 0.041183054
-0.19009176 -0.051537395 0.24402906 -0.88673115 -0.8608956 -1.1910361 -0.61621493 -1.2127404
0.6602777 -0.21260846 -1.3341933 -0.5462546 -0.25016603 0.6112067 -0.8356759 0.039012227
-0.03175492 -1.0172336 -1.2553743 0.4424808 -0.17638883 -0.2070981 -0.02281692 -1.50095
1.0466745 -0.43299615 -1.4682447 -0.6279784 0.16933744 -0.40467677 -1.1378902 0.20512621
-0.41771343 -0.25678 0.11162315 -0.53999394 0.5569811 0.702754 -0.20465663 0.34026214
-0.040162105 0.90366125 0.2606015 0.5440344 -0.03610072 -1.0705967 0.23373336 0.30549037
0.22191013 -0.92885596 -0.97464997 -0.40611726 -0.50386876 0.034486514 -0.36300218 -0.841187
-0.36606884 -0.004798423 -0.20566702 -1.2686273 -0.3623548 -0.280084 -0.09994143 0.8491116
-0.51053697 0.11166336 -0.35918972 0.050938502 0.32997638 0.31596765 0.096653156 -0.35215193
-0.60246307 0.017915536 -0.5631514 0.06097329 0.13820057 -0.15123397 -0.7555311 0.7421848
-0.43838862 0.5932899 -0.63670594 -1.6214542 0.2459932 0.024314307 -1.3727466 -0.058428872
-1.0673778 -0.105105884 -0.43936136 0.18444413 -0.8602234 0.04851036 -0.5718308 0.04719536
-0.14429274 -0.25571445 0.51285046 -0.6250311 0.35737678 -0.40129274 0.21282606 -0.021025088
-1.3610543 -1.4945608 -0.44100088 -0.3695835 0.19047706 -0.08713138 -0.29866448 -0.6446311
0.20324448 -1.1967077 0.235411 -0.027807504 -1.0951297 -0.87881726 0.4563584 -0.3247289
0.38357067 -0.20242913 0.34032014 0.012162656 -0.60426134 -0.2822242 -0.8555059 -0.2224906
-0.13576405 -0.39387727 -1.0884042 0.017259099 -1.2973937 -1.1081057 -0.11196428 -0.9345064
-2.5250657 -0.47866923 -0.7162589 -0.6097478 0.813662 0.6713958 -1.7936518 0.04374977
-0.25226918 -0.37023816 -0.46705517 -1.7690239 -0.7652509 0.084448606 -0.16192363 0.87056315

actor.2.bias f4 [256]
00000000: f086 e03d cf28 78be fc11 a13e d0d1 86be
00000010: eb56 5fbd 888c a5bd a0de 8fbd 86d1 c23c
00000020: 8b86 a0bd d4ea 04be 5199 aabe 2d62 bf3e
00000030: 5814 75be 5f61 3f3e 32eb 24be eb60 febe
00000040: 96f3 62be 1c80 c83e 2727 b3bc 07a3 513d
00000050: 08fe 903e 89c7 69be 5718 e83e d7f1 afbe
00000060: 4f5c c93b badd 5fbe 8058 0a3f a604 72be
00000070: c0c4 98bd 58a9 913e 57bd 113f 8bf2 09be
00000080: c512 2d3e b89f a13c a54e 24be a200 043e
00000090: b8a5 82be de7b ff3e 5b12 0e3e a401 d0be
000000a0: cfef 943e ce29 1a3f f7e0 6dbe 22ef 993d
000000b0: 1388 8d3e d1bf 9b3c d765 d7be 2061 17be
000000c0: b702 1c3f 1a0e 2fbd 51b2 b6be 815d 52bd
000000d0: 3581 2a3f 1032 dfbe 38ca 0c3e 8ab3 8b3d
000000e0: 29e7 3cbd 0bc5 aa3d 49ae a43e 1698 513d
000000f0: 3c6b cd3e 73c4 09be f1f4 ae3e 86ae 153f
00000100: 363c 51bc c608 a03e 932a 1cbd 4326 6ebe
00000110: 1c45 c53e 5ae6 273e e5d3 ff3e 6a35 5abe
00000120: 3754 cb3d b718 1c3e 3867 3e3e d2c4 bc3d
00000130: e128 c7be 456f 7dbe 97af 33bf 2891 c7be
00000140: 1043 03bd 002c 2f3f 137e 85be a4c8 e43d
00000150: f083 fabd 1564 e1be e4af cf3e e72d aa3c
00000160: 9912 ab3e ff10 1d3f dac8 43be 9b42 d7bb
00000170: 1826 bfbe c065 983e d9df ae3d 1030 f0be
00000180: 7a04 9f3e 7127 213b 1849 e5bd e83d a53d
00000190: 96cf 973d 327e 55bd c2e0 aa3d da13 843e
000001a0: 09e9 093f 8568 d03e dd38 ba3e 237e 7bbe
000001b0: 1764 cdbd b2d3 513e 9288 873d 1f13 aabe
000001c0: 1ea9 a2be cbe7 553f aaf3 04bf c863 e7be
000001d0: c8a5 f8be 1266 be3e b5c0 213e d1cc 403e
000001e0: 0cda 98bd afd6 ecbe 6dcf 14bd 71ec 0cbd
000001f0: fcbe b83e 4a65 67be 1ed1 1fbe 6df3 e33e
00000200: 0320 0cbf db7d 2c3d 2e5d 9f3d fbb2 13be
00000210: 6d23 933d 70d5 943e ab89 073e 76b2 44bf
00000220: 93b0 9d3e 1115 f33d 07c1 15be 3824 293f
00000230: beb3 913e 2b7c 7a3d 5cab 89be 9ba0 843e
00000240: 5610 f0bd 54f5 023e 54bb e43b 5852 dcbd
00000250: 2ea1 0d3e 871d 003e f53e 563e b958 03bf
00000260: 28d6 1d3f 7360 0b3f b617 fc3e 84d4 413e
00000270: 4fd5 563d 2a46 3fbe 0a58 a23e eb06 dabd
00000280: 7968 43be 7eb2 49be 07e2 873e d509 593e
00000290: e40b e2be 3d02 3c3e 4d81 b9be b71b 093f
000002a0: b87e 403f 2df8 f7bd d049 06bf 552f 933e
000002b0: 2abf 1bbe 1d3b 83be e561 89bd 3383 0e3e
000002c0: 91bf 753c 074d 563e 9eaa 07bd af0b 863d
000002d0: 93fc ee3e c12d 563e a24c b23e 72cf 15bf
000002e0: 4ace 713e 1531 b4be ee82 e4be 248e 72be
000002f0: 5fdf 8d3e d7dd 8bbe 0360 7b3e 7e3b 083f
00000300: 1f75 103f e628 93be 4dbe 14bf e5ce 59be
00000310: 1325 5bbe 5528 cfbe 4f48 143c 0b82 023f
00000320: eeb7 08be 8c41 ddbd 043d 71bd ac39 d3be
00000330: c26d 1f3e 5c61 06be ad90 b4be 60d2 97bd
00000340: 6640 c0bc c646 a1be 8de8 5fbd 7c52 99bd
00000350: dfe2 a63d 6c34 393e 97b3 0abc 5fa0 ecbe
00000360: 497b 8d3d 6140 8e3e af3f 52be 03ef 003c
00000370: 9b45 05bf 17fb 573f f227 7e3d a547 a43e
00000380: 5a81 b9be 5723 a43e 25ab 4b3e 5d78 ba3e
00000390: a488 d4be a6b5 2f3e bb85 e43d 36b7 3b3d
000003a0: f60c 4a3d 8e92 68be 8643 a73e 2be2 d0bd
000003b0: 806b 80be 3ef6 5ebd 4a27 323d 8bf4 a13d
000003c0: fdd6 c93e 84a1 923e f5f9 aa3e 5a4c d13d
000003d0: fc83 1b3e 32f1 62be a51f ca3e 9ead 063f
000003e0: 6b23 e1bd 7c1a 65be 20f6 61be fd6e f7be
000003f0: ee8d 69be 4bbe 4c3d dd72 95bd 729d 843e
0.10963237 -0.24234317 0.31459033 -0.2633195 -0.05452625 -0.08083445 -0.07024884 0.02378155
-0.07838162 -0.12980205 -0.33320096 0.3737959 -0.23933542 0.18689488 -0.16105345 -0.49683318
-0.22163233 0.3916024 -0.021869255 0.051180866 0.2831881 -0.22830023 0.4533107 -0.34364197
0.0061450372 -0.21861926 0.5404129 -0.23634586 -0.07459402 0.28449512 0.56929535 -0.13471429
0.16901691 0.01972948 -0.16045626 0.12890866 -0.25517058 0.4989919 0.1387419 -0.40626252
0.2908921 0.6022004 -0.23230349 0.07516314 0.2764288 0.019012364 -0.42069885 -0.14783144
0.6094164 -0.042738058 -0.3568292 -0.051358704 0.66603404 -0.43592882 0.13749015 0.06821354
-0.04611889 0.08338364 0.3216422 0.05117043 0.40120876 -0.13453846 0.3417125 0.58469427
-0.012770703 0.31256694 -0.03812654 -0.23256783 0.3852929 0.16396466 0.4996635 -0.21309438
0.09928172 0.15243803 0.18594062 0.09217228 -0.38898376 -0.24749477 -0.70189804 -0.38977933
-0.032046378 0.68426514 -0.2607275 0.11171082 -0.12232196 -0.4402167 0.4056388 0.020773841
0.33412626 0.6135406 -0.19119588 -0.0065692193 -0.3733375 0.2976513 0.08538789 -0.4691167
0.31058103 0.002459016 -0.11195582 0.08068448 0.07412641 -0.052122302 0.083436504 0.25796396
0.5387121 0.40704742 0.36371508 -0.24559836 -0.10028856 0.20490912 0.066178456 -0.33217713
-0.3176965 0.83556813 -0.519343 -0.45193315 -0.4856398 0.37187248 0.15796168 0.18828131
-0.07463464 -0.4625754 -0.03633063 -0.034405176 0.3608321 -0.22597232 -0.15607116 0.44521657
-0.54736346 0.042112213 0.077814445 -0.14423744 0.07184491 0.2906909 0.1323611 -0.7683481
0.30798778 0.118692525 -0.14624415 0.6607089 0.28457445 0.061153572 -0.2688855 0.25903782
-0.11721866 0.12788898 0.006980339 -0.10757893 0.13831016 0.12511264 0.20922454 -0.51307255
0.616549 0.54444045 0.4923684 0.18928725 0.05244952 -0.18679109 0.31707793 -0.10645851
-0.19082822 -0.19696996 0.26539633 0.21195157 -0.44149697 0.18360229 -0.3623146 0.53557914
0.7519336 -0.12107883 -0.5245638 0.2874705 -0.15209642 -0.25631037 -0.06708125 0.13917236
0.014999286 0.20927821 -0.033121698 0.06545197 0.46677074 0.20915891 0.3482409 -0.5851966
0.2361385 -0.35193697 -0.4463114 -0.23687035 0.2770948 -0.27317688 0.24548344 0.5321578
0.5642871 -0.2874214 -0.58102876 -0.2127033 -0.21400861 -0.40460458 0.009050443 0.5097968
-0.13351414 -0.10803518 -0.05889608 -0.41254938 0.15569213 -0.13123077 -0.3526663 -0.07413173
-0.023468208 -0.31499308 -0.054665137 -0.07486436 0.08148741 0.18086404 -0.008465669 -0.46216103
0.069082804 0.27783492 -0.20532106 0.007869485 -0.52059335 0.8436751 0.062049814 0.3208591
-0.362315 0.32058212 0.19889505 0.36419955 -0.415105 0.17159137 0.111583196 0.04582902
0.049328767 -0.22712156 0.32668704 -0.10199388 -0.25082016 -0.054434054 0.0434945 0.07907971
0.39421836 0.28638852 0.33393827 0.10219641 0.15187067 -0.22162321 0.39477268 0.5260867
-0.109930836 -0.22373384 -0.22066545 -0.48326865 -0.22808048 0.049986165 -0.07297299 0.2590137

actor.4.weight f4 [8, 256]
00000000: 37d6 20be d86a e23b 1796 d4bf ae58 b0bd
00000010: f9c5 ce3e 7e1a b3be 8e8e 8abd 5b4b 253f
00000020: e936 133e 3129 0cbe b347 1f3f 4ab5 90bf
00000030: a43b 493e c717 2c3e 7370 5a3d 38e4 7abe
00000040: 2124 aa3f f2f7 573e 490c aebe 13d3 c0bd
00000050: 1f63 4abf b8a8 c63d 1a4f 16be 8ec5 94bd
00000060: fcbd 7d3f 73e8 92be 870e 793f 2cc0 343f
00000070: 7ebe 68be f978 813e 9647 fd3f 86c9 f9bd
00000080: 4025 1a3f 41d4 a3bf 09f8 99be 00a9 35bf
00000090: d942 cebf 46b9 2cbf c41e 4cbc cd7e 98be
000000a0: ab45 223f dc02 483e 83f5 0c3f eeb9 59bf
000000b0: 76dd 30be 1e16 6c3f f218 013f 952f 29be
000000c0: 07c6 803d c03a 94bf a213 093e ebb1 563c
000000d0: bb3e 3d3d dcaa 493f 3053 b0be 7166 de3c
000000e0: eb0a 5e3e 5bd8 5b3f 23fa a3be 4820 de3e
000000f0: 1a29 1e3d a4d8 113f 269e 863c ab0c 0c3f
00000100: b62a 843f 0023 de3f 60d6 8c3d c017 243f
00000110: 263f 79be 065a e5be e804 e23e ae52 3bbf
00000120: 181a db3f 217d b13e b7c8 17bf a263 293f
00000130: f3c6 c13f 6c31 bcbf a90c 1d3f 3597 9c3f
00000140: 0c90 87bf af26 3c3f 10e6 d43f 7c30 833e
00000150: 08ff 943e 56ad 893e b3f5 3d3f 4e30 f6bf
00000160: 1c77 943f 824d 543f 8db6 5ebe 9ed2 7dbf
00000170: a9fc c1bf cdf5 67be 16d3 55bf ac51 943f
00000180: d61a 84bf d2d5 ea3e 8944 18bf d91f 78bf
00000190: 27c9 963e 7905 86be 14ed 12be b68f 06c0
000001a0: ba50 ad3e e28a 45c0 59ca 07bf 8797 b83e
000001b0: 3b34 4abf 2eeb 2bbe 6969 acbf 920b 453f
000001c0: dd70 a4be 9cae ae3e f210 20be 1905 a63e
000001d0: 348c 44bf 250a 3b3e 6a01 10c0 cb2d 1440
000001e0: 3e95 d13f 364d 85be 162c 1ebf 7968 cb3f
000001f0: a616 933d cb11 a3be 8b3e 423e e3a5 09bf
00000200: 2ba4 c2bf 7cca 483f 9f5a 13bf 8704 8d3e
00000210: 904c f33b 0c25 45bf cc34 a83e c8fd 81be
00000220: ea3f af3d e8df 75be 9327 00bf 2075 a03f
00000230: cf3b 37be c8c8 e5be a6d1 aebe 0df7 22bf
00000240: a9e9 aa3f 33cc 013f e0a6 05be a478 313e
00000250: cac0 423f dd4d c0bd 7a6f fa3e 4dc8 823e
00000260: fbe2 123f 4d48 afbe 568d 163d f62a 963f
00000270: 9f22 a4bf 5916 10bf 0d4b 6fbe 54ff 193f
00000280: f705 54bf 0476 febd e6dd 073e 8ecc ad3e
00000290: 520f e13e 7555 52bd 92ef 423e 92c8 e63f
000002a0: a6fb 5d3e a94d e63f 178e 6ebd 3beb 713b
000002b0: 004a 1dbf c8d4 3f3d 8171 eebe 9503 0abf
000002c0: 962b 923d 6003 0bbf 16be 60bf 8a05 1abf
000002d0: 213d d4bf b462 fe3e 6fa6 20bf 25a2 51bd
000002e0: 638c 493e de08 3abf c56d 9ebe fb94 41bf
000002f0: d272 a73f 308c d93c e10e fcbf d0d3 c93f
00000300: c887 cdbe 4378 c43e c758 96be 4aac a83f
00000310: 3984 01c0 f552 303f 846c 123f c64b 89be
00000320: 9ef2 5cbf 30dd a83f 6da5 e0bd f0e1 6fbf
00000330: a937 5b3f 328a 403f 2bd7 823c abfc c03e
00000340: 639d 483e a3ed 0a3f ac52 f73d 7caf e73e
00000350: 7ec6 83be 3580 553f c9e0 213d cb46 9dbe
00000360: 508e 4bbf 29c2 23be aa9f 54be 9db1 babd
00000370: 2ad2 95bf 90ee c33e 0219 a83f 4baa ac3e
00000380: ba23 abbd 3d09 26be 21a1 4d3f 0bd7 3dc0
00000390: bd2b bbbf a529 8f3f 773f 853c d997 843e
000003a0: 30f1 f0bd 4822 cb3e 0692 ec3d 7a39 933e
000003b0: db3f 9f38 8b26 3abe 7fc6 823f a93b 6ebf
000003c0: 6421 e1bd 9f23 12bf 4428 01bf 9540 48bf
000003d0: a513 0a3f 09ad b6bf 64d9 e0bf 8016 33be
000003e0: 0265 28be 8686 4bbe 9a52 243f 4a44 c0be
000003f0: cdde 543f 0c37 74bf 6a3a 5cbe 1423 7ebf
-0.15706716 0.0069097094 -1.6608304 -0.08610664 0.40385416 -0.3498115 -0.067654714 0.6456811
0.14376415 -0.13687588 0.6221878 -1.1305325 0.19651657 0.16805945 0.053329896 -0.24501121
1.3292276 0.21090677 -0.33993748 -0.09415259 -0.79057497 0.09700149 -0.14678612 -0.07264243
0.9911802 -0.2869297 0.9728779 0.7060573 -0.22728917 0.25287607 1.9787471 -0.12196641
0.6021309 -1.279915 -0.30072048 -0.70961 -1.611415 -0.67470205 -0.012458507 -0.2978424
0.63387555 0.19532341 0.5506212 -0.8504933 -0.1727198 0.9222125 0.5042869 -0.16522057
0.06287771 -1.1580429 0.13386396 0.013103942 0.046202403 0.78776336 -0.34438467 0.027148457
0.21683852 0.8587701 -0.32026777 0.43384004 0.038613416 0.5697119 0.016432833 0.5470683
1.0325534 1.7354431 0.06876826 0.6409874 -0.24340495 -0.44795245 0.44144368 -0.73173034
1.7117338 0.34665778 -0.5929064 0.6616765 1.513884 -1.4702582 0.6134744 1.2233645
-1.0590835 0.73496526 1.663271 0.25622928 0.29100823 0.26890057 0.7420303 -1.9233491
1.1598849 0.8293077 -0.21749325 -0.991495 -1.5155231 -0.2265236 -0.83525217 1.1587424
-1.032069 0.45866257 -0.59479576 -0.96923596 0.29450342 -0.2617605 -0.1434825 -2.1025214
0.33850652 -3.0866017 -0.53043133 0.36053106 -0.7898595 -0.16788933 -1.3469669 0.7697078
-0.32117358 0.3411759 -0.15631464 0.32425764 -0.76776433 0.18265589 -2.2500863 2.315295
1.637367 -0.2603547 -0.6178602 1.5891258 0.07182054 -0.31849512 0.18969171 -0.5376875
-1.520635 0.78433967 -0.5756015 0.27542517 0.0074248984 -0.77009654 0.3285278 -0.25388932
0.085571125 -0.24011195 -0.50060385 1.2535744 -0.17893909 -0.44879746 -0.34144324 -0.6365822
1.3352557 0.5070221 -0.13051939 0.17331177 0.7607542 -0.09389851 0.48913175 0.25543442
0.57377595 -0.3423485 0.036755882 1.1731861 -1.2823066 -0.562841 -0.23368473 0.60155225
-0.828216 -0.124248534 0.13268241 0.33945125 0.43957 -0.05135103 0.19036701 1.8029959
0.21678028 1.799245 -0.058240976 0.003691389 -0.6144104 0.046833783 -0.46570972 -0.53911716
0.071372196 -0.54302025 -0.8779005 -0.601647 -1.6581155 0.4968468 -0.6275396 -0.051180024
0.1968246 -0.7266978 -0.30943123 -0.7561795 1.3081915 0.026556104 -1.9692041 1.5767765
-0.40142655 0.38373002 -0.29364607 1.3177578 -2.0236952 0.6887658 0.5719683 -0.26815623
-0.86307704 1.3192501 -0.109690525 -0.9370413 0.85631806 0.7521087 0.01597174 0.3769277
0.19591288 0.54268855 0.12076315 0.4525107 -0.25737375 0.83398753 0.039521012 -0.30718073
-0.79514027 -0.15992035 -0.20764032 -0.09115908 -1.1704762 0.38267946 1.3132632 0.33723673
-0.08356424 -0.16214462 0.8032399 -2.9662502 -1.4622723 1.1184584 0.016265614 0.258971
-0.11764753 0.39674592 0.11551289 0.2875479 7.593605e-05 -0.18178765 1.0216826 -0.93059784
-0.10992697 -0.57085603 -0.50452065 -0.78223544 0.53936225 -1.4271556 -1.7566342 -0.17489052
-0.16444781 -0.19875535 0.6418854 -0.375521 0.83152467 -0.95396495 -0.21506658 -0.99272275

actor.4.bias f4 [8]
00000000: 5a74 cf3d 6836 a2bd 8e13 6b3e 3f1a 18be
00000010: bd7a 8bc0 bba5 8dc0 6c40 91c0 be53 8ac0
0.10129614 -0.079205334 0.22956678 -0.14853762 -4.3587327 -4.426481 -4.539114 -4.3227224

q1.0.weight f4 [256, 28]
00000000: b8cc 32bf 7798 13bd 55cb 7d3f 06e7 28bf
00000010: 196b c9be 4d9f 823d b580 14be d9aa 07bd
00000020: 0319 2abf 35e0 62bf 5898 233e 1dd7 3a3e
00000030: 2b67 a33d 7526 6e3e a1ba 8cbe 69ad 87be
00000040: 8fde cdbe 5689 bdbe 2325 65be 051b 9dbe
00000050: d0a9 b6be fef3 b1be 3bbd 51be a73d ed3d
00000060: 5c87 67bc acfc 01be 287b 80bd 332e b8bd
00000070: 63db 58bd 64f0 3140 ab93 9f3f 4c88 c7bf
00000080: c3a2 f1bd 676f 023e add1 e43d 3c2a e5bd
00000090: 8288 74bf 2595 d23e 17c2 c93d 71de 45bf
000000a0: 1b46 3e3e c1eb 523e 218a 9dbe 518f debe
000000b0: 9e62 7dbe 8afd c8be 44a8 aabe 16cb 6cbe
000000c0: 3b03 88be f573 9ebe 022e 8dbe 5131 27be
000000d0: 87b9 dcbc d259 0a3d 2c9a e7bd 34c4 4d3e
000000e0: 240d 743f 7b17 9b3e 1b54 063e da04 67bf
000000f0: d2be f0bd 8a52 afbc 4de5 dbbe f22f 153d
00000100: a868 fa3d f78f 923f 0b5b ce3d aaae 14bf
00000110: dab7 0c3d 2318 1ebd a535 b6be e2ca b3be
00000120: ae68 18be 16bc 99be f131 6fbe bf06 b8be
00000130: a91c 36be 6e6f 98bd 6a53 6d3a da31 6cbe
00000140: 9ee6 82bc ca89 e23d 4c6a 96bd 27d7 9e3d
00000150: f6e6 a8be 4192 a7bf 7b99 64be f58d 05be
00000160: 2c4e f33d 923b f23d 898f fcbe 7d0b bfbc
00000170: 5d61 b13c 3e8e a13b ecfb 013f c77e ddbe
00000180: 3ccd d9be 6b6a 303f 10ab a1be a246 d9be
00000190: af37 e9be 5fa9 b4be 777a b5be 7d8a b1be
000001a0: 8c07 96be 1919 91be 88ad 1fbe 573a 19be
000001b0: b95b 6abe ecaa c33d 6c24 af3e c239 37be
000001c0: 2dcf 0bbf 3eda 463f 8e4e 933f a912 d8bf
000001d0: 5df9 a9be 67b0 2fbd df10 68be f2e3 803d
000001e0: 82da 97bc dc36 1a3e 680f b13d 1eda cdbd
000001f0: 86ac a03e fc09 dabd 0030 84be 9aa6 8ebe
00000200: e21f 05be 55be 84be 3dfa acbd 1c28 65be
00000210: a4b0 e2bd aff9 8bbe 0c19 73be f269 1c3e
00000220: 0b4a 953d f45f 2cbb 685b 1f3e 5e58 0e3d
00000230: b6d9 733f 7912 933f d672 a33e 325f 1240
00000240: 85ee ad3e 8a25 bb3d 6980 4f3d f80e 8abc
00000250: 7a31 a2bd 24b6 da3e 2519 aa3b ad39 283e
00000260: 12db 2fbd 97a4 09bd dff9 ac3d 6f63 313e
00000270: 4759 6f3e d2e4 783e 30eb 823e d508 ba3e
00000280: 47c1 393e 8478 e13e c778 a13e 02e2 00bf
00000290: 3067 833d bd6b 8bbd c725 adbd 3767 ef3c
000002a0: fb7f 01bf afa9 363e 7ea4 303e a2a2 1640
000002b0: 2a1e 3fbe f46e 363d be21 703e c387 8abd
000002c0: 2f19 b1bc a7c0 fcbe 672a a1bd b31a 603f
000002d0: b577 42bb 7b4a b0bd 3fff 183e 1186 a7bd
000002e0: 5b0e e0bd a69e 92bc dcda c0b9 2870 5abc
000002f0: 0794 573e 57d0 373e fc96 a2bd 9fd7 a4be
00000300: de33 d63d 15c4 473d e5cd f0bd 08d9 6b3e
00000310: 4347 ac3d e697 e73c 39b2 ca3f ad0e 24bf
00000320: 648d 00bf a327 babe 8feb 0cbf 5965 323c
00000330: ecbd fc3e e3ea 77bf 2916 2dbe 52ec 413e
00000340: 4b4a 173e 76e3 a7bd 418f c7bd a363 1fbd
00000350: f154 11bd 4bd6 8abd 280e 52be 9049 aabe
00000360: 6ce0 bebe 5217 02bf f820 d4bd 8b59 38be
00000370: 53c0 d33d 315a 46be 47c0 14bd 914f 3d3e
00000380: 5ef9 3dbf 0c19 51bf f129 903e c3bb b83e
00000390: 94d1 973e 5e9f 07b9 5739 21bc 04c4 8f3d
000003a0: 5072 ec3d 1d6e 653e 4825 2e3c 5c54 ba3e
000003b0: 309e f0bd c522 8fbd 0b27 7dbd ae8b c9bd
000003c0: 2f2f 5bbc 0c40 a93c 24b9 c5ba 3cca 273d
000003d0: ace3 95bd 317d a6bc 0b6a 25be 6a37 6bbe
000003e0: e1bd 253d 0e42 273d 8d00 0cbd 470c 813c
000003f0: 49f7 b03d 9115 37bc 99ea 603e fd13 bcbf
-0.69843626 -0.036034074 0.99138385 -0.65977514 -0.39339522 0.063780405 -0.14502223 -0.033121917
-0.66444415 -0.8862336 0.15976083 0.18246122 0.07978662 0.23256858 -0.27486137 -0.2649949
-0.4020886 -0.37018842 -0.22377448 -0.30684677 -0.35676432 -0.34756464 -0.20482342 0.11584025
-0.014131393 -0.12694043 -0.0627349 -0.08993187 -0.0529436 2.7802973 1.246694 -1.558847
-0.117986225 0.12737809 0.11172805 -0.11189696 -0.95520794 0.41129413 0.09851473 -0.77292544
0.1858143 0.20597745 -0.30769446 -0.43468717 -0.2474465 -0.39255935 -0.333315 -0.23124346
-0.26564965 -0.30947843 -0.27574164 -0.16327406 -0.026943935 0.033777066 -0.11308703 0.20094377
0.9533255 0.30291352 0.13118021 -0.9024178 -0.11755146 -0.021401662 -0.4294838 0.036422677
0.12226993 1.1450185 0.10075959 -0.58079016 0.034355022 -0.038597237 -0.35587803 -0.35115725
-0.14883682 -0.3002631 -0.23358895 -0.35942647 -0.1778437 -0.074431285 0.0009053262 -0.23065892
-0.015979107 0.110614374 -0.07344493 0.07755881 -0.3298871 -1.3091508 -0.22324173 -0.13042434
0.118801445 0.118277684 -0.4932826 -0.023320908 0.021652872 0.0049302867 0.5077503 -0.43260786
-0.42539394 0.6891238 -0.31575823 -0.424367 -0.45550296 -0.3528547 -0.35444996 -0.3467597
-0.29302633 -0.2833946 -0.1559354 -0.14963661 -0.22886552 0.09554085 0.34207475 -0.17893127
-0.54613 0.7767676 1.1508348 -1.6880695 -0.33198062 -0.04289284 -0.22662686 0.06293477
-0.01853681 0.1505999 0.08645517 -0.10051368 0.31381625 -0.106464356 -0.2581787 -0.27861482
-0.13000444 -0.25926462 -0.08446167 -0.22378582 -0.11068848 -0.2733893 -0.23740023 0.1527479
0.07289513 -0.002630231 0.15562212 0.034752242 0.95254076 1.1490012 0.3192355 2.2870603
0.33971038 0.091380194 0.05065957 -0.01685284 -0.07919593 0.42717087 0.0051909857 0.16428252
-0.04293353 -0.03360423 0.08446097 0.17323087 0.233739 0.24306038 0.2557006 0.36334863
0.18140136 0.4403726 0.31537458 -0.5034486 0.06416166 -0.06807659 -0.08454471 0.029224021
-0.5058591 0.17838167 0.17250249 2.3536763 -0.1866385 0.044539407 0.23450372 -0.06764176
-0.021618454 -0.49365732 -0.07869416 0.8754074 -0.0029673402 -0.08607956 0.14941119 -0.08179868
-0.10940238 -0.017897915 -0.00036784157 -0.013332404 0.21052562 0.17950569 -0.07938954 -0.32195756
0.10459112 0.048770983 -0.11758021 0.2303201 0.084120296 0.028270673 1.5835639 -0.64084893
-0.50215745 -0.36358365 -0.55046934 0.010888421 0.4936365 -0.96842784 -0.16902985 0.18937805
0.14774434 -0.081976816 -0.097441204 -0.03891338 -0.035481397 -0.067791544 -0.20513213 -0.3325925
-0.37280595 -0.50816834 -0.10357851 -0.18002908 0.10339417 -0.19370343 -0.036316182 0.18487383
-0.7420863 -0.81678843 0.28157 0.3608075 0.29652083 -0.00012933972 -0.009840331 0.07019809
0.11545241 0.22405286 0.010629006 0.36392486 -0.11748922 -0.06989054 -0.061804812 -0.09841095
-0.013377949 0.020660423 -0.0015085083 0.04096435 -0.073188156 -0.020323368 -0.16153733 -0.22970358
0.040464286 0.04083448 -0.034180213 0.015752925 0.08640916 -0.011174575 0.21964492 -1.46936

q1.0.bias f4 [256]
00000000: bc2c 393d 1a88 1c3e 7b58 78be 22b2 8bbe
00000010: e0ce b73e 6acc 1bbf b984 c6bd 8a9b 7abe
00000020: 00b8 13bf a4f0 863e f278 b13e 5df0 5a3e
00000030: 39d0 dfbc f872 363e 99d9 e4bb 1125 d73e
00000040: 8888 a3be 5dd5 93bd 80c8 98be 80ab b03d
00000050: 20bb 98bd 527e ea3e a6c5 80be 8414 cf3e
00000060: cd3c e1be b002 45bc 2ed4 143e f243 4bbe
00000070: 986a a8be f8af d0be d993 123f 78f6 8a3e
00000080: e9a3 a5bd 66cd 93be 9dfe 1abe 1277 50be
00000090: 7fe8 97be 8853 bcbe 9d6c 433d cf36 a2bb
000000a0: 72a5 b0bd 90cc cebe f7a9 7dbe 7e78 8bbe
000000b0: 0844 35be 1f56 27be bd4a 46bc a583 35be
000000c0: d712 91be 5667 eebd e75d 9b3e 452e 983e
000000d0: 12d3 813e ebb3 adbe 264b 603e e71b 6fbe
000000e0: 98e3 953e 5bc9 dbbd 653b 22be dd6c 283e
000000f0: 9aac afbe 6563 d8be 3c12 1dbe b28a 5c3d
00000100: f897 723e 2873 78be 9877 8dbe 7fb8 c4be
00000110: 86de 19be 5db5 15be ec0c b53e 5a3e 7f3e
00000120: 18a2 dc3d 8980 b4bd d3a9 cbbd 2fcc 8fbe
00000130: d0bf 3ebb 2b2d 9bbe 18c7 ba3d bd9d 5a3b
00000140: f0bc b7bd 0306 23be d1b8 8e3e 0871 0cbe
00000150: 96f8 673e 3b60 31be e3b6 963e e9be da3d
00000160: 7eed 92bd 4bbe 3fbe 05d9 98bd afb6 a5be
00000170: 52f8 1fbf 032b c83d 7a3a 3fbe cb14 a23e
00000180: 3c81 cebe 5b77 34bc b419 1e3f c714 32be
00000190: 4941 b2be 261d 78be 39c9 50bf 4f25 71bc
000001a0: 5214 073f 7b04 7fbe 9f7e c2be 2fd7 15bf
000001b0: 73f0 63be 80cf 99bd 906c c8be f601 21be
000001c0: 67bc e6bd 0a4c 5d3c e604 00bf 586a cf3d
000001d0: d4fd 033e c049 4e3d a7e6 2bbe 863e d43d
000001e0: 6443 95be 71c2 683e a78a 9fbe 9a19 7cbe
000001f0: ca4b 10bd 2e38 05bb 72a8 b63d d330 d8bd
00000200: c243 e53d 2d50 d5be 0322 913c e59d 7ebd
00000210: f8b0 5a3e 7051 683d 7470 07be 7085 9d3e
00000220: 50ec fbbb ee1b c93d a1f1 ff3c 846e 8fbe
00000230: 5730 adbe 880b c5bc 1cb3 a13d 21c5 d7bd
00000240: 2b89 c7be 4fc9 b1be b771 84be d866 b2bd
00000250: 2dc5 d5be b38f 2b3e 152f 233e 7c83 1bbe
00000260: f9cf 943e e97b 1d3d 0730 8fbe a3ca 5f3e
00000270: 5b57 4cbe 12c4 f4be d55d 24bc c43d a0be
00000280: 1193 293e 7090 9bbe 704d 93be 50da d8be
00000290: 6319 09be 4c4d dc3d e168 39ba a8bf 17bf
000002a0: 03a6 a1be f582 3bbe cbc1 70bd e654 86bd
000002b0: 203e 93be 0646 583e 44d8 8e3d 5627 a43e
000002c0: 1b70 8d3b 8f56 d0be f06f 0fbd aa23 943e
000002d0: 294c 81be 65c1 7c3e 228b 05be 2656 81be
000002e0: d9a3 51be be84 b2be c713 6cbe c178 aebe
000002f0: a88f 46bd 2210 6d3d 8ce1 d4be 177f 863d
00000300: 7301 2cbf f6ba 8f3d 3454 b2bd 26f2 ee3e
00000310: 5183 7cbe 66db 91be 7367 7cbe 850e 31be
00000320: bb70 e7be c024 53be 1a3f 5ebe a894 78be
00000330: 8086 debd e2a2 b4bd 7696 82be ef1d 8ebe
00000340: 5038 83be 2ee0 0fbe de5e 903b 0f4c a13e
00000350: 3ff9 393d 6e3a 3fbe 1e63 bebe fcd7 09bf
00000360: 278f 0a3e 0922 8b3e a35a 6f3e c4b8 55be
00000370: 4266 da3d 4131 dabd 22fc 913d 479b 02bf
00000380: c51a d7bd bda4 a8be 141f 36be 53de 75be
00000390: 6c41 a6be e652 0ebe eefb 92be 9599 f1be
000003a0: 95d0 9dbe e989 873e eb38 b23d 98cc e9be
000003b0: 79e8 ca3e ed07 21be 4742 713e 5574 83be
000003c0: 8bf5 5c3d e66e 523e 1a9a 523e 1cc6 a7be
000003d0: d9f3 b0bd 7ba3 923e f09f 37be fd8f bfbe
000003e0: 20ba 233f 2c7a 703e a6bb fa3d 0f64 f4bc
000003f0: e883 8cbe 72f6 b0bd 8b25 d5be e1e8 e6be
0.045208678 0.15286294 -0.24252503 -0.27284342 0.3590002 -0.60858786 -0.096932836 -0.24473396
-0.57702637 0.2635547 0.34662586 0.21380754 -0.027320968 0.17817295 -0.0069839475 0.42020467
-0.31940103 -0.0721843 -0.2984047 0.08626461 -0.07457566 0.457995 -0.25150794 0.4044534
-0.439917 -0.0120245665 0.14534065 -0.19850138 -0.32893825 -0.40759254 0.5725685 0.27141166
-0.08087904 -0.28867644 -0.1513619 -0.20357922 -0.29669568 -0.3678248 0.047711004 -0.0049503813
-0.08625306 -0.40390444 -0.24771868 -0.27240366 -0.17701733 -0.16341446 -0.01210278 -0.17726
-0.28334686 -0.116408035 0.3034508 0.297228 0.25356346 -0.3392633 0.21903667 -0.23350488
0.29275203 -0.10731765 -0.1584297 0.16447778 -0.34311372 -0.42263332 -0.15338987 0.053843208
0.23690784 -0.24262679 -0.27630305 -0.3842201 -0.15026292 -0.14619966 0.3536142 0.24926129
0.107731044 -0.08813579 -0.09944501 -0.28085467 -0.0029106028 -0.30307898 0.09120005 0.003335818
-0.08971584 -0.15920262 0.2787538 -0.13714993 0.22653422 -0.17321865 0.29436406 0.106809445
-0.07174204 -0.18724935 -0.07463268 -0.3236594 -0.6248828 0.09773829 -0.18674651 0.3165649
-0.40332973 -0.011014785 0.6175797 -0.17390738 -0.34815434 -0.24229869 -0.8155704 -0.014718368
0.5276538 -0.24904053 -0.3798723 -0.5853147 -0.22259693 -0.075102806 -0.39145327 -0.15723404
-0.11266404 0.013506899 -0.50007474 0.10127705 0.12889796 0.050363302 -0.16787206 0.10363488
-0.29152977 0.22730424 -0.3116047 -0.24619141 -0.035228528 -0.0020327675 0.08918847 -0.105561875
0.111945644 -0.41662732 0.017716413 -0.0621623 0.2135657 0.05671829 -0.13226491 0.30765867
-0.0076880828 0.0981978 0.031243147 -0.28014004 -0.33825943 -0.02405335 0.078954905 -0.10535646
-0.38971838 -0.347239 -0.25868008 -0.08711022 -0.41751996 0.16754036 0.15935929 -0.15186876
0.2906492 0.038448248 -0.2796633 0.21854644 -0.19955198 -0.4780584 -0.010032137 -0.31297123
0.16560008 -0.30383635 -0.28770018 -0.4235406 -0.1338859 0.10756931 -0.0007072818 -0.5927682
-0.3157197 -0.18311675 -0.058778565 -0.06559162 -0.28758335 0.21120462 0.06974843 0.3206126
0.0043163425 -0.4069104 -0.03501886 0.2893346 -0.25253418 0.24683149 -0.13041356 -0.2526104
-0.20472659 -0.348669 -0.2305442 -0.34076503 -0.048476845 0.057876714 -0.4157833 0.06567209
-0.6718971 0.07018082 -0.08707467 0.4666912 -0.24659468 -0.284877 -0.24648838 -0.17290695
-0.45203194 -0.20619488 -0.21703759 -0.24275458 -0.108654976 -0.0882013 -0.25505418 -0.27757213
-0.256289 -0.14050362 0.0044058403 0.3150334 0.045403715 -0.18674633 -0.37184995 -0.5384519
0.13531171 0.27174404 0.23374419 -0.20871264 0.106640354 -0.10653926 0.07128169 -0.51018184
-0.10503153 -0.32938185 -0.17785293 -0.24010591 -0.32471788 -0.1389881 -0.28707832 -0.47187486
-0.30823198 0.26472405 0.087022625 -0.45663905 0.39630488 -0.1572568 0.23560439 -0.25674692
0.053945106 0.20550117 0.20566598 -0.32768333 -0.0864026 0.2864035 -0.17932105 -0.37414542
0.6395588 0.23484105 0.12242822 -0.029832868 -0.27444386 -0.08640756 -0.41630206 -0.45099548

q1.2.weight f4 [256, 256]
00000000: e54f aebd 07b5 bebf c376 e2bd 975f f2be
00000010: 4ee9 093e fee1 d83d 24dd 6b3e b453 11bf
00000020: 340e 30be d54d c63d e456 a83d c4af 753e
00000030: 0dd7 d8bd 0bc1 36bd bf85 0cbf 2877 3a3e
00000040: 0a8c c5be 2510 c4bf 9811 ccbe 27d9 0e3e
00000050: 6034 3b3f 0333 d8bb ab00 d2be 9730 bfbd
00000060: c61e a93c 0668 84bd 5c03 a1bd 7dbe 5f3f
00000070: 16e7 80bf 7a9c 0fbe c8eb 9abc 10a3 91bd
00000080: 0a3b ddbf 2832 cdbe bb00 18bf cb0d c83e
00000090: 5e3b df3e 4a7d 983e 6c8a 2a3e 5de9 24bf
000000a0: 115d f9be f163 bebe 3913 aabe 1a2c d7bd
000000b0: 763c 913e 99d9 013d 7a83 863e 3fbd 41be
000000c0: c56a 323f 6b86 cfbc 5dd7 48bf 6135 893e
000000d0: d331 9d3d ce3e 0bbe 3aec 143e d08f d9be
000000e0: 53a1 0b3e 8547 0abe b317 9cbd cddd 2c3d
000000f0: 5810 17bd aaa9 193f bc0e b8bf 5c1f 663e
00000100: 7a5d 85be 6a8a 423f 7306 0f3e 57d4 98bf
00000110: ed40 d0be 7458 9bbf 2def 83bc 1d9a 5cbe
00000120: 6b15 fa3d 18b7 2c3c eaef 933d 8cf1 533e
00000130: 5903 41be 3940 3ebe ffd2 88be 27fe f5be
00000140: 003c 983d 3f04 98bf 6921 d43d 7d49 2d3f
00000150: a402 2a3c 095b 44be 3090 23bd af4b f23d
00000160: f255 633f 0c98 79be 8748 693d f9bd 32be
00000170: e333 9a3e 8a9f 47bf ef01 f9be d839 1d3d
00000180: ebc1 16bf f674 2dbe d3ad 32bd f41c 623e
00000190: 58fe 30bf 12be 8fbd 4b84 69bc d6fa 523f
000001a0: 0213 e93d 97ba 1dc0 f9d2 10bf 87b9 533d
000001b0: 0334 74be b554 bcbe 10e7 023d 07ed 61bf
000001c0: 8d81 a9bf fee2 ebbe 79cf cf3d cb51 5ebe
000001d0: 1fdd 903e 6317 6fbe 71ce 30c0 ae07 373f
000001e0: bed4 093f d185 1f3e 4e05 13bf 3c56 9bbc
000001f0: d7f9 43bf 6cba 0cbf e9c5 443e a0d6 de3e
00000200: e526 153e 3d21 9d3e 3a40 84c0 2077 b8bf
00000210: 4f92 683e f98e 0b3e db11 7dbc 793a 143e
00000220: bed8 e6be fcfb b53e 3b6e febc d708 8c3d
00000230: c6e3 a0bf e015 d7bc 79ba 29be 8390 d6be
00000240: d0e7 6fbd b2aa 7c3e 5be9 eebe 2fcb df3d
00000250: 4484 4bbd 20e4 93be f30d 50bf a2f0 5dbe
00000260: 9461 433e 650b 963d 9e1a bebe a368 fb3d
00000270: 43e2 7dbd e2b5 b3be f04b 253e ad6e 24bf
00000280: 83f6 94be 09b6 debe b824 29bd dade 7a3e
00000290: f0a6 f2be 566b ffbd 71c7 1abf 5db1 bbbe
000002a0: e088 8bbf 74b8 37be bd1b a53e a40e 69c0
000002b0: cf41 ccbf 345e d5be b72a ee3d 4de6 9e3f
000002c0: eaec 5dbe a52e 70be 4ee0 fabf 7480 f33e
000002d0: 3ae4 54be e224 43be 9ef9 6cbf f366 30be
000002e0: d6c9 a6be b368 12be 4e37 f3be 50e7 1f3f
000002f0: 6ff3 c9be 2be2 933f 8d43 243e dd4f b1be
00000300: 224c 483d a916 bebe 6d53 673e 5d45 193e
00000310: dce1 623d 55b3 ffbe 3584 01bf 464b 9bbf
00000320: 6f49 f8bf 4986 76bf 408a a8bf 660a 4ebe
00000330: df97 2b3d 674c 4cbe 1480 11bf c7af 163e
00000340: 7e19 d6bd a37d 8dbe 4e58 c8bc 64af 66bc
00000350: e0b2 debe f8d8 53bb 9830 c53d aba0 cfbf
00000360: 77ee d73e d801 fd3e 9f66 e13e 43d1 01bd
00000370: 7549 6abd 4884 cebe a4f6 be3d 5dc9 babf
00000380: 3c5f 7a3c ed61 12c0 ec7c 9ebd c8c4 3d3e
00000390: 52bd 9a3e 727f 0c3e 9723 e83d f0ed adbe
000003a0: 00dc 41be 284e f13d b4cc 023f 9a00 d93d
000003b0: 17c4 853e cd21 953d 9898 86bb c3c7 2a3d
000003c0: f938 b2be d3ce ca3e 6393 db3e 551f b8be
000003d0: 93ad 5fbe 3fa0 a93e db52 0bbd cee0 193f
000003e0: bea3 fdbd 6175 453a fd20 7d3d 008d f9bf
000003f0: 10bc 46bf 5b1b 1a3e 9699 adbf 130a f83d
-0.085113324 -1.4898995 -0.11057808 -0.47338554 0.13467905 0.105899796 0.23033577 -0.56768346
-0.17192918 0.09682814 0.08219698 0.2399283 -0.10587893 -0.044617694 -0.5489158 0.18209517
-0.38583404 -1.5317427 -0.39857173 0.13950025 0.7312679 -0.006597878 -0.41016135 -0.0933544
0.020644557 -0.064651534 -0.07861969 0.8740004 -1.0070522 -0.14024535 -0.018911257 -0.0711118
-1.7283642 -0.4007733 -0.59376115 0.39073023 0.4359998 0.29783088 0.16654366 -0.64418584
-0.48703817 -0.37185624 -0.3321779 -0.105064586 0.2836644 0.031701658 0.26272184 -0.18919848
0.6969417 -0.02533265 -0.7845362 0.26798537 0.07675519 -0.13598177 0.14543238 -0.42492533
0.13635759 -0.13503845 -0.07621708 0.042203713 -0.03688082 0.6002451 -1.4379497 0.224729
-0.2604788 0.75992453 0.13967304 -1.1939801 -0.40674534 -1.2136369 -0.016105259 -0.21543165
0.122111164 0.0105417 0.07223494 0.20697612 -0.18848933 -0.18579186 -0.26723477 -0.48045465
0.07433319 -1.1876296 0.10357935 0.6769026 0.010376606 -0.19175352 -0.03993243 0.11830842
0.8880302 -0.24374408 0.056953933 -0.17455281 0.3011771 -0.7797781 -0.48634288 0.038385242
-0.58889645 -0.16939148 -0.043622803 0.22081357 -0.691381 -0.07018675 -0.0142527325 0.82413995
0.113805786 -2.4645135 -0.5657192 0.051690605 -0.23847966 -0.36783376 0.03195864 -0.882523
-1.3242661 -0.4607162 0.10146994 -0.21710889 0.28293702 -0.23348765 -2.7626002 0.71496093
0.53840244 0.1557839 -0.5742997 -0.018962018 -0.765531 -0.5497196 0.19216122 0.4352312
0.14565618 0.3068942 -4.13284 -1.4411354 0.22712062 0.13628758 -0.015446152 0.1447543
-0.45087236 0.3554381 -0.031058421 0.068376236 -1.2569511 -0.026255548 -0.1657504 -0.4190713
-0.058570683 0.2467449 -0.4666241 0.10927426 -0.049686685 -0.28884983 -0.81271285 -0.21673825
0.19080192 0.07326392 -0.37129682 0.12275817 -0.061983358 -0.35099703 0.16142249 -0.6423138
-0.29094324 -0.43498257 -0.041294783 0.24499074 -0.47392988 -0.124716446 -0.60460573 -0.36658755
-1.0901146 -0.17941457 0.32247725 -3.6415186 -1.5957583 -0.41673434 0.11629241 1.2414032
-0.21672407 -0.23455293 -1.9599702 0.4755894 -0.20790187 -0.19057038 -0.92568386 -0.17226772
-0.32575864 -0.14297752 -0.47503132 0.6246233 -0.39443538 1.1553396 0.16041394 -0.34631243
0.04890073 -0.37126663 0.22590418 0.14967866 0.055391178 -0.49941507 -0.50592357 -1.2132347
-1.939741 -0.9629865 -1.316719 -0.20121154 0.041892882 -0.1995102 -0.56836057 0.14715491
-0.10454081 -0.27634916 -0.02445617 -0.014079902 -0.43495846 -0.0032325368 0.09628409 -1.6220907
0.42174122 0.4941547 0.44023606 -0.03169371 -0.05719896 -0.40335298 0.09324387 -1.4592701
0.015281495 -2.287227 -0.07738671 0.18532097 0.30222565 0.13720492 0.11334913 -0.33970594
-0.1893158 0.11782485 0.510936 0.10595818 0.26126167 0.072818376 -0.004107546 0.041694414
-0.34809092 0.3961092 0.42885885 -0.35961404 -0.21843557 0.3313007 -0.034014564 0.6010865
-0.12384747 0.00075324444 0.06179904 -1.9496155 -0.7763071 0.15049498 -1.3562496 0.121112965
