SAC/checkpoints/BipedalWalker-v3/04_best_agent.pth (torch, 891687 bytes, 17 tensors)

log_alpha f8 []
0	0xc020a0398488d181	-8.312938825322592

actor.0.weight f4 [256, 24]
0	0x3e39a2d9	0.18128528
1	0x40177ad6	2.3668723
2	0x3f4eed8f	0.80831236
3	0xbd7aa010	-0.061187804
4	0xbe620b13	-0.22074537
5	0x3e115337	0.141919
6	0x3e8d8fa6	0.27648658
7	0x3ed1ad74	0.40952647
8	0x3e52f5a0	0.20601511
9	0x3e27820b	0.16358201
10	0xbd475ff4	-0.048675492
11	0x3dcf1b67	0.101126485
12	0xbd55d308	-0.05220321
13	0x3ec77831	0.38958886
14	0xbde0868b	-0.10963162
15	0x3d949226	0.07254438
16	0xbdc3653d	-0.09540794
17	0x3d2d252d	0.04227178
18	0x3d48a186	0.048982166
19	0x3cabdc65	0.020979116
20	0xbe3815ee	-0.17977116
21	0xbe29c86c	-0.16580361
22	0xbe13cbf7	-0.14433275
23	0xbe854cf8	-0.26035285
24	0xbefa32a5	-0.48866764
25	0xbf50b7b5	-0.81530315
26	0x3e44f97c	0.19235796
27	0x3f2287bc	0.63488364
28	0xbe93ae02	-0.28843695
29	0xbdda4887	-0.10658365
30	0x3e66cb4a	0.22538486
31	0x398bbe3e	0.00026653887
32	0x3de18f14	0.11013618
33	0xbf5f1ea7	-0.87156147
34	0xbdc855af	-0.09781968
35	0x3ebe5c89	0.37179974
36	0x3de6944b	0.112587534
37	0xbea04ca4	-0.31308472
38	0xbcd52ff0	-0.026023835
39	0x3d7013eb	0.058612745
40	0xbe0c8567	-0.13722764
41	0x3dd37970	0.10325897
42	0xbd430109	-0.04760841
43	0xbd892aa9	-0.0669759
44	0xbe15db80	-0.14634514
45	0x3d901e15	0.07036988
46	0x3d734186	0.05938866
47	0x3dc48e1b	0.09597417
48	0xbecae5bd	-0.396284
49	0xbe638a13	-0.2222064
50	0x3ee39324	0.44448197
51	0xbfa65d90	-1.2997303
52	0xbe578f80	-0.21050835
53	0x3e2eab66	0.17057571
54	0xbf306bc7	-0.68914455
55	0xbca95453	-0.020670092
56	0x3cae27f0	0.021259278
57	0x3e8ec3ff	0.27883908
58	0x3ea31321	0.31850532
59	0x3f12e00f	0.57373136
60	0xbd5d9f38	-0.05410692
61	0xbe178fd3	-0.14800958
62	0x3d327b2f	0.04357451
63	0xbdd79986	-0.10527329
64	0xbd7aa809	-0.061195407
65	0xbdf240d7	-0.118287735
66	0xbe77ead2	-0.2421067
67	0xbcfd26ea	-0.030902345
68	0xbbe16112	-0.0068780268
69	0xbe7194e7	-0.23591958
70	0xbe1b8464	-0.15187222
71	0x3d37b5dd	0.044851173
72	0x3ebf1d8b	0.37327227
73	0x3f7613dc	0.96124053
74	0xbbf01230	-0.007326387
75	0x3d3bc86e	0.04584544
76	0x3e6cfa26	0.23142299
77	0x3e188569	0.14894642
78	0xbec2e22e	-0.38063186
79	0xbe56ac4c	-0.20964164
80	0x3d6f35bc	0.058400854
81	0x3ecdc956	0.4019267
82	0x3dcbb5cb	0.09946784
83	0xbeb5d24e	-0.35512012
84	0x3e2c6844	0.16836649
85	0x3dba4d69	0.09096796
86	0xbd442bbb	-0.047893267
87	0xbd6b41dc	-0.057435855
88	0xbe7e72bc	-0.24848455
89	0xbe262d84	-0.162283
90	0xbda410ef	-0.08011042
91	0xbe80eda9	-0.2518132
92	0xbdfb0918	-0.12257594
93	0xbd81336f	-0.06308638
94	0xbdff7807	-0.12474065
95	0xbb7caadc	-0.0038553989
96	0x3ea23942	0.3168431
97	0xc0097a40	-2.1480865
98	0x3f02f342	0.5115243
99	0xbf21af29	-0.631579
100	0xbd079814	-0.033104017
101	0xbe23732c	-0.15961903
102	0x3dad51f1	0.08462895
103	0xbde76c65	-0.112999715
104	0xbd03986a	-0.032127775
105	0x3ea6ff83	0.32616815
106	0x3dc4a803	0.09602358
107	0x3db084a6	0.08619051
108	0x3ef6e42d	0.4822096
109	0x3eaa9075	0.33313337
110	0xbcdb5cd5	-0.026777664
111	0xbe3b6b4d	-0.18302651
112	0xbe7fad5e	-0.24968478
113	0xbd8dbdcb	-0.06920966
114	0xbe5a0e20	-0.21294451
115	0xbac346c5	-0.001489841
116	0xbd28e690	-0.041235507
117	0x3b90f31e	0.004423513
118	0xbdaba7cd	-0.08381615
119	0x3bc2212c	0.0059243646
120	0x3df3ea8b	0.1190997
121	0x3f647d4d	0.89253694
122	0x3efb1b83	0.49044427
123	0x3ddcb69a	0.10777016
124	0xbe145ac2	-0.14487746
125	0xbda1fc7c	-0.07909486
126	0xbdab9109	-0.08377273
127	0x3d8ecbe5	0.069724835
128	0xbf09626b	-0.536658
129	0xbe49c3cc	-0.19703597
130	0x3d509782	0.05092574
131	0xbf631cbb	-0.88715714
132	0x3c79392b	0.015211384
133	0x3eb5da7e	0.3551826
134	0x3b45cb7a	0.0030181096
135	0xbda830cf	-0.082124345
136	0xbdac1142	-0.08401729
137	0xbd98e4e4	-0.074655324
138	0xbe17f024	-0.148377
139	0xbe2b9ebd	-0.16759773
140	0x3cb0646a	0.021532256
141	0xbe8978e5	-0.26850048
142	0x3d54b3d5	0.051929314
143	0xbde5b756	-0.11216609
144	0xbe84ebc3	-0.25961122
145	0x3ea6a20f	0.32545516
146	0xbefdfe11	-0.496079
147	0x3ebc2c96	0.36752766
148	0xbcd6b7a1	-0.026210608
149	0xbebf9de5	-0.3742515
150	0xbe50236a	-0.2032601
151	0x3e00bd72	0.12572268
152	0x3d96d424	0.07364681
153	0x3e65390a	0.2238504
154	0x3ea84fc8	0.32873368
155	0xbcf7abf2	-0.030233357
156	0x3ec799a3	0.38984403
157	0x3d6d691a	0.05796156
158	0xbcca413d	-0.024689311
159	0x3d6241b0	0.055238426
160	0xbceff3ac	-0.029290996
161	0x3dfb7c02	0.12279512
162	0x3e2491d6	0.16071257
163	0xbd5c6ebd	-0.053816546
164	0x3cf9a766	0.03047533
165	0x3e1d23c9	0.15345682
166	0x3ca161e9	0.019700008
167	0xbebb62e8	-0.36598897
168	0xbf4b1eaf	-0.79343694
169	0xbf5672d9	-0.83768994
170	0xbe5598ef	-0.20859121
171	0xbf87aa38	-1.0598822
172	0x3e308adb	0.17240469
173	0x3eb818fb	0.3595656
174	0x3f153580	0.5828476
175	0x3d163302	0.03666974
176	0x3e9e1a19	0.30879286
177	0xbeb01d86	-0.34397525
178	0xbec73f66	-0.38915557
179	0x3ede700f	0.4344487
180	0xbe0cbfb2	-0.13745001
181	0xbeb294d4	-0.34879172
182	0x3d4e36e2	0.05034531
183	0xbe449964	-0.19199139
184	0xbe6335cb	-0.22188489
185	0x3d6266f9	0.055273984
186	0xbe47ef47	-0.19524871
187	0xbd5ba7ac	-0.0536267
188	0xbe7c3932	-0.24631193
189	0xbe328ecf	-0.1743729
190	0xbb89d2f8	-0.0042060576
191	0xbdbd5caf	-0.092461936
192	0xbf4e2e40	-0.8053932
193	0xbfc43fa1	-1.5331918
194	0xbed412e0	-0.4142065
195	0x3e1b24cb	0.15150754
196	0x3e1f34bb	0.15547459
197	0x3d5b339b	0.05351601
198	0x3e89dc30	0.26925802
199	0xbe95341d	-0.29141322
200	0x3eb84b5d	0.35994998
201	0xbe450080	-0.19238472
202	0x3e918707	0.2842333
203	0x3ea7fd4f	0.32810447
204	0xbc1815aa	-0.009282509
205	0x3ebf4947	0.37360594
206	0xbe6db7cb	-0.23214643
207	0xbe6ec5c4	-0.23317629
208	0xbda12136	-0.078676626
209	0xbdf7e03a	-0.12103315
210	0xbcd6d671	-0.0262253
211	0xbd002840	-0.031288385
212	0xbe16893b	-0.14700787
213	0xbe04f2bc	-0.12983221
214	0xbe935fec	-0.2878412
215	0xbe0dc28d	-0.13843746
216	0x3ecbf878	0.39838004
217	0xbf607d35	-0.8769105
218	0xbe71d173	-0.23615055
219	0xbf29a903	-0.66273516
220	0xbf403bd2	-0.7509128
221	0xbd982a85	-0.07429985
222	0xbde7240e	-0.11286174
223	0x3eaa1f69	0.3322709
224	0xbecb2379	-0.396755
225	0x3f0a6193	0.54055136
226	0x3db93479	0.090432115
227	0xbd436463	-0.047703158
228	0xbcc993b7	-0.024606569
229	0x3e8fb73f	0.28069493
230	0x3ce0a60b	0.027422925
231	0x3d4d9546	0.050191186
232	0x3dc188f7	0.09449952
233	0xbd77015a	-0.060304023
234	0xbd92ad9f	-0.07162022
235	0xbdca8cd0	-0.09890139
236	0xbc3c46b6	-0.011491468
237	0xbc1cfe2b	-0.009582083
238	0xbd9da9b4	-0.07698384
239	0x3d7d664a	0.06186513
240	0xbd7062ef	-0.0586881
241	0xbe864e8c	-0.26231802
242	0xbd3d6837	-0.046241965
243	0xbf0032fe	-0.5007781
244	0xbf00447f	-0.50104517
245	0x3e192676	0.14956078
246	0xbefe6459	-0.49685934
247	0x3cf0bb2c	0.029386126
248	0xbf37f92f	-0.718646
249	0xbe6b92da	-0.23005238
250	0xbde9d6ee	-0.11417948
251	0xbe03314e	-0.12811777
252	0x3dbc50d6	0.09195106
253	0x3e10ca81	0.14139749
254	0xbe1e7f73	-0.15478306
255	0xbbe7c5b6	-0.0070731295

actor.0.bias f4 [256]
0	0xbe1582a4	-0.14600617
1	0x3d24db95	0.040248472
2	0x3cb3e7e9	0.02196117
3	0xbe2c67c3	-0.16836457
4	0xbe0ec8a9	-0.13943733
5	0x3c98dcbb	0.01865994
6	0xbe7e434f	-0.24830364
7	0x3db2f27b	0.08737656
8	0xbdd98fab	-0.106231056
9	0xbd2c32c1	-0.04204059
10	0xbc84d0ba	-0.01621281
11	0x3d6d27b2	0.057899185
12	0xbe484b85	-0.19560058
13	0xbe43e570	-0.19130492
14	0xbe17096d	-0.1474969
15	0xbe2e7378	-0.17036235
16	0xbe30aea3	-0.17254119
17	0xbe07e5dc	-0.13271278
18	0xbd95a07f	-0.07306003
19	0xbe03cf93	-0.12872152
20	0xbe31cd73	-0.17363529
21	0xbe287143	-0.16449456
22	0xbe56c2a0	-0.20972681
23	0xbe1fe63b	-0.1561517
24	0x3e392228	0.18079436
25	0xbe8c9656	-0.27458447
26	0xbe298948	-0.16556275
27	0xbe042018	-0.12902868
28	0xbe14615c	-0.14490265
29	0x3c8a96e1	0.016917648
30	0xbe9968c1	-0.29962733
31	0xbd5d1a9e	-0.053980462
32	0x3c65e216	0.014030954
33	0xbe6d3803	-0.23165898
34	0x3de91cd1	0.113824494
35	0xbdc72628	-0.097240746
36	0xbdb6af20	-0.08920121
37	0xbd98153f	-0.07425927
38	0x3dd1a97a	0.10237403
39	0xbe1f2fc1	-0.1554556
40	0xbe8a9640	-0.27067757
41	0x3d8062b8	0.06268829
42	0x3c7499d9	0.014929258
43	0x3de3f707	0.11131101
44	0xbd107d9d	-0.035276044
45	0xbe5a0453	-0.21290712
46	0x3dd7c0a9	0.10534794
47	0xbe433fa7	-0.1906725
48	0x3c6baaa4	0.014383946
49	0xbda29fab	-0.079406105
50	0x3dc1a4a6	0.09455232
51	0xbe54a5ec	-0.20766419
52	0xbeb1a835	-0.34698644
53	0x3d72d7e2	0.059287913
54	0xbe59c68c	-0.21267146
55	0x3d03b324	0.032153264
56	0x3ce633a6	0.0281008
57	0xbdcb044f	-0.09912931
58	0xbeac3abd	-0.33638564
59	0xbb4fe36d	-0.003172125
60	0xbce260b0	-0.027633995
61	0xbc03fe24	-0.008056197
62	0xbcc3a126	-0.023880553
63	0x3cb8eed6	0.022574823
64	0xbd0c3d9c	-0.034238443
65	0x3e3b2f58	0.18279779
66	0xbe034303	-0.12818532
67	0x3c1a2d15	0.009410162
68	0xbe499c69	-0.19688572
69	0x3d319399	0.04335365
70	0xbc5224ba	-0.012826139
71	0x3d2e5280	0.042559147
72	0xbe2e76de	-0.17037532
73	0xbe3744b0	-0.17897296
74	0x3bec3455	0.007208387
75	0x3dd60aaa	0.10451253
76	0xbe04b7c3	-0.12960725
77	0xbe7de16b	-0.24793021
78	0xbd8c8876	-0.06861965
79	0xbea50c39	-0.32235888
80	0x3e4ffe2b	0.20311801
81	0xbe407512	-0.18794659
82	0xbeb2f1bd	-0.34950057
83	0xbe16bb30	-0.14719844
84	0x3ddb975f	0.10722231
85	0x3ab26ca1	0.0013612696
86	0xbde97773	-0.11399736
87	0xbde0b0fe	-0.109712586
88	0xbe0467e3	-0.12930255
89	0xbe060113	-0.13086347
90	0x3e569aff	0.20957564
91	0xbd8956e7	-0.067060284
92	0x3da16852	0.07881226
93	0xbcc326ec	-0.02382227
94	0xbdb6bfbd	-0.0892329
95	0xbe4c77e1	-0.19967605
96	0x3d39998f	0.04531246
97	0xbd3e27b3	-0.04642458
98	0xbd3a417f	-0.04547262
99	0xbdac42c0	-0.08411169
100	0xbe276805	-0.16348274
101	0x3d492369	0.049106035
102	0xbc95c248	-0.018281117
103	0xbdf1f144	-0.11813596
104	0xbd5c400a	-0.05377201
105	0x3d824225	0.06360272
106	0xbd92ab58	-0.071615875
107	0xbe382be5	-0.17985494
108	0x3d99c46f	0.0750817
109	0xbe3746e3	-0.17898135
110	0xbcf01f3d	-0.02931177
111	0x3bde2bc1	0.006780118
112	0xbe9c59a3	-0.30537137
113	0xbd9aefd3	-0.07565274
114	0xbe5519c1	-0.20810606
115	0xbc1ac901	-0.009447337
116	0xbd3add03	-0.04562093
117	0xbe55f459	-0.20893992
118	0xbe6bf3ac	-0.23042172
119	0xbdc71986	-0.09721665
120	0xbd9c5b9b	-0.0763466
121	0xbd9663fb	-0.073432885
122	0xbdd3b061	-0.10336376
123	0xbdfa7dbf	-0.122310154
124	0xbdffd570	-0.12491882
125	0x3c750b86	0.014956361
126	0x3d39c70a	0.045355834
127	0xbe1dc98a	-0.15408912
128	0x3d3ffa87	0.04686978
129	0xbe8df100	-0.2772293
130	0xbde251d0	-0.11050761
131	0xbdf57db8	-0.119868696
132	0xbc1fdffc	-0.009757992
133	0x3e0f7c1c	0.14012188
134	0xbdeee232	-0.11664237
135	0xbe3c6883	-0.18399243
136	0x3e18b358	0.14912164
137	0xbbc7e2eb	-0.006100049
138	0xbe8b5a64	-0.272174
139	0x3e438454	0.19093448
140	0x3d889d47	0.06670623
141	0xbc89348c	-0.01674869
142	0xbe2f5a64	-0.17124325
143	0xbd365bd8	-0.044521183
144	0x3dd8f1b4	0.10592976
145	0xbd705b17	-0.05868062
146	0xbd7da3e5	-0.06192388
147	0x3d89ac1c	0.067222804
148	0x3dccf336	0.10007326
149	0xbe425ff8	-0.18981922
150	0x3da22e37	0.07918971
151	0xbddbfa36	-0.10741083
152	0xbe6cf0c9	-0.23138727
153	0xbe508fcd	-0.20367356
154	0x3d92512e	0.0714439
155	0x3d607005	0.05479433
156	0xbdaa7ed7	-0.08324974
157	0xbe46427c	-0.193613
158	0xbdde3e84	-0.10851768
159	0xbeb89f65	-0.36059108
160	0x3d48e1b1	0.04904336
161	0xbe1e7759	-0.15475215
162	0xbd4a789c	-0.04943143
163	0xbe3f671b	-0.18691675
164	0x3d979175	0.074007906
165	0xbe9e8175	-0.30958143
166	0x3c950875	0.01819251
167	0xbc8b23d6	-0.016984861
168	0xbdb5ecea	-0.088830784
169	0xbdfb4aa4	-0.12270096
170	0xbd61590c	-0.055016562
171	0xbe1df781	-0.15426446
172	0x3d39d0ea	0.04536525
173	0x3cba600c	0.022750877
174	0xbe32ca76	-0.17460045
175	0xbca4a3a4	-0.020097561
176	0x3e84411b	0.25830922
177	0xbebc0739	-0.3672426
178	0xbdca7e4e	-0.09887372
179	0xbea2f388	-0.31826425
180	0xbc9b0c8c	-0.018926881
181	0xbe1620d1	-0.14660956
182	0xbe48812d	-0.19580527
183	0xbd85acb4	-0.06527081
184	0xbdd855e9	-0.10563261
185	0xbe39bb84	-0.18137938
186	0xbe546482	-0.20741466
187	0xbe40ab65	-0.18815382
188	0xbe54aa0c	-0.20767993
189	0x3cf5169f	0.029918013
190	0xbd9b1b4b	-0.07573565
191	0xbe745f84	-0.23864561
192	0xbdd79a20	-0.10527444
193	0xbd58b595	-0.052907545
194	0xbe5711dc	-0.21002907
195	0xbdd2c5f6	-0.10291664
196	0x3d39f089	0.045395408
197	0x3d9c190f	0.07621967
198	0xbdf3126b	-0.11868747
199	0xbd8a03c2	-0.06738998
200	0xbdb85d78	-0.09002203
201	0x3dbfe9c1	0.09370757
202	0x3cb1922b	0.021676144
203	0xbe11cdfa	-0.1423873
204	0xbe18ccc7	-0.14921866
205	0xbd542eb3	-0.05180235
206	0xbd776f03	-0.060408603
207	0xbce0a669	-0.0274231
208	0x3d98bc61	0.074578054
209	0xbd336b28	-0.043803364
210	0xbe77f97a	-0.24216262
211	0xbbcea80b	-0.0063066534
212	0xbd60f9b3	-0.05492563
213	0xbd8f8cb9	-0.070092626
214	0x3a1201fa	0.00055697525
215	0xbe2e4057	-0.17016731
216	0x3e0ae0e2	0.13562348
217	0xbe160eed	-0.14654131
218	0x3d6abdf8	0.057310075
219	0xbe33090f	-0.17483924
220	0xbe247431	-0.16059949
221	0x3c8a2529	0.016863422
222	0xbe4337de	-0.1906428
223	0xbdb6ac44	-0.08919576
224	0x3d58801c	0.05285655
225	0xbe5f9eae	-0.21837875
226	0xbd9774e9	-0.07395346
227	0xbd8e73dd	-0.06955693
228	0xbe92a95e	-0.28644842
229	0xbe3ae489	-0.18251242
230	0xbdba5f3e	-0.09100197
231	0xbaf92535	-0.0019008281
232	0x3de919b5	0.11381856
233	0x3e1e8188	0.154791
234	0x3e802391	0.25027135
235	0xbe1eca27	-0.15506802
236	0xbe6132c0	-0.21992016
237	0xbdc72401	-0.09723664
238	0xbbc5e9d5	-0.006039838
239	0x3e28f23d	0.16498657
240	0x3ca0e0f5	0.019638518
241	0xbe5c316e	-0.21503231
242	0xbedb8d99	-0.42881468
243	0x3c601378	0.013676517
244	0x3e192490	0.14955354
245	0xbdb06a9f	-0.08614086
246	0x3dd1e964	0.10249594
247	0xbc64be68	-0.013961412
248	0x3deae2d1	0.11469043
249	0xbe019ef1	-0.12658288
250	0xbde3fe5c	-0.111324996
251	0xbeab4b53	-0.33455905
252	0x3d1f3d8c	0.038877055
253	0xbe486793	-0.1957076
254	0x3cf6a682	0.030108694
255	0xbd666b42	-0.056254633

actor.2.weight f4 [256, 256]
0	0xbf09144a	-0.53546584
1	0xbcb0c465	-0.021578023
2	0x3e735bd1	0.23765494
3	0x3ec63710	0.38713884
4	0xbee44473	-0.44583473
5	0xbe426649	-0.18984331
6	0x3d8c0b8a	0.068381384
7	0xbf3628fb	-0.7115628
8	0xbdaf02ce	-0.08545457
9	0x3ec4ce01	0.38438419
10	0x3dd406ba	0.103528455
11	0xbdaf96fa	-0.08573718
12	0xbe9b62c1	-0.3034878
13	0x3e2a7ed0	0.16649938
14	0xbf41102f	-0.7541532
15	0x3ecd3a5b	0.40083584
16	0xbf4a1dac	-0.78951526
17	0xbed1b93c	-0.40961635
18	0xbe821634	-0.25407565
19	0xbe824ad7	-0.25447723
20	0xbe8b7731	-0.27239373
21	0xbe544938	-0.20731056
22	0x3d6cf020	0.05784619
23	0xbe983ca4	-0.29733765
24	0x3dbb6987	0.09150987
25	0xbe03653a	-0.12831584
26	0xbf83178b	-1.024156
27	0xbe814cdf	-0.2525396
28	0xbeb7a16c	-0.35865343
29	0x3e30e8e0	0.17276335
30	0xbb480efa	-0.0030526505
31	0x3e1ab6e9	0.15108837
32	0x3e9425e5	0.2893516
33	0xbeff46ce	-0.49858707
34	0xbfd86e63	-1.6908687
35	0x3e81e0d6	0.2536685
36	0xbe6ff275	-0.23432334
37	0xbf599895	-0.84998447
38	0xbf29eed0	-0.66380024
39	0x3eb30488	0.34964395
40	0xbd8af561	-0.067850836
41	0xbe95a3f5	-0.29226652
42	0x3d9896a7	0.0745061
43	0xbe0d9603	-0.13826756
44	0xbe942abc	-0.28938854
45	0x3dafd60d	0.08585749
46	0xbe9f228b	-0.31081042
47	0x3dfce504	0.12348369
48	0x3f5d96c0	0.8655815
49	0xbe2932a1	-0.1652322
50	0xbea4a807	-0.32159445
51	0x3e0f71e9	0.14008297
52	0xbee7f1d7	-0.45301697
53	0x3e53d5a3	0.20686965
54	0xbda309d9	-0.07960863
55	0x3daa7c81	0.083245285
56	0xbeab7961	-0.33491042
57	0xbe65c932	-0.22440031
58	0x3e1ebe66	0.15502319
59	0xbe8a1d80	-0.26975632
60	0xbcfa6cb8	-0.03056942
61	0xbeb87500	-0.36026764
62	0x3ebcb0e3	0.36853704
63	0xbe9a5c91	-0.30148748
64	0xb9c1d1b7	-0.00036968078
65	0xbeae0be6	-0.33993453
66	0x3e998040	0.2998066
67	0xbea9b8c0	-0.33148766
68	0x3e840209	0.25782803
69	0xbece4922	-0.4029017
70	0xbc5fa055	-0.013649066
71	0xbebef2f3	-0.3729473
72	0xbbeed13b	-0.007288126
73	0xbe023c52	-0.12718323
74	0xbe7f044f	-0.24903987
75	0xbd8efad5	-0.06981436
76	0xbeb54d4a	-0.3541053
77	0xbec2413b	-0.37940392
78	0x3d8cf0b5	0.06881849
79	0xbd85dad2	-0.06535877
80	0xbf7ec3ae	-0.99517334
81	0x3e9d2a33	0.30696258
82	0xbe92e5ea	-0.28691036
83	0x3e97c83f	0.29644963
84	0xbe83874c	-0.2568916
85	0xbe939212	-0.2882238
86	0x3e86982a	0.26287967
87	0x3cc11581	0.023569824
88	0xbd44460d	-0.047918368
89	0xbe8ca384	-0.27468503
90	0xbe887ec3	-0.26659212
91	0xbe1a2c40	-0.15055943
92	0xbeac2673	-0.33623084
93	0xbda99f57	-0.08282345
94	0x3d566455	0.052341778
95	0x3e93546e	0.28775352
96	0x3f5f692e	0.87269866
97	0x3eb1b6c6	0.34709758
98	0x3e738c8a	0.2378408
99	0x3e57a5b5	0.21059306
100	0x3e2a6730	0.16640925
101	0x3e9ff444	0.31241047
102	0x3e7acf3d	0.24493118
103	0xbe036c80	-0.12834358
104	0xbe242075	-0.16028006
105	0xbebb2a6d	-0.36555806
106	0x3f81e646	1.0148399
107	0x3eaec752	0.34136444
108	0xbe464126	-0.1936079
109	0xbe143c9d	-0.14476247
110	0x3e150445	0.1455241
111	0x3d6a8c38	0.05726263
112	0xbf354d05	-0.7082065
113	0x3d4fa501	0.05069447
114	0xbee6a12a	-0.45044833
115	0x3d797c4a	0.060909547
116	0x3d55a073	0.05215497
117	0x3e6625cf	0.2247536
118	0xbf4fedab	-0.8122203
119	0xbeb955dd	-0.3619832
120	0xbd81bb2e	-0.0633453
121	0xbc975e23	-0.018477505
122	0xbea084bf	-0.31351277
123	0xbed295a4	-0.41129792
124	0xbe9d33d7	-0.30703613
125	0xbd9db886	-0.07701211
126	0xbe40ac39	-0.18815698
127	0x3d094702	0.033514984
128	0xbee942f0	-0.45558882
129	0x3e739d06	0.23790368
130	0xbef7b360	-0.4837904
131	0xbe4d343c	-0.20039457
132	0xbf5965d3	-0.84920996
133	0xbf14c9ae	-0.5812024
134	0x3ce9e84a	0.028553147
135	0xbf0e21fb	-0.555206
136	0x3ecdb8a5	0.40179935
137	0x3d906869	0.07051165
138	0xbc14ae48	-0.009074755
139	0x3e5af690	0.21383119
140	0x3d969a6e	0.07353674
141	0x3e974337	0.29543468
142	0xbd5ab49a	-0.05339489
143	0xbbb9ca8e	-0.0056698984
144	0x3eb44479	0.3520849
145	0x3e43100a	0.19049087
146	0xbe99f411	-0.3006902
147	0xbe3ef95a	-0.18649808
148	0xbf124e67	-0.5715088
149	0x3dc49138	0.09598011
150	0xbecc6b45	-0.3992559
151	0x3e7d994c	0.2476551
152	0x3c4edffb	0.012626643
153	0xbe5f77c3	-0.21823029
154	0xbd8a8de6	-0.06765346
155	0x3e13c110	0.14429116
156	0x3f11f5d1	0.5701571
157	0xbca270af	-0.019829122
158	0x3f26473d	0.6495245
159	0x3db89480	0.09012699
160	0xbed27c82	-0.41110617
161	0x3ebd8fd5	0.37023798
162	0x3d9194b7	0.07108443
163	0x3e61dbd0	0.22056508
164	0x3eefaf50	0.4681344
165	0xbe10c906	-0.14139184
166	0xbe66ed5c	-0.22551483
167	0xbe8989df	-0.26863
168	0x3c9d17f6	0.019176465
169	0x3c443368	0.011975147
170	0xbee30708	-0.44341302
171	0x3df5d868	0.12004167
172	0x3e631d40	0.22179127
173	0x3eb45bf0	0.35226393
174	0x3e247f81	0.16064264
175	0xbf0ffe5b	-0.5624749
176	0xbe3485a6	-0.17629108
177	0xbec06061	-0.3757353
178	0x3d8e751e	0.06955932
179	0xbcbc9ce0	-0.023024023
180	0x3df37b53	0.118887566
181	0xbe2fd942	-0.17172721
182	0x3e092291	0.13392092
183	0x3ca22d61	0.019797029
184	0xbbc49b60	-0.0059999675
185	0xbe58d157	-0.21173607
186	0x3e88e28b	0.2673534
187	0xbdc8ef39	-0.09811253
188	0xbe472a27	-0.19449674
189	0xbea92fee	-0.3304438
190	0xbe8e2697	-0.27763817
191	0xbea09d67	-0.31370088
192	0x3ea577be	0.3231792
193	0x3d954362	0.07288243
194	0x3e8ad8ef	0.27118632
195	0xbd875430	-0.06607854
196	0x3f16d007	0.58911175
197	0xbf84a06f	-1.036146
198	0xbee905a4	-0.45512116
199	0xbf4354e4	-0.7630141
200	0x3edec59b	0.43510136
201	0x3e4b33d2	0.19843987
202	0x3a57ca4a	0.00082317425
203	0x3e54323a	0.20722285
204	0xbecd366f	-0.40080592
205	0xbe9f2a44	-0.31086934
206	0xbe596fc4	-0.21234041
207	0xbed5435a	-0.41652948
208	0x3ec67a97	0.38765404
209	0xbf28d132	-0.65944207
210	0xbde551f8	-0.11197275
211	0x3df9b43b	0.12192579
212	0xbf323f30	-0.69627666
213	0x3cdae0d3	0.026718533
214	0x3eb47e77	0.35252735
215	0xbec52e4e	-0.3851189
216	0x3c4f3c0a	0.012648592
217	0xbd743c64	-0.059627905
218	0x3df504c4	0.119637996
219	0xbe979082	-0.29602438
220	0xbe9849ac	-0.29743707
221	0xbf1520f9	-0.5825344
222	0xbee9e0f3	-0.45679435
223	0xbf13313b	-0.57496995
224	0xbe83e170	-0.25757933
225	0x3e374149	0.17895998
226	0xbe2dd7d5	-0.16976865
227	0xbdd900b5	-0.10595838
228	0xbe31d435	-0.17366107
229	0xbcc4e74a	-0.024036068
230	0x3e523254	0.20527011
231	0xbfb52062	-1.4150507
232	0xbe762d65	-0.24040754
233	0xbeb95c99	-0.3620346
234	0xbd97c35a	-0.07410307
235	0x3c514ea6	0.012775099
236	0xbd587a44	-0.052850977
237	0xbec177aa	-0.3778661
238	0xbe1a7864	-0.15084988
239	0x3e35c81c	0.17752117
240	0xbfb92c4a	-1.4466641
241	0x3f025cfe	0.50923145
242	0xbd82bb97	-0.06383436
243	0x3e3b6d09	0.18303312
244	0xbf910bc3	-1.1331714
245	0x3d3cb307	0.04606917
246	0xbedd2e93	-0.43199596
247	0x3e0530e7	0.13006936
248	0xbebf3d40	-0.37351418
249	0x3e368b22	0.17826512
250	0xbfb09c92	-1.3797781
251	0x3db7ba1e	0.08971046
252	0xbee4178b	-0.44549212
253	0x3ebf318d	0.37342492
254	0xbe0b2d79	-0.13591565
255	0xbc9ea7e3	-0.019367164

actor.2.bias f4 [256]
0	0xbe16fd18	-0.14744985
1	0xbde3c73d	-0.11121986
2	0x3e168330	0.14698482
3	0x3e0659a1	0.13120128
4	0x3d6370d1	0.055527512
5	0x3eae57e8	0.34051442
6	0xbddf4d50	-0.10903418
7	0x3c86de73	0.016463494
8	0xbdf13f1d	-0.11779616
9	0x3d3befa5	0.04588284
10	0xbe2efae3	-0.17087893
11	0x3cd558a6	0.026043247
12	0x3dfac9dd	0.122455336
13	0xbd59e3f8	-0.053195924
14	0x3eca584f	0.395205
15	0x3e262c86	0.16227922
16	0xbd8adc2e	-0.06780277
17	0xbd895bf0	-0.06706989
18	0xbdb9e54e	-0.090769395
19	0x3e69906e	0.22809002
20	0x3e661bbd	0.22471519
21	0x3e7e0552	0.24806717
22	0x3d8b6d32	0.06807937
23	0xbe952c4c	-0.29135358
24	0xbe8603e3	-0.2617484
25	0xbe3d6a93	-0.18497686
26	0x3e02be13	0.1276782
27	0x3d95d78b	0.07316502
28	0xbe8e27a1	-0.2776461
29	0xbe91b0be	-0.28455156
30	0xbd0eefa0	-0.034896493
31	0x3dc322b4	0.095281035
32	0xbe8c54cc	-0.27408445
33	0xbded2b67	-0.11580544
34	0x3c4adcd9	0.012381756
35	0xbdb76bc7	-0.08956104
36	0x3e046e0b	0.12932603
37	0xbe169ba1	-0.14707805
38	0xbe973044	-0.2952901
39	0xbe787f36	-0.24267277
40	0xbd88061e	-0.06641792
41	0xbe5842f1	-0.21119286
42	0xbd56752f	-0.05235785
43	0x3e269147	0.16266356
44	0xbe55c10d	-0.20874424
45	0x3d97e380	0.07416439
46	0x3cdc20bc	0.026871078
47	0x3e16159d	0.14656682
48	0x3cdc935d	0.026925737
49	0xbe1d3849	-0.15353502
50	0xbe1bab2a	-0.15202013
51	0xbe8da404	-0.27664196
52	0xbec3b192	-0.38221413
53	0xbdb03eb6	-0.08605711
54	0xbca47505	-0.02007533
55	0x3e756046	0.23962507
56	0xbe9a7a4f	-0.3017144
57	0xbec463b7	-0.38357326
58	0xbc616a22	-0.013758214
59	0x3d9c469e	0.07630657
60	0xbe12aaa1	-0.14322902
61	0xbd31a7ab	-0.04337279
62	0x3eab8cca	0.3350585
63	0xbcf82489	-0.030290859
64	0xbdcda5f8	-0.10041422
65	0x3e402af9	0.18766393
66	0xbe397246	-0.18109998
67	0xbe8c5c50	-0.2741418
68	0xbe54be37	-0.20775686
69	0x3e4320c5	0.1905547
70	0xbe10a89f	-0.14126824
71	0x3d6d24b9	0.05789635
72	0xbea97fff	-0.33105466
73	0xbe22f051	-0.15911986
74	0x3dac1e0b	0.08404168
75	0x3d7e8c33	0.062145423
76	0x3dc6f348	0.09714371
77	0x3ead3d32	0.3383575
78	0xbe50bf9a	-0.2038559
79	0x3e01893f	0.12650011
80	0xbd34b77b	-0.044120293
81	0x3e3db172	0.18524721
82	0xbdece538	-0.115671575
83	0x3e717c7e	0.23582646
84	0x3eb525e8	0.35380483
85	0xbeafccdd	-0.34335986
86	0xbd367f05	-0.04455473
87	0xbcfbee2c	-0.030753218
88	0xbd5ce075	-0.053924996
89	0xbd1a3a90	-0.037653506
90	0x3d789e42	0.0606978
91	0x3e8aebbc	0.27132976
92	0xbd711a80	-0.058863163
93	0xbe328de5	-0.17436941
94	0xbe4fb8e4	-0.20285374
95	0xbdbcdc02	-0.09221651
96	0x3dad2d66	0.08455925
97	0x3e43debd	0.19127937
98	0x3ebfb162	0.3744002
99	0xbd6d6ef1	-0.05796713
100	0xbe0ee3e1	-0.13954116
101	0xbdbd299d	-0.09236453
102	0xbc043c95	-0.0080710845
103	0x3e002ae9	0.12516369
104	0xbed84b61	-0.4224501
105	0xbb64952d	-0.0034878955
106	0xbcd83ae3	-0.026395267
107	0xbd1d5e2e	-0.038419895
108	0xbe11590a	-0.14194122
109	0xbe618442	-0.22023109
110	0xbd6a98e7	-0.057274725
111	0x3e0019e5	0.12509878
112	0xbd0b4761	-0.03400362
113	0xbe768d5a	-0.24077359
114	0xbebe4777	-0.37163898
115	0x3c2ac84a	0.010423729
116	0x3e8ebbeb	0.27877745
117	0xbe09f95a	-0.13474026
118	0xbeac0e18	-0.33604503
119	0x3d1c2c30	0.038128078
120	0xbe4f6920	-0.20254946
121	0xbdce6ea3	-0.10079696
122	0xbd7128a8	-0.058876663
123	0x3e4a45f2	0.19753245
124	0x3e7478e6	0.23874244
125	0xbd22dfe6	-0.039764307
126	0x3e214e3d	0.15752502
127	0xbe7443a9	-0.23853935
128	0xbe3f2a8d	-0.18668576
129	0xbe83cb6e	-0.25741142
130	0x3c459f30	0.012061879
131	0xbec24f3d	-0.3795108
132	0xbe16d3ce	-0.14729235
133	0x3d01ca0d	0.03168683
134	0x3db21542	0.08695461
135	0x3d8f6252	0.07001175
136	0x3e0fc0e1	0.14038421
137	0xbd0195db	-0.031637054
138	0xbd1bd277	-0.03804251
139	0x3e0ab677	0.13546167
140	0xbd15d319	-0.03657827
141	0xbe32db87	-0.17466556
142	0x3e9f36e7	0.31096575
143	0xbe403b64	-0.18772656
144	0x3e079b43	0.13242821
145	0xbd0bf269	-0.034166727
146	0xbe51d653	-0.20491914
147	0xbdfdd7c2	-0.12394668
148	0xbdfd1ad3	-0.12358632
149	0x3bdf940e	0.0068230694
150	0x3d2e1385	0.042499084
151	0x3c90071d	0.017581517
152	0xbe2bbd16	-0.1677135
153	0xbdb837ff	-0.089950554
154	0x3e0834a8	0.13301337
155	0xbc910ac9	-0.017705338
156	0xbd77d588	-0.060506374
157	0x3e4b39ee	0.19846317
158	0xbaae8d7e	-0.0013317314
159	0x3e222c74	0.1583727
160	0xbdafaae0	-0.08577514
161	0xbd7b5b16	-0.061366163
162	0x3dbc6255	0.09198443
163	0x3c24c02e	0.010055585
164	0xbe9a9cb6	-0.30197686
165	0x3d31b424	0.043384686
166	0x3da8aa2d	0.082355835
167	0xbdb0d848	-0.086350024
168	0x3dae6b33	0.085165404
169	0x3c9923be	0.018693801
170	0xbdf8b90d	-0.12144671
171	0x3ddd8a3b	0.10817381
172	0xbde63369	-0.112402745
173	0xbe826811	-0.2547002
174	0xbdd4fc31	-0.10399664
175	0xbdabcd85	-0.08388809
176	0xbda6f793	-0.0815269
177	0xbea36771	-0.31914857
178	0x3cf93d36	0.030424695
179	0xbd165e7b	-0.036711197
180	0xbe18ad7c	-0.14909929
181	0x3d9ae696	0.07563512
182	0x3eb605bb	0.35551247
183	0xbdc88ee7	-0.097928815
184	0x3ec3e1a0	0.38258076
185	0xbea9643d	-0.33084288
186	0x3e4a830c	0.19776553
187	0xbdbe942b	-0.093056045
188	0x3d78eb61	0.06077135
189	0xbd35c747	-0.0443795
190	0x3e3e2fb7	0.1857289
191	0xbdbeeb6d	-0.09322248
192	0x3e3bdc14	0.18345672
193	0x3cde727a	0.027154196
194	0x3dafe81c	0.08589193
195	0xbe5e76f7	-0.21725069
196	0xbde26b70	-0.11055648
197	0x3e70ad3b	0.23503582
198	0x3d5551c2	0.052079923
199	0xbe12f149	-0.14349855
200	0xbdc45883	-0.09587195
201	0xbcab7146	-0.020928036
202	0x3e247dbe	0.16063592
203	0xbed595e5	-0.41715923
204	0xbdac0954	-0.08400217
205	0xbc1e18b4	-0.009649444
206	0xbe9f8f6f	-0.3116412
207	0x3da7ecb6	0.08199446
208	0x3dcc57b0	0.099776626
209	0xbe6aca96	-0.22928843
210	0x3d934051	0.07190002
211	0x3dd29e5f	0.10284113
212	0xbe3bd280	-0.18342018
213	0xbe5cb773	-0.21554355
214	0xbe45fa6c	-0.1933381
215	0xbce5a449	-0.028032439
216	0xbe11de7c	-0.14245027
217	0x3e789168	0.24274218
218	0xbd1493e8	-0.036273867
219	0xbca5f033	-0.020256137
220	0x3d54b696	0.05193194
221	0x3e6981ad	0.22803374
222	0xbe01c180	-0.1267147
223	0xbe5c27e3	-0.2149959
224	0xbd9fbbe2	-0.07799508
225	0xbe3b6381	-0.18299676
226	0xbdb1a67f	-0.08674335
227	0x3dae9518	0.08524531
228	0xbd808db6	-0.06277029
229	0xbe993450	-0.29922724
230	0x3c8d3592	0.017237458
231	0x3e10df18	0.14147604
232	0x3e07dbe8	0.13267481
233	0xbea4c663	-0.32182607
234	0xbeaea371	-0.3410907
235	0xbe6774c9	-0.22603144
236	0xbe235de2	-0.15953782
237	0xbe6f41fa	-0.23365012
238	0xbe69a8da	-0.22818318
239	0xbdbd18db	-0.092332564
240	0x3e99722e	0.29969925
241	0xbe4de1da	-0.20105687
242	0xbdaecd7e	-0.08535288
243	0xbe39d73d	-0.18148513
244	0xbd8389bb	-0.064227544
245	0x3eb9f7f9	0.36322
246	0x3e859ca8	0.26096082
247	0x3d2635ec	0.040578768
248	0xbd5f6aa4	-0.05454506
249	0x3de7657b	0.11298653
250	0x3e03ae1b	0.12859385
251	0xbadd9779	-0.0016906104
252	0xbc59e8dc	-0.013300147
253	0xbe6b8743	-0.23000817
254	0xbc5c6c26	-0.013453519
255	0xbdf6740c	-0.12033853

actor.4.weight f4 [8, 256]
0	0x3ebaf8ab	0.36517844
1	0xbf207571	-0.626792
2	0x3f7401b9	0.9531513
3	0x3db5fb49	0.088858195
4	0xbed1004c	-0.4082054
5	0x3f87114c	1.0552154
6	0x3da955df	0.08268332
7	0x3fbbd0dd	1.4673115
8	0xbf893da6	-1.0721939
9	0x3d40b063	0.047043215
10	0xbf637081	-0.8884354
11	0xbf813116	-1.0093105
12	0x3d9a2d19	0.07528133
13	0x3d79c04c	0.060974404
14	0x3f0436d5	0.5164617
15	0xbfb0dbfd	-1.3817135
16	0xbcc85091	-0.02445248
17	0xbed824b9	-0.42215517
18	0xbf747081	-0.9548417
19	0x3e2e75fd	0.17037196
20	0xbcdbad46	-0.026816022
21	0xbeda77ed	-0.4266962
22	0xbe9bc7ba	-0.30425817
23	0x3da7152a	0.081583336
24	0xbf558c1e	-0.83416927
25	0xbfe7d36f	-1.81114
26	0xbfb341e9	-1.4004489
27	0xbe688455	-0.2270673
28	0xbf602f57	-0.87572235
29	0xbf666d29	-0.90010315
30	0x3f23add4	0.63937116
31	0xbf04f250	-0.5193224
32	0xbfdafa9a	-1.7107728
33	0xbf03f69b	-0.51548165
34	0xbea41705	-0.32048813
35	0x3dd4c247	0.10388618
36	0x3f8066c1	1.0031358
37	0xbf3eedb5	-0.7458146
38	0xbe507bd5	-0.20359738
39	0x3f13b8af	0.5770368
40	0xbe0487be	-0.12942407
41	0xbe60e698	-0.21962965
42	0xbea50665	-0.3223144
43	0x3e2c1da0	0.16808176
44	0xbecc5dcb	-0.39915308
45	0x3f21e79b	0.63244027
46	0x3e8f6041	0.28003123
47	0x3f098d1f	0.5373096
48	0x3f99c014	1.2011743
49	0x3f4db124	0.8034842
50	0xbf207cfc	-0.6269071
51	0x3f2aecbe	0.6676749
52	0x3dec1f2b	0.11529382
53	0xbe28831e	-0.16456267
54	0x3e133d2f	0.14378808
55	0xbf5be355	-0.85893756
56	0xbec993cb	-0.3937057
57	0x3ea0e995	0.3142821
58	0x3eb55272	0.35414463
59	0x3d66f0b2	0.05638189
60	0xbe7e39c7	-0.24826728
61	0x3eb93083	0.36169824
62	0x400860da	2.1309114
63	0x3e559e0d	0.20861073
64	0x3f310c0a	0.69158995
65	0xbd91a421	-0.07111383
66	0x3e436c50	0.19084287
67	0xbd8be829	-0.068313904
68	0xbfde9fd7	-1.7392529
69	0x3f38a360	0.7212429
70	0x3f658f23	0.89671534
71	0xbe8cfc5d	-0.27536288
72	0x3e3d7b8f	0.18504165
73	0xbe82463c	-0.2544421
74	0x3f94da63	1.1629146
75	0xbf068e9c	-0.52561355
76	0x3f1e6068	0.61865854
77	0x3e30a271	0.17249466
78	0x3e23c008	0.15991223
79	0x3d82b2ac	0.06381735
80	0xbee63516	-0.44962376
81	0xbf12b467	-0.5730652
82	0xbf2622e2	-0.64896977
83	0x3e9c3444	0.30508626
84	0x3f7c0e15	0.9845899
85	0x3f89630a	1.0733349
86	0x3e9938fe	0.29926294
87	0xbe759e80	-0.23986244
88	0xbd9d7e3e	-0.076900944
89	0x3eb61b2c	0.35567605
90	0xbf1194dc	-0.56867766
91	0xbf50deac	-0.8158977
92	0xbe93f3be	-0.28896898
93	0xbf20081f	-0.6251239
94	0x3e1c3c5d	0.15257402
95	0x3f44592b	0.7669856
96	0xbe0f374c	-0.13985938
97	0x3f9d79f3	1.2302841
98	0x3f3bf1b8	0.7341571
99	0x3eb20dd9	0.3477619
100	0xbea80849	-0.3281882
101	0x3f025ecc	0.509259
102	0xbe6cb032	-0.23114088
103	0x3dee6ad2	0.11641468
104	0x3e06eb64	0.13175732
105	0xbf41bbb7	-0.75677055
106	0xbb6e98ec	-0.0036407067
107	0xbe94f768	-0.29095006
108	0x3e9d8777	0.30767414
109	0xbe861105	-0.2618486
110	0xbf038841	-0.5137978
111	0x3ecf6865	0.40509334
112	0x3cdfdd55	0.027327219
113	0xbea7d382	-0.32778555
114	0x3f0fb7c8	0.561398
115	0xbf2983e5	-0.6621688
116	0xbe8e367d	-0.27775946
117	0xbfa558ea	-1.291776
118	0x3e9d9651	0.30778745
119	0x3f87aa8c	1.0598922
120	0x3e51dab2	0.20493582
121	0xbdc38301	-0.095464714
122	0xbd6f8931	-0.058480445
123	0xbfeebef3	-1.8652023
124	0x3d94508e	0.07241927
125	0xbca5aca3	-0.020223921
126	0x3d0cb9ad	0.03435676
127	0xbe730506	-0.23732385
128	0xbf203590	-0.6258173
129	0xbf5138d4	-0.8172734
130	0xbed9190d	-0.42401925
131	0xbf034520	-0.5127735
132	0xbf785a4a	-0.9701277
133	0x4009e3a4	2.154519
134	0x3eea9a22	0.4582072
135	0xbef34b19	-0.47518232
136	0xbd9571b9	-0.072970815
137	0xbe87df55	-0.26537576
138	0xbc2e2e82	-0.0106312055
139	0xbeee4d34	-0.46543276
140	0xbe29d973	-0.16586857
141	0x3da5cf7b	0.080962144
142	0xbed9cc97	-0.42538902
143	0x3fce3217	1.6109036
144	0x3e1f443b	0.15553372
145	0x3f17fe9e	0.5937289
146	0x3e128264	0.14307553
147	0xbf049c6e	-0.5180119
148	0xbf99bd79	-1.2010947
149	0xbefda7dc	-0.4954213
150	0xbfd30c2e	-1.6488092
151	0x3e2afc9d	0.16697927
152	0xbe0c3256	-0.13691077
153	0x3efe98bd	0.49725905
154	0xbf6aa4af	-0.9165754
155	0xbe808aed	-0.25105992
156	0xbf62e7fe	-0.8863524
157	0x3f0f00d6	0.5586065
158	0x3fde253d	1.7355114
159	0x3e8897b0	0.26678228
160	0xbf27447a	-0.6533886
161	0xbea8a9e3	-0.32942113
162	0x3f68e20b	0.90969914
163	0xbf241b17	-0.64103836
164	0xbe92d3a2	-0.28677088
165	0x3fa49790	1.2858753
166	0xbd2a2181	-0.041535858
167	0xbea3d861	-0.32001022
168	0xbcce52be	-0.025185939
169	0x3dfdbdfc	0.12389752
170	0x3e6cab80	0.23112297
171	0x3e2cac74	0.1686266
172	0x3fb0ed3d	1.3822399
173	0xbf02ddae	-0.51119506
174	0xbefaba28	-0.4897015
175	0x3e23b15c	0.15985626
176	0xbf73d2dd	-0.95243627
177	0x3f04befe	0.5185393
178	0xbeeaaff1	-0.45837358
179	0x3d215021	0.039383058
180	0xbf22a917	-0.6353926
181	0x3ca33c4a	0.019926209
182	0x3f80b5e7	1.0055512
183	0xbc40380c	-0.011732113
184	0x3e4765f9	0.19472493
185	0xbdb9833f	-0.09058236
186	0x3f01e1cf	0.5073518
187	0xbe884cc6	-0.26621073
188	0xbf2e08a4	-0.67981935
189	0xbf22fc61	-0.6366635
190	0xbf886fce	-1.065912
191	0xbd48fb52	-0.049067803
192	0x3f06d1fd	0.52664167
193	0xbed0e028	-0.40796018
194	0x3f2707cb	0.65246266
195	0xbf249284	-0.64286065
196	0xc01f84c0	-2.4924774
197	0x3ec32d77	0.38120624
198	0x3e94d525	0.29068866
199	0xbed59b4a	-0.4172004
200	0x3f4d817e	0.80275714
201	0xbf69330c	-0.91093516
202	0x3e4ba759	0.19888057
203	0xbd09c091	-0.03363091
204	0xbea964e2	-0.3308478
205	0x3f205a00	0.6263733
206	0x3fbe9ed6	1.4892223
207	0x3f084de9	0.5324388
208	0xbe5e89ba	-0.21732226
209	0xbe659c39	-0.22422875
210	0xbd8dfdb7	-0.06933158
211	0x3f57ffd6	0.8437475
212	0xbe572358	-0.21009576
213	0xc009322f	-2.143688
214	0x3ee973ce	0.45596164
215	0xbe8a8601	-0.27055362
216	0xbe99a093	-0.3000532
217	0x3f0c0c0e	0.54705894
218	0xbf2abd0b	-0.66694707
219	0xbebb7e11	-0.3661962
220	0x3d5d4b6a	0.054027
221	0xbd02f568	-0.03197232
222	0xbf334b42	-0.7003671
223	0x3deb038b	0.11475285
224	0x3f3307de	0.6993388
225	0x3eb89ffe	0.36059564
226	0x3c8fd951	0.01755968
227	0xbf0b6145	-0.54445297
228	0xbe09fa9f	-0.1347451
229	0xbc368177	-0.011139265
230	0x3f79779b	0.9744813
231	0xbe4953c2	-0.19660857
232	0x3eadc12c	0.3393644
233	0x3e22b86c	0.15890664
234	0xbe9d3d88	-0.30711007
235	0xbf9cc400	-1.2247314
236	0x3fc698ea	1.5515416
237	0xbe632fdd	-0.22186227
238	0xbf47ac8f	-0.7799768
239	0xbf33eb48	-0.70280886
240	0xc088a216	-4.269786
241	0xbe491574	-0.1963709
242	0xbeaaa1c7	-0.3332655
243	0xbc9a9c7c	-0.018873446
244	0x3f1a619b	0.60305184
245	0x3f251f44	0.6450083
246	0xbf4d3bec	-0.8016956
247	0x3f6cb18c	0.92458415
248	0xbe3c643c	-0.18397611
249	0x3eb28895	0.3486983
250	0x3ec51bd2	0.38497788
251	0xbe89aa0d	-0.2688755
252	0xbf106926	-0.56410444
253	0xbe48422c	-0.19556493
254	0x3c6aca15	0.014330407
255	0x3e81b971	0.25336793

actor.4.bias f4 [8]
0	0x3e156648	0.14589798
1	0xbdc1a05a	-0.09454413
2	0x3cccbe32	0.024993036
3	0x3cc93714	0.024562396
4	0xc057ca7a	-3.3717332
5	0xc05db522	-3.4641805
6	0xc0723d1d	-3.78498
7	0xc045ead8	-3.0924587

q1.0.weight f4 [256, 28]
0	0xbe67cd9b	-0.22637026
1	0xbf6d4b0d	-0.92692643
2	0x3f179990	0.5921869
3	0xbe7fa488	-0.24965107
4	0xbe4dbca6	-0.20091495
5	0xbdfbc3fc	-0.122932404
6	0xbe87767d	-0.26457587
7	0xbe05a1aa	-0.13049951
8	0x3c8bc1f6	0.017060261
9	0xbcde0d26	-0.027105879
10	0xbbd38686	-0.0064552454
11	0x3dc2f0ae	0.09518562
12	0x3e49ea83	0.19718365
13	0xbcf722d0	-0.030167967
14	0xbd4b8487	-0.049686935
15	0xbd87402c	-0.06604037
16	0xbc4965ec	-0.0122923665
17	0x3df0b416	0.11753099
18	0xbe2b1ffd	-0.16711421
19	0x3bf2c5bc	0.0074088257
20	0xbd9b3e85	-0.07580284
21	0xbd17344b	-0.036915105
22	0xbeb41203	-0.35169992
23	0x3da2e02f	0.07952916
24	0xbe15f811	-0.14645411
25	0xbb1af11e	-0.0023642252
26	0xbd89dbc4	-0.0673137
27	0xbcb204ca	-0.0217308
28	0x3efd0ea5	0.49425235
29	0x3fb30200	1.3984985
30	0xbf28a314	-0.6587384
31	0xbe4bf01d	-0.19915815
32	0x3eee6209	0.4655917
33	0x3d8c0c64	0.06838301
34	0xbc8d109c	-0.017219834
35	0xbae9a675	-0.0017826097
36	0xbd4a3999	-0.049371336
37	0x3f01cd98	0.50704336
38	0xbe17385b	-0.14767592
39	0x3e3f3040	0.1867075
40	0xbe9c8625	-0.30571094
41	0xbd8dc747	-0.06922775
42	0xbe2f2e2e	-0.1710746
43	0xbe15799b	-0.1459717
44	0xbea3db45	-0.32003227
45	0xbea4b99c	-0.3217286
46	0xbeac9b5a	-0.33712274
47	0xbe97377d	-0.29534522
48	0xbe1f2528	-0.15541518
49	0xbe83e124	-0.25757706
50	0xbdd2b9d9	-0.10289354
51	0xbef3ba2b	-0.47602972
52	0xbdccd48e	-0.10001479
53	0xbccb7f36	-0.024840932
54	0xbdda19c7	-0.10649448
55	0xbd1d9bce	-0.038478665
56	0xbe386ac2	-0.18009475
57	0x401e76d0	2.4760017
58	0xbf17ea6c	-0.59342074
59	0xbe452177	-0.19251047
60	0x3c2e03ec	0.010621052
61	0xbc504e79	-0.012714022
62	0xbe164621	-0.1467519
63	0x3e154042	0.14575294
64	0xbe3c84aa	-0.18409982
65	0x3e1cf688	0.15328419
66	0x3d771c96	0.060329996
67	0xbe7175b7	-0.23580061
68	0x3dc190c2	0.094514385
69	0xbd467a8b	-0.04845671
70	0x3e4690f4	0.19391233
71	0x3d3aa61b	0.045568567
72	0x3e0f91ba	0.14020434
73	0x3deccc6e	0.11562429
74	0x3e5ff21c	0.21869701
75	0xbd36b1a7	-0.044603016
76	0x3e3c5de8	0.18395197
77	0x3d73d1ea	0.05952636
78	0x3de08b6d	0.10964093
79	0xbe0ed1e1	-0.1394725
80	0xbd31607c	-0.043304905
81	0x3cf08f19	0.02936511
82	0x3e405f64	0.18786389
83	0x3dcb366e	0.09922491
84	0x3e407850	0.18795896
85	0xbf23b780	-0.63951874
86	0xbf14f91a	-0.581926
87	0xbf2ea208	-0.6821599
88	0x3e006636	0.1253899
89	0x3d47c0ee	0.048767976
90	0x3e988bf2	0.2979427
91	0xbc3b7cb1	-0.011443303
92	0xbf3f14f3	-0.7464134
93	0xbe5170b2	-0.20453146
94	0xbe79b5cd	-0.24385758
95	0xbd1a8a4a	-0.03772954
96	0xbe9df624	-0.30851853
97	0xbd8d02ee	-0.068853244
98	0x3df2c3bf	0.11853742
99	0x3dd60cf6	0.10451691
100	0xbd8c37a7	-0.06846552
101	0xbd96489f	-0.0733807
102	0x3e255414	0.16145355
103	0xbd8b231c	-0.06793806
104	0x3e026b72	0.127363
105	0x3e0ae2ac	0.13563031
106	0x3d4768e5	0.04868402
107	0xbd03d2a6	-0.032183312
108	0x3c944a20	0.018101752
109	0xbcc0e17e	-0.023545023
110	0x3e1bc935	0.15213473
111	0xbda27eda	-0.07934351
112	0xbdf2ce4d	-0.11855755
113	0xbeea6484	-0.45779812
114	0xbe1d3c9c	-0.15355152
115	0xbd7deba1	-0.06199229
116	0x3e531be3	0.20616107
117	0x3e3d10b6	0.18463406
118	0xbeb22cbb	-0.34799752
119	0xbd96c2be	-0.07361363
120	0x3d61bd32	0.05511207
121	0xbe1ee662	-0.15517572
122	0x3cdd5649	0.027018683
123	0xbe7a2f1d	-0.24432035
124	0x3df89b0a	0.12138946
125	0x3e093ddb	0.13402502
126	0xbe81b6e0	-0.25334835
127	0xbdbf7a4e	-0.093495
128	0xbe78a52a	-0.24281755
129	0xbdc7f65b	-0.097637855
130	0xbddf7186	-0.10910325
131	0xbe19f0c2	-0.15033248
132	0xbe0280f4	-0.12744504
133	0xbe506979	-0.20352735
134	0xbd12d1e5	-0.035844702
135	0xbe193f66	-0.14965591
136	0xbe34769a	-0.17623368
137	0x3a96c255	0.0011502007
138	0x3de3ff59	0.11132688
139	0xbe6dd9c3	-0.23227601
140	0x3f326cd1	0.6969729
141	0x3f01372a	0.504748
142	0xbf31d0bf	-0.69459146
143	0xba3c1dfd	-0.00071760995
144	0x3d314d55	0.04328664
145	0x3d997cb5	0.07494489
146	0xbdbe8f6e	-0.09304701
147	0x3d9c07d7	0.07618683
148	0xbd2c9306	-0.0421324
149	0x3f29a9f4	0.6627495
150	0xbe0138d2	-0.12619331
151	0x3b9a4d97	0.0047089565
152	0xbb513758	-0.0031923857
153	0x3e2caf6e	0.16863796
154	0x3dc71223	0.09720256
155	0x3da285da	0.079356864
156	0xbe278db8	-0.16362655
157	0xbdab5d59	-0.08367414
158	0xbc4124f5	-0.011788596
159	0xbc3c91b6	-0.01150935
160	0xbd1b17fb	-0.037864666
161	0xbdb077d4	-0.086166054
162	0xbdf5a33b	-0.11994024
163	0x3e083443	0.13301186
164	0xbdf7b76b	-0.12095531
165	0xb949bb32	-0.0001923859
166	0xbdb6ecc9	-0.08931882
167	0x3d87cb11	0.06630529
168	0xbf01f749	-0.5076795
169	0x3f6abb77	0.916923
170	0x3e6aedb1	0.22942235
171	0x3e9e443e	0.3091144
172	0x3ea1d42c	0.31607187
173	0xbe414161	-0.18872596
174	0xbe98adf2	-0.2982021
175	0xbd6f4337	-0.05841371
176	0xbe3f1e0d	-0.18663807
177	0xbd05b513	-0.03264339
178	0x3e189fd4	0.1490472
179	0xbed5e958	-0.4177959
180	0xbc3f6d87	-0.011683828
181	0x3e2708e1	0.16311981
182	0xbc9e96db	-0.019359043
183	0x3e0bcc62	0.13652185
184	0xbda4fcbd	-0.080560185
185	0x3dd068ec	0.10176262
186	0x3d95e10a	0.073183134
187	0xbe6ad44a	-0.22932544
188	0xbc5a69af	-0.013330861
189	0xbda45b2c	-0.08025202
190	0xbe866b76	-0.2625386
191	0xbe801a6e	-0.25020164
192	0x3d8ca18e	0.068667516
193	0xbdcc2bfb	-0.09969326
194	0xbc2a32cd	-0.010388088
195	0xbea1147e	-0.31460947
196	0x3e9d7a9b	0.30757603
197	0x3f8037e8	1.0017061
198	0xbc37c2af	-0.01121585
199	0xbf19bb78	-0.6005168
200	0xbe1ef9fc	-0.15525049
201	0x3d3aed49	0.04563645
202	0xbe7d3d6a	-0.24730459
203	0xbbbcd77b	-0.005762992
204	0xbe763b8e	-0.24046156
205	0x3da9c106	0.082887694
206	0x3df6e3e6	0.12055187
207	0x3eaeb458	0.34121966
208	0xbd5ebed1	-0.054381195
209	0xbd37e14d	-0.044892598
210	0xbdc26a54	-0.09492937
211	0xbd3b54e1	-0.045735244
212	0x3dd07418	0.10178393
213	0xbd9f6d47	-0.07784515
214	0xbc59d402	-0.0132951755
215	0x3e02b944	0.12765986
216	0x3d87d01b	0.0663149
217	0x3d7f9a46	0.062402986
218	0x3d846efc	0.06466481
219	0x3ddab8c6	0.10679774
220	0x3c025c87	0.007956631
221	0x3d67c96e	0.056588583
222	0xbdac5156	-0.08413951
223	0xbd7c7bc6	-0.061641477
224	0xbf37bacd	-0.7176941
225	0xc02602a3	-2.593911
226	0xbc9aea5b	-0.018910578
227	0x3f3a5298	0.7278228
228	0xbeaa84d4	-0.33304465
229	0xbe481595	-0.19539483
230	0xbe944b8c	-0.28963888
231	0xbe09571c	-0.13412136
232	0x3dce4a5c	0.10072777
233	0xbe7c780c	-0.24655169
234	0xbd343974	-0.044000104
235	0xbdddb76a	-0.10825999
236	0xbbbefb78	-0.0058283173
237	0x3d7c43ec	0.061588213
238	0x3db68b72	0.08913316
239	0x3e20312a	0.15643755
240	0x3d0ba9d8	0.034097522
241	0x3c30761f	0.01077035
242	0xbdaabdde	-0.083369955
243	0xbd930692	-0.071789876
244	0xbdb68323	-0.08911731
245	0x3d6a7d3e	0.057248347
246	0xbe2f1212	-0.17096737
247	0x3da3fd01	0.08007241
248	0xbba3b584	-0.0049960036
249	0x3c5ebb62	0.01359448
250	0x3e0dc793	0.13845663
251	0x3cb83be4	0.022489496
252	0x3e0d8fbf	0.13824366
253	0x3db6932b	0.08914789
254	0x3f0774ae	0.52912414
255	0xbf4659de	-0.77480876

q1.0.bias f4 [256]
0	0x3c9a05be	0.018801566
1	0xbebea044	-0.37231648
2	0xbddea689	-0.10871608
3	0x3e5ee1fc	0.21765894
4	0x3e5d4a4d	0.21610375
5	0x3c38d9bf	0.011282383
6	0xbda5b092	-0.08090319
7	0xbd5baf6c	-0.053634092
8	0x3e6679b6	0.22507367
9	0xbdca2ed1	-0.09872211
10	0x3dc68053	0.09692445
11	0xbe4081fe	-0.18799588
12	0x3ec113d3	0.37710437
13	0xbd808457	-0.06275242
14	0xbe4fc3dc	-0.20289558
15	0x3ea8f950	0.3300271
16	0xbe44cc11	-0.1921847
17	0xbe9d0e62	-0.30675036
18	0xbdb807eb	-0.08985885
19	0xbdc078cd	-0.09398041
20	0xbe52d40f	-0.20588706
21	0xbdace938	-0.084429204
22	0xbdaa5ec7	-0.083188586
23	0x3d5a8dcb	0.05335788
24	0xbe92f1ae	-0.28700012
25	0x3e08659e	0.13320014
26	0x3e81564f	0.2526116
27	0x3e494d95	0.19658501
28	0x3dd832be	0.10556553
29	0xbe1e59f7	-0.15464006
30	0x3e54aca1	0.20768978
31	0xbda54420	-0.080696344
32	0xbc3de633	-0.011590528
33	0xbdcd4065	-0.10022048
34	0x3e1e1253	0.15436678
35	0xbe7fb0ee	-0.24969837
36	0xbde3a4c8	-0.11115414
37	0xbec78b97	-0.38973686
38	0xbe047717	-0.12936054
39	0x3e4bd908	0.1990701
40	0xbe9a2384	-0.3010522
41	0xbd8d57d1	-0.06901515
42	0x3d6ddbb7	0.058070865
43	0xbdcde15e	-0.10052751
44	0xbc6ba8de	-0.014383523
45	0x3e1f623e	0.1556482
46	0x3cedfb43	0.029050475
47	0xbe5f2553	-0.21791582
48	0x3b55ccfe	0.0032623406
49	0xbe1f0f78	-0.15533245
50	0x3e36dc51	0.17857482
51	0x3cd28f4f	0.0257031
52	0xbc1da9ff	-0.00962305
53	0xbe10189f	-0.14071892
54	0x3e813735	0.25237432
55	0x3e7d067e	0.24709508
56	0xbe4b4901	-0.19852068
57	0x3dc6f3b4	0.097144514
58	0x3e196043	0.14978127
59	0x3de44f57	0.111479454
60	0xbdb0a84c	-0.0862585
61	0xbe947e01	-0.29002383
62	0xbe255119	-0.16144218
63	0x3e1c0350	0.15235639
64	0x3da7d074	0.08194056
65	0x3e3c6b6a	0.1840035
66	0x3c6bddcc	0.014396142
67	0x3ca4270c	0.02003815
68	0x3cb272ec	0.021783315
69	0xbe14ee59	-0.14544047
70	0x3e5e6ce3	0.21721224
71	0x3e6c5cfb	0.23082344
72	0xbd7f754e	-0.06236773
73	0x3d1e29df	0.03861415
74	0xbd4fce0a	-0.050733604
75	0x3d4185af	0.04724663
76	0xbc90a851	-0.017658385
77	0xbe056ae4	-0.13029057
78	0xbdb1db8b	-0.086844526
79	0x3e4b3fef	0.19848607
80	0x3cdac9f4	0.026707627
81	0x3e0418cb	0.12900083
82	0xbde9e0c5	-0.114198245
83	0xbdfba1f8	-0.122867525
84	0xbe06ef9a	-0.13177338
85	0xbe4140b8	-0.18872344
86	0x3ea1daec	0.31612337
87	0x3e78dd0c	0.24303073
88	0x3e7b05dc	0.24513954
89	0xbda536dd	-0.08067105
90	0xbec03f26	-0.37548178
91	0xbdc9c278	-0.09851545
92	0xbe202a0c	-0.1564104
93	0xbe7b555a	-0.24544278
94	0xbe2a9df4	-0.16661817
95	0xbe2dd4f4	-0.16975766
96	0xbd18e946	-0.037331842
97	0x3daf257c	0.085520715
98	0xbe83d02d	-0.25744763
99	0xbe780a4a	-0.24222675
100	0x3e09c552	0.13454178
101	0xbc2312a4	-0.009953175
102	0x3d6fc16b	0.058534067
103	0xbd11dc2a	-0.035610355
104	0xbd8d9446	-0.069130465
105	0xbe3cc615	-0.18434937
106	0xbe5b089f	-0.21390007
107	0x3d59d3ec	0.05318062
108	0x3dd761f0	0.10516727
109	0xbd352897	-0.044228163
110	0xbd1de75b	-0.038550716
111	0x3db30488	0.08741099
112	0xbd776f26	-0.060408734
113	0x3e129a89	0.14316763
114	0x3d1140b1	0.035462085
115	0xbdc684be	-0.09693287
116	0xbd95312b	-0.07284769
117	0xbd855fbb	-0.065124
118	0xbe84d35a	-0.25942498
119	0xbe6f63ed	-0.23377962
120	0x3b08c7ff	0.002087116
121	0xbee9afbd	-0.4564189
122	0xbde26f5d	-0.11056397
123	0x3e32dd32	0.17467192
124	0x3e842f8e	0.2581753
125	0x3dd2310d	0.10263262
126	0x3e664a97	0.22489391
127	0xbde471de	-0.11154531
128	0xbddd097e	-0.10792826
129	0x3cbfe6a2	0.023425404
130	0xbc6064ce	-0.013695909
131	0xbe789cac	-0.24278516
132	0xbd85248d	-0.06501112
133	0xbd5665ac	-0.052343056
134	0x3e9679b1	0.29389718
135	0xbe195646	-0.14974317
136	0xbca32ce7	-0.019918872
137	0xbe117c96	-0.14207682
138	0x3ae75982	0.0017650577
139	0x3baee835	0.00533774
140	0xbe9a490d	-0.30133858
141	0x3e273532	0.16328886
142	0xbdbc3201	-0.09189225
143	0xbe53e12e	-0.20691368
144	0xbe9416fe	-0.28923792
145	0xbedbd541	-0.42936137
146	0xbdb05efb	-0.08611866
147	0x3dd24166	0.1026638
148	0xbd16dc5a	-0.036831237
149	0xbec6a9c3	-0.38801393
150	0xbe486dc3	-0.19573121
151	0x3e0f2f4b	0.13982885
152	0xbee7bdad	-0.452619
153	0xbe263ec1	-0.16234876
154	0xbd44ef25	-0.04807963
155	0x3e5cc38d	0.21558972
156	0xbda61764	-0.0810993
157	0xbe8fc9d2	-0.28083664
158	0x3e1921e3	0.14954333
159	0x3e00609a	0.1253685
160	0x3e81f3b7	0.25381252
161	0x3ccbd144	0.024880059
162	0x3e280930	0.16409755
163	0xbd18c213	-0.03729446
164	0xbd390467	-0.045170214
165	0x3e730f21	0.2373624
166	0xbe565f66	-0.20934829
167	0x3dc0ad9b	0.094081126
168	0xbd0d41f0	-0.03448671
169	0x3e4dc7d4	0.2009576
170	0x3d1d178b	0.03835253
171	0xbc4e88e4	-0.012605879
172	0xbed74ed3	-0.42052326
173	0xbc6ae1e4	-0.014336083
174	0xbeaec02e	-0.34130996
175	0xbdbc4c31	-0.0919422
176	0xbee2d762	-0.4430495
177	0x3e550a06	0.20804605
178	0x3ea90e5a	0.33018762
179	0x3e83d746	0.25750178
180	0x3e422940	0.18961048
181	0xbddc9f1c	-0.10772535
182	0x3dac20b6	0.084046766
183	0x3c69d5c9	0.014272162
184	0x3d70999a	0.058740236
185	0xbe985843	-0.29754838
186	0x3cf60666	0.030032348
187	0x3d98427f	0.07434558
188	0x3e9e6b63	0.30941305
189	0x3c86eb35	0.016469577
190	0x3e3fd043	0.1873179
191	0x3e325570	0.17415404
192	0xbe185d40	-0.14879322
193	0xbe4dea6c	-0.20108956
194	0xbedf10cf	-0.4356751
195	0xbdf3a08a	-0.11895855
196	0xbe9bf8df	-0.3046331
197	0xbc9c13cc	-0.019052409
198	0x3e421466	0.18953094
199	0xbe4248fb	-0.18973152
200	0x3e8cad3c	0.27475917
201	0x3e03f0d8	0.12884843
202	0xbe170d40	-0.14751148
203	0x3c40f919	0.0117781395
204	0xbe3a78e6	-0.18210182
205	0x3d8d8b54	0.0691134
206	0x3e253b97	0.16136013
207	0x3e92df88	0.28686166
208	0xbeb296b8	-0.34880614
209	0x3cae68b4	0.02129016
210	0x3eba713c	0.36414516
211	0x3e375678	0.17904079
212	0x3e46a3d8	0.19398439
213	0x3e954e8c	0.2916149
214	0xbe019882	-0.12655833
215	0x3dee415e	0.116335616
216	0x3e2e9906	0.17050561
217	0xbdb06450	-0.08612883
218	0x3e1923c9	0.14955057
219	0xbe96f8bd	-0.29486647
220	0x3e87b9d8	0.26508975
221	0x3dfb4a50	0.12270033
222	0x3e3882a9	0.18018593
223	0xbe822080	-0.2541542
224	0xbe546ee0	-0.2074542
225	0x3dd48732	0.10377349
226	0x3dcfcc76	0.1014642
227	0x3dfbe8f6	0.12300293
228	0xbe4939fb	-0.19651024
229	0x3d115595	0.035482008
230	0xbe092216	-0.13391909
231	0xbeac6180	-0.33668137
232	0xbd3f5998	-0.046716303
233	0x3de16405	0.11005405
234	0xbe371b77	-0.17881571
235	0xbe545620	-0.20735979
236	0xbe2d8b7b	-0.16947739
237	0x3da69f2e	0.0813583
238	0x3dc815b6	0.09769766
239	0x3e3c3a8c	0.18381709
240	0x378bfade	1.668691e-05
241	0xbe81c7ec	-0.2534784
242	0xbe66629d	-0.22498555
243	0x3cf0de63	0.029402917
244	0xbb81bf9f	-0.0039596106
245	0x3e8f6c3e	0.2801227
246	0x3e4b5050	0.19854856
247	0x3e1c36d5	0.15255292
248	0x3dff783e	0.12474106
249	0xbe1d1f6e	-0.1534402
250	0xbe52ae71	-0.20574357
251	0xbe22f514	-0.15913802
252	0x3e287079	0.16449155
253	0xbe806d83	-0.2508355
254	0xbe7490fb	-0.2388343
255	0xbebc9f03	-0.36840066
