SAC/checkpoints/BipedalWalker-v3/05_best_agent.pth (torch, 891687 bytes, 17 tensors)

log_alpha f8 []
000000 17 d3 54 b1 1e 79 13 c0
       -4.86828114586094

actor.0.weight f4 [256, 24]
000000 f0 c8 b8 3e b0 cf 38 3f 5b 5c 3e bd 97 ce 8d 3e
       0.36090803 0.72191906 -0.046474796 0.27696678
000010 28 4a 64 be 7d 28 fd be 26 cf 3f be 47 07 bd be
       -0.22293913 -0.49444953 -0.18731365 -0.36919615
000020 58 c7 61 be b5 a3 22 bf 83 aa fc 3e 98 2b c9 3e
       -0.220487 -0.6353105 0.4934884 0.39291072
000030 29 20 73 3d bd 0e f2 3e 6c da 26 be 85 52 d5 bd
       0.059356842 0.4727687 -0.16294259 -0.1041613
000040 f4 7b 20 be 42 c3 68 be cf b9 d2 bd a0 3c bd be
       -0.15672284 -0.22730735 -0.102893464 -0.36960316
000050 36 c5 62 be 77 61 9c be 8c 51 c0 be 21 31 fa bd
       -0.22145543 -0.3054311 -0.37562215 -0.12216402
000060 80 d4 4e be 13 82 a4 3e 30 5a 60 3d 2e 1f 27 3e
       -0.2019825 0.3213049 0.05477351 0.16320488
000070 29 ac 25 3a cc 1c f1 bc 7c d7 be be 73 a8 8b bd
       0.00063199044 -0.029432677 -0.37273777 -0.068192385
000080 0c cb 62 3e 8b 3e 6c be 38 49 b4 be 90 a8 3c be
       0.22147769 -0.23070733 -0.3521211 -0.18423676
000090 53 04 20 3e 86 85 2c 3f c7 fc 8b bd 7f f1 3a bd
       0.1562665 0.6739124 -0.06835323 -0.045640465
0000a0 0b 94 84 be b6 79 a1 bd 4f 53 24 be c3 2d 56 be
       -0.25894198 -0.07884543 -0.16047405 -0.20915894
0000b0 ce 6c 11 be 36 6f 20 bd 90 b2 d9 3c 42 54 8a 3d
       -0.14201662 -0.03916856 0.026574403 0.06754352
0000c0 c8 03 1c be 7e 29 97 bf d8 f8 61 3f 7c 9e c6 be
       -0.15235817 -1.1809537 0.8827033 -0.3879279
0000d0 b7 c0 cd bd 88 a4 83 be 5b 79 b5 be 7e fc 24 3e
       -0.10046523 -0.25711465 -0.3544415 0.16111943
0000e0 ee 42 f8 3e 47 54 58 bf 22 ad c4 3d 30 e8 6a bd
       0.48488563 -0.845036 0.09603335 -0.057350338
0000f0 a8 f0 2e bc e5 7e 16 3e 2e c1 12 be 8d cb 1f be
       -0.010677494 0.14696844 -0.14331505 -0.15604992
000100 fc 13 37 be 79 d7 63 be 44 61 05 be 48 5a c2 be
       -0.17878717 -0.22250165 -0.13025385 -0.37959504
000110 e5 24 ba be 72 6b 5b be ce c0 6e be c1 b7 9a 3c
       -0.36356273 -0.21427706 -0.23315737 0.018886449
000120 ee ad cc be b1 58 d8 bf bd 64 40 bd 36 b9 c9 be
       -0.39976448 -1.6902066 -0.04697107 -0.39399117
000130 a0 db 29 3d 0a aa 96 be 4b 45 fe 3e 29 69 26 3f
       0.041469216 -0.29426605 0.4966224 0.6500421
000140 14 dc d3 bd 9b 0f da bd 2b 7d 39 3d e4 70 91 be
       -0.10344711 -0.10647508 0.045285385 -0.2840644
000150 33 2a 29 3e 7e 1d bd 3e 62 d3 78 be e8 b7 24 be
       0.16520004 0.36936563 -0.24299386 -0.1608578
000160 89 f9 a9 be 35 40 d0 bd d7 62 c2 bd 54 ea 1f be
       -0.33198193 -0.101684965 -0.094915085 -0.15616733
000170 da 71 88 be a3 15 98 be 9e 8f 54 be 2b 46 bf 3d
       -0.26649362 -0.29704008 -0.2075791 0.09339555
000180 42 b5 18 bf a1 e1 5e 3e f9 6e 72 3f ac f1 28 be
       -0.5965158 0.21765758 0.9470058 -0.1649844
000190 c5 73 c7 be 4f 53 66 be f5 75 ec be a9 7a ab bd
       -0.38955513 -0.22492717 -0.46183744 -0.08373005
0001a0 e2 42 30 bc 6f 23 f7 3d 9a ac d8 bc 59 77 cf be
       -0.010758134 0.12067305 -0.02644949 -0.40520743
0001b0 05 d3 fb bd 66 36 b2 3b 67 51 23 be c8 08 42 be
       -0.12296108 0.0054386137 -0.15949021 -0.18948662
0001c0 24 fc e0 bd 34 ec f2 bd f1 9b cb 3d b7 00 7e bb
       -0.10985592 -0.118614584 0.09941853 -0.003875775
0001d0 75 b6 27 bd 95 e3 39 3c e0 67 1f 3c f4 66 ee 3d
       -0.04094549 0.011345764 0.009729356 0.116407305
0001e0 81 c6 74 bc 3f 63 82 bf b1 f5 23 bf 98 2a 27 3b
       -0.014939905 -1.0186538 -0.6404677 0.0025507566
0001f0 3a be 43 be 04 3c 2c 3f ee 36 3a 3e 4a ce 8f 3e
       -0.19115534 0.67279077 0.18185017 0.28087074
000200 b8 7a 14 be 4e 03 10 3e 6e 42 6f be f9 e0 0b 3f
       -0.14499938 0.1406376 -0.23365185 0.54640156
000210 03 67 20 be d8 f6 8c be a7 33 af 3d e3 c6 82 3d
       -0.15664296 -0.27532077 0.08554774 0.06385591
000220 14 52 e2 3c 21 4e 54 bc 56 0b c2 bd 9b 3b bf 3d
       0.027627029 -0.0129580805 -0.094748184 0.09337541
000230 7b 50 1d 3e 19 be fb 3c 18 0b f3 3d 2b e8 13 be
       0.15362732 0.030730294 0.1186735 -0.14444034
000240 a0 90 31 be bb 15 ce 3f 5b 84 8a bd f2 89 34 bf
       -0.17340326 1.6100382 -0.06763526 -0.7052299
000250 ee 68 b8 bd ad 13 25 bb da 90 42 be 14 78 14 be
       -0.09004389 -0.002518873 -0.19000569 -0.14498931
000260 64 e8 a6 3d 4e c3 97 3e a2 cd 94 3e ba 00 d1 be
       0.08149794 0.29641193 0.29063135 -0.40820867
000270 21 43 dc 3d a2 c0 6f be c2 31 3d 3e 71 f7 4b 3e
       0.10754991 -0.23413327 0.18476012 0.1991861
000280 31 31 04 3e 6a 0d 1c 3e f1 f6 e3 3d 85 1f 19 3e
       0.1290939 0.15239492 0.11131085 0.1495343
000290 2f 38 86 bd ec f7 ed 3d 2e 46 97 3d 08 dc e7 be
       -0.06553685 0.11619553 0.073864326 -0.45285058
0002a0 10 37 4e bd ae 45 de be da 99 b3 be 53 e8 44 bf
       -0.05034548 -0.43412536 -0.35078317 -0.76917
0002b0 44 ef 7f be 2c c5 ae bd 0a 86 0a 3f 08 b1 16 bd
       -0.24993616 -0.08533701 0.5411078 -0.036789924
0002c0 53 03 84 3e 8b 6a dc be 51 65 2d bd c5 75 e3 be
       0.25783786 -0.43050036 -0.04233295 -0.4442579
0002d0 65 da de 3e 95 1d 97 3e 2f 72 a7 be dd 9a 3e be
       0.43525997 0.29514757 -0.32704303 -0.18613763
0002e0 0e ed 5a be f0 6d 2c be af 6c 93 bd 79 c7 2f be
       -0.21379492 -0.16838813 -0.07198464 -0.17165937
0002f0 ee ba 54 be c3 a8 a3 be 19 77 3e be 31 72 7f 38
       -0.20774433 -0.31964692 -0.1860012 6.0903087e-05
000300 b0 ac 1e 3e 8f d2 df 3d 69 86 50 3f 5f 20 a5 be
       0.15495563 0.10928833 0.81455094 -0.3225126
000310 03 7a ec be b6 ac e8 3e 17 ee 64 3c 16 3b bf 3d
       -0.46186838 0.45444268 0.013972781 0.093374416
000320 6e 18 16 bd 49 3f d6 3d 72 01 36 be d0 8b dc be
       -0.03664439 0.104612894 -0.17773989 -0.43075418
000330 b1 62 0a 3c 0a b3 da 3c 14 68 ac be a3 74 9d be
       0.008446381 0.0266967 -0.33673155 -0.3075305
000340 a9 c5 8e be 9c bf 98 bd 52 9d fd bd df de 56 be
       -0.27885178 -0.074584216 -0.12383522 -0.20983456
000350 c1 c6 07 be b8 53 a1 be 6f b7 5a be 6e bf 4a 3c
       -0.13259412 -0.31509185 -0.21359037 0.012374742
000360 2e 56 13 bf 5d 20 bf be 62 2e 8a 3d af d2 80 be
       -0.57553375 -0.3732938 0.06747128 -0.2516074
000370 c9 ac 28 bf 79 37 cf bb 4e 7f 20 bf 4e 1f 05 bc
       -0.6588865 -0.0063237515 -0.6269425 -0.008125139
000380 b2 25 b0 3c a9 79 22 3e 7a 20 68 bc b6 09 23 3d
       0.02150235 0.15866722 -0.014167899 0.039804183
000390 f0 63 00 3d 9a 8c 2e bd 80 54 bd 3d 84 77 f5 3d
       0.031345308 -0.042614557 0.09244633 0.119856864
0003a0 c0 40 b6 3d 6c dd 19 3d ae 5c 3e bd a6 9f a4 bd
       0.08899069 0.03756468 -0.046475105 -0.08038263
0003b0 b1 92 09 3e 68 72 71 3d 58 4e 3a 3e 75 75 a6 bd
       0.13434865 0.058946997 0.18193948 -0.08127872
0003c0 ae d2 a9 3e 09 13 f1 3f 20 79 48 3e d9 cf ed 3e
       0.33168548 1.8833934 0.19577456 0.46447638
0003d0 c6 17 29 3f eb 79 37 3e 85 5a e4 3d b4 2e 00 bf
       0.660519 0.17917602 0.11150078 -0.50071263
0003e0 7a c1 e8 be f5 6a 04 be 9c ce c6 be 45 da 99 be
       -0.4546011 -0.12931426 -0.38829505 -0.3004934
0003f0 ca 0b 8a 3d 4d 59 78 3e dc 54 ac bd 96 d1 2b bc
       0.0674053 0.24252816 -0.08414623 -0.010486981

actor.0.bias f4 [256]
000000 e4 d3 8c bb 2a 69 37 be 7f 3e 1e be 19 d7 21 3d
       -0.0042977203 -0.1791121 -0.15453528 0.039511774
000010 61 18 a0 bc df a1 53 be a6 58 b9 be 2d bd 74 3d
       -0.019542875 -0.20667218 -0.36200446 0.059750725
000020 82 e0 e4 3d 3b f4 eb 3c 7b 5b c5 bd eb 0b 68 be
       0.11175634 0.028802982 -0.09636589 -0.22660796
000030 4d 75 7e 3b 86 4d 43 bd fe d0 71 3d 60 19 83 be
       0.003882724 -0.047681354 0.0590372 -0.25605297
000040 aa bd 0e be 89 f2 97 bd db 33 58 bc 3b 4f 69 be
       -0.13939539 -0.07419307 -0.013195957 -0.2278413
000050 05 dc fe 3c 6f a6 1a be ae 6e b8 be 82 b1 3f be
       0.031110773 -0.15102552 -0.36021942 -0.18720058
000060 7c 85 7e be 28 e0 9f 3d 8a 41 36 be 9b b5 66 bd
       -0.24855608 0.07806426 -0.17798439 -0.056325536
000070 b0 b3 a4 bd c9 fa 63 be a9 01 93 be 37 86 99 be
       -0.08042085 -0.22263636 -0.28712204 -0.2998521
000080 c0 96 c4 bd 35 82 45 be e9 ef ee bd 50 59 2f be
       -0.09599066 -0.19287951 -0.11666853 -0.17123914
000090 70 8e 0f be ce e9 13 bc 1c ae 88 3d 10 de 7a be
       -0.1401918 -0.009027911 0.06673834 -0.24498773
0000a0 a2 6f 3b be b5 40 8b bc dc 6f 51 3e ee 38 88 bc
       -0.18304303 -0.016998628 0.20452827 -0.016628709
0000b0 88 e7 c1 bc f4 74 3c be 63 88 a2 bc d3 ad b5 bc
       -0.023669973 -0.18403989 -0.019840425 -0.022177612
0000c0 5b 24 85 bd 45 00 92 be f1 11 3c 3d 8f a3 04 3e
       -0.06501075 -0.2851583 0.045915548 0.12953018
0000d0 ac 56 93 be 51 aa 6a be ea 0d 01 3d 6d 5e 9a be
       -0.28777063 -0.22916533 0.03150741 -0.30150166
0000e0 e2 2d 0f be 43 65 03 be 9b d1 8a be bf 5b 3d be
       -0.13982347 -0.12831597 -0.2711304 -0.1849203
0000f0 eb 2e 98 bd 90 62 d8 3c 7a 47 98 bd d6 ff a1 bd
       -0.07430824 0.026414186 -0.07435508 -0.07910125
000100 86 79 a3 be e3 87 a6 be fe 2d b1 bd b0 d5 42 bd
       -0.31928653 -0.32525548 -0.086513504 -0.04756707
000110 1d 5c ac be 75 14 48 3d 6b 11 b5 bd 60 89 1a be
       -0.33664027 0.048847634 -0.08841213 -0.15091467
000120 20 a5 4b be a8 d1 46 bc 2f 57 72 be e9 e7 4e be
       -0.19887209 -0.012134947 -0.2366607 -0.20205654
000130 02 fa 86 bd 35 d3 2e 3e ed 2e e7 3c 78 b4 5a be
       -0.06590654 0.17072757 0.028220618 -0.21357906
000140 1a 23 94 be 8b a0 92 be a8 f3 c2 bd ce 00 97 bd
       -0.2893303 -0.2863811 -0.0951913 -0.073732
000150 89 8f 3c be 02 3a b4 be aa b5 cb bd f1 67 1c be
       -0.1841413 -0.35200506 -0.09946759 -0.15274025
000160 e0 a6 b9 be ec 17 b8 3c d0 5e ae bd 8f 30 b6 bd
       -0.36260128 0.022472344 -0.08514178 -0.088959806
000170 f7 ee 85 bd dc 2b 91 be 58 ec a1 3e 0d e6 de bd
       -0.065397196 -0.28353775 0.31625628 -0.108837225
000180 9c c3 0b be d0 cc ee bc 01 94 a0 3d 08 1f 5a be
       -0.13648838 -0.029150397 0.078407295 -0.213009
000190 1c 8b c6 bc 1c e6 c1 be ac d8 67 bd 4a ff 9e be
       -0.024236254 -0.37870872 -0.05660312 -0.31054145
0001a0 03 3a b9 3d 7e 2f 9d be fe 1c 1b be 2e 42 c1 bd
       0.09044268 -0.30700296 -0.15147778 -0.09436451
0001b0 6b 22 13 bd 0d 7e 4f bd e1 79 b8 be b3 92 ac be
       -0.035921495 -0.05065732 -0.36030486 -0.33705673
0001c0 67 e0 23 bc 13 1c a5 3d 27 89 86 bd 3d d4 d7 bd
       -0.010002232 0.08061995 -0.065691285 -0.10538528
0001d0 f0 d3 25 be 10 9f 43 be ed 5b db bd 34 68 53 be
       -0.16194129 -0.19103646 -0.10710893 -0.20645219
0001e0 98 4d 53 be c3 e5 99 be 48 32 08 3e f9 b6 90 be
       -0.20635068 -0.30058107 0.13300431 -0.28264597
0001f0 21 ed d8 be c5 37 00 be a0 6c b6 3c 51 fc e5 bd
       -0.42368415 -0.12521274 0.022268593 -0.11229766
000200 17 a9 01 be 3f 54 92 be 0c 9c 2d bd 7a d9 10 be
       -0.12662159 -0.285799 -0.042385146 -0.1414546
000210 6b 53 9c be 31 fa 1a be 85 04 66 be 9b 70 76 3d
       -0.30532393 -0.15134503 -0.22462662 0.060165983
000220 1b b8 ce bd 5d c2 4f be 80 f3 9a be 80 32 3b be
       -0.10093709 -0.20288987 -0.302639 -0.18280983
000230 cc ef 02 bd fb 38 1c bd 15 dd 82 be 27 32 37 be
       -0.03196697 -0.03814028 -0.25559297 -0.17890225
000240 43 a6 1f be 58 cc 96 3d 06 2f f1 bc 17 08 72 3e
       -0.15590768 0.07363194 -0.029441368 0.23635899
000250 45 5b 92 be eb d0 d5 bd 74 0f c1 bc 0b 4a 27 be
       -0.28585258 -0.104402386 -0.023566939 -0.16336839
000260 86 eb 09 bc d3 f2 8a be 7d c8 74 be 76 6e a6 be
       -0.00841797 -0.27138385 -0.23904605 -0.3250615
000270 29 09 2a be 02 c8 b2 bd 03 21 f0 bd 6d 5e 6e be
       -0.16605057 -0.08729555 -0.117250465 -0.23278208
000280 ef 6e 77 bc c7 26 c0 bd 1d 9f cc bd 84 a1 0b bc
       -0.015102132 -0.09382396 -0.09991286 -0.008522395
000290 db f5 a0 be 9f 11 90 be af 4b 01 be 62 5b b3 be
       -0.31437573 -0.28138444 -0.12626527 -0.35030657
0002a0 70 4d 01 be a9 c8 32 be 16 58 5e bd 03 7a 16 3d
       -0.12627196 -0.17459358 -0.054283224 0.036737453
0002b0 29 49 54 be 9c 61 95 bd de 4b 3e 3d c5 96 36 3e
       -0.20731033 -0.07294008 0.04645907 0.17830952
0002c0 44 2e e3 bd 8a 87 8a be 8c 02 19 bd e7 30 ad 3d
       -0.11092809 -0.27056533 -0.037355945 0.08456593
0002d0 70 41 4e bb cb 8d 1a 3c 6f 3a f8 bd 39 92 56 bd
       -0.003147211 0.00943322 -0.1212052 -0.052385543
0002e0 e4 f0 61 bd 8f 7f 90 3d ea 0b b3 bd 9a 1c 24 be
       -0.05516137 0.0705558 -0.08742507 -0.16026536
0002f0 f7 d4 0a be 31 ae 9b be 82 f0 5c bd c4 ce 87 be
       -0.13557802 -0.30406335 -0.053940304 -0.26524937
000300 ea cf 68 bd c8 84 d7 3d 85 9b ef bd cd 8a 80 be
       -0.056838907 0.10523373 -0.11699585 -0.25105897
000310 59 ec f4 bb e8 7d a2 ba e9 1f 24 3c 98 99 eb 3d
       -0.007474464 -0.0012397142 0.010017374 0.11503905
000320 35 03 84 bd 38 f3 38 be 6e 76 e5 3b 62 82 e3 be
       -0.06445924 -0.1806153 0.0070026433 -0.44435412
000330 3c 3d 5f bd 37 5b 49 be c6 e9 c8 be a8 fe 7f bd
       -0.054501757 -0.19663702 -0.39240855 -0.06249872
000340 aa 86 08 be b1 bd f6 bd b7 83 42 3e ab 9b 8c 3c
       -0.1333262 -0.120478995 0.18995558 0.017164072
000350 3c e8 a8 be a2 dc 21 be 17 9a 16 be b6 48 c3 be
       -0.3298968 -0.15806821 -0.14707218 -0.38141412
000360 2d 68 21 3e 08 12 aa be 7e 1b 2b be 1f 24 d4 bd
       0.15762396 -0.33216882 -0.16709706 -0.10358452
000370 14 d9 d3 bd 87 5d 81 be 2d 3d 55 bd b1 df d0 bd
       -0.10344139 -0.25266668 -0.052060295 -0.10198916
000380 83 cd d1 bd cd bf 32 be c5 69 46 3a 4d 84 c3 be
       -0.102442764 -0.17455979 0.00075688615 -0.38186875
000390 4b 22 ab be e7 d6 93 be d3 fa bc bd 8b 47 0f be
       -0.334246 -0.28874895 -0.092275284 -0.13992135
0003a0 be e3 52 bd 74 f9 9c bd 70 7f 53 be 23 e7 3b bb
       -0.051486723 -0.07664767 -0.20654082 -0.0028671704
0003b0 fc 07 c7 bc 9a 48 0b be 45 f2 89 bd 61 c7 64 be
       -0.0242958 -0.13601914 -0.06735662 -0.22341682
0003c0 e9 b7 84 bd ec 17 85 be 41 b9 af 3d 69 7f e8 bd
       -0.064803906 -0.25994813 0.08580256 -0.113524266
0003d0 c0 57 2d be 1e e1 90 be 38 a2 72 be a7 1c fb 3d
       -0.16928005 -0.2829675 -0.23694694 0.122613244
0003e0 fb c9 85 3c c1 6f db bc d5 f1 96 be 87 f3 89 b9
       0.016331663 -0.026786687 -0.29481378 -0.00026312118
0003f0 a3 d8 49 be 3a 9c 5c bd 74 76 7e be c9 a8 01 bf
       -0.19711547 -0.053859927 -0.24849874 -0.5064817

actor.2.weight f4 [256, 256]
000000 52 bb 00 3d 7c 6a 32 ba e9 8d 49 bd 32 db 11 bf
       0.031428643 -0.00068060285 -0.0492076 -0.5697509
000010 f9 7c f4 bd 6e a2 2b be ab 98 8e 3c 97 ec 5b 3e
       -0.11937899 -0.16761181 0.017406782 0.2147697
000020 ef ee db be d6 41 cc bf fc fd 7a 3e 83 01 b2 3d
       -0.4295573 -1.5957592 0.2451095 0.086916946
000030 a1 38 82 be 27 81 4f 3e 71 9f ed 3e 65 13 8e be
       -0.2543383 0.20264111 0.46410707 -0.27749172
000040 0c 6d a0 be c7 44 61 bf dc ca 8f be 4a 02 b7 be
       -0.31333196 -0.8799557 -0.28084457 -0.35743934
000050 d5 ff 77 3e 60 85 43 3e 3b 24 0f bf 25 7a e6 3d
       0.24218686 0.19093847 -0.5591466 0.11253766
000060 98 c7 02 3f 97 a1 b6 be b1 f4 20 3f ed 73 1a be
       0.51085806 -0.35670158 0.6287337 -0.15083285
000070 2f 9a 84 bc 6b cc c0 be 86 df 06 3e 51 73 76 3e
       -0.016186802 -0.3765596 0.13171205 0.24067427
000080 f1 5a 66 bf 81 98 92 be 9a 3c 45 3e 16 63 f6 be
       -0.89982516 -0.28631976 0.19261399 -0.48122472
000090 0a f6 5c 3e aa ad 1a be c1 0f 13 3e 3c c7 35 be
       0.21578231 -0.1510531 0.14361478 -0.17751783
0000a0 20 d1 83 3e f9 49 62 3e 79 6d 91 3f c4 78 52 be
       0.25745487 0.22098531 1.1361533 -0.20553881
0000b0 83 8d c1 be 2b 41 02 3e ae 2d 0e be 89 06 28 3e
       -0.37803277 0.12720172 -0.13884613 0.16408743
0000c0 8a 06 a1 bd 7b b0 90 be 0b 8f f8 bd 78 a0 2e be
       -0.07862575 -0.28259644 -0.12136658 -0.17053401
0000d0 cf 1e bb be 5e d2 82 bc 24 0a a5 3e 1a fe 82 3e
       -0.36546943 -0.015969452 0.322343 0.2558449
0000e0 ea 55 7c bf a8 00 cb 3e c2 67 53 3d 8c 8a 45 bd
       -0.98568594 0.39648938 0.051612623 -0.04822783
0000f0 b7 e9 d7 3e fd 8b 0f be e4 5a a1 be a5 0b c9 3d
       0.42170498 -0.14018245 -0.31514657 0.09816674
000100 54 3e 5b 3c c0 b9 17 3e f5 5b 72 be 1c f1 08 bf
       0.013381559 0.14816952 -0.23667891 -0.53492904
000110 04 47 d5 3e 9d a5 c2 be c9 66 17 bf e5 1d 30 3e
       0.41655743 -0.38016978 -0.5914121 0.17198904
000120 fe 1f d3 3c b4 e2 c5 bd 1b ac f7 be df eb 99 3d
       0.025772091 -0.09662381 -0.48373494 0.07515692
000130 48 ef 2e c0 4a 5d b9 ba f4 26 7d bc 8d af 8a be
       -2.7333546 -0.0014142182 -0.015451182 -0.2708706
000140 ef a2 a7 be 02 2f 71 3e d7 70 33 be 0e c4 80 bf
       -0.32741496 0.23553088 -0.17523514 -1.0059831
000150 da b7 ba be 94 b5 cd 3e 11 a3 65 be b4 77 7f 3e
       -0.36468393 0.40177596 -0.22425486 0.24948007
000160 4d 35 42 bc 47 eb 7e bf 4e 97 85 bf c4 bf c9 3d
       -0.011853528 -0.99577755 -1.04368 0.098510295
000170 9e f6 5f 3e 96 96 20 3e 10 11 a2 3e 09 29 f2 3e
       0.2187142 0.15682444 0.31653643 0.47296932
000180 8f b2 2a 3e 7d fc 03 bd 70 0e 17 3e b2 df 20 be
       0.16669677 -0.032223213 0.14751601 -0.15710333
000190 c6 0d 88 3e 19 fd ca bd 18 12 10 3e 1d 57 0d 3e
       0.26573008 -0.09911556 0.14069402 0.13802762
0001a0 81 15 f3 3c b5 79 92 3e ec 7b d3 be 81 25 9f 3d
       0.02967334 0.2860848 -0.41305482 0.07770825
0001b0 3f a6 8a be d2 96 4b bd 46 2e d6 bf e2 dc 86 3d
       -0.2707996 -0.04970438 -1.6732872 0.06585099
0001c0 6f f6 38 bd 12 d6 e7 3d fa fa 83 bc 71 f3 6a bf
       -0.045156892 0.113201275 -0.016110886 -0.9177771
0001d0 07 48 74 3f ed 99 8a be fc a0 ad 3e 5c 76 27 3d
       0.95422405 -0.2707056 0.33911884 0.04088436
0001e0 fb 3b 9a 3e 8f b1 51 3e fe f8 68 bf 3a b9 d5 3c
       0.30123886 0.2047789 -0.9100493 0.0260893
0001f0 a6 f6 57 3e 89 b1 82 bd 3a 76 6d bd 9a 99 f9 be
       0.21090183 -0.063815184 -0.057974078 -0.4875
000200 2d 3c 89 3e 20 cc 82 be b0 b1 d1 be cb d6 70 bf
       0.26803723 -0.2554636 -0.40955877 -0.9407775
000210 7b 86 1f bd 0a 90 0d bf b1 c1 d0 be c5 8c 8f be
       -0.03894661 -0.5529791 -0.40772775 -0.28037086
000220 07 7d b7 3e ab ca 15 3d 27 c1 b0 3e 6d 4a ab 3d
       0.35837576 0.036570232 0.34522364 0.08363805
000230 f1 0b 66 3e 50 a1 06 bf 37 b0 56 3c 8e 66 0f bf
       0.22465493 -0.52589893 0.013103536 -0.5601586
000240 a6 77 4b 3e 37 ca 17 3e fc 35 66 bf 38 ff 4b be
       0.19869861 0.14823233 -0.89926124 -0.19921577
000250 57 18 3b 3e 80 21 50 3b 80 65 ca bd c7 80 c5 3e
       0.18271004 0.0031758249 -0.09882641 0.38574812
000260 c6 bc 67 be c9 83 d3 bd eb 6b 2f be f3 12 b0 be
       -0.22630605 -0.103278704 -0.17131011 -0.34389457
000270 65 a6 a2 bd 9a 54 59 bc f1 26 e5 3e d7 46 26 3e
       -0.079418935 -0.0132647995 0.44756272 0.16237961
000280 83 9d 56 be 56 db e2 3e 0b 9e 40 be d0 1c 8e bf
       -0.20958523 0.44307965 -0.18810289 -1.1102543
000290 46 44 29 3d d9 82 bb be ad 1f a4 bd bf a6 b3 3d
       0.041324876 -0.36623266 -0.08013854 0.08772039
0002a0 1c c3 42 3e 70 5d 19 be d9 6a 53 be c6 4b ae 3e
       0.19019741 -0.1497705 -0.20646228 0.34042186
0002b0 ca 2e 84 3e 60 a5 11 bf 63 ae e7 be 65 c0 2a be
       0.25816947 -0.5689297 -0.45250234 -0.16674955
0002c0 25 ed 17 3f 36 3f 8f be 16 12 70 be 58 1c cd 3d
       0.5934623 -0.27977914 -0.23444399 0.10015172
0002d0 13 0f 06 be 5a 00 5e bd be 75 80 3e 01 b7 a0 3d
       -0.13091688 -0.054199554 0.2508983 0.07847405
0002e0 d0 7f d5 3e ce f9 97 be f0 1f 79 bf 26 13 45 be
       0.41699076 -0.29682773 -0.9731436 -0.19245586
0002f0 d2 39 6a bd 1f a7 d7 bd a0 52 0f be 84 a4 34 3f
       -0.057184048 -0.10529923 -0.13996363 0.7056353
000300 d4 54 2a be 2c 8d cd be 7e d0 d2 3c 41 bc d5 3e
       -0.16633922 -0.40146768 0.025734182 0.4174519
000310 84 77 61 bd 84 c4 9d be cd 8f 34 bd 04 2e 28 3f
       -0.05504562 -0.30813992 -0.04408245 0.65695214
000320 3d 14 ea be e2 39 18 be fd 47 d6 be 62 c6 8a be
       -0.45718566 -0.1486583 -0.41851798 -0.2710448
000330 d0 8c 51 3c 0d 85 ca be 04 f7 87 be 62 d1 c9 3e
       0.01278992 -0.39554635 -0.26555645 0.3941756
000340 01 af 00 bd 35 4b 1d 3f 00 74 36 be 7a c5 d5 3e
       -0.031416897 0.6144288 -0.17817688 0.41752225
000350 ae ee 91 be 61 9c 2e be fa 3a 60 be 66 27 ee 3d
       -0.2850241 -0.17051841 -0.21897498 0.116286084
000360 5b 95 59 be ef 71 9c 3e 2d cb e5 bd be 81 91 3e
       -0.21248381 0.30555674 -0.11220393 0.28419298
000370 87 09 8e bf 31 16 48 bf fc 5f e2 3e 67 9e 11 bf
       -1.1096658 -0.7815886 0.44213855 -0.5688233
000380 1b 08 85 bd 0a 01 dc bd 1d c9 0c bf 5f a6 78 be
       -0.064956866 -0.10742386 -0.54994375 -0.24282216
000390 33 34 ab bf 49 b1 12 3f 90 f4 a7 be 2c e5 97 be
       -1.3375305 0.57301766 -0.32803774 -0.29667032
0003a0 30 44 25 3f 6c 18 29 bf 03 5a 9e 3c a0 6f 8c 3c
       0.6455717 -0.6605289 0.01933003 0.01714307
0003b0 cd 78 c8 3d b3 0d 1d 3e ae 64 05 bf 9c fa 92 3e
       0.09788666 0.15337257 -0.5210675 0.28706825
0003c0 e2 3b ca be b6 9f 66 bd b5 f2 56 bd 91 0c 63 3e
       -0.39498812 -0.056304656 -0.052477557 0.22172762
0003d0 3d 02 f4 bd 92 56 1b bd c8 c2 53 bc af ea 9a be
       -0.119144894 -0.037924357 -0.012924857 -0.30257174
0003e0 9d 5c 25 3d da 2c 66 bd 3e 58 aa 3d b3 6d d4 be
       0.040371526 -0.056195118 0.08317612 -0.41489944
0003f0 20 99 f5 bd 93 5b 15 bf 1c 18 93 3e 56 04 e8 3d
       -0.11992097 -0.58342856 0.28729331 0.11328952

actor.2.bias f4 [256]
000000 9c e4 2d be 8b bc d6 3c 27 e7 23 be c7 a3 93 be
       -0.16981739 0.026212951 -0.16006146 -0.2883589
000010 99 09 32 be e8 c7 7b bd 5f 77 b2 be 2f f6 31 be
       -0.17386474 -0.061469942 -0.34856698 -0.17379068
000020 77 0a 21 be 2e 89 a5 3d b2 54 af bd ab 43 51 bc
       -0.15726648 0.080828056 -0.08561076 -0.012772481
000030 30 a8 02 bd ca 98 49 3d 62 49 b0 3d 0a ae 4c be
       -0.031898677 0.049217977 0.08607747 -0.19988266
000040 8c cb 59 bd d7 ee dd bd 15 e0 6a be c0 6f 3e b9
       -0.053172633 -0.10836571 -0.22937043 -0.00018161442
000050 a2 d0 89 be 9b 52 32 3c 18 ea 81 be c9 54 92 bd
       -0.26916987 0.0108839525 -0.25373912 -0.07145078
000060 7d c8 fa 3d 9f 5b 7d 3f ef eb 36 be 4b 76 a5 bd
       0.12245271 0.9896793 -0.17863439 -0.08079203
000070 0b 4f 9e be 52 15 bf be bf f2 b3 bd 4a 66 62 3c
       -0.3091968 -0.37320954 -0.087865345 0.013818333
000080 7a fd f9 3d 34 82 94 bd 84 06 ad bd 64 27 15 bd
       0.1220655 -0.07251397 -0.084485084 -0.03641452
000090 5d ab 76 3d 4e b8 68 bb 2e cd 92 bd 35 00 37 3e
       0.06022202 -0.0035510245 -0.07168041 0.17871173
0000a0 ea 9f 46 3d 41 66 64 3e 2d 69 82 3d 3f e4 d7 3e
       0.04849235 0.22304632 0.06367717 0.42166325
0000b0 b0 5f 47 be 33 da 1b be 39 1d 59 be 47 7b a4 bd
       -0.19470096 -0.15219955 -0.21202554 -0.08031326
0000c0 b9 f0 ac 3d 32 a7 b7 be ff 08 01 3c 8d b0 f6 3c
       0.08444352 -0.35869747 0.00787568 0.030113483
0000d0 13 e5 8d bc ed 1a e6 bc 90 cd 0b be bd a8 a7 3d
       -0.017321145 -0.028089011 -0.13652635 0.08186481
0000e0 bc 95 4b 3d cd 49 39 bd 27 ca 0f 3e 36 1e a4 bd
       0.049703345 -0.045236398 0.14041959 -0.08013575
0000f0 04 47 2f 3e c5 40 96 bd 8f 40 22 bc 20 71 80 3d
       0.17116934 -0.073365726 -0.009903087 0.06271577
000100 7e 17 2b be de da 5a 3e 99 32 76 be 9a e7 99 bd
       -0.1670818 0.21372554 -0.24042739 -0.075148776
000110 9e 72 99 3d ee 95 e7 bd ed 37 5a be dd a1 d6 3d
       0.074925646 -0.11307894 -0.21310396 0.10480092
000120 93 5e 90 3d 35 84 74 bd 45 29 87 be 03 b7 5c be
       0.070492886 -0.059696395 -0.26398674 -0.21554188
000130 a7 7b bd be a4 4f af be 5e 1c e0 bd 01 9d e6 bd
       -0.37008402 -0.34240448 -0.109429106 -0.11260415
000140 25 37 15 bc 34 d2 6c be df 9d 24 3e 35 1a ee bd
       -0.009107386 -0.23127061 0.16075848 -0.11626092
000150 e6 b3 76 bd 32 f3 29 3e 02 e8 70 bd 29 6c 29 3e
       -0.06023016 0.16596678 -0.05881501 0.16545166
000160 92 4c 04 3e de a0 8b bd f5 63 8b be e5 34 b7 3c
       0.12919834 -0.06817792 -0.272247 0.02236409
000170 4c 4d 65 be 77 e4 7c be 1a 03 e8 bd e4 b1 83 be
       -0.22392768 -0.24696527 -0.113287166 -0.25721657
000180 46 94 51 be 5b 49 3d bb bb 10 04 3e b2 63 40 bd
       -0.20466718 -0.0028882835 0.12897007 -0.046970077
000190 a1 ed bf 3d eb ce 00 bd 1c 1d 8a 3d 4f 05 6a 3e
       0.09371496 -0.031447332 0.067438334 0.22853588
0001a0 cd f1 9b 3d 83 ce 89 bd 9e 40 0e be de 4c 5b 3d
       0.07614479 -0.06728842 -0.13891837 0.053540103
0001b0 50 f2 85 3e 25 dc 4e be 9c 3c 7e 3c 96 47 70 3c
       0.26161432 -0.20201166 0.01551738 0.014665505
0001c0 05 ae 62 be 80 d9 39 bd 7a aa 40 bd fd 59 cf 3d
       -0.22136696 -0.04537344 -0.04703758 0.10124586
0001d0 c6 af 2f bd 8b 3c 92 bd 19 45 43 3e 39 c1 13 be
       -0.04289224 -0.07140454 0.19069327 -0.14429177
0001e0 42 0f 29 bd 53 b1 5c bc 55 22 32 bd e7 d4 02 3c
       -0.041274317 -0.013470012 -0.043489773 0.00798533
0001f0 f8 06 2a 3d 49 6e 2f 3d ee e9 4f 3d 37 dd 16 3d
       0.041510552 0.042829785 0.050760202 0.03683206
000200 16 66 93 3e ae d7 7b be ff 27 d7 3e 5d 89 38 bd
       0.28788823 -0.24593994 0.42022702 -0.045052875
000210 f2 61 a4 bc aa 68 fa 3c dd e0 71 3b 2c 01 94 3e
       -0.020066235 0.030567486 0.003690771 0.28907144
000220 e7 90 e4 3b f3 90 2f 3e c4 28 a1 3d 5f 53 88 be
       0.0069752815 0.17145137 0.078691036 -0.26626107
000230 71 02 33 bd b1 dd 58 be fd 07 e7 bc 76 da fa 3d
       -0.0437035 -0.21178319 -0.028202051 0.12248699
000240 44 20 99 bd c1 90 78 bb 77 83 8e 3e 6c f9 f8 3c
       -0.07476857 -0.0037928077 0.27834675 0.030392371
000250 9a 91 0e 3e 19 e0 98 3c ee 64 50 3d 5a f6 34 be
       0.1392273 0.018661546 0.050877504 -0.176721
000260 c4 4e e8 3d 40 d2 1d 3e 1f 64 4e bd 8a 78 ce 3d
       0.11343148 0.15412235 -0.05038845 0.10081585
000270 82 cd 13 be 0f 8c b8 3d 91 09 2b be 4d ca 9b 3e
       -0.14433864 0.09011089 -0.16702868 0.3042778
000280 54 a9 84 be 5c 51 79 3d 44 2a 40 be 26 ae 8d be
       -0.25910437 0.060868606 -0.18766123 -0.27671927
000290 df db e0 3d 2a 40 ab 3d b3 50 4f 3d 4d 62 21 be
       0.10979437 0.08361848 0.05061407 -0.15760155
0002a0 9f bb 9d bd 53 cb 10 3e b3 f3 fa 3d b8 60 da bd
       -0.077018015 0.14140062 0.12253513 -0.10662979
0002b0 55 d6 f4 3d bd 4b 8b 3d dd f4 20 39 38 78 a4 be
       0.11954943 0.06801555 0.00015350008 -0.3212297
0002c0 ac cf d1 bd a6 6d 41 be cb 18 12 be ed bb 71 3d
       -0.102446884 -0.18889484 -0.1426727 0.05901711
0002d0 fc 2b 38 3d fc 5c 50 bd 89 cc 7a be ca 0e 3f be
       0.04496382 -0.050869927 -0.24492086 -0.18657985
0002e0 66 92 03 bd 67 b9 b3 bd 25 c0 36 3d 63 10 69 be
       -0.03212204 -0.08775597 0.044616837 -0.22760157
0002f0 e2 74 de be 49 38 6a be 5d 4b d8 bc af 4e a7 3d
       -0.4344855 -0.22873034 -0.026403124 0.081693046
000300 2c 34 46 be 34 c7 07 3e 23 05 0b bd c6 55 3a 3d
       -0.1935584 0.13259584 -0.033940446 0.045491956
000310 07 13 6a be e9 d4 2f 3c 4a d6 f1 3d cd 6e 2c 3e
       -0.22858821 0.010731914 0.118084505 0.16839142
000320 1c ce 82 bd 67 03 20 be cf ff 85 bd e5 d7 10 be
       -0.063869685 -0.15626298 -0.06542932 -0.14144857
000330 8b 78 e5 3c 45 00 83 bd 3a 78 92 bd f8 00 01 bd
       0.02801158 -0.06396536 -0.07151838 -0.031495064
000340 5a 73 29 3e 3c 9d 13 3d 4b 2c 4e be 52 db d7 bd
       0.1654791 0.036038622 -0.20134084 -0.10539879
000350 62 a5 7d be 6e 8f 53 3d 9d 33 75 bd ce ca 8d be
       -0.2477012 0.051650457 -0.059863675 -0.2769379
000360 cc f5 3a be d5 63 43 3d 7b 63 1a be 43 c1 05 3c
       -0.18257827 0.04770263 -0.15077011 0.008163753
000370 cb a4 2c 3d 48 5c 38 bd 75 a5 9d bc 05 ee 0b 3c
       0.042149346 -0.04500988 -0.019243935 0.008540635
000380 b0 1d 1d bd cb 65 26 be d7 6a 7e bd ad b6 0d be
       -0.03835839 -0.16249768 -0.06211361 -0.13839217
000390 8e d0 ff 3d 50 61 84 3e 84 2f dd bd 9d d0 aa be
       0.124909505 0.25855494 -0.108000785 -0.33362284
0003a0 3e 8a aa bd d9 e2 f2 3d 2c 3e d4 be 5b 59 b2 3d
       -0.08327149 0.11859674 -0.41453683 0.087084495
0003b0 53 a1 da bd ea ac 2e be d6 9b ee 3c 01 48 2f be
       -0.106753014 -0.17058149 0.029127043 -0.17117311
0003c0 7d e3 c9 3d 3f 67 0b be 4e 01 46 3e 29 b8 db 3d
       0.09857843 -0.13613604 0.19336435 0.10728485
0003d0 b7 7c 78 3d c2 4e de bc 08 11 cc be dc b3 84 3e
       0.060665812 -0.027137164 -0.39856744 0.25918472
0003e0 97 ac b0 3d 8d 17 32 be 18 99 4d 3e 70 0d 0b bd
       0.08626669 -0.17391796 0.20077932 -0.033948362
0003f0 df f2 85 bd 77 16 e3 bd 39 a1 2d be 34 f5 19 3e
       -0.065404646 -0.11088269 -0.16956033 0.15034944

actor.4.weight f4 [8, 256]
000000 cb c3 db 3e c9 df 81 3f 9c e3 b1 bf 21 07 1f bf
       0.42922816 1.0146419 -1.3897586 -0.6212025
000010 18 22 b7 3f 52 b9 1f 3d 92 4c 85 3f 2e bf d4 be
       1.430728 0.038995095 1.0413992 -0.4155211
000020 84 dd 3a be 3e c3 ea be a4 54 c4 3f 75 0d 3d bd
       -0.18248564 -0.45852083 1.533833 -0.04615541
000030 2f 0a 78 bd 2b c4 04 bf a2 b8 b0 bf 98 bb 5c bf
       -0.060556587 -0.5186183 -1.3806345 -0.86223745
000040 be 23 17 3e 4d d8 37 3d aa c3 84 3e f9 40 a0 3d
       0.14759728 0.044884015 0.2593053 0.078248926
000050 b3 9d d5 bd 93 a6 8e be c4 91 62 be d6 41 4a be
       -0.10430469 -0.2786146 -0.22125918 -0.19751677
000060 76 d1 81 be fd 1f 87 bd e5 d6 b6 be e0 a7 88 be
       -0.2535512 -0.06597898 -0.35710827 -0.26690578
000070 47 47 a1 3e e5 98 8b 3f f7 d8 ac be 8e a5 06 3f
       0.31499693 1.0906035 -0.3375928 0.52596366
000080 81 99 ac be 9f 57 3b bf 64 61 0f bf 88 f4 07 3e
       -0.33710864 -0.73180574 -0.5600798 0.13276875
000090 51 43 8c be dd f3 17 bf 55 b1 4b 3f dc c9 2c 3f
       -0.27395108 -0.5935648 0.7956746 0.6749551
0000a0 7a 23 69 3e b0 28 51 be f8 93 db bd 2a 8b db bd
       0.2276744 -0.20425677 -0.10721582 -0.10719903
0000b0 74 7a 91 bf 26 63 a6 3e cd 16 e8 be 2f 02 d4 3d
       -1.1365495 0.3249752 -0.45329896 0.10351979
0000c0 33 bc 58 bd 7e ba 00 3e 0f 60 43 3d fb 74 49 be
       -0.052913856 0.12571141 0.04769903 -0.19673531
0000d0 4c c0 a8 bd c8 06 bb 3e d7 48 26 be 1f 36 77 bf
       -0.08239803 0.3652861 -0.16238724 -0.9656696
0000e0 e3 19 08 bf 37 be 45 3f 2b b7 be 3e ac 1d 01 3f
       -0.531645 0.7724337 0.3724912 0.504359
0000f0 ce 67 bb 3e 72 3a 8b bd 4a 9c 6c 3e 2f 56 92 3f
       0.36602634 -0.06798257 0.23106495 1.1432551
000100 85 cf 86 3e a8 89 86 3d cc f4 c8 bf 5b 0a 95 3f
       0.263302 0.065692246 -1.5699706 1.1643785
000110 03 b3 e6 be 3a fe 26 bf 19 19 af 3d 6a 74 c9 be
       -0.4505845 -0.6523167 0.08549709 -0.3934663
000120 61 1a ad bd f4 c5 da 3d 72 de f2 bd 51 02 1b 3f
       -0.08452297 0.10682288 -0.11858834 0.6055041
000130 11 ce d3 3e be 4c a3 3e e2 1a c9 3e 54 50 cd bf
       0.41368154 0.31894487 0.39278322 -1.6040139
000140 ca 04 90 be dd 05 d1 3e 2a 33 8c be e6 e7 b5 bf
       -0.28128654 0.40824786 -0.27382785 -1.4211395
000150 6b 1d bc 3e 0a 51 81 c0 c5 ce 08 bd 6f e4 03 c0
       0.36741194 -4.0411425 -0.033400316 -2.0608175
000160 04 f8 40 3f c0 d0 8e be ff 28 6b be 24 2f 1a bf
       0.7537844 -0.2789364 -0.22964858 -0.6022818
000170 d7 6e 76 bf 49 c6 8b be 60 3e eb be 83 2d bc 3e
       -0.9626288 -0.27299717 -0.45946026 0.36753473
000180 c1 ff 64 bf 4d 00 d5 be fd f6 d0 3e ea f6 54 bd
       -0.8945275 -0.41601792 0.40813437 -0.051993288
000190 f9 a6 ba be cf 64 26 3e bc 36 48 3e ca ce fc be
       -0.36455515 0.16249393 0.1955213 -0.49376518
0001a0 39 1b 31 bf 38 91 8c bc 20 89 b3 be 7d 0f 70 bd
       -0.69182163 -0.01715909 -0.35065556 -0.05860852
0001b0 4f 9b f9 3c 2b fc f1 3f 89 0f e5 3d dd 6e 64 3e
       0.030469565 1.890508 0.11184604 0.22307916
0001c0 4b 1c f0 be a2 5f 76 3f 21 6e a0 bf 7a 0f 01 be
       -0.46896586 0.96239674 -1.2533609 -0.1260356
0001d0 93 fb 9e 3e 52 44 b8 3e 1a ac 65 be 54 7c 63 3f
       0.3105131 0.35989624 -0.22428933 0.88861585
0001e0 78 ca 69 3e a0 db b2 bf 37 3c 10 3d 92 33 05 3e
       0.22831142 -1.3973274 0.035213675 0.13007954
0001f0 d4 ff fb 3e f7 16 c2 be 72 a1 b3 3d 89 e6 1c 3f
       0.4921862 -0.37908146 0.087710276 0.6128927
000200 15 da 79 bf ff 20 08 3e 16 31 6c be fb 6f 86 be
       -0.9759839 0.13293837 -0.230656 -0.2625731
000210 1d 38 22 3e d2 ec cf bd 1e f6 23 3e f6 e0 06 bf
       0.15841718 -0.10152592 0.16011855 -0.52687013
000220 df 97 1c 3f 5d 48 a1 3e 4d 16 9f be f9 d6 80 be
       0.61169237 0.3150052 -0.31071702 -0.2516401
000230 de 4c 99 be 67 13 9a 3d 6b 39 33 bf 31 f9 1d bf
       -0.29941458 0.07523232 -0.7000949 -0.6170836
000240 c9 93 6d 3d d1 b3 be bf 7d 8f 14 bf 6d a6 10 3f
       0.058002267 -1.4898626 -0.58031446 0.56503946
000250 69 79 09 bf d5 e2 86 3e 96 98 75 3e 4b 25 05 3f
       -0.5370088 0.26344934 0.23983988 0.5201003
000260 4f a1 dc 3e b0 86 30 3e e7 5e 82 be ce aa 63 3e
       0.4309182 0.17238879 -0.2546303 0.22233126
000270 e9 54 de be 38 63 25 3d 8d b4 ba 3f e7 f9 25 3f
       -0.43424156 0.040377825 1.458635 0.64834446
000280 04 67 73 3e 38 0e 80 be 2f 7c 7a 3e ba d1 a1 bf
       0.23769766 -0.25010848 0.24461435 -1.2642128
000290 d5 21 a7 3f d4 c0 bb 3e 2d 92 2e 3f 70 9e 91 3f
       1.30572 0.36670554 0.68191797 1.1376476
0002a0 60 4f 1a 3f 7d 07 a0 3e 84 a9 4f be 5c 1d ce 3d
       0.60277367 0.31255713 -0.20279509 0.100641936
0002b0 55 e1 56 3f 1b b8 63 bd aa 9d dd bc cf 0a 18 3f
       0.8393758 -0.0555955 -0.02705272 0.5939149
0002c0 51 48 26 be 07 c9 b4 bf b7 e8 06 bf 5a 5b e5 3e
       -0.16238524 -1.4123849 -0.52698845 0.44796258
0002d0 35 01 ab be ac 95 3f bf 88 74 89 bf 7e 64 38 bf
       -0.33399358 -0.74837756 -1.0738688 -0.7202834
0002e0 0a 74 02 3f 3e 6a a2 3c bd 4c 40 be 51 92 50 bf
       0.5095831 0.01982605 -0.18779273 -0.8147326
0002f0 8a 61 fc be 18 5a 2d bf 74 e0 26 bf 25 6b 1c 3e
       -0.49293166 -0.677156 -0.6518624 0.15275247
000300 92 b7 9c bf f8 66 5c be 7c f5 ab 3e ee 26 13 3f
       -1.2243521 -0.21523654 0.33585727 0.57481277
000310 39 40 3f bf 68 b4 2a 3d 26 6f c0 be 4b 79 1d be
       -0.7470737 0.041675955 -0.375848 -0.15378301
000320 aa a6 89 3d 24 3b 59 40 80 96 a5 3d fc 34 8b be
       0.06721242 3.3942347 0.08085346 -0.2718886
000330 1c 04 c8 3f 11 1e c7 bc ec 5e 5f 3f 38 4b 45 bf
       1.5626254 -0.024306329 0.87254214 -0.770679
000340 95 77 45 3e 77 4d c4 3e 93 cb 3a 3e 8f cd db be
       0.19283898 0.3834035 0.1824172 -0.42930266
000350 71 be 44 be 40 d1 29 3e 7e 60 a7 be 68 26 62 bd
       -0.19213273 0.16583729 -0.32690805 -0.05521241
000360 8c 30 26 3e 58 72 b1 3d 2c 33 19 be da f9 66 3c
       0.16229457 0.086643875 -0.14960927 0.014097655
000370 d4 6b a8 3e 7a de b3 3e c5 0e 1c 3e 8b ad bf 3f
       0.32894766 0.35130674 0.15240009 1.4974836
000380 79 a7 15 3f 10 7d ef be f6 a3 88 be 3a 4d 16 3e
       0.5845867 -0.46775103 -0.26687592 0.14677897
000390 bc 6b d5 be 23 74 bd bd 80 5b 9f 3e 25 ec 86 be
       -0.41683757 -0.09250667 0.31124496 -0.2635204
0003a0 23 2d 06 3f e2 1f 26 be 65 24 60 be 62 af f7 be
       0.52412623 -0.162231 -0.21888883 -0.48375994
0003b0 94 4f 2a be 5d bb 2c bf bb 1e 5c bb 5f 39 ed be
       -0.16631919 -0.67473394 -0.0033587653 -0.46332833
0003c0 94 a4 e5 3e dd 0b 6e bf 02 c0 cf 3e 76 54 37 be
       0.44852126 -0.9298685 0.40576178 -0.17903313
0003d0 8d 71 11 3d 58 e3 29 bf fe bd a5 3e a8 31 8d 3f
       0.03550868 -0.66362524 0.32371515 1.1030779
0003e0 93 0d a8 be 64 75 76 3e 87 e6 2f 3f 1e bd 09 40
       -0.32822856 0.24068218 0.6871113 2.1521678
0003f0 3d ea 9e 3e 82 3a 3e be 7c 11 8e 3e 18 f6 05 bf
       0.31038085 -0.18577006 0.27747715 -0.52328634

actor.4.bias f4 [8]
000000 da 6f f2 bd 93 b8 1a be 48 90 3d bd 6d 9b 83 be
       -0.1183774 -0.15109472 -0.046280175 -0.25704518
000010 e8 68 fc bf cc a0 e4 bf 34 0d c8 bf b0 3b e5 bf
       -1.9719515 -1.7861571 -1.5629029 -1.790884

q1.0.weight f4 [256, 28]
000000 16 31 10 bf a7 4e ee bf 31 8d 41 3e 56 04 3c bf
       -0.563249 -1.8617753 0.18901516 -0.73444116
000010 09 e7 8e be e0 76 bf bd 37 3a e8 bd 83 d3 aa bc
       -0.2791064 -0.093488455 -0.113392286 -0.02085281
000020 0f 1e ef 3c 8f f0 44 be 40 ce 79 bd 04 b8 9a 3c
       0.029189138 -0.19232391 -0.06098771 0.018886574
000030 40 62 a2 3c 2e 15 b4 bd a2 0b 35 3e f0 6c 21 3e
       0.01982224 -0.08793102 0.17680219 0.15764213
000040 84 05 21 bc d9 13 50 bc 68 cb ae 3d 96 7a 72 bd
       -0.009827975 -0.012700045 0.085348904 -0.05919894
000050 79 7b 07 be 73 31 ce bd df da dc bc b9 be 36 3e
       -0.13230695 -0.100680254 -0.026959835 0.17846192
000060 0f 7c 62 bc fe 0d 16 3c b7 58 c7 3b b0 d9 60 bc
       -0.013823523 0.009158609 0.0060835737 -0.013723776
000070 69 01 41 be b2 84 66 3c 9b 05 4e bf 1b 75 b8 3e
       -0.18848194 0.014069723 -0.80477303 0.36026844
000080 25 5f 41 3e 7f e1 85 be 72 6e 84 3e d8 aa 62 be
       0.18883951 -0.26148602 0.25865513 -0.22135484
000090 52 ae 61 3d e6 30 eb be f2 96 1a be 82 f1 b2 3e
       0.055097885 -0.45935744 -0.15096644 0.3494988
0000a0 4c 7a d6 3e 73 04 50 bf 2d 53 7b be f6 d0 ab be
       0.4189018 -0.8125679 -0.24543448 -0.33557862
0000b0 11 87 f8 bd e6 a3 83 be aa 70 64 be 4c b2 20 be
       -0.12135137 -0.25710982 -0.22308603 -0.15693015
0000c0 01 20 48 be 15 51 91 be f8 c7 f0 be b1 9b a6 be
       -0.19543459 -0.28382173 -0.47027564 -0.32540658
0000d0 0b 69 86 be a4 9a 68 3d 95 fe 53 bd c7 ce a6 be
       -0.26252016 0.0567881 -0.05175646 -0.32579634
0000e0 db 1f c9 3e f5 37 f8 3e 03 a7 4e 3e 6d 9f f5 bd
       0.39282116 0.48480192 0.20180897 -0.11993299
0000f0 1b b5 c0 be b8 85 a4 3e 3c e3 d8 3e e8 24 1f 3d
       -0.37638173 0.3213327 0.42360866 0.038853556
000100 20 9b d6 be 59 27 61 be 8a 9d d6 3d 92 8b 1d be
       -0.41915226 -0.21987666 0.10479267 -0.15385273
000110 a8 0e 1f 3c 55 48 c7 be 05 f8 bb be 12 8e c5 be
       0.009708084 -0.38922372 -0.3671266 -0.38584954
000120 10 f7 59 be a6 16 c7 be a3 95 b1 be 4e 06 fc be
       -0.21285653 -0.38884467 -0.34684476 -0.4922356
000130 26 b9 be be 1c 88 aa be 72 28 45 be 89 e9 24 be
       -0.37250632 -0.33306968 -0.1925371 -0.16104712
000140 06 1c c7 bd 86 a9 2c 3e 52 5c 1a 3c 67 2f 96 3d
       -0.09722142 0.16861543 0.009421425 0.0733326
000150 9f 37 89 be a0 cb 60 bf 20 09 81 3f e1 d3 ae 3c
       -0.26800248 -0.8781071 1.008091 0.021341266
000160 cb 5c 43 be f0 b8 bc bc d6 f1 7b 3e 05 f0 6a bd
       -0.19078366 -0.023037404 0.24603972 -0.057357807
000170 16 ea 81 be 21 d9 2d bf 64 e8 a0 3d 37 ff 30 3e
       -0.25373906 -0.6790944 0.07856825 0.17284857
000180 48 d4 40 3c 42 f7 a2 3d 73 54 62 3d 8d a7 3c bd
       0.011769362 0.07957317 0.05525632 -0.046058226
000190 84 84 a2 bd c2 85 86 3c c9 70 bb bc 67 be 97 bd
       -0.079354316 0.016421203 -0.022880929 -0.07409363
0001a0 ab 58 c6 bc c8 e8 93 3a ce 4d ca 3d cf 0f 84 3d
       -0.024212202 0.0011284584 0.09878121 0.06448328
0001b0 79 23 d1 bd df 47 db bd 44 18 72 3d fc 0a 73 3d
       -0.10211844 -0.10707068 0.059105173 0.059336647
0001c0 15 ed a1 3c 7a ae 2f 3f cf d5 95 bf ca 1c cf 3e
       0.01976637 0.68625605 -1.1705874 0.40451652
0001d0 d1 a1 4b 3e a3 b5 0e be a5 6d 33 bf d9 68 b0 bd
       0.19885947 -0.13936476 -0.7008918 -0.08613748
0001e0 f9 c6 48 3c 0e f5 88 be 97 ef a9 be 35 71 b4 be
       0.01225447 -0.26749462 -0.33190605 -0.3524262
0001f0 48 48 9e bd 59 96 b8 bd 81 f6 58 be 3f 58 43 be
       -0.0772863 -0.090130515 -0.21187784 -0.19076632
000200 09 a4 cb bc 39 fa 04 be ed 5b 1e 3c a5 9b 2a be
       -0.024858491 -0.12986077 0.0096654715 -0.16660936
000210 ed 6b 36 3d e7 af b7 bd a7 87 33 3d ee b9 c9 bd
       0.04453652 -0.089690976 0.04383054 -0.098499164
000220 29 6b 86 bd 0b d9 fd bd 90 ad 84 bd 61 66 e9 bc
       -0.06563408 -0.12394913 -0.06478417 -0.0284912
000230 07 68 0e 3e dc 04 1e 3f 15 49 3f 3e 87 d0 d9 3d
       0.13906871 0.61726165 0.18680222 0.106354766
000240 30 37 48 3e a0 ac bd 3c fc 99 bf bd d2 93 f5 be
       0.19552302 0.023153603 -0.09355542 -0.4796434
000250 e1 16 06 3e ed ad 20 3e 90 87 cf 3e 99 17 b1 bd
       0.13094665 0.15691347 0.40533113 -0.08647079
000260 04 fa 36 3d 2d 82 d6 bd 0c 1c 9f ba b5 d0 5b 3d
       0.044672027 -0.10474048 -0.0012139096 0.053665835
000270 3d 09 d5 3d 0b 76 d1 3d 45 3b e7 3d 03 22 32 3e
       0.10402153 0.10227593 0.11290602 0.17395787
000280 db 48 a5 bd 73 c5 d3 3d c4 14 d2 3d 92 da 8c 3d
       -0.08070537 0.10340395 0.10257867 0.068776265
000290 31 f8 8a 3e 44 a8 cf 3e 4c aa 95 3c bf 44 6c 3e
       0.2714248 0.40558064 0.01826968 0.230731
0002a0 da 5c fb bc d0 2c 1c c0 d4 cd ab 3f 66 dc 30 3f
       -0.030683924 -2.4402351 1.3422189 0.690863
0002b0 b4 03 a8 bd 27 34 9e bd 4b 7c 9f be 8c e8 6a 3d
       -0.08203831 -0.07724791 -0.31149516 0.05735068
0002c0 3a eb 77 bf 62 e0 97 be 94 7b 1e 3c f0 a5 4f be
       -0.968433 -0.29663378 0.009673018 -0.20278144
0002d0 f5 de 05 bc b1 62 50 be 1c 00 3f 3e 45 34 35 bd
       -0.008170833 -0.20350148 0.18652385 -0.0442393
0002e0 16 23 9f bd a6 27 6d ba c2 3b ea bc d4 fb f0 bd
       -0.07770364 -0.00090467406 -0.028592948 -0.117667824
0002f0 01 da 2f 3d d3 ed 59 3d f6 d5 03 3e 1c a8 68 bc
       0.042932514 0.053205322 0.12874588 -0.014200237
000300 57 ad a0 3d ae 40 36 3d ae 59 48 3d bb 6f ae 3c
       0.07845562 0.044495277 0.04891365 0.021293512
000310 4c 3c 92 bf 54 eb 92 bf 6b 96 47 3f 99 56 0a be
       -1.1424651 -1.1478066 0.77963895 -0.13509597
000320 9f 85 01 bf 34 00 95 3e ef ea 6a be 2e 12 21 3d
       -0.50594515 0.29101717 -0.22941183 0.039323978
000330 cc 9c 5a bc 2f fb d7 be 94 48 f1 bc 0e 5c 09 3d
       -0.013343047 -0.42183825 -0.029453553 0.033535056
000340 97 be 20 3d 90 8e 16 be ce c5 01 be 9d 4b 61 bd
       0.03924426 -0.14702821 -0.12673113 -0.05500375
000350 bb cf 23 bd 97 9d 36 bd 45 01 41 be bc 1a a5 be
       -0.03999303 -0.044583883 -0.1884814 -0.3224696
000360 8b bb 7e be 9d 2e a2 be bf d8 1b 3d d4 30 9e 3d
       -0.2487623 -0.31676188 0.038048502 0.07724157
000370 3f 25 d4 3d c3 95 97 3d 11 19 bd 3d 44 e5 97 bd
       0.10358667 0.07401612 0.09233297 -0.07416776
000380 db e0 06 bf 98 36 5f bf 70 df 9f be 68 95 a8 3e
       -0.5268685 -0.8719268 -0.31225157 0.32926488
000390 6b e7 6b be f9 d8 27 be 8d e8 2e bf 78 6d 39 3f
       -0.23037498 -0.16391362 -0.68323594 0.7243266
0003a0 a6 45 2f be 15 1c 8d 3c ec a7 8a 3e 21 42 1f bf
       -0.17116413 0.017225305 0.2708124 -0.6221028
0003b0 69 b3 e8 3d 74 e1 03 bf 39 f4 14 be 0c df 45 be
       0.11362345 -0.5151589 -0.14546289 -0.19323367
0003c0 45 c5 fc bd bd ff e0 bd d3 6a 16 be 1e 6a e0 bd
       -0.12342314 -0.10986278 -0.14689188 -0.1095774
0003d0 d3 8a 4d be c6 24 df bd 5c 35 54 be f7 b6 7b be
       -0.20072488 -0.10895686 -0.2072348 -0.24581514
0003e0 06 ca 9a bb 05 93 2f 3e 25 4e 94 be 3d 4c b1 3e
       -0.00472379 0.17145927 -0.2896587 0.34628478
0003f0 57 1e 54 3f 32 b6 0c 40 f3 a4 59 bf 8e fd 47 bf
       0.82858795 2.1986203 -0.8501732 -0.7812127

q1.0.bias f4 [256]
000000 de 0a 43 3e 78 43 7a be 3f 0f 95 bd 66 5f df 3d
       0.19047114 -0.244398 -0.072782986 0.10906868
000010 01 67 85 be 0b 12 68 bd fc 4c 05 3e 46 25 cb 3d
       -0.26055148 -0.056657832 0.13017648 0.09919219
000020 35 44 05 be 28 cf 04 be bd f5 65 3d 3c 30 66 3d
       -0.130143 -0.12969649 0.056142557 0.056198344
000030 c0 b8 84 be 05 e1 d4 3d 6a a9 71 3d 77 71 5d be
       -0.25922203 0.103944816 0.058999456 -0.21625315
000040 bd 7e a3 be 9e 69 f9 3d 85 4c d6 bd be 3e cc 3e
       -0.3193263 0.12178348 -0.10463814 0.39891618
000050 5e ba a7 bd cd 99 fa bd 04 55 fc bc fe f5 17 bd
       -0.081898436 -0.122363664 -0.030802257 -0.03709983
000060 d1 57 3f be 4b 31 71 bc 83 2c dd be 51 ca a3 be
       -0.18685843 -0.014721225 -0.43198022 -0.31990293
000070 12 83 31 3e 41 b6 6d bd 42 12 e7 3c 41 98 c5 3d
       0.17335156 -0.05803514 0.028206948 0.09648181
000080 ae 41 41 3d aa 78 c8 bd 88 6d 17 3e 88 d8 76 be
       0.047181778 -0.0978864 0.14787877 -0.24106038
000090 9b 34 9d 3c 37 2e 6c 3d 1b 02 d0 bd 4c 63 a9 3c
       0.019190123 0.05766126 -0.101566516 0.020677231
0000a0 8e a4 23 3b b7 e9 f4 3c 95 cd 76 be 3c f9 b1 be
       0.0024969908 0.0298966 -0.24101861 -0.34760463
0000b0 d9 56 28 3e e1 58 f8 bd d9 6e 89 be c3 6e 22 3d
       0.1643938 -0.12126327 -0.26842383 0.03965641
0000c0 b0 a3 45 be 31 98 c2 3d 95 7a 65 3d fe 75 8d be
       -0.19300723 0.095016845 0.056025106 -0.27629083
0000d0 91 27 0e 3e 20 49 28 be 71 c5 27 3e 4d 3f 62 be
       0.13882281 -0.16434145 0.16383912 -0.2209446
0000e0 eb 88 71 be a4 94 39 3e 76 96 73 3d 17 8c a9 3e
       -0.23587386 0.18123108 0.059469663 0.33114693
0000f0 ab 03 8e be 1e d2 4d 3e ba a4 a1 3e 6b 27 84 3e
       -0.27737173 0.20099685 0.3157099 0.25811324
000100 d6 1f 25 3e 59 a0 42 3e a4 59 c0 3d c1 dd 47 be
       0.16125426 0.1900648 0.093920976 -0.19518186
000110 35 d8 e9 bd 52 6d 30 bd 43 d0 02 3e b0 48 08 3e
       -0.11418191 -0.043073006 0.12774758 0.13308978
000120 5c 08 34 be 1f 8e 4f bd 04 54 1b be 46 b5 8d bd
       -0.17581314 -0.050672647 -0.15168768 -0.06919341
000130 ba 6b 1c 3e 58 aa f3 3d 05 f6 81 3e 0f dc 48 be
       0.1527547 0.11897725 0.2538301 -0.19615196
000140 da 72 95 3e c9 49 45 3d 46 59 99 3d 5e c4 84 3d
       0.29189187 0.04816607 0.07487731 0.064827666
000150 36 0b 6d 3d 03 30 3e bd 84 8a 49 3e d5 5f b8 3d
       0.05787202 -0.046432506 0.19681746 0.090026535
000160 02 d3 a3 bd 98 8a d8 be 1e 5b 0a 3e 1c db c6 bd
       -0.07999231 -0.4229324 0.13511321 -0.097097605
000170 7c f5 15 be a2 77 14 bd e2 cb 84 3b bc a4 17 3e
       -0.14644426 -0.036246903 0.004052625 0.14808935
000180 9c 4c b4 be 87 70 7c be 6a 04 08 3e 48 5d b4 be
       -0.35214698 -0.24652301 0.13282934 -0.35227418
000190 56 52 fc 3d 7b 1e 6c bd 48 d0 ed bb 64 e9 8e be
       0.12320392 -0.057646256 -0.007257495 -0.27912438
0001a0 e6 9e 3f be 09 32 d4 3d 26 f7 ce 3c 79 4c 3e 3e
       -0.18712959 0.10361106 0.025264334 0.1858386
0001b0 9c e1 cb bd bb 4b 0f 3d 0f 00 57 be 7d f2 8a 3e
       -0.09955141 0.03498433 -0.20996116 0.2713813
0001c0 e1 cc bb bc bb eb 8e 3e 35 5b 24 be 1e a4 d7 bd
       -0.022924842 0.27914223 -0.16050418 -0.1052935
0001d0 6c 1a 38 3e ee 27 fa bd 35 c7 f3 bd a8 de 49 be
       0.17978829 -0.12214647 -0.1190323 -0.19713843
0001e0 24 d9 21 be 7e 0e 77 3e c0 d2 14 3c 31 61 76 be
       -0.15805489 0.24126622 0.00908345 -0.24060513
0001f0 eb 6e 03 be 18 39 85 bc 61 45 9b be aa 9f e4 3d
       -0.1283528 -0.016262576 -0.3032637 0.11163266
000200 c8 35 d4 bd f3 60 c0 be 49 4e 38 bc e5 0e 81 3e
       -0.103618205 -0.37573966 -0.011249133 0.25206676
000210 f7 81 85 3e 59 91 3a be 03 e7 94 be d0 32 06 bc
       0.26075718 -0.18219508 -0.29082498 -0.008190826
000220 86 1d 30 3e a4 39 51 be 05 e5 3f 3d 4e 46 49 be
       0.17198762 -0.20432144 0.04684927 -0.19655725
000230 b4 1e 29 be 96 6a 0b be 7c 65 24 3e 37 79 49 3e
       -0.16515619 -0.13614878 0.16054338 0.19675146
000240 40 ad 20 be 9c 87 0c bc 8a 03 57 be 44 52 97 be
       -0.1569109 -0.008577254 -0.20997444 -0.2955495
000250 36 a6 4c be b2 2b 16 3e 38 e0 2e 3e 26 b6 f3 3b
       -0.1998528 0.14665106 0.1707772 0.0074374853
000260 6c 7b 2d 3c aa 08 aa be 82 fb de bd 45 ce 8d be
       0.010588508 -0.33209735 -0.10887815 -0.27696434
000270 36 92 a9 3d 25 f9 c7 be 79 84 dd be 81 ef 7b 3d
       0.08279841 -0.3905727 -0.4326513 0.061507706
000280 2f 45 89 3c 36 ec d0 3d 50 79 34 be 14 67 59 be
       0.016756622 0.10201304 -0.17624402 -0.21230727
000290 21 af aa 3d 1c 59 59 3e 26 50 4a bd 44 e9 52 be
       0.083341844 0.21225399 -0.04939284 -0.20596796
0002a0 f9 a3 d0 bc 08 04 c7 be 5f 0b cd 3c a3 e0 e2 bd
       -0.025468813 -0.38870263 0.025029836 -0.11078002
0002b0 fe 04 b4 bd 43 9b 46 be 96 3b 10 be ca 8f 44 bd
       -0.08790015 -0.19395165 -0.1408523 -0.04798869
0002c0 2d 88 5d 3e 27 cf 9f bd f9 3f 01 3d 60 97 2e 3e
       0.21633978 -0.07803183 0.03155515 0.17049932
0002d0 a6 0b a3 3d 37 f2 57 3e d8 27 b0 be 0a 1d b9 bd
       0.07961206 0.21088491 -0.34405398 -0.09038742
0002e0 82 07 85 be 05 31 97 be f0 a5 89 be e5 49 e2 bd
       -0.2598229 -0.29529586 -0.26884413 -0.110492505
0002f0 61 a6 d5 bd f9 a8 2b be 19 1a ec bd ab 26 66 be
       -0.10432125 -0.16763677 -0.11528415 -0.22475688
000300 db 68 08 be 9e 6d 51 3e c5 50 1e bd ba 2b b9 3d
       -0.13321249 0.20451972 -0.038651247 0.09041543
000310 fa 0f 8b 3d a6 56 8b be fa ba 4b be a1 02 ae bd
       0.06790157 -0.27214545 -0.19895545 -0.08496595
000320 ab 1d e2 3b a7 66 b2 be 87 d6 b2 3d 2a 12 84 be
       0.0069005094 -0.34843943 0.08732324 -0.25795108
000330 c5 a0 5b be de ff 44 be 5b 67 a8 3c 12 39 29 3c
       -0.21448047 -0.1923823 0.020557096 0.010328548
000340 4b c5 79 be cd c6 85 be 35 e0 8e be 59 a9 56 bc
       -0.24391668 -0.26128235 -0.2790543 -0.013101899
000350 31 1f 3c be b8 27 1e be 72 f1 6c bd 1a f6 bb bd
       -0.18371274 -0.15444839 -0.057847448 -0.091777995
000360 6b 0b c4 bd b5 af 89 bd 58 bc 1f 3e 85 3d c3 bd
       -0.0957249 -0.067229666 0.15599191 -0.09533218
000370 1b 97 68 3d b7 dd 95 be 1b cb 64 be 95 74 b7 3c
       0.05678473 -0.29270718 -0.22343104 0.022394458
000380 5e 77 2d be 42 53 a6 bd d7 49 8d 3e 9d 60 c2 bd
       -0.16940066 -0.08121349 0.27595398 -0.09491084
000390 d0 38 3f be 13 9a 44 be 3b 90 fe 3d d6 2c 67 be
       -0.18674016 -0.191994 0.124298535 -0.22575697
0003a0 aa d7 c9 bd 0a 23 88 3e 30 dc b6 3b f7 16 81 be
       -0.09855588 0.26589233 0.0055804476 -0.25212833
0003b0 97 9f 58 3e a2 ca 9b bc 67 d3 c1 be 30 26 86 3d
       0.21154629 -0.019017521 -0.378566 0.065502524
0003c0 61 b4 ab bd a6 31 a8 3d 2b 8a 7b 3e b5 62 3e 3d
       -0.08384014 0.08212595 0.24564426 0.046480853
0003d0 57 03 93 bd 30 8f 02 3e 28 04 1a be f6 d9 b1 bd
       -0.071783714 0.12749934 -0.15040648 -0.08684151
0003e0 25 f7 3e bd d1 54 47 be 62 ff a9 3d 15 d4 56 be
       -0.046622414 -0.19465949 0.083006635 -0.2097934
0003f0 2e eb cc be 6a 4a 1d bd 5d 14 2f 3d 52 66 39 3e
       -0.40023178 -0.038401045 0.04274403 0.18105438
