SAC/checkpoints/BipedalWalker-v3/06_best_agent.pth (torch, 891687 bytes, 17 tensors)

log_alpha f8 []
000000 ed ce 57 57 58 0b 12 c0
       -4.511079182371515

actor.0.weight f4 [256, 24]
000000 4c 5c 23 bf 40 5d dd 3e 72 1d d4 be e8 00 88 be
       -0.6381271 0.43235207 -0.41428715 -0.2656319
000010 d1 77 6f 3f 8b 17 1d 3b d9 58 6d be 4b 93 a7 3b
       0.935422 0.0023970332 -0.23178424 0.0051139942
000020 11 ab 14 3f 46 90 98 3a df 4a 93 be 50 13 bf bd
       0.58073527 0.0011639677 -0.2876806 -0.093298554
000030 12 64 63 be 4a 87 45 bf 4f d1 b0 bd ac b9 c4 bd
       -0.22206143 -0.7715956 -0.086336724 -0.096057266
000040 5c 61 59 be 72 68 82 be fb 3d 85 be 03 5f a3 bd
       -0.21228546 -0.2547031 -0.2602385 -0.079771064
000050 83 a4 bd bd a3 25 91 bd e7 c1 31 be bf 42 8c bd
       -0.09259894 -0.07087257 -0.17359124 -0.06848668
000060 95 f7 34 3d 06 eb d8 3f 74 30 e0 3e 88 10 90 3e
       0.044181425 1.6946723 0.43786967 0.28137612
000070 be bf 7d be 31 ab 94 3c 13 17 16 be f1 a3 a2 bd
       -0.24780175 0.018148037 -0.1465724 -0.079414256
000080 2f 1e b9 be 2b be 8e be d0 94 fb be 1b 49 33 3f
       -0.3615584 -0.27879462 -0.49136972 0.70033425
000090 f5 50 ed 3d 2f 91 ae 3e 38 9a 33 be 2d 71 1a be
       0.11587707 0.3409514 -0.17539299 -0.15082236
0000a0 78 ed a0 3d 4f 2f 4d 3c 2f e0 1d 3c fa 0e ec bd
       0.078577936 0.012523486 0.009635969 -0.11526294
0000b0 e8 88 49 bd 22 a5 1a 3b ee 1f 2b bd 88 49 7c be
       -0.04920283 0.0023596962 -0.041778497 -0.24637425
0000c0 32 a1 b4 3e 88 78 03 3f 0b 00 32 3e 24 23 3d 3e
       0.35279232 0.5135579 0.17382829 0.18470436
0000d0 84 40 89 3e 73 17 43 3e ae 9e cd be 2a 63 5e 3d
       0.26807034 0.19051914 -0.40160125 0.05429379
0000e0 fb 78 bd 3d 9c 51 95 3e 9f 71 90 be 64 57 c5 be
       0.09251591 0.29163826 -0.28211686 -0.38543236
0000f0 3b 5c 08 3f 16 63 86 3e f8 69 90 be 48 99 ab be
       0.5326573 0.26247472 -0.28205848 -0.33515382
000100 ae 6d c2 bd 69 0d 8b be 6b a3 34 be b5 a0 14 be
       -0.09493576 -0.2715867 -0.17640464 -0.1451443
000110 30 86 3b bd d8 43 53 be eb e0 3a bc e0 74 00 be
       -0.045782268 -0.20631349 -0.011406164 -0.12544584
000120 21 35 7f 3e 7f 15 fc 3f 34 59 16 c0 fd f3 1c 3d
       0.24922611 1.969406 -2.3491945 0.038318623
000130 1e c9 38 3e c7 06 05 3e 6c a3 49 3d 07 e1 ea 38
       0.1804547 0.12990867 0.049228117 0.00011199904
000140 5b 06 51 3f c9 d4 6f 3e c8 3a 12 3e 78 ee 27 be
       0.8165032 0.23421015 0.14280236 -0.16399562
000150 9d 06 fe bd c2 20 a3 be 18 12 4c be 7b 77 69 be
       -0.12403605 -0.3186093 -0.19928777 -0.22799484
000160 ef bd bc bd d3 fa cd bd 3f f7 cc 3c f1 08 80 be
       -0.092159145 -0.100576065 0.02502024 -0.25006822
000170 e6 be 49 be ae f9 5d 3d f0 71 4c be eb d4 b0 3d
       -0.19701728 0.05419319 -0.19965339 0.08634361
000180 15 95 cb bd 63 57 aa 3f 87 69 dd bf e3 3e 7f bf
       -0.099405445 1.3307918 -1.7297829 -0.9970533
000190 01 da 4c be 44 e5 c1 be 1f 96 3f 3e dd 23 fb be
       -0.20005037 -0.37870228 0.1870961 -0.490508
0001a0 ba 1d be 3d b5 f4 ab bd cc 76 8c be 27 b2 25 3f
       0.09283014 -0.083962835 -0.27434385 0.64724964
0001b0 b9 83 37 3e ab 6c 2e 3e eb de 4d 3e 8b ae 3f 3e
       0.17921342 0.17033641 0.20104568 0.18718927
0001c0 fd 2e 6b 3e 12 0e 9a b9 97 a3 14 3e a1 8d 50 3e
       0.22967143 -0.00029383652 0.1451553 0.20366527
0001d0 01 95 aa 3d 2f 9d 5c 3d df 7e 94 3d e0 7b 7a be
       0.083292015 0.05386084 0.07250761 -0.24461317
0001e0 60 d2 1e bf 79 5e 88 be a3 ee 37 3f 43 ca 90 bf
       -0.62039757 -0.26634577 0.71848506 -1.1311725
0001f0 02 ef 0d bf 06 e9 5b bc 47 2a 08 3d 2c e2 e4 3c
       -0.5544282 -0.013422256 0.033243444 0.027939878
000200 cd 50 45 bf 12 cf 1b 3e 5f 97 70 3e 07 2a a0 3d
       -0.7707642 0.1521571 0.23495243 0.07820516
000210 17 74 89 3d 66 a3 d4 be 30 c4 4f 3d a6 7f 9f bd
       0.067115955 -0.41530913 0.05072421 -0.07788019
000220 67 4b 23 be c2 19 32 3c 7f 77 96 3b d4 ee 75 bd
       -0.15946732 0.010870399 0.0045918818 -0.060042217
000230 1b 66 52 3d 27 0e 5a be d4 c9 2f bc 5b 33 37 3d
       0.051366907 -0.21294461 -0.010729272 0.04472671
000240 15 ec 35 3e e1 78 51 3f d2 98 ed 3d 4c df 0d 3f
       0.1776584 0.8182507 0.11601414 0.5541885
000250 72 32 59 3e 26 51 c8 3e 68 a9 36 bf 0b ac 56 3d
       0.2121065 0.3912441 -0.71352243 0.052410167
000260 e3 fd ee bd 50 22 db be 4c 6b c3 be 84 fd de 3e
       -0.11669519 -0.42799616 -0.381678 0.43552792
000270 a8 de a2 be 49 db d8 bd 7f c5 74 bd bc fb e9 3b
       -0.31810498 -0.105887 -0.05975866 0.007140605
000280 3c 41 22 be 8b 5a 18 bd f7 e7 cf bb c6 b0 8d 3d
       -0.15845197 -0.037195724 -0.006344791 0.069184825
000290 ee fb d3 bd 7b fb d1 bc a2 de 10 be 43 61 64 3d
       -0.10350786 -0.02563261 -0.14147428 0.05575682
0002a0 c7 65 52 3c 1a df 12 3e 14 57 b4 bf 46 7e 09 40
       0.012841648 0.14342919 -1.4089074 2.148332
0002b0 1c 00 4d be 1d a6 68 be 32 77 bf bc 54 fc 02 3f
       -0.20019573 -0.22719617 -0.023372266 0.5116627
0002c0 d4 80 41 3e f6 43 30 bd 25 eb 15 bd 06 5d 18 3d
       0.188968 -0.043033563 -0.036601204 0.03719809
0002d0 7e e5 85 bd 3b 45 46 bf 87 fd ca 3d 14 cc 79 3d
       -0.06537913 -0.7744939 0.09911638 0.06098564
0002e0 96 8c 6e 3c b4 11 bc 3d 84 d0 40 3e 6a cc 3b 3e
       0.0145598855 0.09183064 0.18829542 0.18339697
0002f0 24 25 83 3e 85 52 8b 3e 0c 46 03 be ff 2f 82 be
       0.25614274 0.27211395 -0.1281969 -0.25427243
000300 25 40 3c be 1d 0f 4f c0 4d 7f f8 3e 92 7c 04 c0
       -0.18383844 -3.2352974 0.48534623 -2.0701032
000310 9c 34 f4 bb 2d fc 2b be dd 8d 5a be 20 40 fe bd
       -0.0074525606 -0.16795416 -0.21343179 -0.124145746
000320 42 e5 99 3d b2 b0 24 bd 30 1b 98 bd 50 20 c4 be
       0.075144306 -0.040207572 -0.074270606 -0.38305902
000330 d7 2e 5a 3e 74 00 9d 3e 9c 10 0a be e8 b7 09 be
       0.2130693 0.30664408 -0.13482898 -0.13449061
000340 03 a0 9d be 2e db 2a be 48 6a b7 be d6 3f c2 be
       -0.30786142 -0.16685173 -0.35823274 -0.37939328
000350 cc 98 a2 be 7b 02 1e be 6c 35 6d be e0 34 cb 3d
       -0.317572 -0.15430634 -0.2316491 0.099221945
000360 75 21 ec 3d d5 f0 0b 3f 61 ce 0c 3f 3b d7 61 bf
       0.11529819 0.54664356 0.5500241 -0.8821904
000370 c1 0a a2 be ff a7 8b be 85 b9 2d 3e 98 b3 b6 3e
       -0.3164883 -0.27276608 0.16965301 0.35683894
000380 b8 9b 55 3c 97 5e 91 3e 68 c6 cb be ac 27 ad bd
       0.0130376145 0.2839248 -0.3979981 -0.084548324
000390 e2 f2 c2 3d 32 d2 22 3f 54 23 79 be bb 57 8a be
       0.095189825 0.6360198 -0.24329883 -0.27020058
0003a0 58 1a 11 be 83 b8 51 be 29 0e 63 be fd 8f e1 bd
       -0.14170206 -0.20480542 -0.2217337 -0.11013792
0003b0 ad ee 8b be 63 4b 92 be b8 6e 06 be d0 93 82 be
       -0.27330533 -0.2857314 -0.13128173 -0.25503397
0003c0 4b e7 bc be 4c 25 d1 bf b0 8a 12 bd 64 c2 82 3f
       -0.36895213 -1.6339507 -0.035776794 1.0215573
0003d0 28 28 4b be 11 cf 9a 3d be d1 d6 be e3 82 01 be
       -0.19839537 0.07559026 -0.41956896 -0.12647586
0003e0 9c 49 1a bf e1 26 4a be 1b 8e 33 3e 8c 56 10 3d
       -0.6026857 -0.19741394 0.17534678 0.035238788
0003f0 75 ab b8 3e 58 79 09 3d 9f 2d 29 bd e1 d0 48 3e
       0.3606831 0.033562988 -0.041303273 0.19610931

actor.0.bias f4 [256]
000000 9e 4e bd bc 2f ce 8b bd ff 06 1c be 2d ee 4b 3d
       -0.023108777 -0.06826436 -0.15237044 0.04978769
000010 b1 de 9a be e2 2e 9b 3d fe c4 a7 bc c3 05 62 be
       -0.30248025 0.075773016 -0.020479675 -0.2207251
000020 f9 e4 52 3e a1 52 55 be c6 53 ba be 12 da 1d 3e
       0.20595159 -0.20832302 -0.3639204 0.15415218
000030 b0 12 64 bb af 48 32 3e ba 6b 85 be 8e 80 41 3e
       -0.0034801178 0.17410539 -0.2605875 0.18896696
000040 3e c8 1d 3d 39 07 fa 3c 71 50 86 be 1f 9d 34 be
       0.038521044 0.030521022 -0.26233247 -0.17638062
000050 ea 3d d1 bd 68 ca 21 be 24 cd 39 be f3 1e a7 bd
       -0.10216887 -0.15799868 -0.18144661 -0.081602
000060 aa a4 ff be 95 91 22 be da 5c 28 be 5e 67 5d bd
       -0.49930316 -0.15875848 -0.1644167 -0.054053657
000070 99 b9 1a be 2f 3e 32 bd ba a1 98 3d a4 10 65 be
       -0.15109862 -0.043516334 0.07452722 -0.22369629
000080 81 9b 3f 3d ae 21 f7 bd 2c 95 43 3c 8c 10 ea bd
       0.04677916 -0.12066971 0.011937421 -0.11428937
000090 89 16 29 be 9e d6 36 be 23 de fb 39 00 e4 d5 bd
       -0.16512503 -0.17855307 0.00048039955 -0.10443878
0000a0 bb 10 d3 be 73 1e a5 be b5 60 9d 3d a9 67 f9 bd
       -0.41223702 -0.32249793 0.07684461 -0.12177975
0000b0 46 27 93 3e 47 57 69 be e0 b4 c2 be 32 64 97 bd
       0.287409 -0.227872 -0.38028622 -0.073921576
0000c0 bf 74 38 3e f0 b6 58 be 14 8d b2 be f5 a7 01 be
       0.18013285 -0.21163535 -0.3487326 -0.12661727
0000d0 c9 15 1e 3e 98 1e ce be bf 39 5b be 16 a8 6b 3d
       0.15437998 -0.40257716 -0.21408747 0.057533346
0000e0 b7 7a d7 bd 4b e8 44 3c a3 66 22 be 99 44 01 bd
       -0.10521453 0.012018274 -0.15859465 -0.03155956
0000f0 b4 a7 57 be 90 c6 b1 bc c5 38 17 3e f3 82 92 be
       -0.21060067 -0.021701127 0.1476775 -0.2861553
000100 c7 3d c7 bd 35 b9 aa bd b0 ee c3 be 66 16 31 3c
       -0.0972858 -0.08336107 -0.38268042 0.010808563
000110 d4 e3 0d bd e2 af 36 3d 51 d3 8c be 2d af bb 3d
       -0.034641102 0.04460133 -0.27504972 0.091642715
000120 83 ba 74 bd 19 3f 07 be b6 a8 1e 3e 42 cf 0a be
       -0.059748184 -0.13207664 0.15494046 -0.13555625
000130 4e e1 81 be 85 4c 38 be 49 f4 c9 bc 52 42 72 ba
       -0.25367206 -0.1799794 -0.024652617 -0.000924145
000140 60 83 cd bd c1 e9 a2 3e e4 65 11 bf c9 86 00 3e
       -0.100348234 0.31818965 -0.567961 0.12551416
000150 4f 30 c8 3c a5 38 30 3c f3 82 55 3c 81 36 15 be
       0.024437098 0.010755693 0.013031709 -0.14571573
000160 94 02 05 3e 68 d9 55 be 18 2f 2f bd 46 ea 56 3e
       0.12989265 -0.20883715 -0.04276952 0.20987806
000170 6c 4c 47 be b9 0d bc 3d e2 3c bb be cc 41 14 3d
       -0.19462746 0.09182305 -0.36569887 0.03619556
000180 ba ed b7 bd cf 24 bf bd 2a 40 2d be 36 ba 2f be
       -0.089808896 -0.093331926 -0.16919008 -0.17160878
000190 a4 77 7d 3d 48 3d 20 3e 71 d9 3c bd 8d 7c 10 be
       0.061881676 0.15648377 -0.046105806 -0.14110012
0001a0 7b 75 2e be af f8 db bd d1 d1 32 3e 7c b4 c1 3c
       -0.17037003 -0.10740792 0.17462851 0.023645632
0001b0 aa 51 77 be db 04 32 be 31 44 b8 bd c7 af 35 be
       -0.24152246 -0.17384665 -0.089973815 -0.17742835
0001c0 7b d9 b6 be 03 ef 35 bd 92 3a 82 3d 6f ca 1d bc
       -0.357128 -0.044417392 0.06358828 -0.009630783
0001d0 0d bb b5 be 4a ac 06 be 0f 1c f0 3d c9 32 f7 bd
       -0.3549427 -0.1315166 0.11724102 -0.120702334
0001e0 7c e9 cb bd 97 13 ef be e0 fc a0 be 24 11 60 3d
       -0.09956643 -0.46694633 -0.31442928 0.054703847
0001f0 65 70 28 bd 2e 8c 1c be 48 ad 35 3d 52 14 5c be
       -0.041122813 -0.1528785 0.044354707 -0.21492127
000200 99 b8 29 be 9d f0 94 be c6 dd 19 be c4 37 72 be
       -0.16574325 -0.29089823 -0.15026006 -0.23654085
000210 82 65 ce bd d0 f7 b6 bd a1 85 91 be d8 17 49 3e
       -0.10077955 -0.08933985 -0.28422263 0.19638002
000220 6e 3e 9d bb 4d 60 6e 3e bb f7 d0 bb 87 10 10 3e
       -0.004798702 0.23278923 -0.006377188 0.14068805
000230 3b eb 65 3e 09 44 0e be fb 71 6f be e7 6d 2c 3b
       0.22453015 -0.13893141 -0.23383324 0.0026310624
000240 86 23 29 be f1 0a 44 be 1f 4d 05 be 75 71 38 3d
       -0.16517457 -0.19144799 -0.130177 0.045030076
000250 40 a8 a6 3c 37 88 17 bf 82 1d c9 bd ba 3b a6 bd
       0.0203439 -0.5919222 -0.09820081 -0.08116861
000260 e5 0b cf bd d9 80 b4 be 30 2b cf bd 28 00 71 3d
       -0.101096906 -0.35254553 -0.10115659 0.05883804
000270 6d c5 be bc 9f b1 04 be 1e 66 9b be 4e d4 cb bd
       -0.0232875 -0.12958382 -0.30351347 -0.09952603
000280 73 fa c0 bd 24 b7 43 be dd b8 dc bc 86 54 24 bc
       -0.094227694 -0.19112831 -0.026943618 -0.010029918
000290 2e e1 b0 ba e1 e9 d1 bd de 7f f5 bd 19 e7 00 3d
       -0.0013494843 -0.10249687 -0.11987279 0.031470392
0002a0 9e 1b a3 3d 42 45 05 be 25 35 7e 3d dd 04 3d bd
       0.07964252 -0.13014701 0.0620624 -0.046147216
0002b0 4e 6b 43 bd 80 2e 05 3c e9 f7 77 bd 10 06 d3 bd
       -0.047709756 0.008128762 -0.06053916 -0.10303891
0002c0 00 19 d9 bc 6c 7e e1 be 69 ce e0 be 22 bf fb 3d
       -0.026501179 -0.44041765 -0.43907478 0.12292315
0002d0 3c 2d 4b 3e c5 8f 58 be 55 b9 44 be b9 8e 76 be
       0.19841474 -0.21148594 -0.19211324 -0.24077882
0002e0 eb 38 53 be b5 ef 74 be 32 1a b4 bd d2 6b 6f 3d
       -0.20627181 -0.23919566 -0.08794059 0.058452435
0002f0 25 8a bd 3d 1f 39 4c be 45 57 23 3d e9 75 2a 3e
       0.092548646 -0.19943665 0.03987815 0.16646542
000300 61 aa 31 be bc b3 b0 bd 0e 9a d3 be 45 6e 0c be
       -0.1735015 -0.086280316 -0.41328472 -0.1371394
000310 c4 98 32 be d9 d8 a7 bc fa b7 f6 be ae 21 e7 be
       -0.17441088 -0.020489143 -0.48187238 -0.45142883
000320 7c 0d 00 3e 79 25 cc bc a5 df af be ca 90 40 3d
       0.12505144 -0.024920212 -0.34350315 0.04701308
000330 03 85 02 bd 25 10 1f be 8d 94 15 be c0 d9 37 3e
       -0.03186513 -0.15533502 -0.14607449 0.17954159
000340 b4 45 95 be ea 3d 81 3d 1b 1d 56 be 2b ae 16 be
       -0.29154742 0.06310637 -0.2090954 -0.14714877
000350 23 22 d0 bc db 14 10 bd 8b 6a 20 bd c3 4a 0e bf
       -0.025406903 -0.03517614 -0.039164107 -0.5558283
000360 b0 24 51 be 3c 30 1d 3e f9 f6 58 be 1e 9a 6b bc
       -0.20424151 0.15350431 -0.21187963 -0.014380006
000370 b3 f1 31 be fd 16 33 be 21 85 54 be 9b 1f 0b bb
       -0.17377357 -0.17489238 -0.2075391 -0.0021228555
000380 ab 12 36 be 73 b1 3f 3d da fe 37 3e 26 73 8f be
       -0.17780559 0.04680009 0.17968312 -0.2801754
000390 3a ff 4c bd e8 e7 70 be 10 8e 31 be b8 ba 7a be
       -0.05004809 -0.23525965 -0.17339349 -0.2448529
0003a0 8a 46 82 bd d6 c0 8a be 8d a4 0f bd fd 57 6d 3d
       -0.063611105 -0.27100247 -0.035069037 0.05794524
0003b0 8c b8 02 3d d0 57 66 3d 5e 37 22 3e e4 68 0f be
       0.03191428 0.05623609 0.15841433 -0.14004856
0003c0 cb 98 89 be 28 8c 7b be 08 bd 11 bc be 4c 5e bd
       -0.26874384 -0.24565184 -0.008895166 -0.054272406
0003d0 85 78 5e be ad ca ba be 5b 23 c8 3d 22 c0 79 be
       -0.21725662 -0.36482754 0.097723685 -0.24389699
0003e0 d0 1b a2 3d da 21 a3 be f9 a2 1c bd 3f 13 5c 3d
       0.07915461 -0.31861764 -0.03824136 0.053729292
0003f0 b3 d7 9b bd eb 5e 9c 3c f4 db 8c be 55 fd 7a 3d
       -0.07609501 0.01908823 -0.2751156 0.061276753

actor.2.weight f4 [256, 256]
000000 21 68 56 bf f7 4d 7d 3e 74 79 9a 3d e2 7e 8f 3e
       -0.8375264 0.24736772 0.075426966 0.2802649
000010 00 d1 8b 3e 2d 68 b3 3d 33 59 a8 be e4 10 6b 3e
       0.27307892 0.08760104 -0.32880554 0.22955662
000020 09 10 91 bd 48 58 25 bf 07 58 2c 3e 73 f8 9e be
       -0.070831366 -0.6458783 0.16830455 -0.31048927
000030 41 33 0b bf b7 89 0a bf 34 41 02 3f 83 87 2e be
       -0.5437508 -0.54116386 0.5088074 -0.17043881
000040 9a 98 a9 bc 31 17 5f 3e 70 27 ae be 97 b7 99 be
       -0.020702649 0.2178619 -0.34014463 -0.3002288
000050 c8 88 4b be 17 69 3b be 2b e0 0e bf b7 07 a9 3e
       -0.19876397 -0.18301807 -0.55810803 0.33013698
000060 4d f5 82 3e ff 90 71 be 5a c5 82 bf eb ea 88 be
       0.25577775 -0.23590468 -1.0216477 -0.26741728
000070 1b 6a 97 3d 29 57 e2 3b 7a 52 49 3d ca f3 38 bd
       0.07393285 0.006907363 0.04915092 -0.04515437
000080 f3 85 0d bf 09 e7 3f bd 5b f0 31 be 40 3d 59 3d
       -0.55282515 -0.04685119 -0.17376845 0.05303693
000090 60 69 33 3e 5b ac 0e be 81 96 04 3d a5 67 4a bf
       0.17520666 -0.13932936 0.032370094 -0.790644
0000a0 17 51 c3 be 5e 61 9a 3a 1e fb b5 bf 32 8a a4 3e
       -0.38147804 0.0011778285 -1.421726 0.32136685
0000b0 ba fd 6c 3d b9 6c 60 be 26 59 7b 3e c1 0b a3 bc
       0.05785916 -0.21916474 0.24545726 -0.019903066
0000c0 69 6b c8 be 6f ed 2b 3e a1 38 84 3e 2d 72 78 3e
       -0.39144447 0.16789792 0.25824454 0.24262305
0000d0 22 eb bc 3e ea cc b6 be 69 e3 b5 be 7f b7 b8 3e
       0.36898142 -0.35703212 -0.35525063 0.36077496
0000e0 af c7 b0 be 49 3f d2 3b 0f 62 07 be 83 2e 06 3f
       -0.34527346 0.0064162356 -0.13221 0.5241472
0000f0 98 3d 42 3d 27 86 e9 3d c2 3d ed be 0e d8 46 3e
       0.04742202 0.11402541 -0.4633618 0.19418356
000100 55 ad 1d be ec 19 96 3e e3 42 b6 3d f3 69 8d 3e
       -0.15398152 0.29316652 0.088994764 0.27619895
000110 ab c0 2c bf d2 f0 0b bf c5 2b 64 be da b6 cf be
       -0.6748149 -0.5466434 -0.22282322 -0.40569192
000120 f5 aa 87 bf aa 18 93 be 86 67 8b 3e 45 8d 90 be
       -1.0599047 -0.28729755 0.2722742 -0.2823278
000130 4d 1a 40 be 9a 03 8e be da 28 cc bd 89 ee 15 3f
       -0.18760033 -0.27737123 -0.09968729 0.585671
000140 2f e2 e5 be 2e d1 a7 be fc a5 da bd fa 49 be 3d
       -0.44899127 -0.3277678 -0.1067619 0.09291454
000150 68 5e 94 bc 33 31 96 bf fa fb b4 3d fe 90 07 bc
       -0.018111423 -1.1733764 0.08837123 -0.008274315
000160 ef c8 b4 be c8 c8 c7 bc 7f 4e bb 3d 45 80 f8 3e
       -0.3530955 -0.024387732 0.09145831 0.48535362
000170 8e c9 82 3f 9e d6 e4 3e ef 15 3c bf de f1 b4 bf
       1.021776 0.4469499 -0.7347097 -1.4136312
000180 21 bd 93 3f 69 7a 9f 3e cc 68 4c 3c 5e 59 cd 3e
       1.1542093 0.3114808 0.012476157 0.40107244
000190 51 45 89 be 06 c5 6e 3d 4f 81 9b bd 9c 10 8b bd
       -0.26810697 0.058293365 -0.07593023 -0.06790277
0001a0 28 4f 4d bd a9 ba f0 3d 62 49 21 be b2 13 91 bd
       -0.050124317 0.117543526 -0.1575065 -0.07083835
0001b0 24 f1 0f be ef eb ce 3e a7 36 22 bf e7 22 b5 3e
       -0.14056832 0.40414378 -0.6336464 0.3537819
0001c0 1f 84 e3 3e 03 3d 39 3e 53 15 22 bf 8e 6e b6 bf
       0.44436738 0.1808968 -0.6331379 -1.4252489
0001d0 9e 06 76 3e 8d 4f a1 bc f7 4c c2 3d 9b ab 1e be
       0.24025962 -0.019691253 0.09487336 -0.1549515
0001e0 0d 86 6e bf 46 cf a1 be 4e dd 16 3f 86 ba c9 bd
       -0.93173295 -0.3160345 0.58931434 -0.0985003
0001f0 76 d0 97 3e f5 28 8d bf 48 12 ca be f8 9d 2e 3d
       0.2965123 -1.1028124 -0.39467072 0.04263112
000200 61 46 c4 bd a3 95 2b 3f 1e fb a5 3e f6 5a 9d bd
       -0.09583736 0.670252 0.3241815 -0.07683365
000210 cf 63 6a 3e 3d 18 be ba 22 37 53 3e 6f 9f 1c 3e
       0.22889636 -0.0014503073 0.206265 0.15295194
000220 85 21 bb 3d 99 7c 57 be 2a bf 44 3d 67 06 d3 be
       0.09137253 -0.21043624 0.04803387 -0.41215822
000230 52 4f 3e 3c f0 61 93 be db 1c 07 be 39 24 98 be
       0.011615591 -0.28785658 -0.13194601 -0.29715136
000240 a6 b9 2c bf 18 69 59 be 23 d1 dd bf c9 dd 69 be
       -0.6747078 -0.21231496 -1.7329448 -0.2283851
000250 7e 28 86 be 51 7b a8 bd ca 4a 88 be 3a c6 7a 3e
       -0.26202768 -0.08226646 -0.2661956 0.2448968
000260 3b 8c dc be 0d b4 8b bd d6 b7 fc 3e 50 99 0b bf
       -0.43075737 -0.06821451 0.49359006 -0.5453081
000270 c0 e1 db 3d 68 ce 7a be 27 35 f0 3e b5 b3 d3 3e
       0.10736418 -0.244928 0.46915552 0.41348043
000280 c1 66 0a 3d 6f 47 1e 3e 8d 4a e9 be a0 6c fd 3d
       0.0337894 0.15456937 -0.4556469 0.12374234
000290 b1 76 b8 3d 2a 13 fc be 87 26 90 3e 31 c2 40 be
       0.090070136 -0.4923337 0.28154394 -0.18824078
0002a0 9d e1 3b bd c9 5b 4c bf d9 e9 90 be 6e 17 b3 be
       -0.04586946 -0.79827553 -0.28303412 -0.34978813
0002b0 46 e6 60 3c ce 32 a2 bd d4 c2 80 3e 24 0d db be
       0.0137267765 -0.079198465 0.25148642 -0.42783463
0002c0 ce 44 85 3e bb ec f5 be de 25 8b be 11 59 ce 3c
       0.26029056 -0.48032174 -0.27177328 0.025188955
0002d0 19 f8 4a be 3e f8 a5 bd b4 f5 77 be f9 84 45 bd
       -0.19821204 -0.08103989 -0.24214822 -0.048222516
0002e0 38 5d b6 bd e4 00 0e be aa 1f 48 3f 78 74 9b bd
       -0.08904499 -0.13867527 0.78173316 -0.07590574
0002f0 0a c1 18 3e b4 85 da 3d 82 13 1d bf 10 e6 3a bf
       0.14917389 0.10670033 -0.6135789 -0.730073
000300 05 23 4a be ab e2 59 3e 88 59 ba bf 9f d8 9d bf
       -0.19739921 0.21277873 -1.4558573 -1.2331733
000310 81 42 92 be 25 37 4f be 13 05 09 be 91 11 80 be
       -0.28566363 -0.2023588 -0.13380842 -0.25013402
000320 c2 0c fc be 96 c1 a7 bd c1 63 af 3d 1d df a5 3e
       -0.49228483 -0.081912205 0.085639484 0.32396784
000330 4f e6 df bd a4 94 21 bf 58 db 6c 3e ae 79 ae be
       -0.109326 -0.6311743 0.23130548 -0.3407721
000340 98 e7 4d bf fb a5 9b 3e bb da 9c 3e d8 d5 bf be
       -0.8043151 0.3040007 0.30635628 -0.37467837
000350 06 ff 5e 3e ae c3 fe be 69 7d 11 3e 17 50 ad be
       0.21776971 -0.49758667 0.14207996 -0.33850166
000360 a0 78 95 3e d4 a6 3f bd 3c 34 db be 69 db 1c 3d
       0.29193592 -0.04678996 -0.4281329 0.038295183
000370 14 50 9f be 70 22 08 3f 3c b4 4f bf 83 f4 fb 3d
       -0.31115782 0.5317755 -0.8113439 0.12302496
000380 d4 b7 f1 be 4b 4b d7 be 13 4c 85 be cc 4b ba 3e
       -0.47210562 -0.4204963 -0.26034603 0.36385953
000390 b4 39 a1 bb b9 3a 70 bf 7c b3 b6 be 14 24 fb 3d
       -0.004920209 -0.93839604 -0.3568381 0.12262741
0003a0 94 da 07 bf 00 e8 9c 3e c3 69 45 3c 49 57 f9 3d
       -0.530679 0.30645752 0.012049141 0.121748514
0003b0 e8 f7 3e be ff 4e 83 3e c1 f9 3a be 38 be 2f bf
       -0.18649256 0.25646207 -0.18259336 -0.68649626
0003c0 59 a2 25 3d 16 b6 c8 3d cc 9e 6e bf ba 36 de bf
       0.04043803 0.09800355 -0.93211055 -1.7360451
0003d0 a1 38 80 be d8 ac e1 bd 0b 40 11 be d0 46 86 be
       -0.25043204 -0.110192955 -0.14184587 -0.262259
0003e0 65 8f 2d bf 35 f1 43 3d 27 97 44 3e 3d e9 43 3d
       -0.6779693 0.047837455 0.19198285 0.047829855
0003f0 46 86 eb bc 63 8e 84 3e 88 c1 2a be 57 cd db be
       -0.02875055 0.25889882 -0.16675389 -0.429301

actor.2.bias f4 [256]
000000 1c 3e 10 3d 90 dd c9 3e 17 98 48 bd 76 31 ce bd
       0.035215482 0.3942685 -0.04897317 -0.10068028
000010 d5 dd d4 bd 40 de 86 bc 52 53 d1 bd c6 3e c7 bd
       -0.103938736 -0.016463399 -0.1022097 -0.0972877
000020 0b 27 e9 be 8e b8 fd 3d 48 45 4a bd d2 23 07 3e
       -0.455376 0.12388717 -0.049382478 0.13197258
000030 ad 1b ee bd 8c b1 13 3e 86 9a 03 3e a1 8c 5c be
       -0.116263725 0.14423198 0.12851915 -0.2153802
000040 8b 22 13 3c 1c 7f 14 3e 9b 0e b8 3d 2e e5 83 bb
       0.008980404 0.14501613 0.08987161 -0.004025123
000050 8d 16 e8 bd fc 5c 05 bf da 66 56 3e ed 9b a3 bd
       -0.11332426 -0.5209501 0.20937672 -0.07988725
000060 e9 54 cb 3d ee 9e 7c 3e c6 69 b9 bd bb b3 79 be
       0.09928305 0.24670002 -0.09053378 -0.24384968
000070 74 66 d7 bd 78 7b 4e 3e c9 41 f9 be d9 ea 4f 3e
       -0.10517588 0.20164287 -0.48683003 0.20304431
000080 69 9e 95 3e 0e bb 4d be 76 14 46 be 3e 7c 18 3e
       0.2922242 -0.20090887 -0.19343743 0.14891145
000090 c6 be 72 be 84 c5 20 3e 20 75 28 bb 9f c1 e9 3d
       -0.23705587 0.15700346 -0.0025704578 0.114138834
0000a0 48 16 c2 3d d6 3f 9c bd 31 58 0c 3e 92 c7 de be
       0.09476906 -0.07629363 0.13705517 -0.43511635
0000b0 9a 17 09 be 85 56 2e be fb 28 89 be ca 9e c5 3d
       -0.1338791 -0.17025192 -0.26789078 0.09649427
0000c0 2f f7 a6 bc 83 31 a2 bd 69 ab 6a be 8c 78 70 be
       -0.020381538 -0.079196 -0.2291695 -0.23483485
0000d0 be 5c 10 bd 98 f3 ae 3c cc 88 af bd a0 e2 93 be
       -0.035244696 0.021356389 -0.08571014 -0.2888384
0000e0 07 3f b3 3d 56 c4 dd 3d 1b cd 1e bd 68 61 3e 3c
       0.08752256 0.10828464 -0.038769823 0.011619903
0000f0 44 b9 99 bb e7 98 54 be 06 98 5d 3e e2 cc 89 be
       -0.004691275 -0.20761453 0.21640024 -0.26914126
000100 e6 5d 89 3e d2 52 27 3d fc 1c 52 bc 9f e4 08 bd
       0.2682945 0.040850468 -0.012824293 -0.033421155
000110 6f 71 de bd 8e ec 81 be a4 90 f8 3c a8 6c 1b be
       -0.108614795 -0.2537579 0.030342408 -0.15178168
000120 9c 29 0f bc 99 66 47 bd 0e 78 80 be a1 46 ec bc
       -0.008737948 -0.04868183 -0.25091594 -0.028842272
000130 56 ee 29 be 89 82 91 be b6 d3 a4 3d 99 94 cc bd
       -0.16594824 -0.28419903 0.08048193 -0.0998928
000140 61 bf 06 3d 96 f6 81 be 90 c7 69 bd 43 31 f2 bc
       0.032897357 -0.25383443 -0.057075083 -0.029564505
000150 c0 5d 73 bd 09 ae 5b be 58 e8 90 3e 56 37 5c be
       -0.05941558 -0.21453108 0.28302264 -0.21505484
000160 c3 e7 89 3e 2e e5 46 be 0c bc e5 3d 2c e7 dd be
       0.26934633 -0.19423363 0.11217508 -0.43340433
000170 5c 0b c2 3d f5 54 91 be f4 41 08 3c 52 f6 5f be
       0.09474823 -0.2838513 0.008316506 -0.21871307
000180 d2 07 f2 bb f3 9e 2a be ae 47 c2 bc 63 ad 3b be
       -0.007386186 -0.16662197 -0.02371582 -0.1832786
000190 0e 96 c6 bb d6 e6 86 be 8a 5a 7c 3e e9 93 b6 be
       -0.0060603684 -0.2634799 0.24643913 -0.35659721
0001a0 46 43 28 3e 79 c8 b9 bd fc f5 9e be 41 1e dd 3d
       0.16431913 -0.0907144 -0.31047046 0.10796786
0001b0 e9 63 12 be cd 8e 0e bd be 4f 0f be b5 fe 01 be
       -0.14295925 -0.034804154 -0.13995263 -0.1269482
0001c0 37 09 a3 3e 22 20 17 3e 35 d3 ff 3e 6d 80 7d 3e
       0.31842968 0.14758351 0.49965826 0.24756022
0001d0 9b e7 7f be 30 a9 09 3e 5c 93 72 bd bb eb 36 be
       -0.24990694 0.13443446 -0.059222564 -0.17863362
0001e0 0e d6 36 bd ee 63 f5 3d c3 0e f4 3c 0d 80 ac bc
       -0.044637732 0.11981951 0.029792195 -0.021057153
0001f0 f6 f8 12 bc 59 f8 2e be 2a f1 52 be df 2b 5d 3e
       -0.00897049 -0.17086925 -0.2059981 0.21598767
000200 c4 0e 1c bd f8 9b 05 be 3b 1e 00 3e cb 26 74 3e
       -0.03810002 -0.13047779 0.12511532 0.23842923
000210 25 89 18 be 13 3b cd 3e b9 a5 75 be e2 9e a0 3e
       -0.14896066 0.40084133 -0.23989 0.31371218
000220 c3 4d 66 bd 33 be 2b 3e 43 25 95 be cb 4a 42 3e
       -0.056226503 0.16771774 -0.2912999 0.18973844
000230 19 eb ff 3d 75 6a a6 3e 5e 41 ae bd 4b 68 78 be
       0.12496013 0.32503095 -0.085085616 -0.24258535
000240 a1 8d c3 3d 1c 81 ed 3d 4c ad 86 3e d9 84 e5 bd
       0.09548498 0.11596891 0.2630409 -0.11206979
000250 25 15 11 3f 06 57 9c bd 23 d5 8c be 88 ee a4 3e
       0.5667289 -0.07633786 -0.2750636 0.32213235
000260 e4 c2 c9 3e 11 d1 61 be da b0 ba bd 41 70 82 3e
       0.39406502 -0.22052409 -0.09115763 0.25476268
000270 67 27 a2 3e fc 95 39 3e 90 df c3 3d c6 37 18 bf
       0.31670687 0.18123621 0.095641255 -0.59460104
000280 d6 9f 89 3d 8e e1 b2 3d 10 d7 82 be a6 f3 82 be
       0.067199394 0.087344274 -0.25554705 -0.25576514
000290 a5 37 99 3c 8f a9 72 3c 2c 26 9a bd a7 98 f4 3d
       0.018703291 0.014810934 -0.07526812 0.119431786
0002a0 2e a5 06 3f 9a cc 5b bd 86 07 36 3d d3 bc ad bd
       0.52595794 -0.05366192 0.04444077 -0.08483281
0002b0 e0 f3 2b be 65 59 f0 3d 3a 66 c6 be 08 63 9c be
       -0.1679225 0.11735801 -0.38749868 -0.30544305
0002c0 32 33 25 3e b5 03 1b be b9 6c d5 3b aa e1 c0 3e
       0.1613281 -0.15138133 0.006513205 0.37672168
0002d0 05 52 b8 be 05 3e 2a be f9 73 38 be 7d 95 2b be
       -0.36000076 -0.16625221 -0.1801299 -0.16756244
0002e0 51 18 58 3e 11 57 2e 3e 25 f2 dc 3d 3f 14 30 3d
       0.21103026 0.170254 0.10788373 0.04298806
0002f0 6f 49 7f 3d 1d 09 00 3e 1c 68 25 3f d6 b3 e3 bd
       0.06232589 0.12503476 0.64611983 -0.11118285
000300 5d 79 dd 3c 9b f0 23 be 67 16 4a bd 77 4b 0f be
       0.02703541 -0.16009752 -0.04933777 -0.13993631
000310 e3 14 4a be 1a 6f e8 3a e0 b1 18 3d d3 23 3f 3e
       -0.1973453 0.0017733306 0.03727901 0.1866601
000320 a6 41 95 be e5 c8 40 3e cc 99 47 3e 3a 49 cd 3c
       -0.29151648 0.18826635 0.19492263 0.025059331
000330 5c 6f d8 bd 89 13 21 be cd ee 07 3e 97 93 f1 3c
       -0.10568115 -0.15730108 0.13274689 0.029489322
000340 c3 cd 41 be 66 2c 89 bd 0d 98 3e be 38 49 5f 3d
       -0.18926148 -0.066979215 -0.1861269 0.054513186
000350 37 16 60 3e f7 5b 1c be 68 6f bd 3e 83 7d a6 bd
       0.21883474 -0.15269457 0.3699906 -0.08129408
000360 fa d7 ce 3d 32 48 9f bd d9 54 09 3e f1 ce 2a bd
       0.10099788 -0.07777442 0.13411273 -0.04170126
000370 33 9e b5 3e 33 21 59 3e ac 40 1f be 95 35 58 be
       0.3547226 0.21204071 -0.15552014 -0.2111419
000380 bd aa 8b be 7f 3f 74 3e 74 0f 73 bc e4 8a 1d 3e
       -0.272787 0.23852347 -0.014835227 0.15385014
000390 bd c0 6e 3e c8 74 70 3e c6 c5 ac be 58 a1 b0 3d
       0.23315711 0.23482049 -0.3374464 0.08624524
0003a0 ff 3f 7e be 98 0a 47 be be 6f a8 bc 86 34 d1 ba
       -0.248291 -0.19437635 -0.020561095 -0.0015961088
0003b0 3c 66 47 3c 53 e8 24 bd 2b e7 c8 bd 51 0b 86 bd
       0.012170371 -0.040260624 -0.09809717 -0.06545127
0003c0 5d 5c 6a be d5 3d 4d 3d 3e bc 09 3e a3 9c d2 bd
       -0.22886796 0.050107796 0.13450715 -0.10283782
0003d0 e5 6d c4 bb 00 bd f0 be 7e 82 2e be b5 28 d9 be
       -0.0059945458 -0.47019196 -0.17041966 -0.4241387
0003e0 b1 66 d2 3c 64 c0 b4 bd 0f 4a 71 3e 0b a9 35 bc
       0.025683733 -0.08825758 0.23563407 -0.011087666
0003f0 c6 b7 3b bb 17 60 30 3d 93 89 eb 3e f5 e3 4e 3e
       -0.0028643473 0.04306039 0.46003398 0.20204146

actor.4.weight f4 [8, 256]
000000 db 5d ad be ad 57 8f be a9 3a 01 3f 57 e1 54 3f
       -0.3386067 -0.2799658 0.50480133 0.8315634
000010 a4 89 04 3f 37 e5 73 3f ae c8 2a 3f 29 5e 6b bf
       0.5177252 0.9527163 0.6671246 -0.9194055
000020 01 02 d1 be ce 02 ce bf ae da 83 be d6 da d3 be
       -0.4082184 -1.6094606 -0.25752777 -0.41377896
000030 90 66 25 bf 28 2f 94 3f 45 43 a7 be 62 36 2f 3f
       -0.6460962 1.1576891 -0.3266851 0.68442357
000040 a4 e7 32 be 1b 09 08 3f d4 0f 72 3f 9d 03 dd 3d
       -0.17471176 0.53138894 0.945554 0.10791705
000050 0c e3 9e 3f cc f7 59 be 0c e1 5e be 62 7b a7 3e
       1.2413039 -0.21285933 -0.21765536 0.3271132
000060 d6 d4 1e 3f fc 9e bd 3d 74 a4 38 3e dd 6c f9 3d
       0.6204351 0.092588395 0.18031484 0.12178967
000070 d4 42 35 be e9 30 ab be d1 ed 35 3e 10 49 ef 3d
       -0.17701274 -0.33435753 0.17766501 0.116838574
000080 52 aa ec 3e 02 e7 76 3d 24 13 4d be fd 16 7d 3f
       0.46223694 0.0602789 -0.20026833 0.988632
000090 27 3f 20 3f 01 ff ec bd c7 d4 e8 bf 34 25 6b bd
       0.6259636 -0.11572076 -1.8189934 -0.057408527
0000a0 78 c2 c8 bd c9 41 41 bf 87 6b 9f be 25 80 2a 3f
       -0.09802717 -0.75491005 -0.31136724 0.66601783
0000b0 18 4b 88 be dc e6 a0 bd 8b a5 bf bf 13 67 95 3d
       -0.26619792 -0.07856533 -1.4972395 0.072950505
0000c0 32 35 87 3d 64 f4 1d 3f f1 a0 e2 3d d3 cc 9f 3d
       0.06601943 0.61701035 0.110658534 0.07802739
0000d0 a7 33 d6 3e 34 f6 b5 3e c2 98 f2 be 93 e9 4f be
       0.41836283 0.355394 -0.4738217 -0.20303945
0000e0 86 d0 51 bf 62 3b bb 3e af 66 b0 be 6a 4b dc 3e
       -0.81958807 0.36568743 -0.3445334 0.43026286
0000f0 b0 21 1d 3f f8 c8 0c be 56 cd 3a 3e b6 05 6a 3f
       0.6137953 -0.13748538 0.18242392 0.91414964
000100 93 b0 20 3f 80 6d 90 3e fd 62 4a 3d cc 8e af bd
       0.6276943 0.28208542 0.04941081 -0.08572158
000110 4a ab 24 3f ed 24 98 3f ca 90 f2 3e f8 91 6c bf
       0.64323866 1.1886269 0.4737609 -0.9241023
000120 1c f8 43 be 16 4a 92 bd 3d 69 2e bf c6 05 9c be
       -0.19137615 -0.07143037 -0.6812933 -0.30473155
000130 7c e1 8e be db 28 71 3f 25 d0 a3 be 8c d4 23 be
       -0.27906406 0.94202965 -0.3199474 -0.15999049
000140 41 02 aa be d7 37 b0 bf a5 56 11 bf 40 70 06 3e
       -0.33204845 -1.3767041 -0.56772834 0.13128757
000150 d7 6b 6a 3f d0 78 e7 be d3 6c b9 3d e1 f5 aa 3f
       0.915708 -0.4520936 0.0905396 1.3356286
000160 ae 7b c2 be 71 cc 07 3f d6 e6 23 be 63 cf 33 be
       -0.37984985 0.5304633 -0.16006026 -0.1755958
000170 d6 98 ec 3e 01 96 cd 3e 9f 85 95 bf 53 3b 19 bf
       0.46210355 0.40153506 -1.1681403 -0.59856147
000180 52 ba 9e be f5 d1 54 3d 3a b5 d3 be a6 95 95 3f
       -0.31001526 0.051958043 -0.41349202 1.1686294
000190 0d 37 e2 3e 13 8b 49 3d ee 88 12 3d 2c 77 2f 3f
       0.44182625 0.049204897 0.035775118 0.68541217
0001a0 28 20 39 3f 99 aa b0 3f 82 07 35 3e ac 30 d1 3e
       0.7231469 1.3802062 0.17678645 0.40857446
0001b0 a8 12 6d be 8c 4b 77 3e 0e 86 11 bc cb a4 80 bf
       -0.23151648 0.24149913 -0.008882059 -1.0050291
0001c0 93 3e 57 3d 09 30 13 3f 59 24 bc 3d d5 a0 33 3d
       0.05254991 0.5749517 0.0918662 0.043854553
0001d0 97 fd 94 be f3 87 1b 3f 10 01 b5 be 9c 91 44 bf
       -0.29099724 0.6075432 -0.35352373 -0.7678468
0001e0 b1 94 58 3f 91 c7 05 bf d8 e2 9d 3f 28 d1 b8 3c
       0.84601885 -0.5225764 1.2334852 0.022560671
0001f0 3a 20 10 3f ec af a6 3e 63 63 8a 3f 39 b4 a0 3e
       0.56299174 0.32556093 1.081158 0.313875
000200 c9 03 cb be 35 cf af 3e 5c 5a c7 3e 26 bb 5d bf
       -0.39651325 0.34337774 0.38936126 -0.8661369
000210 d2 53 ab bc 20 2a 86 3d 2a 0b c9 be db 96 29 bf
       -0.020913992 0.065510035 -0.3926633 -0.6624581
000220 e5 f6 9a bd e9 ec fe bf 62 93 78 bf 8c 0e 2e 3c
       -0.07566623 -1.9916049 -0.9709989 0.010623585
000230 15 a4 47 bf 86 33 c2 be a8 c6 2e 3e e8 ab 69 3f
       -0.77984744 -0.37929934 0.17067969 0.91277933
000240 86 02 6c 3e 74 80 43 3f 91 4c 07 3d cc 02 c9 3e
       0.23047838 0.7636788 0.033032004 0.39259946
000250 28 38 c3 3d dc 60 bd 3d 33 54 0a 3f df d1 7f bf
       0.09532195 0.0924699 0.5403473 -0.9992961
000260 07 7a b2 3e b6 ea 09 bf 5d 05 06 3f 56 81 c6 3e
       0.34858724 -0.53873765 0.52351934 0.3877055
000270 07 e3 c6 bf 93 8d 89 3f 8c 0d 52 3e af 65 61 3f
       -1.5538033 1.074633 0.2051298 0.8804578
000280 f6 c0 1f 3f ff 73 47 3e a7 6f 36 bd 53 59 7e be
       0.6240381 0.19477843 -0.044540074 -0.24838762
000290 28 0d 9e 3e 60 1d da 3c a4 67 9f 3e e9 78 65 be
       0.30869412 0.026625335 0.3113376 -0.22409405
0002a0 0b 9b 71 bd d1 65 56 3f 52 e8 c9 be f3 2b aa be
       -0.05898575 0.8374911 -0.3943506 -0.33236656
0002b0 2a 20 60 3f f1 dd c2 bc 11 3b 06 bf 54 05 b4 3c
       0.8754908 -0.02378747 -0.5243388 0.021975197
0002c0 35 1f 94 be db 1b e9 bc 69 17 64 3f 50 49 e6 be
       -0.2893006 -0.028455665 0.8909822 -0.44977808
0002d0 81 b4 be 3e d4 be 96 3f ce a7 ac bf 50 f7 3f 3d
       0.3724709 1.1776986 -1.348871 0.046866715
0002e0 d5 74 7b bf a9 25 3f 3f 1b a7 10 c0 1a 9d 86 3f
       -0.98225147 0.7466684 -2.2601993 1.0516694
0002f0 0d 7e 11 bf dd e0 22 3e 8a a3 e3 bc 86 85 71 3e
       -0.56832963 0.15906091 -0.027787942 0.23586091
000300 fb df 46 bf 10 e3 f2 3d 5b 07 39 bb f8 4e 5b 3f
       -0.7768552 0.11859715 -0.0028233144 0.8566737
000310 a4 e5 46 be dc a0 0e 3f ee 3b 95 be 24 d6 4c bd
       -0.19423538 0.557142 -0.29147285 -0.050008908
000320 9a 7c 29 3c f9 4c 3f 3f bd 25 16 3e 01 29 a9 3e
       0.010344649 0.74726826 0.14662834 0.33039096
000330 e3 4f b0 bf ce 4e e0 3e 91 06 5e 3e 9f de c8 bd
       -1.377438 0.43810123 0.21682192 -0.098080866
000340 a9 a7 87 bf 7f b1 6a 3f fd 39 18 be a2 77 82 bd
       -1.0598041 0.9167709 -0.14865871 -0.063704744
000350 1f 92 7a bf 26 9b df be dc 6a 32 be 1a c7 b5 bd
       -0.97879213 -0.43673056 -0.17423576 -0.08875866
000360 ca ba 14 be d1 8f f4 3e c6 3e 90 bd 26 fc 3c 3f
       -0.1452438 0.47765973 -0.07043223 0.7382225
000370 16 9b c7 bf c0 74 b8 bb 59 91 92 3d b0 55 d3 be
       -1.5594203 -0.005629152 0.07156629 -0.41276312
000380 41 83 c3 be 92 a0 50 3f 86 41 50 3f c1 ff 87 be
       -0.38186076 0.8149501 0.8134998 -0.26562312
000390 bb 64 e6 bf 20 ac b4 3d 8d ef 57 bf a8 75 f9 3e
       -1.799949 0.08821893 -0.843499 0.48722577
0003a0 53 5f 90 bf 9e 40 7e 3e 58 6a ce be 11 05 a0 be
       -1.1279091 0.24829337 -0.4031551 -0.31253865
0003b0 ff aa 28 bf fb 04 87 3f 35 ee 64 3d c7 ac d9 bd
       -0.6588592 1.0548395 0.055891234 -0.10628658
0003c0 85 e1 87 bf 1a d8 76 3e 83 23 c6 3e 9d 85 5e 3e
       -1.0615698 0.24105874 0.38698968 0.21730657
0003d0 3f 33 65 3d 0c e5 a7 3e 3a 49 98 be 74 ad 86 be
       0.055957075 0.32791936 -0.29743367 -0.2630421
0003e0 a7 4a 34 3f 6e ea 8f be 29 77 99 3e 68 56 4c be
       0.7042641 -0.28108543 0.29973724 -0.19954836
0003f0 bb 73 f5 be 7c 9d 0c 3e fa d5 7f be 1a 26 ce be
       -0.47939858 0.1373195 -0.2498397 -0.40263444

actor.4.bias f4 [8]
000000 ae ca 9f 3e 6f 4a 18 be e7 e7 44 bd ed ab dd bd
       0.3120932 -0.14872144 -0.04807272 -0.10823808
000010 f4 04 14 c0 b0 84 1e c0 cc 28 01 c0 e5 5e 22 c0
       -2.3128023 -2.4768486 -2.018115 -2.537042

q1.0.weight f4 [256, 28]
000000 15 57 dc 3d 8e a3 07 bf 3f 1b 68 3f d8 e1 8c be
       0.10758797 -0.5298394 0.90666574 -0.27516055
000010 05 3b 39 be de e4 fa 3c 85 e5 01 bd 8d 9d 71 3d
       -0.1808892 0.03062671 -0.031713028 0.058988143
000020 97 5d 86 3d 9f fa 61 be cb b7 01 3d 87 23 ec bd
       0.065608196 -0.2206826 0.03166942 -0.11530214
000030 18 b8 e7 3c 0f 33 67 bd 69 95 ac 3c d4 ff 8c bd
       0.028286025 -0.056445178 0.021067338 -0.06884733
000040 03 80 19 be b0 95 7d 3d ee c7 0a be db 24 c5 bd
       -0.14990239 0.06191033 -0.1355283 -0.0962617
000050 99 61 10 3e 34 d9 c5 3d a0 35 02 bd 07 55 bd 3e
       0.1409973 0.09660569 -0.031789422 0.36978933
000060 1a 88 af bc 63 f6 10 3d 49 00 b0 bd ed ca 60 3d
       -0.021427203 0.035391223 -0.085938044 0.054881025
000070 e6 27 ea 3d 33 94 92 3f cf dc 80 ba fe b8 4c bf
       0.11433391 1.1451477 -0.0009831431 -0.79969776
000080 4e 37 51 be c0 83 b2 be 39 c6 e0 3e 6f 5b 6a be
       -0.20431253 -0.34866142 0.43901232 -0.22886442
000090 79 13 a2 be 28 e9 ba bd a3 72 98 bd f2 0c f1 be
       -0.3165548 -0.09126502 -0.0744374 -0.4708019
0000a0 df 8f b6 bb 46 dd 02 bf 71 4a 9e be 3b 6e 7c be
       -0.00557135 -0.51118886 -0.3091617 -0.24651425
0000b0 f5 8b a4 be 79 66 43 be e8 26 99 be 2e b5 41 be
       -0.3213803 -0.19082059 -0.29912496 -0.18916771
0000c0 b4 b0 d3 be 20 8f a3 be b1 f0 54 3c 95 a1 40 bd
       -0.4134575 -0.31945133 0.012996838 -0.047029097
0000d0 d2 f8 9e be 1c 23 bb be ff 13 13 be 42 49 db 3e
       -0.3104921 -0.36550224 -0.14363097 0.4282933
0000e0 10 f5 50 be 13 3e 77 bf a0 c5 94 3e ff 7d 2f 3f
       -0.20405984 -0.9657909 0.29057026 0.6855163
0000f0 3e d6 94 3e 55 43 0c 3e 9d 92 df bd 51 53 d0 3d
       0.29069704 0.1369756 -0.10916636 0.10172141
000100 a0 de 7c bc e5 f4 92 3e 50 67 f8 be 73 af d9 be
       -0.015433937 0.28702465 -0.4851632 -0.4251667
000110 ae fd d0 3d c3 d0 da bd 4d 1d 6b be f0 72 5f be
       0.102046356 -0.106843494 -0.22960396 -0.21821189
000120 cc 4f 28 be f5 4f 9c be 25 6a 1e be cd 37 5a be
       -0.1643669 -0.30529752 -0.15470178 -0.21310349
000130 fa e2 1f be 2c 18 ef bd de 42 0f 3e a2 73 8e bd
       -0.15613928 -0.11674532 0.13990352 -0.06955649
000140 8b 0e 1f be 75 c2 23 be 95 d1 96 3d b9 7c 7e 3e
       -0.15532891 -0.15992148 0.07364193 0.24852265
000150 b4 87 99 3e e2 db 80 3f 71 3b 0d bf 09 03 44 3c
       0.29986346 1.0067103 -0.55168825 0.011963614
000160 08 68 b3 3e 75 9a 78 be 33 bd f6 bd 06 ab 60 3e
       0.35040307 -0.2427767 -0.12047806 0.2194024
000170 62 5c ee ba 32 a3 22 be 72 34 23 bf 36 7b d2 be
       -0.0018185491 -0.15882567 -0.637519 -0.41109627
000180 c8 d6 f3 3d 14 a5 25 be 0b 47 96 bc 78 5f 70 bd
       0.11906201 -0.16176254 -0.018344423 -0.058684796
000190 ec f4 3a bd 4b 7e 27 3e 7a 2a 71 3d 2b 0c 12 3e
       -0.045643732 0.1635677 0.0588784 0.14262454
0001a0 82 52 04 3e 60 37 8e bd 6d bc 4f bc a1 63 be be
       0.12922099 -0.06944156 -0.012679202 -0.37185386
0001b0 ca ff 83 be 05 07 c6 3e ac f7 08 3d 9e 74 c5 3d
       -0.2578109 0.3867723 0.033439323 0.096413836
0001c0 d6 cf c5 3e b3 e6 9f be 29 dc eb bd a8 ce 49 be
       0.3863513 -0.31230697 -0.115166016 -0.1970774
0001d0 dd be a7 be 1b a0 03 be 4b 4f b9 be 93 56 88 3d
       -0.32762805 -0.12854044 -0.36193308 0.06657138
0001e0 c5 d2 88 be c4 de 24 be b4 78 8f be fd 35 42 bd
       -0.26723304 -0.16100603 -0.28021777 -0.04741477
0001f0 99 0c 49 ba e4 d8 49 be b5 d0 85 be 04 32 0a be
       -0.00076694187 -0.19711643 -0.26135793 -0.13495642
000200 c0 83 45 be 80 91 f7 bd 05 2e ab be 81 43 29 be
       -0.1928854 -0.12088299 -0.33433548 -0.16529657
000210 90 67 8d be ee 3d 6d be aa 06 f3 3d 1c e7 73 3e
       -0.27618074 -0.23168156 0.118665054 0.2381863
000220 bf ef 80 be 0d 1c 14 bb 3c 83 a0 3d 27 a9 40 be
       -0.25182912 -0.0022599727 0.07837531 -0.18814526
000230 69 8c ac bc bf 93 5c be 6c 55 53 3e 22 91 17 3f
       -0.021063047 -0.21540736 0.20638055 0.5920583
000240 ca d8 95 3e 42 1b 01 bb 1f eb 21 be a3 81 9f bb
       0.2926696 -0.0019700085 -0.15812348 -0.004867749
000250 4f fa fe be 3d 98 8e 3e db 18 e5 3c 4f 97 af 3d
       -0.49800345 0.27850524 0.027965954 0.08573782
000260 90 43 9d bd b6 85 5c 3e 71 4d 08 be 3f 07 6a bd
       -0.07678902 0.21535382 -0.13310792 -0.057135817
000270 78 e0 d8 3d 34 3f 9f 3c 80 e4 24 3c 71 9c f3 bc
       0.10589689 0.019439317 0.010064244 -0.029737683
000280 a3 a6 35 3e d5 3e 13 3e 03 40 a0 bc d3 04 a9 3e
       0.17739348 0.14379437 -0.019561773 0.33011493
000290 5f 3f 1f bd cd bb 07 bd c9 da 02 be d7 08 1c 3c
       -0.038878795 -0.033138085 -0.12778772 0.009523592
0002a0 ea cf 0d be bd 6f 42 3f 40 1f a0 be 32 6d 5b 3e
       -0.13848844 0.7595175 -0.31273842 0.21428373
0002b0 d8 a3 a6 3e dd 17 32 3d 4a a9 04 bf 40 28 56 3e
       0.32546878 0.04347979 -0.51820815 0.20913792
0002c0 b8 dd 2d bf 07 8e 30 bd f0 f7 5a be f7 ac 6e bd
       -0.6791644 -0.043104198 -0.21383643 -0.05827042
0002d0 6a f0 b6 be 74 59 d3 be 0c fc 0d bd 09 54 08 3e
       -0.35730296 -0.41279185 -0.0346642 0.13313307
0002e0 3f 6c ac bc 86 85 72 3e 00 3c 5c 3c 28 d9 b1 3d
       -0.02104771 0.23683748 0.0134420395 0.086839974
0002f0 93 7d c4 bc 6e ba 4a 3e 3d 44 b9 3d 53 ec 80 be
       -0.02398566 0.1979768 0.090462185 -0.251803
000300 ee fd 33 bd 09 39 53 be f0 78 d8 3c 21 be 9f be
       -0.043943338 -0.20627226 0.026424855 -0.31199744
000310 16 6d bf bd 34 98 be bf b8 66 05 bf ef 2d 13 3f
       -0.09346978 -1.4890199 -0.5210986 0.57491964
000320 51 2c 5f 3e 4a b9 e0 bd e3 86 0f be 0a 6b 7f be
       0.21794249 -0.10972841 -0.14016299 -0.24943176
000330 c2 f2 6e be 42 25 e2 3d 4f 4f 99 bc 08 2b b5 be
       -0.23334792 0.110422626 -0.018714575 -0.35384393
000340 f1 b2 93 be 31 11 82 3e d7 a6 a9 bd 2c 29 58 be
       -0.2884746 0.2540374 -0.08283775 -0.21109456
000350 7f 5d 74 be f9 81 80 bc 4d 2f 4e bd 98 a4 9d be
       -0.23863791 -0.015686976 -0.05033808 -0.30789638
000360 e2 fb 92 be 8e 48 45 be 37 57 0d 3e 2a 31 ea 3d
       -0.28707796 -0.19265959 0.13802801 0.114351586
000370 b4 cc 33 3d 24 32 45 3e b4 f1 93 be 9e 4e 4f 3e
       0.043896392 0.19257408 -0.28895342 0.20244834
000380 38 6e 47 3f 76 36 ad be 47 31 4a 3d 3e b6 37 3f
       0.77902555 -0.33830613 0.0493634 0.71762455
000390 51 d3 e9 3e cf fe dd bc 49 a7 f9 3d 3c da 90 3b
       0.45669034 -0.027099041 0.1219011 0.004420547
0003a0 82 21 e9 3a d5 d3 db 3e ba af 24 3d b1 c0 c8 3e
       0.0017786475 0.42935053 0.04020665 0.39209512
0003b0 b3 fb 1a be db 5c 32 bd 5e 8b 22 3e f6 0f 60 3e
       -0.15135078 -0.043545585 0.15873477 0.21881089
0003c0 48 8e a4 3e 7d ee fd 3d 20 75 63 3e 3f 51 bd 3e
       0.32139802 0.12399004 0.22212648 0.36976048
0003d0 89 f4 a9 3e a6 c8 58 3e 1b ee 72 3e a8 5d 93 be
       0.33194378 0.21170291 0.23723643 -0.28782392
0003e0 0e 2b ec bc f6 be dc 3c 03 63 87 3d e3 87 6a bd
       -0.028829124 0.026946526 0.06610682 -0.057258498
0003f0 f9 4e a0 bf e3 83 7f bf 86 7d 02 40 ce e7 c6 3c
       -1.25241 -0.9981062 2.0389113 0.024280455

q1.0.bias f4 [256]
000000 9f e0 ad 3e db d5 3c 3e 42 c8 11 3e 86 00 dd be
       0.33960435 0.18440954 0.14236549 -0.43164462
000010 bc cc 85 3e 24 ef c9 3e a3 0c bb be 55 3b 05 3e
       0.26132762 0.39440262 -0.3653308 0.13010915
000020 79 c8 a0 be 85 73 1a be a9 08 90 be 14 94 14 3e
       -0.31402948 -0.1508313 -0.28131607 0.14509612
000030 70 25 17 bc 17 37 4c 3c b1 8b e5 bd 5b 7b 22 3e
       -0.009225234 0.012464306 -0.11208285 0.15867369
000040 c9 fd 26 3e 06 55 81 3e e9 6b 8b bd 77 e9 da 3c
       0.16307749 0.2526018 -0.068076916 0.026722653
000050 87 41 66 be 56 6c 89 3e d2 63 b0 bd 55 a9 b4 be
       -0.22485934 0.26840466 -0.08612789 -0.3528544
000060 8c c3 8d 3d 1c 07 0c be eb 36 d8 3b 18 86 03 be
       0.06922063 -0.13674587 0.0065983436 -0.12844121
000070 c4 c5 b0 be 32 25 88 bd 6f aa 4f 3e 75 af d5 be
       -0.34525883 -0.066477194 0.20279859 -0.41735426
000080 ed 07 1f 3e 36 ca de 3d 4d ff a4 be b0 4c f4 bd
       0.15530367 0.108784124 -0.3222603 -0.119286895
000090 ad ef a1 bd 9a fb c9 bd d6 f3 34 be 17 93 89 3b
       -0.07907043 -0.09862442 -0.17671141 0.0041984427
0000a0 a9 6e 65 be 03 18 43 be 56 25 90 be ef bf 2d be
       -0.22405495 -0.19052128 -0.28153485 -0.16967748
0000b0 2b 54 93 3e b2 f2 2b 3e 33 1e 3e bd 0c 0c 92 3d
       0.28775153 0.167918 -0.04641552 0.07131204
0000c0 21 73 53 bd 02 b2 07 be 88 e5 bd 3d 38 ae d6 bd
       -0.051623467 -0.13251498 0.09272295 -0.10482448
0000d0 b0 e7 73 bd cd 08 27 be c2 8c be be 7d 38 33 be
       -0.059547126 -0.16311951 -0.37216765 -0.17502017
0000e0 e1 ce c6 bb f3 f4 ab bd 9b 81 a9 be 04 f2 ba be
       -0.0060671424 -0.0839633 -0.33106694 -0.36512768
0000f0 e3 49 c0 3e 88 7a 45 be 06 57 4b bd 2a 4c 95 bc
       0.3755637 -0.19285023 -0.04964354 -0.018224794
000100 3c c4 7f be 5d 66 20 be b7 77 8c be 32 9a cb 3d
       -0.24977201 -0.15664048 -0.27435085 0.0994152
000110 10 d4 fc be ac db f6 bd e6 0d 0d bd c5 09 49 3e
       -0.4938054 -0.12053618 -0.034437083 0.19632633
000120 88 6b 76 be cd 5b e8 bd 5d c8 57 be 01 07 ea 3d
       -0.24064457 -0.113456346 -0.21072526 0.11427117
000130 25 02 2b be 5c 44 98 3d 5a 4d 62 3c 8c f1 60 be
       -0.16700037 0.074349135 0.013812387 -0.21967143
000140 7e a5 68 3e 3a 72 e6 3d 3a 5b c1 be a2 c2 d1 3d
       0.2271938 0.11252256 -0.37764913 0.102422014
000150 1b 1c 8a bb 94 17 05 bd d4 8c 3c be cf 39 e5 bc
       -0.004214776 -0.03249319 -0.18413097 -0.027981667
000160 4f bd f9 3d 8b d7 f5 bd 8d 9c 94 3e ea ef 5e 3e
       0.12194311 -0.12004002 0.2902569 0.21771207
000170 74 1f 64 3b 88 6c b2 3d 85 63 ca be 52 06 01 3e
       0.0034808787 0.08712107 -0.39529052 0.12600067
000180 5c 8a 4f bd 63 f1 49 ba e9 64 97 be 2e 5c 1a 3d
       -0.05066906 -0.0007703511 -0.29569176 0.037685566
000190 e3 10 07 be ae cd 8d be f8 86 60 3e a1 67 65 be
       -0.13190036 -0.27695984 0.21926486 -0.22402813
0001a0 16 cf 2f 3e 07 6f 9a 3e f6 d1 42 be 09 66 dc 3c
       0.17168841 0.30162832 -0.19025406 0.026904123
0001b0 11 93 db bd d9 79 43 3e f9 db 0c 3e 89 7f e9 3d
       -0.1072141 0.1908945 0.13755788 0.114012785
0001c0 78 ee 3a be 3d 79 a4 bd 6e bb f4 3c fd f3 53 3d
       -0.18255031 -0.08030937 0.02987453 0.051746357
0001d0 dc e4 f9 3d 24 7b 85 3e f6 b5 af be 9d a3 48 be
       0.122018546 0.2607051 -0.34318513 -0.19593664
0001e0 82 28 b5 be 77 a8 77 bc e0 5a 82 be 97 bd fb bc
       -0.35382468 -0.015115849 -0.25459957 -0.030730052
0001f0 0b e3 c5 be 62 e9 99 be 41 1f 8f bc 14 51 8e 3e
       -0.38649783 -0.3006087 -0.017470958 0.27796233
000200 02 e9 1a 3e 2c e4 9e be 2e 13 10 3e 97 e3 6b bc
       0.15127948 -0.31033456 0.14069816 -0.014397523
000210 4f 18 d3 bd 05 95 f9 be d9 cf 9a bc 61 bb 90 3e
       -0.10307371 -0.48746505 -0.018897938 0.2826796
000220 b7 b0 91 be 86 ef da bd 26 0d a7 3e 5e d1 5c be
       -0.28455135 -0.10690217 0.3262722 -0.21564242
000230 e3 15 da bd 5e 76 10 be 34 31 a0 bc 65 de 54 be
       -0.10648706 -0.14107653 -0.019554712 -0.20787962
000240 31 62 ed bd 72 3e 31 3e a4 31 c5 bd 2b 4e 85 3d
       -0.11590994 0.17308977 -0.09628609 0.0650905
000250 60 80 8c bd 10 62 d1 bd d8 bb fe 3d 8b 99 bf bd
       -0.06860423 -0.10223782 0.12438172 -0.09355458
000260 d6 1a 8f bd f7 8f c6 be 19 02 e8 be 35 83 c4 be
       -0.069875404 -0.3878171 -0.453141 -0.38381353
000270 47 ac e6 be 85 97 0a bd 10 cc e7 bd ac a3 b5 bd
       -0.45053312 -0.033835907 -0.11318219 -0.088691086
000280 d1 8c f1 bd 54 64 65 3d aa 65 41 be 0d da 48 bd
       -0.11794437 0.056003883 -0.18886438 -0.049036074
000290 21 3d d5 bd b6 a8 89 3d 7a 8c 14 3e 4f 12 7a 3e
       -0.1041205 0.06721632 0.14506713 0.24421047
0002a0 71 de 89 3e 6a b1 ab be 46 4a 70 3e 47 fe 0e bf
       0.26927522 -0.33533794 0.23465833 -0.55856746
0002b0 90 e3 6e be fd c2 d9 be 5f 84 84 be 00 54 e1 3d
       -0.23328996 -0.42531577 -0.2588224 0.1100235
0002c0 77 02 f9 be a6 aa bd 3d 84 75 9e 3d 98 16 4f be
       -0.48634693 0.09261064 0.07737258 -0.20223463
0002d0 35 a5 e3 be 9e c1 4a bd fd 24 3d be a0 1b b5 be
       -0.4446198 -0.049501054 -0.18471141 -0.3537264
0002e0 c3 78 75 bd 11 55 d6 bd 1e f5 4f 3e 57 8d 64 3e
       -0.05992962 -0.10465444 0.20308349 0.22319542
0002f0 c6 e8 8a 3e 0c 5a 7e bd b4 49 fc be a7 aa 89 be
       0.27130717 -0.062097594 -0.4927498 -0.2688801
000300 4b 8b 75 3e 6e 5d 52 be 2f df b4 be 9b 32 81 be
       0.23978917 -0.20543453 -0.35326526 -0.2523392
000310 e3 b0 b5 3e dc a7 4e be 3f 7e 7d 3e aa cf 47 be
       0.35486516 -0.20181221 0.2475519 -0.19512811
000320 49 9d 66 3e 79 0b d4 be b3 04 44 3e bb c7 d3 3c
       0.22520937 -0.41415003 0.19142418 0.025852075
000330 ac b9 a7 be f4 b3 d5 be 8c 1b a3 3e f3 dc 96 bd
       -0.32758844 -0.41738856 0.31856954 -0.073663615
000340 0d df 88 be c8 04 94 be 23 96 97 be d6 e1 2f bd
       -0.26732674 -0.28909898 -0.29606733 -0.042939983
000350 d1 15 92 3e 8c 43 73 bd 98 45 90 be 71 71 97 3e
       0.2853227 -0.05939059 -0.28178096 0.29578736
000360 c7 15 58 3e 48 48 60 3e 1d 24 bf be 60 77 c3 bd
       0.21102057 0.21902573 -0.3733224 -0.09544253
000370 bc 53 ab bb 38 03 9a be d5 43 8a bd e4 85 2e 3e
       -0.005228488 -0.3008058 -0.06751219 0.17043263
000380 80 46 c2 be db e1 fc bb 1b e2 00 be 0c 35 cf bd
       -0.37944412 -0.0077173538 -0.12586252 -0.1011754
000390 c1 ca ac 3e 8c 3a 7a be ad 3c 8b 3e 59 12 9f be
       0.3374844 -0.24436396 0.2719473 -0.31068686
0003a0 fd e0 27 3e 41 74 3d be 7f bc 5a be 51 fd 93 3e
       0.1639442 -0.18501379 -0.21360968 0.28904203
0003b0 3a ee 36 3e 40 15 01 ba ea ce 92 be d6 47 79 3e
       0.17864314 -0.0004924126 -0.28673488 0.2434381
0003c0 85 19 db be fd ce 3a bb 76 db 04 be 3c b6 94 3d
       -0.42792907 -0.0028504722 -0.12974343 0.07261321
0003d0 32 48 d4 3d 3c 3a 64 bd 52 9e 80 3d 2c ec 13 3e
       0.10365333 -0.0557196 0.06280197 0.14445561
0003e0 39 9e 8d 3e 22 b8 33 3e 20 60 c1 3d d1 4e d6 3c
       0.27659777 0.1755071 0.094421625 0.02616063
0003f0 47 ab 83 be 1f 23 4c bc 8d 7f a8 be a1 26 6e 3e
       -0.25716612 -0.012459545 -0.32909814 0.23256923
