SAC/checkpoints/BipedalWalker-v3/10_best_agent.pth (torch, 891687 bytes, 17 tensors)

log_alpha f8 []
-7.132499037934593
00000000: e0b8 ead3 ad87 1cc0

actor.0.weight f4 [256, 24]
-0.92459583 -0.8545808 -0.0320753 0.06593493 -0.08554727 -0.041111443 -0.55565304 0.2935742
-0.26915652 0.40119666 0.017872147 0.2946826 0.28563824 0.23015577 -0.31200847 -0.2816927
-0.32970923 -0.22990979 -0.077160835 -0.2604852 -0.17206806 -0.013811086 0.015137977 0.08270834
-0.06089081 -0.41644987 -0.6852527 -0.0060399473 0.18221839 0.07379371 -0.01172281 0.13725226
-0.3864776 -1.0372386 -0.46240973 -0.2698797 -0.01755716 -0.89105594 -0.025988933 -0.12751918
-0.1039975 -0.03649778 0.073156565 0.008863772 -0.061191324 -0.13221091 0.01743334 -0.10096128
-0.10982999 -1.1664127 -0.91074735 -0.29608786 0.49532858 0.11804282 0.26878774 -0.00863242
0.3270488 0.4310238 0.026141075 0.2405457 -0.014682722 -0.18320088 0.08643814 0.118915975
0.1485884 0.122349404 0.09837963 0.118053876 0.22794485 0.10749031 0.06849648 -0.25527528
-0.2536889 1.0702522 0.39169937 0.060110014 0.06064801 -0.32703525 0.7177845 -0.31560987
0.0060131736 -0.072290875 0.16026035 0.04577508 -0.12735666 0.46567506 -0.022611246 0.08032713
0.13313405 -0.060473293 -0.04936375 -0.015772533 0.12702917 0.07116568 -0.18635784 -0.11141111
-0.83839744 0.15541215 0.1083993 0.5481587 0.63309205 -0.3982556 0.16152254 0.21350704
0.18136677 0.16302639 0.4500805 0.76060504 0.26664352 -0.17163935 -0.20919682 -0.07168374
-0.1555287 0.094222456 -0.03507103 0.10283278 0.10744538 0.07206969 -0.18246205 -0.33560094
-0.16888109 -0.3480851 0.5428161 0.15758765 0.04572017 -0.32956675 -0.24251767 -0.06925802
-0.20995072 0.3512372 -0.46348703 -0.15880378 0.26338246 -0.23314925 -0.23832054 -0.17847238
-0.31818724 -0.22518213 -0.14632986 -0.25042123 -0.36163417 -0.20651758 -0.15383339 0.22077133
-0.43260336 -1.5483072 0.06677863 1.5822445 0.3448541 0.006546111 -0.54614115 0.18755685
0.17885268 -0.12473512 0.42246962 0.02158045 -0.049481876 0.30816334 0.052082933 -0.0008180927
0.05369602 0.022822319 -0.07786784 -0.12550025 -0.11825933 0.11621492 -0.22959824 -0.29603055
0.2938886 0.17618684 -0.7666742 0.6488292 -0.41174716 0.17140806 0.6071562 0.37710336
-0.7896313 -0.35743356 -0.23500364 0.26376575 -0.61025095 0.10392961 0.2025761 0.25934115
0.2361719 0.20948699 -0.004355184 0.26345897 0.031266544 0.05024605 -0.0032135118 -0.12063866
0.1155199 1.394293 -0.03764606 0.41966346 0.4599938 -0.03186056 0.16682385 -0.19996028
0.30861378 0.24284326 -0.059970118 -0.216084 -0.06766032 0.43616357 -0.050146945 -0.11688121
-0.13215922 -0.2135275 0.038899336 -0.1562138 -0.19394146 -0.02185986 -0.035135996 -0.14412904
0.5807125 -0.36858213 -0.64801174 -1.4378593 0.030620106 0.49809113 -0.35246396 -0.066496335
-0.11105171 -0.34117562 -0.3679325 0.14231443 0.25428241 -0.106058836 -0.18405731 -0.24181125
-0.16095603 -0.10630711 -0.0635877 -0.02980812 -0.19559184 -0.2700611 -0.14607687 0.09787337
-0.7644842 2.1812003 0.8934053 0.53187484 0.079878375 0.1681991 -0.12893167 -0.26878133
-0.39232424 -0.500978 -0.116287425 -0.38221133 0.11291835 -0.12273077 -0.09147605 0.048754826
00000000: 50b2 6cbf cfc5 5abf 6461 03bd e508 873d
00000010: 6833 afbd 7964 28bd 473f 0ebf 5c4f 963e
00000020: e2ce 89be a669 cd3e 9c68 923c a3e0 963e
00000030: 2d3f 923e f4ad 6b3e 93bf 9fbe 073a 90be
00000040: a6cf a8be 796d 6bbe 8006 9ebd 515e 85be
00000050: 9c32 30be e547 62bc 4705 783c fd62 a93d
00000060: a468 79bd eb38 d5be b96c 2fbf c0ea c5bb
00000070: 7597 3a3e 2821 973d 0711 40bc db8b 0c3e
00000080: 64e0 c5be 3cc4 84bf f8c0 ecbe ac2d 8abe
00000090: 09d4 8fbc 3e1c 64bf bee6 d4bc 6394 02be
000000a0: a4fc d4bd b27e 15bd 1cd3 953d 5b39 113c
000000b0: c1a3 7abd 4c62 07be 5dd0 8e3c cac4 cebd
000000c0: 8cee e0bd 034d 95bf bd26 69bf d498 97be
000000d0: b59b fd3e 6fc0 f13d 8c9e 893e fe6e 0dbc
000000e0: f172 a73e 27af dc3e cf25 d63c 9d51 763e
000000f0: cd8f 70bc 0399 3bbe 7b06 b13d 388a f33d
00000100: 8f27 183e 5392 fa3d 427b c93d 3bc6 f13d
00000110: 606a 693e e123 dc3d e247 8c3d 71b3 82be
00000120: 83e3 81be 06fe 883f d28c c83e eb35 763d
00000130: 0c6a 783d 2a71 a7be bac0 373f 9e97 a1be
00000140: 280a c53b 3d0d 94bd 4a1b 243e a67e 3b3d
00000150: c969 02be f66c ee3e 383b b9bc 8d82 a43d
00000160: 4b54 083e d8b2 77bd a531 4abd 6635 81bc
00000170: ef13 023e 50bf 913d 97d4 3ebe 822b e4bd
00000180: 37a1 56bf 5d24 1f3e 7400 de3d 2154 0c3f
00000190: 5212 223f 28e8 cbbe 2a66 253e 97a1 5a3e
000001a0: 36b8 393e 64f0 263e f470 e63e 03b7 423f
000001b0: 8085 883e 3ac2 2fbe b137 56be edce 92bd
000001c0: ea42 1fbe b4f7 c03d a4a6 0fbd fe99 d23d
000001d0: 530c dc3d 4699 933d 55d7 3abe e3d3 abbe
000001e0: 2aef 2cbe 3638 b2be fff5 0a3f a85e 213e
000001f0: 1345 3b3d f9bc a8be 8d56 78be 26d7 8dbd
00000200: 52fd 56be 5dd5 b33e 2c4e edbe 759d 22be
00000210: 11da 863e adbe 6ebe 4d0a 74be 77c1 36be
00000220: 70e9 a2be 2596 66be 7fd7 15be 3637 80be
00000230: 1d28 b9be 5879 53be 8086 1dbe e111 623e
00000240: 307e ddbe ee2e c6bf 3cc3 883d fd86 ca3f
00000250: b790 b03e c280 d63b e8cf 0bbf e70e 403e
00000260: 2825 373e 2075 ffbd f04d d83e 7cc9 b03c
00000270: 82ad 4abd 96c7 9d3e ea54 553d 4675 56ba
00000280: 5cf0 5b3d dff5 ba3c 2d79 9fbd 2383 00be
00000290: f331 f2bd 1702 ee3d cd1b 6bbe 5191 97be
000002a0: 9178 963e 536a 343e c344 44bf ac19 263f
000002b0: 86d0 d2be 9885 2f3e 976e 1b3f b113 c13e
000002c0: 4725 4abf 8801 b7be cba4 70be 4e0c 873e
000002d0: 6839 1cbf 0cd9 d43d 1c70 4f3e 5dc8 843e
000002e0: 0cd7 713e c283 563e eeb5 8ebb 18e4 863e
000002f0: 5911 003d cdce 4d3d c899 52bb 6711 f7bd
00000300: b395 ec3d 3178 b23f c132 1abd 21de d63e
00000310: 4f84 eb3e 3880 02bd dfd3 2a3e 63c2 4cbe
00000320: a002 9e3e e7ab 783e 3aa3 75bd 2045 5dbe
00000330: 7e91 8abd d550 df3e e266 4dbd 6a5f efbd
00000340: bf54 07be f4a6 5abe e954 1f3d 83f6 1fbe
00000350: 9798 46be 7313 b3bc c3ea 0fbd 9096 13be
00000360: 93a9 143f ccb6 bcbe 19e4 25bf c60b b8bf
00000370: 04d7 fa3c cd05 ff3e 2876 b4be 3b2f 88bd
00000380: 146f e3bd 92ae aebe a661 bcbe e0ba 113e
00000390: 4e31 823e 6035 d9bd 8579 3cbe 5e9d 77be
000003a0: a8d1 24be 8bb7 d9bd 453a 82bd 2930 f4bc
000003b0: 3a49 48be 7345 8abe 2d95 15be d571 c83d
000003c0: 3db5 43bf c998 0b40 36b6 643f f328 083f
000003d0: 4697 a33d 633c 2c3e aa06 04be b59d 89be
000003e0: b9de c8be 1840 00bf 1a28 eebd 34b1 c3be
000003f0: bc41 e73d 455a fbbd cc57 bbbd 24b3 473d

actor.0.bias f4 [256]
0.000481775 0.01878423 -0.17295238 -0.08199708 -0.3449393 0.07615648 -0.3216734 -0.120031126
-0.04092405 0.029021582 -0.25071514 0.0958911 -0.16757628 -0.120966315 -0.22897929 -0.09217175
-0.18990757 -0.13563304 0.19152655 0.11186378 0.038955223 -0.03508672 0.18514138 0.117519915
-0.16205715 -0.08595481 -0.25928423 -0.15987554 -0.29851398 0.04895976 0.10514694 0.08111389
-0.09048644 0.094618365 -0.06953856 0.043063395 -0.07970456 -0.1874231 0.10735938 -0.04735001
-0.2680859 -0.1505395 -0.025640663 -0.25566268 -0.27205 0.2010541 0.14719006 -0.11039671
0.11774254 -0.27292335 0.02507003 -0.09461232 -0.11145773 0.08162507 -0.0036757553 0.03827472
-0.33723384 -0.03286215 -0.1283523 -0.010971779 -0.079306975 -0.08854334 0.024529353 -0.024367362
-0.09504781 -0.15860727 -0.01582368 0.20024835 -0.32565567 -0.010868312 -0.05720719 -0.070941925
-0.031222006 -0.18161577 -0.22921811 0.21258466 -0.06151049 0.11760866 0.05130265 -0.16176099
-0.04725883 -0.027402785 0.046277225 0.15829338 0.26453236 0.113386415 -0.14480746 -0.052016813
-0.09720157 -0.06252942 0.036396544 -0.15120186 0.22202413 0.054341212 -0.25942865 -0.11572724
-0.19998167 0.019524537 -0.08867148 -0.26516894 -0.035620727 -0.29217136 0.13600115 -0.28096503
-0.015342819 0.07109196 -0.08163051 -0.25977358 -0.35646212 -0.088151835 0.2375565 0.039984893
0.112836845 -0.041417528 -0.053018756 -0.29086939 0.035997536 -0.19212966 -0.26764634 -0.09645346
0.12932374 -0.16906898 0.07118384 -0.016902441 0.13182542 0.08178078 -0.05170119 -0.061059415
-0.2333163 0.11843449 -0.057765685 -0.19126783 0.075616755 -0.10761818 -0.024013083 -0.05337525
-0.14146526 -0.19150695 -0.08326519 -0.018665211 -0.29954433 -0.2016349 0.10261779 0.12436424
0.19751993 0.030483037 -0.15097414 -0.062174127 -0.058317985 -0.025410252 -0.17539005 -0.0965342
0.059053436 -0.08841621 -0.2264713 -0.24616022 -0.10329806 0.025365856 0.023346154 -0.1300838
0.052045193 -0.16610928 -0.14483337 -0.06543518 0.040248577 0.041769564 -0.21669039 -0.026894717
-0.2251018 -0.17389902 -0.08602682 -0.099538006 -0.02008289 0.10036148 -0.10723872 -0.11850134
-0.16873033 0.12590463 -0.053023264 0.10622462 0.13984348 -0.1223233 -0.14450647 -0.054377034
-0.43244627 0.2268834 -0.13845675 0.0052654417 -0.03620625 -0.04210731 0.02105127 -0.13592108
-0.28121218 -0.14174964 -0.27855045 -0.013043885 -0.3077763 0.05648077 -0.24735321 -0.11597084
-0.22646275 0.10836699 -0.17434894 -0.14964311 -0.098038495 -0.42097232 -0.08327193 -0.12706698
-0.004812135 -0.09628225 0.17103468 -0.40504703 0.048343703 -0.11742812 -0.16892594 -0.16076884
0.03669377 0.034434926 -0.22480719 0.027371997 -0.31934473 0.02467605 -0.028092142 0.11760238
0.015003976 0.13299227 -0.04215879 -0.16954723 0.0065716365 0.052164778 -0.35020775 -0.09156366
0.043796875 -0.082358226 -0.14797647 -0.116134174 -0.07190116 -0.067060985 -0.16156438 0.020542746
-0.25352237 -0.15478398 -0.07997384 -0.024633672 -0.023426456 -0.338315 -0.12658177 0.04954595
-0.354208 -0.08903501 -0.14883773 0.088275135 -0.010696299 -0.0707471 -0.19070576 -0.27697018
00000000: bf96 fc39 63e1 993c 6e1a 31be 16ee a7bd
00000010: e29b b0be eef7 9b3d 60b2 a4be e1d2 f5bd
00000020: fa9f 27bd abbe ed3c bc5d 80be 8e62 c43d
00000030: 1e99 2bbe 30bd f7bd 8c79 6abe 8bc4 bcbd
00000040: 2177 42be 63e3 0abe 891f 443e d618 e53d
00000050: 838f 1f3d 18b7 0fbd b495 3d3e 48ae f03d
00000060: 4ff2 25be 1309 b0bd e7c0 84be 6ab6 23be
00000070: d3d6 98be 088a 483d 4757 d73d 0a1f a63d
00000080: f450 b9bd 46c7 c13d 3c6a 8ebd 3e63 303d
00000090: 253c a3bd d7eb 3fbe 3cdf db3d 16f2 41bd
000000a0: 8e42 89be 0727 1abe 5e0c d2bc 38e6 82be
000000b0: 234a 8bbe 20e1 4d3e feb8 163e ac17 e2bd
000000c0: 0023 f13d 9cbc 8bbe aa5f cd3c 1bc4 c1bd
000000d0: f343 e4bd 0b2b a73d f1e4 70bb f4c5 1c3d
000000e0: eaa9 acbe 769a 06bd c96e 03be fac2 33bc
000000f0: b26b a2bd 3656 b5bd c8f1 c83c 109e c7bc
00000100: 6da8 c2bd f269 22be aaa0 81bc e70d 4d3e
00000110: 57bc a6be 0111 32bc 1652 6abd 004a 91bd
00000120: 4bc5 ffbc 7cf9 39be 27b8 6abe cbaf 593e
00000130: 6cf2 7bbd cfdc f03d ba22 523d aca4 25be
00000140: 7a92 41bd ce7b e0bc 308d 3d3d a917 223e
00000150: c970 873e 2337 e83d 6848 14be 950f 55bd
00000160: 9e11 c7bd 6d0f 80bd 8b14 153d a9d4 1abe
00000170: 4b5a 633e e494 5e3d d5d3 84be 6702 edbd
00000180: ffc7 4cbe ecf1 9f3c 6599 b5bd 39c4 87be
00000190: 0ae7 11bd 7c97 95be e343 0b3e a6da 8fbe
000001a0: 7260 7bbc a998 913d e62d a7bd 0b01 85be
000001b0: 3482 b6be f388 b4bd 0342 733e 33c7 233d
000001c0: 0117 e73d 6da5 29bd 322a 59bd d5ec 94be
000001d0: 2772 133d a3bd 44be f108 89be 6489 c5bd
000001e0: 716d 043e 6b20 2dbe d5c8 913d fd76 8abc
000001f0: 3efd 063e ae7c a73d a1c4 53bd 7019 7abd
00000200: 78ea 6ebe c88d f23d b69b 6cbd b7db 43be
00000210: f5dc 9a3d ec66 dcbd 16b7 c4bc 02a0 5abd
00000220: 45dc 10be 661a 44be f186 aabd c9e7 98bc
00000230: e05d 99be 6179 4ebe 4729 d23d aeb2 fe3d
00000240: aa42 4a3e 90b7 f93c f798 1abe 4caa 7ebd
00000250: d7de 6ebd 2929 d0bc 7399 33be b9b3 c5bd
00000260: 04e2 713d 8f13 b5bd 18e8 67be 6d11 7cbe
00000270: ef8d d3bd 0ecc cf3c 6f40 bf3c b034 05be
00000280: 572d 553d 8d18 2abe 334f 14be e102 86bd
00000290: b1db 243d 9016 2b3d 16e4 5dbe 4f52 dcbc
000002a0: 1681 66be 9612 32be d42e b0bd 95da cbbd
000002b0: df84 a4bc 528a cd3d f99f dbbd d5b0 f2bd
000002c0: a5c7 2cbe 25ed 003e ec2e 59bd 4b8c d93d
000002d0: 2133 0f3e a384 fabd 81f9 13be 74ba 5ebd
000002e0: 9969 ddbe 1f54 683e 9bc7 0dbe ba89 ac3b
000002f0: 014d 14bd b778 2cbd b773 ac3c e52e 0bbe
00000300: 0bfb 8fbe d126 11be 2a9e 8ebe 05b6 55bc
00000310: db94 9dbe 6158 673d 294a 7dbe 1f82 edbd
00000320: dae5 67be 83ef dd3d 8788 32be 0b3c 19be
00000330: 68c8 c8bd af89 d7be 798a aabd d91d 02be
00000340: 1daf 9dbb a12f c5bd b723 2f3e 5362 cfbe
00000350: 0c04 463d 277e f0bd ecfa 2cbe 96a0 24be
00000360: 354c 163d a30b 0d3d db33 66be 3d3b e03c
00000370: 2781 a3be 6d25 ca3c 7e21 e6bc 84d9 f03d
00000380: 3dd3 753c 202f 083e b2ae 2cbd ca9d 2dbe
00000390: e256 d73b bcaa 553d 6e4e b3be ba85 bbbd
000003a0: 5a64 333d 6eab a8bd 2587 17be c1d7 edbd
000003b0: ea40 93bd 4557 89bd 2271 25be 4349 a83c
000003c0: afcd 81be b17f 1ebe 53c9 a3bd 8ecc c9bc
000003d0: d7e8 bfbc a037 adbe a79e 01be b2f0 4a3d
000003e0: c05a b5be fd57 b6bd eb68 18be 98c9 b43d
000003f0: 883f 2fbc dbe3 90bd 5f48 43be 09cf 8dbe

actor.2.weight f4 [256, 256]
0.222345 -0.2026097 -0.2775373 -0.49212155 0.20603067 -0.43563944 -0.32034773 0.069503084
0.13873993 -0.6609746 -0.22772574 -0.67303413 -0.16264112 0.21017814 0.29559964 -0.20381309
0.27399302 -0.3431022 0.12233074 -0.39330077 -0.038137604 0.41039267 0.06784924 -0.30228233
0.27745324 -0.34923926 -0.031541392 0.06913647 0.22341992 -0.21539645 0.2794717 -0.0797022
-0.11425989 -0.10900744 -0.6484869 -0.1051236 -1.0333129 0.2511425 -0.4809084 -0.04765735
0.17499703 -0.22386292 0.6633715 -0.21259518 0.003078189 -0.9680175 -0.22988732 0.40455693
0.5476672 0.23607916 -0.21668297 -0.59861845 -2.346769 -0.30714312 -0.4535192 0.52184623
-0.46193627 -0.6432499 0.537895 0.39662322 -0.094664656 0.36499238 0.3417775 0.8210824
-0.015843436 -0.0684169 -0.4742153 0.23542401 -0.08024348 0.22369242 0.48866653 0.09421765
0.25835517 -0.37167966 -0.45767495 -0.46476316 -0.33490202 -0.003043904 -0.039063547 0.2472896
0.15333563 0.025957786 -0.24930316 -2.1305804 0.1524251 0.27784812 0.026892422 0.16688462
-0.11044558 0.14702338 0.039686922 0.11756249 -0.28850704 0.13655385 0.062375486 -0.018021047
-0.015423936 0.25111565 0.16343568 -0.016296081 -0.20810667 0.5355847 -0.01776171 -1.1613153
0.19187032 -0.16781099 0.27836847 0.3276388 -0.16108398 -0.29027694 -1.1551813 -0.25704166
-1.383776 -0.22001038 -0.47877866 -0.6697427 0.4840251 0.35323015 0.1140595 0.011263883
-0.33303258 -0.08085917 -0.009960104 0.22462685 0.50861746 -1.014788 0.086832255 -0.25758225
0.20274751 -0.3581942 0.14351256 -0.63787806 -0.43039683 0.691415 -0.21539576 0.18612409
-0.5964236 -0.005203937 -0.2831013 -0.42423138 -0.8499706 -0.35449514 0.05959635 0.104334846
-1.7350278 -0.4075477 0.25461963 0.26438785 -0.9599137 0.13874216 -0.1432359 0.38503253
-0.46658576 0.095513865 0.037581217 -0.26653615 -0.24718945 0.3816539 0.029837532 -0.16948761
-0.83828825 0.8400757 -0.2694278 -0.011728858 0.15231086 -0.00742684 0.1635955 -0.44643718
-0.6289873 -0.9700373 -0.03791582 0.30336127 -1.196917 -0.4151202 0.318312 0.39731714
0.012363529 0.18426119 0.64655906 0.11295196 0.11964345 0.07138904 0.29112908 -0.48057717
0.033548426 0.27193892 0.19319715 -1.019127 -0.1440044 0.58961695 0.3155675 -0.113525994
0.20757598 -0.8630137 0.13157542 0.4747586 -0.049665418 -0.13845505 -0.22525725 -0.5665366
0.40831268 -0.3377032 0.301559 -0.5473681 0.33802158 -0.574928 -0.9602295 -0.03882258
-0.10023255 -0.61894643 -0.51754165 0.0455911 -0.17409752 -0.22926901 -0.27493888 0.2238671
-0.8209397 0.16679944 0.37774602 -0.34406114 0.34450915 -0.079251684 -0.13789232 0.42331126
-0.11041572 -0.3807768 -0.27956775 -0.37192124 0.51486284 -0.28190857 0.31279737 0.16732214
0.2040756 -0.13691868 0.15726066 -0.012949612 -0.12005175 -0.25299907 -0.3134667 0.0022720816
-0.3328568 0.20316334 -0.20776922 -2.2771986 0.10606205 0.00071775727 -1.1062373 -0.2642316
-0.7411453 -0.56168664 0.25680926 -0.056846637 -0.22111312 0.020966772 0.13076983 0.16644359
00000000: 68ae 633e eb78 4fbe 5e19 8ebe 5bf7 fbbe
00000010: b4f9 523e 220c dfbe 9e04 a4be a257 8e3d
00000020: d711 0e3e a235 29bf f030 69be f74b 2cbf
00000030: 658b 26be f038 573e d658 973e 61b4 50be
00000040: d048 8c3e 17ab afbe 8a88 fa3d b85e c9be
00000050: 2d36 1cbd fd1e d23e 8bf4 8a3d c0c4 9abe
00000060: 5a0e 8e3e 7dcf b2be 8c31 01bd 6c97 8d3d
00000070: 31c8 643e e390 5cbe ea16 8f3e e83a a3bd
00000080: 1701 eabd 4b3f dfbd 3d03 26bf 0b4b d7bd
00000090: 9943 84bf c095 803e a039 f6be 5a34 43bd
000000a0: 6c32 333e 523c 65be b7d2 293f 8db2 59be
000000b0: 71bb 493b ffcf 77bf 9567 6bbe 1622 cf3e
000000c0: eb33 0c3f bcbe 713e 24e2 5dbe 0f3f 19bf
000000d0: 7731 16c0 dd41 9dbe ab33 e8be b797 053f
000000e0: e982 ecbe 07ac 24bf 7db3 093f 3312 cb3e
000000f0: 8bdf c1bd 48e0 ba3e 76fd ae3e 7532 523f
00000100: 18ca 81bc 291e 8cbd 59cc f2be fe12 713e
00000110: b256 a4bd a00f 653e 8032 fa3e 2ff5 c03d
00000120: 2147 843e cc4c bebe 5f54 eabe 70f5 edbe
00000130: 4778 abbe 3c7c 47bb 1901 20bd 7c39 7d3e
00000140: 0404 1d3e 6ca5 d43c 5449 7fbe 6e5b 08c0
00000150: 5315 1c3e 1c42 8e3e 7f4d dc3c cde3 2a3e
00000160: 4b31 e2bd 4c8d 163e c18e 223d 9ac4 f03d
00000170: 32b7 93be c6d4 0b3e 707d 7f3d e0a0 93bc
00000180: adb4 7cbc 3b92 803e af5b 273e 5c7f 85bc
00000190: ea19 55be 141c 093f 0181 91bc fba5 94bf
000001a0: a779 443e a5d6 2bbe 5086 8e3e 46c0 a73e
000001b0: 33f3 24be 2e9f 94be fbdc 93bf f79a 83be
000001c0: 921f b1bf 674a 61be 7a22 f5be 4274 2bbf
000001d0: 23d2 f73e 95da b43e 0798 e93d 268c 383c
000001e0: 3f83 aabe 7e99 a5bd b42f 23bc 9504 663e
000001f0: c134 023f 93e4 81bf 1cd5 b13d d2e1 83be
00000200: 0b9d 4f3e 3b65 b7be f5f4 123e fa4b 23bf
00000210: f95c dcbe 9300 313f b590 5cbe 5097 3e3e
00000220: 38af 18bf ca85 aabb a7f2 90be db34 d9be
00000230: ac97 59bf 6380 b5be 4d1b 743d 82ad d53d
00000240: 6415 debf 18aa d0be 815d 823e d85d 873e
00000250: e7bc 75bf 6d12 0e3e 6fac 12be fc22 c53e
00000260: 54e4 eebe c69c c33d c3ee 193d 6d77 88be
00000270: 3b1f 7dbe 2468 c33e d76d f43c 298e 2dbe
00000280: 0f9a 56bf 330f 573f 71f2 89be 652a 40bc
00000290: 61f7 1b3e d95c f3bb 9485 273e 6a93 e4be
000002a0: 5005 21bf 5d54 78bf 9e4d 1bbd 2b52 9b3e
000002b0: 9434 99bf a38a d4be caf9 a23e 276d cb3e
000002c0: 6690 4a3c f7ae 3c3e e584 253f 5b53 e73d
000002d0: a007 f53d 6b34 923d df0e 953e 360e f6be
000002e0: 136a 093d 943b 8b3e 79d5 453e c172 82bf
000002f0: e475 13be 23f1 163f 1092 a13e 5180 e8bd
00000300: cc8e 543e 77ee 5cbf b5bb 063e 8f13 f33e
00000310: f76d 4bbd 29c7 0dbe d6a9 66be 8b08 11bf
00000320: 5c0e d13e 6fe7 acbe f165 9a3e 5120 0cbf
00000330: 2a11 ad3e 7b2e 13bf 9ad1 75bf 6d04 1fbd
00000340: b946 cdbd 4673 1ebf 9c7d 04bf bcbd 3a3d
00000350: 9f46 32be 7fc5 6abe cac4 8cbe 6b3d 653e
00000360: 1b29 52bf 79cd 2a3e ed67 c13e c828 b0be
00000370: 8163 b03e b54e a2bd a533 0dbe 41bc d83e
00000380: a321 e2bd 2df5 c2be 8123 8fbe 766c bebe
00000390: 0dce 033f 5256 90be fa26 a03e 7f56 2b3e
000003a0: 32f9 503e 6934 0cbe f008 213e 9c2a 54bc
000003b0: b1dd f5bd 1889 81be b57e a0be 34e7 143b
000003c0: 356c aabe 0d0a 503e 74c1 54be 9fbd 11c0
000003d0: 0f37 d93d e027 3c3a 2f99 8dbf 5d49 87be
000003e0: b3bb 3dbf b2ca 0fbf 817c 833e 05d8 68bd
000003f0: 7a6b 62be 82c2 ab3c 87e8 053e 3070 2a3e

actor.2.bias f4 [256]
-0.13434894 -0.02528387 0.49256068 0.06921009 -0.2425951 0.194603 0.106462814 -0.42729115
-0.33547843 0.045840338 -0.070542015 0.08617756 -0.15309784 0.23735775 -0.013782431 -0.2901487
0.09273051 0.18288878 -0.022462046 0.013730792 0.5266887 -0.107711345 -0.20067415 -0.30806142
0.25484788 0.086208455 -0.028049203 0.16252604 -0.09663815 -0.23115078 -0.44629505 -0.019756224
-0.40539175 -0.11766737 -0.04750893 0.55756253 -0.010176076 0.46559522 -0.008783898 -0.08954853
-0.18826865 -0.061877754 -0.2772463 -0.43742394 -0.30833367 0.016356573 -0.24144366 -0.39415297
-0.06325193 0.28941238 -0.21276025 -0.42737657 0.3548834 -0.2696111 0.016732663 -0.47764552
-0.08491472 -0.009300297 -0.16966608 -0.14267237 0.19910172 -0.05901375 -0.10800956 -0.38489613
-0.015091582 -0.087282725 -0.34486064 0.17950529 -0.27170205 -0.06683629 -0.050060637 -0.06691756
-0.166647 -0.024610097 0.03333716 -0.3290592 0.09365149 -0.0685511 -0.20323238 -0.33119452
-0.041298456 -0.5148052 -0.002503972 0.2940137 -0.22134994 -0.047345947 -0.07176425 0.279213
0.06115401 0.03309551 0.14010645 -0.36098292 -0.31886196 0.13189559 -0.30597663 0.24246214
-0.09343649 0.1793916 -0.33286288 -0.004545832 -0.026834812 -0.21716869 0.3808764 -0.4110718
-0.20055489 -0.13736108 -0.2645733 -0.071936674 -0.5136242 0.13414986 0.064835735 -0.17117232
0.07872186 0.09371946 0.18070774 -0.34056354 -0.2828072 -0.12769182 0.0057520308 -0.052735604
0.033585545 -0.41750547 -0.03378729 -0.05328353 -0.077032715 -0.09165164 -0.06477463 -0.27722377
0.08351139 0.16888215 -0.2062717 -0.21025662 -0.35348147 -0.27147967 -0.41990155 -0.25960347
-0.09348205 -0.02019717 -0.35437408 -0.20536657 -0.20597626 -0.090989165 -0.03023346 0.042604104
-0.26090696 0.2633604 0.3083911 0.11664523 0.5332999 -0.19592412 -0.028844127 -0.29872054
-0.23050082 0.039533373 -0.12318364 -0.040512774 -0.019591015 -0.2543922 0.057066523 -0.09685571
-0.0079469355 0.123891704 -0.10478559 -0.1475593 -0.24998544 -0.16095456 -0.122726075 -0.000673751
0.14946912 0.001468697 0.27315333 -0.26030585 -0.40788534 -0.16807252 -0.30942237 0.21037091
-0.34037545 0.1401911 0.12217071 -0.09770536 0.17193888 -0.27891383 -0.2058905 -0.08683688
-0.14366695 0.020872766 -0.29334983 0.086459 0.07250386 -0.454096 -0.069808036 -0.3385471
0.06800852 -0.119221576 -0.06947451 -0.12323571 -0.034551162 0.031099455 0.013994754 -0.15050872
0.045165103 -0.07961602 -0.25732028 -0.26269454 -0.4691722 -0.41858697 0.4240193 -0.23694453
-0.31097046 -0.017474828 -0.08499395 -0.013436131 -0.42761275 -0.12293125 0.0015095817 -0.20815106
-0.4956038 -0.03606709 0.40937662 0.09838714 -0.439033 0.34165412 0.3290208 -0.18205617
-0.16412951 0.11275172 -0.35375765 -0.24110131 -0.051682644 0.12680492 -0.112803824 0.21414647
-0.049688954 -0.06550708 0.1094159 -0.087507196 -0.13088273 -0.21745211 0.07804521 -0.29717305
-0.013445676 -0.29010272 -0.049101245 -0.20602502 -0.27459422 -0.38059396 -0.08938697 0.04394413
0.012281391 -0.074867554 -0.22402021 -0.4319493 -0.2626714 -0.12556571 0.11706377 0.011222645
00000000: c592 09be 1e20 cfbc ea30 fc3e 05be 8d3d
00000010: da6a 78be 0246 473e 2d09 da3d e8c5 dabe
00000020: d4c3 abbe 14c3 3b3d 5578 90bd dc7d b03d
00000030: aec5 1cbe e90d 733e b5cf 61bc 5f8e 94be
00000040: 7ee9 bd3d 3247 3b3e 5302 b8bc 1ef7 603c
00000050: 12d5 063f c497 dcbd 867d 4dbe 3aba 9dbe
00000060: 6c7b 823e 0f8e b03d 71c7 e5bc 3a6d 263e
00000070: 39ea c5bd cab2 6cbe c980 e4be ced7 a1bc
00000080: 828f cfbe 97fb f0bd b998 42bd 6bbc 0e3f
00000090: 8eb9 26bc 7f62 ee3e 57ea 0fbc 3865 b7bd
000000a0: 7fc9 40be 8773 7dbd 3af3 8dbe 08f6 dfbe
000000b0: e9dd 9dbe 38fe 853c 023d 77be 6bce c9be
000000c0: 3a8a 81bd dc2d 943e d3dd 59be 1ad1 dabe
000000d0: 47b3 b53e 770a 8abe f012 893c f48d f4be
000000e0: c5e7 adbd 4660 18bc f2bc 2dbe b518 12be
000000f0: 52e1 4b3e 67b8 71bd 1e34 ddbd 1b11 c5be
00000100: af42 77bc 49c1 b2bd 9391 b0be 3cd0 373e
00000110: 881c 8bbe 77e1 88bd 620c 4dbd 130c 89bd
00000120: 83a5 2abe 1d9b c9bc 8c8c 083d 737a a8be
00000130: 5acc bf3d 8564 8cbd 261c 50be 5492 a9be
00000140: 9228 29bd 46ca 03bf ae19 24bb f788 963e
00000150: 8fa9 62be d3ed 41bd 23f9 92bd 02f5 8e3e
00000160: a17c 7a3d 288f 073d 1178 0f3e c1d2 b8be
00000170: e041 a3be a30f 073e f8a8 9cbe ff47 783e
00000180: a15b bfbd 6eb2 373e 016d aabe 34f5 94bb
00000190: aed4 dbbc 7861 5ebe 3b02 c33e 0178 d2be
000001a0: 435e 4dbe 62a8 0cbe 2776 87be 8953 93bd
000001b0: e07c 03bf 955e 093e 99c8 843d cc47 2fbe
000001c0: ed38 a13d fdef bf3d 730b 393e 585e aebe
000001d0: 1bcc 90be a5c1 02be 887b bc3b 4a01 58bd
000001e0: ff90 093d 47c3 d5be 8b64 0abd d53f 5abd
000001f0: 54c3 9dbd dbb3 bbbd 90a8 84bd 46f0 8dbe
00000200: 0508 ab3d 71ef 2c3e e338 53be 834d 57be
00000210: 86fb b4be 62ff 8abe 56fd d6be bfea 84be
00000220: 8473 bfbd 8974 a5bc 8570 b5be 9d4b 52be
00000230: 71eb 52be 8758 babd 29ac f7bc a481 2e3d
00000240: 9995 85be 2dd7 863e 70e5 9d3e b2e3 ee3d
00000250: 5886 083f 55a0 48be 854a ecbc e6f1 98be
00000260: 6808 6cbe bfed 213d b447 fcbd b9f0 25bd
00000270: 567d a0bc b23f 82be 96be 693d 495c c6bd
00000280: dd33 02bc efba fd3d d499 d6bd c919 17be
00000290: 2ffc 7fbe 46d1 24be cf57 fbbd aa9e 30ba
000002a0: 6f0e 193e 4b81 c03a c1da 8b3e cf46 85be
000002b0: 59d6 d0be 341b 2cbe 9c6c 9ebe 796b 573e
000002c0: b145 aebe 418e 0f3e a334 fa3d bf19 c8bd
000002d0: bf10 303e cbcd 8ebe f6d4 52be 89d7 b1bd
000002e0: 6e1d 13be 5dfd aa3c f331 96be 6b11 b13d
000002f0: e77c 943d 457f e8be 84f7 8ebd 0c56 adbe
00000300: 0d48 8b3d 712a f4bd a748 8ebd 0163 fcbd
00000310: 8585 0dbd 49c4 fe3c 414a 653c f51e 1abe
00000320: 0bff 383d b90d a3bd 7cbf 83be e67f 86be
00000330: 5737 f0be 0851 d6be 0f19 d93e 96a1 72be
00000340: 8537 9fbe 5f27 8fbc 4f11 aebd 3823 5cbc
00000350: 0ff0 dabe 61c3 fbbd 28dd c53a 8d25 55be
00000360: c8bf fdbe 16bb 13bd d099 d13e 327f c93d
00000370: efc8 e0be 4aed ae3e 6a75 a83e ef6c 3abe
00000380: 9111 28be 60ea e63d b91f b5be 43e3 76be
00000390: 2eb1 53bd 26d9 013e b105 e7bd 3649 5b3e
000003a0: a586 4bbd 9328 86bd 7215 e03d f936 b3bd
000003b0: 1f06 06be c4ab 5ebe 2bd6 9f3d 1127 98be
000003c0: 414b 5cbc 5888 94be 631e 49bd 39f8 52be
000003d0: 9d97 8cbe 36dd c2be 8410 b7bd c3fe 333d
000003e0: e337 493c 2954 99bd 8e65 65be 7528 ddbe
000003f0: de7c 86be 4c94 00be 21bf ef3d 2fdf 373c

actor.4.weight f4 [8, 256]
0.18862255 -0.27199185 -0.10513988 -0.2829425 0.31216693 0.17489895 0.3989075 0.003625235
0.38136297 0.74333954 4.1670103 0.11907023 -0.084166154 -0.21019176 -0.8164333 0.41007674
0.08960487 1.8300732 -0.23036619 -0.12746003 -0.25141805 0.52317715 0.30363038 0.672056
0.1826321 -0.07856434 0.2713851 -1.1906259 -0.35709995 -0.053850323 0.29635835 0.63822937
-0.34950256 0.33355922 0.08331979 0.2269139 0.094216324 -0.11480251 -0.021541232 0.3954778
-0.32672146 -0.19960113 -0.11007327 0.30083102 0.05345156 0.19863917 -0.9107883 -0.15251568
0.014486942 -0.4051983 -0.53435624 0.53608894 0.43890193 0.5513756 0.38966346 0.03870662
0.31678724 0.09935368 -0.34937185 0.23403423 -0.078767896 0.058182273 0.41241264 -2.2797995
0.14781098 4.843233e-05 -0.65736264 0.17468458 0.61796314 -0.014384449 -0.44637132 -0.30947474
-0.3318849 0.1552833 -0.15487242 -0.18574324 -0.07433847 0.75900835 -0.20648181 -1.5439583
-0.24854034 -1.2932463 0.33083338 -0.32289064 -0.07523812 -0.17787395 0.34546685 0.69726354
0.5710546 -0.5477615 0.16141415 -0.18421535 0.17646311 0.21592084 -0.2052742 -0.14762168
0.08151218 -0.49507096 0.14210404 0.27103898 -0.90335596 -0.2714952 0.24667704 -0.5517582
0.54887444 0.37047076 -0.24761054 -0.9837359 -0.18228292 0.5958973 -0.2866839 0.4600445
-0.10986043 -0.056091648 0.33874652 -0.00055334874 0.093617 -0.1815002 -0.31812224 0.28886074
-0.14616065 -1.3701804 -0.44910523 0.17816715 -0.26017073 -0.372382 -0.10479484 0.4756786
0.24813482 -0.07413326 0.28247783 -0.27112278 0.03710456 -0.028614232 0.61163324 -0.07095379
0.014421377 0.30458006 0.5154968 -0.13165031 -0.11630939 -0.41896105 0.70211685 -0.12075905
0.11097105 -0.047321044 -0.17910495 -0.009777092 0.19576576 -0.3898093 0.70619047 0.0009076752
0.2980481 -0.38672748 0.25790718 -0.22993954 0.14416428 0.4309134 -0.1077753 0.33528575
-0.2675369 -1.569681 1.0664772 0.8274716 -0.45241284 -1.5848429 0.48701015 0.45096385
-0.5191019 0.03562661 0.20518447 0.01671093 0.15712985 0.3368539 -0.28920346 0.20152125
1.3997527 7.981009e-06 1.2544198 0.23796195 -0.05599373 0.042567912 0.16716193 0.06571462
-0.07306897 0.1925179 -0.105562024 0.64527243 0.23471841 -0.2216461 0.2621056 0.17463273
-0.54453444 0.7559576 -0.44184455 -0.23780759 -0.18144813 -0.4905822 0.21468891 0.34149268
-0.08717173 -0.25315857 -0.14798665 -0.53610384 -0.37078175 0.109212406 0.5491475 0.43143547
0.61743635 0.25479317 -0.2763013 -0.08719529 0.095065 0.026802916 0.2923678 -0.48240927
-1.5197748 0.47892365 -0.062203806 0.15400538 -1.6494654 0.49655494 0.061059486 -0.29514635
0.2707413 0.20394386 0.38822353 1.4564967 0.11035324 -0.2926808 -0.85680443 0.18709086
-0.17086829 0.06619825 -0.7100446 0.1895419 0.19394529 0.51631916 0.23618177 -1.9090203
0.36660352 0.09932666 0.08490073 -0.4587743 0.2762346 -0.1950022 -0.10874931 -0.07782919
0.032554857 -0.06218693 1.024033 -0.03876318 0.45136043 -0.22684988 -2.2051344 -0.37677994
00000000: 4526 413e 8442 8bbe 9453 d7bd d7dd 90be
00000010: 58d4 9f3e b618 333e 9b3d cc3e 5a95 6d3b
00000020: 0242 c33e 804b 3e3f 2658 8540 18db f33d
00000030: 4e5f acbd 823c 57be c601 51bf 94f5 d13e
00000040: c282 b73d d73f ea3f 1de5 6bbe e284 02be
00000050: deb9 80be f0ee 053f 7175 9b3e dd0b 2c3f
00000060: e903 3b3e 57e6 a0bd fdf2 8a3e 6e66 98bf
00000070: ced5 b6be 2892 5cbd 48bc 973e 0063 233f
00000080: 00f2 b2be 46c8 aa3e 91a3 aa3d 1e5c 683e
00000090: 7df4 c03d 941d ebbd 3d77 b0bc 117c ca3e
000000a0: 0948 a7be 3d64 4cbe 186e e1bd 8606 9a3e
000000b0: 06f0 5a3d 1168 4b3e 6c29 69bf 122d 1cbe
000000c0: a45a 6d3c 2776 cfbe 92cb 08bf 203d 093f
000000d0: c1b7 e03e f426 0d3f f881 c73e d58a 1e3d
000000e0: f031 a23e f179 cb3d dee0 b2be aba6 6f3e
000000f0: 1051 a1bd 8950 6e3d c027 d33e 3ce8 11c0
00000100: c35b 173e d123 4b38 eb48 28bf 84e0 323e
00000110: d532 1e3f c1ac 6bbc c88a e4be 7973 9ebe
00000120: d1ec a9be 9602 1f3e e096 1ebe 7a33 3ebe
00000130: c53e 98bd 5f4e 423f f86f 53be 6da0 c5bf
00000140: 5c81 7ebe 1889 a5bf fe62 a93e ec51 a5be
00000150: 7216 9abd 9724 36be 08e1 b03e dd7f 323f
00000160: a230 123f 193a 0cbf c049 253e f3a2 3cbe
00000170: bfb2 343e 5a1a 5d3e 6633 52be 232a 17be
00000180: dcef a63d f179 fdbe b983 113e 9fc5 8a3e
00000190: 5642 67bf 6b01 8bbe e898 7c3e 0740 0dbf
000001a0: 0983 0c3f 58ae bd3e 9e8d 7dbe 1ed6 7bbf
000001b0: 60a8 3abe ba8c 183f 3bc8 92be f48a eb3e
000001c0: 81fe e0bd 5bc0 65bd 2f70 ad3e 9b0e 11ba
000001d0: 45ba bf3d 30db 39be ebe0 a2be 8ee5 933e
000001e0: 23ab 15be 1262 afbf 1ff1 e5be 7371 363e
000001f0: 1935 85be daa8 bebe ad9e d6bd 258c f33e
00000200: 0e17 7e3e 2ed3 97bd efa0 903e 9bd0 8abe
00000210: f3fa 173d 6568 eabc ff93 1c3f 3850 91bd
00000220: a447 6c3c ebf1 9b3e 99f7 033f 57cf 06be
00000230: 9e33 eebd 1082 d6be eebd 333f 8550 f7bd
00000240: ca44 e33d b6d3 41bd 4a67 37be 1930 20bc
00000250: d276 483e 1695 c7be e6c8 343f 0df1 6d3a
00000260: c399 983e 2501 c6be 690c 843e 4575 6bbe
00000270: cd9f 133e aea0 dc3e 4cb9 dcbd 93aa ab3e
00000280: 99fa 88be 4feb c8bf 5382 883f 2ed5 533f
00000290: a8a2 e7be 22dc cabf 6559 f93e bce4 e63e
000002a0: dde3 04bf 35ed 113d e11b 523e 5ce5 883c
000002b0: a6e6 203e 1d78 ac3e 7a12 94be 965b 4e3e
000002c0: 192b b33f 2ce6 0537 d490 a03f 4cac 733e
000002d0: ae59 65bd b15b 2e3d 7f2c 2b3e 6395 863d
000002e0: 2fa5 95bd 6a23 453e e730 d8bd 9330 253f
000002f0: 065a 703e 32f7 62be b532 863e ecd2 323e
00000300: 9c66 0bbf 7086 413f 7339 e2be d583 73be
00000310: 8acd 39be 972d fbbe 69d7 5b3e 21d8 ae3e
00000320: 1887 b2bd 009e 81be d089 17be 1a3e 09bf
00000330: 1bd7 bdbe c1aa df3d ee94 0c3f 1ce5 dc3e
00000340: 4f10 1e3f 4074 823e 5d77 8dbe 7293 b2bd
00000350: 70b1 c23d ca91 db3c 3bb1 953e 59fe f6be
00000360: fb87 c2bf 7b35 f53e 6bc9 7ebd 96b3 1d3e
00000370: af21 d3bf 733c fe3e 8319 7a3d 6c1d 97be
00000380: 9b9e 8a3e a9d6 503e 3cc5 c63e 7c6e ba3f
00000390: e100 e23d 42da 95be 8957 5bbf bf94 3f3e
000003a0: 19f8 2ebe f392 873d 7cc5 35bf 4617 423e
000003b0: 9899 463e 7e2d 043f a2d9 713e c75a f4bf
000003c0: 75b3 bb3e c76b cb3d 6fe0 ad3d 77e4 eabe
000003d0: 9f6e 8d3e a8ae 47be f5b7 debd e964 9fbd
000003e0: 3e58 053d b9b7 7ebd 8313 833f 24c6 1ebd
000003f0: b718 e73e 564b 68be ec20 0dc0 4de9 c0be

actor.4.bias f4 [8]
0.06777071 -0.0849558 0.11574148 0.050218575 -4.1004624 -3.1382768 -4.229008 -3.9895563
00000000: 5fcb 8a3d 4efd adbd de09 ed3d feb1 4d3d
00000010: fd36 83c0 87d9 48c0 0954 87c0 e454 7fc0

q1.0.weight f4 [256, 28]
-0.27741048 -0.22405937 0.5295622 -0.6421106 -0.07814248 -0.22996202 0.36669558 -0.401395
0.020209694 -0.12447346 0.16039573 0.2942517 0.26837724 0.06397527 -0.24034531 -0.26853046
-0.11630144 -0.3359837 -0.30208418 -0.27164212 -0.0014171229 -0.10010515 0.02350217 -0.040587477
-0.26985523 -0.041199442 -0.0021318684 0.12000769 -0.297625 0.04075491 0.46327347 -0.65757173
-0.5857351 -0.084101476 -0.68026954 -0.01944659 0.060233664 0.18054944 0.03239426 0.08396922
0.038699903 0.16379073 -0.18400505 -0.2849067 -0.0643196 -0.3228086 -0.278074 -0.34918308
-0.311013 -0.33560053 0.41200432 -0.09485702 0.070877045 0.086542346 0.14041619 0.009200676
0.42298225 0.06389031 -0.5515444 -0.6830805 0.6170381 0.34771618 0.41270113 0.025377234
0.10688188 -0.20551372 -0.17944136 -0.28337416 0.5028738 -0.3020878 0.09913862 0.025405908
0.046812516 0.1127374 0.015241319 0.09812622 -0.1243683 -0.07640997 -0.09929479 -0.24538754
-0.1369655 -0.09193882 -0.029455025 0.11339761 0.0021360551 -0.45457837 0.5849064 0.32960615
-0.12240667 -0.054100845 -0.15338627 0.16514651 0.09062713 -0.055999316 0.01093926 0.20464881
0.012520621 0.18758929 -0.118754014 0.043542393 -0.04654609 0.01851635 -0.12956826 -0.22281119
0.057689924 0.23686376 -0.12190445 0.12890145 0.032651305 -0.06294387 0.06386841 -0.040391926
0.72998095 -1.1952945 -0.67992204 0.95616734 0.19844541 -0.0733611 0.062028524 -0.09872813
-0.1082628 0.58478314 -0.0065777428 -0.24941817 0.08904251 0.06922477 -0.041825764 -0.03731458
0.01762594 -0.16562645 -0.042479932 -0.14169161 0.108007945 -0.061446294 -0.22717965 0.13305467
-0.10218126 -0.08026475 -0.0025718617 0.046841204 -0.049619645 -0.018810783 -0.61569595 -0.29439917
-0.12394347 -0.2691515 0.04381169 -0.30947766 -0.21729508 -0.06481019 0.22983924 0.007172494
-0.29244965 -0.30827674 -0.44426793 -0.31216154 -0.44724932 -0.23664154 -0.4732747 -0.27020583
-0.35829175 -0.39385238 -0.30658016 -0.28813052 -0.091045074 -0.2643962 -0.27753907 0.024231903
-0.10104356 0.39362627 -0.44038424 0.9515864 0.5547713 0.0061674803 -0.7014852 -0.0012117672
-0.03501778 0.029038288 0.009910359 -0.08260549 -0.023020951 -0.071369424 0.09808625 0.08498767
0.08524355 0.1298232 0.066639476 -0.03468486 0.0974892 -0.124994084 0.16260223 -0.14956295
0.5577264 0.11382419 0.08198675 -0.34093428 -0.22016688 0.09886577 -0.62754273 0.4008921
0.77226627 -0.024179038 0.69642144 -0.07159345 0.055562418 -0.6914276 0.11588244 -0.2466659
0.1800755 -0.40891817 -0.047678806 0.12122746 -0.121613584 0.07330138 -0.14093618 0.0698244
0.11600595 0.04858786 0.16911042 -0.25360206 -0.028899372 -0.09516284 0.034801103 -0.0009154063
0.19020945 0.77716964 -0.26378357 0.11161946 -0.38285598 -0.3515413 -0.19755036 0.46120924
0.017879521 -0.13053125 0.4669196 -0.062159132 -0.19957824 -0.21734053 -0.16492353 0.012677571
0.048744116 -0.115455315 0.021719629 0.104073524 -0.027798187 -0.08772411 -0.28346142 -0.2256479
0.16454694 -0.050325226 0.13094203 -0.011945046 0.0023380464 1.1738113 0.3087219 1.2205192
00000000: bf08 8ebe d26f 65be 6391 073f 5c61 24bf
00000010: 2a09 a0bd 2a7b 6bbe 86bf bb3e a583 cdbe
00000020: cd8e a53c f1eb febd c73e 243e 29a8 963e
00000030: be68 893e 7705 833d 151d 76be d37c 89be
00000040: 732f eebd 0e06 acbe c7aa 9abe ad14 8bbe
00000050: c1be b9ba ee03 cdbd 9f87 c03c 0e3f 26bd
00000060: 772a 8abe bfc0 28bd d1b6 0bbb 97c6 f53d
00000070: 4e62 98be 9fee 263d 2e32 ed3e 9f56 28bf
00000080: bcf2 15bf 653d acbd 2526 2ebf 754e 9fbc
00000090: 93b7 763d f4e1 383e d8af 043d 0ef8 ab3d
000000a0: ca83 1e3d c2b8 273e d26b 3cbe 4adf 91be
000000b0: ffb9 83bd 2b47 a5be b75f 8ebe 20c8 b2be
000000c0: 193d 9fbe d5d3 abbe 3bf2 d23e 6644 c2bd
000000d0: fc27 913d 1d3d b13d 43c9 0f3e 6fbe 163c
000000e0: 2191 d83e ecd8 823d 0432 0dbf 5dde 2ebf
000000f0: 35f6 1d3f db07 b23e 904d d33e ebe3 cf3c
00000100: e3e4 da3d 3072 52be 7abf 37be 6b16 91be
00000110: 56bc 003f 41ab 9abe 3009 cb3d 0d20 d03c
00000120: 7bbe 3f3d dee2 e63d bab6 793c 66f6 c83d
00000130: cfb4 febd d57c 9cbd 115b cbbd df46 7bbe
00000140: af40 0cbe 6c4a bcbd aa4b f1bc 023d e83d
00000150: 0ffd 0b3b 7fbe e8be 6dbc 153f 23c2 a83e
00000160: 59b0 fabd d998 5dbd 4a11 1dbe 2b1c 293e
00000170: b79a b93d 8a5f 65bd 953a 333c 758f 513e
00000180: 4a23 4d3c 6817 403e 4e35 f3bd 8259 323d
00000190: 1da7 3ebd 9aaf 973c 8bad 04be 9e28 64be
000001a0: 454c 6c3d 6a8c 723e 0aa9 f9bd befe 033e
000001b0: 60bd 053d b7e8 80bd 71cd 823d 0172 25bd
000001c0: 08e0 3a3f 69ff 98bf 5f0f 2ebf 62c7 743f
000001d0: 4635 4b3e 583e 96bd 9f11 7e3d f931 cabd
000001e0: e3b8 ddbd 59b4 153f 1b8a d7bb 7a67 7fbe
000001f0: eb5b b63d b7c5 8d3d 7e51 2bbd 2cd7 18bd
00000200: 4664 903c fb99 29be 70ff 2dbd 9b17 11be
00000210: 4533 dd3d 1caf 7bbd c8a1 68be 7c3f 083e
00000220: 6944 d1bd d861 a4bd ae8c 28bb 90dc 3f3d
00000230: f83d 4bbd 1219 9abc 409e 1dbf 7dbb 96be
00000240: 13d6 fdbd 3ace 89be e373 333d db73 9ebe
00000250: 9a82 5ebe 34bb 84bd fa5a 6b3e 3e07 eb3b
00000260: f6bb 95be 73d6 9dbe 1677 e3be a3d3 9fbe
00000270: ddfd e4be 2952 72be 1051 f2be 6b58 8abe
00000280: 0472 b7be 05a7 c9be 13f8 9cbe d885 93be
00000290: d775 babd f05e 87be 9a19 8ebe fc81 c63c
000002a0: edef cebd 6289 c93e 0b7a e1be 2b9b 733f
000002b0: 7e05 0e3f 9318 ca3b 8994 33bf 29d4 9eba
000002c0: ce6e 0fbd b4e1 ed3c 0f5f 223c 112d a9bd
000002d0: 6f96 bcbc 222a 92bd 72e1 c83d 040e ae3d
000002e0: 2c94 ae3d 5ff0 043e 477a 883d b611 0ebd
000002f0: 6ba8 c73d e6fc ffbd 3381 263e 0827 19be
00000300: 28c7 0e3f a81c e93d abe8 a73d f08e aebe
00000310: 6d73 61be 237a ca3d a4a6 20bf bb41 cd3e
00000320: 3eb3 453f 1e13 c6bc ad48 323f 969f 92bd
00000330: 6b95 633d 6601 31bf c653 ed3d fc95 7cbe
00000340: b665 383e b95d d1be da4a 43bd 1a46 f83d
00000350: 8b10 f9bd 091f 963d 9351 10be 1800 8f3d
00000360: 8794 ed3d 1004 473d 482b 2d3e 21d8 81be
00000370: 60be ecbc bce4 c2bd 9a8b 0e3d e0f7 6fba
00000380: 44c6 423e 97f4 463f a40e 87be be98 e43d
00000390: b305 c4be 39fd b3be a44a 4abe 9e23 ec3e
000003a0: 1378 923c fca9 05be 1610 ef3e 939a 7ebd
000003b0: 3d5e 4cbe 848e 5ebe b7e1 28be 96b5 4f3c
000003c0: e9a7 473d d673 ecbd 5ded b13c 8024 d53d
000003d0: 06b9 e3bc b3a8 b3bd db21 91be 3e10 67be
000003e0: fe7e 283e d321 4ebd ab15 063e 27b5 43bc
000003f0: e939 193b 733f 963f cc10 9e3e f939 9c3f

q1.0.bias f4 [256]
0.10193797 0.08700909 -0.1522189 0.19119637 0.11431064 0.0020283589 -0.24281205 -0.24692643
-0.2847746 -0.28887334 -0.25600553 0.070797324 0.2196648 -0.10651864 -0.098724805 0.14981414
-0.23526323 -0.061077196 -0.12848018 0.013124757 -0.013104991 -0.01210326 -0.15303746 -0.16110417
0.0417968 0.10413822 0.047471263 -0.10742648 -0.18600671 -0.026725005 0.27721316 0.27019858
0.019022407 -0.12054523 -0.24467686 0.0084577715 -0.30030215 -0.26815873 0.29964483 0.18984787
0.3053892 -0.2446204 0.12044858 0.12601076 0.18931702 0.013716256 0.2692665 -0.12696746
0.29692635 0.057056036 -0.2102732 -0.20155773 0.07053897 0.1029171 -0.015048594 0.1861008
-0.21350648 -0.16471963 0.20688821 -0.26326272 0.20817453 -0.21875492 -0.17094228 0.07014755
-0.14325543 -0.036172826 -0.06578413 0.005583409 -0.11121571 -0.22389585 0.052954264 -0.15642676
-0.01787577 0.08538342 0.13586019 -0.14266449 -0.052943572 -0.11517092 -0.05248539 -0.26063317
-0.09815562 0.016526958 -0.057136714 -0.0047233705 -0.19614516 -0.04113713 0.11701735 -0.2944488
-0.121304415 -0.012340268 -0.14498354 -0.11118098 -0.041810635 -0.13583241 -0.19423863 0.0041845962
0.0047367094 -0.41375506 -0.18470411 -0.29683757 -0.16481824 -0.09151998 -0.07044702 0.048328135
-0.13334984 0.0933392 -0.015687918 -0.29198718 -0.11159787 -0.074787885 0.34603482 -0.028968338
0.14955549 -0.30607623 0.041291732 -0.22613396 -0.19363825 -0.10899554 0.02805413 0.14383216
0.18737891 -0.08789529 0.014938528 0.29140154 0.14857094 -0.21730703 -0.110071875 -0.08873101
0.028727353 0.08558001 0.0676923 0.27457651 0.12398822 -0.07258097 0.08616258 -0.115778714
0.1486615 -0.2831499 -0.05590242 0.08086592 -0.05609826 0.083342485 0.17357552 -0.064754315
-0.021542659 0.15457673 -0.028909279 0.28692198 -0.08770647 -0.017674975 -0.18169375 -0.16420624
0.24199677 -0.10289514 0.12409914 0.11513342 -0.07823975 0.12424011 0.1529632 0.15719563
-0.24646375 -0.10588808 0.102929 -0.219781 -0.18672721 0.038672924 -0.03145841 0.021357868
-0.036633734 0.0040128 0.046808682 0.22060062 0.16837089 0.13026941 0.25295573 -0.022497205
-0.19080947 0.15466039 0.12160896 0.036467534 0.13131653 -0.26764765 0.17965367 -0.15943292
-0.22244516 0.19862357 0.12527852 0.11571429 0.14525123 0.03223245 0.2347357 0.04427817
-0.15072738 0.1259423 0.11506058 0.13864571 0.15168849 -0.24328355 0.21488181 -0.25527713
-0.21166953 -0.122073136 0.20424223 -0.06727083 0.12750873 0.1584028 0.010565163 -0.022321302
0.11980473 -0.09122928 -0.011525235 -0.1804912 -0.12961043 -0.2803755 -0.23391855 -0.10100174
-0.16065107 0.32566988 -0.3012984 -0.08654821 0.20922403 0.22601478 0.2288283 -0.05146794
-0.18704487 0.23825686 -0.31353936 0.28045347 -0.22333273 0.34411025 -0.23196574 0.022226153
-0.08769785 0.3354705 -0.081029944 0.108076006 -0.30872172 -0.094253175 -0.24907742 -0.120777585
-0.2064234 0.013508971 0.05769702 0.011131579 0.116258405 0.19143663 0.25355378 -0.120273836
0.0020934434 -0.08717575 0.1437149 -0.022785159 0.09986205 -0.33062035 -0.25837886 -0.24416839
00000000: dbc4 d03d d231 b23d 45df 1bbe fbc8 433e
00000010: b21b ea3d 37ee 043b b9a3 78be 48da 7cbe
00000020: facd 91be 35e7 93be 2813 83be 30fe 903d
00000030: cfef 603e 7226 dabd 3b30 cabd e168 193e
00000040: d8e8 70be 152c 7abd 4f90 03be 3909 573c
00000050: 51b6 56bc c04c 46bc dab5 1cbe 7ef8 24be
00000060: 1f33 2b3d 6b46 d53d 3a71 423d 6a02 dcbd
00000070: 8b78 3ebe 66ee dabc e2ee 8d3e 7857 8a3e
00000080: e1d4 9b3c 6be0 f6bd 928c 7abe 7792 0a3c
00000090: 34c1 99be 1a4c 89be 0c6b 993e 7b67 423e
000000a0: f95b 9c3e c57d 7abe bfad f63d f708 013e
000000b0: 52dc 413e 26ba 603c 4cdd 893e c203 02be
000000c0: bb06 983e 97b3 693d dc51 57be 2665 4ebe
000000d0: bc76 903d 33c6 d23d 618e 76bc 3591 3e3e
000000e0: 71a1 5abe 43ac 28be 81da 533e 5fca 86be
000000f0: b42b 553e 4a01 60be 7e0b 2fbe 85a9 8f3d
00000100: 8db1 12be f529 14bd d4b9 86bd 08f5 b63b
00000110: 10c5 e3bd f444 65be 92e6 583d 562e 20be
00000120: 3570 92bc 81dd ae3d ef1e 0b3e a416 12be
00000130: 5cdb 58bd bbde ebbd ecfa 56bd b671 85be
00000140: d005 c9bd 8b63 873c 3008 6abd 81c6 9abb
00000150: 47da 48be 687f 28bd cba6 ef3d fec1 96be
00000160: 736e f8bd d62e 4abc 9176 14be dbb2 e3bd
00000170: a141 2bbd a717 0bbe 7ee6 46be f01e 893b
00000180: 6636 9b3b b4d7 d3be 1323 3dbe 18fb 97be
00000190: 1dc6 28be d46e bbbd 8746 90bd b9f3 453d
000001a0: dc8c 08be 9f28 bf3d f383 80bc 587f 95be
000001b0: 6d8d e4bd 642a 99bd 7a2b b13e 024f edbc
000001c0: 1325 193e 06b6 9cbe 8521 293d a98f 67be
000001d0: 1b49 46be 0e39 dfbd c6d1 e53c bd48 133e
000001e0: 42e0 3f3e 7202 b4bd bac0 743c 9532 953e
000001f0: fb22 183e bc85 5ebe 5d6d e1bd 9bb8 b5bd
00000200: a055 eb3c 9344 af3d 43a2 8a3d 4b95 8c3e
00000210: 89ed fd3d 55a5 94bd 0276 b03d 641d edbd
00000220: b83a 183e 06f9 90be f0f9 64bd 089d a53d
00000230: 4ac7 65bd 77af aa3d c8bd 313e e99d 84bd
00000240: 3b7a b0bc 5d49 1e3e 27d3 ecbc 70e7 923e
00000250: 739f b3bd 1ccb 90bc ed0d 3abe ae25 28be
00000260: 00ce 773e b0ba d2bd b127 fe3d 12cb eb3d
00000270: 293c a0bd 9971 fe3d 63a2 1c3e e4f7 203e
00000280: fe60 7cbe dadb d8bd 71cc d23d 450e 61be
00000290: 6b35 3fbe 8067 1e3d 89da 00bd b2f6 ae3c
000002a0: 410d 16bd ce7d 833b 76ba 3f3d 21e5 613e
000002b0: 6b69 2c3e 5865 053e 6a83 813e 0f4c b8bc
000002c0: 8f63 43be 4b5f 1e3e 1e0e f93d fb5e 153d
000002d0: d777 063e 1d09 89be 22f7 373e 6242 23be
000002e0: aac8 63be fa63 4b3e 0349 003e 9dfb ec3d
000002f0: bdbc 143e 2c06 043d 8e5e 703e 075d 353d
00000300: 4758 1abe 05f7 003e e2a4 eb3d 24f9 0d3e
00000310: 3a54 1b3e 531f 79be fa09 5c3e afb3 82be
00000320: e6bf 58be 7b01 fabd e024 513e 4ac5 89bd
00000330: a691 023e 5834 223e 8119 2d3c 2adb b6bc
00000340: 2f5c f53d 6bd6 babd 57d4 3cbc afd2 38be
00000350: 99b8 04be 618d 8fbe 5888 6fbe 00da cebd
00000360: b781 24be 34be a63e c943 9abe 3040 b1bd
00000370: d33e 563e 6b70 673e f751 6a3e 0cd0 52bd
00000380: b188 3fbe 9bf9 733e 3b88 a0be 9997 8f3e
00000390: 56b1 64be 382f b03e 6d88 6dbe 9f13 b63c
000003a0: ee9a b3bd cac2 ab3e 07f3 a5bd f456 dd3d
000003b0: c610 9ebe cf07 c1bd 270e 7fbe 3d5a f7bd
000003c0: a860 53be bb54 5d3c b653 6c3d 3a61 363c
000003d0: e318 ee3d f707 443e cdd1 813e 2152 f6bd
000003e0: 2732 093b 3389 b2bd 002a 133e f1a7 babc
000003f0: 7984 cc3d 1247 a9be 3c4a 84be 4707 7abe

q1.2.weight f4 [256, 256]
0.05043607 -0.1631777 -0.12260238 0.14173916 0.13956152 -0.36507148 0.17918247 0.102350384
-0.0687053 0.12670252 -0.0019462832 -0.2875432 -0.18697119 0.18744849 0.2080563 -0.038591616
0.13940446 -1.2213798 0.12546493 -0.009002789 -0.19228941 -0.66895044 0.034627933 0.13795927
-0.08856591 0.03355722 0.17317228 0.26523802 0.19961315 0.29861343 0.084469005 -0.13546434
-0.07343845 -0.09380756 0.031996574 0.064319655 0.0018489338 0.41946676 0.14441602 0.16902348
0.24815947 0.09726532 0.0053954776 -0.8864084 0.026171863 -0.115473725 0.05712553 0.33872077
0.14463763 0.14005703 0.052197598 0.09948379 0.06715057 0.07267134 -0.14039303 -0.041425228
-0.09193843 0.031919688 -0.034253236 0.07887621 -0.174364 -0.2619771 -0.008055679 -0.02687946
0.103578135 -1.1386106 0.13901713 -0.32593697 -0.29855603 -0.010331754 -0.027643792 -0.16977862
-0.40853593 -0.43848887 0.040902168 0.044654574 -0.15647237 0.65623975 0.017688684 0.04097907
0.05613772 0.016133806 0.00023243243 0.019618658 0.022251086 -0.026164744 0.053021286 -1.062858
-1.868184 0.03614276 0.41903016 0.118622586 -0.03907998 0.10298136 0.05348349 -0.4126201
0.107006304 -0.0746557 0.09847693 0.19293639 -0.050964367 -1.5989245 0.07998255 0.3196269
0.25115237 -0.07686566 0.16484205 0.015196177 0.043910813 -0.021202506 -0.116646945 -0.04234474
0.12019569 0.14818364 0.025442604 0.18665278 -0.43382764 -0.3098443 -0.41083464 -0.0034459946
-0.19186491 -0.23272622 -0.1656068 0.23099042 -0.16326253 0.14658631 0.43101925 -0.044431772
-0.1488401 -0.08233001 0.13473904 0.0028521032 -0.6680362 0.25976208 -0.12889594 0.17165062
0.06936598 0.13177326 -0.49577937 0.1507432 0.11194295 -0.22377937 -0.031353697 -0.36772665
-0.10787298 -0.3181789 -0.17732196 -1.0921376 -0.022040969 -0.13673264 0.04643675 0.08692249
0.12905882 0.12606616 0.011523206 -0.7490272 -0.85352665 -0.3267641 -0.037344668 -0.057080254
0.27253944 0.14514458 -0.053645022 0.18309104 0.006708912 -0.0578361 -0.034875315 -0.17151022
0.32611546 -0.3184925 -0.22394449 0.12904876 0.059597537 0.21936621 -0.20782088 -0.026670631
0.05678682 -0.09100939 0.14212795 -0.1470218 7.824486e-05 0.043032814 0.014212714 -0.046774264
0.24975091 0.12168593 -0.13593943 0.04045479 0.0012474332 -0.09146472 0.16025178 -0.1831254
0.19757256 0.12136477 -0.20606568 -0.083850846 -0.7804164 0.16080226 0.05482771 -0.05112378
0.064496934 -0.014367342 0.021700135 0.08241667 -0.2919666 -0.10507101 -0.1331294 -0.25242963
0.0038196496 -0.10309219 0.009994759 0.14089596 0.06588097 0.14816651 -0.2387002 0.019622639
-0.029173655 0.11309416 0.1954451 0.015649064 -0.15095414 0.010542948 -0.15717864 -0.011584727
0.059137944 0.092657246 0.04063981 -2.140811 -0.45166323 -0.9063083 0.0032956228 -0.022748396
-1.2607447 -0.22041379 0.26550773 0.094860345 1.1354121 -0.5659954 -0.14881392 0.08739884
0.18601474 0.16915701 -0.06003437 -0.34953195 -0.08942398 -0.27204135 0.0075438693 -0.13510181
-0.0053002886 -2.8546731 -0.3477242 -0.011601069 0.042691182 0.10993908 -0.06765042 -0.022865498
00000000: 0d96 4e3d 0e18 27be f516 fbbd 1224 113e
00000010: 37e9 0e3e a6ea babe 9c7b 373e 149d d13d
00000020: 5db5 8cbd 4ebe 013e 6d1a ffba dd38 93be
00000030: 6075 3fbe 7ff2 3f3e b60c 553e 3e12 1ebd
00000040: 0bc0 0e3e 2c56 9cbf e179 003e 6f80 13bc
00000050: 84e7 44be 5640 2bbf 05d6 0d3d 3245 0d3e
00000060: 0b62 b5bd 4c73 093d 1354 313e 47cd 873e
00000070: 6467 4c3e dce3 983e 16fe ac3d 2ab7 0abe
00000080: e666 96bd 2e1e c0bd d70e 033d 06ba 833d
00000090: ec57 f23a 59c4 d63e cbe1 133e 7e14 2d3e
000000a0: 841d 7e3e 0a33 c73d 8ccc b03b a9eb 62bf
000000b0: 6066 d63c 7d7d ecbd 76fc 693d cf6c ad3e
000000c0: e31b 143e 1c6b 0f3e 26cd 553d 28be cb3d
000000d0: 3d86 893d b6d4 943d 31c3 0fbe 80ad 29bd
000000e0: 374a bcbd 38be 023d 1f4d 0cbd da89 a13d
000000f0: 7a8c 32be dd21 86be f7fb 03bc 5032 dcbc
00000100: c620 d43d febd 91bf 825a 0e3e 36e1 a6be
00000110: 56dc 98be 8446 29bc 3c75 e2bc 72da 2dbe
00000120: 9f2b d1be 9d81 e0be 0889 273d b7e7 363d
00000130: 4b3a 20be 54ff 273f dce7 903c abd9 273d
00000140: aaf0 653d 0b2b 843c 1bb9 7339 4fb7 a03c
00000150: e947 b63c 7257 d6bc d92c 593d bb0b 88bf
00000160: a720 efbf 6e0a 143d 1f8b d63e 66f0 f23d
00000170: 5412 20bd e4e7 d23d 8111 5b3d f142 d3be
00000180: 1f26 db3d 16e5 98bd 46ae c93d 1e91 453e
00000190: 03c0 50bd 8fa9 ccbf e4cd a33d 23a6 a33e
000001a0: 0b97 803e be6b 9dbd 5bcc 283e 63f9 783c
000001b0: d3db 333d e1b0 adbc 98e4 eebd ae71 2dbd
000001c0: 2829 f63d 74bd 173e 026d d03c e821 3f3e
000001d0: a81e debe e9a3 9ebe eb58 d2be 32d6 61bb
000001e0: 3c78 44be c84f 6ebe d494 29be c188 6c3e
000001f0: 4b2e 27be b91a 163e 8eae dc3e 17fe 35bd
00000200: 8a69 18be a39c a8bd 08f9 093e 5aea 3a3b
00000210: 6c04 2bbf 89ff 843e 4cfd 03be 2ec5 2f3e
00000220: c00f 8e3d 92ef 063e cbd6 fdbe 6d5c 1a3e
00000230: 5842 e53d 6b26 65be bc6c 00bd ab46 bcbe
00000240: 82ec dcbd 58e8 a2be e393 35be 2acb 8bbf
00000250: 438f b4bc a403 0cbe 7634 3e3d 6b04 b23d
00000260: ff27 043e 7d17 013e d4cb 3c3c 3fc0 3fbf
00000270: b980 5abf a04d a7be b9f6 18bd fccc 69bd
00000280: 4a8a 8b3e c8a0 143e e2ba 5bbd 387c 3b3e
00000290: 6fd6 db3b 8ce5 6cbd 6bd9 0ebd 60a0 2fbe
000002a0: 9bf8 a63e 7311 a3be b451 65be 5c25 043e
000002b0: 8c1c 743d 89a1 603e ffce 54be 5e7c dabc
000002c0: 4c99 683d 2263 babd fd89 113e e28c 16be
000002d0: 6417 a438 2d43 303d 71dc 683c 5f96 3fbd
000002e0: b4be 7f3e 7936 f93d b533 0bbe ecb3 253d
000002f0: ea80 a33a db51 bbbd 0b19 243e 3a85 3bbe
00000300: 7650 4a3e 188e f83d e202 53be feb9 abbd
00000310: 5fc9 47bf 59a9 243e 0593 603d 2b67 51bd
00000320: f816 843d 0065 6bbc 7bc4 b13c 12ca a83d
00000330: a57c 95be 782f d7bd 1353 08be 753e 81be
00000340: 1653 7a3b 0022 d3bd 0fc1 233c 0847 103e
00000350: 9aec 863d f6b8 173e d36d 74be a8bf a03c
00000360: 97fd eebc e99d e73d c322 483e 7732 803c
00000370: b993 1abe 54bc 2c3c 70f3 20be decd 3dbc
00000380: a13a 723d 15c3 bd3d ee75 263d 0c03 09c0
00000390: 6740 e7be d203 68bf 60fb 573b d85a babc
000003a0: 1560 a1bf 27b4 61be a1f0 873e 2446 c23d
000003b0: 2f55 913f 13e5 10bf ad62 18be 2afe b23d
000003c0: a67a 3e3e 7f37 2d3e 99e6 75bd daf5 b2be
000003d0: eb23 b7bd 0149 8bbe 9032 f73b 2158 0abe
000003e0: 0bae adbb f7b2 36c0 e808 b2be 6912 3ebc
000003f0: f3dc 2e3d be27 e13d 4e8c 8abd 6d50 bbbc
