SAC/checkpoints/HalfCheetah-v4/01_best_agent.pth (torch, 878375 bytes, 17 tensors)

log_alpha f8 []
0	0xc0029dd556fe26fd	-2.327067069655526

actor.0.weight f4 [256, 17]
0	0xc0778b60	-3.8678818
1	0xc033b0b5	-2.8076603
2	0xbfabcf98	-1.3422728
3	0x3eef17d1	0.46697858
4	0x3dbbe751	0.091749795
5	0xbfc84841	-1.564705
6	0xbf2bc83e	-0.6710242
7	0x3e0e9a60	0.13926077
8	0xbe22f1df	-0.15912579
9	0xbf87355b	-1.0563158
10	0xbf32677c	-0.69689155
11	0x3c135a85	0.0089937495
12	0xbe7c1349	-0.24616732
13	0xbd3ffc7e	-0.046871655
14	0xbcc6ee8f	-0.024283675
15	0xbe46ff75	-0.19433387
16	0xbd589f90	-0.052886546
17	0x401d6474	2.4592562
18	0xbfcaaede	-1.5834615
19	0x3f051eef	0.52000326
20	0xbddc99e7	-0.10771542
21	0x3e704efb	0.23467629
22	0xbf35c420	-0.7100239
23	0x3f2abe8a	0.6669699
24	0x3e027b0a	0.12742248
25	0xbf698769	-0.91222245
26	0xbef9abf1	-0.48763993
27	0xbe9ae3cf	-0.3025193
28	0xbd9ed94c	-0.0775629
29	0xbe882ce0	-0.26596737
30	0x3b3210a4	0.0027170563
31	0x3e85829c	0.2607621
32	0x3d939f4d	0.072081186
33	0x3e79ec55	0.2440656
34	0x4058092c	3.3755598
35	0xbfbe5c87	-1.4871987
36	0xbeed0b35	-0.46297613
37	0xbf39e6c9	-0.72617775
38	0xbea9044e	-0.33011097
39	0xbfcf5ff2	-1.6201155
40	0x3fb1907b	1.3872217
41	0x3e2278a8	0.15866339
42	0xbeb6d4f3	-0.35709342
43	0xbe35e7c7	-0.17764197
44	0x3e036bb1	0.1283405
45	0x3eb7bb82	0.35885245
46	0x3e20b4cc	0.15693969
47	0xbd0b2c31	-0.03397769
48	0xbdab9c8e	-0.0837947
49	0xbe69f262	-0.22846368
50	0x3e68f232	0.2274864
51	0xc1443dca	-12.265085
52	0x3fc7be8b	1.5605024
53	0x4013e13d	2.3106225
54	0xbeef7f49	-0.46776798
55	0x3ed9659b	0.4246033
56	0xbec7b242	-0.39003187
57	0xbfbd7be5	-1.4803435
58	0xbf58ceeb	-0.8469073
59	0xbe68a5d7	-0.22719513
60	0xbf66b39f	-0.9011783
61	0x3d4893bd	0.04896902
62	0xbd8484d5	-0.06470648
63	0xbd060804	-0.032722488
64	0xbcaf8aef	-0.021428553
65	0x3d22281b	0.03958903
66	0x3d710be1	0.05884922
67	0x3c6f8ddc	0.014621224
68	0xbfd58b7e	-1.6683195
69	0x3f927ec7	1.1444939
70	0x3f4f63e7	0.81011814
71	0x3ff9044f	1.945444
72	0x3ff19646	1.8873985
73	0x3f658432	0.8965484
74	0x3f156a14	0.5836499
75	0xbef0693d	-0.4695529
76	0xbf3af7ef	-0.73034567
77	0xbfafb67f	-1.3727568
78	0xbefe8836	-0.49713296
79	0x3f031e10	0.51217747
80	0xbda286f3	-0.07935896
81	0x3dd2c597	0.102915935
82	0xbe6ffb82	-0.23435786
83	0xbda2c145	-0.079470195
84	0x3dca4af8	0.098775804
85	0x3f4810ad	0.78150445
86	0xbfa64da7	-1.2992448
87	0xbd107214	-0.035265043
88	0xbc63289b	-0.013864662
89	0x3ff3e030	1.9052792
90	0x3fa1c6b6	1.2638767
91	0xbf1795de	-0.59213054
92	0x3f8b9437	1.0904607
93	0xbdd66a05	-0.1046944
94	0x3ebc73c3	0.3680707
95	0xbc4ff9f1	-0.012693868
96	0x3d5dbb9c	0.054133996
97	0x3d7ff940	0.062493563
98	0xbe247f94	-0.16064292
99	0x3e4e4404	0.20143133
100	0xbe09b627	-0.13448392
101	0x3e0d4515	0.13795884
102	0x412151a9	10.082437
103	0x408fe437	4.4966083
104	0xc00bc3ec	-2.1838331
105	0xbf012319	-0.5044418
106	0x3cd3c0a6	0.025848698
107	0x3f58b632	0.8465301
108	0x3e9da56b	0.30790266
109	0xbdf2e9e5	-0.11861018
110	0xbd2c0b7c	-0.04200314
111	0x3f1dfda3	0.61715144
112	0x3e6ac926	0.22928295
113	0xbcab1ac3	-0.020886784
114	0x3d232858	0.039833397
115	0x3c7e5b3b	0.015524681
116	0x3d8ebded	0.06969819
117	0x3d48eec2	0.049055822
118	0xbbda52fe	-0.0066627255
119	0xc0f5649a	-7.6685305
120	0xbef1636f	-0.47146174
121	0x3fbd3340	1.4781265
122	0xbf5394a4	-0.8264868
123	0xbf0c8200	-0.54885864
124	0xbf7b7034	-0.98218083
125	0x3f3c08e4	0.73451066
126	0xbe8d7761	-0.2763014
127	0xbcba3e3a	-0.02273475
128	0xbe8c64bb	-0.274206
129	0xbf3418dc	-0.7035043
130	0xbe06690c	-0.1312601
131	0xbe2a5922	-0.16635564
132	0xbd77b94c	-0.060479447
133	0xbde132c0	-0.10996008
134	0xbcbb3746	-0.022853505
135	0x3a4a618a	0.0007720223
136	0x404f4b41	3.2389681
137	0xbfeb637b	-1.8389734
138	0x3eb87bf5	0.36032072
139	0x3e6d9334	0.23200685
140	0x3f86dd4f	1.0536288
141	0xbf255263	-0.6457884
142	0xbf840130	-1.0312862
143	0xbf5ac1fd	-0.8545225
144	0xbd4310e4	-0.04762353
145	0xbf3f5c7f	-0.7475051
146	0xbf0f2401	-0.5591431
147	0xbe625023	-0.22100882
148	0x3e33cc55	0.17558415
149	0x3e07e3cf	0.13270496
150	0xbe1a39e4	-0.15061146
151	0xbd7e6c92	-0.06211526
152	0xbbdfdb64	-0.0068315733
153	0x40790c77	3.8913858
154	0xbf82dcc8	-1.0223627
155	0x3fbd262b	1.4777273
156	0xbf906e4b	-1.1283659
157	0x3ea0abc0	0.31381035
158	0x3f42d164	0.76100755
159	0x3e060447	0.13087569
160	0x3f676c3b	0.9039952
161	0xbf416b8d	-0.75554734
162	0x3ec4fed2	0.38475662
163	0xbf1cd7b7	-0.61266655
164	0x3dc0d343	0.09415295
165	0x3daa43be	0.08313702
166	0xbe88679e	-0.26641554
167	0xbd8d3e06	-0.06896596
168	0x3d57dcb3	0.05270071
169	0xbe95ccd7	-0.29257843
170	0xbc22a3ec	-0.009926777
171	0xc07bee21	-3.9364092
172	0xc0252fd9	-2.5810454
173	0xbf5ffd88	-0.87496233
174	0xbf5a0ccb	-0.8517577
175	0xbfa93e65	-1.3222166
176	0xbfbd856b	-1.4806341
177	0xbfa0cb10	-1.256197
178	0xbebf623f	-0.37379643
179	0x3f73eede	0.9528636
180	0xbf5b0831	-0.85559374
181	0x3d51b049	0.05119351
182	0x3d90e573	0.07075014
183	0x3da99ccd	0.082818605
184	0xbd7e24a0	-0.062046647
185	0xbe431ed4	-0.19054729
186	0x3d98a341	0.07453013
187	0xbe5709ff	-0.20999907
188	0xbff43452	-1.9078467
189	0xbf80ca8a	-1.006181
190	0xbe9d2b3a	-0.30697042
191	0x3f5e4f39	0.86839634
192	0x3f604df1	0.8761893
193	0x3eb5ddb5	0.35520712
194	0x3f579efd	0.8422697
195	0xbee670d6	-0.45007962
196	0xbf03b589	-0.51448876
197	0xbf870834	-1.0549378
198	0x3e56bbe5	0.20970114
199	0x3dc85a51	0.097828515
200	0xbe5004c2	-0.20314315
201	0xbe4a187a	-0.197359
202	0xbddd312d	-0.10800395
203	0xbe39501e	-0.18096969
204	0xbfecd4b3	-1.8502411
205	0xc0294b58	-2.6452236
206	0xbe038ea5	-0.12847383
207	0xbf81c81e	-1.0139196
208	0xbed10e84	-0.40831387
209	0xbf6441a5	-0.89162666
210	0xbf521471	-0.8206244
211	0x3fb12c97	1.3841733
212	0xbf444057	-0.76660675
213	0x3f503056	0.81323755
214	0xbd8bda26	-0.06828718
215	0x3e8b94e7	0.2726204
216	0x3eadb4ad	0.33926907
217	0x3e785698	0.24251783
218	0xbc7f42c5	-0.015579884
219	0xbd03b31a	-0.032153226
220	0xbe289893	-0.16464452
221	0xc08c3844	-4.3818684
222	0x3f5694c3	0.8382074
223	0xbfb7ab1f	-1.4349097
224	0xc00f479a	-2.2387452
225	0x3dc8d4bd	0.098062016
226	0xbf762d6f	-0.96163076
227	0x3dc80bd0	0.09767878
228	0x3fb7e9e7	1.4368256
229	0xbef9a8cf	-0.48761603
230	0x3eceda4b	0.4040092
231	0xbf94dba6	-1.1629531
232	0xbdc406c4	-0.09571603
233	0xbdbcc4a2	-0.09217192
234	0xbdb7d194	-0.08975521
235	0xbc03d012	-0.008045213
236	0xbd38fce7	-0.04516306
237	0x3de37c87	0.11107736
238	0x3fe21491	1.7662526
239	0x3fb87f1e	1.4413793
240	0xbee15257	-0.44008133
241	0xbecce119	-0.40015486
242	0x3edd6c63	0.43246755
243	0x3f04f927	0.51942676
244	0x3ee81d19	0.453347
245	0x3fbd1da8	1.4774675
246	0xbf32f6cf	-0.6990785
247	0x3f1ccd19	0.61250454
248	0x3f99f928	1.2029161
249	0x3e5123e0	0.20423841
250	0x3ca0781e	0.019588526
251	0x3cd6fcd7	0.02624361
252	0x3e6ab125	0.22919138
253	0x3c74d2b7	0.014942816
254	0xbe9698e4	-0.2941352
255	0x3e4f22d5	0.20228131

actor.0.bias f4 [256]
0	0xbec5e230	-0.3864913
1	0xbf3e3bfc	-0.7431028
2	0xbe1cc6bb	-0.15310185
3	0xbf52fd5e	-0.8241786
4	0xbfab3f0e	-1.3378618
5	0xbf41ae80	-0.7565689
6	0xbf8ba270	-1.0908947
7	0xbdaaa1ad	-0.083316185
8	0xbfc9589f	-1.573017
9	0xbf86c0d1	-1.0527593
10	0xbefb2c04	-0.4905702
11	0xbea56f71	-0.32311586
12	0x3ec28db4	0.37998736
13	0xbf5947e8	-0.84875345
14	0xbfa108b4	-1.2580781
15	0xbf061b5c	-0.523855
16	0x3e6993b8	0.22810256
17	0xbff0896d	-1.8791939
18	0x3e8248e1	0.25446227
19	0xc00c8b88	-2.1960163
20	0xbe6d6e8e	-0.23186705
21	0xbf9c817c	-1.2227015
22	0x3e40d443	0.18830971
23	0xbf83997a	-1.0281212
24	0xbf89b4e9	-1.0758334
25	0xbf82e00d	-1.0224625
26	0xbfde0850	-1.7346287
27	0xbe9667e4	-0.29376137
28	0xbfa52339	-1.2901374
29	0xbfc75948	-1.5574121
30	0xbf2c02a0	-0.67191505
31	0xbe24aa63	-0.16080622
32	0xbff83dbd	-1.9393841
33	0xbf9e24d3	-1.2354988
34	0xbf000da8	-0.5002084
35	0x3f4083c2	0.75201046
36	0xbfab6c9d	-1.3392521
37	0xbf3072b2	-0.6892501
38	0xc03437a4	-2.815896
39	0xbeeedd38	-0.46653152
40	0x3dec23be	0.11530255
41	0x3e9e1fd5	0.3088366
42	0xbf94a935	-1.1614138
43	0xbe4b94c5	-0.1988097
44	0xbf811e69	-1.0087405
45	0xbe73480b	-0.23757951
46	0xbe1d7629	-0.15377106
47	0xbf8e6dc2	-1.1127245
48	0xbf9a9e40	-1.2079544
49	0xbf7cd96a	-0.9876925
50	0xbfb86f2a	-1.4408925
51	0xbef391c9	-0.47572163
52	0xbf48cc5f	-0.78436846
53	0xbeef0ff6	-0.46691865
54	0xc025d5a3	-2.5911644
55	0xbfceef42	-1.6166766
56	0xbec33b84	-0.38131344
57	0xbf5d76cb	-0.8650939
58	0x3f5248c8	0.82142305
59	0xbfe65218	-1.7993803
60	0xbfccbf09	-1.5995799
61	0x3ebf9f6d	0.3742632
62	0xbfe3019d	-1.7734867
63	0xbfcf7051	-1.6206151
64	0xbea57732	-0.323175
65	0xbf6d15fd	-0.92611676
66	0xbfcba5e0	-1.5909996
67	0xbf72200e	-0.9458016
68	0xbd87f6a4	-0.0663884
69	0xbf99cc1b	-1.2015413
70	0x3fdb6db1	1.714285
71	0xbf4f36e6	-0.80943143
72	0xbfbf7d48	-1.4960108
73	0xbf7ce105	-0.9878085
74	0x3ee94a8d	0.4556469
75	0x3e818243	0.25294694
76	0xbce8876a	-0.028384883
77	0xbfb52ea7	-1.4154862
78	0xbfc106f3	-1.5080246
79	0xbf420da5	-0.7580207
80	0xbdf6a3ce	-0.12042962
81	0xbff44f71	-1.9086744
82	0xbed56029	-0.41674927
83	0xbfe3d55e	-1.779949
84	0xbfd75fa2	-1.682606
85	0xbf74fd5e	-0.9569911
86	0xbedc8012	-0.4306646
87	0xbea03a9a	-0.3129471
88	0xbf848e1e	-1.0355871
89	0xbf48bc62	-0.7841245
90	0x3f9d1771	1.2272779
91	0xbe2c7712	-0.16842297
92	0xbf7cc2dc	-0.9873483
93	0xbeee8fec	-0.4659418
94	0xbecea628	-0.40361142
95	0xbebbd64c	-0.36686933
96	0xbf78b6a2	-0.97153676
97	0xbf804ea0	-1.0023994
98	0xbf0a6860	-0.54065514
99	0x3e4a4c15	0.19755585
100	0xbf359814	-0.7093518
101	0xbf500acc	-0.81266475
102	0xbf21f7a9	-0.63268524
103	0x3f8df882	1.1091464
104	0xbfb711e5	-1.4302336
105	0xbf865e05	-1.0497442
106	0xbfdd5f5d	-1.7294728
107	0xbf6f7c71	-0.9354926
108	0x3f514229	0.8174158
109	0x3f6d0202	0.9258119
110	0xbfdb670e	-1.7140825
111	0xbfa6184b	-1.2976164
112	0xbfb1ed82	-1.3900607
113	0xbed60a5e	-0.41804785
114	0xbd870686	-0.06593041
115	0xbf598347	-0.8496594
116	0xbee11b69	-0.43966225
117	0xbfb1ea42	-1.3899615
118	0xbf269a1b	-0.65078896
119	0xbf473bdd	-0.7782572
120	0xbfccbb1a	-1.5994599
121	0x3f0d330f	0.55156034
122	0xbfce26b1	-1.6105558
123	0xbfb21b77	-1.3914632
124	0xbe27a99b	-0.16373293
125	0x3f9cf403	1.2261966
126	0xbf9bbbdb	-1.2166704
127	0xbfd17141	-1.6362687
128	0xbf1579e6	-0.5838913
129	0x3fab0a7a	1.3362572
130	0xbf38229d	-0.71927816
131	0xbf8c27c1	-1.0949632
132	0xbf84ceaa	-1.0375569
133	0xbf8629f3	-1.0481552
134	0xbfb99de8	-1.4501314
135	0xbf88f705	-1.0700384
136	0xbfab0aec	-1.3362708
137	0xbe03b3ce	-0.12861559
138	0xbf31bbd2	-0.69427216
139	0x3f3e88d4	0.74427533
140	0xbf169de7	-0.5883469
141	0xbf6eec98	-0.93329763
142	0x4000b7e1	2.011223
143	0xbf5073ea	-0.8142687
144	0xbe56ff90	-0.20995927
145	0xbf877009	-1.0581065
146	0xbf1cd36a	-0.6126009
147	0xbeed4883	-0.46344385
148	0x3fd8d2f9	1.6939384
149	0x3c99e4c2	0.018785838
150	0xbfb6a077	-1.426772
151	0xbfac8bd8	-1.3480177
152	0xbf5f83a2	-0.8731023
153	0xbea272ee	-0.3172831
154	0xbec45a0d	-0.38349953
155	0xbf219b39	-0.63127476
156	0xbf94ac7a	-1.1615136
157	0xbf2d51b1	-0.67702776
158	0xbf95d6c3	-1.1706165
159	0xc009b42a	-2.1516213
160	0x3f285915	0.6576093
161	0x3db248d1	0.08705295
162	0xbee7d09e	-0.4527635
163	0xbf05bffe	-0.5224608
164	0xbebd5046	-0.36975306
165	0xbeefe968	-0.46857762
166	0xbff79dd6	-1.9345043
167	0xbf9f2930	-1.2434444
168	0xbf9b4782	-1.2131197
169	0xbf29e36c	-0.66362643
170	0xbf9e6a4f	-1.2376193
171	0xbf408ac9	-0.7521177
172	0xbf55c874	-0.8350899
173	0xbf2337f9	-0.6375728
174	0xbfaa0f7d	-1.3285977
175	0xbf6e5cda	-0.9311043
176	0xbfdd2452	-1.7276709
177	0xbf2b0844	-0.6680949
178	0x3fbb2d4d	1.46232
179	0xbf519384	-0.81865716
180	0x3e4fd219	0.2029499
181	0xbed83812	-0.42230278
182	0x3e686d46	0.22697935
183	0xbf3939a8	-0.723536
184	0xbf91cb98	-1.1390257
185	0xbfa22d05	-1.2669989
186	0xbdf84a48	-0.12123543
187	0xbfcbce5b	-1.592235
188	0xbd2a9be8	-0.04165259
189	0xbf5d842a	-0.8652979
190	0xbf5e4413	-0.86822623
191	0xbfbccbef	-1.4749736
192	0xbf894478	-1.072402
193	0xbf97996a	-1.1843693
194	0xbf64d865	-0.8939269
195	0xbee85703	-0.45378885
196	0xbfbb6f7c	-1.4643397
197	0xbf8bff35	-1.0937258
198	0xbfa61a99	-1.2976867
199	0xbf806eb8	-1.0033789
200	0xbd7df120	-0.061997533
201	0xbf00a224	-0.50247407
202	0xbf3040ba	-0.68848765
203	0xbf0e7f42	-0.5566293
204	0xc025b522	-2.5891805
205	0x3fa76690	1.3078175
206	0x400235cf	2.0345342
207	0xc0004ca8	-2.0046787
208	0xbf83256c	-1.0245795
209	0xc009158f	-2.1419408
210	0xbf4895c5	-0.7835353
211	0xbefa3e48	-0.48875642
212	0xc013fce9	-2.3123114
213	0xc00519f9	-2.0797102
214	0xbfb0a576	-1.3800495
215	0xbcfbee22	-0.030753199
216	0xbf9b81c3	-1.2148975
217	0xbf4c14d2	-0.7971927
218	0xbef9ddea	-0.4880212
219	0x3e2e57ed	0.17025729
220	0xbeec96ec	-0.46208894
221	0xbf9f1215	-1.2427393
222	0xbf9ffb59	-1.249858
223	0x3df328c2	0.11873008
224	0xbfaa633d	-1.3311535
225	0xbf4925d1	-0.7857333
226	0xbfa6220f	-1.2979144
227	0xbf858f78	-1.0434408
228	0x3e7e91fa	0.24860373
229	0xbf9702ab	-1.1797689
230	0xbfa39e62	-1.278271
231	0x3f8e1550	1.1100254
232	0x3f1538fd	0.5829008
233	0xbf9dfdf3	-1.2343124
234	0xbf133d58	-0.5751548
235	0xbf4dc9d3	-0.80386084
236	0xbe526368	-0.20545733
237	0x401fb73d	2.495559
238	0x3f48b482	0.78400433
239	0xbefef9a9	-0.4979985
240	0x3f5b224c	0.8559921
241	0xbf800d38	-1.0004034
242	0xbf46a65b	-0.7759759
243	0xbf3b6b74	-0.73210835
244	0xbf5ce126	-0.8628105
245	0xbf2d5ce8	-0.6771989
246	0x3ef7a348	0.4836676
247	0xbfc05c7d	-1.5028225
248	0x3ed0c855	0.4077784
249	0xbdfbec52	-0.12300934
250	0xbf1ee4ae	-0.6206769
251	0xbeb77eaf	-0.3583884
252	0xbe05f0d2	-0.13080147
253	0xbf3c4e79	-0.7355724
254	0xbf3294bb	-0.69758195
255	0xbf17e2bf	-0.5933036

actor.2.weight f4 [256, 256]
0	0x3e8646fa	0.26226026
1	0x3f6f71d6	0.93533075
2	0x3edc8b74	0.43075144
3	0xbf5e1e38	-0.8676486
4	0xbfe5b469	-1.7945682
5	0x3e122c43	0.14274697
6	0x3ec1c439	0.37845019
7	0xbe8fdc9b	-0.28097996
8	0x3f4a1909	0.7894445
9	0x3f85b43f	1.0445632
10	0xbf2956f8	-0.6614833
11	0xbf07c66c	-0.5303714
12	0xbefda866	-0.4954254
13	0xbe3bd407	-0.18342601
14	0x3fd6af18	1.6772184
15	0xbf1a4eb4	-0.6027634
16	0x3f6e07d4	0.92980695
17	0x3e5550fa	0.20831671
18	0xbf10fc0c	-0.56634593
19	0xbed46965	-0.4148666
20	0x3f1891f4	0.59597707
21	0x3e2a29a4	0.16617447
22	0x3e8d2f48	0.27575135
23	0xbf03f9b6	-0.51552904
24	0xbef4020a	-0.47657806
25	0x3f2d9c32	0.6781646
26	0x3ed15eba	0.40892583
27	0xbf57e877	-0.8433909
28	0xbf4fdb9e	-0.81194484
29	0xbfda7262	-1.7066157
30	0xbf295218	-0.6614089
31	0xbf167ca7	-0.58783954
32	0x3c768879	0.015047186
33	0xbf25ab6b	-0.6471469
34	0x3edc11dc	0.42982376
35	0xbd8d7559	-0.06907148
36	0xbfe50090	-1.7890797
37	0xbe597739	-0.21236886
38	0x3ebb96a2	0.3663836
39	0x3e932b3a	0.28743917
40	0x3e2f03b1	0.17091252
41	0x3e2715af	0.16316865
42	0xbe6a0f47	-0.2285739
43	0xbf71e289	-0.9448629
44	0xbf5260b9	-0.8217884
45	0xbf1ac6ae	-0.6045941
46	0xbe952e56	-0.29136914
47	0x3bcea6d5	0.006306509
48	0xbf56d7a9	-0.8392282
49	0xbda734d9	-0.08164377
50	0xbfd6f5c6	-1.6793754
51	0xbeef7967	-0.4677231
52	0xbe5c9213	-0.21540098
53	0xbefd58b5	-0.4948174
54	0x3f795b00	0.9740448
55	0x3df6a80a	0.1204377
56	0xbedeacda	-0.4349125
57	0x3f9e7198	1.2378416
58	0xbfa9d151	-1.3267003
59	0xbeed6752	-0.4636789
60	0xbdf9e6b9	-0.1220221
61	0x3e6ad6f5	0.22933562
62	0xbd61627f	-0.055025574
63	0x3ede6f33	0.43444213
64	0x3ed09b27	0.40743372
65	0xba7dcce5	-0.0009681716
66	0x3e270b4c	0.16312903
67	0xbef20458	-0.4726894
68	0xbf20aee9	-0.6276689
69	0x3e8597c9	0.26092365
70	0x3dc31c32	0.09526862
71	0x3f38abdf	0.72137254
72	0xbfc7cfc9	-1.5610286
73	0x3ea03fe3	0.31298742
74	0x3f334bcc	0.7003753
75	0xbe3200b6	-0.17383084
76	0xbf762779	-0.9615398
77	0xbf9ba4fc	-1.2159724
78	0x3fe80152	1.8125403
79	0x3e3d2d8c	0.18474406
80	0xbeba766e	-0.3641848
81	0x3e033627	0.12813626
82	0x3ea2ab21	0.31771186
83	0xbf073112	-0.5280925
84	0xbfa72d68	-1.3060732
85	0x3f287da0	0.6581669
86	0x3f9ea00a	1.239259
87	0x3dc25f02	0.094907776
88	0xbf8224de	-1.0167501
89	0xbf07fc65	-0.531195
90	0xbf24764a	-0.64242995
91	0xbf23fefd	-0.64060956
92	0xbf8e145e	-1.1099966
93	0xbf5b8b8e	-0.8575982
94	0xbee8fe9e	-0.45506757
95	0x3cfa6cdd	0.030569488
96	0xbf0fc12c	-0.5615413
97	0x3ed947cc	0.4243759
98	0x3eb4c180	0.3530388
99	0xbf1c4e46	-0.61056936
100	0x3ea57cf5	0.32321897
101	0xbe8cf378	-0.27529502
102	0x3dcb3cf7	0.099237375
103	0xbceed026	-0.029151987
104	0xbf558350	-0.8340349
105	0xbf46042f	-0.77350134
106	0xbf2de388	-0.6792531
107	0xbec60fea	-0.38684016
108	0x3da378bb	0.07982012
109	0xbf98dd5e	-1.1942556
110	0x3e8f7af1	0.28023484
111	0xbec5dc0e	-0.3864445
112	0xbfa63af3	-1.298674
113	0x3e64b0b5	0.22333033
114	0x3e3252a8	0.17414343
115	0x3f4247ea	0.7589098
116	0xbe70c932	-0.2351425
117	0x3e4b2250	0.19837308
118	0xbcb23c08	-0.02175714
119	0xbeada62c	-0.33915842
120	0xbf14bfda	-0.5810524
121	0x3eb8cb99	0.36092833
122	0x3e4b1365	0.19831617
123	0xbf365be2	-0.7123395
124	0x3ebf077d	0.373104
125	0xbf94999f	-1.1609381
126	0x3ea94a48	0.33064485
127	0xbdd7cf07	-0.10537534
128	0xbdca01c7	-0.0986362
129	0xbf017abb	-0.50577897
130	0xbe9e28d9	-0.3089054
131	0x3ea03129	0.31287506
132	0xbf926260	-1.1436272
133	0x3f954199	1.1660644
134	0xbf915662	-1.1354487
135	0xbff86896	-1.9406917
136	0xbfceeb51	-1.6165563
137	0x3efb6475	0.4910008
138	0xbee6d3ef	-0.45083568
139	0xbf917a64	-1.1365476
140	0xbeef4e0f	-0.4673924
141	0xbf3bc86f	-0.7335271
142	0x3ea562db	0.32301983
143	0x3d2af199	0.04173431
144	0x3d902cd5	0.07039801
145	0x3f128da8	0.572474
146	0xbeb27977	-0.34858295
147	0xbf07e871	-0.5308905
148	0xbda9c648	-0.08289772
149	0x3d1223b1	0.03567857
150	0xbfacbe8e	-1.3495653
151	0x3e9065da	0.28202707
152	0xbef60e83	-0.48057947
153	0x3edff395	0.43740526
154	0xbee19c4b	-0.44064555
155	0x3dcac9d8	0.0990178
156	0x3c43fa53	0.011961537
157	0xbf5f6bb5	-0.8727372
158	0x3e9aff3a	0.30272847
159	0x3e677377	0.2260264
160	0x3f2bfaf3	0.67179793
161	0x3f02ac88	0.5104451
162	0x3f079714	0.529649
163	0xbeb4472e	-0.35210556
164	0xbd998066	-0.07495193
165	0xbeb30917	-0.34967873
166	0x3f8198c9	1.0124751
167	0xbe2bddfd	-0.167839
168	0xbf3d0d12	-0.7384807
169	0xbf6bbdc5	-0.9208644
170	0x3e328669	0.17434086
171	0xbe6b6f11	-0.22991587
172	0xbe8763d5	-0.26443353
173	0xbf0a0def	-0.5392751
174	0xbe016e99	-0.12639846
175	0xbe0ecb82	-0.1394482
176	0xbdc42cfd	-0.09578893
177	0x3ec154db	0.37760052
178	0x3e1e844e	0.15480158
179	0x3c563578	0.013074271
180	0x3d1bf799	0.038077924
181	0xbf492862	-0.78577244
182	0xbf4d4810	-0.80188084
183	0xbf81cd88	-1.0140848
184	0x3db9b61e	0.09067939
185	0x3bcb97c0	0.0062131584
186	0xbded9376	-0.116003916
187	0x3dbf8526	0.09351568
188	0x3f2a5481	0.6653519
189	0x3d43dce2	0.047818072
190	0xbed654c8	-0.41861558
191	0xbf679645	-0.9046367
192	0x3f45e56a	0.77303183
193	0xbf1b28e9	-0.606093
194	0xbd79d6bf	-0.060995813
195	0x3eeb6354	0.4597422
196	0xbe07140b	-0.1319124
197	0x3e5c26fd	0.21499248
198	0xbd0f6c70	-0.035015523
199	0xbf097572	-0.5369483
200	0x3ea15ced	0.3151621
201	0x3e4e98c1	0.20175458
202	0xbd19b1b1	-0.037522975
203	0x3f2270d6	0.63453424
204	0xbf47f041	-0.78100973
205	0x3df358a0	0.11882138
206	0xbee22113	-0.4416586
207	0xbeba0d46	-0.36338252
208	0xbdae4332	-0.0850891
209	0x3d50e262	0.050997145
210	0xbdca0991	-0.09865106
211	0xc0076ea1	-2.1161273
212	0x3e8e2661	0.27763656
213	0xbf2afe7e	-0.66794574
214	0x3d41dc20	0.04732907
215	0xbc187af4	-0.009306658
216	0xbd2a00ad	-0.04150455
217	0xbe641856	-0.22274908
218	0x3e1de0b5	0.1541775
219	0x3ede2167	0.4338486
220	0x3f0c7fbc	0.5488241
221	0x3f7e530f	0.9934549
222	0x3d2e8b34	0.042613223
223	0xbf9d118f	-1.2270983
224	0x3dcb7e9e	0.0993626
225	0xbfa17684	-1.2614293
226	0xbe26e8d1	-0.1629975
227	0xbf14c413	-0.58111686
228	0xbde0b290	-0.10971558
229	0xbf61797e	-0.8807601
230	0x3e4047cf	0.18777393
231	0xbec75265	-0.3893005
232	0x3eb4736a	0.35244304
233	0xbe1e624a	-0.15467182
234	0x3def2a86	0.116780326
235	0x3e88c578	0.26713157
236	0x3ea8ad90	0.32944918
237	0xbe941344	-0.28920949
238	0x3d2d23be	0.042270415
239	0x3ee21fd3	0.44164905
240	0xbf5a4e11	-0.8527537
241	0xbf44dce4	-0.7689955
242	0xbd9aab04	-0.0755215
243	0xbf984473	-1.1895889
244	0x3fa30250	1.2735081
245	0x3f3f72e7	0.747847
246	0xbde4fe40	-0.11181307
247	0xbf5335e9	-0.82504135
248	0x3eb929dc	0.3616475
249	0xbf0dc39d	-0.5537661
250	0x3d921880	0.07133579
251	0x3cb95856	0.02262513
252	0xbf5574c7	-0.83381313
253	0x3dc94b0e	0.09828769
254	0x3f17b623	0.59262294
255	0xbeb8d8db	-0.36102948

actor.2.bias f4 [256]
0	0x3dc4d126	0.096102044
1	0xbf0d2110	-0.55128574
2	0x3e3aa29a	0.1822609
3	0x3ed93d29	0.42429474
4	0x3e8c9e40	0.27464485
5	0xbf1a57f4	-0.60290456
6	0x3e46c4d5	0.19411023
7	0xbe86767e	-0.26262277
8	0xbf29db09	-0.66349846
9	0xbf4f88ec	-0.810683
10	0x3dd47ad6	0.103749916
11	0xbe532cde	-0.20622584
12	0xbf813383	-1.0093845
13	0xbf6361b1	-0.8882094
14	0x3f3540ef	0.70802206
15	0xbf12d919	-0.57362515
16	0x3f8e20f5	1.1103808
17	0xbf795bac	-0.97405505
18	0xbdcadb61	-0.099051245
19	0xbeabed0a	-0.33579284
20	0xbe9d9069	-0.3077424
21	0xbea92e0b	-0.3304294
22	0xbf044c95	-0.51679355
23	0xbe332278	-0.17493618
24	0xbfb6a46e	-1.426893
25	0xbf52c903	-0.8233797
26	0xbf840b74	-1.0315995
27	0xbf3546ca	-0.7081114
28	0xbf2e3feb	-0.6806628
29	0xbf999f56	-1.200175
30	0xbf0a29e8	-0.53970194
31	0x3eaa94d0	0.3331666
32	0xbee23294	-0.44179213
33	0xbe0ea942	-0.13931754
34	0x3edecf48	0.43517518
35	0xbf689e4d	-0.9086655
36	0xbf802a24	-1.001286
37	0xbfd50157	-1.6641034
38	0xbe65abd6	-0.22428831
39	0x3f6f6c94	0.9352505
40	0x3e874eb8	0.26427245
41	0xbf0604e9	-0.5235124
42	0x3e877494	0.2645613
43	0xbf3b8663	-0.7325193
44	0x3d55cd88	0.052197963
45	0xbfb23a85	-1.3924109
46	0xbf9fb8cc	-1.247827
47	0x3dca62b5	0.09882108
48	0x3e062181	0.13098718
49	0x3e70aa0a	0.23502365
50	0x3fa1a44d	1.2628266
51	0xbf098e37	-0.5373263
52	0xbf31ea7c	-0.6949842
53	0xbe91ef1c	-0.28502738
54	0xbf426857	-0.7594046
55	0xbf0a1e59	-0.53952557
56	0xbe34b677	-0.1764773
57	0xbf237f05	-0.6386569
58	0xbe741b7b	-0.23838608
59	0xbfc619a0	-1.547657
60	0xbf05c9a4	-0.52260804
61	0xbee1e6e6	-0.44121474
62	0x3f439a84	0.7640765
63	0xbee3f5a3	-0.44523343
64	0x3edba02d	0.42895642
65	0xbd51983a	-0.051170565
66	0x3e9960be	0.2995662
67	0x3e764129	0.24048294
68	0x3d841022	0.064483896
69	0xbf1e3fa6	-0.6181587
70	0xbf1c74ef	-0.61115927
71	0xbc9af85e	-0.018917259
72	0x3eb9afff	0.36267087
73	0xbf2cac0a	-0.6745001
74	0xbec35cba	-0.38156682
75	0xbf012812	-0.5045177
76	0x3e9bc3ed	0.30422917
77	0xbde626df	-0.11237883
78	0xbf05ea90	-0.5231104
79	0x3e2e4305	0.17017753
80	0xbf55ce9a	-0.83518374
81	0xbedfb254	-0.4369074
82	0xbe0ed42e	-0.13948128
83	0xbf50de67	-0.8158936
84	0x3e582ee2	0.21111634
85	0x3f10459f	0.56356233
86	0xbeea9218	-0.45814586
87	0xbf81339c	-1.0093875
88	0xbe2dd69c	-0.16976398
89	0xbe2230fc	-0.15838999
90	0xbf8a12ea	-1.0787022
91	0xbf3e765b	-0.74399346
92	0xbfc6d239	-1.5532905
93	0xbf58775d	-0.84557134
94	0x3e6d3c32	0.23167494
95	0xbe2dd4f5	-0.16975768
96	0xbe61324c	-0.21991843
97	0xbeda35b1	-0.42619088
98	0xbf2cbfdd	-0.6748026
99	0xbf58be58	-0.8466544
100	0x3f8a5abf	1.0808944
101	0x3d9c1919	0.076219745
102	0xbf05a4c1	-0.5220452
103	0x3f9ef5e9	1.2418796
104	0xbec00612	-0.3750463
105	0xbf53c310	-0.82719517
106	0xbe6a7b11	-0.22898509
107	0xbf5d2775	-0.8638833
108	0xbf785657	-0.97006744
109	0xbeda2a8b	-0.42610583
110	0xbe1585ae	-0.14601776
111	0xbdcda437	-0.10041087
112	0x3eacaeb5	0.3372704
113	0xbfe0f57d	-1.7574917
114	0x3ec2d3a8	0.38052106
115	0xbf5c0f38	-0.8596072
116	0xbc225627	-0.009908236
117	0xbf269444	-0.65069985
118	0xbeca8f40	-0.39562416
119	0xbf9e4e5a	-1.2367661
120	0x3f005651	0.5013171
121	0xbee9afc8	-0.45641923
122	0xbe53eda5	-0.20696123
123	0xbe77ec4d	-0.24211235
124	0x3f03a279	0.5141979
125	0x3f587aa1	0.84562117
126	0xbf53401e	-0.8251971
127	0x3f8a1fb6	1.0790927
128	0xbee05dd4	-0.43821585
129	0xbe977a5d	-0.29585543
130	0xbf296a2d	-0.66177636
131	0xbe696195	-0.22791131
132	0xbf1f5f0b	-0.622544
133	0x3e40c701	0.18825914
134	0xbecdeb6e	-0.4021868
135	0x3d083584	0.03325416
136	0xbf67206c	-0.90283847
137	0xbf1d05a4	-0.6133673
138	0xbe73dd38	-0.23814857
139	0x3e2575a8	0.16158164
140	0xbd684c76	-0.056713544
141	0xbefad68b	-0.48991808
142	0xbfaa5698	-1.3307676
143	0x3eb4c13a	0.3530367
144	0x3e900398	0.28127742
145	0xbf6c44b9	-0.9229236
146	0xbeb16436	-0.34646767
147	0xbf01dd79	-0.50728565
148	0xbe85df86	-0.26147097
149	0xbfff8022	-1.9960978
150	0x3e501713	0.20321302
151	0xbfa26313	-1.2686485
152	0xbe6eec09	-0.23332228
153	0xbebb12a6	-0.36537665
154	0xbf27069c	-0.6524446
155	0xbcdf12e8	-0.027230695
156	0xbfaaca3d	-1.3342968
157	0xbe1b5c1a	-0.15171853
158	0xbec7f1ca	-0.39051658
159	0xbffdd9dc	-1.983211
160	0xbf805753	-1.0026649
161	0xbea4b113	-0.32166347
162	0xbc8db8fe	-0.017300125
163	0x3f6eb9b6	0.9325212
164	0xbf87b930	-1.060339
165	0x3e8775e2	0.26457125
166	0xbf3023f5	-0.68804866
167	0xbf1c39d1	-0.6102572
168	0x3ebe606d	0.37182942
169	0x3f8022cb	1.0010618
170	0x3dea0126	0.11426
171	0xbfe499db	-1.7859453
172	0x3da8f9af	0.08250748
173	0xbf6e0617	-0.9297804
174	0xbe7b6fa0	-0.245543
175	0xbf650fd7	-0.89477295
176	0xbf86a521	-1.0519143
177	0xbf580fd0	-0.8439913
178	0xbf3c81a2	-0.73635304
179	0x3f64c75d	0.89366704
180	0x3e1932e7	0.14960824
181	0xbf59fc16	-0.8515028
182	0xbf963756	-1.1735637
183	0xbf1fa984	-0.62368035
184	0xbf8acddc	-1.0844073
185	0xbf74e132	-0.9565612
186	0xbe86932f	-0.26284167
187	0xbf081262	-0.5315305
188	0x3fa023d0	1.2510929
189	0xbfa3f849	-1.2810146
190	0x3e3bbdcb	0.18334119
191	0x3e35c05c	0.1774916
192	0xbfb9dae9	-1.4519931
193	0xbf7280a0	-0.94727516
194	0x3f7c6e31	0.9860564
195	0xbf1bac78	-0.6081004
196	0xbf817301	-1.0113221
197	0xbfd81e6a	-1.6884282
198	0xbe95aeb3	-0.29234847
199	0xbf1bb93b	-0.60829514
200	0xbf05c960	-0.522604
201	0xbd7abed2	-0.061217137
202	0xbf9b1951	-1.2117101
203	0xbda4b9de	-0.08043264
204	0x3e84b722	0.2592097
205	0xbf0d18a0	-0.551157
206	0xbfb424fd	-1.4073788
207	0x3c0b0cdf	0.008486955
208	0x3d147c66	0.036251448
209	0xbd8796ee	-0.066205844
210	0xbf2f3b89	-0.6845022
211	0x3ee4bfe6	0.44677657
212	0x3c1ef401	0.00970173
213	0xbf66c271	-0.90140444
214	0xbf33a4c6	-0.701733
215	0x3f75e82c	0.9605739
216	0x3f9aa4a3	1.2081493
217	0xbfbf4866	-1.4943969
218	0xbf753491	-0.95783335
219	0xbf8a1a51	-1.0789281
220	0x3eda1839	0.42596605
221	0xbf06d179	-0.5266338
222	0xbf72b9e7	-0.94814914
223	0x3dd67434	0.10471383
224	0xbe381728	-0.17977583
225	0xbf743570	-0.9539404
226	0xbf414e37	-0.7550997
227	0x3e836c5f	0.25668618
228	0xbe98adb2	-0.2982002
229	0xbee389c9	-0.4444106
230	0xbf5376d0	-0.8260317
231	0xbe0757cf	-0.1321709
232	0xbeb7ca76	-0.35896653
233	0x3c16c7b8	0.00920289
234	0x3f79f4a1	0.976389
235	0xbf3dd6c3	-0.74155825
236	0xbec8b487	-0.3920023
237	0xbea8ded4	-0.32982504
238	0xbf73811c	-0.9511888
239	0xbf745d54	-0.9545491
240	0x3d8f17f4	0.069869906
241	0xbf362f41	-0.71165854
242	0x3dfd742c	0.12375674
243	0x3f47630e	0.7788552
244	0xbde31822	-0.11088587
245	0xbe1e6e4a	-0.1547176
246	0x3ea673a5	0.32510105
247	0x3d9a07b0	0.075209975
248	0xbc3a078c	-0.011354338
249	0xbf35f041	-0.71069723
250	0xbf33ea4a	-0.7027937
251	0xbeb2ef50	-0.34948206
252	0x3f80690d	1.0032059
253	0xbf66502a	-0.8996607
254	0xbcdf21e2	-0.027237836
255	0xbcb9ec74	-0.022695757

actor.4.weight f4 [12, 256]
0	0xbf0aee19	-0.5426956
1	0x3fc5e3e0	1.5460167
2	0xbe99e649	-0.30058506
3	0xbd2dde91	-0.042448584
4	0x3eb65c48	0.3561728
5	0xbe9e29b0	-0.3089118
6	0x3fa0f1d3	1.2573799
7	0xbd4c899a	-0.049935915
8	0x3ce7f22c	0.028313719
9	0x40101b07	2.2516496
10	0x3d825bde	0.063651785
11	0x3f91d760	1.1393852
12	0x3ea0ea3e	0.31428713
13	0x3e4918a9	0.19638313
14	0xbe5e8645	-0.21730907
15	0x3ebfebf9	0.3748472
16	0xc0702e9d	-3.752845
17	0x3de76f0b	0.11300477
18	0x3de316d4	0.110883385
19	0x3e4a992d	0.19784994
20	0xbdc5d07a	-0.096589044
21	0x3d04cb44	0.03242041
22	0xbd457235	-0.04820462
23	0x3f6f6e58	0.93527746
24	0xbe7bf91a	-0.24606743
25	0xbedea4f1	-0.43485215
26	0xbd85e3ce	-0.06537591
27	0xbf0ff3a9	-0.5623117
28	0xbf0d7ebb	-0.552715
29	0x3e281ca9	0.16417183
30	0x3f452906	0.7701572
31	0x3f09d184	0.5383532
32	0x3f908a26	1.129216
33	0xbe808d3a	-0.25107747
34	0xbe079e89	-0.1324407
35	0xbe0bd00e	-0.13653585
36	0xbe2d9390	-0.16950822
37	0xbe4b7224	-0.1986776
38	0xbdeeafd9	-0.11654634
39	0xbf5089d9	-0.8146034
40	0xbe828c9d	-0.25497904
41	0xbf9b3995	-1.2126948
42	0xbd600efa	-0.054701783
43	0x3db250fc	0.08706853
44	0xbec3db20	-0.38253117
45	0xbf06eb58	-0.52702856
46	0xbd7e7bbc	-0.06212972
47	0xbd160455	-0.036625225
48	0xbe4e7db2	-0.20165136
49	0x3e9195b0	0.28434515
50	0xbcaf0707	-0.021365656
51	0xbe27db3f	-0.1639223
52	0x3d230ed9	0.03980908
53	0xbf839837	-1.0280827
54	0xbdcf5e69	-0.10125429
55	0xbf039831	-0.514041
56	0x3e1b8c22	0.15190175
57	0xbf03f6c6	-0.5154842
58	0x3e52b80f	0.20578025
59	0xbcea95bc	-0.028635852
60	0xbcae7b59	-0.021299051
61	0xbed128b1	-0.40851358
62	0xbf22e9c0	-0.63637924
63	0x3e9ffe85	0.3124887
64	0xbf00bc26	-0.5028709
65	0x3f0d46e3	0.5518629
66	0xbd2b4b47	-0.041819837
67	0x3db9ecac	0.09078345
68	0x3d34e939	0.04416773
69	0xbe305d7b	-0.1722316
70	0xbdd6b237	-0.104832105
71	0xbebc608d	-0.36792412
72	0xbdb52aa6	-0.08846025
73	0x3f8daf94	1.1069207
74	0x3ef27a2f	0.47358844
75	0xbf5bc6b5	-0.8585008
76	0x3da29a83	0.07939627
77	0xbfd0a475	-1.6300188
78	0xbf03d454	-0.5149586
79	0x3ce240c9	0.027618783
80	0x3f1ea7f9	0.61975056
81	0x3e9c9f4d	0.30590287
82	0xbe4c0e2f	-0.19927286
83	0x3ceb31b1	0.028710218
84	0xbf6b8151	-0.91994196
85	0xbe62bcd9	-0.22142352
86	0xbed7dcd0	-0.42160654
87	0xbd3daa51	-0.046305005
88	0x3d9af339	0.07565922
89	0xbf9322e4	-1.1495023
90	0xbf3510dc	-0.7072885
91	0x3c8689e1	0.016423168
92	0x3e41fff4	0.18945295
93	0x3edfdcd8	0.43723178
94	0x401411a2	2.3135762
95	0x3bee62bb	0.007274953
96	0x3ede2570	0.43387938
97	0x3ee2db4d	0.44307938
98	0x3e4016fe	0.18758771
99	0x3f50a06d	0.8149479
100	0xbea8a626	-0.3293926
101	0x3e8f1fc7	0.27953932
102	0xbe469704	-0.19393545
103	0xbdd7cac4	-0.10536721
104	0x3cd8d3bb	0.026468148
105	0x3e51093c	0.20413679
106	0x3f59de9c	0.851053
107	0x3d7fa5c8	0.06241396
108	0x4091dc18	4.558117
109	0x3e0b0332	0.13575438
110	0x3f4afbfc	0.7929075
111	0x3e7adbf7	0.24497972
112	0x3e674a7a	0.22587004
113	0x3f82f568	1.0231142
114	0x4008dc31	2.1384394
115	0x3ea1c73f	0.31597325
116	0x3e92f65b	0.2870358
117	0x3db5e4c1	0.08881522
118	0xbdfcbcad	-0.123406745
119	0x3ed1fccb	0.41013178
120	0x3e0ffb49	0.14060701
121	0xbcc6b7e1	-0.024257602
122	0x40ad6ed7	5.4197803
123	0xbfb608c9	-1.4221431
124	0x3e5aa6d3	0.21352701
125	0xbd9607c6	-0.073257014
126	0x3e800932	0.25007015
127	0xc0228e3d	-2.5399315
128	0x3ed967f3	0.4246212
129	0x3f378b88	0.7169728
130	0xbd6f2870	-0.058388174
131	0xbc5b598f	-0.013388052
132	0xbee053d6	-0.43813962
133	0xbfd05b57	-1.6277875
134	0x3d069bec	0.032863542
135	0x3f070e61	0.52756315
136	0x3f00c50b	0.50300664
137	0x3e1345fa	0.14382163
138	0xbed4ede2	-0.4158774
139	0x3d4ed643	0.050497305
140	0x3cb66d66	0.022268962
141	0xbeab7ced	-0.33493748
142	0x3e60276c	0.21890038
143	0x3e4390df	0.19098233
144	0x3df6f831	0.120590575
145	0x412c6c78	10.776482
146	0x3de9851c	0.11402342
147	0x3e0c6c7b	0.13713257
148	0xbebfc1da	-0.37452585
149	0x3c417a7c	0.011808988
150	0x3ea804bd	0.32816115
151	0x3f1ac216	0.604524
152	0x3e07e28b	0.13270013
153	0x3dc8f8e9	0.09813101
154	0xbea1990b	-0.31562075
155	0x3e189b71	0.14903046
156	0x3e8e5758	0.27801013
157	0xbe83e650	-0.25761652
158	0xc0859b9f	-4.1752467
159	0x3fd70ed6	1.6801403
160	0x3fc405ba	1.5314248
161	0x3c751e66	0.014960861
162	0xbe4e3453	-0.20137148
163	0x3df8052c	0.121103615
164	0x3cc0ad8e	0.023520257
165	0x3e97e5e0	0.29667568
166	0x3e959855	0.29217783
167	0x3cb971cf	0.022637276
168	0x3e1ea4cf	0.15492557
169	0xbc9de879	-0.01927589
170	0x3d45f3f7	0.048328366
171	0x3f6c4b2e	0.92302215
172	0x3e0439dc	0.12912697
173	0xbf2f9be2	-0.68597233
174	0xbe23c967	-0.15994798
175	0x3e2ae951	0.16690566
176	0xbc0308ba	-0.007997686
177	0x3d72059f	0.059087392
178	0x3ffb6a1e	1.9641759
179	0xbfcc521a	-1.5962555
180	0x3e3637c5	0.17794712
181	0x3e90a551	0.28251126
182	0x3f2cdbef	0.6752309
183	0x3e7550b7	0.23956572
184	0xbfc84881	-1.5647126
185	0x3dbdb11d	0.09262297
186	0xbf2cb510	-0.6746378
187	0x3f3125c1	0.6919823
188	0xbf654036	-0.89551103
189	0xbf390010	-0.7226572
190	0x3e911a87	0.2834055
191	0x3d82dc31	0.063896544
192	0x3e90b84d	0.2826561
193	0xbe96d083	-0.29455957
194	0x3e948b20	0.29012394
195	0xbdc1e8c4	-0.09468225
196	0xbfa619fa	-1.2976677
197	0xbee64e91	-0.44981816
198	0xbf30fd1e	-0.69136226
199	0xbdc52dcc	-0.09627876
200	0xc028d3cc	-2.637927
201	0xbe942597	-0.2893493
202	0xbe10b134	-0.14130098
203	0xbd4d7c50	-0.05016738
204	0x3eeeb507	0.46622488
205	0xbe2f1237	-0.17096792
206	0xbf1b0c3b	-0.6056554
207	0xbe2f662f	-0.17128824
208	0x3e4ca60c	0.19985217
209	0xbf9dddf2	-1.2333357
210	0x3eeb7a35	0.45991674
211	0x3e163451	0.14668395
212	0x3f195642	0.59897244
213	0x40039580	2.0559998
214	0x3d01e282	0.031710155
215	0x3d3f8b5c	0.046763763
216	0xc0132c67	-2.299585
217	0xbeaa2176	-0.33228654
218	0xbc6b616c	-0.014366489
219	0xbe04d302	-0.12971118
220	0x3dc08641	0.09400607
221	0x3df27098	0.11837882
222	0x3e07f4a1	0.13276912
223	0x3dd6f176	0.10495274
224	0x3e1c2bd5	0.15251096
225	0xbf29a4ae	-0.66266906
226	0x3e0ff34c	0.14057654
227	0xbbfb623e	-0.0076716235
228	0xbd5952b1	-0.053057376
229	0xbf8fb693	-1.1227592
230	0x3edcaf33	0.43102416
231	0x3f85a726	1.0441635
232	0x3cd2fd0f	0.025755433
233	0xbe123845	-0.14279278
234	0xbf7b32eb	-0.9812457
235	0x3d95320a	0.07284935
236	0x3eb6421e	0.35597318
237	0x3ed0a357	0.40749618
238	0xbd2ad67a	-0.041708447
239	0xbe4bebe6	-0.19914207
240	0x4045ad48	3.0887012
241	0x3dd6b8d6	0.104844734
242	0x3ea265d0	0.31718302
243	0x3e840dbe	0.25791734
244	0x3e845135	0.25843206
245	0x3dd6253f	0.10456323
246	0x3e678992	0.22611073
247	0xbc256da2	-0.010096939
248	0xc0007765	-2.0072873
249	0x3e3c76bb	0.18404667
250	0xbcdd4680	-0.027011156
251	0x3e84f9ab	0.25971732
252	0xbdf16fb9	-0.117888875
253	0xbde402ed	-0.111333705
254	0xbe1f3417	-0.15547214
255	0xbe4a7436	-0.19770893

actor.4.bias f4 [12]
0	0xbe99be0f	-0.30027816
1	0xbe63bbdd	-0.22239633
2	0xbd665e10	-0.05624205
3	0xbc940824	-0.018070288
4	0x3e022d81	0.12712671
5	0x3d21981b	0.0394517
6	0xc05885d4	-3.3831682
7	0xc0b21eb2	-5.566247
8	0xc06b96f0	-3.6810875
9	0xc09bdf6d	-4.8710237
10	0xc066c15e	-3.6055522
11	0xc079a491	-3.9006693

q1.0.weight f4 [256, 23]
0	0x40d28a9d	6.5794206
1	0xc09328b8	-4.5987206
2	0x3d912c30	0.07088506
3	0x3d3c5502	0.045979507
4	0xbe8d697d	-0.27619544
5	0x3f743837	0.9539828
6	0xbfa471f5	-1.2847277
7	0xbf071b40	-0.52775955
8	0xbe1990a6	-0.14996585
9	0x3f18328b	0.5945212
10	0xbe8067a1	-0.25079063
11	0x3d2d94ec	0.04237835
12	0x3cebd8dc	0.02878993
13	0x3dd4cbc3	0.10390427
14	0x3ea28d53	0.31748447
15	0x3d27592f	0.040856536
16	0xbe334f29	-0.17510666
17	0x3fa05209	1.2525035
18	0x3fc32940	1.5246964
19	0x3f4ade68	0.79245615
20	0xbf834f07	-1.0258492
21	0x3d088312	0.033328123
22	0x3f8a74fb	1.081695
23	0xc06dcf0d	-3.7157624
24	0xc0b34f42	-5.603425
25	0x3fc0ae00	1.50531
26	0x3f43f341	0.7654305
27	0x3f57b102	0.8425447
28	0xbf8d8337	-1.1055669
29	0x3f6da626	0.9283165
30	0xbec6bd8f	-0.38816497
31	0xbf8d4125	-1.1035506
32	0xbfda1cd5	-1.7040049
33	0xbe37c736	-0.17947087
34	0xbe83104e	-0.25598377
35	0x3e7fb098	0.24969709
36	0xbf29f489	-0.66388756
37	0x3e751f30	0.23937678
38	0xbee68271	-0.45021394
39	0xbe819c22	-0.25314432
40	0x3ea1d02b	0.31604132
41	0xbfacc2f8	-1.3497
42	0xbdf649f7	-0.120258264
43	0x3fce70f5	1.6128222
44	0x3f551553	0.83235663
45	0x3f1ad7ec	0.6048572
46	0x40d0c079	6.523495
47	0xbfc1ee7e	-1.5150907
48	0x3f642b68	0.8912873
49	0xbee8491a	-0.45368272
50	0xbf290282	-0.6601945
51	0x3f904bda	1.1273148
52	0xbf79cf9c	-0.9758241
53	0x3e256430	0.161515
54	0xbeb76a63	-0.35823354
55	0x40330de0	2.7977219
56	0xbe89ea15	-0.26936403
57	0xbd25ef31	-0.040511314
58	0xbc011264	-0.00787792
59	0x3b79edd5	0.0038136144
60	0x3d6bac22	0.057537206
61	0xbd42cc47	-0.047558095
62	0x3e0ab787	0.13546573
63	0x3fdf7552	1.7457678
64	0xbdfd53d6	-0.12369506
65	0xbf924a1d	-1.1428868
66	0x3d6d5e06	0.057950996
67	0x3e508117	0.20361744
68	0x3ed1bcb5	0.40964285
69	0xbf596672	-0.84921944
70	0xbee94e80	-0.45567703
71	0x3ec8b056	0.39197034
72	0xbf2958d5	-0.6615117
73	0x3e9831af	0.29725406
74	0x3f908d7b	1.1293176
75	0x3ffc8eff	1.9731139
76	0x3ff7a9b9	1.934867
77	0xbecc58d6	-0.39911526
78	0x3fcd122d	1.6021172
79	0x3f219988	0.63124895
80	0x3d12687e	0.035744183
81	0xbd3d53a2	-0.046222337
82	0x3ce47378	0.027887091
83	0x3aa041c0	0.0012226626
84	0xbe324162	-0.17407754
85	0xbceceffc	-0.028923027
86	0xbe61c061	-0.22046043
87	0xbd6c48e4	-0.0576867
88	0x3fcd9d0e	1.6063554
89	0xbeadda86	-0.33955783
90	0xbd8b7ad1	-0.06810535
91	0xbf763bb6	-0.9618486
92	0x410814b9	8.505059
93	0xc05d7299	-3.4601195
94	0xbd2d52cc	-0.04231529
95	0xbe92d018	-0.28674388
96	0xc001db9e	-2.0290294
97	0xc0193f9a	-2.394507
98	0xbebe5de4	-0.37181008
99	0xbe996deb	-0.29966673
100	0xbe6be361	-0.23035957
101	0x3e997782	0.2997399
102	0xbf2942e3	-0.66117686
103	0x3d4f314c	0.050584123
104	0xbcd613b4	-0.026132442
105	0xbd5632f7	-0.052294698
106	0xbe0a0ec4	-0.13482195
107	0x3e14e751	0.14541365
108	0xbe5f7b52	-0.21824387
109	0x3c30cb51	0.010790662
110	0xbf0bc569	-0.545981
111	0xbf4a2009	-0.7895513
112	0xbefefd8a	-0.4980281
113	0xbee79962	-0.4523421
114	0xbea01e61	-0.31273177
115	0x3ff541a3	1.9160656
116	0xbf9f5971	-1.244917
117	0xbe6c9b8a	-0.23106208
118	0x3f8add37	1.084876
119	0xbec88d66	-0.39170378
120	0xbfe38d77	-1.7777547
121	0xc0090efd	-2.1415398
122	0xbff496c4	-1.910851
123	0xbec5c292	-0.38625008
124	0x3f036161	0.51320463
125	0xbb83d58f	-0.004023261
126	0x3de58795	0.11207501
127	0xbca464b3	-0.020067548
128	0x3dc85513	0.097818516
129	0xbde5af96	-0.11215131
130	0xbd6d9bf4	-0.058010057
131	0x3dd50690	0.10401642
132	0xbe907402	-0.28213507
133	0x3ffeec85	1.991593
134	0xbf2dbcd1	-0.67866236
135	0xbdfbf0ea	-0.1230181
136	0x3fba6bce	1.4564149
137	0x3f3ba35b	0.73296136
138	0x40ab6c40	5.356964
139	0xc0319093	-2.774449
140	0x40407f59	3.0077727
141	0x402cbde4	2.69909
142	0x3f6ca773	0.9244301
143	0xbec2eec4	-0.3807279
144	0xc000920b	-2.0089138
145	0xbfdbde6b	-1.7177252
146	0xbea3de87	-0.32005712
147	0xbf790612	-0.9727489
148	0xbfe488c5	-1.7854239
149	0xbeb461bb	-0.35230812
150	0xbe3d5464	-0.18489224
151	0x3b24d8a2	0.0025153537
152	0xbdef8e37	-0.11697047
153	0xbdbe23c3	-0.09284165
154	0xbd35eea6	-0.044417046
155	0xbfad3dd6	-1.3534496
156	0xbfc31c7d	-1.5243069
157	0xbf8fecd5	-1.124415
158	0xbf62632f	-0.8843259
159	0xbd711d4d	-0.058865834
160	0x3f7c1f40	0.98485184
161	0xc052c151	-3.293049
162	0xc033850e	-2.804996
163	0x3faed0ac	1.3657432
164	0x40510bd2	3.2663465
165	0x3fd2465d	1.6427723
166	0xbfcecfd4	-1.6157174
167	0xbf0e30c6	-0.5554317
168	0x3f2876cb	0.65806264
169	0xbd84bf6a	-0.06481822
170	0xbf933b21	-1.150242
171	0x3f656595	0.89608127
172	0xbddf1f17	-0.10894602
173	0xbd541769	-0.05178014
174	0xbda03b7a	-0.07823844
175	0x3eab783c	0.3349017
176	0xbd747b53	-0.059687924
177	0xbe04b293	-0.12958746
178	0x3f43b586	0.7644886
179	0x3fc836dc	1.5641742
180	0xbee6a22a	-0.45045596
181	0xbf38fceb	-0.7226092
182	0x3f55da8f	0.8353662
183	0xbfdae6ad	-1.7101647
184	0xbe491ac8	-0.19639122
185	0x3f2a9c54	0.6664479
186	0x3eb66765	0.3562576
187	0x3f4e864c	0.8067367
188	0x3e7f18e2	0.24911836
189	0xbea1a4cd	-0.31571046
190	0xbe9bab8b	-0.30404314
191	0xbe8ba551	-0.27274564
192	0xbd826c56	-0.0636832
193	0xbf08aa1f	-0.53384584
194	0xbe3b238b	-0.18275277
195	0x3d0b81d6	0.034059368
196	0x3d158ab3	0.036509227
197	0x3dea1486	0.11429696
198	0x3d340440	0.043949366
199	0xbb026119	-0.00198943
200	0x3d28f163	0.04124583
201	0x3e51c9c1	0.2048712
202	0x3ec0d93e	0.37665743
203	0x3f405950	0.7513628
204	0x3e816222	0.25270182
205	0x3db5ba56	0.088734314
206	0x3eb8c4f1	0.36087754
207	0x40c7be63	6.2419906
208	0xc0bac801	-5.8369145
209	0xbeca5003	-0.3951417
210	0x3fb0b8f3	1.3806442
211	0xbf00e778	-0.50353193
212	0xc04fe8fb	-3.248595
213	0xbf7b98af	-0.9827985
214	0x3f1a45e3	0.6026289
215	0xbcd61233	-0.026131725
216	0x3fb7789e	1.4333684
217	0xbf0d78f7	-0.552627
218	0xbe1b7590	-0.15181565
219	0x3e0546f6	0.1301535
220	0x3dc29b3f	0.09502267
221	0xbe29e25f	-0.1659026
222	0xbdcbafd9	-0.0994565
223	0xbd8c4b48	-0.06850296
224	0x3ec2684b	0.37970194
225	0x3e3a6517	0.18202625
226	0x3e335ed1	0.17516638
227	0x3ecf1939	0.4044893
228	0xbf00f6a5	-0.5037635
229	0xbf299fd1	-0.66259485
230	0x4136f4c1	11.434754
231	0xc0b04dee	-5.509513
232	0xc009e941	-2.1548617
233	0xbf9ba365	-1.2159239
234	0x3f903044	1.126473
235	0xbf8cacf9	-1.0990287
236	0xbffa2e2b	-1.9545339
237	0xbd911ae3	-0.07085206
238	0xbe8e5768	-0.2780106
239	0x3fca0e92	1.5785697
240	0x3f29d938	0.66347075
241	0xbdf3d1af	-0.11905228
242	0xbe32af22	-0.1744962
243	0xbd5dc20a	-0.05414013
244	0xbd8ceafc	-0.06880757
245	0x3d5ec89f	0.054390546
246	0x3c8869a2	0.016651932
247	0xbc9b2e2c	-0.018942915
248	0x402ff5d0	2.7493782
249	0x3d344386	0.044009708
250	0xbe92ac60	-0.28647137
251	0xbeb42854	-0.35187018
252	0x3fbaa7b5	1.458243
253	0xbdf87ce8	-0.12133199
254	0xbfcd18cd	-1.6023194
255	0x3dda459b	0.106578074

q1.0.bias f4 [256]
0	0x3f7eaa48	0.9947858
1	0xbf52aea6	-0.8229774
2	0x3f90a2d2	1.1299689
3	0xbfb44c31	-1.4085752
4	0xbe90b929	-0.28266266
5	0x400b40d0	2.1758308
6	0xbe9ed8f0	-0.31024885
7	0xbfe37494	-1.7769952
8	0x400f25fd	2.2366936
9	0xbfc1e1b2	-1.5147002
10	0x3c39c98b	0.0113395555
11	0xbfdb7bee	-1.7147195
12	0xc013ad88	-2.3074665
13	0xc0258105	-2.5859997
14	0xbfec137b	-1.8443445
15	0x3e3a4a3e	0.18192384
16	0x3fda6542	1.7062151
17	0xc041600e	-3.0214877
18	0xbf969e3d	-1.176704
19	0xbff894c5	-1.9420401
20	0x3ebc74e0	0.3680792
21	0xc010f148	-2.2647266
22	0xc040577a	-3.0053391
23	0xbfe011ab	-1.7505392
24	0x3ea9c705	0.33159652
25	0xbff9c527	-1.9513291
26	0xbf11c54b	-0.5694167
27	0xbf55009e	-0.83204067
28	0xbfb26b65	-1.3939024
29	0xc03b74cc	-2.9290037
30	0xbfb70ada	-1.4300187
31	0xbfe69f0f	-1.8017291
32	0xc004417d	-2.066497
33	0x3e735594	0.23763114
34	0xbf481d51	-0.78169733
35	0xbfb18b03	-1.3870548
36	0xbfb893da	-1.4420121
37	0x404283b0	3.0392876
38	0x3fa9b046	1.3256919
39	0xc0114936	-2.2700934
40	0xc03c2ae7	-2.9401186
41	0xbfcb7e01	-1.5897828
42	0x3fae16b2	1.3600676
43	0xbed83a3f	-0.42231938
44	0x3e077a16	0.13230166
45	0xc01dc1bd	-2.4649498
46	0xbe0407f7	-0.12893663
47	0x3f31b427	0.69415516
48	0xc020f351	-2.5148509
49	0xbbcbb949	-0.006217156
50	0xc016daac	-2.3570967
51	0xbf3351d8	-0.7004676
52	0x3f8fb380	1.1226654
53	0xc00a5a59	-2.1617644
54	0x3f602cd7	0.8756842
55	0xc008ecd8	-2.1394558
56	0xc02c5dbe	-2.6932216
57	0x3fc5640d	1.5421158
58	0x400c76ff	2.194763
59	0x3fbdcd41	1.4828264
60	0xbff79462	-1.9342158
61	0xc006a8d4	-2.1040545
62	0x400dc993	2.215428
63	0xc01f10b7	-2.4853952
64	0x3fced78e	1.6159532
65	0x3ef24967	0.47321627
66	0xbfba2253	-1.4541725
67	0xc00adeed	-2.1698563
68	0x3feae4f3	1.835112
69	0xbe4c1503	-0.1992989
70	0x40538be6	3.3054137
71	0x3f964e81	1.1742707
72	0xbfd32c94	-1.6497979
73	0x3f348d95	0.7052854
74	0x3f0cc477	0.5498728
75	0x40596aa9	3.397135
76	0xbf760105	-0.96095306
77	0xbfea095c	-1.8284106
78	0xc00432c3	-2.0655982
79	0x3fa886b2	1.3166106
80	0x3ff82d5d	1.9388844
81	0xbfae5e59	-1.3622543
82	0x3e4d4f3b	0.20049755
83	0xc01e760a	-2.4759545
84	0x3ec8f16f	0.392467
85	0xbecffc1d	-0.40622035
86	0xbfabc0f5	-1.3418261
87	0xbf573a3d	-0.8407324
88	0xc01baf9c	-2.4325933
89	0x3f8e929d	1.1138493
90	0xc009f586	-2.1556106
91	0xc01ef401	-2.4836428
92	0x3f94588d	1.1589524
93	0x3e718b81	0.23588373
94	0xc0002352	-2.0021558
95	0x400df605	2.2181408
96	0xc0128824	-2.2895594
97	0xbf1a322a	-0.60232794
98	0x3f5fdb28	0.8744378
99	0x3ecc6ff9	0.39929178
100	0xbfa9bcf2	-1.3260787
101	0x3d840ff9	0.06448359
102	0x3f114e39	0.56759983
103	0x3f5759e7	0.84121555
104	0xbfb571f3	-1.41754
105	0xbeac0223	-0.3359538
106	0x3f8148f9	1.0100394
107	0xbf626f8c	-0.8845146
108	0xc000b3c5	-2.0109723
109	0xbf2ef87b	-0.683479
110	0xbf8ef599	-1.11687
111	0xc06a71d3	-3.6631973
112	0xbdbc7e21	-0.09203745
113	0x3efdbdc1	0.49558833
114	0xc0150252	-2.3282666
115	0x40448b74	3.0710115
116	0xbfd87757	-1.691142
117	0x3e89a0c3	0.26880464
118	0xc05eadc8	-3.4793568
119	0xbd6ee980	-0.05832815
120	0x3fb9b1a5	1.4507338
121	0x3e305586	0.17220125
122	0xbf10a24f	-0.56497663
123	0xbf03a4f8	-0.514236
124	0xbf810099	-1.0078307
125	0x3db5f162	0.08883931
126	0xbf8ec8c2	-1.1155016
127	0xc025d958	-2.5913906
128	0xc00112b4	-2.0167665
129	0x3e240ae4	0.1601978
130	0xbfdee85f	-1.7414664
131	0x3f315671	0.69272524
132	0xc056247d	-3.345977
133	0xbe2afc5a	-0.16697827
134	0xbfe56c32	-1.7923644
135	0xbfc8b445	-1.5680014
136	0xbfde209b	-1.73537
137	0xbf4ff6af	-0.81235784
138	0xbffd2ffa	-1.9780266
139	0x3e85eba5	0.26156345
140	0x3f03de02	0.5151063
141	0xc003d493	-2.0598495
142	0xbfa90a9b	-1.3206362
143	0xbf5327c9	-0.8248258
144	0xbeb37677	-0.3505132
145	0xbeb9132e	-0.36147445
146	0x3d1aedf1	0.037824575
147	0xbf685614	-0.90756345
148	0xc04c4c18	-3.1921444
149	0x3effe17d	0.4997672
150	0xbfd5b884	-1.6696935
151	0x3fc1bf12	1.5136435
152	0xbfc92664	-1.5714841
153	0xc009d60a	-2.153689
154	0xbfdcdf04	-1.7255559
155	0xbfb8a6fe	-1.4425962
156	0xc017207f	-2.3613584
157	0x3f22ae63	0.63547343
158	0xbf15ca05	-0.5851138
159	0xc02a3a13	-2.6597946
160	0x3e7d94fd	0.24763866
161	0x4027a71d	2.6195748
162	0xbd9995cf	-0.07499277
163	0xbfc9adf2	-1.5756209
164	0x3f17dfcd	0.5932587
165	0x4047f5f8	3.1243877
166	0xbe0c4308	-0.13697445
167	0xc03f5e78	-2.990141
168	0x3fb59d20	1.4188576
169	0xc01233f2	-2.2844205
170	0xbf20d88e	-0.62830436
171	0xbf6bf792	-0.9217464
172	0x40600e48	3.5008717
173	0x40362363	2.8459098
174	0x3f002200	0.5005188
175	0xbe5c4f92	-0.21514729
176	0xbee1ed19	-0.44126204
177	0x3f04689b	0.51722115
178	0xbec8e834	-0.39239657
179	0xbfc88910	-1.5666828
180	0xbf2a8d88	-0.6662221
181	0x3e8595e4	0.2609092
182	0x3f4a9462	0.79132664
183	0xc01aa373	-2.4162261
184	0x3e933913	0.28754482
185	0x3dbc7fac	0.09204039
186	0xbff4262a	-1.9074147
187	0xbfb66d81	-1.4252168
188	0xbff5d5b3	-1.9205841
189	0x3f18c03a	0.59668314
190	0xc003926f	-2.0558126
191	0x3fddef33	1.7338623
192	0xbf6df24f	-0.9294786
193	0xc094c644	-4.6492023
194	0x3eec9648	0.46208405
195	0xbfab5266	-1.3384521
196	0xbf82b8e1	-1.021267
197	0x3f6a3afc	0.91496253
198	0xbf9d18d2	-1.22732
199	0xbfad683f	-1.3547438
200	0xbfdea5d8	-1.7394361
201	0xbfdb7900	-1.7146301
202	0xc0208e62	-2.5086904
203	0x3f5c51da	0.86062396
204	0xbf7d927c	-0.9905164
205	0x3ec1a160	0.37818432
206	0xc01bd618	-2.4349422
207	0xbef646dd	-0.4810094
208	0xbeda7220	-0.42665195
209	0xbeb6e239	-0.3571947
210	0x401838d1	2.3784678
211	0x40157ce3	2.3357475
212	0xbfe763e9	-1.8077365
213	0x40397893	2.8979843
214	0x4003c47b	2.0588672
215	0x3fc10764	1.508038
216	0x3f80b422	1.0054972
217	0x3f23866d	0.6387699
218	0x3f07d8d3	0.5306522
219	0xc00193e6	-2.024652
220	0xbfd0bf52	-1.6308386
221	0xbf092e6d	-0.53586465
222	0x3d3cef96	0.046126924
223	0xbfa6a10a	-1.3017895
224	0x3e755dff	0.23961638
225	0xbfbbcbc3	-1.4671558
226	0x3e65f896	0.2245811
227	0xbedc49c3	-0.43025026
228	0x3eafb606	0.3431856
229	0xbfce762b	-1.6129812
230	0x3f78761a	0.9705521
231	0x4025b877	2.5893838
232	0x3fe15574	1.7604203
233	0xbef93f76	-0.4868123
234	0xbf8fcb7f	-1.1233977
235	0x40010f96	2.0165763
236	0x3d27accf	0.040936287
237	0xc002dd6b	-2.0447643
238	0xbf69b478	-0.91291
239	0xc023a222	-2.5567708
240	0x3fd16338	1.6358404
241	0xc020e834	-2.5141726
242	0xc0432b83	-3.0495307
243	0x3f346c25	0.70477515
244	0x3f600d5f	0.875204
245	0xc0040d63	-2.063317
246	0xbffbb61f	-1.9664954
247	0x3fd5c9cf	1.6702212
248	0x403dedce	2.9676394
249	0xbedc188c	-0.42987478
250	0xbfbf21f9	-1.4932243
251	0xbf6f5e3f	-0.93503183
252	0xbfed4cb8	-1.8539038
253	0xc00cf02f	-2.2021596
254	0xc02626d4	-2.5961199
255	0x4037b740	2.8705597
