SAC/checkpoints/HalfCheetah-v4/02_best_agent.pth (torch, 878375 bytes, 17 tensors)

log_alpha f8 []
-1.8121415612271714
00000000: de16 5326 88fe fcbf

actor.0.weight f4 [256, 17]
3.1179712 -0.098705076 -0.9684176 1.6560853 0.521492 0.7018658 1.0303603 -0.32672966
-0.5858058 0.61485386 0.5070006 0.13721095 0.1684695 -0.08040452 -0.014689093 0.016894473
-0.07737036 0.007938697 -0.28572553 -0.025907798 -0.20221801 -0.7864419 0.12721346 1.3293979
0.73265904 -0.56926835 0.4117099 -0.0014614941 0.06253415 -0.07560023 0.021813178 0.08279681
0.016105672 -0.0706379 1.1014733 0.046115264 -0.46612033 -0.12896977 0.26599947 -1.7450488
-0.92235154 0.6666615 -0.61505175 0.39917165 0.08252095 0.07088029 -0.012249148 -0.23469414
-0.27608538 0.21103355 0.075720765 -3.2795246 0.15124144 -0.045870084 0.039801355 -0.53273284
1.4062216 0.4861236 -0.20191282 0.6236879 -1.3123056 0.57515895 -0.17889124 -0.13082916
0.5180212 -0.39035547 -0.25667787 -0.30047336 2.6573715 0.5427098 -1.0026027 -1.173205
0.7728149 0.15679847 0.7131036 0.5367838 -0.5149489 1.3495116 0.83240545 -0.14778358
-0.18199186 -0.14535421 -0.3141551 0.16565995 0.1142778 -0.8327604 0.38622156 0.23044536
-1.6885682 -0.5701225 -0.3908728 0.92524236 0.113854304 -0.8766354 0.566112 -0.017882057
-0.2442659 0.07719752 0.20942104 0.020574622 -0.04384753 -0.11587674 0.5858789 -3.110373
-0.15860969 0.12405526 0.33554554 -0.081050865 -1.396691 -0.94267565 -0.80432093 0.5435497
-0.26839086 -0.27758685 -0.0021555019 -0.06484104 -0.10835656 -0.043154616 0.3175805 3.1451478
0.116620384 -0.06277508 -0.7465615 1.6915631 1.7666669 0.7705849 0.93283755 -0.18733452
1.0434449 0.5083421 -0.0073932917 -0.03692323 -0.10907988 -0.14064075 0.13635916 0.10959923
1.3778193 -1.7032559 -0.33866277 -0.57013524 0.7642599 -0.24262942 -0.63239735 -0.7885883
-1.2163315 0.790159 0.42193 0.25390115 -0.02547569 -0.20833358 -0.08316777 0.2785206
-0.23264466 3.6546602 -1.213569 -1.129025 0.09866427 -0.94122124 -0.77177155 1.3226085
0.5148635 0.22825527 0.29609892 -0.00398321 -0.07882699 -0.009337781 0.116625816 -0.21169902
-0.10270157 -0.19489756 -8.000657 0.88851726 0.076618105 0.81047046 0.29893184 -0.33573943
-0.31958652 -0.0014976787 -0.2666928 1.199264 0.7087618 0.16813707 0.12205826 0.20706947
-0.31282774 0.40468854 -0.28640205 -2.4717479 1.5321562 -0.54978436 1.3034855 -2.5158746
0.82126784 0.71759915 -1.0497366 0.5134214 -0.112993054 -0.95079356 0.87118036 -0.1647292
-0.1586758 -0.71994424 -0.4556902 0.09352807 -0.65014654 -0.792691 0.09861766 -1.0455363
-0.2547133 0.14661397 -1.3736103 0.8622784 -0.51919895 1.4264022 0.15624976 0.058539983
0.016542306 0.01770193 0.09283425 0.05508721 -0.031868547 7.1135426 -1.8156105 -1.2615228
0.57799375 -1.8455521 2.7752557 0.22293225 -1.0789647 -0.40022075 3.3372562 -1.1968313
0.057120167 -0.01594101 0.072973095 0.22211379 -0.20903279 -0.06942773 1.092339 -1.0213373
0.9693088 -0.062561 -0.0008391513 2.3386965 1.9299455 1.3845098 -0.22430578 1.3963327
-0.5246054 0.0855218 0.0019265263 -0.05130893 0.17066325 -0.08227456 -0.0141734 3.5866594
00000000: d78c 4740 e325 cabd 37ea 77bf 9afa d33f
00000010: 8080 053f 7aad 333f d9e2 833f 1c49 a7be
00000020: 5ef7 15bf 1067 1d3f cbca 013f 0781 0c3e
00000030: 4583 2c3e 20ab a4bd 86aa 70bc 4766 8a3c
00000040: 5a74 9ebd 4f11 023c 9e4a 92be 973c d4bc
00000050: 3d12 4fbe 4254 49bf 3f44 023e b629 aa3f
00000060: 8b8f 3b3f 92bb 11bf a4cb d23e 9b8f bfba
00000070: e811 803d 4bd4 9abd 8db1 b23c 6091 a93d
00000080: 0bf0 833c 9aaa 90bd 14fd 8c3f 5ce3 3c3d
00000090: 53a7 eebe a710 04be 1531 883e c25d dfbf
000000a0: 3b1f 6cbf 54aa 2a3f 0874 1dbf 3a60 cc3e
000000b0: be00 a93d af29 913d a7b0 48bc a953 70be
000000c0: 105b 8dbe 2e19 583e 7d13 9b3d bbe3 51c0
000000d0: 09df 1a3e 45e2 3bbd bf06 233d 2e61 08bf
000000e0: 12ff b33f 31e5 f83e 3cc2 4ebe 03aa 1f3f
000000f0: a1f9 a7bf 9e3d 133f 442f 37be 14f8 05be
00000100: 0a9d 043f acdc c7be 486b 83be a5d7 99be
00000110: 6012 2a40 08ef 0a3f 4955 80bf 952b 96bf
00000120: 33d7 453f c78f 203e f58d 363f aa6a 093f
00000130: b1d3 03bf ccbc ac3f 8618 553f 9454 17be
00000140: 135c 3abe bcd7 14be f0d8 a0be c3a2 293e
00000150: 7b0a ea3d c92f 55bf d5be c53e def9 6b3e
00000160: 0123 d8bf 8cf3 11bf 7b20 c8be afdc 6c3f
00000170: 722c e93d 2d6b 60bf b7ec 103f 647d 92bc
00000180: d720 7abe bc19 9e3d 7872 563e 1c8c a83c
00000190: 7899 33bd c950 edbd 29fc 153f 5a10 47c0
000001a0: 946a 22be af10 fe3d a0cc ab3e fffd a5bd
000001b0: c5c6 b2bf 3153 71bf fae7 4dbf 1326 0b3f
000001c0: 876a 89be dd1f 8ebe 5243 0dbb 61cb 84bd
000001d0: 0bea ddbd e5c2 30bd e999 a23e 1a4a 4940
000001e0: abd6 ee3d 3990 80bd a81e 3fbf 2485 d83f
000001f0: 2422 e23f 0d45 453f 71ce 6e3f 9fd4 3fbe
00000200: 9a8f 853f b522 023f 6d43 f2bb d03c 17bd
00000210: 4665 dfbd 2104 10be bca1 0b3e 9075 e03d
00000220: 625c b03f 4a04 dabf 3565 adbe 62f4 11bf
00000230: 89a6 433f d973 78be cbe4 21bf ece0 49bf
00000240: c0b0 9bbf dc47 4a3f 3507 d83e 55ff 813e
00000250: 65b2 d0bc 6655 55be dd53 aabd 419a 8e3e
00000260: 673a 6ebe f4e5 6940 3b56 9bbf e483 90bf
00000270: 7e10 ca3d e0f3 70bf d292 45bf 3c4b a93f
00000280: 18ce 033f c0bb 693e 479a 973e 9685 82bb
00000290: 0c70 a1bd 7efd 18bc 84d9 ee3d a1c7 58be
000002a0: 3355 d2bd 3a93 47be b102 00c1 de75 633f
000002b0: f4e9 9c3d fe7a 4f3f 980d 993e 0ae6 abbe
000002c0: d8a0 a3be c24d c4ba f58b 88be 7c81 993f
000002d0: 6a71 353f 202c 2c3e aef9 f93d 050a 543e
000002e0: f52a a0be 5633 cf3e 4aa3 92be 1e31 1ec0
000002f0: b21d c43f abbe 0cbf 9dd8 a63f 1704 21c0
00000300: 9c3e 523f 94b4 373f c55d 86bf 966f 033f
00000310: e768 e7bd 3567 73bf ad05 5f3f c5ae 28be
00000320: e97b 22be 444e 38bf 3a50 e9be a58b bf3d
00000330: 0170 26bf cced 4abf 0ef8 c93d 22d4 85bf
00000340: c869 82be f921 163e 76d2 afbf 47be 5c3f
00000350: 39ea 04bf 5994 b63f f0ff 1f3e 9fc7 6f3d
00000360: bb83 873c a303 913c e21f be3d 20a3 613d
00000370: 9888 02bd 24a2 e340 ed65 e8bf 9479 a1bf
00000380: 66f7 133f 0d3b ecbf ca9d 3140 5a48 643e
00000390: 841b 8abf bce9 ccbe 9b95 5540 c531 99bf
000003a0: d6f6 693d b996 82bc eb72 953d cc71 633e
000003b0: b10c 56be 2030 8ebd c4d1 8b3f 2ebb 82bf
000003c0: 9f24 783f fb1f 80bd 7efa 5bba 34ad 1540
000003d0: 7408 f73f 9e37 b13f 6ab0 65be 08bb b23f
000003e0: 8a4c 06bf 0e26 af3d 7f83 fc3a 5029 52bd
000003f0: 59c2 2e3e 917f a8bd 8c37 68bc d48b 6540

actor.0.bias f4 [256]
-1.6219702 -1.3389705 -0.8711141 -0.22326155 0.051344838 -2.3503633 -0.1062791 -1.1962528
-1.1999611 -1.4054167 -0.3817525 1.8870001 -2.5793924 -0.107428364 -2.9195278 -0.8004198
-0.33944276 -2.4277132 -1.173717 -1.1112912 -2.5527124 -1.0872895 -1.3046123 -2.2757611
-0.9174217 -1.6663059 0.10145422 -0.28167045 -1.2797939 0.14194486 1.8292198 -0.40810907
-2.5138571 -1.2914708 -0.040629853 -0.6279674 0.762966 -1.1808484 -1.5180364 -3.0857992
-0.33074084 -2.5147882 -1.2199423 -0.2886819 0.4185849 -1.6607559 -0.44470668 -2.4484239
-2.649694 0.6927868 -1.1883954 0.645988 -0.0407526 -0.7718837 -0.5375264 -1.6187973
-1.9694538 -2.0524545 -0.9322314 -2.078232 -2.397843 -1.1092423 -2.4274755 0.07999143
-1.7005328 -2.0791929 -0.5914423 -0.4023166 -1.0912534 -1.5452057 -1.9969963 -1.7146091
-2.0897744 -2.019424 -1.1409973 -1.564443 -1.9444997 -0.2924222 -1.3925089 1.9054383
-0.7852637 -2.5847292 -1.7169044 -1.6183944 -1.0113143 -1.7428846 -2.104326 -1.4371142
-1.3994268 -0.97408986 -0.5425278 2.8400755 -1.6433388 -1.1496975 -2.1353228 -1.0817667
-2.2082508 -1.8358998 0.99027324 -1.5639737 -1.141047 -0.5866932 -0.8815849 -2.4690845
-0.7784602 -1.3007997 -0.94017965 -2.2919157 -2.146104 -1.6464989 2.3380787 -1.5267204
-1.4838299 -1.7707095 -2.4427407 -2.5156655 -2.2992535 -0.4398032 -1.9053975 -1.0014055
-0.05534044 -2.0800169 2.5691302 -1.1429458 -1.5733999 -2.5629177 -1.5619988 -1.2692857
-1.0604922 -2.8030882 -0.77537996 -2.4551666 -2.6926475 -0.8997167 -1.0002086 -1.393168
-2.4841313 -1.0950843 -0.88221985 -1.7828227 -1.3366487 0.23212759 -1.849062 -1.8094447
-2.4028285 -0.97661185 -0.19748232 -2.2551718 -1.6263041 -1.3471512 -0.5122506 0.34631065
-1.1247294 -1.9349847 -0.91463 -2.5303776 -1.13853 -0.8241118 -0.5078537 -2.172069
1.0810236 -2.02396 -2.415241 -1.7339865 4.026249 -2.077046 -2.8278816 -1.821406
2.201377 -0.032019243 -0.07440776 -0.8345437 -0.28265077 -2.2225091 -1.8782108 -1.9129866
-1.2216247 -1.5124276 -1.1205252 -1.242981 -2.183468 -0.14960472 -0.46308756 -2.1979868
-1.3200524 -0.71609807 -1.9327478 -1.5706341 -1.9426738 -2.5828772 -0.7103442 -1.2132088
-1.4424968 -1.0625482 -2.0117886 -1.5562613 -1.8657349 -1.9803182 0.2877232 -1.2714123
-1.9699845 -1.0768077 -2.16037 -0.09381869 -0.82573843 -2.0145326 -2.4188445 1.6223347
-0.5793543 -1.1147249 0.6287836 -0.56578 -2.59786 1.0153213 -1.8974115 0.69002914
-0.57737184 1.3279026 -1.4147944 -1.1957812 1.8245838 2.4965208 1.8947766 -0.9570538
0.5123842 -1.7464316 -1.8218288 -2.066306 0.49005523 -2.3287077 0.81635505 -1.629124
-1.381883 -2.0801785 -1.4135448 1.6575958 -0.14241654 -2.2235696 2.0855393 -2.1000044
-1.1358998 -2.4505603 -2.375653 -1.5847121 0.91445196 0.4617511 -1.2867343 -1.1375211
-2.1808286 -2.2337098 -2.0278165 -0.42252445 2.7193177 -1.8213526 -2.022731 2.6950684
00000000: b89c cfbf 6363 abbf 5501 5fbf ad9e 64be
00000010: f74e 523d 5a6c 16c0 dba8 d9bd d01e 99bf
00000020: 5398 99bf b2e4 b3bf 1075 c3be 3889 f13f
00000030: c414 25c0 6703 dcbd 8bd9 3ac0 50e8 4cbf
00000040: 71cb adbe a75f 1bc0 5c3c 96bf ca3e 8ebf
00000050: a45f 23c0 4d2c 8bbf 89fd a6bf 12a6 11c0
00000060: 26dc 6abf 8349 d5bf 3bc7 cf3d 1c37 90be
00000070: 49d0 a3bf fe59 113e e023 ea3f acf3 d0be
00000080: 09e3 20c0 ea4e a5bf 7d6b 26bd 79c2 20bf
00000090: bd51 433f 0a26 97bf 044f c2bf bc7d 45c0
000000a0: dd56 a9be 4af2 20c0 1227 9cbf 1dce 93be
000000b0: c350 d63e a693 d4bf 98b0 e3be fab2 1cc0
000000c0: 9694 29c0 7a5a 313f 571d 98bf 785f 253f
000000d0: 33ec 26bd 2c9a 45bf 559b 09bf c034 cfbf
000000e0: 1017 fcbf 6a5b 03c0 b8a6 6ebf c101 05c0
000000f0: 4276 19c0 a7fb 8dbf c25b 1bc0 8cd2 a33d
00000100: 0fab d9bf 7f11 05c0 c368 17bf 71fc cdbe
00000110: 31ae 8bbf 4dc9 c5bf 939d ffbf 5078 dbbf
00000120: ddbe 05c0 3e3e 01c0 330c 92bf ab3f c8bf
00000130: 5ee5 f8bf 5db8 95be bb3d b2bf 67e5 f33f
00000140: 0b07 49bf 346c 25c0 86c3 dbbf 8c27 cfbf
00000150: bf72 81bf d816 dfbf 47ad 06c0 5cf3 b7bf
00000160: 6b20 b3bf f45d 79bf 1ae3 0abf ccc3 3540
00000170: ed58 d2bf 4a29 93bf 21a9 08c0 5577 8abf
00000180: fb53 0dc0 c4fe eabf 8c82 7d3f 4a30 c8bf
00000190: d40d 92bf 8731 16bf 8caf 61bf 7b05 1ec0
000001a0: 2b49 47bf 9b80 a6bf 9daf 70bf bfae 12c0
000001b0: c559 09c0 7ac0 d2bf 15a3 1540 936b c3bf
000001c0: 23ee bdbf 9ca6 e2bf dd55 1cc0 aa00 21c0
000001d0: f826 13c0 e32d e1be 11e4 f3bf 0e2e 80bf
000001e0: a8ac 62bd ff1e 05c0 a16c 2440 0c4c 92bf
000001f0: 2b65 c9bf d806 24c0 94ef c7bf f477 a2bf
00000200: 35be 87bf cc65 33c0 4d7f 46bf 7321 1dc0
00000210: 5654 2cc0 d553 66bf d606 80bf 5453 b2bf
00000220: 02fc 1ec0 b92b 8cbf 29d9 61bf 8933 e4bf
00000230: 4e17 abbf dbb2 6d3e 10ae ecbf e29b e7bf
00000240: f1c7 19c0 3c03 7abf ce38 4abe bc54 10c0
00000250: bc2a d0bf 736f acbf db22 03bf a14f b13e
00000260: 22f7 8fbf 94ad f7bf 3125 6abf b5f1 21c0
00000270: 5abb 91bf fef8 52bf b302 02bf 2e03 0bc0
00000280: fb5e 8a3f 9088 01c0 4f93 1ac0 45f3 ddbf
00000290: 08d7 8040 52ee 04c0 03fc 34c0 d523 e9bf
000002a0: 5ce3 0c40 9c26 03bd 1863 98bd a8a4 55bf
000002b0: 9ab7 90be 973d 0ec0 3669 f0bf bfdc f4bf
000002c0: 335e 9cbf 3a97 c1bf 5f6d 8fbf 001a 9fbf
000002d0: f1bd 0bc0 fb31 19be d019 edbe d1ab 0cc0
000002e0: 7af7 a8bf 3452 37bf 4864 f7bf 8a0a c9bf
000002f0: 89a9 f8bf dc4d 25c0 1ed9 35bf 6d4a 9bbf
00000300: bca3 b8bf 9401 88bf 25c1 00c0 9233 c7bf
00000310: 67d0 eebf 117b fdbf 7550 933e a3bd a2bf
00000320: 7428 fcbf d6d4 89bf 8143 0ac0 0324 c0bd
00000330: 9863 53bf 1aee 00c0 59ce 1ac0 aaa8 cf3f
00000340: 9050 14bf 4eaf 8ebf f6f7 203f f5d6 10bf
00000350: 5743 26c0 0cf6 813f 61de f2bf c0a5 303f
00000360: a4ce 13bf b6f8 a93f fc17 b5bf 5c0f 99bf
00000370: f68b e93f ffc6 1f40 0a88 f23f 7a01 75bf
00000380: 9c2b 033f 128b dfbf b031 e9bf 5c3e 04c0
00000390: 85e8 fa3e 8c09 15c0 a5fc 503f 2387 d0bf
000003a0: 8be1 b0bf a521 05c0 09ef b4bf 192c d43f
000003b0: a4d5 11be f74e 0ec0 7a79 0540 7966 06c0
000003c0: 2a65 91bf fbd5 1cc0 b30a 18c0 d9d7 cabf
000003d0: 8619 6a3f a46a ec3e b6b3 a4bf 4b9a 91bf
000003e0: b292 0bc0 1af5 0ec0 bfc7 01c0 2055 d8be
000003f0: 4d09 2e40 1522 e9bf 6d74 01c0 007c 2c40

actor.2.weight f4 [256, 256]
-1.0385293 -0.7488492 -0.3351877 1.1879395 0.061439298 0.7211994 0.6025884 -1.54886
-0.40174344 -0.53076524 0.12793757 0.06119797 -1.01486 0.31117752 -0.5767271 0.7354647
-1.2905585 -0.42915222 -0.59952545 0.13517255 0.78984565 -0.5253409 0.22468184 -0.36840364
0.5034582 -1.416715 -1.3367071 0.1062621 -1.3452215 -0.8199771 -1.0722175 1.2937783
-0.8388513 -1.5296048 -0.4928966 -0.6162956 -0.17516077 -2.6999464 -0.6573498 -0.28412816
-1.0057667 -0.29005188 -1.2717463 -0.8820434 -0.34523287 -1.4764692 -0.70666534 -1.30319
-0.7697207 -2.5352478 -1.0459956 -1.4367555 -1.8286457 0.5993715 -0.8558478 -0.03087699
-0.5106244 -1.1004436 0.37380552 -1.2966197 -0.86279017 -0.41317436 -0.06721572 0.76336163
-0.5348414 0.4269063 0.82949984 0.592619 -0.8831743 0.073858745 -0.80246365 -2.6848748
-0.5854037 0.017126475 0.2804084 0.56096804 -0.9778717 -0.41774297 -0.86617905 0.26564977
-0.38687325 0.43271533 -0.49951395 -1.6964585 0.5271203 -2.7608252 -0.59495616 0.2977311
1.3017194 -0.95542854 0.17232573 -1.0217295 -1.1834517 -0.113214165 0.7306846 1.281853
-2.5103204 0.0073944353 -0.97004634 -0.29202792 -0.5919636 -0.61239684 0.16940051 -2.1627934
-0.8891741 -1.9467906 0.036459196 -1.0344621 -0.61909914 -0.3673474 0.17340845 -0.705934
-1.1605651 -0.45136645 -0.97162455 -1.7171313 -0.4832398 -2.1983817 -1.4870232 0.2121587
-0.37008375 -0.9412723 -0.011986446 -0.09398427 0.1270876 0.24399555 0.063816786 -0.13017274
-0.53790027 -1.0547241 -1.3703471 -1.0430491 -0.21070808 -0.060059402 -0.31492186 -1.9591495
-1.3340514 -0.7793487 0.49288735 -1.3444152 0.07670226 -0.47300017 0.11838895 -0.07008901
-0.02049187 -0.31061816 -0.03393475 -0.9723661 0.15354553 -1.4163625 -0.030122194 1.7261657
0.29994547 -1.7066393 0.7499244 -0.91132736 -1.4371871 1.9226439 -0.72245115 1.2601135
-0.0055103092 -0.5282616 -1.5457965 -0.7504404 -0.23564127 -1.7384683 -0.3513436 -1.0434054
0.17863071 -0.3583183 -0.37614965 0.33990446 0.36216405 -0.65486795 0.13671325 -0.7105828
-1.229491 -1.8154943 0.23484138 -1.0359832 -0.33872384 -0.3634235 0.29291922 -1.6421765
0.7348604 -2.6327631 -0.9684761 -1.0953032 -0.2595639 -1.285311 -0.3623896 -0.9205992
-0.1859174 -0.2389018 -0.16409034 -0.3901847 -0.28174946 -0.32368678 0.5355924 0.36010215
-0.66129553 -0.11361398 -0.4561313 0.17400622 -0.047903657 -0.063896246 -1.6664379 0.6458696
-0.45836818 0.21196482 0.7227415 -0.41206622 -0.6519716 -1.3489815 1.012548 -1.1460673
0.054480586 0.9249058 0.11509724 -0.2772162 -0.33496058 0.10928541 -0.7423189 -1.9596479
0.32324305 -0.29155862 -1.3049483 -3.1828027 -0.037148073 -0.9672672 -1.0334522 -0.2979765
-1.3028933 0.28001773 -0.32405758 -0.16548826 -0.5607569 -2.6397407 0.4085552 -0.6139239
-1.3300469 -0.3064245 -0.032980144 -0.65500265 -0.08110266 -0.7601134 0.4374595 0.24802387
-0.5721895 -1.0730399 -1.4931641 -0.3072957 -0.3140565 0.20396063 -0.5213438 -0.10699453
00000000: 87ee 84bf 95b4 3fbf b99d abbe 670e 983f
00000010: c6a7 7b3d 86a0 383f 3c43 1a3f 0b41 c6bf
00000020: 51b1 cdbe 3be0 07bf 1102 033e b9aa 7a3d
00000030: efe6 81bf a952 9f3e 63a4 13bf 6a47 3c3f
00000040: 0531 a5bf d7b9 dbbe 807a 19bf ac6a 0a3e
00000050: 5333 4a3f be7c 06bf ff12 663e 679f bcbe
00000060: a3e2 003f eb56 b5bf 3819 abbf f29f d93d
00000070: 3830 acbf 05ea 51bf 6c3e 89bf 879a a53f
00000080: f5be 56bf 17ca c3bf f15c fcbe 8cc5 1dbf
00000090: 585d 33be eccb 2cc0 1448 28bf 3f79 91be
000000a0: f7bc 80bf ae81 94be 95c8 a2bf 99cd 61bf
000000b0: 5dc2 b0be f1fc bcbf 05e8 34bf eece a6bf
000000c0: 6a0c 45bf 8041 22c0 2fe3 85bf 9be7 b7bf
000000d0: 1011 eabf 6970 193f d718 5bbf bef1 fcbc
000000e0: 48b8 02bf 56db 8cbf 7063 bf3e a2f7 a5bf
000000f0: d1df 5cbf 978b d3be 65a8 89bd ab6b 433f
00000100: 5eeb 08bf 7693 da3e 1a5a 543f e1b5 173f
00000110: b617 62bf 4143 973d 426e 4dbf fdd4 2bc0
00000120: 04dd 15bf d24c 8c3c b191 8f3e 9a9b 0f3f
00000130: cd55 7abf 68e2 d5be e9bd 5dbf 3f03 883e
00000140: 4014 c6be dd8c dd3e 4bc0 ffbe 8d25 d9bf
00000150: 5bf1 063f 5cb1 30c0 0c4f 18bf 3670 983e
00000160: be9e a63f f796 74bf 2876 303e 08c8 82bf
00000170: 587b 97bf d4dc e7bd 250e 3b3f c213 a43f
00000180: 17a9 20c0 054d f23b f554 78bf af84 95be
00000190: ed8a 17bf 0ac6 1cbf 5477 2d3e 356b 0ac0
000001a0: eaa0 63bf 6f30 f9bf 3d56 153d 4169 84bf
000001b0: 487d 1ebf f514 bcbe fc91 313e 17b8 34bf
000001c0: 668d 94bf 8119 e7be 63bc 78bf f5ca dbbf
000001d0: 356b f7be 49b2 0cc0 c756 bebf 2140 593e
000001e0: 9e7b bdbe 39f7 70bf cc62 44bc d37a c0bd
000001f0: 4023 023e f8d9 793e 60b2 823d 014c 05be
00000200: d5b3 09bf 3301 87bf 8967 afbf a282 85bf
00000210: dcc3 57be d900 76bd 703d a1be 69c5 fabf
00000220: 32c2 aabf 6583 47bf bb5b fc3e cc15 acbf
00000230: 1316 9d3d 142d f2be e875 f23d d48a 8fbd
00000240: 91de a7bc 5809 9fbe 2aff 0abd fcec 78bf
00000250: 0a3b 1d3e 5e4b b5bf d2c2 f6bc fff2 dc3f
00000260: 7492 993e 2873 dabf 0cfb 3f3f c04c 69bf
00000270: bff5 b7bf 3219 f63f 8ff2 38bf 664b a13f
00000280: d38f b4bb 273c 07bf a9dc c5bf dd1c 40bf
00000290: f24b 71be 2186 debf 4fe3 b3be 4f8e 85bf
000002a0: f8ea 363e 7f75 b7be b096 c0be f507 ae3e
000002b0: 916d b93e 6da5 27bf 8ffe 0b3e c1e8 35bf
000002c0: f65f 9dbf 1e62 e8bf 427a 703e 199b 84bf
000002d0: 366d adbe a512 babe 82f9 953e d732 d2bf
000002e0: d01f 3c3f 317f 28c0 0dee 77bf e532 8cbf
000002f0: 8fe5 84be 1285 a4bf 218b b9be 64ac 6bbf
00000300: 2261 3ebe aca2 74be 4c07 28be 4ac6 c7be
00000310: 7741 90be 46ba a5be 951c 093f 4f5f b83e
00000320: aa4a 29bf 72ae e8bd 0b8a e9be b02e 323e
00000330: a036 44bd 09dc 82bd d64d d5bf b657 253f
00000340: 3caf eabe 4e0d 593e 9605 393f 58fa d2be
00000350: 9ce7 26bf 6dab acbf 2c9b 813f 55b2 92bf
00000360: 0927 5f3d a0c6 6c3f 1ab8 eb3d 48ef 8dbe
00000370: f47f abbe 07d1 df3d 9d08 3ebf bed5 fabf
00000380: 1d80 a53e 2c47 95be 8c08 a7bf 0ab3 4bc0
00000390: 9428 18bd d39e 77bf 2948 84bf 6090 98be
000003a0: 35c5 a6bf 7c5e 8f3e e0ea a5be c175 29be
000003b0: c48d 0fbf 83f1 28c0 262e d13e 1e2a 1dbf
000003c0: fa3e aabf ace3 9cbe 3016 07bd 41ae 27bf
000003d0: 2719 a6bd cb96 42bf b1fa df3e f8f9 7d3e
000003e0: 037b 12bf 5f59 89bf 0020 bfbf dd55 9dbe
000003f0: 03cc a0be 0edb 503e ca76 05bf f31f dbbd

actor.2.bias f4 [256]
-0.032930486 -0.632436 -0.20183 -0.4193759 -1.5141915 -1.1382139 -0.5040518 -0.17741174
-0.21122774 -0.91042906 -1.5181217 -1.2952938 -0.7153097 -0.70049465 -0.6529781 -0.098636866
-1.0923669 -1.5283499 -0.7300695 -1.1748531 0.004644932 0.21601671 -1.1880164 0.120905705
-1.6506025 -0.3173532 0.5487283 -1.4200342 -0.6880904 -0.49784327 0.008251863 -0.9145919
-0.83006656 0.43932843 -1.3051583 -0.3221094 -0.4561444 0.5281542 0.506099 -0.82034457
-1.1011074 0.28721964 -0.45210403 -1.2153447 -1.0096465 -1.0835564 0.27608517 -0.6381386
0.6954205 0.23684719 -1.2481304 -0.34687698 -0.29157203 -0.08876847 -1.0463016 0.01665259
0.4664554 -0.8957772 -0.9771582 -0.08342403 -1.5153326 0.3417906 -1.0465262 -0.48734486
-0.78209287 -2.2945764 -1.3041822 -0.6216774 -1.50817 -0.90681034 1.060511 -0.63026035
-1.5638309 -0.76989865 -1.4968942 -1.2788578 2.5434375 -0.95183146 -0.9743471 -1.1786069
-0.67025536 -0.38995618 -0.81514186 0.9173328 1.09157 1.1403321 -0.600397 -0.14941332
-0.3385863 0.20488092 0.46274495 0.6972931 0.49785927 0.35228178 1.7460241 0.11076841
-0.7762419 -0.7821481 -0.33195615 -0.62099546 -1.0153213 -1.3123976 -0.36363226 -0.34273532
-0.09909075 -0.446572 -0.3295107 -0.3375747 -0.3593986 0.22824165 0.7611584 -1.0194172
-1.1213841 -0.021864658 -0.1279776 -1.7757215 -0.95256597 -0.623855 -1.2364413 -0.7205246
0.354428 -0.95867866 -0.6580761 -0.73739433 -0.24301535 -1.4363651 0.249082 -0.4531143
-0.15899572 -0.23230064 0.012394195 0.442531 0.05894123 0.047514237 -0.8901165 -0.83238494
0.14084719 -1.2855781 -0.0395773 -1.5183151 -1.8802587 -0.76401055 -0.37008336 -0.86380094
-0.95115906 -0.008131833 -0.1917906 0.33010852 -1.307075 -1.4946947 -0.35870218 -0.18325168
-1.2553703 0.5073107 -1.1843687 -1.0040194 -0.63291174 -0.09661689 -0.57832944 0.36396837
-0.18146603 -0.25527194 -0.56559277 0.38142195 -0.86443514 0.25162017 -1.3219838 0.02766841
-1.0470214 0.18425933 -0.49017704 -0.08184259 -0.5881938 -0.80215377 0.62831604 -0.4830204
0.6014597 -0.07845386 -0.50671947 -0.9423369 -0.30251014 -0.8900474 -0.73259085 -0.19069624
-0.46011525 -0.25746256 -1.011755 -0.7121059 -1.1038809 -1.3097901 -1.6621679 -0.32328686
-0.18014683 -0.5766723 -0.66954726 -0.61204064 -0.6700827 -1.3418822 -0.53856146 0.35830736
-0.5317792 0.49693462 -1.0689613 -0.44077083 -0.53978413 -0.41862354 -0.10888253 0.22096485
0.19627522 -0.23390625 -0.07892983 -0.8831005 -0.65768814 -0.7663467 -0.16313282 -1.0387582
-0.87563664 -0.002569371 -0.38948828 -2.037301 -1.7815889 -0.21227793 -0.2514029 -0.90687966
-0.4141859 -0.9516444 -0.621566 -0.5412212 4.2399406 -0.50880015 -1.0259833 -0.6604397
-0.45843452 -1.8290004 -0.79503065 -0.036828715 -0.26085332 -0.5098494 0.76751703 0.29559088
-0.57083184 1.0308454 -0.9587853 -0.52634805 -1.049319 -0.46417865 -0.39275718 -1.046038
-1.3402672 -1.0027916 -0.86062485 -1.9587045 -0.9482398 -1.206031 -0.52403027 0.71838444
00000000: 1ee2 06bd 53e7 21bf 86ac 4ebe 70b8 d6be
00000010: 07d1 c1bf feb0 91bf 8a09 01bf 6cab 35be
00000020: 164c 58be e111 69bf d051 c2bf 30cc a5bf
00000030: 891e 37bf 9e53 33bf 9329 27bf 2002 cabd
00000040: aed2 8bbf f8a0 c3bf d6e5 3abf 9661 96bf
00000050: 8434 983b 7c33 5d3e ec10 98bf 699d f73d
00000060: f146 d3bf 1e7c a2be 7579 0c3f aec3 b5bf
00000070: b126 30bf 50e5 febe d232 073c b222 6abf
00000080: 3e7f 54bf a8ef e03e 6d0f a7bf 86eb a4be
00000090: c28b e9be 1d35 073f b48f 013f 1a02 52bf
000000a0: 16f1 8cbf 740e 933e 2e7a e7be 6a90 9bbf
000000b0: 193c 81bf fab1 8abf 095b 8d3e 0d5d 23bf
000000c0: 1407 323f 1288 723e bdc2 9fbf dc99 b1be
000000d0: ee48 95be 3ecc b5bd 36ed 85bf 036b 883c
000000e0: 3ed3 ee3e a851 65bf 0a27 7abf 38da aabd
000000f0: 6bf6 c1bf 2dff ae3e 92f4 85bf 4485 f9be
00000100: 3d37 48bf 57da 12c0 71ef a6bf 4026 1fbf
00000110: b70b c1bf b924 68bf d3be 873f be58 21bf
00000120: 9c2b c8bf 1418 45bf 3b9a bfbf 9db1 a3bf
00000130: aec7 2240 3aab 73bf d06e 79bf 97dc 96bf
00000140: db95 2bbf 56a8 c7be 23ad 50bf 53d6 6a3f
00000150: 91b8 8b3f 67f6 913f 9eb3 19bf ceff 18be
00000160: 2f5b adbe 4ecc 513e e8ec ec3e cd81 323f
00000170: 69e7 fe3e 475e b43e b87d df3f 8cda e23d
00000180: cab7 46bf dc3a 48bf 28f6 a9be 8ff9 1ebf
00000190: 0cf6 81bf a5fc a7bf 022e babe 017b afbe
000001a0: 17f0 cabd 16a5 e4be a0b5 a8be 97d6 acbe
000001b0: 1803 b8be 2eb8 693e 47db 423f 437c 82bf
000001c0: 8489 8fbf 831d b3bc 8f0c 03be d84a e3bf
000001d0: 5ddb 73bf f6b4 1fbf b543 9ebf 4d74 38bf
000001e0: 9677 b53e f76b 75bf ad77 28bf e0c5 3cbf
000001f0: 04d9 78be d0da b7bf 5a0f 7f3e 99fe e7be
00000200: c6cf 22be 38e0 6dbe 0611 4b3c 6c93 e23e
00000210: 5c6c 713d 4a9e 423d adde 63bf 2e17 55bf
00000220: 3f3a 103e d38d a4bf cf1b 22bd 2658 c2bf
00000230: 51ac f0bf 3296 43bf 917b bdbe 0f22 5dbf
00000240: 297f 73bf 613b 05bc c164 44be fc03 a93e
00000250: 3c4e a7bf 2852 bfbf d0a7 b7be 54a6 3bbe
00000260: f9af a0bf 1ddf 013f 6599 97bf b583 80bf
00000270: 8106 22bf 13df c5bd 660d 14bf 105a ba3e
00000280: 3bd2 39be 01b3 82be b0ca 10bf bd49 c33e
00000290: 9f4b 5dbf 5cd4 803e c436 a9bf dda8 e23c
000002a0: cc04 86bf 7aae 3c3e 7cf8 fabe 169d a7bd
000002b0: de93 16bf f359 4dbf 52d9 203f 734e f7be
000002c0: 43f9 193f 6bac a0bd 5eb8 01bf fe3c 71bf
000002d0: 9ce2 9abe 25da 63bf 138b 3bbf e045 43be
000002e0: 3a94 ebbe 22d2 83be 3081 81bf 924c 36bf
000002f0: f84b 8dbf 34a7 a7bf ebc1 d4bf db85 a5be
00000300: 6978 38be cca0 13bf 7367 2bbf b2ae 1cbf
00000310: 8a8a 2bbf ccc2 abbf 2adf 09bf 1074 b73e
00000320: af22 08bf 376e fe3e b9d3 88bf b7ac e1be
00000330: 4b2f 0abf d355 d6be cefd debd 9c44 623e
00000340: 5ffc 483e 1f85 6fbe f6a5 a1bd e012 62bf
00000350: 405e 28bf 4c2f 44bf 4a0c 27be 07f6 84bf
00000360: b929 60bf e462 28bb 026b c7be 2463 02c0
00000370: 1b0b e4bf 635f 59be e2b7 80be 4429 68bf
00000380: 2d10 d4be f89e 73bf f31e 1fbf 798d 0abf
00000390: 98ad 8740 ba40 02bf 6c53 83bf 9412 29bf
000003a0: eeb7 eabe af1c eabf 2187 4bbf b5d9 16bd
000003b0: 918e 85be 7e85 02bf ff7b 443f b057 973e
000003c0: 0922 12bf bef2 833f f472 75bf bfbe 06bf
000003d0: 1650 86bf d3a8 edbe 7817 c9be 93e4 85bf
000003e0: e08d abbf 7a5b 80bf e951 5cbf d4b6 fabf
000003f0: d8bf 72bf 395f 9abf d926 06bf 0be8 373f

actor.4.weight f4 [12, 256]
0.22062877 -0.8991167 -0.55220896 0.3824193 -0.65792435 -0.6876769 -2.7411547 -1.2658253
-0.429047 -1.5407906 -0.4564144 -0.19151373 0.18293609 -0.6781059 0.3557213 0.016700841
-1.8256541 -1.558619 0.36607677 -0.16352196 -0.09570748 -0.6904745 -1.642212 0.31026387
-0.058937874 0.16976947 0.2539938 0.21242733 -0.56822425 -0.66993153 -0.17631386 0.12325399
-1.0106608 -3.7890043 0.10948165 0.31139132 -0.23221435 -0.08505221 -0.41048113 -1.7686989
-0.48049033 -0.4374382 0.081918955 -1.0729301 0.05651833 -2.5499275 1.3037366 0.13101493
-1.9197813 -0.9083644 -0.90900904 -1.2506026 -3.2009852 0.00040461746 -0.58782184 -1.2530346
-0.89395726 -0.8407106 -0.6785278 0.003475668 -1.1777568 -0.40793744 -3.132124 -0.5071502
0.16129355 -0.6732233 0.0884127 0.028135475 -0.8534483 -0.6617267 -0.04673387 -0.27018288
-2.5348573 -1.3521258 -1.0965226 0.1723552 0.66589063 -2.5426168 -0.12040382 0.06300964
-0.19243096 -0.014803227 1.0406555 -1.8049079 -0.04274017 0.16969103 0.41930658 -0.391595
-2.3899283 -0.009067774 0.24442334 0.3736305 0.13836703 -0.2729934 0.6436295 -0.42095637
-2.8874269 -1.2707404 0.39331958 -0.87625724 -0.29188624 -0.5979853 -0.18263182 0.29979077
-0.37888995 -0.042618494 -0.56134313 -0.32783657 0.11278108 -1.7711995 -0.8678319 -1.1538801
-1.103256 -1.0947462 0.0035274103 -1.0502403 -2.0741441 -1.5502791 0.6226056 -1.5223495
-1.4742411 -0.24680218 -0.3243097 -0.18365964 0.5915655 -0.4832096 -0.03614069 0.02169119
0.23627688 -0.81525874 0.2300693 -0.0004012107 0.32335487 -1.3871793 -0.76105696 -0.56855655
-0.121863596 -0.7370576 -0.16977876 -1.015001 0.5213244 -0.0938694 1.2546071 0.003914808
-0.46970546 0.52405435 -0.28913763 -0.26111585 -0.29472572 -0.3684659 -1.0678679 1.1726657
-1.0071292 -0.15071554 -1.7898326 -1.2777591 -0.29237458 -0.13524324 -0.7526057 0.14979178
-0.48936078 -0.038364675 -0.09434788 -1.2046412 0.11371961 0.14928389 -1.2821631 0.14134426
-1.923062 1.0358819 -0.44746956 -3.497454 0.075594075 0.18896401 -1.0729305 -1.0391635
-0.060786195 -0.25639185 3.1424737 -0.25922477 -0.53173465 0.68577135 -0.5704332 -4.7311697
-0.10020603 0.22407314 -0.34538236 -0.27995348 -2.2010772 -0.6454368 -0.78317577 0.010868878
-0.13682067 0.02253258 -0.2547196 -0.031115565 -0.2562356 -0.1556398 0.4569676 -0.06610278
0.19511989 1.1249589 -1.2244055 -0.040455822 -1.6876754 -0.19331156 0.4963689 -0.39306697
0.67296076 0.74119186 -0.23526175 0.48664236 -2.2971842 1.8076706 0.047340427 -0.5780746
-0.12594648 -0.5053368 0.5615129 -2.1468203 -1.3748168 -2.2011688 0.31213805 0.23717703
0.21135686 -0.7383546 1.7758704 -1.4066023 -0.06825474 -0.13572574 -1.6364948 -0.39943638
0.11864412 -3.0755587 0.037935685 0.1341241 4.76597 -0.3106351 -0.57024676 -0.2605815
-2.2433028 0.25617012 -0.5153118 -0.91629106 0.1908294 -1.0967482 0.33603266 -0.18454328
-0.13701151 -1.307906 -0.8123208 -1.2788799 0.21272832 -0.7956536 -0.7381536 0.5091401
00000000: 82ec 613e 832c 66bf 915d 0dbf 76cc c33e
00000010: bb6d 28bf 980b 30bf 146f 2fc0 9006 a2bf
00000020: 0cac dbbe a038 c5bf 26af e9be 2d1c 44be
00000030: 9953 3b3e 5998 2dbf 1a21 b63e 34d0 883c
00000040: 09af e9bf d480 c7bf 6a6e bb3e 4d72 27be
00000050: 4902 c4bd f0c2 30bf 0134 d2bf e8da 9e3e
00000060: d768 71bd 0cd8 2d3e 7a0b 823e 8d86 593e
00000070: 2577 11bf a280 2bbf 9f8b 34be 976c fc3d
00000080: 555d 81bf 0c7f 72c0 ea37 e03d af6e 9f3e
00000090: 99c9 6dbe da2f aebd 952a d2be ba64 e2bf
000000a0: d402 f6be e6f7 dfbe 20c5 a73d c655 89bf
000000b0: c47f 673d 0332 23c0 d7e0 a63f c728 063e
000000c0: 65bb f5bf 928a 68bf d1b4 68bf bf13 a0bf
000000d0: f1dc 4cc0 d622 d439 7e7b 16bf 7063 a0bf
000000e0: 62da 64bf cf38 57bf ffb3 2dbf 08c8 633b
000000f0: bcc0 96bf 2ddd d0be b874 48c0 98d4 01bf
00000100: 232a 253e 5d58 2cbf b811 b53d 5e7c e63c
00000110: 967b 5abf ec66 29bf 046c 3fbd 6955 8abe
00000120: 1a3b 22c0 7512 adbf da5a 8cbf e27d 303e
00000130: cf77 2a3f 3cba 22c0 4796 f6bd 330b 813d
00000140: 9f0c 45be 3c89 72bc 3334 853f 3907 e7bf
00000150: 5110 2fbd 7cc3 2d3e 5aaf d63e 247f c8be
00000160: 96f4 18c0 0091 14bc 1d4a 7a3e 7f4c bf3e
00000170: 16b0 0d3e cac5 8bbe e7c4 243f 9887 d7be
00000180: 9acb 38c0 9fa7 a2bf 2f61 c93e 6552 60bf
00000190: 1d72 95be 9115 19bf d603 3bbe 2d7e 993e
000001a0: ddfd c1be bb90 2ebd 2fb4 0fbf 32da a7be
000001b0: c4f9 e63d aab6 e2bf 3b2a 5ebf 58b2 93bf
000001c0: 7e37 8dbf a520 8cbf 202c 673b 466e 86bf
000001d0: c7be 04c0 8c6f c6bf 1563 1f3f 59dc c2bf
000001e0: efb3 bcbf b6b9 7cbe ec0b a6be 4611 3cbe
000001f0: d670 173f 4067 f7be 4308 14bd b9b1 b13c
00000200: 91f2 713e ccb4 50bf 4997 6b3e 9759 d2b9
00000210: c58e a53e 178f b1bf a1d4 42bf ec8c 11bf
00000220: 9f93 f9bd cfaf 3cbf 7cda 2dbe 8eeb 81bf
00000230: 8475 053f 9a3e c0bd f796 a03f ca47 803b
00000240: 3c7d f0be 6d28 063f d909 94be fab0 85be
00000250: 4ae6 96be 90a7 bcbe e5af 88bf e919 963f
00000260: 9ce9 80bf 2d55 1abe 3c19 e5bf 9c8d a3bf
00000270: 1fb2 95be 347d 0abe c4aa 40bf 0463 193e
00000280: 7f8d fabe 4724 1dbd 7639 c1bd af31 9abf
00000290: d4e5 e83d e0dd 183e ec1d a4bf 8dbc 103e
000002a0: e526 f6bf c797 843f bb1a e5be 49d6 5fc0
000002b0: 11d1 9a3d c87f 413e c955 89bf 4f03 85bf
000002c0: f2fa 78bd cb45 83be 4a1e 4940 1cb9 84be
000002d0: c31f 08bf b68e 2f3f e907 12bf be65 97c0
000002e0: d238 cdbd 6e73 653e f5d5 b0be 1056 8fbe
000002f0: 73de 0cc0 593b 25bf 357e 48bf 6113 323c
00000300: b81a 0cbe 3f96 b83c 9b6a 82be 12e6 febc
00000310: 5031 83be 0a60 1fbe a8f7 e93e e560 87bd
00000320: 82cd 473e a7fe 8f3f 52b9 9cbf 01b5 25bd
00000330: bf05 d8bf 77f3 45be 1124 fe3e 1340 c9be
00000340: 2847 2c3f c0be 3d3f 75e8 70be 3029 f93e
00000350: 1105 13c0 c061 e73f 09e8 413d b2fc 13bf
00000360: 1df8 00be c15d 01bf 4fbf 0f3f 8165 09c0
00000370: fff9 afbf f3df 0cc0 8fd0 9f3e 89de 723e
00000380: ef6d 583e cf04 3dbf b94f e33f 8b0b b4bf
00000390: 24c9 8bbd b0fb 0abe a978 d1bf ed82 ccbe
000003a0: b0fb f23d f4d5 44c0 7362 1b3d d457 093e
000003b0: d482 9840 900b 9fbe b1fb 11bf f06a 85be
000003c0: 4692 0fc0 bb28 833e 79eb 03bf 0d92 6abf
000003d0: c868 433e 3f62 8cbf 790c ac3e eaf8 3cbe
000003e0: bf4c 0cbe 7769 a7bf 42f4 4fbf 56b2 a3bf
000003f0: 74d5 593e f4af 4bbf a2f7 3cbf 0157 023f

actor.4.bias f4 [12]
0.8767476 0.3611673 0.74652153 0.37906593 -0.04175789 0.47201732 -4.4755526 -4.453823
-3.8493788 -4.847544 -4.163183 -4.2715445
00000000: 8872 603f ecea b83e 091c 3f3f ee14 c23e
00000010: 520a 2bbd 41ac f13e ba37 8fc0 b885 8ec0
00000020: 395c 76c0 151f 9bc0 cc38 85c0 7eb0 88c0

q1.0.weight f4 [256, 23]
5.985427 -5.3565617 -0.17238626 -0.9774051 0.039698165 -2.6935098 0.011854356 0.4013224
-0.5230039 1.2788588 -0.9932195 -0.08575858 -0.04347033 0.14426765 -0.20392182 -0.5328534
0.22399873 -0.145022 -0.2599733 0.04419781 0.89990675 1.0080239 -0.8013255 2.484141
0.7002742 -1.2564702 -1.6033063 0.08246149 0.41163284 1.3821112 1.1844937 -0.10545074
-1.9175909 -1.1281171 -0.06499756 0.00730971 0.10218601 -0.2955912 0.05387731 0.23029087
-0.2140327 -0.41760987 -1.0315713 2.7649758 0.51487696 0.10931605 1.9656174 -2.9974067
-1.9715091 0.18855917 -0.24230824 -2.31646 -1.3044473 -0.14878996 -0.3383511 -1.7874111
0.6895901 0.19259137 0.19804497 -0.20216398 -0.066708356 0.17314366 0.31025267 -0.81696576
-1.0682025 -1.0405873 0.4112606 -0.50193536 -0.9961513 -0.38789284 2.352148 -0.19034272
0.17347617 0.16134135 -0.6587634 -0.45846355 0.025086073 -0.28922644 0.5260367 0.9533105
0.5644512 -0.066676505 0.18157668 0.18067479 0.177038 0.05131719 -0.03166535 0.9054389
-0.75648725 0.6232395 0.40515447 0.6138637 4.83515 -0.18835899 0.054594558 0.03588071
0.9101712 -2.213517 0.06878511 -0.1670032 -0.856877 1.9391413 0.14537972 0.23841731
0.24668738 0.13444123 -0.07256736 -0.46432552 -0.20265023 -0.30332845 0.14437634 -0.17169355
-0.80668736 -0.34499195 0.22935659 -2.2847986 -2.9653134 -0.42914748 -0.9148903 0.3492346
0.6921136 2.286172 1.0693219 -0.69609004 -0.82367516 0.7969691 0.14206012 -0.08464189
-0.059715044 -0.27980933 0.45652977 0.4713557 -0.059630927 -0.9021233 -0.105243534 -0.37327754
-0.3878915 -0.9774628 -1.1266613 0.24731965 0.2574176 0.44077742 0.0992831 -0.1658652
-0.0091735395 -0.575617 0.66773266 -0.4105274 -0.22108893 -0.06148186 -0.022515096 -0.07330861
-0.023071568 0.017820394 0.04454107 0.766465 0.24415623 0.3792174 -0.579904 -0.36076364
-0.41319036 0.6372871 -0.09441283 0.5035623 -1.0420057 -0.97670585 0.899338 -2.1379888
1.1478469 -0.58227986 -0.43091163 -0.38251084 -0.18599863 0.40292796 -0.02130152 0.012455999
-0.22183749 -0.0434397 -1.8396308 -0.97469574 -0.36731172 1.301861 1.2405438 -0.27232632
2.0208943 -0.42154428 0.84047705 -0.031059256 1.2942193 0.301245 1.2044752 0.6853766
-0.44353554 1.9949425 -0.93468916 -0.076621234 0.14553268 0.39772338 -0.15708393 -0.0871556
0.74572605 -0.17975922 0.0016552637 0.9061899 0.6749323 -0.4610092 0.64627 4.2486444
-1.3731688 -0.8436761 -0.3814996 -1.0354086 0.10199385 1.3076788 2.6310444 0.017228838
-1.9145561 -0.68337536 0.37613794 0.1595909 -0.072512455 0.077979006 -0.039650306 -0.07663882
-0.6331306 -0.9612239 2.147559 0.76363075 0.32497594 0.13913012 10.697728 -4.12194
-0.41618484 -0.24306248 -0.21169859 0.37120935 -0.62013066 -0.32403857 0.43566254 1.4785376
-0.31560534 -0.055540193 0.05378736 0.02889192 -0.017754784 -0.019454986 0.09758295 -0.8186235
-0.6472493 -0.18254556 0.7341118 0.5896487 -0.44181067 3.8106682 2.6641653 -0.37840542
00000000: 9e88 bf40 f468 abc0 0686 30be 3837 7abf
00000010: 8b9a 223d 7762 2cc0 c638 423c 217a cd3e
00000020: 95e3 05bf a5b1 a33f a243 7ebf 32a2 afbd
00000030: f20d 32bd e6ba 133e e2d0 50be 1569 08bf
00000040: ec5f 653e a680 14be 381b 85be c308 353d
00000050: 4a60 663f ed06 813f ab23 4dbf 2bfc 1e40
00000060: 2c45 333f 04d4 a0bf 2439 cdbf 92e1 a83d
00000070: 8ac1 d23e 05e9 b03f 7d9d 973f 8ff6 d7bd
00000080: 9e73 f5bf 2466 90bf 711d 85bd 4b86 ef3b
00000090: e646 d13d bb57 97be 74ae 5c3d 5fd1 6b3e
000000a0: 632b 5bbe f6d0 d5be 870a 84bf 5df5 3040
000000b0: face 033f 18e1 df3d 5a99 fb3f 83d5 3fc0
000000c0: 695a fcbf a815 413e a71f 78be e140 14c0
000000d0: 21f8 a6bf 655c 18be 5b3c adbe e3c9 e4bf
000000e0: fa88 303f ac36 453e 4dcc 4a3e 1304 4fbe
000000f0: 649e 88bd 924c 313e 70d9 9e3e ab24 51bf
00000100: dcba 88bf f731 85bf c090 d23e d67e 00bf
00000110: c603 7fbf e499 c6be 9889 1640 34e9 42be
00000120: bda3 313e ab36 253e b8a4 28bf bcbb eabe
00000130: 4f81 cd3c 7d15 94be 57aa 063f 280c 743f
00000140: e07f 103f b18d 88bd 3def 393e d002 393e
00000150: 7349 353e f931 523d 87b3 01bd d8ca 673f
00000160: 26a9 41bf a08c 1f3f 6870 cf3e 2c26 1d3f
00000170: 8cb9 9a40 2ee1 40be 8b9e 5f3d a7f7 123d
00000180: fb00 693f 43aa 0dc0 35df 8c3d e302 2bbe
00000190: 4b5c 5bbf c835 f83f 6cde 143e ab23 743e
000001a0: 9e9b 7c3e f6aa 093e 329e 94bd 13bc edbe
000001b0: 8b83 4fbe de4d 9bbe 64d7 133e 6fd0 2fbe
000001c0: 1083 4ebf c9a2 b0be 74dc 6a3e 243a 12c0
000001d0: b2c7 3dc0 38b9 dbbe 4036 6abf e1ce b23e
000001e0: 5b2e 313f a450 1240 8adf 883f f532 32bf
000001f0: 60dc 52bf 2b06 4c3f 3578 113e ba58 adbd
00000200: c397 74bd 2b43 8fbe 45be e93e 8955 f13e
00000210: 8f3f 74bd 8df1 66bf ec89 d7bd 3c1e bfbe
00000220: b799 c6be 013b 7abf 7036 90bf 5d41 7d3e
00000230: 3dcc 833e 94ad e13e f054 cb3d 91d8 29be
00000240: 9d4c 16bc a35b 13bf 87f0 2a3f a630 d2be
00000250: 2365 62be 67d4 7bbd 9471 b8bc d322 96bd
00000260: 9600 bdbc 13fc 913c b270 363d 0d37 443f
00000270: 1704 7a3e c828 c23e 9774 14bf 03b6 b8be
00000280: b08d d3be 3f25 233f 845b c1bd 75e9 003f
00000290: 7160 85bf 6509 7abf 043b 663f cfd4 08c0
000002a0: a6ec 923f 4b10 15bf 73a0 dcbe 76d8 c3be
000002b0: 6d76 3ebe 934c ce3e 8680 aebc 3f14 4c3c
000002c0: 5e29 63be d4ed 31bd 0679 ebbf a985 79bf
000002d0: 4810 bcbe 62a3 a63f 24ca 9e3f 5b6e 8bbe
000002e0: 5556 0140 a7d4 d7be 8129 573f fb6f febc
000002f0: faa8 a53f c93c 9a3e 3e2c 9a3f d774 2f3f
00000300: 1717 e3be 475a ff3f ca47 6fbf 98eb 9cbd
00000310: 8506 153e 66a2 cb3e 9cda 20be a37e b2bd
00000320: e7e7 3e3f cd12 38be 6ff5 d83a 10fc 673f
00000330: 5dc8 2c3f 6609 ecbe f371 253f e5f4 8740
00000340: ffc3 afbf 28fb 57bf ea53 c3be 4588 84bf
00000350: 27e2 d03d 0562 a73f 0863 2840 7e23 8d3c
00000360: 2d10 f5bf b0f1 2ebf 2795 c03e cc6b 233e
00000370: 6981 94bd 75b3 9f3d 5c68 22bd d0f4 9cbd
00000380: d914 22bf c512 76bf 9b71 0940 4e7d 433f
00000390: 3f63 a63e 2078 0e3e e529 2b41 efe6 83c0
000003a0: 2e16 d5be 5fe5 78be 84c7 58be 270f be3e
000003b0: e2c0 1ebf 62e8 a5be 290f df3e b840 bd3f
000003c0: 0697 a1be 1d7e 63bd 2350 5c3d bfae ec3c
000003d0: 7b72 91bc 1060 9fbc 92d9 c73d 4f91 51bf
000003e0: 21b2 25bf 39ed 3abe c0ee 3b3f 38f3 163f
000003f0: 0235 e2be fde1 7340 af81 2a40 5bbe c1be

q1.0.bias f4 [256]
-0.27509427 0.41739506 0.70071954 -2.230352 -0.6572289 0.32864016 2.4085848 -2.3629394
-0.29584125 -0.80276364 0.12226375 -1.1495028 -1.2416688 -0.19574109 0.12888648 0.65410113
-1.3093089 -0.90615284 -0.53240484 -0.010969463 -1.5065823 -1.3275883 -2.5300496 0.21233708
1.0203023 -2.678032 -1.0596235 -0.0687982 -2.1061792 -1.3693573 -0.6247753 -0.8643777
0.93585443 -1.1719884 1.033049 -0.69892776 0.95778525 2.2046666 -0.5628023 0.6375281
-0.7752512 -0.87118465 -1.2073075 0.88018924 0.68849444 0.29206762 0.11157913 -0.84312916
-0.6227536 0.28747383 1.1871722 2.8009853 0.24167626 -1.5281519 -1.4620814 1.0347126
-2.4069152 -1.3489383 -1.5610102 -1.716829 -2.7684627 0.36350214 -0.7962677 -1.1445829
0.55634725 -0.08259131 -1.8358321 -0.7081522 0.47538975 0.52943933 -0.16616829 -0.4635986
-1.820291 0.5348287 1.918607 -2.217174 1.0125315 0.7811957 -0.064651325 -0.84640545
3.0840247 -1.0448056 -0.5577773 2.2723172 0.31053308 -0.8094385 0.31075102 -0.63953143
-0.8881778 1.5076296 -2.2838252 0.45314023 -2.6593034 -1.3394886 -0.01705108 1.9248745
0.641262 -0.054871064 -1.9826605 0.30292043 0.76264936 -0.90034 -1.512014 -2.012715
-0.4195785 -0.92454284 -1.7223248 -1.5900345 -0.90487736 -1.769776 0.26688486 0.26988292
-1.191014 2.1385643 0.47690672 -1.9660659 1.8507634 0.7146835 -1.6099064 -0.63811135
0.94722116 -0.4864196 1.4150043 -0.33966556 -0.25603372 -1.1842933 -1.0726731 -2.7434154
-0.63812494 -1.0086232 0.0060132644 -1.3765044 2.4582047 -1.3661436 0.53221464 -0.026991468
-1.0636256 0.37367862 1.2485703 0.6072037 0.5414122 -2.1016753 0.61364233 1.5735966
-1.6481438 -0.69452614 -0.7650085 -1.13256 -1.6809593 0.23259664 -0.7123952 0.50926894
0.1960664 -0.8634154 0.97771645 -2.0957317 -2.4290583 -0.76838094 -2.5449991 -1.2013121
0.38231465 -1.1050613 0.99741066 -0.36239183 -0.8576726 -1.4593089 -1.4636071 0.19757256
-1.3885984 0.4883189 -1.4428788 2.1991162 -2.074138 -0.12782069 -0.587719 0.79868233
-2.717799 -0.340353 2.2914362 -1.2476174 0.5409266 -0.6168276 -2.5237327 -1.3707726
-1.6651819 0.42568973 0.1636048 0.045741614 2.0651042 -0.16272546 -0.7657536 1.216136
-1.1553327 0.052186437 -1.2057456 -1.7553769 0.62867355 -0.07343602 -1.82239 -0.05564816
0.298419 -0.29867086 0.26249072 0.28016892 -2.0565188 -1.0794159 0.7985337 -4.173936
-1.8288028 -1.5590253 -1.654382 -0.8837744 -0.0066457344 0.8956492 -1.2463341 0.3758932
0.77095664 -0.605022 -1.1110741 -0.99662256 0.4152161 0.8505444 1.1033608 0.3474825
-2.6743352 -1.3490235 0.5350331 -2.0890014 -1.3013337 -0.9429625 0.5369355 -0.79858524
-0.5569381 -1.4443891 -0.3079323 -2.2182238 1.7453196 0.04871664 0.29537317 -0.68172556
-0.8233049 -0.64567447 0.68307483 0.16363627 -1.3656664 -2.093565 -0.4789719 0.86549544
-1.2908213 0.4581225 -1.2527795 0.29408064 -1.2902619 2.4017138 -1.3912057 -0.04535754
00000000: 28d9 8cbe ceb4 d53e 5b62 333f 16be 0ec0
00000010: 2740 28bf 8643 a83e 4126 1a40 663a 17c0
00000020: 8178 97be eb81 4dbf 6b65 fa3d e822 93bf
00000030: 01ef 9ebf 5a70 48be d1fa 033e 2c73 273f
00000040: 6f97 a7bf a2f9 67bf af4b 08bf 43b9 33bc
00000050: b0d7 c0bf 6aee a9bf 55ec 21c0 e46e 593e
00000060: 4499 823f e064 2bc0 bea1 87bf 12e6 8cbd
00000070: a4cb 06c0 1a47 afbf 46f1 1fbf db47 5dbf
00000080: 2894 6f3f b703 96bf f33a 843f eeec 32bf
00000090: 6a31 753f 4219 0d40 d013 10bf 0b35 233f
000000a0: dd76 46bf f505 5fbf 0d89 9abf 1554 613f
000000b0: 2c41 303f e389 953e 9983 e43d 50d7 57bf
000000c0: c86c 1fbf c52f 933e 42f5 973f 5843 3340
000000d0: fb79 773e 7b9a c3bf 7c25 bbbf 7671 843f
000000e0: e60a 1ac0 03aa acbf 2fcf c7bf 0dc1 dbbf
000000f0: 7e2e 31c0 f41c ba3e 33d8 4bbf b181 92bf
00000100: c66c 0e3f a225 a9bd 8cfc eabf 7649 35bf
00000110: 4966 f33e 5689 073f 0528 2abe cc5c edbe
00000120: 4cff e8bf 89ea 083f ea94 f53f 2ee6 0dc0
00000130: a29a 813f 71fc 473f ea67 84bd 07ae 58bf
00000140: a960 4540 31bc 85bf 7eca 0ebf a56d 1140
00000150: 31fe 9e3e 5d37 4fbf c21a 9f3e 55b8 23bf
00000160: 9f5f 63bf 02fa c03f 312a 12c0 ff01 e83e
00000170: 0732 2ac0 5d74 abbf b5ae 8bbc 4a62 f63f
00000180: bf29 243f 7bc0 60bd d2c7 fdbf 6318 9b3e
00000190: fd3c 433f af7c 66bf ad89 c1bf 53d0 00c0
000001a0: fed2 d6be d7ae 6cbf 2475 dcbf 4086 cbbf
000001b0: 0ba6 67bf 0588 e2bf 22a5 883e 182e 8a3e
000001c0: 2673 98bf 3dde 0840 1e2d f43e 0ca8 fbbf
000001d0: d1e5 ec3f 7ff5 363f 6a11 cebf 445b 23bf
000001e0: 167d 723f fd0b f9be dc1e b53f a5e8 adbe
000001f0: da16 83be ec96 97bf 5a4d 89bf 1e94 2fc0
00000200: 285c 23bf 911a 81bf eb0a c53b 4c31 b0bf
00000210: 3a53 1d40 cbdd aebf 383f 083f 361d ddbc
00000220: e224 88bf ce52 bf3e 27d1 9f3f b471 1b3f
00000230: fd99 0a3f d981 06c0 aa17 1d3f 9d6b c93f
00000240: 60f6 d2bf 77cc 31bf 99d7 43bf baf7 90bf
00000250: ad29 d7bf d02d 6e3e 885f 36bf 735f 023f
00000260: a1c5 483e cb08 5dbf a04b 7a3f 7820 06c0
00000270: b175 1bc0 9db4 44bf 44e1 22c0 98c4 99bf
00000280: bfbe c33e a672 8dbf 4e56 7f3f 6c8b b9be
00000290: 6e90 5bbf a2ca babf 7a57 bbbf 7650 4a3e
000002a0: 98bd b1bf ef04 fa3e 41b0 b8bf 52be 0c40
000002b0: adbe 04c0 6de3 02be c174 16bf 7276 4c3f
000002c0: 6bf0 2dc0 c042 aebe e4a6 1240 edb1 9fbf
000002d0: 2a7a 0a3f 6ae8 1dbf d684 21c0 7a75 afbf
000002e0: ae24 d5bf 01f4 d93e 0488 273e 8f5b 3b3d
000002f0: ab2a 0440 81a1 26be 6e08 44bf 58aa 9b3f
00000300: f1e1 93bf 72c1 553d df55 9abf 31b0 e0bf
00000310: c0f0 203f a065 96bd 1344 e9bf 53ef 63bd
00000320: 60ca 983e 63eb 98be 2f65 863e 4d72 8f3e
00000330: 019e 03c0 4d2a 8abf b46c 4c3f e290 85c0
00000340: 3616 eabf 248e c7bf cac2 d3bf 0a3f 62bf
00000350: 76c4 d9bb 4449 653f e087 9fbf 1375 c03e
00000360: 6a5d 453f b9e2 1abf ad37 8ebf a822 7fbf
00000370: 3497 d43e 47bd 593f ed3a 8d3f 3ae9 b13e
00000380: 4f28 2bc0 cdac acbf eef7 083f 33b2 05c0
00000390: 1a92 a6bf fe65 71bf 9b74 093f 1570 4cbf
000003a0: 7f93 0ebf bee1 b8bf 4da9 9dbe 61f7 0dc0
000003b0: a266 df3f 198b 473d 273b 973e 9185 2ebf
000003c0: 1cc4 52bf ec4a 25bf fedd 2e3f 4490 273e
000003d0: 28ce aebf f8fc 05c0 ce3b f5be 1c91 5d3f
000003e0: a239 a5bf 088f ea3e 145b a0bf bd91 963e
000003f0: 4d27 a5bf aeb5 1940 0713 b2bf d4c8 39bd

q1.2.weight f4 [256, 256]
1.1804171 -0.80420405 1.5417942 -0.18091847 0.3624675 -0.5710756 -0.018222062 -0.3848031
-1.5239433 -0.5368247 -1.1478317 0.3934391 0.7514835 -0.9724009 0.11436934 -0.6708915
-0.30863577 -0.63841265 -2.9689422 0.30314 0.13078335 0.5115386 0.5633724 -0.11421666
-1.9607831 0.86617416 0.11917297 -0.10834641 0.5628906 -0.04805157 -0.4393294 -1.6727871
-1.4484298 -0.8651432 -2.4162514 0.71566904 0.2649081 -0.41507763 -2.7508767 0.14725779
-0.6963612 0.4495332 0.38706923 -0.3067374 0.8693575 -0.07399126 0.2356477 -0.8113774
-0.37337694 0.4200259 -0.38603133 -0.56531143 0.21986195 -0.3791533 0.16021563 -1.1826574
-0.3022263 0.5296004 0.67537475 -1.646517 -0.20004976 -0.8306681 -0.8675857 0.48417604
-0.68129945 -0.071814284 0.51042217 1.5699098 -1.4298463 -0.012434741 -1.1720574 -0.6629901
0.35641697 1.1832881 -0.18205434 -1.6307842 -1.4215933 -1.4272554 -0.02245235 -0.34877074
-1.802957 -0.63286674 -0.438553 0.12872483 -1.8236264 -0.1273624 -0.64515644 0.31283435
-0.113286406 0.7136582 -0.3725881 -1.5756958 -1.1480778 -0.8006302 -0.04188586 -0.42645735
-2.732631 -1.7270868 0.45511702 -1.3586661 0.122574106 -1.4044795 -1.7008973 -0.423974
-0.815402 -2.9577289 -1.340045 -0.988594 -0.32064155 -0.5052918 0.20453031 0.2989562
-0.53441286 0.48170814 -0.27324498 -0.70420337 -1.3243085 -0.70211196 0.97225416 -0.08201742
-0.05466681 -1.2475508 0.6676667 0.58294135 -0.061431166 -0.8863356 -0.51651233 -0.8445643
-1.1527358 0.4067379 -0.50201803 0.360226 0.07143734 -3.1573675 -0.78260255 -1.0940751
0.45402268 -0.16694294 -0.3836113 1.1579686 -0.57120115 -0.257122 -0.9216601 -0.0022728362
0.2395999 -2.0811756 -0.5084426 -2.056594 0.8261959 -0.035917934 0.5712308 -1.0499328
-1.5445385 -0.67028356 -1.7346046 -0.34826264 -0.60829985 0.13423203 0.6815116 0.3334253
-1.9044079 -0.316525 -0.11333745 0.8661574 0.5669882 0.37501663 -2.2598298 -0.079608425
-0.42855847 -0.8098053 -0.1407715 0.071160644 -0.6748656 -0.093003966 1.4428768 -0.4033264
-2.9388227 -0.15363756 -0.19620034 -0.68138725 0.5528199 -1.4914376 -1.3487606 0.2820305
1.3021511 -0.71195495 0.19499129 0.24835922 0.36763003 0.939901 -0.22167508 1.7222764
-0.04114961 -0.7002514 -1.5588882 -0.4828043 -1.814421 -0.021908289 0.7768011 0.48787293
-1.6576952 -0.39311016 -3.7741675 -1.6282358 0.039644193 0.8560727 -0.70530736 -0.17505805
-1.7818496 -0.04175805 0.35707524 -0.88172793 -1.2926472 0.20779286 -1.1775422 0.06200867
-0.6604977 -0.375504 0.014815016 0.08037687 -1.9712561 -0.88424814 0.03190966 -0.056277044
-0.6304471 -0.5075543 -0.7721947 0.44403553 0.45198733 1.6538007 0.041847054 -0.5187867
-0.12907247 -1.1471367 -1.4303058 -0.45522025 -1.4849144 -0.018718755 -3.2864811 -0.8065826
-1.3594939 -0.38702896 -1.8020922 -0.22166958 -0.48851904 -0.9851197 -0.6831468 -0.8160779
-0.22839521 -0.5118519 -1.2161634 0.39537612 -1.6755786 -1.476635 0.86641616 -0.06455589
00000000: e817 973f 51e0 4dbf 8359 c53f b142 39be
00000010: 5795 b93e 0332 12bf 6f46 95bc e904 c5be
00000020: 9310 c3bf 586d 09bf 26ec 92bf da70 c93e
00000030: 3961 403f 44ef 78bf 793a ea3d 8cbf 2bbf
00000040: 8205 9ebe 036f 23bf 2603 3ec0 2b35 9b3e
00000050: 12ec 053e 32f4 023f 2c39 103f 6dea e9bd
00000060: f1fa fabf 97bd 5d3f f510 f43d b9e4 ddbd
00000070: 9919 103f b9d1 44bd c8ef e0be e31d d6bf
00000080: 2666 b9bf 067a 5dbf dda3 1ac0 1636 373f
00000090: 09a2 873e 0e85 d4be 5d0e 30c0 bfca 163e
000000a0: ba44 32bf 3729 e63e f02d c63e af0c 9dbe
000000b0: 378e 5e3f bb88 97bd a14d 713e 6eb6 4fbf
000000c0: 432b bfbe a20d d73e e6a5 c5be 40b8 10bf
000000d0: 7e23 613e 6220 c2be 910f 243e 5161 97bf
000000e0: 68bd 9abe e493 073f 5ce5 2c3f 12c1 d2bf
000000f0: d8d9 4cbe aaa6 54bf 191a 5ebf ece5 f73e
00000100: a469 2ebf 5e13 93bd 07ab 023f cef2 c83f
00000110: 3405 b7bf 15bb 4bbc fa05 96bf b8b9 29bf
00000120: 497c b63e fc75 973f 746c 3abe 89bd d0bf
00000130: c5f6 b5bf 4eb0 b6bf feed b7bc 1492 b2be
00000140: 4cc7 e6bf 8e03 22bf 058a e0be 71d0 033e
00000150: 976c e9bf 4a6b 02be f928 25bf d32b a03e
00000160: b402 e8bd 4eb2 363f dec3 bebe 66b0 c9bf
00000170: 37f4 92bf 1af6 4cbf 8290 2bbd 9e58 dabe
00000180: 6de3 2ec0 2e11 ddbf 1905 e93e c5e8 adbf
00000190: 2208 fb3d fcc5 b3bf 01b7 d9bf 1f13 d9be
000001a0: 2fbe 50bf 6e4b 3dc0 9886 abbf 7f14 7dbf
000001b0: 212b a4be ce5a 01bf 6570 513e c910 993e
000001c0: 48cf 08bf 73a2 f63e c4e6 8bbe ac46 34bf
000001d0: f182 a9bf 9cbd 33bf a6e5 783f c0f8 a7bd
000001e0: 4eea 5fbd bfaf 9fbf 34ec 2a3f a53b 153f
000001f0: 3f9f 7bbd e4e6 62bf 273a 04bf 5e35 58bf
00000200: d98c 93bf f33f d03e 4184 00bf 8b6f b83e
00000210: bd4d 923d 4f12 4ac0 a458 48bf a70a 8cbf
00000220: a975 e83e 17f3 2abe b368 c4be 5138 943f
00000230: 3d3a 12bf 7fa5 83be ebf1 6bbf ddf3 14bb
00000240: ad59 753e fb31 05c0 4b29 02bf 3c9f 03c0
00000250: 9381 533f af1e 13bd 2f3c 123f 3364 86bf
00000260: 70b3 c5bf b497 2bbf 8607 debf 7b4f b2be
00000270: 8ab9 1bbf 1f74 093e 8b77 2e3f b9b6 aa3e
00000280: a3c3 f3bf 910f a2be 771d e8bd 7ebc 5d3f
00000290: 2426 113f 2e02 c03e 0da1 10c0 be09 a3bd
000002a0: 046c dbbe 664f 4fbf 6726 10be acbc 913d
000002b0: fec3 2cbf dd78 bebd 30b0 b83f cc80 cebe
000002c0: ac15 3cc0 2a53 1dbe bee8 48be 656f 2ebf
000002d0: 9b85 0d3f 6de7 bebf 30a4 acbf 4d66 903e
000002e0: e3ac a63f ae42 36bf ccab 473e e151 7e3e
000002f0: 013a bc3e 5a9d 703f cbfe 62be 8e73 dc3f
00000300: 7e8c 28bd ad43 33bf a689 c7bf 2032 f7be
00000310: f33e e8bf 0379 b3bc 70dc 463f 7bca f93e
00000320: 5b2f d4bf bc45 c9be f68b 71c0 086a d0bf
00000330: f361 223d 9527 5b3f 068f 34bf 6b42 33be
00000340: a613 e4bf 7d0a 2bbd 91d2 b63e ecb8 61bf
00000350: 7775 a5bf a7c7 543e b4b9 96bf cefc 7d3d
00000360: 6116 29bf 0f42 c0be aeba 723c a19c a43d
00000370: 1f52 fcbf 165e 62bf b4b3 023d c282 66bd
00000380: fb64 21bf 14ef 01bf 8dae 45bf a058 e33e
00000390: e26a e73e beaf d33f d167 2b3d 35cf 04bf
000003a0: 932b 04be 60d5 92bf 4314 b7bf a112 e9be
000003b0: ad11 bebf 1358 99bc b555 52c0 337c 4ebf
000003c0: e503 aebf a928 c6be f5aa e6bf 5afd 62be
000003d0: 2b1f fabe ce30 7cbf b5e2 2ebf 7bea 50bf
000003e0: 6fe0 69be ba08 03bf 3eab 9bbf bd6e ca3e
000003f0: 5c79 d6bf 6002 bdbf 73cd 5d3f e135 84bd
