SAC/checkpoints/Walker2d-v4/02_best_agent.pth (torch, 878375 bytes, 17 tensors)

log_alpha f8 []
0	0xc00e8a46e267bf4f	-3.8175180137549556

actor.0.weight f4 [256, 17]
0	0x3fdb14a6	1.7115676
1	0xbfd4b6b1	-1.6618253
2	0xc06624d0	-3.5959969
3	0xc00f4516	-2.2385917
4	0x3f01a588	0.50643206
5	0x3f90c6c3	1.1310657
6	0xbfaf7341	-1.3707048
7	0x3f8d8fd4	1.1059518
8	0xbf56041d	-0.83600026
9	0x3e867aa2	0.26265436
10	0xbce5f597	-0.028071208
11	0xbeb5e853	-0.35528812
12	0xbd8b4c4e	-0.06801663
13	0x3d34ed6d	0.04417174
14	0x3d120d54	0.035657242
15	0xbdbd9861	-0.092575796
16	0x3e5ec0fc	0.21753305
17	0xbfd79cd8	-1.684474
18	0x4082fbe9	4.0932508
19	0xbfc75ee8	-1.5575838
20	0xbf121040	-0.57056046
21	0xbdf1026f	-0.11768042
22	0xbf21b050	-0.63159657
23	0xbf726d91	-0.94698435
24	0xbe19f71f	-0.15035675
25	0x3eb17c34	0.34665072
26	0xbeddf87c	-0.4335364
27	0x3e1910a0	0.14947748
28	0xbe497322	-0.19672826
29	0xbd591707	-0.053000476
30	0xbd366bae	-0.044536285
31	0xbdacc8af	-0.08436715
32	0xbd477ad7	-0.048701134
33	0x3b99d1c9	0.004694198
34	0xbfe19326	-1.7623031
35	0xbebf3520	-0.3734522
36	0xbd71185b	-0.058861118
37	0x3d265dd2	0.040616818
38	0xbf13e13f	-0.57765573
39	0xbf87059b	-1.0548586
40	0x3cbcb313	0.023034608
41	0x3f8a5b85	1.080918
42	0xbf6aace2	-0.9167005
43	0xbebeb63d	-0.37248412
44	0x3da1751a	0.078836635
45	0x3dda51be	0.10660122
46	0xbad2f16d	-0.0016093679
47	0x3d0de44e	0.034641556
48	0xbe939ecf	-0.288321
49	0x3e9b4fcc	0.30334318
50	0x3d443f7d	0.04791211
51	0xbf5b5cc2	-0.8568841
52	0xbeda562d	-0.42643872
53	0xbf8938f5	-1.0720507
54	0xbf48d810	-0.78454685
55	0xbfa068fa	-1.2532036
56	0x4003426d	2.0509293
57	0x3fb5226f	1.4151133
58	0x3e02bd3b	0.12767498
59	0xbef1f4b1	-0.47256997
60	0xbf3691ab	-0.7131602
61	0x3f19b1eb	0.60037106
62	0xbe128c70	-0.14311385
63	0xbea0f11c	-0.31433952
64	0xbcf2db7d	-0.029645676
65	0xbe80e5f6	-0.25175446
66	0x3d98bb45	0.07457594
67	0xbd8f5344	-0.069983035
68	0x3f07ccff	0.53047174
69	0x3e3b2777	0.18276773
70	0xc0019a2d	-2.0250351
71	0xc013f9c9	-2.3121207
72	0x3e62a2d1	0.22132422
73	0x4010628d	2.256015
74	0x3f94aab6	1.1614597
75	0x3f13f7b7	0.5779986
76	0xbe9ea79f	-0.3098726
77	0x3ef2f698	0.4745376
78	0x3e98bad4	0.2983004
79	0x3d9573fa	0.072975114
80	0xbd8042a8	-0.06262714
81	0x3b218f9d	0.002465225
82	0xbe8e0f3c	-0.27745998
83	0xbd057673	-0.032583665
84	0x3b822834	0.0039720777
85	0xbf30d366	-0.6907257
86	0xbf0f72c7	-0.5603451
87	0x400d1548	2.204424
88	0xbee2eb88	-0.4432032
89	0x3ef3ba5a	0.47603112
90	0xbfbb8d30	-1.4652462
91	0xbf169f4d	-0.58836824
92	0xbfd63f5b	-1.6738085
93	0xbe5ac65d	-0.21364732
94	0xbf102347	-0.5630383
95	0xbdd46dfa	-0.10372539
96	0x3e1e54bc	0.15462011
97	0x3b8429a0	0.0040332824
98	0x3e065879	0.13119687
99	0x3c46bccf	0.012129976
100	0x3d9f1cf7	0.077691965
101	0xbd0014c8	-0.03126982
102	0xbf8ffeb7	-1.1249608
103	0xbf3eeba2	-0.745783
104	0x4033a1db	2.8067539
105	0x3fa641bd	1.2988812
106	0x3f950c36	1.1644351
107	0x3f871dfa	1.0556023
108	0x3fc5f269	1.5464603
109	0xbd4ccc0f	-0.049999293
110	0x3c93c9a3	0.018040484
111	0xbe60d13f	-0.21954821
112	0x3e5ab582	0.21358302
113	0x3da061cb	0.078311525
114	0xbd5ed956	-0.054406486
115	0xbc1a905a	-0.00943383
116	0xbe149bf5	-0.14512618
117	0x3c9b23c8	0.01893796
118	0x3d97a6a1	0.07404829
119	0xbf374de0	-0.716032
120	0xbfa40fed	-1.281736
121	0xc01bfb99	-2.4372313
122	0x3f80ca4f	1.006174
123	0x3e3a0042	0.18164161
124	0xbed30bfa	-0.41220075
125	0x3f304755	0.68858844
126	0xbea93dbd	-0.33054915
127	0xbe2212af	-0.1582744
128	0xbf680445	-0.90631515
129	0x3e11f627	0.14254056
130	0x3d88f8da	0.0668809
131	0x3ca21ad9	0.019788193
132	0xbd3078e5	-0.043084044
133	0xbe8cbd28	-0.27488065
134	0xbc56e9a9	-0.013117232
135	0xbd38b14e	-0.045090966
136	0xbfb022e4	-1.3760648
137	0xbf9302bf	-1.1485213
138	0xbfb533fb	-1.4156488
139	0xbf9edbf7	-1.2410878
140	0xbf85fe9c	-1.0468326
141	0x3f3628b8	0.7115588
142	0x3fcd9137	1.6059941
143	0x3aa1d37d	0.0012346354
144	0x3cbfca3d	0.023411864
145	0xbe5e6b36	-0.21720585
146	0x3e7f28e5	0.24917944
147	0xbe1d30ab	-0.15350597
148	0xbe007095	-0.12542947
149	0xbe009f70	-0.1256082
150	0x3dfa6e3f	0.12228059
151	0xbc0cb721	-0.008588583
152	0xbb69a1c4	-0.0035649398
153	0xbf3d25c2	-0.7388574
154	0x40322098	2.7832394
155	0xbee7d9e2	-0.4528342
156	0xbf0896f4	-0.53355336
157	0x3fb43f38	1.4081793
158	0xbf509cc5	-0.8148921
159	0xbfc3c3a7	-1.5294083
160	0x3f045681	0.51694494
161	0xbe896614	-0.26835692
162	0x3eccf91e	0.4003381
163	0x3e19c067	0.15014802
164	0x3d1d3338	0.038378924
165	0xbda0dba0	-0.0785439
166	0x3d93f8e6	0.07225208
167	0xbd2f375c	-0.042777404
168	0xbd8aa716	-0.0677015
169	0x3cbe827e	0.023255583
170	0xbfdca09d	-1.7236515
171	0xbfc53d81	-1.5409395
172	0x3f837dc2	1.0272753
173	0xbf645848	-0.89197206
174	0xbe08d6cb	-0.13363187
175	0x3eab81f1	0.33497575
176	0x3f034fc6	0.512936
177	0x3efa5125	0.48890033
178	0x3f1a6ea0	0.6032505
179	0xbf3beda7	-0.73409504
180	0xbe24bc2d	-0.16087408
181	0x3d10b6bd	0.035330523
182	0xbdcd8501	-0.10035134
183	0xbca06c39	-0.019582855
184	0x3d92c042	0.071655765
185	0x3b084736	0.0020794398
186	0x3c95f059	0.018303083
187	0x3ec2df1d	0.38060847
188	0x40723836	3.7846808
189	0xbfb25c19	-1.3934356
190	0xbd5b61e6	-0.05356016
191	0xbea82b21	-0.32845405
192	0xbf8bd342	-1.0923846
193	0x3e0d5df3	0.1380537
194	0xbec7e330	-0.39040518
195	0x3dcdef7a	0.10055442
196	0xbe7ac54f	-0.2448933
197	0x3e230c6b	0.15922706
198	0xbe11ab3a	-0.14225474
199	0xbe176e82	-0.14788249
200	0xbc3fb7bb	-0.01170152
201	0xbd0f15da	-0.03493295
202	0xbc8e55ac	-0.017374836
203	0xba098d33	-0.00052471756
204	0xbf862699	-1.0480529
205	0xbf40420b	-0.75100774
206	0xc005a813	-2.0883834
207	0x3e514ce3	0.20439486
208	0x3eda2c2d	0.42611828
209	0x3fa10e1f	1.2582434
210	0xbdf52d71	-0.11971558
211	0x3eff2b8c	0.4983791
212	0x3f0da5af	0.5533094
213	0xbebf3e3a	-0.37352163
214	0xbda8b674	-0.08237925
215	0xbe0aaf6f	-0.13543485
216	0x3d07fe31	0.0332014
217	0x3d75c4e4	0.060002223
218	0x3d89b035	0.06723062
219	0x3da721eb	0.08160766
220	0xbb361884	-0.0027785609
221	0x3f6b748b	0.91974705
222	0xbff93b25	-1.9471174
223	0x3ed83cd0	0.42233896
224	0x3ec24efe	0.3795089
225	0x3f2428e0	0.6412487
226	0x3e791b4e	0.24326822
227	0xbf44c7ec	-0.76867557
228	0x3f5ab74c	0.8543594
229	0xbeccaa63	-0.39973745
230	0x3eff878f	0.4990811
231	0x3dbb9e13	0.0916101
232	0xbdb834b3	-0.089944266
233	0x3e05d6f1	0.13070275
234	0x3cda06ec	0.026614629
235	0xbd6d7608	-0.05797389
236	0xbd7d344c	-0.061817452
237	0x3c19a54e	0.009377791
238	0xbf69699e	-0.91176784
239	0x4013eba2	2.311257
240	0xbfed56a5	-1.8542067
241	0xbfcc87a3	-1.5978893
242	0xbf6e6347	-0.93120235
243	0x3f039fa0	0.51415443
244	0xbe2a69a0	-0.16641855
245	0x3eaf5ade	0.34249014
246	0x3e06a5d0	0.1314919
247	0xbdab1ae6	-0.0835474
248	0x3d493dc0	0.049131155
249	0xbd059172	-0.03260941
250	0xbe221d62	-0.15831521
251	0xbb1fb188	-0.0024367291
252	0xbdd58c87	-0.10427194
253	0x3d3a263b	0.045446616
254	0x3d0d5e12	0.03451354
255	0xbf2e2251	-0.6802111

actor.0.bias f4 [256]
0	0x4080226e	4.004203
1	0xc006dd88	-2.1072712
2	0xbfa88687	-1.3166054
3	0x3f377347	0.71660274
4	0xbed5f130	-0.41785574
5	0xbea7ce1d	-0.3277444
6	0x3f484291	0.7822657
7	0xbfb175fb	-1.386413
8	0xbefe5099	-0.49670866
9	0xbfcb6620	-1.5890541
10	0xbed31935	-0.4123017
11	0xc033a1a9	-2.806742
12	0xbfde26d9	-1.7355605
13	0x3f080662	0.5313474
14	0xc02eafa7	-2.729471
15	0x3f128e8f	0.5724878
16	0xbfc4a76d	-1.5363594
17	0xbea6df4b	-0.32592234
18	0xbf746e3e	-0.95480716
19	0xbfd10553	-1.632975
20	0x3d55b19c	0.052171335
21	0xbddcfe5d	-0.107907034
22	0x3e7ca1fa	0.24671164
23	0xbf5d6557	-0.8648276
24	0xbe657180	-0.22406578
25	0xbc5379c9	-0.012907454
26	0xbefd1d34	-0.49436343
27	0xbf3825ba	-0.71932566
28	0xbf3f3dc0	-0.747036
29	0xbf8e26ce	-1.1105592
30	0xbf6a0250	-0.9140978
31	0x3fda1174	1.7036576
32	0x3efbd5cc	0.49186552
33	0xbf8d5768	-1.1042299
34	0x3f6c803c	0.9238317
35	0xbffc27d3	-1.9699653
36	0x3f7819d0	0.96914387
37	0xbfc8d5e1	-1.5690271
38	0xbfa52662	-1.2902339
39	0x3dffb2b0	0.12485254
40	0xbf58e26d	-0.847205
41	0xbf948c29	-1.1605273
42	0x3e438676	0.19094262
43	0xbe34830e	-0.17628118
44	0xbf1ad22c	-0.60476947
45	0x3ecb2927	0.39679834
46	0xbf61e70e	-0.88243186
47	0xbfa48973	-1.2854446
48	0xbfabb460	-1.3414421
49	0xbf1f32f1	-0.62187105
50	0x3f569a7d	0.8382948
51	0xbf087dcd	-0.53316957
52	0x3f6f0ff1	0.933837
53	0x3f565dc1	0.8373681
54	0x3f94b2cf	1.1617068
55	0xbf910f9d	-1.133289
56	0xbddd78f2	-0.10814084
57	0xbf9e5a85	-1.2371374
58	0xbf758277	-0.959022
59	0x3eb51891	0.35370305
60	0xbfb5b7fe	-1.4196775
61	0xbf83256e	-1.0245798
62	0xbf225b8e	-0.6342095
63	0xbede1a62	-0.43379503
64	0xbf1a9156	-0.60378015
65	0xbfafa64f	-1.3722628
66	0xbfdce0eb	-1.725614
67	0xbf877b78	-1.0584555
68	0xbf04350a	-0.5164343
69	0xbfbb63ec	-1.4639869
70	0xbf847eb7	-1.035117
71	0xbe4eb8e9	-0.20187725
72	0xbfe273c2	-1.7691576
73	0xbff005b8	-1.8751745
74	0xbdaf6b91	-0.085654385
75	0x3ef3edd1	0.47642377
76	0xbe8a3951	-0.26996854
77	0xbfb8bea6	-1.4433181
78	0xbf2649c3	-0.649563
79	0xbf9fc87b	-1.2483057
80	0xbfe6d789	-1.8034526
81	0xbe34c9b1	-0.17655064
82	0xbffd20e5	-1.9775664
83	0xbfe23daa	-1.7675068
84	0x3f47985a	0.77966845
85	0x3f5dee40	0.86691666
86	0xbf870864	-1.0549436
87	0xbf4d7c95	-0.8026822
88	0xbf85dff7	-1.0458974
89	0xbf0696a5	-0.52573615
90	0xbf6c460f	-0.922944
91	0xbe7f8fdb	-0.2495722
92	0xbe3eadfd	-0.18621059
93	0xbf5d1c5b	-0.8637139
94	0xbfaeec3f	-1.3665847
95	0xbfd8bcc8	-1.6932611
96	0xbeec9c88	-0.46213174
97	0xbe89ca0a	-0.26911956
98	0xbeefa15a	-0.4680279
99	0xbf8d664c	-1.1046844
100	0xbff1d3f2	-1.8892806
101	0x3cdc6630	0.026904196
102	0xc0114a19	-2.2701476
103	0xbdd03800	-0.10166931
104	0xbf9338cc	-1.1501708
105	0xbfcbbd56	-1.5917156
106	0x3f0dd37e	0.55400836
107	0x3d2e0ad3	0.04249079
108	0xbf6cdde3	-0.9252607
109	0xbec416b9	-0.38298586
110	0xbfdecebe	-1.7406843
111	0xbfe05aa5	-1.7527663
112	0xbfaeed96	-1.3666255
113	0xbf95a02b	-1.1689504
114	0xbcbe2e49	-0.02321543
115	0xbf91f508	-1.1402903
116	0xbeec95ec	-0.4620813
117	0xbe2d86da	-0.16945973
118	0x3e13fe80	0.14452553
119	0xbfd41157	-1.6567792
120	0x3ffa5520	1.9557228
121	0xbf216ff0	-0.6306143
122	0xbfb4fa67	-1.4138917
123	0x3ecd5fc8	0.40112138
124	0xbf925c2c	-1.1434379
125	0xbfa3c8bb	-1.2795633
126	0xbdca5dc0	-0.09881163
127	0xbff74121	-1.9316751
128	0x3eb6fbaf	0.35738894
129	0x3ee1c446	0.44095057
130	0xbf0c065e	-0.54697216
131	0x3e574f5c	0.21026367
132	0xbfa685ce	-1.3009584
133	0xbfa56ffe	-1.2924802
134	0xbfe4e61a	-1.7882721
135	0xbdd5b831	-0.10435522
136	0xbf4b35ef	-0.7937917
137	0xbe23b962	-0.15988687
138	0x3e790f26	0.24322185
139	0x3e501660	0.20321035
140	0xc00af00c	-2.1709013
141	0xbf38f32a	-0.7224604
142	0xbd16168a	-0.03664259
143	0xbcdd539b	-0.027017405
144	0xbf3b98f0	-0.7328024
145	0x3e2d1c93	0.16905431
146	0xbfee9aa0	-1.8640938
147	0xbfc2bdc4	-1.5214162
148	0xbfdba53a	-1.7159798
149	0x3dafa7d4	0.085769325
150	0x40b36778	5.6063805
151	0xbfb915bd	-1.4459759
152	0x3d316567	0.043309595
153	0xbf9ba603	-1.2160038
154	0x3d26975f	0.040671702
155	0xbe98aa5d	-0.29817477
156	0x3e4dadfb	0.200859
157	0xbfcab515	-1.5836512
158	0xbed53701	-0.41643527
159	0xbf895931	-1.0730344
160	0xbff70e24	-1.930119
161	0xbeebfb20	-0.4609003
162	0xbfb04721	-1.3771707
163	0xbf8e4737	-1.1115483
164	0x3fcc724b	1.597238
165	0x407ff994	3.999608
166	0xbf692124	-0.91066194
167	0xc00b1595	-2.1731923
168	0x3ff201b7	1.8906773
169	0xbeb5b588	-0.3549006
170	0x3f043bf5	0.5165399
171	0x3f113ad8	0.56730413
172	0xbf8df268	-1.1089602
173	0x3fcdf5c8	1.6090631
174	0x3fc45670	1.5338879
175	0xbf78fd96	-0.9726194
176	0xbe96f2ea	-0.29482204
177	0xbcb3bebf	-0.02194154
178	0xbd2c94ee	-0.042134218
179	0xbeaa32de	-0.33241934
180	0xc0048e32	-2.071179
181	0xbf4e7817	-0.8065199
182	0xbf4220f6	-0.75831544
183	0xbfb5c0cb	-1.4199461
184	0x3ec8ffc7	0.39257643
185	0xbf4220f8	-0.75831556
186	0x3eeebc10	0.46627855
187	0xbfa6e381	-1.3038179
188	0x3e6a873a	0.22903147
189	0xbfbaf8e9	-1.4607211
190	0x3ecda65d	0.40165988
191	0xbfe3f53c	-1.7809215
192	0xbf9acb51	-1.2093297
193	0xc01f7cbb	-2.491988
194	0xbe8d76f8	-0.27629828
195	0xbf06e20b	-0.52688664
196	0xbd567290	-0.05235535
197	0xbc9a6cbd	-0.018850679
198	0xbf288730	-0.6583128
199	0x3e228970	0.15872741
200	0xbf983b43	-1.1893085
201	0x3f48123d	0.7815283
202	0xbea1195b	-0.31464657
203	0x3f94fc13	1.1639427
204	0xbe6b185c	-0.22958511
205	0x3e87c14a	0.26514655
206	0xbf899299	-1.0747863
207	0xbf41f325	-0.75761634
208	0x401d7a71	2.4605982
209	0xbea62e26	-0.32457083
210	0xbf47124d	-0.777623
211	0xbe2c2966	-0.16812667
212	0xbe3cb9e5	-0.18430288
213	0x3f5501d1	0.83205897
214	0xc012c5b6	-2.2933173
215	0xbd47c0aa	-0.048767723
216	0xbf91a885	-1.1379553
217	0xbf6fcc18	-0.936708
218	0xbfa6dac5	-1.3035513
219	0xbd30f609	-0.043203387
220	0x3f80ab94	1.0052361
221	0xbe39aa58	-0.18131387
222	0x3f20f96f	0.62880605
223	0x3f52975d	0.8226221
224	0xbfc3dc18	-1.5301542
225	0x3ee05cd0	0.4382081
226	0xbf513c75	-0.81732875
227	0xbf28675c	-0.65782714
228	0x3fea9428	1.8326464
229	0xc00d7bc1	-2.2106783
230	0x3e9b82f1	0.30373338
231	0xbd52a1d4	-0.051423863
232	0xbf31c61d	-0.6944292
233	0xbf29b7fb	-0.66296357
234	0xbe7702ee	-0.24122211
235	0x3e2cf1c3	0.168891
236	0xbe4ac58e	-0.19801924
237	0xc02a11ed	-2.657344
238	0x4022e302	2.5451055
239	0xc00e3a4f	-2.2223089
240	0xbebe09e5	-0.37116924
241	0x3eb46680	0.3523445
242	0xbf0728e1	-0.5279675
243	0xbfbd95bf	-1.4811324
244	0xc026d2bb	-2.606612
245	0xbf440e9e	-0.76584804
246	0xbfb1ec05	-1.3900152
247	0xbf97795d	-1.1833912
248	0x3d83ffc9	0.064452715
249	0xbe4a96b1	-0.19784047
250	0xbeabf025	-0.33581653
251	0xbfa79cd7	-1.3094739
252	0x3f9e3a6a	1.2361577
253	0xc01759e2	-2.364861
254	0xbfd29ea2	-1.6454661
255	0xbeace420	-0.33767796

actor.2.weight f4 [256, 256]
0	0xbf08b458	-0.5340018
1	0xbf569be8	-0.83831644
2	0x3ebe86cf	0.37212226
3	0xbe2f2e0b	-0.17107408
4	0xbebad29d	-0.3648881
5	0xbf6f5c24	-0.9349997
6	0xbd8f1327	-0.06986075
7	0xbf265acd	-0.649823
8	0xbee0e539	-0.43924883
9	0x3f402b8e	0.7506646
10	0x3efdffb1	0.4960914
11	0xbdf47d7e	-0.11937998
12	0x3eddc308	0.4331286
13	0xbf0e69f7	-0.5563044
14	0x3eddda4f	0.4333062
15	0x3ee65a5f	0.44990823
16	0x3f4fa4f6	0.81111085
17	0x3e32162b	0.17391269
18	0x3f46ba94	0.77628446
19	0x3e87aa6d	0.26497212
20	0x3f683f05	0.9072116
21	0x3d83876b	0.06422313
22	0xbedbf1d8	-0.4295795
23	0xbfddb160	-1.7319756
24	0x3f09a6d9	0.53770214
25	0xbf39fbc7	-0.72649807
26	0xbed31c61	-0.4123259
27	0xbdc8a180	-0.09796429
28	0x3d25382e	0.04033678
29	0xbe46b9b5	-0.19406779
30	0x3e9d2433	0.3069168
31	0xbf3c232e	-0.7349118
32	0xbf4c09b8	-0.7970233
33	0x3f30417e	0.68849933
34	0x3e792da7	0.24333821
35	0xbf7d61a6	-0.98977125
36	0xbf4e6dae	-0.8063611
37	0x3ce756a5	0.028239558
38	0xbf6899c3	-0.9085962
39	0xbf21bc96	-0.63178384
40	0x3f2d9508	0.6780553
41	0x3ed96480	0.42459488
42	0xbe2791c5	-0.163642
43	0xbf2b6720	-0.6695423
44	0xbe637d2a	-0.22215715
45	0x3ed244e8	0.41068196
46	0x3e64186c	0.22274941
47	0xbd9b38ba	-0.07579179
48	0x3ea78b1c	0.3272332
49	0x3e822b79	0.25423792
50	0xbe9c0cd0	-0.30478525
51	0x3e97fb4f	0.2968392
52	0x3f2dd11b	0.67897195
53	0xbea7e290	-0.3279004
54	0x3e9a6e8e	0.30162472
55	0xbc2543ef	-0.010086997
56	0x3eb6f2aa	0.35732013
57	0xbefc3432	-0.49258572
58	0xbe448108	-0.19189847
59	0x3f02df87	0.51122326
60	0xbd4d0ed9	-0.050062988
61	0xbe8e99ad	-0.2785162
62	0xbdbb6f30	-0.09152067
63	0x3ec6cadb	0.3882664
64	0x3e99539f	0.2994661
65	0x3e8afc69	0.271457
66	0x3f08419c	0.5322511
67	0x3fac0086	1.343766
68	0x3da2b5c2	0.07944824
69	0xbe63fe63	-0.2226501
70	0xbcc38d34	-0.023871042
71	0x3e9970ed	0.29968968
72	0x3eed9a2d	0.4640669
73	0x3f222c46	0.63348806
74	0x3e91770b	0.28411135
75	0xbe0522f8	-0.13001621
76	0x3ef0c469	0.4702485
77	0x3e286884	0.1644612
78	0xbecad46a	-0.39615184
79	0x3e9bcae8	0.30428243
80	0x3ecdc81d	0.40191737
81	0xbd787d07	-0.06066611
82	0x3f4a35cd	0.78988343
83	0x3ea8cf39	0.32970598
84	0x3f287028	0.65796137
85	0xbf2eaeec	-0.6823566
86	0x3f6f6c1c	0.93524337
87	0x3da93d29	0.082636185
88	0xbe958d0d	-0.29209176
89	0x3f20bd8d	0.6278923
90	0x3f9f0cf5	1.2425829
91	0x3fa21115	1.2661463
92	0x3dedad07	0.11605268
93	0x3fa68033	1.3007873
94	0x3eade222	0.33961588
95	0x3d8b0ac1	0.067891605
96	0x3f46736e	0.7751988
97	0x3d77f6be	0.060538046
98	0x3cbd2739	0.023089992
99	0x3e9322d0	0.28737497
100	0x3e9d9aee	0.30782264
101	0xbeca4a0b	-0.39509615
102	0xbde48b99	-0.11159439
103	0xbedd0418	-0.43167186
104	0xbee082b5	-0.43849722
105	0x3f0c1ca8	0.54731226
106	0x3cb62364	0.022233672
107	0x3e034ebb	0.12823002
108	0xbeead6ea	-0.4586709
109	0xbeb098bd	-0.3449153
110	0x3fac52e8	1.3462801
111	0x3f017f54	0.5058491
112	0x3f70785e	0.93933666
113	0xbe4b6b17	-0.1986507
114	0x3c93261e	0.017962512
115	0xbf0629d2	-0.5240756
116	0xbeef835f	-0.46779916
117	0xbe924ac7	-0.28572676
118	0x3f747878	0.9549632
119	0x3e447906	0.19186792
120	0xbe83eb9a	-0.25765687
121	0xbe65b68e	-0.2243292
122	0xbd764718	-0.060126394
123	0xbef1ba3a	-0.47212392
124	0xbf02e685	-0.51132995
125	0x3e0eae83	0.13933758
126	0x3f4ddf75	0.80419093
127	0xbe8e638d	-0.27810326
128	0xbe8304e5	-0.25589672
129	0x3f81494b	1.0100492
130	0x3f536220	0.825716
131	0xbe7b226f	-0.24524854
132	0x3d5261aa	0.05136267
133	0xbf7a51ba	-0.97780955
134	0xbdb49e4c	-0.08819255
135	0xbf88f820	-1.0700722
136	0xbd14a1d7	-0.036287155
137	0x3f6559ec	0.89590335
138	0x3f4cb14f	0.7995805
139	0xbd0173fd	-0.031604756
140	0xbf4957cf	-0.7864961
141	0x3e74b7ad	0.23898192
142	0x3eb665d0	0.35624552
143	0xbca74b79	-0.02042173
144	0x3e2e683b	0.17031948
145	0x3e9a6b27	0.30159876
146	0x3f57a006	0.8422855
147	0x3f292e39	0.66086155
148	0x3f39fb46	0.7264904
149	0x3e94311e	0.28943723
150	0xbf6438c6	-0.8914913
151	0x3f315cef	0.6928243
152	0xbf36cb6f	-0.71404165
153	0xbf93b825	-1.1540571
154	0xbe687fd5	-0.22705014
155	0xbeeb90ad	-0.46008816
156	0xbefaf61b	-0.4901589
157	0xbe05bb73	-0.13059787
158	0x3ce13173	0.0274894
159	0xbe3e39a6	-0.18576679
160	0x3f40962c	0.75229144
161	0x3ed4db00	0.41573334
162	0xbf588e23	-0.84591883
163	0x3ebe24c9	0.3713744
164	0x3c5af017	0.013362906
165	0xbf066173	-0.52492446
166	0x3ee95248	0.45570588
167	0xbf38bf90	-0.721673
168	0xbdd8d1d7	-0.10586899
169	0x3e9d23ca	0.30691367
170	0xbe8f9971	-0.28046754
171	0x3f074918	0.5284591
172	0x3f309bf8	0.6898799
173	0xbf17f4bd	-0.59357816
174	0xbe85e798	-0.26153255
175	0xbf86795a	-1.0505784
176	0x3f08cfe0	0.5344219
177	0x3e94ff68	0.2910111
178	0x3e50d6d0	0.20394444
179	0xbe53e6fe	-0.20693585
180	0xbf833ce8	-1.0252962
181	0x3e686126	0.22693309
182	0xbea6cb37	-0.32576916
183	0x3f09e13b	0.538593
184	0xbf95ef8c	-1.1713729
185	0xbe2591b6	-0.16168866
186	0x3e7685df	0.24074505
187	0x3f7d26ae	0.98887146
188	0x3f6c4f97	0.92308944
189	0x3dc371c1	0.09543181
190	0x3d394b4a	0.045237817
191	0x3c8738ea	0.01650663
192	0xbf43e937	-0.7652773
193	0x3f45063a	0.76962626
194	0x3f8c0204	1.0938115
195	0x3e93d451	0.28872922
196	0x3e0a77ee	0.13522312
197	0x3e11c5d2	0.14235619
198	0xc000bf79	-2.0116866
199	0xbe9df758	-0.3085277
200	0x3f533dad	0.82515985
201	0x3fce41f2	1.6113875
202	0x3e801182	0.25013357
203	0xbcf8d398	-0.030374333
204	0x3f3da09d	0.740732
205	0x3ec04489	0.37552288
206	0xbe0e7966	-0.13913497
207	0x3f91b415	1.1383082
208	0xbf554097	-0.8330168
209	0x3f6b060b	0.91806096
210	0xbf764df2	-0.96212685
211	0xbe50138f	-0.20319961
212	0xbf1835a9	-0.5945688
213	0x3f1836ed	0.5945881
214	0x3eeb5498	0.45962977
215	0xbf6e1157	-0.9299521
216	0x3e68b141	0.22723867
217	0x3e85cdea	0.26133662
218	0xbebc956c	-0.3683275
219	0x3f6e0705	0.9297946
220	0xbdcce5ec	-0.100047916
221	0x3de0e0f6	0.10980408
222	0x3e0120c2	0.12610152
223	0xbd6c5029	-0.057693634
224	0xbf079015	-0.52954227
225	0xbe58dad4	-0.21177226
226	0x3e6c4d67	0.23076402
227	0xbeeea234	-0.46608126
228	0xbf165299	-0.58719784
229	0xbf561608	-0.83627367
230	0x3ba16b4c	0.004926121
231	0xbf0d43ea	-0.55181754
232	0x3f299898	0.66248465
233	0xbeeb443e	-0.45950502
234	0x3dec5479	0.115395494
235	0xbf838459	-1.0274764
236	0x3f1f6d1f	0.6227588
237	0xbedf1915	-0.43573824
238	0xbf53e891	-0.82776743
239	0x3e43d689	0.19124807
240	0x3e25f958	0.16208398
241	0x3e6fdfee	0.23425266
242	0x3ececf8f	0.4039273
243	0x3f3b8e2b	0.73263806
244	0xbebea9ee	-0.3723902
245	0xbe307a95	-0.17234261
246	0x3f98a1c1	1.1924363
247	0x3f11215e	0.5669154
248	0xbebb4116	-0.36573094
249	0xbe8bce18	-0.27305675
250	0x3e4b5f57	0.19860588
251	0x3f86ef23	1.0541729
252	0xbd9bcd70	-0.076075435
253	0xbdc2d7f1	-0.09513844
254	0x3dc0c4c8	0.09412533
255	0xbf903d47	-1.12687

actor.2.bias f4 [256]
0	0xbfd58ad6	-1.6682994
1	0xbf4ad292	-0.79227555
2	0xbef3a46a	-0.47586375
3	0xbf8599d2	-1.0437567
4	0x3e6b5060	0.2297988
5	0xbff81323	-1.938084
6	0xbe228f56	-0.15874991
7	0xbfa27dd5	-1.2694651
8	0xbf574146	-0.84083974
9	0xbe1ca847	-0.15298568
10	0xbec77530	-0.38956594
11	0xbe86e1be	-0.26344103
12	0xbef3c490	-0.47610903
13	0xbdaef731	-0.08543242
14	0x3d2db27e	0.04240655
15	0xbf2126eb	-0.6295001
16	0x3dde07ea	0.10841353
17	0xbd4c1f44	-0.049834505
18	0xbf541065	-0.82837516
19	0xbe414012	-0.18872097
20	0x3d083cbe	0.033261053
21	0xbfbaffde	-1.4609334
22	0x3f6158a9	0.8802591
23	0xbfa9c230	-1.3262386
24	0x3f02ed02	0.51142895
25	0xbfa1b480	-1.2633209
26	0xbf970f43	-1.1801533
27	0xbf7f41de	-0.9970988
28	0xbfce7e23	-1.6132244
29	0xbed7c683	-0.4214364
30	0xbf38ad38	-0.7213931
31	0xbfb5b62b	-1.4196218
32	0xbf0701b0	-0.5273695
33	0xbf2389c0	-0.63882065
34	0xbfb1c6cb	-1.3888792
35	0x3ed96f5c	0.42467773
36	0xbe8e9140	-0.27845192
37	0xbfa51116	-1.2895839
38	0xbf5b6cc8	-0.8571286
39	0xbf2b1375	-0.66826564
40	0xbf63f984	-0.89052606
41	0xbf437501	-0.7635041
42	0x3d61d2ae	0.05513256
43	0x3f497306	0.78691137
44	0xbf9fa09e	-1.2470891
45	0x3eacbfc7	0.33740065
46	0xbfad4e98	-1.353961
47	0xbfcb38f9	-1.5876762
48	0xbf0c672f	-0.54844946
49	0xbf07331f	-0.5281238
50	0xbf74130e	-0.95341575
51	0xbe041e0a	-0.12902084
52	0x3e31ccbd	0.17363258
53	0x3f1ebb16	0.6200422
54	0xbfcaaa4d	-1.5833222
55	0xbfae23a2	-1.3604624
56	0xbee511b7	-0.44740078
57	0x3f2be8c3	0.6715204
58	0xbeadb3a5	-0.3392612
59	0xbedcdaae	-0.4313559
60	0x3f265dc6	0.64986837
61	0xbf3a9212	-0.72879136
62	0xbf932730	-1.1496334
63	0xbf61b547	-0.8816723
64	0xbda161b3	-0.07879963
65	0x3f356301	0.7085419
66	0x3e2686c7	0.16262351
67	0xbcf173c1	-0.029474141
68	0xbfcb738e	-1.589464
69	0xbdfbda48	-0.12297493
70	0xbf81e058	-1.0146589
71	0xbecb4b5b	-0.3970593
72	0xbf20ecd1	-0.62861353
73	0xbda7d74f	-0.08195364
74	0xbf90f134	-1.1323609
75	0xbf1d8c0d	-0.61541826
76	0xbd5d3de4	-0.0540141
77	0xbf502619	-0.8130813
78	0xbf00fa92	-0.5038234
79	0xbf5f71ce	-0.8728303
80	0xbf638251	-0.8887072
81	0xbfda6656	-1.706248
82	0xbfeb3112	-1.837435
83	0xbf3d50ce	-0.73951423
84	0xbf76d6ae	-0.96421325
85	0x3ed1a887	0.4094889
86	0xbef254ce	-0.47330326
87	0xbe919ac2	-0.28438383
88	0xbc3e18fa	-0.011602635
89	0x3d95297d	0.07283304
90	0xbf173ed6	-0.59080255
91	0x3f0d7e1d	0.5527056
92	0xbf4291be	-0.76003635
93	0xbf38025a	-0.7187859
94	0xbf9e4fce	-1.2368104
95	0xbeffd98e	-0.4997067
96	0xbee99f51	-0.4562936
97	0xbf5cd295	-0.8625882
98	0xbf1c0f29	-0.6096063
99	0xbf56b322	-0.83867085
100	0xbefd0c7c	-0.49423587
101	0xbf6d1a2c	-0.9261806
102	0x3ed90d55	0.42392984
103	0xbf141d8c	-0.57857585
104	0x3f8679aa	1.0505879
105	0xbf1feeb7	-0.62473625
106	0xbf53e4ef	-0.827712
107	0xbfa76684	-1.307816
108	0xbf952c76	-1.1654193
109	0xbf025756	-0.50914514
110	0xbf43d0b3	-0.76490325
111	0xbef9c97e	-0.4878654
112	0xbf44fbc5	-0.7694667
113	0x3f733ac2	0.9501153
114	0xbf847752	-1.0348914
115	0xbe86ca70	-0.26326323
116	0xbf8ef41c	-1.1168246
117	0xbf8300b3	-1.0234588
118	0xbf801388	-1.000596
119	0xbf860283	-1.0469517
120	0xbf16b553	-0.5887043
121	0x3ea38543	0.31937608
122	0xbf66d495	-0.90168124
123	0xbdfb7d9f	-0.1227982
124	0x3d596185	0.053071517
125	0xbf91d08b	-1.1391767
126	0x3f0eadf3	0.55734175
127	0x3d17b40e	0.037036948
128	0xbf9b5b8e	-1.2137315
129	0xbf36ceeb	-0.7140948
130	0xc02ed620	-2.7318192
131	0xbf0988d9	-0.5372444
132	0xbdd067bf	-0.10176038
133	0xbe44a08a	-0.19201866
134	0xbf02a05c	-0.5102594
135	0xbf14d6e3	-0.5814039
136	0xbf0cd435	-0.550113
137	0xbeb71f86	-0.35766238
138	0xbe73c647	-0.23806106
139	0xbf9c2373	-1.2198318
140	0xbf04337a	-0.51641047
141	0xbf2be5e4	-0.6714766
142	0xbe9292de	-0.28627676
143	0xbe29fdb4	-0.16600686
144	0xbf9e3a4f	-1.2361544
145	0xbe73b630	-0.23799968
146	0xbf8acde3	-1.0844082
147	0xc0256462	-2.5842519
148	0xbeff80b3	-0.49902877
149	0xbee49384	-0.44643795
150	0xbf88b234	-1.0679383
151	0xbbb6e628	-0.005581636
152	0x3b05ac24	0.0020396793
153	0xbf47dea1	-0.7807408
154	0xbf8876d7	-1.0661267
155	0xbe9555f5	-0.29167143
156	0x3dd6146f	0.10453116
157	0x3b13a908	0.002253117
158	0xbe972ebb	-0.2952784
159	0xbe9b957d	-0.30387488
160	0xbe9af549	-0.30265263
161	0xbfee9d20	-1.8641701
162	0xbf88c018	-1.0683622
163	0xbe9819fb	-0.29707322
164	0xbef98d24	-0.48740494
165	0xbf9008b0	-1.1252651
166	0xbfe0d8c7	-1.7566155
167	0x3c0af4db	0.00848123
168	0xbf8788b4	-1.0588593
169	0xbfe2d6f0	-1.7721844
170	0xbe0bad08	-0.13640225
171	0xbebc6859	-0.3679836
172	0xbf89585a	-1.0730088
173	0xbf6a3ad0	-0.9149599
174	0xbc378ff9	-0.011203759
175	0xbf4f4ca3	-0.80976313
176	0x3ecc1619	0.3986061
177	0x3e8609e0	0.2617941
178	0x3edafcf6	0.4277112
179	0xbf114e83	-0.56760424
180	0xbf131bde	-0.57464397
181	0x3f193282	0.59842694
182	0xbccea746	-0.025226247
183	0xbf88a80e	-1.0676286
184	0xbceb0fc9	-0.02869405
185	0x3c44b7eb	0.01200674
186	0xbebdf9c0	-0.37104607
187	0xbfaf1ae0	-1.3680077
188	0xbf0b5305	-0.5442355
189	0xbfb0959f	-1.3795661
190	0x3e2c228e	0.16810057
191	0xbf1564bb	-0.5835683
192	0xbf978b57	-1.1839398
193	0xbf2cc54d	-0.6748856
194	0x3f61bf70	0.88182735
195	0xbf588400	-0.84576416
196	0xc0031bad	-2.0485642
197	0xbf2d1e62	-0.67624485
198	0xbf1cf063	-0.613043
199	0xbf69da27	-0.913485
200	0xbf7fd62a	-0.99936163
201	0xbe50379a	-0.2033371
202	0xbf826212	-1.0186179
203	0x3ec8ff38	0.39257216
204	0xbf992944	-1.1965718
205	0xbeb834c2	-0.3597775
206	0xbf96d757	-1.1784467
207	0xbf23ee75	-0.6403573
208	0x3e7f6724	0.24941689
209	0xbf0571ae	-0.52126586
210	0xbfdc6ca0	-1.722065
211	0xbf8b398b	-1.0876936
212	0x3eb4e199	0.35328367
213	0x3f4cffe6	0.8007797
214	0x3db0d2d3	0.086339615
215	0xbea49447	-0.32144377
216	0xbd6a3efb	-0.05718897
217	0xbf81e700	-1.0148621
218	0xbfc133bc	-1.5093913
219	0xbf9183f4	-1.1368394
220	0xbf924152	-1.1426184
221	0xbf82fa14	-1.0232568
222	0x3f1378fa	0.5760647
223	0xbf7cdb6a	-0.987723
224	0xbf834ec5	-1.0258414
225	0x3d96bce2	0.07360245
226	0x3efe9411	0.4972234
227	0x3e2b6834	0.16738969
228	0xbfbb8cbc	-1.4652324
229	0xbfb83d9c	-1.4393802
230	0xbf0ee5c4	-0.55819345
231	0xbfe6f376	-1.8043048
232	0x3becf5c2	0.007231445
233	0xbff0ab9f	-1.8802375
234	0xbd5acd14	-0.053418234
235	0xbfd167f7	-1.6359853
236	0xbce78530	-0.028261751
237	0xbfa07f31	-1.2538816
238	0xbe1f2bc3	-0.15544038
239	0xbfa4a0da	-1.2861588
240	0xbf56b834	-0.8387482
241	0xbeb50db5	-0.3536202
242	0x3f41767e	0.7557143
243	0xbd60c034	-0.0548708
244	0xbf3d65ce	-0.73983467
245	0x3ed0fe56	0.40819043
246	0xbfaa6115	-1.3310877
247	0xbe2cc31a	-0.168713
248	0xbf5923b2	-0.8482009
249	0xbff01c34	-1.8758607
250	0xbeb6c2aa	-0.35695392
251	0xbf5a6864	-0.8531554
252	0xbf861f44	-1.0478292
253	0xbdf56cbd	-0.11983631
254	0xbf870096	-1.0547054
255	0x3dfb9265	0.12283782

actor.4.weight f4 [12, 256]
0	0xbf23466e	-0.6377934
1	0xbeeb7f0d	-0.4599537
2	0x3e8fb6e9	0.28069237
3	0x3fad9694	1.3561578
4	0x3f41a465	0.7564147
5	0xbfd7e836	-1.686774
6	0xbc5fd65f	-0.01366195
7	0xbf48e8a9	-0.7848001
8	0xbfd75ce3	-1.6825222
9	0xbe94c487	-0.29056188
10	0xbd95c31b	-0.07312604
11	0xbe8fd203	-0.28089914
12	0x3e17bc0f	0.14817832
13	0x3fcc8fa2	1.5981333
14	0x3f4f79be	0.8104514
15	0xbd869bdc	-0.065726966
16	0x3d40a1e4	0.04702939
17	0xbf873f5f	-1.0566214
18	0x3f25c16d	0.6474827
19	0xbe6ce6c7	-0.2313491
20	0x3e270079	0.16308774
21	0xbef31fb4	-0.47485125
22	0x3cf18dbe	0.029486533
23	0xbe94b3b1	-0.29043344
24	0xbe5557d2	-0.20834282
25	0x3f2e506b	0.6809146
26	0x3f7a40f7	0.9775538
27	0xbe9c46ab	-0.30522665
28	0x3d7da84d	0.061928082
29	0x3fc0c88e	1.5061204
30	0xbe140731	-0.14455868
31	0x3f28fbed	0.6600941
32	0x3f5ac27a	0.85453
33	0x3e349b47	0.17637359
34	0x3f47349e	0.7781466
35	0x3e76d733	0.2410553
36	0xbf406ed3	-0.75169104
37	0x3e3b6cee	0.18303272
38	0x3facd044	1.3501058
39	0xbee37b4b	-0.44430003
40	0x3edb9a9e	0.428914
41	0xbd71c7df	-0.059028503
42	0xbd43b9c1	-0.04778457
43	0x3ecc8af4	0.39949763
44	0x3f62ef78	0.8864665
45	0xbe373199	-0.17890014
46	0x3f106ff9	0.56420857
47	0x3e2ef589	0.17085852
48	0xbf4b0f1c	-0.7931993
49	0x3df9619a	0.12176819
50	0xbe162d3e	-0.14665696
51	0x3b744a5d	0.003727577
52	0x3f793f29	0.97362
53	0x3e1cd4eb	0.15315597
54	0x3eccf352	0.4002939
55	0xbe8fc283	-0.28078088
56	0x3d820092	0.06347765
57	0x3ea90b63	0.330165
58	0x3faba8ac	1.341085
59	0x3f7f1579	0.9964214
60	0xbe992c13	-0.29916438
61	0xc00bc66b	-2.1839855
62	0x3f6a4c4d	0.91522676
63	0xbfb318d4	-1.3991952
64	0x3db45bd1	0.08806575
65	0x3dbb1f25	0.091368
66	0xbc314c5d	-0.010821429
67	0xbe33b813	-0.17550687
68	0x3e9f81e5	0.3115379
69	0x3e8a5763	0.27019796
70	0xbe1c3aa0	-0.15256739
71	0xbecb671d	-0.39727107
72	0x3f1627d4	0.5865452
73	0x3dcb4c9d	0.09926722
74	0xbf3456e8	-0.7044511
75	0xbe7c4fff	-0.24639891
76	0x3facee0e	1.3510149
77	0x3f0924a5	0.5357154
78	0xbe2e68c1	-0.17032148
79	0xbf6b71ac	-0.91970325
80	0x3f57d546	0.84309804
81	0x3ec1ca20	0.37849522
82	0xc0459bb0	-3.0876274
83	0xbd6049f8	-0.054758042
84	0x3eeb4b2c	0.4595579
85	0xbdee5b22	-0.11638476
86	0x3df102c8	0.117681086
87	0x3e9fc2c5	0.31203285
88	0xbcb90ca9	-0.022589045
89	0xbd2126d2	-0.039343663
90	0x3fca5dfe	1.5809934
91	0x3e23d915	0.16000779
92	0x3f32e9e9	0.6988817
93	0x3f5c64fb	0.86091584
94	0xbec7ef2b	-0.39049658
95	0xbe05f220	-0.13080645
96	0x3dcab918	0.09898585
97	0xbe63c487	-0.22242938
98	0xc040c863	-3.0122306
99	0x3dfceb14	0.12349525
100	0xbf8bea74	-1.0930924
101	0xbddce275	-0.10785381
102	0x3d881cae	0.06646095
103	0xbf1e2f52	-0.61790955
104	0x3f3f11f2	0.7463676
105	0x3f3b490c	0.73158336
106	0xbeceff8f	-0.4042935
107	0x3f892cda	1.0716813
108	0x3f570495	0.83991367
109	0x3d5f271b	0.054480653
110	0xbdacfca0	-0.08446622
111	0x3e5fa1c0	0.21839046
112	0xbe20b49b	-0.15693896
113	0x3e457a3e	0.19284913
114	0xbdb68486	-0.089119956
115	0xbd1c661e	-0.038183324
116	0x3f014496	0.5049528
117	0xbe2b309d	-0.16717763
118	0xbee0e9ae	-0.43928283
119	0xbf0818a0	-0.53162575
120	0xbe3c97aa	-0.1841723
121	0x3e1547bb	0.14578144
122	0x400e66a5	2.225015
123	0x3d82cb3f	0.06386422
124	0xbcb3ba97	-0.021939559
125	0xbef32e5d	-0.4749631
126	0x3da0e060	0.07855296
127	0x3e283a88	0.16428578
128	0x3b79c6a5	0.0038112786
129	0xbe08ee90	-0.13372254
130	0xbfaadb14	-1.3348107
131	0x3f9ff8b8	1.2497778
132	0xbf787da9	-0.9706674
133	0x3c9ca876	0.019123297
134	0x3f0f395d	0.55946904
135	0xbf54d576	-0.83138216
136	0x3c689ab2	0.0141970385
137	0xbdd0eea8	-0.1020177
138	0x3ec82692	0.39091927
139	0x3dcd070a	0.10011108
140	0xbf0ce84a	-0.55041945
141	0xbd33d955	-0.043908436
142	0xbf12d822	-0.5736104
143	0xbcc94c3b	-0.024572482
144	0x3d744d8c	0.059644267
145	0x3ee8c1e9	0.45460442
146	0xbd8d75c0	-0.06907225
147	0xbeb943f7	-0.36184666
148	0x3f679f4a	0.9047743
149	0x3e02fb7d	0.12791248
150	0x3fd61f90	1.6728382
151	0xbeeef2a5	-0.46669498
152	0xbe0b44ba	-0.13600436
153	0xbf864068	-1.0488405
154	0x3f089bd2	0.5336276
155	0xbd771dd4	-0.06033118
156	0xbfd30993	-1.6487297
157	0xbec649b7	-0.38728115
158	0x3f6b0afd	0.9181364
159	0x3fd5b037	1.6694402
160	0xbf067dd8	-0.5253577
161	0xbec34d63	-0.3814498
162	0x3edaba7d	0.42720404
163	0xbee98323	-0.45607862
164	0xbf0d7317	-0.5525374
165	0xbcb4afad	-0.022056425
166	0xbf2aeb62	-0.66765416
167	0x3eb7ade2	0.3587485
168	0xbe12c886	-0.14334306
169	0x3f30df2c	0.69090533
170	0x4004c02b	2.074229
171	0xbecdf9cb	-0.4022964
172	0xbcf42cd8	-0.02980654
173	0xbedf4869	-0.43609932
174	0xbdd0c591	-0.10193933
175	0xbf26ade4	-0.65109086
176	0x3db52028	0.08844024
177	0xbe9dd5e4	-0.30827248
178	0x3e8aa12c	0.2707609
179	0x3f15148c	0.5823448
180	0x3f396ad7	0.7242865
181	0x3dacd0a4	0.084382325
182	0x3da590b0	0.080842376
183	0xbf24dc90	-0.6439905
184	0xbdda5895	-0.10661427
185	0xbe6d7245	-0.23188122
186	0xbe59b944	-0.2126208
187	0x3ee1c8c0	0.44098473
188	0x3dbdcfba	0.09268136
189	0xbf53bba7	-0.8270821
190	0xbdee2de3	-0.11629846
191	0xbf8c565b	-1.0963854
192	0x3ef2fbad	0.47457638
193	0x3ef1b73a	0.47210103
194	0xbe0a56bd	-0.1350965
195	0xbf80e8f3	-1.007109
196	0xbee47f15	-0.44628206
197	0x3d187d3a	0.0372288
198	0xbb298ff0	-0.0025873147
199	0x3e595dc7	0.2122718
200	0x3eeab006	0.4583742
201	0x3f575dea	0.84127676
202	0x3c4fb6cc	0.0126778595
203	0x3cab5447	0.02091421
204	0x3f8733f1	1.0562726
205	0x3f3b8fa6	0.73266065
206	0xc006c1fa	-2.1055894
207	0xbed3966c	-0.413257
208	0x3eb99991	0.36249974
209	0x3fba116a	1.4536564
210	0x3e966abe	0.29378313
211	0x3cfd6660	0.030932605
212	0xbf3c8a44	-0.73648477
213	0x3c934b08	0.017980114
214	0xbd38831c	-0.04504691
215	0x3ff2af18	1.8959684
216	0x3db838ae	0.08995186
217	0x3f806cd9	1.0033218
218	0x3ea5fc0c	0.3241886
219	0xbeec428d	-0.46144524
220	0xbfb29403	-1.395142
221	0x3eaea35e	0.34109014
222	0x3dc8c887	0.098038726
223	0xbeb18e64	-0.34678948
224	0x3f1e074c	0.61729884
225	0x3e51b09b	0.20477526
226	0xbdda5c1c	-0.106621
227	0x3ee18121	0.4404383
228	0x3f5f6b1c	0.8727281
229	0xbef4c91b	-0.4780968
230	0x3f49f6eb	0.7889239
231	0xbf06105f	-0.5236873
232	0xbbdc2a1e	-0.006718888
233	0xbfd3ff81	-1.6562349
234	0xbdcce6df	-0.10004973
235	0xbf353b7c	-0.7079389
236	0x3fd1bc15	1.6385523
237	0x3ef549d4	0.4790789
238	0x3caabee6	0.02084298
239	0xbf8ebfc5	-1.1152273
240	0xbfa47cc7	-1.2850579
241	0xbf0a0691	-0.5391627
242	0x3edb76af	0.42863986
243	0xbeeccf17	-0.46251747
244	0x3e840773	0.25786933
245	0x3d24c39e	0.040225618
246	0xbf36c476	-0.71393526
247	0xbd956ceb	-0.07296165
248	0xbf0dfdee	-0.5546559
249	0x3f49c1d2	0.7881137
250	0xbf5e9990	-0.8695307
251	0xbec0dd34	-0.37668765
252	0xbf41e6d8	-0.75742865
253	0x3e1ae1a1	0.15125133
254	0x3f21bf54	0.6318257
255	0x3e0179ab	0.12644069

actor.4.bias f4 [12]
0	0xbe68bd29	-0.22728409
1	0x3f9bce13	1.2172264
2	0x3e5a9442	0.21345618
3	0x3eab7862	0.33490282
4	0x3f89a21e	1.0752599
5	0xbe95582f	-0.2916884
6	0xc08ea820	-4.458023
7	0xc05976c7	-3.3978746
8	0xc087c8cc	-4.2432613
9	0xc0883ec2	-4.257661
10	0xc066fa24	-3.6090174
11	0xc08fb6bd	-4.491057

q1.0.weight f4 [256, 23]
0	0x3f144456	0.5791677
1	0xc0d33887	-6.6006503
2	0x3f5a9a3d	0.853916
3	0x403e9f35	2.9784672
4	0xbf8ce537	-1.1007451
5	0x40805826	4.0107603
6	0x405f34f5	3.4876072
7	0x3db79746	0.089644
8	0x3f207a92	0.6268703
9	0xbf0c8638	-0.548923
10	0xbf02e6d2	-0.51133454
11	0x3ee092b9	0.4386194
12	0x3e20cf65	0.15704115
13	0xbd957c39	-0.07299084
14	0x3e504c22	0.20341542
15	0x3e2a54c6	0.16633901
16	0x3cf57aff	0.029965876
17	0x3eb9b362	0.3626967
18	0xbe88ee4f	-0.26744315
19	0xbe078a91	-0.13236453
20	0x3e267cda	0.16258565
21	0x3e737eda	0.23778859
22	0x3e100723	0.14065222
23	0xbea7f757	-0.32805893
24	0xbe10917e	-0.14118001
25	0x3ff834bc	1.9391093
26	0xbf0f952e	-0.56087005
27	0xbd9a0f3f	-0.07522439
28	0x401641c6	2.3477645
29	0x3fcb07ec	1.5861793
30	0x3f035b0a	0.5131079
31	0xbe63a9bd	-0.22232719
32	0x3fd72336	1.680762
33	0x3da6a0ee	0.08136164
34	0x3e0da248	0.13831437
35	0xbcc91d2b	-0.024550041
36	0x3db874c3	0.090066455
37	0xbdbc7e94	-0.0920383
38	0x3dd2d3f3	0.10294332
39	0xba9f62ae	-0.0012160146
40	0x3e542d74	0.20720464
41	0xbe550af3	-0.20804958
42	0x3e6b9fe3	0.2301021
43	0xbe9f1070	-0.31067228
44	0x3ddba470	0.10724723
45	0xbf006f78	-0.5017009
46	0x3e88c784	0.26714718
47	0x3ead6563	0.33866414
48	0x3e595720	0.21224642
49	0xbe3cf915	-0.18454392
50	0xbe5591e9	-0.20856442
51	0xbee9d82e	-0.45672745
52	0xbe22dccd	-0.15904541
53	0xbde772ce	-0.11301194
54	0x3f47d771	0.7806311
55	0xbd936c50	-0.07198393
56	0xbd24c0f7	-0.040223088
57	0x3c617044	0.013759676
58	0x3cfa7162	0.030571643
59	0xbb011836	-0.0019698269
60	0xbd34db52	-0.044154473
61	0x3c7557ce	0.014974548
62	0x3cca8b1c	0.024724536
63	0xbd10a722	-0.03531564
64	0x3c7fe9c2	0.015619697
65	0xbca20496	-0.019777577
66	0xbc9f6ee9	-0.019462066
67	0x3d5d1827	0.05397811
68	0xbc7ab1b2	-0.015301155
69	0xbf6f7039	-0.93530613
70	0xbfbf759c	-1.4957767
71	0x4106f44c	8.434643
72	0x4035d0c9	2.8408682
73	0xbed8d0e6	-0.42346877
74	0xc0171762	-2.3608022
75	0x3faa33bb	1.3297037
76	0x3f91ef41	1.140114
77	0x3ef580c1	0.47949794
78	0x3c8e4029	0.017364578
79	0xbf86233e	-1.0479505
80	0x3f4950c4	0.78638864
81	0x3d39bd09	0.045346294
82	0xbd6d78c1	-0.057976488
83	0x3e7de99e	0.24796149
84	0x3e3e9a8c	0.18613642
85	0x3df8edcb	0.121547304
86	0xbe3c6adf	-0.18400143
87	0xbe628c1f	-0.22123764
88	0x3ce1c5c2	0.027560119
89	0x3d3c8455	0.04602464
90	0x3f77e174	0.9682839
91	0x3ec7e811	0.3904424
92	0xbdb688cb	-0.0891281
93	0xc09f110d	-4.9708314
94	0xbff86a14	-1.9407372
95	0xbfca6fd4	-1.5815377
96	0xbf52c9d2	-0.82339203
97	0x40672121	3.611397
98	0x3f85312f	1.0405635
99	0xbe9055aa	-0.28190356
100	0x3f02b16c	0.51051974
101	0x3f8e3b3b	1.1111826
102	0x3d918323	0.071050905
103	0xbe599407	-0.21247874
104	0xbe25d8c5	-0.16195972
105	0xbca35d2e	-0.019941892
106	0x3d352ba1	0.04423106
107	0xbd9a24e2	-0.07526566
108	0x3b6b2c6e	0.0035884636
109	0xbe2d8576	-0.16945443
110	0x3eaa053a	0.33207113
111	0xbe2d6cd0	-0.1693604
112	0x3e7e6e7c	0.24846834
113	0xbdfc27b2	-0.12312259
114	0x3dd2f137	0.10299914
115	0xbdc3a50a	-0.09552963
116	0xbfdadb86	-1.7098243
117	0xc045b771	-3.0893214
118	0xbed0dd62	-0.40793902
119	0xbeceabc4	-0.40365422
120	0x4026ad2c	2.6043196
121	0x3e879a89	0.26485088
122	0x3f42c273	0.76077956
123	0xbee7b89b	-0.4525803
124	0xbe41ae48	-0.1891414
125	0xbdb7613b	-0.08954092
126	0x3ef01c2e	0.468965
127	0x3ea21bb5	0.31661764
128	0xbd64cb91	-0.0558582
129	0xbe9b1ba8	-0.30294538
130	0xbe20322e	-0.15644142
131	0xbe14aa62	-0.14518121
132	0xbdba8461	-0.091072805
133	0xbdbac046	-0.091187045
134	0xbe15c975	-0.14627631
135	0xbef20388	-0.4726832
136	0x3f1b5f90	0.6069269
137	0xbf83178b	-1.024156
138	0x3f128c84	0.5724566
139	0x3f982a10	1.1887836
140	0x3fa12894	1.2590508
141	0xc009bbc8	-2.1520863
142	0xbfdff4ee	-1.7496622
143	0xbe4c4016	-0.19946322
144	0x3f2c3f8b	0.6728446
145	0xbf0ede1c	-0.5580766
146	0xbec0241a	-0.37527543
147	0xbf0e7825	-0.55652076
148	0xbc595208	-0.013264187
149	0x3ed669ea	0.4187768
150	0xbd7f5c2c	-0.06234376
151	0xbdb5ca64	-0.088764936
152	0x3e93ef8a	0.2889369
153	0x3cd4bb1a	0.025968123
154	0xbe1f84ea	-0.15578046
155	0x3d85c452	0.06531586
156	0xbf1ae9aa	-0.60512793
157	0xbf01bbf1	-0.506774
158	0xbee0ab40	-0.43880653
159	0xbe2452b8	-0.1604718
160	0xbe9792af	-0.29604098
161	0xc00064ee	-2.0061603
162	0xc0229385	-2.5402539
163	0x4007699b	2.1158206
164	0xc002a7dc	-2.0414953
165	0xbfd55321	-1.6665994
166	0x3f33b0f8	0.7019191
167	0xc043128e	-3.0480075
168	0xbf342e77	-0.703834
169	0xbf9c2a9c	-1.2200503
170	0xbf9f9dc4	-1.2470021
171	0x3e16da33	0.14731674
172	0x3e667878	0.22506893
173	0xbe1c1377	-0.152418
174	0xbd20d25e	-0.03926312
175	0xbcf131e4	-0.029442735
176	0x3d90afed	0.07064805
177	0xbd45aacb	-0.048258584
178	0x3eb6f4ba	0.35733587
179	0xbe65b960	-0.22433996
180	0x3ee5e452	0.44900757
181	0xbeb4d040	-0.35315132
182	0xbf0ea7b3	-0.5572464
183	0xbef146b3	-0.47124252
184	0x3ee9d7df	0.4567251
185	0x400e863e	2.2269435
186	0xbffa8170	-1.9570751
187	0xbf294f13	-0.6613628
188	0x3fd176c2	1.6364367
189	0x3eb224f1	0.3479381
190	0xbee78e44	-0.45225728
191	0xbed354de	-0.41275686
192	0x3e57116d	0.21002741
193	0x3f79d7c8	0.9759488
194	0x3e66e1e0	0.22547102
195	0xbdf65807	-0.12028509
196	0xbde338f9	-0.11094851
197	0x3d6a737a	0.057239033
198	0x3c252458	0.010079466
199	0xbd6b4088	-0.05743459
200	0x3b9b7967	0.004744697
201	0x3d6337ce	0.05547314
202	0xbddd75c0	-0.10813475
203	0x3e2f8479	0.17140378
204	0x3d2cc4ed	0.04217999
205	0xbcc0a52f	-0.023516266
206	0xbc9a2229	-0.018815117
207	0xbdcb3e54	-0.099239975
208	0x3f8eb0f4	1.1147752
209	0xbf25afc4	-0.6472132
210	0x3db7dcf9	0.08977694
211	0x3efa07a1	0.48833945
212	0x3e4d4872	0.20047167
213	0xbc106d1b	-0.008815075
214	0x3e962a89	0.29329327
215	0x3eb678fe	0.35639185
216	0xbe1ba98c	-0.15201396
217	0xbe8b05e0	-0.2715292
218	0x3d7d728e	0.061876826
219	0xbdfe0c3b	-0.124046765
220	0x3c48daf3	0.012259233
221	0x3e2c7871	0.1684282
222	0xba92156a	-0.0011145298
223	0xbd347540	-0.04405713
224	0x3c7c523e	0.015400467
225	0x3d14862e	0.036260776
226	0x3c9e5613	0.019328153
227	0xbcb9d110	-0.022682697
228	0x3d1e565c	0.038656577
229	0xbdddd2b6	-0.108312055
230	0xbf84500b	-1.0336927
231	0xbd93aba1	-0.0721047
232	0xbf6700c4	-0.90235543
233	0xbe7e77ad	-0.2485034
234	0xc080a8b8	-4.0205956
235	0xc06409c0	-3.563095
236	0x3f9952df	1.1978415
237	0x3f8b5896	1.0886409
238	0xbfa21188	-1.26616
239	0xbf8e0066	-1.1093872
240	0xbe6b1d9f	-0.22960518
241	0x3ce9a11e	0.02851921
242	0x3cd0a1e1	0.025467815
243	0xbe2fed33	-0.17180328
244	0x3e7d726b	0.24750678
245	0x3e2bef90	0.16790605
246	0x3da12d19	0.0786993
247	0xbf0db5dc	-0.5535562
248	0xbde68989	-0.112567015
249	0x3db68529	0.08912117
250	0xbd163977	-0.036675896
251	0xbefb8f6b	-0.49132857
252	0x3f657d62	0.89644444
253	0xc0427883	-3.0386055
254	0xbf54af67	-0.8308014
255	0x41181509	9.505136

q1.0.bias f4 [256]
0	0xbfb0496c	-1.3772407
1	0x3fffdeb2	1.9989836
2	0x402b95bb	2.6810138
3	0xbfe3e0d3	-1.7802986
4	0xc02a5037	-2.661146
5	0x3f023d7e	0.5087508
6	0xbfae4a8b	-1.3616499
7	0xbfe79583	-1.8092502
8	0xc0537056	-3.3037314
9	0x40225ebc	2.5370321
10	0xbfd0a42d	-1.6300102
11	0x3fcde211	1.6084615
12	0xc0268ae8	-2.6022282
13	0xbf28b176	-0.65895784
14	0xbed8a98f	-0.42316863
15	0xbfb47b9d	-1.4100224
16	0xbee8aa54	-0.4544245
17	0xc04fa614	-3.2445116
18	0xbfbb4c15	-1.4632593
19	0xc01d26bf	-2.4554899
20	0x3fb0f927	1.3826035
21	0xbfb153d6	-1.385371
22	0xc0089ea3	-2.1346824
23	0xc04ab5ac	-3.1673384
24	0xc045f32f	-3.0929677
25	0x3f6af876	0.9178537
26	0xbfcbdf26	-1.5927474
27	0xbf81b81c	-1.0134311
28	0xbeeaddcd	-0.45872346
29	0xc0279a89	-2.618807
30	0xbf84ab74	-1.0364823
31	0x3fa09be7	1.2547578
32	0x404dde0c	3.2166777
33	0xbc4a36d6	-0.0123421755
34	0xc0150398	-2.3283443
35	0x3e36965c	0.17830795
36	0xc02d7bf6	-2.710691
37	0x3f02cdce	0.51095283
38	0xbed8a46d	-0.42312947
39	0x4002b31c	2.042182
40	0xbf4e76a7	-0.806498
41	0xbac90491	-0.0015336444
42	0xbf117521	-0.5681935
43	0x40384e47	2.8797777
44	0xc0334d02	-2.8015752
45	0xc011a6c3	-2.2758033
46	0x3fa77589	1.3082744
47	0xbff4bb50	-1.9119663
48	0xc01cec7e	-2.4519343
49	0xbf70f8b2	-0.9412948
50	0xbef94ad5	-0.48689905
51	0xc034cbea	-2.824946
52	0xbec355b0	-0.38151312
53	0xbf297e80	-0.6620865
54	0x3e0321de	0.12805888
55	0xc0029e75	-2.0409214
56	0xbff56e2e	-1.9174249
57	0xbf1b76b5	-0.6072801
58	0xbfb83b24	-1.4393048
59	0x3f938207	1.1524056
60	0x40a7870f	5.2352366
61	0xbf3c0ada	-0.7345406
62	0xbefb7165	-0.4910995
63	0xbf52552c	-0.8216121
64	0x3ec28e93	0.379994
65	0xc01405da	-2.3128572
66	0xbee9b8c2	-0.45648772
67	0xc06f89be	-3.742782
68	0x3f310a59	0.69156414
69	0x3e8b49fe	0.2720489
70	0x3f6d40fb	0.9267728
71	0x3f8f5be4	1.1199918
72	0xbfac0fa3	-1.3442272
73	0xbe057701	-0.13033678
74	0x3f81d5ba	1.0143349
75	0xbcb4fd4e	-0.022093441
76	0xbfa11830	-1.2585506
77	0xbfdfcf70	-1.748518
78	0x40120dad	2.2820847
79	0x3f814efc	1.0102229
80	0xbf9b0c76	-1.2113178
81	0xc02f8dba	-2.7430253
82	0xc0097dd0	-2.148304
83	0xbff843cd	-1.9395691
84	0x3e4109da	0.18851414
85	0xbf16ea70	-0.58951473
86	0x3f473a82	0.7782365
87	0x3f29c727	0.6631951
88	0xbd980798	-0.074233234
89	0xc0615b19	-3.5211852
90	0xc0217d8d	-2.523288
91	0x3ec3b04f	0.3822045
92	0x401a4a95	2.4108021
93	0xbfa8beda	-1.3183243
94	0xc0102045	-2.2519696
95	0xbfd55a02	-1.6668093
96	0x3f1b6e47	0.60715145
97	0x3e7d3423	0.2472692
98	0xbf8079d7	-1.0037183
99	0x3db4c8c7	0.08827358
100	0x3d168de5	0.036756415
101	0xbfc5bf33	-1.5448974
102	0x3f0535b3	0.52035064
103	0xbfb8de9f	-1.4442939
104	0x401ee51e	2.4827342
105	0xbfb5fe1f	-1.4218177
106	0x4028c809	2.6372092
107	0xbfcedb70	-1.6160717
108	0xc001c25c	-2.0274878
109	0xbfa73294	-1.306231
110	0x40242485	2.564729
111	0x3ee2635d	0.44216433
112	0xbf42d4bf	-0.76105875
113	0x401585ea	2.3362985
114	0xbf4d9e3a	-0.8031956
115	0xc013f535	-2.3118412
116	0xc027b093	-2.6201522
117	0xc080ada8	-4.0211983
118	0xc042c8e8	-3.0435123
119	0x3eebe610	0.4607396
120	0xbe3d62b7	-0.18494688
121	0x3e0c00b2	0.1367214
122	0xc03c79f5	-2.9449437
123	0xc05de00c	-3.4667997
124	0xbfb0e50f	-1.3819903
125	0x3ed088fc	0.4072951
126	0xc0493916	-3.1441092
127	0xc039493d	-2.895095
128	0xbdccf0f5	-0.100068964
129	0xbfd9075e	-1.6955373
130	0x3fe63ed8	1.7987928
131	0x404c84da	3.1956086
132	0x3fb4494e	1.4084871
133	0xc0380907	-2.875551
134	0xc039e622	-2.9046712
135	0x3d891b27	0.06694632
136	0x3ccd3915	0.025051633
137	0xbfe3c527	-1.7794541
138	0x3ef9011c	0.4863366
139	0xc00fa5d0	-2.2444954
140	0xc0058765	-2.0863888
141	0xbf98c573	-1.1935257
142	0xc00c20fe	-2.1895137
143	0x3f75cebc	0.96018577
144	0xbfd0005f	-1.6250113
145	0xbfdb485d	-1.7131459
146	0x3fd78945	1.6838766
147	0x40360365	2.8439572
148	0xc06cacd6	-3.698049
149	0x3fc1d812	1.5144064
150	0xbff9c3e4	-1.9512906
151	0xbfef06ee	-1.867399
152	0x3f78c29a	0.9717194
153	0xc00907e4	-2.1411066
154	0x3f5da859	0.86585003
155	0xbf81b591	-1.0133535
156	0xbfa44301	-1.2832948
157	0x3e8fcdc1	0.28086665
158	0xbfafe93c	-1.3743052
159	0xbfa30d31	-1.2738401
160	0xbf9100a3	-1.1328319
161	0xc00a67c0	-2.1625824
162	0xbe52576b	-0.2054116
163	0xbfaa83b3	-1.3321441
164	0xc021c8b2	-2.5278745
165	0x3f5052be	0.81376255
166	0xbf4b5d79	-0.794395
167	0xbff26a11	-1.8938619
168	0xbff44a15	-1.9085108
169	0xc0499018	-3.1494198
170	0xbec241d8	-0.3794086
171	0xc00e21ff	-2.220825
172	0x3f695112	0.9113933
173	0xbf4772bd	-0.7790945
174	0x3fe4ea0d	1.7883927
175	0xc025079a	-2.578589
176	0x3e80ec41	0.25180247
177	0xbf12a88c	-0.5728843
178	0x3fdf9464	1.746716
179	0xc00dd9e0	-2.216423
180	0xbe0bfe83	-0.13671307
181	0xbfbf9435	-1.4967104
182	0xc032b90f	-2.792545
183	0x3e8250c4	0.25452244
184	0xc0612ee6	-3.5184875
185	0xc026fbdb	-2.609122
186	0xbf3a6a65	-0.72818595
187	0x3ec7bc38	0.39010787
188	0x40013156	2.0186362
189	0x3e12297c	0.14273638
190	0xbeab869e	-0.33501142
191	0xc021ac29	-2.5261328
192	0xbfb0a689	-1.3800822
193	0xc024acbf	-2.5730436
194	0xc05f876c	-3.4926405
195	0xc0528c0c	-3.2897978
196	0x3fffb3ef	1.9976786
197	0xbfedb769	-1.8571597
198	0xbfc76fc5	-1.5580984
199	0xbfb9689d	-1.448505
200	0xbfc81791	-1.5632192
201	0xc002547a	-2.036406
202	0x3ff04e50	1.8773899
203	0x3facd270	1.350172
204	0xbf3e0af8	-0.74235487
205	0xbfb968c4	-1.4485097
206	0x3f824153	1.0176185
207	0xbfba71f0	-1.4566021
208	0xbfed21e1	-1.8525964
209	0xbf4c2fd1	-0.7976046
210	0xbfde2df3	-1.7357773
211	0xc0090963	-2.141198
212	0xbefdf819	-0.49603346
213	0xbf56e973	-0.83949965
214	0xc01e552e	-2.473949
215	0xbfe0929b	-1.754474
216	0x3f6fa8e5	0.9361709
217	0xc00af884	-2.1714182
218	0xbf0fca22	-0.56167805
219	0xbfce8127	-1.6133164
220	0xbfe10ca4	-1.7581983
221	0x3f359dc9	0.70943886
222	0xbeefa871	-0.46808198
223	0x3fd4eb91	1.6634389
224	0xbfd53fe5	-1.6660124
225	0xc00463ce	-2.0685916
226	0x401ae622	2.4202962
227	0xbffa24c1	-1.9542466
228	0xbf2cd65a	-0.67514575
229	0xbf72b0cb	-0.94801015
230	0x4041b519	3.0266783
231	0xc020f6b3	-2.5150573
232	0x3f01772b	0.5057246
233	0xc024242d	-2.564708
234	0xbf9b5696	-1.2135799
235	0x3fd5546f	1.6666392
236	0xbf8cd9e2	-1.1003993
237	0xbfd661ab	-1.6748556
238	0x3f508256	0.81448877
239	0x3eb534c9	0.35391834
240	0xbfa27473	-1.2691787
241	0xbffd0d7f	-1.9769744
242	0xc032845a	-2.789328
243	0xbfe1cd99	-1.7640868
244	0xc022c34c	-2.54317
245	0xbf8975d6	-1.0739086
246	0x3f09cfa9	0.5383249
247	0x40087a26	2.1324553
248	0xbff4277d	-1.9074551
249	0xbf681747	-0.9066052
250	0xc0092358	-2.1427822
251	0xbf6da153	-0.92824286
252	0xbd49931b	-0.049212556
253	0xbfbcebe1	-1.4759485
254	0x3d69e8a9	0.057106648
255	0x3f16d912	0.58924973
